…
average_loss: 100
iter_size: 2
I0605 14:38:00.595985 12087 solver.cpp:81] Creating training net from train_net file: models/pascal_voc/VGG16/faster_rcnn_end2end/train.prototxt
I0605 14:38:00.612438 12087 net.cpp:49] Initializing net from parameters: 
name: "VGG_ILSVRC_16_layers"
state {
  phase: TRAIN
}
layer {
  name: "input-data"
  type: "Python"
  top: "data"
  top: "im_info"
  top: "gt_boxes"
  top: "seg_mask_inds"
  top: "flipped"
  python_param {
    module: "roi_data_layer.layer"
    layer: "RoIDataLayer"
    param_str: "\'num_classes\': 2"
  }
}
layer {
  name: "conv1_1"
  type: "Convolution"
  bottom: "data"
  top: "conv1_1"
  param {
    lr_mult: 0
    decay_mult: 0
  }
  param {
    lr_mult: 0
    decay_mult: 0
  }
  convolution_param {
    num_output: 64
    pad: 1
    kernel_size: 3
  }
}
layer {
  name: "relu1_1"
  type: "ReLU"
  bottom: "conv1_1"
  top: "conv1_1"
}
layer {
  name: "conv1_2"
  type: "Convolution"
  bottom: "conv1_1"
  top: "conv1_2"
  param {
    lr_mult: 0
    decay_mult: 0
  }
  param {
    lr_mult: 0
    decay_mult: 0
  }
  convolution_param {
    num_output: 64
    pad: 1
    kernel_size: 3
  }
}
layer {
  name: "relu1_2"
  type: "ReLU"
  bottom: "conv1_2"
  top: "conv1_2"
}
layer {
  name: "pool1"
  type: "Pooling"
  bottom: "conv1_2"
  top: "pool1"
  pooling_param {
    pool: MAX
    kernel_size: 2
    stride: 2
  }
}
layer {
  name: "conv2_1"
  type: "Convolution"
  bottom: "pool1"
  top: "conv2_1"
  param {
    lr_mult: 0
    decay_mult: 0
  }
  param {
    lr_mult: 0
    decay_mult: 0
  }
  convolution_param {
    num_output: 128
    pad: 1
    kernel_size: 3
  }
}
layer {
  name: "relu2_1"
  type: "ReLU"
  bottom: "conv2_1"
  top: "conv2_1"
}
layer {
  name: "conv2_2"
  type: "Convolution"
  bottom: "conv2_1"
  top: "conv2_2"
  param {
    lr_mult: 0
    decay_mult: 0
  }
  param {
    lr_mult: 0
    decay_mult: 0
  }
  convolution_param {
    num_output: 128
    pad: 1
    kernel_size: 3
  }
}
layer {
  name: "relu2_2"
  type: "ReLU"
  bottom: "conv2_2"
  top: "conv2_2"
}
layer {
  name: "pool2"
  type: "Pooling"
  bottom: "conv2_2"
  top: "pool2"
  pooling_param {
    pool: MAX
    kernel_size: 2
    stride: 2
  }
}
layer {
  name: "conv3_1"
  type: "Convolution"
  bottom: "pool2"
  top: "conv3_1"
  param {
    lr_mult: 1
  }
  param {
    lr_mult: 2
  }
  convolution_param {
    num_output: 256
    pad: 1
    kernel_size: 3
  }
}
layer {
  name: "relu3_1"
  type: "ReLU"
  bottom: "conv3_1"
  top: "conv3_1"
}
layer {
  name: "conv3_2"
  type: "Convolution"
  bottom: "conv3_1"
  top: "conv3_2"
  param {
    lr_mult: 1
  }
  param {
    lr_mult: 2
  }
  convolution_param {
    num_output: 256
    pad: 1
    kernel_size: 3
  }
}
layer {
  name: "relu3_2"
  type: "ReLU"
  bottom: "conv3_2"
  top: "conv3_2"
}
layer {
  name: "conv3_3"
  type: "Convolution"
  bottom: "conv3_2"
  top: "conv3_3"
  param {
    lr_mult: 1
  }
  param {
    lr_mult: 2
  }
  convolution_param {
    num_output: 256
    pad: 1
    kernel_size: 3
  }
}
layer {
  name: "relu3_3"
  type: "ReLU"
  bottom: "conv3_3"
  top: "conv3_3"
}
layer {
  name: "pool3"
  type: "Pooling"
  bottom: "conv3_3"
  top: "pool3"
  pooling_param {
    pool: MAX
    kernel_size: 2
    stride: 2
  }
}
layer {
  name: "conv4_1"
  type: "Convolution"
  bottom: "pool3"
  top: "conv4_1"
  param {
    lr_mult: 1
  }
  param {
    lr_mult: 2
  }
  convolution_param {
    num_output: 512
    pad: 1
    kernel_size: 3
  }
}
layer {
  name: "relu4_1"
  type: "ReLU"
  bottom: "conv4_1"
  top: "conv4_1"
}
layer {
  name: "conv4_2"
  type: "Convolution"
  bottom: "conv4_1"
  top: "conv4_2"
  param {
    lr_mult: 1
  }
  param {
    lr_mult: 2
  }
  convolution_param {
    num_output: 512
    pad: 1
    kernel_size: 3
  }
}
layer {
  name: "relu4_2"
  type: "ReLU"
  bottom: "conv4_2"
  top: "conv4_2"
}
layer {
  name: "conv4_3"
  type: "Convolution"
  bottom: "conv4_2"
  top: "conv4_3"
  param {
    lr_mult: 1
  }
  param {
    lr_mult: 2
  }
  convolution_param {
    num_output: 512
    pad: 1
    kernel_size: 3
  }
}
layer {
  name: "relu4_3"
  type: "ReLU"
  bottom: "conv4_3"
  top: "conv4_3"
}
layer {
  name: "pool4"
  type: "Pooling"
  bottom: "conv4_3"
  top: "pool4"
  pooling_param {
    pool: MAX
    kernel_size: 2
    stride: 2
  }
}
layer {
  name: "conv5_1"
  type: "Convolution"
  bottom: "pool4"
  top: "conv5_1"
  param {
    lr_mult: 1
  }
  param {
    lr_mult: 2
  }
  convolution_param {
    num_output: 512
    pad: 1
    kernel_size: 3
  }
}
layer {
  name: "relu5_1"
  type: "ReLU"
  bottom: "conv5_1"
  top: "conv5_1"
}
layer {
  name: "conv5_2"
  type: "Convolution"
  bottom: "conv5_1"
  top: "conv5_2"
  param {
    lr_mult: 1
  }
  param {
    lr_mult: 2
  }
  convolution_param {
    num_output: 512
    pad: 1
    kernel_size: 3
  }
}
layer {
  name: "relu5_2"
  type: "ReLU"
  bottom: "conv5_2"
  top: "conv5_2"
}
layer {
  name: "conv5_3"
  type: "Convolution"
  bottom: "conv5_2"
  top: "conv5_3"
  param {
    lr_mult: 1
  }
  param {
    lr_mult: 2
  }
  convolution_param {
    num_output: 512
    pad: 1
    kernel_size: 3
  }
}
layer {
  name: "relu5_3"
  type: "ReLU"
  bottom: "conv5_3"
  top: "conv5_3"
}
layer {
  name: "rpn_conv/3x3"
  type: "Convolution"
  bottom: "conv5_3"
  top: "rpn/output"
  param {
    lr_mult: 1
  }
  param {
    lr_mult: 2
  }
  convolution_param {
    num_output: 512
    pad: 1
    kernel_size: 3
    stride: 1
    weight_filler {
      type: "gaussian"
      std: 0.01
    }
    bias_filler {
      type: "constant"
      value: 0
    }
  }
}
layer {
  name: "rpn_relu/3x3"
  type: "ReLU"
  bottom: "rpn/output"
  top: "rpn/output"
}
layer {
  name: "rpn_cls_score"
  type: "Convolution"
  bottom: "rpn/output"
  top: "rpn_cls_score"
  param {
    lr_mult: 1
  }
  param {
    lr_mult: 2
  }
  convolution_param {
    num_output: 30
    pad: 0
    kernel_size: 1
    stride: 1
    weight_filler {
      type: "gaussian"
      std: 0.01
    }
    bias_filler {
      type: "constant"
      value: 0
    }
  }
}
layer {
  name: "rpn_bbox_pred"
  type: "Convolution"
  bottom: "rpn/output"
  top: "rpn_bbox_pred"
  param {
    lr_mult: 1
  }
  param {
    lr_mult: 2
  }
  convolution_param {
    num_output: 60
    pad: 0
    kernel_size: 1
    stride: 1
    weight_filler {
      type: "gaussian"
      std: 0.01
    }
    bias_filler {
      type: "constant"
      value: 0
    }
  }
}
layer {
  name: "rpn_cls_score_reshape"
  type: "Reshape"
  bottom: "rpn_cls_score"
  top: "rpn_cls_score_reshape"
  reshape_param {
    shape {
      dim: 0
      dim: 2
      dim: -1
      dim: 0
    }
  }
}
layer {
  name: "rpn-data"
  type: "Python"
  bottom: "rpn_cls_score"
  bottom: "gt_boxes"
  bottom: "im_info"
  bottom: "data"
  top: "rpn_labels"
  top: "rpn_bbox_targets"
  top: "rpn_bbox_inside_weights"
  top: "rpn_bbox_outside_weights"
  python_param {
    module: "rpn.anchor_target_layer"
    layer: "AnchorTargetLayer"
    param_str: "\'feat_stride\': 16 \n\'scales\': !!python/tuple [2, 4, 8, 16, 32]"
  }
}
layer {
  name: "rpn_loss_cls"
  type: "SoftmaxWithLoss"
  bottom: "rpn_cls_score_reshape"
  bottom: "rpn_labels"
  top: "rpn_cls_loss"
  loss_weight: 1
  propagate_down: true
  propagate_down: false
  loss_param {
    ignore_label: -1
    normalize: true
  }
}
layer {
  name: "rpn_loss_bbox"
  type: "SmoothL1Loss"
  bottom: "rpn_bbox_pred"
  bottom: "rpn_bbox_targets"
  bottom: "rpn_bbox_inside_weights"
  bottom: "rpn_bbox_outside_weights"
  top: "rpn_loss_bbox"
  loss_weight: 1
  smooth_l1_loss_param {
    sigma: 3
  }
}
layer {
  name: "rpn_cls_prob"
  type: "Softmax"
  bottom: "rpn_cls_score_reshape"
  top: "rpn_cls_prob"
}
layer {
  name: "rpn_cls_prob_reshape"
  type: "Reshape"
  bottom: "rpn_cls_prob"
  top: "rpn_cls_prob_reshape"
  reshape_param {
    shape {
      dim: 0
      dim: 30
      dim: -1
      dim: 0
    }
  }
}
layer {
  name: "proposal"
  type: "Python"
  bottom: "rpn_cls_prob_reshape"
  bottom: "rpn_bbox_pred"
  bottom: "im_info"
  top: "rpn_rois"
  python_param {
    module: "rpn.proposal_layer"
    layer: "ProposalLayer"
    param_str: "\'feat_stride\': 16 \n\'scales\': !!python/tuple [2, 4, 8, 16, 32]"
  }
}
layer {
  name: "roi-data"
  type: "Python"
  bottom: "rpn_rois"
  bottom: "gt_boxes"
  bottom: "im_info"
  bottom: "seg_mask_inds"
  bottom: "flipped"
  top: "rois"
  top: "labels"
  top: "bbox_targets"
  top: "bbox_inside_weights"
  top: "bbox_outside_weights"
  top: "mask_targets"
  top: "rois_pos"
  top: "rois_attribute"
  python_param {
    module: "rpn.proposal_target_layer"
    layer: "ProposalTargetLayer"
    param_str: "\'num_classes\': 2"
  }
}
layer {
  name: "roi_pool5"
  type: "ROIAlignment"
  bottom: "conv5_3"
  bottom: "rois"
  top: "pool5"
  roi_alignment_param {
    pooled_h: 7
    pooled_w: 7
    spatial_scale: 0.0625
  }
}
layer {
  name: "fc6"
  type: "InnerProduct"
  bottom: "pool5"
  top: "fc6"
  param {
    lr_mult: 1
  }
  param {
    lr_mult: 2
  }
  inner_product_param {
    num_output: 4096
  }
}
layer {
  name: "relu6"
  type: "ReLU"
  bottom: "fc6"
  top: "fc6"
}
layer {
  name: "fc7"
  type: "InnerProduct"
  bottom: "fc6"
  top: "fc7"
  param {
    lr_mult: 1
  }
  param {
    lr_mult: 2
  }
  inner_product_param {
    num_output: 4096
  }
}
layer {
  name: "relu7"
  type: "ReLU"
  bottom: "fc7"
  top: "fc7"
}
layer {
  name: "cls_score"
  type: "InnerProduct"
  bottom: "fc7"
  top: "cls_score"
  param {
    lr_mult: 1
  }
  param {
    lr_mult: 2
  }
  inner_product_param {
    num_output: 2
    weight_filler {
      type: "gaussian"
      std: 0.01
    }
    bias_filler {
      type: "constant"
      value: 0
    }
  }
}
layer {
  name: "bbox_pred"
  type: "InnerProduct"
  bottom: "fc7"
  top: "bbox_pred"
  param {
    lr_mult: 1
  }
  param {
    lr_mult: 2
  }
  inner_product_param {
    num_output: 8
    weight_filler {
      type: "gaussian"
      std: 0.001
    }
    bias_filler {
      type: "constant"
      value: 0
    }
  }
}
layer {
  name: "loss_cls"
  type: "SoftmaxWithLoss"
  bottom: "cls_score"
  bottom: "labels"
  top: "loss_cls"
  loss_weight: 3
  propagate_down: true
  propagate_down: false
}
layer {
  name: "loss_bbox"
  type: "SmoothL1Loss"
  bottom: "bbox_pred"
  bottom: "bbox_targets"
  bottom: "bbox_inside_weights"
  bottom: "bbox_outside_weights"
  top: "loss_bbox"
  loss_weight: 2
}
layer {
  name: "roi_pool5_2"
  type: "ROIAlignment"
  bottom: "conv5_3"
  bottom: "rois_pos"
  top: "pool5_2"
  roi_alignment_param {
    pooled_h: 7
    pooled_w: 7
    spatial_scale: 0.0625
  }
}
layer {
  name: "pool5_2_conv"
  type: "Convolution"
  bottom: "pool5_2"
  top: "pool5_2_conv"
  param {
    lr_mult: 1
    decay_mult: 1
  }
  param {
    lr_mult: 2
    decay_mult: 0
  }
  convolution_param {
    num_output: 512
    pad: 0
    kernel_size: 1
    weight_filler {
      type: "gaussian"
      std: 0.01
    }
    bias_filler {
      type: "constant"
      value: 0
    }
  }
}
layer {
  name: "pool5_2_conv_relu"
  type: "ReLU"
  bottom: "pool5_2_conv"
  top: "pool5_2_conv_relu"
}
layer {
  name: "pool5_2_conv2"
  type: "Convolution"
  bottom: "pool5_2_conv_relu"
  top: "pool5_2_conv2"
  param {
    lr_mult: 1
    decay_mult: 1
  }
  param {
    lr_mult: 2
    decay_mult: 0
  }
  convolution_param {
    num_output: 512
    pad: 1
    kernel_size: 3
    stride: 1
    weight_filler {
      type: "gaussian"
      std: 0.01
    }
    bias_filler {
      type: "constant"
      value: 0
    }
  }
}
layer {
  name: "pool5_2_conv2_relu"
  type: "ReLU"
  bottom: "pool5_2_conv2"
  top: "pool5_2_conv2_relu"
}
layer {
  name: "mask_deconv1"
  type: "Deconvolution"
  bottom: "pool5_2_conv2_relu"
  top: "mask_deconv1"
  param {
    lr_mult: 1
    decay_mult: 1
  }
  param {
    lr_mult: 2
    decay_mult: 0
  }
  convolution_param {
    num_output: 256
    pad: 1
    kernel_size: 8
    group: 256
    stride: 4
    weight_filler {
      type: "bilinear"
    }
  }
}
layer {
  name: "pool5_2_conv3"
  type: "Convolution"
  bottom: "mask_deconv1"
  top: "pool5_2_conv3"
  param {
    lr_mult: 1
    decay_mult: 1
  }
  param {
    lr_mult: 2
    decay_mult: 0
  }
  convolution_param {
    num_output: 512
    pad: 1
    kernel_size: 3
    stride: 1
    weight_filler {
      type: "gaussian"
      std: 0.01
    }
    bias_filler {
      type: "constant"
      value: 0
    }
  }
}
layer {
  name: "pool5_2_conv3_relu"
  type: "ReLU"
  bottom: "pool5_2_conv3"
  top: "pool5_2_conv3_relu"
}
layer {
  name: "pool5_2_conv4"
  type: "Convolution"
  bottom: "pool5_2_conv3_relu"
  top: "pool5_2_conv4"
  param {
    lr_mult: 1
    decay_mult: 1
  }
  param {
    lr_mult: 2
    decay_mult: 0
  }
  convolution_param {
    num_output: 512
    pad: 1
    kernel_size: 3
    stride: 1
    weight_filler {
      type: "gaussian"
      std: 0.01
    }
    bias_filler {
      type: "constant"
      value: 0
    }
  }
}
layer {
  name: "pool5_2_conv4_relu"
  type: "ReLU"
  bottom: "pool5_2_conv4"
  top: "pool5_2_conv4_relu"
}
layer {
  name: "query_conv"
  type: "Convolution"
  bottom: "pool5_2_conv4_relu"
  top: "query_conv"
  param {
    lr_mult: 1
    decay_mult: 1
  }
  param {
    lr_mult: 2
    decay_mult: 0
  }
  convolution_param {
    num_output: 64
    pad: 0
    kernel_size: 1
    stride: 1
    weight_filler {
      type: "gaussian"
      std: 0.01
    }
    bias_filler {
      type: "constant"
      value: 0
    }
  }
}
layer {
  name: "key_conv"
  type: "Convolution"
  bottom: "pool5_2_conv4_relu"
  top: "key_conv"
  param {
    lr_mult: 1
    decay_mult: 1
  }
  param {
    lr_mult: 2
    decay_mult: 0
  }
  convolution_param {
    num_output: 64
    pad: 0
    kernel_size: 1
    stride: 1
    weight_filler {
      type: "gaussian"
      std: 0.01
    }
    bias_filler {
      type: "constant"
      value: 0
    }
  }
}
layer {
  name: "value_conv"
  type: "Convolution"
  bottom: "pool5_2_conv4_relu"
  top: "value_conv"
  param {
    lr_mult: 1
    decay_mult: 1
  }
  param {
    lr_mult: 2
    decay_mult: 0
  }
  convolution_param {
    num_output: 512
    pad: 0
    kernel_size: 1
    stride: 1
    weight_filler {
      type: "gaussian"
      std: 0.01
    }
    bias_filler {
      type: "constant"
      value: 0
    }
  }
}
layer {
  name: "query_conv_reshape"
  type: "Reshape"
  bottom: "query_conv"
  top: "query_conv_reshape"
  reshape_param {
    shape {
      dim: -1
      dim: 64
      dim: 900
      dim: 1
    }
  }
}
layer {
  name: "key_conv_reshape"
  type: "Reshape"
  bottom: "key_conv"
  top: "key_conv_reshape"
  reshape_param {
    shape {
      dim: -1
      dim: 64
      dim: 900
      dim: 1
    }
  }
}
layer {
  name: "value_conv_reshape"
  type: "Reshape"
  bottom: "value_conv"
  top: "value_conv_reshape"
  reshape_param {
    shape {
      dim: -1
      dim: 512
      dim: 900
      dim: 1
    }
  }
}
layer {
  name: "query_conv_reshape_perm"
  type: "Permute"
  bottom: "query_conv_reshape"
  top: "query_conv_reshape_perm"
  permute_param {
    order: 0
    order: 3
    order: 2
    order: 1
  }
}
layer {
  name: "key_conv_reshape_perm"
  type: "Permute"
  bottom: "key_conv_reshape"
  top: "key_conv_reshape_perm"
  permute_param {
    order: 0
    order: 3
    order: 1
    order: 2
  }
}
layer {
  name: "energy"
  type: "MatrixMultiplication"
  bottom: "query_conv_reshape_perm"
  bottom: "key_conv_reshape_perm"
  top: "energy"
}
layer {
  name: "attention"
  type: "Softmax"
  bottom: "energy"
  top: "attention"
  softmax_param {
    axis: 3
  }
}
layer {
  name: "value_conv_reshape_perm"
  type: "Permute"
  bottom: "value_conv_reshape"
  top: "value_conv_reshape_perm"
  permute_param {
    order: 0
    order: 3
    order: 1
    order: 2
  }
}
layer {
  name: "attention_perm"
  type: "Permute"
  bottom: "attention"
  top: "attention_perm"
  permute_param {
    order: 0
    order: 1
    order: 2
    order: 3
  }
}
layer {
  name: "out"
  type: "MatrixMultiplication"
  bottom: "value_conv_reshape_perm"
  bottom: "attention_perm"
  top: "out"
}
layer {
  name: "out_reshape"
  type: "Reshape"
  bottom: "out"
  top: "out_reshape"
  reshape_param {
    shape {
      dim: -1
      dim: 512
      dim: 30
      dim: 30
    }
  }
}
layer {
  name: "out_reshape_scale"
  type: "Scale"
  bottom: "out_reshape"
  top: "out_reshape_scale"
  param {
    name: "scale_conv1_1"
    lr_mult: 1
  }
  scale_param {
    bias_term: false
  }
}
layer {
  name: "out_x"
  type: "Eltwise"
  bottom: "out_reshape_scale"
  bottom: "pool5_2_conv4_relu"
  top: "out_x"
  eltwise_param {
    operation: SUM
  }
}
layer {
  name: "query_conv_reshape_ch"
  type: "Reshape"
  bottom: "pool5_2_conv4_relu"
  top: "query_conv_reshape_ch"
  reshape_param {
    shape {
      dim: 1
      dim: 512
      dim: -1
      dim: 1
    }
  }
}
layer {
  name: "key_conv_reshape_ch"
  type: "Reshape"
  bottom: "pool5_2_conv4_relu"
  top: "key_conv_reshape_ch"
  reshape_param {
    shape {
      dim: 1
      dim: 512
      dim: -1
      dim: 1
    }
  }
}
layer {
  name: "value_conv_reshape_ch"
  type: "Reshape"
  bottom: "pool5_2_conv4_relu"
  top: "value_conv_reshape_ch"
  reshape_param {
    shape {
      dim: 1
      dim: 512
      dim: -1
      dim: 1
    }
  }
}
layer {
  name: "query_conv_reshape_perm_ch"
  type: "Permute"
  bottom: "query_conv_reshape_ch"
  top: "query_conv_reshape_perm_ch"
  permute_param {
    order: 0
    order: 3
    order: 1
    order: 2
  }
}
layer {
  name: "key_conv_reshape_perm_ch"
  type: "Permute"
  bottom: "key_conv_reshape_ch"
  top: "key_conv_reshape_perm_ch"
  permute_param {
    order: 0
    order: 3
    order: 2
    order: 1
  }
}
layer {
  name: "energy_ch"
  type: "MatrixMultiplication"
  bottom: "query_conv_reshape_perm_ch"
  bottom: "key_conv_reshape_perm_ch"
  top: "energy_ch"
}
layer {
  name: "energy_ch_pool"
  type: "Pooling"
  bottom: "energy_ch"
  top: "energy_ch_pool"
  pooling_param {
    pool: MAX
    kernel_h: 1
    kernel_w: 512
    stride_h: 1
    stride_w: 512
  }
}
layer {
  name: "energy_ch_max"
  type: "Tile"
  bottom: "energy_ch_pool"
  top: "energy_ch_max"
  tile_param {
    axis: 3
    tiles: 512
  }
}
layer {
  name: "energy_ch_minus"
  type: "Power"
  bottom: "energy_ch"
  top: "energy_ch_minus"
  power_param {
    power: 1
    scale: -1
    shift: 0
  }
}
layer {
  name: "energy_new"
  type: "Eltwise"
  bottom: "energy_ch_max"
  bottom: "energy_ch_minus"
  top: "energy_new"
  eltwise_param {
    operation: SUM
  }
}
layer {
  name: "attention_ch"
  type: "Softmax"
  bottom: "energy_new"
  top: "attention_ch"
  softmax_param {
    axis: 3
  }
}
layer {
  name: "value_conv_reshape_ch_perm"
  type: "Permute"
  bottom: "value_conv_reshape_ch"
  top: "value_conv_reshape_ch_perm"
  permute_param {
    order: 0
    order: 3
    order: 1
    order: 2
  }
}
layer {
  name: "attention_ch_perm"
  type: "Permute"
  bottom: "attention_ch"
  top: "attention_ch_perm"
  permute_param {
    order: 0
    order: 1
    order: 2
    order: 3
  }
}
layer {
  name: "out_ch"
  type: "MatrixMultiplication"
  bottom: "attention_ch_perm"
  bottom: "value_conv_reshape_ch_perm"
  top: "out_ch"
}
layer {
  name: "out_ch_reshape"
  type: "Reshape"
  bottom: "out_ch"
  top: "out_ch_reshape"
  reshape_param {
    shape {
      dim: -1
      dim: 512
      dim: 30
      dim: 30
    }
  }
}
layer {
  name: "out_ch_reshape_scale"
  type: "Scale"
  bottom: "out_ch_reshape"
  top: "out_ch_reshape_scale"
  param {
    name: "scale_conv1_1"
    lr_mult: 1
  }
  scale_param {
    bias_term: false
  }
}
layer {
  name: "out_ch_x"
  type: "Eltwise"
  bottom: "out_ch_reshape_scale"
  bottom: "pool5_2_conv4_relu"
  top: "out_ch_x"
  eltwise_param {
    operation: SUM
  }
}
layer {
  name: "out_conv_ch_x"
  type: "Convolution"
  bottom: "out_ch_x"
  top: "out_conv_ch_x"
  param {
    lr_mult: 1
    decay_mult: 1
  }
  param {
    lr_mult: 2
    decay_mult: 0
  }
  convolution_param {
    num_output: 512
    pad: 0
    kernel_size: 1
    weight_filler {
      type: "gaussian"
      std: 0.01
    }
    bias_filler {
      type: "constant"
      value: 0
    }
  }
}
layer {
  name: "out_conv_x"
  type: "Convolution"
  bottom: "out_x"
  top: "out_conv_x"
  param {
    lr_mult: 1
    decay_mult: 1
  }
  param {
    lr_mult: 2
    decay_mult: 0
  }
  convolution_param {
    num_output: 512
    pad: 0
    kernel_size: 1
    weight_filler {
      type: "gaussian"
      std: 0.01
    }
    bias_filler {
      type: "constant"
      value: 0
    }
  }
}
layer {
  name: "out_x_sum"
  type: "Eltwise"
  bottom: "out_conv_x"
  bottom: "out_conv_ch_x"
  top: "out_x_sum"
  eltwise_param {
    operation: SUM
  }
}
layer {
  name: "mask_deconv2"
  type: "Deconvolution"
  bottom: "out_x_sum"
  top: "mask_deconv2"
  param {
    lr_mult: 1
    decay_mult: 1
  }
  param {
    lr_mult: 2
    decay_mult: 0
  }
  convolution_param {
    num_output: 256
    pad: 1
    kernel_size: 8
    group: 256
    stride: 4
    weight_filler {
      type: "bilinear"
    }
  }
}
layer {
  name: "pool5_2_conv5"
  type: "Convolution"
  bottom: "mask_deconv2"
  top: "pool5_2_conv5"
  param {
    lr_mult: 1
    decay_mult: 1
  }
  param {
    lr_mult: 2
    decay_mult: 0
  }
  convolution_param {
    num_output: 512
    pad: 1
    kernel_size: 3
    stride: 1
    weight_filler {
      type: "gaussian"
      std: 0.01
    }
    bias_filler {
      type: "constant"
      value: 0
    }
  }
}
layer {
  name: "pool5_2_conv5_relu"
  type: "ReLU"
  bottom: "pool5_2_conv5"
  top: "pool5_2_conv5_relu"
}
layer {
  name: "pool5_2_conv6"
  type: "Convolution"
  bottom: "pool5_2_conv5_relu"
  top: "pool5_2_conv6"
  param {
    lr_mult: 1
    decay_mult: 1
  }
  param {
    lr_mult: 2
    decay_mult: 0
  }
  convolution_param {
    num_output: 512
    pad: 1
    kernel_size: 3
    stride: 1
    weight_filler {
      type: "gaussian"
      std: 0.01
    }
    bias_filler {
      type: "constant"
      value: 0
    }
  }
}
layer {
  name: "pool5_2_conv6_relu"
  type: "ReLU"
  bottom: "pool5_2_conv6"
  top: "pool5_2_conv6_relu"
}
layer {
  name: "mask_deconv3"
  type: "Deconvolution"
  bottom: "pool5_2_conv6_relu"
  top: "mask_deconv3"
  param {
    lr_mult: 1
    decay_mult: 1
  }
  param {
    lr_mult: 2
    decay_mult: 0
  }
  convolution_param {
    num_output: 256
    pad: 1
    kernel_size: 4
    group: 256
    stride: 2
    weight_filler {
      type: "bilinear"
    }
  }
}
layer {
  name: "mask_score"
  type: "Convolution"
  bottom: "mask_deconv3"
  top: "mask_score"
  param {
    lr_mult: 1
    decay_mult: 1
  }
  param {
    lr_mult: 2
    decay_mult: 0
  }
  convolution_param {
    num_output: 8
    pad: 0
    kernel_size: 1
    weight_filler {
      type: "gaussian"
      std: 0.01
    }
    bias_filler {
      type: "constant"
      value: 0
    }
  }
}
layer {
  name: "loss_mask"
  type: "SoftmaxWithLoss"
  bottom: "mask_score"
  bottom: "mask_targets"
  top: "loss_mask"
  loss_weight: 3
  propagate_down: true
  propagate_down: false
  loss_param {
    ignore_label: -1
    normalize: true
  }
}
I0605 14:38:00.612751 12087 layer_factory.hpp:77] Creating layer input-data
I0605 14:38:00.668790 12087 net.cpp:106] Creating Layer input-data
I0605 14:38:00.668807 12087 net.cpp:411] input-data -> data
I0605 14:38:00.668814 12087 net.cpp:411] input-data -> im_info
I0605 14:38:00.668819 12087 net.cpp:411] input-data -> gt_boxes
I0605 14:38:00.668823 12087 net.cpp:411] input-data -> seg_mask_inds
I0605 14:38:00.668826 12087 net.cpp:411] input-data -> flipped
RoiDataLayer: name_to_top: {'gt_boxes': 2, 'data': 0, 'seg_mask_inds': 3, 'im_info': 1, 'flipped': 4}
I0605 14:38:00.723366 12087 net.cpp:150] Setting up input-data
I0605 14:38:00.723384 12087 net.cpp:157] Top shape: 1 3 600 1000 (1800000)
I0605 14:38:00.723390 12087 net.cpp:157] Top shape: 1 3 (3)
I0605 14:38:00.723394 12087 net.cpp:157] Top shape: 1 4 (4)
I0605 14:38:00.723402 12087 net.cpp:157] Top shape: 1 2 (2)
I0605 14:38:00.723405 12087 net.cpp:157] Top shape: 1 1 (1)
I0605 14:38:00.723410 12087 net.cpp:165] Memory required for data: 7200040
I0605 14:38:00.723418 12087 layer_factory.hpp:77] Creating layer data_input-data_0_split
I0605 14:38:00.723435 12087 net.cpp:106] Creating Layer data_input-data_0_split
I0605 14:38:00.723440 12087 net.cpp:454] data_input-data_0_split <- data
I0605 14:38:00.723448 12087 net.cpp:411] data_input-data_0_split -> data_input-data_0_split_0
I0605 14:38:00.723456 12087 net.cpp:411] data_input-data_0_split -> data_input-data_0_split_1
I0605 14:38:00.723489 12087 net.cpp:150] Setting up data_input-data_0_split
I0605 14:38:00.723497 12087 net.cpp:157] Top shape: 1 3 600 1000 (1800000)
I0605 14:38:00.723505 12087 net.cpp:157] Top shape: 1 3 600 1000 (1800000)
I0605 14:38:00.723508 12087 net.cpp:165] Memory required for data: 21600040
I0605 14:38:00.723515 12087 layer_factory.hpp:77] Creating layer im_info_input-data_1_split
I0605 14:38:00.723527 12087 net.cpp:106] Creating Layer im_info_input-data_1_split
I0605 14:38:00.723533 12087 net.cpp:454] im_info_input-data_1_split <- im_info
I0605 14:38:00.723539 12087 net.cpp:411] im_info_input-data_1_split -> im_info_input-data_1_split_0
I0605 14:38:00.723547 12087 net.cpp:411] im_info_input-data_1_split -> im_info_input-data_1_split_1
I0605 14:38:00.723557 12087 net.cpp:411] im_info_input-data_1_split -> im_info_input-data_1_split_2
I0605 14:38:00.723598 12087 net.cpp:150] Setting up im_info_input-data_1_split
I0605 14:38:00.723603 12087 net.cpp:157] Top shape: 1 3 (3)
I0605 14:38:00.723606 12087 net.cpp:157] Top shape: 1 3 (3)
I0605 14:38:00.723611 12087 net.cpp:157] Top shape: 1 3 (3)
I0605 14:38:00.723614 12087 net.cpp:165] Memory required for data: 21600076
I0605 14:38:00.723620 12087 layer_factory.hpp:77] Creating layer gt_boxes_input-data_2_split
I0605 14:38:00.723626 12087 net.cpp:106] Creating Layer gt_boxes_input-data_2_split
I0605 14:38:00.723632 12087 net.cpp:454] gt_boxes_input-data_2_split <- gt_boxes
I0605 14:38:00.723640 12087 net.cpp:411] gt_boxes_input-data_2_split -> gt_boxes_input-data_2_split_0
I0605 14:38:00.723647 12087 net.cpp:411] gt_boxes_input-data_2_split -> gt_boxes_input-data_2_split_1
I0605 14:38:00.723678 12087 net.cpp:150] Setting up gt_boxes_input-data_2_split
I0605 14:38:00.723685 12087 net.cpp:157] Top shape: 1 4 (4)
I0605 14:38:00.723687 12087 net.cpp:157] Top shape: 1 4 (4)
I0605 14:38:00.723690 12087 net.cpp:165] Memory required for data: 21600108
I0605 14:38:00.723695 12087 layer_factory.hpp:77] Creating layer conv1_1
I0605 14:38:00.723708 12087 net.cpp:106] Creating Layer conv1_1
I0605 14:38:00.723713 12087 net.cpp:454] conv1_1 <- data_input-data_0_split_0
I0605 14:38:00.723721 12087 net.cpp:411] conv1_1 -> conv1_1
I0605 14:38:00.935798 12087 net.cpp:150] Setting up conv1_1
I0605 14:38:00.935817 12087 net.cpp:157] Top shape: 1 64 600 1000 (38400000)
I0605 14:38:00.935820 12087 net.cpp:165] Memory required for data: 175200108
I0605 14:38:00.935832 12087 layer_factory.hpp:77] Creating layer relu1_1
I0605 14:38:00.935840 12087 net.cpp:106] Creating Layer relu1_1
I0605 14:38:00.935844 12087 net.cpp:454] relu1_1 <- conv1_1
I0605 14:38:00.935849 12087 net.cpp:397] relu1_1 -> conv1_1 (in-place)
I0605 14:38:00.935989 12087 net.cpp:150] Setting up relu1_1
I0605 14:38:00.935997 12087 net.cpp:157] Top shape: 1 64 600 1000 (38400000)
I0605 14:38:00.935999 12087 net.cpp:165] Memory required for data: 328800108
I0605 14:38:00.936002 12087 layer_factory.hpp:77] Creating layer conv1_2
I0605 14:38:00.936009 12087 net.cpp:106] Creating Layer conv1_2
I0605 14:38:00.936012 12087 net.cpp:454] conv1_2 <- conv1_1
I0605 14:38:00.936026 12087 net.cpp:411] conv1_2 -> conv1_2
I0605 14:38:00.938448 12087 net.cpp:150] Setting up conv1_2
I0605 14:38:00.938474 12087 net.cpp:157] Top shape: 1 64 600 1000 (38400000)
I0605 14:38:00.938477 12087 net.cpp:165] Memory required for data: 482400108
I0605 14:38:00.938488 12087 layer_factory.hpp:77] Creating layer relu1_2
I0605 14:38:00.938495 12087 net.cpp:106] Creating Layer relu1_2
I0605 14:38:00.938503 12087 net.cpp:454] relu1_2 <- conv1_2
I0605 14:38:00.938511 12087 net.cpp:397] relu1_2 -> conv1_2 (in-place)
I0605 14:38:00.938642 12087 net.cpp:150] Setting up relu1_2
I0605 14:38:00.938648 12087 net.cpp:157] Top shape: 1 64 600 1000 (38400000)
I0605 14:38:00.938660 12087 net.cpp:165] Memory required for data: 636000108
I0605 14:38:00.938663 12087 layer_factory.hpp:77] Creating layer pool1
I0605 14:38:00.938670 12087 net.cpp:106] Creating Layer pool1
I0605 14:38:00.938674 12087 net.cpp:454] pool1 <- conv1_2
I0605 14:38:00.938683 12087 net.cpp:411] pool1 -> pool1
I0605 14:38:00.938740 12087 net.cpp:150] Setting up pool1
I0605 14:38:00.938750 12087 net.cpp:157] Top shape: 1 64 300 500 (9600000)
I0605 14:38:00.938762 12087 net.cpp:165] Memory required for data: 674400108
I0605 14:38:00.938766 12087 layer_factory.hpp:77] Creating layer conv2_1
I0605 14:38:00.938774 12087 net.cpp:106] Creating Layer conv2_1
I0605 14:38:00.938781 12087 net.cpp:454] conv2_1 <- pool1
I0605 14:38:00.938787 12087 net.cpp:411] conv2_1 -> conv2_1
I0605 14:38:00.940639 12087 net.cpp:150] Setting up conv2_1
I0605 14:38:00.940659 12087 net.cpp:157] Top shape: 1 128 300 500 (19200000)
I0605 14:38:00.940660 12087 net.cpp:165] Memory required for data: 751200108
I0605 14:38:00.940667 12087 layer_factory.hpp:77] Creating layer relu2_1
I0605 14:38:00.940675 12087 net.cpp:106] Creating Layer relu2_1
I0605 14:38:00.940680 12087 net.cpp:454] relu2_1 <- conv2_1
I0605 14:38:00.940685 12087 net.cpp:397] relu2_1 -> conv2_1 (in-place)
I0605 14:38:00.941149 12087 net.cpp:150] Setting up relu2_1
I0605 14:38:00.941156 12087 net.cpp:157] Top shape: 1 128 300 500 (19200000)
I0605 14:38:00.941159 12087 net.cpp:165] Memory required for data: 828000108
I0605 14:38:00.941161 12087 layer_factory.hpp:77] Creating layer conv2_2
I0605 14:38:00.941167 12087 net.cpp:106] Creating Layer conv2_2
I0605 14:38:00.941170 12087 net.cpp:454] conv2_2 <- conv2_1
I0605 14:38:00.941185 12087 net.cpp:411] conv2_2 -> conv2_2
I0605 14:38:00.942482 12087 net.cpp:150] Setting up conv2_2
I0605 14:38:00.942492 12087 net.cpp:157] Top shape: 1 128 300 500 (19200000)
I0605 14:38:00.942494 12087 net.cpp:165] Memory required for data: 904800108
I0605 14:38:00.942498 12087 layer_factory.hpp:77] Creating layer relu2_2
I0605 14:38:00.942502 12087 net.cpp:106] Creating Layer relu2_2
I0605 14:38:00.942505 12087 net.cpp:454] relu2_2 <- conv2_2
I0605 14:38:00.942519 12087 net.cpp:397] relu2_2 -> conv2_2 (in-place)
I0605 14:38:00.942641 12087 net.cpp:150] Setting up relu2_2
I0605 14:38:00.942647 12087 net.cpp:157] Top shape: 1 128 300 500 (19200000)
I0605 14:38:00.942649 12087 net.cpp:165] Memory required for data: 981600108
I0605 14:38:00.942652 12087 layer_factory.hpp:77] Creating layer pool2
I0605 14:38:00.942657 12087 net.cpp:106] Creating Layer pool2
I0605 14:38:00.942659 12087 net.cpp:454] pool2 <- conv2_2
I0605 14:38:00.942673 12087 net.cpp:411] pool2 -> pool2
I0605 14:38:00.942715 12087 net.cpp:150] Setting up pool2
I0605 14:38:00.942723 12087 net.cpp:157] Top shape: 1 128 150 250 (4800000)
I0605 14:38:00.942725 12087 net.cpp:165] Memory required for data: 1000800108
I0605 14:38:00.942728 12087 layer_factory.hpp:77] Creating layer conv3_1
I0605 14:38:00.942734 12087 net.cpp:106] Creating Layer conv3_1
I0605 14:38:00.942747 12087 net.cpp:454] conv3_1 <- pool2
I0605 14:38:00.942752 12087 net.cpp:411] conv3_1 -> conv3_1
I0605 14:38:00.944496 12087 net.cpp:150] Setting up conv3_1
I0605 14:38:00.944505 12087 net.cpp:157] Top shape: 1 256 150 250 (9600000)
I0605 14:38:00.944509 12087 net.cpp:165] Memory required for data: 1039200108
I0605 14:38:00.944514 12087 layer_factory.hpp:77] Creating layer relu3_1
I0605 14:38:00.944528 12087 net.cpp:106] Creating Layer relu3_1
I0605 14:38:00.944532 12087 net.cpp:454] relu3_1 <- conv3_1
I0605 14:38:00.944538 12087 net.cpp:397] relu3_1 -> conv3_1 (in-place)
I0605 14:38:00.944686 12087 net.cpp:150] Setting up relu3_1
I0605 14:38:00.944695 12087 net.cpp:157] Top shape: 1 256 150 250 (9600000)
I0605 14:38:00.944698 12087 net.cpp:165] Memory required for data: 1077600108
I0605 14:38:00.944718 12087 layer_factory.hpp:77] Creating layer conv3_2
I0605 14:38:00.944737 12087 net.cpp:106] Creating Layer conv3_2
I0605 14:38:00.944742 12087 net.cpp:454] conv3_2 <- conv3_1
I0605 14:38:00.944747 12087 net.cpp:411] conv3_2 -> conv3_2
I0605 14:38:00.947254 12087 net.cpp:150] Setting up conv3_2
I0605 14:38:00.947266 12087 net.cpp:157] Top shape: 1 256 150 250 (9600000)
I0605 14:38:00.947268 12087 net.cpp:165] Memory required for data: 1116000108
I0605 14:38:00.947274 12087 layer_factory.hpp:77] Creating layer relu3_2
I0605 14:38:00.947280 12087 net.cpp:106] Creating Layer relu3_2
I0605 14:38:00.947283 12087 net.cpp:454] relu3_2 <- conv3_2
I0605 14:38:00.947297 12087 net.cpp:397] relu3_2 -> conv3_2 (in-place)
I0605 14:38:00.947432 12087 net.cpp:150] Setting up relu3_2
I0605 14:38:00.947438 12087 net.cpp:157] Top shape: 1 256 150 250 (9600000)
I0605 14:38:00.947440 12087 net.cpp:165] Memory required for data: 1154400108
I0605 14:38:00.947443 12087 layer_factory.hpp:77] Creating layer conv3_3
I0605 14:38:00.947448 12087 net.cpp:106] Creating Layer conv3_3
I0605 14:38:00.947451 12087 net.cpp:454] conv3_3 <- conv3_2
I0605 14:38:00.947455 12087 net.cpp:411] conv3_3 -> conv3_3
I0605 14:38:00.949409 12087 net.cpp:150] Setting up conv3_3
I0605 14:38:00.949441 12087 net.cpp:157] Top shape: 1 256 150 250 (9600000)
I0605 14:38:00.949446 12087 net.cpp:165] Memory required for data: 1192800108
I0605 14:38:00.949452 12087 layer_factory.hpp:77] Creating layer relu3_3
I0605 14:38:00.949457 12087 net.cpp:106] Creating Layer relu3_3
I0605 14:38:00.949461 12087 net.cpp:454] relu3_3 <- conv3_3
I0605 14:38:00.949465 12087 net.cpp:397] relu3_3 -> conv3_3 (in-place)
I0605 14:38:00.949584 12087 net.cpp:150] Setting up relu3_3
I0605 14:38:00.949590 12087 net.cpp:157] Top shape: 1 256 150 250 (9600000)
I0605 14:38:00.949592 12087 net.cpp:165] Memory required for data: 1231200108
I0605 14:38:00.949595 12087 layer_factory.hpp:77] Creating layer pool3
I0605 14:38:00.949600 12087 net.cpp:106] Creating Layer pool3
I0605 14:38:00.949602 12087 net.cpp:454] pool3 <- conv3_3
I0605 14:38:00.949606 12087 net.cpp:411] pool3 -> pool3
I0605 14:38:00.949666 12087 net.cpp:150] Setting up pool3
I0605 14:38:00.949671 12087 net.cpp:157] Top shape: 1 256 75 125 (2400000)
I0605 14:38:00.949682 12087 net.cpp:165] Memory required for data: 1240800108
I0605 14:38:00.949684 12087 layer_factory.hpp:77] Creating layer conv4_1
I0605 14:38:00.949690 12087 net.cpp:106] Creating Layer conv4_1
I0605 14:38:00.949692 12087 net.cpp:454] conv4_1 <- pool3
I0605 14:38:00.949707 12087 net.cpp:411] conv4_1 -> conv4_1
I0605 14:38:00.953325 12087 net.cpp:150] Setting up conv4_1
I0605 14:38:00.953346 12087 net.cpp:157] Top shape: 1 512 75 125 (4800000)
I0605 14:38:00.953348 12087 net.cpp:165] Memory required for data: 1260000108
I0605 14:38:00.953356 12087 layer_factory.hpp:77] Creating layer relu4_1
I0605 14:38:00.953363 12087 net.cpp:106] Creating Layer relu4_1
I0605 14:38:00.953368 12087 net.cpp:454] relu4_1 <- conv4_1
I0605 14:38:00.953383 12087 net.cpp:397] relu4_1 -> conv4_1 (in-place)
I0605 14:38:00.953533 12087 net.cpp:150] Setting up relu4_1
I0605 14:38:00.953541 12087 net.cpp:157] Top shape: 1 512 75 125 (4800000)
I0605 14:38:00.953542 12087 net.cpp:165] Memory required for data: 1279200108
I0605 14:38:00.953544 12087 layer_factory.hpp:77] Creating layer conv4_2
I0605 14:38:00.953552 12087 net.cpp:106] Creating Layer conv4_2
I0605 14:38:00.953553 12087 net.cpp:454] conv4_2 <- conv4_1
I0605 14:38:00.953557 12087 net.cpp:411] conv4_2 -> conv4_2
I0605 14:38:00.958034 12087 net.cpp:150] Setting up conv4_2
I0605 14:38:00.958051 12087 net.cpp:157] Top shape: 1 512 75 125 (4800000)
I0605 14:38:00.958055 12087 net.cpp:165] Memory required for data: 1298400108
I0605 14:38:00.958065 12087 layer_factory.hpp:77] Creating layer relu4_2
I0605 14:38:00.958073 12087 net.cpp:106] Creating Layer relu4_2
I0605 14:38:00.958077 12087 net.cpp:454] relu4_2 <- conv4_2
I0605 14:38:00.958091 12087 net.cpp:397] relu4_2 -> conv4_2 (in-place)
I0605 14:38:00.958580 12087 net.cpp:150] Setting up relu4_2
I0605 14:38:00.958587 12087 net.cpp:157] Top shape: 1 512 75 125 (4800000)
I0605 14:38:00.958590 12087 net.cpp:165] Memory required for data: 1317600108
I0605 14:38:00.958592 12087 layer_factory.hpp:77] Creating layer conv4_3
I0605 14:38:00.958600 12087 net.cpp:106] Creating Layer conv4_3
I0605 14:38:00.958601 12087 net.cpp:454] conv4_3 <- conv4_2
I0605 14:38:00.958606 12087 net.cpp:411] conv4_3 -> conv4_3
I0605 14:38:00.962779 12087 net.cpp:150] Setting up conv4_3
I0605 14:38:00.962800 12087 net.cpp:157] Top shape: 1 512 75 125 (4800000)
I0605 14:38:00.962802 12087 net.cpp:165] Memory required for data: 1336800108
I0605 14:38:00.962810 12087 layer_factory.hpp:77] Creating layer relu4_3
I0605 14:38:00.962829 12087 net.cpp:106] Creating Layer relu4_3
I0605 14:38:00.962834 12087 net.cpp:454] relu4_3 <- conv4_3
I0605 14:38:00.962841 12087 net.cpp:397] relu4_3 -> conv4_3 (in-place)
I0605 14:38:00.962973 12087 net.cpp:150] Setting up relu4_3
I0605 14:38:00.962981 12087 net.cpp:157] Top shape: 1 512 75 125 (4800000)
I0605 14:38:00.962983 12087 net.cpp:165] Memory required for data: 1356000108
I0605 14:38:00.962986 12087 layer_factory.hpp:77] Creating layer pool4
I0605 14:38:00.962991 12087 net.cpp:106] Creating Layer pool4
I0605 14:38:00.962994 12087 net.cpp:454] pool4 <- conv4_3
I0605 14:38:00.962999 12087 net.cpp:411] pool4 -> pool4
I0605 14:38:00.963062 12087 net.cpp:150] Setting up pool4
I0605 14:38:00.963066 12087 net.cpp:157] Top shape: 1 512 38 63 (1225728)
I0605 14:38:00.963079 12087 net.cpp:165] Memory required for data: 1360903020
I0605 14:38:00.963081 12087 layer_factory.hpp:77] Creating layer conv5_1
I0605 14:38:00.963088 12087 net.cpp:106] Creating Layer conv5_1
I0605 14:38:00.963090 12087 net.cpp:454] conv5_1 <- pool4
I0605 14:38:00.963105 12087 net.cpp:411] conv5_1 -> conv5_1
I0605 14:38:00.967502 12087 net.cpp:150] Setting up conv5_1
I0605 14:38:00.967519 12087 net.cpp:157] Top shape: 1 512 38 63 (1225728)
I0605 14:38:00.967521 12087 net.cpp:165] Memory required for data: 1365805932
I0605 14:38:00.967528 12087 layer_factory.hpp:77] Creating layer relu5_1
I0605 14:38:00.967535 12087 net.cpp:106] Creating Layer relu5_1
I0605 14:38:00.967550 12087 net.cpp:454] relu5_1 <- conv5_1
I0605 14:38:00.967555 12087 net.cpp:397] relu5_1 -> conv5_1 (in-place)
I0605 14:38:00.967730 12087 net.cpp:150] Setting up relu5_1
I0605 14:38:00.967751 12087 net.cpp:157] Top shape: 1 512 38 63 (1225728)
I0605 14:38:00.967756 12087 net.cpp:165] Memory required for data: 1370708844
I0605 14:38:00.967761 12087 layer_factory.hpp:77] Creating layer conv5_2
I0605 14:38:00.967779 12087 net.cpp:106] Creating Layer conv5_2
I0605 14:38:00.967794 12087 net.cpp:454] conv5_2 <- conv5_1
I0605 14:38:00.967802 12087 net.cpp:411] conv5_2 -> conv5_2
I0605 14:38:00.972695 12087 net.cpp:150] Setting up conv5_2
I0605 14:38:00.972717 12087 net.cpp:157] Top shape: 1 512 38 63 (1225728)
I0605 14:38:00.972719 12087 net.cpp:165] Memory required for data: 1375611756
I0605 14:38:00.972728 12087 layer_factory.hpp:77] Creating layer relu5_2
I0605 14:38:00.972735 12087 net.cpp:106] Creating Layer relu5_2
I0605 14:38:00.972739 12087 net.cpp:454] relu5_2 <- conv5_2
I0605 14:38:00.972745 12087 net.cpp:397] relu5_2 -> conv5_2 (in-place)
I0605 14:38:00.972894 12087 net.cpp:150] Setting up relu5_2
I0605 14:38:00.972901 12087 net.cpp:157] Top shape: 1 512 38 63 (1225728)
I0605 14:38:00.972904 12087 net.cpp:165] Memory required for data: 1380514668
I0605 14:38:00.972906 12087 layer_factory.hpp:77] Creating layer conv5_3
I0605 14:38:00.972916 12087 net.cpp:106] Creating Layer conv5_3
I0605 14:38:00.972919 12087 net.cpp:454] conv5_3 <- conv5_2
I0605 14:38:00.972934 12087 net.cpp:411] conv5_3 -> conv5_3
I0605 14:38:00.977181 12087 net.cpp:150] Setting up conv5_3
I0605 14:38:00.977198 12087 net.cpp:157] Top shape: 1 512 38 63 (1225728)
I0605 14:38:00.977202 12087 net.cpp:165] Memory required for data: 1385417580
I0605 14:38:00.977208 12087 layer_factory.hpp:77] Creating layer relu5_3
I0605 14:38:00.977216 12087 net.cpp:106] Creating Layer relu5_3
I0605 14:38:00.977219 12087 net.cpp:454] relu5_3 <- conv5_3
I0605 14:38:00.977224 12087 net.cpp:397] relu5_3 -> conv5_3 (in-place)
I0605 14:38:00.977351 12087 net.cpp:150] Setting up relu5_3
I0605 14:38:00.977357 12087 net.cpp:157] Top shape: 1 512 38 63 (1225728)
I0605 14:38:00.977360 12087 net.cpp:165] Memory required for data: 1390320492
I0605 14:38:00.977362 12087 layer_factory.hpp:77] Creating layer conv5_3_relu5_3_0_split
I0605 14:38:00.977378 12087 net.cpp:106] Creating Layer conv5_3_relu5_3_0_split
I0605 14:38:00.977382 12087 net.cpp:454] conv5_3_relu5_3_0_split <- conv5_3
I0605 14:38:00.977386 12087 net.cpp:411] conv5_3_relu5_3_0_split -> conv5_3_relu5_3_0_split_0
I0605 14:38:00.977391 12087 net.cpp:411] conv5_3_relu5_3_0_split -> conv5_3_relu5_3_0_split_1
I0605 14:38:00.977396 12087 net.cpp:411] conv5_3_relu5_3_0_split -> conv5_3_relu5_3_0_split_2
I0605 14:38:00.977443 12087 net.cpp:150] Setting up conv5_3_relu5_3_0_split
I0605 14:38:00.977458 12087 net.cpp:157] Top shape: 1 512 38 63 (1225728)
I0605 14:38:00.977459 12087 net.cpp:157] Top shape: 1 512 38 63 (1225728)
I0605 14:38:00.977463 12087 net.cpp:157] Top shape: 1 512 38 63 (1225728)
I0605 14:38:00.977474 12087 net.cpp:165] Memory required for data: 1405029228
I0605 14:38:00.977478 12087 layer_factory.hpp:77] Creating layer rpn_conv/3x3
I0605 14:38:00.977494 12087 net.cpp:106] Creating Layer rpn_conv/3x3
I0605 14:38:00.977497 12087 net.cpp:454] rpn_conv/3x3 <- conv5_3_relu5_3_0_split_0
I0605 14:38:00.977501 12087 net.cpp:411] rpn_conv/3x3 -> rpn/output
I0605 14:38:01.028525 12087 net.cpp:150] Setting up rpn_conv/3x3
I0605 14:38:01.028544 12087 net.cpp:157] Top shape: 1 512 38 63 (1225728)
I0605 14:38:01.028548 12087 net.cpp:165] Memory required for data: 1409932140
I0605 14:38:01.028555 12087 layer_factory.hpp:77] Creating layer rpn_relu/3x3
I0605 14:38:01.028563 12087 net.cpp:106] Creating Layer rpn_relu/3x3
I0605 14:38:01.028568 12087 net.cpp:454] rpn_relu/3x3 <- rpn/output
I0605 14:38:01.028584 12087 net.cpp:397] rpn_relu/3x3 -> rpn/output (in-place)
I0605 14:38:01.028702 12087 net.cpp:150] Setting up rpn_relu/3x3
I0605 14:38:01.028708 12087 net.cpp:157] Top shape: 1 512 38 63 (1225728)
I0605 14:38:01.028710 12087 net.cpp:165] Memory required for data: 1414835052
I0605 14:38:01.028713 12087 layer_factory.hpp:77] Creating layer rpn/output_rpn_relu/3x3_0_split
I0605 14:38:01.028717 12087 net.cpp:106] Creating Layer rpn/output_rpn_relu/3x3_0_split
I0605 14:38:01.028720 12087 net.cpp:454] rpn/output_rpn_relu/3x3_0_split <- rpn/output
I0605 14:38:01.028724 12087 net.cpp:411] rpn/output_rpn_relu/3x3_0_split -> rpn/output_rpn_relu/3x3_0_split_0
I0605 14:38:01.028729 12087 net.cpp:411] rpn/output_rpn_relu/3x3_0_split -> rpn/output_rpn_relu/3x3_0_split_1
I0605 14:38:01.028775 12087 net.cpp:150] Setting up rpn/output_rpn_relu/3x3_0_split
I0605 14:38:01.028780 12087 net.cpp:157] Top shape: 1 512 38 63 (1225728)
I0605 14:38:01.028782 12087 net.cpp:157] Top shape: 1 512 38 63 (1225728)
I0605 14:38:01.028795 12087 net.cpp:165] Memory required for data: 1424640876
I0605 14:38:01.028797 12087 layer_factory.hpp:77] Creating layer rpn_cls_score
I0605 14:38:01.028805 12087 net.cpp:106] Creating Layer rpn_cls_score
I0605 14:38:01.028810 12087 net.cpp:454] rpn_cls_score <- rpn/output_rpn_relu/3x3_0_split_0
I0605 14:38:01.028813 12087 net.cpp:411] rpn_cls_score -> rpn_cls_score
I0605 14:38:01.030458 12087 net.cpp:150] Setting up rpn_cls_score
I0605 14:38:01.030467 12087 net.cpp:157] Top shape: 1 30 38 63 (71820)
I0605 14:38:01.030470 12087 net.cpp:165] Memory required for data: 1424928156
I0605 14:38:01.030475 12087 layer_factory.hpp:77] Creating layer rpn_cls_score_rpn_cls_score_0_split
I0605 14:38:01.030481 12087 net.cpp:106] Creating Layer rpn_cls_score_rpn_cls_score_0_split
I0605 14:38:01.030485 12087 net.cpp:454] rpn_cls_score_rpn_cls_score_0_split <- rpn_cls_score
I0605 14:38:01.030489 12087 net.cpp:411] rpn_cls_score_rpn_cls_score_0_split -> rpn_cls_score_rpn_cls_score_0_split_0
I0605 14:38:01.030495 12087 net.cpp:411] rpn_cls_score_rpn_cls_score_0_split -> rpn_cls_score_rpn_cls_score_0_split_1
I0605 14:38:01.030521 12087 net.cpp:150] Setting up rpn_cls_score_rpn_cls_score_0_split
I0605 14:38:01.030526 12087 net.cpp:157] Top shape: 1 30 38 63 (71820)
I0605 14:38:01.030529 12087 net.cpp:157] Top shape: 1 30 38 63 (71820)
I0605 14:38:01.030532 12087 net.cpp:165] Memory required for data: 1425502716
I0605 14:38:01.030534 12087 layer_factory.hpp:77] Creating layer rpn_bbox_pred
I0605 14:38:01.030541 12087 net.cpp:106] Creating Layer rpn_bbox_pred
I0605 14:38:01.030544 12087 net.cpp:454] rpn_bbox_pred <- rpn/output_rpn_relu/3x3_0_split_1
I0605 14:38:01.030550 12087 net.cpp:411] rpn_bbox_pred -> rpn_bbox_pred
I0605 14:38:01.032105 12087 net.cpp:150] Setting up rpn_bbox_pred
I0605 14:38:01.032114 12087 net.cpp:157] Top shape: 1 60 38 63 (143640)
I0605 14:38:01.032126 12087 net.cpp:165] Memory required for data: 1426077276
I0605 14:38:01.032131 12087 layer_factory.hpp:77] Creating layer rpn_bbox_pred_rpn_bbox_pred_0_split
I0605 14:38:01.032136 12087 net.cpp:106] Creating Layer rpn_bbox_pred_rpn_bbox_pred_0_split
I0605 14:38:01.032140 12087 net.cpp:454] rpn_bbox_pred_rpn_bbox_pred_0_split <- rpn_bbox_pred
I0605 14:38:01.032155 12087 net.cpp:411] rpn_bbox_pred_rpn_bbox_pred_0_split -> rpn_bbox_pred_rpn_bbox_pred_0_split_0
I0605 14:38:01.032160 12087 net.cpp:411] rpn_bbox_pred_rpn_bbox_pred_0_split -> rpn_bbox_pred_rpn_bbox_pred_0_split_1
I0605 14:38:01.032193 12087 net.cpp:150] Setting up rpn_bbox_pred_rpn_bbox_pred_0_split
I0605 14:38:01.032198 12087 net.cpp:157] Top shape: 1 60 38 63 (143640)
I0605 14:38:01.032212 12087 net.cpp:157] Top shape: 1 60 38 63 (143640)
I0605 14:38:01.032214 12087 net.cpp:165] Memory required for data: 1427226396
I0605 14:38:01.032217 12087 layer_factory.hpp:77] Creating layer rpn_cls_score_reshape
I0605 14:38:01.032235 12087 net.cpp:106] Creating Layer rpn_cls_score_reshape
I0605 14:38:01.032238 12087 net.cpp:454] rpn_cls_score_reshape <- rpn_cls_score_rpn_cls_score_0_split_0
I0605 14:38:01.032253 12087 net.cpp:411] rpn_cls_score_reshape -> rpn_cls_score_reshape
I0605 14:38:01.032287 12087 net.cpp:150] Setting up rpn_cls_score_reshape
I0605 14:38:01.032304 12087 net.cpp:157] Top shape: 1 2 570 63 (71820)
I0605 14:38:01.032306 12087 net.cpp:165] Memory required for data: 1427513676
I0605 14:38:01.032310 12087 layer_factory.hpp:77] Creating layer rpn_cls_score_reshape_rpn_cls_score_reshape_0_split
I0605 14:38:01.032315 12087 net.cpp:106] Creating Layer rpn_cls_score_reshape_rpn_cls_score_reshape_0_split
I0605 14:38:01.032327 12087 net.cpp:454] rpn_cls_score_reshape_rpn_cls_score_reshape_0_split <- rpn_cls_score_reshape
I0605 14:38:01.032331 12087 net.cpp:411] rpn_cls_score_reshape_rpn_cls_score_reshape_0_split -> rpn_cls_score_reshape_rpn_cls_score_reshape_0_split_0
I0605 14:38:01.032348 12087 net.cpp:411] rpn_cls_score_reshape_rpn_cls_score_reshape_0_split -> rpn_cls_score_reshape_rpn_cls_score_reshape_0_split_1
I0605 14:38:01.032397 12087 net.cpp:150] Setting up rpn_cls_score_reshape_rpn_cls_score_reshape_0_split
I0605 14:38:01.032403 12087 net.cpp:157] Top shape: 1 2 570 63 (71820)
I0605 14:38:01.032416 12087 net.cpp:157] Top shape: 1 2 570 63 (71820)
I0605 14:38:01.032420 12087 net.cpp:165] Memory required for data: 1428088236
I0605 14:38:01.032423 12087 layer_factory.hpp:77] Creating layer rpn-data
I0605 14:38:01.033572 12087 net.cpp:106] Creating Layer rpn-data
I0605 14:38:01.033583 12087 net.cpp:454] rpn-data <- rpn_cls_score_rpn_cls_score_0_split_1
I0605 14:38:01.033589 12087 net.cpp:454] rpn-data <- gt_boxes_input-data_2_split_0
I0605 14:38:01.033594 12087 net.cpp:454] rpn-data <- im_info_input-data_1_split_0
I0605 14:38:01.033598 12087 net.cpp:454] rpn-data <- data_input-data_0_split_1
I0605 14:38:01.033613 12087 net.cpp:411] rpn-data -> rpn_labels
I0605 14:38:01.033623 12087 net.cpp:411] rpn-data -> rpn_bbox_targets
I0605 14:38:01.033630 12087 net.cpp:411] rpn-data -> rpn_bbox_inside_weights
I0605 14:38:01.033638 12087 net.cpp:411] rpn-data -> rpn_bbox_outside_weights
===================================anchor_scales in AnchorTargetLayer:=============(2, 4, 8, 16, 32)
I0605 14:38:01.034711 12087 net.cpp:150] Setting up rpn-data
I0605 14:38:01.034720 12087 net.cpp:157] Top shape: 1 1 570 63 (35910)
I0605 14:38:01.034723 12087 net.cpp:157] Top shape: 1 60 38 63 (143640)
I0605 14:38:01.034726 12087 net.cpp:157] Top shape: 1 60 38 63 (143640)
I0605 14:38:01.034729 12087 net.cpp:157] Top shape: 1 60 38 63 (143640)
I0605 14:38:01.034730 12087 net.cpp:165] Memory required for data: 1429955556
I0605 14:38:01.034734 12087 layer_factory.hpp:77] Creating layer rpn_loss_cls
I0605 14:38:01.034749 12087 net.cpp:106] Creating Layer rpn_loss_cls
I0605 14:38:01.034751 12087 net.cpp:454] rpn_loss_cls <- rpn_cls_score_reshape_rpn_cls_score_reshape_0_split_0
I0605 14:38:01.034766 12087 net.cpp:454] rpn_loss_cls <- rpn_labels
…
I0605 14:38:01.036679 12087 net.cpp:157] Top shape: (1)
I0605 14:38:01.036691 12087 net.cpp:160]     with loss weight 1
I0605 14:38:01.036696 12087 net.cpp:165] Memory required for data: 1429955564
I0605 14:38:01.036700 12087 layer_factory.hpp:77] Creating layer rpn_cls_prob
I0605 14:38:01.036715 12087 net.cpp:106] Creating Layer rpn_cls_prob
I0605 14:38:01.036720 12087 net.cpp:454] rpn_cls_prob <- rpn_cls_score_reshape_rpn_cls_score_reshape_0_split_1
I0605 14:38:01.036723 12087 net.cpp:411] rpn_cls_prob -> rpn_cls_prob
I0605 14:38:01.036890 12087 net.cpp:150] Setting up rpn_cls_prob
I0605 14:38:01.036896 12087 net.cpp:157] Top shape: 1 2 570 63 (71820)
I0605 14:38:01.036909 12087 net.cpp:165] Memory required for data: 1430242844
I0605 14:38:01.036911 12087 layer_factory.hpp:77] Creating layer rpn_cls_prob_reshape
I0605 14:38:01.036916 12087 net.cpp:106] Creating Layer rpn_cls_prob_reshape
I0605 14:38:01.036931 12087 net.cpp:454] rpn_cls_prob_reshape <- rpn_cls_prob
I0605 14:38:01.036934 12087 net.cpp:411] rpn_cls_prob_reshape -> rpn_cls_prob_reshape
I0605 14:38:01.036962 12087 net.cpp:150] Setting up rpn_cls_prob_reshape
I0605 14:38:01.036965 12087 net.cpp:157] Top shape: 1 30 38 63 (71820)
I0605 14:38:01.036968 12087 net.cpp:165] Memory required for data: 1430530124
I0605 14:38:01.036980 12087 layer_factory.hpp:77] Creating layer proposal
I0605 14:38:01.038167 12087 net.cpp:106] Creating Layer proposal
I0605 14:38:01.038175 12087 net.cpp:454] proposal <- rpn_cls_prob_reshape
I0605 14:38:01.038180 12087 net.cpp:454] proposal <- rpn_bbox_pred_rpn_bbox_pred_0_split_1
I0605 14:38:01.038183 12087 net.cpp:454] proposal <- im_info_input-data_1_split_1
I0605 14:38:01.038187 12087 net.cpp:411] proposal -> rpn_rois
=================================anchor_scales in ProposalLayer:=============(2, 4, 8, 16, 32)
I0605 14:38:01.039253 12087 net.cpp:150] Setting up proposal
I0605 14:38:01.039271 12087 net.cpp:157] Top shape: 1 5 (5)
I0605 14:38:01.039273 12087 net.cpp:165] Memory required for data: 1430530144
I0605 14:38:01.039276 12087 layer_factory.hpp:77] Creating layer roi-data
I0605 14:38:01.039515 12087 net.cpp:106] Creating Layer roi-data
I0605 14:38:01.039522 12087 net.cpp:454] roi-data <- rpn_rois
I0605 14:38:01.039537 12087 net.cpp:454] roi-data <- gt_boxes_input-data_2_split_1
I0605 14:38:01.039543 12087 net.cpp:454] roi-data <- im_info_input-data_1_split_2
I0605 14:38:01.039547 12087 net.cpp:454] roi-data <- seg_mask_inds
I0605 14:38:01.039561 12087 net.cpp:454] roi-data <- flipped
I0605 14:38:01.039567 12087 net.cpp:411] roi-data -> rois
I0605 14:38:01.039579 12087 net.cpp:411] roi-data -> labels
I0605 14:38:01.039597 12087 net.cpp:411] roi-data -> bbox_targets
I0605 14:38:01.039607 12087 net.cpp:411] roi-data -> bbox_inside_weights
I0605 14:38:01.039614 12087 net.cpp:411] roi-data -> bbox_outside_weights
I0605 14:38:01.039623 12087 net.cpp:411] roi-data -> mask_targets
I0605 14:38:01.039630 12087 net.cpp:411] roi-data -> rois_pos
I0605 14:38:01.039635 12087 net.cpp:411] roi-data -> rois_attribute
I0605 14:38:01.039921 12087 net.cpp:150] Setting up roi-data
I0605 14:38:01.039929 12087 net.cpp:157] Top shape: 1 5 (5)
I0605 14:38:01.039932 12087 net.cpp:157] Top shape: 1 1 (1)
I0605 14:38:01.039935 12087 net.cpp:157] Top shape: 1 8 (8)
I0605 14:38:01.039948 12087 net.cpp:157] Top shape: 1 8 (8)
I0605 14:38:01.039950 12087 net.cpp:157] Top shape: 1 8 (8)
I0605 14:38:01.039953 12087 net.cpp:157] Top shape: 1 244 244 (59536)
I0605 14:38:01.039966 12087 net.cpp:157] Top shape: 1 5 (5)
I0605 14:38:01.039968 12087 net.cpp:157] Top shape: 1 10 (10)
I0605 14:38:01.039971 12087 net.cpp:165] Memory required for data: 1430768468
I0605 14:38:01.039974 12087 layer_factory.hpp:77] Creating layer roi_pool5
I0605 14:38:01.039980 12087 net.cpp:106] Creating Layer roi_pool5
I0605 14:38:01.039985 12087 net.cpp:454] roi_pool5 <- conv5_3_relu5_3_0_split_1
I0605 14:38:01.039989 12087 net.cpp:454] roi_pool5 <- rois
I0605 14:38:01.039994 12087 net.cpp:411] roi_pool5 -> pool5
I0605 14:38:01.040002 12087 roi_alignment_layer.cpp:32] Spatial scale: 0.0625
I0605 14:38:01.040074 12087 net.cpp:150] Setting up roi_pool5
I0605 14:38:01.040078 12087 net.cpp:157] Top shape: 1 512 7 7 (25088)
I0605 14:38:01.040081 12087 net.cpp:165] Memory required for data: 1430868820
I0605 14:38:01.040083 12087 layer_factory.hpp:77] Creating layer fc6
I0605 14:38:01.040100 12087 net.cpp:106] Creating Layer fc6
I0605 14:38:01.040105 12087 net.cpp:454] fc6 <- pool5
I0605 14:38:01.040108 12087 net.cpp:411] fc6 -> fc6
I0605 14:38:01.181363 12087 net.cpp:150] Setting up fc6
I0605 14:38:01.181388 12087 net.cpp:157] Top shape: 1 4096 (4096)
I0605 14:38:01.181392 12087 net.cpp:165] Memory required for data: 1430885204
I0605 14:38:01.181406 12087 layer_factory.hpp:77] Creating layer relu6
I0605 14:38:01.181447 12087 net.cpp:106] Creating Layer relu6
I0605 14:38:01.181453 12087 net.cpp:454] relu6 <- fc6
I0605 14:38:01.181459 12087 net.cpp:397] relu6 -> fc6 (in-place)
I0605 14:38:01.181710 12087 net.cpp:150] Setting up relu6
I0605 14:38:01.181728 12087 net.cpp:157] Top shape: 1 4096 (4096)
I0605 14:38:01.181731 12087 net.cpp:165] Memory required for data: 1430901588
I0605 14:38:01.181733 12087 layer_factory.hpp:77] Creating layer fc7
I0605 14:38:01.181751 12087 net.cpp:106] Creating Layer fc7
I0605 14:38:01.181754 12087 net.cpp:454] fc7 <- fc6
I0605 14:38:01.181758 12087 net.cpp:411] fc7 -> fc7
I0605 14:38:01.205744 12087 net.cpp:150] Setting up fc7
I0605 14:38:01.205767 12087 net.cpp:157] Top shape: 1 4096 (4096)
I0605 14:38:01.205770 12087 net.cpp:165] Memory required for data: 1430917972
I0605 14:38:01.205778 12087 layer_factory.hpp:77] Creating layer relu7
I0605 14:38:01.205786 12087 net.cpp:106] Creating Layer relu7
I0605 14:38:01.205801 12087 net.cpp:454] relu7 <- fc7
I0605 14:38:01.205806 12087 net.cpp:397] relu7 -> fc7 (in-place)
I0605 14:38:01.205968 12087 net.cpp:150] Setting up relu7
I0605 14:38:01.205974 12087 net.cpp:157] Top shape: 1 4096 (4096)
I0605 14:38:01.205976 12087 net.cpp:165] Memory required for data: 1430934356
I0605 14:38:01.205979 12087 layer_factory.hpp:77] Creating layer fc7_relu7_0_split
I0605 14:38:01.205983 12087 net.cpp:106] Creating Layer fc7_relu7_0_split
I0605 14:38:01.205986 12087 net.cpp:454] fc7_relu7_0_split <- fc7
I0605 14:38:01.205991 12087 net.cpp:411] fc7_relu7_0_split -> fc7_relu7_0_split_0
I0605 14:38:01.205998 12087 net.cpp:411] fc7_relu7_0_split -> fc7_relu7_0_split_1
I0605 14:38:01.206043 12087 net.cpp:150] Setting up fc7_relu7_0_split
I0605 14:38:01.206048 12087 net.cpp:157] Top shape: 1 4096 (4096)
I0605 14:38:01.206061 12087 net.cpp:157] Top shape: 1 4096 (4096)
I0605 14:38:01.206064 12087 net.cpp:165] Memory required for data: 1430967124
I0605 14:38:01.206066 12087 layer_factory.hpp:77] Creating layer cls_score
I0605 14:38:01.206073 12087 net.cpp:106] Creating Layer cls_score
I0605 14:38:01.206075 12087 net.cpp:454] cls_score <- fc7_relu7_0_split_0
I0605 14:38:01.206079 12087 net.cpp:411] cls_score -> cls_score
I0605 14:38:01.206315 12087 net.cpp:150] Setting up cls_score
I0605 14:38:01.206320 12087 net.cpp:157] Top shape: 1 2 (2)
I0605 14:38:01.206331 12087 net.cpp:165] Memory required for data: 1430967132
I0605 14:38:01.206336 12087 layer_factory.hpp:77] Creating layer bbox_pred
I0605 14:38:01.206341 12087 net.cpp:106] Creating Layer bbox_pred
I0605 14:38:01.206353 12087 net.cpp:454] bbox_pred <- fc7_relu7_0_split_1
I0605 14:38:01.206357 12087 net.cpp:411] bbox_pred -> bbox_pred
I0605 14:38:01.207224 12087 net.cpp:150] Setting up bbox_pred
I0605 14:38:01.207231 12087 net.cpp:157] Top shape: 1 8 (8)
I0605 14:38:01.207233 12087 net.cpp:165] Memory required for data: 1430967164
I0605 14:38:01.207237 12087 layer_factory.hpp:77] Creating layer loss_cls
I0605 14:38:01.207242 12087 net.cpp:106] Creating Layer loss_cls
I0605 14:38:01.207244 12087 net.cpp:454] loss_cls <- cls_score
I0605 14:38:01.207247 12087 net.cpp:454] loss_cls <- labels
I0605 14:38:01.207250 12087 net.cpp:411] loss_cls -> loss_cls
…
I0605 14:38:01.208035 12087 net.cpp:165] Memory required for data: 1430967172
I0605 14:38:01.208039 12087 layer_factory.hpp:77] Creating layer roi_pool5_2
I0605 14:38:01.208043 12087 net.cpp:106] Creating Layer roi_pool5_2
I0605 14:38:01.208046 12087 net.cpp:454] roi_pool5_2 <- conv5_3_relu5_3_0_split_2
I0605 14:38:01.208050 12087 net.cpp:454] roi_pool5_2 <- rois_pos
I0605 14:38:01.208052 12087 net.cpp:411] roi_pool5_2 -> pool5_2
I0605 14:38:01.208057 12087 roi_alignment_layer.cpp:32] Spatial scale: 0.0625
I0605 14:38:01.208137 12087 net.cpp:150] Setting up roi_pool5_2
I0605 14:38:01.208142 12087 net.cpp:157] Top shape: 1 512 7 7 (25088)
I0605 14:38:01.208143 12087 net.cpp:165] Memory required for data: 1431067524
I0605 14:38:01.208145 12087 layer_factory.hpp:77] Creating layer pool5_2_conv
I0605 14:38:01.208153 12087 net.cpp:106] Creating Layer pool5_2_conv
I0605 14:38:01.208155 12087 net.cpp:454] pool5_2_conv <- pool5_2
I0605 14:38:01.208158 12087 net.cpp:411] pool5_2_conv -> pool5_2_conv
I0605 14:38:01.215016 12087 net.cpp:150] Setting up pool5_2_conv
I0605 14:38:01.215025 12087 net.cpp:157] Top shape: 1 512 7 7 (25088)
I0605 14:38:01.215028 12087 net.cpp:165] Memory required for data: 1431167876
I0605 14:38:01.215032 12087 layer_factory.hpp:77] Creating layer pool5_2_conv_relu
I0605 14:38:01.215036 12087 net.cpp:106] Creating Layer pool5_2_conv_relu
I0605 14:38:01.215039 12087 net.cpp:454] pool5_2_conv_relu <- pool5_2_conv
I0605 14:38:01.215042 12087 net.cpp:411] pool5_2_conv_relu -> pool5_2_conv_relu
I0605 14:38:01.215167 12087 net.cpp:150] Setting up pool5_2_conv_relu
I0605 14:38:01.215174 12087 net.cpp:157] Top shape: 1 512 7 7 (25088)
I0605 14:38:01.215176 12087 net.cpp:165] Memory required for data: 1431268228
I0605 14:38:01.215178 12087 layer_factory.hpp:77] Creating layer pool5_2_conv2
I0605 14:38:01.215190 12087 net.cpp:106] Creating Layer pool5_2_conv2
I0605 14:38:01.215193 12087 net.cpp:454] pool5_2_conv2 <- pool5_2_conv_relu
I0605 14:38:01.215198 12087 net.cpp:411] pool5_2_conv2 -> pool5_2_conv2
I0605 14:38:01.266736 12087 net.cpp:150] Setting up pool5_2_conv2
I0605 14:38:01.266752 12087 net.cpp:157] Top shape: 1 512 7 7 (25088)
I0605 14:38:01.266755 12087 net.cpp:165] Memory required for data: 1431368580
I0605 14:38:01.266762 12087 layer_factory.hpp:77] Creating layer pool5_2_conv2_relu
I0605 14:38:01.266770 12087 net.cpp:106] Creating Layer pool5_2_conv2_relu
I0605 14:38:01.266774 12087 net.cpp:454] pool5_2_conv2_relu <- pool5_2_conv2
I0605 14:38:01.266789 12087 net.cpp:411] pool5_2_conv2_relu -> pool5_2_conv2_relu
I0605 14:38:01.266927 12087 net.cpp:150] Setting up pool5_2_conv2_relu
I0605 14:38:01.266933 12087 net.cpp:157] Top shape: 1 512 7 7 (25088)
I0605 14:38:01.266935 12087 net.cpp:165] Memory required for data: 1431468932
I0605 14:38:01.266937 12087 layer_factory.hpp:77] Creating layer mask_deconv1
I0605 14:38:01.266944 12087 net.cpp:106] Creating Layer mask_deconv1
I0605 14:38:01.266947 12087 net.cpp:454] mask_deconv1 <- pool5_2_conv2_relu
I0605 14:38:01.266952 12087 net.cpp:411] mask_deconv1 -> mask_deconv1
I0605 14:38:01.267717 12087 net.cpp:150] Setting up mask_deconv1
I0605 14:38:01.267722 12087 net.cpp:157] Top shape: 1 256 30 30 (230400)
I0605 14:38:01.267724 12087 net.cpp:165] Memory required for data: 1432390532
I0605 14:38:01.267729 12087 layer_factory.hpp:77] Creating layer pool5_2_conv3
I0605 14:38:01.267733 12087 net.cpp:106] Creating Layer pool5_2_conv3
I0605 14:38:01.267736 12087 net.cpp:454] pool5_2_conv3 <- mask_deconv1
I0605 14:38:01.267740 12087 net.cpp:411] pool5_2_conv3 -> pool5_2_conv3
I0605 14:38:01.293737 12087 net.cpp:150] Setting up pool5_2_conv3
I0605 14:38:01.293753 12087 net.cpp:157] Top shape: 1 512 30 30 (460800)
I0605 14:38:01.293756 12087 net.cpp:165] Memory required for data: 1434233732
I0605 14:38:01.293764 12087 layer_factory.hpp:77] Creating layer pool5_2_conv3_relu
I0605 14:38:01.293771 12087 net.cpp:106] Creating Layer pool5_2_conv3_relu
I0605 14:38:01.293776 12087 net.cpp:454] pool5_2_conv3_relu <- pool5_2_conv3
I0605 14:38:01.293781 12087 net.cpp:411] pool5_2_conv3_relu -> pool5_2_conv3_relu
I0605 14:38:01.293927 12087 net.cpp:150] Setting up pool5_2_conv3_relu
I0605 14:38:01.293934 12087 net.cpp:157] Top shape: 1 512 30 30 (460800)
I0605 14:38:01.293936 12087 net.cpp:165] Memory required for data: 1436076932
I0605 14:38:01.293939 12087 layer_factory.hpp:77] Creating layer pool5_2_conv4
I0605 14:38:01.293958 12087 net.cpp:106] Creating Layer pool5_2_conv4
I0605 14:38:01.293973 12087 net.cpp:454] pool5_2_conv4 <- pool5_2_conv3_relu
I0605 14:38:01.293977 12087 net.cpp:411] pool5_2_conv4 -> pool5_2_conv4
I0605 14:38:01.345742 12087 net.cpp:150] Setting up pool5_2_conv4
I0605 14:38:01.345770 12087 net.cpp:157] Top shape: 1 512 30 30 (460800)
I0605 14:38:01.345774 12087 net.cpp:165] Memory required for data: 1437920132
I0605 14:38:01.345782 12087 layer_factory.hpp:77] Creating layer pool5_2_conv4_relu
I0605 14:38:01.345798 12087 net.cpp:106] Creating Layer pool5_2_conv4_relu
I0605 14:38:01.345813 12087 net.cpp:454] pool5_2_conv4_relu <- pool5_2_conv4
I0605 14:38:01.345820 12087 net.cpp:411] pool5_2_conv4_relu -> pool5_2_conv4_relu
I0605 14:38:01.345969 12087 net.cpp:150] Setting up pool5_2_conv4_relu
I0605 14:38:01.345978 12087 net.cpp:157] Top shape: 1 512 30 30 (460800)
I0605 14:38:01.345981 12087 net.cpp:165] Memory required for data: 1439763332
I0605 14:38:01.345994 12087 layer_factory.hpp:77] Creating layer pool5_2_conv4_relu_pool5_2_conv4_relu_0_split
I0605 14:38:01.346004 12087 net.cpp:106] Creating Layer pool5_2_conv4_relu_pool5_2_conv4_relu_0_split
I0605 14:38:01.346026 12087 net.cpp:454] pool5_2_conv4_relu_pool5_2_conv4_relu_0_split <- pool5_2_conv4_relu
…
I0605 14:38:01.346066 12087 net.cpp:411] pool5_2_conv4_relu_pool5_2_conv4_relu_0_split -> pool5_2_conv4_relu_pool5_2_conv4_relu_0_split_4
I0605 14:38:01.346073 12087 net.cpp:411] pool5_2_conv4_relu_pool5_2_conv4_relu_0_split -> pool5_2_conv4_relu_pool5_2_conv4_relu_0_split_5
I0605 14:38:01.346081 12087 net.cpp:411] pool5_2_conv4_relu_pool5_2_conv4_relu_0_split -> pool5_2_conv4_relu_pool5_2_conv4_relu_0_split_6
I0605 14:38:01.346086 12087 net.cpp:411] pool5_2_conv4_relu_pool5_2_conv4_relu_0_split -> pool5_2_conv4_relu_pool5_2_conv4_relu_0_split_7
I0605 14:38:01.346169 12087 net.cpp:150] Setting up pool5_2_conv4_relu_pool5_2_conv4_relu_0_split
I0605 14:38:01.346177 12087 net.cpp:157] Top shape: 1 512 30 30 (460800)
I0605 14:38:01.346191 12087 net.cpp:157] Top shape: 1 512 30 30 (460800)
I0605 14:38:01.346197 12087 net.cpp:157] Top shape: 1 512 30 30 (460800)
I0605 14:38:01.346204 12087 net.cpp:157] Top shape: 1 512 30 30 (460800)
I0605 14:38:01.346208 12087 net.cpp:157] Top shape: 1 512 30 30 (460800)
I0605 14:38:01.346215 12087 net.cpp:157] Top shape: 1 512 30 30 (460800)
I0605 14:38:01.346220 12087 net.cpp:157] Top shape: 1 512 30 30 (460800)
I0605 14:38:01.346225 12087 net.cpp:157] Top shape: 1 512 30 30 (460800)
I0605 14:38:01.346230 12087 net.cpp:165] Memory required for data: 1454508932
I0605 14:38:01.346235 12087 layer_factory.hpp:77] Creating layer query_conv
I0605 14:38:01.346251 12087 net.cpp:106] Creating Layer query_conv
I0605 14:38:01.346254 12087 net.cpp:454] query_conv <- pool5_2_conv4_relu_pool5_2_conv4_relu_0_split_0
I0605 14:38:01.346261 12087 net.cpp:411] query_conv -> query_conv
I0605 14:38:01.349786 12087 net.cpp:150] Setting up query_conv
I0605 14:38:01.349798 12087 net.cpp:157] Top shape: 1 64 30 30 (57600)
I0605 14:38:01.349802 12087 net.cpp:165] Memory required for data: 1454739332
I0605 14:38:01.349810 12087 layer_factory.hpp:77] Creating layer key_conv
I0605 14:38:01.349826 12087 net.cpp:106] Creating Layer key_conv
I0605 14:38:01.349831 12087 net.cpp:454] key_conv <- pool5_2_conv4_relu_pool5_2_conv4_relu_0_split_1
I0605 14:38:01.349841 12087 net.cpp:411] key_conv -> key_conv
I0605 14:38:01.351418 12087 net.cpp:150] Setting up key_conv
I0605 14:38:01.351428 12087 net.cpp:157] Top shape: 1 64 30 30 (57600)
I0605 14:38:01.351431 12087 net.cpp:165] Memory required for data: 1454969732
I0605 14:38:01.351449 12087 layer_factory.hpp:77] Creating layer value_conv
I0605 14:38:01.351469 12087 net.cpp:106] Creating Layer value_conv
I0605 14:38:01.351475 12087 net.cpp:454] value_conv <- pool5_2_conv4_relu_pool5_2_conv4_relu_0_split_2
I0605 14:38:01.351483 12087 net.cpp:411] value_conv -> value_conv
I0605 14:38:01.358002 12087 net.cpp:150] Setting up value_conv
I0605 14:38:01.358011 12087 net.cpp:157] Top shape: 1 512 30 30 (460800)
I0605 14:38:01.358016 12087 net.cpp:165] Memory required for data: 1456812932
I0605 14:38:01.358022 12087 layer_factory.hpp:77] Creating layer query_conv_reshape
I0605 14:38:01.358033 12087 net.cpp:106] Creating Layer query_conv_reshape
I0605 14:38:01.358050 12087 net.cpp:454] query_conv_reshape <- query_conv
I0605 14:38:01.358067 12087 net.cpp:411] query_conv_reshape -> query_conv_reshape
I0605 14:38:01.358114 12087 net.cpp:150] Setting up query_conv_reshape
I0605 14:38:01.358119 12087 net.cpp:157] Top shape: 1 64 900 1 (57600)
I0605 14:38:01.358122 12087 net.cpp:165] Memory required for data: 1457043332
I0605 14:38:01.358125 12087 layer_factory.hpp:77] Creating layer key_conv_reshape
I0605 14:38:01.358141 12087 net.cpp:106] Creating Layer key_conv_reshape
I0605 14:38:01.358147 12087 net.cpp:454] key_conv_reshape <- key_conv
I0605 14:38:01.358153 12087 net.cpp:411] key_conv_reshape -> key_conv_reshape
I0605 14:38:01.358196 12087 net.cpp:150] Setting up key_conv_reshape
I0605 14:38:01.358201 12087 net.cpp:157] Top shape: 1 64 900 1 (57600)
I0605 14:38:01.358204 12087 net.cpp:165] Memory required for data: 1457273732
I0605 14:38:01.358220 12087 layer_factory.hpp:77] Creating layer value_conv_reshape
I0605 14:38:01.358238 12087 net.cpp:106] Creating Layer value_conv_reshape
I0605 14:38:01.358244 12087 net.cpp:454] value_conv_reshape <- value_conv
I0605 14:38:01.358261 12087 net.cpp:411] value_conv_reshape -> value_conv_reshape
I0605 14:38:01.358299 12087 net.cpp:150] Setting up value_conv_reshape
I0605 14:38:01.358304 12087 net.cpp:157] Top shape: 1 512 900 1 (460800)
I0605 14:38:01.358319 12087 net.cpp:165] Memory required for data: 1459116932
I0605 14:38:01.358322 12087 layer_factory.hpp:77] Creating layer query_conv_reshape_perm
I0605 14:38:01.358331 12087 net.cpp:106] Creating Layer query_conv_reshape_perm
I0605 14:38:01.358337 12087 net.cpp:454] query_conv_reshape_perm <- query_conv_reshape
I0605 14:38:01.358342 12087 net.cpp:411] query_conv_reshape_perm -> query_conv_reshape_perm
I0605 14:38:01.358423 12087 net.cpp:150] Setting up query_conv_reshape_perm
I0605 14:38:01.358429 12087 net.cpp:157] Top shape: 1 1 900 64 (57600)
I0605 14:38:01.358433 12087 net.cpp:165] Memory required for data: 1459347332
I0605 14:38:01.358436 12087 layer_factory.hpp:77] Creating layer key_conv_reshape_perm
I0605 14:38:01.358453 12087 net.cpp:106] Creating Layer key_conv_reshape_perm
I0605 14:38:01.358456 12087 net.cpp:454] key_conv_reshape_perm <- key_conv_reshape
I0605 14:38:01.358464 12087 net.cpp:411] key_conv_reshape_perm -> key_conv_reshape_perm
I0605 14:38:01.358537 12087 net.cpp:150] Setting up key_conv_reshape_perm
I0605 14:38:01.358542 12087 net.cpp:157] Top shape: 1 1 64 900 (57600)
I0605 14:38:01.358546 12087 net.cpp:165] Memory required for data: 1459577732
I0605 14:38:01.358549 12087 layer_factory.hpp:77] Creating layer energy
I0605 14:38:01.358566 12087 net.cpp:106] Creating Layer energy
I0605 14:38:01.358569 12087 net.cpp:454] energy <- query_conv_reshape_perm
I0605 14:38:01.358584 12087 net.cpp:454] energy <- key_conv_reshape_perm
I0605 14:38:01.358593 12087 net.cpp:411] energy -> energy
I0605 14:38:01.358626 12087 net.cpp:150] Setting up energy
I0605 14:38:01.358631 12087 net.cpp:157] Top shape: 1 1 900 900 (810000)
I0605 14:38:01.358634 12087 net.cpp:165] Memory required for data: 1462817732
I0605 14:38:01.358647 12087 layer_factory.hpp:77] Creating layer attention
I0605 14:38:01.358654 12087 net.cpp:106] Creating Layer attention
I0605 14:38:01.358667 12087 net.cpp:454] attention <- energy
I0605 14:38:01.358673 12087 net.cpp:411] attention -> attention
I0605 14:38:01.358834 12087 net.cpp:150] Setting up attention
I0605 14:38:01.358840 12087 net.cpp:157] Top shape: 1 1 900 900 (810000)
I0605 14:38:01.358844 12087 net.cpp:165] Memory required for data: 1466057732
I0605 14:38:01.358849 12087 layer_factory.hpp:77] Creating layer value_conv_reshape_perm
I0605 14:38:01.358867 12087 net.cpp:106] Creating Layer value_conv_reshape_perm
I0605 14:38:01.358873 12087 net.cpp:454] value_conv_reshape_perm <- value_conv_reshape
I0605 14:38:01.358878 12087 net.cpp:411] value_conv_reshape_perm -> value_conv_reshape_perm
I0605 14:38:01.358956 12087 net.cpp:150] Setting up value_conv_reshape_perm
I0605 14:38:01.358963 12087 net.cpp:157] Top shape: 1 1 512 900 (460800)
I0605 14:38:01.358965 12087 net.cpp:165] Memory required for data: 1467900932
I0605 14:38:01.358968 12087 layer_factory.hpp:77] Creating layer attention_perm
I0605 14:38:01.358983 12087 net.cpp:106] Creating Layer attention_perm
I0605 14:38:01.358989 12087 net.cpp:454] attention_perm <- attention
I0605 14:38:01.358995 12087 net.cpp:411] attention_perm -> attention_perm
I0605 14:38:01.359063 12087 net.cpp:150] Setting up attention_perm
I0605 14:38:01.359069 12087 net.cpp:157] Top shape: 1 1 900 900 (810000)
I0605 14:38:01.359072 12087 net.cpp:165] Memory required for data: 1471140932
I0605 14:38:01.359076 12087 layer_factory.hpp:77] Creating layer out
I0605 14:38:01.359083 12087 net.cpp:106] Creating Layer out
I0605 14:38:01.359088 12087 net.cpp:454] out <- value_conv_reshape_perm
I0605 14:38:01.359093 12087 net.cpp:454] out <- attention_perm
I0605 14:38:01.359099 12087 net.cpp:411] out -> out
I0605 14:38:01.359118 12087 net.cpp:150] Setting up out
I0605 14:38:01.359124 12087 net.cpp:157] Top shape: 1 1 512 900 (460800)
I0605 14:38:01.359127 12087 net.cpp:165] Memory required for data: 1472984132
I0605 14:38:01.359131 12087 layer_factory.hpp:77] Creating layer out_reshape
I0605 14:38:01.359138 12087 net.cpp:106] Creating Layer out_reshape
I0605 14:38:01.359143 12087 net.cpp:454] out_reshape <- out
I0605 14:38:01.359149 12087 net.cpp:411] out_reshape -> out_reshape
I0605 14:38:01.359174 12087 net.cpp:150] Setting up out_reshape
I0605 14:38:01.359179 12087 net.cpp:157] Top shape: 1 512 30 30 (460800)
I0605 14:38:01.359182 12087 net.cpp:165] Memory required for data: 1474827332
I0605 14:38:01.359185 12087 layer_factory.hpp:77] Creating layer out_reshape_scale
I0605 14:38:01.359194 12087 net.cpp:106] Creating Layer out_reshape_scale
I0605 14:38:01.359201 12087 net.cpp:454] out_reshape_scale <- out_reshape
I0605 14:38:01.359210 12087 net.cpp:411] out_reshape_scale -> out_reshape_scale
I0605 14:38:01.359279 12087 net.cpp:150] Setting up out_reshape_scale
I0605 14:38:01.359285 12087 net.cpp:157] Top shape: 1 512 30 30 (460800)
I0605 14:38:01.359288 12087 net.cpp:165] Memory required for data: 1476670532
I0605 14:38:01.359293 12087 layer_factory.hpp:77] Creating layer out_x
I0605 14:38:01.359313 12087 net.cpp:106] Creating Layer out_x
I0605 14:38:01.359319 12087 net.cpp:454] out_x <- out_reshape_scale
I0605 14:38:01.359324 12087 net.cpp:454] out_x <- pool5_2_conv4_relu_pool5_2_conv4_relu_0_split_3
I0605 14:38:01.359344 12087 net.cpp:411] out_x -> out_x
I0605 14:38:01.359380 12087 net.cpp:150] Setting up out_x
I0605 14:38:01.359397 12087 net.cpp:157] Top shape: 1 512 30 30 (460800)
I0605 14:38:01.359400 12087 net.cpp:165] Memory required for data: 1478513732
I0605 14:38:01.359416 12087 layer_factory.hpp:77] Creating layer query_conv_reshape_ch
I0605 14:38:01.359421 12087 net.cpp:106] Creating Layer query_conv_reshape_ch
I0605 14:38:01.359427 12087 net.cpp:454] query_conv_reshape_ch <- pool5_2_conv4_relu_pool5_2_conv4_relu_0_split_4
I0605 14:38:01.359436 12087 net.cpp:411] query_conv_reshape_ch -> query_conv_reshape_ch
I0605 14:38:01.359463 12087 net.cpp:150] Setting up query_conv_reshape_ch
I0605 14:38:01.359470 12087 net.cpp:157] Top shape: 1 512 900 1 (460800)
I0605 14:38:01.359473 12087 net.cpp:165] Memory required for data: 1480356932
I0605 14:38:01.359478 12087 layer_factory.hpp:77] Creating layer key_conv_reshape_ch
I0605 14:38:01.359488 12087 net.cpp:106] Creating Layer key_conv_reshape_ch
I0605 14:38:01.359495 12087 net.cpp:454] key_conv_reshape_ch <- pool5_2_conv4_relu_pool5_2_conv4_relu_0_split_5
I0605 14:38:01.359503 12087 net.cpp:411] key_conv_reshape_ch -> key_conv_reshape_ch
I0605 14:38:01.359529 12087 net.cpp:150] Setting up key_conv_reshape_ch
I0605 14:38:01.359534 12087 net.cpp:157] Top shape: 1 512 900 1 (460800)
I0605 14:38:01.359537 12087 net.cpp:165] Memory required for data: 1482200132
I0605 14:38:01.359542 12087 layer_factory.hpp:77] Creating layer value_conv_reshape_ch
I0605 14:38:01.359549 12087 net.cpp:106] Creating Layer value_conv_reshape_ch
I0605 14:38:01.359555 12087 net.cpp:454] value_conv_reshape_ch <- pool5_2_conv4_relu_pool5_2_conv4_relu_0_split_6
I0605 14:38:01.359561 12087 net.cpp:411] value_conv_reshape_ch -> value_conv_reshape_ch
I0605 14:38:01.359586 12087 net.cpp:150] Setting up value_conv_reshape_ch
I0605 14:38:01.359591 12087 net.cpp:157] Top shape: 1 512 900 1 (460800)
I0605 14:38:01.359593 12087 net.cpp:165] Memory required for data: 1484043332
I0605 14:38:01.359598 12087 layer_factory.hpp:77] Creating layer query_conv_reshape_perm_ch
I0605 14:38:01.359607 12087 net.cpp:106] Creating Layer query_conv_reshape_perm_ch
I0605 14:38:01.359614 12087 net.cpp:454] query_conv_reshape_perm_ch <- query_conv_reshape_ch
I0605 14:38:01.359622 12087 net.cpp:411] query_conv_reshape_perm_ch -> query_conv_reshape_perm_ch
I0605 14:38:01.359688 12087 net.cpp:150] Setting up query_conv_reshape_perm_ch
I0605 14:38:01.359692 12087 net.cpp:157] Top shape: 1 1 512 900 (460800)
I0605 14:38:01.359696 12087 net.cpp:165] Memory required for data: 1485886532
I0605 14:38:01.359700 12087 layer_factory.hpp:77] Creating layer key_conv_reshape_perm_ch
I0605 14:38:01.359705 12087 net.cpp:106] Creating Layer key_conv_reshape_perm_ch
I0605 14:38:01.359710 12087 net.cpp:454] key_conv_reshape_perm_ch <- key_conv_reshape_ch
I0605 14:38:01.359719 12087 net.cpp:411] key_conv_reshape_perm_ch -> key_conv_reshape_perm_ch
I0605 14:38:01.359784 12087 net.cpp:150] Setting up key_conv_reshape_perm_ch
I0605 14:38:01.359791 12087 net.cpp:157] Top shape: 1 1 900 512 (460800)
I0605 14:38:01.359793 12087 net.cpp:165] Memory required for data: 1487729732
I0605 14:38:01.359798 12087 layer_factory.hpp:77] Creating layer energy_ch
I0605 14:38:01.359805 12087 net.cpp:106] Creating Layer energy_ch
I0605 14:38:01.359813 12087 net.cpp:454] energy_ch <- query_conv_reshape_perm_ch
I0605 14:38:01.359822 12087 net.cpp:454] energy_ch <- key_conv_reshape_perm_ch
I0605 14:38:01.359828 12087 net.cpp:411] energy_ch -> energy_ch
I0605 14:38:01.359853 12087 net.cpp:150] Setting up energy_ch
I0605 14:38:01.359859 12087 net.cpp:157] Top shape: 1 1 512 512 (262144)
I0605 14:38:01.359863 12087 net.cpp:165] Memory required for data: 1488778308
I0605 14:38:01.359867 12087 layer_factory.hpp:77] Creating layer energy_ch_energy_ch_0_split
I0605 14:38:01.359874 12087 net.cpp:106] Creating Layer energy_ch_energy_ch_0_split
I0605 14:38:01.359879 12087 net.cpp:454] energy_ch_energy_ch_0_split <- energy_ch
I0605 14:38:01.359884 12087 net.cpp:411] energy_ch_energy_ch_0_split -> energy_ch_energy_ch_0_split_0
I0605 14:38:01.359894 12087 net.cpp:411] energy_ch_energy_ch_0_split -> energy_ch_energy_ch_0_split_1
I0605 14:38:01.359923 12087 net.cpp:150] Setting up energy_ch_energy_ch_0_split
I0605 14:38:01.359928 12087 net.cpp:157] Top shape: 1 1 512 512 (262144)
I0605 14:38:01.359932 12087 net.cpp:157] Top shape: 1 1 512 512 (262144)
I0605 14:38:01.359936 12087 net.cpp:165] Memory required for data: 1490875460
I0605 14:38:01.359939 12087 layer_factory.hpp:77] Creating layer energy_ch_pool
I0605 14:38:01.359951 12087 net.cpp:106] Creating Layer energy_ch_pool
I0605 14:38:01.359956 12087 net.cpp:454] energy_ch_pool <- energy_ch_energy_ch_0_split_0
I0605 14:38:01.359961 12087 net.cpp:411] energy_ch_pool -> energy_ch_pool
I0605 14:38:01.359997 12087 net.cpp:150] Setting up energy_ch_pool
I0605 14:38:01.360003 12087 net.cpp:157] Top shape: 1 1 512 1 (512)
I0605 14:38:01.360007 12087 net.cpp:165] Memory required for data: 1490877508
I0605 14:38:01.360010 12087 layer_factory.hpp:77] Creating layer energy_ch_max
I0605 14:38:01.360018 12087 net.cpp:106] Creating Layer energy_ch_max
I0605 14:38:01.360025 12087 net.cpp:454] energy_ch_max <- energy_ch_pool
I0605 14:38:01.360033 12087 net.cpp:411] energy_ch_max -> energy_ch_max
I0605 14:38:01.360055 12087 net.cpp:150] Setting up energy_ch_max
I0605 14:38:01.360062 12087 net.cpp:157] Top shape: 1 1 512 512 (262144)
I0605 14:38:01.360065 12087 net.cpp:165] Memory required for data: 1491926084
I0605 14:38:01.360069 12087 layer_factory.hpp:77] Creating layer energy_ch_minus
I0605 14:38:01.360078 12087 net.cpp:106] Creating Layer energy_ch_minus
I0605 14:38:01.360085 12087 net.cpp:454] energy_ch_minus <- energy_ch_energy_ch_0_split_1
I0605 14:38:01.360091 12087 net.cpp:411] energy_ch_minus -> energy_ch_minus
I0605 14:38:01.360113 12087 net.cpp:150] Setting up energy_ch_minus
I0605 14:38:01.360119 12087 net.cpp:157] Top shape: 1 1 512 512 (262144)
I0605 14:38:01.360122 12087 net.cpp:165] Memory required for data: 1492974660
I0605 14:38:01.360126 12087 layer_factory.hpp:77] Creating layer energy_new
I0605 14:38:01.360134 12087 net.cpp:106] Creating Layer energy_new
I0605 14:38:01.360141 12087 net.cpp:454] energy_new <- energy_ch_max
I0605 14:38:01.360146 12087 net.cpp:454] energy_new <- energy_ch_minus
I0605 14:38:01.360155 12087 net.cpp:411] energy_new -> energy_new
I0605 14:38:01.360178 12087 net.cpp:150] Setting up energy_new
I0605 14:38:01.360184 12087 net.cpp:157] Top shape: 1 1 512 512 (262144)
I0605 14:38:01.360188 12087 net.cpp:165] Memory required for data: 1494023236
I0605 14:38:01.360193 12087 layer_factory.hpp:77] Creating layer attention_ch
I0605 14:38:01.360199 12087 net.cpp:106] Creating Layer attention_ch
I0605 14:38:01.360205 12087 net.cpp:454] attention_ch <- energy_new
I0605 14:38:01.360211 12087 net.cpp:411] attention_ch -> attention_ch
I0605 14:38:01.360756 12087 net.cpp:150] Setting up attention_ch
I0605 14:38:01.360765 12087 net.cpp:157] Top shape: 1 1 512 512 (262144)
I0605 14:38:01.360769 12087 net.cpp:165] Memory required for data: 1495071812
I0605 14:38:01.360774 12087 layer_factory.hpp:77] Creating layer value_conv_reshape_ch_perm
I0605 14:38:01.360785 12087 net.cpp:106] Creating Layer value_conv_reshape_ch_perm
I0605 14:38:01.360790 12087 net.cpp:454] value_conv_reshape_ch_perm <- value_conv_reshape_ch
I0605 14:38:01.360797 12087 net.cpp:411] value_conv_reshape_ch_perm -> value_conv_reshape_ch_perm
I0605 14:38:01.360868 12087 net.cpp:150] Setting up value_conv_reshape_ch_perm
I0605 14:38:01.360875 12087 net.cpp:157] Top shape: 1 1 512 900 (460800)
I0605 14:38:01.360878 12087 net.cpp:165] Memory required for data: 1496915012
I0605 14:38:01.360882 12087 layer_factory.hpp:77] Creating layer attention_ch_perm
I0605 14:38:01.360890 12087 net.cpp:106] Creating Layer attention_ch_perm
I0605 14:38:01.360895 12087 net.cpp:454] attention_ch_perm <- attention_ch
I0605 14:38:01.360903 12087 net.cpp:411] attention_ch_perm -> attention_ch_perm
I0605 14:38:01.360970 12087 net.cpp:150] Setting up attention_ch_perm
I0605 14:38:01.360975 12087 net.cpp:157] Top shape: 1 1 512 512 (262144)
I0605 14:38:01.360980 12087 net.cpp:165] Memory required for data: 1497963588
I0605 14:38:01.360983 12087 layer_factory.hpp:77] Creating layer out_ch
I0605 14:38:01.360988 12087 net.cpp:106] Creating Layer out_ch
I0605 14:38:01.360994 12087 net.cpp:454] out_ch <- attention_ch_perm
I0605 14:38:01.360999 12087 net.cpp:454] out_ch <- value_conv_reshape_ch_perm
I0605 14:38:01.361006 12087 net.cpp:411] out_ch -> out_ch
I0605 14:38:01.361030 12087 net.cpp:150] Setting up out_ch
I0605 14:38:01.361037 12087 net.cpp:157] Top shape: 1 1 512 900 (460800)
I0605 14:38:01.361040 12087 net.cpp:165] Memory required for data: 1499806788
I0605 14:38:01.361044 12087 layer_factory.hpp:77] Creating layer out_ch_reshape
I0605 14:38:01.361052 12087 net.cpp:106] Creating Layer out_ch_reshape
I0605 14:38:01.361057 12087 net.cpp:454] out_ch_reshape <- out_ch
I0605 14:38:01.361063 12087 net.cpp:411] out_ch_reshape -> out_ch_reshape
I0605 14:38:01.361088 12087 net.cpp:150] Setting up out_ch_reshape
I0605 14:38:01.361094 12087 net.cpp:157] Top shape: 1 512 30 30 (460800)
I0605 14:38:01.361097 12087 net.cpp:165] Memory required for data: 1501649988
I0605 14:38:01.361101 12087 layer_factory.hpp:77] Creating layer out_ch_reshape_scale
I0605 14:38:01.361110 12087 net.cpp:106] Creating Layer out_ch_reshape_scale
I0605 14:38:01.361116 12087 net.cpp:454] out_ch_reshape_scale <- out_ch_reshape
I0605 14:38:01.361124 12087 net.cpp:411] out_ch_reshape_scale -> out_ch_reshape_scale
I0605 14:38:01.361187 12087 net.cpp:150] Setting up out_ch_reshape_scale
I0605 14:38:01.361193 12087 net.cpp:157] Top shape: 1 512 30 30 (460800)
I0605 14:38:01.361196 12087 net.cpp:165] Memory required for data: 1503493188
I0605 14:38:01.361202 12087 net.cpp:514] Sharing parameters 'scale_conv1_1' owned by layer 'out_reshape_scale', param index 0
I0605 14:38:01.361207 12087 layer_factory.hpp:77] Creating layer out_ch_x
I0605 14:38:01.361213 12087 net.cpp:106] Creating Layer out_ch_x
I0605 14:38:01.361219 12087 net.cpp:454] out_ch_x <- out_ch_reshape_scale
I0605 14:38:01.361224 12087 net.cpp:454] out_ch_x <- pool5_2_conv4_relu_pool5_2_conv4_relu_0_split_7
I0605 14:38:01.361236 12087 net.cpp:411] out_ch_x -> out_ch_x
I0605 14:38:01.361260 12087 net.cpp:150] Setting up out_ch_x
I0605 14:38:01.361266 12087 net.cpp:157] Top shape: 1 512 30 30 (460800)
I0605 14:38:01.361270 12087 net.cpp:165] Memory required for data: 1505336388
I0605 14:38:01.361274 12087 layer_factory.hpp:77] Creating layer out_conv_ch_x
I0605 14:38:01.361289 12087 net.cpp:106] Creating Layer out_conv_ch_x
I0605 14:38:01.361294 12087 net.cpp:454] out_conv_ch_x <- out_ch_x
I0605 14:38:01.361302 12087 net.cpp:411] out_conv_ch_x -> out_conv_ch_x
I0605 14:38:01.367178 12087 net.cpp:150] Setting up out_conv_ch_x
I0605 14:38:01.367187 12087 net.cpp:157] Top shape: 1 512 30 30 (460800)
I0605 14:38:01.367192 12087 net.cpp:165] Memory required for data: 1507179588
I0605 14:38:01.367209 12087 layer_factory.hpp:77] Creating layer out_conv_x
I0605 14:38:01.367230 12087 net.cpp:106] Creating Layer out_conv_x
I0605 14:38:01.367234 12087 net.cpp:454] out_conv_x <- out_x
I0605 14:38:01.367251 12087 net.cpp:411] out_conv_x -> out_conv_x
I0605 14:38:01.374426 12087 net.cpp:150] Setting up out_conv_x
I0605 14:38:01.374442 12087 net.cpp:157] Top shape: 1 512 30 30 (460800)
I0605 14:38:01.374445 12087 net.cpp:165] Memory required for data: 1509022788
I0605 14:38:01.374454 12087 layer_factory.hpp:77] Creating layer out_x_sum
I0605 14:38:01.374464 12087 net.cpp:106] Creating Layer out_x_sum
I0605 14:38:01.374480 12087 net.cpp:454] out_x_sum <- out_conv_x
I0605 14:38:01.374495 12087 net.cpp:454] out_x_sum <- out_conv_ch_x
I0605 14:38:01.374502 12087 net.cpp:411] out_x_sum -> out_x_sum
I0605 14:38:01.374557 12087 net.cpp:150] Setting up out_x_sum
I0605 14:38:01.374564 12087 net.cpp:157] Top shape: 1 512 30 30 (460800)
I0605 14:38:01.374581 12087 net.cpp:165] Memory required for data: 1510865988
I0605 14:38:01.374585 12087 layer_factory.hpp:77] Creating layer mask_deconv2
I0605 14:38:01.374606 12087 net.cpp:106] Creating Layer mask_deconv2
I0605 14:38:01.374610 12087 net.cpp:454] mask_deconv2 <- out_x_sum
I0605 14:38:01.374617 12087 net.cpp:411] mask_deconv2 -> mask_deconv2
I0605 14:38:01.375412 12087 net.cpp:150] Setting up mask_deconv2
I0605 14:38:01.375419 12087 net.cpp:157] Top shape: 1 256 122 122 (3810304)
I0605 14:38:01.375422 12087 net.cpp:165] Memory required for data: 1526107204
I0605 14:38:01.375439 12087 layer_factory.hpp:77] Creating layer pool5_2_conv5
I0605 14:38:01.375459 12087 net.cpp:106] Creating Layer pool5_2_conv5
I0605 14:38:01.375468 12087 net.cpp:454] pool5_2_conv5 <- mask_deconv2
I0605 14:38:01.375485 12087 net.cpp:411] pool5_2_conv5 -> pool5_2_conv5
I0605 14:38:01.401607 12087 net.cpp:150] Setting up pool5_2_conv5
I0605 14:38:01.401626 12087 net.cpp:157] Top shape: 1 512 122 122 (7620608)
I0605 14:38:01.401630 12087 net.cpp:165] Memory required for data: 1556589636
I0605 14:38:01.401661 12087 layer_factory.hpp:77] Creating layer pool5_2_conv5_relu
I0605 14:38:01.401674 12087 net.cpp:106] Creating Layer pool5_2_conv5_relu
I0605 14:38:01.401680 12087 net.cpp:454] pool5_2_conv5_relu <- pool5_2_conv5
I0605 14:38:01.401690 12087 net.cpp:411] pool5_2_conv5_relu -> pool5_2_conv5_relu
I0605 14:38:01.401854 12087 net.cpp:150] Setting up pool5_2_conv5_relu
I0605 14:38:01.401863 12087 net.cpp:157] Top shape: 1 512 122 122 (7620608)
I0605 14:38:01.401867 12087 net.cpp:165] Memory required for data: 1587072068
I0605 14:38:01.401871 12087 layer_factory.hpp:77] Creating layer pool5_2_conv6
I0605 14:38:01.401893 12087 net.cpp:106] Creating Layer pool5_2_conv6
I0605 14:38:01.401901 12087 net.cpp:454] pool5_2_conv6 <- pool5_2_conv5_relu
I0605 14:38:01.401911 12087 net.cpp:411] pool5_2_conv6 -> pool5_2_conv6
I0605 14:38:01.452399 12087 net.cpp:150] Setting up pool5_2_conv6
I0605 14:38:01.452430 12087 net.cpp:157] Top shape: 1 512 122 122 (7620608)
I0605 14:38:01.452432 12087 net.cpp:165] Memory required for data: 1617554500
I0605 14:38:01.452453 12087 layer_factory.hpp:77] Creating layer pool5_2_conv6_relu
I0605 14:38:01.452474 12087 net.cpp:106] Creating Layer pool5_2_conv6_relu
I0605 14:38:01.452493 12087 net.cpp:454] pool5_2_conv6_relu <- pool5_2_conv6
I0605 14:38:01.452510 12087 net.cpp:411] pool5_2_conv6_relu -> pool5_2_conv6_relu
I0605 14:38:01.453727 12087 net.cpp:150] Setting up pool5_2_conv6_relu
I0605 14:38:01.453738 12087 net.cpp:157] Top shape: 1 512 122 122 (7620608)
I0605 14:38:01.453742 12087 net.cpp:165] Memory required for data: 1648036932
I0605 14:38:01.453747 12087 layer_factory.hpp:77] Creating layer mask_deconv3
I0605 14:38:01.453773 12087 net.cpp:106] Creating Layer mask_deconv3
I0605 14:38:01.453781 12087 net.cpp:454] mask_deconv3 <- pool5_2_conv6_relu
I0605 14:38:01.453790 12087 net.cpp:411] mask_deconv3 -> mask_deconv3
I0605 14:38:01.454197 12087 net.cpp:150] Setting up mask_deconv3
I0605 14:38:01.454205 12087 net.cpp:157] Top shape: 1 256 244 244 (15241216)
I0605 14:38:01.454210 12087 net.cpp:165] Memory required for data: 1709001796
I0605 14:38:01.454216 12087 layer_factory.hpp:77] Creating layer mask_score
I0605 14:38:01.454232 12087 net.cpp:106] Creating Layer mask_score
I0605 14:38:01.454242 12087 net.cpp:454] mask_score <- mask_deconv3
I0605 14:38:01.454249 12087 net.cpp:411] mask_score -> mask_score
I0605 14:38:01.457041 12087 net.cpp:150] Setting up mask_score
I0605 14:38:01.457051 12087 net.cpp:157] Top shape: 1 8 244 244 (476288)
I0605 14:38:01.457054 12087 net.cpp:165] Memory required for data: 1710906948
I0605 14:38:01.457062 12087 layer_factory.hpp:77] Creating layer loss_mask
I0605 14:38:01.457082 12087 net.cpp:106] Creating Layer loss_mask
I0605 14:38:01.457087 12087 net.cpp:454] loss_mask <- mask_score
I0605 14:38:01.457093 12087 net.cpp:454] loss_mask <- mask_targets
I0605 14:38:01.457103 12087 net.cpp:411] loss_mask -> loss_mask
…
