…
average_loss: 100
iter_size: 2
I0628 11:16:33.023147 23212 solver.cpp:81] Creating training net from train_net file: models/pascal_voc/VGG16/faster_rcnn_end2end/train.prototxt
I0628 11:16:33.025043 23212 net.cpp:49] Initializing net from parameters: 
name: "VGG_ILSVRC_16_layers"
state {
  phase: TRAIN
}
layer {
  name: "input-data"
  type: "Python"
  top: "data"
  top: "im_info"
  top: "gt_boxes"
  top: "seg_mask_inds"
  top: "flipped"
  python_param {
    module: "roi_data_layer.layer"
    layer: "RoIDataLayer"
    param_str: "\'num_classes\': 2"
  }
}
layer {
  name: "conv1_1"
  type: "Convolution"
  bottom: "data"
  top: "conv1_1"
  param {
    lr_mult: 0
    decay_mult: 0
  }
  param {
    lr_mult: 0
    decay_mult: 0
  }
  convolution_param {
    num_output: 64
    pad: 1
    kernel_size: 3
  }
}
layer {
  name: "relu1_1"
  type: "ReLU"
  bottom: "conv1_1"
  top: "conv1_1"
}
layer {
  name: "conv1_2"
  type: "Convolution"
  bottom: "conv1_1"
  top: "conv1_2"
  param {
    lr_mult: 0
    decay_mult: 0
  }
  param {
    lr_mult: 0
    decay_mult: 0
  }
  convolution_param {
    num_output: 64
    pad: 1
    kernel_size: 3
  }
}
layer {
  name: "relu1_2"
  type: "ReLU"
  bottom: "conv1_2"
  top: "conv1_2"
}
layer {
  name: "pool1"
  type: "Pooling"
  bottom: "conv1_2"
  top: "pool1"
  pooling_param {
    pool: MAX
    kernel_size: 2
    stride: 2
  }
}
layer {
  name: "conv2_1"
  type: "Convolution"
  bottom: "pool1"
  top: "conv2_1"
  param {
    lr_mult: 0
    decay_mult: 0
  }
  param {
    lr_mult: 0
    decay_mult: 0
  }
  convolution_param {
    num_output: 128
    pad: 1
    kernel_size: 3
  }
}
layer {
  name: "relu2_1"
  type: "ReLU"
  bottom: "conv2_1"
  top: "conv2_1"
}
layer {
  name: "conv2_2"
  type: "Convolution"
  bottom: "conv2_1"
  top: "conv2_2"
  param {
    lr_mult: 0
    decay_mult: 0
  }
  param {
    lr_mult: 0
    decay_mult: 0
  }
  convolution_param {
    num_output: 128
    pad: 1
    kernel_size: 3
  }
}
layer {
  name: "relu2_2"
  type: "ReLU"
  bottom: "conv2_2"
  top: "conv2_2"
}
layer {
  name: "pool2"
  type: "Pooling"
  bottom: "conv2_2"
  top: "pool2"
  pooling_param {
    pool: MAX
    kernel_size: 2
    stride: 2
  }
}
layer {
  name: "conv3_1"
  type: "Convolution"
  bottom: "pool2"
  top: "conv3_1"
  param {
    lr_mult: 1
  }
  param {
    lr_mult: 2
  }
  convolution_param {
    num_output: 256
    pad: 1
    kernel_size: 3
  }
}
layer {
  name: "relu3_1"
  type: "ReLU"
  bottom: "conv3_1"
  top: "conv3_1"
}
layer {
  name: "conv3_2"
  type: "Convolution"
  bottom: "conv3_1"
  top: "conv3_2"
  param {
    lr_mult: 1
  }
  param {
    lr_mult: 2
  }
  convolution_param {
    num_output: 256
    pad: 1
    kernel_size: 3
  }
}
layer {
  name: "relu3_2"
  type: "ReLU"
  bottom: "conv3_2"
  top: "conv3_2"
}
layer {
  name: "conv3_3"
  type: "Convolution"
  bottom: "conv3_2"
  top: "conv3_3"
  param {
    lr_mult: 1
  }
  param {
    lr_mult: 2
  }
  convolution_param {
    num_output: 256
    pad: 1
    kernel_size: 3
  }
}
layer {
  name: "relu3_3"
  type: "ReLU"
  bottom: "conv3_3"
  top: "conv3_3"
}
layer {
  name: "pool3"
  type: "Pooling"
  bottom: "conv3_3"
  top: "pool3"
  pooling_param {
    pool: MAX
    kernel_size: 2
    stride: 2
  }
}
layer {
  name: "conv4_1"
  type: "Convolution"
  bottom: "pool3"
  top: "conv4_1"
  param {
    lr_mult: 1
  }
  param {
    lr_mult: 2
  }
  convolution_param {
    num_output: 512
    pad: 1
    kernel_size: 3
  }
}
layer {
  name: "relu4_1"
  type: "ReLU"
  bottom: "conv4_1"
  top: "conv4_1"
}
layer {
  name: "conv4_2"
  type: "Convolution"
  bottom: "conv4_1"
  top: "conv4_2"
  param {
    lr_mult: 1
  }
  param {
    lr_mult: 2
  }
  convolution_param {
    num_output: 512
    pad: 1
    kernel_size: 3
  }
}
layer {
  name: "relu4_2"
  type: "ReLU"
  bottom: "conv4_2"
  top: "conv4_2"
}
layer {
  name: "conv4_3"
  type: "Convolution"
  bottom: "conv4_2"
  top: "conv4_3"
  param {
    lr_mult: 1
  }
  param {
    lr_mult: 2
  }
  convolution_param {
    num_output: 512
    pad: 1
    kernel_size: 3
  }
}
layer {
  name: "relu4_3"
  type: "ReLU"
  bottom: "conv4_3"
  top: "conv4_3"
}
layer {
  name: "pool4"
  type: "Pooling"
  bottom: "conv4_3"
  top: "pool4"
  pooling_param {
    pool: MAX
    kernel_size: 2
    stride: 2
  }
}
layer {
  name: "conv5_1"
  type: "Convolution"
  bottom: "pool4"
  top: "conv5_1"
  param {
    lr_mult: 1
  }
  param {
    lr_mult: 2
  }
  convolution_param {
    num_output: 512
    pad: 1
    kernel_size: 3
  }
}
layer {
  name: "relu5_1"
  type: "ReLU"
  bottom: "conv5_1"
  top: "conv5_1"
}
layer {
  name: "conv5_2"
  type: "Convolution"
  bottom: "conv5_1"
  top: "conv5_2"
  param {
    lr_mult: 1
  }
  param {
    lr_mult: 2
  }
  convolution_param {
    num_output: 512
    pad: 1
    kernel_size: 3
  }
}
layer {
  name: "relu5_2"
  type: "ReLU"
  bottom: "conv5_2"
  top: "conv5_2"
}
layer {
  name: "conv5_3"
  type: "Convolution"
  bottom: "conv5_2"
  top: "conv5_3"
  param {
    lr_mult: 1
  }
  param {
    lr_mult: 2
  }
  convolution_param {
    num_output: 512
    pad: 1
    kernel_size: 3
  }
}
layer {
  name: "relu5_3"
  type: "ReLU"
  bottom: "conv5_3"
  top: "conv5_3"
}
layer {
  name: "rpn_conv/3x3"
  type: "Convolution"
  bottom: "conv5_3"
  top: "rpn/output"
  param {
    lr_mult: 1
  }
  param {
    lr_mult: 2
  }
  convolution_param {
    num_output: 512
    pad: 1
    kernel_size: 3
    stride: 1
    weight_filler {
      type: "gaussian"
      std: 0.01
    }
    bias_filler {
      type: "constant"
      value: 0
    }
  }
}
layer {
  name: "rpn_relu/3x3"
  type: "ReLU"
  bottom: "rpn/output"
  top: "rpn/output"
}
layer {
  name: "rpn_cls_score"
  type: "Convolution"
  bottom: "rpn/output"
  top: "rpn_cls_score"
  param {
    lr_mult: 1
  }
  param {
    lr_mult: 2
  }
  convolution_param {
    num_output: 30
    pad: 0
    kernel_size: 1
    stride: 1
    weight_filler {
      type: "gaussian"
      std: 0.01
    }
    bias_filler {
      type: "constant"
      value: 0
    }
  }
}
layer {
  name: "rpn_bbox_pred"
  type: "Convolution"
  bottom: "rpn/output"
  top: "rpn_bbox_pred"
  param {
    lr_mult: 1
  }
  param {
    lr_mult: 2
  }
  convolution_param {
    num_output: 60
    pad: 0
    kernel_size: 1
    stride: 1
    weight_filler {
      type: "gaussian"
      std: 0.01
    }
    bias_filler {
      type: "constant"
      value: 0
    }
  }
}
layer {
  name: "rpn_cls_score_reshape"
  type: "Reshape"
  bottom: "rpn_cls_score"
  top: "rpn_cls_score_reshape"
  reshape_param {
    shape {
      dim: 0
      dim: 2
      dim: -1
      dim: 0
    }
  }
}
layer {
  name: "rpn-data"
  type: "Python"
  bottom: "rpn_cls_score"
  bottom: "gt_boxes"
  bottom: "im_info"
  bottom: "data"
  top: "rpn_labels"
  top: "rpn_bbox_targets"
  top: "rpn_bbox_inside_weights"
  top: "rpn_bbox_outside_weights"
  python_param {
    module: "rpn.anchor_target_layer"
    layer: "AnchorTargetLayer"
    param_str: "\'feat_stride\': 16 \n\'scales\': !!python/tuple [2, 4, 8, 16, 32]"
  }
}
layer {
  name: "rpn_loss_cls"
  type: "SoftmaxWithLoss"
  bottom: "rpn_cls_score_reshape"
  bottom: "rpn_labels"
  top: "rpn_cls_loss"
  loss_weight: 1
  propagate_down: true
  propagate_down: false
  loss_param {
    ignore_label: -1
    normalize: true
  }
}
layer {
  name: "rpn_loss_bbox"
  type: "SmoothL1Loss"
  bottom: "rpn_bbox_pred"
  bottom: "rpn_bbox_targets"
  bottom: "rpn_bbox_inside_weights"
  bottom: "rpn_bbox_outside_weights"
  top: "rpn_loss_bbox"
  loss_weight: 1
  smooth_l1_loss_param {
    sigma: 3
  }
}
layer {
  name: "rpn_cls_prob"
  type: "Softmax"
  bottom: "rpn_cls_score_reshape"
  top: "rpn_cls_prob"
}
layer {
  name: "rpn_cls_prob_reshape"
  type: "Reshape"
  bottom: "rpn_cls_prob"
  top: "rpn_cls_prob_reshape"
  reshape_param {
    shape {
      dim: 0
      dim: 30
      dim: -1
      dim: 0
    }
  }
}
layer {
  name: "proposal"
  type: "Python"
  bottom: "rpn_cls_prob_reshape"
  bottom: "rpn_bbox_pred"
  bottom: "im_info"
  top: "rpn_rois"
  python_param {
    module: "rpn.proposal_layer"
    layer: "ProposalLayer"
    param_str: "\'feat_stride\': 16 \n\'scales\': !!python/tuple [2, 4, 8, 16, 32]"
  }
}
layer {
  name: "roi-data"
  type: "Python"
  bottom: "rpn_rois"
  bottom: "gt_boxes"
  bottom: "im_info"
  bottom: "seg_mask_inds"
  bottom: "flipped"
  top: "rois"
  top: "labels"
  top: "bbox_targets"
  top: "bbox_inside_weights"
  top: "bbox_outside_weights"
  top: "mask_targets"
  top: "rois_pos"
  python_param {
    module: "rpn.proposal_target_layer"
    layer: "ProposalTargetLayer"
    param_str: "\'num_classes\': 2"
  }
}
layer {
  name: "roi_pool5"
  type: "ROIAlignment"
  bottom: "conv5_3"
  bottom: "rois"
  top: "pool5"
  roi_alignment_param {
    pooled_h: 7
    pooled_w: 7
    spatial_scale: 0.0625
  }
}
layer {
  name: "fc6"
  type: "InnerProduct"
  bottom: "pool5"
  top: "fc6"
  param {
    lr_mult: 1
  }
  param {
    lr_mult: 2
  }
  inner_product_param {
    num_output: 4096
  }
}
layer {
  name: "relu6"
  type: "ReLU"
  bottom: "fc6"
  top: "fc6"
}
layer {
  name: "fc7"
  type: "InnerProduct"
  bottom: "fc6"
  top: "fc7"
  param {
    lr_mult: 1
  }
  param {
    lr_mult: 2
  }
  inner_product_param {
    num_output: 4096
  }
}
layer {
  name: "relu7"
  type: "ReLU"
  bottom: "fc7"
  top: "fc7"
}
layer {
  name: "cls_score"
  type: "InnerProduct"
  bottom: "fc7"
  top: "cls_score"
  param {
    lr_mult: 1
  }
  param {
    lr_mult: 2
  }
  inner_product_param {
    num_output: 2
    weight_filler {
      type: "gaussian"
      std: 0.01
    }
    bias_filler {
      type: "constant"
      value: 0
    }
  }
}
layer {
  name: "bbox_pred"
  type: "InnerProduct"
  bottom: "fc7"
  top: "bbox_pred"
  param {
    lr_mult: 1
  }
  param {
    lr_mult: 2
  }
  inner_product_param {
    num_output: 8
    weight_filler {
      type: "gaussian"
      std: 0.001
    }
    bias_filler {
      type: "constant"
      value: 0
    }
  }
}
layer {
  name: "loss_cls"
  type: "SoftmaxWithLoss"
  bottom: "cls_score"
  bottom: "labels"
  top: "loss_cls"
  loss_weight: 3
  propagate_down: true
  propagate_down: false
}
layer {
  name: "loss_bbox"
  type: "SmoothL1Loss"
  bottom: "bbox_pred"
  bottom: "bbox_targets"
  bottom: "bbox_inside_weights"
  bottom: "bbox_outside_weights"
  top: "loss_bbox"
  loss_weight: 2
}
layer {
  name: "roi_pool5_2"
  type: "ROIAlignment"
  bottom: "conv5_3"
  bottom: "rois_pos"
  top: "pool5_2"
  roi_alignment_param {
    pooled_h: 7
    pooled_w: 7
    spatial_scale: 0.0625
  }
}
layer {
  name: "pool5_2_conv"
  type: "Convolution"
  bottom: "pool5_2"
  top: "pool5_2_conv"
  param {
    lr_mult: 1
    decay_mult: 1
  }
  param {
    lr_mult: 2
    decay_mult: 0
  }
  convolution_param {
    num_output: 512
    pad: 0
    kernel_size: 1
    weight_filler {
      type: "gaussian"
      std: 0.01
    }
    bias_filler {
      type: "constant"
      value: 0
    }
  }
}
layer {
  name: "pool5_2_conv_relu"
  type: "ReLU"
  bottom: "pool5_2_conv"
  top: "pool5_2_conv_relu"
}
layer {
  name: "pool5_2_conv2"
  type: "Convolution"
  bottom: "pool5_2_conv_relu"
  top: "pool5_2_conv2"
  param {
    lr_mult: 1
    decay_mult: 1
  }
  param {
    lr_mult: 2
    decay_mult: 0
  }
  convolution_param {
    num_output: 512
    pad: 1
    kernel_size: 3
    stride: 1
    weight_filler {
      type: "gaussian"
      std: 0.01
    }
    bias_filler {
      type: "constant"
      value: 0
    }
  }
}
layer {
  name: "pool5_2_conv2_relu"
  type: "ReLU"
  bottom: "pool5_2_conv2"
  top: "pool5_2_conv2_relu"
}
layer {
  name: "mask_deconv1"
  type: "Deconvolution"
  bottom: "pool5_2_conv2_relu"
  top: "mask_deconv1"
  param {
    lr_mult: 1
    decay_mult: 1
  }
  param {
    lr_mult: 2
    decay_mult: 0
  }
  convolution_param {
    num_output: 256
    pad: 1
    kernel_size: 8
    group: 256
    stride: 4
    weight_filler {
      type: "bilinear"
    }
  }
}
layer {
  name: "pool5_2_conv3"
  type: "Convolution"
  bottom: "mask_deconv1"
  top: "pool5_2_conv3"
  param {
    lr_mult: 1
    decay_mult: 1
  }
  param {
    lr_mult: 2
    decay_mult: 0
  }
  convolution_param {
    num_output: 512
    pad: 1
    kernel_size: 3
    stride: 1
    weight_filler {
      type: "gaussian"
      std: 0.01
    }
    bias_filler {
      type: "constant"
      value: 0
    }
  }
}
layer {
  name: "pool5_2_conv3_relu"
  type: "ReLU"
  bottom: "pool5_2_conv3"
  top: "pool5_2_conv3_relu"
}
layer {
  name: "pool5_2_conv4"
  type: "Convolution"
  bottom: "pool5_2_conv3_relu"
  top: "pool5_2_conv4"
  param {
    lr_mult: 1
    decay_mult: 1
  }
  param {
    lr_mult: 2
    decay_mult: 0
  }
  convolution_param {
    num_output: 512
    pad: 1
    kernel_size: 3
    stride: 1
    weight_filler {
      type: "gaussian"
      std: 0.01
    }
    bias_filler {
      type: "constant"
      value: 0
    }
  }
}
layer {
  name: "pool5_2_conv4_relu"
  type: "ReLU"
  bottom: "pool5_2_conv4"
  top: "pool5_2_conv4_relu"
}
layer {
  name: "query_conv"
  type: "Convolution"
  bottom: "pool5_2_conv4_relu"
  top: "query_conv"
  param {
    lr_mult: 1
    decay_mult: 1
  }
  param {
    lr_mult: 2
    decay_mult: 0
  }
  convolution_param {
    num_output: 64
    pad: 0
    kernel_size: 1
    stride: 1
    weight_filler {
      type: "gaussian"
      std: 0.01
    }
    bias_filler {
      type: "constant"
      value: 0
    }
  }
}
layer {
  name: "key_conv"
  type: "Convolution"
  bottom: "pool5_2_conv4_relu"
  top: "key_conv"
  param {
    lr_mult: 1
    decay_mult: 1
  }
  param {
    lr_mult: 2
    decay_mult: 0
  }
  convolution_param {
    num_output: 64
    pad: 0
    kernel_size: 1
    stride: 1
    weight_filler {
      type: "gaussian"
      std: 0.01
    }
    bias_filler {
      type: "constant"
      value: 0
    }
  }
}
layer {
  name: "value_conv"
  type: "Convolution"
  bottom: "pool5_2_conv4_relu"
  top: "value_conv"
  param {
    lr_mult: 1
    decay_mult: 1
  }
  param {
    lr_mult: 2
    decay_mult: 0
  }
  convolution_param {
    num_output: 512
    pad: 0
    kernel_size: 1
    stride: 1
    weight_filler {
      type: "gaussian"
      std: 0.01
    }
    bias_filler {
      type: "constant"
      value: 0
    }
  }
}
layer {
  name: "query_conv_reshape"
  type: "Reshape"
  bottom: "query_conv"
  top: "query_conv_reshape"
  reshape_param {
    shape {
      dim: -1
      dim: 64
      dim: 900
      dim: 1
    }
  }
}
layer {
  name: "key_conv_reshape"
  type: "Reshape"
  bottom: "key_conv"
  top: "key_conv_reshape"
  reshape_param {
    shape {
      dim: -1
      dim: 64
      dim: 900
      dim: 1
    }
  }
}
layer {
  name: "value_conv_reshape"
  type: "Reshape"
  bottom: "value_conv"
  top: "value_conv_reshape"
  reshape_param {
    shape {
      dim: -1
      dim: 512
      dim: 900
      dim: 1
    }
  }
}
layer {
  name: "query_conv_reshape_perm"
  type: "Permute"
  bottom: "query_conv_reshape"
  top: "query_conv_reshape_perm"
  permute_param {
    order: 0
    order: 3
    order: 2
    order: 1
  }
}
layer {
  name: "key_conv_reshape_perm"
  type: "Permute"
  bottom: "key_conv_reshape"
  top: "key_conv_reshape_perm"
  permute_param {
    order: 0
    order: 3
    order: 1
    order: 2
  }
}
layer {
  name: "energy"
  type: "MatrixMultiplication"
  bottom: "query_conv_reshape_perm"
  bottom: "key_conv_reshape_perm"
  top: "energy"
}
layer {
  name: "attention"
  type: "Softmax"
  bottom: "energy"
  top: "attention"
  softmax_param {
    axis: 3
  }
}
layer {
  name: "value_conv_reshape_perm"
  type: "Permute"
  bottom: "value_conv_reshape"
  top: "value_conv_reshape_perm"
  permute_param {
    order: 0
    order: 3
    order: 1
    order: 2
  }
}
layer {
  name: "attention_perm"
  type: "Permute"
  bottom: "attention"
  top: "attention_perm"
  permute_param {
    order: 0
    order: 1
    order: 2
    order: 3
  }
}
layer {
  name: "out"
  type: "MatrixMultiplication"
  bottom: "value_conv_reshape_perm"
  bottom: "attention_perm"
  top: "out"
}
layer {
  name: "out_reshape"
  type: "Reshape"
  bottom: "out"
  top: "out_reshape"
  reshape_param {
    shape {
      dim: -1
      dim: 512
      dim: 30
      dim: 30
    }
  }
}
layer {
  name: "out_reshape_scale"
  type: "Scale"
  bottom: "out_reshape"
  top: "out_reshape_scale"
  param {
    name: "scale_conv1_1"
    lr_mult: 1
  }
  scale_param {
    bias_term: false
  }
}
layer {
  name: "out_x"
  type: "Eltwise"
  bottom: "out_reshape_scale"
  bottom: "pool5_2_conv4_relu"
  top: "out_x"
  eltwise_param {
    operation: SUM
  }
}
layer {
  name: "mask_deconv2"
  type: "Deconvolution"
  bottom: "out_x"
  top: "mask_deconv2"
  param {
    lr_mult: 1
    decay_mult: 1
  }
  param {
    lr_mult: 2
    decay_mult: 0
  }
  convolution_param {
    num_output: 256
    pad: 1
    kernel_size: 8
    group: 256
    stride: 4
    weight_filler {
      type: "bilinear"
    }
  }
}
layer {
  name: "pool5_2_conv5"
  type: "Convolution"
  bottom: "mask_deconv2"
  top: "pool5_2_conv5"
  param {
    lr_mult: 1
    decay_mult: 1
  }
  param {
    lr_mult: 2
    decay_mult: 0
  }
  convolution_param {
    num_output: 512
    pad: 1
    kernel_size: 3
    stride: 1
    weight_filler {
      type: "gaussian"
      std: 0.01
    }
    bias_filler {
      type: "constant"
      value: 0
    }
  }
}
layer {
  name: "pool5_2_conv5_relu"
  type: "ReLU"
  bottom: "pool5_2_conv5"
  top: "pool5_2_conv5_relu"
}
layer {
  name: "pool5_2_conv6"
  type: "Convolution"
  bottom: "pool5_2_conv5_relu"
  top: "pool5_2_conv6"
  param {
    lr_mult: 1
    decay_mult: 1
  }
  param {
    lr_mult: 2
    decay_mult: 0
  }
  convolution_param {
    num_output: 512
    pad: 1
    kernel_size: 3
    stride: 1
    weight_filler {
      type: "gaussian"
      std: 0.01
    }
    bias_filler {
      type: "constant"
      value: 0
    }
  }
}
layer {
  name: "pool5_2_conv6_relu"
  type: "ReLU"
  bottom: "pool5_2_conv6"
  top: "pool5_2_conv6_relu"
}
layer {
  name: "mask_deconv3"
  type: "Deconvolution"
  bottom: "pool5_2_conv6_relu"
  top: "mask_deconv3"
  param {
    lr_mult: 1
    decay_mult: 1
  }
  param {
    lr_mult: 2
    decay_mult: 0
  }
  convolution_param {
    num_output: 256
    pad: 1
    kernel_size: 4
    group: 256
    stride: 2
    weight_filler {
      type: "bilinear"
    }
  }
}
layer {
  name: "mask_score"
  type: "Convolution"
  bottom: "mask_deconv3"
  top: "mask_score"
  param {
    lr_mult: 1
    decay_mult: 1
  }
  param {
    lr_mult: 2
    decay_mult: 0
  }
  convolution_param {
    num_output: 8
    pad: 0
    kernel_size: 1
    weight_filler {
      type: "gaussian"
      std: 0.01
    }
    bias_filler {
      type: "constant"
      value: 0
    }
  }
}
layer {
  name: "prob"
  type: "Softmax"
  bottom: "mask_score"
  top: "mask_score_softmax"
  softmax_param {
    axis: 1
  }
}
layer {
  name: "log"
  type: "Log"
  bottom: "mask_score_softmax"
  top: "log"
}
layer {
  name: "mult1"
  type: "Eltwise"
  bottom: "log"
  bottom: "mask_targets"
  top: "mult1"
  eltwise_param {
    operation: PROD
  }
}
layer {
  name: "cross_entropy"
  type: "Power"
  bottom: "mult1"
  top: "cross_entropy"
  power_param {
    power: 1
    scale: -1
    shift: 0
  }
}
layer {
  name: "ce_sum"
  type: "Convolution"
  bottom: "cross_entropy"
  top: "cross_entropy_sum"
  param {
    lr_mult: 0
    decay_mult: 0
  }
  convolution_param {
    num_output: 1
    bias_term: false
    kernel_size: 1
    weight_filler {
      type: "constant"
      value: 1
    }
  }
}
layer {
  name: "ce_mean"
  type: "Reduction"
  bottom: "cross_entropy_sum"
  top: "cross_entropy_mean"
  loss_weight: 3
  reduction_param {
    operation: MEAN
    axis: 0
  }
}
I0628 11:16:33.025439 23212 layer_factory.hpp:77] Creating layer input-data
I0628 11:16:33.127112 23212 net.cpp:106] Creating Layer input-data
I0628 11:16:33.127132 23212 net.cpp:411] input-data -> data
I0628 11:16:33.127142 23212 net.cpp:411] input-data -> im_info
I0628 11:16:33.127146 23212 net.cpp:411] input-data -> gt_boxes
I0628 11:16:33.127151 23212 net.cpp:411] input-data -> seg_mask_inds
I0628 11:16:33.127153 23212 net.cpp:411] input-data -> flipped
RoiDataLayer: name_to_top: {'gt_boxes': 2, 'data': 0, 'seg_mask_inds': 3, 'im_info': 1, 'flipped': 4}
I0628 11:16:33.196380 23212 net.cpp:150] Setting up input-data
I0628 11:16:33.196398 23212 net.cpp:157] Top shape: 1 3 600 1000 (1800000)
I0628 11:16:33.196400 23212 net.cpp:157] Top shape: 1 3 (3)
I0628 11:16:33.196403 23212 net.cpp:157] Top shape: 1 4 (4)
I0628 11:16:33.196405 23212 net.cpp:157] Top shape: 1 2 (2)
I0628 11:16:33.196408 23212 net.cpp:157] Top shape: 1 1 (1)
I0628 11:16:33.196410 23212 net.cpp:165] Memory required for data: 7200040
I0628 11:16:33.196416 23212 layer_factory.hpp:77] Creating layer data_input-data_0_split
I0628 11:16:33.197005 23212 net.cpp:106] Creating Layer data_input-data_0_split
I0628 11:16:33.197010 23212 net.cpp:454] data_input-data_0_split <- data
I0628 11:16:33.197016 23212 net.cpp:411] data_input-data_0_split -> data_input-data_0_split_0
I0628 11:16:33.197022 23212 net.cpp:411] data_input-data_0_split -> data_input-data_0_split_1
I0628 11:16:33.197047 23212 net.cpp:150] Setting up data_input-data_0_split
I0628 11:16:33.197052 23212 net.cpp:157] Top shape: 1 3 600 1000 (1800000)
I0628 11:16:33.197054 23212 net.cpp:157] Top shape: 1 3 600 1000 (1800000)
I0628 11:16:33.197057 23212 net.cpp:165] Memory required for data: 21600040
I0628 11:16:33.197058 23212 layer_factory.hpp:77] Creating layer im_info_input-data_1_split
I0628 11:16:33.197062 23212 net.cpp:106] Creating Layer im_info_input-data_1_split
I0628 11:16:33.197063 23212 net.cpp:454] im_info_input-data_1_split <- im_info
I0628 11:16:33.197067 23212 net.cpp:411] im_info_input-data_1_split -> im_info_input-data_1_split_0
I0628 11:16:33.197072 23212 net.cpp:411] im_info_input-data_1_split -> im_info_input-data_1_split_1
I0628 11:16:33.197077 23212 net.cpp:411] im_info_input-data_1_split -> im_info_input-data_1_split_2
I0628 11:16:33.197106 23212 net.cpp:150] Setting up im_info_input-data_1_split
I0628 11:16:33.197109 23212 net.cpp:157] Top shape: 1 3 (3)
I0628 11:16:33.197111 23212 net.cpp:157] Top shape: 1 3 (3)
I0628 11:16:33.197113 23212 net.cpp:157] Top shape: 1 3 (3)
I0628 11:16:33.197115 23212 net.cpp:165] Memory required for data: 21600076
I0628 11:16:33.197116 23212 layer_factory.hpp:77] Creating layer gt_boxes_input-data_2_split
I0628 11:16:33.197120 23212 net.cpp:106] Creating Layer gt_boxes_input-data_2_split
I0628 11:16:33.197122 23212 net.cpp:454] gt_boxes_input-data_2_split <- gt_boxes
I0628 11:16:33.197124 23212 net.cpp:411] gt_boxes_input-data_2_split -> gt_boxes_input-data_2_split_0
I0628 11:16:33.197130 23212 net.cpp:411] gt_boxes_input-data_2_split -> gt_boxes_input-data_2_split_1
I0628 11:16:33.197149 23212 net.cpp:150] Setting up gt_boxes_input-data_2_split
I0628 11:16:33.197152 23212 net.cpp:157] Top shape: 1 4 (4)
I0628 11:16:33.197154 23212 net.cpp:157] Top shape: 1 4 (4)
I0628 11:16:33.197155 23212 net.cpp:165] Memory required for data: 21600108
I0628 11:16:33.197157 23212 layer_factory.hpp:77] Creating layer conv1_1
I0628 11:16:33.197166 23212 net.cpp:106] Creating Layer conv1_1
I0628 11:16:33.197168 23212 net.cpp:454] conv1_1 <- data_input-data_0_split_0
I0628 11:16:33.197172 23212 net.cpp:411] conv1_1 -> conv1_1
I0628 11:16:33.953299 23212 net.cpp:150] Setting up conv1_1
I0628 11:16:33.953326 23212 net.cpp:157] Top shape: 1 64 600 1000 (38400000)
I0628 11:16:33.953330 23212 net.cpp:165] Memory required for data: 175200108
I0628 11:16:33.953341 23212 layer_factory.hpp:77] Creating layer relu1_1
I0628 11:16:33.953359 23212 net.cpp:106] Creating Layer relu1_1
I0628 11:16:33.953364 23212 net.cpp:454] relu1_1 <- conv1_1
I0628 11:16:33.953368 23212 net.cpp:397] relu1_1 -> conv1_1 (in-place)
I0628 11:16:33.953516 23212 net.cpp:150] Setting up relu1_1
I0628 11:16:33.953521 23212 net.cpp:157] Top shape: 1 64 600 1000 (38400000)
I0628 11:16:33.953523 23212 net.cpp:165] Memory required for data: 328800108
I0628 11:16:33.953526 23212 layer_factory.hpp:77] Creating layer conv1_2
I0628 11:16:33.953534 23212 net.cpp:106] Creating Layer conv1_2
I0628 11:16:33.953548 23212 net.cpp:454] conv1_2 <- conv1_1
I0628 11:16:33.953552 23212 net.cpp:411] conv1_2 -> conv1_2
I0628 11:16:33.958235 23212 net.cpp:150] Setting up conv1_2
I0628 11:16:33.958250 23212 net.cpp:157] Top shape: 1 64 600 1000 (38400000)
I0628 11:16:33.958252 23212 net.cpp:165] Memory required for data: 482400108
I0628 11:16:33.958278 23212 layer_factory.hpp:77] Creating layer relu1_2
I0628 11:16:33.958284 23212 net.cpp:106] Creating Layer relu1_2
I0628 11:16:33.958287 23212 net.cpp:454] relu1_2 <- conv1_2
I0628 11:16:33.958290 23212 net.cpp:397] relu1_2 -> conv1_2 (in-place)
I0628 11:16:33.958415 23212 net.cpp:150] Setting up relu1_2
I0628 11:16:33.958421 23212 net.cpp:157] Top shape: 1 64 600 1000 (38400000)
I0628 11:16:33.958433 23212 net.cpp:165] Memory required for data: 636000108
I0628 11:16:33.958436 23212 layer_factory.hpp:77] Creating layer pool1
I0628 11:16:33.958441 23212 net.cpp:106] Creating Layer pool1
I0628 11:16:33.958442 23212 net.cpp:454] pool1 <- conv1_2
I0628 11:16:33.958446 23212 net.cpp:411] pool1 -> pool1
I0628 11:16:33.959113 23212 net.cpp:150] Setting up pool1
I0628 11:16:33.959120 23212 net.cpp:157] Top shape: 1 64 300 500 (9600000)
I0628 11:16:33.959120 23212 net.cpp:165] Memory required for data: 674400108
I0628 11:16:33.959122 23212 layer_factory.hpp:77] Creating layer conv2_1
I0628 11:16:33.959128 23212 net.cpp:106] Creating Layer conv2_1
I0628 11:16:33.959131 23212 net.cpp:454] conv2_1 <- pool1
I0628 11:16:33.959133 23212 net.cpp:411] conv2_1 -> conv2_1
I0628 11:16:33.960952 23212 net.cpp:150] Setting up conv2_1
I0628 11:16:33.960960 23212 net.cpp:157] Top shape: 1 128 300 500 (19200000)
I0628 11:16:33.960963 23212 net.cpp:165] Memory required for data: 751200108
I0628 11:16:33.960968 23212 layer_factory.hpp:77] Creating layer relu2_1
I0628 11:16:33.960973 23212 net.cpp:106] Creating Layer relu2_1
I0628 11:16:33.960975 23212 net.cpp:454] relu2_1 <- conv2_1
I0628 11:16:33.960979 23212 net.cpp:397] relu2_1 -> conv2_1 (in-place)
I0628 11:16:33.961449 23212 net.cpp:150] Setting up relu2_1
I0628 11:16:33.961457 23212 net.cpp:157] Top shape: 1 128 300 500 (19200000)
I0628 11:16:33.961459 23212 net.cpp:165] Memory required for data: 828000108
I0628 11:16:33.961462 23212 layer_factory.hpp:77] Creating layer conv2_2
I0628 11:16:33.961467 23212 net.cpp:106] Creating Layer conv2_2
I0628 11:16:33.961468 23212 net.cpp:454] conv2_2 <- conv2_1
I0628 11:16:33.961472 23212 net.cpp:411] conv2_2 -> conv2_2
I0628 11:16:33.963315 23212 net.cpp:150] Setting up conv2_2
I0628 11:16:33.963323 23212 net.cpp:157] Top shape: 1 128 300 500 (19200000)
I0628 11:16:33.963325 23212 net.cpp:165] Memory required for data: 904800108
I0628 11:16:33.963330 23212 layer_factory.hpp:77] Creating layer relu2_2
I0628 11:16:33.963333 23212 net.cpp:106] Creating Layer relu2_2
I0628 11:16:33.963336 23212 net.cpp:454] relu2_2 <- conv2_2
I0628 11:16:33.963340 23212 net.cpp:397] relu2_2 -> conv2_2 (in-place)
I0628 11:16:33.963449 23212 net.cpp:150] Setting up relu2_2
I0628 11:16:33.963454 23212 net.cpp:157] Top shape: 1 128 300 500 (19200000)
I0628 11:16:33.963456 23212 net.cpp:165] Memory required for data: 981600108
I0628 11:16:33.963459 23212 layer_factory.hpp:77] Creating layer pool2
I0628 11:16:33.963462 23212 net.cpp:106] Creating Layer pool2
I0628 11:16:33.963464 23212 net.cpp:454] pool2 <- conv2_2
I0628 11:16:33.963469 23212 net.cpp:411] pool2 -> pool2
I0628 11:16:33.963492 23212 net.cpp:150] Setting up pool2
I0628 11:16:33.963496 23212 net.cpp:157] Top shape: 1 128 150 250 (4800000)
I0628 11:16:33.963498 23212 net.cpp:165] Memory required for data: 1000800108
I0628 11:16:33.963500 23212 layer_factory.hpp:77] Creating layer conv3_1
I0628 11:16:33.963505 23212 net.cpp:106] Creating Layer conv3_1
I0628 11:16:33.963506 23212 net.cpp:454] conv3_1 <- pool2
I0628 11:16:33.963510 23212 net.cpp:411] conv3_1 -> conv3_1
I0628 11:16:33.965497 23212 net.cpp:150] Setting up conv3_1
I0628 11:16:33.965508 23212 net.cpp:157] Top shape: 1 256 150 250 (9600000)
I0628 11:16:33.965510 23212 net.cpp:165] Memory required for data: 1039200108
I0628 11:16:33.965517 23212 layer_factory.hpp:77] Creating layer relu3_1
I0628 11:16:33.965521 23212 net.cpp:106] Creating Layer relu3_1
I0628 11:16:33.965523 23212 net.cpp:454] relu3_1 <- conv3_1
I0628 11:16:33.965536 23212 net.cpp:397] relu3_1 -> conv3_1 (in-place)
I0628 11:16:33.965675 23212 net.cpp:150] Setting up relu3_1
I0628 11:16:33.965683 23212 net.cpp:157] Top shape: 1 256 150 250 (9600000)
I0628 11:16:33.965685 23212 net.cpp:165] Memory required for data: 1077600108
I0628 11:16:33.965688 23212 layer_factory.hpp:77] Creating layer conv3_2
I0628 11:16:33.965696 23212 net.cpp:106] Creating Layer conv3_2
I0628 11:16:33.965699 23212 net.cpp:454] conv3_2 <- conv3_1
I0628 11:16:33.965703 23212 net.cpp:411] conv3_2 -> conv3_2
I0628 11:16:33.967918 23212 net.cpp:150] Setting up conv3_2
I0628 11:16:33.967939 23212 net.cpp:157] Top shape: 1 256 150 250 (9600000)
I0628 11:16:33.967941 23212 net.cpp:165] Memory required for data: 1116000108
I0628 11:16:33.967947 23212 layer_factory.hpp:77] Creating layer relu3_2
I0628 11:16:33.967962 23212 net.cpp:106] Creating Layer relu3_2
I0628 11:16:33.967964 23212 net.cpp:454] relu3_2 <- conv3_2
I0628 11:16:33.967968 23212 net.cpp:397] relu3_2 -> conv3_2 (in-place)
I0628 11:16:33.968097 23212 net.cpp:150] Setting up relu3_2
I0628 11:16:33.968103 23212 net.cpp:157] Top shape: 1 256 150 250 (9600000)
I0628 11:16:33.968116 23212 net.cpp:165] Memory required for data: 1154400108
I0628 11:16:33.968117 23212 layer_factory.hpp:77] Creating layer conv3_3
I0628 11:16:33.968123 23212 net.cpp:106] Creating Layer conv3_3
I0628 11:16:33.968127 23212 net.cpp:454] conv3_3 <- conv3_2
I0628 11:16:33.968143 23212 net.cpp:411] conv3_3 -> conv3_3
I0628 11:16:33.970149 23212 net.cpp:150] Setting up conv3_3
I0628 11:16:33.970158 23212 net.cpp:157] Top shape: 1 256 150 250 (9600000)
I0628 11:16:33.970160 23212 net.cpp:165] Memory required for data: 1192800108
I0628 11:16:33.970165 23212 layer_factory.hpp:77] Creating layer relu3_3
I0628 11:16:33.970170 23212 net.cpp:106] Creating Layer relu3_3
I0628 11:16:33.970172 23212 net.cpp:454] relu3_3 <- conv3_3
I0628 11:16:33.970177 23212 net.cpp:397] relu3_3 -> conv3_3 (in-place)
I0628 11:16:33.970327 23212 net.cpp:150] Setting up relu3_3
I0628 11:16:33.970333 23212 net.cpp:157] Top shape: 1 256 150 250 (9600000)
I0628 11:16:33.970335 23212 net.cpp:165] Memory required for data: 1231200108
I0628 11:16:33.970346 23212 layer_factory.hpp:77] Creating layer pool3
I0628 11:16:33.970351 23212 net.cpp:106] Creating Layer pool3
I0628 11:16:33.970353 23212 net.cpp:454] pool3 <- conv3_3
I0628 11:16:33.970357 23212 net.cpp:411] pool3 -> pool3
I0628 11:16:33.970391 23212 net.cpp:150] Setting up pool3
I0628 11:16:33.970396 23212 net.cpp:157] Top shape: 1 256 75 125 (2400000)
I0628 11:16:33.970396 23212 net.cpp:165] Memory required for data: 1240800108
I0628 11:16:33.970408 23212 layer_factory.hpp:77] Creating layer conv4_1
I0628 11:16:33.970413 23212 net.cpp:106] Creating Layer conv4_1
I0628 11:16:33.970414 23212 net.cpp:454] conv4_1 <- pool3
I0628 11:16:33.970417 23212 net.cpp:411] conv4_1 -> conv4_1
I0628 11:16:33.974364 23212 net.cpp:150] Setting up conv4_1
I0628 11:16:33.974381 23212 net.cpp:157] Top shape: 1 512 75 125 (4800000)
I0628 11:16:33.974385 23212 net.cpp:165] Memory required for data: 1260000108
I0628 11:16:33.974390 23212 layer_factory.hpp:77] Creating layer relu4_1
I0628 11:16:33.974398 23212 net.cpp:106] Creating Layer relu4_1
I0628 11:16:33.974412 23212 net.cpp:454] relu4_1 <- conv4_1
I0628 11:16:33.974417 23212 net.cpp:397] relu4_1 -> conv4_1 (in-place)
I0628 11:16:33.974555 23212 net.cpp:150] Setting up relu4_1
I0628 11:16:33.974561 23212 net.cpp:157] Top shape: 1 512 75 125 (4800000)
I0628 11:16:33.974573 23212 net.cpp:165] Memory required for data: 1279200108
I0628 11:16:33.974575 23212 layer_factory.hpp:77] Creating layer conv4_2
I0628 11:16:33.974582 23212 net.cpp:106] Creating Layer conv4_2
I0628 11:16:33.974591 23212 net.cpp:454] conv4_2 <- conv4_1
I0628 11:16:33.974599 23212 net.cpp:411] conv4_2 -> conv4_2
I0628 11:16:33.979418 23212 net.cpp:150] Setting up conv4_2
I0628 11:16:33.979447 23212 net.cpp:157] Top shape: 1 512 75 125 (4800000)
I0628 11:16:33.979449 23212 net.cpp:165] Memory required for data: 1298400108
I0628 11:16:33.979460 23212 layer_factory.hpp:77] Creating layer relu4_2
I0628 11:16:33.979470 23212 net.cpp:106] Creating Layer relu4_2
I0628 11:16:33.979476 23212 net.cpp:454] relu4_2 <- conv4_2
I0628 11:16:33.979482 23212 net.cpp:397] relu4_2 -> conv4_2 (in-place)
I0628 11:16:33.979962 23212 net.cpp:150] Setting up relu4_2
I0628 11:16:33.979970 23212 net.cpp:157] Top shape: 1 512 75 125 (4800000)
I0628 11:16:33.979972 23212 net.cpp:165] Memory required for data: 1317600108
I0628 11:16:33.979974 23212 layer_factory.hpp:77] Creating layer conv4_3
I0628 11:16:33.979982 23212 net.cpp:106] Creating Layer conv4_3
I0628 11:16:33.979984 23212 net.cpp:454] conv4_3 <- conv4_2
I0628 11:16:33.979990 23212 net.cpp:411] conv4_3 -> conv4_3
I0628 11:16:33.984885 23212 net.cpp:150] Setting up conv4_3
I0628 11:16:33.984915 23212 net.cpp:157] Top shape: 1 512 75 125 (4800000)
I0628 11:16:33.984917 23212 net.cpp:165] Memory required for data: 1336800108
I0628 11:16:33.984932 23212 layer_factory.hpp:77] Creating layer relu4_3
I0628 11:16:33.984941 23212 net.cpp:106] Creating Layer relu4_3
I0628 11:16:33.984954 23212 net.cpp:454] relu4_3 <- conv4_3
I0628 11:16:33.984959 23212 net.cpp:397] relu4_3 -> conv4_3 (in-place)
I0628 11:16:33.985085 23212 net.cpp:150] Setting up relu4_3
I0628 11:16:33.985091 23212 net.cpp:157] Top shape: 1 512 75 125 (4800000)
I0628 11:16:33.985095 23212 net.cpp:165] Memory required for data: 1356000108
I0628 11:16:33.985098 23212 layer_factory.hpp:77] Creating layer pool4
I0628 11:16:33.985116 23212 net.cpp:106] Creating Layer pool4
I0628 11:16:33.985118 23212 net.cpp:454] pool4 <- conv4_3
I0628 11:16:33.985122 23212 net.cpp:411] pool4 -> pool4
I0628 11:16:33.985163 23212 net.cpp:150] Setting up pool4
I0628 11:16:33.985167 23212 net.cpp:157] Top shape: 1 512 38 63 (1225728)
I0628 11:16:33.985169 23212 net.cpp:165] Memory required for data: 1360903020
I0628 11:16:33.985173 23212 layer_factory.hpp:77] Creating layer conv5_1
I0628 11:16:33.985191 23212 net.cpp:106] Creating Layer conv5_1
I0628 11:16:33.985194 23212 net.cpp:454] conv5_1 <- pool4
I0628 11:16:33.985198 23212 net.cpp:411] conv5_1 -> conv5_1
I0628 11:16:33.989531 23212 net.cpp:150] Setting up conv5_1
I0628 11:16:33.989552 23212 net.cpp:157] Top shape: 1 512 38 63 (1225728)
I0628 11:16:33.989555 23212 net.cpp:165] Memory required for data: 1365805932
I0628 11:16:33.989574 23212 layer_factory.hpp:77] Creating layer relu5_1
I0628 11:16:33.989583 23212 net.cpp:106] Creating Layer relu5_1
I0628 11:16:33.989586 23212 net.cpp:454] relu5_1 <- conv5_1
I0628 11:16:33.989590 23212 net.cpp:397] relu5_1 -> conv5_1 (in-place)
I0628 11:16:33.989714 23212 net.cpp:150] Setting up relu5_1
I0628 11:16:33.989719 23212 net.cpp:157] Top shape: 1 512 38 63 (1225728)
I0628 11:16:33.989722 23212 net.cpp:165] Memory required for data: 1370708844
I0628 11:16:33.989723 23212 layer_factory.hpp:77] Creating layer conv5_2
I0628 11:16:33.989740 23212 net.cpp:106] Creating Layer conv5_2
I0628 11:16:33.989743 23212 net.cpp:454] conv5_2 <- conv5_1
I0628 11:16:33.989747 23212 net.cpp:411] conv5_2 -> conv5_2
I0628 11:16:33.994092 23212 net.cpp:150] Setting up conv5_2
I0628 11:16:33.994112 23212 net.cpp:157] Top shape: 1 512 38 63 (1225728)
I0628 11:16:33.994114 23212 net.cpp:165] Memory required for data: 1375611756
I0628 11:16:33.994123 23212 layer_factory.hpp:77] Creating layer relu5_2
I0628 11:16:33.994143 23212 net.cpp:106] Creating Layer relu5_2
I0628 11:16:33.994148 23212 net.cpp:454] relu5_2 <- conv5_2
I0628 11:16:33.994151 23212 net.cpp:397] relu5_2 -> conv5_2 (in-place)
I0628 11:16:33.994274 23212 net.cpp:150] Setting up relu5_2
I0628 11:16:33.994280 23212 net.cpp:157] Top shape: 1 512 38 63 (1225728)
I0628 11:16:33.994290 23212 net.cpp:165] Memory required for data: 1380514668
I0628 11:16:33.994292 23212 layer_factory.hpp:77] Creating layer conv5_3
I0628 11:16:33.994313 23212 net.cpp:106] Creating Layer conv5_3
I0628 11:16:33.994314 23212 net.cpp:454] conv5_3 <- conv5_2
I0628 11:16:33.994319 23212 net.cpp:411] conv5_3 -> conv5_3
I0628 11:16:33.998924 23212 net.cpp:150] Setting up conv5_3
I0628 11:16:33.998942 23212 net.cpp:157] Top shape: 1 512 38 63 (1225728)
I0628 11:16:33.998944 23212 net.cpp:165] Memory required for data: 1385417580
I0628 11:16:33.998951 23212 layer_factory.hpp:77] Creating layer relu5_3
I0628 11:16:33.998958 23212 net.cpp:106] Creating Layer relu5_3
I0628 11:16:33.998962 23212 net.cpp:454] relu5_3 <- conv5_3
I0628 11:16:33.998966 23212 net.cpp:397] relu5_3 -> conv5_3 (in-place)
I0628 11:16:33.999081 23212 net.cpp:150] Setting up relu5_3
I0628 11:16:33.999087 23212 net.cpp:157] Top shape: 1 512 38 63 (1225728)
I0628 11:16:33.999089 23212 net.cpp:165] Memory required for data: 1390320492
I0628 11:16:33.999090 23212 layer_factory.hpp:77] Creating layer conv5_3_relu5_3_0_split
I0628 11:16:33.999094 23212 net.cpp:106] Creating Layer conv5_3_relu5_3_0_split
I0628 11:16:33.999096 23212 net.cpp:454] conv5_3_relu5_3_0_split <- conv5_3
I0628 11:16:33.999099 23212 net.cpp:411] conv5_3_relu5_3_0_split -> conv5_3_relu5_3_0_split_0
I0628 11:16:33.999104 23212 net.cpp:411] conv5_3_relu5_3_0_split -> conv5_3_relu5_3_0_split_1
I0628 11:16:33.999109 23212 net.cpp:411] conv5_3_relu5_3_0_split -> conv5_3_relu5_3_0_split_2
I0628 11:16:33.999147 23212 net.cpp:150] Setting up conv5_3_relu5_3_0_split
I0628 11:16:33.999151 23212 net.cpp:157] Top shape: 1 512 38 63 (1225728)
I0628 11:16:33.999155 23212 net.cpp:157] Top shape: 1 512 38 63 (1225728)
I0628 11:16:33.999158 23212 net.cpp:157] Top shape: 1 512 38 63 (1225728)
I0628 11:16:33.999161 23212 net.cpp:165] Memory required for data: 1405029228
I0628 11:16:33.999163 23212 layer_factory.hpp:77] Creating layer rpn_conv/3x3
I0628 11:16:33.999171 23212 net.cpp:106] Creating Layer rpn_conv/3x3
I0628 11:16:33.999174 23212 net.cpp:454] rpn_conv/3x3 <- conv5_3_relu5_3_0_split_0
I0628 11:16:33.999178 23212 net.cpp:411] rpn_conv/3x3 -> rpn/output
I0628 11:16:34.049486 23212 net.cpp:150] Setting up rpn_conv/3x3
I0628 11:16:34.049505 23212 net.cpp:157] Top shape: 1 512 38 63 (1225728)
I0628 11:16:34.049507 23212 net.cpp:165] Memory required for data: 1409932140
I0628 11:16:34.049513 23212 layer_factory.hpp:77] Creating layer rpn_relu/3x3
I0628 11:16:34.049520 23212 net.cpp:106] Creating Layer rpn_relu/3x3
I0628 11:16:34.049523 23212 net.cpp:454] rpn_relu/3x3 <- rpn/output
I0628 11:16:34.049527 23212 net.cpp:397] rpn_relu/3x3 -> rpn/output (in-place)
I0628 11:16:34.049659 23212 net.cpp:150] Setting up rpn_relu/3x3
I0628 11:16:34.049664 23212 net.cpp:157] Top shape: 1 512 38 63 (1225728)
I0628 11:16:34.049665 23212 net.cpp:165] Memory required for data: 1414835052
I0628 11:16:34.049667 23212 layer_factory.hpp:77] Creating layer rpn/output_rpn_relu/3x3_0_split
I0628 11:16:34.049671 23212 net.cpp:106] Creating Layer rpn/output_rpn_relu/3x3_0_split
I0628 11:16:34.049674 23212 net.cpp:454] rpn/output_rpn_relu/3x3_0_split <- rpn/output
I0628 11:16:34.049676 23212 net.cpp:411] rpn/output_rpn_relu/3x3_0_split -> rpn/output_rpn_relu/3x3_0_split_0
I0628 11:16:34.049680 23212 net.cpp:411] rpn/output_rpn_relu/3x3_0_split -> rpn/output_rpn_relu/3x3_0_split_1
I0628 11:16:34.049716 23212 net.cpp:150] Setting up rpn/output_rpn_relu/3x3_0_split
I0628 11:16:34.049719 23212 net.cpp:157] Top shape: 1 512 38 63 (1225728)
I0628 11:16:34.049722 23212 net.cpp:157] Top shape: 1 512 38 63 (1225728)
I0628 11:16:34.049723 23212 net.cpp:165] Memory required for data: 1424640876
I0628 11:16:34.049724 23212 layer_factory.hpp:77] Creating layer rpn_cls_score
I0628 11:16:34.049732 23212 net.cpp:106] Creating Layer rpn_cls_score
I0628 11:16:34.049734 23212 net.cpp:454] rpn_cls_score <- rpn/output_rpn_relu/3x3_0_split_0
I0628 11:16:34.049738 23212 net.cpp:411] rpn_cls_score -> rpn_cls_score
I0628 11:16:34.051265 23212 net.cpp:150] Setting up rpn_cls_score
I0628 11:16:34.051275 23212 net.cpp:157] Top shape: 1 30 38 63 (71820)
I0628 11:16:34.051275 23212 net.cpp:165] Memory required for data: 1424928156
I0628 11:16:34.051290 23212 layer_factory.hpp:77] Creating layer rpn_cls_score_rpn_cls_score_0_split
I0628 11:16:34.051295 23212 net.cpp:106] Creating Layer rpn_cls_score_rpn_cls_score_0_split
I0628 11:16:34.051298 23212 net.cpp:454] rpn_cls_score_rpn_cls_score_0_split <- rpn_cls_score
I0628 11:16:34.051302 23212 net.cpp:411] rpn_cls_score_rpn_cls_score_0_split -> rpn_cls_score_rpn_cls_score_0_split_0
I0628 11:16:34.051306 23212 net.cpp:411] rpn_cls_score_rpn_cls_score_0_split -> rpn_cls_score_rpn_cls_score_0_split_1
I0628 11:16:34.051332 23212 net.cpp:150] Setting up rpn_cls_score_rpn_cls_score_0_split
I0628 11:16:34.051335 23212 net.cpp:157] Top shape: 1 30 38 63 (71820)
I0628 11:16:34.051337 23212 net.cpp:157] Top shape: 1 30 38 63 (71820)
I0628 11:16:34.051348 23212 net.cpp:165] Memory required for data: 1425502716
I0628 11:16:34.051350 23212 layer_factory.hpp:77] Creating layer rpn_bbox_pred
I0628 11:16:34.051355 23212 net.cpp:106] Creating Layer rpn_bbox_pred
I0628 11:16:34.051368 23212 net.cpp:454] rpn_bbox_pred <- rpn/output_rpn_relu/3x3_0_split_1
I0628 11:16:34.051373 23212 net.cpp:411] rpn_bbox_pred -> rpn_bbox_pred
I0628 11:16:34.052832 23212 net.cpp:150] Setting up rpn_bbox_pred
I0628 11:16:34.052839 23212 net.cpp:157] Top shape: 1 60 38 63 (143640)
I0628 11:16:34.052842 23212 net.cpp:165] Memory required for data: 1426077276
I0628 11:16:34.052856 23212 layer_factory.hpp:77] Creating layer rpn_bbox_pred_rpn_bbox_pred_0_split
I0628 11:16:34.052861 23212 net.cpp:106] Creating Layer rpn_bbox_pred_rpn_bbox_pred_0_split
I0628 11:16:34.052863 23212 net.cpp:454] rpn_bbox_pred_rpn_bbox_pred_0_split <- rpn_bbox_pred
I0628 11:16:34.052870 23212 net.cpp:411] rpn_bbox_pred_rpn_bbox_pred_0_split -> rpn_bbox_pred_rpn_bbox_pred_0_split_0
I0628 11:16:34.052875 23212 net.cpp:411] rpn_bbox_pred_rpn_bbox_pred_0_split -> rpn_bbox_pred_rpn_bbox_pred_0_split_1
I0628 11:16:34.052907 23212 net.cpp:150] Setting up rpn_bbox_pred_rpn_bbox_pred_0_split
I0628 11:16:34.052911 23212 net.cpp:157] Top shape: 1 60 38 63 (143640)
I0628 11:16:34.052913 23212 net.cpp:157] Top shape: 1 60 38 63 (143640)
I0628 11:16:34.052914 23212 net.cpp:165] Memory required for data: 1427226396
I0628 11:16:34.052917 23212 layer_factory.hpp:77] Creating layer rpn_cls_score_reshape
I0628 11:16:34.052932 23212 net.cpp:106] Creating Layer rpn_cls_score_reshape
I0628 11:16:34.052937 23212 net.cpp:454] rpn_cls_score_reshape <- rpn_cls_score_rpn_cls_score_0_split_0
I0628 11:16:34.052942 23212 net.cpp:411] rpn_cls_score_reshape -> rpn_cls_score_reshape
I0628 11:16:34.052963 23212 net.cpp:150] Setting up rpn_cls_score_reshape
I0628 11:16:34.052976 23212 net.cpp:157] Top shape: 1 2 570 63 (71820)
I0628 11:16:34.052979 23212 net.cpp:165] Memory required for data: 1427513676
I0628 11:16:34.052983 23212 layer_factory.hpp:77] Creating layer rpn_cls_score_reshape_rpn_cls_score_reshape_0_split
I0628 11:16:34.052986 23212 net.cpp:106] Creating Layer rpn_cls_score_reshape_rpn_cls_score_reshape_0_split
I0628 11:16:34.052990 23212 net.cpp:454] rpn_cls_score_reshape_rpn_cls_score_reshape_0_split <- rpn_cls_score_reshape
I0628 11:16:34.052994 23212 net.cpp:411] rpn_cls_score_reshape_rpn_cls_score_reshape_0_split -> rpn_cls_score_reshape_rpn_cls_score_reshape_0_split_0
I0628 11:16:34.052999 23212 net.cpp:411] rpn_cls_score_reshape_rpn_cls_score_reshape_0_split -> rpn_cls_score_reshape_rpn_cls_score_reshape_0_split_1
I0628 11:16:34.053022 23212 net.cpp:150] Setting up rpn_cls_score_reshape_rpn_cls_score_reshape_0_split
I0628 11:16:34.053026 23212 net.cpp:157] Top shape: 1 2 570 63 (71820)
I0628 11:16:34.053030 23212 net.cpp:157] Top shape: 1 2 570 63 (71820)
I0628 11:16:34.053032 23212 net.cpp:165] Memory required for data: 1428088236
I0628 11:16:34.053035 23212 layer_factory.hpp:77] Creating layer rpn-data
I0628 11:16:34.054191 23212 net.cpp:106] Creating Layer rpn-data
I0628 11:16:34.054199 23212 net.cpp:454] rpn-data <- rpn_cls_score_rpn_cls_score_0_split_1
I0628 11:16:34.054204 23212 net.cpp:454] rpn-data <- gt_boxes_input-data_2_split_0
I0628 11:16:34.054208 23212 net.cpp:454] rpn-data <- im_info_input-data_1_split_0
I0628 11:16:34.054211 23212 net.cpp:454] rpn-data <- data_input-data_0_split_1
I0628 11:16:34.054214 23212 net.cpp:411] rpn-data -> rpn_labels
I0628 11:16:34.054220 23212 net.cpp:411] rpn-data -> rpn_bbox_targets
I0628 11:16:34.054224 23212 net.cpp:411] rpn-data -> rpn_bbox_inside_weights
I0628 11:16:34.054229 23212 net.cpp:411] rpn-data -> rpn_bbox_outside_weights
===================================anchor_scales in AnchorTargetLayer:=============(2, 4, 8, 16, 32)
I0628 11:16:34.055109 23212 net.cpp:150] Setting up rpn-data
I0628 11:16:34.055117 23212 net.cpp:157] Top shape: 1 1 570 63 (35910)
I0628 11:16:34.055120 23212 net.cpp:157] Top shape: 1 60 38 63 (143640)
I0628 11:16:34.055124 23212 net.cpp:157] Top shape: 1 60 38 63 (143640)
I0628 11:16:34.055125 23212 net.cpp:157] Top shape: 1 60 38 63 (143640)
I0628 11:16:34.055127 23212 net.cpp:165] Memory required for data: 1429955556
I0628 11:16:34.055130 23212 layer_factory.hpp:77] Creating layer rpn_loss_cls
I0628 11:16:34.055135 23212 net.cpp:106] Creating Layer rpn_loss_cls
I0628 11:16:34.055138 23212 net.cpp:454] rpn_loss_cls <- rpn_cls_score_reshape_rpn_cls_score_reshape_0_split_0
I0628 11:16:34.055141 23212 net.cpp:454] rpn_loss_cls <- rpn_labels
…
I0628 11:16:34.057868 23212 net.cpp:157] Top shape: (1)
I0628 11:16:34.057869 23212 net.cpp:160]     with loss weight 1
I0628 11:16:34.057873 23212 net.cpp:165] Memory required for data: 1429955564
I0628 11:16:34.057875 23212 layer_factory.hpp:77] Creating layer rpn_cls_prob
I0628 11:16:34.057879 23212 net.cpp:106] Creating Layer rpn_cls_prob
I0628 11:16:34.057881 23212 net.cpp:454] rpn_cls_prob <- rpn_cls_score_reshape_rpn_cls_score_reshape_0_split_1
I0628 11:16:34.057884 23212 net.cpp:411] rpn_cls_prob -> rpn_cls_prob
I0628 11:16:34.058077 23212 net.cpp:150] Setting up rpn_cls_prob
I0628 11:16:34.058084 23212 net.cpp:157] Top shape: 1 2 570 63 (71820)
I0628 11:16:34.058085 23212 net.cpp:165] Memory required for data: 1430242844
I0628 11:16:34.058087 23212 layer_factory.hpp:77] Creating layer rpn_cls_prob_reshape
I0628 11:16:34.058091 23212 net.cpp:106] Creating Layer rpn_cls_prob_reshape
I0628 11:16:34.058094 23212 net.cpp:454] rpn_cls_prob_reshape <- rpn_cls_prob
I0628 11:16:34.058097 23212 net.cpp:411] rpn_cls_prob_reshape -> rpn_cls_prob_reshape
I0628 11:16:34.058115 23212 net.cpp:150] Setting up rpn_cls_prob_reshape
I0628 11:16:34.058117 23212 net.cpp:157] Top shape: 1 30 38 63 (71820)
I0628 11:16:34.058120 23212 net.cpp:165] Memory required for data: 1430530124
I0628 11:16:34.058120 23212 layer_factory.hpp:77] Creating layer proposal
I0628 11:16:34.060998 23212 net.cpp:106] Creating Layer proposal
I0628 11:16:34.061022 23212 net.cpp:454] proposal <- rpn_cls_prob_reshape
I0628 11:16:34.061025 23212 net.cpp:454] proposal <- rpn_bbox_pred_rpn_bbox_pred_0_split_1
I0628 11:16:34.061028 23212 net.cpp:454] proposal <- im_info_input-data_1_split_1
I0628 11:16:34.061033 23212 net.cpp:411] proposal -> rpn_rois
=================================anchor_scales in ProposalLayer:=============(2, 4, 8, 16, 32)
I0628 11:16:34.067188 23212 net.cpp:150] Setting up proposal
I0628 11:16:34.067203 23212 net.cpp:157] Top shape: 1 5 (5)
I0628 11:16:34.067204 23212 net.cpp:165] Memory required for data: 1430530144
I0628 11:16:34.067209 23212 layer_factory.hpp:77] Creating layer roi-data
I0628 11:16:34.067706 23212 net.cpp:106] Creating Layer roi-data
I0628 11:16:34.067714 23212 net.cpp:454] roi-data <- rpn_rois
I0628 11:16:34.067719 23212 net.cpp:454] roi-data <- gt_boxes_input-data_2_split_1
I0628 11:16:34.067721 23212 net.cpp:454] roi-data <- im_info_input-data_1_split_2
I0628 11:16:34.067724 23212 net.cpp:454] roi-data <- seg_mask_inds
I0628 11:16:34.067726 23212 net.cpp:454] roi-data <- flipped
I0628 11:16:34.067730 23212 net.cpp:411] roi-data -> rois
I0628 11:16:34.067736 23212 net.cpp:411] roi-data -> labels
I0628 11:16:34.067741 23212 net.cpp:411] roi-data -> bbox_targets
I0628 11:16:34.067745 23212 net.cpp:411] roi-data -> bbox_inside_weights
I0628 11:16:34.067749 23212 net.cpp:411] roi-data -> bbox_outside_weights
I0628 11:16:34.067754 23212 net.cpp:411] roi-data -> mask_targets
I0628 11:16:34.067757 23212 net.cpp:411] roi-data -> rois_pos
I0628 11:16:34.068078 23212 net.cpp:150] Setting up roi-data
I0628 11:16:34.068084 23212 net.cpp:157] Top shape: 1 5 (5)
I0628 11:16:34.068087 23212 net.cpp:157] Top shape: 1 1 (1)
I0628 11:16:34.068089 23212 net.cpp:157] Top shape: 1 8 (8)
I0628 11:16:34.068091 23212 net.cpp:157] Top shape: 1 8 (8)
I0628 11:16:34.068094 23212 net.cpp:157] Top shape: 1 8 (8)
I0628 11:16:34.068095 23212 net.cpp:157] Top shape: 1 8 244 244 (476288)
I0628 11:16:34.068097 23212 net.cpp:157] Top shape: 1 5 (5)
I0628 11:16:34.068099 23212 net.cpp:165] Memory required for data: 1432435436
I0628 11:16:34.068100 23212 layer_factory.hpp:77] Creating layer roi_pool5
I0628 11:16:34.068699 23212 net.cpp:106] Creating Layer roi_pool5
I0628 11:16:34.068704 23212 net.cpp:454] roi_pool5 <- conv5_3_relu5_3_0_split_1
I0628 11:16:34.068707 23212 net.cpp:454] roi_pool5 <- rois
I0628 11:16:34.068711 23212 net.cpp:411] roi_pool5 -> pool5
I0628 11:16:34.068715 23212 roi_alignment_layer.cpp:32] Spatial scale: 0.0625
I0628 11:16:34.068785 23212 net.cpp:150] Setting up roi_pool5
I0628 11:16:34.068790 23212 net.cpp:157] Top shape: 1 512 7 7 (25088)
I0628 11:16:34.068791 23212 net.cpp:165] Memory required for data: 1432535788
I0628 11:16:34.068794 23212 layer_factory.hpp:77] Creating layer fc6
I0628 11:16:34.068799 23212 net.cpp:106] Creating Layer fc6
I0628 11:16:34.068800 23212 net.cpp:454] fc6 <- pool5
I0628 11:16:34.068804 23212 net.cpp:411] fc6 -> fc6
I0628 11:16:34.223269 23212 net.cpp:150] Setting up fc6
I0628 11:16:34.223294 23212 net.cpp:157] Top shape: 1 4096 (4096)
I0628 11:16:34.223296 23212 net.cpp:165] Memory required for data: 1432552172
I0628 11:16:34.223322 23212 layer_factory.hpp:77] Creating layer relu6
I0628 11:16:34.223331 23212 net.cpp:106] Creating Layer relu6
I0628 11:16:34.223338 23212 net.cpp:454] relu6 <- fc6
I0628 11:16:34.223352 23212 net.cpp:397] relu6 -> fc6 (in-place)
I0628 11:16:34.223579 23212 net.cpp:150] Setting up relu6
I0628 11:16:34.223587 23212 net.cpp:157] Top shape: 1 4096 (4096)
I0628 11:16:34.223588 23212 net.cpp:165] Memory required for data: 1432568556
I0628 11:16:34.223590 23212 layer_factory.hpp:77] Creating layer fc7
I0628 11:16:34.223596 23212 net.cpp:106] Creating Layer fc7
I0628 11:16:34.223598 23212 net.cpp:454] fc7 <- fc6
I0628 11:16:34.223603 23212 net.cpp:411] fc7 -> fc7
I0628 11:16:34.248248 23212 net.cpp:150] Setting up fc7
I0628 11:16:34.248271 23212 net.cpp:157] Top shape: 1 4096 (4096)
I0628 11:16:34.248275 23212 net.cpp:165] Memory required for data: 1432584940
I0628 11:16:34.248281 23212 layer_factory.hpp:77] Creating layer relu7
I0628 11:16:34.248291 23212 net.cpp:106] Creating Layer relu7
I0628 11:16:34.248297 23212 net.cpp:454] relu7 <- fc7
I0628 11:16:34.248302 23212 net.cpp:397] relu7 -> fc7 (in-place)
I0628 11:16:34.248483 23212 net.cpp:150] Setting up relu7
I0628 11:16:34.248490 23212 net.cpp:157] Top shape: 1 4096 (4096)
I0628 11:16:34.248492 23212 net.cpp:165] Memory required for data: 1432601324
I0628 11:16:34.248493 23212 layer_factory.hpp:77] Creating layer fc7_relu7_0_split
I0628 11:16:34.248498 23212 net.cpp:106] Creating Layer fc7_relu7_0_split
I0628 11:16:34.248500 23212 net.cpp:454] fc7_relu7_0_split <- fc7
I0628 11:16:34.248503 23212 net.cpp:411] fc7_relu7_0_split -> fc7_relu7_0_split_0
I0628 11:16:34.248507 23212 net.cpp:411] fc7_relu7_0_split -> fc7_relu7_0_split_1
I0628 11:16:34.248539 23212 net.cpp:150] Setting up fc7_relu7_0_split
I0628 11:16:34.248544 23212 net.cpp:157] Top shape: 1 4096 (4096)
I0628 11:16:34.248548 23212 net.cpp:157] Top shape: 1 4096 (4096)
I0628 11:16:34.248551 23212 net.cpp:165] Memory required for data: 1432634092
I0628 11:16:34.248553 23212 layer_factory.hpp:77] Creating layer cls_score
I0628 11:16:34.248559 23212 net.cpp:106] Creating Layer cls_score
I0628 11:16:34.248561 23212 net.cpp:454] cls_score <- fc7_relu7_0_split_0
I0628 11:16:34.248564 23212 net.cpp:411] cls_score -> cls_score
I0628 11:16:34.248808 23212 net.cpp:150] Setting up cls_score
I0628 11:16:34.248813 23212 net.cpp:157] Top shape: 1 2 (2)
I0628 11:16:34.248816 23212 net.cpp:165] Memory required for data: 1432634100
I0628 11:16:34.248818 23212 layer_factory.hpp:77] Creating layer bbox_pred
I0628 11:16:34.248823 23212 net.cpp:106] Creating Layer bbox_pred
I0628 11:16:34.248826 23212 net.cpp:454] bbox_pred <- fc7_relu7_0_split_1
I0628 11:16:34.248828 23212 net.cpp:411] bbox_pred -> bbox_pred
I0628 11:16:34.249629 23212 net.cpp:150] Setting up bbox_pred
I0628 11:16:34.249635 23212 net.cpp:157] Top shape: 1 8 (8)
I0628 11:16:34.249647 23212 net.cpp:165] Memory required for data: 1432634132
I0628 11:16:34.249651 23212 layer_factory.hpp:77] Creating layer loss_cls
I0628 11:16:34.249656 23212 net.cpp:106] Creating Layer loss_cls
I0628 11:16:34.249658 23212 net.cpp:454] loss_cls <- cls_score
I0628 11:16:34.249671 23212 net.cpp:454] loss_cls <- labels
I0628 11:16:34.249675 23212 net.cpp:411] loss_cls -> loss_cls
…
I0628 11:16:34.250496 23212 net.cpp:165] Memory required for data: 1432634140
I0628 11:16:34.250499 23212 layer_factory.hpp:77] Creating layer roi_pool5_2
I0628 11:16:34.250502 23212 net.cpp:106] Creating Layer roi_pool5_2
I0628 11:16:34.250504 23212 net.cpp:454] roi_pool5_2 <- conv5_3_relu5_3_0_split_2
I0628 11:16:34.250509 23212 net.cpp:454] roi_pool5_2 <- rois_pos
I0628 11:16:34.250520 23212 net.cpp:411] roi_pool5_2 -> pool5_2
I0628 11:16:34.250524 23212 roi_alignment_layer.cpp:32] Spatial scale: 0.0625
I0628 11:16:34.250613 23212 net.cpp:150] Setting up roi_pool5_2
I0628 11:16:34.250617 23212 net.cpp:157] Top shape: 1 512 7 7 (25088)
I0628 11:16:34.250618 23212 net.cpp:165] Memory required for data: 1432734492
I0628 11:16:34.250620 23212 layer_factory.hpp:77] Creating layer pool5_2_conv
I0628 11:16:34.250627 23212 net.cpp:106] Creating Layer pool5_2_conv
I0628 11:16:34.250628 23212 net.cpp:454] pool5_2_conv <- pool5_2
I0628 11:16:34.250632 23212 net.cpp:411] pool5_2_conv -> pool5_2_conv
I0628 11:16:34.257453 23212 net.cpp:150] Setting up pool5_2_conv
I0628 11:16:34.257464 23212 net.cpp:157] Top shape: 1 512 7 7 (25088)
I0628 11:16:34.257467 23212 net.cpp:165] Memory required for data: 1432834844
I0628 11:16:34.257472 23212 layer_factory.hpp:77] Creating layer pool5_2_conv_relu
I0628 11:16:34.257477 23212 net.cpp:106] Creating Layer pool5_2_conv_relu
I0628 11:16:34.257480 23212 net.cpp:454] pool5_2_conv_relu <- pool5_2_conv
I0628 11:16:34.257483 23212 net.cpp:411] pool5_2_conv_relu -> pool5_2_conv_relu
I0628 11:16:34.257628 23212 net.cpp:150] Setting up pool5_2_conv_relu
I0628 11:16:34.257635 23212 net.cpp:157] Top shape: 1 512 7 7 (25088)
I0628 11:16:34.257637 23212 net.cpp:165] Memory required for data: 1432935196
I0628 11:16:34.257638 23212 layer_factory.hpp:77] Creating layer pool5_2_conv2
I0628 11:16:34.257649 23212 net.cpp:106] Creating Layer pool5_2_conv2
I0628 11:16:34.257663 23212 net.cpp:454] pool5_2_conv2 <- pool5_2_conv_relu
I0628 11:16:34.257666 23212 net.cpp:411] pool5_2_conv2 -> pool5_2_conv2
I0628 11:16:34.310456 23212 net.cpp:150] Setting up pool5_2_conv2
I0628 11:16:34.310472 23212 net.cpp:157] Top shape: 1 512 7 7 (25088)
I0628 11:16:34.310475 23212 net.cpp:165] Memory required for data: 1433035548
I0628 11:16:34.310483 23212 layer_factory.hpp:77] Creating layer pool5_2_conv2_relu
I0628 11:16:34.310493 23212 net.cpp:106] Creating Layer pool5_2_conv2_relu
I0628 11:16:34.310498 23212 net.cpp:454] pool5_2_conv2_relu <- pool5_2_conv2
I0628 11:16:34.310523 23212 net.cpp:411] pool5_2_conv2_relu -> pool5_2_conv2_relu
I0628 11:16:34.310681 23212 net.cpp:150] Setting up pool5_2_conv2_relu
I0628 11:16:34.310688 23212 net.cpp:157] Top shape: 1 512 7 7 (25088)
I0628 11:16:34.310689 23212 net.cpp:165] Memory required for data: 1433135900
I0628 11:16:34.310691 23212 layer_factory.hpp:77] Creating layer mask_deconv1
I0628 11:16:34.310698 23212 net.cpp:106] Creating Layer mask_deconv1
I0628 11:16:34.310700 23212 net.cpp:454] mask_deconv1 <- pool5_2_conv2_relu
I0628 11:16:34.310704 23212 net.cpp:411] mask_deconv1 -> mask_deconv1
I0628 11:16:34.311753 23212 net.cpp:150] Setting up mask_deconv1
I0628 11:16:34.311760 23212 net.cpp:157] Top shape: 1 256 30 30 (230400)
I0628 11:16:34.311763 23212 net.cpp:165] Memory required for data: 1434057500
I0628 11:16:34.311766 23212 layer_factory.hpp:77] Creating layer pool5_2_conv3
I0628 11:16:34.311774 23212 net.cpp:106] Creating Layer pool5_2_conv3
I0628 11:16:34.311776 23212 net.cpp:454] pool5_2_conv3 <- mask_deconv1
I0628 11:16:34.311781 23212 net.cpp:411] pool5_2_conv3 -> pool5_2_conv3
I0628 11:16:34.337687 23212 net.cpp:150] Setting up pool5_2_conv3
I0628 11:16:34.337702 23212 net.cpp:157] Top shape: 1 512 30 30 (460800)
I0628 11:16:34.337704 23212 net.cpp:165] Memory required for data: 1435900700
I0628 11:16:34.337710 23212 layer_factory.hpp:77] Creating layer pool5_2_conv3_relu
I0628 11:16:34.337716 23212 net.cpp:106] Creating Layer pool5_2_conv3_relu
I0628 11:16:34.337730 23212 net.cpp:454] pool5_2_conv3_relu <- pool5_2_conv3
I0628 11:16:34.337736 23212 net.cpp:411] pool5_2_conv3_relu -> pool5_2_conv3_relu
I0628 11:16:34.337906 23212 net.cpp:150] Setting up pool5_2_conv3_relu
I0628 11:16:34.337913 23212 net.cpp:157] Top shape: 1 512 30 30 (460800)
I0628 11:16:34.337914 23212 net.cpp:165] Memory required for data: 1437743900
I0628 11:16:34.337916 23212 layer_factory.hpp:77] Creating layer pool5_2_conv4
I0628 11:16:34.337924 23212 net.cpp:106] Creating Layer pool5_2_conv4
I0628 11:16:34.337939 23212 net.cpp:454] pool5_2_conv4 <- pool5_2_conv3_relu
I0628 11:16:34.337946 23212 net.cpp:411] pool5_2_conv4 -> pool5_2_conv4
I0628 11:16:34.388918 23212 net.cpp:150] Setting up pool5_2_conv4
I0628 11:16:34.388936 23212 net.cpp:157] Top shape: 1 512 30 30 (460800)
I0628 11:16:34.388939 23212 net.cpp:165] Memory required for data: 1439587100
I0628 11:16:34.388947 23212 layer_factory.hpp:77] Creating layer pool5_2_conv4_relu
I0628 11:16:34.388957 23212 net.cpp:106] Creating Layer pool5_2_conv4_relu
I0628 11:16:34.388962 23212 net.cpp:454] pool5_2_conv4_relu <- pool5_2_conv4
I0628 11:16:34.388972 23212 net.cpp:411] pool5_2_conv4_relu -> pool5_2_conv4_relu
I0628 11:16:34.389117 23212 net.cpp:150] Setting up pool5_2_conv4_relu
I0628 11:16:34.389123 23212 net.cpp:157] Top shape: 1 512 30 30 (460800)
I0628 11:16:34.389125 23212 net.cpp:165] Memory required for data: 1441430300
I0628 11:16:34.389127 23212 layer_factory.hpp:77] Creating layer pool5_2_conv4_relu_pool5_2_conv4_relu_0_split
I0628 11:16:34.389133 23212 net.cpp:106] Creating Layer pool5_2_conv4_relu_pool5_2_conv4_relu_0_split
I0628 11:16:34.389137 23212 net.cpp:454] pool5_2_conv4_relu_pool5_2_conv4_relu_0_split <- pool5_2_conv4_relu
I0628 11:16:34.389139 23212 net.cpp:411] pool5_2_conv4_relu_pool5_2_conv4_relu_0_split -> pool5_2_conv4_relu_pool5_2_conv4_relu_0_split_0
I0628 11:16:34.389143 23212 net.cpp:411] pool5_2_conv4_relu_pool5_2_conv4_relu_0_split -> pool5_2_conv4_relu_pool5_2_conv4_relu_0_split_1
I0628 11:16:34.389147 23212 net.cpp:411] pool5_2_conv4_relu_pool5_2_conv4_relu_0_split -> pool5_2_conv4_relu_pool5_2_conv4_relu_0_split_2
I0628 11:16:34.389150 23212 net.cpp:411] pool5_2_conv4_relu_pool5_2_conv4_relu_0_split -> pool5_2_conv4_relu_pool5_2_conv4_relu_0_split_3
I0628 11:16:34.389195 23212 net.cpp:150] Setting up pool5_2_conv4_relu_pool5_2_conv4_relu_0_split
I0628 11:16:34.389199 23212 net.cpp:157] Top shape: 1 512 30 30 (460800)
I0628 11:16:34.389201 23212 net.cpp:157] Top shape: 1 512 30 30 (460800)
I0628 11:16:34.389204 23212 net.cpp:157] Top shape: 1 512 30 30 (460800)
I0628 11:16:34.389205 23212 net.cpp:157] Top shape: 1 512 30 30 (460800)
I0628 11:16:34.389207 23212 net.cpp:165] Memory required for data: 1448803100
I0628 11:16:34.389209 23212 layer_factory.hpp:77] Creating layer query_conv
I0628 11:16:34.389219 23212 net.cpp:106] Creating Layer query_conv
I0628 11:16:34.389222 23212 net.cpp:454] query_conv <- pool5_2_conv4_relu_pool5_2_conv4_relu_0_split_0
I0628 11:16:34.389230 23212 net.cpp:411] query_conv -> query_conv
I0628 11:16:34.394311 23212 net.cpp:150] Setting up query_conv
I0628 11:16:34.394321 23212 net.cpp:157] Top shape: 1 64 30 30 (57600)
I0628 11:16:34.394323 23212 net.cpp:165] Memory required for data: 1449033500
I0628 11:16:34.394328 23212 layer_factory.hpp:77] Creating layer key_conv
I0628 11:16:34.394337 23212 net.cpp:106] Creating Layer key_conv
I0628 11:16:34.394341 23212 net.cpp:454] key_conv <- pool5_2_conv4_relu_pool5_2_conv4_relu_0_split_1
I0628 11:16:34.394346 23212 net.cpp:411] key_conv -> key_conv
I0628 11:16:34.395941 23212 net.cpp:150] Setting up key_conv
I0628 11:16:34.395951 23212 net.cpp:157] Top shape: 1 64 30 30 (57600)
I0628 11:16:34.395951 23212 net.cpp:165] Memory required for data: 1449263900
I0628 11:16:34.395956 23212 layer_factory.hpp:77] Creating layer value_conv
I0628 11:16:34.395964 23212 net.cpp:106] Creating Layer value_conv
I0628 11:16:34.395967 23212 net.cpp:454] value_conv <- pool5_2_conv4_relu_pool5_2_conv4_relu_0_split_2
I0628 11:16:34.395980 23212 net.cpp:411] value_conv -> value_conv
I0628 11:16:34.402657 23212 net.cpp:150] Setting up value_conv
I0628 11:16:34.402665 23212 net.cpp:157] Top shape: 1 512 30 30 (460800)
I0628 11:16:34.402678 23212 net.cpp:165] Memory required for data: 1451107100
I0628 11:16:34.402681 23212 layer_factory.hpp:77] Creating layer query_conv_reshape
I0628 11:16:34.402698 23212 net.cpp:106] Creating Layer query_conv_reshape
I0628 11:16:34.402701 23212 net.cpp:454] query_conv_reshape <- query_conv
I0628 11:16:34.402706 23212 net.cpp:411] query_conv_reshape -> query_conv_reshape
I0628 11:16:34.402745 23212 net.cpp:150] Setting up query_conv_reshape
I0628 11:16:34.402750 23212 net.cpp:157] Top shape: 1 64 900 1 (57600)
I0628 11:16:34.402752 23212 net.cpp:165] Memory required for data: 1451337500
I0628 11:16:34.402753 23212 layer_factory.hpp:77] Creating layer key_conv_reshape
I0628 11:16:34.402756 23212 net.cpp:106] Creating Layer key_conv_reshape
I0628 11:16:34.402760 23212 net.cpp:454] key_conv_reshape <- key_conv
I0628 11:16:34.402761 23212 net.cpp:411] key_conv_reshape -> key_conv_reshape
I0628 11:16:34.402777 23212 net.cpp:150] Setting up key_conv_reshape
I0628 11:16:34.402789 23212 net.cpp:157] Top shape: 1 64 900 1 (57600)
I0628 11:16:34.402791 23212 net.cpp:165] Memory required for data: 1451567900
I0628 11:16:34.402792 23212 layer_factory.hpp:77] Creating layer value_conv_reshape
I0628 11:16:34.402796 23212 net.cpp:106] Creating Layer value_conv_reshape
I0628 11:16:34.402807 23212 net.cpp:454] value_conv_reshape <- value_conv
I0628 11:16:34.402810 23212 net.cpp:411] value_conv_reshape -> value_conv_reshape
I0628 11:16:34.402827 23212 net.cpp:150] Setting up value_conv_reshape
I0628 11:16:34.402832 23212 net.cpp:157] Top shape: 1 512 900 1 (460800)
I0628 11:16:34.402833 23212 net.cpp:165] Memory required for data: 1453411100
I0628 11:16:34.402835 23212 layer_factory.hpp:77] Creating layer query_conv_reshape_perm
I0628 11:16:34.403317 23212 net.cpp:106] Creating Layer query_conv_reshape_perm
I0628 11:16:34.403323 23212 net.cpp:454] query_conv_reshape_perm <- query_conv_reshape
I0628 11:16:34.403337 23212 net.cpp:411] query_conv_reshape_perm -> query_conv_reshape_perm
I0628 11:16:34.403419 23212 net.cpp:150] Setting up query_conv_reshape_perm
I0628 11:16:34.403424 23212 net.cpp:157] Top shape: 1 1 900 64 (57600)
I0628 11:16:34.403424 23212 net.cpp:165] Memory required for data: 1453641500
I0628 11:16:34.403436 23212 layer_factory.hpp:77] Creating layer key_conv_reshape_perm
I0628 11:16:34.403440 23212 net.cpp:106] Creating Layer key_conv_reshape_perm
I0628 11:16:34.403443 23212 net.cpp:454] key_conv_reshape_perm <- key_conv_reshape
I0628 11:16:34.403447 23212 net.cpp:411] key_conv_reshape_perm -> key_conv_reshape_perm
I0628 11:16:34.403518 23212 net.cpp:150] Setting up key_conv_reshape_perm
I0628 11:16:34.403522 23212 net.cpp:157] Top shape: 1 1 64 900 (57600)
I0628 11:16:34.403523 23212 net.cpp:165] Memory required for data: 1453871900
I0628 11:16:34.403535 23212 layer_factory.hpp:77] Creating layer energy
I0628 11:16:34.403712 23212 net.cpp:106] Creating Layer energy
I0628 11:16:34.403717 23212 net.cpp:454] energy <- query_conv_reshape_perm
I0628 11:16:34.403719 23212 net.cpp:454] energy <- key_conv_reshape_perm
I0628 11:16:34.403724 23212 net.cpp:411] energy -> energy
I0628 11:16:34.403755 23212 net.cpp:150] Setting up energy
I0628 11:16:34.403759 23212 net.cpp:157] Top shape: 1 1 900 900 (810000)
I0628 11:16:34.403761 23212 net.cpp:165] Memory required for data: 1457111900
I0628 11:16:34.403764 23212 layer_factory.hpp:77] Creating layer attention
I0628 11:16:34.403769 23212 net.cpp:106] Creating Layer attention
I0628 11:16:34.403772 23212 net.cpp:454] attention <- energy
I0628 11:16:34.403775 23212 net.cpp:411] attention -> attention
I0628 11:16:34.403949 23212 net.cpp:150] Setting up attention
I0628 11:16:34.403955 23212 net.cpp:157] Top shape: 1 1 900 900 (810000)
I0628 11:16:34.403966 23212 net.cpp:165] Memory required for data: 1460351900
I0628 11:16:34.403968 23212 layer_factory.hpp:77] Creating layer value_conv_reshape_perm
I0628 11:16:34.403973 23212 net.cpp:106] Creating Layer value_conv_reshape_perm
I0628 11:16:34.403977 23212 net.cpp:454] value_conv_reshape_perm <- value_conv_reshape
I0628 11:16:34.403980 23212 net.cpp:411] value_conv_reshape_perm -> value_conv_reshape_perm
I0628 11:16:34.404063 23212 net.cpp:150] Setting up value_conv_reshape_perm
I0628 11:16:34.404067 23212 net.cpp:157] Top shape: 1 1 512 900 (460800)
I0628 11:16:34.404068 23212 net.cpp:165] Memory required for data: 1462195100
I0628 11:16:34.404070 23212 layer_factory.hpp:77] Creating layer attention_perm
I0628 11:16:34.404073 23212 net.cpp:106] Creating Layer attention_perm
I0628 11:16:34.404075 23212 net.cpp:454] attention_perm <- attention
I0628 11:16:34.404078 23212 net.cpp:411] attention_perm -> attention_perm
I0628 11:16:34.404142 23212 net.cpp:150] Setting up attention_perm
I0628 11:16:34.404146 23212 net.cpp:157] Top shape: 1 1 900 900 (810000)
I0628 11:16:34.404147 23212 net.cpp:165] Memory required for data: 1465435100
I0628 11:16:34.404150 23212 layer_factory.hpp:77] Creating layer out
I0628 11:16:34.404152 23212 net.cpp:106] Creating Layer out
I0628 11:16:34.404153 23212 net.cpp:454] out <- value_conv_reshape_perm
I0628 11:16:34.404156 23212 net.cpp:454] out <- attention_perm
I0628 11:16:34.404158 23212 net.cpp:411] out -> out
I0628 11:16:34.404175 23212 net.cpp:150] Setting up out
I0628 11:16:34.404179 23212 net.cpp:157] Top shape: 1 1 512 900 (460800)
I0628 11:16:34.404181 23212 net.cpp:165] Memory required for data: 1467278300
I0628 11:16:34.404182 23212 layer_factory.hpp:77] Creating layer out_reshape
I0628 11:16:34.404189 23212 net.cpp:106] Creating Layer out_reshape
I0628 11:16:34.404193 23212 net.cpp:454] out_reshape <- out
I0628 11:16:34.404198 23212 net.cpp:411] out_reshape -> out_reshape
I0628 11:16:34.404215 23212 net.cpp:150] Setting up out_reshape
I0628 11:16:34.404219 23212 net.cpp:157] Top shape: 1 512 30 30 (460800)
I0628 11:16:34.404222 23212 net.cpp:165] Memory required for data: 1469121500
I0628 11:16:34.404222 23212 layer_factory.hpp:77] Creating layer out_reshape_scale
I0628 11:16:34.404230 23212 net.cpp:106] Creating Layer out_reshape_scale
I0628 11:16:34.404233 23212 net.cpp:454] out_reshape_scale <- out_reshape
I0628 11:16:34.404237 23212 net.cpp:411] out_reshape_scale -> out_reshape_scale
I0628 11:16:34.404295 23212 net.cpp:150] Setting up out_reshape_scale
I0628 11:16:34.404299 23212 net.cpp:157] Top shape: 1 512 30 30 (460800)
I0628 11:16:34.404300 23212 net.cpp:165] Memory required for data: 1470964700
I0628 11:16:34.404305 23212 layer_factory.hpp:77] Creating layer out_x
I0628 11:16:34.404315 23212 net.cpp:106] Creating Layer out_x
I0628 11:16:34.404319 23212 net.cpp:454] out_x <- out_reshape_scale
I0628 11:16:34.404321 23212 net.cpp:454] out_x <- pool5_2_conv4_relu_pool5_2_conv4_relu_0_split_3
I0628 11:16:34.404325 23212 net.cpp:411] out_x -> out_x
I0628 11:16:34.404345 23212 net.cpp:150] Setting up out_x
I0628 11:16:34.404350 23212 net.cpp:157] Top shape: 1 512 30 30 (460800)
I0628 11:16:34.404352 23212 net.cpp:165] Memory required for data: 1472807900
I0628 11:16:34.404356 23212 layer_factory.hpp:77] Creating layer mask_deconv2
I0628 11:16:34.404363 23212 net.cpp:106] Creating Layer mask_deconv2
I0628 11:16:34.404366 23212 net.cpp:454] mask_deconv2 <- out_x
I0628 11:16:34.404371 23212 net.cpp:411] mask_deconv2 -> mask_deconv2
I0628 11:16:34.405164 23212 net.cpp:150] Setting up mask_deconv2
I0628 11:16:34.405169 23212 net.cpp:157] Top shape: 1 256 122 122 (3810304)
I0628 11:16:34.405171 23212 net.cpp:165] Memory required for data: 1488049116
I0628 11:16:34.405176 23212 layer_factory.hpp:77] Creating layer pool5_2_conv5
I0628 11:16:34.405185 23212 net.cpp:106] Creating Layer pool5_2_conv5
I0628 11:16:34.405189 23212 net.cpp:454] pool5_2_conv5 <- mask_deconv2
I0628 11:16:34.405195 23212 net.cpp:411] pool5_2_conv5 -> pool5_2_conv5
I0628 11:16:34.431385 23212 net.cpp:150] Setting up pool5_2_conv5
I0628 11:16:34.431402 23212 net.cpp:157] Top shape: 1 512 122 122 (7620608)
I0628 11:16:34.431406 23212 net.cpp:165] Memory required for data: 1518531548
I0628 11:16:34.431411 23212 layer_factory.hpp:77] Creating layer pool5_2_conv5_relu
I0628 11:16:34.431419 23212 net.cpp:106] Creating Layer pool5_2_conv5_relu
I0628 11:16:34.431424 23212 net.cpp:454] pool5_2_conv5_relu <- pool5_2_conv5
I0628 11:16:34.431428 23212 net.cpp:411] pool5_2_conv5_relu -> pool5_2_conv5_relu
I0628 11:16:34.431604 23212 net.cpp:150] Setting up pool5_2_conv5_relu
I0628 11:16:34.431612 23212 net.cpp:157] Top shape: 1 512 122 122 (7620608)
I0628 11:16:34.431613 23212 net.cpp:165] Memory required for data: 1549013980
I0628 11:16:34.431615 23212 layer_factory.hpp:77] Creating layer pool5_2_conv6
I0628 11:16:34.431623 23212 net.cpp:106] Creating Layer pool5_2_conv6
I0628 11:16:34.431627 23212 net.cpp:454] pool5_2_conv6 <- pool5_2_conv5_relu
I0628 11:16:34.431632 23212 net.cpp:411] pool5_2_conv6 -> pool5_2_conv6
I0628 11:16:34.481468 23212 net.cpp:150] Setting up pool5_2_conv6
I0628 11:16:34.481485 23212 net.cpp:157] Top shape: 1 512 122 122 (7620608)
I0628 11:16:34.481488 23212 net.cpp:165] Memory required for data: 1579496412
I0628 11:16:34.481495 23212 layer_factory.hpp:77] Creating layer pool5_2_conv6_relu
I0628 11:16:34.481513 23212 net.cpp:106] Creating Layer pool5_2_conv6_relu
I0628 11:16:34.481519 23212 net.cpp:454] pool5_2_conv6_relu <- pool5_2_conv6
I0628 11:16:34.481534 23212 net.cpp:411] pool5_2_conv6_relu -> pool5_2_conv6_relu
I0628 11:16:34.482095 23212 net.cpp:150] Setting up pool5_2_conv6_relu
I0628 11:16:34.482105 23212 net.cpp:157] Top shape: 1 512 122 122 (7620608)
I0628 11:16:34.482105 23212 net.cpp:165] Memory required for data: 1609978844
I0628 11:16:34.482108 23212 layer_factory.hpp:77] Creating layer mask_deconv3
I0628 11:16:34.482115 23212 net.cpp:106] Creating Layer mask_deconv3
I0628 11:16:34.482118 23212 net.cpp:454] mask_deconv3 <- pool5_2_conv6_relu
I0628 11:16:34.482133 23212 net.cpp:411] mask_deconv3 -> mask_deconv3
I0628 11:16:34.482551 23212 net.cpp:150] Setting up mask_deconv3
I0628 11:16:34.482558 23212 net.cpp:157] Top shape: 1 256 244 244 (15241216)
I0628 11:16:34.482559 23212 net.cpp:165] Memory required for data: 1670943708
I0628 11:16:34.482573 23212 layer_factory.hpp:77] Creating layer mask_score
I0628 11:16:34.482590 23212 net.cpp:106] Creating Layer mask_score
I0628 11:16:34.482594 23212 net.cpp:454] mask_score <- mask_deconv3
I0628 11:16:34.482610 23212 net.cpp:411] mask_score -> mask_score
I0628 11:16:34.483223 23212 net.cpp:150] Setting up mask_score
I0628 11:16:34.483230 23212 net.cpp:157] Top shape: 1 8 244 244 (476288)
I0628 11:16:34.483232 23212 net.cpp:165] Memory required for data: 1672848860
I0628 11:16:34.483237 23212 layer_factory.hpp:77] Creating layer prob
I0628 11:16:34.483240 23212 net.cpp:106] Creating Layer prob
I0628 11:16:34.483242 23212 net.cpp:454] prob <- mask_score
I0628 11:16:34.483247 23212 net.cpp:411] prob -> mask_score_softmax
I0628 11:16:34.483834 23212 net.cpp:150] Setting up prob
I0628 11:16:34.483842 23212 net.cpp:157] Top shape: 1 8 244 244 (476288)
I0628 11:16:34.483844 23212 net.cpp:165] Memory required for data: 1674754012
I0628 11:16:34.483846 23212 layer_factory.hpp:77] Creating layer log
I0628 11:16:34.483850 23212 net.cpp:106] Creating Layer log
I0628 11:16:34.483852 23212 net.cpp:454] log <- mask_score_softmax
I0628 11:16:34.483855 23212 net.cpp:411] log -> log
I0628 11:16:34.483896 23212 net.cpp:150] Setting up log
I0628 11:16:34.483901 23212 net.cpp:157] Top shape: 1 8 244 244 (476288)
I0628 11:16:34.483911 23212 net.cpp:165] Memory required for data: 1676659164
I0628 11:16:34.483912 23212 layer_factory.hpp:77] Creating layer mult1
I0628 11:16:34.483916 23212 net.cpp:106] Creating Layer mult1
I0628 11:16:34.483917 23212 net.cpp:454] mult1 <- log
I0628 11:16:34.483930 23212 net.cpp:454] mult1 <- mask_targets
I0628 11:16:34.483933 23212 net.cpp:411] mult1 -> mult1
I0628 11:16:34.483959 23212 net.cpp:150] Setting up mult1
I0628 11:16:34.483975 23212 net.cpp:157] Top shape: 1 8 244 244 (476288)
I0628 11:16:34.483976 23212 net.cpp:165] Memory required for data: 1678564316
I0628 11:16:34.483978 23212 layer_factory.hpp:77] Creating layer cross_entropy
I0628 11:16:34.483992 23212 net.cpp:106] Creating Layer cross_entropy
I0628 11:16:34.483994 23212 net.cpp:454] cross_entropy <- mult1
I0628 11:16:34.483999 23212 net.cpp:411] cross_entropy -> cross_entropy
I0628 11:16:34.484021 23212 net.cpp:150] Setting up cross_entropy
I0628 11:16:34.484035 23212 net.cpp:157] Top shape: 1 8 244 244 (476288)
I0628 11:16:34.484037 23212 net.cpp:165] Memory required for data: 1680469468
I0628 11:16:34.484038 23212 layer_factory.hpp:77] Creating layer ce_sum
I0628 11:16:34.484053 23212 net.cpp:106] Creating Layer ce_sum
I0628 11:16:34.484055 23212 net.cpp:454] ce_sum <- cross_entropy
I0628 11:16:34.484059 23212 net.cpp:411] ce_sum -> cross_entropy_sum
I0628 11:16:34.485280 23212 net.cpp:150] Setting up ce_sum
I0628 11:16:34.485288 23212 net.cpp:157] Top shape: 1 1 244 244 (59536)
I0628 11:16:34.485291 23212 net.cpp:165] Memory required for data: 1680707612
I0628 11:16:34.485293 23212 layer_factory.hpp:77] Creating layer ce_mean
I0628 11:16:34.485301 23212 net.cpp:106] Creating Layer ce_mean
I0628 11:16:34.485303 23212 net.cpp:454] ce_mean <- cross_entropy_sum
I0628 11:16:34.485317 23212 net.cpp:411] ce_mean -> cross_entropy_mean
I0628 11:16:34.485419 23212 net.cpp:150] Setting up ce_mean
…
