…
average_loss: 100
iter_size: 2
I0605 18:24:58.437489 10418 solver.cpp:81] Creating training net from train_net file: models/pascal_voc/VGG16/faster_rcnn_end2end/train.prototxt
I0605 18:24:58.439102 10418 net.cpp:49] Initializing net from parameters: 
name: "VGG_ILSVRC_16_layers"
state {
  phase: TRAIN
}
layer {
  name: "input-data"
  type: "Python"
  top: "data"
  top: "im_info"
  top: "gt_boxes"
  top: "seg_mask_inds"
  top: "flipped"
  python_param {
    module: "roi_data_layer.layer"
    layer: "RoIDataLayer"
    param_str: "\'num_classes\': 2"
  }
}
layer {
  name: "conv1_1"
  type: "Convolution"
  bottom: "data"
  top: "conv1_1"
  param {
    lr_mult: 0
    decay_mult: 0
  }
  param {
    lr_mult: 0
    decay_mult: 0
  }
  convolution_param {
    num_output: 64
    pad: 1
    kernel_size: 3
  }
}
layer {
  name: "relu1_1"
  type: "ReLU"
  bottom: "conv1_1"
  top: "conv1_1"
}
layer {
  name: "conv1_2"
  type: "Convolution"
  bottom: "conv1_1"
  top: "conv1_2"
  param {
    lr_mult: 0
    decay_mult: 0
  }
  param {
    lr_mult: 0
    decay_mult: 0
  }
  convolution_param {
    num_output: 64
    pad: 1
    kernel_size: 3
  }
}
layer {
  name: "relu1_2"
  type: "ReLU"
  bottom: "conv1_2"
  top: "conv1_2"
}
layer {
  name: "pool1"
  type: "Pooling"
  bottom: "conv1_2"
  top: "pool1"
  pooling_param {
    pool: MAX
    kernel_size: 2
    stride: 2
  }
}
layer {
  name: "conv2_1"
  type: "Convolution"
  bottom: "pool1"
  top: "conv2_1"
  param {
    lr_mult: 0
    decay_mult: 0
  }
  param {
    lr_mult: 0
    decay_mult: 0
  }
  convolution_param {
    num_output: 128
    pad: 1
    kernel_size: 3
  }
}
layer {
  name: "relu2_1"
  type: "ReLU"
  bottom: "conv2_1"
  top: "conv2_1"
}
layer {
  name: "conv2_2"
  type: "Convolution"
  bottom: "conv2_1"
  top: "conv2_2"
  param {
    lr_mult: 0
    decay_mult: 0
  }
  param {
    lr_mult: 0
    decay_mult: 0
  }
  convolution_param {
    num_output: 128
    pad: 1
    kernel_size: 3
  }
}
layer {
  name: "relu2_2"
  type: "ReLU"
  bottom: "conv2_2"
  top: "conv2_2"
}
layer {
  name: "pool2"
  type: "Pooling"
  bottom: "conv2_2"
  top: "pool2"
  pooling_param {
    pool: MAX
    kernel_size: 2
    stride: 2
  }
}
layer {
  name: "conv3_1"
  type: "Convolution"
  bottom: "pool2"
  top: "conv3_1"
  param {
    lr_mult: 1
  }
  param {
    lr_mult: 2
  }
  convolution_param {
    num_output: 256
    pad: 1
    kernel_size: 3
  }
}
layer {
  name: "relu3_1"
  type: "ReLU"
  bottom: "conv3_1"
  top: "conv3_1"
}
layer {
  name: "conv3_2"
  type: "Convolution"
  bottom: "conv3_1"
  top: "conv3_2"
  param {
    lr_mult: 1
  }
  param {
    lr_mult: 2
  }
  convolution_param {
    num_output: 256
    pad: 1
    kernel_size: 3
  }
}
layer {
  name: "relu3_2"
  type: "ReLU"
  bottom: "conv3_2"
  top: "conv3_2"
}
layer {
  name: "conv3_3"
  type: "Convolution"
  bottom: "conv3_2"
  top: "conv3_3"
  param {
    lr_mult: 1
  }
  param {
    lr_mult: 2
  }
  convolution_param {
    num_output: 256
    pad: 1
    kernel_size: 3
  }
}
layer {
  name: "relu3_3"
  type: "ReLU"
  bottom: "conv3_3"
  top: "conv3_3"
}
layer {
  name: "pool3"
  type: "Pooling"
  bottom: "conv3_3"
  top: "pool3"
  pooling_param {
    pool: MAX
    kernel_size: 2
    stride: 2
  }
}
layer {
  name: "conv4_1"
  type: "Convolution"
  bottom: "pool3"
  top: "conv4_1"
  param {
    lr_mult: 1
  }
  param {
    lr_mult: 2
  }
  convolution_param {
    num_output: 512
    pad: 1
    kernel_size: 3
  }
}
layer {
  name: "relu4_1"
  type: "ReLU"
  bottom: "conv4_1"
  top: "conv4_1"
}
layer {
  name: "conv4_2"
  type: "Convolution"
  bottom: "conv4_1"
  top: "conv4_2"
  param {
    lr_mult: 1
  }
  param {
    lr_mult: 2
  }
  convolution_param {
    num_output: 512
    pad: 1
    kernel_size: 3
  }
}
layer {
  name: "relu4_2"
  type: "ReLU"
  bottom: "conv4_2"
  top: "conv4_2"
}
layer {
  name: "conv4_3"
  type: "Convolution"
  bottom: "conv4_2"
  top: "conv4_3"
  param {
    lr_mult: 1
  }
  param {
    lr_mult: 2
  }
  convolution_param {
    num_output: 512
    pad: 1
    kernel_size: 3
  }
}
layer {
  name: "relu4_3"
  type: "ReLU"
  bottom: "conv4_3"
  top: "conv4_3"
}
layer {
  name: "pool4"
  type: "Pooling"
  bottom: "conv4_3"
  top: "pool4"
  pooling_param {
    pool: MAX
    kernel_size: 2
    stride: 2
  }
}
layer {
  name: "conv5_1"
  type: "Convolution"
  bottom: "pool4"
  top: "conv5_1"
  param {
    lr_mult: 1
  }
  param {
    lr_mult: 2
  }
  convolution_param {
    num_output: 512
    pad: 1
    kernel_size: 3
  }
}
layer {
  name: "relu5_1"
  type: "ReLU"
  bottom: "conv5_1"
  top: "conv5_1"
}
layer {
  name: "conv5_2"
  type: "Convolution"
  bottom: "conv5_1"
  top: "conv5_2"
  param {
    lr_mult: 1
  }
  param {
    lr_mult: 2
  }
  convolution_param {
    num_output: 512
    pad: 1
    kernel_size: 3
  }
}
layer {
  name: "relu5_2"
  type: "ReLU"
  bottom: "conv5_2"
  top: "conv5_2"
}
layer {
  name: "conv5_3"
  type: "Convolution"
  bottom: "conv5_2"
  top: "conv5_3"
  param {
    lr_mult: 1
  }
  param {
    lr_mult: 2
  }
  convolution_param {
    num_output: 512
    pad: 1
    kernel_size: 3
  }
}
layer {
  name: "relu5_3"
  type: "ReLU"
  bottom: "conv5_3"
  top: "conv5_3"
}
layer {
  name: "rpn_conv/3x3"
  type: "Convolution"
  bottom: "conv5_3"
  top: "rpn/output"
  param {
    lr_mult: 1
  }
  param {
    lr_mult: 2
  }
  convolution_param {
    num_output: 512
    pad: 1
    kernel_size: 3
    stride: 1
    weight_filler {
      type: "gaussian"
      std: 0.01
    }
    bias_filler {
      type: "constant"
      value: 0
    }
  }
}
layer {
  name: "rpn_relu/3x3"
  type: "ReLU"
  bottom: "rpn/output"
  top: "rpn/output"
}
layer {
  name: "rpn_cls_score"
  type: "Convolution"
  bottom: "rpn/output"
  top: "rpn_cls_score"
  param {
    lr_mult: 1
  }
  param {
    lr_mult: 2
  }
  convolution_param {
    num_output: 30
    pad: 0
    kernel_size: 1
    stride: 1
    weight_filler {
      type: "gaussian"
      std: 0.01
    }
    bias_filler {
      type: "constant"
      value: 0
    }
  }
}
layer {
  name: "rpn_bbox_pred"
  type: "Convolution"
  bottom: "rpn/output"
  top: "rpn_bbox_pred"
  param {
    lr_mult: 1
  }
  param {
    lr_mult: 2
  }
  convolution_param {
    num_output: 60
    pad: 0
    kernel_size: 1
    stride: 1
    weight_filler {
      type: "gaussian"
      std: 0.01
    }
    bias_filler {
      type: "constant"
      value: 0
    }
  }
}
layer {
  name: "rpn_cls_score_reshape"
  type: "Reshape"
  bottom: "rpn_cls_score"
  top: "rpn_cls_score_reshape"
  reshape_param {
    shape {
      dim: 0
      dim: 2
      dim: -1
      dim: 0
    }
  }
}
layer {
  name: "rpn-data"
  type: "Python"
  bottom: "rpn_cls_score"
  bottom: "gt_boxes"
  bottom: "im_info"
  bottom: "data"
  top: "rpn_labels"
  top: "rpn_bbox_targets"
  top: "rpn_bbox_inside_weights"
  top: "rpn_bbox_outside_weights"
  python_param {
    module: "rpn.anchor_target_layer"
    layer: "AnchorTargetLayer"
    param_str: "\'feat_stride\': 16 \n\'scales\': !!python/tuple [2, 4, 8, 16, 32]"
  }
}
layer {
  name: "rpn_loss_cls"
  type: "SoftmaxWithLoss"
  bottom: "rpn_cls_score_reshape"
  bottom: "rpn_labels"
  top: "rpn_cls_loss"
  loss_weight: 1
  propagate_down: true
  propagate_down: false
  loss_param {
    ignore_label: -1
    normalize: true
  }
}
layer {
  name: "rpn_loss_bbox"
  type: "SmoothL1Loss"
  bottom: "rpn_bbox_pred"
  bottom: "rpn_bbox_targets"
  bottom: "rpn_bbox_inside_weights"
  bottom: "rpn_bbox_outside_weights"
  top: "rpn_loss_bbox"
  loss_weight: 1
  smooth_l1_loss_param {
    sigma: 3
  }
}
layer {
  name: "rpn_cls_prob"
  type: "Softmax"
  bottom: "rpn_cls_score_reshape"
  top: "rpn_cls_prob"
}
layer {
  name: "rpn_cls_prob_reshape"
  type: "Reshape"
  bottom: "rpn_cls_prob"
  top: "rpn_cls_prob_reshape"
  reshape_param {
    shape {
      dim: 0
      dim: 30
      dim: -1
      dim: 0
    }
  }
}
layer {
  name: "proposal"
  type: "Python"
  bottom: "rpn_cls_prob_reshape"
  bottom: "rpn_bbox_pred"
  bottom: "im_info"
  top: "rpn_rois"
  python_param {
    module: "rpn.proposal_layer"
    layer: "ProposalLayer"
    param_str: "\'feat_stride\': 16 \n\'scales\': !!python/tuple [2, 4, 8, 16, 32]"
  }
}
layer {
  name: "roi-data"
  type: "Python"
  bottom: "rpn_rois"
  bottom: "gt_boxes"
  bottom: "im_info"
  bottom: "seg_mask_inds"
  bottom: "flipped"
  top: "rois"
  top: "labels"
  top: "bbox_targets"
  top: "bbox_inside_weights"
  top: "bbox_outside_weights"
  top: "mask_targets"
  top: "rois_pos"
  python_param {
    module: "rpn.proposal_target_layer"
    layer: "ProposalTargetLayer"
    param_str: "\'num_classes\': 2"
  }
}
layer {
  name: "roi_pool5"
  type: "ROIAlignment"
  bottom: "conv5_3"
  bottom: "rois"
  top: "pool5"
  roi_alignment_param {
    pooled_h: 7
    pooled_w: 7
    spatial_scale: 0.0625
  }
}
layer {
  name: "fc6"
  type: "InnerProduct"
  bottom: "pool5"
  top: "fc6"
  param {
    lr_mult: 1
  }
  param {
    lr_mult: 2
  }
  inner_product_param {
    num_output: 4096
  }
}
layer {
  name: "relu6"
  type: "ReLU"
  bottom: "fc6"
  top: "fc6"
}
layer {
  name: "fc7"
  type: "InnerProduct"
  bottom: "fc6"
  top: "fc7"
  param {
    lr_mult: 1
  }
  param {
    lr_mult: 2
  }
  inner_product_param {
    num_output: 4096
  }
}
layer {
  name: "relu7"
  type: "ReLU"
  bottom: "fc7"
  top: "fc7"
}
layer {
  name: "cls_score"
  type: "InnerProduct"
  bottom: "fc7"
  top: "cls_score"
  param {
    lr_mult: 1
  }
  param {
    lr_mult: 2
  }
  inner_product_param {
    num_output: 2
    weight_filler {
      type: "gaussian"
      std: 0.01
    }
    bias_filler {
      type: "constant"
      value: 0
    }
  }
}
layer {
  name: "bbox_pred"
  type: "InnerProduct"
  bottom: "fc7"
  top: "bbox_pred"
  param {
    lr_mult: 1
  }
  param {
    lr_mult: 2
  }
  inner_product_param {
    num_output: 8
    weight_filler {
      type: "gaussian"
      std: 0.001
    }
    bias_filler {
      type: "constant"
      value: 0
    }
  }
}
layer {
  name: "loss_cls"
  type: "SoftmaxWithLoss"
  bottom: "cls_score"
  bottom: "labels"
  top: "loss_cls"
  loss_weight: 3
  propagate_down: true
  propagate_down: false
}
layer {
  name: "loss_bbox"
  type: "SmoothL1Loss"
  bottom: "bbox_pred"
  bottom: "bbox_targets"
  bottom: "bbox_inside_weights"
  bottom: "bbox_outside_weights"
  top: "loss_bbox"
  loss_weight: 2
}
layer {
  name: "roi_pool5_2"
  type: "ROIAlignment"
  bottom: "conv5_3"
  bottom: "rois_pos"
  top: "pool5_2"
  roi_alignment_param {
    pooled_h: 7
    pooled_w: 7
    spatial_scale: 0.0625
  }
}
layer {
  name: "pool5_2_conv"
  type: "Convolution"
  bottom: "pool5_2"
  top: "pool5_2_conv"
  param {
    lr_mult: 1
    decay_mult: 1
  }
  param {
    lr_mult: 2
    decay_mult: 0
  }
  convolution_param {
    num_output: 512
    pad: 0
    kernel_size: 1
    weight_filler {
      type: "gaussian"
      std: 0.01
    }
    bias_filler {
      type: "constant"
      value: 0
    }
  }
}
layer {
  name: "pool5_2_conv_relu"
  type: "ReLU"
  bottom: "pool5_2_conv"
  top: "pool5_2_conv_relu"
}
layer {
  name: "pool5_2_conv2"
  type: "Convolution"
  bottom: "pool5_2_conv_relu"
  top: "pool5_2_conv2"
  param {
    lr_mult: 1
    decay_mult: 1
  }
  param {
    lr_mult: 2
    decay_mult: 0
  }
  convolution_param {
    num_output: 512
    pad: 1
    kernel_size: 3
    stride: 1
    weight_filler {
      type: "gaussian"
      std: 0.01
    }
    bias_filler {
      type: "constant"
      value: 0
    }
  }
}
layer {
  name: "pool5_2_conv2_relu"
  type: "ReLU"
  bottom: "pool5_2_conv2"
  top: "pool5_2_conv2_relu"
}
layer {
  name: "mask_deconv1"
  type: "Deconvolution"
  bottom: "pool5_2_conv2_relu"
  top: "mask_deconv1"
  param {
    lr_mult: 1
    decay_mult: 1
  }
  param {
    lr_mult: 2
    decay_mult: 0
  }
  convolution_param {
    num_output: 256
    pad: 1
    kernel_size: 8
    group: 256
    stride: 4
    weight_filler {
      type: "bilinear"
    }
  }
}
layer {
  name: "pool5_2_conv3"
  type: "Convolution"
  bottom: "mask_deconv1"
  top: "pool5_2_conv3"
  param {
    lr_mult: 1
    decay_mult: 1
  }
  param {
    lr_mult: 2
    decay_mult: 0
  }
  convolution_param {
    num_output: 512
    pad: 1
    kernel_size: 3
    stride: 1
    weight_filler {
      type: "gaussian"
      std: 0.01
    }
    bias_filler {
      type: "constant"
      value: 0
    }
  }
}
layer {
  name: "pool5_2_conv3_relu"
  type: "ReLU"
  bottom: "pool5_2_conv3"
  top: "pool5_2_conv3_relu"
}
layer {
  name: "pool5_2_conv4"
  type: "Convolution"
  bottom: "pool5_2_conv3_relu"
  top: "pool5_2_conv4"
  param {
    lr_mult: 1
    decay_mult: 1
  }
  param {
    lr_mult: 2
    decay_mult: 0
  }
  convolution_param {
    num_output: 512
    pad: 1
    kernel_size: 3
    stride: 1
    weight_filler {
      type: "gaussian"
      std: 0.01
    }
    bias_filler {
      type: "constant"
      value: 0
    }
  }
}
layer {
  name: "pool5_2_conv4_relu"
  type: "ReLU"
  bottom: "pool5_2_conv4"
  top: "pool5_2_conv4_relu"
}
layer {
  name: "query_conv"
  type: "Convolution"
  bottom: "pool5_2_conv4_relu"
  top: "query_conv"
  param {
    lr_mult: 1
    decay_mult: 1
  }
  param {
    lr_mult: 2
    decay_mult: 0
  }
  convolution_param {
    num_output: 64
    pad: 0
    kernel_size: 1
    stride: 1
    weight_filler {
      type: "gaussian"
      std: 0.01
    }
    bias_filler {
      type: "constant"
      value: 0
    }
  }
}
layer {
  name: "key_conv"
  type: "Convolution"
  bottom: "pool5_2_conv4_relu"
  top: "key_conv"
  param {
    lr_mult: 1
    decay_mult: 1
  }
  param {
    lr_mult: 2
    decay_mult: 0
  }
  convolution_param {
    num_output: 64
    pad: 0
    kernel_size: 1
    stride: 1
    weight_filler {
      type: "gaussian"
      std: 0.01
    }
    bias_filler {
      type: "constant"
      value: 0
    }
  }
}
layer {
  name: "value_conv"
  type: "Convolution"
  bottom: "pool5_2_conv4_relu"
  top: "value_conv"
  param {
    lr_mult: 1
    decay_mult: 1
  }
  param {
    lr_mult: 2
    decay_mult: 0
  }
  convolution_param {
    num_output: 512
    pad: 0
    kernel_size: 1
    stride: 1
    weight_filler {
      type: "gaussian"
      std: 0.01
    }
    bias_filler {
      type: "constant"
      value: 0
    }
  }
}
layer {
  name: "query_conv_reshape"
  type: "Reshape"
  bottom: "query_conv"
  top: "query_conv_reshape"
  reshape_param {
    shape {
      dim: -1
      dim: 64
      dim: 900
      dim: 1
    }
  }
}
layer {
  name: "key_conv_reshape"
  type: "Reshape"
  bottom: "key_conv"
  top: "key_conv_reshape"
  reshape_param {
    shape {
      dim: -1
      dim: 64
      dim: 900
      dim: 1
    }
  }
}
layer {
  name: "value_conv_reshape"
  type: "Reshape"
  bottom: "value_conv"
  top: "value_conv_reshape"
  reshape_param {
    shape {
      dim: -1
      dim: 512
      dim: 900
      dim: 1
    }
  }
}
layer {
  name: "query_conv_reshape_perm"
  type: "Permute"
  bottom: "query_conv_reshape"
  top: "query_conv_reshape_perm"
  permute_param {
    order: 0
    order: 3
    order: 2
    order: 1
  }
}
layer {
  name: "key_conv_reshape_perm"
  type: "Permute"
  bottom: "key_conv_reshape"
  top: "key_conv_reshape_perm"
  permute_param {
    order: 0
    order: 3
    order: 1
    order: 2
  }
}
layer {
  name: "energy"
  type: "MatrixMultiplication"
  bottom: "query_conv_reshape_perm"
  bottom: "key_conv_reshape_perm"
  top: "energy"
}
layer {
  name: "attention"
  type: "Softmax"
  bottom: "energy"
  top: "attention"
  softmax_param {
    axis: 3
  }
}
layer {
  name: "value_conv_reshape_perm"
  type: "Permute"
  bottom: "value_conv_reshape"
  top: "value_conv_reshape_perm"
  permute_param {
    order: 0
    order: 3
    order: 1
    order: 2
  }
}
layer {
  name: "attention_perm"
  type: "Permute"
  bottom: "attention"
  top: "attention_perm"
  permute_param {
    order: 0
    order: 1
    order: 2
    order: 3
  }
}
layer {
  name: "out"
  type: "MatrixMultiplication"
  bottom: "value_conv_reshape_perm"
  bottom: "attention_perm"
  top: "out"
}
layer {
  name: "out_reshape"
  type: "Reshape"
  bottom: "out"
  top: "out_reshape"
  reshape_param {
    shape {
      dim: -1
      dim: 512
      dim: 30
      dim: 30
    }
  }
}
layer {
  name: "out_reshape_scale"
  type: "Scale"
  bottom: "out_reshape"
  top: "out_reshape_scale"
  param {
    name: "scale_conv1_1"
    lr_mult: 1
  }
  scale_param {
    bias_term: false
  }
}
layer {
  name: "out_x"
  type: "Eltwise"
  bottom: "out_reshape_scale"
  bottom: "pool5_2_conv4_relu"
  top: "out_x"
  eltwise_param {
    operation: SUM
  }
}
layer {
  name: "query_conv_reshape_ch"
  type: "Reshape"
  bottom: "pool5_2_conv4_relu"
  top: "query_conv_reshape_ch"
  reshape_param {
    shape {
      dim: 1
      dim: 512
      dim: -1
      dim: 1
    }
  }
}
layer {
  name: "key_conv_reshape_ch"
  type: "Reshape"
  bottom: "pool5_2_conv4_relu"
  top: "key_conv_reshape_ch"
  reshape_param {
    shape {
      dim: 1
      dim: 512
      dim: -1
      dim: 1
    }
  }
}
layer {
  name: "value_conv_reshape_ch"
  type: "Reshape"
  bottom: "pool5_2_conv4_relu"
  top: "value_conv_reshape_ch"
  reshape_param {
    shape {
      dim: 1
      dim: 512
      dim: -1
      dim: 1
    }
  }
}
layer {
  name: "query_conv_reshape_perm_ch"
  type: "Permute"
  bottom: "query_conv_reshape_ch"
  top: "query_conv_reshape_perm_ch"
  permute_param {
    order: 0
    order: 3
    order: 1
    order: 2
  }
}
layer {
  name: "key_conv_reshape_perm_ch"
  type: "Permute"
  bottom: "key_conv_reshape_ch"
  top: "key_conv_reshape_perm_ch"
  permute_param {
    order: 0
    order: 3
    order: 2
    order: 1
  }
}
layer {
  name: "energy_ch"
  type: "MatrixMultiplication"
  bottom: "query_conv_reshape_perm_ch"
  bottom: "key_conv_reshape_perm_ch"
  top: "energy_ch"
}
layer {
  name: "energy_ch_pool"
  type: "Pooling"
  bottom: "energy_ch"
  top: "energy_ch_pool"
  pooling_param {
    pool: MAX
    kernel_h: 1
    kernel_w: 512
    stride_h: 1
    stride_w: 512
  }
}
layer {
  name: "energy_ch_max"
  type: "Tile"
  bottom: "energy_ch_pool"
  top: "energy_ch_max"
  tile_param {
    axis: 3
    tiles: 512
  }
}
layer {
  name: "energy_ch_minus"
  type: "Power"
  bottom: "energy_ch"
  top: "energy_ch_minus"
  power_param {
    power: 1
    scale: -1
    shift: 0
  }
}
layer {
  name: "energy_new"
  type: "Eltwise"
  bottom: "energy_ch_max"
  bottom: "energy_ch_minus"
  top: "energy_new"
  eltwise_param {
    operation: SUM
  }
}
layer {
  name: "attention_ch"
  type: "Softmax"
  bottom: "energy_new"
  top: "attention_ch"
  softmax_param {
    axis: 3
  }
}
layer {
  name: "value_conv_reshape_ch_perm"
  type: "Permute"
  bottom: "value_conv_reshape_ch"
  top: "value_conv_reshape_ch_perm"
  permute_param {
    order: 0
    order: 3
    order: 1
    order: 2
  }
}
layer {
  name: "attention_ch_perm"
  type: "Permute"
  bottom: "attention_ch"
  top: "attention_ch_perm"
  permute_param {
    order: 0
    order: 1
    order: 2
    order: 3
  }
}
layer {
  name: "out_ch"
  type: "MatrixMultiplication"
  bottom: "attention_ch_perm"
  bottom: "value_conv_reshape_ch_perm"
  top: "out_ch"
}
layer {
  name: "out_ch_reshape"
  type: "Reshape"
  bottom: "out_ch"
  top: "out_ch_reshape"
  reshape_param {
    shape {
      dim: -1
      dim: 512
      dim: 30
      dim: 30
    }
  }
}
layer {
  name: "out_ch_reshape_scale"
  type: "Scale"
  bottom: "out_ch_reshape"
  top: "out_ch_reshape_scale"
  param {
    name: "scale_conv1_1"
    lr_mult: 1
  }
  scale_param {
    bias_term: false
  }
}
layer {
  name: "out_ch_x"
  type: "Eltwise"
  bottom: "out_ch_reshape_scale"
  bottom: "pool5_2_conv4_relu"
  top: "out_ch_x"
  eltwise_param {
    operation: SUM
  }
}
layer {
  name: "out_conv_ch_x"
  type: "Convolution"
  bottom: "out_ch_x"
  top: "out_conv_ch_x"
  param {
    lr_mult: 1
    decay_mult: 1
  }
  param {
    lr_mult: 2
    decay_mult: 0
  }
  convolution_param {
    num_output: 512
    pad: 0
    kernel_size: 1
    weight_filler {
      type: "gaussian"
      std: 0.01
    }
    bias_filler {
      type: "constant"
      value: 0
    }
  }
}
layer {
  name: "out_conv_x"
  type: "Convolution"
  bottom: "out_x"
  top: "out_conv_x"
  param {
    lr_mult: 1
    decay_mult: 1
  }
  param {
    lr_mult: 2
    decay_mult: 0
  }
  convolution_param {
    num_output: 512
    pad: 0
    kernel_size: 1
    weight_filler {
      type: "gaussian"
      std: 0.01
    }
    bias_filler {
      type: "constant"
      value: 0
    }
  }
}
layer {
  name: "out_x_sum"
  type: "Eltwise"
  bottom: "out_conv_x"
  bottom: "out_conv_ch_x"
  top: "out_x_sum"
  eltwise_param {
    operation: SUM
  }
}
layer {
  name: "mask_deconv2"
  type: "Deconvolution"
  bottom: "out_x_sum"
  top: "mask_deconv2"
  param {
    lr_mult: 1
    decay_mult: 1
  }
  param {
    lr_mult: 2
    decay_mult: 0
  }
  convolution_param {
    num_output: 256
    pad: 1
    kernel_size: 8
    group: 256
    stride: 4
    weight_filler {
      type: "bilinear"
    }
  }
}
layer {
  name: "pool5_2_conv5"
  type: "Convolution"
  bottom: "mask_deconv2"
  top: "pool5_2_conv5"
  param {
    lr_mult: 1
    decay_mult: 1
  }
  param {
    lr_mult: 2
    decay_mult: 0
  }
  convolution_param {
    num_output: 512
    pad: 1
    kernel_size: 3
    stride: 1
    weight_filler {
      type: "gaussian"
      std: 0.01
    }
    bias_filler {
      type: "constant"
      value: 0
    }
  }
}
layer {
  name: "pool5_2_conv5_relu"
  type: "ReLU"
  bottom: "pool5_2_conv5"
  top: "pool5_2_conv5_relu"
}
layer {
  name: "pool5_2_conv6"
  type: "Convolution"
  bottom: "pool5_2_conv5_relu"
  top: "pool5_2_conv6"
  param {
    lr_mult: 1
    decay_mult: 1
  }
  param {
    lr_mult: 2
    decay_mult: 0
  }
  convolution_param {
    num_output: 512
    pad: 1
    kernel_size: 3
    stride: 1
    weight_filler {
      type: "gaussian"
      std: 0.01
    }
    bias_filler {
      type: "constant"
      value: 0
    }
  }
}
layer {
  name: "pool5_2_conv6_relu"
  type: "ReLU"
  bottom: "pool5_2_conv6"
  top: "pool5_2_conv6_relu"
}
layer {
  name: "mask_deconv3"
  type: "Deconvolution"
  bottom: "pool5_2_conv6_relu"
  top: "mask_deconv3"
  param {
    lr_mult: 1
    decay_mult: 1
  }
  param {
    lr_mult: 2
    decay_mult: 0
  }
  convolution_param {
    num_output: 256
    pad: 1
    kernel_size: 4
    group: 256
    stride: 2
    weight_filler {
      type: "bilinear"
    }
  }
}
layer {
  name: "mask_score"
  type: "Convolution"
  bottom: "mask_deconv3"
  top: "mask_score"
  param {
    lr_mult: 1
    decay_mult: 1
  }
  param {
    lr_mult: 2
    decay_mult: 0
  }
  convolution_param {
    num_output: 8
    pad: 0
    kernel_size: 1
    weight_filler {
      type: "gaussian"
      std: 0.01
    }
    bias_filler {
      type: "constant"
      value: 0
    }
  }
}
layer {
  name: "loss_mask"
  type: "SoftmaxWithLoss"
  bottom: "mask_score"
  bottom: "mask_targets"
  top: "loss_mask"
  loss_weight: 3
  propagate_down: true
  propagate_down: false
  loss_param {
    ignore_label: -1
    normalize: true
  }
}
I0605 18:24:58.439389 10418 layer_factory.hpp:77] Creating layer input-data
I0605 18:24:58.455221 10418 net.cpp:106] Creating Layer input-data
I0605 18:24:58.455236 10418 net.cpp:411] input-data -> data
I0605 18:24:58.455245 10418 net.cpp:411] input-data -> im_info
I0605 18:24:58.455250 10418 net.cpp:411] input-data -> gt_boxes
I0605 18:24:58.455253 10418 net.cpp:411] input-data -> seg_mask_inds
I0605 18:24:58.455258 10418 net.cpp:411] input-data -> flipped
RoiDataLayer: name_to_top: {'gt_boxes': 2, 'data': 0, 'seg_mask_inds': 3, 'im_info': 1, 'flipped': 4}
I0605 18:24:58.466576 10418 net.cpp:150] Setting up input-data
I0605 18:24:58.466614 10418 net.cpp:157] Top shape: 1 3 600 1000 (1800000)
I0605 18:24:58.466616 10418 net.cpp:157] Top shape: 1 3 (3)
I0605 18:24:58.466619 10418 net.cpp:157] Top shape: 1 4 (4)
I0605 18:24:58.466622 10418 net.cpp:157] Top shape: 1 2 (2)
I0605 18:24:58.466624 10418 net.cpp:157] Top shape: 1 1 (1)
I0605 18:24:58.466626 10418 net.cpp:165] Memory required for data: 7200040
I0605 18:24:58.466631 10418 layer_factory.hpp:77] Creating layer data_input-data_0_split
I0605 18:24:58.466657 10418 net.cpp:106] Creating Layer data_input-data_0_split
I0605 18:24:58.466660 10418 net.cpp:454] data_input-data_0_split <- data
I0605 18:24:58.466666 10418 net.cpp:411] data_input-data_0_split -> data_input-data_0_split_0
I0605 18:24:58.466682 10418 net.cpp:411] data_input-data_0_split -> data_input-data_0_split_1
I0605 18:24:58.466702 10418 net.cpp:150] Setting up data_input-data_0_split
I0605 18:24:58.466706 10418 net.cpp:157] Top shape: 1 3 600 1000 (1800000)
I0605 18:24:58.466709 10418 net.cpp:157] Top shape: 1 3 600 1000 (1800000)
I0605 18:24:58.466711 10418 net.cpp:165] Memory required for data: 21600040
I0605 18:24:58.466713 10418 layer_factory.hpp:77] Creating layer im_info_input-data_1_split
I0605 18:24:58.466717 10418 net.cpp:106] Creating Layer im_info_input-data_1_split
I0605 18:24:58.466720 10418 net.cpp:454] im_info_input-data_1_split <- im_info
I0605 18:24:58.466723 10418 net.cpp:411] im_info_input-data_1_split -> im_info_input-data_1_split_0
I0605 18:24:58.466727 10418 net.cpp:411] im_info_input-data_1_split -> im_info_input-data_1_split_1
I0605 18:24:58.466732 10418 net.cpp:411] im_info_input-data_1_split -> im_info_input-data_1_split_2
I0605 18:24:58.466756 10418 net.cpp:150] Setting up im_info_input-data_1_split
I0605 18:24:58.466760 10418 net.cpp:157] Top shape: 1 3 (3)
I0605 18:24:58.466763 10418 net.cpp:157] Top shape: 1 3 (3)
I0605 18:24:58.466766 10418 net.cpp:157] Top shape: 1 3 (3)
I0605 18:24:58.466768 10418 net.cpp:165] Memory required for data: 21600076
I0605 18:24:58.466771 10418 layer_factory.hpp:77] Creating layer gt_boxes_input-data_2_split
I0605 18:24:58.466785 10418 net.cpp:106] Creating Layer gt_boxes_input-data_2_split
I0605 18:24:58.466789 10418 net.cpp:454] gt_boxes_input-data_2_split <- gt_boxes
I0605 18:24:58.466791 10418 net.cpp:411] gt_boxes_input-data_2_split -> gt_boxes_input-data_2_split_0
I0605 18:24:58.466795 10418 net.cpp:411] gt_boxes_input-data_2_split -> gt_boxes_input-data_2_split_1
I0605 18:24:58.466825 10418 net.cpp:150] Setting up gt_boxes_input-data_2_split
I0605 18:24:58.466828 10418 net.cpp:157] Top shape: 1 4 (4)
I0605 18:24:58.466831 10418 net.cpp:157] Top shape: 1 4 (4)
I0605 18:24:58.466833 10418 net.cpp:165] Memory required for data: 21600108
I0605 18:24:58.466835 10418 layer_factory.hpp:77] Creating layer conv1_1
I0605 18:24:58.466854 10418 net.cpp:106] Creating Layer conv1_1
I0605 18:24:58.466859 10418 net.cpp:454] conv1_1 <- data_input-data_0_split_0
I0605 18:24:58.466863 10418 net.cpp:411] conv1_1 -> conv1_1
I0605 18:24:58.667767 10418 net.cpp:150] Setting up conv1_1
I0605 18:24:58.667786 10418 net.cpp:157] Top shape: 1 64 600 1000 (38400000)
I0605 18:24:58.667790 10418 net.cpp:165] Memory required for data: 175200108
I0605 18:24:58.667802 10418 layer_factory.hpp:77] Creating layer relu1_1
I0605 18:24:58.667811 10418 net.cpp:106] Creating Layer relu1_1
I0605 18:24:58.667815 10418 net.cpp:454] relu1_1 <- conv1_1
I0605 18:24:58.667820 10418 net.cpp:397] relu1_1 -> conv1_1 (in-place)
I0605 18:24:58.667948 10418 net.cpp:150] Setting up relu1_1
I0605 18:24:58.667956 10418 net.cpp:157] Top shape: 1 64 600 1000 (38400000)
I0605 18:24:58.667958 10418 net.cpp:165] Memory required for data: 328800108
I0605 18:24:58.667961 10418 layer_factory.hpp:77] Creating layer conv1_2
I0605 18:24:58.667968 10418 net.cpp:106] Creating Layer conv1_2
I0605 18:24:58.667970 10418 net.cpp:454] conv1_2 <- conv1_1
I0605 18:24:58.667974 10418 net.cpp:411] conv1_2 -> conv1_2
I0605 18:24:58.670338 10418 net.cpp:150] Setting up conv1_2
I0605 18:24:58.670349 10418 net.cpp:157] Top shape: 1 64 600 1000 (38400000)
I0605 18:24:58.670351 10418 net.cpp:165] Memory required for data: 482400108
I0605 18:24:58.670359 10418 layer_factory.hpp:77] Creating layer relu1_2
I0605 18:24:58.670364 10418 net.cpp:106] Creating Layer relu1_2
I0605 18:24:58.670367 10418 net.cpp:454] relu1_2 <- conv1_2
I0605 18:24:58.670382 10418 net.cpp:397] relu1_2 -> conv1_2 (in-place)
I0605 18:24:58.670514 10418 net.cpp:150] Setting up relu1_2
I0605 18:24:58.670521 10418 net.cpp:157] Top shape: 1 64 600 1000 (38400000)
I0605 18:24:58.670522 10418 net.cpp:165] Memory required for data: 636000108
I0605 18:24:58.670526 10418 layer_factory.hpp:77] Creating layer pool1
I0605 18:24:58.670531 10418 net.cpp:106] Creating Layer pool1
I0605 18:24:58.670534 10418 net.cpp:454] pool1 <- conv1_2
I0605 18:24:58.670538 10418 net.cpp:411] pool1 -> pool1
I0605 18:24:58.670614 10418 net.cpp:150] Setting up pool1
I0605 18:24:58.670617 10418 net.cpp:157] Top shape: 1 64 300 500 (9600000)
I0605 18:24:58.670630 10418 net.cpp:165] Memory required for data: 674400108
I0605 18:24:58.670634 10418 layer_factory.hpp:77] Creating layer conv2_1
I0605 18:24:58.670639 10418 net.cpp:106] Creating Layer conv2_1
I0605 18:24:58.670641 10418 net.cpp:454] conv2_1 <- pool1
I0605 18:24:58.670655 10418 net.cpp:411] conv2_1 -> conv2_1
I0605 18:24:58.672458 10418 net.cpp:150] Setting up conv2_1
I0605 18:24:58.672466 10418 net.cpp:157] Top shape: 1 128 300 500 (19200000)
I0605 18:24:58.672469 10418 net.cpp:165] Memory required for data: 751200108
I0605 18:24:58.672475 10418 layer_factory.hpp:77] Creating layer relu2_1
I0605 18:24:58.672480 10418 net.cpp:106] Creating Layer relu2_1
I0605 18:24:58.672483 10418 net.cpp:454] relu2_1 <- conv2_1
I0605 18:24:58.672497 10418 net.cpp:397] relu2_1 -> conv2_1 (in-place)
I0605 18:24:58.672979 10418 net.cpp:150] Setting up relu2_1
I0605 18:24:58.672987 10418 net.cpp:157] Top shape: 1 128 300 500 (19200000)
I0605 18:24:58.672989 10418 net.cpp:165] Memory required for data: 828000108
I0605 18:24:58.672992 10418 layer_factory.hpp:77] Creating layer conv2_2
I0605 18:24:58.672998 10418 net.cpp:106] Creating Layer conv2_2
I0605 18:24:58.673002 10418 net.cpp:454] conv2_2 <- conv2_1
I0605 18:24:58.673005 10418 net.cpp:411] conv2_2 -> conv2_2
I0605 18:24:58.674371 10418 net.cpp:150] Setting up conv2_2
I0605 18:24:58.674379 10418 net.cpp:157] Top shape: 1 128 300 500 (19200000)
I0605 18:24:58.674382 10418 net.cpp:165] Memory required for data: 904800108
I0605 18:24:58.674387 10418 layer_factory.hpp:77] Creating layer relu2_2
I0605 18:24:58.674391 10418 net.cpp:106] Creating Layer relu2_2
I0605 18:24:58.674394 10418 net.cpp:454] relu2_2 <- conv2_2
I0605 18:24:58.674398 10418 net.cpp:397] relu2_2 -> conv2_2 (in-place)
I0605 18:24:58.674549 10418 net.cpp:150] Setting up relu2_2
I0605 18:24:58.674554 10418 net.cpp:157] Top shape: 1 128 300 500 (19200000)
I0605 18:24:58.674567 10418 net.cpp:165] Memory required for data: 981600108
I0605 18:24:58.674571 10418 layer_factory.hpp:77] Creating layer pool2
I0605 18:24:58.674576 10418 net.cpp:106] Creating Layer pool2
I0605 18:24:58.674577 10418 net.cpp:454] pool2 <- conv2_2
I0605 18:24:58.674590 10418 net.cpp:411] pool2 -> pool2
I0605 18:24:58.674638 10418 net.cpp:150] Setting up pool2
I0605 18:24:58.674641 10418 net.cpp:157] Top shape: 1 128 150 250 (4800000)
I0605 18:24:58.674643 10418 net.cpp:165] Memory required for data: 1000800108
I0605 18:24:58.674645 10418 layer_factory.hpp:77] Creating layer conv3_1
I0605 18:24:58.674662 10418 net.cpp:106] Creating Layer conv3_1
I0605 18:24:58.674664 10418 net.cpp:454] conv3_1 <- pool2
I0605 18:24:58.674667 10418 net.cpp:411] conv3_1 -> conv3_1
I0605 18:24:58.676864 10418 net.cpp:150] Setting up conv3_1
I0605 18:24:58.676872 10418 net.cpp:157] Top shape: 1 256 150 250 (9600000)
I0605 18:24:58.676875 10418 net.cpp:165] Memory required for data: 1039200108
I0605 18:24:58.676882 10418 layer_factory.hpp:77] Creating layer relu3_1
I0605 18:24:58.676887 10418 net.cpp:106] Creating Layer relu3_1
I0605 18:24:58.676889 10418 net.cpp:454] relu3_1 <- conv3_1
I0605 18:24:58.676903 10418 net.cpp:397] relu3_1 -> conv3_1 (in-place)
I0605 18:24:58.677076 10418 net.cpp:150] Setting up relu3_1
I0605 18:24:58.677083 10418 net.cpp:157] Top shape: 1 256 150 250 (9600000)
I0605 18:24:58.677085 10418 net.cpp:165] Memory required for data: 1077600108
I0605 18:24:58.677096 10418 layer_factory.hpp:77] Creating layer conv3_2
I0605 18:24:58.677104 10418 net.cpp:106] Creating Layer conv3_2
I0605 18:24:58.677119 10418 net.cpp:454] conv3_2 <- conv3_1
I0605 18:24:58.677137 10418 net.cpp:411] conv3_2 -> conv3_2
I0605 18:24:58.679396 10418 net.cpp:150] Setting up conv3_2
I0605 18:24:58.679406 10418 net.cpp:157] Top shape: 1 256 150 250 (9600000)
I0605 18:24:58.679409 10418 net.cpp:165] Memory required for data: 1116000108
I0605 18:24:58.679415 10418 layer_factory.hpp:77] Creating layer relu3_2
I0605 18:24:58.679420 10418 net.cpp:106] Creating Layer relu3_2
I0605 18:24:58.679422 10418 net.cpp:454] relu3_2 <- conv3_2
I0605 18:24:58.679426 10418 net.cpp:397] relu3_2 -> conv3_2 (in-place)
I0605 18:24:58.679579 10418 net.cpp:150] Setting up relu3_2
I0605 18:24:58.679585 10418 net.cpp:157] Top shape: 1 256 150 250 (9600000)
I0605 18:24:58.679587 10418 net.cpp:165] Memory required for data: 1154400108
I0605 18:24:58.679590 10418 layer_factory.hpp:77] Creating layer conv3_3
I0605 18:24:58.679595 10418 net.cpp:106] Creating Layer conv3_3
I0605 18:24:58.679597 10418 net.cpp:454] conv3_3 <- conv3_2
I0605 18:24:58.679602 10418 net.cpp:411] conv3_3 -> conv3_3
I0605 18:24:58.681641 10418 net.cpp:150] Setting up conv3_3
I0605 18:24:58.681651 10418 net.cpp:157] Top shape: 1 256 150 250 (9600000)
I0605 18:24:58.681653 10418 net.cpp:165] Memory required for data: 1192800108
I0605 18:24:58.681658 10418 layer_factory.hpp:77] Creating layer relu3_3
I0605 18:24:58.681663 10418 net.cpp:106] Creating Layer relu3_3
I0605 18:24:58.681666 10418 net.cpp:454] relu3_3 <- conv3_3
I0605 18:24:58.681670 10418 net.cpp:397] relu3_3 -> conv3_3 (in-place)
I0605 18:24:58.681821 10418 net.cpp:150] Setting up relu3_3
I0605 18:24:58.681828 10418 net.cpp:157] Top shape: 1 256 150 250 (9600000)
I0605 18:24:58.681839 10418 net.cpp:165] Memory required for data: 1231200108
I0605 18:24:58.681843 10418 layer_factory.hpp:77] Creating layer pool3
I0605 18:24:58.681857 10418 net.cpp:106] Creating Layer pool3
I0605 18:24:58.681860 10418 net.cpp:454] pool3 <- conv3_3
I0605 18:24:58.681864 10418 net.cpp:411] pool3 -> pool3
I0605 18:24:58.681897 10418 net.cpp:150] Setting up pool3
I0605 18:24:58.681905 10418 net.cpp:157] Top shape: 1 256 75 125 (2400000)
I0605 18:24:58.681906 10418 net.cpp:165] Memory required for data: 1240800108
I0605 18:24:58.681910 10418 layer_factory.hpp:77] Creating layer conv4_1
I0605 18:24:58.681915 10418 net.cpp:106] Creating Layer conv4_1
I0605 18:24:58.681921 10418 net.cpp:454] conv4_1 <- pool3
I0605 18:24:58.681926 10418 net.cpp:411] conv4_1 -> conv4_1
I0605 18:24:58.685791 10418 net.cpp:150] Setting up conv4_1
I0605 18:24:58.685809 10418 net.cpp:157] Top shape: 1 512 75 125 (4800000)
I0605 18:24:58.685811 10418 net.cpp:165] Memory required for data: 1260000108
I0605 18:24:58.685818 10418 layer_factory.hpp:77] Creating layer relu4_1
I0605 18:24:58.685827 10418 net.cpp:106] Creating Layer relu4_1
I0605 18:24:58.685842 10418 net.cpp:454] relu4_1 <- conv4_1
I0605 18:24:58.685850 10418 net.cpp:397] relu4_1 -> conv4_1 (in-place)
I0605 18:24:58.685974 10418 net.cpp:150] Setting up relu4_1
I0605 18:24:58.685981 10418 net.cpp:157] Top shape: 1 512 75 125 (4800000)
I0605 18:24:58.685982 10418 net.cpp:165] Memory required for data: 1279200108
I0605 18:24:58.685984 10418 layer_factory.hpp:77] Creating layer conv4_2
I0605 18:24:58.685992 10418 net.cpp:106] Creating Layer conv4_2
I0605 18:24:58.685993 10418 net.cpp:454] conv4_2 <- conv4_1
I0605 18:24:58.685997 10418 net.cpp:411] conv4_2 -> conv4_2
I0605 18:24:58.690595 10418 net.cpp:150] Setting up conv4_2
I0605 18:24:58.690615 10418 net.cpp:157] Top shape: 1 512 75 125 (4800000)
I0605 18:24:58.690618 10418 net.cpp:165] Memory required for data: 1298400108
I0605 18:24:58.690630 10418 layer_factory.hpp:77] Creating layer relu4_2
I0605 18:24:58.690637 10418 net.cpp:106] Creating Layer relu4_2
I0605 18:24:58.690652 10418 net.cpp:454] relu4_2 <- conv4_2
I0605 18:24:58.690657 10418 net.cpp:397] relu4_2 -> conv4_2 (in-place)
I0605 18:24:58.691129 10418 net.cpp:150] Setting up relu4_2
I0605 18:24:58.691138 10418 net.cpp:157] Top shape: 1 512 75 125 (4800000)
I0605 18:24:58.691139 10418 net.cpp:165] Memory required for data: 1317600108
I0605 18:24:58.691143 10418 layer_factory.hpp:77] Creating layer conv4_3
I0605 18:24:58.691148 10418 net.cpp:106] Creating Layer conv4_3
I0605 18:24:58.691151 10418 net.cpp:454] conv4_3 <- conv4_2
I0605 18:24:58.691155 10418 net.cpp:411] conv4_3 -> conv4_3
I0605 18:24:58.695436 10418 net.cpp:150] Setting up conv4_3
I0605 18:24:58.695456 10418 net.cpp:157] Top shape: 1 512 75 125 (4800000)
I0605 18:24:58.695458 10418 net.cpp:165] Memory required for data: 1336800108
I0605 18:24:58.695466 10418 layer_factory.hpp:77] Creating layer relu4_3
I0605 18:24:58.695472 10418 net.cpp:106] Creating Layer relu4_3
I0605 18:24:58.695477 10418 net.cpp:454] relu4_3 <- conv4_3
I0605 18:24:58.695492 10418 net.cpp:397] relu4_3 -> conv4_3 (in-place)
I0605 18:24:58.695612 10418 net.cpp:150] Setting up relu4_3
I0605 18:24:58.695618 10418 net.cpp:157] Top shape: 1 512 75 125 (4800000)
I0605 18:24:58.695621 10418 net.cpp:165] Memory required for data: 1356000108
I0605 18:24:58.695622 10418 layer_factory.hpp:77] Creating layer pool4
I0605 18:24:58.695628 10418 net.cpp:106] Creating Layer pool4
I0605 18:24:58.695631 10418 net.cpp:454] pool4 <- conv4_3
I0605 18:24:58.695634 10418 net.cpp:411] pool4 -> pool4
I0605 18:24:58.695680 10418 net.cpp:150] Setting up pool4
I0605 18:24:58.695684 10418 net.cpp:157] Top shape: 1 512 38 63 (1225728)
I0605 18:24:58.695686 10418 net.cpp:165] Memory required for data: 1360903020
I0605 18:24:58.695688 10418 layer_factory.hpp:77] Creating layer conv5_1
I0605 18:24:58.695695 10418 net.cpp:106] Creating Layer conv5_1
I0605 18:24:58.695698 10418 net.cpp:454] conv5_1 <- pool4
I0605 18:24:58.695701 10418 net.cpp:411] conv5_1 -> conv5_1
I0605 18:24:58.700034 10418 net.cpp:150] Setting up conv5_1
I0605 18:24:58.700053 10418 net.cpp:157] Top shape: 1 512 38 63 (1225728)
I0605 18:24:58.700057 10418 net.cpp:165] Memory required for data: 1365805932
I0605 18:24:58.700063 10418 layer_factory.hpp:77] Creating layer relu5_1
I0605 18:24:58.700070 10418 net.cpp:106] Creating Layer relu5_1
I0605 18:24:58.700074 10418 net.cpp:454] relu5_1 <- conv5_1
I0605 18:24:58.700089 10418 net.cpp:397] relu5_1 -> conv5_1 (in-place)
I0605 18:24:58.700211 10418 net.cpp:150] Setting up relu5_1
I0605 18:24:58.700217 10418 net.cpp:157] Top shape: 1 512 38 63 (1225728)
I0605 18:24:58.700218 10418 net.cpp:165] Memory required for data: 1370708844
I0605 18:24:58.700220 10418 layer_factory.hpp:77] Creating layer conv5_2
I0605 18:24:58.700227 10418 net.cpp:106] Creating Layer conv5_2
I0605 18:24:58.700229 10418 net.cpp:454] conv5_2 <- conv5_1
I0605 18:24:58.700234 10418 net.cpp:411] conv5_2 -> conv5_2
I0605 18:24:58.704680 10418 net.cpp:150] Setting up conv5_2
I0605 18:24:58.704701 10418 net.cpp:157] Top shape: 1 512 38 63 (1225728)
I0605 18:24:58.704704 10418 net.cpp:165] Memory required for data: 1375611756
I0605 18:24:58.704711 10418 layer_factory.hpp:77] Creating layer relu5_2
I0605 18:24:58.704720 10418 net.cpp:106] Creating Layer relu5_2
I0605 18:24:58.704723 10418 net.cpp:454] relu5_2 <- conv5_2
I0605 18:24:58.704730 10418 net.cpp:397] relu5_2 -> conv5_2 (in-place)
I0605 18:24:58.704845 10418 net.cpp:150] Setting up relu5_2
I0605 18:24:58.704852 10418 net.cpp:157] Top shape: 1 512 38 63 (1225728)
I0605 18:24:58.704854 10418 net.cpp:165] Memory required for data: 1380514668
I0605 18:24:58.704857 10418 layer_factory.hpp:77] Creating layer conv5_3
I0605 18:24:58.704869 10418 net.cpp:106] Creating Layer conv5_3
I0605 18:24:58.704872 10418 net.cpp:454] conv5_3 <- conv5_2
I0605 18:24:58.704876 10418 net.cpp:411] conv5_3 -> conv5_3
I0605 18:24:58.709746 10418 net.cpp:150] Setting up conv5_3
I0605 18:24:58.709764 10418 net.cpp:157] Top shape: 1 512 38 63 (1225728)
I0605 18:24:58.709765 10418 net.cpp:165] Memory required for data: 1385417580
I0605 18:24:58.709772 10418 layer_factory.hpp:77] Creating layer relu5_3
I0605 18:24:58.709789 10418 net.cpp:106] Creating Layer relu5_3
I0605 18:24:58.709794 10418 net.cpp:454] relu5_3 <- conv5_3
I0605 18:24:58.709810 10418 net.cpp:397] relu5_3 -> conv5_3 (in-place)
I0605 18:24:58.709944 10418 net.cpp:150] Setting up relu5_3
I0605 18:24:58.709949 10418 net.cpp:157] Top shape: 1 512 38 63 (1225728)
I0605 18:24:58.709952 10418 net.cpp:165] Memory required for data: 1390320492
I0605 18:24:58.709954 10418 layer_factory.hpp:77] Creating layer conv5_3_relu5_3_0_split
I0605 18:24:58.709959 10418 net.cpp:106] Creating Layer conv5_3_relu5_3_0_split
I0605 18:24:58.709971 10418 net.cpp:454] conv5_3_relu5_3_0_split <- conv5_3
I0605 18:24:58.709978 10418 net.cpp:411] conv5_3_relu5_3_0_split -> conv5_3_relu5_3_0_split_0
I0605 18:24:58.709998 10418 net.cpp:411] conv5_3_relu5_3_0_split -> conv5_3_relu5_3_0_split_1
I0605 18:24:58.710014 10418 net.cpp:411] conv5_3_relu5_3_0_split -> conv5_3_relu5_3_0_split_2
I0605 18:24:58.710063 10418 net.cpp:150] Setting up conv5_3_relu5_3_0_split
I0605 18:24:58.710078 10418 net.cpp:157] Top shape: 1 512 38 63 (1225728)
I0605 18:24:58.710080 10418 net.cpp:157] Top shape: 1 512 38 63 (1225728)
I0605 18:24:58.710083 10418 net.cpp:157] Top shape: 1 512 38 63 (1225728)
I0605 18:24:58.710094 10418 net.cpp:165] Memory required for data: 1405029228
I0605 18:24:58.710098 10418 layer_factory.hpp:77] Creating layer rpn_conv/3x3
I0605 18:24:58.710106 10418 net.cpp:106] Creating Layer rpn_conv/3x3
I0605 18:24:58.710109 10418 net.cpp:454] rpn_conv/3x3 <- conv5_3_relu5_3_0_split_0
I0605 18:24:58.710114 10418 net.cpp:411] rpn_conv/3x3 -> rpn/output
I0605 18:24:58.760797 10418 net.cpp:150] Setting up rpn_conv/3x3
I0605 18:24:58.760818 10418 net.cpp:157] Top shape: 1 512 38 63 (1225728)
I0605 18:24:58.760820 10418 net.cpp:165] Memory required for data: 1409932140
I0605 18:24:58.760828 10418 layer_factory.hpp:77] Creating layer rpn_relu/3x3
I0605 18:24:58.760834 10418 net.cpp:106] Creating Layer rpn_relu/3x3
I0605 18:24:58.760848 10418 net.cpp:454] rpn_relu/3x3 <- rpn/output
I0605 18:24:58.760852 10418 net.cpp:397] rpn_relu/3x3 -> rpn/output (in-place)
I0605 18:24:58.761003 10418 net.cpp:150] Setting up rpn_relu/3x3
I0605 18:24:58.761009 10418 net.cpp:157] Top shape: 1 512 38 63 (1225728)
I0605 18:24:58.761011 10418 net.cpp:165] Memory required for data: 1414835052
I0605 18:24:58.761013 10418 layer_factory.hpp:77] Creating layer rpn/output_rpn_relu/3x3_0_split
I0605 18:24:58.761018 10418 net.cpp:106] Creating Layer rpn/output_rpn_relu/3x3_0_split
I0605 18:24:58.761019 10418 net.cpp:454] rpn/output_rpn_relu/3x3_0_split <- rpn/output
I0605 18:24:58.761023 10418 net.cpp:411] rpn/output_rpn_relu/3x3_0_split -> rpn/output_rpn_relu/3x3_0_split_0
I0605 18:24:58.761029 10418 net.cpp:411] rpn/output_rpn_relu/3x3_0_split -> rpn/output_rpn_relu/3x3_0_split_1
I0605 18:24:58.761072 10418 net.cpp:150] Setting up rpn/output_rpn_relu/3x3_0_split
I0605 18:24:58.761076 10418 net.cpp:157] Top shape: 1 512 38 63 (1225728)
I0605 18:24:58.761080 10418 net.cpp:157] Top shape: 1 512 38 63 (1225728)
I0605 18:24:58.761091 10418 net.cpp:165] Memory required for data: 1424640876
I0605 18:24:58.761093 10418 layer_factory.hpp:77] Creating layer rpn_cls_score
I0605 18:24:58.761103 10418 net.cpp:106] Creating Layer rpn_cls_score
I0605 18:24:58.761106 10418 net.cpp:454] rpn_cls_score <- rpn/output_rpn_relu/3x3_0_split_0
I0605 18:24:58.761109 10418 net.cpp:411] rpn_cls_score -> rpn_cls_score
I0605 18:24:58.762665 10418 net.cpp:150] Setting up rpn_cls_score
I0605 18:24:58.762675 10418 net.cpp:157] Top shape: 1 30 38 63 (71820)
I0605 18:24:58.762676 10418 net.cpp:165] Memory required for data: 1424928156
I0605 18:24:58.762681 10418 layer_factory.hpp:77] Creating layer rpn_cls_score_rpn_cls_score_0_split
I0605 18:24:58.762684 10418 net.cpp:106] Creating Layer rpn_cls_score_rpn_cls_score_0_split
I0605 18:24:58.762687 10418 net.cpp:454] rpn_cls_score_rpn_cls_score_0_split <- rpn_cls_score
I0605 18:24:58.762692 10418 net.cpp:411] rpn_cls_score_rpn_cls_score_0_split -> rpn_cls_score_rpn_cls_score_0_split_0
I0605 18:24:58.762697 10418 net.cpp:411] rpn_cls_score_rpn_cls_score_0_split -> rpn_cls_score_rpn_cls_score_0_split_1
I0605 18:24:58.762754 10418 net.cpp:150] Setting up rpn_cls_score_rpn_cls_score_0_split
I0605 18:24:58.762768 10418 net.cpp:157] Top shape: 1 30 38 63 (71820)
I0605 18:24:58.762770 10418 net.cpp:157] Top shape: 1 30 38 63 (71820)
I0605 18:24:58.762773 10418 net.cpp:165] Memory required for data: 1425502716
I0605 18:24:58.762774 10418 layer_factory.hpp:77] Creating layer rpn_bbox_pred
I0605 18:24:58.762792 10418 net.cpp:106] Creating Layer rpn_bbox_pred
I0605 18:24:58.762794 10418 net.cpp:454] rpn_bbox_pred <- rpn/output_rpn_relu/3x3_0_split_1
I0605 18:24:58.762807 10418 net.cpp:411] rpn_bbox_pred -> rpn_bbox_pred
I0605 18:24:58.764360 10418 net.cpp:150] Setting up rpn_bbox_pred
I0605 18:24:58.764369 10418 net.cpp:157] Top shape: 1 60 38 63 (143640)
I0605 18:24:58.764370 10418 net.cpp:165] Memory required for data: 1426077276
I0605 18:24:58.764374 10418 layer_factory.hpp:77] Creating layer rpn_bbox_pred_rpn_bbox_pred_0_split
I0605 18:24:58.764379 10418 net.cpp:106] Creating Layer rpn_bbox_pred_rpn_bbox_pred_0_split
I0605 18:24:58.764382 10418 net.cpp:454] rpn_bbox_pred_rpn_bbox_pred_0_split <- rpn_bbox_pred
I0605 18:24:58.764385 10418 net.cpp:411] rpn_bbox_pred_rpn_bbox_pred_0_split -> rpn_bbox_pred_rpn_bbox_pred_0_split_0
I0605 18:24:58.764400 10418 net.cpp:411] rpn_bbox_pred_rpn_bbox_pred_0_split -> rpn_bbox_pred_rpn_bbox_pred_0_split_1
I0605 18:24:58.764446 10418 net.cpp:150] Setting up rpn_bbox_pred_rpn_bbox_pred_0_split
I0605 18:24:58.764459 10418 net.cpp:157] Top shape: 1 60 38 63 (143640)
I0605 18:24:58.764461 10418 net.cpp:157] Top shape: 1 60 38 63 (143640)
I0605 18:24:58.764463 10418 net.cpp:165] Memory required for data: 1427226396
I0605 18:24:58.764477 10418 layer_factory.hpp:77] Creating layer rpn_cls_score_reshape
I0605 18:24:58.764485 10418 net.cpp:106] Creating Layer rpn_cls_score_reshape
I0605 18:24:58.764487 10418 net.cpp:454] rpn_cls_score_reshape <- rpn_cls_score_rpn_cls_score_0_split_0
I0605 18:24:58.764503 10418 net.cpp:411] rpn_cls_score_reshape -> rpn_cls_score_reshape
I0605 18:24:58.764544 10418 net.cpp:150] Setting up rpn_cls_score_reshape
I0605 18:24:58.764557 10418 net.cpp:157] Top shape: 1 2 570 63 (71820)
I0605 18:24:58.764559 10418 net.cpp:165] Memory required for data: 1427513676
I0605 18:24:58.764561 10418 layer_factory.hpp:77] Creating layer rpn_cls_score_reshape_rpn_cls_score_reshape_0_split
I0605 18:24:58.764565 10418 net.cpp:106] Creating Layer rpn_cls_score_reshape_rpn_cls_score_reshape_0_split
I0605 18:24:58.764567 10418 net.cpp:454] rpn_cls_score_reshape_rpn_cls_score_reshape_0_split <- rpn_cls_score_reshape
I0605 18:24:58.764571 10418 net.cpp:411] rpn_cls_score_reshape_rpn_cls_score_reshape_0_split -> rpn_cls_score_reshape_rpn_cls_score_reshape_0_split_0
I0605 18:24:58.764575 10418 net.cpp:411] rpn_cls_score_reshape_rpn_cls_score_reshape_0_split -> rpn_cls_score_reshape_rpn_cls_score_reshape_0_split_1
I0605 18:24:58.764606 10418 net.cpp:150] Setting up rpn_cls_score_reshape_rpn_cls_score_reshape_0_split
I0605 18:24:58.764619 10418 net.cpp:157] Top shape: 1 2 570 63 (71820)
I0605 18:24:58.764621 10418 net.cpp:157] Top shape: 1 2 570 63 (71820)
I0605 18:24:58.764623 10418 net.cpp:165] Memory required for data: 1428088236
I0605 18:24:58.764626 10418 layer_factory.hpp:77] Creating layer rpn-data
I0605 18:24:58.764998 10418 net.cpp:106] Creating Layer rpn-data
I0605 18:24:58.765005 10418 net.cpp:454] rpn-data <- rpn_cls_score_rpn_cls_score_0_split_1
I0605 18:24:58.765009 10418 net.cpp:454] rpn-data <- gt_boxes_input-data_2_split_0
I0605 18:24:58.765013 10418 net.cpp:454] rpn-data <- im_info_input-data_1_split_0
I0605 18:24:58.765017 10418 net.cpp:454] rpn-data <- data_input-data_0_split_1
I0605 18:24:58.765019 10418 net.cpp:411] rpn-data -> rpn_labels
I0605 18:24:58.765024 10418 net.cpp:411] rpn-data -> rpn_bbox_targets
I0605 18:24:58.765039 10418 net.cpp:411] rpn-data -> rpn_bbox_inside_weights
I0605 18:24:58.765054 10418 net.cpp:411] rpn-data -> rpn_bbox_outside_weights
===================================anchor_scales in AnchorTargetLayer:=============(2, 4, 8, 16, 32)
I0605 18:24:58.765933 10418 net.cpp:150] Setting up rpn-data
I0605 18:24:58.765940 10418 net.cpp:157] Top shape: 1 1 570 63 (35910)
I0605 18:24:58.765954 10418 net.cpp:157] Top shape: 1 60 38 63 (143640)
I0605 18:24:58.765956 10418 net.cpp:157] Top shape: 1 60 38 63 (143640)
I0605 18:24:58.765959 10418 net.cpp:157] Top shape: 1 60 38 63 (143640)
I0605 18:24:58.765961 10418 net.cpp:165] Memory required for data: 1429955556
I0605 18:24:58.765964 10418 layer_factory.hpp:77] Creating layer rpn_loss_cls
I0605 18:24:58.765980 10418 net.cpp:106] Creating Layer rpn_loss_cls
I0605 18:24:58.765983 10418 net.cpp:454] rpn_loss_cls <- rpn_cls_score_reshape_rpn_cls_score_reshape_0_split_0
I0605 18:24:58.765986 10418 net.cpp:454] rpn_loss_cls <- rpn_labels
…
I0605 18:24:58.767841 10418 net.cpp:157] Top shape: (1)
I0605 18:24:58.767843 10418 net.cpp:160]     with loss weight 1
I0605 18:24:58.767848 10418 net.cpp:165] Memory required for data: 1429955564
I0605 18:24:58.767850 10418 layer_factory.hpp:77] Creating layer rpn_cls_prob
I0605 18:24:58.767854 10418 net.cpp:106] Creating Layer rpn_cls_prob
I0605 18:24:58.767858 10418 net.cpp:454] rpn_cls_prob <- rpn_cls_score_reshape_rpn_cls_score_reshape_0_split_1
I0605 18:24:58.767861 10418 net.cpp:411] rpn_cls_prob -> rpn_cls_prob
I0605 18:24:58.768033 10418 net.cpp:150] Setting up rpn_cls_prob
I0605 18:24:58.768039 10418 net.cpp:157] Top shape: 1 2 570 63 (71820)
I0605 18:24:58.768043 10418 net.cpp:165] Memory required for data: 1430242844
I0605 18:24:58.768044 10418 layer_factory.hpp:77] Creating layer rpn_cls_prob_reshape
I0605 18:24:58.768049 10418 net.cpp:106] Creating Layer rpn_cls_prob_reshape
I0605 18:24:58.768064 10418 net.cpp:454] rpn_cls_prob_reshape <- rpn_cls_prob
I0605 18:24:58.768069 10418 net.cpp:411] rpn_cls_prob_reshape -> rpn_cls_prob_reshape
I0605 18:24:58.768098 10418 net.cpp:150] Setting up rpn_cls_prob_reshape
I0605 18:24:58.768103 10418 net.cpp:157] Top shape: 1 30 38 63 (71820)
I0605 18:24:58.768105 10418 net.cpp:165] Memory required for data: 1430530124
I0605 18:24:58.768108 10418 layer_factory.hpp:77] Creating layer proposal
I0605 18:24:58.768664 10418 net.cpp:106] Creating Layer proposal
I0605 18:24:58.768672 10418 net.cpp:454] proposal <- rpn_cls_prob_reshape
I0605 18:24:58.768676 10418 net.cpp:454] proposal <- rpn_bbox_pred_rpn_bbox_pred_0_split_1
I0605 18:24:58.768679 10418 net.cpp:454] proposal <- im_info_input-data_1_split_1
I0605 18:24:58.768693 10418 net.cpp:411] proposal -> rpn_rois
=================================anchor_scales in ProposalLayer:=============(2, 4, 8, 16, 32)
I0605 18:24:58.769878 10418 net.cpp:150] Setting up proposal
I0605 18:24:58.769898 10418 net.cpp:157] Top shape: 1 5 (5)
I0605 18:24:58.769901 10418 net.cpp:165] Memory required for data: 1430530144
I0605 18:24:58.769903 10418 layer_factory.hpp:77] Creating layer roi-data
I0605 18:24:58.771946 10418 net.cpp:106] Creating Layer roi-data
I0605 18:24:58.771955 10418 net.cpp:454] roi-data <- rpn_rois
I0605 18:24:58.771958 10418 net.cpp:454] roi-data <- gt_boxes_input-data_2_split_1
I0605 18:24:58.771961 10418 net.cpp:454] roi-data <- im_info_input-data_1_split_2
I0605 18:24:58.771963 10418 net.cpp:454] roi-data <- seg_mask_inds
I0605 18:24:58.771966 10418 net.cpp:454] roi-data <- flipped
I0605 18:24:58.771970 10418 net.cpp:411] roi-data -> rois
I0605 18:24:58.771986 10418 net.cpp:411] roi-data -> labels
I0605 18:24:58.771991 10418 net.cpp:411] roi-data -> bbox_targets
I0605 18:24:58.771996 10418 net.cpp:411] roi-data -> bbox_inside_weights
I0605 18:24:58.772001 10418 net.cpp:411] roi-data -> bbox_outside_weights
I0605 18:24:58.772006 10418 net.cpp:411] roi-data -> mask_targets
I0605 18:24:58.772011 10418 net.cpp:411] roi-data -> rois_pos
I0605 18:24:58.772291 10418 net.cpp:150] Setting up roi-data
I0605 18:24:58.772300 10418 net.cpp:157] Top shape: 1 5 (5)
I0605 18:24:58.772303 10418 net.cpp:157] Top shape: 1 1 (1)
I0605 18:24:58.772305 10418 net.cpp:157] Top shape: 1 8 (8)
I0605 18:24:58.772308 10418 net.cpp:157] Top shape: 1 8 (8)
I0605 18:24:58.772310 10418 net.cpp:157] Top shape: 1 8 (8)
I0605 18:24:58.772313 10418 net.cpp:157] Top shape: 1 244 244 (59536)
I0605 18:24:58.772315 10418 net.cpp:157] Top shape: 1 5 (5)
I0605 18:24:58.772317 10418 net.cpp:165] Memory required for data: 1430768428
I0605 18:24:58.772320 10418 layer_factory.hpp:77] Creating layer roi_pool5
I0605 18:24:58.772326 10418 net.cpp:106] Creating Layer roi_pool5
I0605 18:24:58.772330 10418 net.cpp:454] roi_pool5 <- conv5_3_relu5_3_0_split_1
I0605 18:24:58.772333 10418 net.cpp:454] roi_pool5 <- rois
I0605 18:24:58.772339 10418 net.cpp:411] roi_pool5 -> pool5
I0605 18:24:58.772348 10418 roi_alignment_layer.cpp:32] Spatial scale: 0.0625
I0605 18:24:58.772413 10418 net.cpp:150] Setting up roi_pool5
I0605 18:24:58.772418 10418 net.cpp:157] Top shape: 1 512 7 7 (25088)
I0605 18:24:58.772419 10418 net.cpp:165] Memory required for data: 1430868780
I0605 18:24:58.772421 10418 layer_factory.hpp:77] Creating layer fc6
I0605 18:24:58.772426 10418 net.cpp:106] Creating Layer fc6
I0605 18:24:58.772428 10418 net.cpp:454] fc6 <- pool5
I0605 18:24:58.772433 10418 net.cpp:411] fc6 -> fc6
I0605 18:24:58.920425 10418 net.cpp:150] Setting up fc6
I0605 18:24:58.920454 10418 net.cpp:157] Top shape: 1 4096 (4096)
I0605 18:24:58.920457 10418 net.cpp:165] Memory required for data: 1430885164
I0605 18:24:58.920471 10418 layer_factory.hpp:77] Creating layer relu6
I0605 18:24:58.920490 10418 net.cpp:106] Creating Layer relu6
I0605 18:24:58.920496 10418 net.cpp:454] relu6 <- fc6
I0605 18:24:58.920502 10418 net.cpp:397] relu6 -> fc6 (in-place)
I0605 18:24:58.920722 10418 net.cpp:150] Setting up relu6
I0605 18:24:58.920729 10418 net.cpp:157] Top shape: 1 4096 (4096)
I0605 18:24:58.920732 10418 net.cpp:165] Memory required for data: 1430901548
I0605 18:24:58.920734 10418 layer_factory.hpp:77] Creating layer fc7
I0605 18:24:58.920740 10418 net.cpp:106] Creating Layer fc7
I0605 18:24:58.920743 10418 net.cpp:454] fc7 <- fc6
I0605 18:24:58.920747 10418 net.cpp:411] fc7 -> fc7
I0605 18:24:58.944913 10418 net.cpp:150] Setting up fc7
I0605 18:24:58.944948 10418 net.cpp:157] Top shape: 1 4096 (4096)
I0605 18:24:58.944952 10418 net.cpp:165] Memory required for data: 1430917932
I0605 18:24:58.944973 10418 layer_factory.hpp:77] Creating layer relu7
I0605 18:24:58.944983 10418 net.cpp:106] Creating Layer relu7
I0605 18:24:58.944989 10418 net.cpp:454] relu7 <- fc7
I0605 18:24:58.944998 10418 net.cpp:397] relu7 -> fc7 (in-place)
I0605 18:24:58.945225 10418 net.cpp:150] Setting up relu7
I0605 18:24:58.945235 10418 net.cpp:157] Top shape: 1 4096 (4096)
I0605 18:24:58.945238 10418 net.cpp:165] Memory required for data: 1430934316
I0605 18:24:58.945252 10418 layer_factory.hpp:77] Creating layer fc7_relu7_0_split
I0605 18:24:58.945260 10418 net.cpp:106] Creating Layer fc7_relu7_0_split
I0605 18:24:58.945263 10418 net.cpp:454] fc7_relu7_0_split <- fc7
I0605 18:24:58.945268 10418 net.cpp:411] fc7_relu7_0_split -> fc7_relu7_0_split_0
I0605 18:24:58.945274 10418 net.cpp:411] fc7_relu7_0_split -> fc7_relu7_0_split_1
I0605 18:24:58.945331 10418 net.cpp:150] Setting up fc7_relu7_0_split
I0605 18:24:58.945338 10418 net.cpp:157] Top shape: 1 4096 (4096)
I0605 18:24:58.945340 10418 net.cpp:157] Top shape: 1 4096 (4096)
I0605 18:24:58.945343 10418 net.cpp:165] Memory required for data: 1430967084
I0605 18:24:58.945355 10418 layer_factory.hpp:77] Creating layer cls_score
I0605 18:24:58.945361 10418 net.cpp:106] Creating Layer cls_score
I0605 18:24:58.945365 10418 net.cpp:454] cls_score <- fc7_relu7_0_split_0
I0605 18:24:58.945370 10418 net.cpp:411] cls_score -> cls_score
I0605 18:24:58.945646 10418 net.cpp:150] Setting up cls_score
I0605 18:24:58.945652 10418 net.cpp:157] Top shape: 1 2 (2)
I0605 18:24:58.945654 10418 net.cpp:165] Memory required for data: 1430967092
I0605 18:24:58.945659 10418 layer_factory.hpp:77] Creating layer bbox_pred
I0605 18:24:58.945664 10418 net.cpp:106] Creating Layer bbox_pred
I0605 18:24:58.945667 10418 net.cpp:454] bbox_pred <- fc7_relu7_0_split_1
I0605 18:24:58.945672 10418 net.cpp:411] bbox_pred -> bbox_pred
I0605 18:24:58.946555 10418 net.cpp:150] Setting up bbox_pred
I0605 18:24:58.946561 10418 net.cpp:157] Top shape: 1 8 (8)
I0605 18:24:58.946563 10418 net.cpp:165] Memory required for data: 1430967124
I0605 18:24:58.946568 10418 layer_factory.hpp:77] Creating layer loss_cls
I0605 18:24:58.946583 10418 net.cpp:106] Creating Layer loss_cls
I0605 18:24:58.946588 10418 net.cpp:454] loss_cls <- cls_score
I0605 18:24:58.946593 10418 net.cpp:454] loss_cls <- labels
I0605 18:24:58.946596 10418 net.cpp:411] loss_cls -> loss_cls
…
I0605 18:24:58.949169 10418 net.cpp:165] Memory required for data: 1430967132
I0605 18:24:58.949172 10418 layer_factory.hpp:77] Creating layer roi_pool5_2
I0605 18:24:58.949177 10418 net.cpp:106] Creating Layer roi_pool5_2
I0605 18:24:58.949187 10418 net.cpp:454] roi_pool5_2 <- conv5_3_relu5_3_0_split_2
I0605 18:24:58.949189 10418 net.cpp:454] roi_pool5_2 <- rois_pos
I0605 18:24:58.949194 10418 net.cpp:411] roi_pool5_2 -> pool5_2
I0605 18:24:58.949203 10418 roi_alignment_layer.cpp:32] Spatial scale: 0.0625
I0605 18:24:58.949267 10418 net.cpp:150] Setting up roi_pool5_2
I0605 18:24:58.949273 10418 net.cpp:157] Top shape: 1 512 7 7 (25088)
I0605 18:24:58.949275 10418 net.cpp:165] Memory required for data: 1431067484
I0605 18:24:58.949277 10418 layer_factory.hpp:77] Creating layer pool5_2_conv
I0605 18:24:58.949290 10418 net.cpp:106] Creating Layer pool5_2_conv
I0605 18:24:58.949295 10418 net.cpp:454] pool5_2_conv <- pool5_2
I0605 18:24:58.949299 10418 net.cpp:411] pool5_2_conv -> pool5_2_conv
I0605 18:24:58.956075 10418 net.cpp:150] Setting up pool5_2_conv
I0605 18:24:58.956097 10418 net.cpp:157] Top shape: 1 512 7 7 (25088)
I0605 18:24:58.956100 10418 net.cpp:165] Memory required for data: 1431167836
I0605 18:24:58.956105 10418 layer_factory.hpp:77] Creating layer pool5_2_conv_relu
I0605 18:24:58.956112 10418 net.cpp:106] Creating Layer pool5_2_conv_relu
I0605 18:24:58.956130 10418 net.cpp:454] pool5_2_conv_relu <- pool5_2_conv
I0605 18:24:58.956135 10418 net.cpp:411] pool5_2_conv_relu -> pool5_2_conv_relu
I0605 18:24:58.956298 10418 net.cpp:150] Setting up pool5_2_conv_relu
I0605 18:24:58.956305 10418 net.cpp:157] Top shape: 1 512 7 7 (25088)
I0605 18:24:58.956307 10418 net.cpp:165] Memory required for data: 1431268188
I0605 18:24:58.956310 10418 layer_factory.hpp:77] Creating layer pool5_2_conv2
I0605 18:24:58.956321 10418 net.cpp:106] Creating Layer pool5_2_conv2
I0605 18:24:58.956333 10418 net.cpp:454] pool5_2_conv2 <- pool5_2_conv_relu
I0605 18:24:58.956341 10418 net.cpp:411] pool5_2_conv2 -> pool5_2_conv2
I0605 18:24:59.008039 10418 net.cpp:150] Setting up pool5_2_conv2
I0605 18:24:59.008059 10418 net.cpp:157] Top shape: 1 512 7 7 (25088)
I0605 18:24:59.008062 10418 net.cpp:165] Memory required for data: 1431368540
I0605 18:24:59.008071 10418 layer_factory.hpp:77] Creating layer pool5_2_conv2_relu
I0605 18:24:59.008090 10418 net.cpp:106] Creating Layer pool5_2_conv2_relu
I0605 18:24:59.008095 10418 net.cpp:454] pool5_2_conv2_relu <- pool5_2_conv2
I0605 18:24:59.008111 10418 net.cpp:411] pool5_2_conv2_relu -> pool5_2_conv2_relu
I0605 18:24:59.008272 10418 net.cpp:150] Setting up pool5_2_conv2_relu
I0605 18:24:59.008280 10418 net.cpp:157] Top shape: 1 512 7 7 (25088)
I0605 18:24:59.008293 10418 net.cpp:165] Memory required for data: 1431468892
I0605 18:24:59.008296 10418 layer_factory.hpp:77] Creating layer mask_deconv1
I0605 18:24:59.008314 10418 net.cpp:106] Creating Layer mask_deconv1
I0605 18:24:59.008318 10418 net.cpp:454] mask_deconv1 <- pool5_2_conv2_relu
I0605 18:24:59.008327 10418 net.cpp:411] mask_deconv1 -> mask_deconv1
I0605 18:24:59.009205 10418 net.cpp:150] Setting up mask_deconv1
I0605 18:24:59.009212 10418 net.cpp:157] Top shape: 1 256 30 30 (230400)
I0605 18:24:59.009223 10418 net.cpp:165] Memory required for data: 1432390492
I0605 18:24:59.009227 10418 layer_factory.hpp:77] Creating layer pool5_2_conv3
I0605 18:24:59.009244 10418 net.cpp:106] Creating Layer pool5_2_conv3
I0605 18:24:59.009250 10418 net.cpp:454] pool5_2_conv3 <- mask_deconv1
I0605 18:24:59.009255 10418 net.cpp:411] pool5_2_conv3 -> pool5_2_conv3
I0605 18:24:59.035795 10418 net.cpp:150] Setting up pool5_2_conv3
I0605 18:24:59.035823 10418 net.cpp:157] Top shape: 1 512 30 30 (460800)
I0605 18:24:59.035826 10418 net.cpp:165] Memory required for data: 1434233692
I0605 18:24:59.035833 10418 layer_factory.hpp:77] Creating layer pool5_2_conv3_relu
I0605 18:24:59.035851 10418 net.cpp:106] Creating Layer pool5_2_conv3_relu
I0605 18:24:59.035857 10418 net.cpp:454] pool5_2_conv3_relu <- pool5_2_conv3
I0605 18:24:59.035866 10418 net.cpp:411] pool5_2_conv3_relu -> pool5_2_conv3_relu
I0605 18:24:59.036061 10418 net.cpp:150] Setting up pool5_2_conv3_relu
I0605 18:24:59.036067 10418 net.cpp:157] Top shape: 1 512 30 30 (460800)
I0605 18:24:59.036069 10418 net.cpp:165] Memory required for data: 1436076892
I0605 18:24:59.036072 10418 layer_factory.hpp:77] Creating layer pool5_2_conv4
I0605 18:24:59.036080 10418 net.cpp:106] Creating Layer pool5_2_conv4
I0605 18:24:59.036083 10418 net.cpp:454] pool5_2_conv4 <- pool5_2_conv3_relu
I0605 18:24:59.036098 10418 net.cpp:411] pool5_2_conv4 -> pool5_2_conv4
I0605 18:24:59.086647 10418 net.cpp:150] Setting up pool5_2_conv4
I0605 18:24:59.086665 10418 net.cpp:157] Top shape: 1 512 30 30 (460800)
I0605 18:24:59.086668 10418 net.cpp:165] Memory required for data: 1437920092
I0605 18:24:59.086676 10418 layer_factory.hpp:77] Creating layer pool5_2_conv4_relu
I0605 18:24:59.086694 10418 net.cpp:106] Creating Layer pool5_2_conv4_relu
I0605 18:24:59.086699 10418 net.cpp:454] pool5_2_conv4_relu <- pool5_2_conv4
I0605 18:24:59.086716 10418 net.cpp:411] pool5_2_conv4_relu -> pool5_2_conv4_relu
I0605 18:24:59.086870 10418 net.cpp:150] Setting up pool5_2_conv4_relu
I0605 18:24:59.086877 10418 net.cpp:157] Top shape: 1 512 30 30 (460800)
I0605 18:24:59.086879 10418 net.cpp:165] Memory required for data: 1439763292
I0605 18:24:59.086881 10418 layer_factory.hpp:77] Creating layer pool5_2_conv4_relu_pool5_2_conv4_relu_0_split
I0605 18:24:59.086887 10418 net.cpp:106] Creating Layer pool5_2_conv4_relu_pool5_2_conv4_relu_0_split
I0605 18:24:59.086890 10418 net.cpp:454] pool5_2_conv4_relu_pool5_2_conv4_relu_0_split <- pool5_2_conv4_relu
…
I0605 18:24:59.086933 10418 net.cpp:411] pool5_2_conv4_relu_pool5_2_conv4_relu_0_split -> pool5_2_conv4_relu_pool5_2_conv4_relu_0_split_4
I0605 18:24:59.086938 10418 net.cpp:411] pool5_2_conv4_relu_pool5_2_conv4_relu_0_split -> pool5_2_conv4_relu_pool5_2_conv4_relu_0_split_5
I0605 18:24:59.086941 10418 net.cpp:411] pool5_2_conv4_relu_pool5_2_conv4_relu_0_split -> pool5_2_conv4_relu_pool5_2_conv4_relu_0_split_6
I0605 18:24:59.086946 10418 net.cpp:411] pool5_2_conv4_relu_pool5_2_conv4_relu_0_split -> pool5_2_conv4_relu_pool5_2_conv4_relu_0_split_7
I0605 18:24:59.087039 10418 net.cpp:150] Setting up pool5_2_conv4_relu_pool5_2_conv4_relu_0_split
I0605 18:24:59.087044 10418 net.cpp:157] Top shape: 1 512 30 30 (460800)
I0605 18:24:59.087046 10418 net.cpp:157] Top shape: 1 512 30 30 (460800)
I0605 18:24:59.087049 10418 net.cpp:157] Top shape: 1 512 30 30 (460800)
I0605 18:24:59.087051 10418 net.cpp:157] Top shape: 1 512 30 30 (460800)
I0605 18:24:59.087054 10418 net.cpp:157] Top shape: 1 512 30 30 (460800)
I0605 18:24:59.087055 10418 net.cpp:157] Top shape: 1 512 30 30 (460800)
I0605 18:24:59.087059 10418 net.cpp:157] Top shape: 1 512 30 30 (460800)
I0605 18:24:59.087060 10418 net.cpp:157] Top shape: 1 512 30 30 (460800)
I0605 18:24:59.087062 10418 net.cpp:165] Memory required for data: 1454508892
I0605 18:24:59.087075 10418 layer_factory.hpp:77] Creating layer query_conv
I0605 18:24:59.087095 10418 net.cpp:106] Creating Layer query_conv
I0605 18:24:59.087097 10418 net.cpp:454] query_conv <- pool5_2_conv4_relu_pool5_2_conv4_relu_0_split_0
I0605 18:24:59.087102 10418 net.cpp:411] query_conv -> query_conv
I0605 18:24:59.088685 10418 net.cpp:150] Setting up query_conv
I0605 18:24:59.088692 10418 net.cpp:157] Top shape: 1 64 30 30 (57600)
I0605 18:24:59.088696 10418 net.cpp:165] Memory required for data: 1454739292
I0605 18:24:59.088699 10418 layer_factory.hpp:77] Creating layer key_conv
I0605 18:24:59.088708 10418 net.cpp:106] Creating Layer key_conv
I0605 18:24:59.088721 10418 net.cpp:454] key_conv <- pool5_2_conv4_relu_pool5_2_conv4_relu_0_split_1
I0605 18:24:59.088727 10418 net.cpp:411] key_conv -> key_conv
I0605 18:24:59.090328 10418 net.cpp:150] Setting up key_conv
I0605 18:24:59.090337 10418 net.cpp:157] Top shape: 1 64 30 30 (57600)
I0605 18:24:59.090339 10418 net.cpp:165] Memory required for data: 1454969692
I0605 18:24:59.090344 10418 layer_factory.hpp:77] Creating layer value_conv
I0605 18:24:59.090351 10418 net.cpp:106] Creating Layer value_conv
I0605 18:24:59.090354 10418 net.cpp:454] value_conv <- pool5_2_conv4_relu_pool5_2_conv4_relu_0_split_2
I0605 18:24:59.090369 10418 net.cpp:411] value_conv -> value_conv
I0605 18:24:59.097014 10418 net.cpp:150] Setting up value_conv
I0605 18:24:59.097023 10418 net.cpp:157] Top shape: 1 512 30 30 (460800)
I0605 18:24:59.097025 10418 net.cpp:165] Memory required for data: 1456812892
I0605 18:24:59.097030 10418 layer_factory.hpp:77] Creating layer query_conv_reshape
I0605 18:24:59.097036 10418 net.cpp:106] Creating Layer query_conv_reshape
I0605 18:24:59.097038 10418 net.cpp:454] query_conv_reshape <- query_conv
I0605 18:24:59.097054 10418 net.cpp:411] query_conv_reshape -> query_conv_reshape
I0605 18:24:59.097096 10418 net.cpp:150] Setting up query_conv_reshape
I0605 18:24:59.097110 10418 net.cpp:157] Top shape: 1 64 900 1 (57600)
I0605 18:24:59.097112 10418 net.cpp:165] Memory required for data: 1457043292
I0605 18:24:59.097115 10418 layer_factory.hpp:77] Creating layer key_conv_reshape
I0605 18:24:59.097118 10418 net.cpp:106] Creating Layer key_conv_reshape
I0605 18:24:59.097131 10418 net.cpp:454] key_conv_reshape <- key_conv
I0605 18:24:59.097134 10418 net.cpp:411] key_conv_reshape -> key_conv_reshape
I0605 18:24:59.097168 10418 net.cpp:150] Setting up key_conv_reshape
I0605 18:24:59.097172 10418 net.cpp:157] Top shape: 1 64 900 1 (57600)
I0605 18:24:59.097174 10418 net.cpp:165] Memory required for data: 1457273692
I0605 18:24:59.097188 10418 layer_factory.hpp:77] Creating layer value_conv_reshape
I0605 18:24:59.097193 10418 net.cpp:106] Creating Layer value_conv_reshape
I0605 18:24:59.097196 10418 net.cpp:454] value_conv_reshape <- value_conv
I0605 18:24:59.097208 10418 net.cpp:411] value_conv_reshape -> value_conv_reshape
I0605 18:24:59.097234 10418 net.cpp:150] Setting up value_conv_reshape
I0605 18:24:59.097249 10418 net.cpp:157] Top shape: 1 512 900 1 (460800)
I0605 18:24:59.097250 10418 net.cpp:165] Memory required for data: 1459116892
I0605 18:24:59.097252 10418 layer_factory.hpp:77] Creating layer query_conv_reshape_perm
I0605 18:24:59.097272 10418 net.cpp:106] Creating Layer query_conv_reshape_perm
I0605 18:24:59.097276 10418 net.cpp:454] query_conv_reshape_perm <- query_conv_reshape
I0605 18:24:59.097280 10418 net.cpp:411] query_conv_reshape_perm -> query_conv_reshape_perm
I0605 18:24:59.097368 10418 net.cpp:150] Setting up query_conv_reshape_perm
I0605 18:24:59.097371 10418 net.cpp:157] Top shape: 1 1 900 64 (57600)
I0605 18:24:59.097373 10418 net.cpp:165] Memory required for data: 1459347292
I0605 18:24:59.097386 10418 layer_factory.hpp:77] Creating layer key_conv_reshape_perm
I0605 18:24:59.097390 10418 net.cpp:106] Creating Layer key_conv_reshape_perm
I0605 18:24:59.097393 10418 net.cpp:454] key_conv_reshape_perm <- key_conv_reshape
I0605 18:24:59.097396 10418 net.cpp:411] key_conv_reshape_perm -> key_conv_reshape_perm
I0605 18:24:59.097502 10418 net.cpp:150] Setting up key_conv_reshape_perm
I0605 18:24:59.097507 10418 net.cpp:157] Top shape: 1 1 64 900 (57600)
I0605 18:24:59.097509 10418 net.cpp:165] Memory required for data: 1459577692
I0605 18:24:59.097522 10418 layer_factory.hpp:77] Creating layer energy
I0605 18:24:59.097527 10418 net.cpp:106] Creating Layer energy
I0605 18:24:59.097530 10418 net.cpp:454] energy <- query_conv_reshape_perm
I0605 18:24:59.097544 10418 net.cpp:454] energy <- key_conv_reshape_perm
I0605 18:24:59.097549 10418 net.cpp:411] energy -> energy
I0605 18:24:59.097568 10418 net.cpp:150] Setting up energy
I0605 18:24:59.097581 10418 net.cpp:157] Top shape: 1 1 900 900 (810000)
I0605 18:24:59.097584 10418 net.cpp:165] Memory required for data: 1462817692
I0605 18:24:59.097587 10418 layer_factory.hpp:77] Creating layer attention
I0605 18:24:59.097591 10418 net.cpp:106] Creating Layer attention
I0605 18:24:59.097595 10418 net.cpp:454] attention <- energy
I0605 18:24:59.097609 10418 net.cpp:411] attention -> attention
I0605 18:24:59.097790 10418 net.cpp:150] Setting up attention
I0605 18:24:59.097796 10418 net.cpp:157] Top shape: 1 1 900 900 (810000)
I0605 18:24:59.097800 10418 net.cpp:165] Memory required for data: 1466057692
I0605 18:24:59.097813 10418 layer_factory.hpp:77] Creating layer value_conv_reshape_perm
I0605 18:24:59.097817 10418 net.cpp:106] Creating Layer value_conv_reshape_perm
I0605 18:24:59.097822 10418 net.cpp:454] value_conv_reshape_perm <- value_conv_reshape
I0605 18:24:59.097838 10418 net.cpp:411] value_conv_reshape_perm -> value_conv_reshape_perm
I0605 18:24:59.097914 10418 net.cpp:150] Setting up value_conv_reshape_perm
I0605 18:24:59.097918 10418 net.cpp:157] Top shape: 1 1 512 900 (460800)
I0605 18:24:59.097920 10418 net.cpp:165] Memory required for data: 1467900892
I0605 18:24:59.097924 10418 layer_factory.hpp:77] Creating layer attention_perm
I0605 18:24:59.097929 10418 net.cpp:106] Creating Layer attention_perm
I0605 18:24:59.097932 10418 net.cpp:454] attention_perm <- attention
I0605 18:24:59.097936 10418 net.cpp:411] attention_perm -> attention_perm
I0605 18:24:59.097998 10418 net.cpp:150] Setting up attention_perm
I0605 18:24:59.098001 10418 net.cpp:157] Top shape: 1 1 900 900 (810000)
I0605 18:24:59.098003 10418 net.cpp:165] Memory required for data: 1471140892
I0605 18:24:59.098006 10418 layer_factory.hpp:77] Creating layer out
I0605 18:24:59.098009 10418 net.cpp:106] Creating Layer out
I0605 18:24:59.098023 10418 net.cpp:454] out <- value_conv_reshape_perm
I0605 18:24:59.098027 10418 net.cpp:454] out <- attention_perm
I0605 18:24:59.098031 10418 net.cpp:411] out -> out
I0605 18:24:59.098059 10418 net.cpp:150] Setting up out
I0605 18:24:59.098063 10418 net.cpp:157] Top shape: 1 1 512 900 (460800)
I0605 18:24:59.098065 10418 net.cpp:165] Memory required for data: 1472984092
I0605 18:24:59.098068 10418 layer_factory.hpp:77] Creating layer out_reshape
I0605 18:24:59.098073 10418 net.cpp:106] Creating Layer out_reshape
I0605 18:24:59.098075 10418 net.cpp:454] out_reshape <- out
I0605 18:24:59.098078 10418 net.cpp:411] out_reshape -> out_reshape
I0605 18:24:59.098095 10418 net.cpp:150] Setting up out_reshape
I0605 18:24:59.098099 10418 net.cpp:157] Top shape: 1 512 30 30 (460800)
I0605 18:24:59.098101 10418 net.cpp:165] Memory required for data: 1474827292
I0605 18:24:59.098104 10418 layer_factory.hpp:77] Creating layer out_reshape_scale
I0605 18:24:59.098126 10418 net.cpp:106] Creating Layer out_reshape_scale
I0605 18:24:59.098130 10418 net.cpp:454] out_reshape_scale <- out_reshape
I0605 18:24:59.098134 10418 net.cpp:411] out_reshape_scale -> out_reshape_scale
I0605 18:24:59.098206 10418 net.cpp:150] Setting up out_reshape_scale
I0605 18:24:59.098210 10418 net.cpp:157] Top shape: 1 512 30 30 (460800)
I0605 18:24:59.098212 10418 net.cpp:165] Memory required for data: 1476670492
I0605 18:24:59.098225 10418 layer_factory.hpp:77] Creating layer out_x
I0605 18:24:59.098233 10418 net.cpp:106] Creating Layer out_x
I0605 18:24:59.098237 10418 net.cpp:454] out_x <- out_reshape_scale
I0605 18:24:59.098240 10418 net.cpp:454] out_x <- pool5_2_conv4_relu_pool5_2_conv4_relu_0_split_3
I0605 18:24:59.098248 10418 net.cpp:411] out_x -> out_x
I0605 18:24:59.098264 10418 net.cpp:150] Setting up out_x
I0605 18:24:59.098279 10418 net.cpp:157] Top shape: 1 512 30 30 (460800)
I0605 18:24:59.098281 10418 net.cpp:165] Memory required for data: 1478513692
I0605 18:24:59.098284 10418 layer_factory.hpp:77] Creating layer query_conv_reshape_ch
I0605 18:24:59.098297 10418 net.cpp:106] Creating Layer query_conv_reshape_ch
I0605 18:24:59.098302 10418 net.cpp:454] query_conv_reshape_ch <- pool5_2_conv4_relu_pool5_2_conv4_relu_0_split_4
I0605 18:24:59.098306 10418 net.cpp:411] query_conv_reshape_ch -> query_conv_reshape_ch
I0605 18:24:59.098328 10418 net.cpp:150] Setting up query_conv_reshape_ch
I0605 18:24:59.098332 10418 net.cpp:157] Top shape: 1 512 900 1 (460800)
I0605 18:24:59.098335 10418 net.cpp:165] Memory required for data: 1480356892
I0605 18:24:59.098337 10418 layer_factory.hpp:77] Creating layer key_conv_reshape_ch
I0605 18:24:59.098343 10418 net.cpp:106] Creating Layer key_conv_reshape_ch
I0605 18:24:59.098347 10418 net.cpp:454] key_conv_reshape_ch <- pool5_2_conv4_relu_pool5_2_conv4_relu_0_split_5
I0605 18:24:59.098353 10418 net.cpp:411] key_conv_reshape_ch -> key_conv_reshape_ch
I0605 18:24:59.098372 10418 net.cpp:150] Setting up key_conv_reshape_ch
I0605 18:24:59.098376 10418 net.cpp:157] Top shape: 1 512 900 1 (460800)
I0605 18:24:59.098378 10418 net.cpp:165] Memory required for data: 1482200092
I0605 18:24:59.098381 10418 layer_factory.hpp:77] Creating layer value_conv_reshape_ch
I0605 18:24:59.098387 10418 net.cpp:106] Creating Layer value_conv_reshape_ch
I0605 18:24:59.098390 10418 net.cpp:454] value_conv_reshape_ch <- pool5_2_conv4_relu_pool5_2_conv4_relu_0_split_6
I0605 18:24:59.098397 10418 net.cpp:411] value_conv_reshape_ch -> value_conv_reshape_ch
I0605 18:24:59.098413 10418 net.cpp:150] Setting up value_conv_reshape_ch
I0605 18:24:59.098417 10418 net.cpp:157] Top shape: 1 512 900 1 (460800)
I0605 18:24:59.098419 10418 net.cpp:165] Memory required for data: 1484043292
I0605 18:24:59.098423 10418 layer_factory.hpp:77] Creating layer query_conv_reshape_perm_ch
I0605 18:24:59.098428 10418 net.cpp:106] Creating Layer query_conv_reshape_perm_ch
I0605 18:24:59.098430 10418 net.cpp:454] query_conv_reshape_perm_ch <- query_conv_reshape_ch
I0605 18:24:59.098436 10418 net.cpp:411] query_conv_reshape_perm_ch -> query_conv_reshape_perm_ch
I0605 18:24:59.098500 10418 net.cpp:150] Setting up query_conv_reshape_perm_ch
I0605 18:24:59.098505 10418 net.cpp:157] Top shape: 1 1 512 900 (460800)
I0605 18:24:59.098507 10418 net.cpp:165] Memory required for data: 1485886492
I0605 18:24:59.098510 10418 layer_factory.hpp:77] Creating layer key_conv_reshape_perm_ch
I0605 18:24:59.098515 10418 net.cpp:106] Creating Layer key_conv_reshape_perm_ch
I0605 18:24:59.098520 10418 net.cpp:454] key_conv_reshape_perm_ch <- key_conv_reshape_ch
I0605 18:24:59.098523 10418 net.cpp:411] key_conv_reshape_perm_ch -> key_conv_reshape_perm_ch
I0605 18:24:59.098583 10418 net.cpp:150] Setting up key_conv_reshape_perm_ch
I0605 18:24:59.098587 10418 net.cpp:157] Top shape: 1 1 900 512 (460800)
I0605 18:24:59.098590 10418 net.cpp:165] Memory required for data: 1487729692
I0605 18:24:59.098593 10418 layer_factory.hpp:77] Creating layer energy_ch
I0605 18:24:59.098599 10418 net.cpp:106] Creating Layer energy_ch
I0605 18:24:59.098603 10418 net.cpp:454] energy_ch <- query_conv_reshape_perm_ch
I0605 18:24:59.098606 10418 net.cpp:454] energy_ch <- key_conv_reshape_perm_ch
I0605 18:24:59.098610 10418 net.cpp:411] energy_ch -> energy_ch
I0605 18:24:59.098624 10418 net.cpp:150] Setting up energy_ch
I0605 18:24:59.098628 10418 net.cpp:157] Top shape: 1 1 512 512 (262144)
I0605 18:24:59.098630 10418 net.cpp:165] Memory required for data: 1488778268
I0605 18:24:59.098634 10418 layer_factory.hpp:77] Creating layer energy_ch_energy_ch_0_split
I0605 18:24:59.098639 10418 net.cpp:106] Creating Layer energy_ch_energy_ch_0_split
I0605 18:24:59.098641 10418 net.cpp:454] energy_ch_energy_ch_0_split <- energy_ch
I0605 18:24:59.098646 10418 net.cpp:411] energy_ch_energy_ch_0_split -> energy_ch_energy_ch_0_split_0
I0605 18:24:59.098650 10418 net.cpp:411] energy_ch_energy_ch_0_split -> energy_ch_energy_ch_0_split_1
I0605 18:24:59.098673 10418 net.cpp:150] Setting up energy_ch_energy_ch_0_split
I0605 18:24:59.098677 10418 net.cpp:157] Top shape: 1 1 512 512 (262144)
I0605 18:24:59.098680 10418 net.cpp:157] Top shape: 1 1 512 512 (262144)
I0605 18:24:59.098683 10418 net.cpp:165] Memory required for data: 1490875420
I0605 18:24:59.098685 10418 layer_factory.hpp:77] Creating layer energy_ch_pool
I0605 18:24:59.098690 10418 net.cpp:106] Creating Layer energy_ch_pool
I0605 18:24:59.098695 10418 net.cpp:454] energy_ch_pool <- energy_ch_energy_ch_0_split_0
I0605 18:24:59.098698 10418 net.cpp:411] energy_ch_pool -> energy_ch_pool
I0605 18:24:59.098723 10418 net.cpp:150] Setting up energy_ch_pool
I0605 18:24:59.098727 10418 net.cpp:157] Top shape: 1 1 512 1 (512)
I0605 18:24:59.098728 10418 net.cpp:165] Memory required for data: 1490877468
I0605 18:24:59.098731 10418 layer_factory.hpp:77] Creating layer energy_ch_max
I0605 18:24:59.098737 10418 net.cpp:106] Creating Layer energy_ch_max
I0605 18:24:59.098738 10418 net.cpp:454] energy_ch_max <- energy_ch_pool
I0605 18:24:59.098743 10418 net.cpp:411] energy_ch_max -> energy_ch_max
I0605 18:24:59.098758 10418 net.cpp:150] Setting up energy_ch_max
I0605 18:24:59.098762 10418 net.cpp:157] Top shape: 1 1 512 512 (262144)
I0605 18:24:59.098763 10418 net.cpp:165] Memory required for data: 1491926044
I0605 18:24:59.098765 10418 layer_factory.hpp:77] Creating layer energy_ch_minus
I0605 18:24:59.098771 10418 net.cpp:106] Creating Layer energy_ch_minus
I0605 18:24:59.098775 10418 net.cpp:454] energy_ch_minus <- energy_ch_energy_ch_0_split_1
I0605 18:24:59.098778 10418 net.cpp:411] energy_ch_minus -> energy_ch_minus
I0605 18:24:59.098793 10418 net.cpp:150] Setting up energy_ch_minus
I0605 18:24:59.098798 10418 net.cpp:157] Top shape: 1 1 512 512 (262144)
I0605 18:24:59.098799 10418 net.cpp:165] Memory required for data: 1492974620
I0605 18:24:59.098801 10418 layer_factory.hpp:77] Creating layer energy_new
I0605 18:24:59.098806 10418 net.cpp:106] Creating Layer energy_new
I0605 18:24:59.098810 10418 net.cpp:454] energy_new <- energy_ch_max
I0605 18:24:59.098812 10418 net.cpp:454] energy_new <- energy_ch_minus
I0605 18:24:59.098817 10418 net.cpp:411] energy_new -> energy_new
I0605 18:24:59.098832 10418 net.cpp:150] Setting up energy_new
I0605 18:24:59.098835 10418 net.cpp:157] Top shape: 1 1 512 512 (262144)
I0605 18:24:59.098837 10418 net.cpp:165] Memory required for data: 1494023196
I0605 18:24:59.098839 10418 layer_factory.hpp:77] Creating layer attention_ch
I0605 18:24:59.098845 10418 net.cpp:106] Creating Layer attention_ch
I0605 18:24:59.098848 10418 net.cpp:454] attention_ch <- energy_new
I0605 18:24:59.098851 10418 net.cpp:411] attention_ch -> attention_ch
I0605 18:24:59.099411 10418 net.cpp:150] Setting up attention_ch
I0605 18:24:59.099419 10418 net.cpp:157] Top shape: 1 1 512 512 (262144)
I0605 18:24:59.099422 10418 net.cpp:165] Memory required for data: 1495071772
I0605 18:24:59.099426 10418 layer_factory.hpp:77] Creating layer value_conv_reshape_ch_perm
I0605 18:24:59.099431 10418 net.cpp:106] Creating Layer value_conv_reshape_ch_perm
I0605 18:24:59.099436 10418 net.cpp:454] value_conv_reshape_ch_perm <- value_conv_reshape_ch
I0605 18:24:59.099439 10418 net.cpp:411] value_conv_reshape_ch_perm -> value_conv_reshape_ch_perm
I0605 18:24:59.099510 10418 net.cpp:150] Setting up value_conv_reshape_ch_perm
I0605 18:24:59.099514 10418 net.cpp:157] Top shape: 1 1 512 900 (460800)
I0605 18:24:59.099516 10418 net.cpp:165] Memory required for data: 1496914972
I0605 18:24:59.099519 10418 layer_factory.hpp:77] Creating layer attention_ch_perm
I0605 18:24:59.099521 10418 net.cpp:106] Creating Layer attention_ch_perm
I0605 18:24:59.099524 10418 net.cpp:454] attention_ch_perm <- attention_ch
I0605 18:24:59.099529 10418 net.cpp:411] attention_ch_perm -> attention_ch_perm
I0605 18:24:59.099592 10418 net.cpp:150] Setting up attention_ch_perm
I0605 18:24:59.099596 10418 net.cpp:157] Top shape: 1 1 512 512 (262144)
I0605 18:24:59.099599 10418 net.cpp:165] Memory required for data: 1497963548
I0605 18:24:59.099601 10418 layer_factory.hpp:77] Creating layer out_ch
I0605 18:24:59.099606 10418 net.cpp:106] Creating Layer out_ch
I0605 18:24:59.099611 10418 net.cpp:454] out_ch <- attention_ch_perm
I0605 18:24:59.099613 10418 net.cpp:454] out_ch <- value_conv_reshape_ch_perm
I0605 18:24:59.099618 10418 net.cpp:411] out_ch -> out_ch
I0605 18:24:59.099634 10418 net.cpp:150] Setting up out_ch
I0605 18:24:59.099638 10418 net.cpp:157] Top shape: 1 1 512 900 (460800)
I0605 18:24:59.099640 10418 net.cpp:165] Memory required for data: 1499806748
I0605 18:24:59.099642 10418 layer_factory.hpp:77] Creating layer out_ch_reshape
I0605 18:24:59.099647 10418 net.cpp:106] Creating Layer out_ch_reshape
I0605 18:24:59.099651 10418 net.cpp:454] out_ch_reshape <- out_ch
I0605 18:24:59.099655 10418 net.cpp:411] out_ch_reshape -> out_ch_reshape
I0605 18:24:59.099671 10418 net.cpp:150] Setting up out_ch_reshape
I0605 18:24:59.099675 10418 net.cpp:157] Top shape: 1 512 30 30 (460800)
I0605 18:24:59.099678 10418 net.cpp:165] Memory required for data: 1501649948
I0605 18:24:59.099680 10418 layer_factory.hpp:77] Creating layer out_ch_reshape_scale
I0605 18:24:59.099685 10418 net.cpp:106] Creating Layer out_ch_reshape_scale
I0605 18:24:59.099687 10418 net.cpp:454] out_ch_reshape_scale <- out_ch_reshape
I0605 18:24:59.099691 10418 net.cpp:411] out_ch_reshape_scale -> out_ch_reshape_scale
I0605 18:24:59.099752 10418 net.cpp:150] Setting up out_ch_reshape_scale
I0605 18:24:59.099756 10418 net.cpp:157] Top shape: 1 512 30 30 (460800)
I0605 18:24:59.099758 10418 net.cpp:165] Memory required for data: 1503493148
I0605 18:24:59.099761 10418 net.cpp:514] Sharing parameters 'scale_conv1_1' owned by layer 'out_reshape_scale', param index 0
I0605 18:24:59.099764 10418 layer_factory.hpp:77] Creating layer out_ch_x
I0605 18:24:59.099768 10418 net.cpp:106] Creating Layer out_ch_x
I0605 18:24:59.099772 10418 net.cpp:454] out_ch_x <- out_ch_reshape_scale
I0605 18:24:59.099776 10418 net.cpp:454] out_ch_x <- pool5_2_conv4_relu_pool5_2_conv4_relu_0_split_7
I0605 18:24:59.099781 10418 net.cpp:411] out_ch_x -> out_ch_x
I0605 18:24:59.099797 10418 net.cpp:150] Setting up out_ch_x
I0605 18:24:59.099802 10418 net.cpp:157] Top shape: 1 512 30 30 (460800)
I0605 18:24:59.099803 10418 net.cpp:165] Memory required for data: 1505336348
I0605 18:24:59.099807 10418 layer_factory.hpp:77] Creating layer out_conv_ch_x
I0605 18:24:59.099817 10418 net.cpp:106] Creating Layer out_conv_ch_x
I0605 18:24:59.099819 10418 net.cpp:454] out_conv_ch_x <- out_ch_x
I0605 18:24:59.099824 10418 net.cpp:411] out_conv_ch_x -> out_conv_ch_x
I0605 18:24:59.105736 10418 net.cpp:150] Setting up out_conv_ch_x
I0605 18:24:59.105744 10418 net.cpp:157] Top shape: 1 512 30 30 (460800)
I0605 18:24:59.105747 10418 net.cpp:165] Memory required for data: 1507179548
I0605 18:24:59.105752 10418 layer_factory.hpp:77] Creating layer out_conv_x
I0605 18:24:59.105760 10418 net.cpp:106] Creating Layer out_conv_x
I0605 18:24:59.105764 10418 net.cpp:454] out_conv_x <- out_x
I0605 18:24:59.105770 10418 net.cpp:411] out_conv_x -> out_conv_x
I0605 18:24:59.112450 10418 net.cpp:150] Setting up out_conv_x
I0605 18:24:59.112459 10418 net.cpp:157] Top shape: 1 512 30 30 (460800)
I0605 18:24:59.112473 10418 net.cpp:165] Memory required for data: 1509022748
I0605 18:24:59.112478 10418 layer_factory.hpp:77] Creating layer out_x_sum
I0605 18:24:59.112484 10418 net.cpp:106] Creating Layer out_x_sum
I0605 18:24:59.112488 10418 net.cpp:454] out_x_sum <- out_conv_x
I0605 18:24:59.112493 10418 net.cpp:454] out_x_sum <- out_conv_ch_x
I0605 18:24:59.112496 10418 net.cpp:411] out_x_sum -> out_x_sum
I0605 18:24:59.112527 10418 net.cpp:150] Setting up out_x_sum
I0605 18:24:59.112531 10418 net.cpp:157] Top shape: 1 512 30 30 (460800)
I0605 18:24:59.112534 10418 net.cpp:165] Memory required for data: 1510865948
I0605 18:24:59.112545 10418 layer_factory.hpp:77] Creating layer mask_deconv2
I0605 18:24:59.112551 10418 net.cpp:106] Creating Layer mask_deconv2
I0605 18:24:59.112553 10418 net.cpp:454] mask_deconv2 <- out_x_sum
I0605 18:24:59.112557 10418 net.cpp:411] mask_deconv2 -> mask_deconv2
I0605 18:24:59.113363 10418 net.cpp:150] Setting up mask_deconv2
I0605 18:24:59.113369 10418 net.cpp:157] Top shape: 1 256 122 122 (3810304)
I0605 18:24:59.113381 10418 net.cpp:165] Memory required for data: 1526107164
I0605 18:24:59.113384 10418 layer_factory.hpp:77] Creating layer pool5_2_conv5
I0605 18:24:59.113391 10418 net.cpp:106] Creating Layer pool5_2_conv5
I0605 18:24:59.113404 10418 net.cpp:454] pool5_2_conv5 <- mask_deconv2
I0605 18:24:59.113422 10418 net.cpp:411] pool5_2_conv5 -> pool5_2_conv5
I0605 18:24:59.139904 10418 net.cpp:150] Setting up pool5_2_conv5
I0605 18:24:59.139922 10418 net.cpp:157] Top shape: 1 512 122 122 (7620608)
I0605 18:24:59.139926 10418 net.cpp:165] Memory required for data: 1556589596
I0605 18:24:59.139953 10418 layer_factory.hpp:77] Creating layer pool5_2_conv5_relu
I0605 18:24:59.139963 10418 net.cpp:106] Creating Layer pool5_2_conv5_relu
I0605 18:24:59.139981 10418 net.cpp:454] pool5_2_conv5_relu <- pool5_2_conv5
I0605 18:24:59.139986 10418 net.cpp:411] pool5_2_conv5_relu -> pool5_2_conv5_relu
I0605 18:24:59.140147 10418 net.cpp:150] Setting up pool5_2_conv5_relu
I0605 18:24:59.140154 10418 net.cpp:157] Top shape: 1 512 122 122 (7620608)
I0605 18:24:59.140156 10418 net.cpp:165] Memory required for data: 1587072028
I0605 18:24:59.140158 10418 layer_factory.hpp:77] Creating layer pool5_2_conv6
I0605 18:24:59.140168 10418 net.cpp:106] Creating Layer pool5_2_conv6
I0605 18:24:59.140172 10418 net.cpp:454] pool5_2_conv6 <- pool5_2_conv5_relu
I0605 18:24:59.140185 10418 net.cpp:411] pool5_2_conv6 -> pool5_2_conv6
I0605 18:24:59.191069 10418 net.cpp:150] Setting up pool5_2_conv6
I0605 18:24:59.191089 10418 net.cpp:157] Top shape: 1 512 122 122 (7620608)
I0605 18:24:59.191092 10418 net.cpp:165] Memory required for data: 1617554460
I0605 18:24:59.191100 10418 layer_factory.hpp:77] Creating layer pool5_2_conv6_relu
I0605 18:24:59.191118 10418 net.cpp:106] Creating Layer pool5_2_conv6_relu
I0605 18:24:59.191123 10418 net.cpp:454] pool5_2_conv6_relu <- pool5_2_conv6
I0605 18:24:59.191130 10418 net.cpp:411] pool5_2_conv6_relu -> pool5_2_conv6_relu
I0605 18:24:59.191720 10418 net.cpp:150] Setting up pool5_2_conv6_relu
I0605 18:24:59.191740 10418 net.cpp:157] Top shape: 1 512 122 122 (7620608)
I0605 18:24:59.191742 10418 net.cpp:165] Memory required for data: 1648036892
I0605 18:24:59.191745 10418 layer_factory.hpp:77] Creating layer mask_deconv3
I0605 18:24:59.191764 10418 net.cpp:106] Creating Layer mask_deconv3
I0605 18:24:59.191771 10418 net.cpp:454] mask_deconv3 <- pool5_2_conv6_relu
I0605 18:24:59.191776 10418 net.cpp:411] mask_deconv3 -> mask_deconv3
I0605 18:24:59.192210 10418 net.cpp:150] Setting up mask_deconv3
I0605 18:24:59.192216 10418 net.cpp:157] Top shape: 1 256 244 244 (15241216)
I0605 18:24:59.192229 10418 net.cpp:165] Memory required for data: 1709001756
I0605 18:24:59.192234 10418 layer_factory.hpp:77] Creating layer mask_score
I0605 18:24:59.192241 10418 net.cpp:106] Creating Layer mask_score
I0605 18:24:59.192245 10418 net.cpp:454] mask_score <- mask_deconv3
I0605 18:24:59.192261 10418 net.cpp:411] mask_score -> mask_score
I0605 18:24:59.193353 10418 net.cpp:150] Setting up mask_score
I0605 18:24:59.193362 10418 net.cpp:157] Top shape: 1 8 244 244 (476288)
I0605 18:24:59.193375 10418 net.cpp:165] Memory required for data: 1710906908
I0605 18:24:59.193380 10418 layer_factory.hpp:77] Creating layer loss_mask
I0605 18:24:59.193397 10418 net.cpp:106] Creating Layer loss_mask
I0605 18:24:59.193401 10418 net.cpp:454] loss_mask <- mask_score
I0605 18:24:59.193404 10418 net.cpp:454] loss_mask <- mask_targets
I0605 18:24:59.193409 10418 net.cpp:411] loss_mask -> loss_mask
…
