…
average_loss: 100
iter_size: 2
I0625 15:32:50.916715 18996 solver.cpp:81] Creating training net from train_net file: models/pascal_voc/VGG16/faster_rcnn_end2end/train.prototxt
I0625 15:32:50.918396 18996 net.cpp:49] Initializing net from parameters: 
name: "VGG_ILSVRC_16_layers"
state {
  phase: TRAIN
}
layer {
  name: "input-data"
  type: "Python"
  top: "data"
  top: "im_info"
  top: "gt_boxes"
  top: "seg_mask_inds"
  top: "flipped"
  python_param {
    module: "roi_data_layer.layer"
    layer: "RoIDataLayer"
    param_str: "\'num_classes\': 2"
  }
}
layer {
  name: "conv1_1"
  type: "Convolution"
  bottom: "data"
  top: "conv1_1"
  param {
    lr_mult: 0
    decay_mult: 0
  }
  param {
    lr_mult: 0
    decay_mult: 0
  }
  convolution_param {
    num_output: 64
    pad: 1
    kernel_size: 3
  }
}
layer {
  name: "relu1_1"
  type: "ReLU"
  bottom: "conv1_1"
  top: "conv1_1"
}
layer {
  name: "conv1_2"
  type: "Convolution"
  bottom: "conv1_1"
  top: "conv1_2"
  param {
    lr_mult: 0
    decay_mult: 0
  }
  param {
    lr_mult: 0
    decay_mult: 0
  }
  convolution_param {
    num_output: 64
    pad: 1
    kernel_size: 3
  }
}
layer {
  name: "relu1_2"
  type: "ReLU"
  bottom: "conv1_2"
  top: "conv1_2"
}
layer {
  name: "pool1"
  type: "Pooling"
  bottom: "conv1_2"
  top: "pool1"
  pooling_param {
    pool: MAX
    kernel_size: 2
    stride: 2
  }
}
layer {
  name: "conv2_1"
  type: "Convolution"
  bottom: "pool1"
  top: "conv2_1"
  param {
    lr_mult: 0
    decay_mult: 0
  }
  param {
    lr_mult: 0
    decay_mult: 0
  }
  convolution_param {
    num_output: 128
    pad: 1
    kernel_size: 3
  }
}
layer {
  name: "relu2_1"
  type: "ReLU"
  bottom: "conv2_1"
  top: "conv2_1"
}
layer {
  name: "conv2_2"
  type: "Convolution"
  bottom: "conv2_1"
  top: "conv2_2"
  param {
    lr_mult: 0
    decay_mult: 0
  }
  param {
    lr_mult: 0
    decay_mult: 0
  }
  convolution_param {
    num_output: 128
    pad: 1
    kernel_size: 3
  }
}
layer {
  name: "relu2_2"
  type: "ReLU"
  bottom: "conv2_2"
  top: "conv2_2"
}
layer {
  name: "pool2"
  type: "Pooling"
  bottom: "conv2_2"
  top: "pool2"
  pooling_param {
    pool: MAX
    kernel_size: 2
    stride: 2
  }
}
layer {
  name: "conv3_1"
  type: "Convolution"
  bottom: "pool2"
  top: "conv3_1"
  param {
    lr_mult: 1
  }
  param {
    lr_mult: 2
  }
  convolution_param {
    num_output: 256
    pad: 1
    kernel_size: 3
  }
}
layer {
  name: "relu3_1"
  type: "ReLU"
  bottom: "conv3_1"
  top: "conv3_1"
}
layer {
  name: "conv3_2"
  type: "Convolution"
  bottom: "conv3_1"
  top: "conv3_2"
  param {
    lr_mult: 1
  }
  param {
    lr_mult: 2
  }
  convolution_param {
    num_output: 256
    pad: 1
    kernel_size: 3
  }
}
layer {
  name: "relu3_2"
  type: "ReLU"
  bottom: "conv3_2"
  top: "conv3_2"
}
layer {
  name: "conv3_3"
  type: "Convolution"
  bottom: "conv3_2"
  top: "conv3_3"
  param {
    lr_mult: 1
  }
  param {
    lr_mult: 2
  }
  convolution_param {
    num_output: 256
    pad: 1
    kernel_size: 3
  }
}
layer {
  name: "relu3_3"
  type: "ReLU"
  bottom: "conv3_3"
  top: "conv3_3"
}
layer {
  name: "pool3"
  type: "Pooling"
  bottom: "conv3_3"
  top: "pool3"
  pooling_param {
    pool: MAX
    kernel_size: 2
    stride: 2
  }
}
layer {
  name: "conv4_1"
  type: "Convolution"
  bottom: "pool3"
  top: "conv4_1"
  param {
    lr_mult: 1
  }
  param {
    lr_mult: 2
  }
  convolution_param {
    num_output: 512
    pad: 1
    kernel_size: 3
  }
}
layer {
  name: "relu4_1"
  type: "ReLU"
  bottom: "conv4_1"
  top: "conv4_1"
}
layer {
  name: "conv4_2"
  type: "Convolution"
  bottom: "conv4_1"
  top: "conv4_2"
  param {
    lr_mult: 1
  }
  param {
    lr_mult: 2
  }
  convolution_param {
    num_output: 512
    pad: 1
    kernel_size: 3
  }
}
layer {
  name: "relu4_2"
  type: "ReLU"
  bottom: "conv4_2"
  top: "conv4_2"
}
layer {
  name: "conv4_3"
  type: "Convolution"
  bottom: "conv4_2"
  top: "conv4_3"
  param {
    lr_mult: 1
  }
  param {
    lr_mult: 2
  }
  convolution_param {
    num_output: 512
    pad: 1
    kernel_size: 3
  }
}
layer {
  name: "relu4_3"
  type: "ReLU"
  bottom: "conv4_3"
  top: "conv4_3"
}
layer {
  name: "pool4"
  type: "Pooling"
  bottom: "conv4_3"
  top: "pool4"
  pooling_param {
    pool: MAX
    kernel_size: 2
    stride: 2
  }
}
layer {
  name: "conv5_1"
  type: "Convolution"
  bottom: "pool4"
  top: "conv5_1"
  param {
    lr_mult: 1
  }
  param {
    lr_mult: 2
  }
  convolution_param {
    num_output: 512
    pad: 1
    kernel_size: 3
  }
}
layer {
  name: "relu5_1"
  type: "ReLU"
  bottom: "conv5_1"
  top: "conv5_1"
}
layer {
  name: "conv5_2"
  type: "Convolution"
  bottom: "conv5_1"
  top: "conv5_2"
  param {
    lr_mult: 1
  }
  param {
    lr_mult: 2
  }
  convolution_param {
    num_output: 512
    pad: 1
    kernel_size: 3
  }
}
layer {
  name: "relu5_2"
  type: "ReLU"
  bottom: "conv5_2"
  top: "conv5_2"
}
layer {
  name: "conv5_3"
  type: "Convolution"
  bottom: "conv5_2"
  top: "conv5_3"
  param {
    lr_mult: 1
  }
  param {
    lr_mult: 2
  }
  convolution_param {
    num_output: 512
    pad: 1
    kernel_size: 3
  }
}
layer {
  name: "relu5_3"
  type: "ReLU"
  bottom: "conv5_3"
  top: "conv5_3"
}
layer {
  name: "rpn_conv/3x3"
  type: "Convolution"
  bottom: "conv5_3"
  top: "rpn/output"
  param {
    lr_mult: 1
  }
  param {
    lr_mult: 2
  }
  convolution_param {
    num_output: 512
    pad: 1
    kernel_size: 3
    stride: 1
    weight_filler {
      type: "gaussian"
      std: 0.01
    }
    bias_filler {
      type: "constant"
      value: 0
    }
  }
}
layer {
  name: "rpn_relu/3x3"
  type: "ReLU"
  bottom: "rpn/output"
  top: "rpn/output"
}
layer {
  name: "rpn_cls_score"
  type: "Convolution"
  bottom: "rpn/output"
  top: "rpn_cls_score"
  param {
    lr_mult: 1
  }
  param {
    lr_mult: 2
  }
  convolution_param {
    num_output: 30
    pad: 0
    kernel_size: 1
    stride: 1
    weight_filler {
      type: "gaussian"
      std: 0.01
    }
    bias_filler {
      type: "constant"
      value: 0
    }
  }
}
layer {
  name: "rpn_bbox_pred"
  type: "Convolution"
  bottom: "rpn/output"
  top: "rpn_bbox_pred"
  param {
    lr_mult: 1
  }
  param {
    lr_mult: 2
  }
  convolution_param {
    num_output: 60
    pad: 0
    kernel_size: 1
    stride: 1
    weight_filler {
      type: "gaussian"
      std: 0.01
    }
    bias_filler {
      type: "constant"
      value: 0
    }
  }
}
layer {
  name: "rpn_cls_score_reshape"
  type: "Reshape"
  bottom: "rpn_cls_score"
  top: "rpn_cls_score_reshape"
  reshape_param {
    shape {
      dim: 0
      dim: 2
      dim: -1
      dim: 0
    }
  }
}
layer {
  name: "rpn-data"
  type: "Python"
  bottom: "rpn_cls_score"
  bottom: "gt_boxes"
  bottom: "im_info"
  bottom: "data"
  top: "rpn_labels"
  top: "rpn_bbox_targets"
  top: "rpn_bbox_inside_weights"
  top: "rpn_bbox_outside_weights"
  python_param {
    module: "rpn.anchor_target_layer"
    layer: "AnchorTargetLayer"
    param_str: "\'feat_stride\': 16 \n\'scales\': !!python/tuple [2, 4, 8, 16, 32]"
  }
}
layer {
  name: "rpn_loss_cls"
  type: "SoftmaxWithLoss"
  bottom: "rpn_cls_score_reshape"
  bottom: "rpn_labels"
  top: "rpn_cls_loss"
  loss_weight: 1
  propagate_down: true
  propagate_down: false
  loss_param {
    ignore_label: -1
    normalize: true
  }
}
layer {
  name: "rpn_loss_bbox"
  type: "SmoothL1Loss"
  bottom: "rpn_bbox_pred"
  bottom: "rpn_bbox_targets"
  bottom: "rpn_bbox_inside_weights"
  bottom: "rpn_bbox_outside_weights"
  top: "rpn_loss_bbox"
  loss_weight: 1
  smooth_l1_loss_param {
    sigma: 3
  }
}
layer {
  name: "rpn_cls_prob"
  type: "Softmax"
  bottom: "rpn_cls_score_reshape"
  top: "rpn_cls_prob"
}
layer {
  name: "rpn_cls_prob_reshape"
  type: "Reshape"
  bottom: "rpn_cls_prob"
  top: "rpn_cls_prob_reshape"
  reshape_param {
    shape {
      dim: 0
      dim: 30
      dim: -1
      dim: 0
    }
  }
}
layer {
  name: "proposal"
  type: "Python"
  bottom: "rpn_cls_prob_reshape"
  bottom: "rpn_bbox_pred"
  bottom: "im_info"
  top: "rpn_rois"
  python_param {
    module: "rpn.proposal_layer"
    layer: "ProposalLayer"
    param_str: "\'feat_stride\': 16 \n\'scales\': !!python/tuple [2, 4, 8, 16, 32]"
  }
}
layer {
  name: "roi-data"
  type: "Python"
  bottom: "rpn_rois"
  bottom: "gt_boxes"
  bottom: "im_info"
  bottom: "seg_mask_inds"
  bottom: "flipped"
  top: "rois"
  top: "labels"
  top: "bbox_targets"
  top: "bbox_inside_weights"
  top: "bbox_outside_weights"
  top: "mask_targets"
  top: "rois_pos"
  top: "attrArray"
  top: "attrArrayInd"
  top: "attrArrayShift"
  python_param {
    module: "rpn.proposal_target_layer"
    layer: "ProposalTargetLayer"
    param_str: "\'num_classes\': 2"
  }
}
layer {
  name: "roi_pool5"
  type: "ROIAlignment"
  bottom: "conv5_3"
  bottom: "rois"
  top: "pool5"
  roi_alignment_param {
    pooled_h: 7
    pooled_w: 7
    spatial_scale: 0.0625
  }
}
layer {
  name: "fc6"
  type: "InnerProduct"
  bottom: "pool5"
  top: "fc6"
  param {
    lr_mult: 1
  }
  param {
    lr_mult: 2
  }
  inner_product_param {
    num_output: 4096
  }
}
layer {
  name: "relu6"
  type: "ReLU"
  bottom: "fc6"
  top: "fc6"
}
layer {
  name: "fc7"
  type: "InnerProduct"
  bottom: "fc6"
  top: "fc7"
  param {
    lr_mult: 1
  }
  param {
    lr_mult: 2
  }
  inner_product_param {
    num_output: 4096
  }
}
layer {
  name: "relu7"
  type: "ReLU"
  bottom: "fc7"
  top: "fc7"
}
layer {
  name: "attr_score"
  type: "InnerProduct"
  bottom: "fc7"
  top: "attr_score"
  param {
    lr_mult: 1
  }
  param {
    lr_mult: 2
  }
  inner_product_param {
    num_output: 7
    weight_filler {
      type: "gaussian"
      std: 0.001
    }
    bias_filler {
      type: "constant"
      value: 0
    }
  }
}
layer {
  name: "attr_score_pos"
  type: "Eltwise"
  bottom: "attr_score"
  bottom: "attrArrayInd"
  top: "attr_score_pos"
  eltwise_param {
    operation: PROD
  }
}
layer {
  name: "attr_score_pos_shift"
  type: "Eltwise"
  bottom: "attr_score_pos"
  bottom: "attrArrayShift"
  top: "attr_score_pos_shift"
  eltwise_param {
    operation: SUM
  }
}
layer {
  name: "cls_score"
  type: "InnerProduct"
  bottom: "fc7"
  top: "cls_score"
  param {
    lr_mult: 1
  }
  param {
    lr_mult: 2
  }
  inner_product_param {
    num_output: 2
    weight_filler {
      type: "gaussian"
      std: 0.01
    }
    bias_filler {
      type: "constant"
      value: 0
    }
  }
}
layer {
  name: "bbox_pred"
  type: "InnerProduct"
  bottom: "fc7"
  top: "bbox_pred"
  param {
    lr_mult: 1
  }
  param {
    lr_mult: 2
  }
  inner_product_param {
    num_output: 8
    weight_filler {
      type: "gaussian"
      std: 0.001
    }
    bias_filler {
      type: "constant"
      value: 0
    }
  }
}
layer {
  name: "loss_attribute"
  type: "SigmoidCrossEntropyLoss"
  bottom: "attr_score_pos_shift"
  bottom: "attrArray"
  top: "loss_attribute"
  loss_weight: 1
  propagate_down: true
  propagate_down: false
}
layer {
  name: "loss_cls"
  type: "SoftmaxWithLoss"
  bottom: "cls_score"
  bottom: "labels"
  top: "loss_cls"
  loss_weight: 3
  propagate_down: true
  propagate_down: false
}
layer {
  name: "loss_bbox"
  type: "SmoothL1Loss"
  bottom: "bbox_pred"
  bottom: "bbox_targets"
  bottom: "bbox_inside_weights"
  bottom: "bbox_outside_weights"
  top: "loss_bbox"
  loss_weight: 2
}
layer {
  name: "roi_pool5_2"
  type: "ROIAlignment"
  bottom: "conv5_3"
  bottom: "rois_pos"
  top: "pool5_2"
  roi_alignment_param {
    pooled_h: 7
    pooled_w: 7
    spatial_scale: 0.0625
  }
}
layer {
  name: "pool5_2_conv"
  type: "Convolution"
  bottom: "pool5_2"
  top: "pool5_2_conv"
  param {
    lr_mult: 1
    decay_mult: 1
  }
  param {
    lr_mult: 2
    decay_mult: 0
  }
  convolution_param {
    num_output: 512
    pad: 0
    kernel_size: 1
    weight_filler {
      type: "gaussian"
      std: 0.01
    }
    bias_filler {
      type: "constant"
      value: 0
    }
  }
}
layer {
  name: "pool5_2_conv_relu"
  type: "ReLU"
  bottom: "pool5_2_conv"
  top: "pool5_2_conv_relu"
}
layer {
  name: "pool5_2_conv2"
  type: "Convolution"
  bottom: "pool5_2_conv_relu"
  top: "pool5_2_conv2"
  param {
    lr_mult: 1
    decay_mult: 1
  }
  param {
    lr_mult: 2
    decay_mult: 0
  }
  convolution_param {
    num_output: 512
    pad: 1
    kernel_size: 3
    stride: 1
    weight_filler {
      type: "gaussian"
      std: 0.01
    }
    bias_filler {
      type: "constant"
      value: 0
    }
  }
}
layer {
  name: "pool5_2_conv2_relu"
  type: "ReLU"
  bottom: "pool5_2_conv2"
  top: "pool5_2_conv2_relu"
}
layer {
  name: "mask_deconv1"
  type: "Deconvolution"
  bottom: "pool5_2_conv2_relu"
  top: "mask_deconv1"
  param {
    lr_mult: 1
    decay_mult: 1
  }
  param {
    lr_mult: 2
    decay_mult: 0
  }
  convolution_param {
    num_output: 256
    pad: 1
    kernel_size: 8
    group: 256
    stride: 4
    weight_filler {
      type: "bilinear"
    }
  }
}
layer {
  name: "pool5_2_conv3"
  type: "Convolution"
  bottom: "mask_deconv1"
  top: "pool5_2_conv3"
  param {
    lr_mult: 1
    decay_mult: 1
  }
  param {
    lr_mult: 2
    decay_mult: 0
  }
  convolution_param {
    num_output: 512
    pad: 1
    kernel_size: 3
    stride: 1
    weight_filler {
      type: "gaussian"
      std: 0.01
    }
    bias_filler {
      type: "constant"
      value: 0
    }
  }
}
layer {
  name: "pool5_2_conv3_relu"
  type: "ReLU"
  bottom: "pool5_2_conv3"
  top: "pool5_2_conv3_relu"
}
layer {
  name: "pool5_2_conv4"
  type: "Convolution"
  bottom: "pool5_2_conv3_relu"
  top: "pool5_2_conv4"
  param {
    lr_mult: 1
    decay_mult: 1
  }
  param {
    lr_mult: 2
    decay_mult: 0
  }
  convolution_param {
    num_output: 512
    pad: 1
    kernel_size: 3
    stride: 1
    weight_filler {
      type: "gaussian"
      std: 0.01
    }
    bias_filler {
      type: "constant"
      value: 0
    }
  }
}
layer {
  name: "pool5_2_conv4_relu"
  type: "ReLU"
  bottom: "pool5_2_conv4"
  top: "pool5_2_conv4_relu"
}
layer {
  name: "query_conv"
  type: "Convolution"
  bottom: "pool5_2_conv4_relu"
  top: "query_conv"
  param {
    lr_mult: 1
    decay_mult: 1
  }
  param {
    lr_mult: 2
    decay_mult: 0
  }
  convolution_param {
    num_output: 64
    pad: 0
    kernel_size: 1
    stride: 1
    weight_filler {
      type: "gaussian"
      std: 0.01
    }
    bias_filler {
      type: "constant"
      value: 0
    }
  }
}
layer {
  name: "key_conv"
  type: "Convolution"
  bottom: "pool5_2_conv4_relu"
  top: "key_conv"
  param {
    lr_mult: 1
    decay_mult: 1
  }
  param {
    lr_mult: 2
    decay_mult: 0
  }
  convolution_param {
    num_output: 64
    pad: 0
    kernel_size: 1
    stride: 1
    weight_filler {
      type: "gaussian"
      std: 0.01
    }
    bias_filler {
      type: "constant"
      value: 0
    }
  }
}
layer {
  name: "value_conv"
  type: "Convolution"
  bottom: "pool5_2_conv4_relu"
  top: "value_conv"
  param {
    lr_mult: 1
    decay_mult: 1
  }
  param {
    lr_mult: 2
    decay_mult: 0
  }
  convolution_param {
    num_output: 512
    pad: 0
    kernel_size: 1
    stride: 1
    weight_filler {
      type: "gaussian"
      std: 0.01
    }
    bias_filler {
      type: "constant"
      value: 0
    }
  }
}
layer {
  name: "query_conv_reshape"
  type: "Reshape"
  bottom: "query_conv"
  top: "query_conv_reshape"
  reshape_param {
    shape {
      dim: -1
      dim: 64
      dim: 900
      dim: 1
    }
  }
}
layer {
  name: "key_conv_reshape"
  type: "Reshape"
  bottom: "key_conv"
  top: "key_conv_reshape"
  reshape_param {
    shape {
      dim: -1
      dim: 64
      dim: 900
      dim: 1
    }
  }
}
layer {
  name: "value_conv_reshape"
  type: "Reshape"
  bottom: "value_conv"
  top: "value_conv_reshape"
  reshape_param {
    shape {
      dim: -1
      dim: 512
      dim: 900
      dim: 1
    }
  }
}
layer {
  name: "query_conv_reshape_perm"
  type: "Permute"
  bottom: "query_conv_reshape"
  top: "query_conv_reshape_perm"
  permute_param {
    order: 0
    order: 3
    order: 2
    order: 1
  }
}
layer {
  name: "key_conv_reshape_perm"
  type: "Permute"
  bottom: "key_conv_reshape"
  top: "key_conv_reshape_perm"
  permute_param {
    order: 0
    order: 3
    order: 1
    order: 2
  }
}
layer {
  name: "energy"
  type: "MatrixMultiplication"
  bottom: "query_conv_reshape_perm"
  bottom: "key_conv_reshape_perm"
  top: "energy"
}
layer {
  name: "attention"
  type: "Softmax"
  bottom: "energy"
  top: "attention"
  softmax_param {
    axis: 3
  }
}
layer {
  name: "value_conv_reshape_perm"
  type: "Permute"
  bottom: "value_conv_reshape"
  top: "value_conv_reshape_perm"
  permute_param {
    order: 0
    order: 3
    order: 1
    order: 2
  }
}
layer {
  name: "attention_perm"
  type: "Permute"
  bottom: "attention"
  top: "attention_perm"
  permute_param {
    order: 0
    order: 1
    order: 2
    order: 3
  }
}
layer {
  name: "out"
  type: "MatrixMultiplication"
  bottom: "value_conv_reshape_perm"
  bottom: "attention_perm"
  top: "out"
}
layer {
  name: "out_reshape"
  type: "Reshape"
  bottom: "out"
  top: "out_reshape"
  reshape_param {
    shape {
      dim: -1
      dim: 512
      dim: 30
      dim: 30
    }
  }
}
layer {
  name: "out_reshape_scale"
  type: "Scale"
  bottom: "out_reshape"
  top: "out_reshape_scale"
  param {
    name: "scale_conv1_1"
    lr_mult: 1
  }
  scale_param {
    bias_term: false
  }
}
layer {
  name: "out_x"
  type: "Eltwise"
  bottom: "out_reshape_scale"
  bottom: "pool5_2_conv4_relu"
  top: "out_x"
  eltwise_param {
    operation: SUM
  }
}
layer {
  name: "mask_deconv2"
  type: "Deconvolution"
  bottom: "out_x"
  top: "mask_deconv2"
  param {
    lr_mult: 1
    decay_mult: 1
  }
  param {
    lr_mult: 2
    decay_mult: 0
  }
  convolution_param {
    num_output: 256
    pad: 1
    kernel_size: 8
    group: 256
    stride: 4
    weight_filler {
      type: "bilinear"
    }
  }
}
layer {
  name: "pool5_2_conv5"
  type: "Convolution"
  bottom: "mask_deconv2"
  top: "pool5_2_conv5"
  param {
    lr_mult: 1
    decay_mult: 1
  }
  param {
    lr_mult: 2
    decay_mult: 0
  }
  convolution_param {
    num_output: 512
    pad: 1
    kernel_size: 3
    stride: 1
    weight_filler {
      type: "gaussian"
      std: 0.01
    }
    bias_filler {
      type: "constant"
      value: 0
    }
  }
}
layer {
  name: "pool5_2_conv5_relu"
  type: "ReLU"
  bottom: "pool5_2_conv5"
  top: "pool5_2_conv5_relu"
}
layer {
  name: "pool5_2_conv6"
  type: "Convolution"
  bottom: "pool5_2_conv5_relu"
  top: "pool5_2_conv6"
  param {
    lr_mult: 1
    decay_mult: 1
  }
  param {
    lr_mult: 2
    decay_mult: 0
  }
  convolution_param {
    num_output: 512
    pad: 1
    kernel_size: 3
    stride: 1
    weight_filler {
      type: "gaussian"
      std: 0.01
    }
    bias_filler {
      type: "constant"
      value: 0
    }
  }
}
layer {
  name: "pool5_2_conv6_relu"
  type: "ReLU"
  bottom: "pool5_2_conv6"
  top: "pool5_2_conv6_relu"
}
layer {
  name: "mask_deconv3"
  type: "Deconvolution"
  bottom: "pool5_2_conv6_relu"
  top: "mask_deconv3"
  param {
    lr_mult: 1
    decay_mult: 1
  }
  param {
    lr_mult: 2
    decay_mult: 0
  }
  convolution_param {
    num_output: 256
    pad: 1
    kernel_size: 4
    group: 256
    stride: 2
    weight_filler {
      type: "bilinear"
    }
  }
}
layer {
  name: "mask_score"
  type: "Convolution"
  bottom: "mask_deconv3"
  top: "mask_score"
  param {
    lr_mult: 1
    decay_mult: 1
  }
  param {
    lr_mult: 2
    decay_mult: 0
  }
  convolution_param {
    num_output: 8
    pad: 0
    kernel_size: 1
    weight_filler {
      type: "gaussian"
      std: 0.01
    }
    bias_filler {
      type: "constant"
      value: 0
    }
  }
}
layer {
  name: "prob"
  type: "Softmax"
  bottom: "mask_score"
  top: "mask_score_softmax"
  softmax_param {
    axis: 1
  }
}
layer {
  name: "log"
  type: "Log"
  bottom: "mask_score_softmax"
  top: "log"
}
layer {
  name: "mult1"
  type: "Eltwise"
  bottom: "log"
  bottom: "mask_targets"
  top: "mult1"
  eltwise_param {
    operation: PROD
  }
}
layer {
  name: "cross_entropy"
  type: "Power"
  bottom: "mult1"
  top: "cross_entropy"
  power_param {
    power: 1
    scale: -1
    shift: 0
  }
}
layer {
  name: "ce_sum"
  type: "Convolution"
  bottom: "cross_entropy"
  top: "cross_entropy_sum"
  param {
    lr_mult: 0
    decay_mult: 0
  }
  convolution_param {
    num_output: 1
    bias_term: false
    kernel_size: 1
    weight_filler {
      type: "constant"
      value: 1
    }
  }
}
layer {
  name: "ce_mean"
  type: "Reduction"
  bottom: "cross_entropy_sum"
  top: "cross_entropy_mean"
  loss_weight: 1
  reduction_param {
    operation: MEAN
    axis: 0
  }
}
I0625 15:32:50.918721 18996 layer_factory.hpp:77] Creating layer input-data
I0625 15:32:51.037273 18996 net.cpp:106] Creating Layer input-data
I0625 15:32:51.037294 18996 net.cpp:411] input-data -> data
I0625 15:32:51.037308 18996 net.cpp:411] input-data -> im_info
I0625 15:32:51.037315 18996 net.cpp:411] input-data -> gt_boxes
I0625 15:32:51.037322 18996 net.cpp:411] input-data -> seg_mask_inds
I0625 15:32:51.037329 18996 net.cpp:411] input-data -> flipped
RoiDataLayer: name_to_top: {'gt_boxes': 2, 'data': 0, 'seg_mask_inds': 3, 'im_info': 1, 'flipped': 4}
I0625 15:32:51.067361 18996 net.cpp:150] Setting up input-data
I0625 15:32:51.067382 18996 net.cpp:157] Top shape: 1 3 600 1000 (1800000)
I0625 15:32:51.067389 18996 net.cpp:157] Top shape: 1 3 (3)
I0625 15:32:51.067392 18996 net.cpp:157] Top shape: 1 4 (4)
I0625 15:32:51.067395 18996 net.cpp:157] Top shape: 1 2 (2)
I0625 15:32:51.067400 18996 net.cpp:157] Top shape: 1 1 (1)
I0625 15:32:51.067404 18996 net.cpp:165] Memory required for data: 7200040
I0625 15:32:51.067412 18996 layer_factory.hpp:77] Creating layer data_input-data_0_split
I0625 15:32:51.067430 18996 net.cpp:106] Creating Layer data_input-data_0_split
I0625 15:32:51.067435 18996 net.cpp:454] data_input-data_0_split <- data
I0625 15:32:51.067441 18996 net.cpp:411] data_input-data_0_split -> data_input-data_0_split_0
I0625 15:32:51.067451 18996 net.cpp:411] data_input-data_0_split -> data_input-data_0_split_1
I0625 15:32:51.067481 18996 net.cpp:150] Setting up data_input-data_0_split
I0625 15:32:51.067486 18996 net.cpp:157] Top shape: 1 3 600 1000 (1800000)
I0625 15:32:51.067488 18996 net.cpp:157] Top shape: 1 3 600 1000 (1800000)
I0625 15:32:51.067490 18996 net.cpp:165] Memory required for data: 21600040
I0625 15:32:51.067492 18996 layer_factory.hpp:77] Creating layer im_info_input-data_1_split
I0625 15:32:51.067497 18996 net.cpp:106] Creating Layer im_info_input-data_1_split
I0625 15:32:51.067499 18996 net.cpp:454] im_info_input-data_1_split <- im_info
I0625 15:32:51.067502 18996 net.cpp:411] im_info_input-data_1_split -> im_info_input-data_1_split_0
I0625 15:32:51.067507 18996 net.cpp:411] im_info_input-data_1_split -> im_info_input-data_1_split_1
I0625 15:32:51.067512 18996 net.cpp:411] im_info_input-data_1_split -> im_info_input-data_1_split_2
I0625 15:32:51.067535 18996 net.cpp:150] Setting up im_info_input-data_1_split
I0625 15:32:51.067539 18996 net.cpp:157] Top shape: 1 3 (3)
I0625 15:32:51.067544 18996 net.cpp:157] Top shape: 1 3 (3)
I0625 15:32:51.067549 18996 net.cpp:157] Top shape: 1 3 (3)
I0625 15:32:51.067553 18996 net.cpp:165] Memory required for data: 21600076
I0625 15:32:51.067556 18996 layer_factory.hpp:77] Creating layer gt_boxes_input-data_2_split
I0625 15:32:51.067561 18996 net.cpp:106] Creating Layer gt_boxes_input-data_2_split
I0625 15:32:51.067565 18996 net.cpp:454] gt_boxes_input-data_2_split <- gt_boxes
I0625 15:32:51.067570 18996 net.cpp:411] gt_boxes_input-data_2_split -> gt_boxes_input-data_2_split_0
I0625 15:32:51.067576 18996 net.cpp:411] gt_boxes_input-data_2_split -> gt_boxes_input-data_2_split_1
I0625 15:32:51.067595 18996 net.cpp:150] Setting up gt_boxes_input-data_2_split
I0625 15:32:51.067600 18996 net.cpp:157] Top shape: 1 4 (4)
I0625 15:32:51.067601 18996 net.cpp:157] Top shape: 1 4 (4)
I0625 15:32:51.067603 18996 net.cpp:165] Memory required for data: 21600108
I0625 15:32:51.067605 18996 layer_factory.hpp:77] Creating layer conv1_1
I0625 15:32:51.067612 18996 net.cpp:106] Creating Layer conv1_1
I0625 15:32:51.067615 18996 net.cpp:454] conv1_1 <- data_input-data_0_split_0
I0625 15:32:51.067618 18996 net.cpp:411] conv1_1 -> conv1_1
I0625 15:32:51.570607 18996 net.cpp:150] Setting up conv1_1
I0625 15:32:51.570626 18996 net.cpp:157] Top shape: 1 64 600 1000 (38400000)
I0625 15:32:51.570629 18996 net.cpp:165] Memory required for data: 175200108
I0625 15:32:51.570641 18996 layer_factory.hpp:77] Creating layer relu1_1
I0625 15:32:51.570648 18996 net.cpp:106] Creating Layer relu1_1
I0625 15:32:51.570652 18996 net.cpp:454] relu1_1 <- conv1_1
I0625 15:32:51.570655 18996 net.cpp:397] relu1_1 -> conv1_1 (in-place)
I0625 15:32:51.570768 18996 net.cpp:150] Setting up relu1_1
I0625 15:32:51.570773 18996 net.cpp:157] Top shape: 1 64 600 1000 (38400000)
I0625 15:32:51.570775 18996 net.cpp:165] Memory required for data: 328800108
I0625 15:32:51.570777 18996 layer_factory.hpp:77] Creating layer conv1_2
I0625 15:32:51.570785 18996 net.cpp:106] Creating Layer conv1_2
I0625 15:32:51.570787 18996 net.cpp:454] conv1_2 <- conv1_1
I0625 15:32:51.570791 18996 net.cpp:411] conv1_2 -> conv1_2
I0625 15:32:51.573113 18996 net.cpp:150] Setting up conv1_2
I0625 15:32:51.573127 18996 net.cpp:157] Top shape: 1 64 600 1000 (38400000)
I0625 15:32:51.573130 18996 net.cpp:165] Memory required for data: 482400108
I0625 15:32:51.573138 18996 layer_factory.hpp:77] Creating layer relu1_2
I0625 15:32:51.573146 18996 net.cpp:106] Creating Layer relu1_2
I0625 15:32:51.573148 18996 net.cpp:454] relu1_2 <- conv1_2
I0625 15:32:51.573153 18996 net.cpp:397] relu1_2 -> conv1_2 (in-place)
I0625 15:32:51.573273 18996 net.cpp:150] Setting up relu1_2
I0625 15:32:51.573278 18996 net.cpp:157] Top shape: 1 64 600 1000 (38400000)
I0625 15:32:51.573280 18996 net.cpp:165] Memory required for data: 636000108
I0625 15:32:51.573283 18996 layer_factory.hpp:77] Creating layer pool1
I0625 15:32:51.573290 18996 net.cpp:106] Creating Layer pool1
I0625 15:32:51.573292 18996 net.cpp:454] pool1 <- conv1_2
I0625 15:32:51.573295 18996 net.cpp:411] pool1 -> pool1
I0625 15:32:51.573936 18996 net.cpp:150] Setting up pool1
I0625 15:32:51.573943 18996 net.cpp:157] Top shape: 1 64 300 500 (9600000)
I0625 15:32:51.573945 18996 net.cpp:165] Memory required for data: 674400108
I0625 15:32:51.573947 18996 layer_factory.hpp:77] Creating layer conv2_1
I0625 15:32:51.573954 18996 net.cpp:106] Creating Layer conv2_1
I0625 15:32:51.573956 18996 net.cpp:454] conv2_1 <- pool1
I0625 15:32:51.573961 18996 net.cpp:411] conv2_1 -> conv2_1
I0625 15:32:51.575911 18996 net.cpp:150] Setting up conv2_1
I0625 15:32:51.575920 18996 net.cpp:157] Top shape: 1 128 300 500 (19200000)
I0625 15:32:51.575922 18996 net.cpp:165] Memory required for data: 751200108
I0625 15:32:51.575929 18996 layer_factory.hpp:77] Creating layer relu2_1
I0625 15:32:51.575933 18996 net.cpp:106] Creating Layer relu2_1
I0625 15:32:51.575937 18996 net.cpp:454] relu2_1 <- conv2_1
I0625 15:32:51.575940 18996 net.cpp:397] relu2_1 -> conv2_1 (in-place)
I0625 15:32:51.576387 18996 net.cpp:150] Setting up relu2_1
I0625 15:32:51.576395 18996 net.cpp:157] Top shape: 1 128 300 500 (19200000)
I0625 15:32:51.576397 18996 net.cpp:165] Memory required for data: 828000108
I0625 15:32:51.576400 18996 layer_factory.hpp:77] Creating layer conv2_2
I0625 15:32:51.576406 18996 net.cpp:106] Creating Layer conv2_2
I0625 15:32:51.576408 18996 net.cpp:454] conv2_2 <- conv2_1
I0625 15:32:51.576412 18996 net.cpp:411] conv2_2 -> conv2_2
I0625 15:32:51.578203 18996 net.cpp:150] Setting up conv2_2
I0625 15:32:51.578212 18996 net.cpp:157] Top shape: 1 128 300 500 (19200000)
I0625 15:32:51.578213 18996 net.cpp:165] Memory required for data: 904800108
I0625 15:32:51.578218 18996 layer_factory.hpp:77] Creating layer relu2_2
I0625 15:32:51.578222 18996 net.cpp:106] Creating Layer relu2_2
I0625 15:32:51.578224 18996 net.cpp:454] relu2_2 <- conv2_2
I0625 15:32:51.578227 18996 net.cpp:397] relu2_2 -> conv2_2 (in-place)
I0625 15:32:51.578351 18996 net.cpp:150] Setting up relu2_2
I0625 15:32:51.578356 18996 net.cpp:157] Top shape: 1 128 300 500 (19200000)
I0625 15:32:51.578359 18996 net.cpp:165] Memory required for data: 981600108
I0625 15:32:51.578361 18996 layer_factory.hpp:77] Creating layer pool2
I0625 15:32:51.578366 18996 net.cpp:106] Creating Layer pool2
I0625 15:32:51.578369 18996 net.cpp:454] pool2 <- conv2_2
I0625 15:32:51.578372 18996 net.cpp:411] pool2 -> pool2
I0625 15:32:51.578398 18996 net.cpp:150] Setting up pool2
I0625 15:32:51.578402 18996 net.cpp:157] Top shape: 1 128 150 250 (4800000)
I0625 15:32:51.578404 18996 net.cpp:165] Memory required for data: 1000800108
I0625 15:32:51.578406 18996 layer_factory.hpp:77] Creating layer conv3_1
I0625 15:32:51.578411 18996 net.cpp:106] Creating Layer conv3_1
I0625 15:32:51.578413 18996 net.cpp:454] conv3_1 <- pool2
I0625 15:32:51.578418 18996 net.cpp:411] conv3_1 -> conv3_1
I0625 15:32:51.580384 18996 net.cpp:150] Setting up conv3_1
I0625 15:32:51.580392 18996 net.cpp:157] Top shape: 1 256 150 250 (9600000)
I0625 15:32:51.580395 18996 net.cpp:165] Memory required for data: 1039200108
I0625 15:32:51.580401 18996 layer_factory.hpp:77] Creating layer relu3_1
I0625 15:32:51.580406 18996 net.cpp:106] Creating Layer relu3_1
I0625 15:32:51.580410 18996 net.cpp:454] relu3_1 <- conv3_1
I0625 15:32:51.580411 18996 net.cpp:397] relu3_1 -> conv3_1 (in-place)
I0625 15:32:51.580538 18996 net.cpp:150] Setting up relu3_1
I0625 15:32:51.580544 18996 net.cpp:157] Top shape: 1 256 150 250 (9600000)
I0625 15:32:51.580545 18996 net.cpp:165] Memory required for data: 1077600108
I0625 15:32:51.580548 18996 layer_factory.hpp:77] Creating layer conv3_2
I0625 15:32:51.580554 18996 net.cpp:106] Creating Layer conv3_2
I0625 15:32:51.580556 18996 net.cpp:454] conv3_2 <- conv3_1
I0625 15:32:51.580559 18996 net.cpp:411] conv3_2 -> conv3_2
I0625 15:32:51.582707 18996 net.cpp:150] Setting up conv3_2
I0625 15:32:51.582720 18996 net.cpp:157] Top shape: 1 256 150 250 (9600000)
I0625 15:32:51.582721 18996 net.cpp:165] Memory required for data: 1116000108
I0625 15:32:51.582726 18996 layer_factory.hpp:77] Creating layer relu3_2
I0625 15:32:51.582731 18996 net.cpp:106] Creating Layer relu3_2
I0625 15:32:51.582733 18996 net.cpp:454] relu3_2 <- conv3_2
I0625 15:32:51.582737 18996 net.cpp:397] relu3_2 -> conv3_2 (in-place)
I0625 15:32:51.582854 18996 net.cpp:150] Setting up relu3_2
I0625 15:32:51.582860 18996 net.cpp:157] Top shape: 1 256 150 250 (9600000)
I0625 15:32:51.582862 18996 net.cpp:165] Memory required for data: 1154400108
I0625 15:32:51.582864 18996 layer_factory.hpp:77] Creating layer conv3_3
I0625 15:32:51.582870 18996 net.cpp:106] Creating Layer conv3_3
I0625 15:32:51.582871 18996 net.cpp:454] conv3_3 <- conv3_2
I0625 15:32:51.582875 18996 net.cpp:411] conv3_3 -> conv3_3
I0625 15:32:51.584985 18996 net.cpp:150] Setting up conv3_3
I0625 15:32:51.584993 18996 net.cpp:157] Top shape: 1 256 150 250 (9600000)
I0625 15:32:51.584996 18996 net.cpp:165] Memory required for data: 1192800108
I0625 15:32:51.585001 18996 layer_factory.hpp:77] Creating layer relu3_3
I0625 15:32:51.585005 18996 net.cpp:106] Creating Layer relu3_3
I0625 15:32:51.585008 18996 net.cpp:454] relu3_3 <- conv3_3
I0625 15:32:51.585011 18996 net.cpp:397] relu3_3 -> conv3_3 (in-place)
I0625 15:32:51.585125 18996 net.cpp:150] Setting up relu3_3
I0625 15:32:51.585131 18996 net.cpp:157] Top shape: 1 256 150 250 (9600000)
I0625 15:32:51.585134 18996 net.cpp:165] Memory required for data: 1231200108
I0625 15:32:51.585135 18996 layer_factory.hpp:77] Creating layer pool3
I0625 15:32:51.585140 18996 net.cpp:106] Creating Layer pool3
I0625 15:32:51.585142 18996 net.cpp:454] pool3 <- conv3_3
I0625 15:32:51.585145 18996 net.cpp:411] pool3 -> pool3
I0625 15:32:51.585175 18996 net.cpp:150] Setting up pool3
I0625 15:32:51.585177 18996 net.cpp:157] Top shape: 1 256 75 125 (2400000)
I0625 15:32:51.585180 18996 net.cpp:165] Memory required for data: 1240800108
I0625 15:32:51.585180 18996 layer_factory.hpp:77] Creating layer conv4_1
I0625 15:32:51.585186 18996 net.cpp:106] Creating Layer conv4_1
I0625 15:32:51.585188 18996 net.cpp:454] conv4_1 <- pool3
I0625 15:32:51.585192 18996 net.cpp:411] conv4_1 -> conv4_1
I0625 15:32:51.590255 18996 net.cpp:150] Setting up conv4_1
I0625 15:32:51.590308 18996 net.cpp:157] Top shape: 1 512 75 125 (4800000)
I0625 15:32:51.590312 18996 net.cpp:165] Memory required for data: 1260000108
I0625 15:32:51.590320 18996 layer_factory.hpp:77] Creating layer relu4_1
I0625 15:32:51.590330 18996 net.cpp:106] Creating Layer relu4_1
I0625 15:32:51.590334 18996 net.cpp:454] relu4_1 <- conv4_1
I0625 15:32:51.590338 18996 net.cpp:397] relu4_1 -> conv4_1 (in-place)
I0625 15:32:51.590482 18996 net.cpp:150] Setting up relu4_1
I0625 15:32:51.590488 18996 net.cpp:157] Top shape: 1 512 75 125 (4800000)
I0625 15:32:51.590490 18996 net.cpp:165] Memory required for data: 1279200108
I0625 15:32:51.590492 18996 layer_factory.hpp:77] Creating layer conv4_2
I0625 15:32:51.590502 18996 net.cpp:106] Creating Layer conv4_2
I0625 15:32:51.590505 18996 net.cpp:454] conv4_2 <- conv4_1
I0625 15:32:51.590510 18996 net.cpp:411] conv4_2 -> conv4_2
I0625 15:32:51.599601 18996 net.cpp:150] Setting up conv4_2
I0625 15:32:51.599640 18996 net.cpp:157] Top shape: 1 512 75 125 (4800000)
I0625 15:32:51.599644 18996 net.cpp:165] Memory required for data: 1298400108
I0625 15:32:51.599684 18996 layer_factory.hpp:77] Creating layer relu4_2
I0625 15:32:51.599695 18996 net.cpp:106] Creating Layer relu4_2
I0625 15:32:51.599702 18996 net.cpp:454] relu4_2 <- conv4_2
I0625 15:32:51.599711 18996 net.cpp:397] relu4_2 -> conv4_2 (in-place)
I0625 15:32:51.600494 18996 net.cpp:150] Setting up relu4_2
I0625 15:32:51.600517 18996 net.cpp:157] Top shape: 1 512 75 125 (4800000)
I0625 15:32:51.600520 18996 net.cpp:165] Memory required for data: 1317600108
I0625 15:32:51.600524 18996 layer_factory.hpp:77] Creating layer conv4_3
I0625 15:32:51.600535 18996 net.cpp:106] Creating Layer conv4_3
I0625 15:32:51.600540 18996 net.cpp:454] conv4_3 <- conv4_2
I0625 15:32:51.600549 18996 net.cpp:411] conv4_3 -> conv4_3
I0625 15:32:51.607667 18996 net.cpp:150] Setting up conv4_3
I0625 15:32:51.607707 18996 net.cpp:157] Top shape: 1 512 75 125 (4800000)
I0625 15:32:51.607712 18996 net.cpp:165] Memory required for data: 1336800108
I0625 15:32:51.607734 18996 layer_factory.hpp:77] Creating layer relu4_3
I0625 15:32:51.607748 18996 net.cpp:106] Creating Layer relu4_3
I0625 15:32:51.607764 18996 net.cpp:454] relu4_3 <- conv4_3
I0625 15:32:51.607771 18996 net.cpp:397] relu4_3 -> conv4_3 (in-place)
I0625 15:32:51.607975 18996 net.cpp:150] Setting up relu4_3
I0625 15:32:51.607995 18996 net.cpp:157] Top shape: 1 512 75 125 (4800000)
I0625 15:32:51.607998 18996 net.cpp:165] Memory required for data: 1356000108
I0625 15:32:51.608001 18996 layer_factory.hpp:77] Creating layer pool4
I0625 15:32:51.608018 18996 net.cpp:106] Creating Layer pool4
I0625 15:32:51.608023 18996 net.cpp:454] pool4 <- conv4_3
I0625 15:32:51.608031 18996 net.cpp:411] pool4 -> pool4
I0625 15:32:51.608078 18996 net.cpp:150] Setting up pool4
I0625 15:32:51.608094 18996 net.cpp:157] Top shape: 1 512 38 63 (1225728)
I0625 15:32:51.608098 18996 net.cpp:165] Memory required for data: 1360903020
I0625 15:32:51.608101 18996 layer_factory.hpp:77] Creating layer conv5_1
I0625 15:32:51.608122 18996 net.cpp:106] Creating Layer conv5_1
I0625 15:32:51.608126 18996 net.cpp:454] conv5_1 <- pool4
I0625 15:32:51.608134 18996 net.cpp:411] conv5_1 -> conv5_1
I0625 15:32:51.615687 18996 net.cpp:150] Setting up conv5_1
I0625 15:32:51.615732 18996 net.cpp:157] Top shape: 1 512 38 63 (1225728)
I0625 15:32:51.615743 18996 net.cpp:165] Memory required for data: 1365805932
I0625 15:32:51.615787 18996 layer_factory.hpp:77] Creating layer relu5_1
I0625 15:32:51.615834 18996 net.cpp:106] Creating Layer relu5_1
I0625 15:32:51.615861 18996 net.cpp:454] relu5_1 <- conv5_1
I0625 15:32:51.615890 18996 net.cpp:397] relu5_1 -> conv5_1 (in-place)
I0625 15:32:51.616129 18996 net.cpp:150] Setting up relu5_1
I0625 15:32:51.616142 18996 net.cpp:157] Top shape: 1 512 38 63 (1225728)
I0625 15:32:51.616147 18996 net.cpp:165] Memory required for data: 1370708844
I0625 15:32:51.616152 18996 layer_factory.hpp:77] Creating layer conv5_2
I0625 15:32:51.616189 18996 net.cpp:106] Creating Layer conv5_2
I0625 15:32:51.616194 18996 net.cpp:454] conv5_2 <- conv5_1
I0625 15:32:51.616211 18996 net.cpp:411] conv5_2 -> conv5_2
I0625 15:32:51.623031 18996 net.cpp:150] Setting up conv5_2
I0625 15:32:51.623097 18996 net.cpp:157] Top shape: 1 512 38 63 (1225728)
I0625 15:32:51.623114 18996 net.cpp:165] Memory required for data: 1375611756
I0625 15:32:51.623137 18996 layer_factory.hpp:77] Creating layer relu5_2
I0625 15:32:51.623159 18996 net.cpp:106] Creating Layer relu5_2
I0625 15:32:51.623167 18996 net.cpp:454] relu5_2 <- conv5_2
I0625 15:32:51.623172 18996 net.cpp:397] relu5_2 -> conv5_2 (in-place)
I0625 15:32:51.623374 18996 net.cpp:150] Setting up relu5_2
I0625 15:32:51.623394 18996 net.cpp:157] Top shape: 1 512 38 63 (1225728)
I0625 15:32:51.623405 18996 net.cpp:165] Memory required for data: 1380514668
I0625 15:32:51.623409 18996 layer_factory.hpp:77] Creating layer conv5_3
I0625 15:32:51.623426 18996 net.cpp:106] Creating Layer conv5_3
I0625 15:32:51.623440 18996 net.cpp:454] conv5_3 <- conv5_2
I0625 15:32:51.623457 18996 net.cpp:411] conv5_3 -> conv5_3
I0625 15:32:51.631172 18996 net.cpp:150] Setting up conv5_3
I0625 15:32:51.631209 18996 net.cpp:157] Top shape: 1 512 38 63 (1225728)
I0625 15:32:51.631214 18996 net.cpp:165] Memory required for data: 1385417580
I0625 15:32:51.631225 18996 layer_factory.hpp:77] Creating layer relu5_3
I0625 15:32:51.631235 18996 net.cpp:106] Creating Layer relu5_3
I0625 15:32:51.631242 18996 net.cpp:454] relu5_3 <- conv5_3
I0625 15:32:51.631250 18996 net.cpp:397] relu5_3 -> conv5_3 (in-place)
I0625 15:32:51.631438 18996 net.cpp:150] Setting up relu5_3
I0625 15:32:51.631448 18996 net.cpp:157] Top shape: 1 512 38 63 (1225728)
I0625 15:32:51.631453 18996 net.cpp:165] Memory required for data: 1390320492
I0625 15:32:51.631455 18996 layer_factory.hpp:77] Creating layer conv5_3_relu5_3_0_split
I0625 15:32:51.631464 18996 net.cpp:106] Creating Layer conv5_3_relu5_3_0_split
I0625 15:32:51.631469 18996 net.cpp:454] conv5_3_relu5_3_0_split <- conv5_3
I0625 15:32:51.631474 18996 net.cpp:411] conv5_3_relu5_3_0_split -> conv5_3_relu5_3_0_split_0
I0625 15:32:51.631484 18996 net.cpp:411] conv5_3_relu5_3_0_split -> conv5_3_relu5_3_0_split_1
I0625 15:32:51.631490 18996 net.cpp:411] conv5_3_relu5_3_0_split -> conv5_3_relu5_3_0_split_2
I0625 15:32:51.631548 18996 net.cpp:150] Setting up conv5_3_relu5_3_0_split
I0625 15:32:51.631556 18996 net.cpp:157] Top shape: 1 512 38 63 (1225728)
I0625 15:32:51.631561 18996 net.cpp:157] Top shape: 1 512 38 63 (1225728)
I0625 15:32:51.631566 18996 net.cpp:157] Top shape: 1 512 38 63 (1225728)
I0625 15:32:51.631569 18996 net.cpp:165] Memory required for data: 1405029228
I0625 15:32:51.631572 18996 layer_factory.hpp:77] Creating layer rpn_conv/3x3
I0625 15:32:51.631587 18996 net.cpp:106] Creating Layer rpn_conv/3x3
I0625 15:32:51.631592 18996 net.cpp:454] rpn_conv/3x3 <- conv5_3_relu5_3_0_split_0
I0625 15:32:51.631599 18996 net.cpp:411] rpn_conv/3x3 -> rpn/output
I0625 15:32:51.686447 18996 net.cpp:150] Setting up rpn_conv/3x3
I0625 15:32:51.686483 18996 net.cpp:157] Top shape: 1 512 38 63 (1225728)
I0625 15:32:51.686487 18996 net.cpp:165] Memory required for data: 1409932140
I0625 15:32:51.686498 18996 layer_factory.hpp:77] Creating layer rpn_relu/3x3
I0625 15:32:51.686520 18996 net.cpp:106] Creating Layer rpn_relu/3x3
I0625 15:32:51.686527 18996 net.cpp:454] rpn_relu/3x3 <- rpn/output
I0625 15:32:51.686533 18996 net.cpp:397] rpn_relu/3x3 -> rpn/output (in-place)
I0625 15:32:51.686794 18996 net.cpp:150] Setting up rpn_relu/3x3
I0625 15:32:51.686815 18996 net.cpp:157] Top shape: 1 512 38 63 (1225728)
I0625 15:32:51.686817 18996 net.cpp:165] Memory required for data: 1414835052
I0625 15:32:51.686820 18996 layer_factory.hpp:77] Creating layer rpn/output_rpn_relu/3x3_0_split
I0625 15:32:51.686836 18996 net.cpp:106] Creating Layer rpn/output_rpn_relu/3x3_0_split
I0625 15:32:51.686839 18996 net.cpp:454] rpn/output_rpn_relu/3x3_0_split <- rpn/output
I0625 15:32:51.686854 18996 net.cpp:411] rpn/output_rpn_relu/3x3_0_split -> rpn/output_rpn_relu/3x3_0_split_0
I0625 15:32:51.686862 18996 net.cpp:411] rpn/output_rpn_relu/3x3_0_split -> rpn/output_rpn_relu/3x3_0_split_1
I0625 15:32:51.686918 18996 net.cpp:150] Setting up rpn/output_rpn_relu/3x3_0_split
I0625 15:32:51.686925 18996 net.cpp:157] Top shape: 1 512 38 63 (1225728)
I0625 15:32:51.686939 18996 net.cpp:157] Top shape: 1 512 38 63 (1225728)
I0625 15:32:51.686942 18996 net.cpp:165] Memory required for data: 1424640876
I0625 15:32:51.686945 18996 layer_factory.hpp:77] Creating layer rpn_cls_score
I0625 15:32:51.686959 18996 net.cpp:106] Creating Layer rpn_cls_score
I0625 15:32:51.686962 18996 net.cpp:454] rpn_cls_score <- rpn/output_rpn_relu/3x3_0_split_0
I0625 15:32:51.686971 18996 net.cpp:411] rpn_cls_score -> rpn_cls_score
I0625 15:32:51.688748 18996 net.cpp:150] Setting up rpn_cls_score
I0625 15:32:51.688757 18996 net.cpp:157] Top shape: 1 30 38 63 (71820)
I0625 15:32:51.688771 18996 net.cpp:165] Memory required for data: 1424928156
I0625 15:32:51.688776 18996 layer_factory.hpp:77] Creating layer rpn_cls_score_rpn_cls_score_0_split
I0625 15:32:51.688781 18996 net.cpp:106] Creating Layer rpn_cls_score_rpn_cls_score_0_split
I0625 15:32:51.688783 18996 net.cpp:454] rpn_cls_score_rpn_cls_score_0_split <- rpn_cls_score
I0625 15:32:51.688787 18996 net.cpp:411] rpn_cls_score_rpn_cls_score_0_split -> rpn_cls_score_rpn_cls_score_0_split_0
I0625 15:32:51.688791 18996 net.cpp:411] rpn_cls_score_rpn_cls_score_0_split -> rpn_cls_score_rpn_cls_score_0_split_1
I0625 15:32:51.688829 18996 net.cpp:150] Setting up rpn_cls_score_rpn_cls_score_0_split
I0625 15:32:51.688832 18996 net.cpp:157] Top shape: 1 30 38 63 (71820)
I0625 15:32:51.688845 18996 net.cpp:157] Top shape: 1 30 38 63 (71820)
I0625 15:32:51.688848 18996 net.cpp:165] Memory required for data: 1425502716
I0625 15:32:51.688848 18996 layer_factory.hpp:77] Creating layer rpn_bbox_pred
I0625 15:32:51.688856 18996 net.cpp:106] Creating Layer rpn_bbox_pred
I0625 15:32:51.688858 18996 net.cpp:454] rpn_bbox_pred <- rpn/output_rpn_relu/3x3_0_split_1
I0625 15:32:51.688863 18996 net.cpp:411] rpn_bbox_pred -> rpn_bbox_pred
I0625 15:32:51.690455 18996 net.cpp:150] Setting up rpn_bbox_pred
I0625 15:32:51.690465 18996 net.cpp:157] Top shape: 1 60 38 63 (143640)
I0625 15:32:51.690477 18996 net.cpp:165] Memory required for data: 1426077276
I0625 15:32:51.690481 18996 layer_factory.hpp:77] Creating layer rpn_bbox_pred_rpn_bbox_pred_0_split
I0625 15:32:51.690486 18996 net.cpp:106] Creating Layer rpn_bbox_pred_rpn_bbox_pred_0_split
I0625 15:32:51.690488 18996 net.cpp:454] rpn_bbox_pred_rpn_bbox_pred_0_split <- rpn_bbox_pred
I0625 15:32:51.690492 18996 net.cpp:411] rpn_bbox_pred_rpn_bbox_pred_0_split -> rpn_bbox_pred_rpn_bbox_pred_0_split_0
I0625 15:32:51.690497 18996 net.cpp:411] rpn_bbox_pred_rpn_bbox_pred_0_split -> rpn_bbox_pred_rpn_bbox_pred_0_split_1
I0625 15:32:51.690534 18996 net.cpp:150] Setting up rpn_bbox_pred_rpn_bbox_pred_0_split
I0625 15:32:51.690538 18996 net.cpp:157] Top shape: 1 60 38 63 (143640)
I0625 15:32:51.690551 18996 net.cpp:157] Top shape: 1 60 38 63 (143640)
I0625 15:32:51.690552 18996 net.cpp:165] Memory required for data: 1427226396
I0625 15:32:51.690554 18996 layer_factory.hpp:77] Creating layer rpn_cls_score_reshape
I0625 15:32:51.690563 18996 net.cpp:106] Creating Layer rpn_cls_score_reshape
I0625 15:32:51.690565 18996 net.cpp:454] rpn_cls_score_reshape <- rpn_cls_score_rpn_cls_score_0_split_0
I0625 15:32:51.690569 18996 net.cpp:411] rpn_cls_score_reshape -> rpn_cls_score_reshape
I0625 15:32:51.690585 18996 net.cpp:150] Setting up rpn_cls_score_reshape
I0625 15:32:51.690598 18996 net.cpp:157] Top shape: 1 2 570 63 (71820)
I0625 15:32:51.690600 18996 net.cpp:165] Memory required for data: 1427513676
I0625 15:32:51.690603 18996 layer_factory.hpp:77] Creating layer rpn_cls_score_reshape_rpn_cls_score_reshape_0_split
I0625 15:32:51.690615 18996 net.cpp:106] Creating Layer rpn_cls_score_reshape_rpn_cls_score_reshape_0_split
I0625 15:32:51.690618 18996 net.cpp:454] rpn_cls_score_reshape_rpn_cls_score_reshape_0_split <- rpn_cls_score_reshape
I0625 15:32:51.690621 18996 net.cpp:411] rpn_cls_score_reshape_rpn_cls_score_reshape_0_split -> rpn_cls_score_reshape_rpn_cls_score_reshape_0_split_0
I0625 15:32:51.690624 18996 net.cpp:411] rpn_cls_score_reshape_rpn_cls_score_reshape_0_split -> rpn_cls_score_reshape_rpn_cls_score_reshape_0_split_1
I0625 15:32:51.690654 18996 net.cpp:150] Setting up rpn_cls_score_reshape_rpn_cls_score_reshape_0_split
I0625 15:32:51.690657 18996 net.cpp:157] Top shape: 1 2 570 63 (71820)
I0625 15:32:51.690659 18996 net.cpp:157] Top shape: 1 2 570 63 (71820)
I0625 15:32:51.690661 18996 net.cpp:165] Memory required for data: 1428088236
I0625 15:32:51.690673 18996 layer_factory.hpp:77] Creating layer rpn-data
I0625 15:32:51.691637 18996 net.cpp:106] Creating Layer rpn-data
I0625 15:32:51.691644 18996 net.cpp:454] rpn-data <- rpn_cls_score_rpn_cls_score_0_split_1
I0625 15:32:51.691649 18996 net.cpp:454] rpn-data <- gt_boxes_input-data_2_split_0
I0625 15:32:51.691653 18996 net.cpp:454] rpn-data <- im_info_input-data_1_split_0
I0625 15:32:51.691655 18996 net.cpp:454] rpn-data <- data_input-data_0_split_1
I0625 15:32:51.691659 18996 net.cpp:411] rpn-data -> rpn_labels
I0625 15:32:51.691664 18996 net.cpp:411] rpn-data -> rpn_bbox_targets
I0625 15:32:51.691669 18996 net.cpp:411] rpn-data -> rpn_bbox_inside_weights
I0625 15:32:51.691673 18996 net.cpp:411] rpn-data -> rpn_bbox_outside_weights
===================================anchor_scales in AnchorTargetLayer:=============(2, 4, 8, 16, 32)
I0625 15:32:51.692548 18996 net.cpp:150] Setting up rpn-data
I0625 15:32:51.692556 18996 net.cpp:157] Top shape: 1 1 570 63 (35910)
I0625 15:32:51.692560 18996 net.cpp:157] Top shape: 1 60 38 63 (143640)
I0625 15:32:51.692562 18996 net.cpp:157] Top shape: 1 60 38 63 (143640)
I0625 15:32:51.692564 18996 net.cpp:157] Top shape: 1 60 38 63 (143640)
I0625 15:32:51.692566 18996 net.cpp:165] Memory required for data: 1429955556
I0625 15:32:51.692569 18996 layer_factory.hpp:77] Creating layer rpn_loss_cls
I0625 15:32:51.692574 18996 net.cpp:106] Creating Layer rpn_loss_cls
I0625 15:32:51.692576 18996 net.cpp:454] rpn_loss_cls <- rpn_cls_score_reshape_rpn_cls_score_reshape_0_split_0
I0625 15:32:51.692579 18996 net.cpp:454] rpn_loss_cls <- rpn_labels
…
