…
average_loss: 100
iter_size: 2
I0605 11:57:28.471336 31520 solver.cpp:81] Creating training net from train_net file: models/pascal_voc/VGG16/faster_rcnn_end2end/train.prototxt
I0605 11:57:28.488548 31520 net.cpp:49] Initializing net from parameters: 
name: "VGG_ILSVRC_16_layers"
state {
  phase: TRAIN
}
layer {
  name: "input-data"
  type: "Python"
  top: "data"
  top: "im_info"
  top: "gt_boxes"
  top: "seg_mask_inds"
  top: "flipped"
  python_param {
    module: "roi_data_layer.layer"
    layer: "RoIDataLayer"
    param_str: "\'num_classes\': 2"
  }
}
layer {
  name: "conv1_1"
  type: "Convolution"
  bottom: "data"
  top: "conv1_1"
  param {
    lr_mult: 0
    decay_mult: 0
  }
  param {
    lr_mult: 0
    decay_mult: 0
  }
  convolution_param {
    num_output: 64
    pad: 1
    kernel_size: 3
  }
}
layer {
  name: "relu1_1"
  type: "ReLU"
  bottom: "conv1_1"
  top: "conv1_1"
}
layer {
  name: "conv1_2"
  type: "Convolution"
  bottom: "conv1_1"
  top: "conv1_2"
  param {
    lr_mult: 0
    decay_mult: 0
  }
  param {
    lr_mult: 0
    decay_mult: 0
  }
  convolution_param {
    num_output: 64
    pad: 1
    kernel_size: 3
  }
}
layer {
  name: "relu1_2"
  type: "ReLU"
  bottom: "conv1_2"
  top: "conv1_2"
}
layer {
  name: "pool1"
  type: "Pooling"
  bottom: "conv1_2"
  top: "pool1"
  pooling_param {
    pool: MAX
    kernel_size: 2
    stride: 2
  }
}
layer {
  name: "conv2_1"
  type: "Convolution"
  bottom: "pool1"
  top: "conv2_1"
  param {
    lr_mult: 0
    decay_mult: 0
  }
  param {
    lr_mult: 0
    decay_mult: 0
  }
  convolution_param {
    num_output: 128
    pad: 1
    kernel_size: 3
  }
}
layer {
  name: "relu2_1"
  type: "ReLU"
  bottom: "conv2_1"
  top: "conv2_1"
}
layer {
  name: "conv2_2"
  type: "Convolution"
  bottom: "conv2_1"
  top: "conv2_2"
  param {
    lr_mult: 0
    decay_mult: 0
  }
  param {
    lr_mult: 0
    decay_mult: 0
  }
  convolution_param {
    num_output: 128
    pad: 1
    kernel_size: 3
  }
}
layer {
  name: "relu2_2"
  type: "ReLU"
  bottom: "conv2_2"
  top: "conv2_2"
}
layer {
  name: "pool2"
  type: "Pooling"
  bottom: "conv2_2"
  top: "pool2"
  pooling_param {
    pool: MAX
    kernel_size: 2
    stride: 2
  }
}
layer {
  name: "conv3_1"
  type: "Convolution"
  bottom: "pool2"
  top: "conv3_1"
  param {
    lr_mult: 1
  }
  param {
    lr_mult: 2
  }
  convolution_param {
    num_output: 256
    pad: 1
    kernel_size: 3
  }
}
layer {
  name: "relu3_1"
  type: "ReLU"
  bottom: "conv3_1"
  top: "conv3_1"
}
layer {
  name: "conv3_2"
  type: "Convolution"
  bottom: "conv3_1"
  top: "conv3_2"
  param {
    lr_mult: 1
  }
  param {
    lr_mult: 2
  }
  convolution_param {
    num_output: 256
    pad: 1
    kernel_size: 3
  }
}
layer {
  name: "relu3_2"
  type: "ReLU"
  bottom: "conv3_2"
  top: "conv3_2"
}
layer {
  name: "conv3_3"
  type: "Convolution"
  bottom: "conv3_2"
  top: "conv3_3"
  param {
    lr_mult: 1
  }
  param {
    lr_mult: 2
  }
  convolution_param {
    num_output: 256
    pad: 1
    kernel_size: 3
  }
}
layer {
  name: "relu3_3"
  type: "ReLU"
  bottom: "conv3_3"
  top: "conv3_3"
}
layer {
  name: "pool3"
  type: "Pooling"
  bottom: "conv3_3"
  top: "pool3"
  pooling_param {
    pool: MAX
    kernel_size: 2
    stride: 2
  }
}
layer {
  name: "conv4_1"
  type: "Convolution"
  bottom: "pool3"
  top: "conv4_1"
  param {
    lr_mult: 1
  }
  param {
    lr_mult: 2
  }
  convolution_param {
    num_output: 512
    pad: 1
    kernel_size: 3
  }
}
layer {
  name: "relu4_1"
  type: "ReLU"
  bottom: "conv4_1"
  top: "conv4_1"
}
layer {
  name: "conv4_2"
  type: "Convolution"
  bottom: "conv4_1"
  top: "conv4_2"
  param {
    lr_mult: 1
  }
  param {
    lr_mult: 2
  }
  convolution_param {
    num_output: 512
    pad: 1
    kernel_size: 3
  }
}
layer {
  name: "relu4_2"
  type: "ReLU"
  bottom: "conv4_2"
  top: "conv4_2"
}
layer {
  name: "conv4_3"
  type: "Convolution"
  bottom: "conv4_2"
  top: "conv4_3"
  param {
    lr_mult: 1
  }
  param {
    lr_mult: 2
  }
  convolution_param {
    num_output: 512
    pad: 1
    kernel_size: 3
  }
}
layer {
  name: "relu4_3"
  type: "ReLU"
  bottom: "conv4_3"
  top: "conv4_3"
}
layer {
  name: "pool4"
  type: "Pooling"
  bottom: "conv4_3"
  top: "pool4"
  pooling_param {
    pool: MAX
    kernel_size: 2
    stride: 2
  }
}
layer {
  name: "conv5_1"
  type: "Convolution"
  bottom: "pool4"
  top: "conv5_1"
  param {
    lr_mult: 1
  }
  param {
    lr_mult: 2
  }
  convolution_param {
    num_output: 512
    pad: 1
    kernel_size: 3
  }
}
layer {
  name: "relu5_1"
  type: "ReLU"
  bottom: "conv5_1"
  top: "conv5_1"
}
layer {
  name: "conv5_2"
  type: "Convolution"
  bottom: "conv5_1"
  top: "conv5_2"
  param {
    lr_mult: 1
  }
  param {
    lr_mult: 2
  }
  convolution_param {
    num_output: 512
    pad: 1
    kernel_size: 3
  }
}
layer {
  name: "relu5_2"
  type: "ReLU"
  bottom: "conv5_2"
  top: "conv5_2"
}
layer {
  name: "conv5_3"
  type: "Convolution"
  bottom: "conv5_2"
  top: "conv5_3"
  param {
    lr_mult: 1
  }
  param {
    lr_mult: 2
  }
  convolution_param {
    num_output: 512
    pad: 1
    kernel_size: 3
  }
}
layer {
  name: "relu5_3"
  type: "ReLU"
  bottom: "conv5_3"
  top: "conv5_3"
}
layer {
  name: "rpn_conv/3x3"
  type: "Convolution"
  bottom: "conv5_3"
  top: "rpn/output"
  param {
    lr_mult: 1
  }
  param {
    lr_mult: 2
  }
  convolution_param {
    num_output: 512
    pad: 1
    kernel_size: 3
    stride: 1
    weight_filler {
      type: "gaussian"
      std: 0.01
    }
    bias_filler {
      type: "constant"
      value: 0
    }
  }
}
layer {
  name: "rpn_relu/3x3"
  type: "ReLU"
  bottom: "rpn/output"
  top: "rpn/output"
}
layer {
  name: "rpn_cls_score"
  type: "Convolution"
  bottom: "rpn/output"
  top: "rpn_cls_score"
  param {
    lr_mult: 1
  }
  param {
    lr_mult: 2
  }
  convolution_param {
    num_output: 30
    pad: 0
    kernel_size: 1
    stride: 1
    weight_filler {
      type: "gaussian"
      std: 0.01
    }
    bias_filler {
      type: "constant"
      value: 0
    }
  }
}
layer {
  name: "rpn_bbox_pred"
  type: "Convolution"
  bottom: "rpn/output"
  top: "rpn_bbox_pred"
  param {
    lr_mult: 1
  }
  param {
    lr_mult: 2
  }
  convolution_param {
    num_output: 60
    pad: 0
    kernel_size: 1
    stride: 1
    weight_filler {
      type: "gaussian"
      std: 0.01
    }
    bias_filler {
      type: "constant"
      value: 0
    }
  }
}
layer {
  name: "rpn_cls_score_reshape"
  type: "Reshape"
  bottom: "rpn_cls_score"
  top: "rpn_cls_score_reshape"
  reshape_param {
    shape {
      dim: 0
      dim: 2
      dim: -1
      dim: 0
    }
  }
}
layer {
  name: "rpn-data"
  type: "Python"
  bottom: "rpn_cls_score"
  bottom: "gt_boxes"
  bottom: "im_info"
  bottom: "data"
  top: "rpn_labels"
  top: "rpn_bbox_targets"
  top: "rpn_bbox_inside_weights"
  top: "rpn_bbox_outside_weights"
  python_param {
    module: "rpn.anchor_target_layer"
    layer: "AnchorTargetLayer"
    param_str: "\'feat_stride\': 16 \n\'scales\': !!python/tuple [2, 4, 8, 16, 32]"
  }
}
layer {
  name: "rpn_loss_cls"
  type: "SoftmaxWithLoss"
  bottom: "rpn_cls_score_reshape"
  bottom: "rpn_labels"
  top: "rpn_cls_loss"
  loss_weight: 1
  propagate_down: true
  propagate_down: false
  loss_param {
    ignore_label: -1
    normalize: true
  }
}
layer {
  name: "rpn_loss_bbox"
  type: "SmoothL1Loss"
  bottom: "rpn_bbox_pred"
  bottom: "rpn_bbox_targets"
  bottom: "rpn_bbox_inside_weights"
  bottom: "rpn_bbox_outside_weights"
  top: "rpn_loss_bbox"
  loss_weight: 1
  smooth_l1_loss_param {
    sigma: 3
  }
}
layer {
  name: "rpn_cls_prob"
  type: "Softmax"
  bottom: "rpn_cls_score_reshape"
  top: "rpn_cls_prob"
}
layer {
  name: "rpn_cls_prob_reshape"
  type: "Reshape"
  bottom: "rpn_cls_prob"
  top: "rpn_cls_prob_reshape"
  reshape_param {
    shape {
      dim: 0
      dim: 30
      dim: -1
      dim: 0
    }
  }
}
layer {
  name: "proposal"
  type: "Python"
  bottom: "rpn_cls_prob_reshape"
  bottom: "rpn_bbox_pred"
  bottom: "im_info"
  top: "rpn_rois"
  python_param {
    module: "rpn.proposal_layer"
    layer: "ProposalLayer"
    param_str: "\'feat_stride\': 16 \n\'scales\': !!python/tuple [2, 4, 8, 16, 32]"
  }
}
layer {
  name: "roi-data"
  type: "Python"
  bottom: "rpn_rois"
  bottom: "gt_boxes"
  bottom: "im_info"
  bottom: "seg_mask_inds"
  bottom: "flipped"
  top: "rois"
  top: "labels"
  top: "bbox_targets"
  top: "bbox_inside_weights"
  top: "bbox_outside_weights"
  top: "mask_targets"
  top: "rois_pos"
  python_param {
    module: "rpn.proposal_target_layer"
    layer: "ProposalTargetLayer"
    param_str: "\'num_classes\': 2"
  }
}
layer {
  name: "roi_pool5"
  type: "ROIAlignment"
  bottom: "conv5_3"
  bottom: "rois"
  top: "pool5"
  roi_alignment_param {
    pooled_h: 7
    pooled_w: 7
    spatial_scale: 0.0625
  }
}
layer {
  name: "fc6"
  type: "InnerProduct"
  bottom: "pool5"
  top: "fc6"
  param {
    lr_mult: 1
  }
  param {
    lr_mult: 2
  }
  inner_product_param {
    num_output: 4096
  }
}
layer {
  name: "relu6"
  type: "ReLU"
  bottom: "fc6"
  top: "fc6"
}
layer {
  name: "fc7"
  type: "InnerProduct"
  bottom: "fc6"
  top: "fc7"
  param {
    lr_mult: 1
  }
  param {
    lr_mult: 2
  }
  inner_product_param {
    num_output: 4096
  }
}
layer {
  name: "relu7"
  type: "ReLU"
  bottom: "fc7"
  top: "fc7"
}
layer {
  name: "cls_score"
  type: "InnerProduct"
  bottom: "fc7"
  top: "cls_score"
  param {
    lr_mult: 1
  }
  param {
    lr_mult: 2
  }
  inner_product_param {
    num_output: 2
    weight_filler {
      type: "gaussian"
      std: 0.01
    }
    bias_filler {
      type: "constant"
      value: 0
    }
  }
}
layer {
  name: "bbox_pred"
  type: "InnerProduct"
  bottom: "fc7"
  top: "bbox_pred"
  param {
    lr_mult: 1
  }
  param {
    lr_mult: 2
  }
  inner_product_param {
    num_output: 8
    weight_filler {
      type: "gaussian"
      std: 0.001
    }
    bias_filler {
      type: "constant"
      value: 0
    }
  }
}
layer {
  name: "loss_cls"
  type: "SoftmaxWithLoss"
  bottom: "cls_score"
  bottom: "labels"
  top: "loss_cls"
  loss_weight: 3
  propagate_down: true
  propagate_down: false
}
layer {
  name: "loss_bbox"
  type: "SmoothL1Loss"
  bottom: "bbox_pred"
  bottom: "bbox_targets"
  bottom: "bbox_inside_weights"
  bottom: "bbox_outside_weights"
  top: "loss_bbox"
  loss_weight: 2
}
layer {
  name: "roi_pool5_2"
  type: "ROIAlignment"
  bottom: "conv5_3"
  bottom: "rois_pos"
  top: "pool5_2"
  roi_alignment_param {
    pooled_h: 7
    pooled_w: 7
    spatial_scale: 0.0625
  }
}
layer {
  name: "pool5_2_conv"
  type: "Convolution"
  bottom: "pool5_2"
  top: "pool5_2_conv"
  param {
    lr_mult: 1
    decay_mult: 1
  }
  param {
    lr_mult: 2
    decay_mult: 0
  }
  convolution_param {
    num_output: 512
    pad: 0
    kernel_size: 1
    weight_filler {
      type: "gaussian"
      std: 0.01
    }
    bias_filler {
      type: "constant"
      value: 0
    }
  }
}
layer {
  name: "pool5_2_conv_relu"
  type: "ReLU"
  bottom: "pool5_2_conv"
  top: "pool5_2_conv_relu"
}
layer {
  name: "pool5_2_conv2"
  type: "Convolution"
  bottom: "pool5_2_conv_relu"
  top: "pool5_2_conv2"
  param {
    lr_mult: 1
    decay_mult: 1
  }
  param {
    lr_mult: 2
    decay_mult: 0
  }
  convolution_param {
    num_output: 512
    pad: 1
    kernel_size: 3
    stride: 1
    weight_filler {
      type: "gaussian"
      std: 0.01
    }
    bias_filler {
      type: "constant"
      value: 0
    }
  }
}
layer {
  name: "pool5_2_conv2_relu"
  type: "ReLU"
  bottom: "pool5_2_conv2"
  top: "pool5_2_conv2_relu"
}
layer {
  name: "mask_deconv1"
  type: "Deconvolution"
  bottom: "pool5_2_conv2_relu"
  top: "mask_deconv1"
  param {
    lr_mult: 1
    decay_mult: 1
  }
  param {
    lr_mult: 2
    decay_mult: 0
  }
  convolution_param {
    num_output: 256
    pad: 1
    kernel_size: 8
    group: 256
    stride: 4
    weight_filler {
      type: "bilinear"
    }
  }
}
layer {
  name: "pool5_2_conv3"
  type: "Convolution"
  bottom: "mask_deconv1"
  top: "pool5_2_conv3"
  param {
    lr_mult: 1
    decay_mult: 1
  }
  param {
    lr_mult: 2
    decay_mult: 0
  }
  convolution_param {
    num_output: 512
    pad: 1
    kernel_size: 3
    stride: 1
    weight_filler {
      type: "gaussian"
      std: 0.01
    }
    bias_filler {
      type: "constant"
      value: 0
    }
  }
}
layer {
  name: "pool5_2_conv3_relu"
  type: "ReLU"
  bottom: "pool5_2_conv3"
  top: "pool5_2_conv3_relu"
}
layer {
  name: "pool5_2_conv4"
  type: "Convolution"
  bottom: "pool5_2_conv3_relu"
  top: "pool5_2_conv4"
  param {
    lr_mult: 1
    decay_mult: 1
  }
  param {
    lr_mult: 2
    decay_mult: 0
  }
  convolution_param {
    num_output: 512
    pad: 1
    kernel_size: 3
    stride: 1
    weight_filler {
      type: "gaussian"
      std: 0.01
    }
    bias_filler {
      type: "constant"
      value: 0
    }
  }
}
layer {
  name: "pool5_2_conv4_relu"
  type: "ReLU"
  bottom: "pool5_2_conv4"
  top: "pool5_2_conv4_relu"
}
layer {
  name: "query_conv"
  type: "Convolution"
  bottom: "pool5_2_conv4_relu"
  top: "query_conv"
  param {
    lr_mult: 1
    decay_mult: 1
  }
  param {
    lr_mult: 2
    decay_mult: 0
  }
  convolution_param {
    num_output: 64
    pad: 0
    kernel_size: 1
    stride: 1
    weight_filler {
      type: "gaussian"
      std: 0.01
    }
    bias_filler {
      type: "constant"
      value: 0
    }
  }
}
layer {
  name: "key_conv"
  type: "Convolution"
  bottom: "pool5_2_conv4_relu"
  top: "key_conv"
  param {
    lr_mult: 1
    decay_mult: 1
  }
  param {
    lr_mult: 2
    decay_mult: 0
  }
  convolution_param {
    num_output: 64
    pad: 0
    kernel_size: 1
    stride: 1
    weight_filler {
      type: "gaussian"
      std: 0.01
    }
    bias_filler {
      type: "constant"
      value: 0
    }
  }
}
layer {
  name: "value_conv"
  type: "Convolution"
  bottom: "pool5_2_conv4_relu"
  top: "value_conv"
  param {
    lr_mult: 1
    decay_mult: 1
  }
  param {
    lr_mult: 2
    decay_mult: 0
  }
  convolution_param {
    num_output: 512
    pad: 0
    kernel_size: 1
    stride: 1
    weight_filler {
      type: "gaussian"
      std: 0.01
    }
    bias_filler {
      type: "constant"
      value: 0
    }
  }
}
layer {
  name: "query_conv_reshape"
  type: "Reshape"
  bottom: "query_conv"
  top: "query_conv_reshape"
  reshape_param {
    shape {
      dim: -1
      dim: 64
      dim: 900
      dim: 1
    }
  }
}
layer {
  name: "key_conv_reshape"
  type: "Reshape"
  bottom: "key_conv"
  top: "key_conv_reshape"
  reshape_param {
    shape {
      dim: -1
      dim: 64
      dim: 900
      dim: 1
    }
  }
}
layer {
  name: "value_conv_reshape"
  type: "Reshape"
  bottom: "value_conv"
  top: "value_conv_reshape"
  reshape_param {
    shape {
      dim: -1
      dim: 512
      dim: 900
      dim: 1
    }
  }
}
layer {
  name: "query_conv_reshape_perm"
  type: "Permute"
  bottom: "query_conv_reshape"
  top: "query_conv_reshape_perm"
  permute_param {
    order: 0
    order: 3
    order: 2
    order: 1
  }
}
layer {
  name: "key_conv_reshape_perm"
  type: "Permute"
  bottom: "key_conv_reshape"
  top: "key_conv_reshape_perm"
  permute_param {
    order: 0
    order: 3
    order: 1
    order: 2
  }
}
layer {
  name: "energy"
  type: "MatrixMultiplication"
  bottom: "query_conv_reshape_perm"
  bottom: "key_conv_reshape_perm"
  top: "energy"
}
layer {
  name: "attention"
  type: "Softmax"
  bottom: "energy"
  top: "attention"
  softmax_param {
    axis: 3
  }
}
layer {
  name: "value_conv_reshape_perm"
  type: "Permute"
  bottom: "value_conv_reshape"
  top: "value_conv_reshape_perm"
  permute_param {
    order: 0
    order: 3
    order: 1
    order: 2
  }
}
layer {
  name: "attention_perm"
  type: "Permute"
  bottom: "attention"
  top: "attention_perm"
  permute_param {
    order: 0
    order: 1
    order: 2
    order: 3
  }
}
layer {
  name: "out"
  type: "MatrixMultiplication"
  bottom: "value_conv_reshape_perm"
  bottom: "attention_perm"
  top: "out"
}
layer {
  name: "out_reshape"
  type: "Reshape"
  bottom: "out"
  top: "out_reshape"
  reshape_param {
    shape {
      dim: -1
      dim: 512
      dim: 30
      dim: 30
    }
  }
}
layer {
  name: "out_reshape_scale"
  type: "Scale"
  bottom: "out_reshape"
  top: "out_reshape_scale"
  param {
    name: "scale_conv1_1"
    lr_mult: 1
  }
  scale_param {
    bias_term: false
  }
}
layer {
  name: "out_x"
  type: "Eltwise"
  bottom: "out_reshape_scale"
  bottom: "pool5_2_conv4_relu"
  top: "out_x"
  eltwise_param {
    operation: SUM
  }
}
layer {
  name: "query_conv_reshape_ch"
  type: "Reshape"
  bottom: "pool5_2_conv4_relu"
  top: "query_conv_reshape_ch"
  reshape_param {
    shape {
      dim: 1
      dim: 512
      dim: -1
      dim: 1
    }
  }
}
layer {
  name: "key_conv_reshape_ch"
  type: "Reshape"
  bottom: "pool5_2_conv4_relu"
  top: "key_conv_reshape_ch"
  reshape_param {
    shape {
      dim: 1
      dim: 512
      dim: -1
      dim: 1
    }
  }
}
layer {
  name: "value_conv_reshape_ch"
  type: "Reshape"
  bottom: "pool5_2_conv4_relu"
  top: "value_conv_reshape_ch"
  reshape_param {
    shape {
      dim: 1
      dim: 512
      dim: -1
      dim: 1
    }
  }
}
layer {
  name: "query_conv_reshape_perm_ch"
  type: "Permute"
  bottom: "query_conv_reshape_ch"
  top: "query_conv_reshape_perm_ch"
  permute_param {
    order: 0
    order: 3
    order: 1
    order: 2
  }
}
layer {
  name: "key_conv_reshape_perm_ch"
  type: "Permute"
  bottom: "key_conv_reshape_ch"
  top: "key_conv_reshape_perm_ch"
  permute_param {
    order: 0
    order: 3
    order: 2
    order: 1
  }
}
layer {
  name: "energy_ch"
  type: "MatrixMultiplication"
  bottom: "query_conv_reshape_perm_ch"
  bottom: "key_conv_reshape_perm_ch"
  top: "energy_ch"
}
layer {
  name: "energy_ch_pool"
  type: "Pooling"
  bottom: "energy_ch"
  top: "energy_ch_pool"
  pooling_param {
    pool: MAX
    kernel_h: 1
    kernel_w: 512
    stride_h: 1
    stride_w: 512
  }
}
layer {
  name: "energy_ch_max"
  type: "Tile"
  bottom: "energy_ch_pool"
  top: "energy_ch_max"
  tile_param {
    axis: 3
    tiles: 512
  }
}
layer {
  name: "energy_ch_minus"
  type: "Power"
  bottom: "energy_ch"
  top: "energy_ch_minus"
  power_param {
    power: 1
    scale: -1
    shift: 0
  }
}
layer {
  name: "energy_new"
  type: "Eltwise"
  bottom: "energy_ch_max"
  bottom: "energy_ch_minus"
  top: "energy_new"
  eltwise_param {
    operation: SUM
  }
}
layer {
  name: "attention_ch"
  type: "Softmax"
  bottom: "energy_new"
  top: "attention_ch"
  softmax_param {
    axis: 3
  }
}
layer {
  name: "value_conv_reshape_ch_perm"
  type: "Permute"
  bottom: "value_conv_reshape_ch"
  top: "value_conv_reshape_ch_perm"
  permute_param {
    order: 0
    order: 3
    order: 1
    order: 2
  }
}
layer {
  name: "attention_ch_perm"
  type: "Permute"
  bottom: "attention_ch"
  top: "attention_ch_perm"
  permute_param {
    order: 0
    order: 1
    order: 2
    order: 3
  }
}
layer {
  name: "out_ch"
  type: "MatrixMultiplication"
  bottom: "attention_ch_perm"
  bottom: "value_conv_reshape_ch_perm"
  top: "out_ch"
}
layer {
  name: "out_ch_reshape"
  type: "Reshape"
  bottom: "out_ch"
  top: "out_ch_reshape"
  reshape_param {
    shape {
      dim: -1
      dim: 512
      dim: 30
      dim: 30
    }
  }
}
layer {
  name: "out_ch_reshape_scale"
  type: "Scale"
  bottom: "out_ch_reshape"
  top: "out_ch_reshape_scale"
  param {
    name: "scale_conv1_1"
    lr_mult: 1
  }
  scale_param {
    bias_term: false
  }
}
layer {
  name: "out_ch_x"
  type: "Eltwise"
  bottom: "out_ch_reshape_scale"
  bottom: "pool5_2_conv4_relu"
  top: "out_ch_x"
  eltwise_param {
    operation: SUM
  }
}
layer {
  name: "out_conv_ch_x"
  type: "Convolution"
  bottom: "out_ch_x"
  top: "out_conv_ch_x"
  param {
    lr_mult: 1
    decay_mult: 1
  }
  param {
    lr_mult: 2
    decay_mult: 0
  }
  convolution_param {
    num_output: 512
    pad: 0
    kernel_size: 1
    weight_filler {
      type: "gaussian"
      std: 0.01
    }
    bias_filler {
      type: "constant"
      value: 0
    }
  }
}
layer {
  name: "out_conv_x"
  type: "Convolution"
  bottom: "out_x"
  top: "out_conv_x"
  param {
    lr_mult: 1
    decay_mult: 1
  }
  param {
    lr_mult: 2
    decay_mult: 0
  }
  convolution_param {
    num_output: 512
    pad: 0
    kernel_size: 1
    weight_filler {
      type: "gaussian"
      std: 0.01
    }
    bias_filler {
      type: "constant"
      value: 0
    }
  }
}
layer {
  name: "out_x_sum"
  type: "Eltwise"
  bottom: "out_conv_x"
  bottom: "out_conv_ch_x"
  top: "out_x_sum"
  eltwise_param {
    operation: SUM
  }
}
layer {
  name: "mask_deconv2"
  type: "Deconvolution"
  bottom: "out_x_sum"
  top: "mask_deconv2"
  param {
    lr_mult: 1
    decay_mult: 1
  }
  param {
    lr_mult: 2
    decay_mult: 0
  }
  convolution_param {
    num_output: 256
    pad: 1
    kernel_size: 8
    group: 256
    stride: 4
    weight_filler {
      type: "bilinear"
    }
  }
}
layer {
  name: "pool5_2_conv5"
  type: "Convolution"
  bottom: "mask_deconv2"
  top: "pool5_2_conv5"
  param {
    lr_mult: 1
    decay_mult: 1
  }
  param {
    lr_mult: 2
    decay_mult: 0
  }
  convolution_param {
    num_output: 512
    pad: 1
    kernel_size: 3
    stride: 1
    weight_filler {
      type: "gaussian"
      std: 0.01
    }
    bias_filler {
      type: "constant"
      value: 0
    }
  }
}
layer {
  name: "pool5_2_conv5_relu"
  type: "ReLU"
  bottom: "pool5_2_conv5"
  top: "pool5_2_conv5_relu"
}
layer {
  name: "pool5_2_conv6"
  type: "Convolution"
  bottom: "pool5_2_conv5_relu"
  top: "pool5_2_conv6"
  param {
    lr_mult: 1
    decay_mult: 1
  }
  param {
    lr_mult: 2
    decay_mult: 0
  }
  convolution_param {
    num_output: 512
    pad: 1
    kernel_size: 3
    stride: 1
    weight_filler {
      type: "gaussian"
      std: 0.01
    }
    bias_filler {
      type: "constant"
      value: 0
    }
  }
}
layer {
  name: "pool5_2_conv6_relu"
  type: "ReLU"
  bottom: "pool5_2_conv6"
  top: "pool5_2_conv6_relu"
}
layer {
  name: "mask_deconv3"
  type: "Deconvolution"
  bottom: "pool5_2_conv6_relu"
  top: "mask_deconv3"
  param {
    lr_mult: 1
    decay_mult: 1
  }
  param {
    lr_mult: 2
    decay_mult: 0
  }
  convolution_param {
    num_output: 256
    pad: 1
    kernel_size: 4
    group: 256
    stride: 2
    weight_filler {
      type: "bilinear"
    }
  }
}
layer {
  name: "mask_score"
  type: "Convolution"
  bottom: "mask_deconv3"
  top: "mask_score"
  param {
    lr_mult: 1
    decay_mult: 1
  }
  param {
    lr_mult: 2
    decay_mult: 0
  }
  convolution_param {
    num_output: 8
    pad: 0
    kernel_size: 1
    weight_filler {
      type: "gaussian"
      std: 0.01
    }
    bias_filler {
      type: "constant"
      value: 0
    }
  }
}
layer {
  name: "loss_mask"
  type: "SoftmaxWithLoss"
  bottom: "mask_score"
  bottom: "mask_targets"
  top: "loss_mask"
  loss_weight: 3
  propagate_down: true
  propagate_down: false
  loss_param {
    ignore_label: -1
    normalize: true
  }
}
I0605 11:57:28.488888 31520 layer_factory.hpp:77] Creating layer input-data
I0605 11:57:28.517318 31520 net.cpp:106] Creating Layer input-data
I0605 11:57:28.517334 31520 net.cpp:411] input-data -> data
I0605 11:57:28.517343 31520 net.cpp:411] input-data -> im_info
I0605 11:57:28.517349 31520 net.cpp:411] input-data -> gt_boxes
I0605 11:57:28.517354 31520 net.cpp:411] input-data -> seg_mask_inds
I0605 11:57:28.517356 31520 net.cpp:411] input-data -> flipped
RoiDataLayer: name_to_top: {'gt_boxes': 2, 'data': 0, 'seg_mask_inds': 3, 'im_info': 1, 'flipped': 4}
I0605 11:57:28.548929 31520 net.cpp:150] Setting up input-data
I0605 11:57:28.548944 31520 net.cpp:157] Top shape: 1 3 600 1000 (1800000)
I0605 11:57:28.548949 31520 net.cpp:157] Top shape: 1 3 (3)
I0605 11:57:28.548951 31520 net.cpp:157] Top shape: 1 4 (4)
I0605 11:57:28.548954 31520 net.cpp:157] Top shape: 1 2 (2)
I0605 11:57:28.548957 31520 net.cpp:157] Top shape: 1 1 (1)
I0605 11:57:28.548960 31520 net.cpp:165] Memory required for data: 7200040
I0605 11:57:28.548965 31520 layer_factory.hpp:77] Creating layer data_input-data_0_split
I0605 11:57:28.548979 31520 net.cpp:106] Creating Layer data_input-data_0_split
I0605 11:57:28.548982 31520 net.cpp:454] data_input-data_0_split <- data
I0605 11:57:28.548987 31520 net.cpp:411] data_input-data_0_split -> data_input-data_0_split_0
I0605 11:57:28.548995 31520 net.cpp:411] data_input-data_0_split -> data_input-data_0_split_1
I0605 11:57:28.549015 31520 net.cpp:150] Setting up data_input-data_0_split
I0605 11:57:28.549021 31520 net.cpp:157] Top shape: 1 3 600 1000 (1800000)
I0605 11:57:28.549023 31520 net.cpp:157] Top shape: 1 3 600 1000 (1800000)
I0605 11:57:28.549026 31520 net.cpp:165] Memory required for data: 21600040
I0605 11:57:28.549028 31520 layer_factory.hpp:77] Creating layer im_info_input-data_1_split
I0605 11:57:28.549033 31520 net.cpp:106] Creating Layer im_info_input-data_1_split
I0605 11:57:28.549036 31520 net.cpp:454] im_info_input-data_1_split <- im_info
I0605 11:57:28.549039 31520 net.cpp:411] im_info_input-data_1_split -> im_info_input-data_1_split_0
I0605 11:57:28.549044 31520 net.cpp:411] im_info_input-data_1_split -> im_info_input-data_1_split_1
I0605 11:57:28.549048 31520 net.cpp:411] im_info_input-data_1_split -> im_info_input-data_1_split_2
I0605 11:57:28.549073 31520 net.cpp:150] Setting up im_info_input-data_1_split
I0605 11:57:28.549077 31520 net.cpp:157] Top shape: 1 3 (3)
I0605 11:57:28.549080 31520 net.cpp:157] Top shape: 1 3 (3)
I0605 11:57:28.549083 31520 net.cpp:157] Top shape: 1 3 (3)
I0605 11:57:28.549085 31520 net.cpp:165] Memory required for data: 21600076
I0605 11:57:28.549088 31520 layer_factory.hpp:77] Creating layer gt_boxes_input-data_2_split
I0605 11:57:28.549091 31520 net.cpp:106] Creating Layer gt_boxes_input-data_2_split
I0605 11:57:28.549093 31520 net.cpp:454] gt_boxes_input-data_2_split <- gt_boxes
I0605 11:57:28.549098 31520 net.cpp:411] gt_boxes_input-data_2_split -> gt_boxes_input-data_2_split_0
I0605 11:57:28.549100 31520 net.cpp:411] gt_boxes_input-data_2_split -> gt_boxes_input-data_2_split_1
I0605 11:57:28.549118 31520 net.cpp:150] Setting up gt_boxes_input-data_2_split
I0605 11:57:28.549121 31520 net.cpp:157] Top shape: 1 4 (4)
I0605 11:57:28.549124 31520 net.cpp:157] Top shape: 1 4 (4)
I0605 11:57:28.549126 31520 net.cpp:165] Memory required for data: 21600108
I0605 11:57:28.549129 31520 layer_factory.hpp:77] Creating layer conv1_1
I0605 11:57:28.549135 31520 net.cpp:106] Creating Layer conv1_1
I0605 11:57:28.549139 31520 net.cpp:454] conv1_1 <- data_input-data_0_split_0
I0605 11:57:28.549141 31520 net.cpp:411] conv1_1 -> conv1_1
I0605 11:57:28.774160 31520 net.cpp:150] Setting up conv1_1
I0605 11:57:28.774179 31520 net.cpp:157] Top shape: 1 64 600 1000 (38400000)
I0605 11:57:28.774183 31520 net.cpp:165] Memory required for data: 175200108
I0605 11:57:28.774204 31520 layer_factory.hpp:77] Creating layer relu1_1
I0605 11:57:28.774224 31520 net.cpp:106] Creating Layer relu1_1
I0605 11:57:28.774228 31520 net.cpp:454] relu1_1 <- conv1_1
I0605 11:57:28.774233 31520 net.cpp:397] relu1_1 -> conv1_1 (in-place)
I0605 11:57:28.774394 31520 net.cpp:150] Setting up relu1_1
I0605 11:57:28.774403 31520 net.cpp:157] Top shape: 1 64 600 1000 (38400000)
I0605 11:57:28.774416 31520 net.cpp:165] Memory required for data: 328800108
I0605 11:57:28.774420 31520 layer_factory.hpp:77] Creating layer conv1_2
I0605 11:57:28.774428 31520 net.cpp:106] Creating Layer conv1_2
I0605 11:57:28.774431 31520 net.cpp:454] conv1_2 <- conv1_1
I0605 11:57:28.774435 31520 net.cpp:411] conv1_2 -> conv1_2
I0605 11:57:28.776993 31520 net.cpp:150] Setting up conv1_2
I0605 11:57:28.777005 31520 net.cpp:157] Top shape: 1 64 600 1000 (38400000)
I0605 11:57:28.777009 31520 net.cpp:165] Memory required for data: 482400108
I0605 11:57:28.777016 31520 layer_factory.hpp:77] Creating layer relu1_2
I0605 11:57:28.777022 31520 net.cpp:106] Creating Layer relu1_2
I0605 11:57:28.777036 31520 net.cpp:454] relu1_2 <- conv1_2
I0605 11:57:28.777040 31520 net.cpp:397] relu1_2 -> conv1_2 (in-place)
I0605 11:57:28.777173 31520 net.cpp:150] Setting up relu1_2
I0605 11:57:28.777179 31520 net.cpp:157] Top shape: 1 64 600 1000 (38400000)
I0605 11:57:28.777192 31520 net.cpp:165] Memory required for data: 636000108
I0605 11:57:28.777195 31520 layer_factory.hpp:77] Creating layer pool1
I0605 11:57:28.777204 31520 net.cpp:106] Creating Layer pool1
I0605 11:57:28.777215 31520 net.cpp:454] pool1 <- conv1_2
I0605 11:57:28.777220 31520 net.cpp:411] pool1 -> pool1
I0605 11:57:28.777285 31520 net.cpp:150] Setting up pool1
I0605 11:57:28.777289 31520 net.cpp:157] Top shape: 1 64 300 500 (9600000)
I0605 11:57:28.777302 31520 net.cpp:165] Memory required for data: 674400108
I0605 11:57:28.777304 31520 layer_factory.hpp:77] Creating layer conv2_1
I0605 11:57:28.777310 31520 net.cpp:106] Creating Layer conv2_1
I0605 11:57:28.777323 31520 net.cpp:454] conv2_1 <- pool1
I0605 11:57:28.777326 31520 net.cpp:411] conv2_1 -> conv2_1
I0605 11:57:28.783910 31520 net.cpp:150] Setting up conv2_1
I0605 11:57:28.783919 31520 net.cpp:157] Top shape: 1 128 300 500 (19200000)
I0605 11:57:28.783922 31520 net.cpp:165] Memory required for data: 751200108
I0605 11:57:28.783929 31520 layer_factory.hpp:77] Creating layer relu2_1
I0605 11:57:28.783936 31520 net.cpp:106] Creating Layer relu2_1
I0605 11:57:28.783938 31520 net.cpp:454] relu2_1 <- conv2_1
I0605 11:57:28.783951 31520 net.cpp:397] relu2_1 -> conv2_1 (in-place)
I0605 11:57:28.784452 31520 net.cpp:150] Setting up relu2_1
I0605 11:57:28.784469 31520 net.cpp:157] Top shape: 1 128 300 500 (19200000)
I0605 11:57:28.784482 31520 net.cpp:165] Memory required for data: 828000108
I0605 11:57:28.784485 31520 layer_factory.hpp:77] Creating layer conv2_2
I0605 11:57:28.784492 31520 net.cpp:106] Creating Layer conv2_2
I0605 11:57:28.784495 31520 net.cpp:454] conv2_2 <- conv2_1
I0605 11:57:28.784499 31520 net.cpp:411] conv2_2 -> conv2_2
I0605 11:57:28.786018 31520 net.cpp:150] Setting up conv2_2
I0605 11:57:28.786026 31520 net.cpp:157] Top shape: 1 128 300 500 (19200000)
I0605 11:57:28.786029 31520 net.cpp:165] Memory required for data: 904800108
I0605 11:57:28.786036 31520 layer_factory.hpp:77] Creating layer relu2_2
I0605 11:57:28.786041 31520 net.cpp:106] Creating Layer relu2_2
I0605 11:57:28.786043 31520 net.cpp:454] relu2_2 <- conv2_2
I0605 11:57:28.786057 31520 net.cpp:397] relu2_2 -> conv2_2 (in-place)
I0605 11:57:28.786173 31520 net.cpp:150] Setting up relu2_2
I0605 11:57:28.786180 31520 net.cpp:157] Top shape: 1 128 300 500 (19200000)
I0605 11:57:28.786181 31520 net.cpp:165] Memory required for data: 981600108
I0605 11:57:28.786183 31520 layer_factory.hpp:77] Creating layer pool2
I0605 11:57:28.786188 31520 net.cpp:106] Creating Layer pool2
I0605 11:57:28.786190 31520 net.cpp:454] pool2 <- conv2_2
I0605 11:57:28.786195 31520 net.cpp:411] pool2 -> pool2
I0605 11:57:28.786240 31520 net.cpp:150] Setting up pool2
I0605 11:57:28.786244 31520 net.cpp:157] Top shape: 1 128 150 250 (4800000)
I0605 11:57:28.786257 31520 net.cpp:165] Memory required for data: 1000800108
I0605 11:57:28.786259 31520 layer_factory.hpp:77] Creating layer conv3_1
I0605 11:57:28.786264 31520 net.cpp:106] Creating Layer conv3_1
I0605 11:57:28.786267 31520 net.cpp:454] conv3_1 <- pool2
I0605 11:57:28.786280 31520 net.cpp:411] conv3_1 -> conv3_1
I0605 11:57:28.788251 31520 net.cpp:150] Setting up conv3_1
I0605 11:57:28.788260 31520 net.cpp:157] Top shape: 1 256 150 250 (9600000)
I0605 11:57:28.788272 31520 net.cpp:165] Memory required for data: 1039200108
I0605 11:57:28.788280 31520 layer_factory.hpp:77] Creating layer relu3_1
I0605 11:57:28.788295 31520 net.cpp:106] Creating Layer relu3_1
I0605 11:57:28.788300 31520 net.cpp:454] relu3_1 <- conv3_1
I0605 11:57:28.788302 31520 net.cpp:397] relu3_1 -> conv3_1 (in-place)
I0605 11:57:28.788437 31520 net.cpp:150] Setting up relu3_1
I0605 11:57:28.788442 31520 net.cpp:157] Top shape: 1 256 150 250 (9600000)
I0605 11:57:28.788455 31520 net.cpp:165] Memory required for data: 1077600108
I0605 11:57:28.788456 31520 layer_factory.hpp:77] Creating layer conv3_2
I0605 11:57:28.788475 31520 net.cpp:106] Creating Layer conv3_2
I0605 11:57:28.788478 31520 net.cpp:454] conv3_2 <- conv3_1
I0605 11:57:28.788482 31520 net.cpp:411] conv3_2 -> conv3_2
I0605 11:57:28.790803 31520 net.cpp:150] Setting up conv3_2
I0605 11:57:28.790813 31520 net.cpp:157] Top shape: 1 256 150 250 (9600000)
I0605 11:57:28.790815 31520 net.cpp:165] Memory required for data: 1116000108
I0605 11:57:28.790820 31520 layer_factory.hpp:77] Creating layer relu3_2
I0605 11:57:28.790825 31520 net.cpp:106] Creating Layer relu3_2
I0605 11:57:28.790838 31520 net.cpp:454] relu3_2 <- conv3_2
I0605 11:57:28.790843 31520 net.cpp:397] relu3_2 -> conv3_2 (in-place)
I0605 11:57:28.790987 31520 net.cpp:150] Setting up relu3_2
I0605 11:57:28.790992 31520 net.cpp:157] Top shape: 1 256 150 250 (9600000)
I0605 11:57:28.790994 31520 net.cpp:165] Memory required for data: 1154400108
I0605 11:57:28.790997 31520 layer_factory.hpp:77] Creating layer conv3_3
I0605 11:57:28.791002 31520 net.cpp:106] Creating Layer conv3_3
I0605 11:57:28.791005 31520 net.cpp:454] conv3_3 <- conv3_2
I0605 11:57:28.791019 31520 net.cpp:411] conv3_3 -> conv3_3
I0605 11:57:28.793045 31520 net.cpp:150] Setting up conv3_3
I0605 11:57:28.793054 31520 net.cpp:157] Top shape: 1 256 150 250 (9600000)
I0605 11:57:28.793056 31520 net.cpp:165] Memory required for data: 1192800108
I0605 11:57:28.793061 31520 layer_factory.hpp:77] Creating layer relu3_3
I0605 11:57:28.793066 31520 net.cpp:106] Creating Layer relu3_3
I0605 11:57:28.793069 31520 net.cpp:454] relu3_3 <- conv3_3
I0605 11:57:28.793073 31520 net.cpp:397] relu3_3 -> conv3_3 (in-place)
I0605 11:57:28.793211 31520 net.cpp:150] Setting up relu3_3
I0605 11:57:28.793217 31520 net.cpp:157] Top shape: 1 256 150 250 (9600000)
I0605 11:57:28.793220 31520 net.cpp:165] Memory required for data: 1231200108
I0605 11:57:28.793221 31520 layer_factory.hpp:77] Creating layer pool3
I0605 11:57:28.793228 31520 net.cpp:106] Creating Layer pool3
I0605 11:57:28.793231 31520 net.cpp:454] pool3 <- conv3_3
I0605 11:57:28.793244 31520 net.cpp:411] pool3 -> pool3
I0605 11:57:28.793284 31520 net.cpp:150] Setting up pool3
I0605 11:57:28.793288 31520 net.cpp:157] Top shape: 1 256 75 125 (2400000)
I0605 11:57:28.793292 31520 net.cpp:165] Memory required for data: 1240800108
I0605 11:57:28.793295 31520 layer_factory.hpp:77] Creating layer conv4_1
I0605 11:57:28.793303 31520 net.cpp:106] Creating Layer conv4_1
I0605 11:57:28.793306 31520 net.cpp:454] conv4_1 <- pool3
I0605 11:57:28.793310 31520 net.cpp:411] conv4_1 -> conv4_1
I0605 11:57:28.797009 31520 net.cpp:150] Setting up conv4_1
I0605 11:57:28.797029 31520 net.cpp:157] Top shape: 1 512 75 125 (4800000)
I0605 11:57:28.797031 31520 net.cpp:165] Memory required for data: 1260000108
I0605 11:57:28.797039 31520 layer_factory.hpp:77] Creating layer relu4_1
I0605 11:57:28.797047 31520 net.cpp:106] Creating Layer relu4_1
I0605 11:57:28.797051 31520 net.cpp:454] relu4_1 <- conv4_1
I0605 11:57:28.797056 31520 net.cpp:397] relu4_1 -> conv4_1 (in-place)
I0605 11:57:28.797204 31520 net.cpp:150] Setting up relu4_1
I0605 11:57:28.797210 31520 net.cpp:157] Top shape: 1 512 75 125 (4800000)
I0605 11:57:28.797212 31520 net.cpp:165] Memory required for data: 1279200108
I0605 11:57:28.797215 31520 layer_factory.hpp:77] Creating layer conv4_2
I0605 11:57:28.797233 31520 net.cpp:106] Creating Layer conv4_2
I0605 11:57:28.797248 31520 net.cpp:454] conv4_2 <- conv4_1
I0605 11:57:28.797253 31520 net.cpp:411] conv4_2 -> conv4_2
I0605 11:57:28.801990 31520 net.cpp:150] Setting up conv4_2
I0605 11:57:28.802018 31520 net.cpp:157] Top shape: 1 512 75 125 (4800000)
I0605 11:57:28.802021 31520 net.cpp:165] Memory required for data: 1298400108
I0605 11:57:28.802034 31520 layer_factory.hpp:77] Creating layer relu4_2
I0605 11:57:28.802052 31520 net.cpp:106] Creating Layer relu4_2
I0605 11:57:28.802058 31520 net.cpp:454] relu4_2 <- conv4_2
I0605 11:57:28.802067 31520 net.cpp:397] relu4_2 -> conv4_2 (in-place)
I0605 11:57:28.802564 31520 net.cpp:150] Setting up relu4_2
I0605 11:57:28.802572 31520 net.cpp:157] Top shape: 1 512 75 125 (4800000)
I0605 11:57:28.802585 31520 net.cpp:165] Memory required for data: 1317600108
I0605 11:57:28.802587 31520 layer_factory.hpp:77] Creating layer conv4_3
I0605 11:57:28.802605 31520 net.cpp:106] Creating Layer conv4_3
I0605 11:57:28.802608 31520 net.cpp:454] conv4_3 <- conv4_2
I0605 11:57:28.802613 31520 net.cpp:411] conv4_3 -> conv4_3
I0605 11:57:28.807271 31520 net.cpp:150] Setting up conv4_3
I0605 11:57:28.807291 31520 net.cpp:157] Top shape: 1 512 75 125 (4800000)
I0605 11:57:28.807293 31520 net.cpp:165] Memory required for data: 1336800108
I0605 11:57:28.807301 31520 layer_factory.hpp:77] Creating layer relu4_3
I0605 11:57:28.807309 31520 net.cpp:106] Creating Layer relu4_3
I0605 11:57:28.807324 31520 net.cpp:454] relu4_3 <- conv4_3
I0605 11:57:28.807329 31520 net.cpp:397] relu4_3 -> conv4_3 (in-place)
I0605 11:57:28.807473 31520 net.cpp:150] Setting up relu4_3
I0605 11:57:28.807479 31520 net.cpp:157] Top shape: 1 512 75 125 (4800000)
I0605 11:57:28.807482 31520 net.cpp:165] Memory required for data: 1356000108
I0605 11:57:28.807484 31520 layer_factory.hpp:77] Creating layer pool4
I0605 11:57:28.807490 31520 net.cpp:106] Creating Layer pool4
I0605 11:57:28.807492 31520 net.cpp:454] pool4 <- conv4_3
I0605 11:57:28.807495 31520 net.cpp:411] pool4 -> pool4
I0605 11:57:28.807554 31520 net.cpp:150] Setting up pool4
I0605 11:57:28.807559 31520 net.cpp:157] Top shape: 1 512 38 63 (1225728)
I0605 11:57:28.807569 31520 net.cpp:165] Memory required for data: 1360903020
I0605 11:57:28.807571 31520 layer_factory.hpp:77] Creating layer conv5_1
I0605 11:57:28.807588 31520 net.cpp:106] Creating Layer conv5_1
I0605 11:57:28.807591 31520 net.cpp:454] conv5_1 <- pool4
I0605 11:57:28.807595 31520 net.cpp:411] conv5_1 -> conv5_1
I0605 11:57:28.812083 31520 net.cpp:150] Setting up conv5_1
I0605 11:57:28.812105 31520 net.cpp:157] Top shape: 1 512 38 63 (1225728)
I0605 11:57:28.812108 31520 net.cpp:165] Memory required for data: 1365805932
I0605 11:57:28.812115 31520 layer_factory.hpp:77] Creating layer relu5_1
I0605 11:57:28.812124 31520 net.cpp:106] Creating Layer relu5_1
I0605 11:57:28.812137 31520 net.cpp:454] relu5_1 <- conv5_1
I0605 11:57:28.812144 31520 net.cpp:397] relu5_1 -> conv5_1 (in-place)
I0605 11:57:28.812289 31520 net.cpp:150] Setting up relu5_1
I0605 11:57:28.812295 31520 net.cpp:157] Top shape: 1 512 38 63 (1225728)
I0605 11:57:28.812297 31520 net.cpp:165] Memory required for data: 1370708844
I0605 11:57:28.812299 31520 layer_factory.hpp:77] Creating layer conv5_2
I0605 11:57:28.812307 31520 net.cpp:106] Creating Layer conv5_2
I0605 11:57:28.812309 31520 net.cpp:454] conv5_2 <- conv5_1
I0605 11:57:28.812325 31520 net.cpp:411] conv5_2 -> conv5_2
I0605 11:57:28.816627 31520 net.cpp:150] Setting up conv5_2
I0605 11:57:28.816648 31520 net.cpp:157] Top shape: 1 512 38 63 (1225728)
I0605 11:57:28.816651 31520 net.cpp:165] Memory required for data: 1375611756
I0605 11:57:28.816658 31520 layer_factory.hpp:77] Creating layer relu5_2
I0605 11:57:28.816668 31520 net.cpp:106] Creating Layer relu5_2
I0605 11:57:28.816671 31520 net.cpp:454] relu5_2 <- conv5_2
I0605 11:57:28.816676 31520 net.cpp:397] relu5_2 -> conv5_2 (in-place)
I0605 11:57:28.816809 31520 net.cpp:150] Setting up relu5_2
I0605 11:57:28.816817 31520 net.cpp:157] Top shape: 1 512 38 63 (1225728)
I0605 11:57:28.816818 31520 net.cpp:165] Memory required for data: 1380514668
I0605 11:57:28.816820 31520 layer_factory.hpp:77] Creating layer conv5_3
I0605 11:57:28.816830 31520 net.cpp:106] Creating Layer conv5_3
I0605 11:57:28.816833 31520 net.cpp:454] conv5_3 <- conv5_2
I0605 11:57:28.816838 31520 net.cpp:411] conv5_3 -> conv5_3
I0605 11:57:28.821269 31520 net.cpp:150] Setting up conv5_3
I0605 11:57:28.821290 31520 net.cpp:157] Top shape: 1 512 38 63 (1225728)
I0605 11:57:28.821293 31520 net.cpp:165] Memory required for data: 1385417580
I0605 11:57:28.821300 31520 layer_factory.hpp:77] Creating layer relu5_3
I0605 11:57:28.821310 31520 net.cpp:106] Creating Layer relu5_3
I0605 11:57:28.821313 31520 net.cpp:454] relu5_3 <- conv5_3
I0605 11:57:28.821318 31520 net.cpp:397] relu5_3 -> conv5_3 (in-place)
I0605 11:57:28.821458 31520 net.cpp:150] Setting up relu5_3
I0605 11:57:28.821466 31520 net.cpp:157] Top shape: 1 512 38 63 (1225728)
I0605 11:57:28.821468 31520 net.cpp:165] Memory required for data: 1390320492
I0605 11:57:28.821471 31520 layer_factory.hpp:77] Creating layer conv5_3_relu5_3_0_split
I0605 11:57:28.821476 31520 net.cpp:106] Creating Layer conv5_3_relu5_3_0_split
I0605 11:57:28.821478 31520 net.cpp:454] conv5_3_relu5_3_0_split <- conv5_3
I0605 11:57:28.821482 31520 net.cpp:411] conv5_3_relu5_3_0_split -> conv5_3_relu5_3_0_split_0
I0605 11:57:28.821486 31520 net.cpp:411] conv5_3_relu5_3_0_split -> conv5_3_relu5_3_0_split_1
I0605 11:57:28.821491 31520 net.cpp:411] conv5_3_relu5_3_0_split -> conv5_3_relu5_3_0_split_2
I0605 11:57:28.821527 31520 net.cpp:150] Setting up conv5_3_relu5_3_0_split
I0605 11:57:28.821533 31520 net.cpp:157] Top shape: 1 512 38 63 (1225728)
I0605 11:57:28.821537 31520 net.cpp:157] Top shape: 1 512 38 63 (1225728)
I0605 11:57:28.821538 31520 net.cpp:157] Top shape: 1 512 38 63 (1225728)
I0605 11:57:28.821540 31520 net.cpp:165] Memory required for data: 1405029228
I0605 11:57:28.821542 31520 layer_factory.hpp:77] Creating layer rpn_conv/3x3
I0605 11:57:28.821552 31520 net.cpp:106] Creating Layer rpn_conv/3x3
I0605 11:57:28.821555 31520 net.cpp:454] rpn_conv/3x3 <- conv5_3_relu5_3_0_split_0
I0605 11:57:28.821560 31520 net.cpp:411] rpn_conv/3x3 -> rpn/output
I0605 11:57:28.871830 31520 net.cpp:150] Setting up rpn_conv/3x3
I0605 11:57:28.871851 31520 net.cpp:157] Top shape: 1 512 38 63 (1225728)
I0605 11:57:28.871855 31520 net.cpp:165] Memory required for data: 1409932140
I0605 11:57:28.871861 31520 layer_factory.hpp:77] Creating layer rpn_relu/3x3
I0605 11:57:28.871868 31520 net.cpp:106] Creating Layer rpn_relu/3x3
I0605 11:57:28.871882 31520 net.cpp:454] rpn_relu/3x3 <- rpn/output
I0605 11:57:28.871887 31520 net.cpp:397] rpn_relu/3x3 -> rpn/output (in-place)
I0605 11:57:28.872030 31520 net.cpp:150] Setting up rpn_relu/3x3
I0605 11:57:28.872036 31520 net.cpp:157] Top shape: 1 512 38 63 (1225728)
I0605 11:57:28.872038 31520 net.cpp:165] Memory required for data: 1414835052
I0605 11:57:28.872041 31520 layer_factory.hpp:77] Creating layer rpn/output_rpn_relu/3x3_0_split
I0605 11:57:28.872046 31520 net.cpp:106] Creating Layer rpn/output_rpn_relu/3x3_0_split
I0605 11:57:28.872048 31520 net.cpp:454] rpn/output_rpn_relu/3x3_0_split <- rpn/output
I0605 11:57:28.872051 31520 net.cpp:411] rpn/output_rpn_relu/3x3_0_split -> rpn/output_rpn_relu/3x3_0_split_0
I0605 11:57:28.872056 31520 net.cpp:411] rpn/output_rpn_relu/3x3_0_split -> rpn/output_rpn_relu/3x3_0_split_1
I0605 11:57:28.872112 31520 net.cpp:150] Setting up rpn/output_rpn_relu/3x3_0_split
I0605 11:57:28.872117 31520 net.cpp:157] Top shape: 1 512 38 63 (1225728)
I0605 11:57:28.872128 31520 net.cpp:157] Top shape: 1 512 38 63 (1225728)
I0605 11:57:28.872130 31520 net.cpp:165] Memory required for data: 1424640876
I0605 11:57:28.872133 31520 layer_factory.hpp:77] Creating layer rpn_cls_score
I0605 11:57:28.872151 31520 net.cpp:106] Creating Layer rpn_cls_score
I0605 11:57:28.872153 31520 net.cpp:454] rpn_cls_score <- rpn/output_rpn_relu/3x3_0_split_0
I0605 11:57:28.872159 31520 net.cpp:411] rpn_cls_score -> rpn_cls_score
I0605 11:57:28.873765 31520 net.cpp:150] Setting up rpn_cls_score
I0605 11:57:28.873773 31520 net.cpp:157] Top shape: 1 30 38 63 (71820)
I0605 11:57:28.873776 31520 net.cpp:165] Memory required for data: 1424928156
I0605 11:57:28.873780 31520 layer_factory.hpp:77] Creating layer rpn_cls_score_rpn_cls_score_0_split
I0605 11:57:28.873785 31520 net.cpp:106] Creating Layer rpn_cls_score_rpn_cls_score_0_split
I0605 11:57:28.873788 31520 net.cpp:454] rpn_cls_score_rpn_cls_score_0_split <- rpn_cls_score
I0605 11:57:28.873792 31520 net.cpp:411] rpn_cls_score_rpn_cls_score_0_split -> rpn_cls_score_rpn_cls_score_0_split_0
I0605 11:57:28.873796 31520 net.cpp:411] rpn_cls_score_rpn_cls_score_0_split -> rpn_cls_score_rpn_cls_score_0_split_1
I0605 11:57:28.873843 31520 net.cpp:150] Setting up rpn_cls_score_rpn_cls_score_0_split
I0605 11:57:28.873848 31520 net.cpp:157] Top shape: 1 30 38 63 (71820)
I0605 11:57:28.873850 31520 net.cpp:157] Top shape: 1 30 38 63 (71820)
I0605 11:57:28.873852 31520 net.cpp:165] Memory required for data: 1425502716
I0605 11:57:28.873855 31520 layer_factory.hpp:77] Creating layer rpn_bbox_pred
I0605 11:57:28.873862 31520 net.cpp:106] Creating Layer rpn_bbox_pred
I0605 11:57:28.873864 31520 net.cpp:454] rpn_bbox_pred <- rpn/output_rpn_relu/3x3_0_split_1
I0605 11:57:28.873883 31520 net.cpp:411] rpn_bbox_pred -> rpn_bbox_pred
I0605 11:57:28.875388 31520 net.cpp:150] Setting up rpn_bbox_pred
I0605 11:57:28.875396 31520 net.cpp:157] Top shape: 1 60 38 63 (143640)
I0605 11:57:28.875398 31520 net.cpp:165] Memory required for data: 1426077276
I0605 11:57:28.875403 31520 layer_factory.hpp:77] Creating layer rpn_bbox_pred_rpn_bbox_pred_0_split
I0605 11:57:28.875407 31520 net.cpp:106] Creating Layer rpn_bbox_pred_rpn_bbox_pred_0_split
I0605 11:57:28.875411 31520 net.cpp:454] rpn_bbox_pred_rpn_bbox_pred_0_split <- rpn_bbox_pred
I0605 11:57:28.875414 31520 net.cpp:411] rpn_bbox_pred_rpn_bbox_pred_0_split -> rpn_bbox_pred_rpn_bbox_pred_0_split_0
I0605 11:57:28.875429 31520 net.cpp:411] rpn_bbox_pred_rpn_bbox_pred_0_split -> rpn_bbox_pred_rpn_bbox_pred_0_split_1
I0605 11:57:28.875475 31520 net.cpp:150] Setting up rpn_bbox_pred_rpn_bbox_pred_0_split
I0605 11:57:28.875479 31520 net.cpp:157] Top shape: 1 60 38 63 (143640)
I0605 11:57:28.875492 31520 net.cpp:157] Top shape: 1 60 38 63 (143640)
I0605 11:57:28.875495 31520 net.cpp:165] Memory required for data: 1427226396
I0605 11:57:28.875497 31520 layer_factory.hpp:77] Creating layer rpn_cls_score_reshape
I0605 11:57:28.875516 31520 net.cpp:106] Creating Layer rpn_cls_score_reshape
I0605 11:57:28.875519 31520 net.cpp:454] rpn_cls_score_reshape <- rpn_cls_score_rpn_cls_score_0_split_0
I0605 11:57:28.875524 31520 net.cpp:411] rpn_cls_score_reshape -> rpn_cls_score_reshape
I0605 11:57:28.875545 31520 net.cpp:150] Setting up rpn_cls_score_reshape
I0605 11:57:28.875558 31520 net.cpp:157] Top shape: 1 2 570 63 (71820)
I0605 11:57:28.875560 31520 net.cpp:165] Memory required for data: 1427513676
I0605 11:57:28.875562 31520 layer_factory.hpp:77] Creating layer rpn_cls_score_reshape_rpn_cls_score_reshape_0_split
I0605 11:57:28.875576 31520 net.cpp:106] Creating Layer rpn_cls_score_reshape_rpn_cls_score_reshape_0_split
I0605 11:57:28.875578 31520 net.cpp:454] rpn_cls_score_reshape_rpn_cls_score_reshape_0_split <- rpn_cls_score_reshape
I0605 11:57:28.875582 31520 net.cpp:411] rpn_cls_score_reshape_rpn_cls_score_reshape_0_split -> rpn_cls_score_reshape_rpn_cls_score_reshape_0_split_0
I0605 11:57:28.875597 31520 net.cpp:411] rpn_cls_score_reshape_rpn_cls_score_reshape_0_split -> rpn_cls_score_reshape_rpn_cls_score_reshape_0_split_1
I0605 11:57:28.875635 31520 net.cpp:150] Setting up rpn_cls_score_reshape_rpn_cls_score_reshape_0_split
I0605 11:57:28.875639 31520 net.cpp:157] Top shape: 1 2 570 63 (71820)
I0605 11:57:28.875653 31520 net.cpp:157] Top shape: 1 2 570 63 (71820)
I0605 11:57:28.875654 31520 net.cpp:165] Memory required for data: 1428088236
I0605 11:57:28.875656 31520 layer_factory.hpp:77] Creating layer rpn-data
I0605 11:57:28.876567 31520 net.cpp:106] Creating Layer rpn-data
I0605 11:57:28.876574 31520 net.cpp:454] rpn-data <- rpn_cls_score_rpn_cls_score_0_split_1
I0605 11:57:28.876579 31520 net.cpp:454] rpn-data <- gt_boxes_input-data_2_split_0
I0605 11:57:28.876582 31520 net.cpp:454] rpn-data <- im_info_input-data_1_split_0
I0605 11:57:28.876586 31520 net.cpp:454] rpn-data <- data_input-data_0_split_1
I0605 11:57:28.876590 31520 net.cpp:411] rpn-data -> rpn_labels
I0605 11:57:28.876595 31520 net.cpp:411] rpn-data -> rpn_bbox_targets
I0605 11:57:28.876600 31520 net.cpp:411] rpn-data -> rpn_bbox_inside_weights
I0605 11:57:28.876606 31520 net.cpp:411] rpn-data -> rpn_bbox_outside_weights
===================================anchor_scales in AnchorTargetLayer:=============(2, 4, 8, 16, 32)
I0605 11:57:28.877465 31520 net.cpp:150] Setting up rpn-data
I0605 11:57:28.877473 31520 net.cpp:157] Top shape: 1 1 570 63 (35910)
I0605 11:57:28.877476 31520 net.cpp:157] Top shape: 1 60 38 63 (143640)
I0605 11:57:28.877478 31520 net.cpp:157] Top shape: 1 60 38 63 (143640)
I0605 11:57:28.877480 31520 net.cpp:157] Top shape: 1 60 38 63 (143640)
I0605 11:57:28.877483 31520 net.cpp:165] Memory required for data: 1429955556
I0605 11:57:28.877485 31520 layer_factory.hpp:77] Creating layer rpn_loss_cls
I0605 11:57:28.877491 31520 net.cpp:106] Creating Layer rpn_loss_cls
I0605 11:57:28.877494 31520 net.cpp:454] rpn_loss_cls <- rpn_cls_score_reshape_rpn_cls_score_reshape_0_split_0
I0605 11:57:28.877497 31520 net.cpp:454] rpn_loss_cls <- rpn_labels
…
I0605 11:57:28.879215 31520 net.cpp:157] Top shape: (1)
I0605 11:57:28.879217 31520 net.cpp:160]     with loss weight 1
I0605 11:57:28.879220 31520 net.cpp:165] Memory required for data: 1429955564
I0605 11:57:28.879223 31520 layer_factory.hpp:77] Creating layer rpn_cls_prob
I0605 11:57:28.879230 31520 net.cpp:106] Creating Layer rpn_cls_prob
I0605 11:57:28.879231 31520 net.cpp:454] rpn_cls_prob <- rpn_cls_score_reshape_rpn_cls_score_reshape_0_split_1
I0605 11:57:28.879235 31520 net.cpp:411] rpn_cls_prob -> rpn_cls_prob
I0605 11:57:28.879390 31520 net.cpp:150] Setting up rpn_cls_prob
I0605 11:57:28.879396 31520 net.cpp:157] Top shape: 1 2 570 63 (71820)
I0605 11:57:28.879398 31520 net.cpp:165] Memory required for data: 1430242844
I0605 11:57:28.879400 31520 layer_factory.hpp:77] Creating layer rpn_cls_prob_reshape
I0605 11:57:28.879405 31520 net.cpp:106] Creating Layer rpn_cls_prob_reshape
I0605 11:57:28.879408 31520 net.cpp:454] rpn_cls_prob_reshape <- rpn_cls_prob
I0605 11:57:28.879411 31520 net.cpp:411] rpn_cls_prob_reshape -> rpn_cls_prob_reshape
I0605 11:57:28.879428 31520 net.cpp:150] Setting up rpn_cls_prob_reshape
I0605 11:57:28.879432 31520 net.cpp:157] Top shape: 1 30 38 63 (71820)
I0605 11:57:28.879434 31520 net.cpp:165] Memory required for data: 1430530124
I0605 11:57:28.879436 31520 layer_factory.hpp:77] Creating layer proposal
I0605 11:57:28.881408 31520 net.cpp:106] Creating Layer proposal
I0605 11:57:28.881428 31520 net.cpp:454] proposal <- rpn_cls_prob_reshape
I0605 11:57:28.881433 31520 net.cpp:454] proposal <- rpn_bbox_pred_rpn_bbox_pred_0_split_1
I0605 11:57:28.881435 31520 net.cpp:454] proposal <- im_info_input-data_1_split_1
I0605 11:57:28.881439 31520 net.cpp:411] proposal -> rpn_rois
=================================anchor_scales in ProposalLayer:=============(2, 4, 8, 16, 32)
I0605 11:57:28.882405 31520 net.cpp:150] Setting up proposal
I0605 11:57:28.882413 31520 net.cpp:157] Top shape: 1 5 (5)
I0605 11:57:28.882416 31520 net.cpp:165] Memory required for data: 1430530144
I0605 11:57:28.882418 31520 layer_factory.hpp:77] Creating layer roi-data
I0605 11:57:28.884611 31520 net.cpp:106] Creating Layer roi-data
I0605 11:57:28.884621 31520 net.cpp:454] roi-data <- rpn_rois
I0605 11:57:28.884626 31520 net.cpp:454] roi-data <- gt_boxes_input-data_2_split_1
I0605 11:57:28.884630 31520 net.cpp:454] roi-data <- im_info_input-data_1_split_2
I0605 11:57:28.884634 31520 net.cpp:454] roi-data <- seg_mask_inds
I0605 11:57:28.884637 31520 net.cpp:454] roi-data <- flipped
I0605 11:57:28.884652 31520 net.cpp:411] roi-data -> rois
I0605 11:57:28.884673 31520 net.cpp:411] roi-data -> labels
I0605 11:57:28.884680 31520 net.cpp:411] roi-data -> bbox_targets
I0605 11:57:28.884688 31520 net.cpp:411] roi-data -> bbox_inside_weights
I0605 11:57:28.884696 31520 net.cpp:411] roi-data -> bbox_outside_weights
I0605 11:57:28.884701 31520 net.cpp:411] roi-data -> mask_targets
I0605 11:57:28.884708 31520 net.cpp:411] roi-data -> rois_pos
I0605 11:57:28.885187 31520 net.cpp:150] Setting up roi-data
I0605 11:57:28.885197 31520 net.cpp:157] Top shape: 1 5 (5)
I0605 11:57:28.885210 31520 net.cpp:157] Top shape: 1 1 (1)
I0605 11:57:28.885212 31520 net.cpp:157] Top shape: 1 8 (8)
I0605 11:57:28.885215 31520 net.cpp:157] Top shape: 1 8 (8)
I0605 11:57:28.885217 31520 net.cpp:157] Top shape: 1 8 (8)
I0605 11:57:28.885221 31520 net.cpp:157] Top shape: 1 244 244 (59536)
I0605 11:57:28.885222 31520 net.cpp:157] Top shape: 1 5 (5)
I0605 11:57:28.885224 31520 net.cpp:165] Memory required for data: 1430768428
I0605 11:57:28.885227 31520 layer_factory.hpp:77] Creating layer roi_pool5
I0605 11:57:28.885238 31520 net.cpp:106] Creating Layer roi_pool5
I0605 11:57:28.885241 31520 net.cpp:454] roi_pool5 <- conv5_3_relu5_3_0_split_1
I0605 11:57:28.885246 31520 net.cpp:454] roi_pool5 <- rois
I0605 11:57:28.885249 31520 net.cpp:411] roi_pool5 -> pool5
I0605 11:57:28.885255 31520 roi_alignment_layer.cpp:32] Spatial scale: 0.0625
I0605 11:57:28.885334 31520 net.cpp:150] Setting up roi_pool5
I0605 11:57:28.885337 31520 net.cpp:157] Top shape: 1 512 7 7 (25088)
I0605 11:57:28.885349 31520 net.cpp:165] Memory required for data: 1430868780
I0605 11:57:28.885352 31520 layer_factory.hpp:77] Creating layer fc6
I0605 11:57:28.885356 31520 net.cpp:106] Creating Layer fc6
I0605 11:57:28.885360 31520 net.cpp:454] fc6 <- pool5
I0605 11:57:28.885365 31520 net.cpp:411] fc6 -> fc6
I0605 11:57:29.032660 31520 net.cpp:150] Setting up fc6
I0605 11:57:29.032685 31520 net.cpp:157] Top shape: 1 4096 (4096)
I0605 11:57:29.032690 31520 net.cpp:165] Memory required for data: 1430885164
I0605 11:57:29.032714 31520 layer_factory.hpp:77] Creating layer relu6
I0605 11:57:29.032724 31520 net.cpp:106] Creating Layer relu6
I0605 11:57:29.032740 31520 net.cpp:454] relu6 <- fc6
I0605 11:57:29.032747 31520 net.cpp:397] relu6 -> fc6 (in-place)
I0605 11:57:29.032959 31520 net.cpp:150] Setting up relu6
I0605 11:57:29.032968 31520 net.cpp:157] Top shape: 1 4096 (4096)
I0605 11:57:29.032969 31520 net.cpp:165] Memory required for data: 1430901548
I0605 11:57:29.032972 31520 layer_factory.hpp:77] Creating layer fc7
I0605 11:57:29.032979 31520 net.cpp:106] Creating Layer fc7
I0605 11:57:29.032981 31520 net.cpp:454] fc7 <- fc6
I0605 11:57:29.032995 31520 net.cpp:411] fc7 -> fc7
I0605 11:57:29.056787 31520 net.cpp:150] Setting up fc7
I0605 11:57:29.056813 31520 net.cpp:157] Top shape: 1 4096 (4096)
I0605 11:57:29.056816 31520 net.cpp:165] Memory required for data: 1430917932
I0605 11:57:29.056825 31520 layer_factory.hpp:77] Creating layer relu7
I0605 11:57:29.056833 31520 net.cpp:106] Creating Layer relu7
I0605 11:57:29.056849 31520 net.cpp:454] relu7 <- fc7
I0605 11:57:29.056855 31520 net.cpp:397] relu7 -> fc7 (in-place)
I0605 11:57:29.057071 31520 net.cpp:150] Setting up relu7
I0605 11:57:29.057080 31520 net.cpp:157] Top shape: 1 4096 (4096)
I0605 11:57:29.057082 31520 net.cpp:165] Memory required for data: 1430934316
I0605 11:57:29.057085 31520 layer_factory.hpp:77] Creating layer fc7_relu7_0_split
I0605 11:57:29.057090 31520 net.cpp:106] Creating Layer fc7_relu7_0_split
I0605 11:57:29.057093 31520 net.cpp:454] fc7_relu7_0_split <- fc7
I0605 11:57:29.057107 31520 net.cpp:411] fc7_relu7_0_split -> fc7_relu7_0_split_0
I0605 11:57:29.057112 31520 net.cpp:411] fc7_relu7_0_split -> fc7_relu7_0_split_1
I0605 11:57:29.057188 31520 net.cpp:150] Setting up fc7_relu7_0_split
I0605 11:57:29.057191 31520 net.cpp:157] Top shape: 1 4096 (4096)
I0605 11:57:29.057204 31520 net.cpp:157] Top shape: 1 4096 (4096)
I0605 11:57:29.057206 31520 net.cpp:165] Memory required for data: 1430967084
I0605 11:57:29.057209 31520 layer_factory.hpp:77] Creating layer cls_score
I0605 11:57:29.057224 31520 net.cpp:106] Creating Layer cls_score
I0605 11:57:29.057227 31520 net.cpp:454] cls_score <- fc7_relu7_0_split_0
I0605 11:57:29.057241 31520 net.cpp:411] cls_score -> cls_score
I0605 11:57:29.057523 31520 net.cpp:150] Setting up cls_score
I0605 11:57:29.057528 31520 net.cpp:157] Top shape: 1 2 (2)
I0605 11:57:29.057530 31520 net.cpp:165] Memory required for data: 1430967092
I0605 11:57:29.057534 31520 layer_factory.hpp:77] Creating layer bbox_pred
I0605 11:57:29.057539 31520 net.cpp:106] Creating Layer bbox_pred
I0605 11:57:29.057541 31520 net.cpp:454] bbox_pred <- fc7_relu7_0_split_1
I0605 11:57:29.057545 31520 net.cpp:411] bbox_pred -> bbox_pred
I0605 11:57:29.058300 31520 net.cpp:150] Setting up bbox_pred
I0605 11:57:29.058305 31520 net.cpp:157] Top shape: 1 8 (8)
I0605 11:57:29.058306 31520 net.cpp:165] Memory required for data: 1430967124
I0605 11:57:29.058310 31520 layer_factory.hpp:77] Creating layer loss_cls
I0605 11:57:29.058315 31520 net.cpp:106] Creating Layer loss_cls
I0605 11:57:29.058318 31520 net.cpp:454] loss_cls <- cls_score
I0605 11:57:29.058321 31520 net.cpp:454] loss_cls <- labels
I0605 11:57:29.058334 31520 net.cpp:411] loss_cls -> loss_cls
…
I0605 11:57:29.059290 31520 net.cpp:165] Memory required for data: 1430967132
I0605 11:57:29.059293 31520 layer_factory.hpp:77] Creating layer roi_pool5_2
I0605 11:57:29.059310 31520 net.cpp:106] Creating Layer roi_pool5_2
I0605 11:57:29.059314 31520 net.cpp:454] roi_pool5_2 <- conv5_3_relu5_3_0_split_2
I0605 11:57:29.059317 31520 net.cpp:454] roi_pool5_2 <- rois_pos
I0605 11:57:29.059322 31520 net.cpp:411] roi_pool5_2 -> pool5_2
I0605 11:57:29.059329 31520 roi_alignment_layer.cpp:32] Spatial scale: 0.0625
I0605 11:57:29.059412 31520 net.cpp:150] Setting up roi_pool5_2
I0605 11:57:29.059417 31520 net.cpp:157] Top shape: 1 512 7 7 (25088)
I0605 11:57:29.059429 31520 net.cpp:165] Memory required for data: 1431067484
I0605 11:57:29.059432 31520 layer_factory.hpp:77] Creating layer pool5_2_conv
I0605 11:57:29.059444 31520 net.cpp:106] Creating Layer pool5_2_conv
I0605 11:57:29.059458 31520 net.cpp:454] pool5_2_conv <- pool5_2
I0605 11:57:29.059463 31520 net.cpp:411] pool5_2_conv -> pool5_2_conv
I0605 11:57:29.066258 31520 net.cpp:150] Setting up pool5_2_conv
I0605 11:57:29.066268 31520 net.cpp:157] Top shape: 1 512 7 7 (25088)
I0605 11:57:29.066270 31520 net.cpp:165] Memory required for data: 1431167836
I0605 11:57:29.066277 31520 layer_factory.hpp:77] Creating layer pool5_2_conv_relu
I0605 11:57:29.066282 31520 net.cpp:106] Creating Layer pool5_2_conv_relu
I0605 11:57:29.066284 31520 net.cpp:454] pool5_2_conv_relu <- pool5_2_conv
I0605 11:57:29.066288 31520 net.cpp:411] pool5_2_conv_relu -> pool5_2_conv_relu
I0605 11:57:29.066423 31520 net.cpp:150] Setting up pool5_2_conv_relu
I0605 11:57:29.066429 31520 net.cpp:157] Top shape: 1 512 7 7 (25088)
I0605 11:57:29.066431 31520 net.cpp:165] Memory required for data: 1431268188
I0605 11:57:29.066434 31520 layer_factory.hpp:77] Creating layer pool5_2_conv2
I0605 11:57:29.066447 31520 net.cpp:106] Creating Layer pool5_2_conv2
I0605 11:57:29.066449 31520 net.cpp:454] pool5_2_conv2 <- pool5_2_conv_relu
I0605 11:57:29.066453 31520 net.cpp:411] pool5_2_conv2 -> pool5_2_conv2
I0605 11:57:29.117359 31520 net.cpp:150] Setting up pool5_2_conv2
I0605 11:57:29.117377 31520 net.cpp:157] Top shape: 1 512 7 7 (25088)
I0605 11:57:29.117379 31520 net.cpp:165] Memory required for data: 1431368540
I0605 11:57:29.117388 31520 layer_factory.hpp:77] Creating layer pool5_2_conv2_relu
I0605 11:57:29.117394 31520 net.cpp:106] Creating Layer pool5_2_conv2_relu
I0605 11:57:29.117417 31520 net.cpp:454] pool5_2_conv2_relu <- pool5_2_conv2
I0605 11:57:29.117435 31520 net.cpp:411] pool5_2_conv2_relu -> pool5_2_conv2_relu
I0605 11:57:29.117600 31520 net.cpp:150] Setting up pool5_2_conv2_relu
I0605 11:57:29.117609 31520 net.cpp:157] Top shape: 1 512 7 7 (25088)
I0605 11:57:29.117610 31520 net.cpp:165] Memory required for data: 1431468892
I0605 11:57:29.117614 31520 layer_factory.hpp:77] Creating layer mask_deconv1
I0605 11:57:29.117620 31520 net.cpp:106] Creating Layer mask_deconv1
I0605 11:57:29.117633 31520 net.cpp:454] mask_deconv1 <- pool5_2_conv2_relu
I0605 11:57:29.117640 31520 net.cpp:411] mask_deconv1 -> mask_deconv1
I0605 11:57:29.118414 31520 net.cpp:150] Setting up mask_deconv1
I0605 11:57:29.118420 31520 net.cpp:157] Top shape: 1 256 30 30 (230400)
I0605 11:57:29.118422 31520 net.cpp:165] Memory required for data: 1432390492
I0605 11:57:29.118427 31520 layer_factory.hpp:77] Creating layer pool5_2_conv3
I0605 11:57:29.118433 31520 net.cpp:106] Creating Layer pool5_2_conv3
I0605 11:57:29.118435 31520 net.cpp:454] pool5_2_conv3 <- mask_deconv1
I0605 11:57:29.118450 31520 net.cpp:411] pool5_2_conv3 -> pool5_2_conv3
I0605 11:57:29.144812 31520 net.cpp:150] Setting up pool5_2_conv3
I0605 11:57:29.144829 31520 net.cpp:157] Top shape: 1 512 30 30 (460800)
I0605 11:57:29.144831 31520 net.cpp:165] Memory required for data: 1434233692
I0605 11:57:29.144840 31520 layer_factory.hpp:77] Creating layer pool5_2_conv3_relu
I0605 11:57:29.144848 31520 net.cpp:106] Creating Layer pool5_2_conv3_relu
I0605 11:57:29.144853 31520 net.cpp:454] pool5_2_conv3_relu <- pool5_2_conv3
I0605 11:57:29.144858 31520 net.cpp:411] pool5_2_conv3_relu -> pool5_2_conv3_relu
I0605 11:57:29.145002 31520 net.cpp:150] Setting up pool5_2_conv3_relu
I0605 11:57:29.145011 31520 net.cpp:157] Top shape: 1 512 30 30 (460800)
I0605 11:57:29.145014 31520 net.cpp:165] Memory required for data: 1436076892
I0605 11:57:29.145015 31520 layer_factory.hpp:77] Creating layer pool5_2_conv4
I0605 11:57:29.145025 31520 net.cpp:106] Creating Layer pool5_2_conv4
I0605 11:57:29.145027 31520 net.cpp:454] pool5_2_conv4 <- pool5_2_conv3_relu
I0605 11:57:29.145032 31520 net.cpp:411] pool5_2_conv4 -> pool5_2_conv4
I0605 11:57:29.195559 31520 net.cpp:150] Setting up pool5_2_conv4
I0605 11:57:29.195576 31520 net.cpp:157] Top shape: 1 512 30 30 (460800)
I0605 11:57:29.195580 31520 net.cpp:165] Memory required for data: 1437920092
I0605 11:57:29.195586 31520 layer_factory.hpp:77] Creating layer pool5_2_conv4_relu
I0605 11:57:29.195595 31520 net.cpp:106] Creating Layer pool5_2_conv4_relu
I0605 11:57:29.195601 31520 net.cpp:454] pool5_2_conv4_relu <- pool5_2_conv4
I0605 11:57:29.195616 31520 net.cpp:411] pool5_2_conv4_relu -> pool5_2_conv4_relu
I0605 11:57:29.195758 31520 net.cpp:150] Setting up pool5_2_conv4_relu
I0605 11:57:29.195766 31520 net.cpp:157] Top shape: 1 512 30 30 (460800)
I0605 11:57:29.195768 31520 net.cpp:165] Memory required for data: 1439763292
I0605 11:57:29.195771 31520 layer_factory.hpp:77] Creating layer pool5_2_conv4_relu_pool5_2_conv4_relu_0_split
I0605 11:57:29.195775 31520 net.cpp:106] Creating Layer pool5_2_conv4_relu_pool5_2_conv4_relu_0_split
I0605 11:57:29.195778 31520 net.cpp:454] pool5_2_conv4_relu_pool5_2_conv4_relu_0_split <- pool5_2_conv4_relu
…
I0605 11:57:29.195812 31520 net.cpp:411] pool5_2_conv4_relu_pool5_2_conv4_relu_0_split -> pool5_2_conv4_relu_pool5_2_conv4_relu_0_split_4
I0605 11:57:29.195816 31520 net.cpp:411] pool5_2_conv4_relu_pool5_2_conv4_relu_0_split -> pool5_2_conv4_relu_pool5_2_conv4_relu_0_split_5
I0605 11:57:29.195819 31520 net.cpp:411] pool5_2_conv4_relu_pool5_2_conv4_relu_0_split -> pool5_2_conv4_relu_pool5_2_conv4_relu_0_split_6
I0605 11:57:29.195822 31520 net.cpp:411] pool5_2_conv4_relu_pool5_2_conv4_relu_0_split -> pool5_2_conv4_relu_pool5_2_conv4_relu_0_split_7
I0605 11:57:29.195901 31520 net.cpp:150] Setting up pool5_2_conv4_relu_pool5_2_conv4_relu_0_split
I0605 11:57:29.195905 31520 net.cpp:157] Top shape: 1 512 30 30 (460800)
I0605 11:57:29.195909 31520 net.cpp:157] Top shape: 1 512 30 30 (460800)
I0605 11:57:29.195910 31520 net.cpp:157] Top shape: 1 512 30 30 (460800)
I0605 11:57:29.195914 31520 net.cpp:157] Top shape: 1 512 30 30 (460800)
I0605 11:57:29.195915 31520 net.cpp:157] Top shape: 1 512 30 30 (460800)
I0605 11:57:29.195917 31520 net.cpp:157] Top shape: 1 512 30 30 (460800)
I0605 11:57:29.195919 31520 net.cpp:157] Top shape: 1 512 30 30 (460800)
I0605 11:57:29.195922 31520 net.cpp:157] Top shape: 1 512 30 30 (460800)
I0605 11:57:29.195924 31520 net.cpp:165] Memory required for data: 1454508892
I0605 11:57:29.195937 31520 layer_factory.hpp:77] Creating layer query_conv
I0605 11:57:29.195950 31520 net.cpp:106] Creating Layer query_conv
I0605 11:57:29.195952 31520 net.cpp:454] query_conv <- pool5_2_conv4_relu_pool5_2_conv4_relu_0_split_0
I0605 11:57:29.195957 31520 net.cpp:411] query_conv -> query_conv
I0605 11:57:29.197605 31520 net.cpp:150] Setting up query_conv
I0605 11:57:29.197614 31520 net.cpp:157] Top shape: 1 64 30 30 (57600)
I0605 11:57:29.197616 31520 net.cpp:165] Memory required for data: 1454739292
I0605 11:57:29.197621 31520 layer_factory.hpp:77] Creating layer key_conv
I0605 11:57:29.197629 31520 net.cpp:106] Creating Layer key_conv
I0605 11:57:29.197633 31520 net.cpp:454] key_conv <- pool5_2_conv4_relu_pool5_2_conv4_relu_0_split_1
I0605 11:57:29.197648 31520 net.cpp:411] key_conv -> key_conv
I0605 11:57:29.199221 31520 net.cpp:150] Setting up key_conv
I0605 11:57:29.199229 31520 net.cpp:157] Top shape: 1 64 30 30 (57600)
I0605 11:57:29.199231 31520 net.cpp:165] Memory required for data: 1454969692
I0605 11:57:29.199236 31520 layer_factory.hpp:77] Creating layer value_conv
I0605 11:57:29.199244 31520 net.cpp:106] Creating Layer value_conv
I0605 11:57:29.199247 31520 net.cpp:454] value_conv <- pool5_2_conv4_relu_pool5_2_conv4_relu_0_split_2
I0605 11:57:29.199254 31520 net.cpp:411] value_conv -> value_conv
I0605 11:57:29.206032 31520 net.cpp:150] Setting up value_conv
I0605 11:57:29.206043 31520 net.cpp:157] Top shape: 1 512 30 30 (460800)
I0605 11:57:29.206045 31520 net.cpp:165] Memory required for data: 1456812892
I0605 11:57:29.206053 31520 layer_factory.hpp:77] Creating layer query_conv_reshape
I0605 11:57:29.206063 31520 net.cpp:106] Creating Layer query_conv_reshape
I0605 11:57:29.206071 31520 net.cpp:454] query_conv_reshape <- query_conv
I0605 11:57:29.206090 31520 net.cpp:411] query_conv_reshape -> query_conv_reshape
I0605 11:57:29.206122 31520 net.cpp:150] Setting up query_conv_reshape
I0605 11:57:29.206130 31520 net.cpp:157] Top shape: 1 64 900 1 (57600)
I0605 11:57:29.206132 31520 net.cpp:165] Memory required for data: 1457043292
I0605 11:57:29.206136 31520 layer_factory.hpp:77] Creating layer key_conv_reshape
I0605 11:57:29.206151 31520 net.cpp:106] Creating Layer key_conv_reshape
I0605 11:57:29.206156 31520 net.cpp:454] key_conv_reshape <- key_conv
I0605 11:57:29.206163 31520 net.cpp:411] key_conv_reshape -> key_conv_reshape
I0605 11:57:29.206192 31520 net.cpp:150] Setting up key_conv_reshape
I0605 11:57:29.206207 31520 net.cpp:157] Top shape: 1 64 900 1 (57600)
I0605 11:57:29.206209 31520 net.cpp:165] Memory required for data: 1457273692
I0605 11:57:29.206213 31520 layer_factory.hpp:77] Creating layer value_conv_reshape
I0605 11:57:29.206230 31520 net.cpp:106] Creating Layer value_conv_reshape
I0605 11:57:29.206236 31520 net.cpp:454] value_conv_reshape <- value_conv
I0605 11:57:29.206243 31520 net.cpp:411] value_conv_reshape -> value_conv_reshape
I0605 11:57:29.206266 31520 net.cpp:150] Setting up value_conv_reshape
I0605 11:57:29.206281 31520 net.cpp:157] Top shape: 1 512 900 1 (460800)
I0605 11:57:29.206284 31520 net.cpp:165] Memory required for data: 1459116892
I0605 11:57:29.206298 31520 layer_factory.hpp:77] Creating layer query_conv_reshape_perm
I0605 11:57:29.206307 31520 net.cpp:106] Creating Layer query_conv_reshape_perm
I0605 11:57:29.206312 31520 net.cpp:454] query_conv_reshape_perm <- query_conv_reshape
I0605 11:57:29.206318 31520 net.cpp:411] query_conv_reshape_perm -> query_conv_reshape_perm
I0605 11:57:29.206421 31520 net.cpp:150] Setting up query_conv_reshape_perm
I0605 11:57:29.206427 31520 net.cpp:157] Top shape: 1 1 900 64 (57600)
I0605 11:57:29.206430 31520 net.cpp:165] Memory required for data: 1459347292
I0605 11:57:29.206445 31520 layer_factory.hpp:77] Creating layer key_conv_reshape_perm
I0605 11:57:29.206452 31520 net.cpp:106] Creating Layer key_conv_reshape_perm
I0605 11:57:29.206457 31520 net.cpp:454] key_conv_reshape_perm <- key_conv_reshape
I0605 11:57:29.206465 31520 net.cpp:411] key_conv_reshape_perm -> key_conv_reshape_perm
I0605 11:57:29.206531 31520 net.cpp:150] Setting up key_conv_reshape_perm
I0605 11:57:29.206537 31520 net.cpp:157] Top shape: 1 1 64 900 (57600)
I0605 11:57:29.206540 31520 net.cpp:165] Memory required for data: 1459577692
I0605 11:57:29.206543 31520 layer_factory.hpp:77] Creating layer energy
I0605 11:57:29.206552 31520 net.cpp:106] Creating Layer energy
I0605 11:57:29.206557 31520 net.cpp:454] energy <- query_conv_reshape_perm
I0605 11:57:29.206560 31520 net.cpp:454] energy <- key_conv_reshape_perm
I0605 11:57:29.206568 31520 net.cpp:411] energy -> energy
I0605 11:57:29.206588 31520 net.cpp:150] Setting up energy
I0605 11:57:29.206594 31520 net.cpp:157] Top shape: 1 1 900 900 (810000)
I0605 11:57:29.206598 31520 net.cpp:165] Memory required for data: 1462817692
I0605 11:57:29.206600 31520 layer_factory.hpp:77] Creating layer attention
I0605 11:57:29.206610 31520 net.cpp:106] Creating Layer attention
I0605 11:57:29.206614 31520 net.cpp:454] attention <- energy
I0605 11:57:29.206619 31520 net.cpp:411] attention -> attention
I0605 11:57:29.206794 31520 net.cpp:150] Setting up attention
I0605 11:57:29.206801 31520 net.cpp:157] Top shape: 1 1 900 900 (810000)
I0605 11:57:29.206805 31520 net.cpp:165] Memory required for data: 1466057692
I0605 11:57:29.206809 31520 layer_factory.hpp:77] Creating layer value_conv_reshape_perm
I0605 11:57:29.206817 31520 net.cpp:106] Creating Layer value_conv_reshape_perm
I0605 11:57:29.206821 31520 net.cpp:454] value_conv_reshape_perm <- value_conv_reshape
I0605 11:57:29.206826 31520 net.cpp:411] value_conv_reshape_perm -> value_conv_reshape_perm
I0605 11:57:29.206897 31520 net.cpp:150] Setting up value_conv_reshape_perm
I0605 11:57:29.206903 31520 net.cpp:157] Top shape: 1 1 512 900 (460800)
I0605 11:57:29.206907 31520 net.cpp:165] Memory required for data: 1467900892
I0605 11:57:29.206910 31520 layer_factory.hpp:77] Creating layer attention_perm
I0605 11:57:29.206917 31520 net.cpp:106] Creating Layer attention_perm
I0605 11:57:29.206923 31520 net.cpp:454] attention_perm <- attention
I0605 11:57:29.206928 31520 net.cpp:411] attention_perm -> attention_perm
I0605 11:57:29.207006 31520 net.cpp:150] Setting up attention_perm
I0605 11:57:29.207011 31520 net.cpp:157] Top shape: 1 1 900 900 (810000)
I0605 11:57:29.207015 31520 net.cpp:165] Memory required for data: 1471140892
I0605 11:57:29.207018 31520 layer_factory.hpp:77] Creating layer out
I0605 11:57:29.207026 31520 net.cpp:106] Creating Layer out
I0605 11:57:29.207029 31520 net.cpp:454] out <- value_conv_reshape_perm
I0605 11:57:29.207036 31520 net.cpp:454] out <- attention_perm
I0605 11:57:29.207043 31520 net.cpp:411] out -> out
I0605 11:57:29.207067 31520 net.cpp:150] Setting up out
I0605 11:57:29.207072 31520 net.cpp:157] Top shape: 1 1 512 900 (460800)
I0605 11:57:29.207077 31520 net.cpp:165] Memory required for data: 1472984092
I0605 11:57:29.207082 31520 layer_factory.hpp:77] Creating layer out_reshape
I0605 11:57:29.207087 31520 net.cpp:106] Creating Layer out_reshape
I0605 11:57:29.207092 31520 net.cpp:454] out_reshape <- out
I0605 11:57:29.207096 31520 net.cpp:411] out_reshape -> out_reshape
I0605 11:57:29.207124 31520 net.cpp:150] Setting up out_reshape
I0605 11:57:29.207132 31520 net.cpp:157] Top shape: 1 512 30 30 (460800)
I0605 11:57:29.207137 31520 net.cpp:165] Memory required for data: 1474827292
I0605 11:57:29.207146 31520 layer_factory.hpp:77] Creating layer out_reshape_scale
I0605 11:57:29.207156 31520 net.cpp:106] Creating Layer out_reshape_scale
I0605 11:57:29.207160 31520 net.cpp:454] out_reshape_scale <- out_reshape
I0605 11:57:29.207167 31520 net.cpp:411] out_reshape_scale -> out_reshape_scale
I0605 11:57:29.207254 31520 net.cpp:150] Setting up out_reshape_scale
I0605 11:57:29.207262 31520 net.cpp:157] Top shape: 1 512 30 30 (460800)
I0605 11:57:29.207265 31520 net.cpp:165] Memory required for data: 1476670492
I0605 11:57:29.207269 31520 layer_factory.hpp:77] Creating layer out_x
I0605 11:57:29.207278 31520 net.cpp:106] Creating Layer out_x
I0605 11:57:29.207283 31520 net.cpp:454] out_x <- out_reshape_scale
I0605 11:57:29.207295 31520 net.cpp:454] out_x <- pool5_2_conv4_relu_pool5_2_conv4_relu_0_split_3
I0605 11:57:29.207303 31520 net.cpp:411] out_x -> out_x
I0605 11:57:29.207322 31520 net.cpp:150] Setting up out_x
I0605 11:57:29.207327 31520 net.cpp:157] Top shape: 1 512 30 30 (460800)
I0605 11:57:29.207330 31520 net.cpp:165] Memory required for data: 1478513692
I0605 11:57:29.207334 31520 layer_factory.hpp:77] Creating layer query_conv_reshape_ch
I0605 11:57:29.207341 31520 net.cpp:106] Creating Layer query_conv_reshape_ch
I0605 11:57:29.207345 31520 net.cpp:454] query_conv_reshape_ch <- pool5_2_conv4_relu_pool5_2_conv4_relu_0_split_4
I0605 11:57:29.207352 31520 net.cpp:411] query_conv_reshape_ch -> query_conv_reshape_ch
I0605 11:57:29.207372 31520 net.cpp:150] Setting up query_conv_reshape_ch
I0605 11:57:29.207377 31520 net.cpp:157] Top shape: 1 512 900 1 (460800)
I0605 11:57:29.207381 31520 net.cpp:165] Memory required for data: 1480356892
I0605 11:57:29.207384 31520 layer_factory.hpp:77] Creating layer key_conv_reshape_ch
I0605 11:57:29.207391 31520 net.cpp:106] Creating Layer key_conv_reshape_ch
I0605 11:57:29.207394 31520 net.cpp:454] key_conv_reshape_ch <- pool5_2_conv4_relu_pool5_2_conv4_relu_0_split_5
I0605 11:57:29.207401 31520 net.cpp:411] key_conv_reshape_ch -> key_conv_reshape_ch
I0605 11:57:29.207420 31520 net.cpp:150] Setting up key_conv_reshape_ch
I0605 11:57:29.207425 31520 net.cpp:157] Top shape: 1 512 900 1 (460800)
I0605 11:57:29.207429 31520 net.cpp:165] Memory required for data: 1482200092
I0605 11:57:29.207432 31520 layer_factory.hpp:77] Creating layer value_conv_reshape_ch
I0605 11:57:29.207437 31520 net.cpp:106] Creating Layer value_conv_reshape_ch
I0605 11:57:29.207442 31520 net.cpp:454] value_conv_reshape_ch <- pool5_2_conv4_relu_pool5_2_conv4_relu_0_split_6
I0605 11:57:29.207448 31520 net.cpp:411] value_conv_reshape_ch -> value_conv_reshape_ch
I0605 11:57:29.207468 31520 net.cpp:150] Setting up value_conv_reshape_ch
I0605 11:57:29.207473 31520 net.cpp:157] Top shape: 1 512 900 1 (460800)
I0605 11:57:29.207476 31520 net.cpp:165] Memory required for data: 1484043292
I0605 11:57:29.207479 31520 layer_factory.hpp:77] Creating layer query_conv_reshape_perm_ch
I0605 11:57:29.207485 31520 net.cpp:106] Creating Layer query_conv_reshape_perm_ch
I0605 11:57:29.207489 31520 net.cpp:454] query_conv_reshape_perm_ch <- query_conv_reshape_ch
I0605 11:57:29.207494 31520 net.cpp:411] query_conv_reshape_perm_ch -> query_conv_reshape_perm_ch
I0605 11:57:29.207559 31520 net.cpp:150] Setting up query_conv_reshape_perm_ch
I0605 11:57:29.207564 31520 net.cpp:157] Top shape: 1 1 512 900 (460800)
I0605 11:57:29.207568 31520 net.cpp:165] Memory required for data: 1485886492
I0605 11:57:29.207571 31520 layer_factory.hpp:77] Creating layer key_conv_reshape_perm_ch
I0605 11:57:29.207576 31520 net.cpp:106] Creating Layer key_conv_reshape_perm_ch
I0605 11:57:29.207581 31520 net.cpp:454] key_conv_reshape_perm_ch <- key_conv_reshape_ch
I0605 11:57:29.207587 31520 net.cpp:411] key_conv_reshape_perm_ch -> key_conv_reshape_perm_ch
I0605 11:57:29.207651 31520 net.cpp:150] Setting up key_conv_reshape_perm_ch
I0605 11:57:29.207656 31520 net.cpp:157] Top shape: 1 1 900 512 (460800)
I0605 11:57:29.207660 31520 net.cpp:165] Memory required for data: 1487729692
I0605 11:57:29.207664 31520 layer_factory.hpp:77] Creating layer energy_ch
I0605 11:57:29.207670 31520 net.cpp:106] Creating Layer energy_ch
I0605 11:57:29.207674 31520 net.cpp:454] energy_ch <- query_conv_reshape_perm_ch
I0605 11:57:29.207679 31520 net.cpp:454] energy_ch <- key_conv_reshape_perm_ch
I0605 11:57:29.207685 31520 net.cpp:411] energy_ch -> energy_ch
I0605 11:57:29.207705 31520 net.cpp:150] Setting up energy_ch
I0605 11:57:29.207710 31520 net.cpp:157] Top shape: 1 1 512 512 (262144)
I0605 11:57:29.207713 31520 net.cpp:165] Memory required for data: 1488778268
I0605 11:57:29.207716 31520 layer_factory.hpp:77] Creating layer energy_ch_energy_ch_0_split
I0605 11:57:29.207725 31520 net.cpp:106] Creating Layer energy_ch_energy_ch_0_split
I0605 11:57:29.207728 31520 net.cpp:454] energy_ch_energy_ch_0_split <- energy_ch
I0605 11:57:29.207733 31520 net.cpp:411] energy_ch_energy_ch_0_split -> energy_ch_energy_ch_0_split_0
I0605 11:57:29.207741 31520 net.cpp:411] energy_ch_energy_ch_0_split -> energy_ch_energy_ch_0_split_1
I0605 11:57:29.207768 31520 net.cpp:150] Setting up energy_ch_energy_ch_0_split
I0605 11:57:29.207774 31520 net.cpp:157] Top shape: 1 1 512 512 (262144)
I0605 11:57:29.207778 31520 net.cpp:157] Top shape: 1 1 512 512 (262144)
I0605 11:57:29.207783 31520 net.cpp:165] Memory required for data: 1490875420
I0605 11:57:29.207787 31520 layer_factory.hpp:77] Creating layer energy_ch_pool
I0605 11:57:29.207793 31520 net.cpp:106] Creating Layer energy_ch_pool
I0605 11:57:29.207798 31520 net.cpp:454] energy_ch_pool <- energy_ch_energy_ch_0_split_0
I0605 11:57:29.207803 31520 net.cpp:411] energy_ch_pool -> energy_ch_pool
I0605 11:57:29.207832 31520 net.cpp:150] Setting up energy_ch_pool
I0605 11:57:29.207837 31520 net.cpp:157] Top shape: 1 1 512 1 (512)
I0605 11:57:29.207841 31520 net.cpp:165] Memory required for data: 1490877468
I0605 11:57:29.207844 31520 layer_factory.hpp:77] Creating layer energy_ch_max
I0605 11:57:29.207851 31520 net.cpp:106] Creating Layer energy_ch_max
I0605 11:57:29.207856 31520 net.cpp:454] energy_ch_max <- energy_ch_pool
I0605 11:57:29.207861 31520 net.cpp:411] energy_ch_max -> energy_ch_max
I0605 11:57:29.207882 31520 net.cpp:150] Setting up energy_ch_max
I0605 11:57:29.207887 31520 net.cpp:157] Top shape: 1 1 512 512 (262144)
I0605 11:57:29.207890 31520 net.cpp:165] Memory required for data: 1491926044
I0605 11:57:29.207895 31520 layer_factory.hpp:77] Creating layer energy_ch_minus
I0605 11:57:29.207904 31520 net.cpp:106] Creating Layer energy_ch_minus
I0605 11:57:29.207908 31520 net.cpp:454] energy_ch_minus <- energy_ch_energy_ch_0_split_1
I0605 11:57:29.207913 31520 net.cpp:411] energy_ch_minus -> energy_ch_minus
I0605 11:57:29.207933 31520 net.cpp:150] Setting up energy_ch_minus
I0605 11:57:29.207939 31520 net.cpp:157] Top shape: 1 1 512 512 (262144)
I0605 11:57:29.207942 31520 net.cpp:165] Memory required for data: 1492974620
I0605 11:57:29.207945 31520 layer_factory.hpp:77] Creating layer energy_new
I0605 11:57:29.207952 31520 net.cpp:106] Creating Layer energy_new
I0605 11:57:29.207957 31520 net.cpp:454] energy_new <- energy_ch_max
I0605 11:57:29.207962 31520 net.cpp:454] energy_new <- energy_ch_minus
I0605 11:57:29.207968 31520 net.cpp:411] energy_new -> energy_new
I0605 11:57:29.207988 31520 net.cpp:150] Setting up energy_new
I0605 11:57:29.207993 31520 net.cpp:157] Top shape: 1 1 512 512 (262144)
I0605 11:57:29.207996 31520 net.cpp:165] Memory required for data: 1494023196
I0605 11:57:29.208000 31520 layer_factory.hpp:77] Creating layer attention_ch
I0605 11:57:29.208009 31520 net.cpp:106] Creating Layer attention_ch
I0605 11:57:29.208012 31520 net.cpp:454] attention_ch <- energy_new
I0605 11:57:29.208017 31520 net.cpp:411] attention_ch -> attention_ch
I0605 11:57:29.208756 31520 net.cpp:150] Setting up attention_ch
I0605 11:57:29.208766 31520 net.cpp:157] Top shape: 1 1 512 512 (262144)
I0605 11:57:29.208770 31520 net.cpp:165] Memory required for data: 1495071772
I0605 11:57:29.208773 31520 layer_factory.hpp:77] Creating layer value_conv_reshape_ch_perm
I0605 11:57:29.208781 31520 net.cpp:106] Creating Layer value_conv_reshape_ch_perm
I0605 11:57:29.208784 31520 net.cpp:454] value_conv_reshape_ch_perm <- value_conv_reshape_ch
I0605 11:57:29.208791 31520 net.cpp:411] value_conv_reshape_ch_perm -> value_conv_reshape_ch_perm
I0605 11:57:29.208871 31520 net.cpp:150] Setting up value_conv_reshape_ch_perm
I0605 11:57:29.208878 31520 net.cpp:157] Top shape: 1 1 512 900 (460800)
I0605 11:57:29.208880 31520 net.cpp:165] Memory required for data: 1496914972
I0605 11:57:29.208894 31520 layer_factory.hpp:77] Creating layer attention_ch_perm
I0605 11:57:29.208900 31520 net.cpp:106] Creating Layer attention_ch_perm
I0605 11:57:29.208905 31520 net.cpp:454] attention_ch_perm <- attention_ch
I0605 11:57:29.208911 31520 net.cpp:411] attention_ch_perm -> attention_ch_perm
I0605 11:57:29.208981 31520 net.cpp:150] Setting up attention_ch_perm
I0605 11:57:29.208987 31520 net.cpp:157] Top shape: 1 1 512 512 (262144)
I0605 11:57:29.208992 31520 net.cpp:165] Memory required for data: 1497963548
I0605 11:57:29.208994 31520 layer_factory.hpp:77] Creating layer out_ch
I0605 11:57:29.209000 31520 net.cpp:106] Creating Layer out_ch
I0605 11:57:29.209005 31520 net.cpp:454] out_ch <- attention_ch_perm
I0605 11:57:29.209010 31520 net.cpp:454] out_ch <- value_conv_reshape_ch_perm
I0605 11:57:29.209015 31520 net.cpp:411] out_ch -> out_ch
I0605 11:57:29.209035 31520 net.cpp:150] Setting up out_ch
I0605 11:57:29.209040 31520 net.cpp:157] Top shape: 1 1 512 900 (460800)
I0605 11:57:29.209044 31520 net.cpp:165] Memory required for data: 1499806748
I0605 11:57:29.209048 31520 layer_factory.hpp:77] Creating layer out_ch_reshape
I0605 11:57:29.209055 31520 net.cpp:106] Creating Layer out_ch_reshape
I0605 11:57:29.209059 31520 net.cpp:454] out_ch_reshape <- out_ch
I0605 11:57:29.209065 31520 net.cpp:411] out_ch_reshape -> out_ch_reshape
I0605 11:57:29.209085 31520 net.cpp:150] Setting up out_ch_reshape
I0605 11:57:29.209091 31520 net.cpp:157] Top shape: 1 512 30 30 (460800)
I0605 11:57:29.209095 31520 net.cpp:165] Memory required for data: 1501649948
I0605 11:57:29.209100 31520 layer_factory.hpp:77] Creating layer out_ch_reshape_scale
I0605 11:57:29.209107 31520 net.cpp:106] Creating Layer out_ch_reshape_scale
I0605 11:57:29.209111 31520 net.cpp:454] out_ch_reshape_scale <- out_ch_reshape
I0605 11:57:29.209116 31520 net.cpp:411] out_ch_reshape_scale -> out_ch_reshape_scale
I0605 11:57:29.209200 31520 net.cpp:150] Setting up out_ch_reshape_scale
I0605 11:57:29.209206 31520 net.cpp:157] Top shape: 1 512 30 30 (460800)
I0605 11:57:29.209210 31520 net.cpp:165] Memory required for data: 1503493148
I0605 11:57:29.209214 31520 net.cpp:514] Sharing parameters 'scale_conv1_1' owned by layer 'out_reshape_scale', param index 0
I0605 11:57:29.209229 31520 layer_factory.hpp:77] Creating layer out_ch_x
I0605 11:57:29.209239 31520 net.cpp:106] Creating Layer out_ch_x
I0605 11:57:29.209244 31520 net.cpp:454] out_ch_x <- out_ch_reshape_scale
I0605 11:57:29.209247 31520 net.cpp:454] out_ch_x <- pool5_2_conv4_relu_pool5_2_conv4_relu_0_split_7
I0605 11:57:29.209265 31520 net.cpp:411] out_ch_x -> out_ch_x
I0605 11:57:29.209297 31520 net.cpp:150] Setting up out_ch_x
I0605 11:57:29.209305 31520 net.cpp:157] Top shape: 1 512 30 30 (460800)
I0605 11:57:29.209308 31520 net.cpp:165] Memory required for data: 1505336348
I0605 11:57:29.209311 31520 layer_factory.hpp:77] Creating layer out_conv_ch_x
I0605 11:57:29.209322 31520 net.cpp:106] Creating Layer out_conv_ch_x
I0605 11:57:29.209326 31520 net.cpp:454] out_conv_ch_x <- out_ch_x
I0605 11:57:29.209342 31520 net.cpp:411] out_conv_ch_x -> out_conv_ch_x
I0605 11:57:29.215201 31520 net.cpp:150] Setting up out_conv_ch_x
I0605 11:57:29.215211 31520 net.cpp:157] Top shape: 1 512 30 30 (460800)
I0605 11:57:29.215215 31520 net.cpp:165] Memory required for data: 1507179548
I0605 11:57:29.215222 31520 layer_factory.hpp:77] Creating layer out_conv_x
I0605 11:57:29.215234 31520 net.cpp:106] Creating Layer out_conv_x
I0605 11:57:29.215240 31520 net.cpp:454] out_conv_x <- out_x
I0605 11:57:29.215246 31520 net.cpp:411] out_conv_x -> out_conv_x
I0605 11:57:29.222398 31520 net.cpp:150] Setting up out_conv_x
I0605 11:57:29.222412 31520 net.cpp:157] Top shape: 1 512 30 30 (460800)
I0605 11:57:29.222416 31520 net.cpp:165] Memory required for data: 1509022748
I0605 11:57:29.222437 31520 layer_factory.hpp:77] Creating layer out_x_sum
I0605 11:57:29.222453 31520 net.cpp:106] Creating Layer out_x_sum
I0605 11:57:29.222470 31520 net.cpp:454] out_x_sum <- out_conv_x
I0605 11:57:29.222486 31520 net.cpp:454] out_x_sum <- out_conv_ch_x
I0605 11:57:29.222493 31520 net.cpp:411] out_x_sum -> out_x_sum
I0605 11:57:29.222532 31520 net.cpp:150] Setting up out_x_sum
I0605 11:57:29.222538 31520 net.cpp:157] Top shape: 1 512 30 30 (460800)
I0605 11:57:29.222543 31520 net.cpp:165] Memory required for data: 1510865948
I0605 11:57:29.222556 31520 layer_factory.hpp:77] Creating layer mask_deconv2
I0605 11:57:29.222568 31520 net.cpp:106] Creating Layer mask_deconv2
I0605 11:57:29.222573 31520 net.cpp:454] mask_deconv2 <- out_x_sum
I0605 11:57:29.222590 31520 net.cpp:411] mask_deconv2 -> mask_deconv2
I0605 11:57:29.223443 31520 net.cpp:150] Setting up mask_deconv2
I0605 11:57:29.223453 31520 net.cpp:157] Top shape: 1 256 122 122 (3810304)
I0605 11:57:29.223457 31520 net.cpp:165] Memory required for data: 1526107164
I0605 11:57:29.223465 31520 layer_factory.hpp:77] Creating layer pool5_2_conv5
I0605 11:57:29.223486 31520 net.cpp:106] Creating Layer pool5_2_conv5
I0605 11:57:29.223493 31520 net.cpp:454] pool5_2_conv5 <- mask_deconv2
I0605 11:57:29.223505 31520 net.cpp:411] pool5_2_conv5 -> pool5_2_conv5
I0605 11:57:29.250893 31520 net.cpp:150] Setting up pool5_2_conv5
I0605 11:57:29.250913 31520 net.cpp:157] Top shape: 1 512 122 122 (7620608)
I0605 11:57:29.250916 31520 net.cpp:165] Memory required for data: 1556589596
I0605 11:57:29.250941 31520 layer_factory.hpp:77] Creating layer pool5_2_conv5_relu
I0605 11:57:29.250952 31520 net.cpp:106] Creating Layer pool5_2_conv5_relu
I0605 11:57:29.250958 31520 net.cpp:454] pool5_2_conv5_relu <- pool5_2_conv5
I0605 11:57:29.250967 31520 net.cpp:411] pool5_2_conv5_relu -> pool5_2_conv5_relu
I0605 11:57:29.251119 31520 net.cpp:150] Setting up pool5_2_conv5_relu
I0605 11:57:29.251127 31520 net.cpp:157] Top shape: 1 512 122 122 (7620608)
I0605 11:57:29.251132 31520 net.cpp:165] Memory required for data: 1587072028
I0605 11:57:29.251135 31520 layer_factory.hpp:77] Creating layer pool5_2_conv6
I0605 11:57:29.251148 31520 net.cpp:106] Creating Layer pool5_2_conv6
I0605 11:57:29.251153 31520 net.cpp:454] pool5_2_conv6 <- pool5_2_conv5_relu
I0605 11:57:29.251159 31520 net.cpp:411] pool5_2_conv6 -> pool5_2_conv6
I0605 11:57:29.301815 31520 net.cpp:150] Setting up pool5_2_conv6
I0605 11:57:29.301834 31520 net.cpp:157] Top shape: 1 512 122 122 (7620608)
I0605 11:57:29.301838 31520 net.cpp:165] Memory required for data: 1617554460
I0605 11:57:29.301848 31520 layer_factory.hpp:77] Creating layer pool5_2_conv6_relu
I0605 11:57:29.301858 31520 net.cpp:106] Creating Layer pool5_2_conv6_relu
I0605 11:57:29.301882 31520 net.cpp:454] pool5_2_conv6_relu <- pool5_2_conv6
I0605 11:57:29.301892 31520 net.cpp:411] pool5_2_conv6_relu -> pool5_2_conv6_relu
I0605 11:57:29.302510 31520 net.cpp:150] Setting up pool5_2_conv6_relu
I0605 11:57:29.302521 31520 net.cpp:157] Top shape: 1 512 122 122 (7620608)
I0605 11:57:29.302525 31520 net.cpp:165] Memory required for data: 1648036892
I0605 11:57:29.302528 31520 layer_factory.hpp:77] Creating layer mask_deconv3
I0605 11:57:29.302539 31520 net.cpp:106] Creating Layer mask_deconv3
I0605 11:57:29.302554 31520 net.cpp:454] mask_deconv3 <- pool5_2_conv6_relu
I0605 11:57:29.302564 31520 net.cpp:411] mask_deconv3 -> mask_deconv3
I0605 11:57:29.302948 31520 net.cpp:150] Setting up mask_deconv3
I0605 11:57:29.302956 31520 net.cpp:157] Top shape: 1 256 244 244 (15241216)
I0605 11:57:29.302959 31520 net.cpp:165] Memory required for data: 1709001756
I0605 11:57:29.302965 31520 layer_factory.hpp:77] Creating layer mask_score
I0605 11:57:29.302975 31520 net.cpp:106] Creating Layer mask_score
I0605 11:57:29.302991 31520 net.cpp:454] mask_score <- mask_deconv3
I0605 11:57:29.302999 31520 net.cpp:411] mask_score -> mask_score
I0605 11:57:29.304049 31520 net.cpp:150] Setting up mask_score
I0605 11:57:29.304059 31520 net.cpp:157] Top shape: 1 8 244 244 (476288)
I0605 11:57:29.304062 31520 net.cpp:165] Memory required for data: 1710906908
I0605 11:57:29.304070 31520 layer_factory.hpp:77] Creating layer loss_mask
I0605 11:57:29.304080 31520 net.cpp:106] Creating Layer loss_mask
I0605 11:57:29.304086 31520 net.cpp:454] loss_mask <- mask_score
I0605 11:57:29.304091 31520 net.cpp:454] loss_mask <- mask_targets
I0605 11:57:29.304102 31520 net.cpp:411] loss_mask -> loss_mask
…
