…
average_loss: 100
iter_size: 2
I0625 15:15:30.898847  8517 solver.cpp:81] Creating training net from train_net file: models/pascal_voc/VGG16/faster_rcnn_end2end/train.prototxt
I0625 15:15:30.902362  8517 net.cpp:49] Initializing net from parameters: 
name: "VGG_ILSVRC_16_layers"
state {
  phase: TRAIN
}
layer {
  name: "input-data"
  type: "Python"
  top: "data"
  top: "im_info"
  top: "gt_boxes"
  top: "seg_mask_inds"
  top: "flipped"
  python_param {
    module: "roi_data_layer.layer"
    layer: "RoIDataLayer"
    param_str: "\'num_classes\': 2"
  }
}
layer {
  name: "conv1_1"
  type: "Convolution"
  bottom: "data"
  top: "conv1_1"
  param {
    lr_mult: 0
    decay_mult: 0
  }
  param {
    lr_mult: 0
    decay_mult: 0
  }
  convolution_param {
    num_output: 64
    pad: 1
    kernel_size: 3
  }
}
layer {
  name: "relu1_1"
  type: "ReLU"
  bottom: "conv1_1"
  top: "conv1_1"
}
layer {
  name: "conv1_2"
  type: "Convolution"
  bottom: "conv1_1"
  top: "conv1_2"
  param {
    lr_mult: 0
    decay_mult: 0
  }
  param {
    lr_mult: 0
    decay_mult: 0
  }
  convolution_param {
    num_output: 64
    pad: 1
    kernel_size: 3
  }
}
layer {
  name: "relu1_2"
  type: "ReLU"
  bottom: "conv1_2"
  top: "conv1_2"
}
layer {
  name: "pool1"
  type: "Pooling"
  bottom: "conv1_2"
  top: "pool1"
  pooling_param {
    pool: MAX
    kernel_size: 2
    stride: 2
  }
}
layer {
  name: "conv2_1"
  type: "Convolution"
  bottom: "pool1"
  top: "conv2_1"
  param {
    lr_mult: 0
    decay_mult: 0
  }
  param {
    lr_mult: 0
    decay_mult: 0
  }
  convolution_param {
    num_output: 128
    pad: 1
    kernel_size: 3
  }
}
layer {
  name: "relu2_1"
  type: "ReLU"
  bottom: "conv2_1"
  top: "conv2_1"
}
layer {
  name: "conv2_2"
  type: "Convolution"
  bottom: "conv2_1"
  top: "conv2_2"
  param {
    lr_mult: 0
    decay_mult: 0
  }
  param {
    lr_mult: 0
    decay_mult: 0
  }
  convolution_param {
    num_output: 128
    pad: 1
    kernel_size: 3
  }
}
layer {
  name: "relu2_2"
  type: "ReLU"
  bottom: "conv2_2"
  top: "conv2_2"
}
layer {
  name: "pool2"
  type: "Pooling"
  bottom: "conv2_2"
  top: "pool2"
  pooling_param {
    pool: MAX
    kernel_size: 2
    stride: 2
  }
}
layer {
  name: "conv3_1"
  type: "Convolution"
  bottom: "pool2"
  top: "conv3_1"
  param {
    lr_mult: 1
  }
  param {
    lr_mult: 2
  }
  convolution_param {
    num_output: 256
    pad: 1
    kernel_size: 3
  }
}
layer {
  name: "relu3_1"
  type: "ReLU"
  bottom: "conv3_1"
  top: "conv3_1"
}
layer {
  name: "conv3_2"
  type: "Convolution"
  bottom: "conv3_1"
  top: "conv3_2"
  param {
    lr_mult: 1
  }
  param {
    lr_mult: 2
  }
  convolution_param {
    num_output: 256
    pad: 1
    kernel_size: 3
  }
}
layer {
  name: "relu3_2"
  type: "ReLU"
  bottom: "conv3_2"
  top: "conv3_2"
}
layer {
  name: "conv3_3"
  type: "Convolution"
  bottom: "conv3_2"
  top: "conv3_3"
  param {
    lr_mult: 1
  }
  param {
    lr_mult: 2
  }
  convolution_param {
    num_output: 256
    pad: 1
    kernel_size: 3
  }
}
layer {
  name: "relu3_3"
  type: "ReLU"
  bottom: "conv3_3"
  top: "conv3_3"
}
layer {
  name: "pool3"
  type: "Pooling"
  bottom: "conv3_3"
  top: "pool3"
  pooling_param {
    pool: MAX
    kernel_size: 2
    stride: 2
  }
}
layer {
  name: "conv4_1"
  type: "Convolution"
  bottom: "pool3"
  top: "conv4_1"
  param {
    lr_mult: 1
  }
  param {
    lr_mult: 2
  }
  convolution_param {
    num_output: 512
    pad: 1
    kernel_size: 3
  }
}
layer {
  name: "relu4_1"
  type: "ReLU"
  bottom: "conv4_1"
  top: "conv4_1"
}
layer {
  name: "conv4_2"
  type: "Convolution"
  bottom: "conv4_1"
  top: "conv4_2"
  param {
    lr_mult: 1
  }
  param {
    lr_mult: 2
  }
  convolution_param {
    num_output: 512
    pad: 1
    kernel_size: 3
  }
}
layer {
  name: "relu4_2"
  type: "ReLU"
  bottom: "conv4_2"
  top: "conv4_2"
}
layer {
  name: "conv4_3"
  type: "Convolution"
  bottom: "conv4_2"
  top: "conv4_3"
  param {
    lr_mult: 1
  }
  param {
    lr_mult: 2
  }
  convolution_param {
    num_output: 512
    pad: 1
    kernel_size: 3
  }
}
layer {
  name: "relu4_3"
  type: "ReLU"
  bottom: "conv4_3"
  top: "conv4_3"
}
layer {
  name: "pool4"
  type: "Pooling"
  bottom: "conv4_3"
  top: "pool4"
  pooling_param {
    pool: MAX
    kernel_size: 2
    stride: 2
  }
}
layer {
  name: "conv5_1"
  type: "Convolution"
  bottom: "pool4"
  top: "conv5_1"
  param {
    lr_mult: 1
  }
  param {
    lr_mult: 2
  }
  convolution_param {
    num_output: 512
    pad: 1
    kernel_size: 3
  }
}
layer {
  name: "relu5_1"
  type: "ReLU"
  bottom: "conv5_1"
  top: "conv5_1"
}
layer {
  name: "conv5_2"
  type: "Convolution"
  bottom: "conv5_1"
  top: "conv5_2"
  param {
    lr_mult: 1
  }
  param {
    lr_mult: 2
  }
  convolution_param {
    num_output: 512
    pad: 1
    kernel_size: 3
  }
}
layer {
  name: "relu5_2"
  type: "ReLU"
  bottom: "conv5_2"
  top: "conv5_2"
}
layer {
  name: "conv5_3"
  type: "Convolution"
  bottom: "conv5_2"
  top: "conv5_3"
  param {
    lr_mult: 1
  }
  param {
    lr_mult: 2
  }
  convolution_param {
    num_output: 512
    pad: 1
    kernel_size: 3
  }
}
layer {
  name: "relu5_3"
  type: "ReLU"
  bottom: "conv5_3"
  top: "conv5_3"
}
layer {
  name: "rpn_conv/3x3"
  type: "Convolution"
  bottom: "conv5_3"
  top: "rpn/output"
  param {
    lr_mult: 1
  }
  param {
    lr_mult: 2
  }
  convolution_param {
    num_output: 512
    pad: 1
    kernel_size: 3
    stride: 1
    weight_filler {
      type: "gaussian"
      std: 0.01
    }
    bias_filler {
      type: "constant"
      value: 0
    }
  }
}
layer {
  name: "rpn_relu/3x3"
  type: "ReLU"
  bottom: "rpn/output"
  top: "rpn/output"
}
layer {
  name: "rpn_cls_score"
  type: "Convolution"
  bottom: "rpn/output"
  top: "rpn_cls_score"
  param {
    lr_mult: 1
  }
  param {
    lr_mult: 2
  }
  convolution_param {
    num_output: 30
    pad: 0
    kernel_size: 1
    stride: 1
    weight_filler {
      type: "gaussian"
      std: 0.01
    }
    bias_filler {
      type: "constant"
      value: 0
    }
  }
}
layer {
  name: "rpn_bbox_pred"
  type: "Convolution"
  bottom: "rpn/output"
  top: "rpn_bbox_pred"
  param {
    lr_mult: 1
  }
  param {
    lr_mult: 2
  }
  convolution_param {
    num_output: 60
    pad: 0
    kernel_size: 1
    stride: 1
    weight_filler {
      type: "gaussian"
      std: 0.01
    }
    bias_filler {
      type: "constant"
      value: 0
    }
  }
}
layer {
  name: "rpn_cls_score_reshape"
  type: "Reshape"
  bottom: "rpn_cls_score"
  top: "rpn_cls_score_reshape"
  reshape_param {
    shape {
      dim: 0
      dim: 2
      dim: -1
      dim: 0
    }
  }
}
layer {
  name: "rpn-data"
  type: "Python"
  bottom: "rpn_cls_score"
  bottom: "gt_boxes"
  bottom: "im_info"
  bottom: "data"
  top: "rpn_labels"
  top: "rpn_bbox_targets"
  top: "rpn_bbox_inside_weights"
  top: "rpn_bbox_outside_weights"
  python_param {
    module: "rpn.anchor_target_layer"
    layer: "AnchorTargetLayer"
    param_str: "\'feat_stride\': 16 \n\'scales\': !!python/tuple [2, 4, 8, 16, 32]"
  }
}
layer {
  name: "rpn_loss_cls"
  type: "SoftmaxWithLoss"
  bottom: "rpn_cls_score_reshape"
  bottom: "rpn_labels"
  top: "rpn_cls_loss"
  loss_weight: 1
  propagate_down: true
  propagate_down: false
  loss_param {
    ignore_label: -1
    normalize: true
  }
}
layer {
  name: "rpn_loss_bbox"
  type: "SmoothL1Loss"
  bottom: "rpn_bbox_pred"
  bottom: "rpn_bbox_targets"
  bottom: "rpn_bbox_inside_weights"
  bottom: "rpn_bbox_outside_weights"
  top: "rpn_loss_bbox"
  loss_weight: 1
  smooth_l1_loss_param {
    sigma: 3
  }
}
layer {
  name: "rpn_cls_prob"
  type: "Softmax"
  bottom: "rpn_cls_score_reshape"
  top: "rpn_cls_prob"
}
layer {
  name: "rpn_cls_prob_reshape"
  type: "Reshape"
  bottom: "rpn_cls_prob"
  top: "rpn_cls_prob_reshape"
  reshape_param {
    shape {
      dim: 0
      dim: 30
      dim: -1
      dim: 0
    }
  }
}
layer {
  name: "proposal"
  type: "Python"
  bottom: "rpn_cls_prob_reshape"
  bottom: "rpn_bbox_pred"
  bottom: "im_info"
  top: "rpn_rois"
  python_param {
    module: "rpn.proposal_layer"
    layer: "ProposalLayer"
    param_str: "\'feat_stride\': 16 \n\'scales\': !!python/tuple [2, 4, 8, 16, 32]"
  }
}
layer {
  name: "roi-data"
  type: "Python"
  bottom: "rpn_rois"
  bottom: "gt_boxes"
  bottom: "im_info"
  bottom: "seg_mask_inds"
  bottom: "flipped"
  top: "rois"
  top: "labels"
  top: "bbox_targets"
  top: "bbox_inside_weights"
  top: "bbox_outside_weights"
  top: "mask_targets"
  top: "rois_pos"
  top: "attrArray"
  top: "attrArrayInd"
  top: "attrArrayShift"
  python_param {
    module: "rpn.proposal_target_layer"
    layer: "ProposalTargetLayer"
    param_str: "\'num_classes\': 2"
  }
}
layer {
  name: "roi_pool5"
  type: "ROIAlignment"
  bottom: "conv5_3"
  bottom: "rois"
  top: "pool5"
  roi_alignment_param {
    pooled_h: 7
    pooled_w: 7
    spatial_scale: 0.0625
  }
}
layer {
  name: "fc6"
  type: "InnerProduct"
  bottom: "pool5"
  top: "fc6"
  param {
    lr_mult: 1
  }
  param {
    lr_mult: 2
  }
  inner_product_param {
    num_output: 4096
  }
}
layer {
  name: "relu6"
  type: "ReLU"
  bottom: "fc6"
  top: "fc6"
}
layer {
  name: "fc7"
  type: "InnerProduct"
  bottom: "fc6"
  top: "fc7"
  param {
    lr_mult: 1
  }
  param {
    lr_mult: 2
  }
  inner_product_param {
    num_output: 4096
  }
}
layer {
  name: "relu7"
  type: "ReLU"
  bottom: "fc7"
  top: "fc7"
}
layer {
  name: "attr_score"
  type: "InnerProduct"
  bottom: "fc7"
  top: "attr_score"
  param {
    lr_mult: 1
  }
  param {
    lr_mult: 2
  }
  inner_product_param {
    num_output: 7
    weight_filler {
      type: "gaussian"
      std: 0.001
    }
    bias_filler {
      type: "constant"
      value: 0
    }
  }
}
layer {
  name: "attr_score_pos"
  type: "Eltwise"
  bottom: "attr_score"
  bottom: "attrArrayInd"
  top: "attr_score_pos"
  eltwise_param {
    operation: PROD
  }
}
layer {
  name: "attr_score_pos_shift"
  type: "Eltwise"
  bottom: "attr_score_pos"
  bottom: "attrArrayShift"
  top: "attr_score_pos_shift"
  eltwise_param {
    operation: SUM
  }
}
layer {
  name: "cls_score"
  type: "InnerProduct"
  bottom: "fc7"
  top: "cls_score"
  param {
    lr_mult: 1
  }
  param {
    lr_mult: 2
  }
  inner_product_param {
    num_output: 2
    weight_filler {
      type: "gaussian"
      std: 0.01
    }
    bias_filler {
      type: "constant"
      value: 0
    }
  }
}
layer {
  name: "bbox_pred"
  type: "InnerProduct"
  bottom: "fc7"
  top: "bbox_pred"
  param {
    lr_mult: 1
  }
  param {
    lr_mult: 2
  }
  inner_product_param {
    num_output: 8
    weight_filler {
      type: "gaussian"
      std: 0.001
    }
    bias_filler {
      type: "constant"
      value: 0
    }
  }
}
layer {
  name: "loss_attribute"
  type: "SigmoidCrossEntropyLoss"
  bottom: "attr_score_pos_shift"
  bottom: "attrArray"
  top: "loss_attribute"
  loss_weight: 1
  propagate_down: true
  propagate_down: false
}
layer {
  name: "loss_cls"
  type: "SoftmaxWithLoss"
  bottom: "cls_score"
  bottom: "labels"
  top: "loss_cls"
  loss_weight: 3
  propagate_down: true
  propagate_down: false
}
layer {
  name: "loss_bbox"
  type: "SmoothL1Loss"
  bottom: "bbox_pred"
  bottom: "bbox_targets"
  bottom: "bbox_inside_weights"
  bottom: "bbox_outside_weights"
  top: "loss_bbox"
  loss_weight: 2
}
layer {
  name: "roi_pool5_2"
  type: "ROIAlignment"
  bottom: "conv5_3"
  bottom: "rois_pos"
  top: "pool5_2"
  roi_alignment_param {
    pooled_h: 7
    pooled_w: 7
    spatial_scale: 0.0625
  }
}
layer {
  name: "pool5_2_conv"
  type: "Convolution"
  bottom: "pool5_2"
  top: "pool5_2_conv"
  param {
    lr_mult: 1
    decay_mult: 1
  }
  param {
    lr_mult: 2
    decay_mult: 0
  }
  convolution_param {
    num_output: 512
    pad: 0
    kernel_size: 1
    weight_filler {
      type: "gaussian"
      std: 0.01
    }
    bias_filler {
      type: "constant"
      value: 0
    }
  }
}
layer {
  name: "pool5_2_conv_relu"
  type: "ReLU"
  bottom: "pool5_2_conv"
  top: "pool5_2_conv_relu"
}
layer {
  name: "pool5_2_conv2"
  type: "Convolution"
  bottom: "pool5_2_conv_relu"
  top: "pool5_2_conv2"
  param {
    lr_mult: 1
    decay_mult: 1
  }
  param {
    lr_mult: 2
    decay_mult: 0
  }
  convolution_param {
    num_output: 512
    pad: 1
    kernel_size: 3
    stride: 1
    weight_filler {
      type: "gaussian"
      std: 0.01
    }
    bias_filler {
      type: "constant"
      value: 0
    }
  }
}
layer {
  name: "pool5_2_conv2_relu"
  type: "ReLU"
  bottom: "pool5_2_conv2"
  top: "pool5_2_conv2_relu"
}
layer {
  name: "mask_deconv1"
  type: "Deconvolution"
  bottom: "pool5_2_conv2_relu"
  top: "mask_deconv1"
  param {
    lr_mult: 1
    decay_mult: 1
  }
  param {
    lr_mult: 2
    decay_mult: 0
  }
  convolution_param {
    num_output: 256
    pad: 1
    kernel_size: 8
    group: 256
    stride: 4
    weight_filler {
      type: "bilinear"
    }
  }
}
layer {
  name: "pool5_2_conv3"
  type: "Convolution"
  bottom: "mask_deconv1"
  top: "pool5_2_conv3"
  param {
    lr_mult: 1
    decay_mult: 1
  }
  param {
    lr_mult: 2
    decay_mult: 0
  }
  convolution_param {
    num_output: 512
    pad: 1
    kernel_size: 3
    stride: 1
    weight_filler {
      type: "gaussian"
      std: 0.01
    }
    bias_filler {
      type: "constant"
      value: 0
    }
  }
}
layer {
  name: "pool5_2_conv3_relu"
  type: "ReLU"
  bottom: "pool5_2_conv3"
  top: "pool5_2_conv3_relu"
}
layer {
  name: "pool5_2_conv4"
  type: "Convolution"
  bottom: "pool5_2_conv3_relu"
  top: "pool5_2_conv4"
  param {
    lr_mult: 1
    decay_mult: 1
  }
  param {
    lr_mult: 2
    decay_mult: 0
  }
  convolution_param {
    num_output: 512
    pad: 1
    kernel_size: 3
    stride: 1
    weight_filler {
      type: "gaussian"
      std: 0.01
    }
    bias_filler {
      type: "constant"
      value: 0
    }
  }
}
layer {
  name: "pool5_2_conv4_relu"
  type: "ReLU"
  bottom: "pool5_2_conv4"
  top: "pool5_2_conv4_relu"
}
layer {
  name: "query_conv"
  type: "Convolution"
  bottom: "pool5_2_conv4_relu"
  top: "query_conv"
  param {
    lr_mult: 1
    decay_mult: 1
  }
  param {
    lr_mult: 2
    decay_mult: 0
  }
  convolution_param {
    num_output: 64
    pad: 0
    kernel_size: 1
    stride: 1
    weight_filler {
      type: "gaussian"
      std: 0.01
    }
    bias_filler {
      type: "constant"
      value: 0
    }
  }
}
layer {
  name: "key_conv"
  type: "Convolution"
  bottom: "pool5_2_conv4_relu"
  top: "key_conv"
  param {
    lr_mult: 1
    decay_mult: 1
  }
  param {
    lr_mult: 2
    decay_mult: 0
  }
  convolution_param {
    num_output: 64
    pad: 0
    kernel_size: 1
    stride: 1
    weight_filler {
      type: "gaussian"
      std: 0.01
    }
    bias_filler {
      type: "constant"
      value: 0
    }
  }
}
layer {
  name: "value_conv"
  type: "Convolution"
  bottom: "pool5_2_conv4_relu"
  top: "value_conv"
  param {
    lr_mult: 1
    decay_mult: 1
  }
  param {
    lr_mult: 2
    decay_mult: 0
  }
  convolution_param {
    num_output: 512
    pad: 0
    kernel_size: 1
    stride: 1
    weight_filler {
      type: "gaussian"
      std: 0.01
    }
    bias_filler {
      type: "constant"
      value: 0
    }
  }
}
layer {
  name: "query_conv_reshape"
  type: "Reshape"
  bottom: "query_conv"
  top: "query_conv_reshape"
  reshape_param {
    shape {
      dim: -1
      dim: 64
      dim: 900
      dim: 1
    }
  }
}
layer {
  name: "key_conv_reshape"
  type: "Reshape"
  bottom: "key_conv"
  top: "key_conv_reshape"
  reshape_param {
    shape {
      dim: -1
      dim: 64
      dim: 900
      dim: 1
    }
  }
}
layer {
  name: "value_conv_reshape"
  type: "Reshape"
  bottom: "value_conv"
  top: "value_conv_reshape"
  reshape_param {
    shape {
      dim: -1
      dim: 512
      dim: 900
      dim: 1
    }
  }
}
layer {
  name: "query_conv_reshape_perm"
  type: "Permute"
  bottom: "query_conv_reshape"
  top: "query_conv_reshape_perm"
  permute_param {
    order: 0
    order: 3
    order: 2
    order: 1
  }
}
layer {
  name: "key_conv_reshape_perm"
  type: "Permute"
  bottom: "key_conv_reshape"
  top: "key_conv_reshape_perm"
  permute_param {
    order: 0
    order: 3
    order: 1
    order: 2
  }
}
layer {
  name: "energy"
  type: "MatrixMultiplication"
  bottom: "query_conv_reshape_perm"
  bottom: "key_conv_reshape_perm"
  top: "energy"
}
layer {
  name: "attention"
  type: "Softmax"
  bottom: "energy"
  top: "attention"
  softmax_param {
    axis: 3
  }
}
layer {
  name: "value_conv_reshape_perm"
  type: "Permute"
  bottom: "value_conv_reshape"
  top: "value_conv_reshape_perm"
  permute_param {
    order: 0
    order: 3
    order: 1
    order: 2
  }
}
layer {
  name: "attention_perm"
  type: "Permute"
  bottom: "attention"
  top: "attention_perm"
  permute_param {
    order: 0
    order: 1
    order: 2
    order: 3
  }
}
layer {
  name: "out"
  type: "MatrixMultiplication"
  bottom: "value_conv_reshape_perm"
  bottom: "attention_perm"
  top: "out"
}
layer {
  name: "out_reshape"
  type: "Reshape"
  bottom: "out"
  top: "out_reshape"
  reshape_param {
    shape {
      dim: -1
      dim: 512
      dim: 30
      dim: 30
    }
  }
}
layer {
  name: "out_reshape_scale"
  type: "Scale"
  bottom: "out_reshape"
  top: "out_reshape_scale"
  param {
    name: "scale_conv1_1"
    lr_mult: 1
  }
  scale_param {
    bias_term: false
  }
}
layer {
  name: "out_x"
  type: "Eltwise"
  bottom: "out_reshape_scale"
  bottom: "pool5_2_conv4_relu"
  top: "out_x"
  eltwise_param {
    operation: SUM
  }
}
layer {
  name: "mask_deconv2"
  type: "Deconvolution"
  bottom: "out_x"
  top: "mask_deconv2"
  param {
    lr_mult: 1
    decay_mult: 1
  }
  param {
    lr_mult: 2
    decay_mult: 0
  }
  convolution_param {
    num_output: 256
    pad: 1
    kernel_size: 8
    group: 256
    stride: 4
    weight_filler {
      type: "bilinear"
    }
  }
}
layer {
  name: "pool5_2_conv5"
  type: "Convolution"
  bottom: "mask_deconv2"
  top: "pool5_2_conv5"
  param {
    lr_mult: 1
    decay_mult: 1
  }
  param {
    lr_mult: 2
    decay_mult: 0
  }
  convolution_param {
    num_output: 512
    pad: 1
    kernel_size: 3
    stride: 1
    weight_filler {
      type: "gaussian"
      std: 0.01
    }
    bias_filler {
      type: "constant"
      value: 0
    }
  }
}
layer {
  name: "pool5_2_conv5_relu"
  type: "ReLU"
  bottom: "pool5_2_conv5"
  top: "pool5_2_conv5_relu"
}
layer {
  name: "pool5_2_conv6"
  type: "Convolution"
  bottom: "pool5_2_conv5_relu"
  top: "pool5_2_conv6"
  param {
    lr_mult: 1
    decay_mult: 1
  }
  param {
    lr_mult: 2
    decay_mult: 0
  }
  convolution_param {
    num_output: 512
    pad: 1
    kernel_size: 3
    stride: 1
    weight_filler {
      type: "gaussian"
      std: 0.01
    }
    bias_filler {
      type: "constant"
      value: 0
    }
  }
}
layer {
  name: "pool5_2_conv6_relu"
  type: "ReLU"
  bottom: "pool5_2_conv6"
  top: "pool5_2_conv6_relu"
}
layer {
  name: "mask_deconv3"
  type: "Deconvolution"
  bottom: "pool5_2_conv6_relu"
  top: "mask_deconv3"
  param {
    lr_mult: 1
    decay_mult: 1
  }
  param {
    lr_mult: 2
    decay_mult: 0
  }
  convolution_param {
    num_output: 256
    pad: 1
    kernel_size: 4
    group: 256
    stride: 2
    weight_filler {
      type: "bilinear"
    }
  }
}
layer {
  name: "mask_score"
  type: "Convolution"
  bottom: "mask_deconv3"
  top: "mask_score"
  param {
    lr_mult: 1
    decay_mult: 1
  }
  param {
    lr_mult: 2
    decay_mult: 0
  }
  convolution_param {
    num_output: 8
    pad: 0
    kernel_size: 1
    weight_filler {
      type: "gaussian"
      std: 0.01
    }
    bias_filler {
      type: "constant"
      value: 0
    }
  }
}
layer {
  name: "prob"
  type: "Softmax"
  bottom: "mask_score"
  top: "mask_score_softmax"
  softmax_param {
    axis: 1
  }
}
layer {
  name: "log"
  type: "Log"
  bottom: "mask_score_softmax"
  top: "log"
}
layer {
  name: "mult1"
  type: "Eltwise"
  bottom: "log"
  bottom: "mask_targets"
  top: "mult1"
  eltwise_param {
    operation: PROD
  }
}
layer {
  name: "cross_entropy"
  type: "Power"
  bottom: "mult1"
  top: "cross_entropy"
  power_param {
    power: 1
    scale: -1
    shift: 0
  }
}
layer {
  name: "ce_sum"
  type: "Convolution"
  bottom: "cross_entropy"
  top: "cross_entropy_sum"
  param {
    lr_mult: 0
    decay_mult: 0
  }
  convolution_param {
    num_output: 1
    bias_term: false
    kernel_size: 1
    weight_filler {
      type: "constant"
      value: 1
    }
  }
}
layer {
  name: "ce_mean"
  type: "Reduction"
  bottom: "cross_entropy_sum"
  top: "cross_entropy_mean"
  loss_weight: 1
  reduction_param {
    operation: MEAN
    axis: 0
  }
}
I0625 15:15:30.902645  8517 layer_factory.hpp:77] Creating layer input-data
I0625 15:15:31.011484  8517 net.cpp:106] Creating Layer input-data
I0625 15:15:31.011499  8517 net.cpp:411] input-data -> data
I0625 15:15:31.011507  8517 net.cpp:411] input-data -> im_info
I0625 15:15:31.011512  8517 net.cpp:411] input-data -> gt_boxes
I0625 15:15:31.011515  8517 net.cpp:411] input-data -> seg_mask_inds
I0625 15:15:31.011519  8517 net.cpp:411] input-data -> flipped
RoiDataLayer: name_to_top: {'gt_boxes': 2, 'data': 0, 'seg_mask_inds': 3, 'im_info': 1, 'flipped': 4}
I0625 15:15:31.063793  8517 net.cpp:150] Setting up input-data
I0625 15:15:31.063810  8517 net.cpp:157] Top shape: 1 3 600 1000 (1800000)
I0625 15:15:31.063817  8517 net.cpp:157] Top shape: 1 3 (3)
I0625 15:15:31.063822  8517 net.cpp:157] Top shape: 1 4 (4)
I0625 15:15:31.063825  8517 net.cpp:157] Top shape: 1 2 (2)
I0625 15:15:31.063832  8517 net.cpp:157] Top shape: 1 1 (1)
I0625 15:15:31.063835  8517 net.cpp:165] Memory required for data: 7200040
I0625 15:15:31.063841  8517 layer_factory.hpp:77] Creating layer data_input-data_0_split
I0625 15:15:31.063855  8517 net.cpp:106] Creating Layer data_input-data_0_split
I0625 15:15:31.063860  8517 net.cpp:454] data_input-data_0_split <- data
I0625 15:15:31.063868  8517 net.cpp:411] data_input-data_0_split -> data_input-data_0_split_0
I0625 15:15:31.063875  8517 net.cpp:411] data_input-data_0_split -> data_input-data_0_split_1
I0625 15:15:31.063900  8517 net.cpp:150] Setting up data_input-data_0_split
I0625 15:15:31.063906  8517 net.cpp:157] Top shape: 1 3 600 1000 (1800000)
I0625 15:15:31.063910  8517 net.cpp:157] Top shape: 1 3 600 1000 (1800000)
I0625 15:15:31.063915  8517 net.cpp:165] Memory required for data: 21600040
I0625 15:15:31.063918  8517 layer_factory.hpp:77] Creating layer im_info_input-data_1_split
I0625 15:15:31.063925  8517 net.cpp:106] Creating Layer im_info_input-data_1_split
I0625 15:15:31.063930  8517 net.cpp:454] im_info_input-data_1_split <- im_info
I0625 15:15:31.063935  8517 net.cpp:411] im_info_input-data_1_split -> im_info_input-data_1_split_0
I0625 15:15:31.063941  8517 net.cpp:411] im_info_input-data_1_split -> im_info_input-data_1_split_1
I0625 15:15:31.063949  8517 net.cpp:411] im_info_input-data_1_split -> im_info_input-data_1_split_2
I0625 15:15:31.063977  8517 net.cpp:150] Setting up im_info_input-data_1_split
I0625 15:15:31.063982  8517 net.cpp:157] Top shape: 1 3 (3)
I0625 15:15:31.063987  8517 net.cpp:157] Top shape: 1 3 (3)
I0625 15:15:31.063992  8517 net.cpp:157] Top shape: 1 3 (3)
I0625 15:15:31.063995  8517 net.cpp:165] Memory required for data: 21600076
I0625 15:15:31.063998  8517 layer_factory.hpp:77] Creating layer gt_boxes_input-data_2_split
I0625 15:15:31.064004  8517 net.cpp:106] Creating Layer gt_boxes_input-data_2_split
I0625 15:15:31.064008  8517 net.cpp:454] gt_boxes_input-data_2_split <- gt_boxes
I0625 15:15:31.064014  8517 net.cpp:411] gt_boxes_input-data_2_split -> gt_boxes_input-data_2_split_0
I0625 15:15:31.064020  8517 net.cpp:411] gt_boxes_input-data_2_split -> gt_boxes_input-data_2_split_1
I0625 15:15:31.064041  8517 net.cpp:150] Setting up gt_boxes_input-data_2_split
I0625 15:15:31.064046  8517 net.cpp:157] Top shape: 1 4 (4)
I0625 15:15:31.064050  8517 net.cpp:157] Top shape: 1 4 (4)
I0625 15:15:31.064054  8517 net.cpp:165] Memory required for data: 21600108
I0625 15:15:31.064057  8517 layer_factory.hpp:77] Creating layer conv1_1
I0625 15:15:31.064067  8517 net.cpp:106] Creating Layer conv1_1
I0625 15:15:31.064071  8517 net.cpp:454] conv1_1 <- data_input-data_0_split_0
I0625 15:15:31.064076  8517 net.cpp:411] conv1_1 -> conv1_1
I0625 15:15:31.407467  8517 net.cpp:150] Setting up conv1_1
I0625 15:15:31.407487  8517 net.cpp:157] Top shape: 1 64 600 1000 (38400000)
I0625 15:15:31.407491  8517 net.cpp:165] Memory required for data: 175200108
I0625 15:15:31.407507  8517 layer_factory.hpp:77] Creating layer relu1_1
I0625 15:15:31.407519  8517 net.cpp:106] Creating Layer relu1_1
I0625 15:15:31.407526  8517 net.cpp:454] relu1_1 <- conv1_1
I0625 15:15:31.407531  8517 net.cpp:397] relu1_1 -> conv1_1 (in-place)
I0625 15:15:31.407650  8517 net.cpp:150] Setting up relu1_1
I0625 15:15:31.407657  8517 net.cpp:157] Top shape: 1 64 600 1000 (38400000)
I0625 15:15:31.407660  8517 net.cpp:165] Memory required for data: 328800108
I0625 15:15:31.407665  8517 layer_factory.hpp:77] Creating layer conv1_2
I0625 15:15:31.407675  8517 net.cpp:106] Creating Layer conv1_2
I0625 15:15:31.407678  8517 net.cpp:454] conv1_2 <- conv1_1
I0625 15:15:31.407685  8517 net.cpp:411] conv1_2 -> conv1_2
I0625 15:15:31.410275  8517 net.cpp:150] Setting up conv1_2
I0625 15:15:31.410286  8517 net.cpp:157] Top shape: 1 64 600 1000 (38400000)
I0625 15:15:31.410290  8517 net.cpp:165] Memory required for data: 482400108
I0625 15:15:31.410315  8517 layer_factory.hpp:77] Creating layer relu1_2
I0625 15:15:31.410322  8517 net.cpp:106] Creating Layer relu1_2
I0625 15:15:31.410327  8517 net.cpp:454] relu1_2 <- conv1_2
I0625 15:15:31.410331  8517 net.cpp:397] relu1_2 -> conv1_2 (in-place)
I0625 15:15:31.410455  8517 net.cpp:150] Setting up relu1_2
I0625 15:15:31.410464  8517 net.cpp:157] Top shape: 1 64 600 1000 (38400000)
I0625 15:15:31.410466  8517 net.cpp:165] Memory required for data: 636000108
I0625 15:15:31.410483  8517 layer_factory.hpp:77] Creating layer pool1
I0625 15:15:31.410493  8517 net.cpp:106] Creating Layer pool1
I0625 15:15:31.410496  8517 net.cpp:454] pool1 <- conv1_2
I0625 15:15:31.410501  8517 net.cpp:411] pool1 -> pool1
I0625 15:15:31.411015  8517 net.cpp:150] Setting up pool1
I0625 15:15:31.411022  8517 net.cpp:157] Top shape: 1 64 300 500 (9600000)
I0625 15:15:31.411026  8517 net.cpp:165] Memory required for data: 674400108
I0625 15:15:31.411028  8517 layer_factory.hpp:77] Creating layer conv2_1
I0625 15:15:31.411038  8517 net.cpp:106] Creating Layer conv2_1
I0625 15:15:31.411042  8517 net.cpp:454] conv2_1 <- pool1
I0625 15:15:31.411048  8517 net.cpp:411] conv2_1 -> conv2_1
I0625 15:15:31.412822  8517 net.cpp:150] Setting up conv2_1
I0625 15:15:31.412832  8517 net.cpp:157] Top shape: 1 128 300 500 (19200000)
I0625 15:15:31.412835  8517 net.cpp:165] Memory required for data: 751200108
I0625 15:15:31.412844  8517 layer_factory.hpp:77] Creating layer relu2_1
I0625 15:15:31.412851  8517 net.cpp:106] Creating Layer relu2_1
I0625 15:15:31.412856  8517 net.cpp:454] relu2_1 <- conv2_1
I0625 15:15:31.412861  8517 net.cpp:397] relu2_1 -> conv2_1 (in-place)
I0625 15:15:31.413321  8517 net.cpp:150] Setting up relu2_1
I0625 15:15:31.413331  8517 net.cpp:157] Top shape: 1 128 300 500 (19200000)
I0625 15:15:31.413334  8517 net.cpp:165] Memory required for data: 828000108
I0625 15:15:31.413337  8517 layer_factory.hpp:77] Creating layer conv2_2
I0625 15:15:31.413344  8517 net.cpp:106] Creating Layer conv2_2
I0625 15:15:31.413360  8517 net.cpp:454] conv2_2 <- conv2_1
I0625 15:15:31.413367  8517 net.cpp:411] conv2_2 -> conv2_2
I0625 15:15:31.415235  8517 net.cpp:150] Setting up conv2_2
I0625 15:15:31.415246  8517 net.cpp:157] Top shape: 1 128 300 500 (19200000)
I0625 15:15:31.415249  8517 net.cpp:165] Memory required for data: 904800108
I0625 15:15:31.415266  8517 layer_factory.hpp:77] Creating layer relu2_2
I0625 15:15:31.415273  8517 net.cpp:106] Creating Layer relu2_2
I0625 15:15:31.415278  8517 net.cpp:454] relu2_2 <- conv2_2
I0625 15:15:31.415283  8517 net.cpp:397] relu2_2 -> conv2_2 (in-place)
I0625 15:15:31.415411  8517 net.cpp:150] Setting up relu2_2
I0625 15:15:31.415427  8517 net.cpp:157] Top shape: 1 128 300 500 (19200000)
I0625 15:15:31.415431  8517 net.cpp:165] Memory required for data: 981600108
I0625 15:15:31.415433  8517 layer_factory.hpp:77] Creating layer pool2
I0625 15:15:31.415441  8517 net.cpp:106] Creating Layer pool2
I0625 15:15:31.415446  8517 net.cpp:454] pool2 <- conv2_2
I0625 15:15:31.415452  8517 net.cpp:411] pool2 -> pool2
I0625 15:15:31.415482  8517 net.cpp:150] Setting up pool2
I0625 15:15:31.415488  8517 net.cpp:157] Top shape: 1 128 150 250 (4800000)
I0625 15:15:31.415490  8517 net.cpp:165] Memory required for data: 1000800108
I0625 15:15:31.415493  8517 layer_factory.hpp:77] Creating layer conv3_1
I0625 15:15:31.415503  8517 net.cpp:106] Creating Layer conv3_1
I0625 15:15:31.415508  8517 net.cpp:454] conv3_1 <- pool2
I0625 15:15:31.415513  8517 net.cpp:411] conv3_1 -> conv3_1
I0625 15:15:31.417927  8517 net.cpp:150] Setting up conv3_1
I0625 15:15:31.417940  8517 net.cpp:157] Top shape: 1 256 150 250 (9600000)
I0625 15:15:31.417943  8517 net.cpp:165] Memory required for data: 1039200108
I0625 15:15:31.417956  8517 layer_factory.hpp:77] Creating layer relu3_1
I0625 15:15:31.417976  8517 net.cpp:106] Creating Layer relu3_1
I0625 15:15:31.417989  8517 net.cpp:454] relu3_1 <- conv3_1
I0625 15:15:31.417994  8517 net.cpp:397] relu3_1 -> conv3_1 (in-place)
I0625 15:15:31.418119  8517 net.cpp:150] Setting up relu3_1
I0625 15:15:31.418126  8517 net.cpp:157] Top shape: 1 256 150 250 (9600000)
I0625 15:15:31.418130  8517 net.cpp:165] Memory required for data: 1077600108
I0625 15:15:31.418133  8517 layer_factory.hpp:77] Creating layer conv3_2
I0625 15:15:31.418144  8517 net.cpp:106] Creating Layer conv3_2
I0625 15:15:31.418148  8517 net.cpp:454] conv3_2 <- conv3_1
I0625 15:15:31.418154  8517 net.cpp:411] conv3_2 -> conv3_2
I0625 15:15:31.420181  8517 net.cpp:150] Setting up conv3_2
I0625 15:15:31.420193  8517 net.cpp:157] Top shape: 1 256 150 250 (9600000)
I0625 15:15:31.420197  8517 net.cpp:165] Memory required for data: 1116000108
I0625 15:15:31.420203  8517 layer_factory.hpp:77] Creating layer relu3_2
I0625 15:15:31.420212  8517 net.cpp:106] Creating Layer relu3_2
I0625 15:15:31.420217  8517 net.cpp:454] relu3_2 <- conv3_2
I0625 15:15:31.420222  8517 net.cpp:397] relu3_2 -> conv3_2 (in-place)
I0625 15:15:31.420341  8517 net.cpp:150] Setting up relu3_2
I0625 15:15:31.420347  8517 net.cpp:157] Top shape: 1 256 150 250 (9600000)
I0625 15:15:31.420351  8517 net.cpp:165] Memory required for data: 1154400108
I0625 15:15:31.420353  8517 layer_factory.hpp:77] Creating layer conv3_3
I0625 15:15:31.420374  8517 net.cpp:106] Creating Layer conv3_3
I0625 15:15:31.420378  8517 net.cpp:454] conv3_3 <- conv3_2
I0625 15:15:31.420384  8517 net.cpp:411] conv3_3 -> conv3_3
I0625 15:15:31.422456  8517 net.cpp:150] Setting up conv3_3
I0625 15:15:31.422469  8517 net.cpp:157] Top shape: 1 256 150 250 (9600000)
I0625 15:15:31.422472  8517 net.cpp:165] Memory required for data: 1192800108
I0625 15:15:31.422480  8517 layer_factory.hpp:77] Creating layer relu3_3
I0625 15:15:31.422487  8517 net.cpp:106] Creating Layer relu3_3
I0625 15:15:31.422492  8517 net.cpp:454] relu3_3 <- conv3_3
I0625 15:15:31.422497  8517 net.cpp:397] relu3_3 -> conv3_3 (in-place)
I0625 15:15:31.422617  8517 net.cpp:150] Setting up relu3_3
I0625 15:15:31.422624  8517 net.cpp:157] Top shape: 1 256 150 250 (9600000)
I0625 15:15:31.422627  8517 net.cpp:165] Memory required for data: 1231200108
I0625 15:15:31.422631  8517 layer_factory.hpp:77] Creating layer pool3
I0625 15:15:31.422637  8517 net.cpp:106] Creating Layer pool3
I0625 15:15:31.422641  8517 net.cpp:454] pool3 <- conv3_3
I0625 15:15:31.422647  8517 net.cpp:411] pool3 -> pool3
I0625 15:15:31.422699  8517 net.cpp:150] Setting up pool3
I0625 15:15:31.422704  8517 net.cpp:157] Top shape: 1 256 75 125 (2400000)
I0625 15:15:31.422708  8517 net.cpp:165] Memory required for data: 1240800108
I0625 15:15:31.422710  8517 layer_factory.hpp:77] Creating layer conv4_1
I0625 15:15:31.422718  8517 net.cpp:106] Creating Layer conv4_1
I0625 15:15:31.422722  8517 net.cpp:454] conv4_1 <- pool3
I0625 15:15:31.422741  8517 net.cpp:411] conv4_1 -> conv4_1
I0625 15:15:31.426645  8517 net.cpp:150] Setting up conv4_1
I0625 15:15:31.426666  8517 net.cpp:157] Top shape: 1 512 75 125 (4800000)
I0625 15:15:31.426669  8517 net.cpp:165] Memory required for data: 1260000108
I0625 15:15:31.426679  8517 layer_factory.hpp:77] Creating layer relu4_1
I0625 15:15:31.426702  8517 net.cpp:106] Creating Layer relu4_1
I0625 15:15:31.426708  8517 net.cpp:454] relu4_1 <- conv4_1
I0625 15:15:31.426725  8517 net.cpp:397] relu4_1 -> conv4_1 (in-place)
I0625 15:15:31.426851  8517 net.cpp:150] Setting up relu4_1
I0625 15:15:31.426858  8517 net.cpp:157] Top shape: 1 512 75 125 (4800000)
I0625 15:15:31.426862  8517 net.cpp:165] Memory required for data: 1279200108
I0625 15:15:31.426864  8517 layer_factory.hpp:77] Creating layer conv4_2
I0625 15:15:31.426874  8517 net.cpp:106] Creating Layer conv4_2
I0625 15:15:31.426877  8517 net.cpp:454] conv4_2 <- conv4_1
I0625 15:15:31.426883  8517 net.cpp:411] conv4_2 -> conv4_2
I0625 15:15:31.432039  8517 net.cpp:150] Setting up conv4_2
I0625 15:15:31.432060  8517 net.cpp:157] Top shape: 1 512 75 125 (4800000)
I0625 15:15:31.432063  8517 net.cpp:165] Memory required for data: 1298400108
I0625 15:15:31.432080  8517 layer_factory.hpp:77] Creating layer relu4_2
I0625 15:15:31.432102  8517 net.cpp:106] Creating Layer relu4_2
I0625 15:15:31.432107  8517 net.cpp:454] relu4_2 <- conv4_2
I0625 15:15:31.432114  8517 net.cpp:397] relu4_2 -> conv4_2 (in-place)
I0625 15:15:31.432644  8517 net.cpp:150] Setting up relu4_2
I0625 15:15:31.432662  8517 net.cpp:157] Top shape: 1 512 75 125 (4800000)
I0625 15:15:31.432665  8517 net.cpp:165] Memory required for data: 1317600108
I0625 15:15:31.432679  8517 layer_factory.hpp:77] Creating layer conv4_3
I0625 15:15:31.432689  8517 net.cpp:106] Creating Layer conv4_3
I0625 15:15:31.432699  8517 net.cpp:454] conv4_3 <- conv4_2
I0625 15:15:31.432706  8517 net.cpp:411] conv4_3 -> conv4_3
I0625 15:15:31.437515  8517 net.cpp:150] Setting up conv4_3
I0625 15:15:31.437539  8517 net.cpp:157] Top shape: 1 512 75 125 (4800000)
I0625 15:15:31.437542  8517 net.cpp:165] Memory required for data: 1336800108
I0625 15:15:31.437551  8517 layer_factory.hpp:77] Creating layer relu4_3
I0625 15:15:31.437561  8517 net.cpp:106] Creating Layer relu4_3
I0625 15:15:31.437577  8517 net.cpp:454] relu4_3 <- conv4_3
I0625 15:15:31.437584  8517 net.cpp:397] relu4_3 -> conv4_3 (in-place)
I0625 15:15:31.437729  8517 net.cpp:150] Setting up relu4_3
I0625 15:15:31.437737  8517 net.cpp:157] Top shape: 1 512 75 125 (4800000)
I0625 15:15:31.437741  8517 net.cpp:165] Memory required for data: 1356000108
I0625 15:15:31.437743  8517 layer_factory.hpp:77] Creating layer pool4
I0625 15:15:31.437749  8517 net.cpp:106] Creating Layer pool4
I0625 15:15:31.437753  8517 net.cpp:454] pool4 <- conv4_3
I0625 15:15:31.437768  8517 net.cpp:411] pool4 -> pool4
I0625 15:15:31.437809  8517 net.cpp:150] Setting up pool4
I0625 15:15:31.437814  8517 net.cpp:157] Top shape: 1 512 38 63 (1225728)
I0625 15:15:31.437817  8517 net.cpp:165] Memory required for data: 1360903020
I0625 15:15:31.437820  8517 layer_factory.hpp:77] Creating layer conv5_1
I0625 15:15:31.437829  8517 net.cpp:106] Creating Layer conv5_1
I0625 15:15:31.437832  8517 net.cpp:454] conv5_1 <- pool4
I0625 15:15:31.437847  8517 net.cpp:411] conv5_1 -> conv5_1
I0625 15:15:31.442662  8517 net.cpp:150] Setting up conv5_1
I0625 15:15:31.442683  8517 net.cpp:157] Top shape: 1 512 38 63 (1225728)
I0625 15:15:31.442687  8517 net.cpp:165] Memory required for data: 1365805932
I0625 15:15:31.442710  8517 layer_factory.hpp:77] Creating layer relu5_1
I0625 15:15:31.442730  8517 net.cpp:106] Creating Layer relu5_1
I0625 15:15:31.442746  8517 net.cpp:454] relu5_1 <- conv5_1
I0625 15:15:31.442755  8517 net.cpp:397] relu5_1 -> conv5_1 (in-place)
I0625 15:15:31.442903  8517 net.cpp:150] Setting up relu5_1
I0625 15:15:31.442911  8517 net.cpp:157] Top shape: 1 512 38 63 (1225728)
I0625 15:15:31.442914  8517 net.cpp:165] Memory required for data: 1370708844
I0625 15:15:31.442929  8517 layer_factory.hpp:77] Creating layer conv5_2
I0625 15:15:31.442950  8517 net.cpp:106] Creating Layer conv5_2
I0625 15:15:31.442953  8517 net.cpp:454] conv5_2 <- conv5_1
I0625 15:15:31.442960  8517 net.cpp:411] conv5_2 -> conv5_2
I0625 15:15:31.448002  8517 net.cpp:150] Setting up conv5_2
I0625 15:15:31.448026  8517 net.cpp:157] Top shape: 1 512 38 63 (1225728)
I0625 15:15:31.448030  8517 net.cpp:165] Memory required for data: 1375611756
I0625 15:15:31.448041  8517 layer_factory.hpp:77] Creating layer relu5_2
I0625 15:15:31.448053  8517 net.cpp:106] Creating Layer relu5_2
I0625 15:15:31.448060  8517 net.cpp:454] relu5_2 <- conv5_2
I0625 15:15:31.448066  8517 net.cpp:397] relu5_2 -> conv5_2 (in-place)
I0625 15:15:31.448215  8517 net.cpp:150] Setting up relu5_2
I0625 15:15:31.448225  8517 net.cpp:157] Top shape: 1 512 38 63 (1225728)
I0625 15:15:31.448228  8517 net.cpp:165] Memory required for data: 1380514668
I0625 15:15:31.448231  8517 layer_factory.hpp:77] Creating layer conv5_3
I0625 15:15:31.448246  8517 net.cpp:106] Creating Layer conv5_3
I0625 15:15:31.448248  8517 net.cpp:454] conv5_3 <- conv5_2
I0625 15:15:31.448256  8517 net.cpp:411] conv5_3 -> conv5_3
I0625 15:15:31.453451  8517 net.cpp:150] Setting up conv5_3
I0625 15:15:31.453474  8517 net.cpp:157] Top shape: 1 512 38 63 (1225728)
I0625 15:15:31.453477  8517 net.cpp:165] Memory required for data: 1385417580
I0625 15:15:31.453486  8517 layer_factory.hpp:77] Creating layer relu5_3
I0625 15:15:31.453500  8517 net.cpp:106] Creating Layer relu5_3
I0625 15:15:31.453508  8517 net.cpp:454] relu5_3 <- conv5_3
I0625 15:15:31.453516  8517 net.cpp:397] relu5_3 -> conv5_3 (in-place)
I0625 15:15:31.453646  8517 net.cpp:150] Setting up relu5_3
I0625 15:15:31.453655  8517 net.cpp:157] Top shape: 1 512 38 63 (1225728)
I0625 15:15:31.453658  8517 net.cpp:165] Memory required for data: 1390320492
I0625 15:15:31.453661  8517 layer_factory.hpp:77] Creating layer conv5_3_relu5_3_0_split
I0625 15:15:31.453670  8517 net.cpp:106] Creating Layer conv5_3_relu5_3_0_split
I0625 15:15:31.453675  8517 net.cpp:454] conv5_3_relu5_3_0_split <- conv5_3
I0625 15:15:31.453681  8517 net.cpp:411] conv5_3_relu5_3_0_split -> conv5_3_relu5_3_0_split_0
I0625 15:15:31.453689  8517 net.cpp:411] conv5_3_relu5_3_0_split -> conv5_3_relu5_3_0_split_1
I0625 15:15:31.453696  8517 net.cpp:411] conv5_3_relu5_3_0_split -> conv5_3_relu5_3_0_split_2
I0625 15:15:31.453739  8517 net.cpp:150] Setting up conv5_3_relu5_3_0_split
I0625 15:15:31.453745  8517 net.cpp:157] Top shape: 1 512 38 63 (1225728)
I0625 15:15:31.453749  8517 net.cpp:157] Top shape: 1 512 38 63 (1225728)
I0625 15:15:31.453752  8517 net.cpp:157] Top shape: 1 512 38 63 (1225728)
I0625 15:15:31.453757  8517 net.cpp:165] Memory required for data: 1405029228
I0625 15:15:31.453759  8517 layer_factory.hpp:77] Creating layer rpn_conv/3x3
I0625 15:15:31.453770  8517 net.cpp:106] Creating Layer rpn_conv/3x3
I0625 15:15:31.453774  8517 net.cpp:454] rpn_conv/3x3 <- conv5_3_relu5_3_0_split_0
I0625 15:15:31.453780  8517 net.cpp:411] rpn_conv/3x3 -> rpn/output
I0625 15:15:31.506512  8517 net.cpp:150] Setting up rpn_conv/3x3
I0625 15:15:31.506532  8517 net.cpp:157] Top shape: 1 512 38 63 (1225728)
I0625 15:15:31.506536  8517 net.cpp:165] Memory required for data: 1409932140
I0625 15:15:31.506546  8517 layer_factory.hpp:77] Creating layer rpn_relu/3x3
I0625 15:15:31.506567  8517 net.cpp:106] Creating Layer rpn_relu/3x3
I0625 15:15:31.506572  8517 net.cpp:454] rpn_relu/3x3 <- rpn/output
I0625 15:15:31.506588  8517 net.cpp:397] rpn_relu/3x3 -> rpn/output (in-place)
I0625 15:15:31.506728  8517 net.cpp:150] Setting up rpn_relu/3x3
I0625 15:15:31.506736  8517 net.cpp:157] Top shape: 1 512 38 63 (1225728)
I0625 15:15:31.506738  8517 net.cpp:165] Memory required for data: 1414835052
I0625 15:15:31.506742  8517 layer_factory.hpp:77] Creating layer rpn/output_rpn_relu/3x3_0_split
I0625 15:15:31.506750  8517 net.cpp:106] Creating Layer rpn/output_rpn_relu/3x3_0_split
I0625 15:15:31.506753  8517 net.cpp:454] rpn/output_rpn_relu/3x3_0_split <- rpn/output
I0625 15:15:31.506772  8517 net.cpp:411] rpn/output_rpn_relu/3x3_0_split -> rpn/output_rpn_relu/3x3_0_split_0
I0625 15:15:31.506788  8517 net.cpp:411] rpn/output_rpn_relu/3x3_0_split -> rpn/output_rpn_relu/3x3_0_split_1
I0625 15:15:31.506851  8517 net.cpp:150] Setting up rpn/output_rpn_relu/3x3_0_split
I0625 15:15:31.506865  8517 net.cpp:157] Top shape: 1 512 38 63 (1225728)
I0625 15:15:31.506870  8517 net.cpp:157] Top shape: 1 512 38 63 (1225728)
I0625 15:15:31.506883  8517 net.cpp:165] Memory required for data: 1424640876
I0625 15:15:31.506887  8517 layer_factory.hpp:77] Creating layer rpn_cls_score
I0625 15:15:31.506919  8517 net.cpp:106] Creating Layer rpn_cls_score
I0625 15:15:31.506923  8517 net.cpp:454] rpn_cls_score <- rpn/output_rpn_relu/3x3_0_split_0
I0625 15:15:31.506939  8517 net.cpp:411] rpn_cls_score -> rpn_cls_score
I0625 15:15:31.508502  8517 net.cpp:150] Setting up rpn_cls_score
I0625 15:15:31.508510  8517 net.cpp:157] Top shape: 1 30 38 63 (71820)
I0625 15:15:31.508513  8517 net.cpp:165] Memory required for data: 1424928156
I0625 15:15:31.508520  8517 layer_factory.hpp:77] Creating layer rpn_cls_score_rpn_cls_score_0_split
I0625 15:15:31.508539  8517 net.cpp:106] Creating Layer rpn_cls_score_rpn_cls_score_0_split
I0625 15:15:31.508543  8517 net.cpp:454] rpn_cls_score_rpn_cls_score_0_split <- rpn_cls_score
I0625 15:15:31.508548  8517 net.cpp:411] rpn_cls_score_rpn_cls_score_0_split -> rpn_cls_score_rpn_cls_score_0_split_0
I0625 15:15:31.508555  8517 net.cpp:411] rpn_cls_score_rpn_cls_score_0_split -> rpn_cls_score_rpn_cls_score_0_split_1
I0625 15:15:31.508594  8517 net.cpp:150] Setting up rpn_cls_score_rpn_cls_score_0_split
I0625 15:15:31.508599  8517 net.cpp:157] Top shape: 1 30 38 63 (71820)
I0625 15:15:31.508602  8517 net.cpp:157] Top shape: 1 30 38 63 (71820)
I0625 15:15:31.508606  8517 net.cpp:165] Memory required for data: 1425502716
I0625 15:15:31.508610  8517 layer_factory.hpp:77] Creating layer rpn_bbox_pred
I0625 15:15:31.508620  8517 net.cpp:106] Creating Layer rpn_bbox_pred
I0625 15:15:31.508622  8517 net.cpp:454] rpn_bbox_pred <- rpn/output_rpn_relu/3x3_0_split_1
I0625 15:15:31.508630  8517 net.cpp:411] rpn_bbox_pred -> rpn_bbox_pred
I0625 15:15:31.510088  8517 net.cpp:150] Setting up rpn_bbox_pred
I0625 15:15:31.510098  8517 net.cpp:157] Top shape: 1 60 38 63 (143640)
I0625 15:15:31.510102  8517 net.cpp:165] Memory required for data: 1426077276
I0625 15:15:31.510107  8517 layer_factory.hpp:77] Creating layer rpn_bbox_pred_rpn_bbox_pred_0_split
I0625 15:15:31.510113  8517 net.cpp:106] Creating Layer rpn_bbox_pred_rpn_bbox_pred_0_split
I0625 15:15:31.510115  8517 net.cpp:454] rpn_bbox_pred_rpn_bbox_pred_0_split <- rpn_bbox_pred
I0625 15:15:31.510119  8517 net.cpp:411] rpn_bbox_pred_rpn_bbox_pred_0_split -> rpn_bbox_pred_rpn_bbox_pred_0_split_0
I0625 15:15:31.510128  8517 net.cpp:411] rpn_bbox_pred_rpn_bbox_pred_0_split -> rpn_bbox_pred_rpn_bbox_pred_0_split_1
I0625 15:15:31.510162  8517 net.cpp:150] Setting up rpn_bbox_pred_rpn_bbox_pred_0_split
I0625 15:15:31.510179  8517 net.cpp:157] Top shape: 1 60 38 63 (143640)
I0625 15:15:31.510182  8517 net.cpp:157] Top shape: 1 60 38 63 (143640)
I0625 15:15:31.510185  8517 net.cpp:165] Memory required for data: 1427226396
I0625 15:15:31.510188  8517 layer_factory.hpp:77] Creating layer rpn_cls_score_reshape
I0625 15:15:31.510208  8517 net.cpp:106] Creating Layer rpn_cls_score_reshape
I0625 15:15:31.510212  8517 net.cpp:454] rpn_cls_score_reshape <- rpn_cls_score_rpn_cls_score_0_split_0
I0625 15:15:31.510217  8517 net.cpp:411] rpn_cls_score_reshape -> rpn_cls_score_reshape
I0625 15:15:31.510249  8517 net.cpp:150] Setting up rpn_cls_score_reshape
I0625 15:15:31.510268  8517 net.cpp:157] Top shape: 1 2 570 63 (71820)
I0625 15:15:31.510282  8517 net.cpp:165] Memory required for data: 1427513676
I0625 15:15:31.510285  8517 layer_factory.hpp:77] Creating layer rpn_cls_score_reshape_rpn_cls_score_reshape_0_split
I0625 15:15:31.510300  8517 net.cpp:106] Creating Layer rpn_cls_score_reshape_rpn_cls_score_reshape_0_split
I0625 15:15:31.510304  8517 net.cpp:454] rpn_cls_score_reshape_rpn_cls_score_reshape_0_split <- rpn_cls_score_reshape
I0625 15:15:31.510311  8517 net.cpp:411] rpn_cls_score_reshape_rpn_cls_score_reshape_0_split -> rpn_cls_score_reshape_rpn_cls_score_reshape_0_split_0
I0625 15:15:31.510331  8517 net.cpp:411] rpn_cls_score_reshape_rpn_cls_score_reshape_0_split -> rpn_cls_score_reshape_rpn_cls_score_reshape_0_split_1
I0625 15:15:31.510357  8517 net.cpp:150] Setting up rpn_cls_score_reshape_rpn_cls_score_reshape_0_split
I0625 15:15:31.510362  8517 net.cpp:157] Top shape: 1 2 570 63 (71820)
I0625 15:15:31.510366  8517 net.cpp:157] Top shape: 1 2 570 63 (71820)
I0625 15:15:31.510368  8517 net.cpp:165] Memory required for data: 1428088236
I0625 15:15:31.510371  8517 layer_factory.hpp:77] Creating layer rpn-data
I0625 15:15:31.514992  8517 net.cpp:106] Creating Layer rpn-data
I0625 15:15:31.515003  8517 net.cpp:454] rpn-data <- rpn_cls_score_rpn_cls_score_0_split_1
I0625 15:15:31.515009  8517 net.cpp:454] rpn-data <- gt_boxes_input-data_2_split_0
I0625 15:15:31.515013  8517 net.cpp:454] rpn-data <- im_info_input-data_1_split_0
I0625 15:15:31.515018  8517 net.cpp:454] rpn-data <- data_input-data_0_split_1
I0625 15:15:31.515027  8517 net.cpp:411] rpn-data -> rpn_labels
I0625 15:15:31.515035  8517 net.cpp:411] rpn-data -> rpn_bbox_targets
I0625 15:15:31.515043  8517 net.cpp:411] rpn-data -> rpn_bbox_inside_weights
I0625 15:15:31.515051  8517 net.cpp:411] rpn-data -> rpn_bbox_outside_weights
===================================anchor_scales in AnchorTargetLayer:=============(2, 4, 8, 16, 32)
I0625 15:15:31.516688  8517 net.cpp:150] Setting up rpn-data
I0625 15:15:31.516700  8517 net.cpp:157] Top shape: 1 1 570 63 (35910)
I0625 15:15:31.516714  8517 net.cpp:157] Top shape: 1 60 38 63 (143640)
I0625 15:15:31.516718  8517 net.cpp:157] Top shape: 1 60 38 63 (143640)
I0625 15:15:31.516723  8517 net.cpp:157] Top shape: 1 60 38 63 (143640)
I0625 15:15:31.516726  8517 net.cpp:165] Memory required for data: 1429955556
I0625 15:15:31.516742  8517 layer_factory.hpp:77] Creating layer rpn_loss_cls
I0625 15:15:31.516750  8517 net.cpp:106] Creating Layer rpn_loss_cls
I0625 15:15:31.516755  8517 net.cpp:454] rpn_loss_cls <- rpn_cls_score_reshape_rpn_cls_score_reshape_0_split_0
I0625 15:15:31.516762  8517 net.cpp:454] rpn_loss_cls <- rpn_labels
…
