…
average_loss: 100
iter_size: 2
I0625 20:55:42.037700 26920 solver.cpp:81] Creating training net from train_net file: models/pascal_voc/VGG16/faster_rcnn_end2end/train.prototxt
I0625 20:55:42.039147 26920 net.cpp:49] Initializing net from parameters: 
name: "VGG_ILSVRC_16_layers"
state {
  phase: TRAIN
}
layer {
  name: "input-data"
  type: "Python"
  top: "data"
  top: "im_info"
  top: "gt_boxes"
  top: "seg_mask_inds"
  top: "flipped"
  python_param {
    module: "roi_data_layer.layer"
    layer: "RoIDataLayer"
    param_str: "\'num_classes\': 2"
  }
}
layer {
  name: "conv1_1"
  type: "Convolution"
  bottom: "data"
  top: "conv1_1"
  param {
    lr_mult: 0
    decay_mult: 0
  }
  param {
    lr_mult: 0
    decay_mult: 0
  }
  convolution_param {
    num_output: 64
    pad: 1
    kernel_size: 3
  }
}
layer {
  name: "relu1_1"
  type: "ReLU"
  bottom: "conv1_1"
  top: "conv1_1"
}
layer {
  name: "conv1_2"
  type: "Convolution"
  bottom: "conv1_1"
  top: "conv1_2"
  param {
    lr_mult: 0
    decay_mult: 0
  }
  param {
    lr_mult: 0
    decay_mult: 0
  }
  convolution_param {
    num_output: 64
    pad: 1
    kernel_size: 3
  }
}
layer {
  name: "relu1_2"
  type: "ReLU"
  bottom: "conv1_2"
  top: "conv1_2"
}
layer {
  name: "pool1"
  type: "Pooling"
  bottom: "conv1_2"
  top: "pool1"
  pooling_param {
    pool: MAX
    kernel_size: 2
    stride: 2
  }
}
layer {
  name: "conv2_1"
  type: "Convolution"
  bottom: "pool1"
  top: "conv2_1"
  param {
    lr_mult: 0
    decay_mult: 0
  }
  param {
    lr_mult: 0
    decay_mult: 0
  }
  convolution_param {
    num_output: 128
    pad: 1
    kernel_size: 3
  }
}
layer {
  name: "relu2_1"
  type: "ReLU"
  bottom: "conv2_1"
  top: "conv2_1"
}
layer {
  name: "conv2_2"
  type: "Convolution"
  bottom: "conv2_1"
  top: "conv2_2"
  param {
    lr_mult: 0
    decay_mult: 0
  }
  param {
    lr_mult: 0
    decay_mult: 0
  }
  convolution_param {
    num_output: 128
    pad: 1
    kernel_size: 3
  }
}
layer {
  name: "relu2_2"
  type: "ReLU"
  bottom: "conv2_2"
  top: "conv2_2"
}
layer {
  name: "pool2"
  type: "Pooling"
  bottom: "conv2_2"
  top: "pool2"
  pooling_param {
    pool: MAX
    kernel_size: 2
    stride: 2
  }
}
layer {
  name: "conv3_1"
  type: "Convolution"
  bottom: "pool2"
  top: "conv3_1"
  param {
    lr_mult: 1
  }
  param {
    lr_mult: 2
  }
  convolution_param {
    num_output: 256
    pad: 1
    kernel_size: 3
  }
}
layer {
  name: "relu3_1"
  type: "ReLU"
  bottom: "conv3_1"
  top: "conv3_1"
}
layer {
  name: "conv3_2"
  type: "Convolution"
  bottom: "conv3_1"
  top: "conv3_2"
  param {
    lr_mult: 1
  }
  param {
    lr_mult: 2
  }
  convolution_param {
    num_output: 256
    pad: 1
    kernel_size: 3
  }
}
layer {
  name: "relu3_2"
  type: "ReLU"
  bottom: "conv3_2"
  top: "conv3_2"
}
layer {
  name: "conv3_3"
  type: "Convolution"
  bottom: "conv3_2"
  top: "conv3_3"
  param {
    lr_mult: 1
  }
  param {
    lr_mult: 2
  }
  convolution_param {
    num_output: 256
    pad: 1
    kernel_size: 3
  }
}
layer {
  name: "relu3_3"
  type: "ReLU"
  bottom: "conv3_3"
  top: "conv3_3"
}
layer {
  name: "pool3"
  type: "Pooling"
  bottom: "conv3_3"
  top: "pool3"
  pooling_param {
    pool: MAX
    kernel_size: 2
    stride: 2
  }
}
layer {
  name: "conv4_1"
  type: "Convolution"
  bottom: "pool3"
  top: "conv4_1"
  param {
    lr_mult: 1
  }
  param {
    lr_mult: 2
  }
  convolution_param {
    num_output: 512
    pad: 1
    kernel_size: 3
  }
}
layer {
  name: "relu4_1"
  type: "ReLU"
  bottom: "conv4_1"
  top: "conv4_1"
}
layer {
  name: "conv4_2"
  type: "Convolution"
  bottom: "conv4_1"
  top: "conv4_2"
  param {
    lr_mult: 1
  }
  param {
    lr_mult: 2
  }
  convolution_param {
    num_output: 512
    pad: 1
    kernel_size: 3
  }
}
layer {
  name: "relu4_2"
  type: "ReLU"
  bottom: "conv4_2"
  top: "conv4_2"
}
layer {
  name: "conv4_3"
  type: "Convolution"
  bottom: "conv4_2"
  top: "conv4_3"
  param {
    lr_mult: 1
  }
  param {
    lr_mult: 2
  }
  convolution_param {
    num_output: 512
    pad: 1
    kernel_size: 3
  }
}
layer {
  name: "relu4_3"
  type: "ReLU"
  bottom: "conv4_3"
  top: "conv4_3"
}
layer {
  name: "pool4"
  type: "Pooling"
  bottom: "conv4_3"
  top: "pool4"
  pooling_param {
    pool: MAX
    kernel_size: 2
    stride: 2
  }
}
layer {
  name: "conv5_1"
  type: "Convolution"
  bottom: "pool4"
  top: "conv5_1"
  param {
    lr_mult: 1
  }
  param {
    lr_mult: 2
  }
  convolution_param {
    num_output: 512
    pad: 1
    kernel_size: 3
  }
}
layer {
  name: "relu5_1"
  type: "ReLU"
  bottom: "conv5_1"
  top: "conv5_1"
}
layer {
  name: "conv5_2"
  type: "Convolution"
  bottom: "conv5_1"
  top: "conv5_2"
  param {
    lr_mult: 1
  }
  param {
    lr_mult: 2
  }
  convolution_param {
    num_output: 512
    pad: 1
    kernel_size: 3
  }
}
layer {
  name: "relu5_2"
  type: "ReLU"
  bottom: "conv5_2"
  top: "conv5_2"
}
layer {
  name: "conv5_3"
  type: "Convolution"
  bottom: "conv5_2"
  top: "conv5_3"
  param {
    lr_mult: 1
  }
  param {
    lr_mult: 2
  }
  convolution_param {
    num_output: 512
    pad: 1
    kernel_size: 3
  }
}
layer {
  name: "relu5_3"
  type: "ReLU"
  bottom: "conv5_3"
  top: "conv5_3"
}
layer {
  name: "rpn_conv/3x3"
  type: "Convolution"
  bottom: "conv5_3"
  top: "rpn/output"
  param {
    lr_mult: 1
  }
  param {
    lr_mult: 2
  }
  convolution_param {
    num_output: 512
    pad: 1
    kernel_size: 3
    stride: 1
    weight_filler {
      type: "gaussian"
      std: 0.01
    }
    bias_filler {
      type: "constant"
      value: 0
    }
  }
}
layer {
  name: "rpn_relu/3x3"
  type: "ReLU"
  bottom: "rpn/output"
  top: "rpn/output"
}
layer {
  name: "rpn_cls_score"
  type: "Convolution"
  bottom: "rpn/output"
  top: "rpn_cls_score"
  param {
    lr_mult: 1
  }
  param {
    lr_mult: 2
  }
  convolution_param {
    num_output: 30
    pad: 0
    kernel_size: 1
    stride: 1
    weight_filler {
      type: "gaussian"
      std: 0.01
    }
    bias_filler {
      type: "constant"
      value: 0
    }
  }
}
layer {
  name: "rpn_bbox_pred"
  type: "Convolution"
  bottom: "rpn/output"
  top: "rpn_bbox_pred"
  param {
    lr_mult: 1
  }
  param {
    lr_mult: 2
  }
  convolution_param {
    num_output: 60
    pad: 0
    kernel_size: 1
    stride: 1
    weight_filler {
      type: "gaussian"
      std: 0.01
    }
    bias_filler {
      type: "constant"
      value: 0
    }
  }
}
layer {
  name: "rpn_cls_score_reshape"
  type: "Reshape"
  bottom: "rpn_cls_score"
  top: "rpn_cls_score_reshape"
  reshape_param {
    shape {
      dim: 0
      dim: 2
      dim: -1
      dim: 0
    }
  }
}
layer {
  name: "rpn-data"
  type: "Python"
  bottom: "rpn_cls_score"
  bottom: "gt_boxes"
  bottom: "im_info"
  bottom: "data"
  top: "rpn_labels"
  top: "rpn_bbox_targets"
  top: "rpn_bbox_inside_weights"
  top: "rpn_bbox_outside_weights"
  python_param {
    module: "rpn.anchor_target_layer"
    layer: "AnchorTargetLayer"
    param_str: "\'feat_stride\': 16 \n\'scales\': !!python/tuple [2, 4, 8, 16, 32]"
  }
}
layer {
  name: "rpn_loss_cls"
  type: "SoftmaxWithLoss"
  bottom: "rpn_cls_score_reshape"
  bottom: "rpn_labels"
  top: "rpn_cls_loss"
  loss_weight: 1
  propagate_down: true
  propagate_down: false
  loss_param {
    ignore_label: -1
    normalize: true
  }
}
layer {
  name: "rpn_loss_bbox"
  type: "SmoothL1Loss"
  bottom: "rpn_bbox_pred"
  bottom: "rpn_bbox_targets"
  bottom: "rpn_bbox_inside_weights"
  bottom: "rpn_bbox_outside_weights"
  top: "rpn_loss_bbox"
  loss_weight: 1
  smooth_l1_loss_param {
    sigma: 3
  }
}
layer {
  name: "rpn_cls_prob"
  type: "Softmax"
  bottom: "rpn_cls_score_reshape"
  top: "rpn_cls_prob"
}
layer {
  name: "rpn_cls_prob_reshape"
  type: "Reshape"
  bottom: "rpn_cls_prob"
  top: "rpn_cls_prob_reshape"
  reshape_param {
    shape {
      dim: 0
      dim: 30
      dim: -1
      dim: 0
    }
  }
}
layer {
  name: "proposal"
  type: "Python"
  bottom: "rpn_cls_prob_reshape"
  bottom: "rpn_bbox_pred"
  bottom: "im_info"
  top: "rpn_rois"
  python_param {
    module: "rpn.proposal_layer"
    layer: "ProposalLayer"
    param_str: "\'feat_stride\': 16 \n\'scales\': !!python/tuple [2, 4, 8, 16, 32]"
  }
}
layer {
  name: "roi-data"
  type: "Python"
  bottom: "rpn_rois"
  bottom: "gt_boxes"
  bottom: "im_info"
  bottom: "seg_mask_inds"
  bottom: "flipped"
  top: "rois"
  top: "labels"
  top: "bbox_targets"
  top: "bbox_inside_weights"
  top: "bbox_outside_weights"
  top: "mask_targets"
  top: "rois_pos"
  top: "attrArray"
  top: "attrArrayInd"
  top: "attrArrayShift"
  python_param {
    module: "rpn.proposal_target_layer"
    layer: "ProposalTargetLayer"
    param_str: "\'num_classes\': 2"
  }
}
layer {
  name: "roi_pool5"
  type: "ROIAlignment"
  bottom: "conv5_3"
  bottom: "rois"
  top: "pool5"
  roi_alignment_param {
    pooled_h: 7
    pooled_w: 7
    spatial_scale: 0.0625
  }
}
layer {
  name: "fc6"
  type: "InnerProduct"
  bottom: "pool5"
  top: "fc6"
  param {
    lr_mult: 1
  }
  param {
    lr_mult: 2
  }
  inner_product_param {
    num_output: 4096
  }
}
layer {
  name: "relu6"
  type: "ReLU"
  bottom: "fc6"
  top: "fc6"
}
layer {
  name: "fc7"
  type: "InnerProduct"
  bottom: "fc6"
  top: "fc7"
  param {
    lr_mult: 1
  }
  param {
    lr_mult: 2
  }
  inner_product_param {
    num_output: 4096
  }
}
layer {
  name: "relu7"
  type: "ReLU"
  bottom: "fc7"
  top: "fc7"
}
layer {
  name: "attr_score"
  type: "InnerProduct"
  bottom: "fc7"
  top: "attr_score"
  param {
    lr_mult: 1
  }
  param {
    lr_mult: 2
  }
  inner_product_param {
    num_output: 7
    weight_filler {
      type: "gaussian"
      std: 0.001
    }
    bias_filler {
      type: "constant"
      value: 0
    }
  }
}
layer {
  name: "attr_score_pos"
  type: "Eltwise"
  bottom: "attr_score"
  bottom: "attrArrayInd"
  top: "attr_score_pos"
  eltwise_param {
    operation: PROD
  }
}
layer {
  name: "attr_score_pos_shift"
  type: "Eltwise"
  bottom: "attr_score_pos"
  bottom: "attrArrayShift"
  top: "attr_score_pos_shift"
  eltwise_param {
    operation: SUM
  }
}
layer {
  name: "cls_score"
  type: "InnerProduct"
  bottom: "fc7"
  top: "cls_score"
  param {
    lr_mult: 1
  }
  param {
    lr_mult: 2
  }
  inner_product_param {
    num_output: 2
    weight_filler {
      type: "gaussian"
      std: 0.01
    }
    bias_filler {
      type: "constant"
      value: 0
    }
  }
}
layer {
  name: "bbox_pred"
  type: "InnerProduct"
  bottom: "fc7"
  top: "bbox_pred"
  param {
    lr_mult: 1
  }
  param {
    lr_mult: 2
  }
  inner_product_param {
    num_output: 8
    weight_filler {
      type: "gaussian"
      std: 0.001
    }
    bias_filler {
      type: "constant"
      value: 0
    }
  }
}
layer {
  name: "loss_attribute"
  type: "SigmoidCrossEntropyLoss"
  bottom: "attr_score_pos_shift"
  bottom: "attrArray"
  top: "loss_attribute"
  loss_weight: 1
  propagate_down: true
  propagate_down: false
}
layer {
  name: "loss_cls"
  type: "SoftmaxWithLoss"
  bottom: "cls_score"
  bottom: "labels"
  top: "loss_cls"
  loss_weight: 3
  propagate_down: true
  propagate_down: false
}
layer {
  name: "loss_bbox"
  type: "SmoothL1Loss"
  bottom: "bbox_pred"
  bottom: "bbox_targets"
  bottom: "bbox_inside_weights"
  bottom: "bbox_outside_weights"
  top: "loss_bbox"
  loss_weight: 2
}
layer {
  name: "roi_pool5_2"
  type: "ROIAlignment"
  bottom: "conv5_3"
  bottom: "rois_pos"
  top: "pool5_2"
  roi_alignment_param {
    pooled_h: 7
    pooled_w: 7
    spatial_scale: 0.0625
  }
}
layer {
  name: "pool5_2_conv"
  type: "Convolution"
  bottom: "pool5_2"
  top: "pool5_2_conv"
  param {
    lr_mult: 1
    decay_mult: 1
  }
  param {
    lr_mult: 2
    decay_mult: 0
  }
  convolution_param {
    num_output: 512
    pad: 0
    kernel_size: 1
    weight_filler {
      type: "gaussian"
      std: 0.01
    }
    bias_filler {
      type: "constant"
      value: 0
    }
  }
}
layer {
  name: "pool5_2_conv_relu"
  type: "ReLU"
  bottom: "pool5_2_conv"
  top: "pool5_2_conv_relu"
}
layer {
  name: "pool5_2_conv2"
  type: "Convolution"
  bottom: "pool5_2_conv_relu"
  top: "pool5_2_conv2"
  param {
    lr_mult: 1
    decay_mult: 1
  }
  param {
    lr_mult: 2
    decay_mult: 0
  }
  convolution_param {
    num_output: 512
    pad: 1
    kernel_size: 3
    stride: 1
    weight_filler {
      type: "gaussian"
      std: 0.01
    }
    bias_filler {
      type: "constant"
      value: 0
    }
  }
}
layer {
  name: "pool5_2_conv2_relu"
  type: "ReLU"
  bottom: "pool5_2_conv2"
  top: "pool5_2_conv2_relu"
}
layer {
  name: "mask_deconv1"
  type: "Deconvolution"
  bottom: "pool5_2_conv2_relu"
  top: "mask_deconv1"
  param {
    lr_mult: 1
    decay_mult: 1
  }
  param {
    lr_mult: 2
    decay_mult: 0
  }
  convolution_param {
    num_output: 256
    pad: 1
    kernel_size: 8
    group: 256
    stride: 4
    weight_filler {
      type: "bilinear"
    }
  }
}
layer {
  name: "pool5_2_conv3"
  type: "Convolution"
  bottom: "mask_deconv1"
  top: "pool5_2_conv3"
  param {
    lr_mult: 1
    decay_mult: 1
  }
  param {
    lr_mult: 2
    decay_mult: 0
  }
  convolution_param {
    num_output: 512
    pad: 1
    kernel_size: 3
    stride: 1
    weight_filler {
      type: "gaussian"
      std: 0.01
    }
    bias_filler {
      type: "constant"
      value: 0
    }
  }
}
layer {
  name: "pool5_2_conv3_relu"
  type: "ReLU"
  bottom: "pool5_2_conv3"
  top: "pool5_2_conv3_relu"
}
layer {
  name: "pool5_2_conv4"
  type: "Convolution"
  bottom: "pool5_2_conv3_relu"
  top: "pool5_2_conv4"
  param {
    lr_mult: 1
    decay_mult: 1
  }
  param {
    lr_mult: 2
    decay_mult: 0
  }
  convolution_param {
    num_output: 512
    pad: 1
    kernel_size: 3
    stride: 1
    weight_filler {
      type: "gaussian"
      std: 0.01
    }
    bias_filler {
      type: "constant"
      value: 0
    }
  }
}
layer {
  name: "pool5_2_conv4_relu"
  type: "ReLU"
  bottom: "pool5_2_conv4"
  top: "pool5_2_conv4_relu"
}
layer {
  name: "query_conv"
  type: "Convolution"
  bottom: "pool5_2_conv4_relu"
  top: "query_conv"
  param {
    lr_mult: 1
    decay_mult: 1
  }
  param {
    lr_mult: 2
    decay_mult: 0
  }
  convolution_param {
    num_output: 64
    pad: 0
    kernel_size: 1
    stride: 1
    weight_filler {
      type: "gaussian"
      std: 0.01
    }
    bias_filler {
      type: "constant"
      value: 0
    }
  }
}
layer {
  name: "key_conv"
  type: "Convolution"
  bottom: "pool5_2_conv4_relu"
  top: "key_conv"
  param {
    lr_mult: 1
    decay_mult: 1
  }
  param {
    lr_mult: 2
    decay_mult: 0
  }
  convolution_param {
    num_output: 64
    pad: 0
    kernel_size: 1
    stride: 1
    weight_filler {
      type: "gaussian"
      std: 0.01
    }
    bias_filler {
      type: "constant"
      value: 0
    }
  }
}
layer {
  name: "value_conv"
  type: "Convolution"
  bottom: "pool5_2_conv4_relu"
  top: "value_conv"
  param {
    lr_mult: 1
    decay_mult: 1
  }
  param {
    lr_mult: 2
    decay_mult: 0
  }
  convolution_param {
    num_output: 512
    pad: 0
    kernel_size: 1
    stride: 1
    weight_filler {
      type: "gaussian"
      std: 0.01
    }
    bias_filler {
      type: "constant"
      value: 0
    }
  }
}
layer {
  name: "query_conv_reshape"
  type: "Reshape"
  bottom: "query_conv"
  top: "query_conv_reshape"
  reshape_param {
    shape {
      dim: -1
      dim: 64
      dim: 900
      dim: 1
    }
  }
}
layer {
  name: "key_conv_reshape"
  type: "Reshape"
  bottom: "key_conv"
  top: "key_conv_reshape"
  reshape_param {
    shape {
      dim: -1
      dim: 64
      dim: 900
      dim: 1
    }
  }
}
layer {
  name: "value_conv_reshape"
  type: "Reshape"
  bottom: "value_conv"
  top: "value_conv_reshape"
  reshape_param {
    shape {
      dim: -1
      dim: 512
      dim: 900
      dim: 1
    }
  }
}
layer {
  name: "query_conv_reshape_perm"
  type: "Permute"
  bottom: "query_conv_reshape"
  top: "query_conv_reshape_perm"
  permute_param {
    order: 0
    order: 3
    order: 2
    order: 1
  }
}
layer {
  name: "key_conv_reshape_perm"
  type: "Permute"
  bottom: "key_conv_reshape"
  top: "key_conv_reshape_perm"
  permute_param {
    order: 0
    order: 3
    order: 1
    order: 2
  }
}
layer {
  name: "energy"
  type: "MatrixMultiplication"
  bottom: "query_conv_reshape_perm"
  bottom: "key_conv_reshape_perm"
  top: "energy"
}
layer {
  name: "attention"
  type: "Softmax"
  bottom: "energy"
  top: "attention"
  softmax_param {
    axis: 3
  }
}
layer {
  name: "value_conv_reshape_perm"
  type: "Permute"
  bottom: "value_conv_reshape"
  top: "value_conv_reshape_perm"
  permute_param {
    order: 0
    order: 3
    order: 1
    order: 2
  }
}
layer {
  name: "attention_perm"
  type: "Permute"
  bottom: "attention"
  top: "attention_perm"
  permute_param {
    order: 0
    order: 1
    order: 2
    order: 3
  }
}
layer {
  name: "out"
  type: "MatrixMultiplication"
  bottom: "value_conv_reshape_perm"
  bottom: "attention_perm"
  top: "out"
}
layer {
  name: "out_reshape"
  type: "Reshape"
  bottom: "out"
  top: "out_reshape"
  reshape_param {
    shape {
      dim: -1
      dim: 512
      dim: 30
      dim: 30
    }
  }
}
layer {
  name: "out_reshape_scale"
  type: "Scale"
  bottom: "out_reshape"
  top: "out_reshape_scale"
  param {
    name: "scale_conv1_1"
    lr_mult: 1
  }
  scale_param {
    bias_term: false
  }
}
layer {
  name: "out_x"
  type: "Eltwise"
  bottom: "out_reshape_scale"
  bottom: "pool5_2_conv4_relu"
  top: "out_x"
  eltwise_param {
    operation: SUM
  }
}
layer {
  name: "mask_deconv2"
  type: "Deconvolution"
  bottom: "out_x"
  top: "mask_deconv2"
  param {
    lr_mult: 1
    decay_mult: 1
  }
  param {
    lr_mult: 2
    decay_mult: 0
  }
  convolution_param {
    num_output: 256
    pad: 1
    kernel_size: 8
    group: 256
    stride: 4
    weight_filler {
      type: "bilinear"
    }
  }
}
layer {
  name: "pool5_2_conv5"
  type: "Convolution"
  bottom: "mask_deconv2"
  top: "pool5_2_conv5"
  param {
    lr_mult: 1
    decay_mult: 1
  }
  param {
    lr_mult: 2
    decay_mult: 0
  }
  convolution_param {
    num_output: 512
    pad: 1
    kernel_size: 3
    stride: 1
    weight_filler {
      type: "gaussian"
      std: 0.01
    }
    bias_filler {
      type: "constant"
      value: 0
    }
  }
}
layer {
  name: "pool5_2_conv5_relu"
  type: "ReLU"
  bottom: "pool5_2_conv5"
  top: "pool5_2_conv5_relu"
}
layer {
  name: "pool5_2_conv6"
  type: "Convolution"
  bottom: "pool5_2_conv5_relu"
  top: "pool5_2_conv6"
  param {
    lr_mult: 1
    decay_mult: 1
  }
  param {
    lr_mult: 2
    decay_mult: 0
  }
  convolution_param {
    num_output: 512
    pad: 1
    kernel_size: 3
    stride: 1
    weight_filler {
      type: "gaussian"
      std: 0.01
    }
    bias_filler {
      type: "constant"
      value: 0
    }
  }
}
layer {
  name: "pool5_2_conv6_relu"
  type: "ReLU"
  bottom: "pool5_2_conv6"
  top: "pool5_2_conv6_relu"
}
layer {
  name: "mask_deconv3"
  type: "Deconvolution"
  bottom: "pool5_2_conv6_relu"
  top: "mask_deconv3"
  param {
    lr_mult: 1
    decay_mult: 1
  }
  param {
    lr_mult: 2
    decay_mult: 0
  }
  convolution_param {
    num_output: 256
    pad: 1
    kernel_size: 4
    group: 256
    stride: 2
    weight_filler {
      type: "bilinear"
    }
  }
}
layer {
  name: "mask_score"
  type: "Convolution"
  bottom: "mask_deconv3"
  top: "mask_score"
  param {
    lr_mult: 1
    decay_mult: 1
  }
  param {
    lr_mult: 2
    decay_mult: 0
  }
  convolution_param {
    num_output: 8
    pad: 0
    kernel_size: 1
    weight_filler {
      type: "gaussian"
      std: 0.01
    }
    bias_filler {
      type: "constant"
      value: 0
    }
  }
}
layer {
  name: "prob"
  type: "Softmax"
  bottom: "mask_score"
  top: "mask_score_softmax"
  softmax_param {
    axis: 1
  }
}
layer {
  name: "log"
  type: "Log"
  bottom: "mask_score_softmax"
  top: "log"
}
layer {
  name: "mult1"
  type: "Eltwise"
  bottom: "log"
  bottom: "mask_targets"
  top: "mult1"
  eltwise_param {
    operation: PROD
  }
}
layer {
  name: "cross_entropy"
  type: "Power"
  bottom: "mult1"
  top: "cross_entropy"
  power_param {
    power: 1
    scale: -1
    shift: 0
  }
}
layer {
  name: "ce_sum"
  type: "Convolution"
  bottom: "cross_entropy"
  top: "cross_entropy_sum"
  param {
    lr_mult: 0
    decay_mult: 0
  }
  convolution_param {
    num_output: 1
    bias_term: false
    kernel_size: 1
    weight_filler {
      type: "constant"
      value: 1
    }
  }
}
layer {
  name: "ce_mean"
  type: "Reduction"
  bottom: "cross_entropy_sum"
  top: "cross_entropy_mean"
  loss_weight: 1
  reduction_param {
    operation: MEAN
    axis: 0
  }
}
I0625 20:55:42.039489 26920 layer_factory.hpp:77] Creating layer input-data
I0625 20:55:42.051496 26920 net.cpp:106] Creating Layer input-data
I0625 20:55:42.051512 26920 net.cpp:411] input-data -> data
I0625 20:55:42.051522 26920 net.cpp:411] input-data -> im_info
I0625 20:55:42.051528 26920 net.cpp:411] input-data -> gt_boxes
I0625 20:55:42.051534 26920 net.cpp:411] input-data -> seg_mask_inds
I0625 20:55:42.051551 26920 net.cpp:411] input-data -> flipped
RoiDataLayer: name_to_top: {'gt_boxes': 2, 'data': 0, 'seg_mask_inds': 3, 'im_info': 1, 'flipped': 4}
I0625 20:55:42.062114 26920 net.cpp:150] Setting up input-data
I0625 20:55:42.062139 26920 net.cpp:157] Top shape: 1 3 600 1000 (1800000)
I0625 20:55:42.062142 26920 net.cpp:157] Top shape: 1 3 (3)
I0625 20:55:42.062144 26920 net.cpp:157] Top shape: 1 4 (4)
I0625 20:55:42.062146 26920 net.cpp:157] Top shape: 1 2 (2)
I0625 20:55:42.062150 26920 net.cpp:157] Top shape: 1 1 (1)
I0625 20:55:42.062151 26920 net.cpp:165] Memory required for data: 7200040
I0625 20:55:42.062155 26920 layer_factory.hpp:77] Creating layer data_input-data_0_split
I0625 20:55:42.062167 26920 net.cpp:106] Creating Layer data_input-data_0_split
I0625 20:55:42.062171 26920 net.cpp:454] data_input-data_0_split <- data
I0625 20:55:42.062175 26920 net.cpp:411] data_input-data_0_split -> data_input-data_0_split_0
I0625 20:55:42.062182 26920 net.cpp:411] data_input-data_0_split -> data_input-data_0_split_1
I0625 20:55:42.062202 26920 net.cpp:150] Setting up data_input-data_0_split
I0625 20:55:42.062206 26920 net.cpp:157] Top shape: 1 3 600 1000 (1800000)
I0625 20:55:42.062209 26920 net.cpp:157] Top shape: 1 3 600 1000 (1800000)
I0625 20:55:42.062212 26920 net.cpp:165] Memory required for data: 21600040
I0625 20:55:42.062214 26920 layer_factory.hpp:77] Creating layer im_info_input-data_1_split
I0625 20:55:42.062217 26920 net.cpp:106] Creating Layer im_info_input-data_1_split
I0625 20:55:42.062219 26920 net.cpp:454] im_info_input-data_1_split <- im_info
I0625 20:55:42.062222 26920 net.cpp:411] im_info_input-data_1_split -> im_info_input-data_1_split_0
I0625 20:55:42.062225 26920 net.cpp:411] im_info_input-data_1_split -> im_info_input-data_1_split_1
I0625 20:55:42.062229 26920 net.cpp:411] im_info_input-data_1_split -> im_info_input-data_1_split_2
I0625 20:55:42.062253 26920 net.cpp:150] Setting up im_info_input-data_1_split
I0625 20:55:42.062263 26920 net.cpp:157] Top shape: 1 3 (3)
I0625 20:55:42.062264 26920 net.cpp:157] Top shape: 1 3 (3)
I0625 20:55:42.062266 26920 net.cpp:157] Top shape: 1 3 (3)
I0625 20:55:42.062268 26920 net.cpp:165] Memory required for data: 21600076
I0625 20:55:42.062270 26920 layer_factory.hpp:77] Creating layer gt_boxes_input-data_2_split
I0625 20:55:42.062273 26920 net.cpp:106] Creating Layer gt_boxes_input-data_2_split
I0625 20:55:42.062275 26920 net.cpp:454] gt_boxes_input-data_2_split <- gt_boxes
I0625 20:55:42.062278 26920 net.cpp:411] gt_boxes_input-data_2_split -> gt_boxes_input-data_2_split_0
I0625 20:55:42.062281 26920 net.cpp:411] gt_boxes_input-data_2_split -> gt_boxes_input-data_2_split_1
I0625 20:55:42.062299 26920 net.cpp:150] Setting up gt_boxes_input-data_2_split
I0625 20:55:42.062304 26920 net.cpp:157] Top shape: 1 4 (4)
I0625 20:55:42.062305 26920 net.cpp:157] Top shape: 1 4 (4)
I0625 20:55:42.062307 26920 net.cpp:165] Memory required for data: 21600108
I0625 20:55:42.062309 26920 layer_factory.hpp:77] Creating layer conv1_1
I0625 20:55:42.062316 26920 net.cpp:106] Creating Layer conv1_1
I0625 20:55:42.062319 26920 net.cpp:454] conv1_1 <- data_input-data_0_split_0
I0625 20:55:42.062322 26920 net.cpp:411] conv1_1 -> conv1_1
I0625 20:55:42.265622 26920 net.cpp:150] Setting up conv1_1
I0625 20:55:42.265650 26920 net.cpp:157] Top shape: 1 64 600 1000 (38400000)
I0625 20:55:42.265653 26920 net.cpp:165] Memory required for data: 175200108
I0625 20:55:42.265664 26920 layer_factory.hpp:77] Creating layer relu1_1
I0625 20:55:42.265683 26920 net.cpp:106] Creating Layer relu1_1
I0625 20:55:42.265688 26920 net.cpp:454] relu1_1 <- conv1_1
I0625 20:55:42.265691 26920 net.cpp:397] relu1_1 -> conv1_1 (in-place)
I0625 20:55:42.265821 26920 net.cpp:150] Setting up relu1_1
I0625 20:55:42.265827 26920 net.cpp:157] Top shape: 1 64 600 1000 (38400000)
I0625 20:55:42.265830 26920 net.cpp:165] Memory required for data: 328800108
I0625 20:55:42.265831 26920 layer_factory.hpp:77] Creating layer conv1_2
I0625 20:55:42.265849 26920 net.cpp:106] Creating Layer conv1_2
I0625 20:55:42.265851 26920 net.cpp:454] conv1_2 <- conv1_1
I0625 20:55:42.265856 26920 net.cpp:411] conv1_2 -> conv1_2
I0625 20:55:42.267979 26920 net.cpp:150] Setting up conv1_2
I0625 20:55:42.267992 26920 net.cpp:157] Top shape: 1 64 600 1000 (38400000)
I0625 20:55:42.267993 26920 net.cpp:165] Memory required for data: 482400108
I0625 20:55:42.268002 26920 layer_factory.hpp:77] Creating layer relu1_2
I0625 20:55:42.268007 26920 net.cpp:106] Creating Layer relu1_2
I0625 20:55:42.268010 26920 net.cpp:454] relu1_2 <- conv1_2
I0625 20:55:42.268013 26920 net.cpp:397] relu1_2 -> conv1_2 (in-place)
I0625 20:55:42.268138 26920 net.cpp:150] Setting up relu1_2
I0625 20:55:42.268143 26920 net.cpp:157] Top shape: 1 64 600 1000 (38400000)
I0625 20:55:42.268146 26920 net.cpp:165] Memory required for data: 636000108
I0625 20:55:42.268147 26920 layer_factory.hpp:77] Creating layer pool1
I0625 20:55:42.268153 26920 net.cpp:106] Creating Layer pool1
I0625 20:55:42.268155 26920 net.cpp:454] pool1 <- conv1_2
I0625 20:55:42.268159 26920 net.cpp:411] pool1 -> pool1
I0625 20:55:42.268210 26920 net.cpp:150] Setting up pool1
I0625 20:55:42.268214 26920 net.cpp:157] Top shape: 1 64 300 500 (9600000)
I0625 20:55:42.268215 26920 net.cpp:165] Memory required for data: 674400108
I0625 20:55:42.268227 26920 layer_factory.hpp:77] Creating layer conv2_1
I0625 20:55:42.268234 26920 net.cpp:106] Creating Layer conv2_1
I0625 20:55:42.268244 26920 net.cpp:454] conv2_1 <- pool1
I0625 20:55:42.268247 26920 net.cpp:411] conv2_1 -> conv2_1
I0625 20:55:42.270036 26920 net.cpp:150] Setting up conv2_1
I0625 20:55:42.270045 26920 net.cpp:157] Top shape: 1 128 300 500 (19200000)
I0625 20:55:42.270047 26920 net.cpp:165] Memory required for data: 751200108
I0625 20:55:42.270066 26920 layer_factory.hpp:77] Creating layer relu2_1
I0625 20:55:42.270071 26920 net.cpp:106] Creating Layer relu2_1
I0625 20:55:42.270074 26920 net.cpp:454] relu2_1 <- conv2_1
I0625 20:55:42.270076 26920 net.cpp:397] relu2_1 -> conv2_1 (in-place)
I0625 20:55:42.270578 26920 net.cpp:150] Setting up relu2_1
I0625 20:55:42.270586 26920 net.cpp:157] Top shape: 1 128 300 500 (19200000)
I0625 20:55:42.270587 26920 net.cpp:165] Memory required for data: 828000108
I0625 20:55:42.270589 26920 layer_factory.hpp:77] Creating layer conv2_2
I0625 20:55:42.270596 26920 net.cpp:106] Creating Layer conv2_2
I0625 20:55:42.270597 26920 net.cpp:454] conv2_2 <- conv2_1
I0625 20:55:42.270601 26920 net.cpp:411] conv2_2 -> conv2_2
I0625 20:55:42.271873 26920 net.cpp:150] Setting up conv2_2
I0625 20:55:42.271883 26920 net.cpp:157] Top shape: 1 128 300 500 (19200000)
I0625 20:55:42.271884 26920 net.cpp:165] Memory required for data: 904800108
I0625 20:55:42.271888 26920 layer_factory.hpp:77] Creating layer relu2_2
I0625 20:55:42.271893 26920 net.cpp:106] Creating Layer relu2_2
I0625 20:55:42.271894 26920 net.cpp:454] relu2_2 <- conv2_2
I0625 20:55:42.271898 26920 net.cpp:397] relu2_2 -> conv2_2 (in-place)
I0625 20:55:42.272038 26920 net.cpp:150] Setting up relu2_2
I0625 20:55:42.272043 26920 net.cpp:157] Top shape: 1 128 300 500 (19200000)
I0625 20:55:42.272045 26920 net.cpp:165] Memory required for data: 981600108
I0625 20:55:42.272047 26920 layer_factory.hpp:77] Creating layer pool2
I0625 20:55:42.272051 26920 net.cpp:106] Creating Layer pool2
I0625 20:55:42.272053 26920 net.cpp:454] pool2 <- conv2_2
I0625 20:55:42.272055 26920 net.cpp:411] pool2 -> pool2
I0625 20:55:42.272114 26920 net.cpp:150] Setting up pool2
I0625 20:55:42.272117 26920 net.cpp:157] Top shape: 1 128 150 250 (4800000)
I0625 20:55:42.272119 26920 net.cpp:165] Memory required for data: 1000800108
I0625 20:55:42.272120 26920 layer_factory.hpp:77] Creating layer conv3_1
I0625 20:55:42.272135 26920 net.cpp:106] Creating Layer conv3_1
I0625 20:55:42.272137 26920 net.cpp:454] conv3_1 <- pool2
I0625 20:55:42.272142 26920 net.cpp:411] conv3_1 -> conv3_1
I0625 20:55:42.273895 26920 net.cpp:150] Setting up conv3_1
I0625 20:55:42.273902 26920 net.cpp:157] Top shape: 1 256 150 250 (9600000)
I0625 20:55:42.273905 26920 net.cpp:165] Memory required for data: 1039200108
I0625 20:55:42.273910 26920 layer_factory.hpp:77] Creating layer relu3_1
I0625 20:55:42.273916 26920 net.cpp:106] Creating Layer relu3_1
I0625 20:55:42.273917 26920 net.cpp:454] relu3_1 <- conv3_1
I0625 20:55:42.273919 26920 net.cpp:397] relu3_1 -> conv3_1 (in-place)
I0625 20:55:42.274045 26920 net.cpp:150] Setting up relu3_1
I0625 20:55:42.274051 26920 net.cpp:157] Top shape: 1 256 150 250 (9600000)
I0625 20:55:42.274052 26920 net.cpp:165] Memory required for data: 1077600108
I0625 20:55:42.274055 26920 layer_factory.hpp:77] Creating layer conv3_2
I0625 20:55:42.274072 26920 net.cpp:106] Creating Layer conv3_2
I0625 20:55:42.274075 26920 net.cpp:454] conv3_2 <- conv3_1
I0625 20:55:42.274078 26920 net.cpp:411] conv3_2 -> conv3_2
I0625 20:55:42.276043 26920 net.cpp:150] Setting up conv3_2
I0625 20:55:42.276052 26920 net.cpp:157] Top shape: 1 256 150 250 (9600000)
I0625 20:55:42.276054 26920 net.cpp:165] Memory required for data: 1116000108
I0625 20:55:42.276059 26920 layer_factory.hpp:77] Creating layer relu3_2
I0625 20:55:42.276064 26920 net.cpp:106] Creating Layer relu3_2
I0625 20:55:42.276067 26920 net.cpp:454] relu3_2 <- conv3_2
I0625 20:55:42.276070 26920 net.cpp:397] relu3_2 -> conv3_2 (in-place)
I0625 20:55:42.276185 26920 net.cpp:150] Setting up relu3_2
I0625 20:55:42.276190 26920 net.cpp:157] Top shape: 1 256 150 250 (9600000)
I0625 20:55:42.276191 26920 net.cpp:165] Memory required for data: 1154400108
I0625 20:55:42.276193 26920 layer_factory.hpp:77] Creating layer conv3_3
I0625 20:55:42.276199 26920 net.cpp:106] Creating Layer conv3_3
I0625 20:55:42.276201 26920 net.cpp:454] conv3_3 <- conv3_2
I0625 20:55:42.276204 26920 net.cpp:411] conv3_3 -> conv3_3
I0625 20:55:42.278182 26920 net.cpp:150] Setting up conv3_3
I0625 20:55:42.278192 26920 net.cpp:157] Top shape: 1 256 150 250 (9600000)
I0625 20:55:42.278193 26920 net.cpp:165] Memory required for data: 1192800108
I0625 20:55:42.278208 26920 layer_factory.hpp:77] Creating layer relu3_3
I0625 20:55:42.278213 26920 net.cpp:106] Creating Layer relu3_3
I0625 20:55:42.278216 26920 net.cpp:454] relu3_3 <- conv3_3
I0625 20:55:42.278219 26920 net.cpp:397] relu3_3 -> conv3_3 (in-place)
I0625 20:55:42.278367 26920 net.cpp:150] Setting up relu3_3
I0625 20:55:42.278371 26920 net.cpp:157] Top shape: 1 256 150 250 (9600000)
I0625 20:55:42.278373 26920 net.cpp:165] Memory required for data: 1231200108
I0625 20:55:42.278375 26920 layer_factory.hpp:77] Creating layer pool3
I0625 20:55:42.278389 26920 net.cpp:106] Creating Layer pool3
I0625 20:55:42.278393 26920 net.cpp:454] pool3 <- conv3_3
I0625 20:55:42.278396 26920 net.cpp:411] pool3 -> pool3
I0625 20:55:42.278424 26920 net.cpp:150] Setting up pool3
I0625 20:55:42.278439 26920 net.cpp:157] Top shape: 1 256 75 125 (2400000)
I0625 20:55:42.278441 26920 net.cpp:165] Memory required for data: 1240800108
I0625 20:55:42.278442 26920 layer_factory.hpp:77] Creating layer conv4_1
I0625 20:55:42.278457 26920 net.cpp:106] Creating Layer conv4_1
I0625 20:55:42.278460 26920 net.cpp:454] conv4_1 <- pool3
I0625 20:55:42.278463 26920 net.cpp:411] conv4_1 -> conv4_1
I0625 20:55:42.282315 26920 net.cpp:150] Setting up conv4_1
I0625 20:55:42.282351 26920 net.cpp:157] Top shape: 1 512 75 125 (4800000)
I0625 20:55:42.282354 26920 net.cpp:165] Memory required for data: 1260000108
I0625 20:55:42.282361 26920 layer_factory.hpp:77] Creating layer relu4_1
I0625 20:55:42.282378 26920 net.cpp:106] Creating Layer relu4_1
I0625 20:55:42.282382 26920 net.cpp:454] relu4_1 <- conv4_1
I0625 20:55:42.282387 26920 net.cpp:397] relu4_1 -> conv4_1 (in-place)
I0625 20:55:42.282516 26920 net.cpp:150] Setting up relu4_1
I0625 20:55:42.282522 26920 net.cpp:157] Top shape: 1 512 75 125 (4800000)
I0625 20:55:42.282524 26920 net.cpp:165] Memory required for data: 1279200108
I0625 20:55:42.282537 26920 layer_factory.hpp:77] Creating layer conv4_2
I0625 20:55:42.282543 26920 net.cpp:106] Creating Layer conv4_2
I0625 20:55:42.282546 26920 net.cpp:454] conv4_2 <- conv4_1
I0625 20:55:42.282549 26920 net.cpp:411] conv4_2 -> conv4_2
I0625 20:55:42.287369 26920 net.cpp:150] Setting up conv4_2
I0625 20:55:42.287397 26920 net.cpp:157] Top shape: 1 512 75 125 (4800000)
I0625 20:55:42.287400 26920 net.cpp:165] Memory required for data: 1298400108
I0625 20:55:42.287410 26920 layer_factory.hpp:77] Creating layer relu4_2
I0625 20:55:42.287428 26920 net.cpp:106] Creating Layer relu4_2
I0625 20:55:42.287432 26920 net.cpp:454] relu4_2 <- conv4_2
I0625 20:55:42.287436 26920 net.cpp:397] relu4_2 -> conv4_2 (in-place)
I0625 20:55:42.287925 26920 net.cpp:150] Setting up relu4_2
I0625 20:55:42.287932 26920 net.cpp:157] Top shape: 1 512 75 125 (4800000)
I0625 20:55:42.287935 26920 net.cpp:165] Memory required for data: 1317600108
I0625 20:55:42.287936 26920 layer_factory.hpp:77] Creating layer conv4_3
I0625 20:55:42.287942 26920 net.cpp:106] Creating Layer conv4_3
I0625 20:55:42.287945 26920 net.cpp:454] conv4_3 <- conv4_2
I0625 20:55:42.287959 26920 net.cpp:411] conv4_3 -> conv4_3
I0625 20:55:42.292230 26920 net.cpp:150] Setting up conv4_3
I0625 20:55:42.292251 26920 net.cpp:157] Top shape: 1 512 75 125 (4800000)
I0625 20:55:42.292253 26920 net.cpp:165] Memory required for data: 1336800108
I0625 20:55:42.292270 26920 layer_factory.hpp:77] Creating layer relu4_3
I0625 20:55:42.292279 26920 net.cpp:106] Creating Layer relu4_3
I0625 20:55:42.292294 26920 net.cpp:454] relu4_3 <- conv4_3
I0625 20:55:42.292299 26920 net.cpp:397] relu4_3 -> conv4_3 (in-place)
I0625 20:55:42.292448 26920 net.cpp:150] Setting up relu4_3
I0625 20:55:42.292452 26920 net.cpp:157] Top shape: 1 512 75 125 (4800000)
I0625 20:55:42.292454 26920 net.cpp:165] Memory required for data: 1356000108
I0625 20:55:42.292456 26920 layer_factory.hpp:77] Creating layer pool4
I0625 20:55:42.292461 26920 net.cpp:106] Creating Layer pool4
I0625 20:55:42.292464 26920 net.cpp:454] pool4 <- conv4_3
I0625 20:55:42.292467 26920 net.cpp:411] pool4 -> pool4
I0625 20:55:42.292527 26920 net.cpp:150] Setting up pool4
I0625 20:55:42.292531 26920 net.cpp:157] Top shape: 1 512 38 63 (1225728)
I0625 20:55:42.292532 26920 net.cpp:165] Memory required for data: 1360903020
I0625 20:55:42.292544 26920 layer_factory.hpp:77] Creating layer conv5_1
I0625 20:55:42.292549 26920 net.cpp:106] Creating Layer conv5_1
I0625 20:55:42.292567 26920 net.cpp:454] conv5_1 <- pool4
I0625 20:55:42.292570 26920 net.cpp:411] conv5_1 -> conv5_1
I0625 20:55:42.296664 26920 net.cpp:150] Setting up conv5_1
I0625 20:55:42.296682 26920 net.cpp:157] Top shape: 1 512 38 63 (1225728)
I0625 20:55:42.296695 26920 net.cpp:165] Memory required for data: 1365805932
I0625 20:55:42.296702 26920 layer_factory.hpp:77] Creating layer relu5_1
I0625 20:55:42.296721 26920 net.cpp:106] Creating Layer relu5_1
I0625 20:55:42.296725 26920 net.cpp:454] relu5_1 <- conv5_1
I0625 20:55:42.296730 26920 net.cpp:397] relu5_1 -> conv5_1 (in-place)
I0625 20:55:42.296867 26920 net.cpp:150] Setting up relu5_1
I0625 20:55:42.296875 26920 net.cpp:157] Top shape: 1 512 38 63 (1225728)
I0625 20:55:42.296886 26920 net.cpp:165] Memory required for data: 1370708844
I0625 20:55:42.296888 26920 layer_factory.hpp:77] Creating layer conv5_2
I0625 20:55:42.296896 26920 net.cpp:106] Creating Layer conv5_2
I0625 20:55:42.296898 26920 net.cpp:454] conv5_2 <- conv5_1
I0625 20:55:42.296902 26920 net.cpp:411] conv5_2 -> conv5_2
I0625 20:55:42.301637 26920 net.cpp:150] Setting up conv5_2
I0625 20:55:42.301656 26920 net.cpp:157] Top shape: 1 512 38 63 (1225728)
I0625 20:55:42.301659 26920 net.cpp:165] Memory required for data: 1375611756
I0625 20:55:42.301666 26920 layer_factory.hpp:77] Creating layer relu5_2
I0625 20:55:42.301672 26920 net.cpp:106] Creating Layer relu5_2
I0625 20:55:42.301686 26920 net.cpp:454] relu5_2 <- conv5_2
I0625 20:55:42.301690 26920 net.cpp:397] relu5_2 -> conv5_2 (in-place)
I0625 20:55:42.301841 26920 net.cpp:150] Setting up relu5_2
I0625 20:55:42.301846 26920 net.cpp:157] Top shape: 1 512 38 63 (1225728)
I0625 20:55:42.301847 26920 net.cpp:165] Memory required for data: 1380514668
I0625 20:55:42.301849 26920 layer_factory.hpp:77] Creating layer conv5_3
I0625 20:55:42.301858 26920 net.cpp:106] Creating Layer conv5_3
I0625 20:55:42.301861 26920 net.cpp:454] conv5_3 <- conv5_2
I0625 20:55:42.301864 26920 net.cpp:411] conv5_3 -> conv5_3
I0625 20:55:42.306095 26920 net.cpp:150] Setting up conv5_3
I0625 20:55:42.306115 26920 net.cpp:157] Top shape: 1 512 38 63 (1225728)
I0625 20:55:42.306118 26920 net.cpp:165] Memory required for data: 1385417580
I0625 20:55:42.306124 26920 layer_factory.hpp:77] Creating layer relu5_3
I0625 20:55:42.306133 26920 net.cpp:106] Creating Layer relu5_3
I0625 20:55:42.306146 26920 net.cpp:454] relu5_3 <- conv5_3
I0625 20:55:42.306151 26920 net.cpp:397] relu5_3 -> conv5_3 (in-place)
I0625 20:55:42.306308 26920 net.cpp:150] Setting up relu5_3
I0625 20:55:42.306314 26920 net.cpp:157] Top shape: 1 512 38 63 (1225728)
I0625 20:55:42.306315 26920 net.cpp:165] Memory required for data: 1390320492
I0625 20:55:42.306318 26920 layer_factory.hpp:77] Creating layer conv5_3_relu5_3_0_split
I0625 20:55:42.306322 26920 net.cpp:106] Creating Layer conv5_3_relu5_3_0_split
I0625 20:55:42.306324 26920 net.cpp:454] conv5_3_relu5_3_0_split <- conv5_3
I0625 20:55:42.306327 26920 net.cpp:411] conv5_3_relu5_3_0_split -> conv5_3_relu5_3_0_split_0
I0625 20:55:42.306332 26920 net.cpp:411] conv5_3_relu5_3_0_split -> conv5_3_relu5_3_0_split_1
I0625 20:55:42.306335 26920 net.cpp:411] conv5_3_relu5_3_0_split -> conv5_3_relu5_3_0_split_2
I0625 20:55:42.306392 26920 net.cpp:150] Setting up conv5_3_relu5_3_0_split
I0625 20:55:42.306396 26920 net.cpp:157] Top shape: 1 512 38 63 (1225728)
I0625 20:55:42.306411 26920 net.cpp:157] Top shape: 1 512 38 63 (1225728)
I0625 20:55:42.306412 26920 net.cpp:157] Top shape: 1 512 38 63 (1225728)
I0625 20:55:42.306414 26920 net.cpp:165] Memory required for data: 1405029228
I0625 20:55:42.306416 26920 layer_factory.hpp:77] Creating layer rpn_conv/3x3
I0625 20:55:42.306432 26920 net.cpp:106] Creating Layer rpn_conv/3x3
I0625 20:55:42.306434 26920 net.cpp:454] rpn_conv/3x3 <- conv5_3_relu5_3_0_split_0
I0625 20:55:42.306448 26920 net.cpp:411] rpn_conv/3x3 -> rpn/output
I0625 20:55:42.356305 26920 net.cpp:150] Setting up rpn_conv/3x3
I0625 20:55:42.356321 26920 net.cpp:157] Top shape: 1 512 38 63 (1225728)
I0625 20:55:42.356324 26920 net.cpp:165] Memory required for data: 1409932140
I0625 20:55:42.356330 26920 layer_factory.hpp:77] Creating layer rpn_relu/3x3
I0625 20:55:42.356338 26920 net.cpp:106] Creating Layer rpn_relu/3x3
I0625 20:55:42.356340 26920 net.cpp:454] rpn_relu/3x3 <- rpn/output
I0625 20:55:42.356355 26920 net.cpp:397] rpn_relu/3x3 -> rpn/output (in-place)
I0625 20:55:42.356477 26920 net.cpp:150] Setting up rpn_relu/3x3
I0625 20:55:42.356482 26920 net.cpp:157] Top shape: 1 512 38 63 (1225728)
I0625 20:55:42.356484 26920 net.cpp:165] Memory required for data: 1414835052
I0625 20:55:42.356487 26920 layer_factory.hpp:77] Creating layer rpn/output_rpn_relu/3x3_0_split
I0625 20:55:42.356490 26920 net.cpp:106] Creating Layer rpn/output_rpn_relu/3x3_0_split
I0625 20:55:42.356492 26920 net.cpp:454] rpn/output_rpn_relu/3x3_0_split <- rpn/output
I0625 20:55:42.356495 26920 net.cpp:411] rpn/output_rpn_relu/3x3_0_split -> rpn/output_rpn_relu/3x3_0_split_0
I0625 20:55:42.356498 26920 net.cpp:411] rpn/output_rpn_relu/3x3_0_split -> rpn/output_rpn_relu/3x3_0_split_1
I0625 20:55:42.356544 26920 net.cpp:150] Setting up rpn/output_rpn_relu/3x3_0_split
I0625 20:55:42.356547 26920 net.cpp:157] Top shape: 1 512 38 63 (1225728)
I0625 20:55:42.356560 26920 net.cpp:157] Top shape: 1 512 38 63 (1225728)
I0625 20:55:42.356561 26920 net.cpp:165] Memory required for data: 1424640876
I0625 20:55:42.356564 26920 layer_factory.hpp:77] Creating layer rpn_cls_score
I0625 20:55:42.356570 26920 net.cpp:106] Creating Layer rpn_cls_score
I0625 20:55:42.356572 26920 net.cpp:454] rpn_cls_score <- rpn/output_rpn_relu/3x3_0_split_0
I0625 20:55:42.356576 26920 net.cpp:411] rpn_cls_score -> rpn_cls_score
I0625 20:55:42.358076 26920 net.cpp:150] Setting up rpn_cls_score
I0625 20:55:42.358084 26920 net.cpp:157] Top shape: 1 30 38 63 (71820)
I0625 20:55:42.358086 26920 net.cpp:165] Memory required for data: 1424928156
I0625 20:55:42.358100 26920 layer_factory.hpp:77] Creating layer rpn_cls_score_rpn_cls_score_0_split
I0625 20:55:42.358106 26920 net.cpp:106] Creating Layer rpn_cls_score_rpn_cls_score_0_split
I0625 20:55:42.358108 26920 net.cpp:454] rpn_cls_score_rpn_cls_score_0_split <- rpn_cls_score
I0625 20:55:42.358111 26920 net.cpp:411] rpn_cls_score_rpn_cls_score_0_split -> rpn_cls_score_rpn_cls_score_0_split_0
I0625 20:55:42.358115 26920 net.cpp:411] rpn_cls_score_rpn_cls_score_0_split -> rpn_cls_score_rpn_cls_score_0_split_1
I0625 20:55:42.358165 26920 net.cpp:150] Setting up rpn_cls_score_rpn_cls_score_0_split
I0625 20:55:42.358177 26920 net.cpp:157] Top shape: 1 30 38 63 (71820)
I0625 20:55:42.358180 26920 net.cpp:157] Top shape: 1 30 38 63 (71820)
I0625 20:55:42.358181 26920 net.cpp:165] Memory required for data: 1425502716
I0625 20:55:42.358183 26920 layer_factory.hpp:77] Creating layer rpn_bbox_pred
I0625 20:55:42.358201 26920 net.cpp:106] Creating Layer rpn_bbox_pred
I0625 20:55:42.358202 26920 net.cpp:454] rpn_bbox_pred <- rpn/output_rpn_relu/3x3_0_split_1
I0625 20:55:42.358222 26920 net.cpp:411] rpn_bbox_pred -> rpn_bbox_pred
I0625 20:55:42.359766 26920 net.cpp:150] Setting up rpn_bbox_pred
I0625 20:55:42.359773 26920 net.cpp:157] Top shape: 1 60 38 63 (143640)
I0625 20:55:42.359776 26920 net.cpp:165] Memory required for data: 1426077276
I0625 20:55:42.359779 26920 layer_factory.hpp:77] Creating layer rpn_bbox_pred_rpn_bbox_pred_0_split
I0625 20:55:42.359793 26920 net.cpp:106] Creating Layer rpn_bbox_pred_rpn_bbox_pred_0_split
I0625 20:55:42.359796 26920 net.cpp:454] rpn_bbox_pred_rpn_bbox_pred_0_split <- rpn_bbox_pred
I0625 20:55:42.359809 26920 net.cpp:411] rpn_bbox_pred_rpn_bbox_pred_0_split -> rpn_bbox_pred_rpn_bbox_pred_0_split_0
I0625 20:55:42.359814 26920 net.cpp:411] rpn_bbox_pred_rpn_bbox_pred_0_split -> rpn_bbox_pred_rpn_bbox_pred_0_split_1
I0625 20:55:42.359849 26920 net.cpp:150] Setting up rpn_bbox_pred_rpn_bbox_pred_0_split
I0625 20:55:42.359853 26920 net.cpp:157] Top shape: 1 60 38 63 (143640)
I0625 20:55:42.359866 26920 net.cpp:157] Top shape: 1 60 38 63 (143640)
I0625 20:55:42.359867 26920 net.cpp:165] Memory required for data: 1427226396
I0625 20:55:42.359869 26920 layer_factory.hpp:77] Creating layer rpn_cls_score_reshape
I0625 20:55:42.359874 26920 net.cpp:106] Creating Layer rpn_cls_score_reshape
I0625 20:55:42.359886 26920 net.cpp:454] rpn_cls_score_reshape <- rpn_cls_score_rpn_cls_score_0_split_0
I0625 20:55:42.359889 26920 net.cpp:411] rpn_cls_score_reshape -> rpn_cls_score_reshape
I0625 20:55:42.359905 26920 net.cpp:150] Setting up rpn_cls_score_reshape
I0625 20:55:42.359908 26920 net.cpp:157] Top shape: 1 2 570 63 (71820)
I0625 20:55:42.359910 26920 net.cpp:165] Memory required for data: 1427513676
I0625 20:55:42.359911 26920 layer_factory.hpp:77] Creating layer rpn_cls_score_reshape_rpn_cls_score_reshape_0_split
I0625 20:55:42.359915 26920 net.cpp:106] Creating Layer rpn_cls_score_reshape_rpn_cls_score_reshape_0_split
I0625 20:55:42.359916 26920 net.cpp:454] rpn_cls_score_reshape_rpn_cls_score_reshape_0_split <- rpn_cls_score_reshape
I0625 20:55:42.359920 26920 net.cpp:411] rpn_cls_score_reshape_rpn_cls_score_reshape_0_split -> rpn_cls_score_reshape_rpn_cls_score_reshape_0_split_0
I0625 20:55:42.359923 26920 net.cpp:411] rpn_cls_score_reshape_rpn_cls_score_reshape_0_split -> rpn_cls_score_reshape_rpn_cls_score_reshape_0_split_1
I0625 20:55:42.359944 26920 net.cpp:150] Setting up rpn_cls_score_reshape_rpn_cls_score_reshape_0_split
I0625 20:55:42.359948 26920 net.cpp:157] Top shape: 1 2 570 63 (71820)
I0625 20:55:42.359951 26920 net.cpp:157] Top shape: 1 2 570 63 (71820)
I0625 20:55:42.359951 26920 net.cpp:165] Memory required for data: 1428088236
I0625 20:55:42.359953 26920 layer_factory.hpp:77] Creating layer rpn-data
I0625 20:55:42.360285 26920 net.cpp:106] Creating Layer rpn-data
I0625 20:55:42.360291 26920 net.cpp:454] rpn-data <- rpn_cls_score_rpn_cls_score_0_split_1
I0625 20:55:42.360296 26920 net.cpp:454] rpn-data <- gt_boxes_input-data_2_split_0
I0625 20:55:42.360298 26920 net.cpp:454] rpn-data <- im_info_input-data_1_split_0
I0625 20:55:42.360301 26920 net.cpp:454] rpn-data <- data_input-data_0_split_1
I0625 20:55:42.360304 26920 net.cpp:411] rpn-data -> rpn_labels
I0625 20:55:42.360308 26920 net.cpp:411] rpn-data -> rpn_bbox_targets
I0625 20:55:42.360312 26920 net.cpp:411] rpn-data -> rpn_bbox_inside_weights
I0625 20:55:42.360316 26920 net.cpp:411] rpn-data -> rpn_bbox_outside_weights
===================================anchor_scales in AnchorTargetLayer:=============(2, 4, 8, 16, 32)
I0625 20:55:42.361119 26920 net.cpp:150] Setting up rpn-data
I0625 20:55:42.361126 26920 net.cpp:157] Top shape: 1 1 570 63 (35910)
I0625 20:55:42.361129 26920 net.cpp:157] Top shape: 1 60 38 63 (143640)
I0625 20:55:42.361131 26920 net.cpp:157] Top shape: 1 60 38 63 (143640)
I0625 20:55:42.361133 26920 net.cpp:157] Top shape: 1 60 38 63 (143640)
I0625 20:55:42.361135 26920 net.cpp:165] Memory required for data: 1429955556
I0625 20:55:42.361137 26920 layer_factory.hpp:77] Creating layer rpn_loss_cls
I0625 20:55:42.361142 26920 net.cpp:106] Creating Layer rpn_loss_cls
I0625 20:55:42.361145 26920 net.cpp:454] rpn_loss_cls <- rpn_cls_score_reshape_rpn_cls_score_reshape_0_split_0
I0625 20:55:42.361148 26920 net.cpp:454] rpn_loss_cls <- rpn_labels
…
I0625 20:55:42.364815 26920 net.cpp:157] Top shape: (1)
I0625 20:55:42.364817 26920 net.cpp:160]     with loss weight 1
I0625 20:55:42.364821 26920 net.cpp:165] Memory required for data: 1429955564
I0625 20:55:42.364825 26920 layer_factory.hpp:77] Creating layer rpn_cls_prob
I0625 20:55:42.364828 26920 net.cpp:106] Creating Layer rpn_cls_prob
I0625 20:55:42.364830 26920 net.cpp:454] rpn_cls_prob <- rpn_cls_score_reshape_rpn_cls_score_reshape_0_split_1
I0625 20:55:42.364835 26920 net.cpp:411] rpn_cls_prob -> rpn_cls_prob
I0625 20:55:42.365000 26920 net.cpp:150] Setting up rpn_cls_prob
I0625 20:55:42.365005 26920 net.cpp:157] Top shape: 1 2 570 63 (71820)
I0625 20:55:42.365007 26920 net.cpp:165] Memory required for data: 1430242844
I0625 20:55:42.365010 26920 layer_factory.hpp:77] Creating layer rpn_cls_prob_reshape
I0625 20:55:42.365025 26920 net.cpp:106] Creating Layer rpn_cls_prob_reshape
I0625 20:55:42.365027 26920 net.cpp:454] rpn_cls_prob_reshape <- rpn_cls_prob
I0625 20:55:42.365032 26920 net.cpp:411] rpn_cls_prob_reshape -> rpn_cls_prob_reshape
I0625 20:55:42.365068 26920 net.cpp:150] Setting up rpn_cls_prob_reshape
I0625 20:55:42.365072 26920 net.cpp:157] Top shape: 1 30 38 63 (71820)
I0625 20:55:42.365074 26920 net.cpp:165] Memory required for data: 1430530124
I0625 20:55:42.365075 26920 layer_factory.hpp:77] Creating layer proposal
I0625 20:55:42.365551 26920 net.cpp:106] Creating Layer proposal
I0625 20:55:42.365559 26920 net.cpp:454] proposal <- rpn_cls_prob_reshape
I0625 20:55:42.365562 26920 net.cpp:454] proposal <- rpn_bbox_pred_rpn_bbox_pred_0_split_1
I0625 20:55:42.365566 26920 net.cpp:454] proposal <- im_info_input-data_1_split_1
I0625 20:55:42.365568 26920 net.cpp:411] proposal -> rpn_rois
=================================anchor_scales in ProposalLayer:=============(2, 4, 8, 16, 32)
I0625 20:55:42.366416 26920 net.cpp:150] Setting up proposal
I0625 20:55:42.366425 26920 net.cpp:157] Top shape: 1 5 (5)
I0625 20:55:42.366426 26920 net.cpp:165] Memory required for data: 1430530144
I0625 20:55:42.366430 26920 layer_factory.hpp:77] Creating layer roi-data
I0625 20:55:42.366642 26920 net.cpp:106] Creating Layer roi-data
I0625 20:55:42.366649 26920 net.cpp:454] roi-data <- rpn_rois
I0625 20:55:42.366652 26920 net.cpp:454] roi-data <- gt_boxes_input-data_2_split_1
I0625 20:55:42.366655 26920 net.cpp:454] roi-data <- im_info_input-data_1_split_2
I0625 20:55:42.366667 26920 net.cpp:454] roi-data <- seg_mask_inds
I0625 20:55:42.366669 26920 net.cpp:454] roi-data <- flipped
I0625 20:55:42.366673 26920 net.cpp:411] roi-data -> rois
I0625 20:55:42.366678 26920 net.cpp:411] roi-data -> labels
I0625 20:55:42.366683 26920 net.cpp:411] roi-data -> bbox_targets
I0625 20:55:42.366688 26920 net.cpp:411] roi-data -> bbox_inside_weights
I0625 20:55:42.366700 26920 net.cpp:411] roi-data -> bbox_outside_weights
I0625 20:55:42.366704 26920 net.cpp:411] roi-data -> mask_targets
I0625 20:55:42.366719 26920 net.cpp:411] roi-data -> rois_pos
I0625 20:55:42.366724 26920 net.cpp:411] roi-data -> attrArray
I0625 20:55:42.366726 26920 net.cpp:411] roi-data -> attrArrayInd
I0625 20:55:42.366731 26920 net.cpp:411] roi-data -> attrArrayShift
I0625 20:55:42.367029 26920 net.cpp:150] Setting up roi-data
I0625 20:55:42.367036 26920 net.cpp:157] Top shape: 1 5 (5)
I0625 20:55:42.367039 26920 net.cpp:157] Top shape: 1 1 (1)
I0625 20:55:42.367041 26920 net.cpp:157] Top shape: 1 8 (8)
I0625 20:55:42.367043 26920 net.cpp:157] Top shape: 1 8 (8)
I0625 20:55:42.367045 26920 net.cpp:157] Top shape: 1 8 (8)
I0625 20:55:42.367048 26920 net.cpp:157] Top shape: 1 8 244 244 (476288)
I0625 20:55:42.367050 26920 net.cpp:157] Top shape: 1 5 (5)
I0625 20:55:42.367053 26920 net.cpp:157] Top shape: 1 7 (7)
I0625 20:55:42.367054 26920 net.cpp:157] Top shape: 1 7 (7)
I0625 20:55:42.367056 26920 net.cpp:157] Top shape: 1 7 (7)
I0625 20:55:42.367058 26920 net.cpp:165] Memory required for data: 1432435520
I0625 20:55:42.367060 26920 layer_factory.hpp:77] Creating layer roi_pool5
I0625 20:55:42.367069 26920 net.cpp:106] Creating Layer roi_pool5
I0625 20:55:42.367072 26920 net.cpp:454] roi_pool5 <- conv5_3_relu5_3_0_split_1
I0625 20:55:42.367075 26920 net.cpp:454] roi_pool5 <- rois
I0625 20:55:42.367079 26920 net.cpp:411] roi_pool5 -> pool5
I0625 20:55:42.367082 26920 roi_alignment_layer.cpp:32] Spatial scale: 0.0625
I0625 20:55:42.367148 26920 net.cpp:150] Setting up roi_pool5
I0625 20:55:42.367152 26920 net.cpp:157] Top shape: 1 512 7 7 (25088)
I0625 20:55:42.367154 26920 net.cpp:165] Memory required for data: 1432535872
I0625 20:55:42.367156 26920 layer_factory.hpp:77] Creating layer fc6
I0625 20:55:42.367163 26920 net.cpp:106] Creating Layer fc6
I0625 20:55:42.367166 26920 net.cpp:454] fc6 <- pool5
I0625 20:55:42.367172 26920 net.cpp:411] fc6 -> fc6
I0625 20:55:42.507046 26920 net.cpp:150] Setting up fc6
I0625 20:55:42.507069 26920 net.cpp:157] Top shape: 1 4096 (4096)
I0625 20:55:42.507071 26920 net.cpp:165] Memory required for data: 1432552256
I0625 20:55:42.507086 26920 layer_factory.hpp:77] Creating layer relu6
I0625 20:55:42.507105 26920 net.cpp:106] Creating Layer relu6
I0625 20:55:42.507109 26920 net.cpp:454] relu6 <- fc6
I0625 20:55:42.507123 26920 net.cpp:397] relu6 -> fc6 (in-place)
I0625 20:55:42.507334 26920 net.cpp:150] Setting up relu6
I0625 20:55:42.507341 26920 net.cpp:157] Top shape: 1 4096 (4096)
I0625 20:55:42.507344 26920 net.cpp:165] Memory required for data: 1432568640
I0625 20:55:42.507346 26920 layer_factory.hpp:77] Creating layer fc7
I0625 20:55:42.507351 26920 net.cpp:106] Creating Layer fc7
I0625 20:55:42.507354 26920 net.cpp:454] fc7 <- fc6
I0625 20:55:42.507357 26920 net.cpp:411] fc7 -> fc7
I0625 20:55:42.530784 26920 net.cpp:150] Setting up fc7
I0625 20:55:42.530807 26920 net.cpp:157] Top shape: 1 4096 (4096)
I0625 20:55:42.530810 26920 net.cpp:165] Memory required for data: 1432585024
I0625 20:55:42.530817 26920 layer_factory.hpp:77] Creating layer relu7
I0625 20:55:42.530825 26920 net.cpp:106] Creating Layer relu7
I0625 20:55:42.530839 26920 net.cpp:454] relu7 <- fc7
I0625 20:55:42.530845 26920 net.cpp:397] relu7 -> fc7 (in-place)
I0625 20:55:42.531047 26920 net.cpp:150] Setting up relu7
I0625 20:55:42.531055 26920 net.cpp:157] Top shape: 1 4096 (4096)
I0625 20:55:42.531057 26920 net.cpp:165] Memory required for data: 1432601408
I0625 20:55:42.531059 26920 layer_factory.hpp:77] Creating layer fc7_relu7_0_split
I0625 20:55:42.531065 26920 net.cpp:106] Creating Layer fc7_relu7_0_split
I0625 20:55:42.531069 26920 net.cpp:454] fc7_relu7_0_split <- fc7
I0625 20:55:42.531081 26920 net.cpp:411] fc7_relu7_0_split -> fc7_relu7_0_split_0
I0625 20:55:42.531085 26920 net.cpp:411] fc7_relu7_0_split -> fc7_relu7_0_split_1
I0625 20:55:42.531090 26920 net.cpp:411] fc7_relu7_0_split -> fc7_relu7_0_split_2
I0625 20:55:42.531172 26920 net.cpp:150] Setting up fc7_relu7_0_split
I0625 20:55:42.531175 26920 net.cpp:157] Top shape: 1 4096 (4096)
I0625 20:55:42.531188 26920 net.cpp:157] Top shape: 1 4096 (4096)
I0625 20:55:42.531189 26920 net.cpp:157] Top shape: 1 4096 (4096)
I0625 20:55:42.531190 26920 net.cpp:165] Memory required for data: 1432650560
I0625 20:55:42.531193 26920 layer_factory.hpp:77] Creating layer attr_score
I0625 20:55:42.531208 26920 net.cpp:106] Creating Layer attr_score
I0625 20:55:42.531210 26920 net.cpp:454] attr_score <- fc7_relu7_0_split_0
I0625 20:55:42.531224 26920 net.cpp:411] attr_score -> attr_score
I0625 20:55:42.531940 26920 net.cpp:150] Setting up attr_score
I0625 20:55:42.531945 26920 net.cpp:157] Top shape: 1 7 (7)
I0625 20:55:42.531947 26920 net.cpp:165] Memory required for data: 1432650588
I0625 20:55:42.531950 26920 layer_factory.hpp:77] Creating layer attr_score_pos
I0625 20:55:42.531955 26920 net.cpp:106] Creating Layer attr_score_pos
I0625 20:55:42.531957 26920 net.cpp:454] attr_score_pos <- attr_score
I0625 20:55:42.531960 26920 net.cpp:454] attr_score_pos <- attrArrayInd
I0625 20:55:42.531962 26920 net.cpp:411] attr_score_pos -> attr_score_pos
I0625 20:55:42.532003 26920 net.cpp:150] Setting up attr_score_pos
I0625 20:55:42.532016 26920 net.cpp:157] Top shape: 1 7 (7)
I0625 20:55:42.532017 26920 net.cpp:165] Memory required for data: 1432650616
I0625 20:55:42.532019 26920 layer_factory.hpp:77] Creating layer attr_score_pos_shift
I0625 20:55:42.532023 26920 net.cpp:106] Creating Layer attr_score_pos_shift
I0625 20:55:42.532024 26920 net.cpp:454] attr_score_pos_shift <- attr_score_pos
I0625 20:55:42.532037 26920 net.cpp:454] attr_score_pos_shift <- attrArrayShift
I0625 20:55:42.532039 26920 net.cpp:411] attr_score_pos_shift -> attr_score_pos_shift
I0625 20:55:42.532064 26920 net.cpp:150] Setting up attr_score_pos_shift
I0625 20:55:42.532080 26920 net.cpp:157] Top shape: 1 7 (7)
I0625 20:55:42.532081 26920 net.cpp:165] Memory required for data: 1432650644
I0625 20:55:42.532083 26920 layer_factory.hpp:77] Creating layer cls_score
I0625 20:55:42.532088 26920 net.cpp:106] Creating Layer cls_score
I0625 20:55:42.532100 26920 net.cpp:454] cls_score <- fc7_relu7_0_split_1
I0625 20:55:42.532104 26920 net.cpp:411] cls_score -> cls_score
I0625 20:55:42.532389 26920 net.cpp:150] Setting up cls_score
I0625 20:55:42.532393 26920 net.cpp:157] Top shape: 1 2 (2)
I0625 20:55:42.532397 26920 net.cpp:165] Memory required for data: 1432650652
I0625 20:55:42.532409 26920 layer_factory.hpp:77] Creating layer bbox_pred
I0625 20:55:42.532414 26920 net.cpp:106] Creating Layer bbox_pred
I0625 20:55:42.532416 26920 net.cpp:454] bbox_pred <- fc7_relu7_0_split_2
I0625 20:55:42.532433 26920 net.cpp:411] bbox_pred -> bbox_pred
I0625 20:55:42.533193 26920 net.cpp:150] Setting up bbox_pred
I0625 20:55:42.533197 26920 net.cpp:157] Top shape: 1 8 (8)
I0625 20:55:42.533200 26920 net.cpp:165] Memory required for data: 1432650684
I0625 20:55:42.533212 26920 layer_factory.hpp:77] Creating layer loss_attribute
I0625 20:55:42.533217 26920 net.cpp:106] Creating Layer loss_attribute
I0625 20:55:42.533219 26920 net.cpp:454] loss_attribute <- attr_score_pos_shift
I0625 20:55:42.533231 26920 net.cpp:454] loss_attribute <- attrArray
I0625 20:55:42.533234 26920 net.cpp:411] loss_attribute -> loss_attribute
…
I0625 20:55:42.534165 26920 net.cpp:165] Memory required for data: 1432650696
I0625 20:55:42.534168 26920 layer_factory.hpp:77] Creating layer roi_pool5_2
I0625 20:55:42.534173 26920 net.cpp:106] Creating Layer roi_pool5_2
I0625 20:55:42.534174 26920 net.cpp:454] roi_pool5_2 <- conv5_3_relu5_3_0_split_2
I0625 20:55:42.534178 26920 net.cpp:454] roi_pool5_2 <- rois_pos
I0625 20:55:42.534180 26920 net.cpp:411] roi_pool5_2 -> pool5_2
I0625 20:55:42.534185 26920 roi_alignment_layer.cpp:32] Spatial scale: 0.0625
I0625 20:55:42.534263 26920 net.cpp:150] Setting up roi_pool5_2
I0625 20:55:42.534268 26920 net.cpp:157] Top shape: 1 512 7 7 (25088)
I0625 20:55:42.534270 26920 net.cpp:165] Memory required for data: 1432751048
I0625 20:55:42.534281 26920 layer_factory.hpp:77] Creating layer pool5_2_conv
I0625 20:55:42.534288 26920 net.cpp:106] Creating Layer pool5_2_conv
I0625 20:55:42.534291 26920 net.cpp:454] pool5_2_conv <- pool5_2
I0625 20:55:42.534294 26920 net.cpp:411] pool5_2_conv -> pool5_2_conv
I0625 20:55:42.541076 26920 net.cpp:150] Setting up pool5_2_conv
I0625 20:55:42.541085 26920 net.cpp:157] Top shape: 1 512 7 7 (25088)
I0625 20:55:42.541087 26920 net.cpp:165] Memory required for data: 1432851400
I0625 20:55:42.541103 26920 layer_factory.hpp:77] Creating layer pool5_2_conv_relu
I0625 20:55:42.541107 26920 net.cpp:106] Creating Layer pool5_2_conv_relu
I0625 20:55:42.541110 26920 net.cpp:454] pool5_2_conv_relu <- pool5_2_conv
I0625 20:55:42.541115 26920 net.cpp:411] pool5_2_conv_relu -> pool5_2_conv_relu
I0625 20:55:42.541275 26920 net.cpp:150] Setting up pool5_2_conv_relu
I0625 20:55:42.541280 26920 net.cpp:157] Top shape: 1 512 7 7 (25088)
I0625 20:55:42.541283 26920 net.cpp:165] Memory required for data: 1432951752
I0625 20:55:42.541296 26920 layer_factory.hpp:77] Creating layer pool5_2_conv2
I0625 20:55:42.541302 26920 net.cpp:106] Creating Layer pool5_2_conv2
I0625 20:55:42.541318 26920 net.cpp:454] pool5_2_conv2 <- pool5_2_conv_relu
I0625 20:55:42.541322 26920 net.cpp:411] pool5_2_conv2 -> pool5_2_conv2
I0625 20:55:42.592485 26920 net.cpp:150] Setting up pool5_2_conv2
I0625 20:55:42.592502 26920 net.cpp:157] Top shape: 1 512 7 7 (25088)
I0625 20:55:42.592504 26920 net.cpp:165] Memory required for data: 1433052104
I0625 20:55:42.592522 26920 layer_factory.hpp:77] Creating layer pool5_2_conv2_relu
I0625 20:55:42.592538 26920 net.cpp:106] Creating Layer pool5_2_conv2_relu
I0625 20:55:42.592543 26920 net.cpp:454] pool5_2_conv2_relu <- pool5_2_conv2
I0625 20:55:42.592547 26920 net.cpp:411] pool5_2_conv2_relu -> pool5_2_conv2_relu
I0625 20:55:42.592718 26920 net.cpp:150] Setting up pool5_2_conv2_relu
I0625 20:55:42.592725 26920 net.cpp:157] Top shape: 1 512 7 7 (25088)
I0625 20:55:42.592727 26920 net.cpp:165] Memory required for data: 1433152456
I0625 20:55:42.592739 26920 layer_factory.hpp:77] Creating layer mask_deconv1
I0625 20:55:42.592746 26920 net.cpp:106] Creating Layer mask_deconv1
I0625 20:55:42.592761 26920 net.cpp:454] mask_deconv1 <- pool5_2_conv2_relu
I0625 20:55:42.592764 26920 net.cpp:411] mask_deconv1 -> mask_deconv1
I0625 20:55:42.593554 26920 net.cpp:150] Setting up mask_deconv1
I0625 20:55:42.593559 26920 net.cpp:157] Top shape: 1 256 30 30 (230400)
I0625 20:55:42.593561 26920 net.cpp:165] Memory required for data: 1434074056
I0625 20:55:42.593575 26920 layer_factory.hpp:77] Creating layer pool5_2_conv3
I0625 20:55:42.593593 26920 net.cpp:106] Creating Layer pool5_2_conv3
I0625 20:55:42.593596 26920 net.cpp:454] pool5_2_conv3 <- mask_deconv1
I0625 20:55:42.593600 26920 net.cpp:411] pool5_2_conv3 -> pool5_2_conv3
I0625 20:55:42.619328 26920 net.cpp:150] Setting up pool5_2_conv3
I0625 20:55:42.619344 26920 net.cpp:157] Top shape: 1 512 30 30 (460800)
I0625 20:55:42.619346 26920 net.cpp:165] Memory required for data: 1435917256
I0625 20:55:42.619354 26920 layer_factory.hpp:77] Creating layer pool5_2_conv3_relu
I0625 20:55:42.619360 26920 net.cpp:106] Creating Layer pool5_2_conv3_relu
I0625 20:55:42.619374 26920 net.cpp:454] pool5_2_conv3_relu <- pool5_2_conv3
I0625 20:55:42.619379 26920 net.cpp:411] pool5_2_conv3_relu -> pool5_2_conv3_relu
I0625 20:55:42.619526 26920 net.cpp:150] Setting up pool5_2_conv3_relu
I0625 20:55:42.619532 26920 net.cpp:157] Top shape: 1 512 30 30 (460800)
I0625 20:55:42.619534 26920 net.cpp:165] Memory required for data: 1437760456
I0625 20:55:42.619536 26920 layer_factory.hpp:77] Creating layer pool5_2_conv4
I0625 20:55:42.619544 26920 net.cpp:106] Creating Layer pool5_2_conv4
I0625 20:55:42.619545 26920 net.cpp:454] pool5_2_conv4 <- pool5_2_conv3_relu
I0625 20:55:42.619549 26920 net.cpp:411] pool5_2_conv4 -> pool5_2_conv4
I0625 20:55:42.669776 26920 net.cpp:150] Setting up pool5_2_conv4
I0625 20:55:42.669793 26920 net.cpp:157] Top shape: 1 512 30 30 (460800)
I0625 20:55:42.669795 26920 net.cpp:165] Memory required for data: 1439603656
I0625 20:55:42.669801 26920 layer_factory.hpp:77] Creating layer pool5_2_conv4_relu
I0625 20:55:42.669808 26920 net.cpp:106] Creating Layer pool5_2_conv4_relu
I0625 20:55:42.669823 26920 net.cpp:454] pool5_2_conv4_relu <- pool5_2_conv4
I0625 20:55:42.669828 26920 net.cpp:411] pool5_2_conv4_relu -> pool5_2_conv4_relu
I0625 20:55:42.669978 26920 net.cpp:150] Setting up pool5_2_conv4_relu
I0625 20:55:42.669983 26920 net.cpp:157] Top shape: 1 512 30 30 (460800)
I0625 20:55:42.669986 26920 net.cpp:165] Memory required for data: 1441446856
I0625 20:55:42.669987 26920 layer_factory.hpp:77] Creating layer pool5_2_conv4_relu_pool5_2_conv4_relu_0_split
I0625 20:55:42.669991 26920 net.cpp:106] Creating Layer pool5_2_conv4_relu_pool5_2_conv4_relu_0_split
I0625 20:55:42.669993 26920 net.cpp:454] pool5_2_conv4_relu_pool5_2_conv4_relu_0_split <- pool5_2_conv4_relu
I0625 20:55:42.669996 26920 net.cpp:411] pool5_2_conv4_relu_pool5_2_conv4_relu_0_split -> pool5_2_conv4_relu_pool5_2_conv4_relu_0_split_0
I0625 20:55:42.670001 26920 net.cpp:411] pool5_2_conv4_relu_pool5_2_conv4_relu_0_split -> pool5_2_conv4_relu_pool5_2_conv4_relu_0_split_1
I0625 20:55:42.670013 26920 net.cpp:411] pool5_2_conv4_relu_pool5_2_conv4_relu_0_split -> pool5_2_conv4_relu_pool5_2_conv4_relu_0_split_2
I0625 20:55:42.670017 26920 net.cpp:411] pool5_2_conv4_relu_pool5_2_conv4_relu_0_split -> pool5_2_conv4_relu_pool5_2_conv4_relu_0_split_3
I0625 20:55:42.670085 26920 net.cpp:150] Setting up pool5_2_conv4_relu_pool5_2_conv4_relu_0_split
I0625 20:55:42.670089 26920 net.cpp:157] Top shape: 1 512 30 30 (460800)
I0625 20:55:42.670091 26920 net.cpp:157] Top shape: 1 512 30 30 (460800)
I0625 20:55:42.670094 26920 net.cpp:157] Top shape: 1 512 30 30 (460800)
I0625 20:55:42.670095 26920 net.cpp:157] Top shape: 1 512 30 30 (460800)
I0625 20:55:42.670097 26920 net.cpp:165] Memory required for data: 1448819656
I0625 20:55:42.670099 26920 layer_factory.hpp:77] Creating layer query_conv
I0625 20:55:42.670123 26920 net.cpp:106] Creating Layer query_conv
I0625 20:55:42.670125 26920 net.cpp:454] query_conv <- pool5_2_conv4_relu_pool5_2_conv4_relu_0_split_0
I0625 20:55:42.670140 26920 net.cpp:411] query_conv -> query_conv
I0625 20:55:42.671653 26920 net.cpp:150] Setting up query_conv
I0625 20:55:42.671660 26920 net.cpp:157] Top shape: 1 64 30 30 (57600)
I0625 20:55:42.671663 26920 net.cpp:165] Memory required for data: 1449050056
I0625 20:55:42.671666 26920 layer_factory.hpp:77] Creating layer key_conv
I0625 20:55:42.671674 26920 net.cpp:106] Creating Layer key_conv
I0625 20:55:42.671675 26920 net.cpp:454] key_conv <- pool5_2_conv4_relu_pool5_2_conv4_relu_0_split_1
I0625 20:55:42.671691 26920 net.cpp:411] key_conv -> key_conv
I0625 20:55:42.673199 26920 net.cpp:150] Setting up key_conv
I0625 20:55:42.673208 26920 net.cpp:157] Top shape: 1 64 30 30 (57600)
I0625 20:55:42.673210 26920 net.cpp:165] Memory required for data: 1449280456
I0625 20:55:42.673213 26920 layer_factory.hpp:77] Creating layer value_conv
I0625 20:55:42.673220 26920 net.cpp:106] Creating Layer value_conv
I0625 20:55:42.673223 26920 net.cpp:454] value_conv <- pool5_2_conv4_relu_pool5_2_conv4_relu_0_split_2
I0625 20:55:42.673236 26920 net.cpp:411] value_conv -> value_conv
I0625 20:55:42.680148 26920 net.cpp:150] Setting up value_conv
I0625 20:55:42.680160 26920 net.cpp:157] Top shape: 1 512 30 30 (460800)
I0625 20:55:42.680162 26920 net.cpp:165] Memory required for data: 1451123656
I0625 20:55:42.680176 26920 layer_factory.hpp:77] Creating layer query_conv_reshape
I0625 20:55:42.680183 26920 net.cpp:106] Creating Layer query_conv_reshape
I0625 20:55:42.680197 26920 net.cpp:454] query_conv_reshape <- query_conv
I0625 20:55:42.680202 26920 net.cpp:411] query_conv_reshape -> query_conv_reshape
I0625 20:55:42.680233 26920 net.cpp:150] Setting up query_conv_reshape
I0625 20:55:42.680238 26920 net.cpp:157] Top shape: 1 64 900 1 (57600)
I0625 20:55:42.680239 26920 net.cpp:165] Memory required for data: 1451354056
I0625 20:55:42.680241 26920 layer_factory.hpp:77] Creating layer key_conv_reshape
I0625 20:55:42.680255 26920 net.cpp:106] Creating Layer key_conv_reshape
I0625 20:55:42.680258 26920 net.cpp:454] key_conv_reshape <- key_conv
I0625 20:55:42.680263 26920 net.cpp:411] key_conv_reshape -> key_conv_reshape
I0625 20:55:42.680287 26920 net.cpp:150] Setting up key_conv_reshape
I0625 20:55:42.680291 26920 net.cpp:157] Top shape: 1 64 900 1 (57600)
I0625 20:55:42.680294 26920 net.cpp:165] Memory required for data: 1451584456
I0625 20:55:42.680305 26920 layer_factory.hpp:77] Creating layer value_conv_reshape
I0625 20:55:42.680310 26920 net.cpp:106] Creating Layer value_conv_reshape
I0625 20:55:42.680312 26920 net.cpp:454] value_conv_reshape <- value_conv
I0625 20:55:42.680315 26920 net.cpp:411] value_conv_reshape -> value_conv_reshape
I0625 20:55:42.680339 26920 net.cpp:150] Setting up value_conv_reshape
I0625 20:55:42.680343 26920 net.cpp:157] Top shape: 1 512 900 1 (460800)
I0625 20:55:42.680346 26920 net.cpp:165] Memory required for data: 1453427656
I0625 20:55:42.680347 26920 layer_factory.hpp:77] Creating layer query_conv_reshape_perm
I0625 20:55:42.680351 26920 net.cpp:106] Creating Layer query_conv_reshape_perm
I0625 20:55:42.680364 26920 net.cpp:454] query_conv_reshape_perm <- query_conv_reshape
I0625 20:55:42.680367 26920 net.cpp:411] query_conv_reshape_perm -> query_conv_reshape_perm
I0625 20:55:42.680434 26920 net.cpp:150] Setting up query_conv_reshape_perm
I0625 20:55:42.680439 26920 net.cpp:157] Top shape: 1 1 900 64 (57600)
I0625 20:55:42.680440 26920 net.cpp:165] Memory required for data: 1453658056
I0625 20:55:42.680443 26920 layer_factory.hpp:77] Creating layer key_conv_reshape_perm
I0625 20:55:42.680446 26920 net.cpp:106] Creating Layer key_conv_reshape_perm
I0625 20:55:42.680449 26920 net.cpp:454] key_conv_reshape_perm <- key_conv_reshape
I0625 20:55:42.680451 26920 net.cpp:411] key_conv_reshape_perm -> key_conv_reshape_perm
I0625 20:55:42.680511 26920 net.cpp:150] Setting up key_conv_reshape_perm
I0625 20:55:42.680516 26920 net.cpp:157] Top shape: 1 1 64 900 (57600)
I0625 20:55:42.680517 26920 net.cpp:165] Memory required for data: 1453888456
I0625 20:55:42.680519 26920 layer_factory.hpp:77] Creating layer energy
I0625 20:55:42.680522 26920 net.cpp:106] Creating Layer energy
I0625 20:55:42.680524 26920 net.cpp:454] energy <- query_conv_reshape_perm
I0625 20:55:42.680527 26920 net.cpp:454] energy <- key_conv_reshape_perm
I0625 20:55:42.680531 26920 net.cpp:411] energy -> energy
I0625 20:55:42.680544 26920 net.cpp:150] Setting up energy
I0625 20:55:42.680548 26920 net.cpp:157] Top shape: 1 1 900 900 (810000)
I0625 20:55:42.680549 26920 net.cpp:165] Memory required for data: 1457128456
I0625 20:55:42.680552 26920 layer_factory.hpp:77] Creating layer attention
I0625 20:55:42.680557 26920 net.cpp:106] Creating Layer attention
I0625 20:55:42.680559 26920 net.cpp:454] attention <- energy
I0625 20:55:42.680562 26920 net.cpp:411] attention -> attention
I0625 20:55:42.680714 26920 net.cpp:150] Setting up attention
I0625 20:55:42.680721 26920 net.cpp:157] Top shape: 1 1 900 900 (810000)
I0625 20:55:42.680723 26920 net.cpp:165] Memory required for data: 1460368456
I0625 20:55:42.680725 26920 layer_factory.hpp:77] Creating layer value_conv_reshape_perm
I0625 20:55:42.680729 26920 net.cpp:106] Creating Layer value_conv_reshape_perm
I0625 20:55:42.680732 26920 net.cpp:454] value_conv_reshape_perm <- value_conv_reshape
I0625 20:55:42.680737 26920 net.cpp:411] value_conv_reshape_perm -> value_conv_reshape_perm
I0625 20:55:42.680810 26920 net.cpp:150] Setting up value_conv_reshape_perm
I0625 20:55:42.680814 26920 net.cpp:157] Top shape: 1 1 512 900 (460800)
I0625 20:55:42.680816 26920 net.cpp:165] Memory required for data: 1462211656
I0625 20:55:42.680819 26920 layer_factory.hpp:77] Creating layer attention_perm
I0625 20:55:42.680831 26920 net.cpp:106] Creating Layer attention_perm
I0625 20:55:42.680835 26920 net.cpp:454] attention_perm <- attention
I0625 20:55:42.680837 26920 net.cpp:411] attention_perm -> attention_perm
I0625 20:55:42.680899 26920 net.cpp:150] Setting up attention_perm
I0625 20:55:42.680902 26920 net.cpp:157] Top shape: 1 1 900 900 (810000)
I0625 20:55:42.680904 26920 net.cpp:165] Memory required for data: 1465451656
I0625 20:55:42.680907 26920 layer_factory.hpp:77] Creating layer out
I0625 20:55:42.680909 26920 net.cpp:106] Creating Layer out
I0625 20:55:42.680912 26920 net.cpp:454] out <- value_conv_reshape_perm
I0625 20:55:42.680914 26920 net.cpp:454] out <- attention_perm
I0625 20:55:42.680917 26920 net.cpp:411] out -> out
I0625 20:55:42.680932 26920 net.cpp:150] Setting up out
I0625 20:55:42.680935 26920 net.cpp:157] Top shape: 1 1 512 900 (460800)
I0625 20:55:42.680938 26920 net.cpp:165] Memory required for data: 1467294856
I0625 20:55:42.680939 26920 layer_factory.hpp:77] Creating layer out_reshape
I0625 20:55:42.680943 26920 net.cpp:106] Creating Layer out_reshape
I0625 20:55:42.680944 26920 net.cpp:454] out_reshape <- out
I0625 20:55:42.680948 26920 net.cpp:411] out_reshape -> out_reshape
I0625 20:55:42.680961 26920 net.cpp:150] Setting up out_reshape
I0625 20:55:42.680965 26920 net.cpp:157] Top shape: 1 512 30 30 (460800)
I0625 20:55:42.680966 26920 net.cpp:165] Memory required for data: 1469138056
I0625 20:55:42.680968 26920 layer_factory.hpp:77] Creating layer out_reshape_scale
I0625 20:55:42.680974 26920 net.cpp:106] Creating Layer out_reshape_scale
I0625 20:55:42.680975 26920 net.cpp:454] out_reshape_scale <- out_reshape
I0625 20:55:42.680979 26920 net.cpp:411] out_reshape_scale -> out_reshape_scale
I0625 20:55:42.681038 26920 net.cpp:150] Setting up out_reshape_scale
I0625 20:55:42.681043 26920 net.cpp:157] Top shape: 1 512 30 30 (460800)
I0625 20:55:42.681046 26920 net.cpp:165] Memory required for data: 1470981256
I0625 20:55:42.681048 26920 layer_factory.hpp:77] Creating layer out_x
I0625 20:55:42.681053 26920 net.cpp:106] Creating Layer out_x
I0625 20:55:42.681056 26920 net.cpp:454] out_x <- out_reshape_scale
I0625 20:55:42.681058 26920 net.cpp:454] out_x <- pool5_2_conv4_relu_pool5_2_conv4_relu_0_split_3
I0625 20:55:42.681061 26920 net.cpp:411] out_x -> out_x
I0625 20:55:42.681078 26920 net.cpp:150] Setting up out_x
I0625 20:55:42.681082 26920 net.cpp:157] Top shape: 1 512 30 30 (460800)
I0625 20:55:42.681083 26920 net.cpp:165] Memory required for data: 1472824456
I0625 20:55:42.681085 26920 layer_factory.hpp:77] Creating layer mask_deconv2
I0625 20:55:42.681090 26920 net.cpp:106] Creating Layer mask_deconv2
I0625 20:55:42.681092 26920 net.cpp:454] mask_deconv2 <- out_x
I0625 20:55:42.681097 26920 net.cpp:411] mask_deconv2 -> mask_deconv2
I0625 20:55:42.681888 26920 net.cpp:150] Setting up mask_deconv2
I0625 20:55:42.681893 26920 net.cpp:157] Top shape: 1 256 122 122 (3810304)
I0625 20:55:42.681895 26920 net.cpp:165] Memory required for data: 1488065672
I0625 20:55:42.681900 26920 layer_factory.hpp:77] Creating layer pool5_2_conv5
I0625 20:55:42.681906 26920 net.cpp:106] Creating Layer pool5_2_conv5
I0625 20:55:42.681910 26920 net.cpp:454] pool5_2_conv5 <- mask_deconv2
I0625 20:55:42.681912 26920 net.cpp:411] pool5_2_conv5 -> pool5_2_conv5
I0625 20:55:42.708341 26920 net.cpp:150] Setting up pool5_2_conv5
I0625 20:55:42.708359 26920 net.cpp:157] Top shape: 1 512 122 122 (7620608)
I0625 20:55:42.708360 26920 net.cpp:165] Memory required for data: 1518548104
I0625 20:55:42.708369 26920 layer_factory.hpp:77] Creating layer pool5_2_conv5_relu
I0625 20:55:42.708374 26920 net.cpp:106] Creating Layer pool5_2_conv5_relu
I0625 20:55:42.708389 26920 net.cpp:454] pool5_2_conv5_relu <- pool5_2_conv5
I0625 20:55:42.708393 26920 net.cpp:411] pool5_2_conv5_relu -> pool5_2_conv5_relu
I0625 20:55:42.708532 26920 net.cpp:150] Setting up pool5_2_conv5_relu
I0625 20:55:42.708539 26920 net.cpp:157] Top shape: 1 512 122 122 (7620608)
I0625 20:55:42.708540 26920 net.cpp:165] Memory required for data: 1549030536
I0625 20:55:42.708542 26920 layer_factory.hpp:77] Creating layer pool5_2_conv6
I0625 20:55:42.708550 26920 net.cpp:106] Creating Layer pool5_2_conv6
I0625 20:55:42.708552 26920 net.cpp:454] pool5_2_conv6 <- pool5_2_conv5_relu
I0625 20:55:42.708556 26920 net.cpp:411] pool5_2_conv6 -> pool5_2_conv6
I0625 20:55:42.763870 26920 net.cpp:150] Setting up pool5_2_conv6
I0625 20:55:42.763896 26920 net.cpp:157] Top shape: 1 512 122 122 (7620608)
I0625 20:55:42.763900 26920 net.cpp:165] Memory required for data: 1579512968
I0625 20:55:42.763924 26920 layer_factory.hpp:77] Creating layer pool5_2_conv6_relu
I0625 20:55:42.763938 26920 net.cpp:106] Creating Layer pool5_2_conv6_relu
I0625 20:55:42.763947 26920 net.cpp:454] pool5_2_conv6_relu <- pool5_2_conv6
I0625 20:55:42.763954 26920 net.cpp:411] pool5_2_conv6_relu -> pool5_2_conv6_relu
I0625 20:55:42.764613 26920 net.cpp:150] Setting up pool5_2_conv6_relu
I0625 20:55:42.764626 26920 net.cpp:157] Top shape: 1 512 122 122 (7620608)
I0625 20:55:42.764628 26920 net.cpp:165] Memory required for data: 1609995400
I0625 20:55:42.764632 26920 layer_factory.hpp:77] Creating layer mask_deconv3
I0625 20:55:42.764645 26920 net.cpp:106] Creating Layer mask_deconv3
I0625 20:55:42.764664 26920 net.cpp:454] mask_deconv3 <- pool5_2_conv6_relu
I0625 20:55:42.764683 26920 net.cpp:411] mask_deconv3 -> mask_deconv3
I0625 20:55:42.765108 26920 net.cpp:150] Setting up mask_deconv3
I0625 20:55:42.765117 26920 net.cpp:157] Top shape: 1 256 244 244 (15241216)
I0625 20:55:42.765120 26920 net.cpp:165] Memory required for data: 1670960264
I0625 20:55:42.765127 26920 layer_factory.hpp:77] Creating layer mask_score
I0625 20:55:42.765136 26920 net.cpp:106] Creating Layer mask_score
I0625 20:55:42.765151 26920 net.cpp:454] mask_score <- mask_deconv3
I0625 20:55:42.765168 26920 net.cpp:411] mask_score -> mask_score
I0625 20:55:42.765918 26920 net.cpp:150] Setting up mask_score
I0625 20:55:42.765933 26920 net.cpp:157] Top shape: 1 8 244 244 (476288)
I0625 20:55:42.765935 26920 net.cpp:165] Memory required for data: 1672865416
I0625 20:55:42.765944 26920 layer_factory.hpp:77] Creating layer prob
I0625 20:55:42.765954 26920 net.cpp:106] Creating Layer prob
I0625 20:55:42.765971 26920 net.cpp:454] prob <- mask_score
I0625 20:55:42.765988 26920 net.cpp:411] prob -> mask_score_softmax
I0625 20:55:42.766722 26920 net.cpp:150] Setting up prob
I0625 20:55:42.766737 26920 net.cpp:157] Top shape: 1 8 244 244 (476288)
I0625 20:55:42.766742 26920 net.cpp:165] Memory required for data: 1674770568
I0625 20:55:42.766746 26920 layer_factory.hpp:77] Creating layer log
I0625 20:55:42.766753 26920 net.cpp:106] Creating Layer log
I0625 20:55:42.766769 26920 net.cpp:454] log <- mask_score_softmax
I0625 20:55:42.766784 26920 net.cpp:411] log -> log
I0625 20:55:42.766822 26920 net.cpp:150] Setting up log
I0625 20:55:42.766829 26920 net.cpp:157] Top shape: 1 8 244 244 (476288)
I0625 20:55:42.766832 26920 net.cpp:165] Memory required for data: 1676675720
I0625 20:55:42.766835 26920 layer_factory.hpp:77] Creating layer mult1
I0625 20:55:42.766842 26920 net.cpp:106] Creating Layer mult1
I0625 20:55:42.766855 26920 net.cpp:454] mult1 <- log
I0625 20:55:42.766868 26920 net.cpp:454] mult1 <- mask_targets
I0625 20:55:42.766889 26920 net.cpp:411] mult1 -> mult1
I0625 20:55:42.766924 26920 net.cpp:150] Setting up mult1
I0625 20:55:42.766930 26920 net.cpp:157] Top shape: 1 8 244 244 (476288)
I0625 20:55:42.766933 26920 net.cpp:165] Memory required for data: 1678580872
I0625 20:55:42.766937 26920 layer_factory.hpp:77] Creating layer cross_entropy
I0625 20:55:42.766945 26920 net.cpp:106] Creating Layer cross_entropy
I0625 20:55:42.766959 26920 net.cpp:454] cross_entropy <- mult1
I0625 20:55:42.766974 26920 net.cpp:411] cross_entropy -> cross_entropy
I0625 20:55:42.767009 26920 net.cpp:150] Setting up cross_entropy
I0625 20:55:42.767014 26920 net.cpp:157] Top shape: 1 8 244 244 (476288)
I0625 20:55:42.767016 26920 net.cpp:165] Memory required for data: 1680486024
I0625 20:55:42.767019 26920 layer_factory.hpp:77] Creating layer ce_sum
I0625 20:55:42.767031 26920 net.cpp:106] Creating Layer ce_sum
I0625 20:55:42.767045 26920 net.cpp:454] ce_sum <- cross_entropy
I0625 20:55:42.767061 26920 net.cpp:411] ce_sum -> cross_entropy_sum
I0625 20:55:42.768487 26920 net.cpp:150] Setting up ce_sum
I0625 20:55:42.768502 26920 net.cpp:157] Top shape: 1 1 244 244 (59536)
I0625 20:55:42.768504 26920 net.cpp:165] Memory required for data: 1680724168
I0625 20:55:42.768512 26920 layer_factory.hpp:77] Creating layer ce_mean
I0625 20:55:42.768522 26920 net.cpp:106] Creating Layer ce_mean
I0625 20:55:42.768527 26920 net.cpp:454] ce_mean <- cross_entropy_sum
I0625 20:55:42.768534 26920 net.cpp:411] ce_mean -> cross_entropy_mean
I0625 20:55:42.769233 26920 net.cpp:150] Setting up ce_mean
…
