…
average_loss: 100
iter_size: 2
I0611 17:32:34.558665  6554 solver.cpp:81] Creating training net from train_net file: models/pascal_voc/VGG16/faster_rcnn_end2end/train.prototxt
I0611 17:32:34.559967  6554 net.cpp:49] Initializing net from parameters: 
name: "VGG_ILSVRC_16_layers"
state {
  phase: TRAIN
}
layer {
  name: "input-data"
  type: "Python"
  top: "data"
  top: "im_info"
  top: "gt_boxes"
  top: "seg_mask_inds"
  top: "flipped"
  python_param {
    module: "roi_data_layer.layer"
    layer: "RoIDataLayer"
    param_str: "\'num_classes\': 2"
  }
}
layer {
  name: "conv1_1"
  type: "Convolution"
  bottom: "data"
  top: "conv1_1"
  param {
    lr_mult: 0
    decay_mult: 0
  }
  param {
    lr_mult: 0
    decay_mult: 0
  }
  convolution_param {
    num_output: 64
    pad: 1
    kernel_size: 3
  }
}
layer {
  name: "relu1_1"
  type: "ReLU"
  bottom: "conv1_1"
  top: "conv1_1"
}
layer {
  name: "conv1_2"
  type: "Convolution"
  bottom: "conv1_1"
  top: "conv1_2"
  param {
    lr_mult: 0
    decay_mult: 0
  }
  param {
    lr_mult: 0
    decay_mult: 0
  }
  convolution_param {
    num_output: 64
    pad: 1
    kernel_size: 3
  }
}
layer {
  name: "relu1_2"
  type: "ReLU"
  bottom: "conv1_2"
  top: "conv1_2"
}
layer {
  name: "pool1"
  type: "Pooling"
  bottom: "conv1_2"
  top: "pool1"
  pooling_param {
    pool: MAX
    kernel_size: 2
    stride: 2
  }
}
layer {
  name: "conv2_1"
  type: "Convolution"
  bottom: "pool1"
  top: "conv2_1"
  param {
    lr_mult: 0
    decay_mult: 0
  }
  param {
    lr_mult: 0
    decay_mult: 0
  }
  convolution_param {
    num_output: 128
    pad: 1
    kernel_size: 3
  }
}
layer {
  name: "relu2_1"
  type: "ReLU"
  bottom: "conv2_1"
  top: "conv2_1"
}
layer {
  name: "conv2_2"
  type: "Convolution"
  bottom: "conv2_1"
  top: "conv2_2"
  param {
    lr_mult: 0
    decay_mult: 0
  }
  param {
    lr_mult: 0
    decay_mult: 0
  }
  convolution_param {
    num_output: 128
    pad: 1
    kernel_size: 3
  }
}
layer {
  name: "relu2_2"
  type: "ReLU"
  bottom: "conv2_2"
  top: "conv2_2"
}
layer {
  name: "pool2"
  type: "Pooling"
  bottom: "conv2_2"
  top: "pool2"
  pooling_param {
    pool: MAX
    kernel_size: 2
    stride: 2
  }
}
layer {
  name: "conv3_1"
  type: "Convolution"
  bottom: "pool2"
  top: "conv3_1"
  param {
    lr_mult: 1
  }
  param {
    lr_mult: 2
  }
  convolution_param {
    num_output: 256
    pad: 1
    kernel_size: 3
  }
}
layer {
  name: "relu3_1"
  type: "ReLU"
  bottom: "conv3_1"
  top: "conv3_1"
}
layer {
  name: "conv3_2"
  type: "Convolution"
  bottom: "conv3_1"
  top: "conv3_2"
  param {
    lr_mult: 1
  }
  param {
    lr_mult: 2
  }
  convolution_param {
    num_output: 256
    pad: 1
    kernel_size: 3
  }
}
layer {
  name: "relu3_2"
  type: "ReLU"
  bottom: "conv3_2"
  top: "conv3_2"
}
layer {
  name: "conv3_3"
  type: "Convolution"
  bottom: "conv3_2"
  top: "conv3_3"
  param {
    lr_mult: 1
  }
  param {
    lr_mult: 2
  }
  convolution_param {
    num_output: 256
    pad: 1
    kernel_size: 3
  }
}
layer {
  name: "relu3_3"
  type: "ReLU"
  bottom: "conv3_3"
  top: "conv3_3"
}
layer {
  name: "pool3"
  type: "Pooling"
  bottom: "conv3_3"
  top: "pool3"
  pooling_param {
    pool: MAX
    kernel_size: 2
    stride: 2
  }
}
layer {
  name: "conv4_1"
  type: "Convolution"
  bottom: "pool3"
  top: "conv4_1"
  param {
    lr_mult: 1
  }
  param {
    lr_mult: 2
  }
  convolution_param {
    num_output: 512
    pad: 1
    kernel_size: 3
  }
}
layer {
  name: "relu4_1"
  type: "ReLU"
  bottom: "conv4_1"
  top: "conv4_1"
}
layer {
  name: "conv4_2"
  type: "Convolution"
  bottom: "conv4_1"
  top: "conv4_2"
  param {
    lr_mult: 1
  }
  param {
    lr_mult: 2
  }
  convolution_param {
    num_output: 512
    pad: 1
    kernel_size: 3
  }
}
layer {
  name: "relu4_2"
  type: "ReLU"
  bottom: "conv4_2"
  top: "conv4_2"
}
layer {
  name: "conv4_3"
  type: "Convolution"
  bottom: "conv4_2"
  top: "conv4_3"
  param {
    lr_mult: 1
  }
  param {
    lr_mult: 2
  }
  convolution_param {
    num_output: 512
    pad: 1
    kernel_size: 3
  }
}
layer {
  name: "relu4_3"
  type: "ReLU"
  bottom: "conv4_3"
  top: "conv4_3"
}
layer {
  name: "pool4"
  type: "Pooling"
  bottom: "conv4_3"
  top: "pool4"
  pooling_param {
    pool: MAX
    kernel_size: 2
    stride: 2
  }
}
layer {
  name: "conv5_1"
  type: "Convolution"
  bottom: "pool4"
  top: "conv5_1"
  param {
    lr_mult: 1
  }
  param {
    lr_mult: 2
  }
  convolution_param {
    num_output: 512
    pad: 1
    kernel_size: 3
  }
}
layer {
  name: "relu5_1"
  type: "ReLU"
  bottom: "conv5_1"
  top: "conv5_1"
}
layer {
  name: "conv5_2"
  type: "Convolution"
  bottom: "conv5_1"
  top: "conv5_2"
  param {
    lr_mult: 1
  }
  param {
    lr_mult: 2
  }
  convolution_param {
    num_output: 512
    pad: 1
    kernel_size: 3
  }
}
layer {
  name: "relu5_2"
  type: "ReLU"
  bottom: "conv5_2"
  top: "conv5_2"
}
layer {
  name: "conv5_3"
  type: "Convolution"
  bottom: "conv5_2"
  top: "conv5_3"
  param {
    lr_mult: 1
  }
  param {
    lr_mult: 2
  }
  convolution_param {
    num_output: 512
    pad: 1
    kernel_size: 3
  }
}
layer {
  name: "relu5_3"
  type: "ReLU"
  bottom: "conv5_3"
  top: "conv5_3"
}
layer {
  name: "rpn_conv/3x3"
  type: "Convolution"
  bottom: "conv5_3"
  top: "rpn/output"
  param {
    lr_mult: 1
  }
  param {
    lr_mult: 2
  }
  convolution_param {
    num_output: 512
    pad: 1
    kernel_size: 3
    stride: 1
    weight_filler {
      type: "gaussian"
      std: 0.01
    }
    bias_filler {
      type: "constant"
      value: 0
    }
  }
}
layer {
  name: "rpn_relu/3x3"
  type: "ReLU"
  bottom: "rpn/output"
  top: "rpn/output"
}
layer {
  name: "rpn_cls_score"
  type: "Convolution"
  bottom: "rpn/output"
  top: "rpn_cls_score"
  param {
    lr_mult: 1
  }
  param {
    lr_mult: 2
  }
  convolution_param {
    num_output: 30
    pad: 0
    kernel_size: 1
    stride: 1
    weight_filler {
      type: "gaussian"
      std: 0.01
    }
    bias_filler {
      type: "constant"
      value: 0
    }
  }
}
layer {
  name: "rpn_bbox_pred"
  type: "Convolution"
  bottom: "rpn/output"
  top: "rpn_bbox_pred"
  param {
    lr_mult: 1
  }
  param {
    lr_mult: 2
  }
  convolution_param {
    num_output: 60
    pad: 0
    kernel_size: 1
    stride: 1
    weight_filler {
      type: "gaussian"
      std: 0.01
    }
    bias_filler {
      type: "constant"
      value: 0
    }
  }
}
layer {
  name: "rpn_cls_score_reshape"
  type: "Reshape"
  bottom: "rpn_cls_score"
  top: "rpn_cls_score_reshape"
  reshape_param {
    shape {
      dim: 0
      dim: 2
      dim: -1
      dim: 0
    }
  }
}
layer {
  name: "rpn-data"
  type: "Python"
  bottom: "rpn_cls_score"
  bottom: "gt_boxes"
  bottom: "im_info"
  bottom: "data"
  top: "rpn_labels"
  top: "rpn_bbox_targets"
  top: "rpn_bbox_inside_weights"
  top: "rpn_bbox_outside_weights"
  python_param {
    module: "rpn.anchor_target_layer"
    layer: "AnchorTargetLayer"
    param_str: "\'feat_stride\': 16 \n\'scales\': !!python/tuple [2, 4, 8, 16, 32]"
  }
}
layer {
  name: "rpn_loss_cls"
  type: "SoftmaxWithLoss"
  bottom: "rpn_cls_score_reshape"
  bottom: "rpn_labels"
  top: "rpn_cls_loss"
  loss_weight: 1
  propagate_down: true
  propagate_down: false
  loss_param {
    ignore_label: -1
    normalize: true
  }
}
layer {
  name: "rpn_loss_bbox"
  type: "SmoothL1Loss"
  bottom: "rpn_bbox_pred"
  bottom: "rpn_bbox_targets"
  bottom: "rpn_bbox_inside_weights"
  bottom: "rpn_bbox_outside_weights"
  top: "rpn_loss_bbox"
  loss_weight: 1
  smooth_l1_loss_param {
    sigma: 3
  }
}
layer {
  name: "rpn_cls_prob"
  type: "Softmax"
  bottom: "rpn_cls_score_reshape"
  top: "rpn_cls_prob"
}
layer {
  name: "rpn_cls_prob_reshape"
  type: "Reshape"
  bottom: "rpn_cls_prob"
  top: "rpn_cls_prob_reshape"
  reshape_param {
    shape {
      dim: 0
      dim: 30
      dim: -1
      dim: 0
    }
  }
}
layer {
  name: "proposal"
  type: "Python"
  bottom: "rpn_cls_prob_reshape"
  bottom: "rpn_bbox_pred"
  bottom: "im_info"
  top: "rpn_rois"
  python_param {
    module: "rpn.proposal_layer"
    layer: "ProposalLayer"
    param_str: "\'feat_stride\': 16 \n\'scales\': !!python/tuple [2, 4, 8, 16, 32]"
  }
}
layer {
  name: "roi-data"
  type: "Python"
  bottom: "rpn_rois"
  bottom: "gt_boxes"
  bottom: "im_info"
  bottom: "seg_mask_inds"
  bottom: "flipped"
  top: "rois"
  top: "labels"
  top: "bbox_targets"
  top: "bbox_inside_weights"
  top: "bbox_outside_weights"
  top: "mask_targets"
  top: "rois_pos"
  top: "attrArray"
  top: "attrArrayInd"
  top: "attrArrayShift"
  python_param {
    module: "rpn.proposal_target_layer"
    layer: "ProposalTargetLayer"
    param_str: "\'num_classes\': 2"
  }
}
layer {
  name: "roi_pool5"
  type: "ROIAlignment"
  bottom: "conv5_3"
  bottom: "rois"
  top: "pool5"
  roi_alignment_param {
    pooled_h: 7
    pooled_w: 7
    spatial_scale: 0.0625
  }
}
layer {
  name: "fc6"
  type: "InnerProduct"
  bottom: "pool5"
  top: "fc6"
  param {
    lr_mult: 1
  }
  param {
    lr_mult: 2
  }
  inner_product_param {
    num_output: 4096
  }
}
layer {
  name: "relu6"
  type: "ReLU"
  bottom: "fc6"
  top: "fc6"
}
layer {
  name: "fc7"
  type: "InnerProduct"
  bottom: "fc6"
  top: "fc7"
  param {
    lr_mult: 1
  }
  param {
    lr_mult: 2
  }
  inner_product_param {
    num_output: 4096
  }
}
layer {
  name: "relu7"
  type: "ReLU"
  bottom: "fc7"
  top: "fc7"
}
layer {
  name: "attr_score"
  type: "InnerProduct"
  bottom: "fc7"
  top: "attr_score"
  param {
    lr_mult: 1
  }
  param {
    lr_mult: 2
  }
  inner_product_param {
    num_output: 7
    weight_filler {
      type: "gaussian"
      std: 0.001
    }
    bias_filler {
      type: "constant"
      value: 0
    }
  }
}
layer {
  name: "attr_score_pos"
  type: "Eltwise"
  bottom: "attr_score"
  bottom: "attrArrayInd"
  top: "attr_score_pos"
  eltwise_param {
    operation: PROD
  }
}
layer {
  name: "attr_score_pos_shift"
  type: "Eltwise"
  bottom: "attr_score_pos"
  bottom: "attrArrayShift"
  top: "attr_score_pos_shift"
  eltwise_param {
    operation: SUM
  }
}
layer {
  name: "cls_score"
  type: "InnerProduct"
  bottom: "fc7"
  top: "cls_score"
  param {
    lr_mult: 1
  }
  param {
    lr_mult: 2
  }
  inner_product_param {
    num_output: 2
    weight_filler {
      type: "gaussian"
      std: 0.01
    }
    bias_filler {
      type: "constant"
      value: 0
    }
  }
}
layer {
  name: "bbox_pred"
  type: "InnerProduct"
  bottom: "fc7"
  top: "bbox_pred"
  param {
    lr_mult: 1
  }
  param {
    lr_mult: 2
  }
  inner_product_param {
    num_output: 8
    weight_filler {
      type: "gaussian"
      std: 0.001
    }
    bias_filler {
      type: "constant"
      value: 0
    }
  }
}
layer {
  name: "loss_attribute"
  type: "SigmoidCrossEntropyLoss"
  bottom: "attr_score_pos_shift"
  bottom: "attrArray"
  top: "loss_attribute"
  loss_weight: 1
  propagate_down: true
  propagate_down: false
}
layer {
  name: "loss_cls"
  type: "SoftmaxWithLoss"
  bottom: "cls_score"
  bottom: "labels"
  top: "loss_cls"
  loss_weight: 3
  propagate_down: true
  propagate_down: false
}
layer {
  name: "loss_bbox"
  type: "SmoothL1Loss"
  bottom: "bbox_pred"
  bottom: "bbox_targets"
  bottom: "bbox_inside_weights"
  bottom: "bbox_outside_weights"
  top: "loss_bbox"
  loss_weight: 2
}
layer {
  name: "roi_pool5_2"
  type: "ROIAlignment"
  bottom: "conv5_3"
  bottom: "rois_pos"
  top: "pool5_2"
  roi_alignment_param {
    pooled_h: 7
    pooled_w: 7
    spatial_scale: 0.0625
  }
}
layer {
  name: "pool5_2_conv"
  type: "Convolution"
  bottom: "pool5_2"
  top: "pool5_2_conv"
  param {
    lr_mult: 1
    decay_mult: 1
  }
  param {
    lr_mult: 2
    decay_mult: 0
  }
  convolution_param {
    num_output: 512
    pad: 0
    kernel_size: 1
    weight_filler {
      type: "gaussian"
      std: 0.01
    }
    bias_filler {
      type: "constant"
      value: 0
    }
  }
}
layer {
  name: "pool5_2_conv_relu"
  type: "ReLU"
  bottom: "pool5_2_conv"
  top: "pool5_2_conv_relu"
}
layer {
  name: "pool5_2_conv2"
  type: "Convolution"
  bottom: "pool5_2_conv_relu"
  top: "pool5_2_conv2"
  param {
    lr_mult: 1
    decay_mult: 1
  }
  param {
    lr_mult: 2
    decay_mult: 0
  }
  convolution_param {
    num_output: 512
    pad: 1
    kernel_size: 3
    stride: 1
    weight_filler {
      type: "gaussian"
      std: 0.01
    }
    bias_filler {
      type: "constant"
      value: 0
    }
  }
}
layer {
  name: "pool5_2_conv2_relu"
  type: "ReLU"
  bottom: "pool5_2_conv2"
  top: "pool5_2_conv2_relu"
}
layer {
  name: "mask_deconv1"
  type: "Deconvolution"
  bottom: "pool5_2_conv2_relu"
  top: "mask_deconv1"
  param {
    lr_mult: 1
    decay_mult: 1
  }
  param {
    lr_mult: 2
    decay_mult: 0
  }
  convolution_param {
    num_output: 256
    pad: 1
    kernel_size: 8
    group: 256
    stride: 4
    weight_filler {
      type: "bilinear"
    }
  }
}
layer {
  name: "pool5_2_conv3"
  type: "Convolution"
  bottom: "mask_deconv1"
  top: "pool5_2_conv3"
  param {
    lr_mult: 1
    decay_mult: 1
  }
  param {
    lr_mult: 2
    decay_mult: 0
  }
  convolution_param {
    num_output: 512
    pad: 1
    kernel_size: 3
    stride: 1
    weight_filler {
      type: "gaussian"
      std: 0.01
    }
    bias_filler {
      type: "constant"
      value: 0
    }
  }
}
layer {
  name: "pool5_2_conv3_relu"
  type: "ReLU"
  bottom: "pool5_2_conv3"
  top: "pool5_2_conv3_relu"
}
layer {
  name: "pool5_2_conv4"
  type: "Convolution"
  bottom: "pool5_2_conv3_relu"
  top: "pool5_2_conv4"
  param {
    lr_mult: 1
    decay_mult: 1
  }
  param {
    lr_mult: 2
    decay_mult: 0
  }
  convolution_param {
    num_output: 512
    pad: 1
    kernel_size: 3
    stride: 1
    weight_filler {
      type: "gaussian"
      std: 0.01
    }
    bias_filler {
      type: "constant"
      value: 0
    }
  }
}
layer {
  name: "pool5_2_conv4_relu"
  type: "ReLU"
  bottom: "pool5_2_conv4"
  top: "pool5_2_conv4_relu"
}
layer {
  name: "query_conv"
  type: "Convolution"
  bottom: "pool5_2_conv4_relu"
  top: "query_conv"
  param {
    lr_mult: 1
    decay_mult: 1
  }
  param {
    lr_mult: 2
    decay_mult: 0
  }
  convolution_param {
    num_output: 64
    pad: 0
    kernel_size: 1
    stride: 1
    weight_filler {
      type: "gaussian"
      std: 0.01
    }
    bias_filler {
      type: "constant"
      value: 0
    }
  }
}
layer {
  name: "key_conv"
  type: "Convolution"
  bottom: "pool5_2_conv4_relu"
  top: "key_conv"
  param {
    lr_mult: 1
    decay_mult: 1
  }
  param {
    lr_mult: 2
    decay_mult: 0
  }
  convolution_param {
    num_output: 64
    pad: 0
    kernel_size: 1
    stride: 1
    weight_filler {
      type: "gaussian"
      std: 0.01
    }
    bias_filler {
      type: "constant"
      value: 0
    }
  }
}
layer {
  name: "value_conv"
  type: "Convolution"
  bottom: "pool5_2_conv4_relu"
  top: "value_conv"
  param {
    lr_mult: 1
    decay_mult: 1
  }
  param {
    lr_mult: 2
    decay_mult: 0
  }
  convolution_param {
    num_output: 512
    pad: 0
    kernel_size: 1
    stride: 1
    weight_filler {
      type: "gaussian"
      std: 0.01
    }
    bias_filler {
      type: "constant"
      value: 0
    }
  }
}
layer {
  name: "query_conv_reshape"
  type: "Reshape"
  bottom: "query_conv"
  top: "query_conv_reshape"
  reshape_param {
    shape {
      dim: -1
      dim: 64
      dim: 900
      dim: 1
    }
  }
}
layer {
  name: "key_conv_reshape"
  type: "Reshape"
  bottom: "key_conv"
  top: "key_conv_reshape"
  reshape_param {
    shape {
      dim: -1
      dim: 64
      dim: 900
      dim: 1
    }
  }
}
layer {
  name: "value_conv_reshape"
  type: "Reshape"
  bottom: "value_conv"
  top: "value_conv_reshape"
  reshape_param {
    shape {
      dim: -1
      dim: 512
      dim: 900
      dim: 1
    }
  }
}
layer {
  name: "query_conv_reshape_perm"
  type: "Permute"
  bottom: "query_conv_reshape"
  top: "query_conv_reshape_perm"
  permute_param {
    order: 0
    order: 3
    order: 2
    order: 1
  }
}
layer {
  name: "key_conv_reshape_perm"
  type: "Permute"
  bottom: "key_conv_reshape"
  top: "key_conv_reshape_perm"
  permute_param {
    order: 0
    order: 3
    order: 1
    order: 2
  }
}
layer {
  name: "energy"
  type: "MatrixMultiplication"
  bottom: "query_conv_reshape_perm"
  bottom: "key_conv_reshape_perm"
  top: "energy"
}
layer {
  name: "attention"
  type: "Softmax"
  bottom: "energy"
  top: "attention"
  softmax_param {
    axis: 3
  }
}
layer {
  name: "value_conv_reshape_perm"
  type: "Permute"
  bottom: "value_conv_reshape"
  top: "value_conv_reshape_perm"
  permute_param {
    order: 0
    order: 3
    order: 1
    order: 2
  }
}
layer {
  name: "attention_perm"
  type: "Permute"
  bottom: "attention"
  top: "attention_perm"
  permute_param {
    order: 0
    order: 1
    order: 2
    order: 3
  }
}
layer {
  name: "out"
  type: "MatrixMultiplication"
  bottom: "value_conv_reshape_perm"
  bottom: "attention_perm"
  top: "out"
}
layer {
  name: "out_reshape"
  type: "Reshape"
  bottom: "out"
  top: "out_reshape"
  reshape_param {
    shape {
      dim: -1
      dim: 512
      dim: 30
      dim: 30
    }
  }
}
layer {
  name: "out_reshape_scale"
  type: "Scale"
  bottom: "out_reshape"
  top: "out_reshape_scale"
  param {
    name: "scale_conv1_1"
    lr_mult: 1
  }
  scale_param {
    bias_term: false
  }
}
layer {
  name: "out_x"
  type: "Eltwise"
  bottom: "out_reshape_scale"
  bottom: "pool5_2_conv4_relu"
  top: "out_x"
  eltwise_param {
    operation: SUM
  }
}
layer {
  name: "mask_deconv2"
  type: "Deconvolution"
  bottom: "out_x"
  top: "mask_deconv2"
  param {
    lr_mult: 1
    decay_mult: 1
  }
  param {
    lr_mult: 2
    decay_mult: 0
  }
  convolution_param {
    num_output: 256
    pad: 1
    kernel_size: 8
    group: 256
    stride: 4
    weight_filler {
      type: "bilinear"
    }
  }
}
layer {
  name: "pool5_2_conv5"
  type: "Convolution"
  bottom: "mask_deconv2"
  top: "pool5_2_conv5"
  param {
    lr_mult: 1
    decay_mult: 1
  }
  param {
    lr_mult: 2
    decay_mult: 0
  }
  convolution_param {
    num_output: 512
    pad: 1
    kernel_size: 3
    stride: 1
    weight_filler {
      type: "gaussian"
      std: 0.01
    }
    bias_filler {
      type: "constant"
      value: 0
    }
  }
}
layer {
  name: "pool5_2_conv5_relu"
  type: "ReLU"
  bottom: "pool5_2_conv5"
  top: "pool5_2_conv5_relu"
}
layer {
  name: "pool5_2_conv6"
  type: "Convolution"
  bottom: "pool5_2_conv5_relu"
  top: "pool5_2_conv6"
  param {
    lr_mult: 1
    decay_mult: 1
  }
  param {
    lr_mult: 2
    decay_mult: 0
  }
  convolution_param {
    num_output: 512
    pad: 1
    kernel_size: 3
    stride: 1
    weight_filler {
      type: "gaussian"
      std: 0.01
    }
    bias_filler {
      type: "constant"
      value: 0
    }
  }
}
layer {
  name: "pool5_2_conv6_relu"
  type: "ReLU"
  bottom: "pool5_2_conv6"
  top: "pool5_2_conv6_relu"
}
layer {
  name: "mask_deconv3"
  type: "Deconvolution"
  bottom: "pool5_2_conv6_relu"
  top: "mask_deconv3"
  param {
    lr_mult: 1
    decay_mult: 1
  }
  param {
    lr_mult: 2
    decay_mult: 0
  }
  convolution_param {
    num_output: 256
    pad: 1
    kernel_size: 4
    group: 256
    stride: 2
    weight_filler {
      type: "bilinear"
    }
  }
}
layer {
  name: "mask_score"
  type: "Convolution"
  bottom: "mask_deconv3"
  top: "mask_score"
  param {
    lr_mult: 1
    decay_mult: 1
  }
  param {
    lr_mult: 2
    decay_mult: 0
  }
  convolution_param {
    num_output: 8
    pad: 0
    kernel_size: 1
    weight_filler {
      type: "gaussian"
      std: 0.01
    }
    bias_filler {
      type: "constant"
      value: 0
    }
  }
}
layer {
  name: "loss_mask"
  type: "SoftmaxWithLoss"
  bottom: "mask_score"
  bottom: "mask_targets"
  top: "loss_mask"
  loss_weight: 3
  propagate_down: true
  propagate_down: false
  loss_param {
    ignore_label: -1
    normalize: true
  }
}
I0611 17:32:34.560407  6554 layer_factory.hpp:77] Creating layer input-data
I0611 17:32:34.593783  6554 net.cpp:106] Creating Layer input-data
I0611 17:32:34.593811  6554 net.cpp:411] input-data -> data
I0611 17:32:34.593819  6554 net.cpp:411] input-data -> im_info
I0611 17:32:34.593824  6554 net.cpp:411] input-data -> gt_boxes
I0611 17:32:34.593828  6554 net.cpp:411] input-data -> seg_mask_inds
I0611 17:32:34.593843  6554 net.cpp:411] input-data -> flipped
RoiDataLayer: name_to_top: {'gt_boxes': 2, 'data': 0, 'seg_mask_inds': 3, 'im_info': 1, 'flipped': 4}
I0611 17:32:34.604876  6554 net.cpp:150] Setting up input-data
I0611 17:32:34.604907  6554 net.cpp:157] Top shape: 1 3 600 1000 (1800000)
I0611 17:32:34.604913  6554 net.cpp:157] Top shape: 1 3 (3)
I0611 17:32:34.604918  6554 net.cpp:157] Top shape: 1 4 (4)
I0611 17:32:34.604921  6554 net.cpp:157] Top shape: 1 2 (2)
I0611 17:32:34.604925  6554 net.cpp:157] Top shape: 1 1 (1)
I0611 17:32:34.604928  6554 net.cpp:165] Memory required for data: 7200040
I0611 17:32:34.604934  6554 layer_factory.hpp:77] Creating layer data_input-data_0_split
I0611 17:32:34.604952  6554 net.cpp:106] Creating Layer data_input-data_0_split
I0611 17:32:34.604959  6554 net.cpp:454] data_input-data_0_split <- data
I0611 17:32:34.604965  6554 net.cpp:411] data_input-data_0_split -> data_input-data_0_split_0
I0611 17:32:34.604977  6554 net.cpp:411] data_input-data_0_split -> data_input-data_0_split_1
I0611 17:32:34.605008  6554 net.cpp:150] Setting up data_input-data_0_split
I0611 17:32:34.605016  6554 net.cpp:157] Top shape: 1 3 600 1000 (1800000)
I0611 17:32:34.605022  6554 net.cpp:157] Top shape: 1 3 600 1000 (1800000)
I0611 17:32:34.605028  6554 net.cpp:165] Memory required for data: 21600040
I0611 17:32:34.605032  6554 layer_factory.hpp:77] Creating layer im_info_input-data_1_split
I0611 17:32:34.605041  6554 net.cpp:106] Creating Layer im_info_input-data_1_split
I0611 17:32:34.605046  6554 net.cpp:454] im_info_input-data_1_split <- im_info
I0611 17:32:34.605052  6554 net.cpp:411] im_info_input-data_1_split -> im_info_input-data_1_split_0
I0611 17:32:34.605060  6554 net.cpp:411] im_info_input-data_1_split -> im_info_input-data_1_split_1
I0611 17:32:34.605070  6554 net.cpp:411] im_info_input-data_1_split -> im_info_input-data_1_split_2
I0611 17:32:34.605104  6554 net.cpp:150] Setting up im_info_input-data_1_split
I0611 17:32:34.605108  6554 net.cpp:157] Top shape: 1 3 (3)
I0611 17:32:34.605113  6554 net.cpp:157] Top shape: 1 3 (3)
I0611 17:32:34.605118  6554 net.cpp:157] Top shape: 1 3 (3)
I0611 17:32:34.605121  6554 net.cpp:165] Memory required for data: 21600076
I0611 17:32:34.605124  6554 layer_factory.hpp:77] Creating layer gt_boxes_input-data_2_split
I0611 17:32:34.605132  6554 net.cpp:106] Creating Layer gt_boxes_input-data_2_split
I0611 17:32:34.605136  6554 net.cpp:454] gt_boxes_input-data_2_split <- gt_boxes
I0611 17:32:34.605144  6554 net.cpp:411] gt_boxes_input-data_2_split -> gt_boxes_input-data_2_split_0
I0611 17:32:34.605150  6554 net.cpp:411] gt_boxes_input-data_2_split -> gt_boxes_input-data_2_split_1
I0611 17:32:34.605175  6554 net.cpp:150] Setting up gt_boxes_input-data_2_split
I0611 17:32:34.605182  6554 net.cpp:157] Top shape: 1 4 (4)
I0611 17:32:34.605188  6554 net.cpp:157] Top shape: 1 4 (4)
I0611 17:32:34.605193  6554 net.cpp:165] Memory required for data: 21600108
I0611 17:32:34.605198  6554 layer_factory.hpp:77] Creating layer conv1_1
I0611 17:32:34.605213  6554 net.cpp:106] Creating Layer conv1_1
I0611 17:32:34.605219  6554 net.cpp:454] conv1_1 <- data_input-data_0_split_0
I0611 17:32:34.605227  6554 net.cpp:411] conv1_1 -> conv1_1
I0611 17:32:34.794111  6554 net.cpp:150] Setting up conv1_1
I0611 17:32:34.794149  6554 net.cpp:157] Top shape: 1 64 600 1000 (38400000)
I0611 17:32:34.794163  6554 net.cpp:165] Memory required for data: 175200108
I0611 17:32:34.794175  6554 layer_factory.hpp:77] Creating layer relu1_1
I0611 17:32:34.794195  6554 net.cpp:106] Creating Layer relu1_1
I0611 17:32:34.794200  6554 net.cpp:454] relu1_1 <- conv1_1
I0611 17:32:34.794206  6554 net.cpp:397] relu1_1 -> conv1_1 (in-place)
I0611 17:32:34.794351  6554 net.cpp:150] Setting up relu1_1
I0611 17:32:34.794358  6554 net.cpp:157] Top shape: 1 64 600 1000 (38400000)
I0611 17:32:34.794371  6554 net.cpp:165] Memory required for data: 328800108
I0611 17:32:34.794374  6554 layer_factory.hpp:77] Creating layer conv1_2
I0611 17:32:34.794382  6554 net.cpp:106] Creating Layer conv1_2
I0611 17:32:34.794385  6554 net.cpp:454] conv1_2 <- conv1_1
I0611 17:32:34.794390  6554 net.cpp:411] conv1_2 -> conv1_2
I0611 17:32:34.796614  6554 net.cpp:150] Setting up conv1_2
I0611 17:32:34.796627  6554 net.cpp:157] Top shape: 1 64 600 1000 (38400000)
I0611 17:32:34.796629  6554 net.cpp:165] Memory required for data: 482400108
I0611 17:32:34.796638  6554 layer_factory.hpp:77] Creating layer relu1_2
I0611 17:32:34.796644  6554 net.cpp:106] Creating Layer relu1_2
I0611 17:32:34.796648  6554 net.cpp:454] relu1_2 <- conv1_2
I0611 17:32:34.796653  6554 net.cpp:397] relu1_2 -> conv1_2 (in-place)
I0611 17:32:34.796775  6554 net.cpp:150] Setting up relu1_2
I0611 17:32:34.796784  6554 net.cpp:157] Top shape: 1 64 600 1000 (38400000)
I0611 17:32:34.796787  6554 net.cpp:165] Memory required for data: 636000108
I0611 17:32:34.796789  6554 layer_factory.hpp:77] Creating layer pool1
I0611 17:32:34.796797  6554 net.cpp:106] Creating Layer pool1
I0611 17:32:34.796799  6554 net.cpp:454] pool1 <- conv1_2
I0611 17:32:34.796808  6554 net.cpp:411] pool1 -> pool1
I0611 17:32:34.796849  6554 net.cpp:150] Setting up pool1
I0611 17:32:34.796855  6554 net.cpp:157] Top shape: 1 64 300 500 (9600000)
I0611 17:32:34.796857  6554 net.cpp:165] Memory required for data: 674400108
I0611 17:32:34.796859  6554 layer_factory.hpp:77] Creating layer conv2_1
I0611 17:32:34.796865  6554 net.cpp:106] Creating Layer conv2_1
I0611 17:32:34.796867  6554 net.cpp:454] conv2_1 <- pool1
I0611 17:32:34.796874  6554 net.cpp:411] conv2_1 -> conv2_1
I0611 17:32:34.798597  6554 net.cpp:150] Setting up conv2_1
I0611 17:32:34.798607  6554 net.cpp:157] Top shape: 1 128 300 500 (19200000)
I0611 17:32:34.798609  6554 net.cpp:165] Memory required for data: 751200108
I0611 17:32:34.798616  6554 layer_factory.hpp:77] Creating layer relu2_1
I0611 17:32:34.798621  6554 net.cpp:106] Creating Layer relu2_1
I0611 17:32:34.798624  6554 net.cpp:454] relu2_1 <- conv2_1
I0611 17:32:34.798629  6554 net.cpp:397] relu2_1 -> conv2_1 (in-place)
I0611 17:32:34.799238  6554 net.cpp:150] Setting up relu2_1
I0611 17:32:34.799249  6554 net.cpp:157] Top shape: 1 128 300 500 (19200000)
I0611 17:32:34.799253  6554 net.cpp:165] Memory required for data: 828000108
I0611 17:32:34.799257  6554 layer_factory.hpp:77] Creating layer conv2_2
I0611 17:32:34.799266  6554 net.cpp:106] Creating Layer conv2_2
I0611 17:32:34.799270  6554 net.cpp:454] conv2_2 <- conv2_1
I0611 17:32:34.799278  6554 net.cpp:411] conv2_2 -> conv2_2
I0611 17:32:34.800686  6554 net.cpp:150] Setting up conv2_2
I0611 17:32:34.800695  6554 net.cpp:157] Top shape: 1 128 300 500 (19200000)
I0611 17:32:34.800698  6554 net.cpp:165] Memory required for data: 904800108
I0611 17:32:34.800704  6554 layer_factory.hpp:77] Creating layer relu2_2
I0611 17:32:34.800709  6554 net.cpp:106] Creating Layer relu2_2
I0611 17:32:34.800711  6554 net.cpp:454] relu2_2 <- conv2_2
I0611 17:32:34.800714  6554 net.cpp:397] relu2_2 -> conv2_2 (in-place)
I0611 17:32:34.800856  6554 net.cpp:150] Setting up relu2_2
I0611 17:32:34.800863  6554 net.cpp:157] Top shape: 1 128 300 500 (19200000)
I0611 17:32:34.800865  6554 net.cpp:165] Memory required for data: 981600108
I0611 17:32:34.800868  6554 layer_factory.hpp:77] Creating layer pool2
I0611 17:32:34.800873  6554 net.cpp:106] Creating Layer pool2
I0611 17:32:34.800874  6554 net.cpp:454] pool2 <- conv2_2
I0611 17:32:34.800890  6554 net.cpp:411] pool2 -> pool2
I0611 17:32:34.800936  6554 net.cpp:150] Setting up pool2
I0611 17:32:34.800945  6554 net.cpp:157] Top shape: 1 128 150 250 (4800000)
I0611 17:32:34.800948  6554 net.cpp:165] Memory required for data: 1000800108
I0611 17:32:34.800951  6554 layer_factory.hpp:77] Creating layer conv3_1
I0611 17:32:34.800956  6554 net.cpp:106] Creating Layer conv3_1
I0611 17:32:34.800971  6554 net.cpp:454] conv3_1 <- pool2
I0611 17:32:34.800976  6554 net.cpp:411] conv3_1 -> conv3_1
I0611 17:32:34.802822  6554 net.cpp:150] Setting up conv3_1
I0611 17:32:34.802831  6554 net.cpp:157] Top shape: 1 256 150 250 (9600000)
I0611 17:32:34.802834  6554 net.cpp:165] Memory required for data: 1039200108
I0611 17:32:34.802842  6554 layer_factory.hpp:77] Creating layer relu3_1
I0611 17:32:34.802846  6554 net.cpp:106] Creating Layer relu3_1
I0611 17:32:34.802860  6554 net.cpp:454] relu3_1 <- conv3_1
I0611 17:32:34.802863  6554 net.cpp:397] relu3_1 -> conv3_1 (in-place)
I0611 17:32:34.802996  6554 net.cpp:150] Setting up relu3_1
I0611 17:32:34.803004  6554 net.cpp:157] Top shape: 1 256 150 250 (9600000)
I0611 17:32:34.803005  6554 net.cpp:165] Memory required for data: 1077600108
I0611 17:32:34.803007  6554 layer_factory.hpp:77] Creating layer conv3_2
I0611 17:32:34.803015  6554 net.cpp:106] Creating Layer conv3_2
I0611 17:32:34.803017  6554 net.cpp:454] conv3_2 <- conv3_1
I0611 17:32:34.803031  6554 net.cpp:411] conv3_2 -> conv3_2
I0611 17:32:34.804997  6554 net.cpp:150] Setting up conv3_2
I0611 17:32:34.805007  6554 net.cpp:157] Top shape: 1 256 150 250 (9600000)
I0611 17:32:34.805009  6554 net.cpp:165] Memory required for data: 1116000108
I0611 17:32:34.805014  6554 layer_factory.hpp:77] Creating layer relu3_2
I0611 17:32:34.805019  6554 net.cpp:106] Creating Layer relu3_2
I0611 17:32:34.805022  6554 net.cpp:454] relu3_2 <- conv3_2
I0611 17:32:34.805035  6554 net.cpp:397] relu3_2 -> conv3_2 (in-place)
I0611 17:32:34.805171  6554 net.cpp:150] Setting up relu3_2
I0611 17:32:34.805179  6554 net.cpp:157] Top shape: 1 256 150 250 (9600000)
I0611 17:32:34.805181  6554 net.cpp:165] Memory required for data: 1154400108
I0611 17:32:34.805183  6554 layer_factory.hpp:77] Creating layer conv3_3
I0611 17:32:34.805189  6554 net.cpp:106] Creating Layer conv3_3
I0611 17:32:34.805191  6554 net.cpp:454] conv3_3 <- conv3_2
I0611 17:32:34.805208  6554 net.cpp:411] conv3_3 -> conv3_3
I0611 17:32:34.807158  6554 net.cpp:150] Setting up conv3_3
I0611 17:32:34.807168  6554 net.cpp:157] Top shape: 1 256 150 250 (9600000)
I0611 17:32:34.807169  6554 net.cpp:165] Memory required for data: 1192800108
I0611 17:32:34.807175  6554 layer_factory.hpp:77] Creating layer relu3_3
I0611 17:32:34.807179  6554 net.cpp:106] Creating Layer relu3_3
I0611 17:32:34.807183  6554 net.cpp:454] relu3_3 <- conv3_3
I0611 17:32:34.807196  6554 net.cpp:397] relu3_3 -> conv3_3 (in-place)
I0611 17:32:34.807329  6554 net.cpp:150] Setting up relu3_3
I0611 17:32:34.807337  6554 net.cpp:157] Top shape: 1 256 150 250 (9600000)
I0611 17:32:34.807339  6554 net.cpp:165] Memory required for data: 1231200108
I0611 17:32:34.807341  6554 layer_factory.hpp:77] Creating layer pool3
I0611 17:32:34.807346  6554 net.cpp:106] Creating Layer pool3
I0611 17:32:34.807349  6554 net.cpp:454] pool3 <- conv3_3
I0611 17:32:34.807354  6554 net.cpp:411] pool3 -> pool3
I0611 17:32:34.807401  6554 net.cpp:150] Setting up pool3
I0611 17:32:34.807406  6554 net.cpp:157] Top shape: 1 256 75 125 (2400000)
I0611 17:32:34.807409  6554 net.cpp:165] Memory required for data: 1240800108
I0611 17:32:34.807410  6554 layer_factory.hpp:77] Creating layer conv4_1
I0611 17:32:34.807417  6554 net.cpp:106] Creating Layer conv4_1
I0611 17:32:34.807420  6554 net.cpp:454] conv4_1 <- pool3
I0611 17:32:34.807422  6554 net.cpp:411] conv4_1 -> conv4_1
I0611 17:32:34.811148  6554 net.cpp:150] Setting up conv4_1
I0611 17:32:34.811177  6554 net.cpp:157] Top shape: 1 512 75 125 (4800000)
I0611 17:32:34.811179  6554 net.cpp:165] Memory required for data: 1260000108
I0611 17:32:34.811187  6554 layer_factory.hpp:77] Creating layer relu4_1
I0611 17:32:34.811206  6554 net.cpp:106] Creating Layer relu4_1
I0611 17:32:34.811210  6554 net.cpp:454] relu4_1 <- conv4_1
I0611 17:32:34.811216  6554 net.cpp:397] relu4_1 -> conv4_1 (in-place)
I0611 17:32:34.811353  6554 net.cpp:150] Setting up relu4_1
I0611 17:32:34.811359  6554 net.cpp:157] Top shape: 1 512 75 125 (4800000)
I0611 17:32:34.811372  6554 net.cpp:165] Memory required for data: 1279200108
I0611 17:32:34.811374  6554 layer_factory.hpp:77] Creating layer conv4_2
I0611 17:32:34.811383  6554 net.cpp:106] Creating Layer conv4_2
I0611 17:32:34.811384  6554 net.cpp:454] conv4_2 <- conv4_1
I0611 17:32:34.811388  6554 net.cpp:411] conv4_2 -> conv4_2
I0611 17:32:34.816061  6554 net.cpp:150] Setting up conv4_2
I0611 17:32:34.816081  6554 net.cpp:157] Top shape: 1 512 75 125 (4800000)
I0611 17:32:34.816082  6554 net.cpp:165] Memory required for data: 1298400108
I0611 17:32:34.816094  6554 layer_factory.hpp:77] Creating layer relu4_2
I0611 17:32:34.816103  6554 net.cpp:106] Creating Layer relu4_2
I0611 17:32:34.816107  6554 net.cpp:454] relu4_2 <- conv4_2
I0611 17:32:34.816112  6554 net.cpp:397] relu4_2 -> conv4_2 (in-place)
I0611 17:32:34.816576  6554 net.cpp:150] Setting up relu4_2
I0611 17:32:34.816584  6554 net.cpp:157] Top shape: 1 512 75 125 (4800000)
I0611 17:32:34.816586  6554 net.cpp:165] Memory required for data: 1317600108
I0611 17:32:34.816589  6554 layer_factory.hpp:77] Creating layer conv4_3
I0611 17:32:34.816596  6554 net.cpp:106] Creating Layer conv4_3
I0611 17:32:34.816599  6554 net.cpp:454] conv4_3 <- conv4_2
I0611 17:32:34.816603  6554 net.cpp:411] conv4_3 -> conv4_3
I0611 17:32:34.820776  6554 net.cpp:150] Setting up conv4_3
I0611 17:32:34.820796  6554 net.cpp:157] Top shape: 1 512 75 125 (4800000)
I0611 17:32:34.820799  6554 net.cpp:165] Memory required for data: 1336800108
I0611 17:32:34.820807  6554 layer_factory.hpp:77] Creating layer relu4_3
I0611 17:32:34.820816  6554 net.cpp:106] Creating Layer relu4_3
I0611 17:32:34.820829  6554 net.cpp:454] relu4_3 <- conv4_3
I0611 17:32:34.820834  6554 net.cpp:397] relu4_3 -> conv4_3 (in-place)
I0611 17:32:34.820955  6554 net.cpp:150] Setting up relu4_3
I0611 17:32:34.820961  6554 net.cpp:157] Top shape: 1 512 75 125 (4800000)
I0611 17:32:34.820963  6554 net.cpp:165] Memory required for data: 1356000108
I0611 17:32:34.820966  6554 layer_factory.hpp:77] Creating layer pool4
I0611 17:32:34.820971  6554 net.cpp:106] Creating Layer pool4
I0611 17:32:34.820973  6554 net.cpp:454] pool4 <- conv4_3
I0611 17:32:34.820977  6554 net.cpp:411] pool4 -> pool4
I0611 17:32:34.821004  6554 net.cpp:150] Setting up pool4
I0611 17:32:34.821009  6554 net.cpp:157] Top shape: 1 512 38 63 (1225728)
I0611 17:32:34.821012  6554 net.cpp:165] Memory required for data: 1360903020
I0611 17:32:34.821013  6554 layer_factory.hpp:77] Creating layer conv5_1
I0611 17:32:34.821019  6554 net.cpp:106] Creating Layer conv5_1
I0611 17:32:34.821022  6554 net.cpp:454] conv5_1 <- pool4
I0611 17:32:34.821027  6554 net.cpp:411] conv5_1 -> conv5_1
I0611 17:32:34.825312  6554 net.cpp:150] Setting up conv5_1
I0611 17:32:34.825332  6554 net.cpp:157] Top shape: 1 512 38 63 (1225728)
I0611 17:32:34.825335  6554 net.cpp:165] Memory required for data: 1365805932
I0611 17:32:34.825343  6554 layer_factory.hpp:77] Creating layer relu5_1
I0611 17:32:34.825352  6554 net.cpp:106] Creating Layer relu5_1
I0611 17:32:34.825356  6554 net.cpp:454] relu5_1 <- conv5_1
I0611 17:32:34.825361  6554 net.cpp:397] relu5_1 -> conv5_1 (in-place)
I0611 17:32:34.825490  6554 net.cpp:150] Setting up relu5_1
I0611 17:32:34.825496  6554 net.cpp:157] Top shape: 1 512 38 63 (1225728)
I0611 17:32:34.825500  6554 net.cpp:165] Memory required for data: 1370708844
I0611 17:32:34.825501  6554 layer_factory.hpp:77] Creating layer conv5_2
I0611 17:32:34.825508  6554 net.cpp:106] Creating Layer conv5_2
I0611 17:32:34.825511  6554 net.cpp:454] conv5_2 <- conv5_1
I0611 17:32:34.825515  6554 net.cpp:411] conv5_2 -> conv5_2
I0611 17:32:34.830152  6554 net.cpp:150] Setting up conv5_2
I0611 17:32:34.830174  6554 net.cpp:157] Top shape: 1 512 38 63 (1225728)
I0611 17:32:34.830178  6554 net.cpp:165] Memory required for data: 1375611756
I0611 17:32:34.830188  6554 layer_factory.hpp:77] Creating layer relu5_2
I0611 17:32:34.830210  6554 net.cpp:106] Creating Layer relu5_2
I0611 17:32:34.830217  6554 net.cpp:454] relu5_2 <- conv5_2
I0611 17:32:34.830224  6554 net.cpp:397] relu5_2 -> conv5_2 (in-place)
I0611 17:32:34.830415  6554 net.cpp:150] Setting up relu5_2
I0611 17:32:34.830436  6554 net.cpp:157] Top shape: 1 512 38 63 (1225728)
I0611 17:32:34.830440  6554 net.cpp:165] Memory required for data: 1380514668
I0611 17:32:34.830444  6554 layer_factory.hpp:77] Creating layer conv5_3
I0611 17:32:34.830468  6554 net.cpp:106] Creating Layer conv5_3
I0611 17:32:34.830473  6554 net.cpp:454] conv5_3 <- conv5_2
I0611 17:32:34.830490  6554 net.cpp:411] conv5_3 -> conv5_3
I0611 17:32:34.834802  6554 net.cpp:150] Setting up conv5_3
I0611 17:32:34.834822  6554 net.cpp:157] Top shape: 1 512 38 63 (1225728)
I0611 17:32:34.834825  6554 net.cpp:165] Memory required for data: 1385417580
I0611 17:32:34.834833  6554 layer_factory.hpp:77] Creating layer relu5_3
I0611 17:32:34.834841  6554 net.cpp:106] Creating Layer relu5_3
I0611 17:32:34.834856  6554 net.cpp:454] relu5_3 <- conv5_3
I0611 17:32:34.834861  6554 net.cpp:397] relu5_3 -> conv5_3 (in-place)
I0611 17:32:34.835008  6554 net.cpp:150] Setting up relu5_3
I0611 17:32:34.835016  6554 net.cpp:157] Top shape: 1 512 38 63 (1225728)
I0611 17:32:34.835018  6554 net.cpp:165] Memory required for data: 1390320492
I0611 17:32:34.835021  6554 layer_factory.hpp:77] Creating layer conv5_3_relu5_3_0_split
I0611 17:32:34.835024  6554 net.cpp:106] Creating Layer conv5_3_relu5_3_0_split
I0611 17:32:34.835027  6554 net.cpp:454] conv5_3_relu5_3_0_split <- conv5_3
I0611 17:32:34.835042  6554 net.cpp:411] conv5_3_relu5_3_0_split -> conv5_3_relu5_3_0_split_0
I0611 17:32:34.835047  6554 net.cpp:411] conv5_3_relu5_3_0_split -> conv5_3_relu5_3_0_split_1
I0611 17:32:34.835063  6554 net.cpp:411] conv5_3_relu5_3_0_split -> conv5_3_relu5_3_0_split_2
I0611 17:32:34.835129  6554 net.cpp:150] Setting up conv5_3_relu5_3_0_split
I0611 17:32:34.835134  6554 net.cpp:157] Top shape: 1 512 38 63 (1225728)
I0611 17:32:34.835137  6554 net.cpp:157] Top shape: 1 512 38 63 (1225728)
I0611 17:32:34.835140  6554 net.cpp:157] Top shape: 1 512 38 63 (1225728)
I0611 17:32:34.835142  6554 net.cpp:165] Memory required for data: 1405029228
I0611 17:32:34.835144  6554 layer_factory.hpp:77] Creating layer rpn_conv/3x3
I0611 17:32:34.835165  6554 net.cpp:106] Creating Layer rpn_conv/3x3
I0611 17:32:34.835168  6554 net.cpp:454] rpn_conv/3x3 <- conv5_3_relu5_3_0_split_0
I0611 17:32:34.835184  6554 net.cpp:411] rpn_conv/3x3 -> rpn/output
I0611 17:32:34.886138  6554 net.cpp:150] Setting up rpn_conv/3x3
I0611 17:32:34.886157  6554 net.cpp:157] Top shape: 1 512 38 63 (1225728)
I0611 17:32:34.886159  6554 net.cpp:165] Memory required for data: 1409932140
I0611 17:32:34.886166  6554 layer_factory.hpp:77] Creating layer rpn_relu/3x3
I0611 17:32:34.886173  6554 net.cpp:106] Creating Layer rpn_relu/3x3
I0611 17:32:34.886188  6554 net.cpp:454] rpn_relu/3x3 <- rpn/output
I0611 17:32:34.886193  6554 net.cpp:397] rpn_relu/3x3 -> rpn/output (in-place)
I0611 17:32:34.886374  6554 net.cpp:150] Setting up rpn_relu/3x3
I0611 17:32:34.886381  6554 net.cpp:157] Top shape: 1 512 38 63 (1225728)
I0611 17:32:34.886394  6554 net.cpp:165] Memory required for data: 1414835052
I0611 17:32:34.886397  6554 layer_factory.hpp:77] Creating layer rpn/output_rpn_relu/3x3_0_split
I0611 17:32:34.886412  6554 net.cpp:106] Creating Layer rpn/output_rpn_relu/3x3_0_split
I0611 17:32:34.886415  6554 net.cpp:454] rpn/output_rpn_relu/3x3_0_split <- rpn/output
I0611 17:32:34.886420  6554 net.cpp:411] rpn/output_rpn_relu/3x3_0_split -> rpn/output_rpn_relu/3x3_0_split_0
I0611 17:32:34.886428  6554 net.cpp:411] rpn/output_rpn_relu/3x3_0_split -> rpn/output_rpn_relu/3x3_0_split_1
I0611 17:32:34.886479  6554 net.cpp:150] Setting up rpn/output_rpn_relu/3x3_0_split
I0611 17:32:34.886485  6554 net.cpp:157] Top shape: 1 512 38 63 (1225728)
I0611 17:32:34.886498  6554 net.cpp:157] Top shape: 1 512 38 63 (1225728)
I0611 17:32:34.886500  6554 net.cpp:165] Memory required for data: 1424640876
I0611 17:32:34.886504  6554 layer_factory.hpp:77] Creating layer rpn_cls_score
I0611 17:32:34.886515  6554 net.cpp:106] Creating Layer rpn_cls_score
I0611 17:32:34.886519  6554 net.cpp:454] rpn_cls_score <- rpn/output_rpn_relu/3x3_0_split_0
I0611 17:32:34.886528  6554 net.cpp:411] rpn_cls_score -> rpn_cls_score
I0611 17:32:34.888093  6554 net.cpp:150] Setting up rpn_cls_score
I0611 17:32:34.888103  6554 net.cpp:157] Top shape: 1 30 38 63 (71820)
I0611 17:32:34.888115  6554 net.cpp:165] Memory required for data: 1424928156
I0611 17:32:34.888119  6554 layer_factory.hpp:77] Creating layer rpn_cls_score_rpn_cls_score_0_split
I0611 17:32:34.888135  6554 net.cpp:106] Creating Layer rpn_cls_score_rpn_cls_score_0_split
I0611 17:32:34.888139  6554 net.cpp:454] rpn_cls_score_rpn_cls_score_0_split <- rpn_cls_score
I0611 17:32:34.888145  6554 net.cpp:411] rpn_cls_score_rpn_cls_score_0_split -> rpn_cls_score_rpn_cls_score_0_split_0
I0611 17:32:34.888152  6554 net.cpp:411] rpn_cls_score_rpn_cls_score_0_split -> rpn_cls_score_rpn_cls_score_0_split_1
I0611 17:32:34.888211  6554 net.cpp:150] Setting up rpn_cls_score_rpn_cls_score_0_split
I0611 17:32:34.888216  6554 net.cpp:157] Top shape: 1 30 38 63 (71820)
I0611 17:32:34.888229  6554 net.cpp:157] Top shape: 1 30 38 63 (71820)
I0611 17:32:34.888231  6554 net.cpp:165] Memory required for data: 1425502716
I0611 17:32:34.888234  6554 layer_factory.hpp:77] Creating layer rpn_bbox_pred
I0611 17:32:34.888252  6554 net.cpp:106] Creating Layer rpn_bbox_pred
I0611 17:32:34.888254  6554 net.cpp:454] rpn_bbox_pred <- rpn/output_rpn_relu/3x3_0_split_1
I0611 17:32:34.888262  6554 net.cpp:411] rpn_bbox_pred -> rpn_bbox_pred
I0611 17:32:34.889839  6554 net.cpp:150] Setting up rpn_bbox_pred
I0611 17:32:34.889847  6554 net.cpp:157] Top shape: 1 60 38 63 (143640)
I0611 17:32:34.889860  6554 net.cpp:165] Memory required for data: 1426077276
I0611 17:32:34.889864  6554 layer_factory.hpp:77] Creating layer rpn_bbox_pred_rpn_bbox_pred_0_split
I0611 17:32:34.889868  6554 net.cpp:106] Creating Layer rpn_bbox_pred_rpn_bbox_pred_0_split
I0611 17:32:34.889873  6554 net.cpp:454] rpn_bbox_pred_rpn_bbox_pred_0_split <- rpn_bbox_pred
I0611 17:32:34.889892  6554 net.cpp:411] rpn_bbox_pred_rpn_bbox_pred_0_split -> rpn_bbox_pred_rpn_bbox_pred_0_split_0
I0611 17:32:34.889900  6554 net.cpp:411] rpn_bbox_pred_rpn_bbox_pred_0_split -> rpn_bbox_pred_rpn_bbox_pred_0_split_1
I0611 17:32:34.889955  6554 net.cpp:150] Setting up rpn_bbox_pred_rpn_bbox_pred_0_split
I0611 17:32:34.889961  6554 net.cpp:157] Top shape: 1 60 38 63 (143640)
I0611 17:32:34.889964  6554 net.cpp:157] Top shape: 1 60 38 63 (143640)
I0611 17:32:34.889967  6554 net.cpp:165] Memory required for data: 1427226396
I0611 17:32:34.889971  6554 layer_factory.hpp:77] Creating layer rpn_cls_score_reshape
I0611 17:32:34.889988  6554 net.cpp:106] Creating Layer rpn_cls_score_reshape
I0611 17:32:34.889993  6554 net.cpp:454] rpn_cls_score_reshape <- rpn_cls_score_rpn_cls_score_0_split_0
I0611 17:32:34.890012  6554 net.cpp:411] rpn_cls_score_reshape -> rpn_cls_score_reshape
I0611 17:32:34.890044  6554 net.cpp:150] Setting up rpn_cls_score_reshape
I0611 17:32:34.890061  6554 net.cpp:157] Top shape: 1 2 570 63 (71820)
I0611 17:32:34.890077  6554 net.cpp:165] Memory required for data: 1427513676
I0611 17:32:34.890080  6554 layer_factory.hpp:77] Creating layer rpn_cls_score_reshape_rpn_cls_score_reshape_0_split
I0611 17:32:34.890086  6554 net.cpp:106] Creating Layer rpn_cls_score_reshape_rpn_cls_score_reshape_0_split
I0611 17:32:34.890089  6554 net.cpp:454] rpn_cls_score_reshape_rpn_cls_score_reshape_0_split <- rpn_cls_score_reshape
I0611 17:32:34.890095  6554 net.cpp:411] rpn_cls_score_reshape_rpn_cls_score_reshape_0_split -> rpn_cls_score_reshape_rpn_cls_score_reshape_0_split_0
I0611 17:32:34.890111  6554 net.cpp:411] rpn_cls_score_reshape_rpn_cls_score_reshape_0_split -> rpn_cls_score_reshape_rpn_cls_score_reshape_0_split_1
I0611 17:32:34.890164  6554 net.cpp:150] Setting up rpn_cls_score_reshape_rpn_cls_score_reshape_0_split
I0611 17:32:34.890170  6554 net.cpp:157] Top shape: 1 2 570 63 (71820)
I0611 17:32:34.890184  6554 net.cpp:157] Top shape: 1 2 570 63 (71820)
I0611 17:32:34.890187  6554 net.cpp:165] Memory required for data: 1428088236
I0611 17:32:34.890202  6554 layer_factory.hpp:77] Creating layer rpn-data
I0611 17:32:34.890628  6554 net.cpp:106] Creating Layer rpn-data
I0611 17:32:34.890638  6554 net.cpp:454] rpn-data <- rpn_cls_score_rpn_cls_score_0_split_1
I0611 17:32:34.890655  6554 net.cpp:454] rpn-data <- gt_boxes_input-data_2_split_0
I0611 17:32:34.890661  6554 net.cpp:454] rpn-data <- im_info_input-data_1_split_0
I0611 17:32:34.890667  6554 net.cpp:454] rpn-data <- data_input-data_0_split_1
I0611 17:32:34.890673  6554 net.cpp:411] rpn-data -> rpn_labels
I0611 17:32:34.890681  6554 net.cpp:411] rpn-data -> rpn_bbox_targets
I0611 17:32:34.890689  6554 net.cpp:411] rpn-data -> rpn_bbox_inside_weights
I0611 17:32:34.890695  6554 net.cpp:411] rpn-data -> rpn_bbox_outside_weights
===================================anchor_scales in AnchorTargetLayer:=============(2, 4, 8, 16, 32)
I0611 17:32:34.891641  6554 net.cpp:150] Setting up rpn-data
I0611 17:32:34.891650  6554 net.cpp:157] Top shape: 1 1 570 63 (35910)
I0611 17:32:34.891655  6554 net.cpp:157] Top shape: 1 60 38 63 (143640)
I0611 17:32:34.891659  6554 net.cpp:157] Top shape: 1 60 38 63 (143640)
I0611 17:32:34.891664  6554 net.cpp:157] Top shape: 1 60 38 63 (143640)
I0611 17:32:34.891669  6554 net.cpp:165] Memory required for data: 1429955556
I0611 17:32:34.891676  6554 layer_factory.hpp:77] Creating layer rpn_loss_cls
I0611 17:32:34.891685  6554 net.cpp:106] Creating Layer rpn_loss_cls
I0611 17:32:34.891691  6554 net.cpp:454] rpn_loss_cls <- rpn_cls_score_reshape_rpn_cls_score_reshape_0_split_0
I0611 17:32:34.891697  6554 net.cpp:454] rpn_loss_cls <- rpn_labels
…
I0611 17:32:34.893615  6554 net.cpp:157] Top shape: (1)
I0611 17:32:34.893617  6554 net.cpp:160]     with loss weight 1
I0611 17:32:34.893623  6554 net.cpp:165] Memory required for data: 1429955564
I0611 17:32:34.893626  6554 layer_factory.hpp:77] Creating layer rpn_cls_prob
I0611 17:32:34.893632  6554 net.cpp:106] Creating Layer rpn_cls_prob
I0611 17:32:34.893636  6554 net.cpp:454] rpn_cls_prob <- rpn_cls_score_reshape_rpn_cls_score_reshape_0_split_1
I0611 17:32:34.893641  6554 net.cpp:411] rpn_cls_prob -> rpn_cls_prob
I0611 17:32:34.893802  6554 net.cpp:150] Setting up rpn_cls_prob
I0611 17:32:34.893810  6554 net.cpp:157] Top shape: 1 2 570 63 (71820)
I0611 17:32:34.893813  6554 net.cpp:165] Memory required for data: 1430242844
I0611 17:32:34.893815  6554 layer_factory.hpp:77] Creating layer rpn_cls_prob_reshape
I0611 17:32:34.893822  6554 net.cpp:106] Creating Layer rpn_cls_prob_reshape
I0611 17:32:34.893826  6554 net.cpp:454] rpn_cls_prob_reshape <- rpn_cls_prob
I0611 17:32:34.893831  6554 net.cpp:411] rpn_cls_prob_reshape -> rpn_cls_prob_reshape
I0611 17:32:34.893851  6554 net.cpp:150] Setting up rpn_cls_prob_reshape
I0611 17:32:34.893854  6554 net.cpp:157] Top shape: 1 30 38 63 (71820)
I0611 17:32:34.893857  6554 net.cpp:165] Memory required for data: 1430530124
I0611 17:32:34.893860  6554 layer_factory.hpp:77] Creating layer proposal
I0611 17:32:34.894316  6554 net.cpp:106] Creating Layer proposal
I0611 17:32:34.894325  6554 net.cpp:454] proposal <- rpn_cls_prob_reshape
I0611 17:32:34.894328  6554 net.cpp:454] proposal <- rpn_bbox_pred_rpn_bbox_pred_0_split_1
I0611 17:32:34.894333  6554 net.cpp:454] proposal <- im_info_input-data_1_split_1
I0611 17:32:34.894338  6554 net.cpp:411] proposal -> rpn_rois
=================================anchor_scales in ProposalLayer:=============(2, 4, 8, 16, 32)
I0611 17:32:34.895205  6554 net.cpp:150] Setting up proposal
I0611 17:32:34.895215  6554 net.cpp:157] Top shape: 1 5 (5)
I0611 17:32:34.895226  6554 net.cpp:165] Memory required for data: 1430530144
I0611 17:32:34.895229  6554 layer_factory.hpp:77] Creating layer roi-data
I0611 17:32:34.897584  6554 net.cpp:106] Creating Layer roi-data
I0611 17:32:34.897593  6554 net.cpp:454] roi-data <- rpn_rois
I0611 17:32:34.897598  6554 net.cpp:454] roi-data <- gt_boxes_input-data_2_split_1
I0611 17:32:34.897600  6554 net.cpp:454] roi-data <- im_info_input-data_1_split_2
I0611 17:32:34.897603  6554 net.cpp:454] roi-data <- seg_mask_inds
I0611 17:32:34.897605  6554 net.cpp:454] roi-data <- flipped
I0611 17:32:34.897610  6554 net.cpp:411] roi-data -> rois
I0611 17:32:34.897616  6554 net.cpp:411] roi-data -> labels
I0611 17:32:34.897621  6554 net.cpp:411] roi-data -> bbox_targets
I0611 17:32:34.897626  6554 net.cpp:411] roi-data -> bbox_inside_weights
I0611 17:32:34.897630  6554 net.cpp:411] roi-data -> bbox_outside_weights
I0611 17:32:34.897635  6554 net.cpp:411] roi-data -> mask_targets
I0611 17:32:34.897639  6554 net.cpp:411] roi-data -> rois_pos
I0611 17:32:34.897644  6554 net.cpp:411] roi-data -> attrArray
I0611 17:32:34.897648  6554 net.cpp:411] roi-data -> attrArrayInd
I0611 17:32:34.897653  6554 net.cpp:411] roi-data -> attrArrayShift
I0611 17:32:34.897948  6554 net.cpp:150] Setting up roi-data
I0611 17:32:34.897955  6554 net.cpp:157] Top shape: 1 5 (5)
I0611 17:32:34.897958  6554 net.cpp:157] Top shape: 1 1 (1)
I0611 17:32:34.897961  6554 net.cpp:157] Top shape: 1 8 (8)
I0611 17:32:34.897964  6554 net.cpp:157] Top shape: 1 8 (8)
I0611 17:32:34.897966  6554 net.cpp:157] Top shape: 1 8 (8)
I0611 17:32:34.897969  6554 net.cpp:157] Top shape: 1 244 244 (59536)
I0611 17:32:34.897972  6554 net.cpp:157] Top shape: 1 5 (5)
I0611 17:32:34.897975  6554 net.cpp:157] Top shape: 1 7 (7)
I0611 17:32:34.897977  6554 net.cpp:157] Top shape: 1 7 (7)
I0611 17:32:34.897980  6554 net.cpp:157] Top shape: 1 7 (7)
I0611 17:32:34.897982  6554 net.cpp:165] Memory required for data: 1430768512
I0611 17:32:34.897986  6554 layer_factory.hpp:77] Creating layer roi_pool5
I0611 17:32:34.897991  6554 net.cpp:106] Creating Layer roi_pool5
I0611 17:32:34.897994  6554 net.cpp:454] roi_pool5 <- conv5_3_relu5_3_0_split_1
I0611 17:32:34.897999  6554 net.cpp:454] roi_pool5 <- rois
I0611 17:32:34.898002  6554 net.cpp:411] roi_pool5 -> pool5
I0611 17:32:34.898007  6554 roi_alignment_layer.cpp:32] Spatial scale: 0.0625
I0611 17:32:34.898069  6554 net.cpp:150] Setting up roi_pool5
I0611 17:32:34.898074  6554 net.cpp:157] Top shape: 1 512 7 7 (25088)
I0611 17:32:34.898077  6554 net.cpp:165] Memory required for data: 1430868864
I0611 17:32:34.898079  6554 layer_factory.hpp:77] Creating layer fc6
I0611 17:32:34.898084  6554 net.cpp:106] Creating Layer fc6
I0611 17:32:34.898087  6554 net.cpp:454] fc6 <- pool5
I0611 17:32:34.898092  6554 net.cpp:411] fc6 -> fc6
I0611 17:32:35.038604  6554 net.cpp:150] Setting up fc6
I0611 17:32:35.038627  6554 net.cpp:157] Top shape: 1 4096 (4096)
I0611 17:32:35.038631  6554 net.cpp:165] Memory required for data: 1430885248
I0611 17:32:35.038645  6554 layer_factory.hpp:77] Creating layer relu6
I0611 17:32:35.038655  6554 net.cpp:106] Creating Layer relu6
I0611 17:32:35.038661  6554 net.cpp:454] relu6 <- fc6
I0611 17:32:35.038668  6554 net.cpp:397] relu6 -> fc6 (in-place)
I0611 17:32:35.038874  6554 net.cpp:150] Setting up relu6
I0611 17:32:35.038883  6554 net.cpp:157] Top shape: 1 4096 (4096)
I0611 17:32:35.038885  6554 net.cpp:165] Memory required for data: 1430901632
I0611 17:32:35.038888  6554 layer_factory.hpp:77] Creating layer fc7
I0611 17:32:35.038894  6554 net.cpp:106] Creating Layer fc7
I0611 17:32:35.038898  6554 net.cpp:454] fc7 <- fc6
I0611 17:32:35.038902  6554 net.cpp:411] fc7 -> fc7
I0611 17:32:35.063037  6554 net.cpp:150] Setting up fc7
I0611 17:32:35.063066  6554 net.cpp:157] Top shape: 1 4096 (4096)
I0611 17:32:35.063081  6554 net.cpp:165] Memory required for data: 1430918016
I0611 17:32:35.063091  6554 layer_factory.hpp:77] Creating layer relu7
I0611 17:32:35.063100  6554 net.cpp:106] Creating Layer relu7
I0611 17:32:35.063105  6554 net.cpp:454] relu7 <- fc7
I0611 17:32:35.063112  6554 net.cpp:397] relu7 -> fc7 (in-place)
I0611 17:32:35.063380  6554 net.cpp:150] Setting up relu7
I0611 17:32:35.063388  6554 net.cpp:157] Top shape: 1 4096 (4096)
I0611 17:32:35.063401  6554 net.cpp:165] Memory required for data: 1430934400
I0611 17:32:35.063405  6554 layer_factory.hpp:77] Creating layer fc7_relu7_0_split
I0611 17:32:35.063410  6554 net.cpp:106] Creating Layer fc7_relu7_0_split
I0611 17:32:35.063414  6554 net.cpp:454] fc7_relu7_0_split <- fc7
I0611 17:32:35.063421  6554 net.cpp:411] fc7_relu7_0_split -> fc7_relu7_0_split_0
I0611 17:32:35.063426  6554 net.cpp:411] fc7_relu7_0_split -> fc7_relu7_0_split_1
I0611 17:32:35.063432  6554 net.cpp:411] fc7_relu7_0_split -> fc7_relu7_0_split_2
I0611 17:32:35.063489  6554 net.cpp:150] Setting up fc7_relu7_0_split
I0611 17:32:35.063494  6554 net.cpp:157] Top shape: 1 4096 (4096)
I0611 17:32:35.063498  6554 net.cpp:157] Top shape: 1 4096 (4096)
I0611 17:32:35.063500  6554 net.cpp:157] Top shape: 1 4096 (4096)
I0611 17:32:35.063513  6554 net.cpp:165] Memory required for data: 1430983552
I0611 17:32:35.063515  6554 layer_factory.hpp:77] Creating layer attr_score
I0611 17:32:35.063522  6554 net.cpp:106] Creating Layer attr_score
I0611 17:32:35.063526  6554 net.cpp:454] attr_score <- fc7_relu7_0_split_0
I0611 17:32:35.063530  6554 net.cpp:411] attr_score -> attr_score
I0611 17:32:35.064213  6554 net.cpp:150] Setting up attr_score
I0611 17:32:35.064218  6554 net.cpp:157] Top shape: 1 7 (7)
I0611 17:32:35.064220  6554 net.cpp:165] Memory required for data: 1430983580
I0611 17:32:35.064225  6554 layer_factory.hpp:77] Creating layer attr_score_pos
I0611 17:32:35.064249  6554 net.cpp:106] Creating Layer attr_score_pos
I0611 17:32:35.064254  6554 net.cpp:454] attr_score_pos <- attr_score
I0611 17:32:35.064257  6554 net.cpp:454] attr_score_pos <- attrArrayInd
I0611 17:32:35.064260  6554 net.cpp:411] attr_score_pos -> attr_score_pos
I0611 17:32:35.064287  6554 net.cpp:150] Setting up attr_score_pos
I0611 17:32:35.064291  6554 net.cpp:157] Top shape: 1 7 (7)
I0611 17:32:35.064293  6554 net.cpp:165] Memory required for data: 1430983608
I0611 17:32:35.064306  6554 layer_factory.hpp:77] Creating layer attr_score_pos_shift
I0611 17:32:35.064311  6554 net.cpp:106] Creating Layer attr_score_pos_shift
I0611 17:32:35.064313  6554 net.cpp:454] attr_score_pos_shift <- attr_score_pos
I0611 17:32:35.064316  6554 net.cpp:454] attr_score_pos_shift <- attrArrayShift
I0611 17:32:35.064321  6554 net.cpp:411] attr_score_pos_shift -> attr_score_pos_shift
I0611 17:32:35.064335  6554 net.cpp:150] Setting up attr_score_pos_shift
I0611 17:32:35.064340  6554 net.cpp:157] Top shape: 1 7 (7)
I0611 17:32:35.064342  6554 net.cpp:165] Memory required for data: 1430983636
I0611 17:32:35.064347  6554 layer_factory.hpp:77] Creating layer cls_score
I0611 17:32:35.064352  6554 net.cpp:106] Creating Layer cls_score
I0611 17:32:35.064355  6554 net.cpp:454] cls_score <- fc7_relu7_0_split_1
I0611 17:32:35.064360  6554 net.cpp:411] cls_score -> cls_score
I0611 17:32:35.064596  6554 net.cpp:150] Setting up cls_score
I0611 17:32:35.064601  6554 net.cpp:157] Top shape: 1 2 (2)
I0611 17:32:35.064604  6554 net.cpp:165] Memory required for data: 1430983644
I0611 17:32:35.064610  6554 layer_factory.hpp:77] Creating layer bbox_pred
I0611 17:32:35.064616  6554 net.cpp:106] Creating Layer bbox_pred
I0611 17:32:35.064621  6554 net.cpp:454] bbox_pred <- fc7_relu7_0_split_2
I0611 17:32:35.064625  6554 net.cpp:411] bbox_pred -> bbox_pred
I0611 17:32:35.065373  6554 net.cpp:150] Setting up bbox_pred
I0611 17:32:35.065379  6554 net.cpp:157] Top shape: 1 8 (8)
I0611 17:32:35.065382  6554 net.cpp:165] Memory required for data: 1430983676
I0611 17:32:35.065387  6554 layer_factory.hpp:77] Creating layer loss_attribute
I0611 17:32:35.065393  6554 net.cpp:106] Creating Layer loss_attribute
I0611 17:32:35.065397  6554 net.cpp:454] loss_attribute <- attr_score_pos_shift
I0611 17:32:35.065402  6554 net.cpp:454] loss_attribute <- attrArray
I0611 17:32:35.065405  6554 net.cpp:411] loss_attribute -> loss_attribute
…
I0611 17:32:35.066316  6554 net.cpp:165] Memory required for data: 1430983688
I0611 17:32:35.066319  6554 layer_factory.hpp:77] Creating layer roi_pool5_2
I0611 17:32:35.066325  6554 net.cpp:106] Creating Layer roi_pool5_2
I0611 17:32:35.066329  6554 net.cpp:454] roi_pool5_2 <- conv5_3_relu5_3_0_split_2
I0611 17:32:35.066332  6554 net.cpp:454] roi_pool5_2 <- rois_pos
I0611 17:32:35.066336  6554 net.cpp:411] roi_pool5_2 -> pool5_2
I0611 17:32:35.066341  6554 roi_alignment_layer.cpp:32] Spatial scale: 0.0625
I0611 17:32:35.066409  6554 net.cpp:150] Setting up roi_pool5_2
I0611 17:32:35.066414  6554 net.cpp:157] Top shape: 1 512 7 7 (25088)
I0611 17:32:35.066416  6554 net.cpp:165] Memory required for data: 1431084040
I0611 17:32:35.066419  6554 layer_factory.hpp:77] Creating layer pool5_2_conv
I0611 17:32:35.066427  6554 net.cpp:106] Creating Layer pool5_2_conv
I0611 17:32:35.066431  6554 net.cpp:454] pool5_2_conv <- pool5_2
I0611 17:32:35.066434  6554 net.cpp:411] pool5_2_conv -> pool5_2_conv
I0611 17:32:35.075989  6554 net.cpp:150] Setting up pool5_2_conv
I0611 17:32:35.076018  6554 net.cpp:157] Top shape: 1 512 7 7 (25088)
I0611 17:32:35.076021  6554 net.cpp:165] Memory required for data: 1431184392
I0611 17:32:35.076031  6554 layer_factory.hpp:77] Creating layer pool5_2_conv_relu
I0611 17:32:35.076040  6554 net.cpp:106] Creating Layer pool5_2_conv_relu
I0611 17:32:35.076045  6554 net.cpp:454] pool5_2_conv_relu <- pool5_2_conv
I0611 17:32:35.076050  6554 net.cpp:411] pool5_2_conv_relu -> pool5_2_conv_relu
I0611 17:32:35.076212  6554 net.cpp:150] Setting up pool5_2_conv_relu
I0611 17:32:35.076221  6554 net.cpp:157] Top shape: 1 512 7 7 (25088)
I0611 17:32:35.076225  6554 net.cpp:165] Memory required for data: 1431284744
I0611 17:32:35.076227  6554 layer_factory.hpp:77] Creating layer pool5_2_conv2
I0611 17:32:35.076237  6554 net.cpp:106] Creating Layer pool5_2_conv2
I0611 17:32:35.076241  6554 net.cpp:454] pool5_2_conv2 <- pool5_2_conv_relu
I0611 17:32:35.076247  6554 net.cpp:411] pool5_2_conv2 -> pool5_2_conv2
I0611 17:32:35.127352  6554 net.cpp:150] Setting up pool5_2_conv2
I0611 17:32:35.127382  6554 net.cpp:157] Top shape: 1 512 7 7 (25088)
I0611 17:32:35.127385  6554 net.cpp:165] Memory required for data: 1431385096
I0611 17:32:35.127394  6554 layer_factory.hpp:77] Creating layer pool5_2_conv2_relu
I0611 17:32:35.127413  6554 net.cpp:106] Creating Layer pool5_2_conv2_relu
I0611 17:32:35.127418  6554 net.cpp:454] pool5_2_conv2_relu <- pool5_2_conv2
I0611 17:32:35.127424  6554 net.cpp:411] pool5_2_conv2_relu -> pool5_2_conv2_relu
I0611 17:32:35.127599  6554 net.cpp:150] Setting up pool5_2_conv2_relu
I0611 17:32:35.127617  6554 net.cpp:157] Top shape: 1 512 7 7 (25088)
I0611 17:32:35.127619  6554 net.cpp:165] Memory required for data: 1431485448
I0611 17:32:35.127622  6554 layer_factory.hpp:77] Creating layer mask_deconv1
I0611 17:32:35.127630  6554 net.cpp:106] Creating Layer mask_deconv1
I0611 17:32:35.127634  6554 net.cpp:454] mask_deconv1 <- pool5_2_conv2_relu
I0611 17:32:35.127650  6554 net.cpp:411] mask_deconv1 -> mask_deconv1
I0611 17:32:35.128443  6554 net.cpp:150] Setting up mask_deconv1
I0611 17:32:35.128449  6554 net.cpp:157] Top shape: 1 256 30 30 (230400)
I0611 17:32:35.128461  6554 net.cpp:165] Memory required for data: 1432407048
I0611 17:32:35.128466  6554 layer_factory.hpp:77] Creating layer pool5_2_conv3
I0611 17:32:35.128474  6554 net.cpp:106] Creating Layer pool5_2_conv3
I0611 17:32:35.128479  6554 net.cpp:454] pool5_2_conv3 <- mask_deconv1
I0611 17:32:35.128494  6554 net.cpp:411] pool5_2_conv3 -> pool5_2_conv3
I0611 17:32:35.155246  6554 net.cpp:150] Setting up pool5_2_conv3
I0611 17:32:35.155274  6554 net.cpp:157] Top shape: 1 512 30 30 (460800)
I0611 17:32:35.155277  6554 net.cpp:165] Memory required for data: 1434250248
I0611 17:32:35.155287  6554 layer_factory.hpp:77] Creating layer pool5_2_conv3_relu
I0611 17:32:35.155295  6554 net.cpp:106] Creating Layer pool5_2_conv3_relu
I0611 17:32:35.155311  6554 net.cpp:454] pool5_2_conv3_relu <- pool5_2_conv3
I0611 17:32:35.155318  6554 net.cpp:411] pool5_2_conv3_relu -> pool5_2_conv3_relu
I0611 17:32:35.155486  6554 net.cpp:150] Setting up pool5_2_conv3_relu
I0611 17:32:35.155494  6554 net.cpp:157] Top shape: 1 512 30 30 (460800)
I0611 17:32:35.155506  6554 net.cpp:165] Memory required for data: 1436093448
I0611 17:32:35.155509  6554 layer_factory.hpp:77] Creating layer pool5_2_conv4
I0611 17:32:35.155531  6554 net.cpp:106] Creating Layer pool5_2_conv4
I0611 17:32:35.155536  6554 net.cpp:454] pool5_2_conv4 <- pool5_2_conv3_relu
I0611 17:32:35.155551  6554 net.cpp:411] pool5_2_conv4 -> pool5_2_conv4
I0611 17:32:35.206480  6554 net.cpp:150] Setting up pool5_2_conv4
I0611 17:32:35.206511  6554 net.cpp:157] Top shape: 1 512 30 30 (460800)
I0611 17:32:35.206513  6554 net.cpp:165] Memory required for data: 1437936648
I0611 17:32:35.206521  6554 layer_factory.hpp:77] Creating layer pool5_2_conv4_relu
I0611 17:32:35.206542  6554 net.cpp:106] Creating Layer pool5_2_conv4_relu
I0611 17:32:35.206547  6554 net.cpp:454] pool5_2_conv4_relu <- pool5_2_conv4
I0611 17:32:35.206555  6554 net.cpp:411] pool5_2_conv4_relu -> pool5_2_conv4_relu
I0611 17:32:35.206720  6554 net.cpp:150] Setting up pool5_2_conv4_relu
I0611 17:32:35.206728  6554 net.cpp:157] Top shape: 1 512 30 30 (460800)
I0611 17:32:35.206740  6554 net.cpp:165] Memory required for data: 1439779848
I0611 17:32:35.206743  6554 layer_factory.hpp:77] Creating layer pool5_2_conv4_relu_pool5_2_conv4_relu_0_split
I0611 17:32:35.206748  6554 net.cpp:106] Creating Layer pool5_2_conv4_relu_pool5_2_conv4_relu_0_split
I0611 17:32:35.206751  6554 net.cpp:454] pool5_2_conv4_relu_pool5_2_conv4_relu_0_split <- pool5_2_conv4_relu
I0611 17:32:35.206755  6554 net.cpp:411] pool5_2_conv4_relu_pool5_2_conv4_relu_0_split -> pool5_2_conv4_relu_pool5_2_conv4_relu_0_split_0
I0611 17:32:35.206771  6554 net.cpp:411] pool5_2_conv4_relu_pool5_2_conv4_relu_0_split -> pool5_2_conv4_relu_pool5_2_conv4_relu_0_split_1
I0611 17:32:35.206777  6554 net.cpp:411] pool5_2_conv4_relu_pool5_2_conv4_relu_0_split -> pool5_2_conv4_relu_pool5_2_conv4_relu_0_split_2
I0611 17:32:35.206781  6554 net.cpp:411] pool5_2_conv4_relu_pool5_2_conv4_relu_0_split -> pool5_2_conv4_relu_pool5_2_conv4_relu_0_split_3
I0611 17:32:35.206838  6554 net.cpp:150] Setting up pool5_2_conv4_relu_pool5_2_conv4_relu_0_split
I0611 17:32:35.206843  6554 net.cpp:157] Top shape: 1 512 30 30 (460800)
I0611 17:32:35.206846  6554 net.cpp:157] Top shape: 1 512 30 30 (460800)
I0611 17:32:35.206849  6554 net.cpp:157] Top shape: 1 512 30 30 (460800)
I0611 17:32:35.206862  6554 net.cpp:157] Top shape: 1 512 30 30 (460800)
I0611 17:32:35.206864  6554 net.cpp:165] Memory required for data: 1447152648
I0611 17:32:35.206866  6554 layer_factory.hpp:77] Creating layer query_conv
I0611 17:32:35.206877  6554 net.cpp:106] Creating Layer query_conv
I0611 17:32:35.206881  6554 net.cpp:454] query_conv <- pool5_2_conv4_relu_pool5_2_conv4_relu_0_split_0
I0611 17:32:35.206887  6554 net.cpp:411] query_conv -> query_conv
I0611 17:32:35.208624  6554 net.cpp:150] Setting up query_conv
I0611 17:32:35.208634  6554 net.cpp:157] Top shape: 1 64 30 30 (57600)
I0611 17:32:35.208636  6554 net.cpp:165] Memory required for data: 1447383048
I0611 17:32:35.208652  6554 layer_factory.hpp:77] Creating layer key_conv
I0611 17:32:35.208663  6554 net.cpp:106] Creating Layer key_conv
I0611 17:32:35.208667  6554 net.cpp:454] key_conv <- pool5_2_conv4_relu_pool5_2_conv4_relu_0_split_1
I0611 17:32:35.208673  6554 net.cpp:411] key_conv -> key_conv
I0611 17:32:35.210342  6554 net.cpp:150] Setting up key_conv
I0611 17:32:35.210352  6554 net.cpp:157] Top shape: 1 64 30 30 (57600)
I0611 17:32:35.210366  6554 net.cpp:165] Memory required for data: 1447613448
I0611 17:32:35.210371  6554 layer_factory.hpp:77] Creating layer value_conv
I0611 17:32:35.210381  6554 net.cpp:106] Creating Layer value_conv
I0611 17:32:35.210397  6554 net.cpp:454] value_conv <- pool5_2_conv4_relu_pool5_2_conv4_relu_0_split_2
I0611 17:32:35.210405  6554 net.cpp:411] value_conv -> value_conv
I0611 17:32:35.217574  6554 net.cpp:150] Setting up value_conv
I0611 17:32:35.217586  6554 net.cpp:157] Top shape: 1 512 30 30 (460800)
I0611 17:32:35.217589  6554 net.cpp:165] Memory required for data: 1449456648
I0611 17:32:35.217598  6554 layer_factory.hpp:77] Creating layer query_conv_reshape
I0611 17:32:35.217610  6554 net.cpp:106] Creating Layer query_conv_reshape
I0611 17:32:35.217617  6554 net.cpp:454] query_conv_reshape <- query_conv
I0611 17:32:35.217623  6554 net.cpp:411] query_conv_reshape -> query_conv_reshape
I0611 17:32:35.217651  6554 net.cpp:150] Setting up query_conv_reshape
I0611 17:32:35.217667  6554 net.cpp:157] Top shape: 1 64 900 1 (57600)
I0611 17:32:35.217671  6554 net.cpp:165] Memory required for data: 1449687048
I0611 17:32:35.217674  6554 layer_factory.hpp:77] Creating layer key_conv_reshape
I0611 17:32:35.217690  6554 net.cpp:106] Creating Layer key_conv_reshape
I0611 17:32:35.217695  6554 net.cpp:454] key_conv_reshape <- key_conv
I0611 17:32:35.217703  6554 net.cpp:411] key_conv_reshape -> key_conv_reshape
I0611 17:32:35.217730  6554 net.cpp:150] Setting up key_conv_reshape
I0611 17:32:35.217736  6554 net.cpp:157] Top shape: 1 64 900 1 (57600)
I0611 17:32:35.217739  6554 net.cpp:165] Memory required for data: 1449917448
I0611 17:32:35.217743  6554 layer_factory.hpp:77] Creating layer value_conv_reshape
I0611 17:32:35.217749  6554 net.cpp:106] Creating Layer value_conv_reshape
I0611 17:32:35.217754  6554 net.cpp:454] value_conv_reshape <- value_conv
I0611 17:32:35.217761  6554 net.cpp:411] value_conv_reshape -> value_conv_reshape
I0611 17:32:35.217787  6554 net.cpp:150] Setting up value_conv_reshape
I0611 17:32:35.217793  6554 net.cpp:157] Top shape: 1 512 900 1 (460800)
I0611 17:32:35.217797  6554 net.cpp:165] Memory required for data: 1451760648
I0611 17:32:35.217799  6554 layer_factory.hpp:77] Creating layer query_conv_reshape_perm
I0611 17:32:35.217814  6554 net.cpp:106] Creating Layer query_conv_reshape_perm
I0611 17:32:35.217818  6554 net.cpp:454] query_conv_reshape_perm <- query_conv_reshape
I0611 17:32:35.217823  6554 net.cpp:411] query_conv_reshape_perm -> query_conv_reshape_perm
I0611 17:32:35.217901  6554 net.cpp:150] Setting up query_conv_reshape_perm
I0611 17:32:35.217908  6554 net.cpp:157] Top shape: 1 1 900 64 (57600)
I0611 17:32:35.217911  6554 net.cpp:165] Memory required for data: 1451991048
I0611 17:32:35.217916  6554 layer_factory.hpp:77] Creating layer key_conv_reshape_perm
I0611 17:32:35.217921  6554 net.cpp:106] Creating Layer key_conv_reshape_perm
I0611 17:32:35.217927  6554 net.cpp:454] key_conv_reshape_perm <- key_conv_reshape
I0611 17:32:35.217939  6554 net.cpp:411] key_conv_reshape_perm -> key_conv_reshape_perm
I0611 17:32:35.218010  6554 net.cpp:150] Setting up key_conv_reshape_perm
I0611 17:32:35.218016  6554 net.cpp:157] Top shape: 1 1 64 900 (57600)
I0611 17:32:35.218019  6554 net.cpp:165] Memory required for data: 1452221448
I0611 17:32:35.218024  6554 layer_factory.hpp:77] Creating layer energy
I0611 17:32:35.218032  6554 net.cpp:106] Creating Layer energy
I0611 17:32:35.218037  6554 net.cpp:454] energy <- query_conv_reshape_perm
I0611 17:32:35.218041  6554 net.cpp:454] energy <- key_conv_reshape_perm
I0611 17:32:35.218050  6554 net.cpp:411] energy -> energy
I0611 17:32:35.218075  6554 net.cpp:150] Setting up energy
I0611 17:32:35.218081  6554 net.cpp:157] Top shape: 1 1 900 900 (810000)
I0611 17:32:35.218084  6554 net.cpp:165] Memory required for data: 1455461448
I0611 17:32:35.218088  6554 layer_factory.hpp:77] Creating layer attention
I0611 17:32:35.218099  6554 net.cpp:106] Creating Layer attention
I0611 17:32:35.218104  6554 net.cpp:454] attention <- energy
I0611 17:32:35.218109  6554 net.cpp:411] attention -> attention
I0611 17:32:35.218284  6554 net.cpp:150] Setting up attention
I0611 17:32:35.218292  6554 net.cpp:157] Top shape: 1 1 900 900 (810000)
I0611 17:32:35.218295  6554 net.cpp:165] Memory required for data: 1458701448
I0611 17:32:35.218300  6554 layer_factory.hpp:77] Creating layer value_conv_reshape_perm
I0611 17:32:35.218309  6554 net.cpp:106] Creating Layer value_conv_reshape_perm
I0611 17:32:35.218317  6554 net.cpp:454] value_conv_reshape_perm <- value_conv_reshape
I0611 17:32:35.218322  6554 net.cpp:411] value_conv_reshape_perm -> value_conv_reshape_perm
I0611 17:32:35.218396  6554 net.cpp:150] Setting up value_conv_reshape_perm
I0611 17:32:35.218402  6554 net.cpp:157] Top shape: 1 1 512 900 (460800)
I0611 17:32:35.218406  6554 net.cpp:165] Memory required for data: 1460544648
I0611 17:32:35.218410  6554 layer_factory.hpp:77] Creating layer attention_perm
I0611 17:32:35.218416  6554 net.cpp:106] Creating Layer attention_perm
I0611 17:32:35.218423  6554 net.cpp:454] attention_perm <- attention
I0611 17:32:35.218438  6554 net.cpp:411] attention_perm -> attention_perm
I0611 17:32:35.218526  6554 net.cpp:150] Setting up attention_perm
I0611 17:32:35.218542  6554 net.cpp:157] Top shape: 1 1 900 900 (810000)
I0611 17:32:35.218545  6554 net.cpp:165] Memory required for data: 1463784648
I0611 17:32:35.218549  6554 layer_factory.hpp:77] Creating layer out
I0611 17:32:35.218557  6554 net.cpp:106] Creating Layer out
I0611 17:32:35.218564  6554 net.cpp:454] out <- value_conv_reshape_perm
I0611 17:32:35.218569  6554 net.cpp:454] out <- attention_perm
I0611 17:32:35.218575  6554 net.cpp:411] out -> out
I0611 17:32:35.218598  6554 net.cpp:150] Setting up out
I0611 17:32:35.218603  6554 net.cpp:157] Top shape: 1 1 512 900 (460800)
I0611 17:32:35.218607  6554 net.cpp:165] Memory required for data: 1465627848
I0611 17:32:35.218611  6554 layer_factory.hpp:77] Creating layer out_reshape
I0611 17:32:35.218617  6554 net.cpp:106] Creating Layer out_reshape
I0611 17:32:35.218623  6554 net.cpp:454] out_reshape <- out
I0611 17:32:35.218628  6554 net.cpp:411] out_reshape -> out_reshape
I0611 17:32:35.218652  6554 net.cpp:150] Setting up out_reshape
I0611 17:32:35.218658  6554 net.cpp:157] Top shape: 1 512 30 30 (460800)
I0611 17:32:35.218662  6554 net.cpp:165] Memory required for data: 1467471048
I0611 17:32:35.218665  6554 layer_factory.hpp:77] Creating layer out_reshape_scale
I0611 17:32:35.218679  6554 net.cpp:106] Creating Layer out_reshape_scale
I0611 17:32:35.218684  6554 net.cpp:454] out_reshape_scale <- out_reshape
I0611 17:32:35.218689  6554 net.cpp:411] out_reshape_scale -> out_reshape_scale
I0611 17:32:35.218761  6554 net.cpp:150] Setting up out_reshape_scale
I0611 17:32:35.218767  6554 net.cpp:157] Top shape: 1 512 30 30 (460800)
I0611 17:32:35.218771  6554 net.cpp:165] Memory required for data: 1469314248
I0611 17:32:35.218776  6554 layer_factory.hpp:77] Creating layer out_x
I0611 17:32:35.218786  6554 net.cpp:106] Creating Layer out_x
I0611 17:32:35.218791  6554 net.cpp:454] out_x <- out_reshape_scale
I0611 17:32:35.218796  6554 net.cpp:454] out_x <- pool5_2_conv4_relu_pool5_2_conv4_relu_0_split_3
I0611 17:32:35.218804  6554 net.cpp:411] out_x -> out_x
I0611 17:32:35.218827  6554 net.cpp:150] Setting up out_x
I0611 17:32:35.218832  6554 net.cpp:157] Top shape: 1 512 30 30 (460800)
I0611 17:32:35.218837  6554 net.cpp:165] Memory required for data: 1471157448
I0611 17:32:35.218840  6554 layer_factory.hpp:77] Creating layer mask_deconv2
I0611 17:32:35.218854  6554 net.cpp:106] Creating Layer mask_deconv2
I0611 17:32:35.218858  6554 net.cpp:454] mask_deconv2 <- out_x
I0611 17:32:35.218865  6554 net.cpp:411] mask_deconv2 -> mask_deconv2
I0611 17:32:35.219671  6554 net.cpp:150] Setting up mask_deconv2
I0611 17:32:35.219678  6554 net.cpp:157] Top shape: 1 256 122 122 (3810304)
I0611 17:32:35.219681  6554 net.cpp:165] Memory required for data: 1486398664
I0611 17:32:35.219689  6554 layer_factory.hpp:77] Creating layer pool5_2_conv5
I0611 17:32:35.219703  6554 net.cpp:106] Creating Layer pool5_2_conv5
I0611 17:32:35.219708  6554 net.cpp:454] pool5_2_conv5 <- mask_deconv2
I0611 17:32:35.219715  6554 net.cpp:411] pool5_2_conv5 -> pool5_2_conv5
I0611 17:32:35.246187  6554 net.cpp:150] Setting up pool5_2_conv5
I0611 17:32:35.246206  6554 net.cpp:157] Top shape: 1 512 122 122 (7620608)
I0611 17:32:35.246210  6554 net.cpp:165] Memory required for data: 1516881096
I0611 17:32:35.246230  6554 layer_factory.hpp:77] Creating layer pool5_2_conv5_relu
I0611 17:32:35.246239  6554 net.cpp:106] Creating Layer pool5_2_conv5_relu
I0611 17:32:35.246248  6554 net.cpp:454] pool5_2_conv5_relu <- pool5_2_conv5
I0611 17:32:35.246258  6554 net.cpp:411] pool5_2_conv5_relu -> pool5_2_conv5_relu
I0611 17:32:35.246418  6554 net.cpp:150] Setting up pool5_2_conv5_relu
I0611 17:32:35.246426  6554 net.cpp:157] Top shape: 1 512 122 122 (7620608)
I0611 17:32:35.246429  6554 net.cpp:165] Memory required for data: 1547363528
I0611 17:32:35.246433  6554 layer_factory.hpp:77] Creating layer pool5_2_conv6
I0611 17:32:35.246464  6554 net.cpp:106] Creating Layer pool5_2_conv6
I0611 17:32:35.246469  6554 net.cpp:454] pool5_2_conv6 <- pool5_2_conv5_relu
I0611 17:32:35.246476  6554 net.cpp:411] pool5_2_conv6 -> pool5_2_conv6
I0611 17:32:35.296921  6554 net.cpp:150] Setting up pool5_2_conv6
I0611 17:32:35.296941  6554 net.cpp:157] Top shape: 1 512 122 122 (7620608)
I0611 17:32:35.296944  6554 net.cpp:165] Memory required for data: 1577845960
I0611 17:32:35.296978  6554 layer_factory.hpp:77] Creating layer pool5_2_conv6_relu
I0611 17:32:35.296999  6554 net.cpp:106] Creating Layer pool5_2_conv6_relu
I0611 17:32:35.297006  6554 net.cpp:454] pool5_2_conv6_relu <- pool5_2_conv6
I0611 17:32:35.297016  6554 net.cpp:411] pool5_2_conv6_relu -> pool5_2_conv6_relu
I0611 17:32:35.297598  6554 net.cpp:150] Setting up pool5_2_conv6_relu
I0611 17:32:35.297610  6554 net.cpp:157] Top shape: 1 512 122 122 (7620608)
I0611 17:32:35.297612  6554 net.cpp:165] Memory required for data: 1608328392
I0611 17:32:35.297616  6554 layer_factory.hpp:77] Creating layer mask_deconv3
I0611 17:32:35.297629  6554 net.cpp:106] Creating Layer mask_deconv3
I0611 17:32:35.297634  6554 net.cpp:454] mask_deconv3 <- pool5_2_conv6_relu
I0611 17:32:35.297641  6554 net.cpp:411] mask_deconv3 -> mask_deconv3
I0611 17:32:35.298007  6554 net.cpp:150] Setting up mask_deconv3
I0611 17:32:35.298014  6554 net.cpp:157] Top shape: 1 256 244 244 (15241216)
I0611 17:32:35.298017  6554 net.cpp:165] Memory required for data: 1669293256
I0611 17:32:35.298023  6554 layer_factory.hpp:77] Creating layer mask_score
I0611 17:32:35.298048  6554 net.cpp:106] Creating Layer mask_score
I0611 17:32:35.298053  6554 net.cpp:454] mask_score <- mask_deconv3
I0611 17:32:35.298059  6554 net.cpp:411] mask_score -> mask_score
I0611 17:32:35.298681  6554 net.cpp:150] Setting up mask_score
I0611 17:32:35.298691  6554 net.cpp:157] Top shape: 1 8 244 244 (476288)
I0611 17:32:35.298693  6554 net.cpp:165] Memory required for data: 1671198408
I0611 17:32:35.298701  6554 layer_factory.hpp:77] Creating layer loss_mask
I0611 17:32:35.298712  6554 net.cpp:106] Creating Layer loss_mask
I0611 17:32:35.298715  6554 net.cpp:454] loss_mask <- mask_score
I0611 17:32:35.298720  6554 net.cpp:454] loss_mask <- mask_targets
I0611 17:32:35.298727  6554 net.cpp:411] loss_mask -> loss_mask
…
