…
average_loss: 100
iter_size: 2
I0504 22:06:40.467770 12722 solver.cpp:81] Creating training net from train_net file: models/pascal_voc/VGG16/faster_rcnn_end2end/train.prototxt
I0504 22:06:40.484735 12722 net.cpp:49] Initializing net from parameters: 
name: "VGG_ILSVRC_16_layers"
state {
  phase: TRAIN
}
layer {
  name: "input-data"
  type: "Python"
  top: "data"
  top: "im_info"
  top: "gt_boxes"
  top: "seg_mask_inds"
  top: "flipped"
  python_param {
    module: "roi_data_layer.layer"
    layer: "RoIDataLayer"
    param_str: "\'num_classes\': 2"
  }
}
layer {
  name: "conv1_1"
  type: "Convolution"
  bottom: "data"
  top: "conv1_1"
  param {
    lr_mult: 0
    decay_mult: 0
  }
  param {
    lr_mult: 0
    decay_mult: 0
  }
  convolution_param {
    num_output: 64
    pad: 1
    kernel_size: 3
  }
}
layer {
  name: "relu1_1"
  type: "ReLU"
  bottom: "conv1_1"
  top: "conv1_1"
}
layer {
  name: "conv1_2"
  type: "Convolution"
  bottom: "conv1_1"
  top: "conv1_2"
  param {
    lr_mult: 0
    decay_mult: 0
  }
  param {
    lr_mult: 0
    decay_mult: 0
  }
  convolution_param {
    num_output: 64
    pad: 1
    kernel_size: 3
  }
}
layer {
  name: "relu1_2"
  type: "ReLU"
  bottom: "conv1_2"
  top: "conv1_2"
}
layer {
  name: "pool1"
  type: "Pooling"
  bottom: "conv1_2"
  top: "pool1"
  pooling_param {
    pool: MAX
    kernel_size: 2
    stride: 2
  }
}
layer {
  name: "conv2_1"
  type: "Convolution"
  bottom: "pool1"
  top: "conv2_1"
  param {
    lr_mult: 0
    decay_mult: 0
  }
  param {
    lr_mult: 0
    decay_mult: 0
  }
  convolution_param {
    num_output: 128
    pad: 1
    kernel_size: 3
  }
}
layer {
  name: "relu2_1"
  type: "ReLU"
  bottom: "conv2_1"
  top: "conv2_1"
}
layer {
  name: "conv2_2"
  type: "Convolution"
  bottom: "conv2_1"
  top: "conv2_2"
  param {
    lr_mult: 0
    decay_mult: 0
  }
  param {
    lr_mult: 0
    decay_mult: 0
  }
  convolution_param {
    num_output: 128
    pad: 1
    kernel_size: 3
  }
}
layer {
  name: "relu2_2"
  type: "ReLU"
  bottom: "conv2_2"
  top: "conv2_2"
}
layer {
  name: "pool2"
  type: "Pooling"
  bottom: "conv2_2"
  top: "pool2"
  pooling_param {
    pool: MAX
    kernel_size: 2
    stride: 2
  }
}
layer {
  name: "conv3_1"
  type: "Convolution"
  bottom: "pool2"
  top: "conv3_1"
  param {
    lr_mult: 1
  }
  param {
    lr_mult: 2
  }
  convolution_param {
    num_output: 256
    pad: 1
    kernel_size: 3
  }
}
layer {
  name: "relu3_1"
  type: "ReLU"
  bottom: "conv3_1"
  top: "conv3_1"
}
layer {
  name: "conv3_2"
  type: "Convolution"
  bottom: "conv3_1"
  top: "conv3_2"
  param {
    lr_mult: 1
  }
  param {
    lr_mult: 2
  }
  convolution_param {
    num_output: 256
    pad: 1
    kernel_size: 3
  }
}
layer {
  name: "relu3_2"
  type: "ReLU"
  bottom: "conv3_2"
  top: "conv3_2"
}
layer {
  name: "conv3_3"
  type: "Convolution"
  bottom: "conv3_2"
  top: "conv3_3"
  param {
    lr_mult: 1
  }
  param {
    lr_mult: 2
  }
  convolution_param {
    num_output: 256
    pad: 1
    kernel_size: 3
  }
}
layer {
  name: "relu3_3"
  type: "ReLU"
  bottom: "conv3_3"
  top: "conv3_3"
}
layer {
  name: "pool3"
  type: "Pooling"
  bottom: "conv3_3"
  top: "pool3"
  pooling_param {
    pool: MAX
    kernel_size: 2
    stride: 2
  }
}
layer {
  name: "conv4_1"
  type: "Convolution"
  bottom: "pool3"
  top: "conv4_1"
  param {
    lr_mult: 1
  }
  param {
    lr_mult: 2
  }
  convolution_param {
    num_output: 512
    pad: 1
    kernel_size: 3
  }
}
layer {
  name: "relu4_1"
  type: "ReLU"
  bottom: "conv4_1"
  top: "conv4_1"
}
layer {
  name: "conv4_2"
  type: "Convolution"
  bottom: "conv4_1"
  top: "conv4_2"
  param {
    lr_mult: 1
  }
  param {
    lr_mult: 2
  }
  convolution_param {
    num_output: 512
    pad: 1
    kernel_size: 3
  }
}
layer {
  name: "relu4_2"
  type: "ReLU"
  bottom: "conv4_2"
  top: "conv4_2"
}
layer {
  name: "conv4_3"
  type: "Convolution"
  bottom: "conv4_2"
  top: "conv4_3"
  param {
    lr_mult: 1
  }
  param {
    lr_mult: 2
  }
  convolution_param {
    num_output: 512
    pad: 1
    kernel_size: 3
  }
}
layer {
  name: "relu4_3"
  type: "ReLU"
  bottom: "conv4_3"
  top: "conv4_3"
}
layer {
  name: "pool4"
  type: "Pooling"
  bottom: "conv4_3"
  top: "pool4"
  pooling_param {
    pool: MAX
    kernel_size: 2
    stride: 2
  }
}
layer {
  name: "conv5_1"
  type: "Convolution"
  bottom: "pool4"
  top: "conv5_1"
  param {
    lr_mult: 1
  }
  param {
    lr_mult: 2
  }
  convolution_param {
    num_output: 512
    pad: 1
    kernel_size: 3
  }
}
layer {
  name: "relu5_1"
  type: "ReLU"
  bottom: "conv5_1"
  top: "conv5_1"
}
layer {
  name: "conv5_2"
  type: "Convolution"
  bottom: "conv5_1"
  top: "conv5_2"
  param {
    lr_mult: 1
  }
  param {
    lr_mult: 2
  }
  convolution_param {
    num_output: 512
    pad: 1
    kernel_size: 3
  }
}
layer {
  name: "relu5_2"
  type: "ReLU"
  bottom: "conv5_2"
  top: "conv5_2"
}
layer {
  name: "conv5_3"
  type: "Convolution"
  bottom: "conv5_2"
  top: "conv5_3"
  param {
    lr_mult: 1
  }
  param {
    lr_mult: 2
  }
  convolution_param {
    num_output: 512
    pad: 1
    kernel_size: 3
  }
}
layer {
  name: "relu5_3"
  type: "ReLU"
  bottom: "conv5_3"
  top: "conv5_3"
}
layer {
  name: "rpn_conv/3x3"
  type: "Convolution"
  bottom: "conv5_3"
  top: "rpn/output"
  param {
    lr_mult: 1
  }
  param {
    lr_mult: 2
  }
  convolution_param {
    num_output: 512
    pad: 1
    kernel_size: 3
    stride: 1
    weight_filler {
      type: "gaussian"
      std: 0.01
    }
    bias_filler {
      type: "constant"
      value: 0
    }
  }
}
layer {
  name: "rpn_relu/3x3"
  type: "ReLU"
  bottom: "rpn/output"
  top: "rpn/output"
}
layer {
  name: "rpn_cls_score"
  type: "Convolution"
  bottom: "rpn/output"
  top: "rpn_cls_score"
  param {
    lr_mult: 1
  }
  param {
    lr_mult: 2
  }
  convolution_param {
    num_output: 30
    pad: 0
    kernel_size: 1
    stride: 1
    weight_filler {
      type: "gaussian"
      std: 0.01
    }
    bias_filler {
      type: "constant"
      value: 0
    }
  }
}
layer {
  name: "rpn_bbox_pred"
  type: "Convolution"
  bottom: "rpn/output"
  top: "rpn_bbox_pred"
  param {
    lr_mult: 1
  }
  param {
    lr_mult: 2
  }
  convolution_param {
    num_output: 60
    pad: 0
    kernel_size: 1
    stride: 1
    weight_filler {
      type: "gaussian"
      std: 0.01
    }
    bias_filler {
      type: "constant"
      value: 0
    }
  }
}
layer {
  name: "rpn_cls_score_reshape"
  type: "Reshape"
  bottom: "rpn_cls_score"
  top: "rpn_cls_score_reshape"
  reshape_param {
    shape {
      dim: 0
      dim: 2
      dim: -1
      dim: 0
    }
  }
}
layer {
  name: "rpn-data"
  type: "Python"
  bottom: "rpn_cls_score"
  bottom: "gt_boxes"
  bottom: "im_info"
  bottom: "data"
  top: "rpn_labels"
  top: "rpn_bbox_targets"
  top: "rpn_bbox_inside_weights"
  top: "rpn_bbox_outside_weights"
  python_param {
    module: "rpn.anchor_target_layer"
    layer: "AnchorTargetLayer"
    param_str: "\'feat_stride\': 16 \n\'scales\': !!python/tuple [2, 4, 8, 16, 32]"
  }
}
layer {
  name: "rpn_loss_cls"
  type: "SoftmaxWithLoss"
  bottom: "rpn_cls_score_reshape"
  bottom: "rpn_labels"
  top: "rpn_cls_loss"
  loss_weight: 1
  propagate_down: true
  propagate_down: false
  loss_param {
    ignore_label: -1
    normalize: true
  }
}
layer {
  name: "rpn_loss_bbox"
  type: "SmoothL1Loss"
  bottom: "rpn_bbox_pred"
  bottom: "rpn_bbox_targets"
  bottom: "rpn_bbox_inside_weights"
  bottom: "rpn_bbox_outside_weights"
  top: "rpn_loss_bbox"
  loss_weight: 1
  smooth_l1_loss_param {
    sigma: 3
  }
}
layer {
  name: "rpn_cls_prob"
  type: "Softmax"
  bottom: "rpn_cls_score_reshape"
  top: "rpn_cls_prob"
}
layer {
  name: "rpn_cls_prob_reshape"
  type: "Reshape"
  bottom: "rpn_cls_prob"
  top: "rpn_cls_prob_reshape"
  reshape_param {
    shape {
      dim: 0
      dim: 30
      dim: -1
      dim: 0
    }
  }
}
layer {
  name: "proposal"
  type: "Python"
  bottom: "rpn_cls_prob_reshape"
  bottom: "rpn_bbox_pred"
  bottom: "im_info"
  top: "rpn_rois"
  python_param {
    module: "rpn.proposal_layer"
    layer: "ProposalLayer"
    param_str: "\'feat_stride\': 16 \n\'scales\': !!python/tuple [2, 4, 8, 16, 32]"
  }
}
layer {
  name: "roi-data"
  type: "Python"
  bottom: "rpn_rois"
  bottom: "gt_boxes"
  bottom: "im_info"
  bottom: "seg_mask_inds"
  bottom: "flipped"
  top: "rois"
  top: "labels"
  top: "bbox_targets"
  top: "bbox_inside_weights"
  top: "bbox_outside_weights"
  top: "mask_targets"
  top: "rois_pos"
  top: "attrArray"
  top: "attrArrayInd"
  top: "attrArrayShift"
  python_param {
    module: "rpn.proposal_target_layer"
    layer: "ProposalTargetLayer"
    param_str: "\'num_classes\': 2"
  }
}
layer {
  name: "roi_pool5"
  type: "ROIAlignment"
  bottom: "conv5_3"
  bottom: "rois"
  top: "pool5"
  roi_alignment_param {
    pooled_h: 7
    pooled_w: 7
    spatial_scale: 0.0625
  }
}
layer {
  name: "fc6"
  type: "InnerProduct"
  bottom: "pool5"
  top: "fc6"
  param {
    lr_mult: 1
  }
  param {
    lr_mult: 2
  }
  inner_product_param {
    num_output: 4096
  }
}
layer {
  name: "relu6"
  type: "ReLU"
  bottom: "fc6"
  top: "fc6"
}
layer {
  name: "fc7"
  type: "InnerProduct"
  bottom: "fc6"
  top: "fc7"
  param {
    lr_mult: 1
  }
  param {
    lr_mult: 2
  }
  inner_product_param {
    num_output: 4096
  }
}
layer {
  name: "relu7"
  type: "ReLU"
  bottom: "fc7"
  top: "fc7"
}
layer {
  name: "attr_score"
  type: "InnerProduct"
  bottom: "fc7"
  top: "attr_score"
  param {
    lr_mult: 1
  }
  param {
    lr_mult: 2
  }
  inner_product_param {
    num_output: 7
    weight_filler {
      type: "gaussian"
      std: 0.001
    }
    bias_filler {
      type: "constant"
      value: 0
    }
  }
}
layer {
  name: "attr_score_pos"
  type: "Eltwise"
  bottom: "attr_score"
  bottom: "attrArrayInd"
  top: "attr_score_pos"
  eltwise_param {
    operation: PROD
  }
}
layer {
  name: "attr_score_pos_shift"
  type: "Eltwise"
  bottom: "attr_score_pos"
  bottom: "attrArrayShift"
  top: "attr_score_pos_shift"
  eltwise_param {
    operation: SUM
  }
}
layer {
  name: "cls_score"
  type: "InnerProduct"
  bottom: "fc7"
  top: "cls_score"
  param {
    lr_mult: 1
  }
  param {
    lr_mult: 2
  }
  inner_product_param {
    num_output: 2
    weight_filler {
      type: "gaussian"
      std: 0.01
    }
    bias_filler {
      type: "constant"
      value: 0
    }
  }
}
layer {
  name: "bbox_pred"
  type: "InnerProduct"
  bottom: "fc7"
  top: "bbox_pred"
  param {
    lr_mult: 1
  }
  param {
    lr_mult: 2
  }
  inner_product_param {
    num_output: 8
    weight_filler {
      type: "gaussian"
      std: 0.001
    }
    bias_filler {
      type: "constant"
      value: 0
    }
  }
}
layer {
  name: "loss_attribute"
  type: "SigmoidCrossEntropyLoss"
  bottom: "attr_score_pos_shift"
  bottom: "attrArray"
  top: "loss_attribute"
  loss_weight: 1
  propagate_down: true
  propagate_down: false
}
layer {
  name: "loss_cls"
  type: "SoftmaxWithLoss"
  bottom: "cls_score"
  bottom: "labels"
  top: "loss_cls"
  loss_weight: 3
  propagate_down: true
  propagate_down: false
}
layer {
  name: "loss_bbox"
  type: "SmoothL1Loss"
  bottom: "bbox_pred"
  bottom: "bbox_targets"
  bottom: "bbox_inside_weights"
  bottom: "bbox_outside_weights"
  top: "loss_bbox"
  loss_weight: 2
}
layer {
  name: "roi_pool5_2"
  type: "ROIAlignment"
  bottom: "conv5_3"
  bottom: "rois_pos"
  top: "pool5_2"
  roi_alignment_param {
    pooled_h: 7
    pooled_w: 7
    spatial_scale: 0.0625
  }
}
layer {
  name: "pool5_2_conv"
  type: "Convolution"
  bottom: "pool5_2"
  top: "pool5_2_conv"
  param {
    lr_mult: 1
    decay_mult: 1
  }
  param {
    lr_mult: 2
    decay_mult: 0
  }
  convolution_param {
    num_output: 512
    pad: 0
    kernel_size: 1
    weight_filler {
      type: "gaussian"
      std: 0.01
    }
    bias_filler {
      type: "constant"
      value: 0
    }
  }
}
layer {
  name: "pool5_2_conv_relu"
  type: "ReLU"
  bottom: "pool5_2_conv"
  top: "pool5_2_conv_relu"
}
layer {
  name: "pool5_2_conv2"
  type: "Convolution"
  bottom: "pool5_2_conv_relu"
  top: "pool5_2_conv2"
  param {
    lr_mult: 1
    decay_mult: 1
  }
  param {
    lr_mult: 2
    decay_mult: 0
  }
  convolution_param {
    num_output: 512
    pad: 1
    kernel_size: 3
    stride: 1
    weight_filler {
      type: "gaussian"
      std: 0.01
    }
    bias_filler {
      type: "constant"
      value: 0
    }
  }
}
layer {
  name: "pool5_2_conv2_relu"
  type: "ReLU"
  bottom: "pool5_2_conv2"
  top: "pool5_2_conv2_relu"
}
layer {
  name: "mask_deconv1"
  type: "Deconvolution"
  bottom: "pool5_2_conv2_relu"
  top: "mask_deconv1"
  param {
    lr_mult: 1
    decay_mult: 1
  }
  param {
    lr_mult: 2
    decay_mult: 0
  }
  convolution_param {
    num_output: 256
    pad: 1
    kernel_size: 8
    group: 256
    stride: 4
    weight_filler {
      type: "bilinear"
    }
  }
}
layer {
  name: "pool5_2_conv3"
  type: "Convolution"
  bottom: "mask_deconv1"
  top: "pool5_2_conv3"
  param {
    lr_mult: 1
    decay_mult: 1
  }
  param {
    lr_mult: 2
    decay_mult: 0
  }
  convolution_param {
    num_output: 512
    pad: 1
    kernel_size: 3
    stride: 1
    weight_filler {
      type: "gaussian"
      std: 0.01
    }
    bias_filler {
      type: "constant"
      value: 0
    }
  }
}
layer {
  name: "pool5_2_conv3_relu"
  type: "ReLU"
  bottom: "pool5_2_conv3"
  top: "pool5_2_conv3_relu"
}
layer {
  name: "pool5_2_conv4"
  type: "Convolution"
  bottom: "pool5_2_conv3_relu"
  top: "pool5_2_conv4"
  param {
    lr_mult: 1
    decay_mult: 1
  }
  param {
    lr_mult: 2
    decay_mult: 0
  }
  convolution_param {
    num_output: 512
    pad: 1
    kernel_size: 3
    stride: 1
    weight_filler {
      type: "gaussian"
      std: 0.01
    }
    bias_filler {
      type: "constant"
      value: 0
    }
  }
}
layer {
  name: "pool5_2_conv4_relu"
  type: "ReLU"
  bottom: "pool5_2_conv4"
  top: "pool5_2_conv4_relu"
}
layer {
  name: "query_conv"
  type: "Convolution"
  bottom: "pool5_2_conv4_relu"
  top: "query_conv"
  param {
    lr_mult: 1
    decay_mult: 1
  }
  param {
    lr_mult: 2
    decay_mult: 0
  }
  convolution_param {
    num_output: 64
    pad: 0
    kernel_size: 1
    stride: 1
    weight_filler {
      type: "gaussian"
      std: 0.01
    }
    bias_filler {
      type: "constant"
      value: 0
    }
  }
}
layer {
  name: "key_conv"
  type: "Convolution"
  bottom: "pool5_2_conv4_relu"
  top: "key_conv"
  param {
    lr_mult: 1
    decay_mult: 1
  }
  param {
    lr_mult: 2
    decay_mult: 0
  }
  convolution_param {
    num_output: 64
    pad: 0
    kernel_size: 1
    stride: 1
    weight_filler {
      type: "gaussian"
      std: 0.01
    }
    bias_filler {
      type: "constant"
      value: 0
    }
  }
}
layer {
  name: "value_conv"
  type: "Convolution"
  bottom: "pool5_2_conv4_relu"
  top: "value_conv"
  param {
    lr_mult: 1
    decay_mult: 1
  }
  param {
    lr_mult: 2
    decay_mult: 0
  }
  convolution_param {
    num_output: 512
    pad: 0
    kernel_size: 1
    stride: 1
    weight_filler {
      type: "gaussian"
      std: 0.01
    }
    bias_filler {
      type: "constant"
      value: 0
    }
  }
}
layer {
  name: "query_conv_reshape"
  type: "Reshape"
  bottom: "query_conv"
  top: "query_conv_reshape"
  reshape_param {
    shape {
      dim: -1
      dim: 64
      dim: 900
      dim: 1
    }
  }
}
layer {
  name: "key_conv_reshape"
  type: "Reshape"
  bottom: "key_conv"
  top: "key_conv_reshape"
  reshape_param {
    shape {
      dim: -1
      dim: 64
      dim: 900
      dim: 1
    }
  }
}
layer {
  name: "value_conv_reshape"
  type: "Reshape"
  bottom: "value_conv"
  top: "value_conv_reshape"
  reshape_param {
    shape {
      dim: -1
      dim: 512
      dim: 900
      dim: 1
    }
  }
}
layer {
  name: "query_conv_reshape_perm"
  type: "Permute"
  bottom: "query_conv_reshape"
  top: "query_conv_reshape_perm"
  permute_param {
    order: 0
    order: 3
    order: 2
    order: 1
  }
}
layer {
  name: "key_conv_reshape_perm"
  type: "Permute"
  bottom: "key_conv_reshape"
  top: "key_conv_reshape_perm"
  permute_param {
    order: 0
    order: 3
    order: 1
    order: 2
  }
}
layer {
  name: "energy"
  type: "MatrixMultiplication"
  bottom: "query_conv_reshape_perm"
  bottom: "key_conv_reshape_perm"
  top: "energy"
}
layer {
  name: "attention"
  type: "Softmax"
  bottom: "energy"
  top: "attention"
  softmax_param {
    axis: 3
  }
}
layer {
  name: "value_conv_reshape_perm"
  type: "Permute"
  bottom: "value_conv_reshape"
  top: "value_conv_reshape_perm"
  permute_param {
    order: 0
    order: 3
    order: 1
    order: 2
  }
}
layer {
  name: "attention_perm"
  type: "Permute"
  bottom: "attention"
  top: "attention_perm"
  permute_param {
    order: 0
    order: 1
    order: 2
    order: 3
  }
}
layer {
  name: "out"
  type: "MatrixMultiplication"
  bottom: "value_conv_reshape_perm"
  bottom: "attention_perm"
  top: "out"
}
layer {
  name: "out_reshape"
  type: "Reshape"
  bottom: "out"
  top: "out_reshape"
  reshape_param {
    shape {
      dim: -1
      dim: 512
      dim: 30
      dim: 30
    }
  }
}
layer {
  name: "out_reshape_scale"
  type: "Scale"
  bottom: "out_reshape"
  top: "out_reshape_scale"
  param {
    name: "scale_conv1_1"
    lr_mult: 1
  }
  scale_param {
    bias_term: false
  }
}
layer {
  name: "out_x"
  type: "Eltwise"
  bottom: "out_reshape_scale"
  bottom: "pool5_2_conv4_relu"
  top: "out_x"
  eltwise_param {
    operation: SUM
  }
}
layer {
  name: "mask_deconv2"
  type: "Deconvolution"
  bottom: "out_x"
  top: "mask_deconv2"
  param {
    lr_mult: 1
    decay_mult: 1
  }
  param {
    lr_mult: 2
    decay_mult: 0
  }
  convolution_param {
    num_output: 256
    pad: 1
    kernel_size: 8
    group: 256
    stride: 4
    weight_filler {
      type: "bilinear"
    }
  }
}
layer {
  name: "pool5_2_conv5"
  type: "Convolution"
  bottom: "mask_deconv2"
  top: "pool5_2_conv5"
  param {
    lr_mult: 1
    decay_mult: 1
  }
  param {
    lr_mult: 2
    decay_mult: 0
  }
  convolution_param {
    num_output: 512
    pad: 1
    kernel_size: 3
    stride: 1
    weight_filler {
      type: "gaussian"
      std: 0.01
    }
    bias_filler {
      type: "constant"
      value: 0
    }
  }
}
layer {
  name: "pool5_2_conv5_relu"
  type: "ReLU"
  bottom: "pool5_2_conv5"
  top: "pool5_2_conv5_relu"
}
layer {
  name: "pool5_2_conv6"
  type: "Convolution"
  bottom: "pool5_2_conv5_relu"
  top: "pool5_2_conv6"
  param {
    lr_mult: 1
    decay_mult: 1
  }
  param {
    lr_mult: 2
    decay_mult: 0
  }
  convolution_param {
    num_output: 512
    pad: 1
    kernel_size: 3
    stride: 1
    weight_filler {
      type: "gaussian"
      std: 0.01
    }
    bias_filler {
      type: "constant"
      value: 0
    }
  }
}
layer {
  name: "pool5_2_conv6_relu"
  type: "ReLU"
  bottom: "pool5_2_conv6"
  top: "pool5_2_conv6_relu"
}
layer {
  name: "mask_deconv3"
  type: "Deconvolution"
  bottom: "pool5_2_conv6_relu"
  top: "mask_deconv3"
  param {
    lr_mult: 1
    decay_mult: 1
  }
  param {
    lr_mult: 2
    decay_mult: 0
  }
  convolution_param {
    num_output: 256
    pad: 1
    kernel_size: 4
    group: 256
    stride: 2
    weight_filler {
      type: "bilinear"
    }
  }
}
layer {
  name: "mask_score"
  type: "Convolution"
  bottom: "mask_deconv3"
  top: "mask_score"
  param {
    lr_mult: 1
    decay_mult: 1
  }
  param {
    lr_mult: 2
    decay_mult: 0
  }
  convolution_param {
    num_output: 8
    pad: 0
    kernel_size: 1
    weight_filler {
      type: "gaussian"
      std: 0.01
    }
    bias_filler {
      type: "constant"
      value: 0
    }
  }
}
layer {
  name: "loss_mask"
  type: "SoftmaxWithLoss"
  bottom: "mask_score"
  bottom: "mask_targets"
  top: "loss_mask"
  loss_weight: 3
  propagate_down: true
  propagate_down: false
  loss_param {
    ignore_label: -1
    normalize: true
  }
}
I0504 22:06:40.485004 12722 layer_factory.hpp:77] Creating layer input-data
I0504 22:06:40.497856 12722 net.cpp:106] Creating Layer input-data
I0504 22:06:40.497872 12722 net.cpp:411] input-data -> data
I0504 22:06:40.497879 12722 net.cpp:411] input-data -> im_info
I0504 22:06:40.497884 12722 net.cpp:411] input-data -> gt_boxes
I0504 22:06:40.497887 12722 net.cpp:411] input-data -> seg_mask_inds
I0504 22:06:40.497890 12722 net.cpp:411] input-data -> flipped
RoiDataLayer: name_to_top: {'gt_boxes': 2, 'data': 0, 'seg_mask_inds': 3, 'im_info': 1, 'flipped': 4}
I0504 22:06:40.508467 12722 net.cpp:150] Setting up input-data
I0504 22:06:40.508483 12722 net.cpp:157] Top shape: 1 3 600 1000 (1800000)
I0504 22:06:40.508486 12722 net.cpp:157] Top shape: 1 3 (3)
I0504 22:06:40.508488 12722 net.cpp:157] Top shape: 1 4 (4)
I0504 22:06:40.508491 12722 net.cpp:157] Top shape: 1 2 (2)
I0504 22:06:40.508492 12722 net.cpp:157] Top shape: 1 1 (1)
I0504 22:06:40.508494 12722 net.cpp:165] Memory required for data: 7200040
I0504 22:06:40.508498 12722 layer_factory.hpp:77] Creating layer data_input-data_0_split
I0504 22:06:40.508522 12722 net.cpp:106] Creating Layer data_input-data_0_split
I0504 22:06:40.508524 12722 net.cpp:454] data_input-data_0_split <- data
I0504 22:06:40.508538 12722 net.cpp:411] data_input-data_0_split -> data_input-data_0_split_0
I0504 22:06:40.508554 12722 net.cpp:411] data_input-data_0_split -> data_input-data_0_split_1
I0504 22:06:40.508584 12722 net.cpp:150] Setting up data_input-data_0_split
I0504 22:06:40.508586 12722 net.cpp:157] Top shape: 1 3 600 1000 (1800000)
I0504 22:06:40.508589 12722 net.cpp:157] Top shape: 1 3 600 1000 (1800000)
I0504 22:06:40.508591 12722 net.cpp:165] Memory required for data: 21600040
I0504 22:06:40.508602 12722 layer_factory.hpp:77] Creating layer im_info_input-data_1_split
I0504 22:06:40.508607 12722 net.cpp:106] Creating Layer im_info_input-data_1_split
I0504 22:06:40.508610 12722 net.cpp:454] im_info_input-data_1_split <- im_info
I0504 22:06:40.508612 12722 net.cpp:411] im_info_input-data_1_split -> im_info_input-data_1_split_0
I0504 22:06:40.508615 12722 net.cpp:411] im_info_input-data_1_split -> im_info_input-data_1_split_1
I0504 22:06:40.508620 12722 net.cpp:411] im_info_input-data_1_split -> im_info_input-data_1_split_2
I0504 22:06:40.508641 12722 net.cpp:150] Setting up im_info_input-data_1_split
I0504 22:06:40.508644 12722 net.cpp:157] Top shape: 1 3 (3)
I0504 22:06:40.508646 12722 net.cpp:157] Top shape: 1 3 (3)
I0504 22:06:40.508648 12722 net.cpp:157] Top shape: 1 3 (3)
I0504 22:06:40.508651 12722 net.cpp:165] Memory required for data: 21600076
I0504 22:06:40.508652 12722 layer_factory.hpp:77] Creating layer gt_boxes_input-data_2_split
I0504 22:06:40.508656 12722 net.cpp:106] Creating Layer gt_boxes_input-data_2_split
I0504 22:06:40.508656 12722 net.cpp:454] gt_boxes_input-data_2_split <- gt_boxes
I0504 22:06:40.508659 12722 net.cpp:411] gt_boxes_input-data_2_split -> gt_boxes_input-data_2_split_0
I0504 22:06:40.508663 12722 net.cpp:411] gt_boxes_input-data_2_split -> gt_boxes_input-data_2_split_1
I0504 22:06:40.508678 12722 net.cpp:150] Setting up gt_boxes_input-data_2_split
I0504 22:06:40.508682 12722 net.cpp:157] Top shape: 1 4 (4)
I0504 22:06:40.508683 12722 net.cpp:157] Top shape: 1 4 (4)
I0504 22:06:40.508684 12722 net.cpp:165] Memory required for data: 21600108
I0504 22:06:40.508687 12722 layer_factory.hpp:77] Creating layer conv1_1
I0504 22:06:40.508695 12722 net.cpp:106] Creating Layer conv1_1
I0504 22:06:40.508697 12722 net.cpp:454] conv1_1 <- data_input-data_0_split_0
I0504 22:06:40.508700 12722 net.cpp:411] conv1_1 -> conv1_1
I0504 22:06:40.688180 12722 net.cpp:150] Setting up conv1_1
I0504 22:06:40.688210 12722 net.cpp:157] Top shape: 1 64 600 1000 (38400000)
I0504 22:06:40.688213 12722 net.cpp:165] Memory required for data: 175200108
I0504 22:06:40.688225 12722 layer_factory.hpp:77] Creating layer relu1_1
I0504 22:06:40.688242 12722 net.cpp:106] Creating Layer relu1_1
I0504 22:06:40.688247 12722 net.cpp:454] relu1_1 <- conv1_1
I0504 22:06:40.688251 12722 net.cpp:397] relu1_1 -> conv1_1 (in-place)
I0504 22:06:40.688377 12722 net.cpp:150] Setting up relu1_1
I0504 22:06:40.688382 12722 net.cpp:157] Top shape: 1 64 600 1000 (38400000)
I0504 22:06:40.688395 12722 net.cpp:165] Memory required for data: 328800108
I0504 22:06:40.688396 12722 layer_factory.hpp:77] Creating layer conv1_2
I0504 22:06:40.688403 12722 net.cpp:106] Creating Layer conv1_2
I0504 22:06:40.688405 12722 net.cpp:454] conv1_2 <- conv1_1
I0504 22:06:40.688408 12722 net.cpp:411] conv1_2 -> conv1_2
I0504 22:06:40.690604 12722 net.cpp:150] Setting up conv1_2
I0504 22:06:40.690629 12722 net.cpp:157] Top shape: 1 64 600 1000 (38400000)
I0504 22:06:40.690630 12722 net.cpp:165] Memory required for data: 482400108
I0504 22:06:40.690639 12722 layer_factory.hpp:77] Creating layer relu1_2
I0504 22:06:40.690644 12722 net.cpp:106] Creating Layer relu1_2
I0504 22:06:40.690656 12722 net.cpp:454] relu1_2 <- conv1_2
I0504 22:06:40.690659 12722 net.cpp:397] relu1_2 -> conv1_2 (in-place)
I0504 22:06:40.690788 12722 net.cpp:150] Setting up relu1_2
I0504 22:06:40.690793 12722 net.cpp:157] Top shape: 1 64 600 1000 (38400000)
I0504 22:06:40.690804 12722 net.cpp:165] Memory required for data: 636000108
I0504 22:06:40.690806 12722 layer_factory.hpp:77] Creating layer pool1
I0504 22:06:40.690814 12722 net.cpp:106] Creating Layer pool1
I0504 22:06:40.690814 12722 net.cpp:454] pool1 <- conv1_2
I0504 22:06:40.690819 12722 net.cpp:411] pool1 -> pool1
I0504 22:06:40.690862 12722 net.cpp:150] Setting up pool1
I0504 22:06:40.690876 12722 net.cpp:157] Top shape: 1 64 300 500 (9600000)
I0504 22:06:40.690877 12722 net.cpp:165] Memory required for data: 674400108
I0504 22:06:40.690879 12722 layer_factory.hpp:77] Creating layer conv2_1
I0504 22:06:40.690896 12722 net.cpp:106] Creating Layer conv2_1
I0504 22:06:40.690897 12722 net.cpp:454] conv2_1 <- pool1
I0504 22:06:40.690901 12722 net.cpp:411] conv2_1 -> conv2_1
I0504 22:06:40.692704 12722 net.cpp:150] Setting up conv2_1
I0504 22:06:40.692714 12722 net.cpp:157] Top shape: 1 128 300 500 (19200000)
I0504 22:06:40.692716 12722 net.cpp:165] Memory required for data: 751200108
I0504 22:06:40.692734 12722 layer_factory.hpp:77] Creating layer relu2_1
I0504 22:06:40.692739 12722 net.cpp:106] Creating Layer relu2_1
I0504 22:06:40.692742 12722 net.cpp:454] relu2_1 <- conv2_1
I0504 22:06:40.692746 12722 net.cpp:397] relu2_1 -> conv2_1 (in-place)
I0504 22:06:40.693207 12722 net.cpp:150] Setting up relu2_1
I0504 22:06:40.693214 12722 net.cpp:157] Top shape: 1 128 300 500 (19200000)
I0504 22:06:40.693217 12722 net.cpp:165] Memory required for data: 828000108
I0504 22:06:40.693219 12722 layer_factory.hpp:77] Creating layer conv2_2
I0504 22:06:40.693225 12722 net.cpp:106] Creating Layer conv2_2
I0504 22:06:40.693228 12722 net.cpp:454] conv2_2 <- conv2_1
I0504 22:06:40.693231 12722 net.cpp:411] conv2_2 -> conv2_2
I0504 22:06:40.694559 12722 net.cpp:150] Setting up conv2_2
I0504 22:06:40.694568 12722 net.cpp:157] Top shape: 1 128 300 500 (19200000)
I0504 22:06:40.694571 12722 net.cpp:165] Memory required for data: 904800108
I0504 22:06:40.694586 12722 layer_factory.hpp:77] Creating layer relu2_2
I0504 22:06:40.694591 12722 net.cpp:106] Creating Layer relu2_2
I0504 22:06:40.694592 12722 net.cpp:454] relu2_2 <- conv2_2
I0504 22:06:40.694595 12722 net.cpp:397] relu2_2 -> conv2_2 (in-place)
I0504 22:06:40.694715 12722 net.cpp:150] Setting up relu2_2
I0504 22:06:40.694720 12722 net.cpp:157] Top shape: 1 128 300 500 (19200000)
I0504 22:06:40.694720 12722 net.cpp:165] Memory required for data: 981600108
I0504 22:06:40.694722 12722 layer_factory.hpp:77] Creating layer pool2
I0504 22:06:40.694736 12722 net.cpp:106] Creating Layer pool2
I0504 22:06:40.694738 12722 net.cpp:454] pool2 <- conv2_2
I0504 22:06:40.694742 12722 net.cpp:411] pool2 -> pool2
I0504 22:06:40.694768 12722 net.cpp:150] Setting up pool2
I0504 22:06:40.694773 12722 net.cpp:157] Top shape: 1 128 150 250 (4800000)
I0504 22:06:40.694784 12722 net.cpp:165] Memory required for data: 1000800108
I0504 22:06:40.694787 12722 layer_factory.hpp:77] Creating layer conv3_1
I0504 22:06:40.694792 12722 net.cpp:106] Creating Layer conv3_1
I0504 22:06:40.694792 12722 net.cpp:454] conv3_1 <- pool2
I0504 22:06:40.694805 12722 net.cpp:411] conv3_1 -> conv3_1
I0504 22:06:40.696630 12722 net.cpp:150] Setting up conv3_1
I0504 22:06:40.696640 12722 net.cpp:157] Top shape: 1 256 150 250 (9600000)
I0504 22:06:40.696641 12722 net.cpp:165] Memory required for data: 1039200108
I0504 22:06:40.696658 12722 layer_factory.hpp:77] Creating layer relu3_1
I0504 22:06:40.696662 12722 net.cpp:106] Creating Layer relu3_1
I0504 22:06:40.696666 12722 net.cpp:454] relu3_1 <- conv3_1
I0504 22:06:40.696668 12722 net.cpp:397] relu3_1 -> conv3_1 (in-place)
I0504 22:06:40.696789 12722 net.cpp:150] Setting up relu3_1
I0504 22:06:40.696794 12722 net.cpp:157] Top shape: 1 256 150 250 (9600000)
I0504 22:06:40.696795 12722 net.cpp:165] Memory required for data: 1077600108
I0504 22:06:40.696797 12722 layer_factory.hpp:77] Creating layer conv3_2
I0504 22:06:40.696813 12722 net.cpp:106] Creating Layer conv3_2
I0504 22:06:40.696816 12722 net.cpp:454] conv3_2 <- conv3_1
I0504 22:06:40.696820 12722 net.cpp:411] conv3_2 -> conv3_2
I0504 22:06:40.698890 12722 net.cpp:150] Setting up conv3_2
I0504 22:06:40.698904 12722 net.cpp:157] Top shape: 1 256 150 250 (9600000)
I0504 22:06:40.698906 12722 net.cpp:165] Memory required for data: 1116000108
I0504 22:06:40.698913 12722 layer_factory.hpp:77] Creating layer relu3_2
I0504 22:06:40.698920 12722 net.cpp:106] Creating Layer relu3_2
I0504 22:06:40.698923 12722 net.cpp:454] relu3_2 <- conv3_2
I0504 22:06:40.698930 12722 net.cpp:397] relu3_2 -> conv3_2 (in-place)
I0504 22:06:40.699048 12722 net.cpp:150] Setting up relu3_2
I0504 22:06:40.699055 12722 net.cpp:157] Top shape: 1 256 150 250 (9600000)
I0504 22:06:40.699059 12722 net.cpp:165] Memory required for data: 1154400108
I0504 22:06:40.699061 12722 layer_factory.hpp:77] Creating layer conv3_3
I0504 22:06:40.699071 12722 net.cpp:106] Creating Layer conv3_3
I0504 22:06:40.699074 12722 net.cpp:454] conv3_3 <- conv3_2
I0504 22:06:40.699080 12722 net.cpp:411] conv3_3 -> conv3_3
I0504 22:06:40.701179 12722 net.cpp:150] Setting up conv3_3
I0504 22:06:40.701192 12722 net.cpp:157] Top shape: 1 256 150 250 (9600000)
I0504 22:06:40.701195 12722 net.cpp:165] Memory required for data: 1192800108
I0504 22:06:40.701202 12722 layer_factory.hpp:77] Creating layer relu3_3
I0504 22:06:40.701220 12722 net.cpp:106] Creating Layer relu3_3
I0504 22:06:40.701234 12722 net.cpp:454] relu3_3 <- conv3_3
I0504 22:06:40.701242 12722 net.cpp:397] relu3_3 -> conv3_3 (in-place)
I0504 22:06:40.701359 12722 net.cpp:150] Setting up relu3_3
I0504 22:06:40.701366 12722 net.cpp:157] Top shape: 1 256 150 250 (9600000)
I0504 22:06:40.701370 12722 net.cpp:165] Memory required for data: 1231200108
I0504 22:06:40.701372 12722 layer_factory.hpp:77] Creating layer pool3
I0504 22:06:40.701401 12722 net.cpp:106] Creating Layer pool3
I0504 22:06:40.701406 12722 net.cpp:454] pool3 <- conv3_3
I0504 22:06:40.701413 12722 net.cpp:411] pool3 -> pool3
I0504 22:06:40.701457 12722 net.cpp:150] Setting up pool3
I0504 22:06:40.701462 12722 net.cpp:157] Top shape: 1 256 75 125 (2400000)
I0504 22:06:40.701464 12722 net.cpp:165] Memory required for data: 1240800108
I0504 22:06:40.701467 12722 layer_factory.hpp:77] Creating layer conv4_1
I0504 22:06:40.701488 12722 net.cpp:106] Creating Layer conv4_1
I0504 22:06:40.701491 12722 net.cpp:454] conv4_1 <- pool3
I0504 22:06:40.701496 12722 net.cpp:411] conv4_1 -> conv4_1
I0504 22:06:40.705446 12722 net.cpp:150] Setting up conv4_1
I0504 22:06:40.705467 12722 net.cpp:157] Top shape: 1 512 75 125 (4800000)
I0504 22:06:40.705471 12722 net.cpp:165] Memory required for data: 1260000108
I0504 22:06:40.705479 12722 layer_factory.hpp:77] Creating layer relu4_1
I0504 22:06:40.705499 12722 net.cpp:106] Creating Layer relu4_1
I0504 22:06:40.705505 12722 net.cpp:454] relu4_1 <- conv4_1
I0504 22:06:40.705513 12722 net.cpp:397] relu4_1 -> conv4_1 (in-place)
I0504 22:06:40.705644 12722 net.cpp:150] Setting up relu4_1
I0504 22:06:40.705651 12722 net.cpp:157] Top shape: 1 512 75 125 (4800000)
I0504 22:06:40.705654 12722 net.cpp:165] Memory required for data: 1279200108
I0504 22:06:40.705657 12722 layer_factory.hpp:77] Creating layer conv4_2
I0504 22:06:40.705677 12722 net.cpp:106] Creating Layer conv4_2
I0504 22:06:40.705680 12722 net.cpp:454] conv4_2 <- conv4_1
I0504 22:06:40.705687 12722 net.cpp:411] conv4_2 -> conv4_2
I0504 22:06:40.710819 12722 net.cpp:150] Setting up conv4_2
I0504 22:06:40.710840 12722 net.cpp:157] Top shape: 1 512 75 125 (4800000)
I0504 22:06:40.710844 12722 net.cpp:165] Memory required for data: 1298400108
I0504 22:06:40.710868 12722 layer_factory.hpp:77] Creating layer relu4_2
I0504 22:06:40.710880 12722 net.cpp:106] Creating Layer relu4_2
I0504 22:06:40.710886 12722 net.cpp:454] relu4_2 <- conv4_2
I0504 22:06:40.710892 12722 net.cpp:397] relu4_2 -> conv4_2 (in-place)
I0504 22:06:40.711365 12722 net.cpp:150] Setting up relu4_2
I0504 22:06:40.711374 12722 net.cpp:157] Top shape: 1 512 75 125 (4800000)
I0504 22:06:40.711377 12722 net.cpp:165] Memory required for data: 1317600108
I0504 22:06:40.711380 12722 layer_factory.hpp:77] Creating layer conv4_3
I0504 22:06:40.711400 12722 net.cpp:106] Creating Layer conv4_3
I0504 22:06:40.711405 12722 net.cpp:454] conv4_3 <- conv4_2
I0504 22:06:40.711410 12722 net.cpp:411] conv4_3 -> conv4_3
I0504 22:06:40.716018 12722 net.cpp:150] Setting up conv4_3
I0504 22:06:40.716038 12722 net.cpp:157] Top shape: 1 512 75 125 (4800000)
I0504 22:06:40.716042 12722 net.cpp:165] Memory required for data: 1336800108
I0504 22:06:40.716051 12722 layer_factory.hpp:77] Creating layer relu4_3
I0504 22:06:40.716063 12722 net.cpp:106] Creating Layer relu4_3
I0504 22:06:40.716068 12722 net.cpp:454] relu4_3 <- conv4_3
I0504 22:06:40.716076 12722 net.cpp:397] relu4_3 -> conv4_3 (in-place)
I0504 22:06:40.716198 12722 net.cpp:150] Setting up relu4_3
I0504 22:06:40.716204 12722 net.cpp:157] Top shape: 1 512 75 125 (4800000)
I0504 22:06:40.716207 12722 net.cpp:165] Memory required for data: 1356000108
I0504 22:06:40.716210 12722 layer_factory.hpp:77] Creating layer pool4
I0504 22:06:40.716218 12722 net.cpp:106] Creating Layer pool4
I0504 22:06:40.716223 12722 net.cpp:454] pool4 <- conv4_3
I0504 22:06:40.716228 12722 net.cpp:411] pool4 -> pool4
I0504 22:06:40.716261 12722 net.cpp:150] Setting up pool4
I0504 22:06:40.716266 12722 net.cpp:157] Top shape: 1 512 38 63 (1225728)
I0504 22:06:40.716269 12722 net.cpp:165] Memory required for data: 1360903020
I0504 22:06:40.716272 12722 layer_factory.hpp:77] Creating layer conv5_1
I0504 22:06:40.716282 12722 net.cpp:106] Creating Layer conv5_1
I0504 22:06:40.716286 12722 net.cpp:454] conv5_1 <- pool4
I0504 22:06:40.716291 12722 net.cpp:411] conv5_1 -> conv5_1
I0504 22:06:40.721016 12722 net.cpp:150] Setting up conv5_1
I0504 22:06:40.721040 12722 net.cpp:157] Top shape: 1 512 38 63 (1225728)
I0504 22:06:40.721043 12722 net.cpp:165] Memory required for data: 1365805932
I0504 22:06:40.721062 12722 layer_factory.hpp:77] Creating layer relu5_1
I0504 22:06:40.721081 12722 net.cpp:106] Creating Layer relu5_1
I0504 22:06:40.721087 12722 net.cpp:454] relu5_1 <- conv5_1
I0504 22:06:40.721094 12722 net.cpp:397] relu5_1 -> conv5_1 (in-place)
I0504 22:06:40.721222 12722 net.cpp:150] Setting up relu5_1
I0504 22:06:40.721230 12722 net.cpp:157] Top shape: 1 512 38 63 (1225728)
I0504 22:06:40.721232 12722 net.cpp:165] Memory required for data: 1370708844
I0504 22:06:40.721235 12722 layer_factory.hpp:77] Creating layer conv5_2
I0504 22:06:40.721254 12722 net.cpp:106] Creating Layer conv5_2
I0504 22:06:40.721257 12722 net.cpp:454] conv5_2 <- conv5_1
I0504 22:06:40.721264 12722 net.cpp:411] conv5_2 -> conv5_2
I0504 22:06:40.725836 12722 net.cpp:150] Setting up conv5_2
I0504 22:06:40.725857 12722 net.cpp:157] Top shape: 1 512 38 63 (1225728)
I0504 22:06:40.725860 12722 net.cpp:165] Memory required for data: 1375611756
I0504 22:06:40.725869 12722 layer_factory.hpp:77] Creating layer relu5_2
I0504 22:06:40.725890 12722 net.cpp:106] Creating Layer relu5_2
I0504 22:06:40.725896 12722 net.cpp:454] relu5_2 <- conv5_2
I0504 22:06:40.725903 12722 net.cpp:397] relu5_2 -> conv5_2 (in-place)
I0504 22:06:40.726034 12722 net.cpp:150] Setting up relu5_2
I0504 22:06:40.726042 12722 net.cpp:157] Top shape: 1 512 38 63 (1225728)
I0504 22:06:40.726044 12722 net.cpp:165] Memory required for data: 1380514668
I0504 22:06:40.726047 12722 layer_factory.hpp:77] Creating layer conv5_3
I0504 22:06:40.726070 12722 net.cpp:106] Creating Layer conv5_3
I0504 22:06:40.726074 12722 net.cpp:454] conv5_3 <- conv5_2
I0504 22:06:40.726081 12722 net.cpp:411] conv5_3 -> conv5_3
I0504 22:06:40.730674 12722 net.cpp:150] Setting up conv5_3
I0504 22:06:40.730695 12722 net.cpp:157] Top shape: 1 512 38 63 (1225728)
I0504 22:06:40.730697 12722 net.cpp:165] Memory required for data: 1385417580
I0504 22:06:40.730706 12722 layer_factory.hpp:77] Creating layer relu5_3
I0504 22:06:40.730728 12722 net.cpp:106] Creating Layer relu5_3
I0504 22:06:40.730734 12722 net.cpp:454] relu5_3 <- conv5_3
I0504 22:06:40.730741 12722 net.cpp:397] relu5_3 -> conv5_3 (in-place)
I0504 22:06:40.730873 12722 net.cpp:150] Setting up relu5_3
I0504 22:06:40.730880 12722 net.cpp:157] Top shape: 1 512 38 63 (1225728)
I0504 22:06:40.730882 12722 net.cpp:165] Memory required for data: 1390320492
I0504 22:06:40.730885 12722 layer_factory.hpp:77] Creating layer conv5_3_relu5_3_0_split
I0504 22:06:40.730901 12722 net.cpp:106] Creating Layer conv5_3_relu5_3_0_split
I0504 22:06:40.730904 12722 net.cpp:454] conv5_3_relu5_3_0_split <- conv5_3
I0504 22:06:40.730911 12722 net.cpp:411] conv5_3_relu5_3_0_split -> conv5_3_relu5_3_0_split_0
I0504 22:06:40.730918 12722 net.cpp:411] conv5_3_relu5_3_0_split -> conv5_3_relu5_3_0_split_1
I0504 22:06:40.730924 12722 net.cpp:411] conv5_3_relu5_3_0_split -> conv5_3_relu5_3_0_split_2
I0504 22:06:40.730971 12722 net.cpp:150] Setting up conv5_3_relu5_3_0_split
I0504 22:06:40.730978 12722 net.cpp:157] Top shape: 1 512 38 63 (1225728)
I0504 22:06:40.730980 12722 net.cpp:157] Top shape: 1 512 38 63 (1225728)
I0504 22:06:40.730994 12722 net.cpp:157] Top shape: 1 512 38 63 (1225728)
I0504 22:06:40.730998 12722 net.cpp:165] Memory required for data: 1405029228
I0504 22:06:40.731000 12722 layer_factory.hpp:77] Creating layer rpn_conv/3x3
I0504 22:06:40.731011 12722 net.cpp:106] Creating Layer rpn_conv/3x3
I0504 22:06:40.731014 12722 net.cpp:454] rpn_conv/3x3 <- conv5_3_relu5_3_0_split_0
I0504 22:06:40.731020 12722 net.cpp:411] rpn_conv/3x3 -> rpn/output
I0504 22:06:40.782229 12722 net.cpp:150] Setting up rpn_conv/3x3
I0504 22:06:40.782248 12722 net.cpp:157] Top shape: 1 512 38 63 (1225728)
I0504 22:06:40.782251 12722 net.cpp:165] Memory required for data: 1409932140
I0504 22:06:40.782260 12722 layer_factory.hpp:77] Creating layer rpn_relu/3x3
I0504 22:06:40.782269 12722 net.cpp:106] Creating Layer rpn_relu/3x3
I0504 22:06:40.782275 12722 net.cpp:454] rpn_relu/3x3 <- rpn/output
I0504 22:06:40.782284 12722 net.cpp:397] rpn_relu/3x3 -> rpn/output (in-place)
I0504 22:06:40.782403 12722 net.cpp:150] Setting up rpn_relu/3x3
I0504 22:06:40.782421 12722 net.cpp:157] Top shape: 1 512 38 63 (1225728)
I0504 22:06:40.782424 12722 net.cpp:165] Memory required for data: 1414835052
I0504 22:06:40.782428 12722 layer_factory.hpp:77] Creating layer rpn/output_rpn_relu/3x3_0_split
I0504 22:06:40.782434 12722 net.cpp:106] Creating Layer rpn/output_rpn_relu/3x3_0_split
I0504 22:06:40.782438 12722 net.cpp:454] rpn/output_rpn_relu/3x3_0_split <- rpn/output
I0504 22:06:40.782444 12722 net.cpp:411] rpn/output_rpn_relu/3x3_0_split -> rpn/output_rpn_relu/3x3_0_split_0
I0504 22:06:40.782451 12722 net.cpp:411] rpn/output_rpn_relu/3x3_0_split -> rpn/output_rpn_relu/3x3_0_split_1
I0504 22:06:40.782490 12722 net.cpp:150] Setting up rpn/output_rpn_relu/3x3_0_split
I0504 22:06:40.782495 12722 net.cpp:157] Top shape: 1 512 38 63 (1225728)
I0504 22:06:40.782500 12722 net.cpp:157] Top shape: 1 512 38 63 (1225728)
I0504 22:06:40.782513 12722 net.cpp:165] Memory required for data: 1424640876
I0504 22:06:40.782516 12722 layer_factory.hpp:77] Creating layer rpn_cls_score
I0504 22:06:40.782526 12722 net.cpp:106] Creating Layer rpn_cls_score
I0504 22:06:40.782531 12722 net.cpp:454] rpn_cls_score <- rpn/output_rpn_relu/3x3_0_split_0
I0504 22:06:40.782536 12722 net.cpp:411] rpn_cls_score -> rpn_cls_score
I0504 22:06:40.784263 12722 net.cpp:150] Setting up rpn_cls_score
I0504 22:06:40.784273 12722 net.cpp:157] Top shape: 1 30 38 63 (71820)
I0504 22:06:40.784276 12722 net.cpp:165] Memory required for data: 1424928156
I0504 22:06:40.784292 12722 layer_factory.hpp:77] Creating layer rpn_cls_score_rpn_cls_score_0_split
I0504 22:06:40.784301 12722 net.cpp:106] Creating Layer rpn_cls_score_rpn_cls_score_0_split
I0504 22:06:40.784305 12722 net.cpp:454] rpn_cls_score_rpn_cls_score_0_split <- rpn_cls_score
I0504 22:06:40.784312 12722 net.cpp:411] rpn_cls_score_rpn_cls_score_0_split -> rpn_cls_score_rpn_cls_score_0_split_0
I0504 22:06:40.784318 12722 net.cpp:411] rpn_cls_score_rpn_cls_score_0_split -> rpn_cls_score_rpn_cls_score_0_split_1
I0504 22:06:40.784358 12722 net.cpp:150] Setting up rpn_cls_score_rpn_cls_score_0_split
I0504 22:06:40.784363 12722 net.cpp:157] Top shape: 1 30 38 63 (71820)
I0504 22:06:40.784368 12722 net.cpp:157] Top shape: 1 30 38 63 (71820)
I0504 22:06:40.784381 12722 net.cpp:165] Memory required for data: 1425502716
I0504 22:06:40.784385 12722 layer_factory.hpp:77] Creating layer rpn_bbox_pred
I0504 22:06:40.784394 12722 net.cpp:106] Creating Layer rpn_bbox_pred
I0504 22:06:40.784397 12722 net.cpp:454] rpn_bbox_pred <- rpn/output_rpn_relu/3x3_0_split_1
I0504 22:06:40.784404 12722 net.cpp:411] rpn_bbox_pred -> rpn_bbox_pred
I0504 22:06:40.789547 12722 net.cpp:150] Setting up rpn_bbox_pred
I0504 22:06:40.789556 12722 net.cpp:157] Top shape: 1 60 38 63 (143640)
I0504 22:06:40.789561 12722 net.cpp:165] Memory required for data: 1426077276
I0504 22:06:40.789567 12722 layer_factory.hpp:77] Creating layer rpn_bbox_pred_rpn_bbox_pred_0_split
I0504 22:06:40.789574 12722 net.cpp:106] Creating Layer rpn_bbox_pred_rpn_bbox_pred_0_split
I0504 22:06:40.789579 12722 net.cpp:454] rpn_bbox_pred_rpn_bbox_pred_0_split <- rpn_bbox_pred
I0504 22:06:40.789587 12722 net.cpp:411] rpn_bbox_pred_rpn_bbox_pred_0_split -> rpn_bbox_pred_rpn_bbox_pred_0_split_0
I0504 22:06:40.789593 12722 net.cpp:411] rpn_bbox_pred_rpn_bbox_pred_0_split -> rpn_bbox_pred_rpn_bbox_pred_0_split_1
I0504 22:06:40.789624 12722 net.cpp:150] Setting up rpn_bbox_pred_rpn_bbox_pred_0_split
I0504 22:06:40.789630 12722 net.cpp:157] Top shape: 1 60 38 63 (143640)
I0504 22:06:40.789634 12722 net.cpp:157] Top shape: 1 60 38 63 (143640)
I0504 22:06:40.789638 12722 net.cpp:165] Memory required for data: 1427226396
I0504 22:06:40.789641 12722 layer_factory.hpp:77] Creating layer rpn_cls_score_reshape
I0504 22:06:40.789649 12722 net.cpp:106] Creating Layer rpn_cls_score_reshape
I0504 22:06:40.789654 12722 net.cpp:454] rpn_cls_score_reshape <- rpn_cls_score_rpn_cls_score_0_split_0
I0504 22:06:40.789659 12722 net.cpp:411] rpn_cls_score_reshape -> rpn_cls_score_reshape
I0504 22:06:40.789681 12722 net.cpp:150] Setting up rpn_cls_score_reshape
I0504 22:06:40.789686 12722 net.cpp:157] Top shape: 1 2 570 63 (71820)
I0504 22:06:40.789690 12722 net.cpp:165] Memory required for data: 1427513676
I0504 22:06:40.789692 12722 layer_factory.hpp:77] Creating layer rpn_cls_score_reshape_rpn_cls_score_reshape_0_split
I0504 22:06:40.789701 12722 net.cpp:106] Creating Layer rpn_cls_score_reshape_rpn_cls_score_reshape_0_split
I0504 22:06:40.789705 12722 net.cpp:454] rpn_cls_score_reshape_rpn_cls_score_reshape_0_split <- rpn_cls_score_reshape
I0504 22:06:40.789710 12722 net.cpp:411] rpn_cls_score_reshape_rpn_cls_score_reshape_0_split -> rpn_cls_score_reshape_rpn_cls_score_reshape_0_split_0
I0504 22:06:40.789716 12722 net.cpp:411] rpn_cls_score_reshape_rpn_cls_score_reshape_0_split -> rpn_cls_score_reshape_rpn_cls_score_reshape_0_split_1
I0504 22:06:40.789744 12722 net.cpp:150] Setting up rpn_cls_score_reshape_rpn_cls_score_reshape_0_split
I0504 22:06:40.789749 12722 net.cpp:157] Top shape: 1 2 570 63 (71820)
I0504 22:06:40.789753 12722 net.cpp:157] Top shape: 1 2 570 63 (71820)
I0504 22:06:40.789757 12722 net.cpp:165] Memory required for data: 1428088236
I0504 22:06:40.789760 12722 layer_factory.hpp:77] Creating layer rpn-data
I0504 22:06:40.790082 12722 net.cpp:106] Creating Layer rpn-data
I0504 22:06:40.790091 12722 net.cpp:454] rpn-data <- rpn_cls_score_rpn_cls_score_0_split_1
I0504 22:06:40.790096 12722 net.cpp:454] rpn-data <- gt_boxes_input-data_2_split_0
I0504 22:06:40.790102 12722 net.cpp:454] rpn-data <- im_info_input-data_1_split_0
I0504 22:06:40.790105 12722 net.cpp:454] rpn-data <- data_input-data_0_split_1
I0504 22:06:40.790112 12722 net.cpp:411] rpn-data -> rpn_labels
I0504 22:06:40.790122 12722 net.cpp:411] rpn-data -> rpn_bbox_targets
I0504 22:06:40.790128 12722 net.cpp:411] rpn-data -> rpn_bbox_inside_weights
I0504 22:06:40.790135 12722 net.cpp:411] rpn-data -> rpn_bbox_outside_weights
===================================anchor_scales in AnchorTargetLayer:=============(2, 4, 8, 16, 32)
I0504 22:06:40.790997 12722 net.cpp:150] Setting up rpn-data
I0504 22:06:40.791005 12722 net.cpp:157] Top shape: 1 1 570 63 (35910)
I0504 22:06:40.791009 12722 net.cpp:157] Top shape: 1 60 38 63 (143640)
I0504 22:06:40.791023 12722 net.cpp:157] Top shape: 1 60 38 63 (143640)
I0504 22:06:40.791028 12722 net.cpp:157] Top shape: 1 60 38 63 (143640)
I0504 22:06:40.791044 12722 net.cpp:165] Memory required for data: 1429955556
I0504 22:06:40.791047 12722 layer_factory.hpp:77] Creating layer rpn_loss_cls
I0504 22:06:40.791055 12722 net.cpp:106] Creating Layer rpn_loss_cls
I0504 22:06:40.791060 12722 net.cpp:454] rpn_loss_cls <- rpn_cls_score_reshape_rpn_cls_score_reshape_0_split_0
I0504 22:06:40.791077 12722 net.cpp:454] rpn_loss_cls <- rpn_labels
…
I0504 22:06:40.792845 12722 net.cpp:157] Top shape: (1)
I0504 22:06:40.792847 12722 net.cpp:160]     with loss weight 1
I0504 22:06:40.792852 12722 net.cpp:165] Memory required for data: 1429955564
I0504 22:06:40.792856 12722 layer_factory.hpp:77] Creating layer rpn_cls_prob
I0504 22:06:40.792861 12722 net.cpp:106] Creating Layer rpn_cls_prob
I0504 22:06:40.792865 12722 net.cpp:454] rpn_cls_prob <- rpn_cls_score_reshape_rpn_cls_score_reshape_0_split_1
I0504 22:06:40.792872 12722 net.cpp:411] rpn_cls_prob -> rpn_cls_prob
I0504 22:06:40.793053 12722 net.cpp:150] Setting up rpn_cls_prob
I0504 22:06:40.793061 12722 net.cpp:157] Top shape: 1 2 570 63 (71820)
I0504 22:06:40.793063 12722 net.cpp:165] Memory required for data: 1430242844
I0504 22:06:40.793067 12722 layer_factory.hpp:77] Creating layer rpn_cls_prob_reshape
I0504 22:06:40.793074 12722 net.cpp:106] Creating Layer rpn_cls_prob_reshape
I0504 22:06:40.793078 12722 net.cpp:454] rpn_cls_prob_reshape <- rpn_cls_prob
I0504 22:06:40.793085 12722 net.cpp:411] rpn_cls_prob_reshape -> rpn_cls_prob_reshape
I0504 22:06:40.793109 12722 net.cpp:150] Setting up rpn_cls_prob_reshape
I0504 22:06:40.793114 12722 net.cpp:157] Top shape: 1 30 38 63 (71820)
I0504 22:06:40.793118 12722 net.cpp:165] Memory required for data: 1430530124
I0504 22:06:40.793120 12722 layer_factory.hpp:77] Creating layer proposal
I0504 22:06:40.793572 12722 net.cpp:106] Creating Layer proposal
I0504 22:06:40.793581 12722 net.cpp:454] proposal <- rpn_cls_prob_reshape
I0504 22:06:40.793586 12722 net.cpp:454] proposal <- rpn_bbox_pred_rpn_bbox_pred_0_split_1
I0504 22:06:40.793591 12722 net.cpp:454] proposal <- im_info_input-data_1_split_1
I0504 22:06:40.793598 12722 net.cpp:411] proposal -> rpn_rois
=================================anchor_scales in ProposalLayer:=============(2, 4, 8, 16, 32)
I0504 22:06:40.794487 12722 net.cpp:150] Setting up proposal
I0504 22:06:40.794497 12722 net.cpp:157] Top shape: 1 5 (5)
I0504 22:06:40.794499 12722 net.cpp:165] Memory required for data: 1430530144
I0504 22:06:40.794502 12722 layer_factory.hpp:77] Creating layer roi-data
I0504 22:06:40.794700 12722 net.cpp:106] Creating Layer roi-data
I0504 22:06:40.794708 12722 net.cpp:454] roi-data <- rpn_rois
I0504 22:06:40.794711 12722 net.cpp:454] roi-data <- gt_boxes_input-data_2_split_1
I0504 22:06:40.794716 12722 net.cpp:454] roi-data <- im_info_input-data_1_split_2
I0504 22:06:40.794721 12722 net.cpp:454] roi-data <- seg_mask_inds
I0504 22:06:40.794725 12722 net.cpp:454] roi-data <- flipped
I0504 22:06:40.794742 12722 net.cpp:411] roi-data -> rois
I0504 22:06:40.794752 12722 net.cpp:411] roi-data -> labels
I0504 22:06:40.794770 12722 net.cpp:411] roi-data -> bbox_targets
I0504 22:06:40.794785 12722 net.cpp:411] roi-data -> bbox_inside_weights
I0504 22:06:40.794793 12722 net.cpp:411] roi-data -> bbox_outside_weights
I0504 22:06:40.794809 12722 net.cpp:411] roi-data -> mask_targets
I0504 22:06:40.794816 12722 net.cpp:411] roi-data -> rois_pos
I0504 22:06:40.794822 12722 net.cpp:411] roi-data -> attrArray
I0504 22:06:40.794838 12722 net.cpp:411] roi-data -> attrArrayInd
I0504 22:06:40.794845 12722 net.cpp:411] roi-data -> attrArrayShift
I0504 22:06:40.795130 12722 net.cpp:150] Setting up roi-data
I0504 22:06:40.795140 12722 net.cpp:157] Top shape: 1 5 (5)
I0504 22:06:40.795143 12722 net.cpp:157] Top shape: 1 1 (1)
I0504 22:06:40.795156 12722 net.cpp:157] Top shape: 1 8 (8)
I0504 22:06:40.795161 12722 net.cpp:157] Top shape: 1 8 (8)
I0504 22:06:40.795166 12722 net.cpp:157] Top shape: 1 8 (8)
I0504 22:06:40.795171 12722 net.cpp:157] Top shape: 1 244 244 (59536)
I0504 22:06:40.795176 12722 net.cpp:157] Top shape: 1 5 (5)
I0504 22:06:40.795179 12722 net.cpp:157] Top shape: 1 7 (7)
I0504 22:06:40.795184 12722 net.cpp:157] Top shape: 1 7 (7)
I0504 22:06:40.795188 12722 net.cpp:157] Top shape: 1 7 (7)
I0504 22:06:40.795192 12722 net.cpp:165] Memory required for data: 1430768512
I0504 22:06:40.795197 12722 layer_factory.hpp:77] Creating layer roi_pool5
I0504 22:06:40.795203 12722 net.cpp:106] Creating Layer roi_pool5
I0504 22:06:40.795208 12722 net.cpp:454] roi_pool5 <- conv5_3_relu5_3_0_split_1
I0504 22:06:40.795212 12722 net.cpp:454] roi_pool5 <- rois
I0504 22:06:40.795218 12722 net.cpp:411] roi_pool5 -> pool5
I0504 22:06:40.795226 12722 roi_alignment_layer.cpp:32] Spatial scale: 0.0625
I0504 22:06:40.795298 12722 net.cpp:150] Setting up roi_pool5
I0504 22:06:40.795305 12722 net.cpp:157] Top shape: 1 512 7 7 (25088)
I0504 22:06:40.795310 12722 net.cpp:165] Memory required for data: 1430868864
I0504 22:06:40.795312 12722 layer_factory.hpp:77] Creating layer fc6
I0504 22:06:40.795318 12722 net.cpp:106] Creating Layer fc6
I0504 22:06:40.795322 12722 net.cpp:454] fc6 <- pool5
I0504 22:06:40.795328 12722 net.cpp:411] fc6 -> fc6
I0504 22:06:40.937536 12722 net.cpp:150] Setting up fc6
I0504 22:06:40.937561 12722 net.cpp:157] Top shape: 1 4096 (4096)
I0504 22:06:40.937566 12722 net.cpp:165] Memory required for data: 1430885248
I0504 22:06:40.937583 12722 layer_factory.hpp:77] Creating layer relu6
I0504 22:06:40.937597 12722 net.cpp:106] Creating Layer relu6
I0504 22:06:40.937603 12722 net.cpp:454] relu6 <- fc6
I0504 22:06:40.937609 12722 net.cpp:397] relu6 -> fc6 (in-place)
I0504 22:06:40.937813 12722 net.cpp:150] Setting up relu6
I0504 22:06:40.937820 12722 net.cpp:157] Top shape: 1 4096 (4096)
I0504 22:06:40.937824 12722 net.cpp:165] Memory required for data: 1430901632
I0504 22:06:40.937827 12722 layer_factory.hpp:77] Creating layer fc7
I0504 22:06:40.937836 12722 net.cpp:106] Creating Layer fc7
I0504 22:06:40.937840 12722 net.cpp:454] fc7 <- fc6
I0504 22:06:40.937846 12722 net.cpp:411] fc7 -> fc7
I0504 22:06:40.961812 12722 net.cpp:150] Setting up fc7
I0504 22:06:40.961834 12722 net.cpp:157] Top shape: 1 4096 (4096)
I0504 22:06:40.961838 12722 net.cpp:165] Memory required for data: 1430918016
I0504 22:06:40.961849 12722 layer_factory.hpp:77] Creating layer relu7
I0504 22:06:40.961859 12722 net.cpp:106] Creating Layer relu7
I0504 22:06:40.961880 12722 net.cpp:454] relu7 <- fc7
I0504 22:06:40.961897 12722 net.cpp:397] relu7 -> fc7 (in-place)
I0504 22:06:40.962113 12722 net.cpp:150] Setting up relu7
I0504 22:06:40.962121 12722 net.cpp:157] Top shape: 1 4096 (4096)
I0504 22:06:40.962124 12722 net.cpp:165] Memory required for data: 1430934400
I0504 22:06:40.962127 12722 layer_factory.hpp:77] Creating layer fc7_relu7_0_split
I0504 22:06:40.962134 12722 net.cpp:106] Creating Layer fc7_relu7_0_split
I0504 22:06:40.962138 12722 net.cpp:454] fc7_relu7_0_split <- fc7
I0504 22:06:40.962144 12722 net.cpp:411] fc7_relu7_0_split -> fc7_relu7_0_split_0
I0504 22:06:40.962153 12722 net.cpp:411] fc7_relu7_0_split -> fc7_relu7_0_split_1
I0504 22:06:40.962159 12722 net.cpp:411] fc7_relu7_0_split -> fc7_relu7_0_split_2
I0504 22:06:40.962208 12722 net.cpp:150] Setting up fc7_relu7_0_split
I0504 22:06:40.962213 12722 net.cpp:157] Top shape: 1 4096 (4096)
I0504 22:06:40.962216 12722 net.cpp:157] Top shape: 1 4096 (4096)
I0504 22:06:40.962221 12722 net.cpp:157] Top shape: 1 4096 (4096)
I0504 22:06:40.962225 12722 net.cpp:165] Memory required for data: 1430983552
I0504 22:06:40.962229 12722 layer_factory.hpp:77] Creating layer attr_score
I0504 22:06:40.962236 12722 net.cpp:106] Creating Layer attr_score
I0504 22:06:40.962239 12722 net.cpp:454] attr_score <- fc7_relu7_0_split_0
I0504 22:06:40.962246 12722 net.cpp:411] attr_score -> attr_score
I0504 22:06:40.962918 12722 net.cpp:150] Setting up attr_score
I0504 22:06:40.962924 12722 net.cpp:157] Top shape: 1 7 (7)
I0504 22:06:40.962926 12722 net.cpp:165] Memory required for data: 1430983580
I0504 22:06:40.962932 12722 layer_factory.hpp:77] Creating layer attr_score_pos
I0504 22:06:40.962941 12722 net.cpp:106] Creating Layer attr_score_pos
I0504 22:06:40.962945 12722 net.cpp:454] attr_score_pos <- attr_score
I0504 22:06:40.962949 12722 net.cpp:454] attr_score_pos <- attrArrayInd
I0504 22:06:40.962954 12722 net.cpp:411] attr_score_pos -> attr_score_pos
I0504 22:06:40.962983 12722 net.cpp:150] Setting up attr_score_pos
I0504 22:06:40.962988 12722 net.cpp:157] Top shape: 1 7 (7)
I0504 22:06:40.962991 12722 net.cpp:165] Memory required for data: 1430983608
I0504 22:06:40.962994 12722 layer_factory.hpp:77] Creating layer attr_score_pos_shift
I0504 22:06:40.963001 12722 net.cpp:106] Creating Layer attr_score_pos_shift
I0504 22:06:40.963004 12722 net.cpp:454] attr_score_pos_shift <- attr_score_pos
I0504 22:06:40.963007 12722 net.cpp:454] attr_score_pos_shift <- attrArrayShift
I0504 22:06:40.963012 12722 net.cpp:411] attr_score_pos_shift -> attr_score_pos_shift
I0504 22:06:40.963030 12722 net.cpp:150] Setting up attr_score_pos_shift
I0504 22:06:40.963035 12722 net.cpp:157] Top shape: 1 7 (7)
I0504 22:06:40.963038 12722 net.cpp:165] Memory required for data: 1430983636
I0504 22:06:40.963049 12722 layer_factory.hpp:77] Creating layer cls_score
I0504 22:06:40.963054 12722 net.cpp:106] Creating Layer cls_score
I0504 22:06:40.963068 12722 net.cpp:454] cls_score <- fc7_relu7_0_split_1
I0504 22:06:40.963075 12722 net.cpp:411] cls_score -> cls_score
I0504 22:06:40.963312 12722 net.cpp:150] Setting up cls_score
I0504 22:06:40.963318 12722 net.cpp:157] Top shape: 1 2 (2)
I0504 22:06:40.963320 12722 net.cpp:165] Memory required for data: 1430983644
I0504 22:06:40.963336 12722 layer_factory.hpp:77] Creating layer bbox_pred
I0504 22:06:40.963343 12722 net.cpp:106] Creating Layer bbox_pred
I0504 22:06:40.963346 12722 net.cpp:454] bbox_pred <- fc7_relu7_0_split_2
I0504 22:06:40.963352 12722 net.cpp:411] bbox_pred -> bbox_pred
I0504 22:06:40.964074 12722 net.cpp:150] Setting up bbox_pred
I0504 22:06:40.964079 12722 net.cpp:157] Top shape: 1 8 (8)
I0504 22:06:40.964082 12722 net.cpp:165] Memory required for data: 1430983676
I0504 22:06:40.964097 12722 layer_factory.hpp:77] Creating layer loss_attribute
I0504 22:06:40.964105 12722 net.cpp:106] Creating Layer loss_attribute
I0504 22:06:40.964109 12722 net.cpp:454] loss_attribute <- attr_score_pos_shift
I0504 22:06:40.964113 12722 net.cpp:454] loss_attribute <- attrArray
I0504 22:06:40.964120 12722 net.cpp:411] loss_attribute -> loss_attribute
…
I0504 22:06:40.964999 12722 net.cpp:165] Memory required for data: 1430983688
I0504 22:06:40.965003 12722 layer_factory.hpp:77] Creating layer roi_pool5_2
I0504 22:06:40.965010 12722 net.cpp:106] Creating Layer roi_pool5_2
I0504 22:06:40.965013 12722 net.cpp:454] roi_pool5_2 <- conv5_3_relu5_3_0_split_2
I0504 22:06:40.965018 12722 net.cpp:454] roi_pool5_2 <- rois_pos
I0504 22:06:40.965024 12722 net.cpp:411] roi_pool5_2 -> pool5_2
I0504 22:06:40.965031 12722 roi_alignment_layer.cpp:32] Spatial scale: 0.0625
I0504 22:06:40.965096 12722 net.cpp:150] Setting up roi_pool5_2
I0504 22:06:40.965102 12722 net.cpp:157] Top shape: 1 512 7 7 (25088)
I0504 22:06:40.965106 12722 net.cpp:165] Memory required for data: 1431084040
I0504 22:06:40.965108 12722 layer_factory.hpp:77] Creating layer pool5_2_conv
I0504 22:06:40.965118 12722 net.cpp:106] Creating Layer pool5_2_conv
I0504 22:06:40.965122 12722 net.cpp:454] pool5_2_conv <- pool5_2
I0504 22:06:40.965127 12722 net.cpp:411] pool5_2_conv -> pool5_2_conv
I0504 22:06:40.971611 12722 net.cpp:150] Setting up pool5_2_conv
I0504 22:06:40.971621 12722 net.cpp:157] Top shape: 1 512 7 7 (25088)
I0504 22:06:40.971624 12722 net.cpp:165] Memory required for data: 1431184392
I0504 22:06:40.971630 12722 layer_factory.hpp:77] Creating layer pool5_2_conv_relu
I0504 22:06:40.971637 12722 net.cpp:106] Creating Layer pool5_2_conv_relu
I0504 22:06:40.971642 12722 net.cpp:454] pool5_2_conv_relu <- pool5_2_conv
I0504 22:06:40.971648 12722 net.cpp:411] pool5_2_conv_relu -> pool5_2_conv_relu
I0504 22:06:40.971783 12722 net.cpp:150] Setting up pool5_2_conv_relu
I0504 22:06:40.971791 12722 net.cpp:157] Top shape: 1 512 7 7 (25088)
I0504 22:06:40.971793 12722 net.cpp:165] Memory required for data: 1431284744
I0504 22:06:40.971796 12722 layer_factory.hpp:77] Creating layer pool5_2_conv2
I0504 22:06:40.971807 12722 net.cpp:106] Creating Layer pool5_2_conv2
I0504 22:06:40.971810 12722 net.cpp:454] pool5_2_conv2 <- pool5_2_conv_relu
I0504 22:06:40.971817 12722 net.cpp:411] pool5_2_conv2 -> pool5_2_conv2
I0504 22:06:41.022518 12722 net.cpp:150] Setting up pool5_2_conv2
I0504 22:06:41.022537 12722 net.cpp:157] Top shape: 1 512 7 7 (25088)
I0504 22:06:41.022541 12722 net.cpp:165] Memory required for data: 1431385096
I0504 22:06:41.022552 12722 layer_factory.hpp:77] Creating layer pool5_2_conv2_relu
I0504 22:06:41.022573 12722 net.cpp:106] Creating Layer pool5_2_conv2_relu
I0504 22:06:41.022593 12722 net.cpp:454] pool5_2_conv2_relu <- pool5_2_conv2
I0504 22:06:41.022609 12722 net.cpp:411] pool5_2_conv2_relu -> pool5_2_conv2_relu
I0504 22:06:41.022786 12722 net.cpp:150] Setting up pool5_2_conv2_relu
I0504 22:06:41.022794 12722 net.cpp:157] Top shape: 1 512 7 7 (25088)
I0504 22:06:41.022797 12722 net.cpp:165] Memory required for data: 1431485448
I0504 22:06:41.022800 12722 layer_factory.hpp:77] Creating layer mask_deconv1
I0504 22:06:41.022810 12722 net.cpp:106] Creating Layer mask_deconv1
I0504 22:06:41.022827 12722 net.cpp:454] mask_deconv1 <- pool5_2_conv2_relu
I0504 22:06:41.022835 12722 net.cpp:411] mask_deconv1 -> mask_deconv1
I0504 22:06:41.023718 12722 net.cpp:150] Setting up mask_deconv1
I0504 22:06:41.023725 12722 net.cpp:157] Top shape: 1 256 30 30 (230400)
I0504 22:06:41.023727 12722 net.cpp:165] Memory required for data: 1432407048
I0504 22:06:41.023733 12722 layer_factory.hpp:77] Creating layer pool5_2_conv3
I0504 22:06:41.023758 12722 net.cpp:106] Creating Layer pool5_2_conv3
I0504 22:06:41.023762 12722 net.cpp:454] pool5_2_conv3 <- mask_deconv1
I0504 22:06:41.023768 12722 net.cpp:411] pool5_2_conv3 -> pool5_2_conv3
I0504 22:06:41.050062 12722 net.cpp:150] Setting up pool5_2_conv3
I0504 22:06:41.050079 12722 net.cpp:157] Top shape: 1 512 30 30 (460800)
I0504 22:06:41.050082 12722 net.cpp:165] Memory required for data: 1434250248
I0504 22:06:41.050091 12722 layer_factory.hpp:77] Creating layer pool5_2_conv3_relu
I0504 22:06:41.050099 12722 net.cpp:106] Creating Layer pool5_2_conv3_relu
I0504 22:06:41.050119 12722 net.cpp:454] pool5_2_conv3_relu <- pool5_2_conv3
I0504 22:06:41.050127 12722 net.cpp:411] pool5_2_conv3_relu -> pool5_2_conv3_relu
I0504 22:06:41.050309 12722 net.cpp:150] Setting up pool5_2_conv3_relu
I0504 22:06:41.050316 12722 net.cpp:157] Top shape: 1 512 30 30 (460800)
I0504 22:06:41.050319 12722 net.cpp:165] Memory required for data: 1436093448
I0504 22:06:41.050323 12722 layer_factory.hpp:77] Creating layer pool5_2_conv4
I0504 22:06:41.050333 12722 net.cpp:106] Creating Layer pool5_2_conv4
I0504 22:06:41.050349 12722 net.cpp:454] pool5_2_conv4 <- pool5_2_conv3_relu
I0504 22:06:41.050356 12722 net.cpp:411] pool5_2_conv4 -> pool5_2_conv4
I0504 22:06:41.099949 12722 net.cpp:150] Setting up pool5_2_conv4
I0504 22:06:41.099967 12722 net.cpp:157] Top shape: 1 512 30 30 (460800)
I0504 22:06:41.099970 12722 net.cpp:165] Memory required for data: 1437936648
I0504 22:06:41.099979 12722 layer_factory.hpp:77] Creating layer pool5_2_conv4_relu
I0504 22:06:41.099988 12722 net.cpp:106] Creating Layer pool5_2_conv4_relu
I0504 22:06:41.100005 12722 net.cpp:454] pool5_2_conv4_relu <- pool5_2_conv4
I0504 22:06:41.100023 12722 net.cpp:411] pool5_2_conv4_relu -> pool5_2_conv4_relu
I0504 22:06:41.100190 12722 net.cpp:150] Setting up pool5_2_conv4_relu
I0504 22:06:41.100198 12722 net.cpp:157] Top shape: 1 512 30 30 (460800)
I0504 22:06:41.100200 12722 net.cpp:165] Memory required for data: 1439779848
I0504 22:06:41.100203 12722 layer_factory.hpp:77] Creating layer pool5_2_conv4_relu_pool5_2_conv4_relu_0_split
I0504 22:06:41.100208 12722 net.cpp:106] Creating Layer pool5_2_conv4_relu_pool5_2_conv4_relu_0_split
I0504 22:06:41.100212 12722 net.cpp:454] pool5_2_conv4_relu_pool5_2_conv4_relu_0_split <- pool5_2_conv4_relu
I0504 22:06:41.100230 12722 net.cpp:411] pool5_2_conv4_relu_pool5_2_conv4_relu_0_split -> pool5_2_conv4_relu_pool5_2_conv4_relu_0_split_0
I0504 22:06:41.100247 12722 net.cpp:411] pool5_2_conv4_relu_pool5_2_conv4_relu_0_split -> pool5_2_conv4_relu_pool5_2_conv4_relu_0_split_1
I0504 22:06:41.100266 12722 net.cpp:411] pool5_2_conv4_relu_pool5_2_conv4_relu_0_split -> pool5_2_conv4_relu_pool5_2_conv4_relu_0_split_2
I0504 22:06:41.100272 12722 net.cpp:411] pool5_2_conv4_relu_pool5_2_conv4_relu_0_split -> pool5_2_conv4_relu_pool5_2_conv4_relu_0_split_3
I0504 22:06:41.100337 12722 net.cpp:150] Setting up pool5_2_conv4_relu_pool5_2_conv4_relu_0_split
I0504 22:06:41.100351 12722 net.cpp:157] Top shape: 1 512 30 30 (460800)
I0504 22:06:41.100355 12722 net.cpp:157] Top shape: 1 512 30 30 (460800)
I0504 22:06:41.100368 12722 net.cpp:157] Top shape: 1 512 30 30 (460800)
I0504 22:06:41.100373 12722 net.cpp:157] Top shape: 1 512 30 30 (460800)
I0504 22:06:41.100374 12722 net.cpp:165] Memory required for data: 1447152648
I0504 22:06:41.100378 12722 layer_factory.hpp:77] Creating layer query_conv
I0504 22:06:41.100387 12722 net.cpp:106] Creating Layer query_conv
I0504 22:06:41.100391 12722 net.cpp:454] query_conv <- pool5_2_conv4_relu_pool5_2_conv4_relu_0_split_0
I0504 22:06:41.100409 12722 net.cpp:411] query_conv -> query_conv
I0504 22:06:41.101960 12722 net.cpp:150] Setting up query_conv
I0504 22:06:41.101969 12722 net.cpp:157] Top shape: 1 64 30 30 (57600)
I0504 22:06:41.101972 12722 net.cpp:165] Memory required for data: 1447383048
I0504 22:06:41.101989 12722 layer_factory.hpp:77] Creating layer key_conv
I0504 22:06:41.102015 12722 net.cpp:106] Creating Layer key_conv
I0504 22:06:41.102020 12722 net.cpp:454] key_conv <- pool5_2_conv4_relu_pool5_2_conv4_relu_0_split_1
I0504 22:06:41.102036 12722 net.cpp:411] key_conv -> key_conv
I0504 22:06:41.103657 12722 net.cpp:150] Setting up key_conv
I0504 22:06:41.103677 12722 net.cpp:157] Top shape: 1 64 30 30 (57600)
I0504 22:06:41.103679 12722 net.cpp:165] Memory required for data: 1447613448
I0504 22:06:41.103685 12722 layer_factory.hpp:77] Creating layer value_conv
I0504 22:06:41.103698 12722 net.cpp:106] Creating Layer value_conv
I0504 22:06:41.103701 12722 net.cpp:454] value_conv <- pool5_2_conv4_relu_pool5_2_conv4_relu_0_split_2
I0504 22:06:41.103708 12722 net.cpp:411] value_conv -> value_conv
I0504 22:06:41.111001 12722 net.cpp:150] Setting up value_conv
I0504 22:06:41.111018 12722 net.cpp:157] Top shape: 1 512 30 30 (460800)
I0504 22:06:41.111021 12722 net.cpp:165] Memory required for data: 1449456648
I0504 22:06:41.111030 12722 layer_factory.hpp:77] Creating layer query_conv_reshape
I0504 22:06:41.111040 12722 net.cpp:106] Creating Layer query_conv_reshape
I0504 22:06:41.111047 12722 net.cpp:454] query_conv_reshape <- query_conv
I0504 22:06:41.111053 12722 net.cpp:411] query_conv_reshape -> query_conv_reshape
I0504 22:06:41.111081 12722 net.cpp:150] Setting up query_conv_reshape
I0504 22:06:41.111086 12722 net.cpp:157] Top shape: 1 64 900 1 (57600)
I0504 22:06:41.111089 12722 net.cpp:165] Memory required for data: 1449687048
I0504 22:06:41.111093 12722 layer_factory.hpp:77] Creating layer key_conv_reshape
I0504 22:06:41.111100 12722 net.cpp:106] Creating Layer key_conv_reshape
I0504 22:06:41.111104 12722 net.cpp:454] key_conv_reshape <- key_conv
I0504 22:06:41.111109 12722 net.cpp:411] key_conv_reshape -> key_conv_reshape
I0504 22:06:41.111130 12722 net.cpp:150] Setting up key_conv_reshape
I0504 22:06:41.111135 12722 net.cpp:157] Top shape: 1 64 900 1 (57600)
I0504 22:06:41.111138 12722 net.cpp:165] Memory required for data: 1449917448
I0504 22:06:41.111141 12722 layer_factory.hpp:77] Creating layer value_conv_reshape
I0504 22:06:41.111146 12722 net.cpp:106] Creating Layer value_conv_reshape
I0504 22:06:41.111151 12722 net.cpp:454] value_conv_reshape <- value_conv
I0504 22:06:41.111157 12722 net.cpp:411] value_conv_reshape -> value_conv_reshape
I0504 22:06:41.111176 12722 net.cpp:150] Setting up value_conv_reshape
I0504 22:06:41.111181 12722 net.cpp:157] Top shape: 1 512 900 1 (460800)
I0504 22:06:41.111184 12722 net.cpp:165] Memory required for data: 1451760648
I0504 22:06:41.111187 12722 layer_factory.hpp:77] Creating layer query_conv_reshape_perm
I0504 22:06:41.111194 12722 net.cpp:106] Creating Layer query_conv_reshape_perm
I0504 22:06:41.111198 12722 net.cpp:454] query_conv_reshape_perm <- query_conv_reshape
I0504 22:06:41.111202 12722 net.cpp:411] query_conv_reshape_perm -> query_conv_reshape_perm
I0504 22:06:41.111279 12722 net.cpp:150] Setting up query_conv_reshape_perm
I0504 22:06:41.111284 12722 net.cpp:157] Top shape: 1 1 900 64 (57600)
I0504 22:06:41.111287 12722 net.cpp:165] Memory required for data: 1451991048
I0504 22:06:41.111290 12722 layer_factory.hpp:77] Creating layer key_conv_reshape_perm
I0504 22:06:41.111296 12722 net.cpp:106] Creating Layer key_conv_reshape_perm
I0504 22:06:41.111300 12722 net.cpp:454] key_conv_reshape_perm <- key_conv_reshape
I0504 22:06:41.111304 12722 net.cpp:411] key_conv_reshape_perm -> key_conv_reshape_perm
I0504 22:06:41.111373 12722 net.cpp:150] Setting up key_conv_reshape_perm
I0504 22:06:41.111379 12722 net.cpp:157] Top shape: 1 1 64 900 (57600)
I0504 22:06:41.111382 12722 net.cpp:165] Memory required for data: 1452221448
I0504 22:06:41.111385 12722 layer_factory.hpp:77] Creating layer energy
I0504 22:06:41.111390 12722 net.cpp:106] Creating Layer energy
I0504 22:06:41.111394 12722 net.cpp:454] energy <- query_conv_reshape_perm
I0504 22:06:41.111398 12722 net.cpp:454] energy <- key_conv_reshape_perm
I0504 22:06:41.111403 12722 net.cpp:411] energy -> energy
I0504 22:06:41.111424 12722 net.cpp:150] Setting up energy
I0504 22:06:41.111429 12722 net.cpp:157] Top shape: 1 1 900 900 (810000)
I0504 22:06:41.111433 12722 net.cpp:165] Memory required for data: 1455461448
I0504 22:06:41.111435 12722 layer_factory.hpp:77] Creating layer attention
I0504 22:06:41.111441 12722 net.cpp:106] Creating Layer attention
I0504 22:06:41.111444 12722 net.cpp:454] attention <- energy
I0504 22:06:41.111449 12722 net.cpp:411] attention -> attention
I0504 22:06:41.111611 12722 net.cpp:150] Setting up attention
I0504 22:06:41.111619 12722 net.cpp:157] Top shape: 1 1 900 900 (810000)
I0504 22:06:41.111622 12722 net.cpp:165] Memory required for data: 1458701448
I0504 22:06:41.111625 12722 layer_factory.hpp:77] Creating layer value_conv_reshape_perm
I0504 22:06:41.111630 12722 net.cpp:106] Creating Layer value_conv_reshape_perm
I0504 22:06:41.111634 12722 net.cpp:454] value_conv_reshape_perm <- value_conv_reshape
I0504 22:06:41.111647 12722 net.cpp:411] value_conv_reshape_perm -> value_conv_reshape_perm
I0504 22:06:41.111716 12722 net.cpp:150] Setting up value_conv_reshape_perm
I0504 22:06:41.111721 12722 net.cpp:157] Top shape: 1 1 512 900 (460800)
I0504 22:06:41.111724 12722 net.cpp:165] Memory required for data: 1460544648
I0504 22:06:41.111727 12722 layer_factory.hpp:77] Creating layer attention_perm
I0504 22:06:41.111733 12722 net.cpp:106] Creating Layer attention_perm
I0504 22:06:41.111737 12722 net.cpp:454] attention_perm <- attention
I0504 22:06:41.111742 12722 net.cpp:411] attention_perm -> attention_perm
I0504 22:06:41.111807 12722 net.cpp:150] Setting up attention_perm
I0504 22:06:41.111814 12722 net.cpp:157] Top shape: 1 1 900 900 (810000)
I0504 22:06:41.111816 12722 net.cpp:165] Memory required for data: 1463784648
I0504 22:06:41.111819 12722 layer_factory.hpp:77] Creating layer out
I0504 22:06:41.111824 12722 net.cpp:106] Creating Layer out
I0504 22:06:41.111827 12722 net.cpp:454] out <- value_conv_reshape_perm
I0504 22:06:41.111831 12722 net.cpp:454] out <- attention_perm
I0504 22:06:41.111836 12722 net.cpp:411] out -> out
I0504 22:06:41.111855 12722 net.cpp:150] Setting up out
I0504 22:06:41.111860 12722 net.cpp:157] Top shape: 1 1 512 900 (460800)
I0504 22:06:41.111863 12722 net.cpp:165] Memory required for data: 1465627848
I0504 22:06:41.111866 12722 layer_factory.hpp:77] Creating layer out_reshape
I0504 22:06:41.111873 12722 net.cpp:106] Creating Layer out_reshape
I0504 22:06:41.111877 12722 net.cpp:454] out_reshape <- out
I0504 22:06:41.111881 12722 net.cpp:411] out_reshape -> out_reshape
I0504 22:06:41.111901 12722 net.cpp:150] Setting up out_reshape
I0504 22:06:41.111907 12722 net.cpp:157] Top shape: 1 512 30 30 (460800)
I0504 22:06:41.111909 12722 net.cpp:165] Memory required for data: 1467471048
I0504 22:06:41.111912 12722 layer_factory.hpp:77] Creating layer out_reshape_scale
I0504 22:06:41.111922 12722 net.cpp:106] Creating Layer out_reshape_scale
I0504 22:06:41.111925 12722 net.cpp:454] out_reshape_scale <- out_reshape
I0504 22:06:41.111930 12722 net.cpp:411] out_reshape_scale -> out_reshape_scale
I0504 22:06:41.111994 12722 net.cpp:150] Setting up out_reshape_scale
I0504 22:06:41.111999 12722 net.cpp:157] Top shape: 1 512 30 30 (460800)
I0504 22:06:41.112002 12722 net.cpp:165] Memory required for data: 1469314248
I0504 22:06:41.112006 12722 layer_factory.hpp:77] Creating layer out_x
I0504 22:06:41.112013 12722 net.cpp:106] Creating Layer out_x
I0504 22:06:41.112017 12722 net.cpp:454] out_x <- out_reshape_scale
I0504 22:06:41.112021 12722 net.cpp:454] out_x <- pool5_2_conv4_relu_pool5_2_conv4_relu_0_split_3
I0504 22:06:41.112027 12722 net.cpp:411] out_x -> out_x
I0504 22:06:41.112048 12722 net.cpp:150] Setting up out_x
I0504 22:06:41.112054 12722 net.cpp:157] Top shape: 1 512 30 30 (460800)
I0504 22:06:41.112056 12722 net.cpp:165] Memory required for data: 1471157448
I0504 22:06:41.112059 12722 layer_factory.hpp:77] Creating layer mask_deconv2
I0504 22:06:41.112067 12722 net.cpp:106] Creating Layer mask_deconv2
I0504 22:06:41.112071 12722 net.cpp:454] mask_deconv2 <- out_x
I0504 22:06:41.112076 12722 net.cpp:411] mask_deconv2 -> mask_deconv2
I0504 22:06:41.112854 12722 net.cpp:150] Setting up mask_deconv2
I0504 22:06:41.112859 12722 net.cpp:157] Top shape: 1 256 122 122 (3810304)
I0504 22:06:41.112861 12722 net.cpp:165] Memory required for data: 1486398664
I0504 22:06:41.112867 12722 layer_factory.hpp:77] Creating layer pool5_2_conv5
I0504 22:06:41.112879 12722 net.cpp:106] Creating Layer pool5_2_conv5
I0504 22:06:41.112882 12722 net.cpp:454] pool5_2_conv5 <- mask_deconv2
I0504 22:06:41.112887 12722 net.cpp:411] pool5_2_conv5 -> pool5_2_conv5
I0504 22:06:41.138682 12722 net.cpp:150] Setting up pool5_2_conv5
I0504 22:06:41.138700 12722 net.cpp:157] Top shape: 1 512 122 122 (7620608)
I0504 22:06:41.138702 12722 net.cpp:165] Memory required for data: 1516881096
I0504 22:06:41.138710 12722 layer_factory.hpp:77] Creating layer pool5_2_conv5_relu
I0504 22:06:41.138718 12722 net.cpp:106] Creating Layer pool5_2_conv5_relu
I0504 22:06:41.138741 12722 net.cpp:454] pool5_2_conv5_relu <- pool5_2_conv5
I0504 22:06:41.138757 12722 net.cpp:411] pool5_2_conv5_relu -> pool5_2_conv5_relu
I0504 22:06:41.138891 12722 net.cpp:150] Setting up pool5_2_conv5_relu
I0504 22:06:41.138897 12722 net.cpp:157] Top shape: 1 512 122 122 (7620608)
I0504 22:06:41.138900 12722 net.cpp:165] Memory required for data: 1547363528
I0504 22:06:41.138904 12722 layer_factory.hpp:77] Creating layer pool5_2_conv6
I0504 22:06:41.138914 12722 net.cpp:106] Creating Layer pool5_2_conv6
I0504 22:06:41.138918 12722 net.cpp:454] pool5_2_conv6 <- pool5_2_conv5_relu
I0504 22:06:41.138924 12722 net.cpp:411] pool5_2_conv6 -> pool5_2_conv6
I0504 22:06:41.188949 12722 net.cpp:150] Setting up pool5_2_conv6
I0504 22:06:41.188967 12722 net.cpp:157] Top shape: 1 512 122 122 (7620608)
I0504 22:06:41.188971 12722 net.cpp:165] Memory required for data: 1577845960
I0504 22:06:41.189000 12722 layer_factory.hpp:77] Creating layer pool5_2_conv6_relu
I0504 22:06:41.189011 12722 net.cpp:106] Creating Layer pool5_2_conv6_relu
I0504 22:06:41.189018 12722 net.cpp:454] pool5_2_conv6_relu <- pool5_2_conv6
I0504 22:06:41.189026 12722 net.cpp:411] pool5_2_conv6_relu -> pool5_2_conv6_relu
I0504 22:06:41.189568 12722 net.cpp:150] Setting up pool5_2_conv6_relu
I0504 22:06:41.189576 12722 net.cpp:157] Top shape: 1 512 122 122 (7620608)
I0504 22:06:41.189579 12722 net.cpp:165] Memory required for data: 1608328392
I0504 22:06:41.189582 12722 layer_factory.hpp:77] Creating layer mask_deconv3
I0504 22:06:41.189591 12722 net.cpp:106] Creating Layer mask_deconv3
I0504 22:06:41.189595 12722 net.cpp:454] mask_deconv3 <- pool5_2_conv6_relu
I0504 22:06:41.189617 12722 net.cpp:411] mask_deconv3 -> mask_deconv3
I0504 22:06:41.190021 12722 net.cpp:150] Setting up mask_deconv3
I0504 22:06:41.190026 12722 net.cpp:157] Top shape: 1 256 244 244 (15241216)
I0504 22:06:41.190029 12722 net.cpp:165] Memory required for data: 1669293256
I0504 22:06:41.190035 12722 layer_factory.hpp:77] Creating layer mask_score
I0504 22:06:41.190057 12722 net.cpp:106] Creating Layer mask_score
I0504 22:06:41.190060 12722 net.cpp:454] mask_score <- mask_deconv3
I0504 22:06:41.190076 12722 net.cpp:411] mask_score -> mask_score
I0504 22:06:41.190649 12722 net.cpp:150] Setting up mask_score
I0504 22:06:41.190657 12722 net.cpp:157] Top shape: 1 8 244 244 (476288)
I0504 22:06:41.190660 12722 net.cpp:165] Memory required for data: 1671198408
I0504 22:06:41.190666 12722 layer_factory.hpp:77] Creating layer loss_mask
I0504 22:06:41.190673 12722 net.cpp:106] Creating Layer loss_mask
I0504 22:06:41.190687 12722 net.cpp:454] loss_mask <- mask_score
I0504 22:06:41.190691 12722 net.cpp:454] loss_mask <- mask_targets
I0504 22:06:41.190698 12722 net.cpp:411] loss_mask -> loss_mask
…
