…
average_loss: 100
iter_size: 2
I0625 15:10:43.310137 28260 solver.cpp:81] Creating training net from train_net file: models/pascal_voc/VGG16/faster_rcnn_end2end/train.prototxt
I0625 15:10:43.311856 28260 net.cpp:49] Initializing net from parameters: 
name: "VGG_ILSVRC_16_layers"
state {
  phase: TRAIN
}
layer {
  name: "input-data"
  type: "Python"
  top: "data"
  top: "im_info"
  top: "gt_boxes"
  top: "seg_mask_inds"
  top: "flipped"
  python_param {
    module: "roi_data_layer.layer"
    layer: "RoIDataLayer"
    param_str: "\'num_classes\': 2"
  }
}
layer {
  name: "conv1_1"
  type: "Convolution"
  bottom: "data"
  top: "conv1_1"
  param {
    lr_mult: 0
    decay_mult: 0
  }
  param {
    lr_mult: 0
    decay_mult: 0
  }
  convolution_param {
    num_output: 64
    pad: 1
    kernel_size: 3
  }
}
layer {
  name: "relu1_1"
  type: "ReLU"
  bottom: "conv1_1"
  top: "conv1_1"
}
layer {
  name: "conv1_2"
  type: "Convolution"
  bottom: "conv1_1"
  top: "conv1_2"
  param {
    lr_mult: 0
    decay_mult: 0
  }
  param {
    lr_mult: 0
    decay_mult: 0
  }
  convolution_param {
    num_output: 64
    pad: 1
    kernel_size: 3
  }
}
layer {
  name: "relu1_2"
  type: "ReLU"
  bottom: "conv1_2"
  top: "conv1_2"
}
layer {
  name: "pool1"
  type: "Pooling"
  bottom: "conv1_2"
  top: "pool1"
  pooling_param {
    pool: MAX
    kernel_size: 2
    stride: 2
  }
}
layer {
  name: "conv2_1"
  type: "Convolution"
  bottom: "pool1"
  top: "conv2_1"
  param {
    lr_mult: 0
    decay_mult: 0
  }
  param {
    lr_mult: 0
    decay_mult: 0
  }
  convolution_param {
    num_output: 128
    pad: 1
    kernel_size: 3
  }
}
layer {
  name: "relu2_1"
  type: "ReLU"
  bottom: "conv2_1"
  top: "conv2_1"
}
layer {
  name: "conv2_2"
  type: "Convolution"
  bottom: "conv2_1"
  top: "conv2_2"
  param {
    lr_mult: 0
    decay_mult: 0
  }
  param {
    lr_mult: 0
    decay_mult: 0
  }
  convolution_param {
    num_output: 128
    pad: 1
    kernel_size: 3
  }
}
layer {
  name: "relu2_2"
  type: "ReLU"
  bottom: "conv2_2"
  top: "conv2_2"
}
layer {
  name: "pool2"
  type: "Pooling"
  bottom: "conv2_2"
  top: "pool2"
  pooling_param {
    pool: MAX
    kernel_size: 2
    stride: 2
  }
}
layer {
  name: "conv3_1"
  type: "Convolution"
  bottom: "pool2"
  top: "conv3_1"
  param {
    lr_mult: 1
  }
  param {
    lr_mult: 2
  }
  convolution_param {
    num_output: 256
    pad: 1
    kernel_size: 3
  }
}
layer {
  name: "relu3_1"
  type: "ReLU"
  bottom: "conv3_1"
  top: "conv3_1"
}
layer {
  name: "conv3_2"
  type: "Convolution"
  bottom: "conv3_1"
  top: "conv3_2"
  param {
    lr_mult: 1
  }
  param {
    lr_mult: 2
  }
  convolution_param {
    num_output: 256
    pad: 1
    kernel_size: 3
  }
}
layer {
  name: "relu3_2"
  type: "ReLU"
  bottom: "conv3_2"
  top: "conv3_2"
}
layer {
  name: "conv3_3"
  type: "Convolution"
  bottom: "conv3_2"
  top: "conv3_3"
  param {
    lr_mult: 1
  }
  param {
    lr_mult: 2
  }
  convolution_param {
    num_output: 256
    pad: 1
    kernel_size: 3
  }
}
layer {
  name: "relu3_3"
  type: "ReLU"
  bottom: "conv3_3"
  top: "conv3_3"
}
layer {
  name: "pool3"
  type: "Pooling"
  bottom: "conv3_3"
  top: "pool3"
  pooling_param {
    pool: MAX
    kernel_size: 2
    stride: 2
  }
}
layer {
  name: "conv4_1"
  type: "Convolution"
  bottom: "pool3"
  top: "conv4_1"
  param {
    lr_mult: 1
  }
  param {
    lr_mult: 2
  }
  convolution_param {
    num_output: 512
    pad: 1
    kernel_size: 3
  }
}
layer {
  name: "relu4_1"
  type: "ReLU"
  bottom: "conv4_1"
  top: "conv4_1"
}
layer {
  name: "conv4_2"
  type: "Convolution"
  bottom: "conv4_1"
  top: "conv4_2"
  param {
    lr_mult: 1
  }
  param {
    lr_mult: 2
  }
  convolution_param {
    num_output: 512
    pad: 1
    kernel_size: 3
  }
}
layer {
  name: "relu4_2"
  type: "ReLU"
  bottom: "conv4_2"
  top: "conv4_2"
}
layer {
  name: "conv4_3"
  type: "Convolution"
  bottom: "conv4_2"
  top: "conv4_3"
  param {
    lr_mult: 1
  }
  param {
    lr_mult: 2
  }
  convolution_param {
    num_output: 512
    pad: 1
    kernel_size: 3
  }
}
layer {
  name: "relu4_3"
  type: "ReLU"
  bottom: "conv4_3"
  top: "conv4_3"
}
layer {
  name: "pool4"
  type: "Pooling"
  bottom: "conv4_3"
  top: "pool4"
  pooling_param {
    pool: MAX
    kernel_size: 2
    stride: 2
  }
}
layer {
  name: "conv5_1"
  type: "Convolution"
  bottom: "pool4"
  top: "conv5_1"
  param {
    lr_mult: 1
  }
  param {
    lr_mult: 2
  }
  convolution_param {
    num_output: 512
    pad: 1
    kernel_size: 3
  }
}
layer {
  name: "relu5_1"
  type: "ReLU"
  bottom: "conv5_1"
  top: "conv5_1"
}
layer {
  name: "conv5_2"
  type: "Convolution"
  bottom: "conv5_1"
  top: "conv5_2"
  param {
    lr_mult: 1
  }
  param {
    lr_mult: 2
  }
  convolution_param {
    num_output: 512
    pad: 1
    kernel_size: 3
  }
}
layer {
  name: "relu5_2"
  type: "ReLU"
  bottom: "conv5_2"
  top: "conv5_2"
}
layer {
  name: "conv5_3"
  type: "Convolution"
  bottom: "conv5_2"
  top: "conv5_3"
  param {
    lr_mult: 1
  }
  param {
    lr_mult: 2
  }
  convolution_param {
    num_output: 512
    pad: 1
    kernel_size: 3
  }
}
layer {
  name: "relu5_3"
  type: "ReLU"
  bottom: "conv5_3"
  top: "conv5_3"
}
layer {
  name: "rpn_conv/3x3"
  type: "Convolution"
  bottom: "conv5_3"
  top: "rpn/output"
  param {
    lr_mult: 1
  }
  param {
    lr_mult: 2
  }
  convolution_param {
    num_output: 512
    pad: 1
    kernel_size: 3
    stride: 1
    weight_filler {
      type: "gaussian"
      std: 0.01
    }
    bias_filler {
      type: "constant"
      value: 0
    }
  }
}
layer {
  name: "rpn_relu/3x3"
  type: "ReLU"
  bottom: "rpn/output"
  top: "rpn/output"
}
layer {
  name: "rpn_cls_score"
  type: "Convolution"
  bottom: "rpn/output"
  top: "rpn_cls_score"
  param {
    lr_mult: 1
  }
  param {
    lr_mult: 2
  }
  convolution_param {
    num_output: 30
    pad: 0
    kernel_size: 1
    stride: 1
    weight_filler {
      type: "gaussian"
      std: 0.01
    }
    bias_filler {
      type: "constant"
      value: 0
    }
  }
}
layer {
  name: "rpn_bbox_pred"
  type: "Convolution"
  bottom: "rpn/output"
  top: "rpn_bbox_pred"
  param {
    lr_mult: 1
  }
  param {
    lr_mult: 2
  }
  convolution_param {
    num_output: 60
    pad: 0
    kernel_size: 1
    stride: 1
    weight_filler {
      type: "gaussian"
      std: 0.01
    }
    bias_filler {
      type: "constant"
      value: 0
    }
  }
}
layer {
  name: "rpn_cls_score_reshape"
  type: "Reshape"
  bottom: "rpn_cls_score"
  top: "rpn_cls_score_reshape"
  reshape_param {
    shape {
      dim: 0
      dim: 2
      dim: -1
      dim: 0
    }
  }
}
layer {
  name: "rpn-data"
  type: "Python"
  bottom: "rpn_cls_score"
  bottom: "gt_boxes"
  bottom: "im_info"
  bottom: "data"
  top: "rpn_labels"
  top: "rpn_bbox_targets"
  top: "rpn_bbox_inside_weights"
  top: "rpn_bbox_outside_weights"
  python_param {
    module: "rpn.anchor_target_layer"
    layer: "AnchorTargetLayer"
    param_str: "\'feat_stride\': 16 \n\'scales\': !!python/tuple [2, 4, 8, 16, 32]"
  }
}
layer {
  name: "rpn_loss_cls"
  type: "SoftmaxWithLoss"
  bottom: "rpn_cls_score_reshape"
  bottom: "rpn_labels"
  top: "rpn_cls_loss"
  loss_weight: 1
  propagate_down: true
  propagate_down: false
  loss_param {
    ignore_label: -1
    normalize: true
  }
}
layer {
  name: "rpn_loss_bbox"
  type: "SmoothL1Loss"
  bottom: "rpn_bbox_pred"
  bottom: "rpn_bbox_targets"
  bottom: "rpn_bbox_inside_weights"
  bottom: "rpn_bbox_outside_weights"
  top: "rpn_loss_bbox"
  loss_weight: 1
  smooth_l1_loss_param {
    sigma: 3
  }
}
layer {
  name: "rpn_cls_prob"
  type: "Softmax"
  bottom: "rpn_cls_score_reshape"
  top: "rpn_cls_prob"
}
layer {
  name: "rpn_cls_prob_reshape"
  type: "Reshape"
  bottom: "rpn_cls_prob"
  top: "rpn_cls_prob_reshape"
  reshape_param {
    shape {
      dim: 0
      dim: 30
      dim: -1
      dim: 0
    }
  }
}
layer {
  name: "proposal"
  type: "Python"
  bottom: "rpn_cls_prob_reshape"
  bottom: "rpn_bbox_pred"
  bottom: "im_info"
  top: "rpn_rois"
  python_param {
    module: "rpn.proposal_layer"
    layer: "ProposalLayer"
    param_str: "\'feat_stride\': 16 \n\'scales\': !!python/tuple [2, 4, 8, 16, 32]"
  }
}
layer {
  name: "roi-data"
  type: "Python"
  bottom: "rpn_rois"
  bottom: "gt_boxes"
  bottom: "im_info"
  bottom: "seg_mask_inds"
  bottom: "flipped"
  top: "rois"
  top: "labels"
  top: "bbox_targets"
  top: "bbox_inside_weights"
  top: "bbox_outside_weights"
  top: "mask_targets"
  top: "rois_pos"
  top: "attrArray"
  top: "attrArrayInd"
  top: "attrArrayShift"
  python_param {
    module: "rpn.proposal_target_layer"
    layer: "ProposalTargetLayer"
    param_str: "\'num_classes\': 2"
  }
}
layer {
  name: "roi_pool5"
  type: "ROIAlignment"
  bottom: "conv5_3"
  bottom: "rois"
  top: "pool5"
  roi_alignment_param {
    pooled_h: 7
    pooled_w: 7
    spatial_scale: 0.0625
  }
}
layer {
  name: "fc6"
  type: "InnerProduct"
  bottom: "pool5"
  top: "fc6"
  param {
    lr_mult: 1
  }
  param {
    lr_mult: 2
  }
  inner_product_param {
    num_output: 4096
  }
}
layer {
  name: "relu6"
  type: "ReLU"
  bottom: "fc6"
  top: "fc6"
}
layer {
  name: "fc7"
  type: "InnerProduct"
  bottom: "fc6"
  top: "fc7"
  param {
    lr_mult: 1
  }
  param {
    lr_mult: 2
  }
  inner_product_param {
    num_output: 4096
  }
}
layer {
  name: "relu7"
  type: "ReLU"
  bottom: "fc7"
  top: "fc7"
}
layer {
  name: "attr_score"
  type: "InnerProduct"
  bottom: "fc7"
  top: "attr_score"
  param {
    lr_mult: 1
  }
  param {
    lr_mult: 2
  }
  inner_product_param {
    num_output: 7
    weight_filler {
      type: "gaussian"
      std: 0.001
    }
    bias_filler {
      type: "constant"
      value: 0
    }
  }
}
layer {
  name: "attr_score_pos"
  type: "Eltwise"
  bottom: "attr_score"
  bottom: "attrArrayInd"
  top: "attr_score_pos"
  eltwise_param {
    operation: PROD
  }
}
layer {
  name: "attr_score_pos_shift"
  type: "Eltwise"
  bottom: "attr_score_pos"
  bottom: "attrArrayShift"
  top: "attr_score_pos_shift"
  eltwise_param {
    operation: SUM
  }
}
layer {
  name: "cls_score"
  type: "InnerProduct"
  bottom: "fc7"
  top: "cls_score"
  param {
    lr_mult: 1
  }
  param {
    lr_mult: 2
  }
  inner_product_param {
    num_output: 2
    weight_filler {
      type: "gaussian"
      std: 0.01
    }
    bias_filler {
      type: "constant"
      value: 0
    }
  }
}
layer {
  name: "bbox_pred"
  type: "InnerProduct"
  bottom: "fc7"
  top: "bbox_pred"
  param {
    lr_mult: 1
  }
  param {
    lr_mult: 2
  }
  inner_product_param {
    num_output: 8
    weight_filler {
      type: "gaussian"
      std: 0.001
    }
    bias_filler {
      type: "constant"
      value: 0
    }
  }
}
layer {
  name: "loss_attribute"
  type: "SigmoidCrossEntropyLoss"
  bottom: "attr_score_pos_shift"
  bottom: "attrArray"
  top: "loss_attribute"
  loss_weight: 1
  propagate_down: true
  propagate_down: false
}
layer {
  name: "loss_cls"
  type: "SoftmaxWithLoss"
  bottom: "cls_score"
  bottom: "labels"
  top: "loss_cls"
  loss_weight: 3
  propagate_down: true
  propagate_down: false
}
layer {
  name: "loss_bbox"
  type: "SmoothL1Loss"
  bottom: "bbox_pred"
  bottom: "bbox_targets"
  bottom: "bbox_inside_weights"
  bottom: "bbox_outside_weights"
  top: "loss_bbox"
  loss_weight: 2
}
layer {
  name: "roi_pool5_2"
  type: "ROIAlignment"
  bottom: "conv5_3"
  bottom: "rois_pos"
  top: "pool5_2"
  roi_alignment_param {
    pooled_h: 7
    pooled_w: 7
    spatial_scale: 0.0625
  }
}
layer {
  name: "pool5_2_conv"
  type: "Convolution"
  bottom: "pool5_2"
  top: "pool5_2_conv"
  param {
    lr_mult: 1
    decay_mult: 1
  }
  param {
    lr_mult: 2
    decay_mult: 0
  }
  convolution_param {
    num_output: 512
    pad: 0
    kernel_size: 1
    weight_filler {
      type: "gaussian"
      std: 0.01
    }
    bias_filler {
      type: "constant"
      value: 0
    }
  }
}
layer {
  name: "pool5_2_conv_relu"
  type: "ReLU"
  bottom: "pool5_2_conv"
  top: "pool5_2_conv_relu"
}
layer {
  name: "pool5_2_conv2"
  type: "Convolution"
  bottom: "pool5_2_conv_relu"
  top: "pool5_2_conv2"
  param {
    lr_mult: 1
    decay_mult: 1
  }
  param {
    lr_mult: 2
    decay_mult: 0
  }
  convolution_param {
    num_output: 512
    pad: 1
    kernel_size: 3
    stride: 1
    weight_filler {
      type: "gaussian"
      std: 0.01
    }
    bias_filler {
      type: "constant"
      value: 0
    }
  }
}
layer {
  name: "pool5_2_conv2_relu"
  type: "ReLU"
  bottom: "pool5_2_conv2"
  top: "pool5_2_conv2_relu"
}
layer {
  name: "mask_deconv1"
  type: "Deconvolution"
  bottom: "pool5_2_conv2_relu"
  top: "mask_deconv1"
  param {
    lr_mult: 1
    decay_mult: 1
  }
  param {
    lr_mult: 2
    decay_mult: 0
  }
  convolution_param {
    num_output: 256
    pad: 1
    kernel_size: 8
    group: 256
    stride: 4
    weight_filler {
      type: "bilinear"
    }
  }
}
layer {
  name: "pool5_2_conv3"
  type: "Convolution"
  bottom: "mask_deconv1"
  top: "pool5_2_conv3"
  param {
    lr_mult: 1
    decay_mult: 1
  }
  param {
    lr_mult: 2
    decay_mult: 0
  }
  convolution_param {
    num_output: 512
    pad: 1
    kernel_size: 3
    stride: 1
    weight_filler {
      type: "gaussian"
      std: 0.01
    }
    bias_filler {
      type: "constant"
      value: 0
    }
  }
}
layer {
  name: "pool5_2_conv3_relu"
  type: "ReLU"
  bottom: "pool5_2_conv3"
  top: "pool5_2_conv3_relu"
}
layer {
  name: "pool5_2_conv4"
  type: "Convolution"
  bottom: "pool5_2_conv3_relu"
  top: "pool5_2_conv4"
  param {
    lr_mult: 1
    decay_mult: 1
  }
  param {
    lr_mult: 2
    decay_mult: 0
  }
  convolution_param {
    num_output: 512
    pad: 1
    kernel_size: 3
    stride: 1
    weight_filler {
      type: "gaussian"
      std: 0.01
    }
    bias_filler {
      type: "constant"
      value: 0
    }
  }
}
layer {
  name: "pool5_2_conv4_relu"
  type: "ReLU"
  bottom: "pool5_2_conv4"
  top: "pool5_2_conv4_relu"
}
layer {
  name: "query_conv"
  type: "Convolution"
  bottom: "pool5_2_conv4_relu"
  top: "query_conv"
  param {
    lr_mult: 1
    decay_mult: 1
  }
  param {
    lr_mult: 2
    decay_mult: 0
  }
  convolution_param {
    num_output: 64
    pad: 0
    kernel_size: 1
    stride: 1
    weight_filler {
      type: "gaussian"
      std: 0.01
    }
    bias_filler {
      type: "constant"
      value: 0
    }
  }
}
layer {
  name: "key_conv"
  type: "Convolution"
  bottom: "pool5_2_conv4_relu"
  top: "key_conv"
  param {
    lr_mult: 1
    decay_mult: 1
  }
  param {
    lr_mult: 2
    decay_mult: 0
  }
  convolution_param {
    num_output: 64
    pad: 0
    kernel_size: 1
    stride: 1
    weight_filler {
      type: "gaussian"
      std: 0.01
    }
    bias_filler {
      type: "constant"
      value: 0
    }
  }
}
layer {
  name: "value_conv"
  type: "Convolution"
  bottom: "pool5_2_conv4_relu"
  top: "value_conv"
  param {
    lr_mult: 1
    decay_mult: 1
  }
  param {
    lr_mult: 2
    decay_mult: 0
  }
  convolution_param {
    num_output: 512
    pad: 0
    kernel_size: 1
    stride: 1
    weight_filler {
      type: "gaussian"
      std: 0.01
    }
    bias_filler {
      type: "constant"
      value: 0
    }
  }
}
layer {
  name: "query_conv_reshape"
  type: "Reshape"
  bottom: "query_conv"
  top: "query_conv_reshape"
  reshape_param {
    shape {
      dim: -1
      dim: 64
      dim: 900
      dim: 1
    }
  }
}
layer {
  name: "key_conv_reshape"
  type: "Reshape"
  bottom: "key_conv"
  top: "key_conv_reshape"
  reshape_param {
    shape {
      dim: -1
      dim: 64
      dim: 900
      dim: 1
    }
  }
}
layer {
  name: "value_conv_reshape"
  type: "Reshape"
  bottom: "value_conv"
  top: "value_conv_reshape"
  reshape_param {
    shape {
      dim: -1
      dim: 512
      dim: 900
      dim: 1
    }
  }
}
layer {
  name: "query_conv_reshape_perm"
  type: "Permute"
  bottom: "query_conv_reshape"
  top: "query_conv_reshape_perm"
  permute_param {
    order: 0
    order: 3
    order: 2
    order: 1
  }
}
layer {
  name: "key_conv_reshape_perm"
  type: "Permute"
  bottom: "key_conv_reshape"
  top: "key_conv_reshape_perm"
  permute_param {
    order: 0
    order: 3
    order: 1
    order: 2
  }
}
layer {
  name: "energy"
  type: "MatrixMultiplication"
  bottom: "query_conv_reshape_perm"
  bottom: "key_conv_reshape_perm"
  top: "energy"
}
layer {
  name: "attention"
  type: "Softmax"
  bottom: "energy"
  top: "attention"
  softmax_param {
    axis: 3
  }
}
layer {
  name: "value_conv_reshape_perm"
  type: "Permute"
  bottom: "value_conv_reshape"
  top: "value_conv_reshape_perm"
  permute_param {
    order: 0
    order: 3
    order: 1
    order: 2
  }
}
layer {
  name: "attention_perm"
  type: "Permute"
  bottom: "attention"
  top: "attention_perm"
  permute_param {
    order: 0
    order: 1
    order: 2
    order: 3
  }
}
layer {
  name: "out"
  type: "MatrixMultiplication"
  bottom: "value_conv_reshape_perm"
  bottom: "attention_perm"
  top: "out"
}
layer {
  name: "out_reshape"
  type: "Reshape"
  bottom: "out"
  top: "out_reshape"
  reshape_param {
    shape {
      dim: -1
      dim: 512
      dim: 30
      dim: 30
    }
  }
}
layer {
  name: "out_reshape_scale"
  type: "Scale"
  bottom: "out_reshape"
  top: "out_reshape_scale"
  param {
    name: "scale_conv1_1"
    lr_mult: 1
  }
  scale_param {
    bias_term: false
  }
}
layer {
  name: "out_x"
  type: "Eltwise"
  bottom: "out_reshape_scale"
  bottom: "pool5_2_conv4_relu"
  top: "out_x"
  eltwise_param {
    operation: SUM
  }
}
layer {
  name: "mask_deconv2"
  type: "Deconvolution"
  bottom: "out_x"
  top: "mask_deconv2"
  param {
    lr_mult: 1
    decay_mult: 1
  }
  param {
    lr_mult: 2
    decay_mult: 0
  }
  convolution_param {
    num_output: 256
    pad: 1
    kernel_size: 8
    group: 256
    stride: 4
    weight_filler {
      type: "bilinear"
    }
  }
}
layer {
  name: "pool5_2_conv5"
  type: "Convolution"
  bottom: "mask_deconv2"
  top: "pool5_2_conv5"
  param {
    lr_mult: 1
    decay_mult: 1
  }
  param {
    lr_mult: 2
    decay_mult: 0
  }
  convolution_param {
    num_output: 512
    pad: 1
    kernel_size: 3
    stride: 1
    weight_filler {
      type: "gaussian"
      std: 0.01
    }
    bias_filler {
      type: "constant"
      value: 0
    }
  }
}
layer {
  name: "pool5_2_conv5_relu"
  type: "ReLU"
  bottom: "pool5_2_conv5"
  top: "pool5_2_conv5_relu"
}
layer {
  name: "pool5_2_conv6"
  type: "Convolution"
  bottom: "pool5_2_conv5_relu"
  top: "pool5_2_conv6"
  param {
    lr_mult: 1
    decay_mult: 1
  }
  param {
    lr_mult: 2
    decay_mult: 0
  }
  convolution_param {
    num_output: 512
    pad: 1
    kernel_size: 3
    stride: 1
    weight_filler {
      type: "gaussian"
      std: 0.01
    }
    bias_filler {
      type: "constant"
      value: 0
    }
  }
}
layer {
  name: "pool5_2_conv6_relu"
  type: "ReLU"
  bottom: "pool5_2_conv6"
  top: "pool5_2_conv6_relu"
}
layer {
  name: "mask_deconv3"
  type: "Deconvolution"
  bottom: "pool5_2_conv6_relu"
  top: "mask_deconv3"
  param {
    lr_mult: 1
    decay_mult: 1
  }
  param {
    lr_mult: 2
    decay_mult: 0
  }
  convolution_param {
    num_output: 256
    pad: 1
    kernel_size: 4
    group: 256
    stride: 2
    weight_filler {
      type: "bilinear"
    }
  }
}
layer {
  name: "mask_score"
  type: "Convolution"
  bottom: "mask_deconv3"
  top: "mask_score"
  param {
    lr_mult: 1
    decay_mult: 1
  }
  param {
    lr_mult: 2
    decay_mult: 0
  }
  convolution_param {
    num_output: 8
    pad: 0
    kernel_size: 1
    weight_filler {
      type: "gaussian"
      std: 0.01
    }
    bias_filler {
      type: "constant"
      value: 0
    }
  }
}
layer {
  name: "prob"
  type: "Softmax"
  bottom: "mask_score"
  top: "mask_score_softmax"
  softmax_param {
    axis: 1
  }
}
layer {
  name: "log"
  type: "Log"
  bottom: "mask_score_softmax"
  top: "log"
}
layer {
  name: "mult1"
  type: "Eltwise"
  bottom: "log"
  bottom: "mask_targets"
  top: "mult1"
  eltwise_param {
    operation: PROD
  }
}
layer {
  name: "cross_entropy"
  type: "Power"
  bottom: "mult1"
  top: "cross_entropy"
  power_param {
    power: 1
    scale: -1
    shift: 0
  }
}
layer {
  name: "ce_sum"
  type: "Convolution"
  bottom: "cross_entropy"
  top: "cross_entropy_sum"
  param {
    lr_mult: 0
    decay_mult: 0
  }
  convolution_param {
    num_output: 1
    bias_term: false
    kernel_size: 1
    weight_filler {
      type: "constant"
      value: 1
    }
  }
}
layer {
  name: "ce_mean"
  type: "Reduction"
  bottom: "cross_entropy_sum"
  top: "cross_entropy_mean"
  loss_weight: 1
  reduction_param {
    operation: MEAN
    axis: 0
  }
}
I0625 15:10:43.312196 28260 layer_factory.hpp:77] Creating layer input-data
I0625 15:10:43.445024 28260 net.cpp:106] Creating Layer input-data
I0625 15:10:43.445041 28260 net.cpp:411] input-data -> data
I0625 15:10:43.445052 28260 net.cpp:411] input-data -> im_info
I0625 15:10:43.445058 28260 net.cpp:411] input-data -> gt_boxes
I0625 15:10:43.445065 28260 net.cpp:411] input-data -> seg_mask_inds
I0625 15:10:43.445068 28260 net.cpp:411] input-data -> flipped
RoiDataLayer: name_to_top: {'gt_boxes': 2, 'data': 0, 'seg_mask_inds': 3, 'im_info': 1, 'flipped': 4}
I0625 15:10:43.494226 28260 net.cpp:150] Setting up input-data
I0625 15:10:43.494242 28260 net.cpp:157] Top shape: 1 3 600 1000 (1800000)
I0625 15:10:43.494246 28260 net.cpp:157] Top shape: 1 3 (3)
I0625 15:10:43.494248 28260 net.cpp:157] Top shape: 1 4 (4)
I0625 15:10:43.494251 28260 net.cpp:157] Top shape: 1 2 (2)
I0625 15:10:43.494253 28260 net.cpp:157] Top shape: 1 1 (1)
I0625 15:10:43.494264 28260 net.cpp:165] Memory required for data: 7200040
I0625 15:10:43.494271 28260 layer_factory.hpp:77] Creating layer data_input-data_0_split
I0625 15:10:43.494879 28260 net.cpp:106] Creating Layer data_input-data_0_split
I0625 15:10:43.494882 28260 net.cpp:454] data_input-data_0_split <- data
I0625 15:10:43.494887 28260 net.cpp:411] data_input-data_0_split -> data_input-data_0_split_0
I0625 15:10:43.494894 28260 net.cpp:411] data_input-data_0_split -> data_input-data_0_split_1
I0625 15:10:43.494916 28260 net.cpp:150] Setting up data_input-data_0_split
I0625 15:10:43.494920 28260 net.cpp:157] Top shape: 1 3 600 1000 (1800000)
I0625 15:10:43.494923 28260 net.cpp:157] Top shape: 1 3 600 1000 (1800000)
I0625 15:10:43.494925 28260 net.cpp:165] Memory required for data: 21600040
I0625 15:10:43.494926 28260 layer_factory.hpp:77] Creating layer im_info_input-data_1_split
I0625 15:10:43.494931 28260 net.cpp:106] Creating Layer im_info_input-data_1_split
I0625 15:10:43.494933 28260 net.cpp:454] im_info_input-data_1_split <- im_info
I0625 15:10:43.494935 28260 net.cpp:411] im_info_input-data_1_split -> im_info_input-data_1_split_0
I0625 15:10:43.494940 28260 net.cpp:411] im_info_input-data_1_split -> im_info_input-data_1_split_1
I0625 15:10:43.494943 28260 net.cpp:411] im_info_input-data_1_split -> im_info_input-data_1_split_2
I0625 15:10:43.494966 28260 net.cpp:150] Setting up im_info_input-data_1_split
I0625 15:10:43.494971 28260 net.cpp:157] Top shape: 1 3 (3)
I0625 15:10:43.494972 28260 net.cpp:157] Top shape: 1 3 (3)
I0625 15:10:43.494974 28260 net.cpp:157] Top shape: 1 3 (3)
I0625 15:10:43.494976 28260 net.cpp:165] Memory required for data: 21600076
I0625 15:10:43.494977 28260 layer_factory.hpp:77] Creating layer gt_boxes_input-data_2_split
I0625 15:10:43.494980 28260 net.cpp:106] Creating Layer gt_boxes_input-data_2_split
I0625 15:10:43.494982 28260 net.cpp:454] gt_boxes_input-data_2_split <- gt_boxes
I0625 15:10:43.494985 28260 net.cpp:411] gt_boxes_input-data_2_split -> gt_boxes_input-data_2_split_0
I0625 15:10:43.494988 28260 net.cpp:411] gt_boxes_input-data_2_split -> gt_boxes_input-data_2_split_1
I0625 15:10:43.495007 28260 net.cpp:150] Setting up gt_boxes_input-data_2_split
I0625 15:10:43.495009 28260 net.cpp:157] Top shape: 1 4 (4)
I0625 15:10:43.495012 28260 net.cpp:157] Top shape: 1 4 (4)
I0625 15:10:43.495012 28260 net.cpp:165] Memory required for data: 21600108
I0625 15:10:43.495014 28260 layer_factory.hpp:77] Creating layer conv1_1
I0625 15:10:43.495023 28260 net.cpp:106] Creating Layer conv1_1
I0625 15:10:43.495023 28260 net.cpp:454] conv1_1 <- data_input-data_0_split_0
I0625 15:10:43.495028 28260 net.cpp:411] conv1_1 -> conv1_1
I0625 15:10:44.039705 28260 net.cpp:150] Setting up conv1_1
I0625 15:10:44.039734 28260 net.cpp:157] Top shape: 1 64 600 1000 (38400000)
I0625 15:10:44.039736 28260 net.cpp:165] Memory required for data: 175200108
I0625 15:10:44.039747 28260 layer_factory.hpp:77] Creating layer relu1_1
I0625 15:10:44.039767 28260 net.cpp:106] Creating Layer relu1_1
I0625 15:10:44.039769 28260 net.cpp:454] relu1_1 <- conv1_1
I0625 15:10:44.039773 28260 net.cpp:397] relu1_1 -> conv1_1 (in-place)
I0625 15:10:44.039916 28260 net.cpp:150] Setting up relu1_1
I0625 15:10:44.039922 28260 net.cpp:157] Top shape: 1 64 600 1000 (38400000)
I0625 15:10:44.039924 28260 net.cpp:165] Memory required for data: 328800108
I0625 15:10:44.039927 28260 layer_factory.hpp:77] Creating layer conv1_2
I0625 15:10:44.039933 28260 net.cpp:106] Creating Layer conv1_2
I0625 15:10:44.039935 28260 net.cpp:454] conv1_2 <- conv1_1
I0625 15:10:44.039938 28260 net.cpp:411] conv1_2 -> conv1_2
I0625 15:10:44.042170 28260 net.cpp:150] Setting up conv1_2
I0625 15:10:44.042181 28260 net.cpp:157] Top shape: 1 64 600 1000 (38400000)
I0625 15:10:44.042182 28260 net.cpp:165] Memory required for data: 482400108
I0625 15:10:44.042201 28260 layer_factory.hpp:77] Creating layer relu1_2
I0625 15:10:44.042207 28260 net.cpp:106] Creating Layer relu1_2
I0625 15:10:44.042209 28260 net.cpp:454] relu1_2 <- conv1_2
I0625 15:10:44.042222 28260 net.cpp:397] relu1_2 -> conv1_2 (in-place)
I0625 15:10:44.042357 28260 net.cpp:150] Setting up relu1_2
I0625 15:10:44.042363 28260 net.cpp:157] Top shape: 1 64 600 1000 (38400000)
I0625 15:10:44.042366 28260 net.cpp:165] Memory required for data: 636000108
I0625 15:10:44.042367 28260 layer_factory.hpp:77] Creating layer pool1
I0625 15:10:44.042373 28260 net.cpp:106] Creating Layer pool1
I0625 15:10:44.042376 28260 net.cpp:454] pool1 <- conv1_2
I0625 15:10:44.042379 28260 net.cpp:411] pool1 -> pool1
I0625 15:10:44.043037 28260 net.cpp:150] Setting up pool1
I0625 15:10:44.043042 28260 net.cpp:157] Top shape: 1 64 300 500 (9600000)
I0625 15:10:44.043045 28260 net.cpp:165] Memory required for data: 674400108
I0625 15:10:44.043046 28260 layer_factory.hpp:77] Creating layer conv2_1
I0625 15:10:44.043052 28260 net.cpp:106] Creating Layer conv2_1
I0625 15:10:44.043054 28260 net.cpp:454] conv2_1 <- pool1
I0625 15:10:44.043057 28260 net.cpp:411] conv2_1 -> conv2_1
I0625 15:10:44.044814 28260 net.cpp:150] Setting up conv2_1
I0625 15:10:44.044822 28260 net.cpp:157] Top shape: 1 128 300 500 (19200000)
I0625 15:10:44.044824 28260 net.cpp:165] Memory required for data: 751200108
I0625 15:10:44.044831 28260 layer_factory.hpp:77] Creating layer relu2_1
I0625 15:10:44.044836 28260 net.cpp:106] Creating Layer relu2_1
I0625 15:10:44.044837 28260 net.cpp:454] relu2_1 <- conv2_1
I0625 15:10:44.044840 28260 net.cpp:397] relu2_1 -> conv2_1 (in-place)
I0625 15:10:44.045301 28260 net.cpp:150] Setting up relu2_1
I0625 15:10:44.045308 28260 net.cpp:157] Top shape: 1 128 300 500 (19200000)
I0625 15:10:44.045311 28260 net.cpp:165] Memory required for data: 828000108
I0625 15:10:44.045313 28260 layer_factory.hpp:77] Creating layer conv2_2
I0625 15:10:44.045320 28260 net.cpp:106] Creating Layer conv2_2
I0625 15:10:44.045322 28260 net.cpp:454] conv2_2 <- conv2_1
I0625 15:10:44.045326 28260 net.cpp:411] conv2_2 -> conv2_2
I0625 15:10:44.047467 28260 net.cpp:150] Setting up conv2_2
I0625 15:10:44.047478 28260 net.cpp:157] Top shape: 1 128 300 500 (19200000)
I0625 15:10:44.047480 28260 net.cpp:165] Memory required for data: 904800108
I0625 15:10:44.047485 28260 layer_factory.hpp:77] Creating layer relu2_2
I0625 15:10:44.047489 28260 net.cpp:106] Creating Layer relu2_2
I0625 15:10:44.047492 28260 net.cpp:454] relu2_2 <- conv2_2
I0625 15:10:44.047497 28260 net.cpp:397] relu2_2 -> conv2_2 (in-place)
I0625 15:10:44.047621 28260 net.cpp:150] Setting up relu2_2
I0625 15:10:44.047627 28260 net.cpp:157] Top shape: 1 128 300 500 (19200000)
I0625 15:10:44.047629 28260 net.cpp:165] Memory required for data: 981600108
I0625 15:10:44.047631 28260 layer_factory.hpp:77] Creating layer pool2
I0625 15:10:44.047637 28260 net.cpp:106] Creating Layer pool2
I0625 15:10:44.047641 28260 net.cpp:454] pool2 <- conv2_2
I0625 15:10:44.047646 28260 net.cpp:411] pool2 -> pool2
I0625 15:10:44.047684 28260 net.cpp:150] Setting up pool2
I0625 15:10:44.047691 28260 net.cpp:157] Top shape: 1 128 150 250 (4800000)
I0625 15:10:44.047694 28260 net.cpp:165] Memory required for data: 1000800108
I0625 15:10:44.047698 28260 layer_factory.hpp:77] Creating layer conv3_1
I0625 15:10:44.047706 28260 net.cpp:106] Creating Layer conv3_1
I0625 15:10:44.047709 28260 net.cpp:454] conv3_1 <- pool2
I0625 15:10:44.047716 28260 net.cpp:411] conv3_1 -> conv3_1
I0625 15:10:44.050170 28260 net.cpp:150] Setting up conv3_1
I0625 15:10:44.050179 28260 net.cpp:157] Top shape: 1 256 150 250 (9600000)
I0625 15:10:44.050181 28260 net.cpp:165] Memory required for data: 1039200108
I0625 15:10:44.050189 28260 layer_factory.hpp:77] Creating layer relu3_1
I0625 15:10:44.050194 28260 net.cpp:106] Creating Layer relu3_1
I0625 15:10:44.050195 28260 net.cpp:454] relu3_1 <- conv3_1
I0625 15:10:44.050199 28260 net.cpp:397] relu3_1 -> conv3_1 (in-place)
I0625 15:10:44.050343 28260 net.cpp:150] Setting up relu3_1
I0625 15:10:44.050350 28260 net.cpp:157] Top shape: 1 256 150 250 (9600000)
I0625 15:10:44.050352 28260 net.cpp:165] Memory required for data: 1077600108
I0625 15:10:44.050354 28260 layer_factory.hpp:77] Creating layer conv3_2
I0625 15:10:44.050361 28260 net.cpp:106] Creating Layer conv3_2
I0625 15:10:44.050364 28260 net.cpp:454] conv3_2 <- conv3_1
I0625 15:10:44.050367 28260 net.cpp:411] conv3_2 -> conv3_2
I0625 15:10:44.052557 28260 net.cpp:150] Setting up conv3_2
I0625 15:10:44.052567 28260 net.cpp:157] Top shape: 1 256 150 250 (9600000)
I0625 15:10:44.052567 28260 net.cpp:165] Memory required for data: 1116000108
I0625 15:10:44.052572 28260 layer_factory.hpp:77] Creating layer relu3_2
I0625 15:10:44.052575 28260 net.cpp:106] Creating Layer relu3_2
I0625 15:10:44.052578 28260 net.cpp:454] relu3_2 <- conv3_2
I0625 15:10:44.052582 28260 net.cpp:397] relu3_2 -> conv3_2 (in-place)
I0625 15:10:44.052709 28260 net.cpp:150] Setting up relu3_2
I0625 15:10:44.052716 28260 net.cpp:157] Top shape: 1 256 150 250 (9600000)
I0625 15:10:44.052717 28260 net.cpp:165] Memory required for data: 1154400108
I0625 15:10:44.052719 28260 layer_factory.hpp:77] Creating layer conv3_3
I0625 15:10:44.052724 28260 net.cpp:106] Creating Layer conv3_3
I0625 15:10:44.052726 28260 net.cpp:454] conv3_3 <- conv3_2
I0625 15:10:44.052729 28260 net.cpp:411] conv3_3 -> conv3_3
I0625 15:10:44.054888 28260 net.cpp:150] Setting up conv3_3
I0625 15:10:44.054898 28260 net.cpp:157] Top shape: 1 256 150 250 (9600000)
I0625 15:10:44.054899 28260 net.cpp:165] Memory required for data: 1192800108
I0625 15:10:44.054904 28260 layer_factory.hpp:77] Creating layer relu3_3
I0625 15:10:44.054908 28260 net.cpp:106] Creating Layer relu3_3
I0625 15:10:44.054910 28260 net.cpp:454] relu3_3 <- conv3_3
I0625 15:10:44.054913 28260 net.cpp:397] relu3_3 -> conv3_3 (in-place)
I0625 15:10:44.055059 28260 net.cpp:150] Setting up relu3_3
I0625 15:10:44.055068 28260 net.cpp:157] Top shape: 1 256 150 250 (9600000)
I0625 15:10:44.055070 28260 net.cpp:165] Memory required for data: 1231200108
I0625 15:10:44.055073 28260 layer_factory.hpp:77] Creating layer pool3
I0625 15:10:44.055079 28260 net.cpp:106] Creating Layer pool3
I0625 15:10:44.055083 28260 net.cpp:454] pool3 <- conv3_3
I0625 15:10:44.055088 28260 net.cpp:411] pool3 -> pool3
I0625 15:10:44.055124 28260 net.cpp:150] Setting up pool3
I0625 15:10:44.055131 28260 net.cpp:157] Top shape: 1 256 75 125 (2400000)
I0625 15:10:44.055135 28260 net.cpp:165] Memory required for data: 1240800108
I0625 15:10:44.055140 28260 layer_factory.hpp:77] Creating layer conv4_1
I0625 15:10:44.055157 28260 net.cpp:106] Creating Layer conv4_1
I0625 15:10:44.055161 28260 net.cpp:454] conv4_1 <- pool3
I0625 15:10:44.055178 28260 net.cpp:411] conv4_1 -> conv4_1
I0625 15:10:44.059530 28260 net.cpp:150] Setting up conv4_1
I0625 15:10:44.059552 28260 net.cpp:157] Top shape: 1 512 75 125 (4800000)
I0625 15:10:44.059556 28260 net.cpp:165] Memory required for data: 1260000108
I0625 15:10:44.059574 28260 layer_factory.hpp:77] Creating layer relu4_1
I0625 15:10:44.059592 28260 net.cpp:106] Creating Layer relu4_1
I0625 15:10:44.059598 28260 net.cpp:454] relu4_1 <- conv4_1
I0625 15:10:44.059612 28260 net.cpp:397] relu4_1 -> conv4_1 (in-place)
I0625 15:10:44.059794 28260 net.cpp:150] Setting up relu4_1
I0625 15:10:44.059803 28260 net.cpp:157] Top shape: 1 512 75 125 (4800000)
I0625 15:10:44.059806 28260 net.cpp:165] Memory required for data: 1279200108
I0625 15:10:44.059808 28260 layer_factory.hpp:77] Creating layer conv4_2
I0625 15:10:44.059818 28260 net.cpp:106] Creating Layer conv4_2
I0625 15:10:44.059830 28260 net.cpp:454] conv4_2 <- conv4_1
I0625 15:10:44.059839 28260 net.cpp:411] conv4_2 -> conv4_2
I0625 15:10:44.065202 28260 net.cpp:150] Setting up conv4_2
I0625 15:10:44.065222 28260 net.cpp:157] Top shape: 1 512 75 125 (4800000)
I0625 15:10:44.065225 28260 net.cpp:165] Memory required for data: 1298400108
I0625 15:10:44.065235 28260 layer_factory.hpp:77] Creating layer relu4_2
I0625 15:10:44.065253 28260 net.cpp:106] Creating Layer relu4_2
I0625 15:10:44.065256 28260 net.cpp:454] relu4_2 <- conv4_2
I0625 15:10:44.065260 28260 net.cpp:397] relu4_2 -> conv4_2 (in-place)
I0625 15:10:44.065726 28260 net.cpp:150] Setting up relu4_2
I0625 15:10:44.065733 28260 net.cpp:157] Top shape: 1 512 75 125 (4800000)
I0625 15:10:44.065745 28260 net.cpp:165] Memory required for data: 1317600108
I0625 15:10:44.065747 28260 layer_factory.hpp:77] Creating layer conv4_3
I0625 15:10:44.065763 28260 net.cpp:106] Creating Layer conv4_3
I0625 15:10:44.065766 28260 net.cpp:454] conv4_3 <- conv4_2
I0625 15:10:44.065770 28260 net.cpp:411] conv4_3 -> conv4_3
I0625 15:10:44.070107 28260 net.cpp:150] Setting up conv4_3
I0625 15:10:44.070127 28260 net.cpp:157] Top shape: 1 512 75 125 (4800000)
I0625 15:10:44.070128 28260 net.cpp:165] Memory required for data: 1336800108
I0625 15:10:44.070134 28260 layer_factory.hpp:77] Creating layer relu4_3
I0625 15:10:44.070142 28260 net.cpp:106] Creating Layer relu4_3
I0625 15:10:44.070156 28260 net.cpp:454] relu4_3 <- conv4_3
I0625 15:10:44.070161 28260 net.cpp:397] relu4_3 -> conv4_3 (in-place)
I0625 15:10:44.070307 28260 net.cpp:150] Setting up relu4_3
I0625 15:10:44.070312 28260 net.cpp:157] Top shape: 1 512 75 125 (4800000)
I0625 15:10:44.070313 28260 net.cpp:165] Memory required for data: 1356000108
I0625 15:10:44.070315 28260 layer_factory.hpp:77] Creating layer pool4
I0625 15:10:44.070320 28260 net.cpp:106] Creating Layer pool4
I0625 15:10:44.070322 28260 net.cpp:454] pool4 <- conv4_3
I0625 15:10:44.070325 28260 net.cpp:411] pool4 -> pool4
I0625 15:10:44.070371 28260 net.cpp:150] Setting up pool4
I0625 15:10:44.070374 28260 net.cpp:157] Top shape: 1 512 38 63 (1225728)
I0625 15:10:44.070376 28260 net.cpp:165] Memory required for data: 1360903020
I0625 15:10:44.070377 28260 layer_factory.hpp:77] Creating layer conv5_1
I0625 15:10:44.070384 28260 net.cpp:106] Creating Layer conv5_1
I0625 15:10:44.070384 28260 net.cpp:454] conv5_1 <- pool4
I0625 15:10:44.070389 28260 net.cpp:411] conv5_1 -> conv5_1
I0625 15:10:44.075039 28260 net.cpp:150] Setting up conv5_1
I0625 15:10:44.075069 28260 net.cpp:157] Top shape: 1 512 38 63 (1225728)
I0625 15:10:44.075073 28260 net.cpp:165] Memory required for data: 1365805932
I0625 15:10:44.075079 28260 layer_factory.hpp:77] Creating layer relu5_1
I0625 15:10:44.075088 28260 net.cpp:106] Creating Layer relu5_1
I0625 15:10:44.075091 28260 net.cpp:454] relu5_1 <- conv5_1
I0625 15:10:44.075095 28260 net.cpp:397] relu5_1 -> conv5_1 (in-place)
I0625 15:10:44.075222 28260 net.cpp:150] Setting up relu5_1
I0625 15:10:44.075227 28260 net.cpp:157] Top shape: 1 512 38 63 (1225728)
I0625 15:10:44.075229 28260 net.cpp:165] Memory required for data: 1370708844
I0625 15:10:44.075242 28260 layer_factory.hpp:77] Creating layer conv5_2
I0625 15:10:44.075249 28260 net.cpp:106] Creating Layer conv5_2
I0625 15:10:44.075251 28260 net.cpp:454] conv5_2 <- conv5_1
I0625 15:10:44.075254 28260 net.cpp:411] conv5_2 -> conv5_2
I0625 15:10:44.080749 28260 net.cpp:150] Setting up conv5_2
I0625 15:10:44.080780 28260 net.cpp:157] Top shape: 1 512 38 63 (1225728)
I0625 15:10:44.080782 28260 net.cpp:165] Memory required for data: 1375611756
I0625 15:10:44.080790 28260 layer_factory.hpp:77] Creating layer relu5_2
I0625 15:10:44.080797 28260 net.cpp:106] Creating Layer relu5_2
I0625 15:10:44.080811 28260 net.cpp:454] relu5_2 <- conv5_2
I0625 15:10:44.080814 28260 net.cpp:397] relu5_2 -> conv5_2 (in-place)
I0625 15:10:44.080942 28260 net.cpp:150] Setting up relu5_2
I0625 15:10:44.080947 28260 net.cpp:157] Top shape: 1 512 38 63 (1225728)
I0625 15:10:44.080950 28260 net.cpp:165] Memory required for data: 1380514668
I0625 15:10:44.080951 28260 layer_factory.hpp:77] Creating layer conv5_3
I0625 15:10:44.080969 28260 net.cpp:106] Creating Layer conv5_3
I0625 15:10:44.080972 28260 net.cpp:454] conv5_3 <- conv5_2
I0625 15:10:44.080976 28260 net.cpp:411] conv5_3 -> conv5_3
I0625 15:10:44.085767 28260 net.cpp:150] Setting up conv5_3
I0625 15:10:44.085788 28260 net.cpp:157] Top shape: 1 512 38 63 (1225728)
I0625 15:10:44.085789 28260 net.cpp:165] Memory required for data: 1385417580
I0625 15:10:44.085798 28260 layer_factory.hpp:77] Creating layer relu5_3
I0625 15:10:44.085806 28260 net.cpp:106] Creating Layer relu5_3
I0625 15:10:44.085810 28260 net.cpp:454] relu5_3 <- conv5_3
I0625 15:10:44.085814 28260 net.cpp:397] relu5_3 -> conv5_3 (in-place)
I0625 15:10:44.085938 28260 net.cpp:150] Setting up relu5_3
I0625 15:10:44.085944 28260 net.cpp:157] Top shape: 1 512 38 63 (1225728)
I0625 15:10:44.085945 28260 net.cpp:165] Memory required for data: 1390320492
I0625 15:10:44.085958 28260 layer_factory.hpp:77] Creating layer conv5_3_relu5_3_0_split
I0625 15:10:44.085961 28260 net.cpp:106] Creating Layer conv5_3_relu5_3_0_split
I0625 15:10:44.085963 28260 net.cpp:454] conv5_3_relu5_3_0_split <- conv5_3
I0625 15:10:44.085966 28260 net.cpp:411] conv5_3_relu5_3_0_split -> conv5_3_relu5_3_0_split_0
I0625 15:10:44.085970 28260 net.cpp:411] conv5_3_relu5_3_0_split -> conv5_3_relu5_3_0_split_1
I0625 15:10:44.085974 28260 net.cpp:411] conv5_3_relu5_3_0_split -> conv5_3_relu5_3_0_split_2
I0625 15:10:44.086016 28260 net.cpp:150] Setting up conv5_3_relu5_3_0_split
I0625 15:10:44.086019 28260 net.cpp:157] Top shape: 1 512 38 63 (1225728)
I0625 15:10:44.086032 28260 net.cpp:157] Top shape: 1 512 38 63 (1225728)
I0625 15:10:44.086035 28260 net.cpp:157] Top shape: 1 512 38 63 (1225728)
I0625 15:10:44.086035 28260 net.cpp:165] Memory required for data: 1405029228
I0625 15:10:44.086037 28260 layer_factory.hpp:77] Creating layer rpn_conv/3x3
I0625 15:10:44.086043 28260 net.cpp:106] Creating Layer rpn_conv/3x3
I0625 15:10:44.086046 28260 net.cpp:454] rpn_conv/3x3 <- conv5_3_relu5_3_0_split_0
I0625 15:10:44.086050 28260 net.cpp:411] rpn_conv/3x3 -> rpn/output
I0625 15:10:44.139093 28260 net.cpp:150] Setting up rpn_conv/3x3
I0625 15:10:44.139111 28260 net.cpp:157] Top shape: 1 512 38 63 (1225728)
I0625 15:10:44.139113 28260 net.cpp:165] Memory required for data: 1409932140
I0625 15:10:44.139120 28260 layer_factory.hpp:77] Creating layer rpn_relu/3x3
I0625 15:10:44.139127 28260 net.cpp:106] Creating Layer rpn_relu/3x3
I0625 15:10:44.139130 28260 net.cpp:454] rpn_relu/3x3 <- rpn/output
I0625 15:10:44.139134 28260 net.cpp:397] rpn_relu/3x3 -> rpn/output (in-place)
I0625 15:10:44.139287 28260 net.cpp:150] Setting up rpn_relu/3x3
I0625 15:10:44.139293 28260 net.cpp:157] Top shape: 1 512 38 63 (1225728)
I0625 15:10:44.139295 28260 net.cpp:165] Memory required for data: 1414835052
I0625 15:10:44.139297 28260 layer_factory.hpp:77] Creating layer rpn/output_rpn_relu/3x3_0_split
I0625 15:10:44.139300 28260 net.cpp:106] Creating Layer rpn/output_rpn_relu/3x3_0_split
I0625 15:10:44.139302 28260 net.cpp:454] rpn/output_rpn_relu/3x3_0_split <- rpn/output
I0625 15:10:44.139305 28260 net.cpp:411] rpn/output_rpn_relu/3x3_0_split -> rpn/output_rpn_relu/3x3_0_split_0
I0625 15:10:44.139308 28260 net.cpp:411] rpn/output_rpn_relu/3x3_0_split -> rpn/output_rpn_relu/3x3_0_split_1
I0625 15:10:44.139369 28260 net.cpp:150] Setting up rpn/output_rpn_relu/3x3_0_split
I0625 15:10:44.139374 28260 net.cpp:157] Top shape: 1 512 38 63 (1225728)
I0625 15:10:44.139385 28260 net.cpp:157] Top shape: 1 512 38 63 (1225728)
I0625 15:10:44.139386 28260 net.cpp:165] Memory required for data: 1424640876
I0625 15:10:44.139389 28260 layer_factory.hpp:77] Creating layer rpn_cls_score
I0625 15:10:44.139407 28260 net.cpp:106] Creating Layer rpn_cls_score
I0625 15:10:44.139410 28260 net.cpp:454] rpn_cls_score <- rpn/output_rpn_relu/3x3_0_split_0
I0625 15:10:44.139413 28260 net.cpp:411] rpn_cls_score -> rpn_cls_score
I0625 15:10:44.140938 28260 net.cpp:150] Setting up rpn_cls_score
I0625 15:10:44.140946 28260 net.cpp:157] Top shape: 1 30 38 63 (71820)
I0625 15:10:44.140949 28260 net.cpp:165] Memory required for data: 1424928156
I0625 15:10:44.140952 28260 layer_factory.hpp:77] Creating layer rpn_cls_score_rpn_cls_score_0_split
I0625 15:10:44.140955 28260 net.cpp:106] Creating Layer rpn_cls_score_rpn_cls_score_0_split
I0625 15:10:44.140957 28260 net.cpp:454] rpn_cls_score_rpn_cls_score_0_split <- rpn_cls_score
I0625 15:10:44.140960 28260 net.cpp:411] rpn_cls_score_rpn_cls_score_0_split -> rpn_cls_score_rpn_cls_score_0_split_0
I0625 15:10:44.140964 28260 net.cpp:411] rpn_cls_score_rpn_cls_score_0_split -> rpn_cls_score_rpn_cls_score_0_split_1
I0625 15:10:44.141024 28260 net.cpp:150] Setting up rpn_cls_score_rpn_cls_score_0_split
I0625 15:10:44.141027 28260 net.cpp:157] Top shape: 1 30 38 63 (71820)
I0625 15:10:44.141038 28260 net.cpp:157] Top shape: 1 30 38 63 (71820)
I0625 15:10:44.141041 28260 net.cpp:165] Memory required for data: 1425502716
I0625 15:10:44.141041 28260 layer_factory.hpp:77] Creating layer rpn_bbox_pred
I0625 15:10:44.141058 28260 net.cpp:106] Creating Layer rpn_bbox_pred
I0625 15:10:44.141060 28260 net.cpp:454] rpn_bbox_pred <- rpn/output_rpn_relu/3x3_0_split_1
I0625 15:10:44.141065 28260 net.cpp:411] rpn_bbox_pred -> rpn_bbox_pred
I0625 15:10:44.142577 28260 net.cpp:150] Setting up rpn_bbox_pred
I0625 15:10:44.142585 28260 net.cpp:157] Top shape: 1 60 38 63 (143640)
I0625 15:10:44.142586 28260 net.cpp:165] Memory required for data: 1426077276
I0625 15:10:44.142590 28260 layer_factory.hpp:77] Creating layer rpn_bbox_pred_rpn_bbox_pred_0_split
I0625 15:10:44.142593 28260 net.cpp:106] Creating Layer rpn_bbox_pred_rpn_bbox_pred_0_split
I0625 15:10:44.142596 28260 net.cpp:454] rpn_bbox_pred_rpn_bbox_pred_0_split <- rpn_bbox_pred
I0625 15:10:44.142599 28260 net.cpp:411] rpn_bbox_pred_rpn_bbox_pred_0_split -> rpn_bbox_pred_rpn_bbox_pred_0_split_0
I0625 15:10:44.142613 28260 net.cpp:411] rpn_bbox_pred_rpn_bbox_pred_0_split -> rpn_bbox_pred_rpn_bbox_pred_0_split_1
I0625 15:10:44.142662 28260 net.cpp:150] Setting up rpn_bbox_pred_rpn_bbox_pred_0_split
I0625 15:10:44.142665 28260 net.cpp:157] Top shape: 1 60 38 63 (143640)
I0625 15:10:44.142678 28260 net.cpp:157] Top shape: 1 60 38 63 (143640)
I0625 15:10:44.142679 28260 net.cpp:165] Memory required for data: 1427226396
I0625 15:10:44.142681 28260 layer_factory.hpp:77] Creating layer rpn_cls_score_reshape
I0625 15:10:44.142699 28260 net.cpp:106] Creating Layer rpn_cls_score_reshape
I0625 15:10:44.142702 28260 net.cpp:454] rpn_cls_score_reshape <- rpn_cls_score_rpn_cls_score_0_split_0
I0625 15:10:44.142705 28260 net.cpp:411] rpn_cls_score_reshape -> rpn_cls_score_reshape
I0625 15:10:44.142740 28260 net.cpp:150] Setting up rpn_cls_score_reshape
I0625 15:10:44.142745 28260 net.cpp:157] Top shape: 1 2 570 63 (71820)
I0625 15:10:44.142755 28260 net.cpp:165] Memory required for data: 1427513676
I0625 15:10:44.142756 28260 layer_factory.hpp:77] Creating layer rpn_cls_score_reshape_rpn_cls_score_reshape_0_split
I0625 15:10:44.142758 28260 net.cpp:106] Creating Layer rpn_cls_score_reshape_rpn_cls_score_reshape_0_split
I0625 15:10:44.142761 28260 net.cpp:454] rpn_cls_score_reshape_rpn_cls_score_reshape_0_split <- rpn_cls_score_reshape
I0625 15:10:44.142773 28260 net.cpp:411] rpn_cls_score_reshape_rpn_cls_score_reshape_0_split -> rpn_cls_score_reshape_rpn_cls_score_reshape_0_split_0
I0625 15:10:44.142777 28260 net.cpp:411] rpn_cls_score_reshape_rpn_cls_score_reshape_0_split -> rpn_cls_score_reshape_rpn_cls_score_reshape_0_split_1
I0625 15:10:44.142820 28260 net.cpp:150] Setting up rpn_cls_score_reshape_rpn_cls_score_reshape_0_split
I0625 15:10:44.142823 28260 net.cpp:157] Top shape: 1 2 570 63 (71820)
I0625 15:10:44.142825 28260 net.cpp:157] Top shape: 1 2 570 63 (71820)
I0625 15:10:44.142827 28260 net.cpp:165] Memory required for data: 1428088236
I0625 15:10:44.142828 28260 layer_factory.hpp:77] Creating layer rpn-data
I0625 15:10:44.143816 28260 net.cpp:106] Creating Layer rpn-data
I0625 15:10:44.143823 28260 net.cpp:454] rpn-data <- rpn_cls_score_rpn_cls_score_0_split_1
I0625 15:10:44.143827 28260 net.cpp:454] rpn-data <- gt_boxes_input-data_2_split_0
I0625 15:10:44.143831 28260 net.cpp:454] rpn-data <- im_info_input-data_1_split_0
I0625 15:10:44.143833 28260 net.cpp:454] rpn-data <- data_input-data_0_split_1
I0625 15:10:44.143837 28260 net.cpp:411] rpn-data -> rpn_labels
I0625 15:10:44.143841 28260 net.cpp:411] rpn-data -> rpn_bbox_targets
I0625 15:10:44.143846 28260 net.cpp:411] rpn-data -> rpn_bbox_inside_weights
I0625 15:10:44.143851 28260 net.cpp:411] rpn-data -> rpn_bbox_outside_weights
===================================anchor_scales in AnchorTargetLayer:=============(2, 4, 8, 16, 32)
I0625 15:10:44.144909 28260 net.cpp:150] Setting up rpn-data
I0625 15:10:44.144918 28260 net.cpp:157] Top shape: 1 1 570 63 (35910)
I0625 15:10:44.144922 28260 net.cpp:157] Top shape: 1 60 38 63 (143640)
I0625 15:10:44.144923 28260 net.cpp:157] Top shape: 1 60 38 63 (143640)
I0625 15:10:44.144925 28260 net.cpp:157] Top shape: 1 60 38 63 (143640)
I0625 15:10:44.144927 28260 net.cpp:165] Memory required for data: 1429955556
I0625 15:10:44.144928 28260 layer_factory.hpp:77] Creating layer rpn_loss_cls
I0625 15:10:44.144933 28260 net.cpp:106] Creating Layer rpn_loss_cls
I0625 15:10:44.144937 28260 net.cpp:454] rpn_loss_cls <- rpn_cls_score_reshape_rpn_cls_score_reshape_0_split_0
I0625 15:10:44.144940 28260 net.cpp:454] rpn_loss_cls <- rpn_labels
…
