…
average_loss: 100
iter_size: 2
I0604 18:03:42.852442  7870 solver.cpp:81] Creating training net from train_net file: models/pascal_voc/VGG16/faster_rcnn_end2end/train.prototxt
I0604 18:03:42.853981  7870 net.cpp:49] Initializing net from parameters: 
name: "VGG_ILSVRC_16_layers"
state {
  phase: TRAIN
}
layer {
  name: "input-data"
  type: "Python"
  top: "data"
  top: "im_info"
  top: "gt_boxes"
  top: "seg_mask_inds"
  top: "flipped"
  python_param {
    module: "roi_data_layer.layer"
    layer: "RoIDataLayer"
    param_str: "\'num_classes\': 2"
  }
}
layer {
  name: "conv1_1"
  type: "Convolution"
  bottom: "data"
  top: "conv1_1"
  param {
    lr_mult: 0
    decay_mult: 0
  }
  param {
    lr_mult: 0
    decay_mult: 0
  }
  convolution_param {
    num_output: 64
    pad: 1
    kernel_size: 3
  }
}
layer {
  name: "relu1_1"
  type: "ReLU"
  bottom: "conv1_1"
  top: "conv1_1"
}
layer {
  name: "conv1_2"
  type: "Convolution"
  bottom: "conv1_1"
  top: "conv1_2"
  param {
    lr_mult: 0
    decay_mult: 0
  }
  param {
    lr_mult: 0
    decay_mult: 0
  }
  convolution_param {
    num_output: 64
    pad: 1
    kernel_size: 3
  }
}
layer {
  name: "relu1_2"
  type: "ReLU"
  bottom: "conv1_2"
  top: "conv1_2"
}
layer {
  name: "pool1"
  type: "Pooling"
  bottom: "conv1_2"
  top: "pool1"
  pooling_param {
    pool: MAX
    kernel_size: 2
    stride: 2
  }
}
layer {
  name: "conv2_1"
  type: "Convolution"
  bottom: "pool1"
  top: "conv2_1"
  param {
    lr_mult: 0
    decay_mult: 0
  }
  param {
    lr_mult: 0
    decay_mult: 0
  }
  convolution_param {
    num_output: 128
    pad: 1
    kernel_size: 3
  }
}
layer {
  name: "relu2_1"
  type: "ReLU"
  bottom: "conv2_1"
  top: "conv2_1"
}
layer {
  name: "conv2_2"
  type: "Convolution"
  bottom: "conv2_1"
  top: "conv2_2"
  param {
    lr_mult: 0
    decay_mult: 0
  }
  param {
    lr_mult: 0
    decay_mult: 0
  }
  convolution_param {
    num_output: 128
    pad: 1
    kernel_size: 3
  }
}
layer {
  name: "relu2_2"
  type: "ReLU"
  bottom: "conv2_2"
  top: "conv2_2"
}
layer {
  name: "pool2"
  type: "Pooling"
  bottom: "conv2_2"
  top: "pool2"
  pooling_param {
    pool: MAX
    kernel_size: 2
    stride: 2
  }
}
layer {
  name: "conv3_1"
  type: "Convolution"
  bottom: "pool2"
  top: "conv3_1"
  param {
    lr_mult: 1
  }
  param {
    lr_mult: 2
  }
  convolution_param {
    num_output: 256
    pad: 1
    kernel_size: 3
  }
}
layer {
  name: "relu3_1"
  type: "ReLU"
  bottom: "conv3_1"
  top: "conv3_1"
}
layer {
  name: "conv3_2"
  type: "Convolution"
  bottom: "conv3_1"
  top: "conv3_2"
  param {
    lr_mult: 1
  }
  param {
    lr_mult: 2
  }
  convolution_param {
    num_output: 256
    pad: 1
    kernel_size: 3
  }
}
layer {
  name: "relu3_2"
  type: "ReLU"
  bottom: "conv3_2"
  top: "conv3_2"
}
layer {
  name: "conv3_3"
  type: "Convolution"
  bottom: "conv3_2"
  top: "conv3_3"
  param {
    lr_mult: 1
  }
  param {
    lr_mult: 2
  }
  convolution_param {
    num_output: 256
    pad: 1
    kernel_size: 3
  }
}
layer {
  name: "relu3_3"
  type: "ReLU"
  bottom: "conv3_3"
  top: "conv3_3"
}
layer {
  name: "pool3"
  type: "Pooling"
  bottom: "conv3_3"
  top: "pool3"
  pooling_param {
    pool: MAX
    kernel_size: 2
    stride: 2
  }
}
layer {
  name: "conv4_1"
  type: "Convolution"
  bottom: "pool3"
  top: "conv4_1"
  param {
    lr_mult: 1
  }
  param {
    lr_mult: 2
  }
  convolution_param {
    num_output: 512
    pad: 1
    kernel_size: 3
  }
}
layer {
  name: "relu4_1"
  type: "ReLU"
  bottom: "conv4_1"
  top: "conv4_1"
}
layer {
  name: "conv4_2"
  type: "Convolution"
  bottom: "conv4_1"
  top: "conv4_2"
  param {
    lr_mult: 1
  }
  param {
    lr_mult: 2
  }
  convolution_param {
    num_output: 512
    pad: 1
    kernel_size: 3
  }
}
layer {
  name: "relu4_2"
  type: "ReLU"
  bottom: "conv4_2"
  top: "conv4_2"
}
layer {
  name: "conv4_3"
  type: "Convolution"
  bottom: "conv4_2"
  top: "conv4_3"
  param {
    lr_mult: 1
  }
  param {
    lr_mult: 2
  }
  convolution_param {
    num_output: 512
    pad: 1
    kernel_size: 3
  }
}
layer {
  name: "relu4_3"
  type: "ReLU"
  bottom: "conv4_3"
  top: "conv4_3"
}
layer {
  name: "pool4"
  type: "Pooling"
  bottom: "conv4_3"
  top: "pool4"
  pooling_param {
    pool: MAX
    kernel_size: 2
    stride: 2
  }
}
layer {
  name: "conv5_1"
  type: "Convolution"
  bottom: "pool4"
  top: "conv5_1"
  param {
    lr_mult: 1
  }
  param {
    lr_mult: 2
  }
  convolution_param {
    num_output: 512
    pad: 1
    kernel_size: 3
  }
}
layer {
  name: "relu5_1"
  type: "ReLU"
  bottom: "conv5_1"
  top: "conv5_1"
}
layer {
  name: "conv5_2"
  type: "Convolution"
  bottom: "conv5_1"
  top: "conv5_2"
  param {
    lr_mult: 1
  }
  param {
    lr_mult: 2
  }
  convolution_param {
    num_output: 512
    pad: 1
    kernel_size: 3
  }
}
layer {
  name: "relu5_2"
  type: "ReLU"
  bottom: "conv5_2"
  top: "conv5_2"
}
layer {
  name: "conv5_3"
  type: "Convolution"
  bottom: "conv5_2"
  top: "conv5_3"
  param {
    lr_mult: 1
  }
  param {
    lr_mult: 2
  }
  convolution_param {
    num_output: 512
    pad: 1
    kernel_size: 3
  }
}
layer {
  name: "relu5_3"
  type: "ReLU"
  bottom: "conv5_3"
  top: "conv5_3"
}
layer {
  name: "rpn_conv/3x3"
  type: "Convolution"
  bottom: "conv5_3"
  top: "rpn/output"
  param {
    lr_mult: 1
  }
  param {
    lr_mult: 2
  }
  convolution_param {
    num_output: 512
    pad: 1
    kernel_size: 3
    stride: 1
    weight_filler {
      type: "gaussian"
      std: 0.01
    }
    bias_filler {
      type: "constant"
      value: 0
    }
  }
}
layer {
  name: "rpn_relu/3x3"
  type: "ReLU"
  bottom: "rpn/output"
  top: "rpn/output"
}
layer {
  name: "rpn_cls_score"
  type: "Convolution"
  bottom: "rpn/output"
  top: "rpn_cls_score"
  param {
    lr_mult: 1
  }
  param {
    lr_mult: 2
  }
  convolution_param {
    num_output: 30
    pad: 0
    kernel_size: 1
    stride: 1
    weight_filler {
      type: "gaussian"
      std: 0.01
    }
    bias_filler {
      type: "constant"
      value: 0
    }
  }
}
layer {
  name: "rpn_bbox_pred"
  type: "Convolution"
  bottom: "rpn/output"
  top: "rpn_bbox_pred"
  param {
    lr_mult: 1
  }
  param {
    lr_mult: 2
  }
  convolution_param {
    num_output: 60
    pad: 0
    kernel_size: 1
    stride: 1
    weight_filler {
      type: "gaussian"
      std: 0.01
    }
    bias_filler {
      type: "constant"
      value: 0
    }
  }
}
layer {
  name: "rpn_cls_score_reshape"
  type: "Reshape"
  bottom: "rpn_cls_score"
  top: "rpn_cls_score_reshape"
  reshape_param {
    shape {
      dim: 0
      dim: 2
      dim: -1
      dim: 0
    }
  }
}
layer {
  name: "rpn-data"
  type: "Python"
  bottom: "rpn_cls_score"
  bottom: "gt_boxes"
  bottom: "im_info"
  bottom: "data"
  top: "rpn_labels"
  top: "rpn_bbox_targets"
  top: "rpn_bbox_inside_weights"
  top: "rpn_bbox_outside_weights"
  python_param {
    module: "rpn.anchor_target_layer"
    layer: "AnchorTargetLayer"
    param_str: "\'feat_stride\': 16 \n\'scales\': !!python/tuple [2, 4, 8, 16, 32]"
  }
}
layer {
  name: "rpn_loss_cls"
  type: "SoftmaxWithLoss"
  bottom: "rpn_cls_score_reshape"
  bottom: "rpn_labels"
  top: "rpn_cls_loss"
  loss_weight: 1
  propagate_down: true
  propagate_down: false
  loss_param {
    ignore_label: -1
    normalize: true
  }
}
layer {
  name: "rpn_loss_bbox"
  type: "SmoothL1Loss"
  bottom: "rpn_bbox_pred"
  bottom: "rpn_bbox_targets"
  bottom: "rpn_bbox_inside_weights"
  bottom: "rpn_bbox_outside_weights"
  top: "rpn_loss_bbox"
  loss_weight: 1
  smooth_l1_loss_param {
    sigma: 3
  }
}
layer {
  name: "rpn_cls_prob"
  type: "Softmax"
  bottom: "rpn_cls_score_reshape"
  top: "rpn_cls_prob"
}
layer {
  name: "rpn_cls_prob_reshape"
  type: "Reshape"
  bottom: "rpn_cls_prob"
  top: "rpn_cls_prob_reshape"
  reshape_param {
    shape {
      dim: 0
      dim: 30
      dim: -1
      dim: 0
    }
  }
}
layer {
  name: "proposal"
  type: "Python"
  bottom: "rpn_cls_prob_reshape"
  bottom: "rpn_bbox_pred"
  bottom: "im_info"
  top: "rpn_rois"
  python_param {
    module: "rpn.proposal_layer"
    layer: "ProposalLayer"
    param_str: "\'feat_stride\': 16 \n\'scales\': !!python/tuple [2, 4, 8, 16, 32]"
  }
}
layer {
  name: "roi-data"
  type: "Python"
  bottom: "rpn_rois"
  bottom: "gt_boxes"
  bottom: "im_info"
  bottom: "seg_mask_inds"
  bottom: "flipped"
  top: "rois"
  top: "labels"
  top: "bbox_targets"
  top: "bbox_inside_weights"
  top: "bbox_outside_weights"
  top: "mask_targets"
  top: "rois_pos"
  python_param {
    module: "rpn.proposal_target_layer"
    layer: "ProposalTargetLayer"
    param_str: "\'num_classes\': 2"
  }
}
layer {
  name: "roi_pool5"
  type: "ROIAlignment"
  bottom: "conv5_3"
  bottom: "rois"
  top: "pool5"
  roi_alignment_param {
    pooled_h: 7
    pooled_w: 7
    spatial_scale: 0.0625
  }
}
layer {
  name: "fc6"
  type: "InnerProduct"
  bottom: "pool5"
  top: "fc6"
  param {
    lr_mult: 1
  }
  param {
    lr_mult: 2
  }
  inner_product_param {
    num_output: 4096
  }
}
layer {
  name: "relu6"
  type: "ReLU"
  bottom: "fc6"
  top: "fc6"
}
layer {
  name: "fc7"
  type: "InnerProduct"
  bottom: "fc6"
  top: "fc7"
  param {
    lr_mult: 1
  }
  param {
    lr_mult: 2
  }
  inner_product_param {
    num_output: 4096
  }
}
layer {
  name: "relu7"
  type: "ReLU"
  bottom: "fc7"
  top: "fc7"
}
layer {
  name: "cls_score"
  type: "InnerProduct"
  bottom: "fc7"
  top: "cls_score"
  param {
    lr_mult: 1
  }
  param {
    lr_mult: 2
  }
  inner_product_param {
    num_output: 2
    weight_filler {
      type: "gaussian"
      std: 0.01
    }
    bias_filler {
      type: "constant"
      value: 0
    }
  }
}
layer {
  name: "bbox_pred"
  type: "InnerProduct"
  bottom: "fc7"
  top: "bbox_pred"
  param {
    lr_mult: 1
  }
  param {
    lr_mult: 2
  }
  inner_product_param {
    num_output: 8
    weight_filler {
      type: "gaussian"
      std: 0.001
    }
    bias_filler {
      type: "constant"
      value: 0
    }
  }
}
layer {
  name: "loss_cls"
  type: "SoftmaxWithLoss"
  bottom: "cls_score"
  bottom: "labels"
  top: "loss_cls"
  loss_weight: 3
  propagate_down: true
  propagate_down: false
}
layer {
  name: "loss_bbox"
  type: "SmoothL1Loss"
  bottom: "bbox_pred"
  bottom: "bbox_targets"
  bottom: "bbox_inside_weights"
  bottom: "bbox_outside_weights"
  top: "loss_bbox"
  loss_weight: 2
}
layer {
  name: "roi_pool5_2"
  type: "ROIAlignment"
  bottom: "conv5_3"
  bottom: "rois_pos"
  top: "pool5_2"
  roi_alignment_param {
    pooled_h: 7
    pooled_w: 7
    spatial_scale: 0.0625
  }
}
layer {
  name: "pool5_2_conv"
  type: "Convolution"
  bottom: "pool5_2"
  top: "pool5_2_conv"
  param {
    lr_mult: 1
    decay_mult: 1
  }
  param {
    lr_mult: 2
    decay_mult: 0
  }
  convolution_param {
    num_output: 512
    pad: 0
    kernel_size: 1
    weight_filler {
      type: "gaussian"
      std: 0.01
    }
    bias_filler {
      type: "constant"
      value: 0
    }
  }
}
layer {
  name: "pool5_2_conv_relu"
  type: "ReLU"
  bottom: "pool5_2_conv"
  top: "pool5_2_conv_relu"
}
layer {
  name: "pool5_2_conv2"
  type: "Convolution"
  bottom: "pool5_2_conv_relu"
  top: "pool5_2_conv2"
  param {
    lr_mult: 1
    decay_mult: 1
  }
  param {
    lr_mult: 2
    decay_mult: 0
  }
  convolution_param {
    num_output: 512
    pad: 1
    kernel_size: 3
    stride: 1
    weight_filler {
      type: "gaussian"
      std: 0.01
    }
    bias_filler {
      type: "constant"
      value: 0
    }
  }
}
layer {
  name: "pool5_2_conv2_relu"
  type: "ReLU"
  bottom: "pool5_2_conv2"
  top: "pool5_2_conv2_relu"
}
layer {
  name: "mask_deconv1"
  type: "Deconvolution"
  bottom: "pool5_2_conv2_relu"
  top: "mask_deconv1"
  param {
    lr_mult: 1
    decay_mult: 1
  }
  param {
    lr_mult: 2
    decay_mult: 0
  }
  convolution_param {
    num_output: 256
    pad: 1
    kernel_size: 8
    group: 256
    stride: 4
    weight_filler {
      type: "bilinear"
    }
  }
}
layer {
  name: "pool5_2_conv3"
  type: "Convolution"
  bottom: "mask_deconv1"
  top: "pool5_2_conv3"
  param {
    lr_mult: 1
    decay_mult: 1
  }
  param {
    lr_mult: 2
    decay_mult: 0
  }
  convolution_param {
    num_output: 512
    pad: 1
    kernel_size: 3
    stride: 1
    weight_filler {
      type: "gaussian"
      std: 0.01
    }
    bias_filler {
      type: "constant"
      value: 0
    }
  }
}
layer {
  name: "pool5_2_conv3_relu"
  type: "ReLU"
  bottom: "pool5_2_conv3"
  top: "pool5_2_conv3_relu"
}
layer {
  name: "pool5_2_conv4"
  type: "Convolution"
  bottom: "pool5_2_conv3_relu"
  top: "pool5_2_conv4"
  param {
    lr_mult: 1
    decay_mult: 1
  }
  param {
    lr_mult: 2
    decay_mult: 0
  }
  convolution_param {
    num_output: 512
    pad: 1
    kernel_size: 3
    stride: 1
    weight_filler {
      type: "gaussian"
      std: 0.01
    }
    bias_filler {
      type: "constant"
      value: 0
    }
  }
}
layer {
  name: "pool5_2_conv4_relu"
  type: "ReLU"
  bottom: "pool5_2_conv4"
  top: "pool5_2_conv4_relu"
}
layer {
  name: "query_conv"
  type: "Convolution"
  bottom: "pool5_2_conv4_relu"
  top: "query_conv"
  param {
    lr_mult: 1
    decay_mult: 1
  }
  param {
    lr_mult: 2
    decay_mult: 0
  }
  convolution_param {
    num_output: 64
    pad: 0
    kernel_size: 1
    stride: 1
    weight_filler {
      type: "gaussian"
      std: 0.01
    }
    bias_filler {
      type: "constant"
      value: 0
    }
  }
}
layer {
  name: "key_conv"
  type: "Convolution"
  bottom: "pool5_2_conv4_relu"
  top: "key_conv"
  param {
    lr_mult: 1
    decay_mult: 1
  }
  param {
    lr_mult: 2
    decay_mult: 0
  }
  convolution_param {
    num_output: 64
    pad: 0
    kernel_size: 1
    stride: 1
    weight_filler {
      type: "gaussian"
      std: 0.01
    }
    bias_filler {
      type: "constant"
      value: 0
    }
  }
}
layer {
  name: "value_conv"
  type: "Convolution"
  bottom: "pool5_2_conv4_relu"
  top: "value_conv"
  param {
    lr_mult: 1
    decay_mult: 1
  }
  param {
    lr_mult: 2
    decay_mult: 0
  }
  convolution_param {
    num_output: 512
    pad: 0
    kernel_size: 1
    stride: 1
    weight_filler {
      type: "gaussian"
      std: 0.01
    }
    bias_filler {
      type: "constant"
      value: 0
    }
  }
}
layer {
  name: "query_conv_reshape"
  type: "Reshape"
  bottom: "query_conv"
  top: "query_conv_reshape"
  reshape_param {
    shape {
      dim: -1
      dim: 64
      dim: 900
      dim: 1
    }
  }
}
layer {
  name: "key_conv_reshape"
  type: "Reshape"
  bottom: "key_conv"
  top: "key_conv_reshape"
  reshape_param {
    shape {
      dim: -1
      dim: 64
      dim: 900
      dim: 1
    }
  }
}
layer {
  name: "value_conv_reshape"
  type: "Reshape"
  bottom: "value_conv"
  top: "value_conv_reshape"
  reshape_param {
    shape {
      dim: -1
      dim: 512
      dim: 900
      dim: 1
    }
  }
}
layer {
  name: "query_conv_reshape_perm"
  type: "Permute"
  bottom: "query_conv_reshape"
  top: "query_conv_reshape_perm"
  permute_param {
    order: 0
    order: 3
    order: 2
    order: 1
  }
}
layer {
  name: "key_conv_reshape_perm"
  type: "Permute"
  bottom: "key_conv_reshape"
  top: "key_conv_reshape_perm"
  permute_param {
    order: 0
    order: 3
    order: 1
    order: 2
  }
}
layer {
  name: "energy"
  type: "MatrixMultiplication"
  bottom: "query_conv_reshape_perm"
  bottom: "key_conv_reshape_perm"
  top: "energy"
}
layer {
  name: "attention"
  type: "Softmax"
  bottom: "energy"
  top: "attention"
  softmax_param {
    axis: 3
  }
}
layer {
  name: "value_conv_reshape_perm"
  type: "Permute"
  bottom: "value_conv_reshape"
  top: "value_conv_reshape_perm"
  permute_param {
    order: 0
    order: 3
    order: 1
    order: 2
  }
}
layer {
  name: "attention_perm"
  type: "Permute"
  bottom: "attention"
  top: "attention_perm"
  permute_param {
    order: 0
    order: 1
    order: 2
    order: 3
  }
}
layer {
  name: "out"
  type: "MatrixMultiplication"
  bottom: "value_conv_reshape_perm"
  bottom: "attention_perm"
  top: "out"
}
layer {
  name: "out_reshape"
  type: "Reshape"
  bottom: "out"
  top: "out_reshape"
  reshape_param {
    shape {
      dim: -1
      dim: 512
      dim: 30
      dim: 30
    }
  }
}
layer {
  name: "out_reshape_scale"
  type: "Scale"
  bottom: "out_reshape"
  top: "out_reshape_scale"
  param {
    name: "scale_conv1_1"
    lr_mult: 1
  }
  scale_param {
    bias_term: false
  }
}
layer {
  name: "out_x"
  type: "Eltwise"
  bottom: "out_reshape_scale"
  bottom: "pool5_2_conv4_relu"
  top: "out_x"
  eltwise_param {
    operation: SUM
  }
}
layer {
  name: "query_conv_reshape_ch"
  type: "Reshape"
  bottom: "pool5_2_conv4_relu"
  top: "query_conv_reshape_ch"
  reshape_param {
    shape {
      dim: 1
      dim: 512
      dim: -1
      dim: 1
    }
  }
}
layer {
  name: "key_conv_reshape_ch"
  type: "Reshape"
  bottom: "pool5_2_conv4_relu"
  top: "key_conv_reshape_ch"
  reshape_param {
    shape {
      dim: 1
      dim: 512
      dim: -1
      dim: 1
    }
  }
}
layer {
  name: "value_conv_reshape_ch"
  type: "Reshape"
  bottom: "pool5_2_conv4_relu"
  top: "value_conv_reshape_ch"
  reshape_param {
    shape {
      dim: 1
      dim: 512
      dim: -1
      dim: 1
    }
  }
}
layer {
  name: "query_conv_reshape_perm_ch"
  type: "Permute"
  bottom: "query_conv_reshape_ch"
  top: "query_conv_reshape_perm_ch"
  permute_param {
    order: 0
    order: 3
    order: 1
    order: 2
  }
}
layer {
  name: "key_conv_reshape_perm_ch"
  type: "Permute"
  bottom: "key_conv_reshape_ch"
  top: "key_conv_reshape_perm_ch"
  permute_param {
    order: 0
    order: 3
    order: 2
    order: 1
  }
}
layer {
  name: "energy_ch"
  type: "MatrixMultiplication"
  bottom: "query_conv_reshape_perm_ch"
  bottom: "key_conv_reshape_perm_ch"
  top: "energy_ch"
}
layer {
  name: "energy_ch_perm"
  type: "Permute"
  bottom: "energy_ch"
  top: "energy_ch_perm"
  permute_param {
    order: 0
    order: 2
    order: 1
    order: 3
  }
}
layer {
  name: "energy_ch_pool"
  type: "Pooling"
  bottom: "energy_ch_perm"
  top: "energy_ch_pool"
  pooling_param {
    pool: MAX
    kernel_h: 1
    kernel_w: 512
    stride_h: 1
    stride_w: 512
  }
}
layer {
  name: "energy_ch_reperm"
  type: "Permute"
  bottom: "energy_ch_pool"
  top: "energy_ch_reperm"
  permute_param {
    order: 0
    order: 2
    order: 1
    order: 3
  }
}
layer {
  name: "energy_ch_max"
  type: "Tile"
  bottom: "energy_ch_reperm"
  top: "energy_ch_max"
  tile_param {
    axis: 3
    tiles: 512
  }
}
layer {
  name: "energy_ch_minus"
  type: "Power"
  bottom: "energy_ch"
  top: "energy_ch_minus"
  power_param {
    power: 1
    scale: -1
    shift: 0
  }
}
layer {
  name: "energy_new"
  type: "Eltwise"
  bottom: "energy_ch_max"
  bottom: "energy_ch_minus"
  top: "energy_new"
  eltwise_param {
    operation: SUM
  }
}
layer {
  name: "attention_ch"
  type: "Softmax"
  bottom: "energy_new"
  top: "attention_ch"
  softmax_param {
    axis: 3
  }
}
layer {
  name: "value_conv_reshape_ch_perm"
  type: "Permute"
  bottom: "value_conv_reshape_ch"
  top: "value_conv_reshape_ch_perm"
  permute_param {
    order: 0
    order: 3
    order: 1
    order: 2
  }
}
layer {
  name: "attention_ch_perm"
  type: "Permute"
  bottom: "attention_ch"
  top: "attention_ch_perm"
  permute_param {
    order: 0
    order: 1
    order: 2
    order: 3
  }
}
layer {
  name: "out_ch"
  type: "MatrixMultiplication"
  bottom: "attention_ch_perm"
  bottom: "value_conv_reshape_ch_perm"
  top: "out_ch"
}
layer {
  name: "out_ch_reshape"
  type: "Reshape"
  bottom: "out_ch"
  top: "out_ch_reshape"
  reshape_param {
    shape {
      dim: -1
      dim: 512
      dim: 30
      dim: 30
    }
  }
}
layer {
  name: "out_ch_reshape_scale"
  type: "Scale"
  bottom: "out_ch_reshape"
  top: "out_ch_reshape_scale"
  param {
    name: "scale_conv1_1"
    lr_mult: 1
  }
  scale_param {
    bias_term: false
  }
}
layer {
  name: "out_ch_x"
  type: "Eltwise"
  bottom: "out_ch_reshape_scale"
  bottom: "pool5_2_conv4_relu"
  top: "out_ch_x"
  eltwise_param {
    operation: SUM
  }
}
layer {
  name: "out_conv_ch_x"
  type: "Convolution"
  bottom: "out_ch_x"
  top: "out_conv_ch_x"
  param {
    lr_mult: 1
    decay_mult: 1
  }
  param {
    lr_mult: 2
    decay_mult: 0
  }
  convolution_param {
    num_output: 512
    pad: 0
    kernel_size: 1
    weight_filler {
      type: "gaussian"
      std: 0.01
    }
    bias_filler {
      type: "constant"
      value: 0
    }
  }
}
layer {
  name: "out_conv_x"
  type: "Convolution"
  bottom: "out_x"
  top: "out_conv_x"
  param {
    lr_mult: 1
    decay_mult: 1
  }
  param {
    lr_mult: 2
    decay_mult: 0
  }
  convolution_param {
    num_output: 512
    pad: 0
    kernel_size: 1
    weight_filler {
      type: "gaussian"
      std: 0.01
    }
    bias_filler {
      type: "constant"
      value: 0
    }
  }
}
layer {
  name: "out_x_sum"
  type: "Eltwise"
  bottom: "out_conv_x"
  bottom: "out_conv_ch_x"
  top: "out_x_sum"
  eltwise_param {
    operation: SUM
  }
}
layer {
  name: "mask_deconv2"
  type: "Deconvolution"
  bottom: "out_x_sum"
  top: "mask_deconv2"
  param {
    lr_mult: 1
    decay_mult: 1
  }
  param {
    lr_mult: 2
    decay_mult: 0
  }
  convolution_param {
    num_output: 256
    pad: 1
    kernel_size: 8
    group: 256
    stride: 4
    weight_filler {
      type: "bilinear"
    }
  }
}
layer {
  name: "pool5_2_conv5"
  type: "Convolution"
  bottom: "mask_deconv2"
  top: "pool5_2_conv5"
  param {
    lr_mult: 1
    decay_mult: 1
  }
  param {
    lr_mult: 2
    decay_mult: 0
  }
  convolution_param {
    num_output: 512
    pad: 1
    kernel_size: 3
    stride: 1
    weight_filler {
      type: "gaussian"
      std: 0.01
    }
    bias_filler {
      type: "constant"
      value: 0
    }
  }
}
layer {
  name: "pool5_2_conv5_relu"
  type: "ReLU"
  bottom: "pool5_2_conv5"
  top: "pool5_2_conv5_relu"
}
layer {
  name: "pool5_2_conv6"
  type: "Convolution"
  bottom: "pool5_2_conv5_relu"
  top: "pool5_2_conv6"
  param {
    lr_mult: 1
    decay_mult: 1
  }
  param {
    lr_mult: 2
    decay_mult: 0
  }
  convolution_param {
    num_output: 512
    pad: 1
    kernel_size: 3
    stride: 1
    weight_filler {
      type: "gaussian"
      std: 0.01
    }
    bias_filler {
      type: "constant"
      value: 0
    }
  }
}
layer {
  name: "pool5_2_conv6_relu"
  type: "ReLU"
  bottom: "pool5_2_conv6"
  top: "pool5_2_conv6_relu"
}
layer {
  name: "mask_deconv3"
  type: "Deconvolution"
  bottom: "pool5_2_conv6_relu"
  top: "mask_deconv3"
  param {
    lr_mult: 1
    decay_mult: 1
  }
  param {
    lr_mult: 2
    decay_mult: 0
  }
  convolution_param {
    num_output: 256
    pad: 1
    kernel_size: 4
    group: 256
    stride: 2
    weight_filler {
      type: "bilinear"
    }
  }
}
layer {
  name: "mask_score"
  type: "Convolution"
  bottom: "mask_deconv3"
  top: "mask_score"
  param {
    lr_mult: 1
    decay_mult: 1
  }
  param {
    lr_mult: 2
    decay_mult: 0
  }
  convolution_param {
    num_output: 8
    pad: 0
    kernel_size: 1
    weight_filler {
      type: "gaussian"
      std: 0.01
    }
    bias_filler {
      type: "constant"
      value: 0
    }
  }
}
layer {
  name: "loss_mask"
  type: "SoftmaxWithLoss"
  bottom: "mask_score"
  bottom: "mask_targets"
  top: "loss_mask"
  loss_weight: 3
  propagate_down: true
  propagate_down: false
  loss_param {
    ignore_label: -1
    normalize: true
  }
}
I0604 18:03:42.854342  7870 layer_factory.hpp:77] Creating layer input-data
I0604 18:03:42.869320  7870 net.cpp:106] Creating Layer input-data
I0604 18:03:42.869336  7870 net.cpp:411] input-data -> data
I0604 18:03:42.869345  7870 net.cpp:411] input-data -> im_info
I0604 18:03:42.869350  7870 net.cpp:411] input-data -> gt_boxes
I0604 18:03:42.869354  7870 net.cpp:411] input-data -> seg_mask_inds
I0604 18:03:42.869359  7870 net.cpp:411] input-data -> flipped
RoiDataLayer: name_to_top: {'gt_boxes': 2, 'data': 0, 'seg_mask_inds': 3, 'im_info': 1, 'flipped': 4}
I0604 18:03:42.881337  7870 net.cpp:150] Setting up input-data
I0604 18:03:42.881356  7870 net.cpp:157] Top shape: 1 3 600 1000 (1800000)
I0604 18:03:42.881362  7870 net.cpp:157] Top shape: 1 3 (3)
I0604 18:03:42.881366  7870 net.cpp:157] Top shape: 1 4 (4)
I0604 18:03:42.881369  7870 net.cpp:157] Top shape: 1 2 (2)
I0604 18:03:42.881372  7870 net.cpp:157] Top shape: 1 1 (1)
I0604 18:03:42.881376  7870 net.cpp:165] Memory required for data: 7200040
I0604 18:03:42.881383  7870 layer_factory.hpp:77] Creating layer data_input-data_0_split
I0604 18:03:42.881400  7870 net.cpp:106] Creating Layer data_input-data_0_split
I0604 18:03:42.881407  7870 net.cpp:454] data_input-data_0_split <- data
I0604 18:03:42.881417  7870 net.cpp:411] data_input-data_0_split -> data_input-data_0_split_0
I0604 18:03:42.881453  7870 net.cpp:411] data_input-data_0_split -> data_input-data_0_split_1
I0604 18:03:42.881484  7870 net.cpp:150] Setting up data_input-data_0_split
I0604 18:03:42.881491  7870 net.cpp:157] Top shape: 1 3 600 1000 (1800000)
I0604 18:03:42.881495  7870 net.cpp:157] Top shape: 1 3 600 1000 (1800000)
I0604 18:03:42.881497  7870 net.cpp:165] Memory required for data: 21600040
I0604 18:03:42.881502  7870 layer_factory.hpp:77] Creating layer im_info_input-data_1_split
I0604 18:03:42.881510  7870 net.cpp:106] Creating Layer im_info_input-data_1_split
I0604 18:03:42.881515  7870 net.cpp:454] im_info_input-data_1_split <- im_info
I0604 18:03:42.881521  7870 net.cpp:411] im_info_input-data_1_split -> im_info_input-data_1_split_0
I0604 18:03:42.881526  7870 net.cpp:411] im_info_input-data_1_split -> im_info_input-data_1_split_1
I0604 18:03:42.881533  7870 net.cpp:411] im_info_input-data_1_split -> im_info_input-data_1_split_2
I0604 18:03:42.881559  7870 net.cpp:150] Setting up im_info_input-data_1_split
I0604 18:03:42.881564  7870 net.cpp:157] Top shape: 1 3 (3)
I0604 18:03:42.881568  7870 net.cpp:157] Top shape: 1 3 (3)
I0604 18:03:42.881573  7870 net.cpp:157] Top shape: 1 3 (3)
I0604 18:03:42.881575  7870 net.cpp:165] Memory required for data: 21600076
I0604 18:03:42.881578  7870 layer_factory.hpp:77] Creating layer gt_boxes_input-data_2_split
I0604 18:03:42.881584  7870 net.cpp:106] Creating Layer gt_boxes_input-data_2_split
I0604 18:03:42.881590  7870 net.cpp:454] gt_boxes_input-data_2_split <- gt_boxes
I0604 18:03:42.881597  7870 net.cpp:411] gt_boxes_input-data_2_split -> gt_boxes_input-data_2_split_0
I0604 18:03:42.881604  7870 net.cpp:411] gt_boxes_input-data_2_split -> gt_boxes_input-data_2_split_1
I0604 18:03:42.881633  7870 net.cpp:150] Setting up gt_boxes_input-data_2_split
I0604 18:03:42.881644  7870 net.cpp:157] Top shape: 1 4 (4)
I0604 18:03:42.881647  7870 net.cpp:157] Top shape: 1 4 (4)
I0604 18:03:42.881651  7870 net.cpp:165] Memory required for data: 21600108
I0604 18:03:42.881655  7870 layer_factory.hpp:77] Creating layer conv1_1
I0604 18:03:42.881680  7870 net.cpp:106] Creating Layer conv1_1
I0604 18:03:42.881685  7870 net.cpp:454] conv1_1 <- data_input-data_0_split_0
I0604 18:03:42.881690  7870 net.cpp:411] conv1_1 -> conv1_1
I0604 18:03:43.080463  7870 net.cpp:150] Setting up conv1_1
I0604 18:03:43.080484  7870 net.cpp:157] Top shape: 1 64 600 1000 (38400000)
I0604 18:03:43.080487  7870 net.cpp:165] Memory required for data: 175200108
I0604 18:03:43.080500  7870 layer_factory.hpp:77] Creating layer relu1_1
I0604 18:03:43.080521  7870 net.cpp:106] Creating Layer relu1_1
I0604 18:03:43.080526  7870 net.cpp:454] relu1_1 <- conv1_1
I0604 18:03:43.080544  7870 net.cpp:397] relu1_1 -> conv1_1 (in-place)
I0604 18:03:43.080682  7870 net.cpp:150] Setting up relu1_1
I0604 18:03:43.080687  7870 net.cpp:157] Top shape: 1 64 600 1000 (38400000)
I0604 18:03:43.080689  7870 net.cpp:165] Memory required for data: 328800108
I0604 18:03:43.080693  7870 layer_factory.hpp:77] Creating layer conv1_2
I0604 18:03:43.080699  7870 net.cpp:106] Creating Layer conv1_2
I0604 18:03:43.080701  7870 net.cpp:454] conv1_2 <- conv1_1
I0604 18:03:43.080706  7870 net.cpp:411] conv1_2 -> conv1_2
I0604 18:03:43.082868  7870 net.cpp:150] Setting up conv1_2
I0604 18:03:43.082877  7870 net.cpp:157] Top shape: 1 64 600 1000 (38400000)
I0604 18:03:43.082880  7870 net.cpp:165] Memory required for data: 482400108
I0604 18:03:43.082887  7870 layer_factory.hpp:77] Creating layer relu1_2
I0604 18:03:43.082892  7870 net.cpp:106] Creating Layer relu1_2
I0604 18:03:43.082896  7870 net.cpp:454] relu1_2 <- conv1_2
I0604 18:03:43.082911  7870 net.cpp:397] relu1_2 -> conv1_2 (in-place)
I0604 18:03:43.083025  7870 net.cpp:150] Setting up relu1_2
I0604 18:03:43.083031  7870 net.cpp:157] Top shape: 1 64 600 1000 (38400000)
I0604 18:03:43.083034  7870 net.cpp:165] Memory required for data: 636000108
I0604 18:03:43.083036  7870 layer_factory.hpp:77] Creating layer pool1
I0604 18:03:43.083043  7870 net.cpp:106] Creating Layer pool1
I0604 18:03:43.083045  7870 net.cpp:454] pool1 <- conv1_2
I0604 18:03:43.083050  7870 net.cpp:411] pool1 -> pool1
I0604 18:03:43.083102  7870 net.cpp:150] Setting up pool1
I0604 18:03:43.083106  7870 net.cpp:157] Top shape: 1 64 300 500 (9600000)
I0604 18:03:43.083119  7870 net.cpp:165] Memory required for data: 674400108
I0604 18:03:43.083122  7870 layer_factory.hpp:77] Creating layer conv2_1
I0604 18:03:43.083128  7870 net.cpp:106] Creating Layer conv2_1
I0604 18:03:43.083132  7870 net.cpp:454] conv2_1 <- pool1
I0604 18:03:43.083145  7870 net.cpp:411] conv2_1 -> conv2_1
I0604 18:03:43.084977  7870 net.cpp:150] Setting up conv2_1
I0604 18:03:43.084998  7870 net.cpp:157] Top shape: 1 128 300 500 (19200000)
I0604 18:03:43.085002  7870 net.cpp:165] Memory required for data: 751200108
I0604 18:03:43.085009  7870 layer_factory.hpp:77] Creating layer relu2_1
I0604 18:03:43.085014  7870 net.cpp:106] Creating Layer relu2_1
I0604 18:03:43.085017  7870 net.cpp:454] relu2_1 <- conv2_1
I0604 18:03:43.085032  7870 net.cpp:397] relu2_1 -> conv2_1 (in-place)
I0604 18:03:43.085626  7870 net.cpp:150] Setting up relu2_1
I0604 18:03:43.085635  7870 net.cpp:157] Top shape: 1 128 300 500 (19200000)
I0604 18:03:43.085647  7870 net.cpp:165] Memory required for data: 828000108
I0604 18:03:43.085650  7870 layer_factory.hpp:77] Creating layer conv2_2
I0604 18:03:43.085657  7870 net.cpp:106] Creating Layer conv2_2
I0604 18:03:43.085660  7870 net.cpp:454] conv2_2 <- conv2_1
I0604 18:03:43.085664  7870 net.cpp:411] conv2_2 -> conv2_2
I0604 18:03:43.087132  7870 net.cpp:150] Setting up conv2_2
I0604 18:03:43.087141  7870 net.cpp:157] Top shape: 1 128 300 500 (19200000)
I0604 18:03:43.087144  7870 net.cpp:165] Memory required for data: 904800108
I0604 18:03:43.087149  7870 layer_factory.hpp:77] Creating layer relu2_2
I0604 18:03:43.087154  7870 net.cpp:106] Creating Layer relu2_2
I0604 18:03:43.087158  7870 net.cpp:454] relu2_2 <- conv2_2
I0604 18:03:43.087174  7870 net.cpp:397] relu2_2 -> conv2_2 (in-place)
I0604 18:03:43.087291  7870 net.cpp:150] Setting up relu2_2
I0604 18:03:43.087296  7870 net.cpp:157] Top shape: 1 128 300 500 (19200000)
I0604 18:03:43.087299  7870 net.cpp:165] Memory required for data: 981600108
I0604 18:03:43.087301  7870 layer_factory.hpp:77] Creating layer pool2
I0604 18:03:43.087306  7870 net.cpp:106] Creating Layer pool2
I0604 18:03:43.087309  7870 net.cpp:454] pool2 <- conv2_2
I0604 18:03:43.087324  7870 net.cpp:411] pool2 -> pool2
I0604 18:03:43.087352  7870 net.cpp:150] Setting up pool2
I0604 18:03:43.087357  7870 net.cpp:157] Top shape: 1 128 150 250 (4800000)
I0604 18:03:43.087359  7870 net.cpp:165] Memory required for data: 1000800108
I0604 18:03:43.087373  7870 layer_factory.hpp:77] Creating layer conv3_1
I0604 18:03:43.087379  7870 net.cpp:106] Creating Layer conv3_1
I0604 18:03:43.087383  7870 net.cpp:454] conv3_1 <- pool2
I0604 18:03:43.087388  7870 net.cpp:411] conv3_1 -> conv3_1
I0604 18:03:43.089169  7870 net.cpp:150] Setting up conv3_1
I0604 18:03:43.089177  7870 net.cpp:157] Top shape: 1 256 150 250 (9600000)
I0604 18:03:43.089182  7870 net.cpp:165] Memory required for data: 1039200108
I0604 18:03:43.089190  7870 layer_factory.hpp:77] Creating layer relu3_1
I0604 18:03:43.089195  7870 net.cpp:106] Creating Layer relu3_1
I0604 18:03:43.089198  7870 net.cpp:454] relu3_1 <- conv3_1
I0604 18:03:43.089202  7870 net.cpp:397] relu3_1 -> conv3_1 (in-place)
I0604 18:03:43.089306  7870 net.cpp:150] Setting up relu3_1
I0604 18:03:43.089313  7870 net.cpp:157] Top shape: 1 256 150 250 (9600000)
I0604 18:03:43.089315  7870 net.cpp:165] Memory required for data: 1077600108
I0604 18:03:43.089318  7870 layer_factory.hpp:77] Creating layer conv3_2
I0604 18:03:43.089325  7870 net.cpp:106] Creating Layer conv3_2
I0604 18:03:43.089329  7870 net.cpp:454] conv3_2 <- conv3_1
I0604 18:03:43.089334  7870 net.cpp:411] conv3_2 -> conv3_2
I0604 18:03:43.091259  7870 net.cpp:150] Setting up conv3_2
I0604 18:03:43.091269  7870 net.cpp:157] Top shape: 1 256 150 250 (9600000)
I0604 18:03:43.091272  7870 net.cpp:165] Memory required for data: 1116000108
I0604 18:03:43.091276  7870 layer_factory.hpp:77] Creating layer relu3_2
I0604 18:03:43.091281  7870 net.cpp:106] Creating Layer relu3_2
I0604 18:03:43.091284  7870 net.cpp:454] relu3_2 <- conv3_2
I0604 18:03:43.091297  7870 net.cpp:397] relu3_2 -> conv3_2 (in-place)
I0604 18:03:43.091411  7870 net.cpp:150] Setting up relu3_2
I0604 18:03:43.091418  7870 net.cpp:157] Top shape: 1 256 150 250 (9600000)
I0604 18:03:43.091419  7870 net.cpp:165] Memory required for data: 1154400108
I0604 18:03:43.091423  7870 layer_factory.hpp:77] Creating layer conv3_3
I0604 18:03:43.091428  7870 net.cpp:106] Creating Layer conv3_3
I0604 18:03:43.091429  7870 net.cpp:454] conv3_3 <- conv3_2
I0604 18:03:43.091444  7870 net.cpp:411] conv3_3 -> conv3_3
I0604 18:03:43.093539  7870 net.cpp:150] Setting up conv3_3
I0604 18:03:43.093551  7870 net.cpp:157] Top shape: 1 256 150 250 (9600000)
I0604 18:03:43.093554  7870 net.cpp:165] Memory required for data: 1192800108
I0604 18:03:43.093559  7870 layer_factory.hpp:77] Creating layer relu3_3
I0604 18:03:43.093564  7870 net.cpp:106] Creating Layer relu3_3
I0604 18:03:43.093578  7870 net.cpp:454] relu3_3 <- conv3_3
I0604 18:03:43.093582  7870 net.cpp:397] relu3_3 -> conv3_3 (in-place)
I0604 18:03:43.093700  7870 net.cpp:150] Setting up relu3_3
I0604 18:03:43.093708  7870 net.cpp:157] Top shape: 1 256 150 250 (9600000)
I0604 18:03:43.093709  7870 net.cpp:165] Memory required for data: 1231200108
I0604 18:03:43.093711  7870 layer_factory.hpp:77] Creating layer pool3
I0604 18:03:43.093717  7870 net.cpp:106] Creating Layer pool3
I0604 18:03:43.093720  7870 net.cpp:454] pool3 <- conv3_3
I0604 18:03:43.093727  7870 net.cpp:411] pool3 -> pool3
I0604 18:03:43.093760  7870 net.cpp:150] Setting up pool3
I0604 18:03:43.093765  7870 net.cpp:157] Top shape: 1 256 75 125 (2400000)
I0604 18:03:43.093767  7870 net.cpp:165] Memory required for data: 1240800108
I0604 18:03:43.093770  7870 layer_factory.hpp:77] Creating layer conv4_1
I0604 18:03:43.093780  7870 net.cpp:106] Creating Layer conv4_1
I0604 18:03:43.093785  7870 net.cpp:454] conv4_1 <- pool3
I0604 18:03:43.093789  7870 net.cpp:411] conv4_1 -> conv4_1
I0604 18:03:43.099594  7870 net.cpp:150] Setting up conv4_1
I0604 18:03:43.099613  7870 net.cpp:157] Top shape: 1 512 75 125 (4800000)
I0604 18:03:43.099617  7870 net.cpp:165] Memory required for data: 1260000108
I0604 18:03:43.099623  7870 layer_factory.hpp:77] Creating layer relu4_1
I0604 18:03:43.099643  7870 net.cpp:106] Creating Layer relu4_1
I0604 18:03:43.099647  7870 net.cpp:454] relu4_1 <- conv4_1
I0604 18:03:43.099653  7870 net.cpp:397] relu4_1 -> conv4_1 (in-place)
I0604 18:03:43.099789  7870 net.cpp:150] Setting up relu4_1
I0604 18:03:43.099797  7870 net.cpp:157] Top shape: 1 512 75 125 (4800000)
I0604 18:03:43.099798  7870 net.cpp:165] Memory required for data: 1279200108
I0604 18:03:43.099802  7870 layer_factory.hpp:77] Creating layer conv4_2
I0604 18:03:43.099809  7870 net.cpp:106] Creating Layer conv4_2
I0604 18:03:43.099812  7870 net.cpp:454] conv4_2 <- conv4_1
I0604 18:03:43.099817  7870 net.cpp:411] conv4_2 -> conv4_2
I0604 18:03:43.106988  7870 net.cpp:150] Setting up conv4_2
I0604 18:03:43.107009  7870 net.cpp:157] Top shape: 1 512 75 125 (4800000)
I0604 18:03:43.107012  7870 net.cpp:165] Memory required for data: 1298400108
I0604 18:03:43.107023  7870 layer_factory.hpp:77] Creating layer relu4_2
I0604 18:03:43.107041  7870 net.cpp:106] Creating Layer relu4_2
I0604 18:03:43.107046  7870 net.cpp:454] relu4_2 <- conv4_2
I0604 18:03:43.107051  7870 net.cpp:397] relu4_2 -> conv4_2 (in-place)
I0604 18:03:43.107547  7870 net.cpp:150] Setting up relu4_2
I0604 18:03:43.107564  7870 net.cpp:157] Top shape: 1 512 75 125 (4800000)
I0604 18:03:43.107568  7870 net.cpp:165] Memory required for data: 1317600108
I0604 18:03:43.107570  7870 layer_factory.hpp:77] Creating layer conv4_3
I0604 18:03:43.107587  7870 net.cpp:106] Creating Layer conv4_3
I0604 18:03:43.107591  7870 net.cpp:454] conv4_3 <- conv4_2
I0604 18:03:43.107597  7870 net.cpp:411] conv4_3 -> conv4_3
I0604 18:03:43.112283  7870 net.cpp:150] Setting up conv4_3
I0604 18:03:43.112303  7870 net.cpp:157] Top shape: 1 512 75 125 (4800000)
I0604 18:03:43.112305  7870 net.cpp:165] Memory required for data: 1336800108
I0604 18:03:43.112313  7870 layer_factory.hpp:77] Creating layer relu4_3
I0604 18:03:43.112321  7870 net.cpp:106] Creating Layer relu4_3
I0604 18:03:43.112327  7870 net.cpp:454] relu4_3 <- conv4_3
I0604 18:03:43.112334  7870 net.cpp:397] relu4_3 -> conv4_3 (in-place)
I0604 18:03:43.112443  7870 net.cpp:150] Setting up relu4_3
I0604 18:03:43.112449  7870 net.cpp:157] Top shape: 1 512 75 125 (4800000)
I0604 18:03:43.112452  7870 net.cpp:165] Memory required for data: 1356000108
I0604 18:03:43.112454  7870 layer_factory.hpp:77] Creating layer pool4
I0604 18:03:43.112460  7870 net.cpp:106] Creating Layer pool4
I0604 18:03:43.112462  7870 net.cpp:454] pool4 <- conv4_3
I0604 18:03:43.112466  7870 net.cpp:411] pool4 -> pool4
I0604 18:03:43.112498  7870 net.cpp:150] Setting up pool4
I0604 18:03:43.112502  7870 net.cpp:157] Top shape: 1 512 38 63 (1225728)
I0604 18:03:43.112505  7870 net.cpp:165] Memory required for data: 1360903020
I0604 18:03:43.112507  7870 layer_factory.hpp:77] Creating layer conv5_1
I0604 18:03:43.112526  7870 net.cpp:106] Creating Layer conv5_1
I0604 18:03:43.112531  7870 net.cpp:454] conv5_1 <- pool4
I0604 18:03:43.112536  7870 net.cpp:411] conv5_1 -> conv5_1
I0604 18:03:43.116716  7870 net.cpp:150] Setting up conv5_1
I0604 18:03:43.116739  7870 net.cpp:157] Top shape: 1 512 38 63 (1225728)
I0604 18:03:43.116741  7870 net.cpp:165] Memory required for data: 1365805932
I0604 18:03:43.116760  7870 layer_factory.hpp:77] Creating layer relu5_1
I0604 18:03:43.116768  7870 net.cpp:106] Creating Layer relu5_1
I0604 18:03:43.116773  7870 net.cpp:454] relu5_1 <- conv5_1
I0604 18:03:43.116778  7870 net.cpp:397] relu5_1 -> conv5_1 (in-place)
I0604 18:03:43.116900  7870 net.cpp:150] Setting up relu5_1
I0604 18:03:43.116905  7870 net.cpp:157] Top shape: 1 512 38 63 (1225728)
I0604 18:03:43.116909  7870 net.cpp:165] Memory required for data: 1370708844
I0604 18:03:43.116911  7870 layer_factory.hpp:77] Creating layer conv5_2
I0604 18:03:43.116917  7870 net.cpp:106] Creating Layer conv5_2
I0604 18:03:43.116919  7870 net.cpp:454] conv5_2 <- conv5_1
I0604 18:03:43.116933  7870 net.cpp:411] conv5_2 -> conv5_2
I0604 18:03:43.121734  7870 net.cpp:150] Setting up conv5_2
I0604 18:03:43.121754  7870 net.cpp:157] Top shape: 1 512 38 63 (1225728)
I0604 18:03:43.121757  7870 net.cpp:165] Memory required for data: 1375611756
I0604 18:03:43.121767  7870 layer_factory.hpp:77] Creating layer relu5_2
I0604 18:03:43.121785  7870 net.cpp:106] Creating Layer relu5_2
I0604 18:03:43.121790  7870 net.cpp:454] relu5_2 <- conv5_2
I0604 18:03:43.121798  7870 net.cpp:397] relu5_2 -> conv5_2 (in-place)
I0604 18:03:43.121927  7870 net.cpp:150] Setting up relu5_2
I0604 18:03:43.121934  7870 net.cpp:157] Top shape: 1 512 38 63 (1225728)
I0604 18:03:43.121937  7870 net.cpp:165] Memory required for data: 1380514668
I0604 18:03:43.121939  7870 layer_factory.hpp:77] Creating layer conv5_3
I0604 18:03:43.121953  7870 net.cpp:106] Creating Layer conv5_3
I0604 18:03:43.121958  7870 net.cpp:454] conv5_3 <- conv5_2
I0604 18:03:43.121963  7870 net.cpp:411] conv5_3 -> conv5_3
I0604 18:03:43.126442  7870 net.cpp:150] Setting up conv5_3
I0604 18:03:43.126461  7870 net.cpp:157] Top shape: 1 512 38 63 (1225728)
I0604 18:03:43.126464  7870 net.cpp:165] Memory required for data: 1385417580
I0604 18:03:43.126471  7870 layer_factory.hpp:77] Creating layer relu5_3
I0604 18:03:43.126479  7870 net.cpp:106] Creating Layer relu5_3
I0604 18:03:43.126494  7870 net.cpp:454] relu5_3 <- conv5_3
I0604 18:03:43.126500  7870 net.cpp:397] relu5_3 -> conv5_3 (in-place)
I0604 18:03:43.126636  7870 net.cpp:150] Setting up relu5_3
I0604 18:03:43.126643  7870 net.cpp:157] Top shape: 1 512 38 63 (1225728)
I0604 18:03:43.126646  7870 net.cpp:165] Memory required for data: 1390320492
I0604 18:03:43.126648  7870 layer_factory.hpp:77] Creating layer conv5_3_relu5_3_0_split
I0604 18:03:43.126653  7870 net.cpp:106] Creating Layer conv5_3_relu5_3_0_split
I0604 18:03:43.126657  7870 net.cpp:454] conv5_3_relu5_3_0_split <- conv5_3
I0604 18:03:43.126660  7870 net.cpp:411] conv5_3_relu5_3_0_split -> conv5_3_relu5_3_0_split_0
I0604 18:03:43.126665  7870 net.cpp:411] conv5_3_relu5_3_0_split -> conv5_3_relu5_3_0_split_1
I0604 18:03:43.126672  7870 net.cpp:411] conv5_3_relu5_3_0_split -> conv5_3_relu5_3_0_split_2
I0604 18:03:43.126710  7870 net.cpp:150] Setting up conv5_3_relu5_3_0_split
I0604 18:03:43.126715  7870 net.cpp:157] Top shape: 1 512 38 63 (1225728)
I0604 18:03:43.126718  7870 net.cpp:157] Top shape: 1 512 38 63 (1225728)
I0604 18:03:43.126720  7870 net.cpp:157] Top shape: 1 512 38 63 (1225728)
I0604 18:03:43.126722  7870 net.cpp:165] Memory required for data: 1405029228
I0604 18:03:43.126724  7870 layer_factory.hpp:77] Creating layer rpn_conv/3x3
I0604 18:03:43.126732  7870 net.cpp:106] Creating Layer rpn_conv/3x3
I0604 18:03:43.126735  7870 net.cpp:454] rpn_conv/3x3 <- conv5_3_relu5_3_0_split_0
I0604 18:03:43.126741  7870 net.cpp:411] rpn_conv/3x3 -> rpn/output
I0604 18:03:43.176759  7870 net.cpp:150] Setting up rpn_conv/3x3
I0604 18:03:43.176780  7870 net.cpp:157] Top shape: 1 512 38 63 (1225728)
I0604 18:03:43.176784  7870 net.cpp:165] Memory required for data: 1409932140
I0604 18:03:43.176791  7870 layer_factory.hpp:77] Creating layer rpn_relu/3x3
I0604 18:03:43.176800  7870 net.cpp:106] Creating Layer rpn_relu/3x3
I0604 18:03:43.176806  7870 net.cpp:454] rpn_relu/3x3 <- rpn/output
I0604 18:03:43.176812  7870 net.cpp:397] rpn_relu/3x3 -> rpn/output (in-place)
I0604 18:03:43.176939  7870 net.cpp:150] Setting up rpn_relu/3x3
I0604 18:03:43.176947  7870 net.cpp:157] Top shape: 1 512 38 63 (1225728)
I0604 18:03:43.176949  7870 net.cpp:165] Memory required for data: 1414835052
I0604 18:03:43.176952  7870 layer_factory.hpp:77] Creating layer rpn/output_rpn_relu/3x3_0_split
I0604 18:03:43.176956  7870 net.cpp:106] Creating Layer rpn/output_rpn_relu/3x3_0_split
I0604 18:03:43.176959  7870 net.cpp:454] rpn/output_rpn_relu/3x3_0_split <- rpn/output
I0604 18:03:43.176964  7870 net.cpp:411] rpn/output_rpn_relu/3x3_0_split -> rpn/output_rpn_relu/3x3_0_split_0
I0604 18:03:43.176971  7870 net.cpp:411] rpn/output_rpn_relu/3x3_0_split -> rpn/output_rpn_relu/3x3_0_split_1
I0604 18:03:43.177006  7870 net.cpp:150] Setting up rpn/output_rpn_relu/3x3_0_split
I0604 18:03:43.177011  7870 net.cpp:157] Top shape: 1 512 38 63 (1225728)
I0604 18:03:43.177012  7870 net.cpp:157] Top shape: 1 512 38 63 (1225728)
I0604 18:03:43.177014  7870 net.cpp:165] Memory required for data: 1424640876
I0604 18:03:43.177017  7870 layer_factory.hpp:77] Creating layer rpn_cls_score
I0604 18:03:43.177038  7870 net.cpp:106] Creating Layer rpn_cls_score
I0604 18:03:43.177042  7870 net.cpp:454] rpn_cls_score <- rpn/output_rpn_relu/3x3_0_split_0
I0604 18:03:43.177047  7870 net.cpp:411] rpn_cls_score -> rpn_cls_score
I0604 18:03:43.178689  7870 net.cpp:150] Setting up rpn_cls_score
I0604 18:03:43.178697  7870 net.cpp:157] Top shape: 1 30 38 63 (71820)
I0604 18:03:43.178700  7870 net.cpp:165] Memory required for data: 1424928156
I0604 18:03:43.178705  7870 layer_factory.hpp:77] Creating layer rpn_cls_score_rpn_cls_score_0_split
I0604 18:03:43.178710  7870 net.cpp:106] Creating Layer rpn_cls_score_rpn_cls_score_0_split
I0604 18:03:43.178714  7870 net.cpp:454] rpn_cls_score_rpn_cls_score_0_split <- rpn_cls_score
I0604 18:03:43.178728  7870 net.cpp:411] rpn_cls_score_rpn_cls_score_0_split -> rpn_cls_score_rpn_cls_score_0_split_0
I0604 18:03:43.178735  7870 net.cpp:411] rpn_cls_score_rpn_cls_score_0_split -> rpn_cls_score_rpn_cls_score_0_split_1
I0604 18:03:43.178769  7870 net.cpp:150] Setting up rpn_cls_score_rpn_cls_score_0_split
I0604 18:03:43.178773  7870 net.cpp:157] Top shape: 1 30 38 63 (71820)
I0604 18:03:43.178776  7870 net.cpp:157] Top shape: 1 30 38 63 (71820)
I0604 18:03:43.178778  7870 net.cpp:165] Memory required for data: 1425502716
I0604 18:03:43.178791  7870 layer_factory.hpp:77] Creating layer rpn_bbox_pred
I0604 18:03:43.178798  7870 net.cpp:106] Creating Layer rpn_bbox_pred
I0604 18:03:43.178802  7870 net.cpp:454] rpn_bbox_pred <- rpn/output_rpn_relu/3x3_0_split_1
I0604 18:03:43.178807  7870 net.cpp:411] rpn_bbox_pred -> rpn_bbox_pred
I0604 18:03:43.180279  7870 net.cpp:150] Setting up rpn_bbox_pred
I0604 18:03:43.180289  7870 net.cpp:157] Top shape: 1 60 38 63 (143640)
I0604 18:03:43.180291  7870 net.cpp:165] Memory required for data: 1426077276
I0604 18:03:43.180296  7870 layer_factory.hpp:77] Creating layer rpn_bbox_pred_rpn_bbox_pred_0_split
I0604 18:03:43.180300  7870 net.cpp:106] Creating Layer rpn_bbox_pred_rpn_bbox_pred_0_split
I0604 18:03:43.180302  7870 net.cpp:454] rpn_bbox_pred_rpn_bbox_pred_0_split <- rpn_bbox_pred
I0604 18:03:43.180316  7870 net.cpp:411] rpn_bbox_pred_rpn_bbox_pred_0_split -> rpn_bbox_pred_rpn_bbox_pred_0_split_0
I0604 18:03:43.180321  7870 net.cpp:411] rpn_bbox_pred_rpn_bbox_pred_0_split -> rpn_bbox_pred_rpn_bbox_pred_0_split_1
I0604 18:03:43.180348  7870 net.cpp:150] Setting up rpn_bbox_pred_rpn_bbox_pred_0_split
I0604 18:03:43.180353  7870 net.cpp:157] Top shape: 1 60 38 63 (143640)
I0604 18:03:43.180356  7870 net.cpp:157] Top shape: 1 60 38 63 (143640)
I0604 18:03:43.180358  7870 net.cpp:165] Memory required for data: 1427226396
I0604 18:03:43.180361  7870 layer_factory.hpp:77] Creating layer rpn_cls_score_reshape
I0604 18:03:43.180366  7870 net.cpp:106] Creating Layer rpn_cls_score_reshape
I0604 18:03:43.180369  7870 net.cpp:454] rpn_cls_score_reshape <- rpn_cls_score_rpn_cls_score_0_split_0
I0604 18:03:43.180374  7870 net.cpp:411] rpn_cls_score_reshape -> rpn_cls_score_reshape
I0604 18:03:43.180392  7870 net.cpp:150] Setting up rpn_cls_score_reshape
I0604 18:03:43.180395  7870 net.cpp:157] Top shape: 1 2 570 63 (71820)
I0604 18:03:43.180397  7870 net.cpp:165] Memory required for data: 1427513676
I0604 18:03:43.180399  7870 layer_factory.hpp:77] Creating layer rpn_cls_score_reshape_rpn_cls_score_reshape_0_split
I0604 18:03:43.180402  7870 net.cpp:106] Creating Layer rpn_cls_score_reshape_rpn_cls_score_reshape_0_split
I0604 18:03:43.180405  7870 net.cpp:454] rpn_cls_score_reshape_rpn_cls_score_reshape_0_split <- rpn_cls_score_reshape
I0604 18:03:43.180408  7870 net.cpp:411] rpn_cls_score_reshape_rpn_cls_score_reshape_0_split -> rpn_cls_score_reshape_rpn_cls_score_reshape_0_split_0
I0604 18:03:43.180413  7870 net.cpp:411] rpn_cls_score_reshape_rpn_cls_score_reshape_0_split -> rpn_cls_score_reshape_rpn_cls_score_reshape_0_split_1
I0604 18:03:43.180443  7870 net.cpp:150] Setting up rpn_cls_score_reshape_rpn_cls_score_reshape_0_split
I0604 18:03:43.180446  7870 net.cpp:157] Top shape: 1 2 570 63 (71820)
I0604 18:03:43.180459  7870 net.cpp:157] Top shape: 1 2 570 63 (71820)
I0604 18:03:43.180461  7870 net.cpp:165] Memory required for data: 1428088236
I0604 18:03:43.180464  7870 layer_factory.hpp:77] Creating layer rpn-data
I0604 18:03:43.180790  7870 net.cpp:106] Creating Layer rpn-data
I0604 18:03:43.180799  7870 net.cpp:454] rpn-data <- rpn_cls_score_rpn_cls_score_0_split_1
I0604 18:03:43.180804  7870 net.cpp:454] rpn-data <- gt_boxes_input-data_2_split_0
I0604 18:03:43.180807  7870 net.cpp:454] rpn-data <- im_info_input-data_1_split_0
I0604 18:03:43.180810  7870 net.cpp:454] rpn-data <- data_input-data_0_split_1
I0604 18:03:43.180815  7870 net.cpp:411] rpn-data -> rpn_labels
I0604 18:03:43.180820  7870 net.cpp:411] rpn-data -> rpn_bbox_targets
I0604 18:03:43.180825  7870 net.cpp:411] rpn-data -> rpn_bbox_inside_weights
I0604 18:03:43.180830  7870 net.cpp:411] rpn-data -> rpn_bbox_outside_weights
===================================anchor_scales in AnchorTargetLayer:=============(2, 4, 8, 16, 32)
I0604 18:03:43.181699  7870 net.cpp:150] Setting up rpn-data
I0604 18:03:43.181707  7870 net.cpp:157] Top shape: 1 1 570 63 (35910)
I0604 18:03:43.181711  7870 net.cpp:157] Top shape: 1 60 38 63 (143640)
I0604 18:03:43.181715  7870 net.cpp:157] Top shape: 1 60 38 63 (143640)
I0604 18:03:43.181718  7870 net.cpp:157] Top shape: 1 60 38 63 (143640)
I0604 18:03:43.181721  7870 net.cpp:165] Memory required for data: 1429955556
I0604 18:03:43.181725  7870 layer_factory.hpp:77] Creating layer rpn_loss_cls
I0604 18:03:43.181730  7870 net.cpp:106] Creating Layer rpn_loss_cls
I0604 18:03:43.181735  7870 net.cpp:454] rpn_loss_cls <- rpn_cls_score_reshape_rpn_cls_score_reshape_0_split_0
I0604 18:03:43.181738  7870 net.cpp:454] rpn_loss_cls <- rpn_labels
…
I0604 18:03:43.183559  7870 net.cpp:157] Top shape: (1)
I0604 18:03:43.183563  7870 net.cpp:160]     with loss weight 1
I0604 18:03:43.183569  7870 net.cpp:165] Memory required for data: 1429955564
I0604 18:03:43.183573  7870 layer_factory.hpp:77] Creating layer rpn_cls_prob
I0604 18:03:43.183579  7870 net.cpp:106] Creating Layer rpn_cls_prob
I0604 18:03:43.183583  7870 net.cpp:454] rpn_cls_prob <- rpn_cls_score_reshape_rpn_cls_score_reshape_0_split_1
I0604 18:03:43.183588  7870 net.cpp:411] rpn_cls_prob -> rpn_cls_prob
I0604 18:03:43.183742  7870 net.cpp:150] Setting up rpn_cls_prob
I0604 18:03:43.183748  7870 net.cpp:157] Top shape: 1 2 570 63 (71820)
I0604 18:03:43.183751  7870 net.cpp:165] Memory required for data: 1430242844
I0604 18:03:43.183754  7870 layer_factory.hpp:77] Creating layer rpn_cls_prob_reshape
I0604 18:03:43.183760  7870 net.cpp:106] Creating Layer rpn_cls_prob_reshape
I0604 18:03:43.183764  7870 net.cpp:454] rpn_cls_prob_reshape <- rpn_cls_prob
I0604 18:03:43.183768  7870 net.cpp:411] rpn_cls_prob_reshape -> rpn_cls_prob_reshape
I0604 18:03:43.183787  7870 net.cpp:150] Setting up rpn_cls_prob_reshape
I0604 18:03:43.183791  7870 net.cpp:157] Top shape: 1 30 38 63 (71820)
I0604 18:03:43.183794  7870 net.cpp:165] Memory required for data: 1430530124
I0604 18:03:43.183796  7870 layer_factory.hpp:77] Creating layer proposal
I0604 18:03:43.184221  7870 net.cpp:106] Creating Layer proposal
I0604 18:03:43.184229  7870 net.cpp:454] proposal <- rpn_cls_prob_reshape
I0604 18:03:43.184234  7870 net.cpp:454] proposal <- rpn_bbox_pred_rpn_bbox_pred_0_split_1
I0604 18:03:43.184238  7870 net.cpp:454] proposal <- im_info_input-data_1_split_1
I0604 18:03:43.184242  7870 net.cpp:411] proposal -> rpn_rois
=================================anchor_scales in ProposalLayer:=============(2, 4, 8, 16, 32)
I0604 18:03:43.184983  7870 net.cpp:150] Setting up proposal
I0604 18:03:43.184993  7870 net.cpp:157] Top shape: 1 5 (5)
I0604 18:03:43.184996  7870 net.cpp:165] Memory required for data: 1430530144
I0604 18:03:43.184998  7870 layer_factory.hpp:77] Creating layer roi-data
I0604 18:03:43.185181  7870 net.cpp:106] Creating Layer roi-data
I0604 18:03:43.185189  7870 net.cpp:454] roi-data <- rpn_rois
I0604 18:03:43.185204  7870 net.cpp:454] roi-data <- gt_boxes_input-data_2_split_1
I0604 18:03:43.185207  7870 net.cpp:454] roi-data <- im_info_input-data_1_split_2
I0604 18:03:43.185210  7870 net.cpp:454] roi-data <- seg_mask_inds
I0604 18:03:43.185214  7870 net.cpp:454] roi-data <- flipped
I0604 18:03:43.185218  7870 net.cpp:411] roi-data -> rois
I0604 18:03:43.185225  7870 net.cpp:411] roi-data -> labels
I0604 18:03:43.185230  7870 net.cpp:411] roi-data -> bbox_targets
I0604 18:03:43.185235  7870 net.cpp:411] roi-data -> bbox_inside_weights
I0604 18:03:43.185240  7870 net.cpp:411] roi-data -> bbox_outside_weights
I0604 18:03:43.185245  7870 net.cpp:411] roi-data -> mask_targets
I0604 18:03:43.185248  7870 net.cpp:411] roi-data -> rois_pos
I0604 18:03:43.185534  7870 net.cpp:150] Setting up roi-data
I0604 18:03:43.185541  7870 net.cpp:157] Top shape: 1 5 (5)
I0604 18:03:43.185545  7870 net.cpp:157] Top shape: 1 1 (1)
I0604 18:03:43.185549  7870 net.cpp:157] Top shape: 1 8 (8)
I0604 18:03:43.185550  7870 net.cpp:157] Top shape: 1 8 (8)
I0604 18:03:43.185554  7870 net.cpp:157] Top shape: 1 8 (8)
I0604 18:03:43.185557  7870 net.cpp:157] Top shape: 1 244 244 (59536)
I0604 18:03:43.185560  7870 net.cpp:157] Top shape: 1 5 (5)
I0604 18:03:43.185564  7870 net.cpp:165] Memory required for data: 1430768428
I0604 18:03:43.185566  7870 layer_factory.hpp:77] Creating layer roi_pool5
I0604 18:03:43.185573  7870 net.cpp:106] Creating Layer roi_pool5
I0604 18:03:43.185576  7870 net.cpp:454] roi_pool5 <- conv5_3_relu5_3_0_split_1
I0604 18:03:43.185580  7870 net.cpp:454] roi_pool5 <- rois
I0604 18:03:43.185585  7870 net.cpp:411] roi_pool5 -> pool5
I0604 18:03:43.185590  7870 roi_alignment_layer.cpp:32] Spatial scale: 0.0625
I0604 18:03:43.185662  7870 net.cpp:150] Setting up roi_pool5
I0604 18:03:43.185668  7870 net.cpp:157] Top shape: 1 512 7 7 (25088)
I0604 18:03:43.185672  7870 net.cpp:165] Memory required for data: 1430868780
I0604 18:03:43.185674  7870 layer_factory.hpp:77] Creating layer fc6
I0604 18:03:43.185681  7870 net.cpp:106] Creating Layer fc6
I0604 18:03:43.185685  7870 net.cpp:454] fc6 <- pool5
I0604 18:03:43.185688  7870 net.cpp:411] fc6 -> fc6
I0604 18:03:43.324084  7870 net.cpp:150] Setting up fc6
I0604 18:03:43.324107  7870 net.cpp:157] Top shape: 1 4096 (4096)
I0604 18:03:43.324112  7870 net.cpp:165] Memory required for data: 1430885164
I0604 18:03:43.324137  7870 layer_factory.hpp:77] Creating layer relu6
I0604 18:03:43.324147  7870 net.cpp:106] Creating Layer relu6
I0604 18:03:43.324164  7870 net.cpp:454] relu6 <- fc6
I0604 18:03:43.324173  7870 net.cpp:397] relu6 -> fc6 (in-place)
I0604 18:03:43.324384  7870 net.cpp:150] Setting up relu6
I0604 18:03:43.324393  7870 net.cpp:157] Top shape: 1 4096 (4096)
I0604 18:03:43.324395  7870 net.cpp:165] Memory required for data: 1430901548
I0604 18:03:43.324398  7870 layer_factory.hpp:77] Creating layer fc7
I0604 18:03:43.324415  7870 net.cpp:106] Creating Layer fc7
I0604 18:03:43.324419  7870 net.cpp:454] fc7 <- fc6
I0604 18:03:43.324424  7870 net.cpp:411] fc7 -> fc7
I0604 18:03:43.347808  7870 net.cpp:150] Setting up fc7
I0604 18:03:43.347834  7870 net.cpp:157] Top shape: 1 4096 (4096)
I0604 18:03:43.347837  7870 net.cpp:165] Memory required for data: 1430917932
I0604 18:03:43.347846  7870 layer_factory.hpp:77] Creating layer relu7
I0604 18:03:43.347856  7870 net.cpp:106] Creating Layer relu7
I0604 18:03:43.347870  7870 net.cpp:454] relu7 <- fc7
I0604 18:03:43.347877  7870 net.cpp:397] relu7 -> fc7 (in-place)
I0604 18:03:43.348098  7870 net.cpp:150] Setting up relu7
I0604 18:03:43.348105  7870 net.cpp:157] Top shape: 1 4096 (4096)
I0604 18:03:43.348109  7870 net.cpp:165] Memory required for data: 1430934316
I0604 18:03:43.348110  7870 layer_factory.hpp:77] Creating layer fc7_relu7_0_split
I0604 18:03:43.348115  7870 net.cpp:106] Creating Layer fc7_relu7_0_split
I0604 18:03:43.348120  7870 net.cpp:454] fc7_relu7_0_split <- fc7
I0604 18:03:43.348126  7870 net.cpp:411] fc7_relu7_0_split -> fc7_relu7_0_split_0
I0604 18:03:43.348145  7870 net.cpp:411] fc7_relu7_0_split -> fc7_relu7_0_split_1
I0604 18:03:43.348201  7870 net.cpp:150] Setting up fc7_relu7_0_split
I0604 18:03:43.348206  7870 net.cpp:157] Top shape: 1 4096 (4096)
I0604 18:03:43.348209  7870 net.cpp:157] Top shape: 1 4096 (4096)
I0604 18:03:43.348212  7870 net.cpp:165] Memory required for data: 1430967084
I0604 18:03:43.348214  7870 layer_factory.hpp:77] Creating layer cls_score
I0604 18:03:43.348219  7870 net.cpp:106] Creating Layer cls_score
I0604 18:03:43.348222  7870 net.cpp:454] cls_score <- fc7_relu7_0_split_0
I0604 18:03:43.348228  7870 net.cpp:411] cls_score -> cls_score
I0604 18:03:43.348493  7870 net.cpp:150] Setting up cls_score
I0604 18:03:43.348500  7870 net.cpp:157] Top shape: 1 2 (2)
I0604 18:03:43.348501  7870 net.cpp:165] Memory required for data: 1430967092
I0604 18:03:43.348505  7870 layer_factory.hpp:77] Creating layer bbox_pred
I0604 18:03:43.348510  7870 net.cpp:106] Creating Layer bbox_pred
I0604 18:03:43.348515  7870 net.cpp:454] bbox_pred <- fc7_relu7_0_split_1
I0604 18:03:43.348531  7870 net.cpp:411] bbox_pred -> bbox_pred
I0604 18:03:43.349292  7870 net.cpp:150] Setting up bbox_pred
I0604 18:03:43.349298  7870 net.cpp:157] Top shape: 1 8 (8)
I0604 18:03:43.349299  7870 net.cpp:165] Memory required for data: 1430967124
I0604 18:03:43.349303  7870 layer_factory.hpp:77] Creating layer loss_cls
I0604 18:03:43.349308  7870 net.cpp:106] Creating Layer loss_cls
I0604 18:03:43.349311  7870 net.cpp:454] loss_cls <- cls_score
I0604 18:03:43.349314  7870 net.cpp:454] loss_cls <- labels
I0604 18:03:43.349319  7870 net.cpp:411] loss_cls -> loss_cls
…
I0604 18:03:43.350227  7870 net.cpp:165] Memory required for data: 1430967132
I0604 18:03:43.350229  7870 layer_factory.hpp:77] Creating layer roi_pool5_2
I0604 18:03:43.350234  7870 net.cpp:106] Creating Layer roi_pool5_2
I0604 18:03:43.350237  7870 net.cpp:454] roi_pool5_2 <- conv5_3_relu5_3_0_split_2
I0604 18:03:43.350241  7870 net.cpp:454] roi_pool5_2 <- rois_pos
I0604 18:03:43.350244  7870 net.cpp:411] roi_pool5_2 -> pool5_2
I0604 18:03:43.350250  7870 roi_alignment_layer.cpp:32] Spatial scale: 0.0625
I0604 18:03:43.350319  7870 net.cpp:150] Setting up roi_pool5_2
I0604 18:03:43.350323  7870 net.cpp:157] Top shape: 1 512 7 7 (25088)
I0604 18:03:43.350337  7870 net.cpp:165] Memory required for data: 1431067484
I0604 18:03:43.350338  7870 layer_factory.hpp:77] Creating layer pool5_2_conv
I0604 18:03:43.350345  7870 net.cpp:106] Creating Layer pool5_2_conv
I0604 18:03:43.350348  7870 net.cpp:454] pool5_2_conv <- pool5_2
I0604 18:03:43.350353  7870 net.cpp:411] pool5_2_conv -> pool5_2_conv
I0604 18:03:43.357203  7870 net.cpp:150] Setting up pool5_2_conv
I0604 18:03:43.357213  7870 net.cpp:157] Top shape: 1 512 7 7 (25088)
I0604 18:03:43.357215  7870 net.cpp:165] Memory required for data: 1431167836
I0604 18:03:43.357221  7870 layer_factory.hpp:77] Creating layer pool5_2_conv_relu
I0604 18:03:43.357236  7870 net.cpp:106] Creating Layer pool5_2_conv_relu
I0604 18:03:43.357240  7870 net.cpp:454] pool5_2_conv_relu <- pool5_2_conv
I0604 18:03:43.357244  7870 net.cpp:411] pool5_2_conv_relu -> pool5_2_conv_relu
I0604 18:03:43.357393  7870 net.cpp:150] Setting up pool5_2_conv_relu
I0604 18:03:43.357400  7870 net.cpp:157] Top shape: 1 512 7 7 (25088)
I0604 18:03:43.357403  7870 net.cpp:165] Memory required for data: 1431268188
I0604 18:03:43.357409  7870 layer_factory.hpp:77] Creating layer pool5_2_conv2
I0604 18:03:43.357478  7870 net.cpp:106] Creating Layer pool5_2_conv2
I0604 18:03:43.357482  7870 net.cpp:454] pool5_2_conv2 <- pool5_2_conv_relu
I0604 18:03:43.357496  7870 net.cpp:411] pool5_2_conv2 -> pool5_2_conv2
I0604 18:03:43.407541  7870 net.cpp:150] Setting up pool5_2_conv2
I0604 18:03:43.407559  7870 net.cpp:157] Top shape: 1 512 7 7 (25088)
I0604 18:03:43.407563  7870 net.cpp:165] Memory required for data: 1431368540
I0604 18:03:43.407572  7870 layer_factory.hpp:77] Creating layer pool5_2_conv2_relu
I0604 18:03:43.407582  7870 net.cpp:106] Creating Layer pool5_2_conv2_relu
I0604 18:03:43.407598  7870 net.cpp:454] pool5_2_conv2_relu <- pool5_2_conv2
I0604 18:03:43.407606  7870 net.cpp:411] pool5_2_conv2_relu -> pool5_2_conv2_relu
I0604 18:03:43.407764  7870 net.cpp:150] Setting up pool5_2_conv2_relu
I0604 18:03:43.407771  7870 net.cpp:157] Top shape: 1 512 7 7 (25088)
I0604 18:03:43.407774  7870 net.cpp:165] Memory required for data: 1431468892
I0604 18:03:43.407778  7870 layer_factory.hpp:77] Creating layer mask_deconv1
I0604 18:03:43.407784  7870 net.cpp:106] Creating Layer mask_deconv1
I0604 18:03:43.407788  7870 net.cpp:454] mask_deconv1 <- pool5_2_conv2_relu
I0604 18:03:43.407793  7870 net.cpp:411] mask_deconv1 -> mask_deconv1
I0604 18:03:43.408579  7870 net.cpp:150] Setting up mask_deconv1
I0604 18:03:43.408586  7870 net.cpp:157] Top shape: 1 256 30 30 (230400)
I0604 18:03:43.408587  7870 net.cpp:165] Memory required for data: 1432390492
I0604 18:03:43.408591  7870 layer_factory.hpp:77] Creating layer pool5_2_conv3
I0604 18:03:43.408598  7870 net.cpp:106] Creating Layer pool5_2_conv3
I0604 18:03:43.408601  7870 net.cpp:454] pool5_2_conv3 <- mask_deconv1
I0604 18:03:43.408605  7870 net.cpp:411] pool5_2_conv3 -> pool5_2_conv3
I0604 18:03:43.435154  7870 net.cpp:150] Setting up pool5_2_conv3
I0604 18:03:43.435184  7870 net.cpp:157] Top shape: 1 512 30 30 (460800)
I0604 18:03:43.435187  7870 net.cpp:165] Memory required for data: 1434233692
I0604 18:03:43.435197  7870 layer_factory.hpp:77] Creating layer pool5_2_conv3_relu
I0604 18:03:43.435220  7870 net.cpp:106] Creating Layer pool5_2_conv3_relu
I0604 18:03:43.435226  7870 net.cpp:454] pool5_2_conv3_relu <- pool5_2_conv3
I0604 18:03:43.435231  7870 net.cpp:411] pool5_2_conv3_relu -> pool5_2_conv3_relu
I0604 18:03:43.435401  7870 net.cpp:150] Setting up pool5_2_conv3_relu
I0604 18:03:43.435410  7870 net.cpp:157] Top shape: 1 512 30 30 (460800)
I0604 18:03:43.435411  7870 net.cpp:165] Memory required for data: 1436076892
I0604 18:03:43.435415  7870 layer_factory.hpp:77] Creating layer pool5_2_conv4
I0604 18:03:43.435425  7870 net.cpp:106] Creating Layer pool5_2_conv4
I0604 18:03:43.435431  7870 net.cpp:454] pool5_2_conv4 <- pool5_2_conv3_relu
I0604 18:03:43.435449  7870 net.cpp:411] pool5_2_conv4 -> pool5_2_conv4
I0604 18:03:43.485265  7870 net.cpp:150] Setting up pool5_2_conv4
I0604 18:03:43.485285  7870 net.cpp:157] Top shape: 1 512 30 30 (460800)
I0604 18:03:43.485289  7870 net.cpp:165] Memory required for data: 1437920092
I0604 18:03:43.485297  7870 layer_factory.hpp:77] Creating layer pool5_2_conv4_relu
I0604 18:03:43.485307  7870 net.cpp:106] Creating Layer pool5_2_conv4_relu
I0604 18:03:43.485325  7870 net.cpp:454] pool5_2_conv4_relu <- pool5_2_conv4
I0604 18:03:43.485333  7870 net.cpp:411] pool5_2_conv4_relu -> pool5_2_conv4_relu
I0604 18:03:43.485519  7870 net.cpp:150] Setting up pool5_2_conv4_relu
I0604 18:03:43.485527  7870 net.cpp:157] Top shape: 1 512 30 30 (460800)
I0604 18:03:43.485530  7870 net.cpp:165] Memory required for data: 1439763292
I0604 18:03:43.485533  7870 layer_factory.hpp:77] Creating layer pool5_2_conv4_relu_pool5_2_conv4_relu_0_split
I0604 18:03:43.485539  7870 net.cpp:106] Creating Layer pool5_2_conv4_relu_pool5_2_conv4_relu_0_split
I0604 18:03:43.485541  7870 net.cpp:454] pool5_2_conv4_relu_pool5_2_conv4_relu_0_split <- pool5_2_conv4_relu
…
I0604 18:03:43.485590  7870 net.cpp:411] pool5_2_conv4_relu_pool5_2_conv4_relu_0_split -> pool5_2_conv4_relu_pool5_2_conv4_relu_0_split_4
I0604 18:03:43.485594  7870 net.cpp:411] pool5_2_conv4_relu_pool5_2_conv4_relu_0_split -> pool5_2_conv4_relu_pool5_2_conv4_relu_0_split_5
I0604 18:03:43.485602  7870 net.cpp:411] pool5_2_conv4_relu_pool5_2_conv4_relu_0_split -> pool5_2_conv4_relu_pool5_2_conv4_relu_0_split_6
I0604 18:03:43.485606  7870 net.cpp:411] pool5_2_conv4_relu_pool5_2_conv4_relu_0_split -> pool5_2_conv4_relu_pool5_2_conv4_relu_0_split_7
I0604 18:03:43.485702  7870 net.cpp:150] Setting up pool5_2_conv4_relu_pool5_2_conv4_relu_0_split
I0604 18:03:43.485707  7870 net.cpp:157] Top shape: 1 512 30 30 (460800)
I0604 18:03:43.485720  7870 net.cpp:157] Top shape: 1 512 30 30 (460800)
I0604 18:03:43.485724  7870 net.cpp:157] Top shape: 1 512 30 30 (460800)
I0604 18:03:43.485726  7870 net.cpp:157] Top shape: 1 512 30 30 (460800)
I0604 18:03:43.485729  7870 net.cpp:157] Top shape: 1 512 30 30 (460800)
I0604 18:03:43.485733  7870 net.cpp:157] Top shape: 1 512 30 30 (460800)
I0604 18:03:43.485734  7870 net.cpp:157] Top shape: 1 512 30 30 (460800)
I0604 18:03:43.485749  7870 net.cpp:157] Top shape: 1 512 30 30 (460800)
I0604 18:03:43.485750  7870 net.cpp:165] Memory required for data: 1454508892
I0604 18:03:43.485754  7870 layer_factory.hpp:77] Creating layer query_conv
I0604 18:03:43.485771  7870 net.cpp:106] Creating Layer query_conv
I0604 18:03:43.485775  7870 net.cpp:454] query_conv <- pool5_2_conv4_relu_pool5_2_conv4_relu_0_split_0
I0604 18:03:43.485780  7870 net.cpp:411] query_conv -> query_conv
I0604 18:03:43.487511  7870 net.cpp:150] Setting up query_conv
I0604 18:03:43.487520  7870 net.cpp:157] Top shape: 1 64 30 30 (57600)
I0604 18:03:43.487524  7870 net.cpp:165] Memory required for data: 1454739292
I0604 18:03:43.487529  7870 layer_factory.hpp:77] Creating layer key_conv
I0604 18:03:43.487537  7870 net.cpp:106] Creating Layer key_conv
I0604 18:03:43.487540  7870 net.cpp:454] key_conv <- pool5_2_conv4_relu_pool5_2_conv4_relu_0_split_1
I0604 18:03:43.487556  7870 net.cpp:411] key_conv -> key_conv
I0604 18:03:43.489116  7870 net.cpp:150] Setting up key_conv
I0604 18:03:43.489125  7870 net.cpp:157] Top shape: 1 64 30 30 (57600)
I0604 18:03:43.489126  7870 net.cpp:165] Memory required for data: 1454969692
I0604 18:03:43.489131  7870 layer_factory.hpp:77] Creating layer value_conv
I0604 18:03:43.489138  7870 net.cpp:106] Creating Layer value_conv
I0604 18:03:43.489142  7870 net.cpp:454] value_conv <- pool5_2_conv4_relu_pool5_2_conv4_relu_0_split_2
I0604 18:03:43.489163  7870 net.cpp:411] value_conv -> value_conv
I0604 18:03:43.495790  7870 net.cpp:150] Setting up value_conv
I0604 18:03:43.495798  7870 net.cpp:157] Top shape: 1 512 30 30 (460800)
I0604 18:03:43.495801  7870 net.cpp:165] Memory required for data: 1456812892
I0604 18:03:43.495806  7870 layer_factory.hpp:77] Creating layer query_conv_reshape
I0604 18:03:43.495813  7870 net.cpp:106] Creating Layer query_conv_reshape
I0604 18:03:43.495817  7870 net.cpp:454] query_conv_reshape <- query_conv
I0604 18:03:43.495823  7870 net.cpp:411] query_conv_reshape -> query_conv_reshape
I0604 18:03:43.495848  7870 net.cpp:150] Setting up query_conv_reshape
I0604 18:03:43.495852  7870 net.cpp:157] Top shape: 1 64 900 1 (57600)
I0604 18:03:43.495854  7870 net.cpp:165] Memory required for data: 1457043292
I0604 18:03:43.495857  7870 layer_factory.hpp:77] Creating layer key_conv_reshape
I0604 18:03:43.495862  7870 net.cpp:106] Creating Layer key_conv_reshape
I0604 18:03:43.495864  7870 net.cpp:454] key_conv_reshape <- key_conv
I0604 18:03:43.495868  7870 net.cpp:411] key_conv_reshape -> key_conv_reshape
I0604 18:03:43.495887  7870 net.cpp:150] Setting up key_conv_reshape
I0604 18:03:43.495892  7870 net.cpp:157] Top shape: 1 64 900 1 (57600)
I0604 18:03:43.495893  7870 net.cpp:165] Memory required for data: 1457273692
I0604 18:03:43.495895  7870 layer_factory.hpp:77] Creating layer value_conv_reshape
I0604 18:03:43.495900  7870 net.cpp:106] Creating Layer value_conv_reshape
I0604 18:03:43.495903  7870 net.cpp:454] value_conv_reshape <- value_conv
I0604 18:03:43.495908  7870 net.cpp:411] value_conv_reshape -> value_conv_reshape
I0604 18:03:43.495925  7870 net.cpp:150] Setting up value_conv_reshape
I0604 18:03:43.495929  7870 net.cpp:157] Top shape: 1 512 900 1 (460800)
I0604 18:03:43.495931  7870 net.cpp:165] Memory required for data: 1459116892
I0604 18:03:43.495934  7870 layer_factory.hpp:77] Creating layer query_conv_reshape_perm
I0604 18:03:43.495944  7870 net.cpp:106] Creating Layer query_conv_reshape_perm
I0604 18:03:43.495949  7870 net.cpp:454] query_conv_reshape_perm <- query_conv_reshape
I0604 18:03:43.495954  7870 net.cpp:411] query_conv_reshape_perm -> query_conv_reshape_perm
I0604 18:03:43.496019  7870 net.cpp:150] Setting up query_conv_reshape_perm
I0604 18:03:43.496023  7870 net.cpp:157] Top shape: 1 1 900 64 (57600)
I0604 18:03:43.496026  7870 net.cpp:165] Memory required for data: 1459347292
I0604 18:03:43.496027  7870 layer_factory.hpp:77] Creating layer key_conv_reshape_perm
I0604 18:03:43.496031  7870 net.cpp:106] Creating Layer key_conv_reshape_perm
I0604 18:03:43.496034  7870 net.cpp:454] key_conv_reshape_perm <- key_conv_reshape
I0604 18:03:43.496039  7870 net.cpp:411] key_conv_reshape_perm -> key_conv_reshape_perm
I0604 18:03:43.496101  7870 net.cpp:150] Setting up key_conv_reshape_perm
I0604 18:03:43.496106  7870 net.cpp:157] Top shape: 1 1 64 900 (57600)
I0604 18:03:43.496109  7870 net.cpp:165] Memory required for data: 1459577692
I0604 18:03:43.496114  7870 layer_factory.hpp:77] Creating layer energy
I0604 18:03:43.496119  7870 net.cpp:106] Creating Layer energy
I0604 18:03:43.496124  7870 net.cpp:454] energy <- query_conv_reshape_perm
I0604 18:03:43.496126  7870 net.cpp:454] energy <- key_conv_reshape_perm
I0604 18:03:43.496132  7870 net.cpp:411] energy -> energy
I0604 18:03:43.496152  7870 net.cpp:150] Setting up energy
I0604 18:03:43.496156  7870 net.cpp:157] Top shape: 1 1 900 900 (810000)
I0604 18:03:43.496160  7870 net.cpp:165] Memory required for data: 1462817692
I0604 18:03:43.496163  7870 layer_factory.hpp:77] Creating layer attention
I0604 18:03:43.496170  7870 net.cpp:106] Creating Layer attention
I0604 18:03:43.496173  7870 net.cpp:454] attention <- energy
I0604 18:03:43.496177  7870 net.cpp:411] attention -> attention
I0604 18:03:43.496343  7870 net.cpp:150] Setting up attention
I0604 18:03:43.496349  7870 net.cpp:157] Top shape: 1 1 900 900 (810000)
I0604 18:03:43.496353  7870 net.cpp:165] Memory required for data: 1466057692
I0604 18:03:43.496357  7870 layer_factory.hpp:77] Creating layer value_conv_reshape_perm
I0604 18:03:43.496363  7870 net.cpp:106] Creating Layer value_conv_reshape_perm
I0604 18:03:43.496371  7870 net.cpp:454] value_conv_reshape_perm <- value_conv_reshape
I0604 18:03:43.496376  7870 net.cpp:411] value_conv_reshape_perm -> value_conv_reshape_perm
I0604 18:03:43.496443  7870 net.cpp:150] Setting up value_conv_reshape_perm
I0604 18:03:43.496448  7870 net.cpp:157] Top shape: 1 1 512 900 (460800)
I0604 18:03:43.496451  7870 net.cpp:165] Memory required for data: 1467900892
I0604 18:03:43.496454  7870 layer_factory.hpp:77] Creating layer attention_perm
I0604 18:03:43.496460  7870 net.cpp:106] Creating Layer attention_perm
I0604 18:03:43.496465  7870 net.cpp:454] attention_perm <- attention
I0604 18:03:43.496471  7870 net.cpp:411] attention_perm -> attention_perm
I0604 18:03:43.496536  7870 net.cpp:150] Setting up attention_perm
I0604 18:03:43.496539  7870 net.cpp:157] Top shape: 1 1 900 900 (810000)
I0604 18:03:43.496543  7870 net.cpp:165] Memory required for data: 1471140892
I0604 18:03:43.496549  7870 layer_factory.hpp:77] Creating layer out
I0604 18:03:43.496556  7870 net.cpp:106] Creating Layer out
I0604 18:03:43.496558  7870 net.cpp:454] out <- value_conv_reshape_perm
I0604 18:03:43.496562  7870 net.cpp:454] out <- attention_perm
I0604 18:03:43.496567  7870 net.cpp:411] out -> out
I0604 18:03:43.496583  7870 net.cpp:150] Setting up out
I0604 18:03:43.496587  7870 net.cpp:157] Top shape: 1 1 512 900 (460800)
I0604 18:03:43.496590  7870 net.cpp:165] Memory required for data: 1472984092
I0604 18:03:43.496595  7870 layer_factory.hpp:77] Creating layer out_reshape
I0604 18:03:43.496601  7870 net.cpp:106] Creating Layer out_reshape
I0604 18:03:43.496605  7870 net.cpp:454] out_reshape <- out
I0604 18:03:43.496610  7870 net.cpp:411] out_reshape -> out_reshape
I0604 18:03:43.496629  7870 net.cpp:150] Setting up out_reshape
I0604 18:03:43.496634  7870 net.cpp:157] Top shape: 1 512 30 30 (460800)
I0604 18:03:43.496636  7870 net.cpp:165] Memory required for data: 1474827292
I0604 18:03:43.496641  7870 layer_factory.hpp:77] Creating layer out_reshape_scale
I0604 18:03:43.496650  7870 net.cpp:106] Creating Layer out_reshape_scale
I0604 18:03:43.496654  7870 net.cpp:454] out_reshape_scale <- out_reshape
I0604 18:03:43.496659  7870 net.cpp:411] out_reshape_scale -> out_reshape_scale
I0604 18:03:43.496721  7870 net.cpp:150] Setting up out_reshape_scale
I0604 18:03:43.496726  7870 net.cpp:157] Top shape: 1 512 30 30 (460800)
I0604 18:03:43.496731  7870 net.cpp:165] Memory required for data: 1476670492
I0604 18:03:43.496735  7870 layer_factory.hpp:77] Creating layer out_x
I0604 18:03:43.496742  7870 net.cpp:106] Creating Layer out_x
I0604 18:03:43.496748  7870 net.cpp:454] out_x <- out_reshape_scale
I0604 18:03:43.496753  7870 net.cpp:454] out_x <- pool5_2_conv4_relu_pool5_2_conv4_relu_0_split_3
I0604 18:03:43.496759  7870 net.cpp:411] out_x -> out_x
I0604 18:03:43.496780  7870 net.cpp:150] Setting up out_x
I0604 18:03:43.496795  7870 net.cpp:157] Top shape: 1 512 30 30 (460800)
I0604 18:03:43.496801  7870 net.cpp:165] Memory required for data: 1478513692
I0604 18:03:43.496805  7870 layer_factory.hpp:77] Creating layer query_conv_reshape_ch
I0604 18:03:43.496814  7870 net.cpp:106] Creating Layer query_conv_reshape_ch
I0604 18:03:43.496819  7870 net.cpp:454] query_conv_reshape_ch <- pool5_2_conv4_relu_pool5_2_conv4_relu_0_split_4
I0604 18:03:43.496826  7870 net.cpp:411] query_conv_reshape_ch -> query_conv_reshape_ch
I0604 18:03:43.496847  7870 net.cpp:150] Setting up query_conv_reshape_ch
I0604 18:03:43.496852  7870 net.cpp:157] Top shape: 1 512 900 1 (460800)
I0604 18:03:43.496855  7870 net.cpp:165] Memory required for data: 1480356892
I0604 18:03:43.496860  7870 layer_factory.hpp:77] Creating layer key_conv_reshape_ch
I0604 18:03:43.496866  7870 net.cpp:106] Creating Layer key_conv_reshape_ch
I0604 18:03:43.496870  7870 net.cpp:454] key_conv_reshape_ch <- pool5_2_conv4_relu_pool5_2_conv4_relu_0_split_5
I0604 18:03:43.496876  7870 net.cpp:411] key_conv_reshape_ch -> key_conv_reshape_ch
I0604 18:03:43.496902  7870 net.cpp:150] Setting up key_conv_reshape_ch
I0604 18:03:43.496906  7870 net.cpp:157] Top shape: 1 512 900 1 (460800)
I0604 18:03:43.496909  7870 net.cpp:165] Memory required for data: 1482200092
I0604 18:03:43.496914  7870 layer_factory.hpp:77] Creating layer value_conv_reshape_ch
I0604 18:03:43.496927  7870 net.cpp:106] Creating Layer value_conv_reshape_ch
I0604 18:03:43.496932  7870 net.cpp:454] value_conv_reshape_ch <- pool5_2_conv4_relu_pool5_2_conv4_relu_0_split_6
I0604 18:03:43.496937  7870 net.cpp:411] value_conv_reshape_ch -> value_conv_reshape_ch
I0604 18:03:43.496956  7870 net.cpp:150] Setting up value_conv_reshape_ch
I0604 18:03:43.496961  7870 net.cpp:157] Top shape: 1 512 900 1 (460800)
I0604 18:03:43.496965  7870 net.cpp:165] Memory required for data: 1484043292
I0604 18:03:43.496970  7870 layer_factory.hpp:77] Creating layer query_conv_reshape_perm_ch
I0604 18:03:43.496976  7870 net.cpp:106] Creating Layer query_conv_reshape_perm_ch
I0604 18:03:43.496980  7870 net.cpp:454] query_conv_reshape_perm_ch <- query_conv_reshape_ch
I0604 18:03:43.496984  7870 net.cpp:411] query_conv_reshape_perm_ch -> query_conv_reshape_perm_ch
I0604 18:03:43.497062  7870 net.cpp:150] Setting up query_conv_reshape_perm_ch
I0604 18:03:43.497067  7870 net.cpp:157] Top shape: 1 1 512 900 (460800)
I0604 18:03:43.497071  7870 net.cpp:165] Memory required for data: 1485886492
I0604 18:03:43.497073  7870 layer_factory.hpp:77] Creating layer key_conv_reshape_perm_ch
I0604 18:03:43.497076  7870 net.cpp:106] Creating Layer key_conv_reshape_perm_ch
I0604 18:03:43.497081  7870 net.cpp:454] key_conv_reshape_perm_ch <- key_conv_reshape_ch
I0604 18:03:43.497087  7870 net.cpp:411] key_conv_reshape_perm_ch -> key_conv_reshape_perm_ch
I0604 18:03:43.497180  7870 net.cpp:150] Setting up key_conv_reshape_perm_ch
I0604 18:03:43.497185  7870 net.cpp:157] Top shape: 1 1 900 512 (460800)
I0604 18:03:43.497189  7870 net.cpp:165] Memory required for data: 1487729692
I0604 18:03:43.497192  7870 layer_factory.hpp:77] Creating layer energy_ch
I0604 18:03:43.497197  7870 net.cpp:106] Creating Layer energy_ch
I0604 18:03:43.497203  7870 net.cpp:454] energy_ch <- query_conv_reshape_perm_ch
I0604 18:03:43.497206  7870 net.cpp:454] energy_ch <- key_conv_reshape_perm_ch
I0604 18:03:43.497212  7870 net.cpp:411] energy_ch -> energy_ch
I0604 18:03:43.497229  7870 net.cpp:150] Setting up energy_ch
I0604 18:03:43.497233  7870 net.cpp:157] Top shape: 1 1 512 512 (262144)
I0604 18:03:43.497246  7870 net.cpp:165] Memory required for data: 1488778268
I0604 18:03:43.497249  7870 layer_factory.hpp:77] Creating layer energy_ch_energy_ch_0_split
I0604 18:03:43.497256  7870 net.cpp:106] Creating Layer energy_ch_energy_ch_0_split
I0604 18:03:43.497259  7870 net.cpp:454] energy_ch_energy_ch_0_split <- energy_ch
I0604 18:03:43.497263  7870 net.cpp:411] energy_ch_energy_ch_0_split -> energy_ch_energy_ch_0_split_0
I0604 18:03:43.497269  7870 net.cpp:411] energy_ch_energy_ch_0_split -> energy_ch_energy_ch_0_split_1
I0604 18:03:43.497293  7870 net.cpp:150] Setting up energy_ch_energy_ch_0_split
I0604 18:03:43.497298  7870 net.cpp:157] Top shape: 1 1 512 512 (262144)
I0604 18:03:43.497301  7870 net.cpp:157] Top shape: 1 1 512 512 (262144)
I0604 18:03:43.497306  7870 net.cpp:165] Memory required for data: 1490875420
I0604 18:03:43.497308  7870 layer_factory.hpp:77] Creating layer energy_ch_perm
I0604 18:03:43.497315  7870 net.cpp:106] Creating Layer energy_ch_perm
I0604 18:03:43.497318  7870 net.cpp:454] energy_ch_perm <- energy_ch_energy_ch_0_split_0
I0604 18:03:43.497323  7870 net.cpp:411] energy_ch_perm -> energy_ch_perm
I0604 18:03:43.497385  7870 net.cpp:150] Setting up energy_ch_perm
I0604 18:03:43.497390  7870 net.cpp:157] Top shape: 1 512 1 512 (262144)
I0604 18:03:43.497392  7870 net.cpp:165] Memory required for data: 1491923996
I0604 18:03:43.497397  7870 layer_factory.hpp:77] Creating layer energy_ch_pool
I0604 18:03:43.497406  7870 net.cpp:106] Creating Layer energy_ch_pool
I0604 18:03:43.497409  7870 net.cpp:454] energy_ch_pool <- energy_ch_perm
I0604 18:03:43.497431  7870 net.cpp:411] energy_ch_pool -> energy_ch_pool
I0604 18:03:43.497468  7870 net.cpp:150] Setting up energy_ch_pool
I0604 18:03:43.497473  7870 net.cpp:157] Top shape: 1 512 1 1 (512)
I0604 18:03:43.497475  7870 net.cpp:165] Memory required for data: 1491926044
I0604 18:03:43.497480  7870 layer_factory.hpp:77] Creating layer energy_ch_reperm
I0604 18:03:43.497486  7870 net.cpp:106] Creating Layer energy_ch_reperm
I0604 18:03:43.497490  7870 net.cpp:454] energy_ch_reperm <- energy_ch_pool
I0604 18:03:43.497493  7870 net.cpp:411] energy_ch_reperm -> energy_ch_reperm
I0604 18:03:43.497555  7870 net.cpp:150] Setting up energy_ch_reperm
I0604 18:03:43.497560  7870 net.cpp:157] Top shape: 1 1 512 1 (512)
I0604 18:03:43.497563  7870 net.cpp:165] Memory required for data: 1491928092
I0604 18:03:43.497568  7870 layer_factory.hpp:77] Creating layer energy_ch_max
I0604 18:03:43.497572  7870 net.cpp:106] Creating Layer energy_ch_max
I0604 18:03:43.497577  7870 net.cpp:454] energy_ch_max <- energy_ch_reperm
I0604 18:03:43.497583  7870 net.cpp:411] energy_ch_max -> energy_ch_max
I0604 18:03:43.497601  7870 net.cpp:150] Setting up energy_ch_max
I0604 18:03:43.497606  7870 net.cpp:157] Top shape: 1 1 512 512 (262144)
I0604 18:03:43.497609  7870 net.cpp:165] Memory required for data: 1492976668
I0604 18:03:43.497612  7870 layer_factory.hpp:77] Creating layer energy_ch_minus
I0604 18:03:43.497620  7870 net.cpp:106] Creating Layer energy_ch_minus
I0604 18:03:43.497625  7870 net.cpp:454] energy_ch_minus <- energy_ch_energy_ch_0_split_1
I0604 18:03:43.497630  7870 net.cpp:411] energy_ch_minus -> energy_ch_minus
I0604 18:03:43.497649  7870 net.cpp:150] Setting up energy_ch_minus
I0604 18:03:43.497653  7870 net.cpp:157] Top shape: 1 1 512 512 (262144)
I0604 18:03:43.497656  7870 net.cpp:165] Memory required for data: 1494025244
I0604 18:03:43.497661  7870 layer_factory.hpp:77] Creating layer energy_new
I0604 18:03:43.497668  7870 net.cpp:106] Creating Layer energy_new
I0604 18:03:43.497673  7870 net.cpp:454] energy_new <- energy_ch_max
I0604 18:03:43.497675  7870 net.cpp:454] energy_new <- energy_ch_minus
I0604 18:03:43.497681  7870 net.cpp:411] energy_new -> energy_new
I0604 18:03:43.497697  7870 net.cpp:150] Setting up energy_new
I0604 18:03:43.497702  7870 net.cpp:157] Top shape: 1 1 512 512 (262144)
I0604 18:03:43.497705  7870 net.cpp:165] Memory required for data: 1495073820
I0604 18:03:43.497710  7870 layer_factory.hpp:77] Creating layer attention_ch
I0604 18:03:43.497714  7870 net.cpp:106] Creating Layer attention_ch
I0604 18:03:43.497720  7870 net.cpp:454] attention_ch <- energy_new
I0604 18:03:43.497723  7870 net.cpp:411] attention_ch -> attention_ch
I0604 18:03:43.498267  7870 net.cpp:150] Setting up attention_ch
I0604 18:03:43.498275  7870 net.cpp:157] Top shape: 1 1 512 512 (262144)
I0604 18:03:43.498281  7870 net.cpp:165] Memory required for data: 1496122396
I0604 18:03:43.498283  7870 layer_factory.hpp:77] Creating layer value_conv_reshape_ch_perm
I0604 18:03:43.498291  7870 net.cpp:106] Creating Layer value_conv_reshape_ch_perm
I0604 18:03:43.498294  7870 net.cpp:454] value_conv_reshape_ch_perm <- value_conv_reshape_ch
I0604 18:03:43.498299  7870 net.cpp:411] value_conv_reshape_ch_perm -> value_conv_reshape_ch_perm
I0604 18:03:43.498363  7870 net.cpp:150] Setting up value_conv_reshape_ch_perm
I0604 18:03:43.498368  7870 net.cpp:157] Top shape: 1 1 512 900 (460800)
I0604 18:03:43.498370  7870 net.cpp:165] Memory required for data: 1497965596
I0604 18:03:43.498373  7870 layer_factory.hpp:77] Creating layer attention_ch_perm
I0604 18:03:43.498376  7870 net.cpp:106] Creating Layer attention_ch_perm
I0604 18:03:43.498379  7870 net.cpp:454] attention_ch_perm <- attention_ch
I0604 18:03:43.498383  7870 net.cpp:411] attention_ch_perm -> attention_ch_perm
I0604 18:03:43.498443  7870 net.cpp:150] Setting up attention_ch_perm
I0604 18:03:43.498447  7870 net.cpp:157] Top shape: 1 1 512 512 (262144)
I0604 18:03:43.498450  7870 net.cpp:165] Memory required for data: 1499014172
I0604 18:03:43.498451  7870 layer_factory.hpp:77] Creating layer out_ch
I0604 18:03:43.498456  7870 net.cpp:106] Creating Layer out_ch
I0604 18:03:43.498458  7870 net.cpp:454] out_ch <- attention_ch_perm
I0604 18:03:43.498461  7870 net.cpp:454] out_ch <- value_conv_reshape_ch_perm
I0604 18:03:43.498464  7870 net.cpp:411] out_ch -> out_ch
I0604 18:03:43.498479  7870 net.cpp:150] Setting up out_ch
I0604 18:03:43.498483  7870 net.cpp:157] Top shape: 1 1 512 900 (460800)
I0604 18:03:43.498486  7870 net.cpp:165] Memory required for data: 1500857372
I0604 18:03:43.498488  7870 layer_factory.hpp:77] Creating layer out_ch_reshape
I0604 18:03:43.498492  7870 net.cpp:106] Creating Layer out_ch_reshape
I0604 18:03:43.498495  7870 net.cpp:454] out_ch_reshape <- out_ch
I0604 18:03:43.498499  7870 net.cpp:411] out_ch_reshape -> out_ch_reshape
I0604 18:03:43.498512  7870 net.cpp:150] Setting up out_ch_reshape
I0604 18:03:43.498517  7870 net.cpp:157] Top shape: 1 512 30 30 (460800)
I0604 18:03:43.498518  7870 net.cpp:165] Memory required for data: 1502700572
I0604 18:03:43.498520  7870 layer_factory.hpp:77] Creating layer out_ch_reshape_scale
I0604 18:03:43.498526  7870 net.cpp:106] Creating Layer out_ch_reshape_scale
I0604 18:03:43.498529  7870 net.cpp:454] out_ch_reshape_scale <- out_ch_reshape
I0604 18:03:43.498533  7870 net.cpp:411] out_ch_reshape_scale -> out_ch_reshape_scale
I0604 18:03:43.498584  7870 net.cpp:150] Setting up out_ch_reshape_scale
I0604 18:03:43.498589  7870 net.cpp:157] Top shape: 1 512 30 30 (460800)
I0604 18:03:43.498590  7870 net.cpp:165] Memory required for data: 1504543772
I0604 18:03:43.498594  7870 net.cpp:514] Sharing parameters 'scale_conv1_1' owned by layer 'out_reshape_scale', param index 0
I0604 18:03:43.498595  7870 layer_factory.hpp:77] Creating layer out_ch_x
I0604 18:03:43.498600  7870 net.cpp:106] Creating Layer out_ch_x
I0604 18:03:43.498602  7870 net.cpp:454] out_ch_x <- out_ch_reshape_scale
I0604 18:03:43.498605  7870 net.cpp:454] out_ch_x <- pool5_2_conv4_relu_pool5_2_conv4_relu_0_split_7
I0604 18:03:43.498610  7870 net.cpp:411] out_ch_x -> out_ch_x
I0604 18:03:43.498625  7870 net.cpp:150] Setting up out_ch_x
I0604 18:03:43.498631  7870 net.cpp:157] Top shape: 1 512 30 30 (460800)
I0604 18:03:43.498632  7870 net.cpp:165] Memory required for data: 1506386972
I0604 18:03:43.498634  7870 layer_factory.hpp:77] Creating layer out_conv_ch_x
I0604 18:03:43.498641  7870 net.cpp:106] Creating Layer out_conv_ch_x
I0604 18:03:43.498643  7870 net.cpp:454] out_conv_ch_x <- out_ch_x
I0604 18:03:43.498647  7870 net.cpp:411] out_conv_ch_x -> out_conv_ch_x
I0604 18:03:43.504493  7870 net.cpp:150] Setting up out_conv_ch_x
I0604 18:03:43.504501  7870 net.cpp:157] Top shape: 1 512 30 30 (460800)
I0604 18:03:43.504504  7870 net.cpp:165] Memory required for data: 1508230172
I0604 18:03:43.504509  7870 layer_factory.hpp:77] Creating layer out_conv_x
I0604 18:03:43.504518  7870 net.cpp:106] Creating Layer out_conv_x
I0604 18:03:43.504521  7870 net.cpp:454] out_conv_x <- out_x
I0604 18:03:43.504526  7870 net.cpp:411] out_conv_x -> out_conv_x
I0604 18:03:43.511127  7870 net.cpp:150] Setting up out_conv_x
I0604 18:03:43.511147  7870 net.cpp:157] Top shape: 1 512 30 30 (460800)
I0604 18:03:43.511150  7870 net.cpp:165] Memory required for data: 1510073372
I0604 18:03:43.511155  7870 layer_factory.hpp:77] Creating layer out_x_sum
I0604 18:03:43.511160  7870 net.cpp:106] Creating Layer out_x_sum
I0604 18:03:43.511163  7870 net.cpp:454] out_x_sum <- out_conv_x
I0604 18:03:43.511168  7870 net.cpp:454] out_x_sum <- out_conv_ch_x
I0604 18:03:43.511171  7870 net.cpp:411] out_x_sum -> out_x_sum
I0604 18:03:43.511202  7870 net.cpp:150] Setting up out_x_sum
I0604 18:03:43.511206  7870 net.cpp:157] Top shape: 1 512 30 30 (460800)
I0604 18:03:43.511209  7870 net.cpp:165] Memory required for data: 1511916572
I0604 18:03:43.511221  7870 layer_factory.hpp:77] Creating layer mask_deconv2
I0604 18:03:43.511227  7870 net.cpp:106] Creating Layer mask_deconv2
I0604 18:03:43.511229  7870 net.cpp:454] mask_deconv2 <- out_x_sum
I0604 18:03:43.511234  7870 net.cpp:411] mask_deconv2 -> mask_deconv2
I0604 18:03:43.512048  7870 net.cpp:150] Setting up mask_deconv2
I0604 18:03:43.512053  7870 net.cpp:157] Top shape: 1 256 122 122 (3810304)
I0604 18:03:43.512066  7870 net.cpp:165] Memory required for data: 1527157788
I0604 18:03:43.512070  7870 layer_factory.hpp:77] Creating layer pool5_2_conv5
I0604 18:03:43.512076  7870 net.cpp:106] Creating Layer pool5_2_conv5
I0604 18:03:43.512089  7870 net.cpp:454] pool5_2_conv5 <- mask_deconv2
I0604 18:03:43.512094  7870 net.cpp:411] pool5_2_conv5 -> pool5_2_conv5
I0604 18:03:43.538776  7870 net.cpp:150] Setting up pool5_2_conv5
I0604 18:03:43.538795  7870 net.cpp:157] Top shape: 1 512 122 122 (7620608)
I0604 18:03:43.538800  7870 net.cpp:165] Memory required for data: 1557640220
I0604 18:03:43.538815  7870 layer_factory.hpp:77] Creating layer pool5_2_conv5_relu
I0604 18:03:43.538823  7870 net.cpp:106] Creating Layer pool5_2_conv5_relu
I0604 18:03:43.538830  7870 net.cpp:454] pool5_2_conv5_relu <- pool5_2_conv5
I0604 18:03:43.538833  7870 net.cpp:411] pool5_2_conv5_relu -> pool5_2_conv5_relu
I0604 18:03:43.538974  7870 net.cpp:150] Setting up pool5_2_conv5_relu
I0604 18:03:43.538981  7870 net.cpp:157] Top shape: 1 512 122 122 (7620608)
I0604 18:03:43.538983  7870 net.cpp:165] Memory required for data: 1588122652
I0604 18:03:43.538986  7870 layer_factory.hpp:77] Creating layer pool5_2_conv6
I0604 18:03:43.538995  7870 net.cpp:106] Creating Layer pool5_2_conv6
I0604 18:03:43.538998  7870 net.cpp:454] pool5_2_conv6 <- pool5_2_conv5_relu
I0604 18:03:43.539002  7870 net.cpp:411] pool5_2_conv6 -> pool5_2_conv6
I0604 18:03:43.589751  7870 net.cpp:150] Setting up pool5_2_conv6
I0604 18:03:43.589769  7870 net.cpp:157] Top shape: 1 512 122 122 (7620608)
I0604 18:03:43.589773  7870 net.cpp:165] Memory required for data: 1618605084
I0604 18:03:43.589781  7870 layer_factory.hpp:77] Creating layer pool5_2_conv6_relu
I0604 18:03:43.589788  7870 net.cpp:106] Creating Layer pool5_2_conv6_relu
I0604 18:03:43.589804  7870 net.cpp:454] pool5_2_conv6_relu <- pool5_2_conv6
I0604 18:03:43.589809  7870 net.cpp:411] pool5_2_conv6_relu -> pool5_2_conv6_relu
I0604 18:03:43.590397  7870 net.cpp:150] Setting up pool5_2_conv6_relu
I0604 18:03:43.590418  7870 net.cpp:157] Top shape: 1 512 122 122 (7620608)
I0604 18:03:43.590421  7870 net.cpp:165] Memory required for data: 1649087516
I0604 18:03:43.590425  7870 layer_factory.hpp:77] Creating layer mask_deconv3
I0604 18:03:43.590442  7870 net.cpp:106] Creating Layer mask_deconv3
I0604 18:03:43.590447  7870 net.cpp:454] mask_deconv3 <- pool5_2_conv6_relu
I0604 18:03:43.590452  7870 net.cpp:411] mask_deconv3 -> mask_deconv3
I0604 18:03:43.590842  7870 net.cpp:150] Setting up mask_deconv3
I0604 18:03:43.590848  7870 net.cpp:157] Top shape: 1 256 244 244 (15241216)
I0604 18:03:43.590850  7870 net.cpp:165] Memory required for data: 1710052380
I0604 18:03:43.590854  7870 layer_factory.hpp:77] Creating layer mask_score
I0604 18:03:43.590862  7870 net.cpp:106] Creating Layer mask_score
I0604 18:03:43.590880  7870 net.cpp:454] mask_score <- mask_deconv3
I0604 18:03:43.590888  7870 net.cpp:411] mask_score -> mask_score
I0604 18:03:43.591917  7870 net.cpp:150] Setting up mask_score
I0604 18:03:43.591925  7870 net.cpp:157] Top shape: 1 8 244 244 (476288)
I0604 18:03:43.591928  7870 net.cpp:165] Memory required for data: 1711957532
I0604 18:03:43.591933  7870 layer_factory.hpp:77] Creating layer loss_mask
I0604 18:03:43.591939  7870 net.cpp:106] Creating Layer loss_mask
I0604 18:03:43.591943  7870 net.cpp:454] loss_mask <- mask_score
I0604 18:03:43.591960  7870 net.cpp:454] loss_mask <- mask_targets
I0604 18:03:43.591969  7870 net.cpp:411] loss_mask -> loss_mask
…
