…
average_loss: 100
iter_size: 2
I0604 17:58:09.472384 30821 solver.cpp:81] Creating training net from train_net file: models/pascal_voc/VGG16/faster_rcnn_end2end/train.prototxt
I0604 17:58:09.473973 30821 net.cpp:49] Initializing net from parameters: 
name: "VGG_ILSVRC_16_layers"
state {
  phase: TRAIN
}
layer {
  name: "input-data"
  type: "Python"
  top: "data"
  top: "im_info"
  top: "gt_boxes"
  top: "seg_mask_inds"
  top: "flipped"
  python_param {
    module: "roi_data_layer.layer"
    layer: "RoIDataLayer"
    param_str: "\'num_classes\': 2"
  }
}
layer {
  name: "conv1_1"
  type: "Convolution"
  bottom: "data"
  top: "conv1_1"
  param {
    lr_mult: 0
    decay_mult: 0
  }
  param {
    lr_mult: 0
    decay_mult: 0
  }
  convolution_param {
    num_output: 64
    pad: 1
    kernel_size: 3
  }
}
layer {
  name: "relu1_1"
  type: "ReLU"
  bottom: "conv1_1"
  top: "conv1_1"
}
layer {
  name: "conv1_2"
  type: "Convolution"
  bottom: "conv1_1"
  top: "conv1_2"
  param {
    lr_mult: 0
    decay_mult: 0
  }
  param {
    lr_mult: 0
    decay_mult: 0
  }
  convolution_param {
    num_output: 64
    pad: 1
    kernel_size: 3
  }
}
layer {
  name: "relu1_2"
  type: "ReLU"
  bottom: "conv1_2"
  top: "conv1_2"
}
layer {
  name: "pool1"
  type: "Pooling"
  bottom: "conv1_2"
  top: "pool1"
  pooling_param {
    pool: MAX
    kernel_size: 2
    stride: 2
  }
}
layer {
  name: "conv2_1"
  type: "Convolution"
  bottom: "pool1"
  top: "conv2_1"
  param {
    lr_mult: 0
    decay_mult: 0
  }
  param {
    lr_mult: 0
    decay_mult: 0
  }
  convolution_param {
    num_output: 128
    pad: 1
    kernel_size: 3
  }
}
layer {
  name: "relu2_1"
  type: "ReLU"
  bottom: "conv2_1"
  top: "conv2_1"
}
layer {
  name: "conv2_2"
  type: "Convolution"
  bottom: "conv2_1"
  top: "conv2_2"
  param {
    lr_mult: 0
    decay_mult: 0
  }
  param {
    lr_mult: 0
    decay_mult: 0
  }
  convolution_param {
    num_output: 128
    pad: 1
    kernel_size: 3
  }
}
layer {
  name: "relu2_2"
  type: "ReLU"
  bottom: "conv2_2"
  top: "conv2_2"
}
layer {
  name: "pool2"
  type: "Pooling"
  bottom: "conv2_2"
  top: "pool2"
  pooling_param {
    pool: MAX
    kernel_size: 2
    stride: 2
  }
}
layer {
  name: "conv3_1"
  type: "Convolution"
  bottom: "pool2"
  top: "conv3_1"
  param {
    lr_mult: 1
  }
  param {
    lr_mult: 2
  }
  convolution_param {
    num_output: 256
    pad: 1
    kernel_size: 3
  }
}
layer {
  name: "relu3_1"
  type: "ReLU"
  bottom: "conv3_1"
  top: "conv3_1"
}
layer {
  name: "conv3_2"
  type: "Convolution"
  bottom: "conv3_1"
  top: "conv3_2"
  param {
    lr_mult: 1
  }
  param {
    lr_mult: 2
  }
  convolution_param {
    num_output: 256
    pad: 1
    kernel_size: 3
  }
}
layer {
  name: "relu3_2"
  type: "ReLU"
  bottom: "conv3_2"
  top: "conv3_2"
}
layer {
  name: "conv3_3"
  type: "Convolution"
  bottom: "conv3_2"
  top: "conv3_3"
  param {
    lr_mult: 1
  }
  param {
    lr_mult: 2
  }
  convolution_param {
    num_output: 256
    pad: 1
    kernel_size: 3
  }
}
layer {
  name: "relu3_3"
  type: "ReLU"
  bottom: "conv3_3"
  top: "conv3_3"
}
layer {
  name: "pool3"
  type: "Pooling"
  bottom: "conv3_3"
  top: "pool3"
  pooling_param {
    pool: MAX
    kernel_size: 2
    stride: 2
  }
}
layer {
  name: "conv4_1"
  type: "Convolution"
  bottom: "pool3"
  top: "conv4_1"
  param {
    lr_mult: 1
  }
  param {
    lr_mult: 2
  }
  convolution_param {
    num_output: 512
    pad: 1
    kernel_size: 3
  }
}
layer {
  name: "relu4_1"
  type: "ReLU"
  bottom: "conv4_1"
  top: "conv4_1"
}
layer {
  name: "conv4_2"
  type: "Convolution"
  bottom: "conv4_1"
  top: "conv4_2"
  param {
    lr_mult: 1
  }
  param {
    lr_mult: 2
  }
  convolution_param {
    num_output: 512
    pad: 1
    kernel_size: 3
  }
}
layer {
  name: "relu4_2"
  type: "ReLU"
  bottom: "conv4_2"
  top: "conv4_2"
}
layer {
  name: "conv4_3"
  type: "Convolution"
  bottom: "conv4_2"
  top: "conv4_3"
  param {
    lr_mult: 1
  }
  param {
    lr_mult: 2
  }
  convolution_param {
    num_output: 512
    pad: 1
    kernel_size: 3
  }
}
layer {
  name: "relu4_3"
  type: "ReLU"
  bottom: "conv4_3"
  top: "conv4_3"
}
layer {
  name: "pool4"
  type: "Pooling"
  bottom: "conv4_3"
  top: "pool4"
  pooling_param {
    pool: MAX
    kernel_size: 2
    stride: 2
  }
}
layer {
  name: "conv5_1"
  type: "Convolution"
  bottom: "pool4"
  top: "conv5_1"
  param {
    lr_mult: 1
  }
  param {
    lr_mult: 2
  }
  convolution_param {
    num_output: 512
    pad: 1
    kernel_size: 3
  }
}
layer {
  name: "relu5_1"
  type: "ReLU"
  bottom: "conv5_1"
  top: "conv5_1"
}
layer {
  name: "conv5_2"
  type: "Convolution"
  bottom: "conv5_1"
  top: "conv5_2"
  param {
    lr_mult: 1
  }
  param {
    lr_mult: 2
  }
  convolution_param {
    num_output: 512
    pad: 1
    kernel_size: 3
  }
}
layer {
  name: "relu5_2"
  type: "ReLU"
  bottom: "conv5_2"
  top: "conv5_2"
}
layer {
  name: "conv5_3"
  type: "Convolution"
  bottom: "conv5_2"
  top: "conv5_3"
  param {
    lr_mult: 1
  }
  param {
    lr_mult: 2
  }
  convolution_param {
    num_output: 512
    pad: 1
    kernel_size: 3
  }
}
layer {
  name: "relu5_3"
  type: "ReLU"
  bottom: "conv5_3"
  top: "conv5_3"
}
layer {
  name: "rpn_conv/3x3"
  type: "Convolution"
  bottom: "conv5_3"
  top: "rpn/output"
  param {
    lr_mult: 1
  }
  param {
    lr_mult: 2
  }
  convolution_param {
    num_output: 512
    pad: 1
    kernel_size: 3
    stride: 1
    weight_filler {
      type: "gaussian"
      std: 0.01
    }
    bias_filler {
      type: "constant"
      value: 0
    }
  }
}
layer {
  name: "rpn_relu/3x3"
  type: "ReLU"
  bottom: "rpn/output"
  top: "rpn/output"
}
layer {
  name: "rpn_cls_score"
  type: "Convolution"
  bottom: "rpn/output"
  top: "rpn_cls_score"
  param {
    lr_mult: 1
  }
  param {
    lr_mult: 2
  }
  convolution_param {
    num_output: 30
    pad: 0
    kernel_size: 1
    stride: 1
    weight_filler {
      type: "gaussian"
      std: 0.01
    }
    bias_filler {
      type: "constant"
      value: 0
    }
  }
}
layer {
  name: "rpn_bbox_pred"
  type: "Convolution"
  bottom: "rpn/output"
  top: "rpn_bbox_pred"
  param {
    lr_mult: 1
  }
  param {
    lr_mult: 2
  }
  convolution_param {
    num_output: 60
    pad: 0
    kernel_size: 1
    stride: 1
    weight_filler {
      type: "gaussian"
      std: 0.01
    }
    bias_filler {
      type: "constant"
      value: 0
    }
  }
}
layer {
  name: "rpn_cls_score_reshape"
  type: "Reshape"
  bottom: "rpn_cls_score"
  top: "rpn_cls_score_reshape"
  reshape_param {
    shape {
      dim: 0
      dim: 2
      dim: -1
      dim: 0
    }
  }
}
layer {
  name: "rpn-data"
  type: "Python"
  bottom: "rpn_cls_score"
  bottom: "gt_boxes"
  bottom: "im_info"
  bottom: "data"
  top: "rpn_labels"
  top: "rpn_bbox_targets"
  top: "rpn_bbox_inside_weights"
  top: "rpn_bbox_outside_weights"
  python_param {
    module: "rpn.anchor_target_layer"
    layer: "AnchorTargetLayer"
    param_str: "\'feat_stride\': 16 \n\'scales\': !!python/tuple [2, 4, 8, 16, 32]"
  }
}
layer {
  name: "rpn_loss_cls"
  type: "SoftmaxWithLoss"
  bottom: "rpn_cls_score_reshape"
  bottom: "rpn_labels"
  top: "rpn_cls_loss"
  loss_weight: 1
  propagate_down: true
  propagate_down: false
  loss_param {
    ignore_label: -1
    normalize: true
  }
}
layer {
  name: "rpn_loss_bbox"
  type: "SmoothL1Loss"
  bottom: "rpn_bbox_pred"
  bottom: "rpn_bbox_targets"
  bottom: "rpn_bbox_inside_weights"
  bottom: "rpn_bbox_outside_weights"
  top: "rpn_loss_bbox"
  loss_weight: 1
  smooth_l1_loss_param {
    sigma: 3
  }
}
layer {
  name: "rpn_cls_prob"
  type: "Softmax"
  bottom: "rpn_cls_score_reshape"
  top: "rpn_cls_prob"
}
layer {
  name: "rpn_cls_prob_reshape"
  type: "Reshape"
  bottom: "rpn_cls_prob"
  top: "rpn_cls_prob_reshape"
  reshape_param {
    shape {
      dim: 0
      dim: 30
      dim: -1
      dim: 0
    }
  }
}
layer {
  name: "proposal"
  type: "Python"
  bottom: "rpn_cls_prob_reshape"
  bottom: "rpn_bbox_pred"
  bottom: "im_info"
  top: "rpn_rois"
  python_param {
    module: "rpn.proposal_layer"
    layer: "ProposalLayer"
    param_str: "\'feat_stride\': 16 \n\'scales\': !!python/tuple [2, 4, 8, 16, 32]"
  }
}
layer {
  name: "roi-data"
  type: "Python"
  bottom: "rpn_rois"
  bottom: "gt_boxes"
  bottom: "im_info"
  bottom: "seg_mask_inds"
  bottom: "flipped"
  top: "rois"
  top: "labels"
  top: "bbox_targets"
  top: "bbox_inside_weights"
  top: "bbox_outside_weights"
  top: "mask_targets"
  top: "rois_pos"
  python_param {
    module: "rpn.proposal_target_layer"
    layer: "ProposalTargetLayer"
    param_str: "\'num_classes\': 2"
  }
}
layer {
  name: "roi_pool5"
  type: "ROIAlignment"
  bottom: "conv5_3"
  bottom: "rois"
  top: "pool5"
  roi_alignment_param {
    pooled_h: 7
    pooled_w: 7
    spatial_scale: 0.0625
  }
}
layer {
  name: "fc6"
  type: "InnerProduct"
  bottom: "pool5"
  top: "fc6"
  param {
    lr_mult: 1
  }
  param {
    lr_mult: 2
  }
  inner_product_param {
    num_output: 4096
  }
}
layer {
  name: "relu6"
  type: "ReLU"
  bottom: "fc6"
  top: "fc6"
}
layer {
  name: "fc7"
  type: "InnerProduct"
  bottom: "fc6"
  top: "fc7"
  param {
    lr_mult: 1
  }
  param {
    lr_mult: 2
  }
  inner_product_param {
    num_output: 4096
  }
}
layer {
  name: "relu7"
  type: "ReLU"
  bottom: "fc7"
  top: "fc7"
}
layer {
  name: "cls_score"
  type: "InnerProduct"
  bottom: "fc7"
  top: "cls_score"
  param {
    lr_mult: 1
  }
  param {
    lr_mult: 2
  }
  inner_product_param {
    num_output: 2
    weight_filler {
      type: "gaussian"
      std: 0.01
    }
    bias_filler {
      type: "constant"
      value: 0
    }
  }
}
layer {
  name: "bbox_pred"
  type: "InnerProduct"
  bottom: "fc7"
  top: "bbox_pred"
  param {
    lr_mult: 1
  }
  param {
    lr_mult: 2
  }
  inner_product_param {
    num_output: 8
    weight_filler {
      type: "gaussian"
      std: 0.001
    }
    bias_filler {
      type: "constant"
      value: 0
    }
  }
}
layer {
  name: "loss_cls"
  type: "SoftmaxWithLoss"
  bottom: "cls_score"
  bottom: "labels"
  top: "loss_cls"
  loss_weight: 3
  propagate_down: true
  propagate_down: false
}
layer {
  name: "loss_bbox"
  type: "SmoothL1Loss"
  bottom: "bbox_pred"
  bottom: "bbox_targets"
  bottom: "bbox_inside_weights"
  bottom: "bbox_outside_weights"
  top: "loss_bbox"
  loss_weight: 2
}
layer {
  name: "roi_pool5_2"
  type: "ROIAlignment"
  bottom: "conv5_3"
  bottom: "rois_pos"
  top: "pool5_2"
  roi_alignment_param {
    pooled_h: 7
    pooled_w: 7
    spatial_scale: 0.0625
  }
}
layer {
  name: "pool5_2_conv"
  type: "Convolution"
  bottom: "pool5_2"
  top: "pool5_2_conv"
  param {
    lr_mult: 1
    decay_mult: 1
  }
  param {
    lr_mult: 2
    decay_mult: 0
  }
  convolution_param {
    num_output: 512
    pad: 0
    kernel_size: 1
    weight_filler {
      type: "gaussian"
      std: 0.01
    }
    bias_filler {
      type: "constant"
      value: 0
    }
  }
}
layer {
  name: "pool5_2_conv_relu"
  type: "ReLU"
  bottom: "pool5_2_conv"
  top: "pool5_2_conv_relu"
}
layer {
  name: "pool5_2_conv2"
  type: "Convolution"
  bottom: "pool5_2_conv_relu"
  top: "pool5_2_conv2"
  param {
    lr_mult: 1
    decay_mult: 1
  }
  param {
    lr_mult: 2
    decay_mult: 0
  }
  convolution_param {
    num_output: 512
    pad: 1
    kernel_size: 3
    stride: 1
    weight_filler {
      type: "gaussian"
      std: 0.01
    }
    bias_filler {
      type: "constant"
      value: 0
    }
  }
}
layer {
  name: "pool5_2_conv2_relu"
  type: "ReLU"
  bottom: "pool5_2_conv2"
  top: "pool5_2_conv2_relu"
}
layer {
  name: "mask_deconv1"
  type: "Deconvolution"
  bottom: "pool5_2_conv2_relu"
  top: "mask_deconv1"
  param {
    lr_mult: 1
    decay_mult: 1
  }
  param {
    lr_mult: 2
    decay_mult: 0
  }
  convolution_param {
    num_output: 256
    pad: 1
    kernel_size: 8
    group: 256
    stride: 4
    weight_filler {
      type: "bilinear"
    }
  }
}
layer {
  name: "pool5_2_conv3"
  type: "Convolution"
  bottom: "mask_deconv1"
  top: "pool5_2_conv3"
  param {
    lr_mult: 1
    decay_mult: 1
  }
  param {
    lr_mult: 2
    decay_mult: 0
  }
  convolution_param {
    num_output: 512
    pad: 1
    kernel_size: 3
    stride: 1
    weight_filler {
      type: "gaussian"
      std: 0.01
    }
    bias_filler {
      type: "constant"
      value: 0
    }
  }
}
layer {
  name: "pool5_2_conv3_relu"
  type: "ReLU"
  bottom: "pool5_2_conv3"
  top: "pool5_2_conv3_relu"
}
layer {
  name: "pool5_2_conv4"
  type: "Convolution"
  bottom: "pool5_2_conv3_relu"
  top: "pool5_2_conv4"
  param {
    lr_mult: 1
    decay_mult: 1
  }
  param {
    lr_mult: 2
    decay_mult: 0
  }
  convolution_param {
    num_output: 512
    pad: 1
    kernel_size: 3
    stride: 1
    weight_filler {
      type: "gaussian"
      std: 0.01
    }
    bias_filler {
      type: "constant"
      value: 0
    }
  }
}
layer {
  name: "pool5_2_conv4_relu"
  type: "ReLU"
  bottom: "pool5_2_conv4"
  top: "pool5_2_conv4_relu"
}
layer {
  name: "query_conv"
  type: "Convolution"
  bottom: "pool5_2_conv4_relu"
  top: "query_conv"
  param {
    lr_mult: 1
    decay_mult: 1
  }
  param {
    lr_mult: 2
    decay_mult: 0
  }
  convolution_param {
    num_output: 64
    pad: 0
    kernel_size: 1
    stride: 1
    weight_filler {
      type: "gaussian"
      std: 0.01
    }
    bias_filler {
      type: "constant"
      value: 0
    }
  }
}
layer {
  name: "key_conv"
  type: "Convolution"
  bottom: "pool5_2_conv4_relu"
  top: "key_conv"
  param {
    lr_mult: 1
    decay_mult: 1
  }
  param {
    lr_mult: 2
    decay_mult: 0
  }
  convolution_param {
    num_output: 64
    pad: 0
    kernel_size: 1
    stride: 1
    weight_filler {
      type: "gaussian"
      std: 0.01
    }
    bias_filler {
      type: "constant"
      value: 0
    }
  }
}
layer {
  name: "value_conv"
  type: "Convolution"
  bottom: "pool5_2_conv4_relu"
  top: "value_conv"
  param {
    lr_mult: 1
    decay_mult: 1
  }
  param {
    lr_mult: 2
    decay_mult: 0
  }
  convolution_param {
    num_output: 512
    pad: 0
    kernel_size: 1
    stride: 1
    weight_filler {
      type: "gaussian"
      std: 0.01
    }
    bias_filler {
      type: "constant"
      value: 0
    }
  }
}
layer {
  name: "query_conv_reshape"
  type: "Reshape"
  bottom: "query_conv"
  top: "query_conv_reshape"
  reshape_param {
    shape {
      dim: -1
      dim: 64
      dim: 900
      dim: 1
    }
  }
}
layer {
  name: "key_conv_reshape"
  type: "Reshape"
  bottom: "key_conv"
  top: "key_conv_reshape"
  reshape_param {
    shape {
      dim: -1
      dim: 64
      dim: 900
      dim: 1
    }
  }
}
layer {
  name: "value_conv_reshape"
  type: "Reshape"
  bottom: "value_conv"
  top: "value_conv_reshape"
  reshape_param {
    shape {
      dim: -1
      dim: 512
      dim: 900
      dim: 1
    }
  }
}
layer {
  name: "query_conv_reshape_perm"
  type: "Permute"
  bottom: "query_conv_reshape"
  top: "query_conv_reshape_perm"
  permute_param {
    order: 0
    order: 3
    order: 2
    order: 1
  }
}
layer {
  name: "key_conv_reshape_perm"
  type: "Permute"
  bottom: "key_conv_reshape"
  top: "key_conv_reshape_perm"
  permute_param {
    order: 0
    order: 3
    order: 1
    order: 2
  }
}
layer {
  name: "energy"
  type: "MatrixMultiplication"
  bottom: "query_conv_reshape_perm"
  bottom: "key_conv_reshape_perm"
  top: "energy"
}
layer {
  name: "attention"
  type: "Softmax"
  bottom: "energy"
  top: "attention"
  softmax_param {
    axis: 3
  }
}
layer {
  name: "value_conv_reshape_perm"
  type: "Permute"
  bottom: "value_conv_reshape"
  top: "value_conv_reshape_perm"
  permute_param {
    order: 0
    order: 3
    order: 1
    order: 2
  }
}
layer {
  name: "attention_perm"
  type: "Permute"
  bottom: "attention"
  top: "attention_perm"
  permute_param {
    order: 0
    order: 1
    order: 2
    order: 3
  }
}
layer {
  name: "out"
  type: "MatrixMultiplication"
  bottom: "value_conv_reshape_perm"
  bottom: "attention_perm"
  top: "out"
}
layer {
  name: "out_reshape"
  type: "Reshape"
  bottom: "out"
  top: "out_reshape"
  reshape_param {
    shape {
      dim: -1
      dim: 512
      dim: 30
      dim: 30
    }
  }
}
layer {
  name: "out_reshape_scale"
  type: "Scale"
  bottom: "out_reshape"
  top: "out_reshape_scale"
  param {
    name: "scale_conv1_1"
    lr_mult: 1
  }
  scale_param {
    bias_term: false
  }
}
layer {
  name: "out_x"
  type: "Eltwise"
  bottom: "out_reshape_scale"
  bottom: "pool5_2_conv4_relu"
  top: "out_x"
  eltwise_param {
    operation: SUM
  }
}
layer {
  name: "query_conv_reshape_ch"
  type: "Reshape"
  bottom: "pool5_2_conv4_relu"
  top: "query_conv_reshape_ch"
  reshape_param {
    shape {
      dim: 1
      dim: 512
      dim: -1
      dim: 1
    }
  }
}
layer {
  name: "key_conv_reshape_ch"
  type: "Reshape"
  bottom: "pool5_2_conv4_relu"
  top: "key_conv_reshape_ch"
  reshape_param {
    shape {
      dim: 1
      dim: 512
      dim: -1
      dim: 1
    }
  }
}
layer {
  name: "value_conv_reshape_ch"
  type: "Reshape"
  bottom: "pool5_2_conv4_relu"
  top: "value_conv_reshape_ch"
  reshape_param {
    shape {
      dim: 1
      dim: 512
      dim: -1
      dim: 1
    }
  }
}
layer {
  name: "query_conv_reshape_perm_ch"
  type: "Permute"
  bottom: "query_conv_reshape_ch"
  top: "query_conv_reshape_perm_ch"
  permute_param {
    order: 0
    order: 3
    order: 1
    order: 2
  }
}
layer {
  name: "key_conv_reshape_perm_ch"
  type: "Permute"
  bottom: "key_conv_reshape_ch"
  top: "key_conv_reshape_perm_ch"
  permute_param {
    order: 0
    order: 3
    order: 2
    order: 1
  }
}
layer {
  name: "energy_ch"
  type: "MatrixMultiplication"
  bottom: "query_conv_reshape_perm_ch"
  bottom: "key_conv_reshape_perm_ch"
  top: "energy_ch"
}
layer {
  name: "energy_ch_perm"
  type: "Permute"
  bottom: "energy_ch"
  top: "energy_ch_perm"
  permute_param {
    order: 0
    order: 2
    order: 1
    order: 3
  }
}
layer {
  name: "energy_ch_pool"
  type: "Pooling"
  bottom: "energy_ch_perm"
  top: "energy_ch_pool"
  pooling_param {
    pool: MAX
    kernel_h: 1
    kernel_w: 512
    stride_h: 1
    stride_w: 512
  }
}
layer {
  name: "energy_ch_reperm"
  type: "Permute"
  bottom: "energy_ch_pool"
  top: "energy_ch_reperm"
  permute_param {
    order: 0
    order: 2
    order: 1
    order: 3
  }
}
layer {
  name: "energy_ch_max"
  type: "Tile"
  bottom: "energy_ch_reperm"
  top: "energy_ch_max"
  tile_param {
    axis: 3
    tiles: 512
  }
}
layer {
  name: "energy_ch_minus"
  type: "Power"
  bottom: "energy_ch"
  top: "energy_ch_minus"
  power_param {
    power: 1
    scale: -1
    shift: 0
  }
}
layer {
  name: "energy_new"
  type: "Eltwise"
  bottom: "energy_ch_max"
  bottom: "energy_ch_minus"
  top: "energy_new"
  eltwise_param {
    operation: SUM
  }
}
layer {
  name: "attention_ch"
  type: "Softmax"
  bottom: "energy_new"
  top: "attention_ch"
  softmax_param {
    axis: 3
  }
}
layer {
  name: "value_conv_reshape_ch_perm"
  type: "Permute"
  bottom: "value_conv_reshape_ch"
  top: "value_conv_reshape_ch_perm"
  permute_param {
    order: 0
    order: 3
    order: 1
    order: 2
  }
}
layer {
  name: "attention_ch_perm"
  type: "Permute"
  bottom: "attention_ch"
  top: "attention_ch_perm"
  permute_param {
    order: 0
    order: 1
    order: 2
    order: 3
  }
}
layer {
  name: "out_ch"
  type: "MatrixMultiplication"
  bottom: "attention_ch_perm"
  bottom: "value_conv_reshape_ch_perm"
  top: "out_ch"
}
layer {
  name: "out_ch_reshape"
  type: "Reshape"
  bottom: "out_ch"
  top: "out_ch_reshape"
  reshape_param {
    shape {
      dim: -1
      dim: 512
      dim: 30
      dim: 30
    }
  }
}
layer {
  name: "out_ch_reshape_scale"
  type: "Scale"
  bottom: "out_ch_reshape"
  top: "out_ch_reshape_scale"
  param {
    name: "scale_conv1_1"
    lr_mult: 1
  }
  scale_param {
    bias_term: false
  }
}
layer {
  name: "out_ch_x"
  type: "Eltwise"
  bottom: "out_ch_reshape_scale"
  bottom: "pool5_2_conv4_relu"
  top: "out_ch_x"
  eltwise_param {
    operation: SUM
  }
}
layer {
  name: "out_conv_ch_x"
  type: "Convolution"
  bottom: "out_ch_x"
  top: "out_conv_ch_x"
  param {
    lr_mult: 1
    decay_mult: 1
  }
  param {
    lr_mult: 2
    decay_mult: 0
  }
  convolution_param {
    num_output: 512
    pad: 0
    kernel_size: 1
    weight_filler {
      type: "gaussian"
      std: 0.01
    }
    bias_filler {
      type: "constant"
      value: 0
    }
  }
}
layer {
  name: "out_conv_x"
  type: "Convolution"
  bottom: "out_x"
  top: "out_conv_x"
  param {
    lr_mult: 1
    decay_mult: 1
  }
  param {
    lr_mult: 2
    decay_mult: 0
  }
  convolution_param {
    num_output: 512
    pad: 0
    kernel_size: 1
    weight_filler {
      type: "gaussian"
      std: 0.01
    }
    bias_filler {
      type: "constant"
      value: 0
    }
  }
}
layer {
  name: "out_x_sum"
  type: "Eltwise"
  bottom: "out_conv_x"
  bottom: "out_conv_ch_x"
  top: "out_x_sum"
  eltwise_param {
    operation: SUM
  }
}
layer {
  name: "mask_deconv2"
  type: "Deconvolution"
  bottom: "out_x_sum"
  top: "mask_deconv2"
  param {
    lr_mult: 1
    decay_mult: 1
  }
  param {
    lr_mult: 2
    decay_mult: 0
  }
  convolution_param {
    num_output: 256
    pad: 1
    kernel_size: 8
    group: 256
    stride: 4
    weight_filler {
      type: "bilinear"
    }
  }
}
layer {
  name: "pool5_2_conv5"
  type: "Convolution"
  bottom: "mask_deconv2"
  top: "pool5_2_conv5"
  param {
    lr_mult: 1
    decay_mult: 1
  }
  param {
    lr_mult: 2
    decay_mult: 0
  }
  convolution_param {
    num_output: 512
    pad: 1
    kernel_size: 3
    stride: 1
    weight_filler {
      type: "gaussian"
      std: 0.01
    }
    bias_filler {
      type: "constant"
      value: 0
    }
  }
}
layer {
  name: "pool5_2_conv5_relu"
  type: "ReLU"
  bottom: "pool5_2_conv5"
  top: "pool5_2_conv5_relu"
}
layer {
  name: "pool5_2_conv6"
  type: "Convolution"
  bottom: "pool5_2_conv5_relu"
  top: "pool5_2_conv6"
  param {
    lr_mult: 1
    decay_mult: 1
  }
  param {
    lr_mult: 2
    decay_mult: 0
  }
  convolution_param {
    num_output: 512
    pad: 1
    kernel_size: 3
    stride: 1
    weight_filler {
      type: "gaussian"
      std: 0.01
    }
    bias_filler {
      type: "constant"
      value: 0
    }
  }
}
layer {
  name: "pool5_2_conv6_relu"
  type: "ReLU"
  bottom: "pool5_2_conv6"
  top: "pool5_2_conv6_relu"
}
layer {
  name: "mask_deconv3"
  type: "Deconvolution"
  bottom: "pool5_2_conv6_relu"
  top: "mask_deconv3"
  param {
    lr_mult: 1
    decay_mult: 1
  }
  param {
    lr_mult: 2
    decay_mult: 0
  }
  convolution_param {
    num_output: 256
    pad: 1
    kernel_size: 4
    group: 256
    stride: 2
    weight_filler {
      type: "bilinear"
    }
  }
}
layer {
  name: "mask_score"
  type: "Convolution"
  bottom: "mask_deconv3"
  top: "mask_score"
  param {
    lr_mult: 1
    decay_mult: 1
  }
  param {
    lr_mult: 2
    decay_mult: 0
  }
  convolution_param {
    num_output: 8
    pad: 0
    kernel_size: 1
    weight_filler {
      type: "gaussian"
      std: 0.01
    }
    bias_filler {
      type: "constant"
      value: 0
    }
  }
}
layer {
  name: "loss_mask"
  type: "SoftmaxWithLoss"
  bottom: "mask_score"
  bottom: "mask_targets"
  top: "loss_mask"
  loss_weight: 3
  propagate_down: true
  propagate_down: false
  loss_param {
    ignore_label: -1
    normalize: true
  }
}
I0604 17:58:09.474495 30821 layer_factory.hpp:77] Creating layer input-data
I0604 17:58:09.519474 30821 net.cpp:106] Creating Layer input-data
I0604 17:58:09.519490 30821 net.cpp:411] input-data -> data
I0604 17:58:09.519497 30821 net.cpp:411] input-data -> im_info
I0604 17:58:09.519503 30821 net.cpp:411] input-data -> gt_boxes
I0604 17:58:09.519507 30821 net.cpp:411] input-data -> seg_mask_inds
I0604 17:58:09.519511 30821 net.cpp:411] input-data -> flipped
RoiDataLayer: name_to_top: {'gt_boxes': 2, 'data': 0, 'seg_mask_inds': 3, 'im_info': 1, 'flipped': 4}
I0604 17:58:09.530340 30821 net.cpp:150] Setting up input-data
I0604 17:58:09.530369 30821 net.cpp:157] Top shape: 1 3 600 1000 (1800000)
I0604 17:58:09.530385 30821 net.cpp:157] Top shape: 1 3 (3)
I0604 17:58:09.530400 30821 net.cpp:157] Top shape: 1 4 (4)
I0604 17:58:09.530406 30821 net.cpp:157] Top shape: 1 2 (2)
I0604 17:58:09.530411 30821 net.cpp:157] Top shape: 1 1 (1)
I0604 17:58:09.530423 30821 net.cpp:165] Memory required for data: 7200040
I0604 17:58:09.530431 30821 layer_factory.hpp:77] Creating layer data_input-data_0_split
I0604 17:58:09.530472 30821 net.cpp:106] Creating Layer data_input-data_0_split
I0604 17:58:09.530478 30821 net.cpp:454] data_input-data_0_split <- data
I0604 17:58:09.530493 30821 net.cpp:411] data_input-data_0_split -> data_input-data_0_split_0
I0604 17:58:09.530513 30821 net.cpp:411] data_input-data_0_split -> data_input-data_0_split_1
I0604 17:58:09.530570 30821 net.cpp:150] Setting up data_input-data_0_split
I0604 17:58:09.530576 30821 net.cpp:157] Top shape: 1 3 600 1000 (1800000)
I0604 17:58:09.530591 30821 net.cpp:157] Top shape: 1 3 600 1000 (1800000)
I0604 17:58:09.530596 30821 net.cpp:165] Memory required for data: 21600040
I0604 17:58:09.530599 30821 layer_factory.hpp:77] Creating layer im_info_input-data_1_split
I0604 17:58:09.530606 30821 net.cpp:106] Creating Layer im_info_input-data_1_split
I0604 17:58:09.530616 30821 net.cpp:454] im_info_input-data_1_split <- im_info
I0604 17:58:09.530622 30821 net.cpp:411] im_info_input-data_1_split -> im_info_input-data_1_split_0
I0604 17:58:09.530628 30821 net.cpp:411] im_info_input-data_1_split -> im_info_input-data_1_split_1
I0604 17:58:09.530652 30821 net.cpp:411] im_info_input-data_1_split -> im_info_input-data_1_split_2
I0604 17:58:09.530700 30821 net.cpp:150] Setting up im_info_input-data_1_split
I0604 17:58:09.530705 30821 net.cpp:157] Top shape: 1 3 (3)
I0604 17:58:09.530709 30821 net.cpp:157] Top shape: 1 3 (3)
I0604 17:58:09.530712 30821 net.cpp:157] Top shape: 1 3 (3)
I0604 17:58:09.530715 30821 net.cpp:165] Memory required for data: 21600076
I0604 17:58:09.530717 30821 layer_factory.hpp:77] Creating layer gt_boxes_input-data_2_split
I0604 17:58:09.530721 30821 net.cpp:106] Creating Layer gt_boxes_input-data_2_split
I0604 17:58:09.530726 30821 net.cpp:454] gt_boxes_input-data_2_split <- gt_boxes
I0604 17:58:09.530730 30821 net.cpp:411] gt_boxes_input-data_2_split -> gt_boxes_input-data_2_split_0
I0604 17:58:09.530733 30821 net.cpp:411] gt_boxes_input-data_2_split -> gt_boxes_input-data_2_split_1
I0604 17:58:09.530750 30821 net.cpp:150] Setting up gt_boxes_input-data_2_split
I0604 17:58:09.530755 30821 net.cpp:157] Top shape: 1 4 (4)
I0604 17:58:09.530757 30821 net.cpp:157] Top shape: 1 4 (4)
I0604 17:58:09.530762 30821 net.cpp:165] Memory required for data: 21600108
I0604 17:58:09.530774 30821 layer_factory.hpp:77] Creating layer conv1_1
I0604 17:58:09.530782 30821 net.cpp:106] Creating Layer conv1_1
I0604 17:58:09.530786 30821 net.cpp:454] conv1_1 <- data_input-data_0_split_0
I0604 17:58:09.530789 30821 net.cpp:411] conv1_1 -> conv1_1
I0604 17:58:09.733079 30821 net.cpp:150] Setting up conv1_1
I0604 17:58:09.733098 30821 net.cpp:157] Top shape: 1 64 600 1000 (38400000)
I0604 17:58:09.733111 30821 net.cpp:165] Memory required for data: 175200108
I0604 17:58:09.733124 30821 layer_factory.hpp:77] Creating layer relu1_1
I0604 17:58:09.733136 30821 net.cpp:106] Creating Layer relu1_1
I0604 17:58:09.733141 30821 net.cpp:454] relu1_1 <- conv1_1
I0604 17:58:09.733146 30821 net.cpp:397] relu1_1 -> conv1_1 (in-place)
I0604 17:58:09.733278 30821 net.cpp:150] Setting up relu1_1
I0604 17:58:09.733299 30821 net.cpp:157] Top shape: 1 64 600 1000 (38400000)
I0604 17:58:09.733301 30821 net.cpp:165] Memory required for data: 328800108
I0604 17:58:09.733304 30821 layer_factory.hpp:77] Creating layer conv1_2
I0604 17:58:09.733315 30821 net.cpp:106] Creating Layer conv1_2
I0604 17:58:09.733319 30821 net.cpp:454] conv1_2 <- conv1_1
I0604 17:58:09.733325 30821 net.cpp:411] conv1_2 -> conv1_2
I0604 17:58:09.735733 30821 net.cpp:150] Setting up conv1_2
I0604 17:58:09.735755 30821 net.cpp:157] Top shape: 1 64 600 1000 (38400000)
I0604 17:58:09.735759 30821 net.cpp:165] Memory required for data: 482400108
I0604 17:58:09.735766 30821 layer_factory.hpp:77] Creating layer relu1_2
I0604 17:58:09.735782 30821 net.cpp:106] Creating Layer relu1_2
I0604 17:58:09.735787 30821 net.cpp:454] relu1_2 <- conv1_2
I0604 17:58:09.735791 30821 net.cpp:397] relu1_2 -> conv1_2 (in-place)
I0604 17:58:09.735919 30821 net.cpp:150] Setting up relu1_2
I0604 17:58:09.735924 30821 net.cpp:157] Top shape: 1 64 600 1000 (38400000)
I0604 17:58:09.735937 30821 net.cpp:165] Memory required for data: 636000108
I0604 17:58:09.735939 30821 layer_factory.hpp:77] Creating layer pool1
I0604 17:58:09.735946 30821 net.cpp:106] Creating Layer pool1
I0604 17:58:09.735960 30821 net.cpp:454] pool1 <- conv1_2
I0604 17:58:09.735962 30821 net.cpp:411] pool1 -> pool1
I0604 17:58:09.736014 30821 net.cpp:150] Setting up pool1
I0604 17:58:09.736018 30821 net.cpp:157] Top shape: 1 64 300 500 (9600000)
I0604 17:58:09.736030 30821 net.cpp:165] Memory required for data: 674400108
I0604 17:58:09.736033 30821 layer_factory.hpp:77] Creating layer conv2_1
I0604 17:58:09.736039 30821 net.cpp:106] Creating Layer conv2_1
I0604 17:58:09.736042 30821 net.cpp:454] conv2_1 <- pool1
I0604 17:58:09.736055 30821 net.cpp:411] conv2_1 -> conv2_1
I0604 17:58:09.737885 30821 net.cpp:150] Setting up conv2_1
I0604 17:58:09.737895 30821 net.cpp:157] Top shape: 1 128 300 500 (19200000)
I0604 17:58:09.737906 30821 net.cpp:165] Memory required for data: 751200108
I0604 17:58:09.737913 30821 layer_factory.hpp:77] Creating layer relu2_1
I0604 17:58:09.737927 30821 net.cpp:106] Creating Layer relu2_1
I0604 17:58:09.737931 30821 net.cpp:454] relu2_1 <- conv2_1
I0604 17:58:09.737936 30821 net.cpp:397] relu2_1 -> conv2_1 (in-place)
I0604 17:58:09.738415 30821 net.cpp:150] Setting up relu2_1
I0604 17:58:09.738433 30821 net.cpp:157] Top shape: 1 128 300 500 (19200000)
I0604 17:58:09.738436 30821 net.cpp:165] Memory required for data: 828000108
I0604 17:58:09.738440 30821 layer_factory.hpp:77] Creating layer conv2_2
I0604 17:58:09.738445 30821 net.cpp:106] Creating Layer conv2_2
I0604 17:58:09.738448 30821 net.cpp:454] conv2_2 <- conv2_1
I0604 17:58:09.738452 30821 net.cpp:411] conv2_2 -> conv2_2
I0604 17:58:09.739820 30821 net.cpp:150] Setting up conv2_2
I0604 17:58:09.739827 30821 net.cpp:157] Top shape: 1 128 300 500 (19200000)
I0604 17:58:09.739840 30821 net.cpp:165] Memory required for data: 904800108
I0604 17:58:09.739845 30821 layer_factory.hpp:77] Creating layer relu2_2
I0604 17:58:09.739861 30821 net.cpp:106] Creating Layer relu2_2
I0604 17:58:09.739864 30821 net.cpp:454] relu2_2 <- conv2_2
I0604 17:58:09.739868 30821 net.cpp:397] relu2_2 -> conv2_2 (in-place)
I0604 17:58:09.739996 30821 net.cpp:150] Setting up relu2_2
I0604 17:58:09.740002 30821 net.cpp:157] Top shape: 1 128 300 500 (19200000)
I0604 17:58:09.740015 30821 net.cpp:165] Memory required for data: 981600108
I0604 17:58:09.740016 30821 layer_factory.hpp:77] Creating layer pool2
I0604 17:58:09.740022 30821 net.cpp:106] Creating Layer pool2
I0604 17:58:09.740025 30821 net.cpp:454] pool2 <- conv2_2
I0604 17:58:09.740038 30821 net.cpp:411] pool2 -> pool2
I0604 17:58:09.740087 30821 net.cpp:150] Setting up pool2
I0604 17:58:09.740092 30821 net.cpp:157] Top shape: 1 128 150 250 (4800000)
I0604 17:58:09.740093 30821 net.cpp:165] Memory required for data: 1000800108
I0604 17:58:09.740105 30821 layer_factory.hpp:77] Creating layer conv3_1
I0604 17:58:09.740111 30821 net.cpp:106] Creating Layer conv3_1
I0604 17:58:09.740123 30821 net.cpp:454] conv3_1 <- pool2
I0604 17:58:09.740128 30821 net.cpp:411] conv3_1 -> conv3_1
I0604 17:58:09.741937 30821 net.cpp:150] Setting up conv3_1
I0604 17:58:09.741945 30821 net.cpp:157] Top shape: 1 256 150 250 (9600000)
I0604 17:58:09.741947 30821 net.cpp:165] Memory required for data: 1039200108
I0604 17:58:09.741955 30821 layer_factory.hpp:77] Creating layer relu3_1
I0604 17:58:09.741959 30821 net.cpp:106] Creating Layer relu3_1
I0604 17:58:09.741961 30821 net.cpp:454] relu3_1 <- conv3_1
I0604 17:58:09.741964 30821 net.cpp:397] relu3_1 -> conv3_1 (in-place)
I0604 17:58:09.742094 30821 net.cpp:150] Setting up relu3_1
I0604 17:58:09.742100 30821 net.cpp:157] Top shape: 1 256 150 250 (9600000)
I0604 17:58:09.742102 30821 net.cpp:165] Memory required for data: 1077600108
I0604 17:58:09.742105 30821 layer_factory.hpp:77] Creating layer conv3_2
I0604 17:58:09.742111 30821 net.cpp:106] Creating Layer conv3_2
I0604 17:58:09.742113 30821 net.cpp:454] conv3_2 <- conv3_1
I0604 17:58:09.742117 30821 net.cpp:411] conv3_2 -> conv3_2
I0604 17:58:09.744254 30821 net.cpp:150] Setting up conv3_2
I0604 17:58:09.744266 30821 net.cpp:157] Top shape: 1 256 150 250 (9600000)
I0604 17:58:09.744268 30821 net.cpp:165] Memory required for data: 1116000108
I0604 17:58:09.744273 30821 layer_factory.hpp:77] Creating layer relu3_2
I0604 17:58:09.744278 30821 net.cpp:106] Creating Layer relu3_2
I0604 17:58:09.744282 30821 net.cpp:454] relu3_2 <- conv3_2
I0604 17:58:09.744297 30821 net.cpp:397] relu3_2 -> conv3_2 (in-place)
I0604 17:58:09.744421 30821 net.cpp:150] Setting up relu3_2
I0604 17:58:09.744426 30821 net.cpp:157] Top shape: 1 256 150 250 (9600000)
I0604 17:58:09.744428 30821 net.cpp:165] Memory required for data: 1154400108
I0604 17:58:09.744431 30821 layer_factory.hpp:77] Creating layer conv3_3
I0604 17:58:09.744436 30821 net.cpp:106] Creating Layer conv3_3
I0604 17:58:09.744439 30821 net.cpp:454] conv3_3 <- conv3_2
I0604 17:58:09.744443 30821 net.cpp:411] conv3_3 -> conv3_3
I0604 17:58:09.746615 30821 net.cpp:150] Setting up conv3_3
I0604 17:58:09.746637 30821 net.cpp:157] Top shape: 1 256 150 250 (9600000)
I0604 17:58:09.746639 30821 net.cpp:165] Memory required for data: 1192800108
I0604 17:58:09.746645 30821 layer_factory.hpp:77] Creating layer relu3_3
I0604 17:58:09.746651 30821 net.cpp:106] Creating Layer relu3_3
I0604 17:58:09.746654 30821 net.cpp:454] relu3_3 <- conv3_3
I0604 17:58:09.746668 30821 net.cpp:397] relu3_3 -> conv3_3 (in-place)
I0604 17:58:09.746863 30821 net.cpp:150] Setting up relu3_3
I0604 17:58:09.746870 30821 net.cpp:157] Top shape: 1 256 150 250 (9600000)
I0604 17:58:09.746872 30821 net.cpp:165] Memory required for data: 1231200108
I0604 17:58:09.746875 30821 layer_factory.hpp:77] Creating layer pool3
I0604 17:58:09.746879 30821 net.cpp:106] Creating Layer pool3
I0604 17:58:09.746882 30821 net.cpp:454] pool3 <- conv3_3
I0604 17:58:09.746886 30821 net.cpp:411] pool3 -> pool3
I0604 17:58:09.746933 30821 net.cpp:150] Setting up pool3
I0604 17:58:09.746938 30821 net.cpp:157] Top shape: 1 256 75 125 (2400000)
I0604 17:58:09.746950 30821 net.cpp:165] Memory required for data: 1240800108
I0604 17:58:09.746953 30821 layer_factory.hpp:77] Creating layer conv4_1
I0604 17:58:09.746958 30821 net.cpp:106] Creating Layer conv4_1
I0604 17:58:09.746963 30821 net.cpp:454] conv4_1 <- pool3
I0604 17:58:09.746965 30821 net.cpp:411] conv4_1 -> conv4_1
I0604 17:58:09.750789 30821 net.cpp:150] Setting up conv4_1
I0604 17:58:09.750807 30821 net.cpp:157] Top shape: 1 512 75 125 (4800000)
I0604 17:58:09.750808 30821 net.cpp:165] Memory required for data: 1260000108
I0604 17:58:09.750818 30821 layer_factory.hpp:77] Creating layer relu4_1
I0604 17:58:09.750825 30821 net.cpp:106] Creating Layer relu4_1
I0604 17:58:09.750829 30821 net.cpp:454] relu4_1 <- conv4_1
I0604 17:58:09.750844 30821 net.cpp:397] relu4_1 -> conv4_1 (in-place)
I0604 17:58:09.750969 30821 net.cpp:150] Setting up relu4_1
I0604 17:58:09.750974 30821 net.cpp:157] Top shape: 1 512 75 125 (4800000)
I0604 17:58:09.750977 30821 net.cpp:165] Memory required for data: 1279200108
I0604 17:58:09.750979 30821 layer_factory.hpp:77] Creating layer conv4_2
I0604 17:58:09.750986 30821 net.cpp:106] Creating Layer conv4_2
I0604 17:58:09.750988 30821 net.cpp:454] conv4_2 <- conv4_1
I0604 17:58:09.750993 30821 net.cpp:411] conv4_2 -> conv4_2
I0604 17:58:09.755530 30821 net.cpp:150] Setting up conv4_2
I0604 17:58:09.755549 30821 net.cpp:157] Top shape: 1 512 75 125 (4800000)
I0604 17:58:09.755551 30821 net.cpp:165] Memory required for data: 1298400108
I0604 17:58:09.755563 30821 layer_factory.hpp:77] Creating layer relu4_2
I0604 17:58:09.755571 30821 net.cpp:106] Creating Layer relu4_2
I0604 17:58:09.755575 30821 net.cpp:454] relu4_2 <- conv4_2
I0604 17:58:09.755590 30821 net.cpp:397] relu4_2 -> conv4_2 (in-place)
I0604 17:58:09.756063 30821 net.cpp:150] Setting up relu4_2
I0604 17:58:09.756070 30821 net.cpp:157] Top shape: 1 512 75 125 (4800000)
I0604 17:58:09.756073 30821 net.cpp:165] Memory required for data: 1317600108
I0604 17:58:09.756075 30821 layer_factory.hpp:77] Creating layer conv4_3
I0604 17:58:09.756083 30821 net.cpp:106] Creating Layer conv4_3
I0604 17:58:09.756085 30821 net.cpp:454] conv4_3 <- conv4_2
I0604 17:58:09.756089 30821 net.cpp:411] conv4_3 -> conv4_3
I0604 17:58:09.761250 30821 net.cpp:150] Setting up conv4_3
I0604 17:58:09.761276 30821 net.cpp:157] Top shape: 1 512 75 125 (4800000)
I0604 17:58:09.761281 30821 net.cpp:165] Memory required for data: 1336800108
I0604 17:58:09.761291 30821 layer_factory.hpp:77] Creating layer relu4_3
I0604 17:58:09.761310 30821 net.cpp:106] Creating Layer relu4_3
I0604 17:58:09.761315 30821 net.cpp:454] relu4_3 <- conv4_3
I0604 17:58:09.761324 30821 net.cpp:397] relu4_3 -> conv4_3 (in-place)
I0604 17:58:09.761804 30821 net.cpp:150] Setting up relu4_3
I0604 17:58:09.761813 30821 net.cpp:157] Top shape: 1 512 75 125 (4800000)
I0604 17:58:09.761826 30821 net.cpp:165] Memory required for data: 1356000108
I0604 17:58:09.761829 30821 layer_factory.hpp:77] Creating layer pool4
I0604 17:58:09.761835 30821 net.cpp:106] Creating Layer pool4
I0604 17:58:09.761838 30821 net.cpp:454] pool4 <- conv4_3
I0604 17:58:09.761852 30821 net.cpp:411] pool4 -> pool4
I0604 17:58:09.761904 30821 net.cpp:150] Setting up pool4
I0604 17:58:09.761909 30821 net.cpp:157] Top shape: 1 512 38 63 (1225728)
I0604 17:58:09.761911 30821 net.cpp:165] Memory required for data: 1360903020
I0604 17:58:09.761924 30821 layer_factory.hpp:77] Creating layer conv5_1
I0604 17:58:09.761930 30821 net.cpp:106] Creating Layer conv5_1
I0604 17:58:09.761942 30821 net.cpp:454] conv5_1 <- pool4
I0604 17:58:09.761946 30821 net.cpp:411] conv5_1 -> conv5_1
I0604 17:58:09.766372 30821 net.cpp:150] Setting up conv5_1
I0604 17:58:09.766389 30821 net.cpp:157] Top shape: 1 512 38 63 (1225728)
I0604 17:58:09.766391 30821 net.cpp:165] Memory required for data: 1365805932
I0604 17:58:09.766398 30821 layer_factory.hpp:77] Creating layer relu5_1
I0604 17:58:09.766407 30821 net.cpp:106] Creating Layer relu5_1
I0604 17:58:09.766410 30821 net.cpp:454] relu5_1 <- conv5_1
I0604 17:58:09.766425 30821 net.cpp:397] relu5_1 -> conv5_1 (in-place)
I0604 17:58:09.766552 30821 net.cpp:150] Setting up relu5_1
I0604 17:58:09.766559 30821 net.cpp:157] Top shape: 1 512 38 63 (1225728)
I0604 17:58:09.766561 30821 net.cpp:165] Memory required for data: 1370708844
I0604 17:58:09.766564 30821 layer_factory.hpp:77] Creating layer conv5_2
I0604 17:58:09.766571 30821 net.cpp:106] Creating Layer conv5_2
I0604 17:58:09.766573 30821 net.cpp:454] conv5_2 <- conv5_1
I0604 17:58:09.766578 30821 net.cpp:411] conv5_2 -> conv5_2
I0604 17:58:09.770869 30821 net.cpp:150] Setting up conv5_2
I0604 17:58:09.770884 30821 net.cpp:157] Top shape: 1 512 38 63 (1225728)
I0604 17:58:09.770887 30821 net.cpp:165] Memory required for data: 1375611756
I0604 17:58:09.770895 30821 layer_factory.hpp:77] Creating layer relu5_2
I0604 17:58:09.770902 30821 net.cpp:106] Creating Layer relu5_2
I0604 17:58:09.770907 30821 net.cpp:454] relu5_2 <- conv5_2
I0604 17:58:09.770911 30821 net.cpp:397] relu5_2 -> conv5_2 (in-place)
I0604 17:58:09.771049 30821 net.cpp:150] Setting up relu5_2
I0604 17:58:09.771055 30821 net.cpp:157] Top shape: 1 512 38 63 (1225728)
I0604 17:58:09.771057 30821 net.cpp:165] Memory required for data: 1380514668
I0604 17:58:09.771059 30821 layer_factory.hpp:77] Creating layer conv5_3
I0604 17:58:09.771070 30821 net.cpp:106] Creating Layer conv5_3
I0604 17:58:09.771073 30821 net.cpp:454] conv5_3 <- conv5_2
I0604 17:58:09.771088 30821 net.cpp:411] conv5_3 -> conv5_3
I0604 17:58:09.775502 30821 net.cpp:150] Setting up conv5_3
I0604 17:58:09.775519 30821 net.cpp:157] Top shape: 1 512 38 63 (1225728)
I0604 17:58:09.775522 30821 net.cpp:165] Memory required for data: 1385417580
I0604 17:58:09.775529 30821 layer_factory.hpp:77] Creating layer relu5_3
I0604 17:58:09.775537 30821 net.cpp:106] Creating Layer relu5_3
I0604 17:58:09.775552 30821 net.cpp:454] relu5_3 <- conv5_3
I0604 17:58:09.775557 30821 net.cpp:397] relu5_3 -> conv5_3 (in-place)
I0604 17:58:09.775686 30821 net.cpp:150] Setting up relu5_3
I0604 17:58:09.775692 30821 net.cpp:157] Top shape: 1 512 38 63 (1225728)
I0604 17:58:09.775694 30821 net.cpp:165] Memory required for data: 1390320492
I0604 17:58:09.775696 30821 layer_factory.hpp:77] Creating layer conv5_3_relu5_3_0_split
I0604 17:58:09.775702 30821 net.cpp:106] Creating Layer conv5_3_relu5_3_0_split
I0604 17:58:09.775704 30821 net.cpp:454] conv5_3_relu5_3_0_split <- conv5_3
I0604 17:58:09.775709 30821 net.cpp:411] conv5_3_relu5_3_0_split -> conv5_3_relu5_3_0_split_0
I0604 17:58:09.775724 30821 net.cpp:411] conv5_3_relu5_3_0_split -> conv5_3_relu5_3_0_split_1
I0604 17:58:09.775728 30821 net.cpp:411] conv5_3_relu5_3_0_split -> conv5_3_relu5_3_0_split_2
I0604 17:58:09.775776 30821 net.cpp:150] Setting up conv5_3_relu5_3_0_split
I0604 17:58:09.775780 30821 net.cpp:157] Top shape: 1 512 38 63 (1225728)
I0604 17:58:09.775784 30821 net.cpp:157] Top shape: 1 512 38 63 (1225728)
I0604 17:58:09.775785 30821 net.cpp:157] Top shape: 1 512 38 63 (1225728)
I0604 17:58:09.775787 30821 net.cpp:165] Memory required for data: 1405029228
I0604 17:58:09.775789 30821 layer_factory.hpp:77] Creating layer rpn_conv/3x3
I0604 17:58:09.775799 30821 net.cpp:106] Creating Layer rpn_conv/3x3
I0604 17:58:09.775802 30821 net.cpp:454] rpn_conv/3x3 <- conv5_3_relu5_3_0_split_0
I0604 17:58:09.775817 30821 net.cpp:411] rpn_conv/3x3 -> rpn/output
I0604 17:58:09.826098 30821 net.cpp:150] Setting up rpn_conv/3x3
I0604 17:58:09.826117 30821 net.cpp:157] Top shape: 1 512 38 63 (1225728)
I0604 17:58:09.826118 30821 net.cpp:165] Memory required for data: 1409932140
I0604 17:58:09.826125 30821 layer_factory.hpp:77] Creating layer rpn_relu/3x3
I0604 17:58:09.826133 30821 net.cpp:106] Creating Layer rpn_relu/3x3
I0604 17:58:09.826136 30821 net.cpp:454] rpn_relu/3x3 <- rpn/output
I0604 17:58:09.826153 30821 net.cpp:397] rpn_relu/3x3 -> rpn/output (in-place)
I0604 17:58:09.826282 30821 net.cpp:150] Setting up rpn_relu/3x3
I0604 17:58:09.826288 30821 net.cpp:157] Top shape: 1 512 38 63 (1225728)
I0604 17:58:09.826290 30821 net.cpp:165] Memory required for data: 1414835052
I0604 17:58:09.826292 30821 layer_factory.hpp:77] Creating layer rpn/output_rpn_relu/3x3_0_split
I0604 17:58:09.826297 30821 net.cpp:106] Creating Layer rpn/output_rpn_relu/3x3_0_split
I0604 17:58:09.826300 30821 net.cpp:454] rpn/output_rpn_relu/3x3_0_split <- rpn/output
I0604 17:58:09.826304 30821 net.cpp:411] rpn/output_rpn_relu/3x3_0_split -> rpn/output_rpn_relu/3x3_0_split_0
I0604 17:58:09.826308 30821 net.cpp:411] rpn/output_rpn_relu/3x3_0_split -> rpn/output_rpn_relu/3x3_0_split_1
I0604 17:58:09.826359 30821 net.cpp:150] Setting up rpn/output_rpn_relu/3x3_0_split
I0604 17:58:09.826362 30821 net.cpp:157] Top shape: 1 512 38 63 (1225728)
I0604 17:58:09.826375 30821 net.cpp:157] Top shape: 1 512 38 63 (1225728)
I0604 17:58:09.826377 30821 net.cpp:165] Memory required for data: 1424640876
I0604 17:58:09.826380 30821 layer_factory.hpp:77] Creating layer rpn_cls_score
I0604 17:58:09.826396 30821 net.cpp:106] Creating Layer rpn_cls_score
I0604 17:58:09.826400 30821 net.cpp:454] rpn_cls_score <- rpn/output_rpn_relu/3x3_0_split_0
I0604 17:58:09.826416 30821 net.cpp:411] rpn_cls_score -> rpn_cls_score
I0604 17:58:09.828029 30821 net.cpp:150] Setting up rpn_cls_score
I0604 17:58:09.828038 30821 net.cpp:157] Top shape: 1 30 38 63 (71820)
I0604 17:58:09.828040 30821 net.cpp:165] Memory required for data: 1424928156
I0604 17:58:09.828045 30821 layer_factory.hpp:77] Creating layer rpn_cls_score_rpn_cls_score_0_split
I0604 17:58:09.828052 30821 net.cpp:106] Creating Layer rpn_cls_score_rpn_cls_score_0_split
I0604 17:58:09.828054 30821 net.cpp:454] rpn_cls_score_rpn_cls_score_0_split <- rpn_cls_score
I0604 17:58:09.828058 30821 net.cpp:411] rpn_cls_score_rpn_cls_score_0_split -> rpn_cls_score_rpn_cls_score_0_split_0
I0604 17:58:09.828073 30821 net.cpp:411] rpn_cls_score_rpn_cls_score_0_split -> rpn_cls_score_rpn_cls_score_0_split_1
I0604 17:58:09.828099 30821 net.cpp:150] Setting up rpn_cls_score_rpn_cls_score_0_split
I0604 17:58:09.828104 30821 net.cpp:157] Top shape: 1 30 38 63 (71820)
I0604 17:58:09.828106 30821 net.cpp:157] Top shape: 1 30 38 63 (71820)
I0604 17:58:09.828109 30821 net.cpp:165] Memory required for data: 1425502716
I0604 17:58:09.828111 30821 layer_factory.hpp:77] Creating layer rpn_bbox_pred
I0604 17:58:09.828119 30821 net.cpp:106] Creating Layer rpn_bbox_pred
I0604 17:58:09.828121 30821 net.cpp:454] rpn_bbox_pred <- rpn/output_rpn_relu/3x3_0_split_1
I0604 17:58:09.828126 30821 net.cpp:411] rpn_bbox_pred -> rpn_bbox_pred
I0604 17:58:09.829664 30821 net.cpp:150] Setting up rpn_bbox_pred
I0604 17:58:09.829672 30821 net.cpp:157] Top shape: 1 60 38 63 (143640)
I0604 17:58:09.829674 30821 net.cpp:165] Memory required for data: 1426077276
I0604 17:58:09.829689 30821 layer_factory.hpp:77] Creating layer rpn_bbox_pred_rpn_bbox_pred_0_split
I0604 17:58:09.829695 30821 net.cpp:106] Creating Layer rpn_bbox_pred_rpn_bbox_pred_0_split
I0604 17:58:09.829699 30821 net.cpp:454] rpn_bbox_pred_rpn_bbox_pred_0_split <- rpn_bbox_pred
I0604 17:58:09.829702 30821 net.cpp:411] rpn_bbox_pred_rpn_bbox_pred_0_split -> rpn_bbox_pred_rpn_bbox_pred_0_split_0
I0604 17:58:09.829710 30821 net.cpp:411] rpn_bbox_pred_rpn_bbox_pred_0_split -> rpn_bbox_pred_rpn_bbox_pred_0_split_1
I0604 17:58:09.829737 30821 net.cpp:150] Setting up rpn_bbox_pred_rpn_bbox_pred_0_split
I0604 17:58:09.829751 30821 net.cpp:157] Top shape: 1 60 38 63 (143640)
I0604 17:58:09.829753 30821 net.cpp:157] Top shape: 1 60 38 63 (143640)
I0604 17:58:09.829756 30821 net.cpp:165] Memory required for data: 1427226396
I0604 17:58:09.829758 30821 layer_factory.hpp:77] Creating layer rpn_cls_score_reshape
I0604 17:58:09.829777 30821 net.cpp:106] Creating Layer rpn_cls_score_reshape
I0604 17:58:09.829782 30821 net.cpp:454] rpn_cls_score_reshape <- rpn_cls_score_rpn_cls_score_0_split_0
I0604 17:58:09.829785 30821 net.cpp:411] rpn_cls_score_reshape -> rpn_cls_score_reshape
I0604 17:58:09.829803 30821 net.cpp:150] Setting up rpn_cls_score_reshape
I0604 17:58:09.829808 30821 net.cpp:157] Top shape: 1 2 570 63 (71820)
I0604 17:58:09.829810 30821 net.cpp:165] Memory required for data: 1427513676
I0604 17:58:09.829814 30821 layer_factory.hpp:77] Creating layer rpn_cls_score_reshape_rpn_cls_score_reshape_0_split
I0604 17:58:09.829818 30821 net.cpp:106] Creating Layer rpn_cls_score_reshape_rpn_cls_score_reshape_0_split
I0604 17:58:09.829823 30821 net.cpp:454] rpn_cls_score_reshape_rpn_cls_score_reshape_0_split <- rpn_cls_score_reshape
I0604 17:58:09.829826 30821 net.cpp:411] rpn_cls_score_reshape_rpn_cls_score_reshape_0_split -> rpn_cls_score_reshape_rpn_cls_score_reshape_0_split_0
I0604 17:58:09.829833 30821 net.cpp:411] rpn_cls_score_reshape_rpn_cls_score_reshape_0_split -> rpn_cls_score_reshape_rpn_cls_score_reshape_0_split_1
I0604 17:58:09.829861 30821 net.cpp:150] Setting up rpn_cls_score_reshape_rpn_cls_score_reshape_0_split
I0604 17:58:09.829865 30821 net.cpp:157] Top shape: 1 2 570 63 (71820)
I0604 17:58:09.829869 30821 net.cpp:157] Top shape: 1 2 570 63 (71820)
I0604 17:58:09.829880 30821 net.cpp:165] Memory required for data: 1428088236
I0604 17:58:09.829883 30821 layer_factory.hpp:77] Creating layer rpn-data
I0604 17:58:09.830211 30821 net.cpp:106] Creating Layer rpn-data
I0604 17:58:09.830219 30821 net.cpp:454] rpn-data <- rpn_cls_score_rpn_cls_score_0_split_1
I0604 17:58:09.830233 30821 net.cpp:454] rpn-data <- gt_boxes_input-data_2_split_0
I0604 17:58:09.830237 30821 net.cpp:454] rpn-data <- im_info_input-data_1_split_0
I0604 17:58:09.830241 30821 net.cpp:454] rpn-data <- data_input-data_0_split_1
I0604 17:58:09.830246 30821 net.cpp:411] rpn-data -> rpn_labels
I0604 17:58:09.830251 30821 net.cpp:411] rpn-data -> rpn_bbox_targets
I0604 17:58:09.830256 30821 net.cpp:411] rpn-data -> rpn_bbox_inside_weights
I0604 17:58:09.830261 30821 net.cpp:411] rpn-data -> rpn_bbox_outside_weights
===================================anchor_scales in AnchorTargetLayer:=============(2, 4, 8, 16, 32)
I0604 17:58:09.831084 30821 net.cpp:150] Setting up rpn-data
I0604 17:58:09.831092 30821 net.cpp:157] Top shape: 1 1 570 63 (35910)
I0604 17:58:09.831096 30821 net.cpp:157] Top shape: 1 60 38 63 (143640)
I0604 17:58:09.831099 30821 net.cpp:157] Top shape: 1 60 38 63 (143640)
I0604 17:58:09.831102 30821 net.cpp:157] Top shape: 1 60 38 63 (143640)
I0604 17:58:09.831104 30821 net.cpp:165] Memory required for data: 1429955556
I0604 17:58:09.831107 30821 layer_factory.hpp:77] Creating layer rpn_loss_cls
I0604 17:58:09.831113 30821 net.cpp:106] Creating Layer rpn_loss_cls
I0604 17:58:09.831117 30821 net.cpp:454] rpn_loss_cls <- rpn_cls_score_reshape_rpn_cls_score_reshape_0_split_0
I0604 17:58:09.831122 30821 net.cpp:454] rpn_loss_cls <- rpn_labels
…
I0604 17:58:09.832922 30821 net.cpp:157] Top shape: (1)
I0604 17:58:09.832926 30821 net.cpp:160]     with loss weight 1
I0604 17:58:09.832931 30821 net.cpp:165] Memory required for data: 1429955564
I0604 17:58:09.832933 30821 layer_factory.hpp:77] Creating layer rpn_cls_prob
I0604 17:58:09.832939 30821 net.cpp:106] Creating Layer rpn_cls_prob
I0604 17:58:09.832942 30821 net.cpp:454] rpn_cls_prob <- rpn_cls_score_reshape_rpn_cls_score_reshape_0_split_1
I0604 17:58:09.832945 30821 net.cpp:411] rpn_cls_prob -> rpn_cls_prob
I0604 17:58:09.833112 30821 net.cpp:150] Setting up rpn_cls_prob
I0604 17:58:09.833118 30821 net.cpp:157] Top shape: 1 2 570 63 (71820)
I0604 17:58:09.833123 30821 net.cpp:165] Memory required for data: 1430242844
I0604 17:58:09.833127 30821 layer_factory.hpp:77] Creating layer rpn_cls_prob_reshape
I0604 17:58:09.833132 30821 net.cpp:106] Creating Layer rpn_cls_prob_reshape
I0604 17:58:09.833137 30821 net.cpp:454] rpn_cls_prob_reshape <- rpn_cls_prob
I0604 17:58:09.833140 30821 net.cpp:411] rpn_cls_prob_reshape -> rpn_cls_prob_reshape
I0604 17:58:09.833161 30821 net.cpp:150] Setting up rpn_cls_prob_reshape
I0604 17:58:09.833165 30821 net.cpp:157] Top shape: 1 30 38 63 (71820)
I0604 17:58:09.833168 30821 net.cpp:165] Memory required for data: 1430530124
I0604 17:58:09.833171 30821 layer_factory.hpp:77] Creating layer proposal
I0604 17:58:09.850169 30821 net.cpp:106] Creating Layer proposal
I0604 17:58:09.850184 30821 net.cpp:454] proposal <- rpn_cls_prob_reshape
I0604 17:58:09.850190 30821 net.cpp:454] proposal <- rpn_bbox_pred_rpn_bbox_pred_0_split_1
I0604 17:58:09.850195 30821 net.cpp:454] proposal <- im_info_input-data_1_split_1
I0604 17:58:09.850200 30821 net.cpp:411] proposal -> rpn_rois
=================================anchor_scales in ProposalLayer:=============(2, 4, 8, 16, 32)
I0604 17:58:09.851234 30821 net.cpp:150] Setting up proposal
I0604 17:58:09.851246 30821 net.cpp:157] Top shape: 1 5 (5)
I0604 17:58:09.851248 30821 net.cpp:165] Memory required for data: 1430530144
I0604 17:58:09.851253 30821 layer_factory.hpp:77] Creating layer roi-data
I0604 17:58:09.851470 30821 net.cpp:106] Creating Layer roi-data
I0604 17:58:09.851477 30821 net.cpp:454] roi-data <- rpn_rois
I0604 17:58:09.851482 30821 net.cpp:454] roi-data <- gt_boxes_input-data_2_split_1
I0604 17:58:09.851485 30821 net.cpp:454] roi-data <- im_info_input-data_1_split_2
I0604 17:58:09.851505 30821 net.cpp:454] roi-data <- seg_mask_inds
I0604 17:58:09.851507 30821 net.cpp:454] roi-data <- flipped
I0604 17:58:09.851522 30821 net.cpp:411] roi-data -> rois
I0604 17:58:09.851531 30821 net.cpp:411] roi-data -> labels
I0604 17:58:09.851537 30821 net.cpp:411] roi-data -> bbox_targets
I0604 17:58:09.851541 30821 net.cpp:411] roi-data -> bbox_inside_weights
I0604 17:58:09.851545 30821 net.cpp:411] roi-data -> bbox_outside_weights
I0604 17:58:09.851549 30821 net.cpp:411] roi-data -> mask_targets
I0604 17:58:09.851564 30821 net.cpp:411] roi-data -> rois_pos
I0604 17:58:09.851871 30821 net.cpp:150] Setting up roi-data
I0604 17:58:09.851879 30821 net.cpp:157] Top shape: 1 5 (5)
I0604 17:58:09.851882 30821 net.cpp:157] Top shape: 1 1 (1)
I0604 17:58:09.851884 30821 net.cpp:157] Top shape: 1 8 (8)
I0604 17:58:09.851887 30821 net.cpp:157] Top shape: 1 8 (8)
I0604 17:58:09.851889 30821 net.cpp:157] Top shape: 1 8 (8)
I0604 17:58:09.851891 30821 net.cpp:157] Top shape: 1 244 244 (59536)
I0604 17:58:09.851894 30821 net.cpp:157] Top shape: 1 5 (5)
I0604 17:58:09.851897 30821 net.cpp:165] Memory required for data: 1430768428
I0604 17:58:09.851909 30821 layer_factory.hpp:77] Creating layer roi_pool5
I0604 17:58:09.851915 30821 net.cpp:106] Creating Layer roi_pool5
I0604 17:58:09.851919 30821 net.cpp:454] roi_pool5 <- conv5_3_relu5_3_0_split_1
I0604 17:58:09.851923 30821 net.cpp:454] roi_pool5 <- rois
I0604 17:58:09.851928 30821 net.cpp:411] roi_pool5 -> pool5
I0604 17:58:09.851934 30821 roi_alignment_layer.cpp:32] Spatial scale: 0.0625
I0604 17:58:09.852036 30821 net.cpp:150] Setting up roi_pool5
I0604 17:58:09.852041 30821 net.cpp:157] Top shape: 1 512 7 7 (25088)
I0604 17:58:09.852053 30821 net.cpp:165] Memory required for data: 1430868780
I0604 17:58:09.852056 30821 layer_factory.hpp:77] Creating layer fc6
I0604 17:58:09.852061 30821 net.cpp:106] Creating Layer fc6
I0604 17:58:09.852063 30821 net.cpp:454] fc6 <- pool5
I0604 17:58:09.852067 30821 net.cpp:411] fc6 -> fc6
I0604 17:58:09.993012 30821 net.cpp:150] Setting up fc6
I0604 17:58:09.993044 30821 net.cpp:157] Top shape: 1 4096 (4096)
I0604 17:58:09.993047 30821 net.cpp:165] Memory required for data: 1430885164
I0604 17:58:09.993062 30821 layer_factory.hpp:77] Creating layer relu6
I0604 17:58:09.993082 30821 net.cpp:106] Creating Layer relu6
I0604 17:58:09.993086 30821 net.cpp:454] relu6 <- fc6
I0604 17:58:09.993091 30821 net.cpp:397] relu6 -> fc6 (in-place)
I0604 17:58:09.993320 30821 net.cpp:150] Setting up relu6
I0604 17:58:09.993329 30821 net.cpp:157] Top shape: 1 4096 (4096)
I0604 17:58:09.993340 30821 net.cpp:165] Memory required for data: 1430901548
I0604 17:58:09.993343 30821 layer_factory.hpp:77] Creating layer fc7
I0604 17:58:09.993350 30821 net.cpp:106] Creating Layer fc7
I0604 17:58:09.993364 30821 net.cpp:454] fc7 <- fc6
I0604 17:58:09.993369 30821 net.cpp:411] fc7 -> fc7
I0604 17:58:10.017041 30821 net.cpp:150] Setting up fc7
I0604 17:58:10.017066 30821 net.cpp:157] Top shape: 1 4096 (4096)
I0604 17:58:10.017069 30821 net.cpp:165] Memory required for data: 1430917932
I0604 17:58:10.017078 30821 layer_factory.hpp:77] Creating layer relu7
I0604 17:58:10.017087 30821 net.cpp:106] Creating Layer relu7
I0604 17:58:10.017091 30821 net.cpp:454] relu7 <- fc7
I0604 17:58:10.017098 30821 net.cpp:397] relu7 -> fc7 (in-place)
I0604 17:58:10.017303 30821 net.cpp:150] Setting up relu7
I0604 17:58:10.017311 30821 net.cpp:157] Top shape: 1 4096 (4096)
I0604 17:58:10.017313 30821 net.cpp:165] Memory required for data: 1430934316
I0604 17:58:10.017316 30821 layer_factory.hpp:77] Creating layer fc7_relu7_0_split
I0604 17:58:10.017320 30821 net.cpp:106] Creating Layer fc7_relu7_0_split
I0604 17:58:10.017323 30821 net.cpp:454] fc7_relu7_0_split <- fc7
I0604 17:58:10.017328 30821 net.cpp:411] fc7_relu7_0_split -> fc7_relu7_0_split_0
I0604 17:58:10.017345 30821 net.cpp:411] fc7_relu7_0_split -> fc7_relu7_0_split_1
I0604 17:58:10.017396 30821 net.cpp:150] Setting up fc7_relu7_0_split
I0604 17:58:10.017431 30821 net.cpp:157] Top shape: 1 4096 (4096)
I0604 17:58:10.017434 30821 net.cpp:157] Top shape: 1 4096 (4096)
I0604 17:58:10.017436 30821 net.cpp:165] Memory required for data: 1430967084
I0604 17:58:10.017438 30821 layer_factory.hpp:77] Creating layer cls_score
I0604 17:58:10.017455 30821 net.cpp:106] Creating Layer cls_score
I0604 17:58:10.017458 30821 net.cpp:454] cls_score <- fc7_relu7_0_split_0
I0604 17:58:10.017464 30821 net.cpp:411] cls_score -> cls_score
I0604 17:58:10.017719 30821 net.cpp:150] Setting up cls_score
I0604 17:58:10.017724 30821 net.cpp:157] Top shape: 1 2 (2)
I0604 17:58:10.017725 30821 net.cpp:165] Memory required for data: 1430967092
I0604 17:58:10.017729 30821 layer_factory.hpp:77] Creating layer bbox_pred
I0604 17:58:10.017735 30821 net.cpp:106] Creating Layer bbox_pred
I0604 17:58:10.017736 30821 net.cpp:454] bbox_pred <- fc7_relu7_0_split_1
I0604 17:58:10.017740 30821 net.cpp:411] bbox_pred -> bbox_pred
I0604 17:58:10.018487 30821 net.cpp:150] Setting up bbox_pred
I0604 17:58:10.018491 30821 net.cpp:157] Top shape: 1 8 (8)
I0604 17:58:10.018493 30821 net.cpp:165] Memory required for data: 1430967124
I0604 17:58:10.018497 30821 layer_factory.hpp:77] Creating layer loss_cls
I0604 17:58:10.018501 30821 net.cpp:106] Creating Layer loss_cls
I0604 17:58:10.018503 30821 net.cpp:454] loss_cls <- cls_score
I0604 17:58:10.018507 30821 net.cpp:454] loss_cls <- labels
I0604 17:58:10.018510 30821 net.cpp:411] loss_cls -> loss_cls
…
I0604 17:58:10.019546 30821 net.cpp:165] Memory required for data: 1430967132
I0604 17:58:10.019549 30821 layer_factory.hpp:77] Creating layer roi_pool5_2
I0604 17:58:10.019565 30821 net.cpp:106] Creating Layer roi_pool5_2
I0604 17:58:10.019570 30821 net.cpp:454] roi_pool5_2 <- conv5_3_relu5_3_0_split_2
I0604 17:58:10.019587 30821 net.cpp:454] roi_pool5_2 <- rois_pos
I0604 17:58:10.019593 30821 net.cpp:411] roi_pool5_2 -> pool5_2
I0604 17:58:10.019601 30821 roi_alignment_layer.cpp:32] Spatial scale: 0.0625
I0604 17:58:10.019731 30821 net.cpp:150] Setting up roi_pool5_2
I0604 17:58:10.019740 30821 net.cpp:157] Top shape: 1 512 7 7 (25088)
I0604 17:58:10.019745 30821 net.cpp:165] Memory required for data: 1431067484
I0604 17:58:10.019748 30821 layer_factory.hpp:77] Creating layer pool5_2_conv
I0604 17:58:10.019760 30821 net.cpp:106] Creating Layer pool5_2_conv
I0604 17:58:10.019765 30821 net.cpp:454] pool5_2_conv <- pool5_2
I0604 17:58:10.019771 30821 net.cpp:411] pool5_2_conv -> pool5_2_conv
I0604 17:58:10.026407 30821 net.cpp:150] Setting up pool5_2_conv
I0604 17:58:10.026415 30821 net.cpp:157] Top shape: 1 512 7 7 (25088)
I0604 17:58:10.026418 30821 net.cpp:165] Memory required for data: 1431167836
I0604 17:58:10.026422 30821 layer_factory.hpp:77] Creating layer pool5_2_conv_relu
I0604 17:58:10.026427 30821 net.cpp:106] Creating Layer pool5_2_conv_relu
I0604 17:58:10.026429 30821 net.cpp:454] pool5_2_conv_relu <- pool5_2_conv
I0604 17:58:10.026434 30821 net.cpp:411] pool5_2_conv_relu -> pool5_2_conv_relu
I0604 17:58:10.026583 30821 net.cpp:150] Setting up pool5_2_conv_relu
I0604 17:58:10.026589 30821 net.cpp:157] Top shape: 1 512 7 7 (25088)
I0604 17:58:10.026592 30821 net.cpp:165] Memory required for data: 1431268188
I0604 17:58:10.026607 30821 layer_factory.hpp:77] Creating layer pool5_2_conv2
I0604 17:58:10.026629 30821 net.cpp:106] Creating Layer pool5_2_conv2
I0604 17:58:10.026633 30821 net.cpp:454] pool5_2_conv2 <- pool5_2_conv_relu
I0604 17:58:10.026648 30821 net.cpp:411] pool5_2_conv2 -> pool5_2_conv2
I0604 17:58:10.078299 30821 net.cpp:150] Setting up pool5_2_conv2
I0604 17:58:10.078316 30821 net.cpp:157] Top shape: 1 512 7 7 (25088)
I0604 17:58:10.078320 30821 net.cpp:165] Memory required for data: 1431368540
I0604 17:58:10.078327 30821 layer_factory.hpp:77] Creating layer pool5_2_conv2_relu
I0604 17:58:10.078346 30821 net.cpp:106] Creating Layer pool5_2_conv2_relu
I0604 17:58:10.078351 30821 net.cpp:454] pool5_2_conv2_relu <- pool5_2_conv2
I0604 17:58:10.078367 30821 net.cpp:411] pool5_2_conv2_relu -> pool5_2_conv2_relu
I0604 17:58:10.078528 30821 net.cpp:150] Setting up pool5_2_conv2_relu
I0604 17:58:10.078536 30821 net.cpp:157] Top shape: 1 512 7 7 (25088)
I0604 17:58:10.078537 30821 net.cpp:165] Memory required for data: 1431468892
I0604 17:58:10.078539 30821 layer_factory.hpp:77] Creating layer mask_deconv1
I0604 17:58:10.078547 30821 net.cpp:106] Creating Layer mask_deconv1
I0604 17:58:10.078549 30821 net.cpp:454] mask_deconv1 <- pool5_2_conv2_relu
I0604 17:58:10.078554 30821 net.cpp:411] mask_deconv1 -> mask_deconv1
I0604 17:58:10.079337 30821 net.cpp:150] Setting up mask_deconv1
I0604 17:58:10.079342 30821 net.cpp:157] Top shape: 1 256 30 30 (230400)
I0604 17:58:10.079344 30821 net.cpp:165] Memory required for data: 1432390492
I0604 17:58:10.079349 30821 layer_factory.hpp:77] Creating layer pool5_2_conv3
I0604 17:58:10.079354 30821 net.cpp:106] Creating Layer pool5_2_conv3
I0604 17:58:10.079356 30821 net.cpp:454] pool5_2_conv3 <- mask_deconv1
I0604 17:58:10.079361 30821 net.cpp:411] pool5_2_conv3 -> pool5_2_conv3
I0604 17:58:10.105839 30821 net.cpp:150] Setting up pool5_2_conv3
I0604 17:58:10.105856 30821 net.cpp:157] Top shape: 1 512 30 30 (460800)
I0604 17:58:10.105859 30821 net.cpp:165] Memory required for data: 1434233692
I0604 17:58:10.105867 30821 layer_factory.hpp:77] Creating layer pool5_2_conv3_relu
I0604 17:58:10.105875 30821 net.cpp:106] Creating Layer pool5_2_conv3_relu
I0604 17:58:10.105880 30821 net.cpp:454] pool5_2_conv3_relu <- pool5_2_conv3
I0604 17:58:10.105896 30821 net.cpp:411] pool5_2_conv3_relu -> pool5_2_conv3_relu
I0604 17:58:10.106050 30821 net.cpp:150] Setting up pool5_2_conv3_relu
I0604 17:58:10.106056 30821 net.cpp:157] Top shape: 1 512 30 30 (460800)
I0604 17:58:10.106058 30821 net.cpp:165] Memory required for data: 1436076892
I0604 17:58:10.106061 30821 layer_factory.hpp:77] Creating layer pool5_2_conv4
I0604 17:58:10.106070 30821 net.cpp:106] Creating Layer pool5_2_conv4
I0604 17:58:10.106073 30821 net.cpp:454] pool5_2_conv4 <- pool5_2_conv3_relu
I0604 17:58:10.106077 30821 net.cpp:411] pool5_2_conv4 -> pool5_2_conv4
I0604 17:58:10.155830 30821 net.cpp:150] Setting up pool5_2_conv4
I0604 17:58:10.155848 30821 net.cpp:157] Top shape: 1 512 30 30 (460800)
I0604 17:58:10.155851 30821 net.cpp:165] Memory required for data: 1437920092
I0604 17:58:10.155858 30821 layer_factory.hpp:77] Creating layer pool5_2_conv4_relu
I0604 17:58:10.155866 30821 net.cpp:106] Creating Layer pool5_2_conv4_relu
I0604 17:58:10.155872 30821 net.cpp:454] pool5_2_conv4_relu <- pool5_2_conv4
I0604 17:58:10.155887 30821 net.cpp:411] pool5_2_conv4_relu -> pool5_2_conv4_relu
I0604 17:58:10.156054 30821 net.cpp:150] Setting up pool5_2_conv4_relu
I0604 17:58:10.156060 30821 net.cpp:157] Top shape: 1 512 30 30 (460800)
I0604 17:58:10.156062 30821 net.cpp:165] Memory required for data: 1439763292
I0604 17:58:10.156065 30821 layer_factory.hpp:77] Creating layer pool5_2_conv4_relu_pool5_2_conv4_relu_0_split
I0604 17:58:10.156070 30821 net.cpp:106] Creating Layer pool5_2_conv4_relu_pool5_2_conv4_relu_0_split
I0604 17:58:10.156074 30821 net.cpp:454] pool5_2_conv4_relu_pool5_2_conv4_relu_0_split <- pool5_2_conv4_relu
…
I0604 17:58:10.156106 30821 net.cpp:411] pool5_2_conv4_relu_pool5_2_conv4_relu_0_split -> pool5_2_conv4_relu_pool5_2_conv4_relu_0_split_4
I0604 17:58:10.156110 30821 net.cpp:411] pool5_2_conv4_relu_pool5_2_conv4_relu_0_split -> pool5_2_conv4_relu_pool5_2_conv4_relu_0_split_5
I0604 17:58:10.156112 30821 net.cpp:411] pool5_2_conv4_relu_pool5_2_conv4_relu_0_split -> pool5_2_conv4_relu_pool5_2_conv4_relu_0_split_6
I0604 17:58:10.156116 30821 net.cpp:411] pool5_2_conv4_relu_pool5_2_conv4_relu_0_split -> pool5_2_conv4_relu_pool5_2_conv4_relu_0_split_7
I0604 17:58:10.156219 30821 net.cpp:150] Setting up pool5_2_conv4_relu_pool5_2_conv4_relu_0_split
I0604 17:58:10.156224 30821 net.cpp:157] Top shape: 1 512 30 30 (460800)
I0604 17:58:10.156227 30821 net.cpp:157] Top shape: 1 512 30 30 (460800)
I0604 17:58:10.156229 30821 net.cpp:157] Top shape: 1 512 30 30 (460800)
I0604 17:58:10.156231 30821 net.cpp:157] Top shape: 1 512 30 30 (460800)
I0604 17:58:10.156234 30821 net.cpp:157] Top shape: 1 512 30 30 (460800)
I0604 17:58:10.156236 30821 net.cpp:157] Top shape: 1 512 30 30 (460800)
I0604 17:58:10.156239 30821 net.cpp:157] Top shape: 1 512 30 30 (460800)
I0604 17:58:10.156241 30821 net.cpp:157] Top shape: 1 512 30 30 (460800)
I0604 17:58:10.156253 30821 net.cpp:165] Memory required for data: 1454508892
I0604 17:58:10.156255 30821 layer_factory.hpp:77] Creating layer query_conv
I0604 17:58:10.156280 30821 net.cpp:106] Creating Layer query_conv
I0604 17:58:10.156282 30821 net.cpp:454] query_conv <- pool5_2_conv4_relu_pool5_2_conv4_relu_0_split_0
I0604 17:58:10.156286 30821 net.cpp:411] query_conv -> query_conv
I0604 17:58:10.157889 30821 net.cpp:150] Setting up query_conv
I0604 17:58:10.157897 30821 net.cpp:157] Top shape: 1 64 30 30 (57600)
I0604 17:58:10.157899 30821 net.cpp:165] Memory required for data: 1454739292
I0604 17:58:10.157904 30821 layer_factory.hpp:77] Creating layer key_conv
I0604 17:58:10.157913 30821 net.cpp:106] Creating Layer key_conv
I0604 17:58:10.157915 30821 net.cpp:454] key_conv <- pool5_2_conv4_relu_pool5_2_conv4_relu_0_split_1
I0604 17:58:10.157922 30821 net.cpp:411] key_conv -> key_conv
I0604 17:58:10.159482 30821 net.cpp:150] Setting up key_conv
I0604 17:58:10.159489 30821 net.cpp:157] Top shape: 1 64 30 30 (57600)
I0604 17:58:10.159492 30821 net.cpp:165] Memory required for data: 1454969692
I0604 17:58:10.159497 30821 layer_factory.hpp:77] Creating layer value_conv
I0604 17:58:10.159504 30821 net.cpp:106] Creating Layer value_conv
I0604 17:58:10.159507 30821 net.cpp:454] value_conv <- pool5_2_conv4_relu_pool5_2_conv4_relu_0_split_2
I0604 17:58:10.159512 30821 net.cpp:411] value_conv -> value_conv
I0604 17:58:10.166725 30821 net.cpp:150] Setting up value_conv
I0604 17:58:10.166749 30821 net.cpp:157] Top shape: 1 512 30 30 (460800)
I0604 17:58:10.166750 30821 net.cpp:165] Memory required for data: 1456812892
I0604 17:58:10.166757 30821 layer_factory.hpp:77] Creating layer query_conv_reshape
I0604 17:58:10.166766 30821 net.cpp:106] Creating Layer query_conv_reshape
I0604 17:58:10.166771 30821 net.cpp:454] query_conv_reshape <- query_conv
I0604 17:58:10.166775 30821 net.cpp:411] query_conv_reshape -> query_conv_reshape
I0604 17:58:10.166810 30821 net.cpp:150] Setting up query_conv_reshape
I0604 17:58:10.166815 30821 net.cpp:157] Top shape: 1 64 900 1 (57600)
I0604 17:58:10.166817 30821 net.cpp:165] Memory required for data: 1457043292
I0604 17:58:10.166829 30821 layer_factory.hpp:77] Creating layer key_conv_reshape
I0604 17:58:10.166833 30821 net.cpp:106] Creating Layer key_conv_reshape
I0604 17:58:10.166836 30821 net.cpp:454] key_conv_reshape <- key_conv
I0604 17:58:10.166841 30821 net.cpp:411] key_conv_reshape -> key_conv_reshape
I0604 17:58:10.166857 30821 net.cpp:150] Setting up key_conv_reshape
I0604 17:58:10.166862 30821 net.cpp:157] Top shape: 1 64 900 1 (57600)
I0604 17:58:10.166873 30821 net.cpp:165] Memory required for data: 1457273692
I0604 17:58:10.166875 30821 layer_factory.hpp:77] Creating layer value_conv_reshape
I0604 17:58:10.166879 30821 net.cpp:106] Creating Layer value_conv_reshape
I0604 17:58:10.166893 30821 net.cpp:454] value_conv_reshape <- value_conv
I0604 17:58:10.166896 30821 net.cpp:411] value_conv_reshape -> value_conv_reshape
I0604 17:58:10.166911 30821 net.cpp:150] Setting up value_conv_reshape
I0604 17:58:10.166914 30821 net.cpp:157] Top shape: 1 512 900 1 (460800)
I0604 17:58:10.166918 30821 net.cpp:165] Memory required for data: 1459116892
I0604 17:58:10.166919 30821 layer_factory.hpp:77] Creating layer query_conv_reshape_perm
I0604 17:58:10.166931 30821 net.cpp:106] Creating Layer query_conv_reshape_perm
I0604 17:58:10.166934 30821 net.cpp:454] query_conv_reshape_perm <- query_conv_reshape
I0604 17:58:10.166939 30821 net.cpp:411] query_conv_reshape_perm -> query_conv_reshape_perm
I0604 17:58:10.167013 30821 net.cpp:150] Setting up query_conv_reshape_perm
I0604 17:58:10.167018 30821 net.cpp:157] Top shape: 1 1 900 64 (57600)
I0604 17:58:10.167030 30821 net.cpp:165] Memory required for data: 1459347292
I0604 17:58:10.167033 30821 layer_factory.hpp:77] Creating layer key_conv_reshape_perm
I0604 17:58:10.167038 30821 net.cpp:106] Creating Layer key_conv_reshape_perm
I0604 17:58:10.167043 30821 net.cpp:454] key_conv_reshape_perm <- key_conv_reshape
I0604 17:58:10.167049 30821 net.cpp:411] key_conv_reshape_perm -> key_conv_reshape_perm
I0604 17:58:10.167152 30821 net.cpp:150] Setting up key_conv_reshape_perm
I0604 17:58:10.167158 30821 net.cpp:157] Top shape: 1 1 64 900 (57600)
I0604 17:58:10.167171 30821 net.cpp:165] Memory required for data: 1459577692
I0604 17:58:10.167173 30821 layer_factory.hpp:77] Creating layer energy
I0604 17:58:10.167177 30821 net.cpp:106] Creating Layer energy
I0604 17:58:10.167181 30821 net.cpp:454] energy <- query_conv_reshape_perm
I0604 17:58:10.167183 30821 net.cpp:454] energy <- key_conv_reshape_perm
I0604 17:58:10.167187 30821 net.cpp:411] energy -> energy
I0604 17:58:10.167214 30821 net.cpp:150] Setting up energy
I0604 17:58:10.167219 30821 net.cpp:157] Top shape: 1 1 900 900 (810000)
I0604 17:58:10.167222 30821 net.cpp:165] Memory required for data: 1462817692
I0604 17:58:10.167232 30821 layer_factory.hpp:77] Creating layer attention
I0604 17:58:10.167237 30821 net.cpp:106] Creating Layer attention
I0604 17:58:10.167240 30821 net.cpp:454] attention <- energy
I0604 17:58:10.167256 30821 net.cpp:411] attention -> attention
I0604 17:58:10.167464 30821 net.cpp:150] Setting up attention
I0604 17:58:10.167471 30821 net.cpp:157] Top shape: 1 1 900 900 (810000)
I0604 17:58:10.167474 30821 net.cpp:165] Memory required for data: 1466057692
I0604 17:58:10.167475 30821 layer_factory.hpp:77] Creating layer value_conv_reshape_perm
I0604 17:58:10.167480 30821 net.cpp:106] Creating Layer value_conv_reshape_perm
I0604 17:58:10.167484 30821 net.cpp:454] value_conv_reshape_perm <- value_conv_reshape
I0604 17:58:10.167486 30821 net.cpp:411] value_conv_reshape_perm -> value_conv_reshape_perm
I0604 17:58:10.167559 30821 net.cpp:150] Setting up value_conv_reshape_perm
I0604 17:58:10.167564 30821 net.cpp:157] Top shape: 1 1 512 900 (460800)
I0604 17:58:10.167567 30821 net.cpp:165] Memory required for data: 1467900892
I0604 17:58:10.167568 30821 layer_factory.hpp:77] Creating layer attention_perm
I0604 17:58:10.167572 30821 net.cpp:106] Creating Layer attention_perm
I0604 17:58:10.167574 30821 net.cpp:454] attention_perm <- attention
I0604 17:58:10.167578 30821 net.cpp:411] attention_perm -> attention_perm
I0604 17:58:10.167642 30821 net.cpp:150] Setting up attention_perm
I0604 17:58:10.167646 30821 net.cpp:157] Top shape: 1 1 900 900 (810000)
I0604 17:58:10.167649 30821 net.cpp:165] Memory required for data: 1471140892
I0604 17:58:10.167650 30821 layer_factory.hpp:77] Creating layer out
I0604 17:58:10.167654 30821 net.cpp:106] Creating Layer out
I0604 17:58:10.167656 30821 net.cpp:454] out <- value_conv_reshape_perm
I0604 17:58:10.167659 30821 net.cpp:454] out <- attention_perm
I0604 17:58:10.167662 30821 net.cpp:411] out -> out
I0604 17:58:10.167676 30821 net.cpp:150] Setting up out
I0604 17:58:10.167680 30821 net.cpp:157] Top shape: 1 1 512 900 (460800)
I0604 17:58:10.167682 30821 net.cpp:165] Memory required for data: 1472984092
I0604 17:58:10.167685 30821 layer_factory.hpp:77] Creating layer out_reshape
I0604 17:58:10.167690 30821 net.cpp:106] Creating Layer out_reshape
I0604 17:58:10.167693 30821 net.cpp:454] out_reshape <- out
I0604 17:58:10.167697 30821 net.cpp:411] out_reshape -> out_reshape
I0604 17:58:10.167714 30821 net.cpp:150] Setting up out_reshape
I0604 17:58:10.167718 30821 net.cpp:157] Top shape: 1 512 30 30 (460800)
I0604 17:58:10.167721 30821 net.cpp:165] Memory required for data: 1474827292
I0604 17:58:10.167722 30821 layer_factory.hpp:77] Creating layer out_reshape_scale
I0604 17:58:10.167732 30821 net.cpp:106] Creating Layer out_reshape_scale
I0604 17:58:10.167734 30821 net.cpp:454] out_reshape_scale <- out_reshape
I0604 17:58:10.167738 30821 net.cpp:411] out_reshape_scale -> out_reshape_scale
I0604 17:58:10.167801 30821 net.cpp:150] Setting up out_reshape_scale
I0604 17:58:10.167806 30821 net.cpp:157] Top shape: 1 512 30 30 (460800)
I0604 17:58:10.167809 30821 net.cpp:165] Memory required for data: 1476670492
I0604 17:58:10.167811 30821 layer_factory.hpp:77] Creating layer out_x
I0604 17:58:10.167816 30821 net.cpp:106] Creating Layer out_x
I0604 17:58:10.167819 30821 net.cpp:454] out_x <- out_reshape_scale
I0604 17:58:10.167822 30821 net.cpp:454] out_x <- pool5_2_conv4_relu_pool5_2_conv4_relu_0_split_3
I0604 17:58:10.167827 30821 net.cpp:411] out_x -> out_x
I0604 17:58:10.167845 30821 net.cpp:150] Setting up out_x
I0604 17:58:10.167848 30821 net.cpp:157] Top shape: 1 512 30 30 (460800)
I0604 17:58:10.167850 30821 net.cpp:165] Memory required for data: 1478513692
I0604 17:58:10.167852 30821 layer_factory.hpp:77] Creating layer query_conv_reshape_ch
I0604 17:58:10.167856 30821 net.cpp:106] Creating Layer query_conv_reshape_ch
I0604 17:58:10.167860 30821 net.cpp:454] query_conv_reshape_ch <- pool5_2_conv4_relu_pool5_2_conv4_relu_0_split_4
I0604 17:58:10.167863 30821 net.cpp:411] query_conv_reshape_ch -> query_conv_reshape_ch
I0604 17:58:10.167881 30821 net.cpp:150] Setting up query_conv_reshape_ch
I0604 17:58:10.167884 30821 net.cpp:157] Top shape: 1 512 900 1 (460800)
I0604 17:58:10.167886 30821 net.cpp:165] Memory required for data: 1480356892
I0604 17:58:10.167889 30821 layer_factory.hpp:77] Creating layer key_conv_reshape_ch
I0604 17:58:10.167893 30821 net.cpp:106] Creating Layer key_conv_reshape_ch
I0604 17:58:10.167896 30821 net.cpp:454] key_conv_reshape_ch <- pool5_2_conv4_relu_pool5_2_conv4_relu_0_split_5
I0604 17:58:10.167901 30821 net.cpp:411] key_conv_reshape_ch -> key_conv_reshape_ch
I0604 17:58:10.167918 30821 net.cpp:150] Setting up key_conv_reshape_ch
I0604 17:58:10.167922 30821 net.cpp:157] Top shape: 1 512 900 1 (460800)
I0604 17:58:10.167924 30821 net.cpp:165] Memory required for data: 1482200092
I0604 17:58:10.167927 30821 layer_factory.hpp:77] Creating layer value_conv_reshape_ch
I0604 17:58:10.167930 30821 net.cpp:106] Creating Layer value_conv_reshape_ch
I0604 17:58:10.167933 30821 net.cpp:454] value_conv_reshape_ch <- pool5_2_conv4_relu_pool5_2_conv4_relu_0_split_6
I0604 17:58:10.167937 30821 net.cpp:411] value_conv_reshape_ch -> value_conv_reshape_ch
I0604 17:58:10.167953 30821 net.cpp:150] Setting up value_conv_reshape_ch
I0604 17:58:10.167956 30821 net.cpp:157] Top shape: 1 512 900 1 (460800)
I0604 17:58:10.167958 30821 net.cpp:165] Memory required for data: 1484043292
I0604 17:58:10.167961 30821 layer_factory.hpp:77] Creating layer query_conv_reshape_perm_ch
I0604 17:58:10.167965 30821 net.cpp:106] Creating Layer query_conv_reshape_perm_ch
I0604 17:58:10.167968 30821 net.cpp:454] query_conv_reshape_perm_ch <- query_conv_reshape_ch
I0604 17:58:10.167973 30821 net.cpp:411] query_conv_reshape_perm_ch -> query_conv_reshape_perm_ch
I0604 17:58:10.168035 30821 net.cpp:150] Setting up query_conv_reshape_perm_ch
I0604 17:58:10.168040 30821 net.cpp:157] Top shape: 1 1 512 900 (460800)
I0604 17:58:10.168042 30821 net.cpp:165] Memory required for data: 1485886492
I0604 17:58:10.168045 30821 layer_factory.hpp:77] Creating layer key_conv_reshape_perm_ch
I0604 17:58:10.168048 30821 net.cpp:106] Creating Layer key_conv_reshape_perm_ch
I0604 17:58:10.168053 30821 net.cpp:454] key_conv_reshape_perm_ch <- key_conv_reshape_ch
I0604 17:58:10.168056 30821 net.cpp:411] key_conv_reshape_perm_ch -> key_conv_reshape_perm_ch
I0604 17:58:10.168119 30821 net.cpp:150] Setting up key_conv_reshape_perm_ch
I0604 17:58:10.168123 30821 net.cpp:157] Top shape: 1 1 900 512 (460800)
I0604 17:58:10.168126 30821 net.cpp:165] Memory required for data: 1487729692
I0604 17:58:10.168129 30821 layer_factory.hpp:77] Creating layer energy_ch
I0604 17:58:10.168133 30821 net.cpp:106] Creating Layer energy_ch
I0604 17:58:10.168138 30821 net.cpp:454] energy_ch <- query_conv_reshape_perm_ch
I0604 17:58:10.168140 30821 net.cpp:454] energy_ch <- key_conv_reshape_perm_ch
I0604 17:58:10.168146 30821 net.cpp:411] energy_ch -> energy_ch
I0604 17:58:10.168164 30821 net.cpp:150] Setting up energy_ch
I0604 17:58:10.168167 30821 net.cpp:157] Top shape: 1 1 512 512 (262144)
I0604 17:58:10.168169 30821 net.cpp:165] Memory required for data: 1488778268
I0604 17:58:10.168172 30821 layer_factory.hpp:77] Creating layer energy_ch_energy_ch_0_split
I0604 17:58:10.168177 30821 net.cpp:106] Creating Layer energy_ch_energy_ch_0_split
I0604 17:58:10.168181 30821 net.cpp:454] energy_ch_energy_ch_0_split <- energy_ch
I0604 17:58:10.168184 30821 net.cpp:411] energy_ch_energy_ch_0_split -> energy_ch_energy_ch_0_split_0
I0604 17:58:10.168190 30821 net.cpp:411] energy_ch_energy_ch_0_split -> energy_ch_energy_ch_0_split_1
I0604 17:58:10.168215 30821 net.cpp:150] Setting up energy_ch_energy_ch_0_split
I0604 17:58:10.168220 30821 net.cpp:157] Top shape: 1 1 512 512 (262144)
I0604 17:58:10.168222 30821 net.cpp:157] Top shape: 1 1 512 512 (262144)
I0604 17:58:10.168226 30821 net.cpp:165] Memory required for data: 1490875420
I0604 17:58:10.168227 30821 layer_factory.hpp:77] Creating layer energy_ch_perm
I0604 17:58:10.168233 30821 net.cpp:106] Creating Layer energy_ch_perm
I0604 17:58:10.168236 30821 net.cpp:454] energy_ch_perm <- energy_ch_energy_ch_0_split_0
I0604 17:58:10.168239 30821 net.cpp:411] energy_ch_perm -> energy_ch_perm
I0604 17:58:10.168305 30821 net.cpp:150] Setting up energy_ch_perm
I0604 17:58:10.168309 30821 net.cpp:157] Top shape: 1 512 1 512 (262144)
I0604 17:58:10.168313 30821 net.cpp:165] Memory required for data: 1491923996
I0604 17:58:10.168318 30821 layer_factory.hpp:77] Creating layer energy_ch_pool
I0604 17:58:10.168324 30821 net.cpp:106] Creating Layer energy_ch_pool
I0604 17:58:10.168329 30821 net.cpp:454] energy_ch_pool <- energy_ch_perm
I0604 17:58:10.168332 30821 net.cpp:411] energy_ch_pool -> energy_ch_pool
I0604 17:58:10.168357 30821 net.cpp:150] Setting up energy_ch_pool
I0604 17:58:10.168370 30821 net.cpp:157] Top shape: 1 512 1 1 (512)
I0604 17:58:10.168375 30821 net.cpp:165] Memory required for data: 1491926044
I0604 17:58:10.168377 30821 layer_factory.hpp:77] Creating layer energy_ch_reperm
I0604 17:58:10.168381 30821 net.cpp:106] Creating Layer energy_ch_reperm
I0604 17:58:10.168385 30821 net.cpp:454] energy_ch_reperm <- energy_ch_pool
I0604 17:58:10.168388 30821 net.cpp:411] energy_ch_reperm -> energy_ch_reperm
I0604 17:58:10.168450 30821 net.cpp:150] Setting up energy_ch_reperm
I0604 17:58:10.168454 30821 net.cpp:157] Top shape: 1 1 512 1 (512)
I0604 17:58:10.168457 30821 net.cpp:165] Memory required for data: 1491928092
I0604 17:58:10.168462 30821 layer_factory.hpp:77] Creating layer energy_ch_max
I0604 17:58:10.168467 30821 net.cpp:106] Creating Layer energy_ch_max
I0604 17:58:10.168470 30821 net.cpp:454] energy_ch_max <- energy_ch_reperm
I0604 17:58:10.168473 30821 net.cpp:411] energy_ch_max -> energy_ch_max
I0604 17:58:10.168490 30821 net.cpp:150] Setting up energy_ch_max
I0604 17:58:10.168494 30821 net.cpp:157] Top shape: 1 1 512 512 (262144)
I0604 17:58:10.168496 30821 net.cpp:165] Memory required for data: 1492976668
I0604 17:58:10.168499 30821 layer_factory.hpp:77] Creating layer energy_ch_minus
I0604 17:58:10.168504 30821 net.cpp:106] Creating Layer energy_ch_minus
I0604 17:58:10.168509 30821 net.cpp:454] energy_ch_minus <- energy_ch_energy_ch_0_split_1
I0604 17:58:10.168514 30821 net.cpp:411] energy_ch_minus -> energy_ch_minus
I0604 17:58:10.168532 30821 net.cpp:150] Setting up energy_ch_minus
I0604 17:58:10.168536 30821 net.cpp:157] Top shape: 1 1 512 512 (262144)
I0604 17:58:10.168539 30821 net.cpp:165] Memory required for data: 1494025244
I0604 17:58:10.168543 30821 layer_factory.hpp:77] Creating layer energy_new
I0604 17:58:10.168550 30821 net.cpp:106] Creating Layer energy_new
I0604 17:58:10.168555 30821 net.cpp:454] energy_new <- energy_ch_max
I0604 17:58:10.168557 30821 net.cpp:454] energy_new <- energy_ch_minus
I0604 17:58:10.168562 30821 net.cpp:411] energy_new -> energy_new
I0604 17:58:10.168579 30821 net.cpp:150] Setting up energy_new
I0604 17:58:10.168583 30821 net.cpp:157] Top shape: 1 1 512 512 (262144)
I0604 17:58:10.168586 30821 net.cpp:165] Memory required for data: 1495073820
I0604 17:58:10.168588 30821 layer_factory.hpp:77] Creating layer attention_ch
I0604 17:58:10.168593 30821 net.cpp:106] Creating Layer attention_ch
I0604 17:58:10.168597 30821 net.cpp:454] attention_ch <- energy_new
I0604 17:58:10.168601 30821 net.cpp:411] attention_ch -> attention_ch
I0604 17:58:10.169291 30821 net.cpp:150] Setting up attention_ch
I0604 17:58:10.169301 30821 net.cpp:157] Top shape: 1 1 512 512 (262144)
I0604 17:58:10.169306 30821 net.cpp:165] Memory required for data: 1496122396
I0604 17:58:10.169308 30821 layer_factory.hpp:77] Creating layer value_conv_reshape_ch_perm
I0604 17:58:10.169317 30821 net.cpp:106] Creating Layer value_conv_reshape_ch_perm
I0604 17:58:10.169324 30821 net.cpp:454] value_conv_reshape_ch_perm <- value_conv_reshape_ch
I0604 17:58:10.169330 30821 net.cpp:411] value_conv_reshape_ch_perm -> value_conv_reshape_ch_perm
I0604 17:58:10.169402 30821 net.cpp:150] Setting up value_conv_reshape_ch_perm
I0604 17:58:10.169407 30821 net.cpp:157] Top shape: 1 1 512 900 (460800)
I0604 17:58:10.169410 30821 net.cpp:165] Memory required for data: 1497965596
I0604 17:58:10.169435 30821 layer_factory.hpp:77] Creating layer attention_ch_perm
I0604 17:58:10.169440 30821 net.cpp:106] Creating Layer attention_ch_perm
I0604 17:58:10.169443 30821 net.cpp:454] attention_ch_perm <- attention_ch
I0604 17:58:10.169450 30821 net.cpp:411] attention_ch_perm -> attention_ch_perm
I0604 17:58:10.169518 30821 net.cpp:150] Setting up attention_ch_perm
I0604 17:58:10.169524 30821 net.cpp:157] Top shape: 1 1 512 512 (262144)
I0604 17:58:10.169528 30821 net.cpp:165] Memory required for data: 1499014172
I0604 17:58:10.169533 30821 layer_factory.hpp:77] Creating layer out_ch
I0604 17:58:10.169538 30821 net.cpp:106] Creating Layer out_ch
I0604 17:58:10.169543 30821 net.cpp:454] out_ch <- attention_ch_perm
I0604 17:58:10.169549 30821 net.cpp:454] out_ch <- value_conv_reshape_ch_perm
I0604 17:58:10.169558 30821 net.cpp:411] out_ch -> out_ch
I0604 17:58:10.169575 30821 net.cpp:150] Setting up out_ch
I0604 17:58:10.169579 30821 net.cpp:157] Top shape: 1 1 512 900 (460800)
I0604 17:58:10.169582 30821 net.cpp:165] Memory required for data: 1500857372
I0604 17:58:10.169587 30821 layer_factory.hpp:77] Creating layer out_ch_reshape
I0604 17:58:10.169592 30821 net.cpp:106] Creating Layer out_ch_reshape
I0604 17:58:10.169598 30821 net.cpp:454] out_ch_reshape <- out_ch
I0604 17:58:10.169602 30821 net.cpp:411] out_ch_reshape -> out_ch_reshape
I0604 17:58:10.169625 30821 net.cpp:150] Setting up out_ch_reshape
I0604 17:58:10.169631 30821 net.cpp:157] Top shape: 1 512 30 30 (460800)
I0604 17:58:10.169634 30821 net.cpp:165] Memory required for data: 1502700572
I0604 17:58:10.169637 30821 layer_factory.hpp:77] Creating layer out_ch_reshape_scale
I0604 17:58:10.169646 30821 net.cpp:106] Creating Layer out_ch_reshape_scale
I0604 17:58:10.169649 30821 net.cpp:454] out_ch_reshape_scale <- out_ch_reshape
I0604 17:58:10.169653 30821 net.cpp:411] out_ch_reshape_scale -> out_ch_reshape_scale
I0604 17:58:10.169715 30821 net.cpp:150] Setting up out_ch_reshape_scale
I0604 17:58:10.169720 30821 net.cpp:157] Top shape: 1 512 30 30 (460800)
I0604 17:58:10.169725 30821 net.cpp:165] Memory required for data: 1504543772
I0604 17:58:10.169728 30821 net.cpp:514] Sharing parameters 'scale_conv1_1' owned by layer 'out_reshape_scale', param index 0
I0604 17:58:10.169734 30821 layer_factory.hpp:77] Creating layer out_ch_x
I0604 17:58:10.169739 30821 net.cpp:106] Creating Layer out_ch_x
I0604 17:58:10.169744 30821 net.cpp:454] out_ch_x <- out_ch_reshape_scale
I0604 17:58:10.169747 30821 net.cpp:454] out_ch_x <- pool5_2_conv4_relu_pool5_2_conv4_relu_0_split_7
I0604 17:58:10.169752 30821 net.cpp:411] out_ch_x -> out_ch_x
I0604 17:58:10.169771 30821 net.cpp:150] Setting up out_ch_x
I0604 17:58:10.169775 30821 net.cpp:157] Top shape: 1 512 30 30 (460800)
I0604 17:58:10.169778 30821 net.cpp:165] Memory required for data: 1506386972
I0604 17:58:10.169782 30821 layer_factory.hpp:77] Creating layer out_conv_ch_x
I0604 17:58:10.169790 30821 net.cpp:106] Creating Layer out_conv_ch_x
I0604 17:58:10.169795 30821 net.cpp:454] out_conv_ch_x <- out_ch_x
I0604 17:58:10.169798 30821 net.cpp:411] out_conv_ch_x -> out_conv_ch_x
I0604 17:58:10.175709 30821 net.cpp:150] Setting up out_conv_ch_x
I0604 17:58:10.175716 30821 net.cpp:157] Top shape: 1 512 30 30 (460800)
I0604 17:58:10.175719 30821 net.cpp:165] Memory required for data: 1508230172
I0604 17:58:10.175724 30821 layer_factory.hpp:77] Creating layer out_conv_x
I0604 17:58:10.175731 30821 net.cpp:106] Creating Layer out_conv_x
I0604 17:58:10.175735 30821 net.cpp:454] out_conv_x <- out_x
I0604 17:58:10.175738 30821 net.cpp:411] out_conv_x -> out_conv_x
I0604 17:58:10.182760 30821 net.cpp:150] Setting up out_conv_x
I0604 17:58:10.182770 30821 net.cpp:157] Top shape: 1 512 30 30 (460800)
I0604 17:58:10.182772 30821 net.cpp:165] Memory required for data: 1510073372
I0604 17:58:10.182777 30821 layer_factory.hpp:77] Creating layer out_x_sum
I0604 17:58:10.182783 30821 net.cpp:106] Creating Layer out_x_sum
I0604 17:58:10.182786 30821 net.cpp:454] out_x_sum <- out_conv_x
I0604 17:58:10.182801 30821 net.cpp:454] out_x_sum <- out_conv_ch_x
I0604 17:58:10.182806 30821 net.cpp:411] out_x_sum -> out_x_sum
I0604 17:58:10.182835 30821 net.cpp:150] Setting up out_x_sum
I0604 17:58:10.182840 30821 net.cpp:157] Top shape: 1 512 30 30 (460800)
I0604 17:58:10.182842 30821 net.cpp:165] Memory required for data: 1511916572
I0604 17:58:10.182845 30821 layer_factory.hpp:77] Creating layer mask_deconv2
I0604 17:58:10.182852 30821 net.cpp:106] Creating Layer mask_deconv2
I0604 17:58:10.182853 30821 net.cpp:454] mask_deconv2 <- out_x_sum
I0604 17:58:10.182857 30821 net.cpp:411] mask_deconv2 -> mask_deconv2
I0604 17:58:10.183638 30821 net.cpp:150] Setting up mask_deconv2
I0604 17:58:10.183643 30821 net.cpp:157] Top shape: 1 256 122 122 (3810304)
I0604 17:58:10.183645 30821 net.cpp:165] Memory required for data: 1527157788
I0604 17:58:10.183650 30821 layer_factory.hpp:77] Creating layer pool5_2_conv5
I0604 17:58:10.183655 30821 net.cpp:106] Creating Layer pool5_2_conv5
I0604 17:58:10.183658 30821 net.cpp:454] pool5_2_conv5 <- mask_deconv2
I0604 17:58:10.183672 30821 net.cpp:411] pool5_2_conv5 -> pool5_2_conv5
I0604 17:58:10.210019 30821 net.cpp:150] Setting up pool5_2_conv5
I0604 17:58:10.210037 30821 net.cpp:157] Top shape: 1 512 122 122 (7620608)
I0604 17:58:10.210039 30821 net.cpp:165] Memory required for data: 1557640220
I0604 17:58:10.210065 30821 layer_factory.hpp:77] Creating layer pool5_2_conv5_relu
I0604 17:58:10.210073 30821 net.cpp:106] Creating Layer pool5_2_conv5_relu
I0604 17:58:10.210078 30821 net.cpp:454] pool5_2_conv5_relu <- pool5_2_conv5
I0604 17:58:10.210083 30821 net.cpp:411] pool5_2_conv5_relu -> pool5_2_conv5_relu
I0604 17:58:10.210224 30821 net.cpp:150] Setting up pool5_2_conv5_relu
I0604 17:58:10.210230 30821 net.cpp:157] Top shape: 1 512 122 122 (7620608)
I0604 17:58:10.210232 30821 net.cpp:165] Memory required for data: 1588122652
I0604 17:58:10.210235 30821 layer_factory.hpp:77] Creating layer pool5_2_conv6
I0604 17:58:10.210242 30821 net.cpp:106] Creating Layer pool5_2_conv6
I0604 17:58:10.210245 30821 net.cpp:454] pool5_2_conv6 <- pool5_2_conv5_relu
I0604 17:58:10.210261 30821 net.cpp:411] pool5_2_conv6 -> pool5_2_conv6
I0604 17:58:10.260488 30821 net.cpp:150] Setting up pool5_2_conv6
I0604 17:58:10.260504 30821 net.cpp:157] Top shape: 1 512 122 122 (7620608)
I0604 17:58:10.260506 30821 net.cpp:165] Memory required for data: 1618605084
I0604 17:58:10.260514 30821 layer_factory.hpp:77] Creating layer pool5_2_conv6_relu
I0604 17:58:10.260520 30821 net.cpp:106] Creating Layer pool5_2_conv6_relu
I0604 17:58:10.260535 30821 net.cpp:454] pool5_2_conv6_relu <- pool5_2_conv6
I0604 17:58:10.260541 30821 net.cpp:411] pool5_2_conv6_relu -> pool5_2_conv6_relu
I0604 17:58:10.261075 30821 net.cpp:150] Setting up pool5_2_conv6_relu
I0604 17:58:10.261083 30821 net.cpp:157] Top shape: 1 512 122 122 (7620608)
I0604 17:58:10.261085 30821 net.cpp:165] Memory required for data: 1649087516
I0604 17:58:10.261087 30821 layer_factory.hpp:77] Creating layer mask_deconv3
I0604 17:58:10.261095 30821 net.cpp:106] Creating Layer mask_deconv3
I0604 17:58:10.261097 30821 net.cpp:454] mask_deconv3 <- pool5_2_conv6_relu
I0604 17:58:10.261112 30821 net.cpp:411] mask_deconv3 -> mask_deconv3
I0604 17:58:10.261482 30821 net.cpp:150] Setting up mask_deconv3
I0604 17:58:10.261488 30821 net.cpp:157] Top shape: 1 256 244 244 (15241216)
I0604 17:58:10.261490 30821 net.cpp:165] Memory required for data: 1710052380
I0604 17:58:10.261493 30821 layer_factory.hpp:77] Creating layer mask_score
I0604 17:58:10.261502 30821 net.cpp:106] Creating Layer mask_score
I0604 17:58:10.261503 30821 net.cpp:454] mask_score <- mask_deconv3
I0604 17:58:10.261518 30821 net.cpp:411] mask_score -> mask_score
I0604 17:58:10.262547 30821 net.cpp:150] Setting up mask_score
I0604 17:58:10.262554 30821 net.cpp:157] Top shape: 1 8 244 244 (476288)
I0604 17:58:10.262567 30821 net.cpp:165] Memory required for data: 1711957532
I0604 17:58:10.262571 30821 layer_factory.hpp:77] Creating layer loss_mask
I0604 17:58:10.262588 30821 net.cpp:106] Creating Layer loss_mask
I0604 17:58:10.262590 30821 net.cpp:454] loss_mask <- mask_score
I0604 17:58:10.262595 30821 net.cpp:454] loss_mask <- mask_targets
I0604 17:58:10.262599 30821 net.cpp:411] loss_mask -> loss_mask
…
