…
average_loss: 100
iter_size: 2
I0625 15:08:24.404919 22644 solver.cpp:81] Creating training net from train_net file: models/pascal_voc/VGG16/faster_rcnn_end2end/train.prototxt
I0625 15:08:24.407145 22644 net.cpp:49] Initializing net from parameters: 
name: "VGG_ILSVRC_16_layers"
state {
  phase: TRAIN
}
layer {
  name: "input-data"
  type: "Python"
  top: "data"
  top: "im_info"
  top: "gt_boxes"
  top: "seg_mask_inds"
  top: "flipped"
  python_param {
    module: "roi_data_layer.layer"
    layer: "RoIDataLayer"
    param_str: "\'num_classes\': 2"
  }
}
layer {
  name: "conv1_1"
  type: "Convolution"
  bottom: "data"
  top: "conv1_1"
  param {
    lr_mult: 0
    decay_mult: 0
  }
  param {
    lr_mult: 0
    decay_mult: 0
  }
  convolution_param {
    num_output: 64
    pad: 1
    kernel_size: 3
  }
}
layer {
  name: "relu1_1"
  type: "ReLU"
  bottom: "conv1_1"
  top: "conv1_1"
}
layer {
  name: "conv1_2"
  type: "Convolution"
  bottom: "conv1_1"
  top: "conv1_2"
  param {
    lr_mult: 0
    decay_mult: 0
  }
  param {
    lr_mult: 0
    decay_mult: 0
  }
  convolution_param {
    num_output: 64
    pad: 1
    kernel_size: 3
  }
}
layer {
  name: "relu1_2"
  type: "ReLU"
  bottom: "conv1_2"
  top: "conv1_2"
}
layer {
  name: "pool1"
  type: "Pooling"
  bottom: "conv1_2"
  top: "pool1"
  pooling_param {
    pool: MAX
    kernel_size: 2
    stride: 2
  }
}
layer {
  name: "conv2_1"
  type: "Convolution"
  bottom: "pool1"
  top: "conv2_1"
  param {
    lr_mult: 0
    decay_mult: 0
  }
  param {
    lr_mult: 0
    decay_mult: 0
  }
  convolution_param {
    num_output: 128
    pad: 1
    kernel_size: 3
  }
}
layer {
  name: "relu2_1"
  type: "ReLU"
  bottom: "conv2_1"
  top: "conv2_1"
}
layer {
  name: "conv2_2"
  type: "Convolution"
  bottom: "conv2_1"
  top: "conv2_2"
  param {
    lr_mult: 0
    decay_mult: 0
  }
  param {
    lr_mult: 0
    decay_mult: 0
  }
  convolution_param {
    num_output: 128
    pad: 1
    kernel_size: 3
  }
}
layer {
  name: "relu2_2"
  type: "ReLU"
  bottom: "conv2_2"
  top: "conv2_2"
}
layer {
  name: "pool2"
  type: "Pooling"
  bottom: "conv2_2"
  top: "pool2"
  pooling_param {
    pool: MAX
    kernel_size: 2
    stride: 2
  }
}
layer {
  name: "conv3_1"
  type: "Convolution"
  bottom: "pool2"
  top: "conv3_1"
  param {
    lr_mult: 1
  }
  param {
    lr_mult: 2
  }
  convolution_param {
    num_output: 256
    pad: 1
    kernel_size: 3
  }
}
layer {
  name: "relu3_1"
  type: "ReLU"
  bottom: "conv3_1"
  top: "conv3_1"
}
layer {
  name: "conv3_2"
  type: "Convolution"
  bottom: "conv3_1"
  top: "conv3_2"
  param {
    lr_mult: 1
  }
  param {
    lr_mult: 2
  }
  convolution_param {
    num_output: 256
    pad: 1
    kernel_size: 3
  }
}
layer {
  name: "relu3_2"
  type: "ReLU"
  bottom: "conv3_2"
  top: "conv3_2"
}
layer {
  name: "conv3_3"
  type: "Convolution"
  bottom: "conv3_2"
  top: "conv3_3"
  param {
    lr_mult: 1
  }
  param {
    lr_mult: 2
  }
  convolution_param {
    num_output: 256
    pad: 1
    kernel_size: 3
  }
}
layer {
  name: "relu3_3"
  type: "ReLU"
  bottom: "conv3_3"
  top: "conv3_3"
}
layer {
  name: "pool3"
  type: "Pooling"
  bottom: "conv3_3"
  top: "pool3"
  pooling_param {
    pool: MAX
    kernel_size: 2
    stride: 2
  }
}
layer {
  name: "conv4_1"
  type: "Convolution"
  bottom: "pool3"
  top: "conv4_1"
  param {
    lr_mult: 1
  }
  param {
    lr_mult: 2
  }
  convolution_param {
    num_output: 512
    pad: 1
    kernel_size: 3
  }
}
layer {
  name: "relu4_1"
  type: "ReLU"
  bottom: "conv4_1"
  top: "conv4_1"
}
layer {
  name: "conv4_2"
  type: "Convolution"
  bottom: "conv4_1"
  top: "conv4_2"
  param {
    lr_mult: 1
  }
  param {
    lr_mult: 2
  }
  convolution_param {
    num_output: 512
    pad: 1
    kernel_size: 3
  }
}
layer {
  name: "relu4_2"
  type: "ReLU"
  bottom: "conv4_2"
  top: "conv4_2"
}
layer {
  name: "conv4_3"
  type: "Convolution"
  bottom: "conv4_2"
  top: "conv4_3"
  param {
    lr_mult: 1
  }
  param {
    lr_mult: 2
  }
  convolution_param {
    num_output: 512
    pad: 1
    kernel_size: 3
  }
}
layer {
  name: "relu4_3"
  type: "ReLU"
  bottom: "conv4_3"
  top: "conv4_3"
}
layer {
  name: "pool4"
  type: "Pooling"
  bottom: "conv4_3"
  top: "pool4"
  pooling_param {
    pool: MAX
    kernel_size: 2
    stride: 2
  }
}
layer {
  name: "conv5_1"
  type: "Convolution"
  bottom: "pool4"
  top: "conv5_1"
  param {
    lr_mult: 1
  }
  param {
    lr_mult: 2
  }
  convolution_param {
    num_output: 512
    pad: 1
    kernel_size: 3
  }
}
layer {
  name: "relu5_1"
  type: "ReLU"
  bottom: "conv5_1"
  top: "conv5_1"
}
layer {
  name: "conv5_2"
  type: "Convolution"
  bottom: "conv5_1"
  top: "conv5_2"
  param {
    lr_mult: 1
  }
  param {
    lr_mult: 2
  }
  convolution_param {
    num_output: 512
    pad: 1
    kernel_size: 3
  }
}
layer {
  name: "relu5_2"
  type: "ReLU"
  bottom: "conv5_2"
  top: "conv5_2"
}
layer {
  name: "conv5_3"
  type: "Convolution"
  bottom: "conv5_2"
  top: "conv5_3"
  param {
    lr_mult: 1
  }
  param {
    lr_mult: 2
  }
  convolution_param {
    num_output: 512
    pad: 1
    kernel_size: 3
  }
}
layer {
  name: "relu5_3"
  type: "ReLU"
  bottom: "conv5_3"
  top: "conv5_3"
}
layer {
  name: "rpn_conv/3x3"
  type: "Convolution"
  bottom: "conv5_3"
  top: "rpn/output"
  param {
    lr_mult: 1
  }
  param {
    lr_mult: 2
  }
  convolution_param {
    num_output: 512
    pad: 1
    kernel_size: 3
    stride: 1
    weight_filler {
      type: "gaussian"
      std: 0.01
    }
    bias_filler {
      type: "constant"
      value: 0
    }
  }
}
layer {
  name: "rpn_relu/3x3"
  type: "ReLU"
  bottom: "rpn/output"
  top: "rpn/output"
}
layer {
  name: "rpn_cls_score"
  type: "Convolution"
  bottom: "rpn/output"
  top: "rpn_cls_score"
  param {
    lr_mult: 1
  }
  param {
    lr_mult: 2
  }
  convolution_param {
    num_output: 30
    pad: 0
    kernel_size: 1
    stride: 1
    weight_filler {
      type: "gaussian"
      std: 0.01
    }
    bias_filler {
      type: "constant"
      value: 0
    }
  }
}
layer {
  name: "rpn_bbox_pred"
  type: "Convolution"
  bottom: "rpn/output"
  top: "rpn_bbox_pred"
  param {
    lr_mult: 1
  }
  param {
    lr_mult: 2
  }
  convolution_param {
    num_output: 60
    pad: 0
    kernel_size: 1
    stride: 1
    weight_filler {
      type: "gaussian"
      std: 0.01
    }
    bias_filler {
      type: "constant"
      value: 0
    }
  }
}
layer {
  name: "rpn_cls_score_reshape"
  type: "Reshape"
  bottom: "rpn_cls_score"
  top: "rpn_cls_score_reshape"
  reshape_param {
    shape {
      dim: 0
      dim: 2
      dim: -1
      dim: 0
    }
  }
}
layer {
  name: "rpn-data"
  type: "Python"
  bottom: "rpn_cls_score"
  bottom: "gt_boxes"
  bottom: "im_info"
  bottom: "data"
  top: "rpn_labels"
  top: "rpn_bbox_targets"
  top: "rpn_bbox_inside_weights"
  top: "rpn_bbox_outside_weights"
  python_param {
    module: "rpn.anchor_target_layer"
    layer: "AnchorTargetLayer"
    param_str: "\'feat_stride\': 16 \n\'scales\': !!python/tuple [2, 4, 8, 16, 32]"
  }
}
layer {
  name: "rpn_loss_cls"
  type: "SoftmaxWithLoss"
  bottom: "rpn_cls_score_reshape"
  bottom: "rpn_labels"
  top: "rpn_cls_loss"
  loss_weight: 1
  propagate_down: true
  propagate_down: false
  loss_param {
    ignore_label: -1
    normalize: true
  }
}
layer {
  name: "rpn_loss_bbox"
  type: "SmoothL1Loss"
  bottom: "rpn_bbox_pred"
  bottom: "rpn_bbox_targets"
  bottom: "rpn_bbox_inside_weights"
  bottom: "rpn_bbox_outside_weights"
  top: "rpn_loss_bbox"
  loss_weight: 1
  smooth_l1_loss_param {
    sigma: 3
  }
}
layer {
  name: "rpn_cls_prob"
  type: "Softmax"
  bottom: "rpn_cls_score_reshape"
  top: "rpn_cls_prob"
}
layer {
  name: "rpn_cls_prob_reshape"
  type: "Reshape"
  bottom: "rpn_cls_prob"
  top: "rpn_cls_prob_reshape"
  reshape_param {
    shape {
      dim: 0
      dim: 30
      dim: -1
      dim: 0
    }
  }
}
layer {
  name: "proposal"
  type: "Python"
  bottom: "rpn_cls_prob_reshape"
  bottom: "rpn_bbox_pred"
  bottom: "im_info"
  top: "rpn_rois"
  python_param {
    module: "rpn.proposal_layer"
    layer: "ProposalLayer"
    param_str: "\'feat_stride\': 16 \n\'scales\': !!python/tuple [2, 4, 8, 16, 32]"
  }
}
layer {
  name: "roi-data"
  type: "Python"
  bottom: "rpn_rois"
  bottom: "gt_boxes"
  bottom: "im_info"
  bottom: "seg_mask_inds"
  bottom: "flipped"
  top: "rois"
  top: "labels"
  top: "bbox_targets"
  top: "bbox_inside_weights"
  top: "bbox_outside_weights"
  top: "mask_targets"
  top: "rois_pos"
  top: "attrArray"
  top: "attrArrayInd"
  top: "attrArrayShift"
  python_param {
    module: "rpn.proposal_target_layer"
    layer: "ProposalTargetLayer"
    param_str: "\'num_classes\': 2"
  }
}
layer {
  name: "roi_pool5"
  type: "ROIAlignment"
  bottom: "conv5_3"
  bottom: "rois"
  top: "pool5"
  roi_alignment_param {
    pooled_h: 7
    pooled_w: 7
    spatial_scale: 0.0625
  }
}
layer {
  name: "fc6"
  type: "InnerProduct"
  bottom: "pool5"
  top: "fc6"
  param {
    lr_mult: 1
  }
  param {
    lr_mult: 2
  }
  inner_product_param {
    num_output: 4096
  }
}
layer {
  name: "relu6"
  type: "ReLU"
  bottom: "fc6"
  top: "fc6"
}
layer {
  name: "fc7"
  type: "InnerProduct"
  bottom: "fc6"
  top: "fc7"
  param {
    lr_mult: 1
  }
  param {
    lr_mult: 2
  }
  inner_product_param {
    num_output: 4096
  }
}
layer {
  name: "relu7"
  type: "ReLU"
  bottom: "fc7"
  top: "fc7"
}
layer {
  name: "attr_score"
  type: "InnerProduct"
  bottom: "fc7"
  top: "attr_score"
  param {
    lr_mult: 1
  }
  param {
    lr_mult: 2
  }
  inner_product_param {
    num_output: 7
    weight_filler {
      type: "gaussian"
      std: 0.001
    }
    bias_filler {
      type: "constant"
      value: 0
    }
  }
}
layer {
  name: "attr_score_pos"
  type: "Eltwise"
  bottom: "attr_score"
  bottom: "attrArrayInd"
  top: "attr_score_pos"
  eltwise_param {
    operation: PROD
  }
}
layer {
  name: "attr_score_pos_shift"
  type: "Eltwise"
  bottom: "attr_score_pos"
  bottom: "attrArrayShift"
  top: "attr_score_pos_shift"
  eltwise_param {
    operation: SUM
  }
}
layer {
  name: "cls_score"
  type: "InnerProduct"
  bottom: "fc7"
  top: "cls_score"
  param {
    lr_mult: 1
  }
  param {
    lr_mult: 2
  }
  inner_product_param {
    num_output: 2
    weight_filler {
      type: "gaussian"
      std: 0.01
    }
    bias_filler {
      type: "constant"
      value: 0
    }
  }
}
layer {
  name: "bbox_pred"
  type: "InnerProduct"
  bottom: "fc7"
  top: "bbox_pred"
  param {
    lr_mult: 1
  }
  param {
    lr_mult: 2
  }
  inner_product_param {
    num_output: 8
    weight_filler {
      type: "gaussian"
      std: 0.001
    }
    bias_filler {
      type: "constant"
      value: 0
    }
  }
}
layer {
  name: "loss_attribute"
  type: "SigmoidCrossEntropyLoss"
  bottom: "attr_score_pos_shift"
  bottom: "attrArray"
  top: "loss_attribute"
  loss_weight: 1
  propagate_down: true
  propagate_down: false
}
layer {
  name: "loss_cls"
  type: "SoftmaxWithLoss"
  bottom: "cls_score"
  bottom: "labels"
  top: "loss_cls"
  loss_weight: 3
  propagate_down: true
  propagate_down: false
}
layer {
  name: "loss_bbox"
  type: "SmoothL1Loss"
  bottom: "bbox_pred"
  bottom: "bbox_targets"
  bottom: "bbox_inside_weights"
  bottom: "bbox_outside_weights"
  top: "loss_bbox"
  loss_weight: 2
}
layer {
  name: "roi_pool5_2"
  type: "ROIAlignment"
  bottom: "conv5_3"
  bottom: "rois_pos"
  top: "pool5_2"
  roi_alignment_param {
    pooled_h: 7
    pooled_w: 7
    spatial_scale: 0.0625
  }
}
layer {
  name: "pool5_2_conv"
  type: "Convolution"
  bottom: "pool5_2"
  top: "pool5_2_conv"
  param {
    lr_mult: 1
    decay_mult: 1
  }
  param {
    lr_mult: 2
    decay_mult: 0
  }
  convolution_param {
    num_output: 512
    pad: 0
    kernel_size: 1
    weight_filler {
      type: "gaussian"
      std: 0.01
    }
    bias_filler {
      type: "constant"
      value: 0
    }
  }
}
layer {
  name: "pool5_2_conv_relu"
  type: "ReLU"
  bottom: "pool5_2_conv"
  top: "pool5_2_conv_relu"
}
layer {
  name: "pool5_2_conv2"
  type: "Convolution"
  bottom: "pool5_2_conv_relu"
  top: "pool5_2_conv2"
  param {
    lr_mult: 1
    decay_mult: 1
  }
  param {
    lr_mult: 2
    decay_mult: 0
  }
  convolution_param {
    num_output: 512
    pad: 1
    kernel_size: 3
    stride: 1
    weight_filler {
      type: "gaussian"
      std: 0.01
    }
    bias_filler {
      type: "constant"
      value: 0
    }
  }
}
layer {
  name: "pool5_2_conv2_relu"
  type: "ReLU"
  bottom: "pool5_2_conv2"
  top: "pool5_2_conv2_relu"
}
layer {
  name: "mask_deconv1"
  type: "Deconvolution"
  bottom: "pool5_2_conv2_relu"
  top: "mask_deconv1"
  param {
    lr_mult: 1
    decay_mult: 1
  }
  param {
    lr_mult: 2
    decay_mult: 0
  }
  convolution_param {
    num_output: 256
    pad: 1
    kernel_size: 8
    group: 256
    stride: 4
    weight_filler {
      type: "bilinear"
    }
  }
}
layer {
  name: "pool5_2_conv3"
  type: "Convolution"
  bottom: "mask_deconv1"
  top: "pool5_2_conv3"
  param {
    lr_mult: 1
    decay_mult: 1
  }
  param {
    lr_mult: 2
    decay_mult: 0
  }
  convolution_param {
    num_output: 512
    pad: 1
    kernel_size: 3
    stride: 1
    weight_filler {
      type: "gaussian"
      std: 0.01
    }
    bias_filler {
      type: "constant"
      value: 0
    }
  }
}
layer {
  name: "pool5_2_conv3_relu"
  type: "ReLU"
  bottom: "pool5_2_conv3"
  top: "pool5_2_conv3_relu"
}
layer {
  name: "pool5_2_conv4"
  type: "Convolution"
  bottom: "pool5_2_conv3_relu"
  top: "pool5_2_conv4"
  param {
    lr_mult: 1
    decay_mult: 1
  }
  param {
    lr_mult: 2
    decay_mult: 0
  }
  convolution_param {
    num_output: 512
    pad: 1
    kernel_size: 3
    stride: 1
    weight_filler {
      type: "gaussian"
      std: 0.01
    }
    bias_filler {
      type: "constant"
      value: 0
    }
  }
}
layer {
  name: "pool5_2_conv4_relu"
  type: "ReLU"
  bottom: "pool5_2_conv4"
  top: "pool5_2_conv4_relu"
}
layer {
  name: "query_conv"
  type: "Convolution"
  bottom: "pool5_2_conv4_relu"
  top: "query_conv"
  param {
    lr_mult: 1
    decay_mult: 1
  }
  param {
    lr_mult: 2
    decay_mult: 0
  }
  convolution_param {
    num_output: 64
    pad: 0
    kernel_size: 1
    stride: 1
    weight_filler {
      type: "gaussian"
      std: 0.01
    }
    bias_filler {
      type: "constant"
      value: 0
    }
  }
}
layer {
  name: "key_conv"
  type: "Convolution"
  bottom: "pool5_2_conv4_relu"
  top: "key_conv"
  param {
    lr_mult: 1
    decay_mult: 1
  }
  param {
    lr_mult: 2
    decay_mult: 0
  }
  convolution_param {
    num_output: 64
    pad: 0
    kernel_size: 1
    stride: 1
    weight_filler {
      type: "gaussian"
      std: 0.01
    }
    bias_filler {
      type: "constant"
      value: 0
    }
  }
}
layer {
  name: "value_conv"
  type: "Convolution"
  bottom: "pool5_2_conv4_relu"
  top: "value_conv"
  param {
    lr_mult: 1
    decay_mult: 1
  }
  param {
    lr_mult: 2
    decay_mult: 0
  }
  convolution_param {
    num_output: 512
    pad: 0
    kernel_size: 1
    stride: 1
    weight_filler {
      type: "gaussian"
      std: 0.01
    }
    bias_filler {
      type: "constant"
      value: 0
    }
  }
}
layer {
  name: "query_conv_reshape"
  type: "Reshape"
  bottom: "query_conv"
  top: "query_conv_reshape"
  reshape_param {
    shape {
      dim: -1
      dim: 64
      dim: 900
      dim: 1
    }
  }
}
layer {
  name: "key_conv_reshape"
  type: "Reshape"
  bottom: "key_conv"
  top: "key_conv_reshape"
  reshape_param {
    shape {
      dim: -1
      dim: 64
      dim: 900
      dim: 1
    }
  }
}
layer {
  name: "value_conv_reshape"
  type: "Reshape"
  bottom: "value_conv"
  top: "value_conv_reshape"
  reshape_param {
    shape {
      dim: -1
      dim: 512
      dim: 900
      dim: 1
    }
  }
}
layer {
  name: "query_conv_reshape_perm"
  type: "Permute"
  bottom: "query_conv_reshape"
  top: "query_conv_reshape_perm"
  permute_param {
    order: 0
    order: 3
    order: 2
    order: 1
  }
}
layer {
  name: "key_conv_reshape_perm"
  type: "Permute"
  bottom: "key_conv_reshape"
  top: "key_conv_reshape_perm"
  permute_param {
    order: 0
    order: 3
    order: 1
    order: 2
  }
}
layer {
  name: "energy"
  type: "MatrixMultiplication"
  bottom: "query_conv_reshape_perm"
  bottom: "key_conv_reshape_perm"
  top: "energy"
}
layer {
  name: "attention"
  type: "Softmax"
  bottom: "energy"
  top: "attention"
  softmax_param {
    axis: 3
  }
}
layer {
  name: "value_conv_reshape_perm"
  type: "Permute"
  bottom: "value_conv_reshape"
  top: "value_conv_reshape_perm"
  permute_param {
    order: 0
    order: 3
    order: 1
    order: 2
  }
}
layer {
  name: "attention_perm"
  type: "Permute"
  bottom: "attention"
  top: "attention_perm"
  permute_param {
    order: 0
    order: 1
    order: 2
    order: 3
  }
}
layer {
  name: "out"
  type: "MatrixMultiplication"
  bottom: "value_conv_reshape_perm"
  bottom: "attention_perm"
  top: "out"
}
layer {
  name: "out_reshape"
  type: "Reshape"
  bottom: "out"
  top: "out_reshape"
  reshape_param {
    shape {
      dim: -1
      dim: 512
      dim: 30
      dim: 30
    }
  }
}
layer {
  name: "out_reshape_scale"
  type: "Scale"
  bottom: "out_reshape"
  top: "out_reshape_scale"
  param {
    name: "scale_conv1_1"
    lr_mult: 1
  }
  scale_param {
    bias_term: false
  }
}
layer {
  name: "out_x"
  type: "Eltwise"
  bottom: "out_reshape_scale"
  bottom: "pool5_2_conv4_relu"
  top: "out_x"
  eltwise_param {
    operation: SUM
  }
}
layer {
  name: "mask_deconv2"
  type: "Deconvolution"
  bottom: "out_x"
  top: "mask_deconv2"
  param {
    lr_mult: 1
    decay_mult: 1
  }
  param {
    lr_mult: 2
    decay_mult: 0
  }
  convolution_param {
    num_output: 256
    pad: 1
    kernel_size: 8
    group: 256
    stride: 4
    weight_filler {
      type: "bilinear"
    }
  }
}
layer {
  name: "pool5_2_conv5"
  type: "Convolution"
  bottom: "mask_deconv2"
  top: "pool5_2_conv5"
  param {
    lr_mult: 1
    decay_mult: 1
  }
  param {
    lr_mult: 2
    decay_mult: 0
  }
  convolution_param {
    num_output: 512
    pad: 1
    kernel_size: 3
    stride: 1
    weight_filler {
      type: "gaussian"
      std: 0.01
    }
    bias_filler {
      type: "constant"
      value: 0
    }
  }
}
layer {
  name: "pool5_2_conv5_relu"
  type: "ReLU"
  bottom: "pool5_2_conv5"
  top: "pool5_2_conv5_relu"
}
layer {
  name: "pool5_2_conv6"
  type: "Convolution"
  bottom: "pool5_2_conv5_relu"
  top: "pool5_2_conv6"
  param {
    lr_mult: 1
    decay_mult: 1
  }
  param {
    lr_mult: 2
    decay_mult: 0
  }
  convolution_param {
    num_output: 512
    pad: 1
    kernel_size: 3
    stride: 1
    weight_filler {
      type: "gaussian"
      std: 0.01
    }
    bias_filler {
      type: "constant"
      value: 0
    }
  }
}
layer {
  name: "pool5_2_conv6_relu"
  type: "ReLU"
  bottom: "pool5_2_conv6"
  top: "pool5_2_conv6_relu"
}
layer {
  name: "mask_deconv3"
  type: "Deconvolution"
  bottom: "pool5_2_conv6_relu"
  top: "mask_deconv3"
  param {
    lr_mult: 1
    decay_mult: 1
  }
  param {
    lr_mult: 2
    decay_mult: 0
  }
  convolution_param {
    num_output: 256
    pad: 1
    kernel_size: 4
    group: 256
    stride: 2
    weight_filler {
      type: "bilinear"
    }
  }
}
layer {
  name: "mask_score"
  type: "Convolution"
  bottom: "mask_deconv3"
  top: "mask_score"
  param {
    lr_mult: 1
    decay_mult: 1
  }
  param {
    lr_mult: 2
    decay_mult: 0
  }
  convolution_param {
    num_output: 8
    pad: 0
    kernel_size: 1
    weight_filler {
      type: "gaussian"
      std: 0.01
    }
    bias_filler {
      type: "constant"
      value: 0
    }
  }
}
layer {
  name: "prob"
  type: "Softmax"
  bottom: "mask_score"
  top: "mask_score_softmax"
  softmax_param {
    axis: 1
  }
}
layer {
  name: "log"
  type: "Log"
  bottom: "mask_score_softmax"
  top: "log"
}
layer {
  name: "mult1"
  type: "Eltwise"
  bottom: "log"
  bottom: "mask_targets"
  top: "mult1"
  eltwise_param {
    operation: PROD
  }
}
layer {
  name: "cross_entropy"
  type: "Power"
  bottom: "mult1"
  top: "cross_entropy"
  power_param {
    power: 1
    scale: -1
    shift: 0
  }
}
layer {
  name: "ce_sum"
  type: "Convolution"
  bottom: "cross_entropy"
  top: "cross_entropy_sum"
  param {
    lr_mult: 0
    decay_mult: 0
  }
  convolution_param {
    num_output: 1
    bias_term: false
    kernel_size: 1
    weight_filler {
      type: "constant"
      value: 1
    }
  }
}
layer {
  name: "ce_mean"
  type: "Reduction"
  bottom: "cross_entropy_sum"
  top: "cross_entropy_mean"
  loss_weight: 1
  reduction_param {
    operation: MEAN
    axis: 0
  }
}
I0625 15:08:24.407444 22644 layer_factory.hpp:77] Creating layer input-data
I0625 15:08:24.535337 22644 net.cpp:106] Creating Layer input-data
I0625 15:08:24.535356 22644 net.cpp:411] input-data -> data
I0625 15:08:24.535377 22644 net.cpp:411] input-data -> im_info
I0625 15:08:24.535382 22644 net.cpp:411] input-data -> gt_boxes
I0625 15:08:24.535387 22644 net.cpp:411] input-data -> seg_mask_inds
I0625 15:08:24.535390 22644 net.cpp:411] input-data -> flipped
RoiDataLayer: name_to_top: {'gt_boxes': 2, 'data': 0, 'seg_mask_inds': 3, 'im_info': 1, 'flipped': 4}
I0625 15:08:24.629483 22644 net.cpp:150] Setting up input-data
I0625 15:08:24.629518 22644 net.cpp:157] Top shape: 1 3 600 1000 (1800000)
I0625 15:08:24.629521 22644 net.cpp:157] Top shape: 1 3 (3)
I0625 15:08:24.629523 22644 net.cpp:157] Top shape: 1 4 (4)
I0625 15:08:24.629525 22644 net.cpp:157] Top shape: 1 2 (2)
I0625 15:08:24.629537 22644 net.cpp:157] Top shape: 1 1 (1)
I0625 15:08:24.629539 22644 net.cpp:165] Memory required for data: 7200040
I0625 15:08:24.629544 22644 layer_factory.hpp:77] Creating layer data_input-data_0_split
I0625 15:08:24.630213 22644 net.cpp:106] Creating Layer data_input-data_0_split
I0625 15:08:24.630218 22644 net.cpp:454] data_input-data_0_split <- data
I0625 15:08:24.630223 22644 net.cpp:411] data_input-data_0_split -> data_input-data_0_split_0
I0625 15:08:24.630228 22644 net.cpp:411] data_input-data_0_split -> data_input-data_0_split_1
I0625 15:08:24.630285 22644 net.cpp:150] Setting up data_input-data_0_split
I0625 15:08:24.630290 22644 net.cpp:157] Top shape: 1 3 600 1000 (1800000)
I0625 15:08:24.630293 22644 net.cpp:157] Top shape: 1 3 600 1000 (1800000)
I0625 15:08:24.630295 22644 net.cpp:165] Memory required for data: 21600040
I0625 15:08:24.630297 22644 layer_factory.hpp:77] Creating layer im_info_input-data_1_split
I0625 15:08:24.630301 22644 net.cpp:106] Creating Layer im_info_input-data_1_split
I0625 15:08:24.630303 22644 net.cpp:454] im_info_input-data_1_split <- im_info
I0625 15:08:24.630306 22644 net.cpp:411] im_info_input-data_1_split -> im_info_input-data_1_split_0
I0625 15:08:24.630309 22644 net.cpp:411] im_info_input-data_1_split -> im_info_input-data_1_split_1
I0625 15:08:24.630313 22644 net.cpp:411] im_info_input-data_1_split -> im_info_input-data_1_split_2
I0625 15:08:24.630336 22644 net.cpp:150] Setting up im_info_input-data_1_split
I0625 15:08:24.630339 22644 net.cpp:157] Top shape: 1 3 (3)
I0625 15:08:24.630342 22644 net.cpp:157] Top shape: 1 3 (3)
I0625 15:08:24.630344 22644 net.cpp:157] Top shape: 1 3 (3)
I0625 15:08:24.630345 22644 net.cpp:165] Memory required for data: 21600076
I0625 15:08:24.630347 22644 layer_factory.hpp:77] Creating layer gt_boxes_input-data_2_split
I0625 15:08:24.630350 22644 net.cpp:106] Creating Layer gt_boxes_input-data_2_split
I0625 15:08:24.630352 22644 net.cpp:454] gt_boxes_input-data_2_split <- gt_boxes
I0625 15:08:24.630355 22644 net.cpp:411] gt_boxes_input-data_2_split -> gt_boxes_input-data_2_split_0
I0625 15:08:24.630358 22644 net.cpp:411] gt_boxes_input-data_2_split -> gt_boxes_input-data_2_split_1
I0625 15:08:24.630373 22644 net.cpp:150] Setting up gt_boxes_input-data_2_split
I0625 15:08:24.630376 22644 net.cpp:157] Top shape: 1 4 (4)
I0625 15:08:24.630378 22644 net.cpp:157] Top shape: 1 4 (4)
I0625 15:08:24.630379 22644 net.cpp:165] Memory required for data: 21600108
I0625 15:08:24.630381 22644 layer_factory.hpp:77] Creating layer conv1_1
I0625 15:08:24.630390 22644 net.cpp:106] Creating Layer conv1_1
I0625 15:08:24.630393 22644 net.cpp:454] conv1_1 <- data_input-data_0_split_0
I0625 15:08:24.630396 22644 net.cpp:411] conv1_1 -> conv1_1
I0625 15:08:25.183809 22644 net.cpp:150] Setting up conv1_1
I0625 15:08:25.183826 22644 net.cpp:157] Top shape: 1 64 600 1000 (38400000)
I0625 15:08:25.183828 22644 net.cpp:165] Memory required for data: 175200108
I0625 15:08:25.183841 22644 layer_factory.hpp:77] Creating layer relu1_1
I0625 15:08:25.183851 22644 net.cpp:106] Creating Layer relu1_1
I0625 15:08:25.183853 22644 net.cpp:454] relu1_1 <- conv1_1
I0625 15:08:25.183857 22644 net.cpp:397] relu1_1 -> conv1_1 (in-place)
I0625 15:08:25.183982 22644 net.cpp:150] Setting up relu1_1
I0625 15:08:25.183990 22644 net.cpp:157] Top shape: 1 64 600 1000 (38400000)
I0625 15:08:25.183991 22644 net.cpp:165] Memory required for data: 328800108
I0625 15:08:25.183995 22644 layer_factory.hpp:77] Creating layer conv1_2
I0625 15:08:25.184000 22644 net.cpp:106] Creating Layer conv1_2
I0625 15:08:25.184002 22644 net.cpp:454] conv1_2 <- conv1_1
I0625 15:08:25.184006 22644 net.cpp:411] conv1_2 -> conv1_2
I0625 15:08:25.187237 22644 net.cpp:150] Setting up conv1_2
I0625 15:08:25.187253 22644 net.cpp:157] Top shape: 1 64 600 1000 (38400000)
I0625 15:08:25.187256 22644 net.cpp:165] Memory required for data: 482400108
I0625 15:08:25.187265 22644 layer_factory.hpp:77] Creating layer relu1_2
I0625 15:08:25.187271 22644 net.cpp:106] Creating Layer relu1_2
I0625 15:08:25.187274 22644 net.cpp:454] relu1_2 <- conv1_2
I0625 15:08:25.187278 22644 net.cpp:397] relu1_2 -> conv1_2 (in-place)
I0625 15:08:25.187392 22644 net.cpp:150] Setting up relu1_2
I0625 15:08:25.187398 22644 net.cpp:157] Top shape: 1 64 600 1000 (38400000)
I0625 15:08:25.187399 22644 net.cpp:165] Memory required for data: 636000108
I0625 15:08:25.187402 22644 layer_factory.hpp:77] Creating layer pool1
I0625 15:08:25.187408 22644 net.cpp:106] Creating Layer pool1
I0625 15:08:25.187410 22644 net.cpp:454] pool1 <- conv1_2
I0625 15:08:25.187413 22644 net.cpp:411] pool1 -> pool1
I0625 15:08:25.188134 22644 net.cpp:150] Setting up pool1
I0625 15:08:25.188140 22644 net.cpp:157] Top shape: 1 64 300 500 (9600000)
I0625 15:08:25.188141 22644 net.cpp:165] Memory required for data: 674400108
I0625 15:08:25.188143 22644 layer_factory.hpp:77] Creating layer conv2_1
I0625 15:08:25.188150 22644 net.cpp:106] Creating Layer conv2_1
I0625 15:08:25.188153 22644 net.cpp:454] conv2_1 <- pool1
I0625 15:08:25.188155 22644 net.cpp:411] conv2_1 -> conv2_1
I0625 15:08:25.189971 22644 net.cpp:150] Setting up conv2_1
I0625 15:08:25.189980 22644 net.cpp:157] Top shape: 1 128 300 500 (19200000)
I0625 15:08:25.189982 22644 net.cpp:165] Memory required for data: 751200108
I0625 15:08:25.189988 22644 layer_factory.hpp:77] Creating layer relu2_1
I0625 15:08:25.189993 22644 net.cpp:106] Creating Layer relu2_1
I0625 15:08:25.189996 22644 net.cpp:454] relu2_1 <- conv2_1
I0625 15:08:25.189999 22644 net.cpp:397] relu2_1 -> conv2_1 (in-place)
I0625 15:08:25.190469 22644 net.cpp:150] Setting up relu2_1
I0625 15:08:25.190479 22644 net.cpp:157] Top shape: 1 128 300 500 (19200000)
I0625 15:08:25.190484 22644 net.cpp:165] Memory required for data: 828000108
I0625 15:08:25.190485 22644 layer_factory.hpp:77] Creating layer conv2_2
I0625 15:08:25.190491 22644 net.cpp:106] Creating Layer conv2_2
I0625 15:08:25.190495 22644 net.cpp:454] conv2_2 <- conv2_1
I0625 15:08:25.190498 22644 net.cpp:411] conv2_2 -> conv2_2
I0625 15:08:25.192112 22644 net.cpp:150] Setting up conv2_2
I0625 15:08:25.192121 22644 net.cpp:157] Top shape: 1 128 300 500 (19200000)
I0625 15:08:25.192123 22644 net.cpp:165] Memory required for data: 904800108
I0625 15:08:25.192127 22644 layer_factory.hpp:77] Creating layer relu2_2
I0625 15:08:25.192133 22644 net.cpp:106] Creating Layer relu2_2
I0625 15:08:25.192135 22644 net.cpp:454] relu2_2 <- conv2_2
I0625 15:08:25.192139 22644 net.cpp:397] relu2_2 -> conv2_2 (in-place)
I0625 15:08:25.192256 22644 net.cpp:150] Setting up relu2_2
I0625 15:08:25.192262 22644 net.cpp:157] Top shape: 1 128 300 500 (19200000)
I0625 15:08:25.192265 22644 net.cpp:165] Memory required for data: 981600108
I0625 15:08:25.192266 22644 layer_factory.hpp:77] Creating layer pool2
I0625 15:08:25.192273 22644 net.cpp:106] Creating Layer pool2
I0625 15:08:25.192276 22644 net.cpp:454] pool2 <- conv2_2
I0625 15:08:25.192279 22644 net.cpp:411] pool2 -> pool2
I0625 15:08:25.192306 22644 net.cpp:150] Setting up pool2
I0625 15:08:25.192311 22644 net.cpp:157] Top shape: 1 128 150 250 (4800000)
I0625 15:08:25.192312 22644 net.cpp:165] Memory required for data: 1000800108
I0625 15:08:25.192313 22644 layer_factory.hpp:77] Creating layer conv3_1
I0625 15:08:25.192319 22644 net.cpp:106] Creating Layer conv3_1
I0625 15:08:25.192322 22644 net.cpp:454] conv3_1 <- pool2
I0625 15:08:25.192324 22644 net.cpp:411] conv3_1 -> conv3_1
I0625 15:08:25.194680 22644 net.cpp:150] Setting up conv3_1
I0625 15:08:25.194689 22644 net.cpp:157] Top shape: 1 256 150 250 (9600000)
I0625 15:08:25.194691 22644 net.cpp:165] Memory required for data: 1039200108
I0625 15:08:25.194698 22644 layer_factory.hpp:77] Creating layer relu3_1
I0625 15:08:25.194702 22644 net.cpp:106] Creating Layer relu3_1
I0625 15:08:25.194706 22644 net.cpp:454] relu3_1 <- conv3_1
I0625 15:08:25.194710 22644 net.cpp:397] relu3_1 -> conv3_1 (in-place)
I0625 15:08:25.194823 22644 net.cpp:150] Setting up relu3_1
I0625 15:08:25.194828 22644 net.cpp:157] Top shape: 1 256 150 250 (9600000)
I0625 15:08:25.194830 22644 net.cpp:165] Memory required for data: 1077600108
I0625 15:08:25.194833 22644 layer_factory.hpp:77] Creating layer conv3_2
I0625 15:08:25.194839 22644 net.cpp:106] Creating Layer conv3_2
I0625 15:08:25.194841 22644 net.cpp:454] conv3_2 <- conv3_1
I0625 15:08:25.194845 22644 net.cpp:411] conv3_2 -> conv3_2
I0625 15:08:25.196964 22644 net.cpp:150] Setting up conv3_2
I0625 15:08:25.196975 22644 net.cpp:157] Top shape: 1 256 150 250 (9600000)
I0625 15:08:25.196977 22644 net.cpp:165] Memory required for data: 1116000108
I0625 15:08:25.196983 22644 layer_factory.hpp:77] Creating layer relu3_2
I0625 15:08:25.196988 22644 net.cpp:106] Creating Layer relu3_2
I0625 15:08:25.196991 22644 net.cpp:454] relu3_2 <- conv3_2
I0625 15:08:25.196995 22644 net.cpp:397] relu3_2 -> conv3_2 (in-place)
I0625 15:08:25.197110 22644 net.cpp:150] Setting up relu3_2
I0625 15:08:25.197118 22644 net.cpp:157] Top shape: 1 256 150 250 (9600000)
I0625 15:08:25.197118 22644 net.cpp:165] Memory required for data: 1154400108
I0625 15:08:25.197120 22644 layer_factory.hpp:77] Creating layer conv3_3
I0625 15:08:25.197125 22644 net.cpp:106] Creating Layer conv3_3
I0625 15:08:25.197127 22644 net.cpp:454] conv3_3 <- conv3_2
I0625 15:08:25.197131 22644 net.cpp:411] conv3_3 -> conv3_3
I0625 15:08:25.199172 22644 net.cpp:150] Setting up conv3_3
I0625 15:08:25.199183 22644 net.cpp:157] Top shape: 1 256 150 250 (9600000)
I0625 15:08:25.199185 22644 net.cpp:165] Memory required for data: 1192800108
I0625 15:08:25.199192 22644 layer_factory.hpp:77] Creating layer relu3_3
I0625 15:08:25.199196 22644 net.cpp:106] Creating Layer relu3_3
I0625 15:08:25.199199 22644 net.cpp:454] relu3_3 <- conv3_3
I0625 15:08:25.199203 22644 net.cpp:397] relu3_3 -> conv3_3 (in-place)
I0625 15:08:25.199333 22644 net.cpp:150] Setting up relu3_3
I0625 15:08:25.199339 22644 net.cpp:157] Top shape: 1 256 150 250 (9600000)
I0625 15:08:25.199342 22644 net.cpp:165] Memory required for data: 1231200108
I0625 15:08:25.199343 22644 layer_factory.hpp:77] Creating layer pool3
I0625 15:08:25.199348 22644 net.cpp:106] Creating Layer pool3
I0625 15:08:25.199350 22644 net.cpp:454] pool3 <- conv3_3
I0625 15:08:25.199353 22644 net.cpp:411] pool3 -> pool3
I0625 15:08:25.199400 22644 net.cpp:150] Setting up pool3
I0625 15:08:25.199404 22644 net.cpp:157] Top shape: 1 256 75 125 (2400000)
I0625 15:08:25.199405 22644 net.cpp:165] Memory required for data: 1240800108
I0625 15:08:25.199417 22644 layer_factory.hpp:77] Creating layer conv4_1
I0625 15:08:25.199424 22644 net.cpp:106] Creating Layer conv4_1
I0625 15:08:25.199425 22644 net.cpp:454] conv4_1 <- pool3
I0625 15:08:25.199440 22644 net.cpp:411] conv4_1 -> conv4_1
I0625 15:08:25.203837 22644 net.cpp:150] Setting up conv4_1
I0625 15:08:25.203871 22644 net.cpp:157] Top shape: 1 512 75 125 (4800000)
I0625 15:08:25.203873 22644 net.cpp:165] Memory required for data: 1260000108
I0625 15:08:25.203891 22644 layer_factory.hpp:77] Creating layer relu4_1
I0625 15:08:25.203909 22644 net.cpp:106] Creating Layer relu4_1
I0625 15:08:25.203913 22644 net.cpp:454] relu4_1 <- conv4_1
I0625 15:08:25.203917 22644 net.cpp:397] relu4_1 -> conv4_1 (in-place)
I0625 15:08:25.204056 22644 net.cpp:150] Setting up relu4_1
I0625 15:08:25.204061 22644 net.cpp:157] Top shape: 1 512 75 125 (4800000)
I0625 15:08:25.204062 22644 net.cpp:165] Memory required for data: 1279200108
I0625 15:08:25.204064 22644 layer_factory.hpp:77] Creating layer conv4_2
I0625 15:08:25.204082 22644 net.cpp:106] Creating Layer conv4_2
I0625 15:08:25.204084 22644 net.cpp:454] conv4_2 <- conv4_1
I0625 15:08:25.204088 22644 net.cpp:411] conv4_2 -> conv4_2
I0625 15:08:25.209044 22644 net.cpp:150] Setting up conv4_2
I0625 15:08:25.209064 22644 net.cpp:157] Top shape: 1 512 75 125 (4800000)
I0625 15:08:25.209066 22644 net.cpp:165] Memory required for data: 1298400108
I0625 15:08:25.209079 22644 layer_factory.hpp:77] Creating layer relu4_2
I0625 15:08:25.209089 22644 net.cpp:106] Creating Layer relu4_2
I0625 15:08:25.209094 22644 net.cpp:454] relu4_2 <- conv4_2
I0625 15:08:25.209098 22644 net.cpp:397] relu4_2 -> conv4_2 (in-place)
I0625 15:08:25.209602 22644 net.cpp:150] Setting up relu4_2
I0625 15:08:25.209612 22644 net.cpp:157] Top shape: 1 512 75 125 (4800000)
I0625 15:08:25.209614 22644 net.cpp:165] Memory required for data: 1317600108
I0625 15:08:25.209616 22644 layer_factory.hpp:77] Creating layer conv4_3
I0625 15:08:25.209625 22644 net.cpp:106] Creating Layer conv4_3
I0625 15:08:25.209627 22644 net.cpp:454] conv4_3 <- conv4_2
I0625 15:08:25.209631 22644 net.cpp:411] conv4_3 -> conv4_3
I0625 15:08:25.216392 22644 net.cpp:150] Setting up conv4_3
I0625 15:08:25.216423 22644 net.cpp:157] Top shape: 1 512 75 125 (4800000)
I0625 15:08:25.216424 22644 net.cpp:165] Memory required for data: 1336800108
I0625 15:08:25.216433 22644 layer_factory.hpp:77] Creating layer relu4_3
I0625 15:08:25.216442 22644 net.cpp:106] Creating Layer relu4_3
I0625 15:08:25.216446 22644 net.cpp:454] relu4_3 <- conv4_3
I0625 15:08:25.216451 22644 net.cpp:397] relu4_3 -> conv4_3 (in-place)
I0625 15:08:25.216578 22644 net.cpp:150] Setting up relu4_3
I0625 15:08:25.216586 22644 net.cpp:157] Top shape: 1 512 75 125 (4800000)
I0625 15:08:25.216598 22644 net.cpp:165] Memory required for data: 1356000108
I0625 15:08:25.216601 22644 layer_factory.hpp:77] Creating layer pool4
I0625 15:08:25.216608 22644 net.cpp:106] Creating Layer pool4
I0625 15:08:25.216611 22644 net.cpp:454] pool4 <- conv4_3
I0625 15:08:25.216614 22644 net.cpp:411] pool4 -> pool4
I0625 15:08:25.216677 22644 net.cpp:150] Setting up pool4
I0625 15:08:25.216681 22644 net.cpp:157] Top shape: 1 512 38 63 (1225728)
I0625 15:08:25.216682 22644 net.cpp:165] Memory required for data: 1360903020
I0625 15:08:25.216684 22644 layer_factory.hpp:77] Creating layer conv5_1
I0625 15:08:25.216701 22644 net.cpp:106] Creating Layer conv5_1
I0625 15:08:25.216714 22644 net.cpp:454] conv5_1 <- pool4
I0625 15:08:25.216718 22644 net.cpp:411] conv5_1 -> conv5_1
I0625 15:08:25.221841 22644 net.cpp:150] Setting up conv5_1
I0625 15:08:25.221868 22644 net.cpp:157] Top shape: 1 512 38 63 (1225728)
I0625 15:08:25.221870 22644 net.cpp:165] Memory required for data: 1365805932
I0625 15:08:25.221889 22644 layer_factory.hpp:77] Creating layer relu5_1
I0625 15:08:25.221899 22644 net.cpp:106] Creating Layer relu5_1
I0625 15:08:25.221915 22644 net.cpp:454] relu5_1 <- conv5_1
I0625 15:08:25.221935 22644 net.cpp:397] relu5_1 -> conv5_1 (in-place)
I0625 15:08:25.222134 22644 net.cpp:150] Setting up relu5_1
I0625 15:08:25.222146 22644 net.cpp:157] Top shape: 1 512 38 63 (1225728)
I0625 15:08:25.222149 22644 net.cpp:165] Memory required for data: 1370708844
I0625 15:08:25.222154 22644 layer_factory.hpp:77] Creating layer conv5_2
I0625 15:08:25.222165 22644 net.cpp:106] Creating Layer conv5_2
I0625 15:08:25.222170 22644 net.cpp:454] conv5_2 <- conv5_1
I0625 15:08:25.222178 22644 net.cpp:411] conv5_2 -> conv5_2
I0625 15:08:25.227968 22644 net.cpp:150] Setting up conv5_2
I0625 15:08:25.227998 22644 net.cpp:157] Top shape: 1 512 38 63 (1225728)
I0625 15:08:25.228000 22644 net.cpp:165] Memory required for data: 1375611756
I0625 15:08:25.228009 22644 layer_factory.hpp:77] Creating layer relu5_2
I0625 15:08:25.228018 22644 net.cpp:106] Creating Layer relu5_2
I0625 15:08:25.228022 22644 net.cpp:454] relu5_2 <- conv5_2
I0625 15:08:25.228027 22644 net.cpp:397] relu5_2 -> conv5_2 (in-place)
I0625 15:08:25.228160 22644 net.cpp:150] Setting up relu5_2
I0625 15:08:25.228166 22644 net.cpp:157] Top shape: 1 512 38 63 (1225728)
I0625 15:08:25.228179 22644 net.cpp:165] Memory required for data: 1380514668
I0625 15:08:25.228181 22644 layer_factory.hpp:77] Creating layer conv5_3
I0625 15:08:25.228193 22644 net.cpp:106] Creating Layer conv5_3
I0625 15:08:25.228196 22644 net.cpp:454] conv5_3 <- conv5_2
I0625 15:08:25.228200 22644 net.cpp:411] conv5_3 -> conv5_3
I0625 15:08:25.232861 22644 net.cpp:150] Setting up conv5_3
I0625 15:08:25.232889 22644 net.cpp:157] Top shape: 1 512 38 63 (1225728)
I0625 15:08:25.232892 22644 net.cpp:165] Memory required for data: 1385417580
I0625 15:08:25.232900 22644 layer_factory.hpp:77] Creating layer relu5_3
I0625 15:08:25.232909 22644 net.cpp:106] Creating Layer relu5_3
I0625 15:08:25.232913 22644 net.cpp:454] relu5_3 <- conv5_3
I0625 15:08:25.232918 22644 net.cpp:397] relu5_3 -> conv5_3 (in-place)
I0625 15:08:25.233047 22644 net.cpp:150] Setting up relu5_3
I0625 15:08:25.233052 22644 net.cpp:157] Top shape: 1 512 38 63 (1225728)
I0625 15:08:25.233064 22644 net.cpp:165] Memory required for data: 1390320492
I0625 15:08:25.233067 22644 layer_factory.hpp:77] Creating layer conv5_3_relu5_3_0_split
I0625 15:08:25.233072 22644 net.cpp:106] Creating Layer conv5_3_relu5_3_0_split
I0625 15:08:25.233073 22644 net.cpp:454] conv5_3_relu5_3_0_split <- conv5_3
I0625 15:08:25.233076 22644 net.cpp:411] conv5_3_relu5_3_0_split -> conv5_3_relu5_3_0_split_0
I0625 15:08:25.233080 22644 net.cpp:411] conv5_3_relu5_3_0_split -> conv5_3_relu5_3_0_split_1
I0625 15:08:25.233084 22644 net.cpp:411] conv5_3_relu5_3_0_split -> conv5_3_relu5_3_0_split_2
I0625 15:08:25.233130 22644 net.cpp:150] Setting up conv5_3_relu5_3_0_split
I0625 15:08:25.233134 22644 net.cpp:157] Top shape: 1 512 38 63 (1225728)
I0625 15:08:25.233145 22644 net.cpp:157] Top shape: 1 512 38 63 (1225728)
I0625 15:08:25.233147 22644 net.cpp:157] Top shape: 1 512 38 63 (1225728)
I0625 15:08:25.233150 22644 net.cpp:165] Memory required for data: 1405029228
I0625 15:08:25.233150 22644 layer_factory.hpp:77] Creating layer rpn_conv/3x3
I0625 15:08:25.233160 22644 net.cpp:106] Creating Layer rpn_conv/3x3
I0625 15:08:25.233161 22644 net.cpp:454] rpn_conv/3x3 <- conv5_3_relu5_3_0_split_0
I0625 15:08:25.233165 22644 net.cpp:411] rpn_conv/3x3 -> rpn/output
I0625 15:08:25.286885 22644 net.cpp:150] Setting up rpn_conv/3x3
I0625 15:08:25.286914 22644 net.cpp:157] Top shape: 1 512 38 63 (1225728)
I0625 15:08:25.286916 22644 net.cpp:165] Memory required for data: 1409932140
I0625 15:08:25.286922 22644 layer_factory.hpp:77] Creating layer rpn_relu/3x3
I0625 15:08:25.286939 22644 net.cpp:106] Creating Layer rpn_relu/3x3
I0625 15:08:25.286942 22644 net.cpp:454] rpn_relu/3x3 <- rpn/output
I0625 15:08:25.286947 22644 net.cpp:397] rpn_relu/3x3 -> rpn/output (in-place)
I0625 15:08:25.287079 22644 net.cpp:150] Setting up rpn_relu/3x3
I0625 15:08:25.287086 22644 net.cpp:157] Top shape: 1 512 38 63 (1225728)
I0625 15:08:25.287097 22644 net.cpp:165] Memory required for data: 1414835052
I0625 15:08:25.287098 22644 layer_factory.hpp:77] Creating layer rpn/output_rpn_relu/3x3_0_split
I0625 15:08:25.287102 22644 net.cpp:106] Creating Layer rpn/output_rpn_relu/3x3_0_split
I0625 15:08:25.287104 22644 net.cpp:454] rpn/output_rpn_relu/3x3_0_split <- rpn/output
I0625 15:08:25.287107 22644 net.cpp:411] rpn/output_rpn_relu/3x3_0_split -> rpn/output_rpn_relu/3x3_0_split_0
I0625 15:08:25.287122 22644 net.cpp:411] rpn/output_rpn_relu/3x3_0_split -> rpn/output_rpn_relu/3x3_0_split_1
I0625 15:08:25.287155 22644 net.cpp:150] Setting up rpn/output_rpn_relu/3x3_0_split
I0625 15:08:25.287159 22644 net.cpp:157] Top shape: 1 512 38 63 (1225728)
I0625 15:08:25.287161 22644 net.cpp:157] Top shape: 1 512 38 63 (1225728)
I0625 15:08:25.287163 22644 net.cpp:165] Memory required for data: 1424640876
I0625 15:08:25.287164 22644 layer_factory.hpp:77] Creating layer rpn_cls_score
I0625 15:08:25.287184 22644 net.cpp:106] Creating Layer rpn_cls_score
I0625 15:08:25.287186 22644 net.cpp:454] rpn_cls_score <- rpn/output_rpn_relu/3x3_0_split_0
I0625 15:08:25.287189 22644 net.cpp:411] rpn_cls_score -> rpn_cls_score
I0625 15:08:25.288736 22644 net.cpp:150] Setting up rpn_cls_score
I0625 15:08:25.288744 22644 net.cpp:157] Top shape: 1 30 38 63 (71820)
I0625 15:08:25.288755 22644 net.cpp:165] Memory required for data: 1424928156
I0625 15:08:25.288759 22644 layer_factory.hpp:77] Creating layer rpn_cls_score_rpn_cls_score_0_split
I0625 15:08:25.288763 22644 net.cpp:106] Creating Layer rpn_cls_score_rpn_cls_score_0_split
I0625 15:08:25.288765 22644 net.cpp:454] rpn_cls_score_rpn_cls_score_0_split <- rpn_cls_score
I0625 15:08:25.288770 22644 net.cpp:411] rpn_cls_score_rpn_cls_score_0_split -> rpn_cls_score_rpn_cls_score_0_split_0
I0625 15:08:25.288775 22644 net.cpp:411] rpn_cls_score_rpn_cls_score_0_split -> rpn_cls_score_rpn_cls_score_0_split_1
I0625 15:08:25.288822 22644 net.cpp:150] Setting up rpn_cls_score_rpn_cls_score_0_split
I0625 15:08:25.288826 22644 net.cpp:157] Top shape: 1 30 38 63 (71820)
I0625 15:08:25.288828 22644 net.cpp:157] Top shape: 1 30 38 63 (71820)
I0625 15:08:25.288830 22644 net.cpp:165] Memory required for data: 1425502716
I0625 15:08:25.288831 22644 layer_factory.hpp:77] Creating layer rpn_bbox_pred
I0625 15:08:25.288841 22644 net.cpp:106] Creating Layer rpn_bbox_pred
I0625 15:08:25.288841 22644 net.cpp:454] rpn_bbox_pred <- rpn/output_rpn_relu/3x3_0_split_1
I0625 15:08:25.288846 22644 net.cpp:411] rpn_bbox_pred -> rpn_bbox_pred
I0625 15:08:25.290802 22644 net.cpp:150] Setting up rpn_bbox_pred
I0625 15:08:25.290812 22644 net.cpp:157] Top shape: 1 60 38 63 (143640)
I0625 15:08:25.290817 22644 net.cpp:165] Memory required for data: 1426077276
I0625 15:08:25.290822 22644 layer_factory.hpp:77] Creating layer rpn_bbox_pred_rpn_bbox_pred_0_split
I0625 15:08:25.290827 22644 net.cpp:106] Creating Layer rpn_bbox_pred_rpn_bbox_pred_0_split
I0625 15:08:25.290829 22644 net.cpp:454] rpn_bbox_pred_rpn_bbox_pred_0_split <- rpn_bbox_pred
I0625 15:08:25.290844 22644 net.cpp:411] rpn_bbox_pred_rpn_bbox_pred_0_split -> rpn_bbox_pred_rpn_bbox_pred_0_split_0
I0625 15:08:25.290850 22644 net.cpp:411] rpn_bbox_pred_rpn_bbox_pred_0_split -> rpn_bbox_pred_rpn_bbox_pred_0_split_1
I0625 15:08:25.290894 22644 net.cpp:150] Setting up rpn_bbox_pred_rpn_bbox_pred_0_split
I0625 15:08:25.290899 22644 net.cpp:157] Top shape: 1 60 38 63 (143640)
I0625 15:08:25.290901 22644 net.cpp:157] Top shape: 1 60 38 63 (143640)
I0625 15:08:25.290904 22644 net.cpp:165] Memory required for data: 1427226396
I0625 15:08:25.290906 22644 layer_factory.hpp:77] Creating layer rpn_cls_score_reshape
I0625 15:08:25.290912 22644 net.cpp:106] Creating Layer rpn_cls_score_reshape
I0625 15:08:25.290915 22644 net.cpp:454] rpn_cls_score_reshape <- rpn_cls_score_rpn_cls_score_0_split_0
I0625 15:08:25.290931 22644 net.cpp:411] rpn_cls_score_reshape -> rpn_cls_score_reshape
I0625 15:08:25.290980 22644 net.cpp:150] Setting up rpn_cls_score_reshape
I0625 15:08:25.290987 22644 net.cpp:157] Top shape: 1 2 570 63 (71820)
I0625 15:08:25.290999 22644 net.cpp:165] Memory required for data: 1427513676
I0625 15:08:25.291003 22644 layer_factory.hpp:77] Creating layer rpn_cls_score_reshape_rpn_cls_score_reshape_0_split
I0625 15:08:25.291023 22644 net.cpp:106] Creating Layer rpn_cls_score_reshape_rpn_cls_score_reshape_0_split
I0625 15:08:25.291025 22644 net.cpp:454] rpn_cls_score_reshape_rpn_cls_score_reshape_0_split <- rpn_cls_score_reshape
I0625 15:08:25.291030 22644 net.cpp:411] rpn_cls_score_reshape_rpn_cls_score_reshape_0_split -> rpn_cls_score_reshape_rpn_cls_score_reshape_0_split_0
I0625 15:08:25.291038 22644 net.cpp:411] rpn_cls_score_reshape_rpn_cls_score_reshape_0_split -> rpn_cls_score_reshape_rpn_cls_score_reshape_0_split_1
I0625 15:08:25.291095 22644 net.cpp:150] Setting up rpn_cls_score_reshape_rpn_cls_score_reshape_0_split
I0625 15:08:25.291105 22644 net.cpp:157] Top shape: 1 2 570 63 (71820)
I0625 15:08:25.291108 22644 net.cpp:157] Top shape: 1 2 570 63 (71820)
I0625 15:08:25.291111 22644 net.cpp:165] Memory required for data: 1428088236
I0625 15:08:25.291115 22644 layer_factory.hpp:77] Creating layer rpn-data
I0625 15:08:25.292498 22644 net.cpp:106] Creating Layer rpn-data
I0625 15:08:25.292505 22644 net.cpp:454] rpn-data <- rpn_cls_score_rpn_cls_score_0_split_1
I0625 15:08:25.292510 22644 net.cpp:454] rpn-data <- gt_boxes_input-data_2_split_0
I0625 15:08:25.292513 22644 net.cpp:454] rpn-data <- im_info_input-data_1_split_0
I0625 15:08:25.292517 22644 net.cpp:454] rpn-data <- data_input-data_0_split_1
I0625 15:08:25.292520 22644 net.cpp:411] rpn-data -> rpn_labels
I0625 15:08:25.292526 22644 net.cpp:411] rpn-data -> rpn_bbox_targets
I0625 15:08:25.292531 22644 net.cpp:411] rpn-data -> rpn_bbox_inside_weights
I0625 15:08:25.292536 22644 net.cpp:411] rpn-data -> rpn_bbox_outside_weights
===================================anchor_scales in AnchorTargetLayer:=============(2, 4, 8, 16, 32)
I0625 15:08:25.293649 22644 net.cpp:150] Setting up rpn-data
I0625 15:08:25.293658 22644 net.cpp:157] Top shape: 1 1 570 63 (35910)
I0625 15:08:25.293661 22644 net.cpp:157] Top shape: 1 60 38 63 (143640)
I0625 15:08:25.293664 22644 net.cpp:157] Top shape: 1 60 38 63 (143640)
I0625 15:08:25.293668 22644 net.cpp:157] Top shape: 1 60 38 63 (143640)
I0625 15:08:25.293669 22644 net.cpp:165] Memory required for data: 1429955556
I0625 15:08:25.293671 22644 layer_factory.hpp:77] Creating layer rpn_loss_cls
I0625 15:08:25.293676 22644 net.cpp:106] Creating Layer rpn_loss_cls
I0625 15:08:25.293680 22644 net.cpp:454] rpn_loss_cls <- rpn_cls_score_reshape_rpn_cls_score_reshape_0_split_0
I0625 15:08:25.293684 22644 net.cpp:454] rpn_loss_cls <- rpn_labels
…
