…
average_loss: 100
iter_size: 2
I0617 20:30:59.565527 19559 solver.cpp:81] Creating training net from train_net file: models/pascal_voc/VGG16/faster_rcnn_end2end/train.prototxt
I0617 20:30:59.566970 19559 net.cpp:49] Initializing net from parameters: 
name: "VGG_ILSVRC_16_layers"
state {
  phase: TRAIN
}
layer {
  name: "input-data"
  type: "Python"
  top: "data"
  top: "im_info"
  top: "gt_boxes"
  top: "seg_mask_inds"
  top: "flipped"
  python_param {
    module: "roi_data_layer.layer"
    layer: "RoIDataLayer"
    param_str: "\'num_classes\': 2"
  }
}
layer {
  name: "conv1_1"
  type: "Convolution"
  bottom: "data"
  top: "conv1_1"
  param {
    lr_mult: 0
    decay_mult: 0
  }
  param {
    lr_mult: 0
    decay_mult: 0
  }
  convolution_param {
    num_output: 64
    pad: 1
    kernel_size: 3
  }
}
layer {
  name: "relu1_1"
  type: "ReLU"
  bottom: "conv1_1"
  top: "conv1_1"
}
layer {
  name: "conv1_2"
  type: "Convolution"
  bottom: "conv1_1"
  top: "conv1_2"
  param {
    lr_mult: 0
    decay_mult: 0
  }
  param {
    lr_mult: 0
    decay_mult: 0
  }
  convolution_param {
    num_output: 64
    pad: 1
    kernel_size: 3
  }
}
layer {
  name: "relu1_2"
  type: "ReLU"
  bottom: "conv1_2"
  top: "conv1_2"
}
layer {
  name: "pool1"
  type: "Pooling"
  bottom: "conv1_2"
  top: "pool1"
  pooling_param {
    pool: MAX
    kernel_size: 2
    stride: 2
  }
}
layer {
  name: "conv2_1"
  type: "Convolution"
  bottom: "pool1"
  top: "conv2_1"
  param {
    lr_mult: 0
    decay_mult: 0
  }
  param {
    lr_mult: 0
    decay_mult: 0
  }
  convolution_param {
    num_output: 128
    pad: 1
    kernel_size: 3
  }
}
layer {
  name: "relu2_1"
  type: "ReLU"
  bottom: "conv2_1"
  top: "conv2_1"
}
layer {
  name: "conv2_2"
  type: "Convolution"
  bottom: "conv2_1"
  top: "conv2_2"
  param {
    lr_mult: 0
    decay_mult: 0
  }
  param {
    lr_mult: 0
    decay_mult: 0
  }
  convolution_param {
    num_output: 128
    pad: 1
    kernel_size: 3
  }
}
layer {
  name: "relu2_2"
  type: "ReLU"
  bottom: "conv2_2"
  top: "conv2_2"
}
layer {
  name: "pool2"
  type: "Pooling"
  bottom: "conv2_2"
  top: "pool2"
  pooling_param {
    pool: MAX
    kernel_size: 2
    stride: 2
  }
}
layer {
  name: "conv3_1"
  type: "Convolution"
  bottom: "pool2"
  top: "conv3_1"
  param {
    lr_mult: 1
  }
  param {
    lr_mult: 2
  }
  convolution_param {
    num_output: 256
    pad: 1
    kernel_size: 3
  }
}
layer {
  name: "relu3_1"
  type: "ReLU"
  bottom: "conv3_1"
  top: "conv3_1"
}
layer {
  name: "conv3_2"
  type: "Convolution"
  bottom: "conv3_1"
  top: "conv3_2"
  param {
    lr_mult: 1
  }
  param {
    lr_mult: 2
  }
  convolution_param {
    num_output: 256
    pad: 1
    kernel_size: 3
  }
}
layer {
  name: "relu3_2"
  type: "ReLU"
  bottom: "conv3_2"
  top: "conv3_2"
}
layer {
  name: "conv3_3"
  type: "Convolution"
  bottom: "conv3_2"
  top: "conv3_3"
  param {
    lr_mult: 1
  }
  param {
    lr_mult: 2
  }
  convolution_param {
    num_output: 256
    pad: 1
    kernel_size: 3
  }
}
layer {
  name: "relu3_3"
  type: "ReLU"
  bottom: "conv3_3"
  top: "conv3_3"
}
layer {
  name: "pool3"
  type: "Pooling"
  bottom: "conv3_3"
  top: "pool3"
  pooling_param {
    pool: MAX
    kernel_size: 2
    stride: 2
  }
}
layer {
  name: "conv4_1"
  type: "Convolution"
  bottom: "pool3"
  top: "conv4_1"
  param {
    lr_mult: 1
  }
  param {
    lr_mult: 2
  }
  convolution_param {
    num_output: 512
    pad: 1
    kernel_size: 3
  }
}
layer {
  name: "relu4_1"
  type: "ReLU"
  bottom: "conv4_1"
  top: "conv4_1"
}
layer {
  name: "conv4_2"
  type: "Convolution"
  bottom: "conv4_1"
  top: "conv4_2"
  param {
    lr_mult: 1
  }
  param {
    lr_mult: 2
  }
  convolution_param {
    num_output: 512
    pad: 1
    kernel_size: 3
  }
}
layer {
  name: "relu4_2"
  type: "ReLU"
  bottom: "conv4_2"
  top: "conv4_2"
}
layer {
  name: "conv4_3"
  type: "Convolution"
  bottom: "conv4_2"
  top: "conv4_3"
  param {
    lr_mult: 1
  }
  param {
    lr_mult: 2
  }
  convolution_param {
    num_output: 512
    pad: 1
    kernel_size: 3
  }
}
layer {
  name: "relu4_3"
  type: "ReLU"
  bottom: "conv4_3"
  top: "conv4_3"
}
layer {
  name: "pool4"
  type: "Pooling"
  bottom: "conv4_3"
  top: "pool4"
  pooling_param {
    pool: MAX
    kernel_size: 2
    stride: 2
  }
}
layer {
  name: "conv5_1"
  type: "Convolution"
  bottom: "pool4"
  top: "conv5_1"
  param {
    lr_mult: 1
  }
  param {
    lr_mult: 2
  }
  convolution_param {
    num_output: 512
    pad: 1
    kernel_size: 3
  }
}
layer {
  name: "relu5_1"
  type: "ReLU"
  bottom: "conv5_1"
  top: "conv5_1"
}
layer {
  name: "conv5_2"
  type: "Convolution"
  bottom: "conv5_1"
  top: "conv5_2"
  param {
    lr_mult: 1
  }
  param {
    lr_mult: 2
  }
  convolution_param {
    num_output: 512
    pad: 1
    kernel_size: 3
  }
}
layer {
  name: "relu5_2"
  type: "ReLU"
  bottom: "conv5_2"
  top: "conv5_2"
}
layer {
  name: "conv5_3"
  type: "Convolution"
  bottom: "conv5_2"
  top: "conv5_3"
  param {
    lr_mult: 1
  }
  param {
    lr_mult: 2
  }
  convolution_param {
    num_output: 512
    pad: 1
    kernel_size: 3
  }
}
layer {
  name: "relu5_3"
  type: "ReLU"
  bottom: "conv5_3"
  top: "conv5_3"
}
layer {
  name: "rpn_conv/3x3"
  type: "Convolution"
  bottom: "conv5_3"
  top: "rpn/output"
  param {
    lr_mult: 1
  }
  param {
    lr_mult: 2
  }
  convolution_param {
    num_output: 512
    pad: 1
    kernel_size: 3
    stride: 1
    weight_filler {
      type: "gaussian"
      std: 0.01
    }
    bias_filler {
      type: "constant"
      value: 0
    }
  }
}
layer {
  name: "rpn_relu/3x3"
  type: "ReLU"
  bottom: "rpn/output"
  top: "rpn/output"
}
layer {
  name: "rpn_cls_score"
  type: "Convolution"
  bottom: "rpn/output"
  top: "rpn_cls_score"
  param {
    lr_mult: 1
  }
  param {
    lr_mult: 2
  }
  convolution_param {
    num_output: 30
    pad: 0
    kernel_size: 1
    stride: 1
    weight_filler {
      type: "gaussian"
      std: 0.01
    }
    bias_filler {
      type: "constant"
      value: 0
    }
  }
}
layer {
  name: "rpn_bbox_pred"
  type: "Convolution"
  bottom: "rpn/output"
  top: "rpn_bbox_pred"
  param {
    lr_mult: 1
  }
  param {
    lr_mult: 2
  }
  convolution_param {
    num_output: 60
    pad: 0
    kernel_size: 1
    stride: 1
    weight_filler {
      type: "gaussian"
      std: 0.01
    }
    bias_filler {
      type: "constant"
      value: 0
    }
  }
}
layer {
  name: "rpn_cls_score_reshape"
  type: "Reshape"
  bottom: "rpn_cls_score"
  top: "rpn_cls_score_reshape"
  reshape_param {
    shape {
      dim: 0
      dim: 2
      dim: -1
      dim: 0
    }
  }
}
layer {
  name: "rpn-data"
  type: "Python"
  bottom: "rpn_cls_score"
  bottom: "gt_boxes"
  bottom: "im_info"
  bottom: "data"
  top: "rpn_labels"
  top: "rpn_bbox_targets"
  top: "rpn_bbox_inside_weights"
  top: "rpn_bbox_outside_weights"
  python_param {
    module: "rpn.anchor_target_layer"
    layer: "AnchorTargetLayer"
    param_str: "\'feat_stride\': 16 \n\'scales\': !!python/tuple [2, 4, 8, 16, 32]"
  }
}
layer {
  name: "rpn_loss_cls"
  type: "SoftmaxWithLoss"
  bottom: "rpn_cls_score_reshape"
  bottom: "rpn_labels"
  top: "rpn_cls_loss"
  loss_weight: 1
  propagate_down: true
  propagate_down: false
  loss_param {
    ignore_label: -1
    normalize: true
  }
}
layer {
  name: "rpn_loss_bbox"
  type: "SmoothL1Loss"
  bottom: "rpn_bbox_pred"
  bottom: "rpn_bbox_targets"
  bottom: "rpn_bbox_inside_weights"
  bottom: "rpn_bbox_outside_weights"
  top: "rpn_loss_bbox"
  loss_weight: 1
  smooth_l1_loss_param {
    sigma: 3
  }
}
layer {
  name: "rpn_cls_prob"
  type: "Softmax"
  bottom: "rpn_cls_score_reshape"
  top: "rpn_cls_prob"
}
layer {
  name: "rpn_cls_prob_reshape"
  type: "Reshape"
  bottom: "rpn_cls_prob"
  top: "rpn_cls_prob_reshape"
  reshape_param {
    shape {
      dim: 0
      dim: 30
      dim: -1
      dim: 0
    }
  }
}
layer {
  name: "proposal"
  type: "Python"
  bottom: "rpn_cls_prob_reshape"
  bottom: "rpn_bbox_pred"
  bottom: "im_info"
  top: "rpn_rois"
  python_param {
    module: "rpn.proposal_layer"
    layer: "ProposalLayer"
    param_str: "\'feat_stride\': 16 \n\'scales\': !!python/tuple [2, 4, 8, 16, 32]"
  }
}
layer {
  name: "roi-data"
  type: "Python"
  bottom: "rpn_rois"
  bottom: "gt_boxes"
  bottom: "im_info"
  bottom: "seg_mask_inds"
  bottom: "flipped"
  top: "rois"
  top: "labels"
  top: "bbox_targets"
  top: "bbox_inside_weights"
  top: "bbox_outside_weights"
  top: "mask_targets"
  top: "rois_pos"
  top: "attrArray"
  top: "attrArrayInd"
  top: "attrArrayShift"
  python_param {
    module: "rpn.proposal_target_layer"
    layer: "ProposalTargetLayer"
    param_str: "\'num_classes\': 2"
  }
}
layer {
  name: "roi_pool5"
  type: "ROIAlignment"
  bottom: "conv5_3"
  bottom: "rois"
  top: "pool5"
  roi_alignment_param {
    pooled_h: 7
    pooled_w: 7
    spatial_scale: 0.0625
  }
}
layer {
  name: "fc6"
  type: "InnerProduct"
  bottom: "pool5"
  top: "fc6"
  param {
    lr_mult: 1
  }
  param {
    lr_mult: 2
  }
  inner_product_param {
    num_output: 4096
  }
}
layer {
  name: "relu6"
  type: "ReLU"
  bottom: "fc6"
  top: "fc6"
}
layer {
  name: "fc7"
  type: "InnerProduct"
  bottom: "fc6"
  top: "fc7"
  param {
    lr_mult: 1
  }
  param {
    lr_mult: 2
  }
  inner_product_param {
    num_output: 4096
  }
}
layer {
  name: "relu7"
  type: "ReLU"
  bottom: "fc7"
  top: "fc7"
}
layer {
  name: "attr_score"
  type: "InnerProduct"
  bottom: "fc7"
  top: "attr_score"
  param {
    lr_mult: 1
  }
  param {
    lr_mult: 2
  }
  inner_product_param {
    num_output: 7
    weight_filler {
      type: "gaussian"
      std: 0.001
    }
    bias_filler {
      type: "constant"
      value: 0
    }
  }
}
layer {
  name: "attr_score_pos"
  type: "Eltwise"
  bottom: "attr_score"
  bottom: "attrArrayInd"
  top: "attr_score_pos"
  eltwise_param {
    operation: PROD
  }
}
layer {
  name: "attr_score_pos_shift"
  type: "Eltwise"
  bottom: "attr_score_pos"
  bottom: "attrArrayShift"
  top: "attr_score_pos_shift"
  eltwise_param {
    operation: SUM
  }
}
layer {
  name: "cls_score"
  type: "InnerProduct"
  bottom: "fc7"
  top: "cls_score"
  param {
    lr_mult: 1
  }
  param {
    lr_mult: 2
  }
  inner_product_param {
    num_output: 2
    weight_filler {
      type: "gaussian"
      std: 0.01
    }
    bias_filler {
      type: "constant"
      value: 0
    }
  }
}
layer {
  name: "bbox_pred"
  type: "InnerProduct"
  bottom: "fc7"
  top: "bbox_pred"
  param {
    lr_mult: 1
  }
  param {
    lr_mult: 2
  }
  inner_product_param {
    num_output: 8
    weight_filler {
      type: "gaussian"
      std: 0.001
    }
    bias_filler {
      type: "constant"
      value: 0
    }
  }
}
layer {
  name: "loss_attribute"
  type: "SigmoidCrossEntropyLoss"
  bottom: "attr_score_pos_shift"
  bottom: "attrArray"
  top: "loss_attribute"
  loss_weight: 1
  propagate_down: true
  propagate_down: false
}
layer {
  name: "loss_cls"
  type: "SoftmaxWithLoss"
  bottom: "cls_score"
  bottom: "labels"
  top: "loss_cls"
  loss_weight: 3
  propagate_down: true
  propagate_down: false
}
layer {
  name: "loss_bbox"
  type: "SmoothL1Loss"
  bottom: "bbox_pred"
  bottom: "bbox_targets"
  bottom: "bbox_inside_weights"
  bottom: "bbox_outside_weights"
  top: "loss_bbox"
  loss_weight: 2
}
layer {
  name: "roi_pool5_2"
  type: "ROIAlignment"
  bottom: "conv5_3"
  bottom: "rois_pos"
  top: "pool5_2"
  roi_alignment_param {
    pooled_h: 7
    pooled_w: 7
    spatial_scale: 0.0625
  }
}
layer {
  name: "pool5_2_conv"
  type: "Convolution"
  bottom: "pool5_2"
  top: "pool5_2_conv"
  param {
    lr_mult: 1
    decay_mult: 1
  }
  param {
    lr_mult: 2
    decay_mult: 0
  }
  convolution_param {
    num_output: 512
    pad: 0
    kernel_size: 1
    weight_filler {
      type: "gaussian"
      std: 0.01
    }
    bias_filler {
      type: "constant"
      value: 0
    }
  }
}
layer {
  name: "pool5_2_conv_relu"
  type: "ReLU"
  bottom: "pool5_2_conv"
  top: "pool5_2_conv_relu"
}
layer {
  name: "pool5_2_conv2"
  type: "Convolution"
  bottom: "pool5_2_conv_relu"
  top: "pool5_2_conv2"
  param {
    lr_mult: 1
    decay_mult: 1
  }
  param {
    lr_mult: 2
    decay_mult: 0
  }
  convolution_param {
    num_output: 512
    pad: 1
    kernel_size: 3
    stride: 1
    weight_filler {
      type: "gaussian"
      std: 0.01
    }
    bias_filler {
      type: "constant"
      value: 0
    }
  }
}
layer {
  name: "pool5_2_conv2_relu"
  type: "ReLU"
  bottom: "pool5_2_conv2"
  top: "pool5_2_conv2_relu"
}
layer {
  name: "mask_deconv1"
  type: "Deconvolution"
  bottom: "pool5_2_conv2_relu"
  top: "mask_deconv1"
  param {
    lr_mult: 1
    decay_mult: 1
  }
  param {
    lr_mult: 2
    decay_mult: 0
  }
  convolution_param {
    num_output: 256
    pad: 1
    kernel_size: 8
    group: 256
    stride: 4
    weight_filler {
      type: "bilinear"
    }
  }
}
layer {
  name: "pool5_2_conv3"
  type: "Convolution"
  bottom: "mask_deconv1"
  top: "pool5_2_conv3"
  param {
    lr_mult: 1
    decay_mult: 1
  }
  param {
    lr_mult: 2
    decay_mult: 0
  }
  convolution_param {
    num_output: 512
    pad: 1
    kernel_size: 3
    stride: 1
    weight_filler {
      type: "gaussian"
      std: 0.01
    }
    bias_filler {
      type: "constant"
      value: 0
    }
  }
}
layer {
  name: "pool5_2_conv3_relu"
  type: "ReLU"
  bottom: "pool5_2_conv3"
  top: "pool5_2_conv3_relu"
}
layer {
  name: "pool5_2_conv4"
  type: "Convolution"
  bottom: "pool5_2_conv3_relu"
  top: "pool5_2_conv4"
  param {
    lr_mult: 1
    decay_mult: 1
  }
  param {
    lr_mult: 2
    decay_mult: 0
  }
  convolution_param {
    num_output: 512
    pad: 1
    kernel_size: 3
    stride: 1
    weight_filler {
      type: "gaussian"
      std: 0.01
    }
    bias_filler {
      type: "constant"
      value: 0
    }
  }
}
layer {
  name: "pool5_2_conv4_relu"
  type: "ReLU"
  bottom: "pool5_2_conv4"
  top: "pool5_2_conv4_relu"
}
layer {
  name: "query_conv"
  type: "Convolution"
  bottom: "pool5_2_conv4_relu"
  top: "query_conv"
  param {
    lr_mult: 1
    decay_mult: 1
  }
  param {
    lr_mult: 2
    decay_mult: 0
  }
  convolution_param {
    num_output: 64
    pad: 0
    kernel_size: 1
    stride: 1
    weight_filler {
      type: "gaussian"
      std: 0.01
    }
    bias_filler {
      type: "constant"
      value: 0
    }
  }
}
layer {
  name: "key_conv"
  type: "Convolution"
  bottom: "pool5_2_conv4_relu"
  top: "key_conv"
  param {
    lr_mult: 1
    decay_mult: 1
  }
  param {
    lr_mult: 2
    decay_mult: 0
  }
  convolution_param {
    num_output: 64
    pad: 0
    kernel_size: 1
    stride: 1
    weight_filler {
      type: "gaussian"
      std: 0.01
    }
    bias_filler {
      type: "constant"
      value: 0
    }
  }
}
layer {
  name: "value_conv"
  type: "Convolution"
  bottom: "pool5_2_conv4_relu"
  top: "value_conv"
  param {
    lr_mult: 1
    decay_mult: 1
  }
  param {
    lr_mult: 2
    decay_mult: 0
  }
  convolution_param {
    num_output: 512
    pad: 0
    kernel_size: 1
    stride: 1
    weight_filler {
      type: "gaussian"
      std: 0.01
    }
    bias_filler {
      type: "constant"
      value: 0
    }
  }
}
layer {
  name: "query_conv_reshape"
  type: "Reshape"
  bottom: "query_conv"
  top: "query_conv_reshape"
  reshape_param {
    shape {
      dim: -1
      dim: 64
      dim: 900
      dim: 1
    }
  }
}
layer {
  name: "key_conv_reshape"
  type: "Reshape"
  bottom: "key_conv"
  top: "key_conv_reshape"
  reshape_param {
    shape {
      dim: -1
      dim: 64
      dim: 900
      dim: 1
    }
  }
}
layer {
  name: "value_conv_reshape"
  type: "Reshape"
  bottom: "value_conv"
  top: "value_conv_reshape"
  reshape_param {
    shape {
      dim: -1
      dim: 512
      dim: 900
      dim: 1
    }
  }
}
layer {
  name: "query_conv_reshape_perm"
  type: "Permute"
  bottom: "query_conv_reshape"
  top: "query_conv_reshape_perm"
  permute_param {
    order: 0
    order: 3
    order: 2
    order: 1
  }
}
layer {
  name: "key_conv_reshape_perm"
  type: "Permute"
  bottom: "key_conv_reshape"
  top: "key_conv_reshape_perm"
  permute_param {
    order: 0
    order: 3
    order: 1
    order: 2
  }
}
layer {
  name: "energy"
  type: "MatrixMultiplication"
  bottom: "query_conv_reshape_perm"
  bottom: "key_conv_reshape_perm"
  top: "energy"
}
layer {
  name: "attention"
  type: "Softmax"
  bottom: "energy"
  top: "attention"
  softmax_param {
    axis: 3
  }
}
layer {
  name: "value_conv_reshape_perm"
  type: "Permute"
  bottom: "value_conv_reshape"
  top: "value_conv_reshape_perm"
  permute_param {
    order: 0
    order: 3
    order: 1
    order: 2
  }
}
layer {
  name: "attention_perm"
  type: "Permute"
  bottom: "attention"
  top: "attention_perm"
  permute_param {
    order: 0
    order: 1
    order: 2
    order: 3
  }
}
layer {
  name: "out"
  type: "MatrixMultiplication"
  bottom: "value_conv_reshape_perm"
  bottom: "attention_perm"
  top: "out"
}
layer {
  name: "out_reshape"
  type: "Reshape"
  bottom: "out"
  top: "out_reshape"
  reshape_param {
    shape {
      dim: -1
      dim: 512
      dim: 30
      dim: 30
    }
  }
}
layer {
  name: "out_reshape_scale"
  type: "Scale"
  bottom: "out_reshape"
  top: "out_reshape_scale"
  param {
    name: "scale_conv1_1"
    lr_mult: 1
  }
  scale_param {
    bias_term: false
  }
}
layer {
  name: "out_x"
  type: "Eltwise"
  bottom: "out_reshape_scale"
  bottom: "pool5_2_conv4_relu"
  top: "out_x"
  eltwise_param {
    operation: SUM
  }
}
layer {
  name: "mask_deconv2"
  type: "Deconvolution"
  bottom: "out_x"
  top: "mask_deconv2"
  param {
    lr_mult: 1
    decay_mult: 1
  }
  param {
    lr_mult: 2
    decay_mult: 0
  }
  convolution_param {
    num_output: 256
    pad: 1
    kernel_size: 8
    group: 256
    stride: 4
    weight_filler {
      type: "bilinear"
    }
  }
}
layer {
  name: "pool5_2_conv5"
  type: "Convolution"
  bottom: "mask_deconv2"
  top: "pool5_2_conv5"
  param {
    lr_mult: 1
    decay_mult: 1
  }
  param {
    lr_mult: 2
    decay_mult: 0
  }
  convolution_param {
    num_output: 512
    pad: 1
    kernel_size: 3
    stride: 1
    weight_filler {
      type: "gaussian"
      std: 0.01
    }
    bias_filler {
      type: "constant"
      value: 0
    }
  }
}
layer {
  name: "pool5_2_conv5_relu"
  type: "ReLU"
  bottom: "pool5_2_conv5"
  top: "pool5_2_conv5_relu"
}
layer {
  name: "pool5_2_conv6"
  type: "Convolution"
  bottom: "pool5_2_conv5_relu"
  top: "pool5_2_conv6"
  param {
    lr_mult: 1
    decay_mult: 1
  }
  param {
    lr_mult: 2
    decay_mult: 0
  }
  convolution_param {
    num_output: 512
    pad: 1
    kernel_size: 3
    stride: 1
    weight_filler {
      type: "gaussian"
      std: 0.01
    }
    bias_filler {
      type: "constant"
      value: 0
    }
  }
}
layer {
  name: "pool5_2_conv6_relu"
  type: "ReLU"
  bottom: "pool5_2_conv6"
  top: "pool5_2_conv6_relu"
}
layer {
  name: "mask_deconv3"
  type: "Deconvolution"
  bottom: "pool5_2_conv6_relu"
  top: "mask_deconv3"
  param {
    lr_mult: 1
    decay_mult: 1
  }
  param {
    lr_mult: 2
    decay_mult: 0
  }
  convolution_param {
    num_output: 256
    pad: 1
    kernel_size: 4
    group: 256
    stride: 2
    weight_filler {
      type: "bilinear"
    }
  }
}
layer {
  name: "mask_score"
  type: "Convolution"
  bottom: "mask_deconv3"
  top: "mask_score"
  param {
    lr_mult: 1
    decay_mult: 1
  }
  param {
    lr_mult: 2
    decay_mult: 0
  }
  convolution_param {
    num_output: 8
    pad: 0
    kernel_size: 1
    weight_filler {
      type: "gaussian"
      std: 0.01
    }
    bias_filler {
      type: "constant"
      value: 0
    }
  }
}
layer {
  name: "loss_mask"
  type: "SoftmaxWithLoss"
  bottom: "mask_score"
  bottom: "mask_targets"
  top: "loss_mask"
  loss_weight: 3
  propagate_down: true
  propagate_down: false
  loss_param {
    ignore_label: -1
    normalize: true
  }
}
layer {
  name: "pool5_2_conv5_2"
  type: "Convolution"
  bottom: "mask_deconv2"
  top: "pool5_2_conv5_2"
  param {
    lr_mult: 1
    decay_mult: 1
  }
  param {
    lr_mult: 2
    decay_mult: 0
  }
  convolution_param {
    num_output: 512
    pad: 1
    kernel_size: 3
    stride: 1
    weight_filler {
      type: "gaussian"
      std: 0.01
    }
    bias_filler {
      type: "constant"
      value: 0
    }
  }
}
layer {
  name: "pool5_2_conv5_2_relu"
  type: "ReLU"
  bottom: "pool5_2_conv5_2"
  top: "pool5_2_conv5_2_relu"
}
layer {
  name: "mask_deconv3_2"
  type: "Deconvolution"
  bottom: "pool5_2_conv5_2_relu"
  top: "mask_deconv3_2"
  param {
    lr_mult: 1
    decay_mult: 1
  }
  param {
    lr_mult: 2
    decay_mult: 0
  }
  convolution_param {
    num_output: 256
    pad: 1
    kernel_size: 4
    group: 256
    stride: 2
    weight_filler {
      type: "bilinear"
    }
  }
}
layer {
  name: "mask_score_2"
  type: "Convolution"
  bottom: "mask_deconv3_2"
  top: "mask_score_2"
  param {
    lr_mult: 1
    decay_mult: 1
  }
  param {
    lr_mult: 2
    decay_mult: 0
  }
  convolution_param {
    num_output: 8
    pad: 0
    kernel_size: 1
    weight_filler {
      type: "gaussian"
      std: 0.01
    }
    bias_filler {
      type: "constant"
      value: 0
    }
  }
}
layer {
  name: "loss_mask_2"
  type: "SoftmaxWithLoss"
  bottom: "mask_score_2"
  bottom: "mask_targets"
  top: "loss_mask_2"
  loss_weight: 0.3
  propagate_down: true
  propagate_down: false
  loss_param {
    ignore_label: -1
    normalize: true
  }
}
I0617 20:30:59.567395 19559 layer_factory.hpp:77] Creating layer input-data
I0617 20:30:59.579331 19559 net.cpp:106] Creating Layer input-data
I0617 20:30:59.579346 19559 net.cpp:411] input-data -> data
I0617 20:30:59.579354 19559 net.cpp:411] input-data -> im_info
I0617 20:30:59.579357 19559 net.cpp:411] input-data -> gt_boxes
I0617 20:30:59.579360 19559 net.cpp:411] input-data -> seg_mask_inds
I0617 20:30:59.579365 19559 net.cpp:411] input-data -> flipped
RoiDataLayer: name_to_top: {'gt_boxes': 2, 'data': 0, 'seg_mask_inds': 3, 'im_info': 1, 'flipped': 4}
I0617 20:30:59.589538 19559 net.cpp:150] Setting up input-data
I0617 20:30:59.589572 19559 net.cpp:157] Top shape: 1 3 600 1000 (1800000)
I0617 20:30:59.589576 19559 net.cpp:157] Top shape: 1 3 (3)
I0617 20:30:59.589578 19559 net.cpp:157] Top shape: 1 4 (4)
I0617 20:30:59.589581 19559 net.cpp:157] Top shape: 1 2 (2)
I0617 20:30:59.589586 19559 net.cpp:157] Top shape: 1 1 (1)
I0617 20:30:59.589591 19559 net.cpp:165] Memory required for data: 7200040
I0617 20:30:59.589596 19559 layer_factory.hpp:77] Creating layer data_input-data_0_split
I0617 20:30:59.589623 19559 net.cpp:106] Creating Layer data_input-data_0_split
I0617 20:30:59.589627 19559 net.cpp:454] data_input-data_0_split <- data
I0617 20:30:59.589640 19559 net.cpp:411] data_input-data_0_split -> data_input-data_0_split_0
I0617 20:30:59.589646 19559 net.cpp:411] data_input-data_0_split -> data_input-data_0_split_1
I0617 20:30:59.589691 19559 net.cpp:150] Setting up data_input-data_0_split
I0617 20:30:59.589695 19559 net.cpp:157] Top shape: 1 3 600 1000 (1800000)
I0617 20:30:59.589697 19559 net.cpp:157] Top shape: 1 3 600 1000 (1800000)
I0617 20:30:59.589707 19559 net.cpp:165] Memory required for data: 21600040
I0617 20:30:59.589709 19559 layer_factory.hpp:77] Creating layer im_info_input-data_1_split
I0617 20:30:59.589712 19559 net.cpp:106] Creating Layer im_info_input-data_1_split
I0617 20:30:59.589715 19559 net.cpp:454] im_info_input-data_1_split <- im_info
I0617 20:30:59.589727 19559 net.cpp:411] im_info_input-data_1_split -> im_info_input-data_1_split_0
I0617 20:30:59.589730 19559 net.cpp:411] im_info_input-data_1_split -> im_info_input-data_1_split_1
I0617 20:30:59.589735 19559 net.cpp:411] im_info_input-data_1_split -> im_info_input-data_1_split_2
I0617 20:30:59.589788 19559 net.cpp:150] Setting up im_info_input-data_1_split
I0617 20:30:59.589792 19559 net.cpp:157] Top shape: 1 3 (3)
I0617 20:30:59.589794 19559 net.cpp:157] Top shape: 1 3 (3)
I0617 20:30:59.589795 19559 net.cpp:157] Top shape: 1 3 (3)
I0617 20:30:59.589797 19559 net.cpp:165] Memory required for data: 21600076
I0617 20:30:59.589798 19559 layer_factory.hpp:77] Creating layer gt_boxes_input-data_2_split
I0617 20:30:59.589802 19559 net.cpp:106] Creating Layer gt_boxes_input-data_2_split
I0617 20:30:59.589802 19559 net.cpp:454] gt_boxes_input-data_2_split <- gt_boxes
I0617 20:30:59.589805 19559 net.cpp:411] gt_boxes_input-data_2_split -> gt_boxes_input-data_2_split_0
I0617 20:30:59.589807 19559 net.cpp:411] gt_boxes_input-data_2_split -> gt_boxes_input-data_2_split_1
I0617 20:30:59.589834 19559 net.cpp:150] Setting up gt_boxes_input-data_2_split
I0617 20:30:59.589838 19559 net.cpp:157] Top shape: 1 4 (4)
I0617 20:30:59.589848 19559 net.cpp:157] Top shape: 1 4 (4)
I0617 20:30:59.589850 19559 net.cpp:165] Memory required for data: 21600108
I0617 20:30:59.589851 19559 layer_factory.hpp:77] Creating layer conv1_1
I0617 20:30:59.589869 19559 net.cpp:106] Creating Layer conv1_1
I0617 20:30:59.589870 19559 net.cpp:454] conv1_1 <- data_input-data_0_split_0
I0617 20:30:59.589874 19559 net.cpp:411] conv1_1 -> conv1_1
I0617 20:30:59.743670 19559 net.cpp:150] Setting up conv1_1
I0617 20:30:59.743700 19559 net.cpp:157] Top shape: 1 64 600 1000 (38400000)
I0617 20:30:59.743703 19559 net.cpp:165] Memory required for data: 175200108
I0617 20:30:59.743715 19559 layer_factory.hpp:77] Creating layer relu1_1
I0617 20:30:59.743732 19559 net.cpp:106] Creating Layer relu1_1
I0617 20:30:59.743736 19559 net.cpp:454] relu1_1 <- conv1_1
I0617 20:30:59.743738 19559 net.cpp:397] relu1_1 -> conv1_1 (in-place)
I0617 20:30:59.743861 19559 net.cpp:150] Setting up relu1_1
I0617 20:30:59.743867 19559 net.cpp:157] Top shape: 1 64 600 1000 (38400000)
I0617 20:30:59.743880 19559 net.cpp:165] Memory required for data: 328800108
I0617 20:30:59.743881 19559 layer_factory.hpp:77] Creating layer conv1_2
I0617 20:30:59.743888 19559 net.cpp:106] Creating Layer conv1_2
I0617 20:30:59.743890 19559 net.cpp:454] conv1_2 <- conv1_1
I0617 20:30:59.743893 19559 net.cpp:411] conv1_2 -> conv1_2
I0617 20:30:59.745941 19559 net.cpp:150] Setting up conv1_2
I0617 20:30:59.745967 19559 net.cpp:157] Top shape: 1 64 600 1000 (38400000)
I0617 20:30:59.745970 19559 net.cpp:165] Memory required for data: 482400108
I0617 20:30:59.745980 19559 layer_factory.hpp:77] Creating layer relu1_2
I0617 20:30:59.745985 19559 net.cpp:106] Creating Layer relu1_2
I0617 20:30:59.745998 19559 net.cpp:454] relu1_2 <- conv1_2
I0617 20:30:59.746001 19559 net.cpp:397] relu1_2 -> conv1_2 (in-place)
I0617 20:30:59.746121 19559 net.cpp:150] Setting up relu1_2
I0617 20:30:59.746126 19559 net.cpp:157] Top shape: 1 64 600 1000 (38400000)
I0617 20:30:59.746137 19559 net.cpp:165] Memory required for data: 636000108
I0617 20:30:59.746140 19559 layer_factory.hpp:77] Creating layer pool1
I0617 20:30:59.746146 19559 net.cpp:106] Creating Layer pool1
I0617 20:30:59.746158 19559 net.cpp:454] pool1 <- conv1_2
I0617 20:30:59.746162 19559 net.cpp:411] pool1 -> pool1
I0617 20:30:59.746193 19559 net.cpp:150] Setting up pool1
I0617 20:30:59.746197 19559 net.cpp:157] Top shape: 1 64 300 500 (9600000)
I0617 20:30:59.746199 19559 net.cpp:165] Memory required for data: 674400108
I0617 20:30:59.746201 19559 layer_factory.hpp:77] Creating layer conv2_1
I0617 20:30:59.746209 19559 net.cpp:106] Creating Layer conv2_1
I0617 20:30:59.746212 19559 net.cpp:454] conv2_1 <- pool1
I0617 20:30:59.746215 19559 net.cpp:411] conv2_1 -> conv2_1
I0617 20:30:59.747972 19559 net.cpp:150] Setting up conv2_1
I0617 20:30:59.747984 19559 net.cpp:157] Top shape: 1 128 300 500 (19200000)
I0617 20:30:59.747987 19559 net.cpp:165] Memory required for data: 751200108
I0617 20:30:59.748000 19559 layer_factory.hpp:77] Creating layer relu2_1
I0617 20:30:59.748008 19559 net.cpp:106] Creating Layer relu2_1
I0617 20:30:59.748011 19559 net.cpp:454] relu2_1 <- conv2_1
I0617 20:30:59.748016 19559 net.cpp:397] relu2_1 -> conv2_1 (in-place)
I0617 20:30:59.748481 19559 net.cpp:150] Setting up relu2_1
I0617 20:30:59.748488 19559 net.cpp:157] Top shape: 1 128 300 500 (19200000)
I0617 20:30:59.748492 19559 net.cpp:165] Memory required for data: 828000108
I0617 20:30:59.748497 19559 layer_factory.hpp:77] Creating layer conv2_2
I0617 20:30:59.748507 19559 net.cpp:106] Creating Layer conv2_2
I0617 20:30:59.748509 19559 net.cpp:454] conv2_2 <- conv2_1
I0617 20:30:59.748514 19559 net.cpp:411] conv2_2 -> conv2_2
I0617 20:30:59.749811 19559 net.cpp:150] Setting up conv2_2
I0617 20:30:59.749821 19559 net.cpp:157] Top shape: 1 128 300 500 (19200000)
I0617 20:30:59.749824 19559 net.cpp:165] Memory required for data: 904800108
I0617 20:30:59.749828 19559 layer_factory.hpp:77] Creating layer relu2_2
I0617 20:30:59.749832 19559 net.cpp:106] Creating Layer relu2_2
I0617 20:30:59.749835 19559 net.cpp:454] relu2_2 <- conv2_2
I0617 20:30:59.749837 19559 net.cpp:397] relu2_2 -> conv2_2 (in-place)
I0617 20:30:59.749945 19559 net.cpp:150] Setting up relu2_2
I0617 20:30:59.749950 19559 net.cpp:157] Top shape: 1 128 300 500 (19200000)
I0617 20:30:59.749953 19559 net.cpp:165] Memory required for data: 981600108
I0617 20:30:59.749955 19559 layer_factory.hpp:77] Creating layer pool2
I0617 20:30:59.749960 19559 net.cpp:106] Creating Layer pool2
I0617 20:30:59.749964 19559 net.cpp:454] pool2 <- conv2_2
I0617 20:30:59.749969 19559 net.cpp:411] pool2 -> pool2
I0617 20:30:59.749994 19559 net.cpp:150] Setting up pool2
I0617 20:30:59.749997 19559 net.cpp:157] Top shape: 1 128 150 250 (4800000)
I0617 20:30:59.749999 19559 net.cpp:165] Memory required for data: 1000800108
I0617 20:30:59.750000 19559 layer_factory.hpp:77] Creating layer conv3_1
I0617 20:30:59.750005 19559 net.cpp:106] Creating Layer conv3_1
I0617 20:30:59.750007 19559 net.cpp:454] conv3_1 <- pool2
I0617 20:30:59.750011 19559 net.cpp:411] conv3_1 -> conv3_1
I0617 20:30:59.751797 19559 net.cpp:150] Setting up conv3_1
I0617 20:30:59.751806 19559 net.cpp:157] Top shape: 1 256 150 250 (9600000)
I0617 20:30:59.751808 19559 net.cpp:165] Memory required for data: 1039200108
I0617 20:30:59.751816 19559 layer_factory.hpp:77] Creating layer relu3_1
I0617 20:30:59.751821 19559 net.cpp:106] Creating Layer relu3_1
I0617 20:30:59.751822 19559 net.cpp:454] relu3_1 <- conv3_1
I0617 20:30:59.751826 19559 net.cpp:397] relu3_1 -> conv3_1 (in-place)
I0617 20:30:59.751930 19559 net.cpp:150] Setting up relu3_1
I0617 20:30:59.751935 19559 net.cpp:157] Top shape: 1 256 150 250 (9600000)
I0617 20:30:59.751937 19559 net.cpp:165] Memory required for data: 1077600108
I0617 20:30:59.751940 19559 layer_factory.hpp:77] Creating layer conv3_2
I0617 20:30:59.751946 19559 net.cpp:106] Creating Layer conv3_2
I0617 20:30:59.751950 19559 net.cpp:454] conv3_2 <- conv3_1
I0617 20:30:59.751952 19559 net.cpp:411] conv3_2 -> conv3_2
I0617 20:30:59.753834 19559 net.cpp:150] Setting up conv3_2
I0617 20:30:59.753842 19559 net.cpp:157] Top shape: 1 256 150 250 (9600000)
I0617 20:30:59.753844 19559 net.cpp:165] Memory required for data: 1116000108
I0617 20:30:59.753849 19559 layer_factory.hpp:77] Creating layer relu3_2
I0617 20:30:59.753854 19559 net.cpp:106] Creating Layer relu3_2
I0617 20:30:59.753855 19559 net.cpp:454] relu3_2 <- conv3_2
I0617 20:30:59.753859 19559 net.cpp:397] relu3_2 -> conv3_2 (in-place)
I0617 20:30:59.753968 19559 net.cpp:150] Setting up relu3_2
I0617 20:30:59.753973 19559 net.cpp:157] Top shape: 1 256 150 250 (9600000)
I0617 20:30:59.753975 19559 net.cpp:165] Memory required for data: 1154400108
I0617 20:30:59.753978 19559 layer_factory.hpp:77] Creating layer conv3_3
I0617 20:30:59.753983 19559 net.cpp:106] Creating Layer conv3_3
I0617 20:30:59.753984 19559 net.cpp:454] conv3_3 <- conv3_2
I0617 20:30:59.753988 19559 net.cpp:411] conv3_3 -> conv3_3
I0617 20:30:59.756191 19559 net.cpp:150] Setting up conv3_3
I0617 20:30:59.756217 19559 net.cpp:157] Top shape: 1 256 150 250 (9600000)
I0617 20:30:59.756219 19559 net.cpp:165] Memory required for data: 1192800108
I0617 20:30:59.756227 19559 layer_factory.hpp:77] Creating layer relu3_3
I0617 20:30:59.756234 19559 net.cpp:106] Creating Layer relu3_3
I0617 20:30:59.756237 19559 net.cpp:454] relu3_3 <- conv3_3
I0617 20:30:59.756242 19559 net.cpp:397] relu3_3 -> conv3_3 (in-place)
I0617 20:30:59.756399 19559 net.cpp:150] Setting up relu3_3
I0617 20:30:59.756404 19559 net.cpp:157] Top shape: 1 256 150 250 (9600000)
I0617 20:30:59.756407 19559 net.cpp:165] Memory required for data: 1231200108
I0617 20:30:59.756408 19559 layer_factory.hpp:77] Creating layer pool3
I0617 20:30:59.756413 19559 net.cpp:106] Creating Layer pool3
I0617 20:30:59.756415 19559 net.cpp:454] pool3 <- conv3_3
I0617 20:30:59.756429 19559 net.cpp:411] pool3 -> pool3
I0617 20:30:59.756470 19559 net.cpp:150] Setting up pool3
I0617 20:30:59.756475 19559 net.cpp:157] Top shape: 1 256 75 125 (2400000)
I0617 20:30:59.756477 19559 net.cpp:165] Memory required for data: 1240800108
I0617 20:30:59.756479 19559 layer_factory.hpp:77] Creating layer conv4_1
I0617 20:30:59.756494 19559 net.cpp:106] Creating Layer conv4_1
I0617 20:30:59.756495 19559 net.cpp:454] conv4_1 <- pool3
I0617 20:30:59.756498 19559 net.cpp:411] conv4_1 -> conv4_1
I0617 20:30:59.764029 19559 net.cpp:150] Setting up conv4_1
I0617 20:30:59.764050 19559 net.cpp:157] Top shape: 1 512 75 125 (4800000)
I0617 20:30:59.764051 19559 net.cpp:165] Memory required for data: 1260000108
I0617 20:30:59.764060 19559 layer_factory.hpp:77] Creating layer relu4_1
I0617 20:30:59.764068 19559 net.cpp:106] Creating Layer relu4_1
I0617 20:30:59.764073 19559 net.cpp:454] relu4_1 <- conv4_1
I0617 20:30:59.764076 19559 net.cpp:397] relu4_1 -> conv4_1 (in-place)
I0617 20:30:59.764206 19559 net.cpp:150] Setting up relu4_1
I0617 20:30:59.764211 19559 net.cpp:157] Top shape: 1 512 75 125 (4800000)
I0617 20:30:59.764214 19559 net.cpp:165] Memory required for data: 1279200108
I0617 20:30:59.764216 19559 layer_factory.hpp:77] Creating layer conv4_2
I0617 20:30:59.764223 19559 net.cpp:106] Creating Layer conv4_2
I0617 20:30:59.764226 19559 net.cpp:454] conv4_2 <- conv4_1
I0617 20:30:59.764230 19559 net.cpp:411] conv4_2 -> conv4_2
I0617 20:30:59.768822 19559 net.cpp:150] Setting up conv4_2
I0617 20:30:59.768846 19559 net.cpp:157] Top shape: 1 512 75 125 (4800000)
I0617 20:30:59.768847 19559 net.cpp:165] Memory required for data: 1298400108
I0617 20:30:59.768858 19559 layer_factory.hpp:77] Creating layer relu4_2
I0617 20:30:59.768867 19559 net.cpp:106] Creating Layer relu4_2
I0617 20:30:59.768882 19559 net.cpp:454] relu4_2 <- conv4_2
I0617 20:30:59.768887 19559 net.cpp:397] relu4_2 -> conv4_2 (in-place)
I0617 20:30:59.769359 19559 net.cpp:150] Setting up relu4_2
I0617 20:30:59.769367 19559 net.cpp:157] Top shape: 1 512 75 125 (4800000)
I0617 20:30:59.769369 19559 net.cpp:165] Memory required for data: 1317600108
I0617 20:30:59.769371 19559 layer_factory.hpp:77] Creating layer conv4_3
I0617 20:30:59.769378 19559 net.cpp:106] Creating Layer conv4_3
I0617 20:30:59.769381 19559 net.cpp:454] conv4_3 <- conv4_2
I0617 20:30:59.769395 19559 net.cpp:411] conv4_3 -> conv4_3
I0617 20:30:59.773964 19559 net.cpp:150] Setting up conv4_3
I0617 20:30:59.773996 19559 net.cpp:157] Top shape: 1 512 75 125 (4800000)
I0617 20:30:59.773998 19559 net.cpp:165] Memory required for data: 1336800108
I0617 20:30:59.774006 19559 layer_factory.hpp:77] Creating layer relu4_3
I0617 20:30:59.774015 19559 net.cpp:106] Creating Layer relu4_3
I0617 20:30:59.774029 19559 net.cpp:454] relu4_3 <- conv4_3
I0617 20:30:59.774032 19559 net.cpp:397] relu4_3 -> conv4_3 (in-place)
I0617 20:30:59.774158 19559 net.cpp:150] Setting up relu4_3
I0617 20:30:59.774163 19559 net.cpp:157] Top shape: 1 512 75 125 (4800000)
I0617 20:30:59.774175 19559 net.cpp:165] Memory required for data: 1356000108
I0617 20:30:59.774178 19559 layer_factory.hpp:77] Creating layer pool4
I0617 20:30:59.774183 19559 net.cpp:106] Creating Layer pool4
I0617 20:30:59.774185 19559 net.cpp:454] pool4 <- conv4_3
I0617 20:30:59.774199 19559 net.cpp:411] pool4 -> pool4
I0617 20:30:59.774235 19559 net.cpp:150] Setting up pool4
I0617 20:30:59.774240 19559 net.cpp:157] Top shape: 1 512 38 63 (1225728)
I0617 20:30:59.774240 19559 net.cpp:165] Memory required for data: 1360903020
I0617 20:30:59.774251 19559 layer_factory.hpp:77] Creating layer conv5_1
I0617 20:30:59.774273 19559 net.cpp:106] Creating Layer conv5_1
I0617 20:30:59.774276 19559 net.cpp:454] conv5_1 <- pool4
I0617 20:30:59.774281 19559 net.cpp:411] conv5_1 -> conv5_1
I0617 20:30:59.778475 19559 net.cpp:150] Setting up conv5_1
I0617 20:30:59.778506 19559 net.cpp:157] Top shape: 1 512 38 63 (1225728)
I0617 20:30:59.778507 19559 net.cpp:165] Memory required for data: 1365805932
I0617 20:30:59.778515 19559 layer_factory.hpp:77] Creating layer relu5_1
I0617 20:30:59.778527 19559 net.cpp:106] Creating Layer relu5_1
I0617 20:30:59.778532 19559 net.cpp:454] relu5_1 <- conv5_1
I0617 20:30:59.778550 19559 net.cpp:397] relu5_1 -> conv5_1 (in-place)
I0617 20:30:59.778687 19559 net.cpp:150] Setting up relu5_1
I0617 20:30:59.778692 19559 net.cpp:157] Top shape: 1 512 38 63 (1225728)
I0617 20:30:59.778704 19559 net.cpp:165] Memory required for data: 1370708844
I0617 20:30:59.778707 19559 layer_factory.hpp:77] Creating layer conv5_2
I0617 20:30:59.778714 19559 net.cpp:106] Creating Layer conv5_2
I0617 20:30:59.778717 19559 net.cpp:454] conv5_2 <- conv5_1
I0617 20:30:59.778734 19559 net.cpp:411] conv5_2 -> conv5_2
I0617 20:30:59.782858 19559 net.cpp:150] Setting up conv5_2
I0617 20:30:59.782877 19559 net.cpp:157] Top shape: 1 512 38 63 (1225728)
I0617 20:30:59.782879 19559 net.cpp:165] Memory required for data: 1375611756
I0617 20:30:59.782886 19559 layer_factory.hpp:77] Creating layer relu5_2
I0617 20:30:59.782893 19559 net.cpp:106] Creating Layer relu5_2
I0617 20:30:59.782897 19559 net.cpp:454] relu5_2 <- conv5_2
I0617 20:30:59.782903 19559 net.cpp:397] relu5_2 -> conv5_2 (in-place)
I0617 20:30:59.783037 19559 net.cpp:150] Setting up relu5_2
I0617 20:30:59.783043 19559 net.cpp:157] Top shape: 1 512 38 63 (1225728)
I0617 20:30:59.783044 19559 net.cpp:165] Memory required for data: 1380514668
I0617 20:30:59.783046 19559 layer_factory.hpp:77] Creating layer conv5_3
I0617 20:30:59.783056 19559 net.cpp:106] Creating Layer conv5_3
I0617 20:30:59.783057 19559 net.cpp:454] conv5_3 <- conv5_2
I0617 20:30:59.783063 19559 net.cpp:411] conv5_3 -> conv5_3
I0617 20:30:59.787276 19559 net.cpp:150] Setting up conv5_3
I0617 20:30:59.787295 19559 net.cpp:157] Top shape: 1 512 38 63 (1225728)
I0617 20:30:59.787297 19559 net.cpp:165] Memory required for data: 1385417580
I0617 20:30:59.787304 19559 layer_factory.hpp:77] Creating layer relu5_3
I0617 20:30:59.787312 19559 net.cpp:106] Creating Layer relu5_3
I0617 20:30:59.787317 19559 net.cpp:454] relu5_3 <- conv5_3
I0617 20:30:59.787322 19559 net.cpp:397] relu5_3 -> conv5_3 (in-place)
I0617 20:30:59.787453 19559 net.cpp:150] Setting up relu5_3
I0617 20:30:59.787458 19559 net.cpp:157] Top shape: 1 512 38 63 (1225728)
I0617 20:30:59.787461 19559 net.cpp:165] Memory required for data: 1390320492
I0617 20:30:59.787462 19559 layer_factory.hpp:77] Creating layer conv5_3_relu5_3_0_split
I0617 20:30:59.787465 19559 net.cpp:106] Creating Layer conv5_3_relu5_3_0_split
I0617 20:30:59.787467 19559 net.cpp:454] conv5_3_relu5_3_0_split <- conv5_3
I0617 20:30:59.787470 19559 net.cpp:411] conv5_3_relu5_3_0_split -> conv5_3_relu5_3_0_split_0
I0617 20:30:59.787477 19559 net.cpp:411] conv5_3_relu5_3_0_split -> conv5_3_relu5_3_0_split_1
I0617 20:30:59.787492 19559 net.cpp:411] conv5_3_relu5_3_0_split -> conv5_3_relu5_3_0_split_2
I0617 20:30:59.787533 19559 net.cpp:150] Setting up conv5_3_relu5_3_0_split
I0617 20:30:59.787537 19559 net.cpp:157] Top shape: 1 512 38 63 (1225728)
I0617 20:30:59.787539 19559 net.cpp:157] Top shape: 1 512 38 63 (1225728)
I0617 20:30:59.787541 19559 net.cpp:157] Top shape: 1 512 38 63 (1225728)
I0617 20:30:59.787542 19559 net.cpp:165] Memory required for data: 1405029228
I0617 20:30:59.787544 19559 layer_factory.hpp:77] Creating layer rpn_conv/3x3
I0617 20:30:59.787551 19559 net.cpp:106] Creating Layer rpn_conv/3x3
I0617 20:30:59.787554 19559 net.cpp:454] rpn_conv/3x3 <- conv5_3_relu5_3_0_split_0
I0617 20:30:59.787557 19559 net.cpp:411] rpn_conv/3x3 -> rpn/output
I0617 20:30:59.836781 19559 net.cpp:150] Setting up rpn_conv/3x3
I0617 20:30:59.836799 19559 net.cpp:157] Top shape: 1 512 38 63 (1225728)
I0617 20:30:59.836802 19559 net.cpp:165] Memory required for data: 1409932140
I0617 20:30:59.836807 19559 layer_factory.hpp:77] Creating layer rpn_relu/3x3
I0617 20:30:59.836814 19559 net.cpp:106] Creating Layer rpn_relu/3x3
I0617 20:30:59.836817 19559 net.cpp:454] rpn_relu/3x3 <- rpn/output
I0617 20:30:59.836822 19559 net.cpp:397] rpn_relu/3x3 -> rpn/output (in-place)
I0617 20:30:59.836953 19559 net.cpp:150] Setting up rpn_relu/3x3
I0617 20:30:59.836959 19559 net.cpp:157] Top shape: 1 512 38 63 (1225728)
I0617 20:30:59.836961 19559 net.cpp:165] Memory required for data: 1414835052
I0617 20:30:59.836963 19559 layer_factory.hpp:77] Creating layer rpn/output_rpn_relu/3x3_0_split
I0617 20:30:59.836966 19559 net.cpp:106] Creating Layer rpn/output_rpn_relu/3x3_0_split
I0617 20:30:59.836968 19559 net.cpp:454] rpn/output_rpn_relu/3x3_0_split <- rpn/output
I0617 20:30:59.836971 19559 net.cpp:411] rpn/output_rpn_relu/3x3_0_split -> rpn/output_rpn_relu/3x3_0_split_0
I0617 20:30:59.836974 19559 net.cpp:411] rpn/output_rpn_relu/3x3_0_split -> rpn/output_rpn_relu/3x3_0_split_1
I0617 20:30:59.837009 19559 net.cpp:150] Setting up rpn/output_rpn_relu/3x3_0_split
I0617 20:30:59.837021 19559 net.cpp:157] Top shape: 1 512 38 63 (1225728)
I0617 20:30:59.837023 19559 net.cpp:157] Top shape: 1 512 38 63 (1225728)
I0617 20:30:59.837025 19559 net.cpp:165] Memory required for data: 1424640876
I0617 20:30:59.837026 19559 layer_factory.hpp:77] Creating layer rpn_cls_score
I0617 20:30:59.837045 19559 net.cpp:106] Creating Layer rpn_cls_score
I0617 20:30:59.837047 19559 net.cpp:454] rpn_cls_score <- rpn/output_rpn_relu/3x3_0_split_0
I0617 20:30:59.837059 19559 net.cpp:411] rpn_cls_score -> rpn_cls_score
I0617 20:30:59.838574 19559 net.cpp:150] Setting up rpn_cls_score
I0617 20:30:59.838582 19559 net.cpp:157] Top shape: 1 30 38 63 (71820)
I0617 20:30:59.838584 19559 net.cpp:165] Memory required for data: 1424928156
I0617 20:30:59.838588 19559 layer_factory.hpp:77] Creating layer rpn_cls_score_rpn_cls_score_0_split
I0617 20:30:59.838593 19559 net.cpp:106] Creating Layer rpn_cls_score_rpn_cls_score_0_split
I0617 20:30:59.838594 19559 net.cpp:454] rpn_cls_score_rpn_cls_score_0_split <- rpn_cls_score
I0617 20:30:59.838598 19559 net.cpp:411] rpn_cls_score_rpn_cls_score_0_split -> rpn_cls_score_rpn_cls_score_0_split_0
I0617 20:30:59.838601 19559 net.cpp:411] rpn_cls_score_rpn_cls_score_0_split -> rpn_cls_score_rpn_cls_score_0_split_1
I0617 20:30:59.838647 19559 net.cpp:150] Setting up rpn_cls_score_rpn_cls_score_0_split
I0617 20:30:59.838651 19559 net.cpp:157] Top shape: 1 30 38 63 (71820)
I0617 20:30:59.838665 19559 net.cpp:157] Top shape: 1 30 38 63 (71820)
I0617 20:30:59.838665 19559 net.cpp:165] Memory required for data: 1425502716
I0617 20:30:59.838667 19559 layer_factory.hpp:77] Creating layer rpn_bbox_pred
I0617 20:30:59.838683 19559 net.cpp:106] Creating Layer rpn_bbox_pred
I0617 20:30:59.838686 19559 net.cpp:454] rpn_bbox_pred <- rpn/output_rpn_relu/3x3_0_split_1
I0617 20:30:59.838702 19559 net.cpp:411] rpn_bbox_pred -> rpn_bbox_pred
I0617 20:30:59.840137 19559 net.cpp:150] Setting up rpn_bbox_pred
I0617 20:30:59.840143 19559 net.cpp:157] Top shape: 1 60 38 63 (143640)
I0617 20:30:59.840145 19559 net.cpp:165] Memory required for data: 1426077276
I0617 20:30:59.840149 19559 layer_factory.hpp:77] Creating layer rpn_bbox_pred_rpn_bbox_pred_0_split
I0617 20:30:59.840152 19559 net.cpp:106] Creating Layer rpn_bbox_pred_rpn_bbox_pred_0_split
I0617 20:30:59.840154 19559 net.cpp:454] rpn_bbox_pred_rpn_bbox_pred_0_split <- rpn_bbox_pred
I0617 20:30:59.840158 19559 net.cpp:411] rpn_bbox_pred_rpn_bbox_pred_0_split -> rpn_bbox_pred_rpn_bbox_pred_0_split_0
I0617 20:30:59.840162 19559 net.cpp:411] rpn_bbox_pred_rpn_bbox_pred_0_split -> rpn_bbox_pred_rpn_bbox_pred_0_split_1
I0617 20:30:59.840206 19559 net.cpp:150] Setting up rpn_bbox_pred_rpn_bbox_pred_0_split
I0617 20:30:59.840210 19559 net.cpp:157] Top shape: 1 60 38 63 (143640)
I0617 20:30:59.840224 19559 net.cpp:157] Top shape: 1 60 38 63 (143640)
I0617 20:30:59.840225 19559 net.cpp:165] Memory required for data: 1427226396
I0617 20:30:59.840227 19559 layer_factory.hpp:77] Creating layer rpn_cls_score_reshape
I0617 20:30:59.840245 19559 net.cpp:106] Creating Layer rpn_cls_score_reshape
I0617 20:30:59.840246 19559 net.cpp:454] rpn_cls_score_reshape <- rpn_cls_score_rpn_cls_score_0_split_0
I0617 20:30:59.840250 19559 net.cpp:411] rpn_cls_score_reshape -> rpn_cls_score_reshape
I0617 20:30:59.840274 19559 net.cpp:150] Setting up rpn_cls_score_reshape
I0617 20:30:59.840287 19559 net.cpp:157] Top shape: 1 2 570 63 (71820)
I0617 20:30:59.840288 19559 net.cpp:165] Memory required for data: 1427513676
I0617 20:30:59.840291 19559 layer_factory.hpp:77] Creating layer rpn_cls_score_reshape_rpn_cls_score_reshape_0_split
I0617 20:30:59.840293 19559 net.cpp:106] Creating Layer rpn_cls_score_reshape_rpn_cls_score_reshape_0_split
I0617 20:30:59.840306 19559 net.cpp:454] rpn_cls_score_reshape_rpn_cls_score_reshape_0_split <- rpn_cls_score_reshape
I0617 20:30:59.840308 19559 net.cpp:411] rpn_cls_score_reshape_rpn_cls_score_reshape_0_split -> rpn_cls_score_reshape_rpn_cls_score_reshape_0_split_0
I0617 20:30:59.840312 19559 net.cpp:411] rpn_cls_score_reshape_rpn_cls_score_reshape_0_split -> rpn_cls_score_reshape_rpn_cls_score_reshape_0_split_1
I0617 20:30:59.840344 19559 net.cpp:150] Setting up rpn_cls_score_reshape_rpn_cls_score_reshape_0_split
I0617 20:30:59.840348 19559 net.cpp:157] Top shape: 1 2 570 63 (71820)
I0617 20:30:59.840349 19559 net.cpp:157] Top shape: 1 2 570 63 (71820)
I0617 20:30:59.840351 19559 net.cpp:165] Memory required for data: 1428088236
I0617 20:30:59.840353 19559 layer_factory.hpp:77] Creating layer rpn-data
I0617 20:30:59.840651 19559 net.cpp:106] Creating Layer rpn-data
I0617 20:30:59.840657 19559 net.cpp:454] rpn-data <- rpn_cls_score_rpn_cls_score_0_split_1
I0617 20:30:59.840662 19559 net.cpp:454] rpn-data <- gt_boxes_input-data_2_split_0
I0617 20:30:59.840663 19559 net.cpp:454] rpn-data <- im_info_input-data_1_split_0
I0617 20:30:59.840667 19559 net.cpp:454] rpn-data <- data_input-data_0_split_1
I0617 20:30:59.840669 19559 net.cpp:411] rpn-data -> rpn_labels
I0617 20:30:59.840673 19559 net.cpp:411] rpn-data -> rpn_bbox_targets
I0617 20:30:59.840679 19559 net.cpp:411] rpn-data -> rpn_bbox_inside_weights
I0617 20:30:59.840684 19559 net.cpp:411] rpn-data -> rpn_bbox_outside_weights
===================================anchor_scales in AnchorTargetLayer:=============(2, 4, 8, 16, 32)
I0617 20:30:59.841491 19559 net.cpp:150] Setting up rpn-data
I0617 20:30:59.841500 19559 net.cpp:157] Top shape: 1 1 570 63 (35910)
I0617 20:30:59.841501 19559 net.cpp:157] Top shape: 1 60 38 63 (143640)
I0617 20:30:59.841503 19559 net.cpp:157] Top shape: 1 60 38 63 (143640)
I0617 20:30:59.841506 19559 net.cpp:157] Top shape: 1 60 38 63 (143640)
I0617 20:30:59.841506 19559 net.cpp:165] Memory required for data: 1429955556
I0617 20:30:59.841508 19559 layer_factory.hpp:77] Creating layer rpn_loss_cls
I0617 20:30:59.841513 19559 net.cpp:106] Creating Layer rpn_loss_cls
I0617 20:30:59.841516 19559 net.cpp:454] rpn_loss_cls <- rpn_cls_score_reshape_rpn_cls_score_reshape_0_split_0
I0617 20:30:59.841521 19559 net.cpp:454] rpn_loss_cls <- rpn_labels
…
I0617 20:30:59.843173 19559 net.cpp:157] Top shape: (1)
I0617 20:30:59.843175 19559 net.cpp:160]     with loss weight 1
I0617 20:30:59.843178 19559 net.cpp:165] Memory required for data: 1429955564
I0617 20:30:59.843180 19559 layer_factory.hpp:77] Creating layer rpn_cls_prob
I0617 20:30:59.843184 19559 net.cpp:106] Creating Layer rpn_cls_prob
I0617 20:30:59.843189 19559 net.cpp:454] rpn_cls_prob <- rpn_cls_score_reshape_rpn_cls_score_reshape_0_split_1
I0617 20:30:59.843192 19559 net.cpp:411] rpn_cls_prob -> rpn_cls_prob
I0617 20:30:59.843340 19559 net.cpp:150] Setting up rpn_cls_prob
I0617 20:30:59.843345 19559 net.cpp:157] Top shape: 1 2 570 63 (71820)
I0617 20:30:59.843348 19559 net.cpp:165] Memory required for data: 1430242844
I0617 20:30:59.843350 19559 layer_factory.hpp:77] Creating layer rpn_cls_prob_reshape
I0617 20:30:59.843353 19559 net.cpp:106] Creating Layer rpn_cls_prob_reshape
I0617 20:30:59.843356 19559 net.cpp:454] rpn_cls_prob_reshape <- rpn_cls_prob
I0617 20:30:59.843360 19559 net.cpp:411] rpn_cls_prob_reshape -> rpn_cls_prob_reshape
I0617 20:30:59.843381 19559 net.cpp:150] Setting up rpn_cls_prob_reshape
I0617 20:30:59.843384 19559 net.cpp:157] Top shape: 1 30 38 63 (71820)
I0617 20:30:59.843386 19559 net.cpp:165] Memory required for data: 1430530124
I0617 20:30:59.843387 19559 layer_factory.hpp:77] Creating layer proposal
I0617 20:30:59.843791 19559 net.cpp:106] Creating Layer proposal
I0617 20:30:59.843798 19559 net.cpp:454] proposal <- rpn_cls_prob_reshape
I0617 20:30:59.843801 19559 net.cpp:454] proposal <- rpn_bbox_pred_rpn_bbox_pred_0_split_1
I0617 20:30:59.843803 19559 net.cpp:454] proposal <- im_info_input-data_1_split_1
I0617 20:30:59.843806 19559 net.cpp:411] proposal -> rpn_rois
=================================anchor_scales in ProposalLayer:=============(2, 4, 8, 16, 32)
I0617 20:30:59.844522 19559 net.cpp:150] Setting up proposal
I0617 20:30:59.844530 19559 net.cpp:157] Top shape: 1 5 (5)
I0617 20:30:59.844532 19559 net.cpp:165] Memory required for data: 1430530144
I0617 20:30:59.844534 19559 layer_factory.hpp:77] Creating layer roi-data
I0617 20:30:59.844708 19559 net.cpp:106] Creating Layer roi-data
I0617 20:30:59.844714 19559 net.cpp:454] roi-data <- rpn_rois
I0617 20:30:59.844717 19559 net.cpp:454] roi-data <- gt_boxes_input-data_2_split_1
I0617 20:30:59.844720 19559 net.cpp:454] roi-data <- im_info_input-data_1_split_2
I0617 20:30:59.844722 19559 net.cpp:454] roi-data <- seg_mask_inds
I0617 20:30:59.844724 19559 net.cpp:454] roi-data <- flipped
I0617 20:30:59.844727 19559 net.cpp:411] roi-data -> rois
I0617 20:30:59.844732 19559 net.cpp:411] roi-data -> labels
I0617 20:30:59.844738 19559 net.cpp:411] roi-data -> bbox_targets
I0617 20:30:59.844741 19559 net.cpp:411] roi-data -> bbox_inside_weights
I0617 20:30:59.844744 19559 net.cpp:411] roi-data -> bbox_outside_weights
I0617 20:30:59.844749 19559 net.cpp:411] roi-data -> mask_targets
I0617 20:30:59.844753 19559 net.cpp:411] roi-data -> rois_pos
I0617 20:30:59.844758 19559 net.cpp:411] roi-data -> attrArray
I0617 20:30:59.844761 19559 net.cpp:411] roi-data -> attrArrayInd
I0617 20:30:59.844765 19559 net.cpp:411] roi-data -> attrArrayShift
I0617 20:30:59.845023 19559 net.cpp:150] Setting up roi-data
I0617 20:30:59.845029 19559 net.cpp:157] Top shape: 1 5 (5)
I0617 20:30:59.845032 19559 net.cpp:157] Top shape: 1 1 (1)
I0617 20:30:59.845036 19559 net.cpp:157] Top shape: 1 8 (8)
I0617 20:30:59.845036 19559 net.cpp:157] Top shape: 1 8 (8)
I0617 20:30:59.845038 19559 net.cpp:157] Top shape: 1 8 (8)
I0617 20:30:59.845041 19559 net.cpp:157] Top shape: 1 244 244 (59536)
I0617 20:30:59.845042 19559 net.cpp:157] Top shape: 1 5 (5)
I0617 20:30:59.845044 19559 net.cpp:157] Top shape: 1 7 (7)
I0617 20:30:59.845046 19559 net.cpp:157] Top shape: 1 7 (7)
I0617 20:30:59.845048 19559 net.cpp:157] Top shape: 1 7 (7)
I0617 20:30:59.845049 19559 net.cpp:165] Memory required for data: 1430768512
I0617 20:30:59.845052 19559 layer_factory.hpp:77] Creating layer mask_targets_roi-data_5_split
I0617 20:30:59.845055 19559 net.cpp:106] Creating Layer mask_targets_roi-data_5_split
I0617 20:30:59.845057 19559 net.cpp:454] mask_targets_roi-data_5_split <- mask_targets
I0617 20:30:59.845060 19559 net.cpp:411] mask_targets_roi-data_5_split -> mask_targets_roi-data_5_split_0
I0617 20:30:59.845064 19559 net.cpp:411] mask_targets_roi-data_5_split -> mask_targets_roi-data_5_split_1
I0617 20:30:59.845090 19559 net.cpp:150] Setting up mask_targets_roi-data_5_split
I0617 20:30:59.845094 19559 net.cpp:157] Top shape: 1 244 244 (59536)
I0617 20:30:59.845098 19559 net.cpp:157] Top shape: 1 244 244 (59536)
I0617 20:30:59.845099 19559 net.cpp:165] Memory required for data: 1431244800
I0617 20:30:59.845100 19559 layer_factory.hpp:77] Creating layer roi_pool5
I0617 20:30:59.845108 19559 net.cpp:106] Creating Layer roi_pool5
I0617 20:30:59.845110 19559 net.cpp:454] roi_pool5 <- conv5_3_relu5_3_0_split_1
I0617 20:30:59.845113 19559 net.cpp:454] roi_pool5 <- rois
I0617 20:30:59.845115 19559 net.cpp:411] roi_pool5 -> pool5
I0617 20:30:59.845120 19559 roi_alignment_layer.cpp:32] Spatial scale: 0.0625
I0617 20:30:59.845181 19559 net.cpp:150] Setting up roi_pool5
I0617 20:30:59.845185 19559 net.cpp:157] Top shape: 1 512 7 7 (25088)
I0617 20:30:59.845186 19559 net.cpp:165] Memory required for data: 1431345152
I0617 20:30:59.845188 19559 layer_factory.hpp:77] Creating layer fc6
I0617 20:30:59.845192 19559 net.cpp:106] Creating Layer fc6
I0617 20:30:59.845196 19559 net.cpp:454] fc6 <- pool5
I0617 20:30:59.845198 19559 net.cpp:411] fc6 -> fc6
I0617 20:30:59.983584 19559 net.cpp:150] Setting up fc6
I0617 20:30:59.983623 19559 net.cpp:157] Top shape: 1 4096 (4096)
I0617 20:30:59.983624 19559 net.cpp:165] Memory required for data: 1431361536
I0617 20:30:59.983639 19559 layer_factory.hpp:77] Creating layer relu6
I0617 20:30:59.983649 19559 net.cpp:106] Creating Layer relu6
I0617 20:30:59.983652 19559 net.cpp:454] relu6 <- fc6
I0617 20:30:59.983655 19559 net.cpp:397] relu6 -> fc6 (in-place)
I0617 20:30:59.983845 19559 net.cpp:150] Setting up relu6
I0617 20:30:59.983851 19559 net.cpp:157] Top shape: 1 4096 (4096)
I0617 20:30:59.983852 19559 net.cpp:165] Memory required for data: 1431377920
I0617 20:30:59.983865 19559 layer_factory.hpp:77] Creating layer fc7
I0617 20:30:59.983870 19559 net.cpp:106] Creating Layer fc7
I0617 20:30:59.983871 19559 net.cpp:454] fc7 <- fc6
I0617 20:30:59.983875 19559 net.cpp:411] fc7 -> fc7
I0617 20:31:00.007117 19559 net.cpp:150] Setting up fc7
I0617 20:31:00.007138 19559 net.cpp:157] Top shape: 1 4096 (4096)
I0617 20:31:00.007140 19559 net.cpp:165] Memory required for data: 1431394304
I0617 20:31:00.007148 19559 layer_factory.hpp:77] Creating layer relu7
I0617 20:31:00.007165 19559 net.cpp:106] Creating Layer relu7
I0617 20:31:00.007170 19559 net.cpp:454] relu7 <- fc7
I0617 20:31:00.007185 19559 net.cpp:397] relu7 -> fc7 (in-place)
I0617 20:31:00.007361 19559 net.cpp:150] Setting up relu7
I0617 20:31:00.007366 19559 net.cpp:157] Top shape: 1 4096 (4096)
I0617 20:31:00.007369 19559 net.cpp:165] Memory required for data: 1431410688
I0617 20:31:00.007370 19559 layer_factory.hpp:77] Creating layer fc7_relu7_0_split
I0617 20:31:00.007375 19559 net.cpp:106] Creating Layer fc7_relu7_0_split
I0617 20:31:00.007376 19559 net.cpp:454] fc7_relu7_0_split <- fc7
I0617 20:31:00.007380 19559 net.cpp:411] fc7_relu7_0_split -> fc7_relu7_0_split_0
I0617 20:31:00.007383 19559 net.cpp:411] fc7_relu7_0_split -> fc7_relu7_0_split_1
I0617 20:31:00.007397 19559 net.cpp:411] fc7_relu7_0_split -> fc7_relu7_0_split_2
I0617 20:31:00.007457 19559 net.cpp:150] Setting up fc7_relu7_0_split
I0617 20:31:00.007459 19559 net.cpp:157] Top shape: 1 4096 (4096)
I0617 20:31:00.007462 19559 net.cpp:157] Top shape: 1 4096 (4096)
I0617 20:31:00.007463 19559 net.cpp:157] Top shape: 1 4096 (4096)
I0617 20:31:00.007465 19559 net.cpp:165] Memory required for data: 1431459840
I0617 20:31:00.007467 19559 layer_factory.hpp:77] Creating layer attr_score
I0617 20:31:00.007473 19559 net.cpp:106] Creating Layer attr_score
I0617 20:31:00.007475 19559 net.cpp:454] attr_score <- fc7_relu7_0_split_0
I0617 20:31:00.007478 19559 net.cpp:411] attr_score -> attr_score
I0617 20:31:00.008131 19559 net.cpp:150] Setting up attr_score
I0617 20:31:00.008136 19559 net.cpp:157] Top shape: 1 7 (7)
I0617 20:31:00.008136 19559 net.cpp:165] Memory required for data: 1431459868
I0617 20:31:00.008141 19559 layer_factory.hpp:77] Creating layer attr_score_pos
I0617 20:31:00.008144 19559 net.cpp:106] Creating Layer attr_score_pos
I0617 20:31:00.008147 19559 net.cpp:454] attr_score_pos <- attr_score
I0617 20:31:00.008149 19559 net.cpp:454] attr_score_pos <- attrArrayInd
I0617 20:31:00.008153 19559 net.cpp:411] attr_score_pos -> attr_score_pos
I0617 20:31:00.008181 19559 net.cpp:150] Setting up attr_score_pos
I0617 20:31:00.008195 19559 net.cpp:157] Top shape: 1 7 (7)
I0617 20:31:00.008196 19559 net.cpp:165] Memory required for data: 1431459896
I0617 20:31:00.008198 19559 layer_factory.hpp:77] Creating layer attr_score_pos_shift
I0617 20:31:00.008201 19559 net.cpp:106] Creating Layer attr_score_pos_shift
I0617 20:31:00.008203 19559 net.cpp:454] attr_score_pos_shift <- attr_score_pos
I0617 20:31:00.008217 19559 net.cpp:454] attr_score_pos_shift <- attrArrayShift
I0617 20:31:00.008219 19559 net.cpp:411] attr_score_pos_shift -> attr_score_pos_shift
I0617 20:31:00.008255 19559 net.cpp:150] Setting up attr_score_pos_shift
I0617 20:31:00.008260 19559 net.cpp:157] Top shape: 1 7 (7)
I0617 20:31:00.008260 19559 net.cpp:165] Memory required for data: 1431459924
I0617 20:31:00.008273 19559 layer_factory.hpp:77] Creating layer cls_score
I0617 20:31:00.008277 19559 net.cpp:106] Creating Layer cls_score
I0617 20:31:00.008280 19559 net.cpp:454] cls_score <- fc7_relu7_0_split_1
I0617 20:31:00.008292 19559 net.cpp:411] cls_score -> cls_score
I0617 20:31:00.008553 19559 net.cpp:150] Setting up cls_score
I0617 20:31:00.008558 19559 net.cpp:157] Top shape: 1 2 (2)
I0617 20:31:00.008558 19559 net.cpp:165] Memory required for data: 1431459932
I0617 20:31:00.008561 19559 layer_factory.hpp:77] Creating layer bbox_pred
I0617 20:31:00.008565 19559 net.cpp:106] Creating Layer bbox_pred
I0617 20:31:00.008568 19559 net.cpp:454] bbox_pred <- fc7_relu7_0_split_2
I0617 20:31:00.008571 19559 net.cpp:411] bbox_pred -> bbox_pred
I0617 20:31:00.009306 19559 net.cpp:150] Setting up bbox_pred
I0617 20:31:00.009310 19559 net.cpp:157] Top shape: 1 8 (8)
I0617 20:31:00.009311 19559 net.cpp:165] Memory required for data: 1431459964
I0617 20:31:00.009315 19559 layer_factory.hpp:77] Creating layer loss_attribute
I0617 20:31:00.009318 19559 net.cpp:106] Creating Layer loss_attribute
I0617 20:31:00.009320 19559 net.cpp:454] loss_attribute <- attr_score_pos_shift
I0617 20:31:00.009322 19559 net.cpp:454] loss_attribute <- attrArray
I0617 20:31:00.009325 19559 net.cpp:411] loss_attribute -> loss_attribute
…
I0617 20:31:00.010339 19559 net.cpp:165] Memory required for data: 1431459976
I0617 20:31:00.010339 19559 layer_factory.hpp:77] Creating layer roi_pool5_2
I0617 20:31:00.010344 19559 net.cpp:106] Creating Layer roi_pool5_2
I0617 20:31:00.010346 19559 net.cpp:454] roi_pool5_2 <- conv5_3_relu5_3_0_split_2
I0617 20:31:00.010358 19559 net.cpp:454] roi_pool5_2 <- rois_pos
I0617 20:31:00.010362 19559 net.cpp:411] roi_pool5_2 -> pool5_2
I0617 20:31:00.010366 19559 roi_alignment_layer.cpp:32] Spatial scale: 0.0625
I0617 20:31:00.010430 19559 net.cpp:150] Setting up roi_pool5_2
I0617 20:31:00.010434 19559 net.cpp:157] Top shape: 1 512 7 7 (25088)
I0617 20:31:00.010437 19559 net.cpp:165] Memory required for data: 1431560328
I0617 20:31:00.010438 19559 layer_factory.hpp:77] Creating layer pool5_2_conv
I0617 20:31:00.010445 19559 net.cpp:106] Creating Layer pool5_2_conv
I0617 20:31:00.010449 19559 net.cpp:454] pool5_2_conv <- pool5_2
I0617 20:31:00.010457 19559 net.cpp:411] pool5_2_conv -> pool5_2_conv
I0617 20:31:00.017153 19559 net.cpp:150] Setting up pool5_2_conv
I0617 20:31:00.017163 19559 net.cpp:157] Top shape: 1 512 7 7 (25088)
I0617 20:31:00.017164 19559 net.cpp:165] Memory required for data: 1431660680
I0617 20:31:00.017168 19559 layer_factory.hpp:77] Creating layer pool5_2_conv_relu
I0617 20:31:00.017174 19559 net.cpp:106] Creating Layer pool5_2_conv_relu
I0617 20:31:00.017175 19559 net.cpp:454] pool5_2_conv_relu <- pool5_2_conv
I0617 20:31:00.017181 19559 net.cpp:411] pool5_2_conv_relu -> pool5_2_conv_relu
I0617 20:31:00.017329 19559 net.cpp:150] Setting up pool5_2_conv_relu
I0617 20:31:00.017335 19559 net.cpp:157] Top shape: 1 512 7 7 (25088)
I0617 20:31:00.017338 19559 net.cpp:165] Memory required for data: 1431761032
I0617 20:31:00.017339 19559 layer_factory.hpp:77] Creating layer pool5_2_conv2
I0617 20:31:00.017345 19559 net.cpp:106] Creating Layer pool5_2_conv2
I0617 20:31:00.017347 19559 net.cpp:454] pool5_2_conv2 <- pool5_2_conv_relu
I0617 20:31:00.017352 19559 net.cpp:411] pool5_2_conv2 -> pool5_2_conv2
I0617 20:31:00.067167 19559 net.cpp:150] Setting up pool5_2_conv2
I0617 20:31:00.067185 19559 net.cpp:157] Top shape: 1 512 7 7 (25088)
I0617 20:31:00.067188 19559 net.cpp:165] Memory required for data: 1431861384
I0617 20:31:00.067194 19559 layer_factory.hpp:77] Creating layer pool5_2_conv2_relu
I0617 20:31:00.067201 19559 net.cpp:106] Creating Layer pool5_2_conv2_relu
I0617 20:31:00.067205 19559 net.cpp:454] pool5_2_conv2_relu <- pool5_2_conv2
I0617 20:31:00.067211 19559 net.cpp:411] pool5_2_conv2_relu -> pool5_2_conv2_relu
I0617 20:31:00.067370 19559 net.cpp:150] Setting up pool5_2_conv2_relu
I0617 20:31:00.067376 19559 net.cpp:157] Top shape: 1 512 7 7 (25088)
I0617 20:31:00.067378 19559 net.cpp:165] Memory required for data: 1431961736
I0617 20:31:00.067380 19559 layer_factory.hpp:77] Creating layer mask_deconv1
I0617 20:31:00.067386 19559 net.cpp:106] Creating Layer mask_deconv1
I0617 20:31:00.067389 19559 net.cpp:454] mask_deconv1 <- pool5_2_conv2_relu
I0617 20:31:00.067394 19559 net.cpp:411] mask_deconv1 -> mask_deconv1
I0617 20:31:00.068161 19559 net.cpp:150] Setting up mask_deconv1
I0617 20:31:00.068166 19559 net.cpp:157] Top shape: 1 256 30 30 (230400)
I0617 20:31:00.068167 19559 net.cpp:165] Memory required for data: 1432883336
I0617 20:31:00.068171 19559 layer_factory.hpp:77] Creating layer pool5_2_conv3
I0617 20:31:00.068176 19559 net.cpp:106] Creating Layer pool5_2_conv3
I0617 20:31:00.068178 19559 net.cpp:454] pool5_2_conv3 <- mask_deconv1
I0617 20:31:00.068182 19559 net.cpp:411] pool5_2_conv3 -> pool5_2_conv3
I0617 20:31:00.096206 19559 net.cpp:150] Setting up pool5_2_conv3
I0617 20:31:00.096225 19559 net.cpp:157] Top shape: 1 512 30 30 (460800)
I0617 20:31:00.096226 19559 net.cpp:165] Memory required for data: 1434726536
I0617 20:31:00.096233 19559 layer_factory.hpp:77] Creating layer pool5_2_conv3_relu
I0617 20:31:00.096241 19559 net.cpp:106] Creating Layer pool5_2_conv3_relu
I0617 20:31:00.096246 19559 net.cpp:454] pool5_2_conv3_relu <- pool5_2_conv3
I0617 20:31:00.096253 19559 net.cpp:411] pool5_2_conv3_relu -> pool5_2_conv3_relu
I0617 20:31:00.096395 19559 net.cpp:150] Setting up pool5_2_conv3_relu
I0617 20:31:00.096402 19559 net.cpp:157] Top shape: 1 512 30 30 (460800)
I0617 20:31:00.096405 19559 net.cpp:165] Memory required for data: 1436569736
I0617 20:31:00.096406 19559 layer_factory.hpp:77] Creating layer pool5_2_conv4
I0617 20:31:00.096415 19559 net.cpp:106] Creating Layer pool5_2_conv4
I0617 20:31:00.096416 19559 net.cpp:454] pool5_2_conv4 <- pool5_2_conv3_relu
I0617 20:31:00.096423 19559 net.cpp:411] pool5_2_conv4 -> pool5_2_conv4
I0617 20:31:00.145987 19559 net.cpp:150] Setting up pool5_2_conv4
I0617 20:31:00.146005 19559 net.cpp:157] Top shape: 1 512 30 30 (460800)
I0617 20:31:00.146008 19559 net.cpp:165] Memory required for data: 1438412936
I0617 20:31:00.146013 19559 layer_factory.hpp:77] Creating layer pool5_2_conv4_relu
I0617 20:31:00.146021 19559 net.cpp:106] Creating Layer pool5_2_conv4_relu
I0617 20:31:00.146028 19559 net.cpp:454] pool5_2_conv4_relu <- pool5_2_conv4
I0617 20:31:00.146034 19559 net.cpp:411] pool5_2_conv4_relu -> pool5_2_conv4_relu
I0617 20:31:00.146157 19559 net.cpp:150] Setting up pool5_2_conv4_relu
I0617 20:31:00.146162 19559 net.cpp:157] Top shape: 1 512 30 30 (460800)
I0617 20:31:00.146164 19559 net.cpp:165] Memory required for data: 1440256136
I0617 20:31:00.146167 19559 layer_factory.hpp:77] Creating layer pool5_2_conv4_relu_pool5_2_conv4_relu_0_split
I0617 20:31:00.146170 19559 net.cpp:106] Creating Layer pool5_2_conv4_relu_pool5_2_conv4_relu_0_split
I0617 20:31:00.146173 19559 net.cpp:454] pool5_2_conv4_relu_pool5_2_conv4_relu_0_split <- pool5_2_conv4_relu
I0617 20:31:00.146175 19559 net.cpp:411] pool5_2_conv4_relu_pool5_2_conv4_relu_0_split -> pool5_2_conv4_relu_pool5_2_conv4_relu_0_split_0
I0617 20:31:00.146180 19559 net.cpp:411] pool5_2_conv4_relu_pool5_2_conv4_relu_0_split -> pool5_2_conv4_relu_pool5_2_conv4_relu_0_split_1
I0617 20:31:00.146185 19559 net.cpp:411] pool5_2_conv4_relu_pool5_2_conv4_relu_0_split -> pool5_2_conv4_relu_pool5_2_conv4_relu_0_split_2
I0617 20:31:00.146200 19559 net.cpp:411] pool5_2_conv4_relu_pool5_2_conv4_relu_0_split -> pool5_2_conv4_relu_pool5_2_conv4_relu_0_split_3
I0617 20:31:00.146251 19559 net.cpp:150] Setting up pool5_2_conv4_relu_pool5_2_conv4_relu_0_split
I0617 20:31:00.146260 19559 net.cpp:157] Top shape: 1 512 30 30 (460800)
I0617 20:31:00.146261 19559 net.cpp:157] Top shape: 1 512 30 30 (460800)
I0617 20:31:00.146281 19559 net.cpp:157] Top shape: 1 512 30 30 (460800)
I0617 20:31:00.146283 19559 net.cpp:157] Top shape: 1 512 30 30 (460800)
I0617 20:31:00.146284 19559 net.cpp:165] Memory required for data: 1447628936
I0617 20:31:00.146286 19559 layer_factory.hpp:77] Creating layer query_conv
I0617 20:31:00.146304 19559 net.cpp:106] Creating Layer query_conv
I0617 20:31:00.146307 19559 net.cpp:454] query_conv <- pool5_2_conv4_relu_pool5_2_conv4_relu_0_split_0
I0617 20:31:00.146311 19559 net.cpp:411] query_conv -> query_conv
I0617 20:31:00.147859 19559 net.cpp:150] Setting up query_conv
I0617 20:31:00.147867 19559 net.cpp:157] Top shape: 1 64 30 30 (57600)
I0617 20:31:00.147868 19559 net.cpp:165] Memory required for data: 1447859336
I0617 20:31:00.147872 19559 layer_factory.hpp:77] Creating layer key_conv
I0617 20:31:00.147879 19559 net.cpp:106] Creating Layer key_conv
I0617 20:31:00.147881 19559 net.cpp:454] key_conv <- pool5_2_conv4_relu_pool5_2_conv4_relu_0_split_1
I0617 20:31:00.147898 19559 net.cpp:411] key_conv -> key_conv
I0617 20:31:00.149422 19559 net.cpp:150] Setting up key_conv
I0617 20:31:00.149430 19559 net.cpp:157] Top shape: 1 64 30 30 (57600)
I0617 20:31:00.149432 19559 net.cpp:165] Memory required for data: 1448089736
I0617 20:31:00.149435 19559 layer_factory.hpp:77] Creating layer value_conv
I0617 20:31:00.149442 19559 net.cpp:106] Creating Layer value_conv
I0617 20:31:00.149444 19559 net.cpp:454] value_conv <- pool5_2_conv4_relu_pool5_2_conv4_relu_0_split_2
I0617 20:31:00.149458 19559 net.cpp:411] value_conv -> value_conv
I0617 20:31:00.155907 19559 net.cpp:150] Setting up value_conv
I0617 20:31:00.155915 19559 net.cpp:157] Top shape: 1 512 30 30 (460800)
I0617 20:31:00.155917 19559 net.cpp:165] Memory required for data: 1449932936
I0617 20:31:00.155921 19559 layer_factory.hpp:77] Creating layer query_conv_reshape
I0617 20:31:00.155926 19559 net.cpp:106] Creating Layer query_conv_reshape
I0617 20:31:00.155930 19559 net.cpp:454] query_conv_reshape <- query_conv
I0617 20:31:00.155933 19559 net.cpp:411] query_conv_reshape -> query_conv_reshape
I0617 20:31:00.155966 19559 net.cpp:150] Setting up query_conv_reshape
I0617 20:31:00.155979 19559 net.cpp:157] Top shape: 1 64 900 1 (57600)
I0617 20:31:00.155980 19559 net.cpp:165] Memory required for data: 1450163336
I0617 20:31:00.155982 19559 layer_factory.hpp:77] Creating layer key_conv_reshape
I0617 20:31:00.155997 19559 net.cpp:106] Creating Layer key_conv_reshape
I0617 20:31:00.155998 19559 net.cpp:454] key_conv_reshape <- key_conv
I0617 20:31:00.156002 19559 net.cpp:411] key_conv_reshape -> key_conv_reshape
I0617 20:31:00.156029 19559 net.cpp:150] Setting up key_conv_reshape
I0617 20:31:00.156033 19559 net.cpp:157] Top shape: 1 64 900 1 (57600)
I0617 20:31:00.156034 19559 net.cpp:165] Memory required for data: 1450393736
I0617 20:31:00.156035 19559 layer_factory.hpp:77] Creating layer value_conv_reshape
I0617 20:31:00.156039 19559 net.cpp:106] Creating Layer value_conv_reshape
I0617 20:31:00.156042 19559 net.cpp:454] value_conv_reshape <- value_conv
I0617 20:31:00.156047 19559 net.cpp:411] value_conv_reshape -> value_conv_reshape
I0617 20:31:00.156066 19559 net.cpp:150] Setting up value_conv_reshape
I0617 20:31:00.156070 19559 net.cpp:157] Top shape: 1 512 900 1 (460800)
I0617 20:31:00.156071 19559 net.cpp:165] Memory required for data: 1452236936
I0617 20:31:00.156072 19559 layer_factory.hpp:77] Creating layer query_conv_reshape_perm
I0617 20:31:00.156076 19559 net.cpp:106] Creating Layer query_conv_reshape_perm
I0617 20:31:00.156078 19559 net.cpp:454] query_conv_reshape_perm <- query_conv_reshape
I0617 20:31:00.156080 19559 net.cpp:411] query_conv_reshape_perm -> query_conv_reshape_perm
I0617 20:31:00.156163 19559 net.cpp:150] Setting up query_conv_reshape_perm
I0617 20:31:00.156167 19559 net.cpp:157] Top shape: 1 1 900 64 (57600)
I0617 20:31:00.156168 19559 net.cpp:165] Memory required for data: 1452467336
I0617 20:31:00.156181 19559 layer_factory.hpp:77] Creating layer key_conv_reshape_perm
I0617 20:31:00.156185 19559 net.cpp:106] Creating Layer key_conv_reshape_perm
I0617 20:31:00.156188 19559 net.cpp:454] key_conv_reshape_perm <- key_conv_reshape
I0617 20:31:00.156190 19559 net.cpp:411] key_conv_reshape_perm -> key_conv_reshape_perm
I0617 20:31:00.156255 19559 net.cpp:150] Setting up key_conv_reshape_perm
I0617 20:31:00.156258 19559 net.cpp:157] Top shape: 1 1 64 900 (57600)
I0617 20:31:00.156260 19559 net.cpp:165] Memory required for data: 1452697736
I0617 20:31:00.156272 19559 layer_factory.hpp:77] Creating layer energy
I0617 20:31:00.156275 19559 net.cpp:106] Creating Layer energy
I0617 20:31:00.156278 19559 net.cpp:454] energy <- query_conv_reshape_perm
I0617 20:31:00.156280 19559 net.cpp:454] energy <- key_conv_reshape_perm
I0617 20:31:00.156283 19559 net.cpp:411] energy -> energy
I0617 20:31:00.156297 19559 net.cpp:150] Setting up energy
I0617 20:31:00.156301 19559 net.cpp:157] Top shape: 1 1 900 900 (810000)
I0617 20:31:00.156311 19559 net.cpp:165] Memory required for data: 1455937736
I0617 20:31:00.156313 19559 layer_factory.hpp:77] Creating layer attention
I0617 20:31:00.156317 19559 net.cpp:106] Creating Layer attention
I0617 20:31:00.156330 19559 net.cpp:454] attention <- energy
I0617 20:31:00.156333 19559 net.cpp:411] attention -> attention
I0617 20:31:00.156481 19559 net.cpp:150] Setting up attention
I0617 20:31:00.156486 19559 net.cpp:157] Top shape: 1 1 900 900 (810000)
I0617 20:31:00.156489 19559 net.cpp:165] Memory required for data: 1459177736
I0617 20:31:00.156491 19559 layer_factory.hpp:77] Creating layer value_conv_reshape_perm
I0617 20:31:00.156496 19559 net.cpp:106] Creating Layer value_conv_reshape_perm
I0617 20:31:00.156497 19559 net.cpp:454] value_conv_reshape_perm <- value_conv_reshape
I0617 20:31:00.156502 19559 net.cpp:411] value_conv_reshape_perm -> value_conv_reshape_perm
I0617 20:31:00.156560 19559 net.cpp:150] Setting up value_conv_reshape_perm
I0617 20:31:00.156565 19559 net.cpp:157] Top shape: 1 1 512 900 (460800)
I0617 20:31:00.156567 19559 net.cpp:165] Memory required for data: 1461020936
I0617 20:31:00.156569 19559 layer_factory.hpp:77] Creating layer attention_perm
I0617 20:31:00.156571 19559 net.cpp:106] Creating Layer attention_perm
I0617 20:31:00.156574 19559 net.cpp:454] attention_perm <- attention
I0617 20:31:00.156576 19559 net.cpp:411] attention_perm -> attention_perm
I0617 20:31:00.156633 19559 net.cpp:150] Setting up attention_perm
I0617 20:31:00.156636 19559 net.cpp:157] Top shape: 1 1 900 900 (810000)
I0617 20:31:00.156638 19559 net.cpp:165] Memory required for data: 1464260936
I0617 20:31:00.156639 19559 layer_factory.hpp:77] Creating layer out
I0617 20:31:00.156642 19559 net.cpp:106] Creating Layer out
I0617 20:31:00.156644 19559 net.cpp:454] out <- value_conv_reshape_perm
I0617 20:31:00.156647 19559 net.cpp:454] out <- attention_perm
I0617 20:31:00.156651 19559 net.cpp:411] out -> out
I0617 20:31:00.156664 19559 net.cpp:150] Setting up out
I0617 20:31:00.156667 19559 net.cpp:157] Top shape: 1 1 512 900 (460800)
I0617 20:31:00.156668 19559 net.cpp:165] Memory required for data: 1466104136
I0617 20:31:00.156671 19559 layer_factory.hpp:77] Creating layer out_reshape
I0617 20:31:00.156673 19559 net.cpp:106] Creating Layer out_reshape
I0617 20:31:00.156675 19559 net.cpp:454] out_reshape <- out
I0617 20:31:00.156678 19559 net.cpp:411] out_reshape -> out_reshape
I0617 20:31:00.156692 19559 net.cpp:150] Setting up out_reshape
I0617 20:31:00.156697 19559 net.cpp:157] Top shape: 1 512 30 30 (460800)
I0617 20:31:00.156698 19559 net.cpp:165] Memory required for data: 1467947336
I0617 20:31:00.156699 19559 layer_factory.hpp:77] Creating layer out_reshape_scale
I0617 20:31:00.156703 19559 net.cpp:106] Creating Layer out_reshape_scale
I0617 20:31:00.156707 19559 net.cpp:454] out_reshape_scale <- out_reshape
I0617 20:31:00.156708 19559 net.cpp:411] out_reshape_scale -> out_reshape_scale
I0617 20:31:00.156764 19559 net.cpp:150] Setting up out_reshape_scale
I0617 20:31:00.156769 19559 net.cpp:157] Top shape: 1 512 30 30 (460800)
I0617 20:31:00.156769 19559 net.cpp:165] Memory required for data: 1469790536
I0617 20:31:00.156772 19559 layer_factory.hpp:77] Creating layer out_x
I0617 20:31:00.156778 19559 net.cpp:106] Creating Layer out_x
I0617 20:31:00.156780 19559 net.cpp:454] out_x <- out_reshape_scale
I0617 20:31:00.156783 19559 net.cpp:454] out_x <- pool5_2_conv4_relu_pool5_2_conv4_relu_0_split_3
I0617 20:31:00.156785 19559 net.cpp:411] out_x -> out_x
I0617 20:31:00.156801 19559 net.cpp:150] Setting up out_x
I0617 20:31:00.156805 19559 net.cpp:157] Top shape: 1 512 30 30 (460800)
I0617 20:31:00.156805 19559 net.cpp:165] Memory required for data: 1471633736
I0617 20:31:00.156807 19559 layer_factory.hpp:77] Creating layer mask_deconv2
I0617 20:31:00.156812 19559 net.cpp:106] Creating Layer mask_deconv2
I0617 20:31:00.156814 19559 net.cpp:454] mask_deconv2 <- out_x
I0617 20:31:00.156818 19559 net.cpp:411] mask_deconv2 -> mask_deconv2
I0617 20:31:00.157598 19559 net.cpp:150] Setting up mask_deconv2
I0617 20:31:00.157603 19559 net.cpp:157] Top shape: 1 256 122 122 (3810304)
I0617 20:31:00.157603 19559 net.cpp:165] Memory required for data: 1486874952
I0617 20:31:00.157608 19559 layer_factory.hpp:77] Creating layer mask_deconv2_mask_deconv2_0_split
I0617 20:31:00.157610 19559 net.cpp:106] Creating Layer mask_deconv2_mask_deconv2_0_split
I0617 20:31:00.157613 19559 net.cpp:454] mask_deconv2_mask_deconv2_0_split <- mask_deconv2
I0617 20:31:00.157618 19559 net.cpp:411] mask_deconv2_mask_deconv2_0_split -> mask_deconv2_mask_deconv2_0_split_0
I0617 20:31:00.157624 19559 net.cpp:411] mask_deconv2_mask_deconv2_0_split -> mask_deconv2_mask_deconv2_0_split_1
I0617 20:31:00.157651 19559 net.cpp:150] Setting up mask_deconv2_mask_deconv2_0_split
I0617 20:31:00.157656 19559 net.cpp:157] Top shape: 1 256 122 122 (3810304)
I0617 20:31:00.157660 19559 net.cpp:157] Top shape: 1 256 122 122 (3810304)
I0617 20:31:00.157662 19559 net.cpp:165] Memory required for data: 1517357384
I0617 20:31:00.157665 19559 layer_factory.hpp:77] Creating layer pool5_2_conv5
I0617 20:31:00.157673 19559 net.cpp:106] Creating Layer pool5_2_conv5
I0617 20:31:00.157676 19559 net.cpp:454] pool5_2_conv5 <- mask_deconv2_mask_deconv2_0_split_0
I0617 20:31:00.157681 19559 net.cpp:411] pool5_2_conv5 -> pool5_2_conv5
I0617 20:31:00.183603 19559 net.cpp:150] Setting up pool5_2_conv5
I0617 20:31:00.183630 19559 net.cpp:157] Top shape: 1 512 122 122 (7620608)
I0617 20:31:00.183632 19559 net.cpp:165] Memory required for data: 1547839816
I0617 20:31:00.183640 19559 layer_factory.hpp:77] Creating layer pool5_2_conv5_relu
I0617 20:31:00.183650 19559 net.cpp:106] Creating Layer pool5_2_conv5_relu
I0617 20:31:00.183655 19559 net.cpp:454] pool5_2_conv5_relu <- pool5_2_conv5
I0617 20:31:00.183663 19559 net.cpp:411] pool5_2_conv5_relu -> pool5_2_conv5_relu
I0617 20:31:00.183873 19559 net.cpp:150] Setting up pool5_2_conv5_relu
I0617 20:31:00.183888 19559 net.cpp:157] Top shape: 1 512 122 122 (7620608)
I0617 20:31:00.183890 19559 net.cpp:165] Memory required for data: 1578322248
I0617 20:31:00.183892 19559 layer_factory.hpp:77] Creating layer pool5_2_conv6
I0617 20:31:00.183913 19559 net.cpp:106] Creating Layer pool5_2_conv6
I0617 20:31:00.183917 19559 net.cpp:454] pool5_2_conv6 <- pool5_2_conv5_relu
I0617 20:31:00.183921 19559 net.cpp:411] pool5_2_conv6 -> pool5_2_conv6
I0617 20:31:00.233878 19559 net.cpp:150] Setting up pool5_2_conv6
I0617 20:31:00.233896 19559 net.cpp:157] Top shape: 1 512 122 122 (7620608)
I0617 20:31:00.233897 19559 net.cpp:165] Memory required for data: 1608804680
I0617 20:31:00.233912 19559 layer_factory.hpp:77] Creating layer pool5_2_conv6_relu
I0617 20:31:00.233930 19559 net.cpp:106] Creating Layer pool5_2_conv6_relu
I0617 20:31:00.233934 19559 net.cpp:454] pool5_2_conv6_relu <- pool5_2_conv6
I0617 20:31:00.233937 19559 net.cpp:411] pool5_2_conv6_relu -> pool5_2_conv6_relu
I0617 20:31:00.234498 19559 net.cpp:150] Setting up pool5_2_conv6_relu
I0617 20:31:00.234505 19559 net.cpp:157] Top shape: 1 512 122 122 (7620608)
I0617 20:31:00.234508 19559 net.cpp:165] Memory required for data: 1639287112
I0617 20:31:00.234508 19559 layer_factory.hpp:77] Creating layer mask_deconv3
I0617 20:31:00.234515 19559 net.cpp:106] Creating Layer mask_deconv3
I0617 20:31:00.234517 19559 net.cpp:454] mask_deconv3 <- pool5_2_conv6_relu
I0617 20:31:00.234521 19559 net.cpp:411] mask_deconv3 -> mask_deconv3
I0617 20:31:00.234902 19559 net.cpp:150] Setting up mask_deconv3
I0617 20:31:00.234908 19559 net.cpp:157] Top shape: 1 256 244 244 (15241216)
I0617 20:31:00.234910 19559 net.cpp:165] Memory required for data: 1700251976
I0617 20:31:00.234923 19559 layer_factory.hpp:77] Creating layer mask_score
I0617 20:31:00.234930 19559 net.cpp:106] Creating Layer mask_score
I0617 20:31:00.234941 19559 net.cpp:454] mask_score <- mask_deconv3
I0617 20:31:00.234946 19559 net.cpp:411] mask_score -> mask_score
I0617 20:31:00.235580 19559 net.cpp:150] Setting up mask_score
I0617 20:31:00.235587 19559 net.cpp:157] Top shape: 1 8 244 244 (476288)
I0617 20:31:00.235599 19559 net.cpp:165] Memory required for data: 1702157128
I0617 20:31:00.235604 19559 layer_factory.hpp:77] Creating layer loss_mask
I0617 20:31:00.235611 19559 net.cpp:106] Creating Layer loss_mask
I0617 20:31:00.235626 19559 net.cpp:454] loss_mask <- mask_score
I0617 20:31:00.235630 19559 net.cpp:454] loss_mask <- mask_targets_roi-data_5_split_0
I0617 20:31:00.235635 19559 net.cpp:411] loss_mask -> loss_mask
I0617 20:31:00.235642 19559 layer_factory.hpp:77] Creating layer loss_mask
I0617 20:31:00.237392 19559 net.cpp:150] Setting up loss_mask
I0617 20:31:00.237401 19559 net.cpp:157] Top shape: (1)
I0617 20:31:00.237403 19559 net.cpp:160]     with loss weight 3
I0617 20:31:00.237411 19559 net.cpp:165] Memory required for data: 1702157132
I0617 20:31:00.237414 19559 layer_factory.hpp:77] Creating layer pool5_2_conv5_2
I0617 20:31:00.237437 19559 net.cpp:106] Creating Layer pool5_2_conv5_2
I0617 20:31:00.237440 19559 net.cpp:454] pool5_2_conv5_2 <- mask_deconv2_mask_deconv2_0_split_1
I0617 20:31:00.237455 19559 net.cpp:411] pool5_2_conv5_2 -> pool5_2_conv5_2
I0617 20:31:00.262977 19559 net.cpp:150] Setting up pool5_2_conv5_2
I0617 20:31:00.262996 19559 net.cpp:157] Top shape: 1 512 122 122 (7620608)
I0617 20:31:00.262998 19559 net.cpp:165] Memory required for data: 1732639564
I0617 20:31:00.263005 19559 layer_factory.hpp:77] Creating layer pool5_2_conv5_2_relu
I0617 20:31:00.263022 19559 net.cpp:106] Creating Layer pool5_2_conv5_2_relu
I0617 20:31:00.263026 19559 net.cpp:454] pool5_2_conv5_2_relu <- pool5_2_conv5_2
I0617 20:31:00.263042 19559 net.cpp:411] pool5_2_conv5_2_relu -> pool5_2_conv5_2_relu
I0617 20:31:00.263195 19559 net.cpp:150] Setting up pool5_2_conv5_2_relu
I0617 20:31:00.263200 19559 net.cpp:157] Top shape: 1 512 122 122 (7620608)
I0617 20:31:00.263201 19559 net.cpp:165] Memory required for data: 1763121996
I0617 20:31:00.263203 19559 layer_factory.hpp:77] Creating layer mask_deconv3_2
I0617 20:31:00.263209 19559 net.cpp:106] Creating Layer mask_deconv3_2
I0617 20:31:00.263211 19559 net.cpp:454] mask_deconv3_2 <- pool5_2_conv5_2_relu
I0617 20:31:00.263227 19559 net.cpp:411] mask_deconv3_2 -> mask_deconv3_2
I0617 20:31:00.264103 19559 net.cpp:150] Setting up mask_deconv3_2
I0617 20:31:00.264111 19559 net.cpp:157] Top shape: 1 256 244 244 (15241216)
I0617 20:31:00.264113 19559 net.cpp:165] Memory required for data: 1824086860
I0617 20:31:00.264117 19559 layer_factory.hpp:77] Creating layer mask_score_2
I0617 20:31:00.264123 19559 net.cpp:106] Creating Layer mask_score_2
I0617 20:31:00.264127 19559 net.cpp:454] mask_score_2 <- mask_deconv3_2
I0617 20:31:00.264140 19559 net.cpp:411] mask_score_2 -> mask_score_2
I0617 20:31:00.265468 19559 net.cpp:150] Setting up mask_score_2
I0617 20:31:00.265475 19559 net.cpp:157] Top shape: 1 8 244 244 (476288)
I0617 20:31:00.265488 19559 net.cpp:165] Memory required for data: 1825992012
I0617 20:31:00.265492 19559 layer_factory.hpp:77] Creating layer loss_mask_2
I0617 20:31:00.265499 19559 net.cpp:106] Creating Layer loss_mask_2
I0617 20:31:00.265503 19559 net.cpp:454] loss_mask_2 <- mask_score_2
I0617 20:31:00.265508 19559 net.cpp:454] loss_mask_2 <- mask_targets_roi-data_5_split_1
I0617 20:31:00.265514 19559 net.cpp:411] loss_mask_2 -> loss_mask_2
…
