…
average_loss: 100
iter_size: 2
I0604 18:46:13.559602 14657 solver.cpp:81] Creating training net from train_net file: models/pascal_voc/VGG16/faster_rcnn_end2end/train.prototxt
I0604 18:46:13.561094 14657 net.cpp:49] Initializing net from parameters: 
name: "VGG_ILSVRC_16_layers"
state {
  phase: TRAIN
}
layer {
  name: "input-data"
  type: "Python"
  top: "data"
  top: "im_info"
  top: "gt_boxes"
  top: "seg_mask_inds"
  top: "flipped"
  python_param {
    module: "roi_data_layer.layer"
    layer: "RoIDataLayer"
    param_str: "\'num_classes\': 2"
  }
}
layer {
  name: "conv1_1"
  type: "Convolution"
  bottom: "data"
  top: "conv1_1"
  param {
    lr_mult: 0
    decay_mult: 0
  }
  param {
    lr_mult: 0
    decay_mult: 0
  }
  convolution_param {
    num_output: 64
    pad: 1
    kernel_size: 3
  }
}
layer {
  name: "relu1_1"
  type: "ReLU"
  bottom: "conv1_1"
  top: "conv1_1"
}
layer {
  name: "conv1_2"
  type: "Convolution"
  bottom: "conv1_1"
  top: "conv1_2"
  param {
    lr_mult: 0
    decay_mult: 0
  }
  param {
    lr_mult: 0
    decay_mult: 0
  }
  convolution_param {
    num_output: 64
    pad: 1
    kernel_size: 3
  }
}
layer {
  name: "relu1_2"
  type: "ReLU"
  bottom: "conv1_2"
  top: "conv1_2"
}
layer {
  name: "pool1"
  type: "Pooling"
  bottom: "conv1_2"
  top: "pool1"
  pooling_param {
    pool: MAX
    kernel_size: 2
    stride: 2
  }
}
layer {
  name: "conv2_1"
  type: "Convolution"
  bottom: "pool1"
  top: "conv2_1"
  param {
    lr_mult: 0
    decay_mult: 0
  }
  param {
    lr_mult: 0
    decay_mult: 0
  }
  convolution_param {
    num_output: 128
    pad: 1
    kernel_size: 3
  }
}
layer {
  name: "relu2_1"
  type: "ReLU"
  bottom: "conv2_1"
  top: "conv2_1"
}
layer {
  name: "conv2_2"
  type: "Convolution"
  bottom: "conv2_1"
  top: "conv2_2"
  param {
    lr_mult: 0
    decay_mult: 0
  }
  param {
    lr_mult: 0
    decay_mult: 0
  }
  convolution_param {
    num_output: 128
    pad: 1
    kernel_size: 3
  }
}
layer {
  name: "relu2_2"
  type: "ReLU"
  bottom: "conv2_2"
  top: "conv2_2"
}
layer {
  name: "pool2"
  type: "Pooling"
  bottom: "conv2_2"
  top: "pool2"
  pooling_param {
    pool: MAX
    kernel_size: 2
    stride: 2
  }
}
layer {
  name: "conv3_1"
  type: "Convolution"
  bottom: "pool2"
  top: "conv3_1"
  param {
    lr_mult: 1
  }
  param {
    lr_mult: 2
  }
  convolution_param {
    num_output: 256
    pad: 1
    kernel_size: 3
  }
}
layer {
  name: "relu3_1"
  type: "ReLU"
  bottom: "conv3_1"
  top: "conv3_1"
}
layer {
  name: "conv3_2"
  type: "Convolution"
  bottom: "conv3_1"
  top: "conv3_2"
  param {
    lr_mult: 1
  }
  param {
    lr_mult: 2
  }
  convolution_param {
    num_output: 256
    pad: 1
    kernel_size: 3
  }
}
layer {
  name: "relu3_2"
  type: "ReLU"
  bottom: "conv3_2"
  top: "conv3_2"
}
layer {
  name: "conv3_3"
  type: "Convolution"
  bottom: "conv3_2"
  top: "conv3_3"
  param {
    lr_mult: 1
  }
  param {
    lr_mult: 2
  }
  convolution_param {
    num_output: 256
    pad: 1
    kernel_size: 3
  }
}
layer {
  name: "relu3_3"
  type: "ReLU"
  bottom: "conv3_3"
  top: "conv3_3"
}
layer {
  name: "pool3"
  type: "Pooling"
  bottom: "conv3_3"
  top: "pool3"
  pooling_param {
    pool: MAX
    kernel_size: 2
    stride: 2
  }
}
layer {
  name: "conv4_1"
  type: "Convolution"
  bottom: "pool3"
  top: "conv4_1"
  param {
    lr_mult: 1
  }
  param {
    lr_mult: 2
  }
  convolution_param {
    num_output: 512
    pad: 1
    kernel_size: 3
  }
}
layer {
  name: "relu4_1"
  type: "ReLU"
  bottom: "conv4_1"
  top: "conv4_1"
}
layer {
  name: "conv4_2"
  type: "Convolution"
  bottom: "conv4_1"
  top: "conv4_2"
  param {
    lr_mult: 1
  }
  param {
    lr_mult: 2
  }
  convolution_param {
    num_output: 512
    pad: 1
    kernel_size: 3
  }
}
layer {
  name: "relu4_2"
  type: "ReLU"
  bottom: "conv4_2"
  top: "conv4_2"
}
layer {
  name: "conv4_3"
  type: "Convolution"
  bottom: "conv4_2"
  top: "conv4_3"
  param {
    lr_mult: 1
  }
  param {
    lr_mult: 2
  }
  convolution_param {
    num_output: 512
    pad: 1
    kernel_size: 3
  }
}
layer {
  name: "relu4_3"
  type: "ReLU"
  bottom: "conv4_3"
  top: "conv4_3"
}
layer {
  name: "pool4"
  type: "Pooling"
  bottom: "conv4_3"
  top: "pool4"
  pooling_param {
    pool: MAX
    kernel_size: 2
    stride: 2
  }
}
layer {
  name: "conv5_1"
  type: "Convolution"
  bottom: "pool4"
  top: "conv5_1"
  param {
    lr_mult: 1
  }
  param {
    lr_mult: 2
  }
  convolution_param {
    num_output: 512
    pad: 1
    kernel_size: 3
  }
}
layer {
  name: "relu5_1"
  type: "ReLU"
  bottom: "conv5_1"
  top: "conv5_1"
}
layer {
  name: "conv5_2"
  type: "Convolution"
  bottom: "conv5_1"
  top: "conv5_2"
  param {
    lr_mult: 1
  }
  param {
    lr_mult: 2
  }
  convolution_param {
    num_output: 512
    pad: 1
    kernel_size: 3
  }
}
layer {
  name: "relu5_2"
  type: "ReLU"
  bottom: "conv5_2"
  top: "conv5_2"
}
layer {
  name: "conv5_3"
  type: "Convolution"
  bottom: "conv5_2"
  top: "conv5_3"
  param {
    lr_mult: 1
  }
  param {
    lr_mult: 2
  }
  convolution_param {
    num_output: 512
    pad: 1
    kernel_size: 3
  }
}
layer {
  name: "relu5_3"
  type: "ReLU"
  bottom: "conv5_3"
  top: "conv5_3"
}
layer {
  name: "rpn_conv/3x3"
  type: "Convolution"
  bottom: "conv5_3"
  top: "rpn/output"
  param {
    lr_mult: 1
  }
  param {
    lr_mult: 2
  }
  convolution_param {
    num_output: 512
    pad: 1
    kernel_size: 3
    stride: 1
    weight_filler {
      type: "gaussian"
      std: 0.01
    }
    bias_filler {
      type: "constant"
      value: 0
    }
  }
}
layer {
  name: "rpn_relu/3x3"
  type: "ReLU"
  bottom: "rpn/output"
  top: "rpn/output"
}
layer {
  name: "rpn_cls_score"
  type: "Convolution"
  bottom: "rpn/output"
  top: "rpn_cls_score"
  param {
    lr_mult: 1
  }
  param {
    lr_mult: 2
  }
  convolution_param {
    num_output: 30
    pad: 0
    kernel_size: 1
    stride: 1
    weight_filler {
      type: "gaussian"
      std: 0.01
    }
    bias_filler {
      type: "constant"
      value: 0
    }
  }
}
layer {
  name: "rpn_bbox_pred"
  type: "Convolution"
  bottom: "rpn/output"
  top: "rpn_bbox_pred"
  param {
    lr_mult: 1
  }
  param {
    lr_mult: 2
  }
  convolution_param {
    num_output: 60
    pad: 0
    kernel_size: 1
    stride: 1
    weight_filler {
      type: "gaussian"
      std: 0.01
    }
    bias_filler {
      type: "constant"
      value: 0
    }
  }
}
layer {
  name: "rpn_cls_score_reshape"
  type: "Reshape"
  bottom: "rpn_cls_score"
  top: "rpn_cls_score_reshape"
  reshape_param {
    shape {
      dim: 0
      dim: 2
      dim: -1
      dim: 0
    }
  }
}
layer {
  name: "rpn-data"
  type: "Python"
  bottom: "rpn_cls_score"
  bottom: "gt_boxes"
  bottom: "im_info"
  bottom: "data"
  top: "rpn_labels"
  top: "rpn_bbox_targets"
  top: "rpn_bbox_inside_weights"
  top: "rpn_bbox_outside_weights"
  python_param {
    module: "rpn.anchor_target_layer"
    layer: "AnchorTargetLayer"
    param_str: "\'feat_stride\': 16 \n\'scales\': !!python/tuple [2, 4, 8, 16, 32]"
  }
}
layer {
  name: "rpn_loss_cls"
  type: "SoftmaxWithLoss"
  bottom: "rpn_cls_score_reshape"
  bottom: "rpn_labels"
  top: "rpn_cls_loss"
  loss_weight: 1
  propagate_down: true
  propagate_down: false
  loss_param {
    ignore_label: -1
    normalize: true
  }
}
layer {
  name: "rpn_loss_bbox"
  type: "SmoothL1Loss"
  bottom: "rpn_bbox_pred"
  bottom: "rpn_bbox_targets"
  bottom: "rpn_bbox_inside_weights"
  bottom: "rpn_bbox_outside_weights"
  top: "rpn_loss_bbox"
  loss_weight: 1
  smooth_l1_loss_param {
    sigma: 3
  }
}
layer {
  name: "rpn_cls_prob"
  type: "Softmax"
  bottom: "rpn_cls_score_reshape"
  top: "rpn_cls_prob"
}
layer {
  name: "rpn_cls_prob_reshape"
  type: "Reshape"
  bottom: "rpn_cls_prob"
  top: "rpn_cls_prob_reshape"
  reshape_param {
    shape {
      dim: 0
      dim: 30
      dim: -1
      dim: 0
    }
  }
}
layer {
  name: "proposal"
  type: "Python"
  bottom: "rpn_cls_prob_reshape"
  bottom: "rpn_bbox_pred"
  bottom: "im_info"
  top: "rpn_rois"
  python_param {
    module: "rpn.proposal_layer"
    layer: "ProposalLayer"
    param_str: "\'feat_stride\': 16 \n\'scales\': !!python/tuple [2, 4, 8, 16, 32]"
  }
}
layer {
  name: "roi-data"
  type: "Python"
  bottom: "rpn_rois"
  bottom: "gt_boxes"
  bottom: "im_info"
  bottom: "seg_mask_inds"
  bottom: "flipped"
  top: "rois"
  top: "labels"
  top: "bbox_targets"
  top: "bbox_inside_weights"
  top: "bbox_outside_weights"
  top: "mask_targets"
  top: "rois_pos"
  python_param {
    module: "rpn.proposal_target_layer"
    layer: "ProposalTargetLayer"
    param_str: "\'num_classes\': 2"
  }
}
layer {
  name: "roi_pool5"
  type: "ROIAlignment"
  bottom: "conv5_3"
  bottom: "rois"
  top: "pool5"
  roi_alignment_param {
    pooled_h: 7
    pooled_w: 7
    spatial_scale: 0.0625
  }
}
layer {
  name: "fc6"
  type: "InnerProduct"
  bottom: "pool5"
  top: "fc6"
  param {
    lr_mult: 1
  }
  param {
    lr_mult: 2
  }
  inner_product_param {
    num_output: 4096
  }
}
layer {
  name: "relu6"
  type: "ReLU"
  bottom: "fc6"
  top: "fc6"
}
layer {
  name: "fc7"
  type: "InnerProduct"
  bottom: "fc6"
  top: "fc7"
  param {
    lr_mult: 1
  }
  param {
    lr_mult: 2
  }
  inner_product_param {
    num_output: 4096
  }
}
layer {
  name: "relu7"
  type: "ReLU"
  bottom: "fc7"
  top: "fc7"
}
layer {
  name: "cls_score"
  type: "InnerProduct"
  bottom: "fc7"
  top: "cls_score"
  param {
    lr_mult: 1
  }
  param {
    lr_mult: 2
  }
  inner_product_param {
    num_output: 2
    weight_filler {
      type: "gaussian"
      std: 0.01
    }
    bias_filler {
      type: "constant"
      value: 0
    }
  }
}
layer {
  name: "bbox_pred"
  type: "InnerProduct"
  bottom: "fc7"
  top: "bbox_pred"
  param {
    lr_mult: 1
  }
  param {
    lr_mult: 2
  }
  inner_product_param {
    num_output: 8
    weight_filler {
      type: "gaussian"
      std: 0.001
    }
    bias_filler {
      type: "constant"
      value: 0
    }
  }
}
layer {
  name: "loss_cls"
  type: "SoftmaxWithLoss"
  bottom: "cls_score"
  bottom: "labels"
  top: "loss_cls"
  loss_weight: 3
  propagate_down: true
  propagate_down: false
}
layer {
  name: "loss_bbox"
  type: "SmoothL1Loss"
  bottom: "bbox_pred"
  bottom: "bbox_targets"
  bottom: "bbox_inside_weights"
  bottom: "bbox_outside_weights"
  top: "loss_bbox"
  loss_weight: 2
}
layer {
  name: "roi_pool5_2"
  type: "ROIAlignment"
  bottom: "conv5_3"
  bottom: "rois_pos"
  top: "pool5_2"
  roi_alignment_param {
    pooled_h: 7
    pooled_w: 7
    spatial_scale: 0.0625
  }
}
layer {
  name: "pool5_2_conv"
  type: "Convolution"
  bottom: "pool5_2"
  top: "pool5_2_conv"
  param {
    lr_mult: 1
    decay_mult: 1
  }
  param {
    lr_mult: 2
    decay_mult: 0
  }
  convolution_param {
    num_output: 512
    pad: 0
    kernel_size: 1
    weight_filler {
      type: "gaussian"
      std: 0.01
    }
    bias_filler {
      type: "constant"
      value: 0
    }
  }
}
layer {
  name: "pool5_2_conv_relu"
  type: "ReLU"
  bottom: "pool5_2_conv"
  top: "pool5_2_conv_relu"
}
layer {
  name: "pool5_2_conv2"
  type: "Convolution"
  bottom: "pool5_2_conv_relu"
  top: "pool5_2_conv2"
  param {
    lr_mult: 1
    decay_mult: 1
  }
  param {
    lr_mult: 2
    decay_mult: 0
  }
  convolution_param {
    num_output: 512
    pad: 1
    kernel_size: 3
    stride: 1
    weight_filler {
      type: "gaussian"
      std: 0.01
    }
    bias_filler {
      type: "constant"
      value: 0
    }
  }
}
layer {
  name: "pool5_2_conv2_relu"
  type: "ReLU"
  bottom: "pool5_2_conv2"
  top: "pool5_2_conv2_relu"
}
layer {
  name: "mask_deconv1"
  type: "Deconvolution"
  bottom: "pool5_2_conv2_relu"
  top: "mask_deconv1"
  param {
    lr_mult: 1
    decay_mult: 1
  }
  param {
    lr_mult: 2
    decay_mult: 0
  }
  convolution_param {
    num_output: 256
    pad: 1
    kernel_size: 8
    group: 256
    stride: 4
    weight_filler {
      type: "bilinear"
    }
  }
}
layer {
  name: "pool5_2_conv3"
  type: "Convolution"
  bottom: "mask_deconv1"
  top: "pool5_2_conv3"
  param {
    lr_mult: 1
    decay_mult: 1
  }
  param {
    lr_mult: 2
    decay_mult: 0
  }
  convolution_param {
    num_output: 512
    pad: 1
    kernel_size: 3
    stride: 1
    weight_filler {
      type: "gaussian"
      std: 0.01
    }
    bias_filler {
      type: "constant"
      value: 0
    }
  }
}
layer {
  name: "pool5_2_conv3_relu"
  type: "ReLU"
  bottom: "pool5_2_conv3"
  top: "pool5_2_conv3_relu"
}
layer {
  name: "pool5_2_conv4"
  type: "Convolution"
  bottom: "pool5_2_conv3_relu"
  top: "pool5_2_conv4"
  param {
    lr_mult: 1
    decay_mult: 1
  }
  param {
    lr_mult: 2
    decay_mult: 0
  }
  convolution_param {
    num_output: 512
    pad: 1
    kernel_size: 3
    stride: 1
    weight_filler {
      type: "gaussian"
      std: 0.01
    }
    bias_filler {
      type: "constant"
      value: 0
    }
  }
}
layer {
  name: "pool5_2_conv4_relu"
  type: "ReLU"
  bottom: "pool5_2_conv4"
  top: "pool5_2_conv4_relu"
}
layer {
  name: "query_conv"
  type: "Convolution"
  bottom: "pool5_2_conv4_relu"
  top: "query_conv"
  param {
    lr_mult: 1
    decay_mult: 1
  }
  param {
    lr_mult: 2
    decay_mult: 0
  }
  convolution_param {
    num_output: 64
    pad: 0
    kernel_size: 1
    stride: 1
    weight_filler {
      type: "gaussian"
      std: 0.01
    }
    bias_filler {
      type: "constant"
      value: 0
    }
  }
}
layer {
  name: "key_conv"
  type: "Convolution"
  bottom: "pool5_2_conv4_relu"
  top: "key_conv"
  param {
    lr_mult: 1
    decay_mult: 1
  }
  param {
    lr_mult: 2
    decay_mult: 0
  }
  convolution_param {
    num_output: 64
    pad: 0
    kernel_size: 1
    stride: 1
    weight_filler {
      type: "gaussian"
      std: 0.01
    }
    bias_filler {
      type: "constant"
      value: 0
    }
  }
}
layer {
  name: "value_conv"
  type: "Convolution"
  bottom: "pool5_2_conv4_relu"
  top: "value_conv"
  param {
    lr_mult: 1
    decay_mult: 1
  }
  param {
    lr_mult: 2
    decay_mult: 0
  }
  convolution_param {
    num_output: 512
    pad: 0
    kernel_size: 1
    stride: 1
    weight_filler {
      type: "gaussian"
      std: 0.01
    }
    bias_filler {
      type: "constant"
      value: 0
    }
  }
}
layer {
  name: "query_conv_reshape"
  type: "Reshape"
  bottom: "query_conv"
  top: "query_conv_reshape"
  reshape_param {
    shape {
      dim: -1
      dim: 64
      dim: 900
      dim: 1
    }
  }
}
layer {
  name: "key_conv_reshape"
  type: "Reshape"
  bottom: "key_conv"
  top: "key_conv_reshape"
  reshape_param {
    shape {
      dim: -1
      dim: 64
      dim: 900
      dim: 1
    }
  }
}
layer {
  name: "value_conv_reshape"
  type: "Reshape"
  bottom: "value_conv"
  top: "value_conv_reshape"
  reshape_param {
    shape {
      dim: -1
      dim: 512
      dim: 900
      dim: 1
    }
  }
}
layer {
  name: "query_conv_reshape_perm"
  type: "Permute"
  bottom: "query_conv_reshape"
  top: "query_conv_reshape_perm"
  permute_param {
    order: 0
    order: 3
    order: 2
    order: 1
  }
}
layer {
  name: "key_conv_reshape_perm"
  type: "Permute"
  bottom: "key_conv_reshape"
  top: "key_conv_reshape_perm"
  permute_param {
    order: 0
    order: 3
    order: 1
    order: 2
  }
}
layer {
  name: "energy"
  type: "MatrixMultiplication"
  bottom: "query_conv_reshape_perm"
  bottom: "key_conv_reshape_perm"
  top: "energy"
}
layer {
  name: "attention"
  type: "Softmax"
  bottom: "energy"
  top: "attention"
  softmax_param {
    axis: 3
  }
}
layer {
  name: "value_conv_reshape_perm"
  type: "Permute"
  bottom: "value_conv_reshape"
  top: "value_conv_reshape_perm"
  permute_param {
    order: 0
    order: 3
    order: 1
    order: 2
  }
}
layer {
  name: "attention_perm"
  type: "Permute"
  bottom: "attention"
  top: "attention_perm"
  permute_param {
    order: 0
    order: 1
    order: 2
    order: 3
  }
}
layer {
  name: "out"
  type: "MatrixMultiplication"
  bottom: "value_conv_reshape_perm"
  bottom: "attention_perm"
  top: "out"
}
layer {
  name: "out_reshape"
  type: "Reshape"
  bottom: "out"
  top: "out_reshape"
  reshape_param {
    shape {
      dim: -1
      dim: 512
      dim: 30
      dim: 30
    }
  }
}
layer {
  name: "out_reshape_scale"
  type: "Scale"
  bottom: "out_reshape"
  top: "out_reshape_scale"
  param {
    name: "scale_conv1_1"
    lr_mult: 1
  }
  scale_param {
    bias_term: false
  }
}
layer {
  name: "out_x"
  type: "Eltwise"
  bottom: "out_reshape_scale"
  bottom: "pool5_2_conv4_relu"
  top: "out_x"
  eltwise_param {
    operation: SUM
  }
}
layer {
  name: "query_conv_reshape_ch"
  type: "Reshape"
  bottom: "pool5_2_conv4_relu"
  top: "query_conv_reshape_ch"
  reshape_param {
    shape {
      dim: 1
      dim: 512
      dim: -1
      dim: 1
    }
  }
}
layer {
  name: "key_conv_reshape_ch"
  type: "Reshape"
  bottom: "pool5_2_conv4_relu"
  top: "key_conv_reshape_ch"
  reshape_param {
    shape {
      dim: 1
      dim: 512
      dim: -1
      dim: 1
    }
  }
}
layer {
  name: "value_conv_reshape_ch"
  type: "Reshape"
  bottom: "pool5_2_conv4_relu"
  top: "value_conv_reshape_ch"
  reshape_param {
    shape {
      dim: 1
      dim: 512
      dim: -1
      dim: 1
    }
  }
}
layer {
  name: "query_conv_reshape_perm_ch"
  type: "Permute"
  bottom: "query_conv_reshape_ch"
  top: "query_conv_reshape_perm_ch"
  permute_param {
    order: 0
    order: 3
    order: 1
    order: 2
  }
}
layer {
  name: "key_conv_reshape_perm_ch"
  type: "Permute"
  bottom: "key_conv_reshape_ch"
  top: "key_conv_reshape_perm_ch"
  permute_param {
    order: 0
    order: 3
    order: 2
    order: 1
  }
}
layer {
  name: "energy_ch"
  type: "MatrixMultiplication"
  bottom: "query_conv_reshape_perm_ch"
  bottom: "key_conv_reshape_perm_ch"
  top: "energy_ch"
}
layer {
  name: "energy_ch_pool"
  type: "Pooling"
  bottom: "energy_ch"
  top: "energy_ch_pool"
  pooling_param {
    pool: MAX
    kernel_h: 1
    kernel_w: 512
    stride_h: 1
    stride_w: 512
  }
}
layer {
  name: "energy_ch_max"
  type: "Tile"
  bottom: "energy_ch_pool"
  top: "energy_ch_max"
  tile_param {
    axis: 3
    tiles: 512
  }
}
layer {
  name: "energy_ch_minus"
  type: "Power"
  bottom: "energy_ch"
  top: "energy_ch_minus"
  power_param {
    power: 1
    scale: -1
    shift: 0
  }
}
layer {
  name: "energy_new"
  type: "Eltwise"
  bottom: "energy_ch_max"
  bottom: "energy_ch_minus"
  top: "energy_new"
  eltwise_param {
    operation: SUM
  }
}
layer {
  name: "attention_ch"
  type: "Softmax"
  bottom: "energy_new"
  top: "attention_ch"
  softmax_param {
    axis: 3
  }
}
layer {
  name: "value_conv_reshape_ch_perm"
  type: "Permute"
  bottom: "value_conv_reshape_ch"
  top: "value_conv_reshape_ch_perm"
  permute_param {
    order: 0
    order: 3
    order: 1
    order: 2
  }
}
layer {
  name: "attention_ch_perm"
  type: "Permute"
  bottom: "attention_ch"
  top: "attention_ch_perm"
  permute_param {
    order: 0
    order: 1
    order: 2
    order: 3
  }
}
layer {
  name: "out_ch"
  type: "MatrixMultiplication"
  bottom: "attention_ch_perm"
  bottom: "value_conv_reshape_ch_perm"
  top: "out_ch"
}
layer {
  name: "out_ch_reshape"
  type: "Reshape"
  bottom: "out_ch"
  top: "out_ch_reshape"
  reshape_param {
    shape {
      dim: -1
      dim: 512
      dim: 30
      dim: 30
    }
  }
}
layer {
  name: "out_ch_reshape_scale"
  type: "Scale"
  bottom: "out_ch_reshape"
  top: "out_ch_reshape_scale"
  param {
    name: "scale_conv1_1"
    lr_mult: 1
  }
  scale_param {
    bias_term: false
  }
}
layer {
  name: "out_ch_x"
  type: "Eltwise"
  bottom: "out_ch_reshape_scale"
  bottom: "pool5_2_conv4_relu"
  top: "out_ch_x"
  eltwise_param {
    operation: SUM
  }
}
layer {
  name: "out_conv_ch_x"
  type: "Convolution"
  bottom: "out_ch_x"
  top: "out_conv_ch_x"
  param {
    lr_mult: 1
    decay_mult: 1
  }
  param {
    lr_mult: 2
    decay_mult: 0
  }
  convolution_param {
    num_output: 512
    pad: 0
    kernel_size: 1
    weight_filler {
      type: "gaussian"
      std: 0.01
    }
    bias_filler {
      type: "constant"
      value: 0
    }
  }
}
layer {
  name: "out_conv_x"
  type: "Convolution"
  bottom: "out_x"
  top: "out_conv_x"
  param {
    lr_mult: 1
    decay_mult: 1
  }
  param {
    lr_mult: 2
    decay_mult: 0
  }
  convolution_param {
    num_output: 512
    pad: 0
    kernel_size: 1
    weight_filler {
      type: "gaussian"
      std: 0.01
    }
    bias_filler {
      type: "constant"
      value: 0
    }
  }
}
layer {
  name: "out_x_sum"
  type: "Eltwise"
  bottom: "out_conv_x"
  bottom: "out_conv_ch_x"
  top: "out_x_sum"
  eltwise_param {
    operation: SUM
  }
}
layer {
  name: "mask_deconv2"
  type: "Deconvolution"
  bottom: "out_x_sum"
  top: "mask_deconv2"
  param {
    lr_mult: 1
    decay_mult: 1
  }
  param {
    lr_mult: 2
    decay_mult: 0
  }
  convolution_param {
    num_output: 256
    pad: 1
    kernel_size: 8
    group: 256
    stride: 4
    weight_filler {
      type: "bilinear"
    }
  }
}
layer {
  name: "pool5_2_conv5"
  type: "Convolution"
  bottom: "mask_deconv2"
  top: "pool5_2_conv5"
  param {
    lr_mult: 1
    decay_mult: 1
  }
  param {
    lr_mult: 2
    decay_mult: 0
  }
  convolution_param {
    num_output: 512
    pad: 1
    kernel_size: 3
    stride: 1
    weight_filler {
      type: "gaussian"
      std: 0.01
    }
    bias_filler {
      type: "constant"
      value: 0
    }
  }
}
layer {
  name: "pool5_2_conv5_relu"
  type: "ReLU"
  bottom: "pool5_2_conv5"
  top: "pool5_2_conv5_relu"
}
layer {
  name: "pool5_2_conv6"
  type: "Convolution"
  bottom: "pool5_2_conv5_relu"
  top: "pool5_2_conv6"
  param {
    lr_mult: 1
    decay_mult: 1
  }
  param {
    lr_mult: 2
    decay_mult: 0
  }
  convolution_param {
    num_output: 512
    pad: 1
    kernel_size: 3
    stride: 1
    weight_filler {
      type: "gaussian"
      std: 0.01
    }
    bias_filler {
      type: "constant"
      value: 0
    }
  }
}
layer {
  name: "pool5_2_conv6_relu"
  type: "ReLU"
  bottom: "pool5_2_conv6"
  top: "pool5_2_conv6_relu"
}
layer {
  name: "mask_deconv3"
  type: "Deconvolution"
  bottom: "pool5_2_conv6_relu"
  top: "mask_deconv3"
  param {
    lr_mult: 1
    decay_mult: 1
  }
  param {
    lr_mult: 2
    decay_mult: 0
  }
  convolution_param {
    num_output: 256
    pad: 1
    kernel_size: 4
    group: 256
    stride: 2
    weight_filler {
      type: "bilinear"
    }
  }
}
layer {
  name: "mask_score"
  type: "Convolution"
  bottom: "mask_deconv3"
  top: "mask_score"
  param {
    lr_mult: 1
    decay_mult: 1
  }
  param {
    lr_mult: 2
    decay_mult: 0
  }
  convolution_param {
    num_output: 8
    pad: 0
    kernel_size: 1
    weight_filler {
      type: "gaussian"
      std: 0.01
    }
    bias_filler {
      type: "constant"
      value: 0
    }
  }
}
layer {
  name: "loss_mask"
  type: "SoftmaxWithLoss"
  bottom: "mask_score"
  bottom: "mask_targets"
  top: "loss_mask"
  loss_weight: 3
  propagate_down: true
  propagate_down: false
  loss_param {
    ignore_label: -1
    normalize: true
  }
}
I0604 18:46:13.561503 14657 layer_factory.hpp:77] Creating layer input-data
I0604 18:46:13.638258 14657 net.cpp:106] Creating Layer input-data
I0604 18:46:13.638275 14657 net.cpp:411] input-data -> data
I0604 18:46:13.638284 14657 net.cpp:411] input-data -> im_info
I0604 18:46:13.638290 14657 net.cpp:411] input-data -> gt_boxes
I0604 18:46:13.638294 14657 net.cpp:411] input-data -> seg_mask_inds
I0604 18:46:13.638298 14657 net.cpp:411] input-data -> flipped
RoiDataLayer: name_to_top: {'gt_boxes': 2, 'data': 0, 'seg_mask_inds': 3, 'im_info': 1, 'flipped': 4}
I0604 18:46:13.649559 14657 net.cpp:150] Setting up input-data
I0604 18:46:13.649575 14657 net.cpp:157] Top shape: 1 3 600 1000 (1800000)
I0604 18:46:13.649590 14657 net.cpp:157] Top shape: 1 3 (3)
I0604 18:46:13.649595 14657 net.cpp:157] Top shape: 1 4 (4)
I0604 18:46:13.649598 14657 net.cpp:157] Top shape: 1 2 (2)
I0604 18:46:13.649610 14657 net.cpp:157] Top shape: 1 1 (1)
I0604 18:46:13.649612 14657 net.cpp:165] Memory required for data: 7200040
I0604 18:46:13.649633 14657 layer_factory.hpp:77] Creating layer data_input-data_0_split
I0604 18:46:13.649655 14657 net.cpp:106] Creating Layer data_input-data_0_split
I0604 18:46:13.649672 14657 net.cpp:454] data_input-data_0_split <- data
I0604 18:46:13.649677 14657 net.cpp:411] data_input-data_0_split -> data_input-data_0_split_0
I0604 18:46:13.649693 14657 net.cpp:411] data_input-data_0_split -> data_input-data_0_split_1
I0604 18:46:13.649734 14657 net.cpp:150] Setting up data_input-data_0_split
I0604 18:46:13.649749 14657 net.cpp:157] Top shape: 1 3 600 1000 (1800000)
I0604 18:46:13.649751 14657 net.cpp:157] Top shape: 1 3 600 1000 (1800000)
I0604 18:46:13.649755 14657 net.cpp:165] Memory required for data: 21600040
I0604 18:46:13.649766 14657 layer_factory.hpp:77] Creating layer im_info_input-data_1_split
I0604 18:46:13.649770 14657 net.cpp:106] Creating Layer im_info_input-data_1_split
I0604 18:46:13.649772 14657 net.cpp:454] im_info_input-data_1_split <- im_info
I0604 18:46:13.649785 14657 net.cpp:411] im_info_input-data_1_split -> im_info_input-data_1_split_0
I0604 18:46:13.649790 14657 net.cpp:411] im_info_input-data_1_split -> im_info_input-data_1_split_1
I0604 18:46:13.649804 14657 net.cpp:411] im_info_input-data_1_split -> im_info_input-data_1_split_2
I0604 18:46:13.649847 14657 net.cpp:150] Setting up im_info_input-data_1_split
I0604 18:46:13.649861 14657 net.cpp:157] Top shape: 1 3 (3)
I0604 18:46:13.649863 14657 net.cpp:157] Top shape: 1 3 (3)
I0604 18:46:13.649866 14657 net.cpp:157] Top shape: 1 3 (3)
I0604 18:46:13.649869 14657 net.cpp:165] Memory required for data: 21600076
I0604 18:46:13.649873 14657 layer_factory.hpp:77] Creating layer gt_boxes_input-data_2_split
I0604 18:46:13.649876 14657 net.cpp:106] Creating Layer gt_boxes_input-data_2_split
I0604 18:46:13.649879 14657 net.cpp:454] gt_boxes_input-data_2_split <- gt_boxes
I0604 18:46:13.649884 14657 net.cpp:411] gt_boxes_input-data_2_split -> gt_boxes_input-data_2_split_0
I0604 18:46:13.649888 14657 net.cpp:411] gt_boxes_input-data_2_split -> gt_boxes_input-data_2_split_1
I0604 18:46:13.649905 14657 net.cpp:150] Setting up gt_boxes_input-data_2_split
I0604 18:46:13.649910 14657 net.cpp:157] Top shape: 1 4 (4)
I0604 18:46:13.649914 14657 net.cpp:157] Top shape: 1 4 (4)
I0604 18:46:13.649915 14657 net.cpp:165] Memory required for data: 21600108
I0604 18:46:13.649919 14657 layer_factory.hpp:77] Creating layer conv1_1
I0604 18:46:13.649927 14657 net.cpp:106] Creating Layer conv1_1
I0604 18:46:13.649930 14657 net.cpp:454] conv1_1 <- data_input-data_0_split_0
I0604 18:46:13.649935 14657 net.cpp:411] conv1_1 -> conv1_1
I0604 18:46:14.356564 14657 net.cpp:150] Setting up conv1_1
I0604 18:46:14.356585 14657 net.cpp:157] Top shape: 1 64 600 1000 (38400000)
I0604 18:46:14.356588 14657 net.cpp:165] Memory required for data: 175200108
I0604 18:46:14.356611 14657 layer_factory.hpp:77] Creating layer relu1_1
I0604 18:46:14.356619 14657 net.cpp:106] Creating Layer relu1_1
I0604 18:46:14.356634 14657 net.cpp:454] relu1_1 <- conv1_1
I0604 18:46:14.356638 14657 net.cpp:397] relu1_1 -> conv1_1 (in-place)
I0604 18:46:14.356767 14657 net.cpp:150] Setting up relu1_1
I0604 18:46:14.356773 14657 net.cpp:157] Top shape: 1 64 600 1000 (38400000)
I0604 18:46:14.356786 14657 net.cpp:165] Memory required for data: 328800108
I0604 18:46:14.356788 14657 layer_factory.hpp:77] Creating layer conv1_2
I0604 18:46:14.356796 14657 net.cpp:106] Creating Layer conv1_2
I0604 18:46:14.356811 14657 net.cpp:454] conv1_2 <- conv1_1
I0604 18:46:14.356813 14657 net.cpp:411] conv1_2 -> conv1_2
I0604 18:46:14.359109 14657 net.cpp:150] Setting up conv1_2
I0604 18:46:14.359131 14657 net.cpp:157] Top shape: 1 64 600 1000 (38400000)
I0604 18:46:14.359133 14657 net.cpp:165] Memory required for data: 482400108
I0604 18:46:14.359143 14657 layer_factory.hpp:77] Creating layer relu1_2
I0604 18:46:14.359148 14657 net.cpp:106] Creating Layer relu1_2
I0604 18:46:14.359150 14657 net.cpp:454] relu1_2 <- conv1_2
I0604 18:46:14.359154 14657 net.cpp:397] relu1_2 -> conv1_2 (in-place)
I0604 18:46:14.359264 14657 net.cpp:150] Setting up relu1_2
I0604 18:46:14.359270 14657 net.cpp:157] Top shape: 1 64 600 1000 (38400000)
I0604 18:46:14.359272 14657 net.cpp:165] Memory required for data: 636000108
I0604 18:46:14.359275 14657 layer_factory.hpp:77] Creating layer pool1
I0604 18:46:14.359282 14657 net.cpp:106] Creating Layer pool1
I0604 18:46:14.359284 14657 net.cpp:454] pool1 <- conv1_2
I0604 18:46:14.359288 14657 net.cpp:411] pool1 -> pool1
I0604 18:46:14.359339 14657 net.cpp:150] Setting up pool1
I0604 18:46:14.359344 14657 net.cpp:157] Top shape: 1 64 300 500 (9600000)
I0604 18:46:14.359345 14657 net.cpp:165] Memory required for data: 674400108
I0604 18:46:14.359357 14657 layer_factory.hpp:77] Creating layer conv2_1
I0604 18:46:14.359362 14657 net.cpp:106] Creating Layer conv2_1
I0604 18:46:14.359365 14657 net.cpp:454] conv2_1 <- pool1
I0604 18:46:14.359369 14657 net.cpp:411] conv2_1 -> conv2_1
I0604 18:46:14.361078 14657 net.cpp:150] Setting up conv2_1
I0604 18:46:14.361097 14657 net.cpp:157] Top shape: 1 128 300 500 (19200000)
I0604 18:46:14.361099 14657 net.cpp:165] Memory required for data: 751200108
I0604 18:46:14.361106 14657 layer_factory.hpp:77] Creating layer relu2_1
I0604 18:46:14.361111 14657 net.cpp:106] Creating Layer relu2_1
I0604 18:46:14.361115 14657 net.cpp:454] relu2_1 <- conv2_1
I0604 18:46:14.361119 14657 net.cpp:397] relu2_1 -> conv2_1 (in-place)
I0604 18:46:14.361645 14657 net.cpp:150] Setting up relu2_1
I0604 18:46:14.361654 14657 net.cpp:157] Top shape: 1 128 300 500 (19200000)
I0604 18:46:14.361655 14657 net.cpp:165] Memory required for data: 828000108
I0604 18:46:14.361658 14657 layer_factory.hpp:77] Creating layer conv2_2
I0604 18:46:14.361665 14657 net.cpp:106] Creating Layer conv2_2
I0604 18:46:14.361677 14657 net.cpp:454] conv2_2 <- conv2_1
I0604 18:46:14.361682 14657 net.cpp:411] conv2_2 -> conv2_2
I0604 18:46:14.363090 14657 net.cpp:150] Setting up conv2_2
I0604 18:46:14.363099 14657 net.cpp:157] Top shape: 1 128 300 500 (19200000)
I0604 18:46:14.363112 14657 net.cpp:165] Memory required for data: 904800108
I0604 18:46:14.363116 14657 layer_factory.hpp:77] Creating layer relu2_2
I0604 18:46:14.363122 14657 net.cpp:106] Creating Layer relu2_2
I0604 18:46:14.363126 14657 net.cpp:454] relu2_2 <- conv2_2
I0604 18:46:14.363131 14657 net.cpp:397] relu2_2 -> conv2_2 (in-place)
I0604 18:46:14.363262 14657 net.cpp:150] Setting up relu2_2
I0604 18:46:14.363270 14657 net.cpp:157] Top shape: 1 128 300 500 (19200000)
I0604 18:46:14.363271 14657 net.cpp:165] Memory required for data: 981600108
I0604 18:46:14.363273 14657 layer_factory.hpp:77] Creating layer pool2
I0604 18:46:14.363289 14657 net.cpp:106] Creating Layer pool2
I0604 18:46:14.363293 14657 net.cpp:454] pool2 <- conv2_2
I0604 18:46:14.363297 14657 net.cpp:411] pool2 -> pool2
I0604 18:46:14.363325 14657 net.cpp:150] Setting up pool2
I0604 18:46:14.363329 14657 net.cpp:157] Top shape: 1 128 150 250 (4800000)
I0604 18:46:14.363332 14657 net.cpp:165] Memory required for data: 1000800108
I0604 18:46:14.363334 14657 layer_factory.hpp:77] Creating layer conv3_1
I0604 18:46:14.363343 14657 net.cpp:106] Creating Layer conv3_1
I0604 18:46:14.363346 14657 net.cpp:454] conv3_1 <- pool2
I0604 18:46:14.363350 14657 net.cpp:411] conv3_1 -> conv3_1
I0604 18:46:14.365175 14657 net.cpp:150] Setting up conv3_1
I0604 18:46:14.365182 14657 net.cpp:157] Top shape: 1 256 150 250 (9600000)
I0604 18:46:14.365185 14657 net.cpp:165] Memory required for data: 1039200108
I0604 18:46:14.365203 14657 layer_factory.hpp:77] Creating layer relu3_1
I0604 18:46:14.365209 14657 net.cpp:106] Creating Layer relu3_1
I0604 18:46:14.365213 14657 net.cpp:454] relu3_1 <- conv3_1
I0604 18:46:14.365217 14657 net.cpp:397] relu3_1 -> conv3_1 (in-place)
I0604 18:46:14.365332 14657 net.cpp:150] Setting up relu3_1
I0604 18:46:14.365339 14657 net.cpp:157] Top shape: 1 256 150 250 (9600000)
I0604 18:46:14.365340 14657 net.cpp:165] Memory required for data: 1077600108
I0604 18:46:14.365345 14657 layer_factory.hpp:77] Creating layer conv3_2
I0604 18:46:14.365353 14657 net.cpp:106] Creating Layer conv3_2
I0604 18:46:14.365357 14657 net.cpp:454] conv3_2 <- conv3_1
I0604 18:46:14.365362 14657 net.cpp:411] conv3_2 -> conv3_2
I0604 18:46:14.367364 14657 net.cpp:150] Setting up conv3_2
I0604 18:46:14.367373 14657 net.cpp:157] Top shape: 1 256 150 250 (9600000)
I0604 18:46:14.367377 14657 net.cpp:165] Memory required for data: 1116000108
I0604 18:46:14.367381 14657 layer_factory.hpp:77] Creating layer relu3_2
I0604 18:46:14.367386 14657 net.cpp:106] Creating Layer relu3_2
I0604 18:46:14.367399 14657 net.cpp:454] relu3_2 <- conv3_2
I0604 18:46:14.367403 14657 net.cpp:397] relu3_2 -> conv3_2 (in-place)
I0604 18:46:14.367547 14657 net.cpp:150] Setting up relu3_2
I0604 18:46:14.367552 14657 net.cpp:157] Top shape: 1 256 150 250 (9600000)
I0604 18:46:14.367554 14657 net.cpp:165] Memory required for data: 1154400108
I0604 18:46:14.367556 14657 layer_factory.hpp:77] Creating layer conv3_3
I0604 18:46:14.367563 14657 net.cpp:106] Creating Layer conv3_3
I0604 18:46:14.367564 14657 net.cpp:454] conv3_3 <- conv3_2
I0604 18:46:14.367579 14657 net.cpp:411] conv3_3 -> conv3_3
I0604 18:46:14.369774 14657 net.cpp:150] Setting up conv3_3
I0604 18:46:14.369784 14657 net.cpp:157] Top shape: 1 256 150 250 (9600000)
I0604 18:46:14.369786 14657 net.cpp:165] Memory required for data: 1192800108
I0604 18:46:14.369791 14657 layer_factory.hpp:77] Creating layer relu3_3
I0604 18:46:14.369796 14657 net.cpp:106] Creating Layer relu3_3
I0604 18:46:14.369809 14657 net.cpp:454] relu3_3 <- conv3_3
I0604 18:46:14.369813 14657 net.cpp:397] relu3_3 -> conv3_3 (in-place)
I0604 18:46:14.369956 14657 net.cpp:150] Setting up relu3_3
I0604 18:46:14.369961 14657 net.cpp:157] Top shape: 1 256 150 250 (9600000)
I0604 18:46:14.369963 14657 net.cpp:165] Memory required for data: 1231200108
I0604 18:46:14.369966 14657 layer_factory.hpp:77] Creating layer pool3
I0604 18:46:14.369971 14657 net.cpp:106] Creating Layer pool3
I0604 18:46:14.369973 14657 net.cpp:454] pool3 <- conv3_3
I0604 18:46:14.369988 14657 net.cpp:411] pool3 -> pool3
I0604 18:46:14.370038 14657 net.cpp:150] Setting up pool3
I0604 18:46:14.370043 14657 net.cpp:157] Top shape: 1 256 75 125 (2400000)
I0604 18:46:14.370045 14657 net.cpp:165] Memory required for data: 1240800108
I0604 18:46:14.370048 14657 layer_factory.hpp:77] Creating layer conv4_1
I0604 18:46:14.370064 14657 net.cpp:106] Creating Layer conv4_1
I0604 18:46:14.370069 14657 net.cpp:454] conv4_1 <- pool3
I0604 18:46:14.370072 14657 net.cpp:411] conv4_1 -> conv4_1
I0604 18:46:14.373767 14657 net.cpp:150] Setting up conv4_1
I0604 18:46:14.373786 14657 net.cpp:157] Top shape: 1 512 75 125 (4800000)
I0604 18:46:14.373790 14657 net.cpp:165] Memory required for data: 1260000108
I0604 18:46:14.373796 14657 layer_factory.hpp:77] Creating layer relu4_1
I0604 18:46:14.373805 14657 net.cpp:106] Creating Layer relu4_1
I0604 18:46:14.373821 14657 net.cpp:454] relu4_1 <- conv4_1
I0604 18:46:14.373827 14657 net.cpp:397] relu4_1 -> conv4_1 (in-place)
I0604 18:46:14.374056 14657 net.cpp:150] Setting up relu4_1
I0604 18:46:14.374074 14657 net.cpp:157] Top shape: 1 512 75 125 (4800000)
I0604 18:46:14.374076 14657 net.cpp:165] Memory required for data: 1279200108
I0604 18:46:14.374079 14657 layer_factory.hpp:77] Creating layer conv4_2
I0604 18:46:14.374086 14657 net.cpp:106] Creating Layer conv4_2
I0604 18:46:14.374100 14657 net.cpp:454] conv4_2 <- conv4_1
I0604 18:46:14.374104 14657 net.cpp:411] conv4_2 -> conv4_2
I0604 18:46:14.378731 14657 net.cpp:150] Setting up conv4_2
I0604 18:46:14.378772 14657 net.cpp:157] Top shape: 1 512 75 125 (4800000)
I0604 18:46:14.378774 14657 net.cpp:165] Memory required for data: 1298400108
I0604 18:46:14.378787 14657 layer_factory.hpp:77] Creating layer relu4_2
I0604 18:46:14.378795 14657 net.cpp:106] Creating Layer relu4_2
I0604 18:46:14.378799 14657 net.cpp:454] relu4_2 <- conv4_2
I0604 18:46:14.378804 14657 net.cpp:397] relu4_2 -> conv4_2 (in-place)
I0604 18:46:14.379297 14657 net.cpp:150] Setting up relu4_2
I0604 18:46:14.379305 14657 net.cpp:157] Top shape: 1 512 75 125 (4800000)
I0604 18:46:14.379307 14657 net.cpp:165] Memory required for data: 1317600108
I0604 18:46:14.379310 14657 layer_factory.hpp:77] Creating layer conv4_3
I0604 18:46:14.379328 14657 net.cpp:106] Creating Layer conv4_3
I0604 18:46:14.379330 14657 net.cpp:454] conv4_3 <- conv4_2
I0604 18:46:14.379335 14657 net.cpp:411] conv4_3 -> conv4_3
I0604 18:46:14.383841 14657 net.cpp:150] Setting up conv4_3
I0604 18:46:14.383862 14657 net.cpp:157] Top shape: 1 512 75 125 (4800000)
I0604 18:46:14.383865 14657 net.cpp:165] Memory required for data: 1336800108
I0604 18:46:14.383872 14657 layer_factory.hpp:77] Creating layer relu4_3
I0604 18:46:14.383880 14657 net.cpp:106] Creating Layer relu4_3
I0604 18:46:14.383895 14657 net.cpp:454] relu4_3 <- conv4_3
I0604 18:46:14.383900 14657 net.cpp:397] relu4_3 -> conv4_3 (in-place)
I0604 18:46:14.384039 14657 net.cpp:150] Setting up relu4_3
I0604 18:46:14.384045 14657 net.cpp:157] Top shape: 1 512 75 125 (4800000)
I0604 18:46:14.384047 14657 net.cpp:165] Memory required for data: 1356000108
I0604 18:46:14.384049 14657 layer_factory.hpp:77] Creating layer pool4
I0604 18:46:14.384055 14657 net.cpp:106] Creating Layer pool4
I0604 18:46:14.384057 14657 net.cpp:454] pool4 <- conv4_3
I0604 18:46:14.384071 14657 net.cpp:411] pool4 -> pool4
I0604 18:46:14.384135 14657 net.cpp:150] Setting up pool4
I0604 18:46:14.384137 14657 net.cpp:157] Top shape: 1 512 38 63 (1225728)
I0604 18:46:14.384140 14657 net.cpp:165] Memory required for data: 1360903020
I0604 18:46:14.384151 14657 layer_factory.hpp:77] Creating layer conv5_1
I0604 18:46:14.384157 14657 net.cpp:106] Creating Layer conv5_1
I0604 18:46:14.384169 14657 net.cpp:454] conv5_1 <- pool4
I0604 18:46:14.384174 14657 net.cpp:411] conv5_1 -> conv5_1
I0604 18:46:14.388455 14657 net.cpp:150] Setting up conv5_1
I0604 18:46:14.388475 14657 net.cpp:157] Top shape: 1 512 38 63 (1225728)
I0604 18:46:14.388478 14657 net.cpp:165] Memory required for data: 1365805932
I0604 18:46:14.388485 14657 layer_factory.hpp:77] Creating layer relu5_1
I0604 18:46:14.388494 14657 net.cpp:106] Creating Layer relu5_1
I0604 18:46:14.388509 14657 net.cpp:454] relu5_1 <- conv5_1
I0604 18:46:14.388514 14657 net.cpp:397] relu5_1 -> conv5_1 (in-place)
I0604 18:46:14.388658 14657 net.cpp:150] Setting up relu5_1
I0604 18:46:14.388662 14657 net.cpp:157] Top shape: 1 512 38 63 (1225728)
I0604 18:46:14.388664 14657 net.cpp:165] Memory required for data: 1370708844
I0604 18:46:14.388667 14657 layer_factory.hpp:77] Creating layer conv5_2
I0604 18:46:14.388674 14657 net.cpp:106] Creating Layer conv5_2
I0604 18:46:14.388676 14657 net.cpp:454] conv5_2 <- conv5_1
I0604 18:46:14.388690 14657 net.cpp:411] conv5_2 -> conv5_2
I0604 18:46:14.393093 14657 net.cpp:150] Setting up conv5_2
I0604 18:46:14.393117 14657 net.cpp:157] Top shape: 1 512 38 63 (1225728)
I0604 18:46:14.393121 14657 net.cpp:165] Memory required for data: 1375611756
I0604 18:46:14.393132 14657 layer_factory.hpp:77] Creating layer relu5_2
I0604 18:46:14.393143 14657 net.cpp:106] Creating Layer relu5_2
I0604 18:46:14.393149 14657 net.cpp:454] relu5_2 <- conv5_2
I0604 18:46:14.393157 14657 net.cpp:397] relu5_2 -> conv5_2 (in-place)
I0604 18:46:14.393319 14657 net.cpp:150] Setting up relu5_2
I0604 18:46:14.393328 14657 net.cpp:157] Top shape: 1 512 38 63 (1225728)
I0604 18:46:14.393332 14657 net.cpp:165] Memory required for data: 1380514668
I0604 18:46:14.393334 14657 layer_factory.hpp:77] Creating layer conv5_3
I0604 18:46:14.393360 14657 net.cpp:106] Creating Layer conv5_3
I0604 18:46:14.393374 14657 net.cpp:454] conv5_3 <- conv5_2
I0604 18:46:14.393380 14657 net.cpp:411] conv5_3 -> conv5_3
I0604 18:46:14.398172 14657 net.cpp:150] Setting up conv5_3
I0604 18:46:14.398195 14657 net.cpp:157] Top shape: 1 512 38 63 (1225728)
I0604 18:46:14.398197 14657 net.cpp:165] Memory required for data: 1385417580
I0604 18:46:14.398206 14657 layer_factory.hpp:77] Creating layer relu5_3
I0604 18:46:14.398216 14657 net.cpp:106] Creating Layer relu5_3
I0604 18:46:14.398221 14657 net.cpp:454] relu5_3 <- conv5_3
I0604 18:46:14.398228 14657 net.cpp:397] relu5_3 -> conv5_3 (in-place)
I0604 18:46:14.398350 14657 net.cpp:150] Setting up relu5_3
I0604 18:46:14.398356 14657 net.cpp:157] Top shape: 1 512 38 63 (1225728)
I0604 18:46:14.398360 14657 net.cpp:165] Memory required for data: 1390320492
I0604 18:46:14.398363 14657 layer_factory.hpp:77] Creating layer conv5_3_relu5_3_0_split
I0604 18:46:14.398370 14657 net.cpp:106] Creating Layer conv5_3_relu5_3_0_split
I0604 18:46:14.398375 14657 net.cpp:454] conv5_3_relu5_3_0_split <- conv5_3
I0604 18:46:14.398381 14657 net.cpp:411] conv5_3_relu5_3_0_split -> conv5_3_relu5_3_0_split_0
I0604 18:46:14.398389 14657 net.cpp:411] conv5_3_relu5_3_0_split -> conv5_3_relu5_3_0_split_1
I0604 18:46:14.398396 14657 net.cpp:411] conv5_3_relu5_3_0_split -> conv5_3_relu5_3_0_split_2
I0604 18:46:14.398437 14657 net.cpp:150] Setting up conv5_3_relu5_3_0_split
I0604 18:46:14.398442 14657 net.cpp:157] Top shape: 1 512 38 63 (1225728)
I0604 18:46:14.398447 14657 net.cpp:157] Top shape: 1 512 38 63 (1225728)
I0604 18:46:14.398452 14657 net.cpp:157] Top shape: 1 512 38 63 (1225728)
I0604 18:46:14.398454 14657 net.cpp:165] Memory required for data: 1405029228
I0604 18:46:14.398458 14657 layer_factory.hpp:77] Creating layer rpn_conv/3x3
I0604 18:46:14.398470 14657 net.cpp:106] Creating Layer rpn_conv/3x3
I0604 18:46:14.398474 14657 net.cpp:454] rpn_conv/3x3 <- conv5_3_relu5_3_0_split_0
I0604 18:46:14.398483 14657 net.cpp:411] rpn_conv/3x3 -> rpn/output
I0604 18:46:14.449164 14657 net.cpp:150] Setting up rpn_conv/3x3
I0604 18:46:14.449184 14657 net.cpp:157] Top shape: 1 512 38 63 (1225728)
I0604 18:46:14.449187 14657 net.cpp:165] Memory required for data: 1409932140
I0604 18:46:14.449198 14657 layer_factory.hpp:77] Creating layer rpn_relu/3x3
I0604 18:46:14.449209 14657 net.cpp:106] Creating Layer rpn_relu/3x3
I0604 18:46:14.449215 14657 net.cpp:454] rpn_relu/3x3 <- rpn/output
I0604 18:46:14.449221 14657 net.cpp:397] rpn_relu/3x3 -> rpn/output (in-place)
I0604 18:46:14.449360 14657 net.cpp:150] Setting up rpn_relu/3x3
I0604 18:46:14.449368 14657 net.cpp:157] Top shape: 1 512 38 63 (1225728)
I0604 18:46:14.449370 14657 net.cpp:165] Memory required for data: 1414835052
I0604 18:46:14.449374 14657 layer_factory.hpp:77] Creating layer rpn/output_rpn_relu/3x3_0_split
I0604 18:46:14.449390 14657 net.cpp:106] Creating Layer rpn/output_rpn_relu/3x3_0_split
I0604 18:46:14.449396 14657 net.cpp:454] rpn/output_rpn_relu/3x3_0_split <- rpn/output
I0604 18:46:14.449401 14657 net.cpp:411] rpn/output_rpn_relu/3x3_0_split -> rpn/output_rpn_relu/3x3_0_split_0
I0604 18:46:14.449420 14657 net.cpp:411] rpn/output_rpn_relu/3x3_0_split -> rpn/output_rpn_relu/3x3_0_split_1
I0604 18:46:14.449482 14657 net.cpp:150] Setting up rpn/output_rpn_relu/3x3_0_split
I0604 18:46:14.449498 14657 net.cpp:157] Top shape: 1 512 38 63 (1225728)
I0604 18:46:14.449502 14657 net.cpp:157] Top shape: 1 512 38 63 (1225728)
I0604 18:46:14.449514 14657 net.cpp:165] Memory required for data: 1424640876
I0604 18:46:14.449519 14657 layer_factory.hpp:77] Creating layer rpn_cls_score
I0604 18:46:14.449553 14657 net.cpp:106] Creating Layer rpn_cls_score
I0604 18:46:14.449558 14657 net.cpp:454] rpn_cls_score <- rpn/output_rpn_relu/3x3_0_split_0
I0604 18:46:14.449573 14657 net.cpp:411] rpn_cls_score -> rpn_cls_score
I0604 18:46:14.451179 14657 net.cpp:150] Setting up rpn_cls_score
I0604 18:46:14.451187 14657 net.cpp:157] Top shape: 1 30 38 63 (71820)
I0604 18:46:14.451191 14657 net.cpp:165] Memory required for data: 1424928156
I0604 18:46:14.451198 14657 layer_factory.hpp:77] Creating layer rpn_cls_score_rpn_cls_score_0_split
I0604 18:46:14.451205 14657 net.cpp:106] Creating Layer rpn_cls_score_rpn_cls_score_0_split
I0604 18:46:14.451210 14657 net.cpp:454] rpn_cls_score_rpn_cls_score_0_split <- rpn_cls_score
I0604 18:46:14.451227 14657 net.cpp:411] rpn_cls_score_rpn_cls_score_0_split -> rpn_cls_score_rpn_cls_score_0_split_0
I0604 18:46:14.451237 14657 net.cpp:411] rpn_cls_score_rpn_cls_score_0_split -> rpn_cls_score_rpn_cls_score_0_split_1
I0604 18:46:14.451308 14657 net.cpp:150] Setting up rpn_cls_score_rpn_cls_score_0_split
I0604 18:46:14.451313 14657 net.cpp:157] Top shape: 1 30 38 63 (71820)
I0604 18:46:14.451325 14657 net.cpp:157] Top shape: 1 30 38 63 (71820)
I0604 18:46:14.451329 14657 net.cpp:165] Memory required for data: 1425502716
I0604 18:46:14.451344 14657 layer_factory.hpp:77] Creating layer rpn_bbox_pred
I0604 18:46:14.451354 14657 net.cpp:106] Creating Layer rpn_bbox_pred
I0604 18:46:14.451357 14657 net.cpp:454] rpn_bbox_pred <- rpn/output_rpn_relu/3x3_0_split_1
I0604 18:46:14.451364 14657 net.cpp:411] rpn_bbox_pred -> rpn_bbox_pred
I0604 18:46:14.452904 14657 net.cpp:150] Setting up rpn_bbox_pred
I0604 18:46:14.452913 14657 net.cpp:157] Top shape: 1 60 38 63 (143640)
I0604 18:46:14.452916 14657 net.cpp:165] Memory required for data: 1426077276
I0604 18:46:14.452934 14657 layer_factory.hpp:77] Creating layer rpn_bbox_pred_rpn_bbox_pred_0_split
I0604 18:46:14.452940 14657 net.cpp:106] Creating Layer rpn_bbox_pred_rpn_bbox_pred_0_split
I0604 18:46:14.452944 14657 net.cpp:454] rpn_bbox_pred_rpn_bbox_pred_0_split <- rpn_bbox_pred
I0604 18:46:14.452950 14657 net.cpp:411] rpn_bbox_pred_rpn_bbox_pred_0_split -> rpn_bbox_pred_rpn_bbox_pred_0_split_0
I0604 18:46:14.452957 14657 net.cpp:411] rpn_bbox_pred_rpn_bbox_pred_0_split -> rpn_bbox_pred_rpn_bbox_pred_0_split_1
I0604 18:46:14.452991 14657 net.cpp:150] Setting up rpn_bbox_pred_rpn_bbox_pred_0_split
I0604 18:46:14.453006 14657 net.cpp:157] Top shape: 1 60 38 63 (143640)
I0604 18:46:14.453011 14657 net.cpp:157] Top shape: 1 60 38 63 (143640)
I0604 18:46:14.453013 14657 net.cpp:165] Memory required for data: 1427226396
I0604 18:46:14.453028 14657 layer_factory.hpp:77] Creating layer rpn_cls_score_reshape
I0604 18:46:14.453037 14657 net.cpp:106] Creating Layer rpn_cls_score_reshape
I0604 18:46:14.453042 14657 net.cpp:454] rpn_cls_score_reshape <- rpn_cls_score_rpn_cls_score_0_split_0
I0604 18:46:14.453050 14657 net.cpp:411] rpn_cls_score_reshape -> rpn_cls_score_reshape
I0604 18:46:14.453073 14657 net.cpp:150] Setting up rpn_cls_score_reshape
I0604 18:46:14.453083 14657 net.cpp:157] Top shape: 1 2 570 63 (71820)
I0604 18:46:14.453086 14657 net.cpp:165] Memory required for data: 1427513676
I0604 18:46:14.453089 14657 layer_factory.hpp:77] Creating layer rpn_cls_score_reshape_rpn_cls_score_reshape_0_split
I0604 18:46:14.453095 14657 net.cpp:106] Creating Layer rpn_cls_score_reshape_rpn_cls_score_reshape_0_split
I0604 18:46:14.453100 14657 net.cpp:454] rpn_cls_score_reshape_rpn_cls_score_reshape_0_split <- rpn_cls_score_reshape
I0604 18:46:14.453105 14657 net.cpp:411] rpn_cls_score_reshape_rpn_cls_score_reshape_0_split -> rpn_cls_score_reshape_rpn_cls_score_reshape_0_split_0
I0604 18:46:14.453112 14657 net.cpp:411] rpn_cls_score_reshape_rpn_cls_score_reshape_0_split -> rpn_cls_score_reshape_rpn_cls_score_reshape_0_split_1
I0604 18:46:14.453140 14657 net.cpp:150] Setting up rpn_cls_score_reshape_rpn_cls_score_reshape_0_split
I0604 18:46:14.453145 14657 net.cpp:157] Top shape: 1 2 570 63 (71820)
I0604 18:46:14.453150 14657 net.cpp:157] Top shape: 1 2 570 63 (71820)
I0604 18:46:14.453152 14657 net.cpp:165] Memory required for data: 1428088236
I0604 18:46:14.453155 14657 layer_factory.hpp:77] Creating layer rpn-data
I0604 18:46:14.453513 14657 net.cpp:106] Creating Layer rpn-data
I0604 18:46:14.453521 14657 net.cpp:454] rpn-data <- rpn_cls_score_rpn_cls_score_0_split_1
I0604 18:46:14.453527 14657 net.cpp:454] rpn-data <- gt_boxes_input-data_2_split_0
I0604 18:46:14.453532 14657 net.cpp:454] rpn-data <- im_info_input-data_1_split_0
I0604 18:46:14.453539 14657 net.cpp:454] rpn-data <- data_input-data_0_split_1
I0604 18:46:14.453547 14657 net.cpp:411] rpn-data -> rpn_labels
I0604 18:46:14.453554 14657 net.cpp:411] rpn-data -> rpn_bbox_targets
I0604 18:46:14.453562 14657 net.cpp:411] rpn-data -> rpn_bbox_inside_weights
I0604 18:46:14.453570 14657 net.cpp:411] rpn-data -> rpn_bbox_outside_weights
===================================anchor_scales in AnchorTargetLayer:=============(2, 4, 8, 16, 32)
I0604 18:46:14.454432 14657 net.cpp:150] Setting up rpn-data
I0604 18:46:14.454440 14657 net.cpp:157] Top shape: 1 1 570 63 (35910)
I0604 18:46:14.454447 14657 net.cpp:157] Top shape: 1 60 38 63 (143640)
I0604 18:46:14.454450 14657 net.cpp:157] Top shape: 1 60 38 63 (143640)
I0604 18:46:14.454455 14657 net.cpp:157] Top shape: 1 60 38 63 (143640)
I0604 18:46:14.454460 14657 net.cpp:165] Memory required for data: 1429955556
I0604 18:46:14.454466 14657 layer_factory.hpp:77] Creating layer rpn_loss_cls
I0604 18:46:14.454478 14657 net.cpp:106] Creating Layer rpn_loss_cls
I0604 18:46:14.454483 14657 net.cpp:454] rpn_loss_cls <- rpn_cls_score_reshape_rpn_cls_score_reshape_0_split_0
I0604 18:46:14.454488 14657 net.cpp:454] rpn_loss_cls <- rpn_labels
…
I0604 18:46:14.458163 14657 net.cpp:157] Top shape: (1)
I0604 18:46:14.458166 14657 net.cpp:160]     with loss weight 1
I0604 18:46:14.458173 14657 net.cpp:165] Memory required for data: 1429955564
I0604 18:46:14.458176 14657 layer_factory.hpp:77] Creating layer rpn_cls_prob
I0604 18:46:14.458184 14657 net.cpp:106] Creating Layer rpn_cls_prob
I0604 18:46:14.458190 14657 net.cpp:454] rpn_cls_prob <- rpn_cls_score_reshape_rpn_cls_score_reshape_0_split_1
I0604 18:46:14.458197 14657 net.cpp:411] rpn_cls_prob -> rpn_cls_prob
I0604 18:46:14.458359 14657 net.cpp:150] Setting up rpn_cls_prob
I0604 18:46:14.458369 14657 net.cpp:157] Top shape: 1 2 570 63 (71820)
I0604 18:46:14.458372 14657 net.cpp:165] Memory required for data: 1430242844
I0604 18:46:14.458376 14657 layer_factory.hpp:77] Creating layer rpn_cls_prob_reshape
I0604 18:46:14.458386 14657 net.cpp:106] Creating Layer rpn_cls_prob_reshape
I0604 18:46:14.458395 14657 net.cpp:454] rpn_cls_prob_reshape <- rpn_cls_prob
I0604 18:46:14.458400 14657 net.cpp:411] rpn_cls_prob_reshape -> rpn_cls_prob_reshape
I0604 18:46:14.458427 14657 net.cpp:150] Setting up rpn_cls_prob_reshape
I0604 18:46:14.458434 14657 net.cpp:157] Top shape: 1 30 38 63 (71820)
I0604 18:46:14.458437 14657 net.cpp:165] Memory required for data: 1430530124
I0604 18:46:14.458441 14657 layer_factory.hpp:77] Creating layer proposal
I0604 18:46:14.458889 14657 net.cpp:106] Creating Layer proposal
I0604 18:46:14.458899 14657 net.cpp:454] proposal <- rpn_cls_prob_reshape
I0604 18:46:14.458914 14657 net.cpp:454] proposal <- rpn_bbox_pred_rpn_bbox_pred_0_split_1
I0604 18:46:14.458920 14657 net.cpp:454] proposal <- im_info_input-data_1_split_1
I0604 18:46:14.458938 14657 net.cpp:411] proposal -> rpn_rois
=================================anchor_scales in ProposalLayer:=============(2, 4, 8, 16, 32)
I0604 18:46:14.460636 14657 net.cpp:150] Setting up proposal
I0604 18:46:14.460657 14657 net.cpp:157] Top shape: 1 5 (5)
I0604 18:46:14.460661 14657 net.cpp:165] Memory required for data: 1430530144
I0604 18:46:14.460665 14657 layer_factory.hpp:77] Creating layer roi-data
I0604 18:46:14.460862 14657 net.cpp:106] Creating Layer roi-data
I0604 18:46:14.460870 14657 net.cpp:454] roi-data <- rpn_rois
I0604 18:46:14.460876 14657 net.cpp:454] roi-data <- gt_boxes_input-data_2_split_1
I0604 18:46:14.460891 14657 net.cpp:454] roi-data <- im_info_input-data_1_split_2
I0604 18:46:14.460896 14657 net.cpp:454] roi-data <- seg_mask_inds
I0604 18:46:14.460903 14657 net.cpp:454] roi-data <- flipped
I0604 18:46:14.460911 14657 net.cpp:411] roi-data -> rois
I0604 18:46:14.460919 14657 net.cpp:411] roi-data -> labels
I0604 18:46:14.460937 14657 net.cpp:411] roi-data -> bbox_targets
I0604 18:46:14.460953 14657 net.cpp:411] roi-data -> bbox_inside_weights
I0604 18:46:14.460960 14657 net.cpp:411] roi-data -> bbox_outside_weights
I0604 18:46:14.460968 14657 net.cpp:411] roi-data -> mask_targets
I0604 18:46:14.460975 14657 net.cpp:411] roi-data -> rois_pos
I0604 18:46:14.461256 14657 net.cpp:150] Setting up roi-data
I0604 18:46:14.461266 14657 net.cpp:157] Top shape: 1 5 (5)
I0604 18:46:14.461271 14657 net.cpp:157] Top shape: 1 1 (1)
I0604 18:46:14.461274 14657 net.cpp:157] Top shape: 1 8 (8)
I0604 18:46:14.461277 14657 net.cpp:157] Top shape: 1 8 (8)
I0604 18:46:14.461282 14657 net.cpp:157] Top shape: 1 8 (8)
I0604 18:46:14.461287 14657 net.cpp:157] Top shape: 1 244 244 (59536)
I0604 18:46:14.461290 14657 net.cpp:157] Top shape: 1 5 (5)
I0604 18:46:14.461295 14657 net.cpp:165] Memory required for data: 1430768428
I0604 18:46:14.461299 14657 layer_factory.hpp:77] Creating layer roi_pool5
I0604 18:46:14.461313 14657 net.cpp:106] Creating Layer roi_pool5
I0604 18:46:14.461318 14657 net.cpp:454] roi_pool5 <- conv5_3_relu5_3_0_split_1
I0604 18:46:14.461323 14657 net.cpp:454] roi_pool5 <- rois
I0604 18:46:14.461328 14657 net.cpp:411] roi_pool5 -> pool5
I0604 18:46:14.461338 14657 roi_alignment_layer.cpp:32] Spatial scale: 0.0625
I0604 18:46:14.461410 14657 net.cpp:150] Setting up roi_pool5
I0604 18:46:14.461441 14657 net.cpp:157] Top shape: 1 512 7 7 (25088)
I0604 18:46:14.461444 14657 net.cpp:165] Memory required for data: 1430868780
I0604 18:46:14.461448 14657 layer_factory.hpp:77] Creating layer fc6
I0604 18:46:14.461459 14657 net.cpp:106] Creating Layer fc6
I0604 18:46:14.461463 14657 net.cpp:454] fc6 <- pool5
I0604 18:46:14.461469 14657 net.cpp:411] fc6 -> fc6
I0604 18:46:14.602511 14657 net.cpp:150] Setting up fc6
I0604 18:46:14.602536 14657 net.cpp:157] Top shape: 1 4096 (4096)
I0604 18:46:14.602541 14657 net.cpp:165] Memory required for data: 1430885164
I0604 18:46:14.602582 14657 layer_factory.hpp:77] Creating layer relu6
I0604 18:46:14.602605 14657 net.cpp:106] Creating Layer relu6
I0604 18:46:14.602612 14657 net.cpp:454] relu6 <- fc6
I0604 18:46:14.602620 14657 net.cpp:397] relu6 -> fc6 (in-place)
I0604 18:46:14.602835 14657 net.cpp:150] Setting up relu6
I0604 18:46:14.602844 14657 net.cpp:157] Top shape: 1 4096 (4096)
I0604 18:46:14.602847 14657 net.cpp:165] Memory required for data: 1430901548
I0604 18:46:14.602852 14657 layer_factory.hpp:77] Creating layer fc7
I0604 18:46:14.602870 14657 net.cpp:106] Creating Layer fc7
I0604 18:46:14.602874 14657 net.cpp:454] fc7 <- fc6
I0604 18:46:14.602890 14657 net.cpp:411] fc7 -> fc7
I0604 18:46:14.627436 14657 net.cpp:150] Setting up fc7
I0604 18:46:14.627460 14657 net.cpp:157] Top shape: 1 4096 (4096)
I0604 18:46:14.627463 14657 net.cpp:165] Memory required for data: 1430917932
I0604 18:46:14.627475 14657 layer_factory.hpp:77] Creating layer relu7
I0604 18:46:14.627496 14657 net.cpp:106] Creating Layer relu7
I0604 18:46:14.627502 14657 net.cpp:454] relu7 <- fc7
I0604 18:46:14.627509 14657 net.cpp:397] relu7 -> fc7 (in-place)
I0604 18:46:14.627689 14657 net.cpp:150] Setting up relu7
I0604 18:46:14.627698 14657 net.cpp:157] Top shape: 1 4096 (4096)
I0604 18:46:14.627702 14657 net.cpp:165] Memory required for data: 1430934316
I0604 18:46:14.627705 14657 layer_factory.hpp:77] Creating layer fc7_relu7_0_split
I0604 18:46:14.627722 14657 net.cpp:106] Creating Layer fc7_relu7_0_split
I0604 18:46:14.627725 14657 net.cpp:454] fc7_relu7_0_split <- fc7
I0604 18:46:14.627732 14657 net.cpp:411] fc7_relu7_0_split -> fc7_relu7_0_split_0
I0604 18:46:14.627741 14657 net.cpp:411] fc7_relu7_0_split -> fc7_relu7_0_split_1
I0604 18:46:14.627791 14657 net.cpp:150] Setting up fc7_relu7_0_split
I0604 18:46:14.627797 14657 net.cpp:157] Top shape: 1 4096 (4096)
I0604 18:46:14.627802 14657 net.cpp:157] Top shape: 1 4096 (4096)
I0604 18:46:14.627805 14657 net.cpp:165] Memory required for data: 1430967084
I0604 18:46:14.627820 14657 layer_factory.hpp:77] Creating layer cls_score
I0604 18:46:14.627832 14657 net.cpp:106] Creating Layer cls_score
I0604 18:46:14.627836 14657 net.cpp:454] cls_score <- fc7_relu7_0_split_0
I0604 18:46:14.627842 14657 net.cpp:411] cls_score -> cls_score
I0604 18:46:14.628093 14657 net.cpp:150] Setting up cls_score
I0604 18:46:14.628099 14657 net.cpp:157] Top shape: 1 2 (2)
I0604 18:46:14.628103 14657 net.cpp:165] Memory required for data: 1430967092
I0604 18:46:14.628119 14657 layer_factory.hpp:77] Creating layer bbox_pred
I0604 18:46:14.628126 14657 net.cpp:106] Creating Layer bbox_pred
I0604 18:46:14.628130 14657 net.cpp:454] bbox_pred <- fc7_relu7_0_split_1
I0604 18:46:14.628139 14657 net.cpp:411] bbox_pred -> bbox_pred
I0604 18:46:14.628892 14657 net.cpp:150] Setting up bbox_pred
I0604 18:46:14.628899 14657 net.cpp:157] Top shape: 1 8 (8)
I0604 18:46:14.628902 14657 net.cpp:165] Memory required for data: 1430967124
I0604 18:46:14.628921 14657 layer_factory.hpp:77] Creating layer loss_cls
I0604 18:46:14.628932 14657 net.cpp:106] Creating Layer loss_cls
I0604 18:46:14.628937 14657 net.cpp:454] loss_cls <- cls_score
I0604 18:46:14.628942 14657 net.cpp:454] loss_cls <- labels
I0604 18:46:14.628947 14657 net.cpp:411] loss_cls -> loss_cls
…
I0604 18:46:14.629808 14657 net.cpp:165] Memory required for data: 1430967132
I0604 18:46:14.629813 14657 layer_factory.hpp:77] Creating layer roi_pool5_2
I0604 18:46:14.629822 14657 net.cpp:106] Creating Layer roi_pool5_2
I0604 18:46:14.629828 14657 net.cpp:454] roi_pool5_2 <- conv5_3_relu5_3_0_split_2
I0604 18:46:14.629835 14657 net.cpp:454] roi_pool5_2 <- rois_pos
I0604 18:46:14.629842 14657 net.cpp:411] roi_pool5_2 -> pool5_2
I0604 18:46:14.629850 14657 roi_alignment_layer.cpp:32] Spatial scale: 0.0625
I0604 18:46:14.629922 14657 net.cpp:150] Setting up roi_pool5_2
I0604 18:46:14.629927 14657 net.cpp:157] Top shape: 1 512 7 7 (25088)
I0604 18:46:14.629931 14657 net.cpp:165] Memory required for data: 1431067484
I0604 18:46:14.629935 14657 layer_factory.hpp:77] Creating layer pool5_2_conv
I0604 18:46:14.629951 14657 net.cpp:106] Creating Layer pool5_2_conv
I0604 18:46:14.629956 14657 net.cpp:454] pool5_2_conv <- pool5_2
I0604 18:46:14.629962 14657 net.cpp:411] pool5_2_conv -> pool5_2_conv
I0604 18:46:14.636868 14657 net.cpp:150] Setting up pool5_2_conv
I0604 18:46:14.636885 14657 net.cpp:157] Top shape: 1 512 7 7 (25088)
I0604 18:46:14.636889 14657 net.cpp:165] Memory required for data: 1431167836
I0604 18:46:14.636898 14657 layer_factory.hpp:77] Creating layer pool5_2_conv_relu
I0604 18:46:14.636920 14657 net.cpp:106] Creating Layer pool5_2_conv_relu
I0604 18:46:14.636927 14657 net.cpp:454] pool5_2_conv_relu <- pool5_2_conv
I0604 18:46:14.636934 14657 net.cpp:411] pool5_2_conv_relu -> pool5_2_conv_relu
I0604 18:46:14.637079 14657 net.cpp:150] Setting up pool5_2_conv_relu
I0604 18:46:14.637086 14657 net.cpp:157] Top shape: 1 512 7 7 (25088)
I0604 18:46:14.637090 14657 net.cpp:165] Memory required for data: 1431268188
I0604 18:46:14.637094 14657 layer_factory.hpp:77] Creating layer pool5_2_conv2
I0604 18:46:14.637122 14657 net.cpp:106] Creating Layer pool5_2_conv2
I0604 18:46:14.637136 14657 net.cpp:454] pool5_2_conv2 <- pool5_2_conv_relu
I0604 18:46:14.637145 14657 net.cpp:411] pool5_2_conv2 -> pool5_2_conv2
I0604 18:46:14.689389 14657 net.cpp:150] Setting up pool5_2_conv2
I0604 18:46:14.689409 14657 net.cpp:157] Top shape: 1 512 7 7 (25088)
I0604 18:46:14.689442 14657 net.cpp:165] Memory required for data: 1431368540
I0604 18:46:14.689453 14657 layer_factory.hpp:77] Creating layer pool5_2_conv2_relu
I0604 18:46:14.689472 14657 net.cpp:106] Creating Layer pool5_2_conv2_relu
I0604 18:46:14.689477 14657 net.cpp:454] pool5_2_conv2_relu <- pool5_2_conv2
I0604 18:46:14.689486 14657 net.cpp:411] pool5_2_conv2_relu -> pool5_2_conv2_relu
I0604 18:46:14.689692 14657 net.cpp:150] Setting up pool5_2_conv2_relu
I0604 18:46:14.689700 14657 net.cpp:157] Top shape: 1 512 7 7 (25088)
I0604 18:46:14.689704 14657 net.cpp:165] Memory required for data: 1431468892
I0604 18:46:14.689708 14657 layer_factory.hpp:77] Creating layer mask_deconv1
I0604 18:46:14.689731 14657 net.cpp:106] Creating Layer mask_deconv1
I0604 18:46:14.689735 14657 net.cpp:454] mask_deconv1 <- pool5_2_conv2_relu
I0604 18:46:14.689743 14657 net.cpp:411] mask_deconv1 -> mask_deconv1
I0604 18:46:14.690508 14657 net.cpp:150] Setting up mask_deconv1
I0604 18:46:14.690515 14657 net.cpp:157] Top shape: 1 256 30 30 (230400)
I0604 18:46:14.690517 14657 net.cpp:165] Memory required for data: 1432390492
I0604 18:46:14.690534 14657 layer_factory.hpp:77] Creating layer pool5_2_conv3
I0604 18:46:14.690549 14657 net.cpp:106] Creating Layer pool5_2_conv3
I0604 18:46:14.690553 14657 net.cpp:454] pool5_2_conv3 <- mask_deconv1
I0604 18:46:14.690560 14657 net.cpp:411] pool5_2_conv3 -> pool5_2_conv3
I0604 18:46:14.716872 14657 net.cpp:150] Setting up pool5_2_conv3
I0604 18:46:14.716892 14657 net.cpp:157] Top shape: 1 512 30 30 (460800)
I0604 18:46:14.716895 14657 net.cpp:165] Memory required for data: 1434233692
I0604 18:46:14.716915 14657 layer_factory.hpp:77] Creating layer pool5_2_conv3_relu
I0604 18:46:14.716936 14657 net.cpp:106] Creating Layer pool5_2_conv3_relu
I0604 18:46:14.716943 14657 net.cpp:454] pool5_2_conv3_relu <- pool5_2_conv3
I0604 18:46:14.716960 14657 net.cpp:411] pool5_2_conv3_relu -> pool5_2_conv3_relu
I0604 18:46:14.717125 14657 net.cpp:150] Setting up pool5_2_conv3_relu
I0604 18:46:14.717133 14657 net.cpp:157] Top shape: 1 512 30 30 (460800)
I0604 18:46:14.717136 14657 net.cpp:165] Memory required for data: 1436076892
I0604 18:46:14.717150 14657 layer_factory.hpp:77] Creating layer pool5_2_conv4
I0604 18:46:14.717162 14657 net.cpp:106] Creating Layer pool5_2_conv4
I0604 18:46:14.717169 14657 net.cpp:454] pool5_2_conv4 <- pool5_2_conv3_relu
I0604 18:46:14.717175 14657 net.cpp:411] pool5_2_conv4 -> pool5_2_conv4
I0604 18:46:14.768543 14657 net.cpp:150] Setting up pool5_2_conv4
I0604 18:46:14.768563 14657 net.cpp:157] Top shape: 1 512 30 30 (460800)
I0604 18:46:14.768568 14657 net.cpp:165] Memory required for data: 1437920092
I0604 18:46:14.768576 14657 layer_factory.hpp:77] Creating layer pool5_2_conv4_relu
I0604 18:46:14.768586 14657 net.cpp:106] Creating Layer pool5_2_conv4_relu
I0604 18:46:14.768594 14657 net.cpp:454] pool5_2_conv4_relu <- pool5_2_conv4
I0604 18:46:14.768601 14657 net.cpp:411] pool5_2_conv4_relu -> pool5_2_conv4_relu
I0604 18:46:14.768743 14657 net.cpp:150] Setting up pool5_2_conv4_relu
I0604 18:46:14.768762 14657 net.cpp:157] Top shape: 1 512 30 30 (460800)
I0604 18:46:14.768766 14657 net.cpp:165] Memory required for data: 1439763292
I0604 18:46:14.768781 14657 layer_factory.hpp:77] Creating layer pool5_2_conv4_relu_pool5_2_conv4_relu_0_split
I0604 18:46:14.768790 14657 net.cpp:106] Creating Layer pool5_2_conv4_relu_pool5_2_conv4_relu_0_split
I0604 18:46:14.768805 14657 net.cpp:454] pool5_2_conv4_relu_pool5_2_conv4_relu_0_split <- pool5_2_conv4_relu
…
I0604 18:46:14.768839 14657 net.cpp:411] pool5_2_conv4_relu_pool5_2_conv4_relu_0_split -> pool5_2_conv4_relu_pool5_2_conv4_relu_0_split_4
I0604 18:46:14.768846 14657 net.cpp:411] pool5_2_conv4_relu_pool5_2_conv4_relu_0_split -> pool5_2_conv4_relu_pool5_2_conv4_relu_0_split_5
I0604 18:46:14.768851 14657 net.cpp:411] pool5_2_conv4_relu_pool5_2_conv4_relu_0_split -> pool5_2_conv4_relu_pool5_2_conv4_relu_0_split_6
I0604 18:46:14.768856 14657 net.cpp:411] pool5_2_conv4_relu_pool5_2_conv4_relu_0_split -> pool5_2_conv4_relu_pool5_2_conv4_relu_0_split_7
I0604 18:46:14.768931 14657 net.cpp:150] Setting up pool5_2_conv4_relu_pool5_2_conv4_relu_0_split
I0604 18:46:14.768937 14657 net.cpp:157] Top shape: 1 512 30 30 (460800)
I0604 18:46:14.768941 14657 net.cpp:157] Top shape: 1 512 30 30 (460800)
I0604 18:46:14.768945 14657 net.cpp:157] Top shape: 1 512 30 30 (460800)
I0604 18:46:14.768962 14657 net.cpp:157] Top shape: 1 512 30 30 (460800)
I0604 18:46:14.768966 14657 net.cpp:157] Top shape: 1 512 30 30 (460800)
I0604 18:46:14.768972 14657 net.cpp:157] Top shape: 1 512 30 30 (460800)
I0604 18:46:14.768976 14657 net.cpp:157] Top shape: 1 512 30 30 (460800)
I0604 18:46:14.768982 14657 net.cpp:157] Top shape: 1 512 30 30 (460800)
I0604 18:46:14.768985 14657 net.cpp:165] Memory required for data: 1454508892
I0604 18:46:14.768990 14657 layer_factory.hpp:77] Creating layer query_conv
I0604 18:46:14.769004 14657 net.cpp:106] Creating Layer query_conv
I0604 18:46:14.769011 14657 net.cpp:454] query_conv <- pool5_2_conv4_relu_pool5_2_conv4_relu_0_split_0
I0604 18:46:14.769018 14657 net.cpp:411] query_conv -> query_conv
I0604 18:46:14.770622 14657 net.cpp:150] Setting up query_conv
I0604 18:46:14.770632 14657 net.cpp:157] Top shape: 1 64 30 30 (57600)
I0604 18:46:14.770635 14657 net.cpp:165] Memory required for data: 1454739292
I0604 18:46:14.770653 14657 layer_factory.hpp:77] Creating layer key_conv
I0604 18:46:14.770664 14657 net.cpp:106] Creating Layer key_conv
I0604 18:46:14.770670 14657 net.cpp:454] key_conv <- pool5_2_conv4_relu_pool5_2_conv4_relu_0_split_1
I0604 18:46:14.770679 14657 net.cpp:411] key_conv -> key_conv
I0604 18:46:14.772202 14657 net.cpp:150] Setting up key_conv
I0604 18:46:14.772212 14657 net.cpp:157] Top shape: 1 64 30 30 (57600)
I0604 18:46:14.772215 14657 net.cpp:165] Memory required for data: 1454969692
I0604 18:46:14.772233 14657 layer_factory.hpp:77] Creating layer value_conv
I0604 18:46:14.772254 14657 net.cpp:106] Creating Layer value_conv
I0604 18:46:14.772259 14657 net.cpp:454] value_conv <- pool5_2_conv4_relu_pool5_2_conv4_relu_0_split_2
I0604 18:46:14.772276 14657 net.cpp:411] value_conv -> value_conv
I0604 18:46:14.779176 14657 net.cpp:150] Setting up value_conv
I0604 18:46:14.779186 14657 net.cpp:157] Top shape: 1 512 30 30 (460800)
I0604 18:46:14.779191 14657 net.cpp:165] Memory required for data: 1456812892
I0604 18:46:14.779197 14657 layer_factory.hpp:77] Creating layer query_conv_reshape
I0604 18:46:14.779209 14657 net.cpp:106] Creating Layer query_conv_reshape
I0604 18:46:14.779214 14657 net.cpp:454] query_conv_reshape <- query_conv
I0604 18:46:14.779222 14657 net.cpp:411] query_conv_reshape -> query_conv_reshape
I0604 18:46:14.779244 14657 net.cpp:150] Setting up query_conv_reshape
I0604 18:46:14.779250 14657 net.cpp:157] Top shape: 1 64 900 1 (57600)
I0604 18:46:14.779253 14657 net.cpp:165] Memory required for data: 1457043292
I0604 18:46:14.779258 14657 layer_factory.hpp:77] Creating layer key_conv_reshape
I0604 18:46:14.779266 14657 net.cpp:106] Creating Layer key_conv_reshape
I0604 18:46:14.779284 14657 net.cpp:454] key_conv_reshape <- key_conv
I0604 18:46:14.779299 14657 net.cpp:411] key_conv_reshape -> key_conv_reshape
I0604 18:46:14.779345 14657 net.cpp:150] Setting up key_conv_reshape
I0604 18:46:14.779350 14657 net.cpp:157] Top shape: 1 64 900 1 (57600)
I0604 18:46:14.779352 14657 net.cpp:165] Memory required for data: 1457273692
I0604 18:46:14.779357 14657 layer_factory.hpp:77] Creating layer value_conv_reshape
I0604 18:46:14.779363 14657 net.cpp:106] Creating Layer value_conv_reshape
I0604 18:46:14.779367 14657 net.cpp:454] value_conv_reshape <- value_conv
I0604 18:46:14.779374 14657 net.cpp:411] value_conv_reshape -> value_conv_reshape
I0604 18:46:14.779397 14657 net.cpp:150] Setting up value_conv_reshape
I0604 18:46:14.779402 14657 net.cpp:157] Top shape: 1 512 900 1 (460800)
I0604 18:46:14.779404 14657 net.cpp:165] Memory required for data: 1459116892
I0604 18:46:14.779408 14657 layer_factory.hpp:77] Creating layer query_conv_reshape_perm
I0604 18:46:14.779426 14657 net.cpp:106] Creating Layer query_conv_reshape_perm
I0604 18:46:14.779431 14657 net.cpp:454] query_conv_reshape_perm <- query_conv_reshape
I0604 18:46:14.779436 14657 net.cpp:411] query_conv_reshape_perm -> query_conv_reshape_perm
I0604 18:46:14.779507 14657 net.cpp:150] Setting up query_conv_reshape_perm
I0604 18:46:14.779513 14657 net.cpp:157] Top shape: 1 1 900 64 (57600)
I0604 18:46:14.779517 14657 net.cpp:165] Memory required for data: 1459347292
I0604 18:46:14.779520 14657 layer_factory.hpp:77] Creating layer key_conv_reshape_perm
I0604 18:46:14.779528 14657 net.cpp:106] Creating Layer key_conv_reshape_perm
I0604 18:46:14.779532 14657 net.cpp:454] key_conv_reshape_perm <- key_conv_reshape
I0604 18:46:14.779538 14657 net.cpp:411] key_conv_reshape_perm -> key_conv_reshape_perm
I0604 18:46:14.779604 14657 net.cpp:150] Setting up key_conv_reshape_perm
I0604 18:46:14.779609 14657 net.cpp:157] Top shape: 1 1 64 900 (57600)
I0604 18:46:14.779613 14657 net.cpp:165] Memory required for data: 1459577692
I0604 18:46:14.779616 14657 layer_factory.hpp:77] Creating layer energy
I0604 18:46:14.779621 14657 net.cpp:106] Creating Layer energy
I0604 18:46:14.779626 14657 net.cpp:454] energy <- query_conv_reshape_perm
I0604 18:46:14.779631 14657 net.cpp:454] energy <- key_conv_reshape_perm
I0604 18:46:14.779637 14657 net.cpp:411] energy -> energy
I0604 18:46:14.779657 14657 net.cpp:150] Setting up energy
I0604 18:46:14.779664 14657 net.cpp:157] Top shape: 1 1 900 900 (810000)
I0604 18:46:14.779666 14657 net.cpp:165] Memory required for data: 1462817692
I0604 18:46:14.779670 14657 layer_factory.hpp:77] Creating layer attention
I0604 18:46:14.779680 14657 net.cpp:106] Creating Layer attention
I0604 18:46:14.779683 14657 net.cpp:454] attention <- energy
I0604 18:46:14.779690 14657 net.cpp:411] attention -> attention
I0604 18:46:14.779855 14657 net.cpp:150] Setting up attention
I0604 18:46:14.779863 14657 net.cpp:157] Top shape: 1 1 900 900 (810000)
I0604 18:46:14.779867 14657 net.cpp:165] Memory required for data: 1466057692
I0604 18:46:14.779871 14657 layer_factory.hpp:77] Creating layer value_conv_reshape_perm
I0604 18:46:14.779880 14657 net.cpp:106] Creating Layer value_conv_reshape_perm
I0604 18:46:14.779884 14657 net.cpp:454] value_conv_reshape_perm <- value_conv_reshape
I0604 18:46:14.779893 14657 net.cpp:411] value_conv_reshape_perm -> value_conv_reshape_perm
I0604 18:46:14.779963 14657 net.cpp:150] Setting up value_conv_reshape_perm
I0604 18:46:14.779969 14657 net.cpp:157] Top shape: 1 1 512 900 (460800)
I0604 18:46:14.779973 14657 net.cpp:165] Memory required for data: 1467900892
I0604 18:46:14.779978 14657 layer_factory.hpp:77] Creating layer attention_perm
I0604 18:46:14.779983 14657 net.cpp:106] Creating Layer attention_perm
I0604 18:46:14.779989 14657 net.cpp:454] attention_perm <- attention
I0604 18:46:14.779994 14657 net.cpp:411] attention_perm -> attention_perm
I0604 18:46:14.780061 14657 net.cpp:150] Setting up attention_perm
I0604 18:46:14.780067 14657 net.cpp:157] Top shape: 1 1 900 900 (810000)
I0604 18:46:14.780071 14657 net.cpp:165] Memory required for data: 1471140892
I0604 18:46:14.780074 14657 layer_factory.hpp:77] Creating layer out
I0604 18:46:14.780081 14657 net.cpp:106] Creating Layer out
I0604 18:46:14.780086 14657 net.cpp:454] out <- value_conv_reshape_perm
I0604 18:46:14.780089 14657 net.cpp:454] out <- attention_perm
I0604 18:46:14.780097 14657 net.cpp:411] out -> out
I0604 18:46:14.780118 14657 net.cpp:150] Setting up out
I0604 18:46:14.780123 14657 net.cpp:157] Top shape: 1 1 512 900 (460800)
I0604 18:46:14.780128 14657 net.cpp:165] Memory required for data: 1472984092
I0604 18:46:14.780131 14657 layer_factory.hpp:77] Creating layer out_reshape
I0604 18:46:14.780139 14657 net.cpp:106] Creating Layer out_reshape
I0604 18:46:14.780143 14657 net.cpp:454] out_reshape <- out
I0604 18:46:14.780153 14657 net.cpp:411] out_reshape -> out_reshape
I0604 18:46:14.780176 14657 net.cpp:150] Setting up out_reshape
I0604 18:46:14.780181 14657 net.cpp:157] Top shape: 1 512 30 30 (460800)
I0604 18:46:14.780184 14657 net.cpp:165] Memory required for data: 1474827292
I0604 18:46:14.780189 14657 layer_factory.hpp:77] Creating layer out_reshape_scale
I0604 18:46:14.780198 14657 net.cpp:106] Creating Layer out_reshape_scale
I0604 18:46:14.780203 14657 net.cpp:454] out_reshape_scale <- out_reshape
I0604 18:46:14.780208 14657 net.cpp:411] out_reshape_scale -> out_reshape_scale
I0604 18:46:14.780306 14657 net.cpp:150] Setting up out_reshape_scale
I0604 18:46:14.780313 14657 net.cpp:157] Top shape: 1 512 30 30 (460800)
I0604 18:46:14.780315 14657 net.cpp:165] Memory required for data: 1476670492
I0604 18:46:14.780320 14657 layer_factory.hpp:77] Creating layer out_x
I0604 18:46:14.780329 14657 net.cpp:106] Creating Layer out_x
I0604 18:46:14.780333 14657 net.cpp:454] out_x <- out_reshape_scale
I0604 18:46:14.780339 14657 net.cpp:454] out_x <- pool5_2_conv4_relu_pool5_2_conv4_relu_0_split_3
I0604 18:46:14.780344 14657 net.cpp:411] out_x -> out_x
I0604 18:46:14.780367 14657 net.cpp:150] Setting up out_x
I0604 18:46:14.780372 14657 net.cpp:157] Top shape: 1 512 30 30 (460800)
I0604 18:46:14.780385 14657 net.cpp:165] Memory required for data: 1478513692
I0604 18:46:14.780390 14657 layer_factory.hpp:77] Creating layer query_conv_reshape_ch
I0604 18:46:14.780395 14657 net.cpp:106] Creating Layer query_conv_reshape_ch
I0604 18:46:14.780398 14657 net.cpp:454] query_conv_reshape_ch <- pool5_2_conv4_relu_pool5_2_conv4_relu_0_split_4
I0604 18:46:14.780405 14657 net.cpp:411] query_conv_reshape_ch -> query_conv_reshape_ch
I0604 18:46:14.780426 14657 net.cpp:150] Setting up query_conv_reshape_ch
I0604 18:46:14.780431 14657 net.cpp:157] Top shape: 1 512 900 1 (460800)
I0604 18:46:14.780436 14657 net.cpp:165] Memory required for data: 1480356892
I0604 18:46:14.780438 14657 layer_factory.hpp:77] Creating layer key_conv_reshape_ch
I0604 18:46:14.780447 14657 net.cpp:106] Creating Layer key_conv_reshape_ch
I0604 18:46:14.780452 14657 net.cpp:454] key_conv_reshape_ch <- pool5_2_conv4_relu_pool5_2_conv4_relu_0_split_5
I0604 18:46:14.780457 14657 net.cpp:411] key_conv_reshape_ch -> key_conv_reshape_ch
I0604 18:46:14.780477 14657 net.cpp:150] Setting up key_conv_reshape_ch
I0604 18:46:14.780481 14657 net.cpp:157] Top shape: 1 512 900 1 (460800)
I0604 18:46:14.780484 14657 net.cpp:165] Memory required for data: 1482200092
I0604 18:46:14.780488 14657 layer_factory.hpp:77] Creating layer value_conv_reshape_ch
I0604 18:46:14.780494 14657 net.cpp:106] Creating Layer value_conv_reshape_ch
I0604 18:46:14.780500 14657 net.cpp:454] value_conv_reshape_ch <- pool5_2_conv4_relu_pool5_2_conv4_relu_0_split_6
I0604 18:46:14.780508 14657 net.cpp:411] value_conv_reshape_ch -> value_conv_reshape_ch
I0604 18:46:14.780527 14657 net.cpp:150] Setting up value_conv_reshape_ch
I0604 18:46:14.780532 14657 net.cpp:157] Top shape: 1 512 900 1 (460800)
I0604 18:46:14.780535 14657 net.cpp:165] Memory required for data: 1484043292
I0604 18:46:14.780539 14657 layer_factory.hpp:77] Creating layer query_conv_reshape_perm_ch
I0604 18:46:14.780547 14657 net.cpp:106] Creating Layer query_conv_reshape_perm_ch
I0604 18:46:14.780551 14657 net.cpp:454] query_conv_reshape_perm_ch <- query_conv_reshape_ch
I0604 18:46:14.780558 14657 net.cpp:411] query_conv_reshape_perm_ch -> query_conv_reshape_perm_ch
I0604 18:46:14.780627 14657 net.cpp:150] Setting up query_conv_reshape_perm_ch
I0604 18:46:14.780632 14657 net.cpp:157] Top shape: 1 1 512 900 (460800)
I0604 18:46:14.780635 14657 net.cpp:165] Memory required for data: 1485886492
I0604 18:46:14.780638 14657 layer_factory.hpp:77] Creating layer key_conv_reshape_perm_ch
I0604 18:46:14.780647 14657 net.cpp:106] Creating Layer key_conv_reshape_perm_ch
I0604 18:46:14.780650 14657 net.cpp:454] key_conv_reshape_perm_ch <- key_conv_reshape_ch
I0604 18:46:14.780655 14657 net.cpp:411] key_conv_reshape_perm_ch -> key_conv_reshape_perm_ch
I0604 18:46:14.780720 14657 net.cpp:150] Setting up key_conv_reshape_perm_ch
I0604 18:46:14.780726 14657 net.cpp:157] Top shape: 1 1 900 512 (460800)
I0604 18:46:14.780730 14657 net.cpp:165] Memory required for data: 1487729692
I0604 18:46:14.780733 14657 layer_factory.hpp:77] Creating layer energy_ch
I0604 18:46:14.780740 14657 net.cpp:106] Creating Layer energy_ch
I0604 18:46:14.780745 14657 net.cpp:454] energy_ch <- query_conv_reshape_perm_ch
I0604 18:46:14.780748 14657 net.cpp:454] energy_ch <- key_conv_reshape_perm_ch
I0604 18:46:14.780755 14657 net.cpp:411] energy_ch -> energy_ch
I0604 18:46:14.780776 14657 net.cpp:150] Setting up energy_ch
I0604 18:46:14.780781 14657 net.cpp:157] Top shape: 1 1 512 512 (262144)
I0604 18:46:14.780784 14657 net.cpp:165] Memory required for data: 1488778268
I0604 18:46:14.780788 14657 layer_factory.hpp:77] Creating layer energy_ch_energy_ch_0_split
I0604 18:46:14.780793 14657 net.cpp:106] Creating Layer energy_ch_energy_ch_0_split
I0604 18:46:14.780798 14657 net.cpp:454] energy_ch_energy_ch_0_split <- energy_ch
I0604 18:46:14.780802 14657 net.cpp:411] energy_ch_energy_ch_0_split -> energy_ch_energy_ch_0_split_0
I0604 18:46:14.780808 14657 net.cpp:411] energy_ch_energy_ch_0_split -> energy_ch_energy_ch_0_split_1
I0604 18:46:14.780835 14657 net.cpp:150] Setting up energy_ch_energy_ch_0_split
I0604 18:46:14.780841 14657 net.cpp:157] Top shape: 1 1 512 512 (262144)
I0604 18:46:14.780846 14657 net.cpp:157] Top shape: 1 1 512 512 (262144)
I0604 18:46:14.780850 14657 net.cpp:165] Memory required for data: 1490875420
I0604 18:46:14.780853 14657 layer_factory.hpp:77] Creating layer energy_ch_pool
I0604 18:46:14.780861 14657 net.cpp:106] Creating Layer energy_ch_pool
I0604 18:46:14.780866 14657 net.cpp:454] energy_ch_pool <- energy_ch_energy_ch_0_split_0
I0604 18:46:14.780871 14657 net.cpp:411] energy_ch_pool -> energy_ch_pool
I0604 18:46:14.780900 14657 net.cpp:150] Setting up energy_ch_pool
I0604 18:46:14.780905 14657 net.cpp:157] Top shape: 1 1 512 1 (512)
I0604 18:46:14.780908 14657 net.cpp:165] Memory required for data: 1490877468
I0604 18:46:14.780912 14657 layer_factory.hpp:77] Creating layer energy_ch_max
I0604 18:46:14.780917 14657 net.cpp:106] Creating Layer energy_ch_max
I0604 18:46:14.780922 14657 net.cpp:454] energy_ch_max <- energy_ch_pool
I0604 18:46:14.780928 14657 net.cpp:411] energy_ch_max -> energy_ch_max
I0604 18:46:14.780948 14657 net.cpp:150] Setting up energy_ch_max
I0604 18:46:14.780953 14657 net.cpp:157] Top shape: 1 1 512 512 (262144)
I0604 18:46:14.780956 14657 net.cpp:165] Memory required for data: 1491926044
I0604 18:46:14.780961 14657 layer_factory.hpp:77] Creating layer energy_ch_minus
I0604 18:46:14.780966 14657 net.cpp:106] Creating Layer energy_ch_minus
I0604 18:46:14.780972 14657 net.cpp:454] energy_ch_minus <- energy_ch_energy_ch_0_split_1
I0604 18:46:14.780977 14657 net.cpp:411] energy_ch_minus -> energy_ch_minus
I0604 18:46:14.780997 14657 net.cpp:150] Setting up energy_ch_minus
I0604 18:46:14.781002 14657 net.cpp:157] Top shape: 1 1 512 512 (262144)
I0604 18:46:14.781005 14657 net.cpp:165] Memory required for data: 1492974620
I0604 18:46:14.781009 14657 layer_factory.hpp:77] Creating layer energy_new
I0604 18:46:14.781016 14657 net.cpp:106] Creating Layer energy_new
I0604 18:46:14.781021 14657 net.cpp:454] energy_new <- energy_ch_max
I0604 18:46:14.781025 14657 net.cpp:454] energy_new <- energy_ch_minus
I0604 18:46:14.781030 14657 net.cpp:411] energy_new -> energy_new
I0604 18:46:14.781054 14657 net.cpp:150] Setting up energy_new
I0604 18:46:14.781059 14657 net.cpp:157] Top shape: 1 1 512 512 (262144)
I0604 18:46:14.781061 14657 net.cpp:165] Memory required for data: 1494023196
I0604 18:46:14.781065 14657 layer_factory.hpp:77] Creating layer attention_ch
I0604 18:46:14.781072 14657 net.cpp:106] Creating Layer attention_ch
I0604 18:46:14.781077 14657 net.cpp:454] attention_ch <- energy_new
I0604 18:46:14.781082 14657 net.cpp:411] attention_ch -> attention_ch
I0604 18:46:14.781759 14657 net.cpp:150] Setting up attention_ch
I0604 18:46:14.781767 14657 net.cpp:157] Top shape: 1 1 512 512 (262144)
I0604 18:46:14.781771 14657 net.cpp:165] Memory required for data: 1495071772
I0604 18:46:14.781785 14657 layer_factory.hpp:77] Creating layer value_conv_reshape_ch_perm
I0604 18:46:14.781791 14657 net.cpp:106] Creating Layer value_conv_reshape_ch_perm
I0604 18:46:14.781795 14657 net.cpp:454] value_conv_reshape_ch_perm <- value_conv_reshape_ch
I0604 18:46:14.781812 14657 net.cpp:411] value_conv_reshape_ch_perm -> value_conv_reshape_ch_perm
I0604 18:46:14.781893 14657 net.cpp:150] Setting up value_conv_reshape_ch_perm
I0604 18:46:14.781898 14657 net.cpp:157] Top shape: 1 1 512 900 (460800)
I0604 18:46:14.781903 14657 net.cpp:165] Memory required for data: 1496914972
I0604 18:46:14.781905 14657 layer_factory.hpp:77] Creating layer attention_ch_perm
I0604 18:46:14.781913 14657 net.cpp:106] Creating Layer attention_ch_perm
I0604 18:46:14.781917 14657 net.cpp:454] attention_ch_perm <- attention_ch
I0604 18:46:14.781924 14657 net.cpp:411] attention_ch_perm -> attention_ch_perm
I0604 18:46:14.781991 14657 net.cpp:150] Setting up attention_ch_perm
I0604 18:46:14.781996 14657 net.cpp:157] Top shape: 1 1 512 512 (262144)
I0604 18:46:14.781999 14657 net.cpp:165] Memory required for data: 1497963548
I0604 18:46:14.782003 14657 layer_factory.hpp:77] Creating layer out_ch
I0604 18:46:14.782008 14657 net.cpp:106] Creating Layer out_ch
I0604 18:46:14.782012 14657 net.cpp:454] out_ch <- attention_ch_perm
I0604 18:46:14.782017 14657 net.cpp:454] out_ch <- value_conv_reshape_ch_perm
I0604 18:46:14.782023 14657 net.cpp:411] out_ch -> out_ch
I0604 18:46:14.782044 14657 net.cpp:150] Setting up out_ch
I0604 18:46:14.782049 14657 net.cpp:157] Top shape: 1 1 512 900 (460800)
I0604 18:46:14.782053 14657 net.cpp:165] Memory required for data: 1499806748
I0604 18:46:14.782057 14657 layer_factory.hpp:77] Creating layer out_ch_reshape
I0604 18:46:14.782063 14657 net.cpp:106] Creating Layer out_ch_reshape
I0604 18:46:14.782068 14657 net.cpp:454] out_ch_reshape <- out_ch
I0604 18:46:14.782073 14657 net.cpp:411] out_ch_reshape -> out_ch_reshape
I0604 18:46:14.782094 14657 net.cpp:150] Setting up out_ch_reshape
I0604 18:46:14.782099 14657 net.cpp:157] Top shape: 1 512 30 30 (460800)
I0604 18:46:14.782101 14657 net.cpp:165] Memory required for data: 1501649948
I0604 18:46:14.782105 14657 layer_factory.hpp:77] Creating layer out_ch_reshape_scale
I0604 18:46:14.782114 14657 net.cpp:106] Creating Layer out_ch_reshape_scale
I0604 18:46:14.782117 14657 net.cpp:454] out_ch_reshape_scale <- out_ch_reshape
I0604 18:46:14.782124 14657 net.cpp:411] out_ch_reshape_scale -> out_ch_reshape_scale
I0604 18:46:14.782184 14657 net.cpp:150] Setting up out_ch_reshape_scale
I0604 18:46:14.782191 14657 net.cpp:157] Top shape: 1 512 30 30 (460800)
I0604 18:46:14.782193 14657 net.cpp:165] Memory required for data: 1503493148
I0604 18:46:14.782197 14657 net.cpp:514] Sharing parameters 'scale_conv1_1' owned by layer 'out_reshape_scale', param index 0
I0604 18:46:14.782202 14657 layer_factory.hpp:77] Creating layer out_ch_x
I0604 18:46:14.782209 14657 net.cpp:106] Creating Layer out_ch_x
I0604 18:46:14.782213 14657 net.cpp:454] out_ch_x <- out_ch_reshape_scale
I0604 18:46:14.782219 14657 net.cpp:454] out_ch_x <- pool5_2_conv4_relu_pool5_2_conv4_relu_0_split_7
I0604 18:46:14.782225 14657 net.cpp:411] out_ch_x -> out_ch_x
I0604 18:46:14.782246 14657 net.cpp:150] Setting up out_ch_x
I0604 18:46:14.782251 14657 net.cpp:157] Top shape: 1 512 30 30 (460800)
I0604 18:46:14.782254 14657 net.cpp:165] Memory required for data: 1505336348
I0604 18:46:14.782258 14657 layer_factory.hpp:77] Creating layer out_conv_ch_x
I0604 18:46:14.782269 14657 net.cpp:106] Creating Layer out_conv_ch_x
I0604 18:46:14.782272 14657 net.cpp:454] out_conv_ch_x <- out_ch_x
I0604 18:46:14.782279 14657 net.cpp:411] out_conv_ch_x -> out_conv_ch_x
I0604 18:46:14.788331 14657 net.cpp:150] Setting up out_conv_ch_x
I0604 18:46:14.788367 14657 net.cpp:157] Top shape: 1 512 30 30 (460800)
I0604 18:46:14.788372 14657 net.cpp:165] Memory required for data: 1507179548
I0604 18:46:14.788390 14657 layer_factory.hpp:77] Creating layer out_conv_x
I0604 18:46:14.788416 14657 net.cpp:106] Creating Layer out_conv_x
I0604 18:46:14.788436 14657 net.cpp:454] out_conv_x <- out_x
I0604 18:46:14.788458 14657 net.cpp:411] out_conv_x -> out_conv_x
I0604 18:46:14.797894 14657 net.cpp:150] Setting up out_conv_x
I0604 18:46:14.797911 14657 net.cpp:157] Top shape: 1 512 30 30 (460800)
I0604 18:46:14.797914 14657 net.cpp:165] Memory required for data: 1509022748
I0604 18:46:14.797933 14657 layer_factory.hpp:77] Creating layer out_x_sum
I0604 18:46:14.797942 14657 net.cpp:106] Creating Layer out_x_sum
I0604 18:46:14.797960 14657 net.cpp:454] out_x_sum <- out_conv_x
I0604 18:46:14.797966 14657 net.cpp:454] out_x_sum <- out_conv_ch_x
I0604 18:46:14.797973 14657 net.cpp:411] out_x_sum -> out_x_sum
I0604 18:46:14.798009 14657 net.cpp:150] Setting up out_x_sum
I0604 18:46:14.798014 14657 net.cpp:157] Top shape: 1 512 30 30 (460800)
I0604 18:46:14.798017 14657 net.cpp:165] Memory required for data: 1510865948
I0604 18:46:14.798030 14657 layer_factory.hpp:77] Creating layer mask_deconv2
I0604 18:46:14.798049 14657 net.cpp:106] Creating Layer mask_deconv2
I0604 18:46:14.798053 14657 net.cpp:454] mask_deconv2 <- out_x_sum
I0604 18:46:14.798071 14657 net.cpp:411] mask_deconv2 -> mask_deconv2
I0604 18:46:14.798923 14657 net.cpp:150] Setting up mask_deconv2
I0604 18:46:14.798930 14657 net.cpp:157] Top shape: 1 256 122 122 (3810304)
I0604 18:46:14.798943 14657 net.cpp:165] Memory required for data: 1526107164
I0604 18:46:14.798959 14657 layer_factory.hpp:77] Creating layer pool5_2_conv5
I0604 18:46:14.798971 14657 net.cpp:106] Creating Layer pool5_2_conv5
I0604 18:46:14.798975 14657 net.cpp:454] pool5_2_conv5 <- mask_deconv2
I0604 18:46:14.798985 14657 net.cpp:411] pool5_2_conv5 -> pool5_2_conv5
I0604 18:46:14.825167 14657 net.cpp:150] Setting up pool5_2_conv5
I0604 18:46:14.825184 14657 net.cpp:157] Top shape: 1 512 122 122 (7620608)
I0604 18:46:14.825188 14657 net.cpp:165] Memory required for data: 1556589596
I0604 18:46:14.825219 14657 layer_factory.hpp:77] Creating layer pool5_2_conv5_relu
I0604 18:46:14.825230 14657 net.cpp:106] Creating Layer pool5_2_conv5_relu
I0604 18:46:14.825248 14657 net.cpp:454] pool5_2_conv5_relu <- pool5_2_conv5
I0604 18:46:14.825261 14657 net.cpp:411] pool5_2_conv5_relu -> pool5_2_conv5_relu
I0604 18:46:14.825438 14657 net.cpp:150] Setting up pool5_2_conv5_relu
I0604 18:46:14.825446 14657 net.cpp:157] Top shape: 1 512 122 122 (7620608)
I0604 18:46:14.825459 14657 net.cpp:165] Memory required for data: 1587072028
I0604 18:46:14.825462 14657 layer_factory.hpp:77] Creating layer pool5_2_conv6
I0604 18:46:14.825474 14657 net.cpp:106] Creating Layer pool5_2_conv6
I0604 18:46:14.825479 14657 net.cpp:454] pool5_2_conv6 <- pool5_2_conv5_relu
I0604 18:46:14.825487 14657 net.cpp:411] pool5_2_conv6 -> pool5_2_conv6
I0604 18:46:14.876868 14657 net.cpp:150] Setting up pool5_2_conv6
I0604 18:46:14.876888 14657 net.cpp:157] Top shape: 1 512 122 122 (7620608)
I0604 18:46:14.876893 14657 net.cpp:165] Memory required for data: 1617554460
I0604 18:46:14.876911 14657 layer_factory.hpp:77] Creating layer pool5_2_conv6_relu
I0604 18:46:14.876921 14657 net.cpp:106] Creating Layer pool5_2_conv6_relu
I0604 18:46:14.876929 14657 net.cpp:454] pool5_2_conv6_relu <- pool5_2_conv6
I0604 18:46:14.876935 14657 net.cpp:411] pool5_2_conv6_relu -> pool5_2_conv6_relu
I0604 18:46:14.877481 14657 net.cpp:150] Setting up pool5_2_conv6_relu
I0604 18:46:14.877490 14657 net.cpp:157] Top shape: 1 512 122 122 (7620608)
I0604 18:46:14.877494 14657 net.cpp:165] Memory required for data: 1648036892
I0604 18:46:14.877508 14657 layer_factory.hpp:77] Creating layer mask_deconv3
I0604 18:46:14.877518 14657 net.cpp:106] Creating Layer mask_deconv3
I0604 18:46:14.877523 14657 net.cpp:454] mask_deconv3 <- pool5_2_conv6_relu
I0604 18:46:14.877532 14657 net.cpp:411] mask_deconv3 -> mask_deconv3
I0604 18:46:14.877919 14657 net.cpp:150] Setting up mask_deconv3
I0604 18:46:14.877936 14657 net.cpp:157] Top shape: 1 256 244 244 (15241216)
I0604 18:46:14.877939 14657 net.cpp:165] Memory required for data: 1709001756
I0604 18:46:14.877955 14657 layer_factory.hpp:77] Creating layer mask_score
I0604 18:46:14.877965 14657 net.cpp:106] Creating Layer mask_score
I0604 18:46:14.877969 14657 net.cpp:454] mask_score <- mask_deconv3
I0604 18:46:14.877976 14657 net.cpp:411] mask_score -> mask_score
I0604 18:46:14.879073 14657 net.cpp:150] Setting up mask_score
I0604 18:46:14.879083 14657 net.cpp:157] Top shape: 1 8 244 244 (476288)
I0604 18:46:14.879087 14657 net.cpp:165] Memory required for data: 1710906908
I0604 18:46:14.879104 14657 layer_factory.hpp:77] Creating layer loss_mask
I0604 18:46:14.879122 14657 net.cpp:106] Creating Layer loss_mask
I0604 18:46:14.879127 14657 net.cpp:454] loss_mask <- mask_score
I0604 18:46:14.879132 14657 net.cpp:454] loss_mask <- mask_targets
I0604 18:46:14.879138 14657 net.cpp:411] loss_mask -> loss_mask
…
