…
average_loss: 100
iter_size: 2
I0502 17:22:31.165356  5543 solver.cpp:81] Creating training net from train_net file: models/pascal_voc/VGG16/faster_rcnn_end2end/train.prototxt
I0502 17:22:31.166710  5543 net.cpp:49] Initializing net from parameters: 
name: "VGG_ILSVRC_16_layers"
state {
  phase: TRAIN
}
layer {
  name: "input-data"
  type: "Python"
  top: "data"
  top: "im_info"
  top: "gt_boxes"
  top: "seg_mask_inds"
  top: "flipped"
  python_param {
    module: "roi_data_layer.layer"
    layer: "RoIDataLayer"
    param_str: "\'num_classes\': 2"
  }
}
layer {
  name: "conv1_1"
  type: "Convolution"
  bottom: "data"
  top: "conv1_1"
  param {
    lr_mult: 0
    decay_mult: 0
  }
  param {
    lr_mult: 0
    decay_mult: 0
  }
  convolution_param {
    num_output: 64
    pad: 1
    kernel_size: 3
  }
}
layer {
  name: "relu1_1"
  type: "ReLU"
  bottom: "conv1_1"
  top: "conv1_1"
}
layer {
  name: "conv1_2"
  type: "Convolution"
  bottom: "conv1_1"
  top: "conv1_2"
  param {
    lr_mult: 0
    decay_mult: 0
  }
  param {
    lr_mult: 0
    decay_mult: 0
  }
  convolution_param {
    num_output: 64
    pad: 1
    kernel_size: 3
  }
}
layer {
  name: "relu1_2"
  type: "ReLU"
  bottom: "conv1_2"
  top: "conv1_2"
}
layer {
  name: "pool1"
  type: "Pooling"
  bottom: "conv1_2"
  top: "pool1"
  pooling_param {
    pool: MAX
    kernel_size: 2
    stride: 2
  }
}
layer {
  name: "conv2_1"
  type: "Convolution"
  bottom: "pool1"
  top: "conv2_1"
  param {
    lr_mult: 0
    decay_mult: 0
  }
  param {
    lr_mult: 0
    decay_mult: 0
  }
  convolution_param {
    num_output: 128
    pad: 1
    kernel_size: 3
  }
}
layer {
  name: "relu2_1"
  type: "ReLU"
  bottom: "conv2_1"
  top: "conv2_1"
}
layer {
  name: "conv2_2"
  type: "Convolution"
  bottom: "conv2_1"
  top: "conv2_2"
  param {
    lr_mult: 0
    decay_mult: 0
  }
  param {
    lr_mult: 0
    decay_mult: 0
  }
  convolution_param {
    num_output: 128
    pad: 1
    kernel_size: 3
  }
}
layer {
  name: "relu2_2"
  type: "ReLU"
  bottom: "conv2_2"
  top: "conv2_2"
}
layer {
  name: "pool2"
  type: "Pooling"
  bottom: "conv2_2"
  top: "pool2"
  pooling_param {
    pool: MAX
    kernel_size: 2
    stride: 2
  }
}
layer {
  name: "conv3_1"
  type: "Convolution"
  bottom: "pool2"
  top: "conv3_1"
  param {
    lr_mult: 1
  }
  param {
    lr_mult: 2
  }
  convolution_param {
    num_output: 256
    pad: 1
    kernel_size: 3
  }
}
layer {
  name: "relu3_1"
  type: "ReLU"
  bottom: "conv3_1"
  top: "conv3_1"
}
layer {
  name: "conv3_2"
  type: "Convolution"
  bottom: "conv3_1"
  top: "conv3_2"
  param {
    lr_mult: 1
  }
  param {
    lr_mult: 2
  }
  convolution_param {
    num_output: 256
    pad: 1
    kernel_size: 3
  }
}
layer {
  name: "relu3_2"
  type: "ReLU"
  bottom: "conv3_2"
  top: "conv3_2"
}
layer {
  name: "conv3_3"
  type: "Convolution"
  bottom: "conv3_2"
  top: "conv3_3"
  param {
    lr_mult: 1
  }
  param {
    lr_mult: 2
  }
  convolution_param {
    num_output: 256
    pad: 1
    kernel_size: 3
  }
}
layer {
  name: "relu3_3"
  type: "ReLU"
  bottom: "conv3_3"
  top: "conv3_3"
}
layer {
  name: "pool3"
  type: "Pooling"
  bottom: "conv3_3"
  top: "pool3"
  pooling_param {
    pool: MAX
    kernel_size: 2
    stride: 2
  }
}
layer {
  name: "conv4_1"
  type: "Convolution"
  bottom: "pool3"
  top: "conv4_1"
  param {
    lr_mult: 1
  }
  param {
    lr_mult: 2
  }
  convolution_param {
    num_output: 512
    pad: 1
    kernel_size: 3
  }
}
layer {
  name: "relu4_1"
  type: "ReLU"
  bottom: "conv4_1"
  top: "conv4_1"
}
layer {
  name: "conv4_2"
  type: "Convolution"
  bottom: "conv4_1"
  top: "conv4_2"
  param {
    lr_mult: 1
  }
  param {
    lr_mult: 2
  }
  convolution_param {
    num_output: 512
    pad: 1
    kernel_size: 3
  }
}
layer {
  name: "relu4_2"
  type: "ReLU"
  bottom: "conv4_2"
  top: "conv4_2"
}
layer {
  name: "conv4_3"
  type: "Convolution"
  bottom: "conv4_2"
  top: "conv4_3"
  param {
    lr_mult: 1
  }
  param {
    lr_mult: 2
  }
  convolution_param {
    num_output: 512
    pad: 1
    kernel_size: 3
  }
}
layer {
  name: "relu4_3"
  type: "ReLU"
  bottom: "conv4_3"
  top: "conv4_3"
}
layer {
  name: "pool4"
  type: "Pooling"
  bottom: "conv4_3"
  top: "pool4"
  pooling_param {
    pool: MAX
    kernel_size: 2
    stride: 2
  }
}
layer {
  name: "conv5_1"
  type: "Convolution"
  bottom: "pool4"
  top: "conv5_1"
  param {
    lr_mult: 1
  }
  param {
    lr_mult: 2
  }
  convolution_param {
    num_output: 512
    pad: 1
    kernel_size: 3
  }
}
layer {
  name: "relu5_1"
  type: "ReLU"
  bottom: "conv5_1"
  top: "conv5_1"
}
layer {
  name: "conv5_2"
  type: "Convolution"
  bottom: "conv5_1"
  top: "conv5_2"
  param {
    lr_mult: 1
  }
  param {
    lr_mult: 2
  }
  convolution_param {
    num_output: 512
    pad: 1
    kernel_size: 3
  }
}
layer {
  name: "relu5_2"
  type: "ReLU"
  bottom: "conv5_2"
  top: "conv5_2"
}
layer {
  name: "conv5_3"
  type: "Convolution"
  bottom: "conv5_2"
  top: "conv5_3"
  param {
    lr_mult: 1
  }
  param {
    lr_mult: 2
  }
  convolution_param {
    num_output: 512
    pad: 1
    kernel_size: 3
  }
}
layer {
  name: "relu5_3"
  type: "ReLU"
  bottom: "conv5_3"
  top: "conv5_3"
}
layer {
  name: "rpn_conv/3x3"
  type: "Convolution"
  bottom: "conv5_3"
  top: "rpn/output"
  param {
    lr_mult: 1
  }
  param {
    lr_mult: 2
  }
  convolution_param {
    num_output: 512
    pad: 1
    kernel_size: 3
    stride: 1
    weight_filler {
      type: "gaussian"
      std: 0.01
    }
    bias_filler {
      type: "constant"
      value: 0
    }
  }
}
layer {
  name: "rpn_relu/3x3"
  type: "ReLU"
  bottom: "rpn/output"
  top: "rpn/output"
}
layer {
  name: "rpn_cls_score"
  type: "Convolution"
  bottom: "rpn/output"
  top: "rpn_cls_score"
  param {
    lr_mult: 1
  }
  param {
    lr_mult: 2
  }
  convolution_param {
    num_output: 30
    pad: 0
    kernel_size: 1
    stride: 1
    weight_filler {
      type: "gaussian"
      std: 0.01
    }
    bias_filler {
      type: "constant"
      value: 0
    }
  }
}
layer {
  name: "rpn_bbox_pred"
  type: "Convolution"
  bottom: "rpn/output"
  top: "rpn_bbox_pred"
  param {
    lr_mult: 1
  }
  param {
    lr_mult: 2
  }
  convolution_param {
    num_output: 60
    pad: 0
    kernel_size: 1
    stride: 1
    weight_filler {
      type: "gaussian"
      std: 0.01
    }
    bias_filler {
      type: "constant"
      value: 0
    }
  }
}
layer {
  name: "rpn_cls_score_reshape"
  type: "Reshape"
  bottom: "rpn_cls_score"
  top: "rpn_cls_score_reshape"
  reshape_param {
    shape {
      dim: 0
      dim: 2
      dim: -1
      dim: 0
    }
  }
}
layer {
  name: "rpn-data"
  type: "Python"
  bottom: "rpn_cls_score"
  bottom: "gt_boxes"
  bottom: "im_info"
  bottom: "data"
  top: "rpn_labels"
  top: "rpn_bbox_targets"
  top: "rpn_bbox_inside_weights"
  top: "rpn_bbox_outside_weights"
  python_param {
    module: "rpn.anchor_target_layer"
    layer: "AnchorTargetLayer"
    param_str: "\'feat_stride\': 16 \n\'scales\': !!python/tuple [2, 4, 8, 16, 32]"
  }
}
layer {
  name: "rpn_loss_cls"
  type: "SoftmaxWithLoss"
  bottom: "rpn_cls_score_reshape"
  bottom: "rpn_labels"
  top: "rpn_cls_loss"
  loss_weight: 1
  propagate_down: true
  propagate_down: false
  loss_param {
    ignore_label: -1
    normalize: true
  }
}
layer {
  name: "rpn_loss_bbox"
  type: "SmoothL1Loss"
  bottom: "rpn_bbox_pred"
  bottom: "rpn_bbox_targets"
  bottom: "rpn_bbox_inside_weights"
  bottom: "rpn_bbox_outside_weights"
  top: "rpn_loss_bbox"
  loss_weight: 1
  smooth_l1_loss_param {
    sigma: 3
  }
}
layer {
  name: "rpn_cls_prob"
  type: "Softmax"
  bottom: "rpn_cls_score_reshape"
  top: "rpn_cls_prob"
}
layer {
  name: "rpn_cls_prob_reshape"
  type: "Reshape"
  bottom: "rpn_cls_prob"
  top: "rpn_cls_prob_reshape"
  reshape_param {
    shape {
      dim: 0
      dim: 30
      dim: -1
      dim: 0
    }
  }
}
layer {
  name: "proposal"
  type: "Python"
  bottom: "rpn_cls_prob_reshape"
  bottom: "rpn_bbox_pred"
  bottom: "im_info"
  top: "rpn_rois"
  python_param {
    module: "rpn.proposal_layer"
    layer: "ProposalLayer"
    param_str: "\'feat_stride\': 16 \n\'scales\': !!python/tuple [2, 4, 8, 16, 32]"
  }
}
layer {
  name: "roi-data"
  type: "Python"
  bottom: "rpn_rois"
  bottom: "gt_boxes"
  bottom: "im_info"
  bottom: "seg_mask_inds"
  bottom: "flipped"
  top: "rois"
  top: "labels"
  top: "bbox_targets"
  top: "bbox_inside_weights"
  top: "bbox_outside_weights"
  top: "mask_targets"
  top: "rois_pos"
  top: "attrArray"
  top: "attrArrayInd"
  top: "attrArrayShift"
  python_param {
    module: "rpn.proposal_target_layer"
    layer: "ProposalTargetLayer"
    param_str: "\'num_classes\': 2"
  }
}
layer {
  name: "roi_pool5"
  type: "ROIAlignment"
  bottom: "conv5_3"
  bottom: "rois"
  top: "pool5"
  roi_alignment_param {
    pooled_h: 7
    pooled_w: 7
    spatial_scale: 0.0625
  }
}
layer {
  name: "fc6"
  type: "InnerProduct"
  bottom: "pool5"
  top: "fc6"
  param {
    lr_mult: 1
  }
  param {
    lr_mult: 2
  }
  inner_product_param {
    num_output: 4096
  }
}
layer {
  name: "relu6"
  type: "ReLU"
  bottom: "fc6"
  top: "fc6"
}
layer {
  name: "fc7"
  type: "InnerProduct"
  bottom: "fc6"
  top: "fc7"
  param {
    lr_mult: 1
  }
  param {
    lr_mult: 2
  }
  inner_product_param {
    num_output: 4096
  }
}
layer {
  name: "relu7"
  type: "ReLU"
  bottom: "fc7"
  top: "fc7"
}
layer {
  name: "attr_score"
  type: "InnerProduct"
  bottom: "fc7"
  top: "attr_score"
  param {
    lr_mult: 1
  }
  param {
    lr_mult: 2
  }
  inner_product_param {
    num_output: 7
    weight_filler {
      type: "gaussian"
      std: 0.001
    }
    bias_filler {
      type: "constant"
      value: 0
    }
  }
}
layer {
  name: "attr_score_pos"
  type: "Eltwise"
  bottom: "attr_score"
  bottom: "attrArrayInd"
  top: "attr_score_pos"
  eltwise_param {
    operation: PROD
  }
}
layer {
  name: "attr_score_pos_shift"
  type: "Eltwise"
  bottom: "attr_score_pos"
  bottom: "attrArrayShift"
  top: "attr_score_pos_shift"
  eltwise_param {
    operation: SUM
  }
}
layer {
  name: "cls_score"
  type: "InnerProduct"
  bottom: "fc7"
  top: "cls_score"
  param {
    lr_mult: 1
  }
  param {
    lr_mult: 2
  }
  inner_product_param {
    num_output: 2
    weight_filler {
      type: "gaussian"
      std: 0.01
    }
    bias_filler {
      type: "constant"
      value: 0
    }
  }
}
layer {
  name: "bbox_pred"
  type: "InnerProduct"
  bottom: "fc7"
  top: "bbox_pred"
  param {
    lr_mult: 1
  }
  param {
    lr_mult: 2
  }
  inner_product_param {
    num_output: 8
    weight_filler {
      type: "gaussian"
      std: 0.001
    }
    bias_filler {
      type: "constant"
      value: 0
    }
  }
}
layer {
  name: "loss_attribute"
  type: "SigmoidCrossEntropyLoss"
  bottom: "attr_score_pos_shift"
  bottom: "attrArray"
  top: "loss_attribute"
  loss_weight: 1
  propagate_down: true
  propagate_down: false
}
layer {
  name: "loss_cls"
  type: "SoftmaxWithLoss"
  bottom: "cls_score"
  bottom: "labels"
  top: "loss_cls"
  loss_weight: 3
  propagate_down: true
  propagate_down: false
}
layer {
  name: "loss_bbox"
  type: "SmoothL1Loss"
  bottom: "bbox_pred"
  bottom: "bbox_targets"
  bottom: "bbox_inside_weights"
  bottom: "bbox_outside_weights"
  top: "loss_bbox"
  loss_weight: 2
}
layer {
  name: "roi_pool5_2"
  type: "ROIAlignment"
  bottom: "conv5_3"
  bottom: "rois_pos"
  top: "pool5_2"
  roi_alignment_param {
    pooled_h: 7
    pooled_w: 7
    spatial_scale: 0.0625
  }
}
layer {
  name: "pool5_2_conv"
  type: "Convolution"
  bottom: "pool5_2"
  top: "pool5_2_conv"
  param {
    lr_mult: 1
    decay_mult: 1
  }
  param {
    lr_mult: 2
    decay_mult: 0
  }
  convolution_param {
    num_output: 512
    pad: 0
    kernel_size: 1
    weight_filler {
      type: "gaussian"
      std: 0.01
    }
    bias_filler {
      type: "constant"
      value: 0
    }
  }
}
layer {
  name: "pool5_2_conv_relu"
  type: "ReLU"
  bottom: "pool5_2_conv"
  top: "pool5_2_conv_relu"
}
layer {
  name: "pool5_2_conv2"
  type: "Convolution"
  bottom: "pool5_2_conv_relu"
  top: "pool5_2_conv2"
  param {
    lr_mult: 1
    decay_mult: 1
  }
  param {
    lr_mult: 2
    decay_mult: 0
  }
  convolution_param {
    num_output: 512
    pad: 1
    kernel_size: 3
    stride: 1
    weight_filler {
      type: "gaussian"
      std: 0.01
    }
    bias_filler {
      type: "constant"
      value: 0
    }
  }
}
layer {
  name: "pool5_2_conv2_relu"
  type: "ReLU"
  bottom: "pool5_2_conv2"
  top: "pool5_2_conv2_relu"
}
layer {
  name: "mask_deconv1"
  type: "Deconvolution"
  bottom: "pool5_2_conv2_relu"
  top: "mask_deconv1"
  param {
    lr_mult: 1
    decay_mult: 1
  }
  param {
    lr_mult: 2
    decay_mult: 0
  }
  convolution_param {
    num_output: 256
    pad: 1
    kernel_size: 8
    group: 256
    stride: 4
    weight_filler {
      type: "bilinear"
    }
  }
}
layer {
  name: "pool5_2_conv3"
  type: "Convolution"
  bottom: "mask_deconv1"
  top: "pool5_2_conv3"
  param {
    lr_mult: 1
    decay_mult: 1
  }
  param {
    lr_mult: 2
    decay_mult: 0
  }
  convolution_param {
    num_output: 512
    pad: 1
    kernel_size: 3
    stride: 1
    weight_filler {
      type: "gaussian"
      std: 0.01
    }
    bias_filler {
      type: "constant"
      value: 0
    }
  }
}
layer {
  name: "pool5_2_conv3_relu"
  type: "ReLU"
  bottom: "pool5_2_conv3"
  top: "pool5_2_conv3_relu"
}
layer {
  name: "pool5_2_conv4"
  type: "Convolution"
  bottom: "pool5_2_conv3_relu"
  top: "pool5_2_conv4"
  param {
    lr_mult: 1
    decay_mult: 1
  }
  param {
    lr_mult: 2
    decay_mult: 0
  }
  convolution_param {
    num_output: 512
    pad: 1
    kernel_size: 3
    stride: 1
    weight_filler {
      type: "gaussian"
      std: 0.01
    }
    bias_filler {
      type: "constant"
      value: 0
    }
  }
}
layer {
  name: "pool5_2_conv4_relu"
  type: "ReLU"
  bottom: "pool5_2_conv4"
  top: "pool5_2_conv4_relu"
}
layer {
  name: "query_conv"
  type: "Convolution"
  bottom: "pool5_2_conv4_relu"
  top: "query_conv"
  param {
    lr_mult: 1
    decay_mult: 1
  }
  param {
    lr_mult: 2
    decay_mult: 0
  }
  convolution_param {
    num_output: 64
    pad: 0
    kernel_size: 1
    stride: 1
    weight_filler {
      type: "gaussian"
      std: 0.01
    }
    bias_filler {
      type: "constant"
      value: 0
    }
  }
}
layer {
  name: "key_conv"
  type: "Convolution"
  bottom: "pool5_2_conv4_relu"
  top: "key_conv"
  param {
    lr_mult: 1
    decay_mult: 1
  }
  param {
    lr_mult: 2
    decay_mult: 0
  }
  convolution_param {
    num_output: 64
    pad: 0
    kernel_size: 1
    stride: 1
    weight_filler {
      type: "gaussian"
      std: 0.01
    }
    bias_filler {
      type: "constant"
      value: 0
    }
  }
}
layer {
  name: "value_conv"
  type: "Convolution"
  bottom: "pool5_2_conv4_relu"
  top: "value_conv"
  param {
    lr_mult: 1
    decay_mult: 1
  }
  param {
    lr_mult: 2
    decay_mult: 0
  }
  convolution_param {
    num_output: 512
    pad: 0
    kernel_size: 1
    stride: 1
    weight_filler {
      type: "gaussian"
      std: 0.01
    }
    bias_filler {
      type: "constant"
      value: 0
    }
  }
}
layer {
  name: "query_conv_reshape"
  type: "Reshape"
  bottom: "query_conv"
  top: "query_conv_reshape"
  reshape_param {
    shape {
      dim: -1
      dim: 64
      dim: 900
      dim: 1
    }
  }
}
layer {
  name: "key_conv_reshape"
  type: "Reshape"
  bottom: "key_conv"
  top: "key_conv_reshape"
  reshape_param {
    shape {
      dim: -1
      dim: 64
      dim: 900
      dim: 1
    }
  }
}
layer {
  name: "value_conv_reshape"
  type: "Reshape"
  bottom: "value_conv"
  top: "value_conv_reshape"
  reshape_param {
    shape {
      dim: -1
      dim: 512
      dim: 900
      dim: 1
    }
  }
}
layer {
  name: "query_conv_reshape_perm"
  type: "Permute"
  bottom: "query_conv_reshape"
  top: "query_conv_reshape_perm"
  permute_param {
    order: 0
    order: 3
    order: 2
    order: 1
  }
}
layer {
  name: "key_conv_reshape_perm"
  type: "Permute"
  bottom: "key_conv_reshape"
  top: "key_conv_reshape_perm"
  permute_param {
    order: 0
    order: 3
    order: 1
    order: 2
  }
}
layer {
  name: "energy"
  type: "MatrixMultiplication"
  bottom: "query_conv_reshape_perm"
  bottom: "key_conv_reshape_perm"
  top: "energy"
}
layer {
  name: "attention"
  type: "Softmax"
  bottom: "energy"
  top: "attention"
  softmax_param {
    axis: 3
  }
}
layer {
  name: "value_conv_reshape_perm"
  type: "Permute"
  bottom: "value_conv_reshape"
  top: "value_conv_reshape_perm"
  permute_param {
    order: 0
    order: 3
    order: 1
    order: 2
  }
}
layer {
  name: "attention_perm"
  type: "Permute"
  bottom: "attention"
  top: "attention_perm"
  permute_param {
    order: 0
    order: 1
    order: 2
    order: 3
  }
}
layer {
  name: "out"
  type: "MatrixMultiplication"
  bottom: "value_conv_reshape_perm"
  bottom: "attention_perm"
  top: "out"
}
layer {
  name: "out_reshape"
  type: "Reshape"
  bottom: "out"
  top: "out_reshape"
  reshape_param {
    shape {
      dim: -1
      dim: 512
      dim: 30
      dim: 30
    }
  }
}
layer {
  name: "out_reshape_scale"
  type: "Scale"
  bottom: "out_reshape"
  top: "out_reshape_scale"
  param {
    name: "scale_conv1_1"
    lr_mult: 1
  }
  scale_param {
    bias_term: false
  }
}
layer {
  name: "out_x"
  type: "Eltwise"
  bottom: "out_reshape_scale"
  bottom: "pool5_2_conv4_relu"
  top: "out_x"
  eltwise_param {
    operation: SUM
  }
}
layer {
  name: "mask_deconv2"
  type: "Deconvolution"
  bottom: "out_x"
  top: "mask_deconv2"
  param {
    lr_mult: 1
    decay_mult: 1
  }
  param {
    lr_mult: 2
    decay_mult: 0
  }
  convolution_param {
    num_output: 256
    pad: 1
    kernel_size: 8
    group: 256
    stride: 4
    weight_filler {
      type: "bilinear"
    }
  }
}
layer {
  name: "pool5_2_conv5"
  type: "Convolution"
  bottom: "mask_deconv2"
  top: "pool5_2_conv5"
  param {
    lr_mult: 1
    decay_mult: 1
  }
  param {
    lr_mult: 2
    decay_mult: 0
  }
  convolution_param {
    num_output: 512
    pad: 1
    kernel_size: 3
    stride: 1
    weight_filler {
      type: "gaussian"
      std: 0.01
    }
    bias_filler {
      type: "constant"
      value: 0
    }
  }
}
layer {
  name: "pool5_2_conv5_relu"
  type: "ReLU"
  bottom: "pool5_2_conv5"
  top: "pool5_2_conv5_relu"
}
layer {
  name: "pool5_2_conv6"
  type: "Convolution"
  bottom: "pool5_2_conv5_relu"
  top: "pool5_2_conv6"
  param {
    lr_mult: 1
    decay_mult: 1
  }
  param {
    lr_mult: 2
    decay_mult: 0
  }
  convolution_param {
    num_output: 512
    pad: 1
    kernel_size: 3
    stride: 1
    weight_filler {
      type: "gaussian"
      std: 0.01
    }
    bias_filler {
      type: "constant"
      value: 0
    }
  }
}
layer {
  name: "pool5_2_conv6_relu"
  type: "ReLU"
  bottom: "pool5_2_conv6"
  top: "pool5_2_conv6_relu"
}
layer {
  name: "mask_deconv3"
  type: "Deconvolution"
  bottom: "pool5_2_conv6_relu"
  top: "mask_deconv3"
  param {
    lr_mult: 1
    decay_mult: 1
  }
  param {
    lr_mult: 2
    decay_mult: 0
  }
  convolution_param {
    num_output: 256
    pad: 1
    kernel_size: 4
    group: 256
    stride: 2
    weight_filler {
      type: "bilinear"
    }
  }
}
layer {
  name: "mask_score"
  type: "Convolution"
  bottom: "mask_deconv3"
  top: "mask_score"
  param {
    lr_mult: 1
    decay_mult: 1
  }
  param {
    lr_mult: 2
    decay_mult: 0
  }
  convolution_param {
    num_output: 8
    pad: 0
    kernel_size: 1
    weight_filler {
      type: "gaussian"
      std: 0.01
    }
    bias_filler {
      type: "constant"
      value: 0
    }
  }
}
layer {
  name: "loss_mask"
  type: "SoftmaxWithLoss"
  bottom: "mask_score"
  bottom: "mask_targets"
  top: "loss_mask"
  loss_weight: 3
  propagate_down: true
  propagate_down: false
  loss_param {
    ignore_label: -1
    normalize: true
  }
}
I0502 17:22:31.167057  5543 layer_factory.hpp:77] Creating layer input-data
I0502 17:22:31.178741  5543 net.cpp:106] Creating Layer input-data
I0502 17:22:31.178756  5543 net.cpp:411] input-data -> data
I0502 17:22:31.178762  5543 net.cpp:411] input-data -> im_info
I0502 17:22:31.178766  5543 net.cpp:411] input-data -> gt_boxes
I0502 17:22:31.178771  5543 net.cpp:411] input-data -> seg_mask_inds
I0502 17:22:31.178774  5543 net.cpp:411] input-data -> flipped
RoiDataLayer: name_to_top: {'gt_boxes': 2, 'data': 0, 'seg_mask_inds': 3, 'im_info': 1, 'flipped': 4}
I0502 17:22:31.189378  5543 net.cpp:150] Setting up input-data
I0502 17:22:31.189410  5543 net.cpp:157] Top shape: 1 3 600 1000 (1800000)
I0502 17:22:31.189414  5543 net.cpp:157] Top shape: 1 3 (3)
I0502 17:22:31.189415  5543 net.cpp:157] Top shape: 1 4 (4)
I0502 17:22:31.189417  5543 net.cpp:157] Top shape: 1 2 (2)
I0502 17:22:31.189419  5543 net.cpp:157] Top shape: 1 1 (1)
I0502 17:22:31.189420  5543 net.cpp:165] Memory required for data: 7200040
I0502 17:22:31.189425  5543 layer_factory.hpp:77] Creating layer data_input-data_0_split
I0502 17:22:31.189440  5543 net.cpp:106] Creating Layer data_input-data_0_split
I0502 17:22:31.189443  5543 net.cpp:454] data_input-data_0_split <- data
I0502 17:22:31.189447  5543 net.cpp:411] data_input-data_0_split -> data_input-data_0_split_0
I0502 17:22:31.189453  5543 net.cpp:411] data_input-data_0_split -> data_input-data_0_split_1
I0502 17:22:31.189474  5543 net.cpp:150] Setting up data_input-data_0_split
I0502 17:22:31.189477  5543 net.cpp:157] Top shape: 1 3 600 1000 (1800000)
I0502 17:22:31.189479  5543 net.cpp:157] Top shape: 1 3 600 1000 (1800000)
I0502 17:22:31.189481  5543 net.cpp:165] Memory required for data: 21600040
I0502 17:22:31.189483  5543 layer_factory.hpp:77] Creating layer im_info_input-data_1_split
I0502 17:22:31.189486  5543 net.cpp:106] Creating Layer im_info_input-data_1_split
I0502 17:22:31.189488  5543 net.cpp:454] im_info_input-data_1_split <- im_info
I0502 17:22:31.189491  5543 net.cpp:411] im_info_input-data_1_split -> im_info_input-data_1_split_0
I0502 17:22:31.189494  5543 net.cpp:411] im_info_input-data_1_split -> im_info_input-data_1_split_1
I0502 17:22:31.189499  5543 net.cpp:411] im_info_input-data_1_split -> im_info_input-data_1_split_2
I0502 17:22:31.189522  5543 net.cpp:150] Setting up im_info_input-data_1_split
I0502 17:22:31.189527  5543 net.cpp:157] Top shape: 1 3 (3)
I0502 17:22:31.189528  5543 net.cpp:157] Top shape: 1 3 (3)
I0502 17:22:31.189530  5543 net.cpp:157] Top shape: 1 3 (3)
I0502 17:22:31.189532  5543 net.cpp:165] Memory required for data: 21600076
I0502 17:22:31.189533  5543 layer_factory.hpp:77] Creating layer gt_boxes_input-data_2_split
I0502 17:22:31.189535  5543 net.cpp:106] Creating Layer gt_boxes_input-data_2_split
I0502 17:22:31.189538  5543 net.cpp:454] gt_boxes_input-data_2_split <- gt_boxes
I0502 17:22:31.189540  5543 net.cpp:411] gt_boxes_input-data_2_split -> gt_boxes_input-data_2_split_0
I0502 17:22:31.189544  5543 net.cpp:411] gt_boxes_input-data_2_split -> gt_boxes_input-data_2_split_1
I0502 17:22:31.189571  5543 net.cpp:150] Setting up gt_boxes_input-data_2_split
I0502 17:22:31.189584  5543 net.cpp:157] Top shape: 1 4 (4)
I0502 17:22:31.189586  5543 net.cpp:157] Top shape: 1 4 (4)
I0502 17:22:31.189589  5543 net.cpp:165] Memory required for data: 21600108
I0502 17:22:31.189590  5543 layer_factory.hpp:77] Creating layer conv1_1
I0502 17:22:31.189607  5543 net.cpp:106] Creating Layer conv1_1
I0502 17:22:31.189610  5543 net.cpp:454] conv1_1 <- data_input-data_0_split_0
I0502 17:22:31.189612  5543 net.cpp:411] conv1_1 -> conv1_1
I0502 17:22:31.343334  5543 net.cpp:150] Setting up conv1_1
I0502 17:22:31.343353  5543 net.cpp:157] Top shape: 1 64 600 1000 (38400000)
I0502 17:22:31.343355  5543 net.cpp:165] Memory required for data: 175200108
I0502 17:22:31.343366  5543 layer_factory.hpp:77] Creating layer relu1_1
I0502 17:22:31.343384  5543 net.cpp:106] Creating Layer relu1_1
I0502 17:22:31.343389  5543 net.cpp:454] relu1_1 <- conv1_1
I0502 17:22:31.343392  5543 net.cpp:397] relu1_1 -> conv1_1 (in-place)
I0502 17:22:31.343528  5543 net.cpp:150] Setting up relu1_1
I0502 17:22:31.343534  5543 net.cpp:157] Top shape: 1 64 600 1000 (38400000)
I0502 17:22:31.343536  5543 net.cpp:165] Memory required for data: 328800108
I0502 17:22:31.343538  5543 layer_factory.hpp:77] Creating layer conv1_2
I0502 17:22:31.343544  5543 net.cpp:106] Creating Layer conv1_2
I0502 17:22:31.343546  5543 net.cpp:454] conv1_2 <- conv1_1
I0502 17:22:31.343550  5543 net.cpp:411] conv1_2 -> conv1_2
I0502 17:22:31.345556  5543 net.cpp:150] Setting up conv1_2
I0502 17:22:31.345566  5543 net.cpp:157] Top shape: 1 64 600 1000 (38400000)
I0502 17:22:31.345568  5543 net.cpp:165] Memory required for data: 482400108
I0502 17:22:31.345574  5543 layer_factory.hpp:77] Creating layer relu1_2
I0502 17:22:31.345580  5543 net.cpp:106] Creating Layer relu1_2
I0502 17:22:31.345583  5543 net.cpp:454] relu1_2 <- conv1_2
I0502 17:22:31.345598  5543 net.cpp:397] relu1_2 -> conv1_2 (in-place)
I0502 17:22:31.345736  5543 net.cpp:150] Setting up relu1_2
I0502 17:22:31.345742  5543 net.cpp:157] Top shape: 1 64 600 1000 (38400000)
I0502 17:22:31.345743  5543 net.cpp:165] Memory required for data: 636000108
I0502 17:22:31.345746  5543 layer_factory.hpp:77] Creating layer pool1
I0502 17:22:31.345752  5543 net.cpp:106] Creating Layer pool1
I0502 17:22:31.345753  5543 net.cpp:454] pool1 <- conv1_2
I0502 17:22:31.345757  5543 net.cpp:411] pool1 -> pool1
I0502 17:22:31.345820  5543 net.cpp:150] Setting up pool1
I0502 17:22:31.345824  5543 net.cpp:157] Top shape: 1 64 300 500 (9600000)
I0502 17:22:31.345825  5543 net.cpp:165] Memory required for data: 674400108
I0502 17:22:31.345837  5543 layer_factory.hpp:77] Creating layer conv2_1
I0502 17:22:31.345842  5543 net.cpp:106] Creating Layer conv2_1
I0502 17:22:31.345844  5543 net.cpp:454] conv2_1 <- pool1
I0502 17:22:31.345857  5543 net.cpp:411] conv2_1 -> conv2_1
I0502 17:22:31.347524  5543 net.cpp:150] Setting up conv2_1
I0502 17:22:31.347533  5543 net.cpp:157] Top shape: 1 128 300 500 (19200000)
I0502 17:22:31.347535  5543 net.cpp:165] Memory required for data: 751200108
I0502 17:22:31.347540  5543 layer_factory.hpp:77] Creating layer relu2_1
I0502 17:22:31.347544  5543 net.cpp:106] Creating Layer relu2_1
I0502 17:22:31.347546  5543 net.cpp:454] relu2_1 <- conv2_1
I0502 17:22:31.347549  5543 net.cpp:397] relu2_1 -> conv2_1 (in-place)
I0502 17:22:31.348016  5543 net.cpp:150] Setting up relu2_1
I0502 17:22:31.348024  5543 net.cpp:157] Top shape: 1 128 300 500 (19200000)
I0502 17:22:31.348026  5543 net.cpp:165] Memory required for data: 828000108
I0502 17:22:31.348028  5543 layer_factory.hpp:77] Creating layer conv2_2
I0502 17:22:31.348033  5543 net.cpp:106] Creating Layer conv2_2
I0502 17:22:31.348035  5543 net.cpp:454] conv2_2 <- conv2_1
I0502 17:22:31.348039  5543 net.cpp:411] conv2_2 -> conv2_2
I0502 17:22:31.349287  5543 net.cpp:150] Setting up conv2_2
I0502 17:22:31.349295  5543 net.cpp:157] Top shape: 1 128 300 500 (19200000)
I0502 17:22:31.349298  5543 net.cpp:165] Memory required for data: 904800108
I0502 17:22:31.349303  5543 layer_factory.hpp:77] Creating layer relu2_2
I0502 17:22:31.349305  5543 net.cpp:106] Creating Layer relu2_2
I0502 17:22:31.349308  5543 net.cpp:454] relu2_2 <- conv2_2
I0502 17:22:31.349310  5543 net.cpp:397] relu2_2 -> conv2_2 (in-place)
I0502 17:22:31.349460  5543 net.cpp:150] Setting up relu2_2
I0502 17:22:31.349467  5543 net.cpp:157] Top shape: 1 128 300 500 (19200000)
I0502 17:22:31.349468  5543 net.cpp:165] Memory required for data: 981600108
I0502 17:22:31.349470  5543 layer_factory.hpp:77] Creating layer pool2
I0502 17:22:31.349474  5543 net.cpp:106] Creating Layer pool2
I0502 17:22:31.349476  5543 net.cpp:454] pool2 <- conv2_2
I0502 17:22:31.349479  5543 net.cpp:411] pool2 -> pool2
I0502 17:22:31.349525  5543 net.cpp:150] Setting up pool2
I0502 17:22:31.349539  5543 net.cpp:157] Top shape: 1 128 150 250 (4800000)
I0502 17:22:31.349539  5543 net.cpp:165] Memory required for data: 1000800108
I0502 17:22:31.349541  5543 layer_factory.hpp:77] Creating layer conv3_1
I0502 17:22:31.349555  5543 net.cpp:106] Creating Layer conv3_1
I0502 17:22:31.349557  5543 net.cpp:454] conv3_1 <- pool2
I0502 17:22:31.349561  5543 net.cpp:411] conv3_1 -> conv3_1
I0502 17:22:31.351311  5543 net.cpp:150] Setting up conv3_1
I0502 17:22:31.351320  5543 net.cpp:157] Top shape: 1 256 150 250 (9600000)
I0502 17:22:31.351322  5543 net.cpp:165] Memory required for data: 1039200108
I0502 17:22:31.351328  5543 layer_factory.hpp:77] Creating layer relu3_1
I0502 17:22:31.351333  5543 net.cpp:106] Creating Layer relu3_1
I0502 17:22:31.351336  5543 net.cpp:454] relu3_1 <- conv3_1
I0502 17:22:31.351348  5543 net.cpp:397] relu3_1 -> conv3_1 (in-place)
I0502 17:22:31.351478  5543 net.cpp:150] Setting up relu3_1
I0502 17:22:31.351483  5543 net.cpp:157] Top shape: 1 256 150 250 (9600000)
I0502 17:22:31.351485  5543 net.cpp:165] Memory required for data: 1077600108
I0502 17:22:31.351486  5543 layer_factory.hpp:77] Creating layer conv3_2
I0502 17:22:31.351492  5543 net.cpp:106] Creating Layer conv3_2
I0502 17:22:31.351495  5543 net.cpp:454] conv3_2 <- conv3_1
I0502 17:22:31.351497  5543 net.cpp:411] conv3_2 -> conv3_2
I0502 17:22:31.353459  5543 net.cpp:150] Setting up conv3_2
I0502 17:22:31.353468  5543 net.cpp:157] Top shape: 1 256 150 250 (9600000)
I0502 17:22:31.353471  5543 net.cpp:165] Memory required for data: 1116000108
I0502 17:22:31.353474  5543 layer_factory.hpp:77] Creating layer relu3_2
I0502 17:22:31.353478  5543 net.cpp:106] Creating Layer relu3_2
I0502 17:22:31.353480  5543 net.cpp:454] relu3_2 <- conv3_2
I0502 17:22:31.353483  5543 net.cpp:397] relu3_2 -> conv3_2 (in-place)
I0502 17:22:31.353622  5543 net.cpp:150] Setting up relu3_2
I0502 17:22:31.353627  5543 net.cpp:157] Top shape: 1 256 150 250 (9600000)
I0502 17:22:31.353629  5543 net.cpp:165] Memory required for data: 1154400108
I0502 17:22:31.353631  5543 layer_factory.hpp:77] Creating layer conv3_3
I0502 17:22:31.353636  5543 net.cpp:106] Creating Layer conv3_3
I0502 17:22:31.353637  5543 net.cpp:454] conv3_3 <- conv3_2
I0502 17:22:31.353641  5543 net.cpp:411] conv3_3 -> conv3_3
I0502 17:22:31.355577  5543 net.cpp:150] Setting up conv3_3
I0502 17:22:31.355587  5543 net.cpp:157] Top shape: 1 256 150 250 (9600000)
I0502 17:22:31.355588  5543 net.cpp:165] Memory required for data: 1192800108
I0502 17:22:31.355593  5543 layer_factory.hpp:77] Creating layer relu3_3
I0502 17:22:31.355597  5543 net.cpp:106] Creating Layer relu3_3
I0502 17:22:31.355599  5543 net.cpp:454] relu3_3 <- conv3_3
I0502 17:22:31.355602  5543 net.cpp:397] relu3_3 -> conv3_3 (in-place)
I0502 17:22:31.355737  5543 net.cpp:150] Setting up relu3_3
I0502 17:22:31.355742  5543 net.cpp:157] Top shape: 1 256 150 250 (9600000)
I0502 17:22:31.355744  5543 net.cpp:165] Memory required for data: 1231200108
I0502 17:22:31.355746  5543 layer_factory.hpp:77] Creating layer pool3
I0502 17:22:31.355751  5543 net.cpp:106] Creating Layer pool3
I0502 17:22:31.355752  5543 net.cpp:454] pool3 <- conv3_3
I0502 17:22:31.355756  5543 net.cpp:411] pool3 -> pool3
I0502 17:22:31.355814  5543 net.cpp:150] Setting up pool3
I0502 17:22:31.355818  5543 net.cpp:157] Top shape: 1 256 75 125 (2400000)
I0502 17:22:31.355819  5543 net.cpp:165] Memory required for data: 1240800108
I0502 17:22:31.355831  5543 layer_factory.hpp:77] Creating layer conv4_1
I0502 17:22:31.355836  5543 net.cpp:106] Creating Layer conv4_1
I0502 17:22:31.355839  5543 net.cpp:454] conv4_1 <- pool3
I0502 17:22:31.355840  5543 net.cpp:411] conv4_1 -> conv4_1
I0502 17:22:31.359508  5543 net.cpp:150] Setting up conv4_1
I0502 17:22:31.359526  5543 net.cpp:157] Top shape: 1 512 75 125 (4800000)
I0502 17:22:31.359529  5543 net.cpp:165] Memory required for data: 1260000108
I0502 17:22:31.359535  5543 layer_factory.hpp:77] Creating layer relu4_1
I0502 17:22:31.359544  5543 net.cpp:106] Creating Layer relu4_1
I0502 17:22:31.359558  5543 net.cpp:454] relu4_1 <- conv4_1
I0502 17:22:31.359562  5543 net.cpp:397] relu4_1 -> conv4_1 (in-place)
I0502 17:22:31.359709  5543 net.cpp:150] Setting up relu4_1
I0502 17:22:31.359714  5543 net.cpp:157] Top shape: 1 512 75 125 (4800000)
I0502 17:22:31.359715  5543 net.cpp:165] Memory required for data: 1279200108
I0502 17:22:31.359717  5543 layer_factory.hpp:77] Creating layer conv4_2
I0502 17:22:31.359724  5543 net.cpp:106] Creating Layer conv4_2
I0502 17:22:31.359726  5543 net.cpp:454] conv4_2 <- conv4_1
I0502 17:22:31.359731  5543 net.cpp:411] conv4_2 -> conv4_2
I0502 17:22:31.364290  5543 net.cpp:150] Setting up conv4_2
I0502 17:22:31.364320  5543 net.cpp:157] Top shape: 1 512 75 125 (4800000)
I0502 17:22:31.364323  5543 net.cpp:165] Memory required for data: 1298400108
I0502 17:22:31.364344  5543 layer_factory.hpp:77] Creating layer relu4_2
I0502 17:22:31.364362  5543 net.cpp:106] Creating Layer relu4_2
I0502 17:22:31.364368  5543 net.cpp:454] relu4_2 <- conv4_2
I0502 17:22:31.364374  5543 net.cpp:397] relu4_2 -> conv4_2 (in-place)
I0502 17:22:31.364859  5543 net.cpp:150] Setting up relu4_2
I0502 17:22:31.364867  5543 net.cpp:157] Top shape: 1 512 75 125 (4800000)
I0502 17:22:31.364869  5543 net.cpp:165] Memory required for data: 1317600108
I0502 17:22:31.364871  5543 layer_factory.hpp:77] Creating layer conv4_3
I0502 17:22:31.364878  5543 net.cpp:106] Creating Layer conv4_3
I0502 17:22:31.364881  5543 net.cpp:454] conv4_3 <- conv4_2
I0502 17:22:31.364883  5543 net.cpp:411] conv4_3 -> conv4_3
I0502 17:22:31.369299  5543 net.cpp:150] Setting up conv4_3
I0502 17:22:31.369318  5543 net.cpp:157] Top shape: 1 512 75 125 (4800000)
I0502 17:22:31.369320  5543 net.cpp:165] Memory required for data: 1336800108
I0502 17:22:31.369328  5543 layer_factory.hpp:77] Creating layer relu4_3
I0502 17:22:31.369334  5543 net.cpp:106] Creating Layer relu4_3
I0502 17:22:31.369349  5543 net.cpp:454] relu4_3 <- conv4_3
I0502 17:22:31.369354  5543 net.cpp:397] relu4_3 -> conv4_3 (in-place)
I0502 17:22:31.369496  5543 net.cpp:150] Setting up relu4_3
I0502 17:22:31.369503  5543 net.cpp:157] Top shape: 1 512 75 125 (4800000)
I0502 17:22:31.369504  5543 net.cpp:165] Memory required for data: 1356000108
I0502 17:22:31.369506  5543 layer_factory.hpp:77] Creating layer pool4
I0502 17:22:31.369510  5543 net.cpp:106] Creating Layer pool4
I0502 17:22:31.369513  5543 net.cpp:454] pool4 <- conv4_3
I0502 17:22:31.369516  5543 net.cpp:411] pool4 -> pool4
I0502 17:22:31.369565  5543 net.cpp:150] Setting up pool4
I0502 17:22:31.369568  5543 net.cpp:157] Top shape: 1 512 38 63 (1225728)
I0502 17:22:31.369570  5543 net.cpp:165] Memory required for data: 1360903020
I0502 17:22:31.369581  5543 layer_factory.hpp:77] Creating layer conv5_1
I0502 17:22:31.369588  5543 net.cpp:106] Creating Layer conv5_1
I0502 17:22:31.369591  5543 net.cpp:454] conv5_1 <- pool4
I0502 17:22:31.369596  5543 net.cpp:411] conv5_1 -> conv5_1
I0502 17:22:31.374012  5543 net.cpp:150] Setting up conv5_1
I0502 17:22:31.374032  5543 net.cpp:157] Top shape: 1 512 38 63 (1225728)
I0502 17:22:31.374033  5543 net.cpp:165] Memory required for data: 1365805932
I0502 17:22:31.374040  5543 layer_factory.hpp:77] Creating layer relu5_1
I0502 17:22:31.374048  5543 net.cpp:106] Creating Layer relu5_1
I0502 17:22:31.374053  5543 net.cpp:454] relu5_1 <- conv5_1
I0502 17:22:31.374058  5543 net.cpp:397] relu5_1 -> conv5_1 (in-place)
I0502 17:22:31.374192  5543 net.cpp:150] Setting up relu5_1
I0502 17:22:31.374197  5543 net.cpp:157] Top shape: 1 512 38 63 (1225728)
I0502 17:22:31.374199  5543 net.cpp:165] Memory required for data: 1370708844
I0502 17:22:31.374202  5543 layer_factory.hpp:77] Creating layer conv5_2
I0502 17:22:31.374208  5543 net.cpp:106] Creating Layer conv5_2
I0502 17:22:31.374212  5543 net.cpp:454] conv5_2 <- conv5_1
I0502 17:22:31.374215  5543 net.cpp:411] conv5_2 -> conv5_2
I0502 17:22:31.378413  5543 net.cpp:150] Setting up conv5_2
I0502 17:22:31.378432  5543 net.cpp:157] Top shape: 1 512 38 63 (1225728)
I0502 17:22:31.378433  5543 net.cpp:165] Memory required for data: 1375611756
I0502 17:22:31.378440  5543 layer_factory.hpp:77] Creating layer relu5_2
I0502 17:22:31.378448  5543 net.cpp:106] Creating Layer relu5_2
I0502 17:22:31.378451  5543 net.cpp:454] relu5_2 <- conv5_2
I0502 17:22:31.378458  5543 net.cpp:397] relu5_2 -> conv5_2 (in-place)
I0502 17:22:31.378589  5543 net.cpp:150] Setting up relu5_2
I0502 17:22:31.378595  5543 net.cpp:157] Top shape: 1 512 38 63 (1225728)
I0502 17:22:31.378597  5543 net.cpp:165] Memory required for data: 1380514668
I0502 17:22:31.378598  5543 layer_factory.hpp:77] Creating layer conv5_3
I0502 17:22:31.378608  5543 net.cpp:106] Creating Layer conv5_3
I0502 17:22:31.378610  5543 net.cpp:454] conv5_3 <- conv5_2
I0502 17:22:31.378615  5543 net.cpp:411] conv5_3 -> conv5_3
I0502 17:22:31.382863  5543 net.cpp:150] Setting up conv5_3
I0502 17:22:31.382879  5543 net.cpp:157] Top shape: 1 512 38 63 (1225728)
I0502 17:22:31.382881  5543 net.cpp:165] Memory required for data: 1385417580
I0502 17:22:31.382889  5543 layer_factory.hpp:77] Creating layer relu5_3
I0502 17:22:31.382896  5543 net.cpp:106] Creating Layer relu5_3
I0502 17:22:31.382901  5543 net.cpp:454] relu5_3 <- conv5_3
I0502 17:22:31.382907  5543 net.cpp:397] relu5_3 -> conv5_3 (in-place)
I0502 17:22:31.383039  5543 net.cpp:150] Setting up relu5_3
I0502 17:22:31.383045  5543 net.cpp:157] Top shape: 1 512 38 63 (1225728)
I0502 17:22:31.383046  5543 net.cpp:165] Memory required for data: 1390320492
I0502 17:22:31.383049  5543 layer_factory.hpp:77] Creating layer conv5_3_relu5_3_0_split
I0502 17:22:31.383054  5543 net.cpp:106] Creating Layer conv5_3_relu5_3_0_split
I0502 17:22:31.383055  5543 net.cpp:454] conv5_3_relu5_3_0_split <- conv5_3
I0502 17:22:31.383059  5543 net.cpp:411] conv5_3_relu5_3_0_split -> conv5_3_relu5_3_0_split_0
I0502 17:22:31.383075  5543 net.cpp:411] conv5_3_relu5_3_0_split -> conv5_3_relu5_3_0_split_1
I0502 17:22:31.383080  5543 net.cpp:411] conv5_3_relu5_3_0_split -> conv5_3_relu5_3_0_split_2
I0502 17:22:31.383123  5543 net.cpp:150] Setting up conv5_3_relu5_3_0_split
I0502 17:22:31.383127  5543 net.cpp:157] Top shape: 1 512 38 63 (1225728)
I0502 17:22:31.383131  5543 net.cpp:157] Top shape: 1 512 38 63 (1225728)
I0502 17:22:31.383143  5543 net.cpp:157] Top shape: 1 512 38 63 (1225728)
I0502 17:22:31.383145  5543 net.cpp:165] Memory required for data: 1405029228
I0502 17:22:31.383147  5543 layer_factory.hpp:77] Creating layer rpn_conv/3x3
I0502 17:22:31.383157  5543 net.cpp:106] Creating Layer rpn_conv/3x3
I0502 17:22:31.383162  5543 net.cpp:454] rpn_conv/3x3 <- conv5_3_relu5_3_0_split_0
I0502 17:22:31.383164  5543 net.cpp:411] rpn_conv/3x3 -> rpn/output
I0502 17:22:31.433290  5543 net.cpp:150] Setting up rpn_conv/3x3
I0502 17:22:31.433306  5543 net.cpp:157] Top shape: 1 512 38 63 (1225728)
I0502 17:22:31.433308  5543 net.cpp:165] Memory required for data: 1409932140
I0502 17:22:31.433315  5543 layer_factory.hpp:77] Creating layer rpn_relu/3x3
I0502 17:22:31.433323  5543 net.cpp:106] Creating Layer rpn_relu/3x3
I0502 17:22:31.433337  5543 net.cpp:454] rpn_relu/3x3 <- rpn/output
I0502 17:22:31.433341  5543 net.cpp:397] rpn_relu/3x3 -> rpn/output (in-place)
I0502 17:22:31.433487  5543 net.cpp:150] Setting up rpn_relu/3x3
I0502 17:22:31.433493  5543 net.cpp:157] Top shape: 1 512 38 63 (1225728)
I0502 17:22:31.433495  5543 net.cpp:165] Memory required for data: 1414835052
I0502 17:22:31.433506  5543 layer_factory.hpp:77] Creating layer rpn/output_rpn_relu/3x3_0_split
I0502 17:22:31.433511  5543 net.cpp:106] Creating Layer rpn/output_rpn_relu/3x3_0_split
I0502 17:22:31.433513  5543 net.cpp:454] rpn/output_rpn_relu/3x3_0_split <- rpn/output
I0502 17:22:31.433517  5543 net.cpp:411] rpn/output_rpn_relu/3x3_0_split -> rpn/output_rpn_relu/3x3_0_split_0
I0502 17:22:31.433521  5543 net.cpp:411] rpn/output_rpn_relu/3x3_0_split -> rpn/output_rpn_relu/3x3_0_split_1
I0502 17:22:31.433557  5543 net.cpp:150] Setting up rpn/output_rpn_relu/3x3_0_split
I0502 17:22:31.433560  5543 net.cpp:157] Top shape: 1 512 38 63 (1225728)
I0502 17:22:31.433563  5543 net.cpp:157] Top shape: 1 512 38 63 (1225728)
I0502 17:22:31.433575  5543 net.cpp:165] Memory required for data: 1424640876
I0502 17:22:31.433578  5543 layer_factory.hpp:77] Creating layer rpn_cls_score
I0502 17:22:31.433588  5543 net.cpp:106] Creating Layer rpn_cls_score
I0502 17:22:31.433590  5543 net.cpp:454] rpn_cls_score <- rpn/output_rpn_relu/3x3_0_split_0
I0502 17:22:31.433594  5543 net.cpp:411] rpn_cls_score -> rpn_cls_score
I0502 17:22:31.435153  5543 net.cpp:150] Setting up rpn_cls_score
I0502 17:22:31.435163  5543 net.cpp:157] Top shape: 1 30 38 63 (71820)
I0502 17:22:31.435166  5543 net.cpp:165] Memory required for data: 1424928156
I0502 17:22:31.435173  5543 layer_factory.hpp:77] Creating layer rpn_cls_score_rpn_cls_score_0_split
I0502 17:22:31.435178  5543 net.cpp:106] Creating Layer rpn_cls_score_rpn_cls_score_0_split
I0502 17:22:31.435184  5543 net.cpp:454] rpn_cls_score_rpn_cls_score_0_split <- rpn_cls_score
I0502 17:22:31.435189  5543 net.cpp:411] rpn_cls_score_rpn_cls_score_0_split -> rpn_cls_score_rpn_cls_score_0_split_0
I0502 17:22:31.435194  5543 net.cpp:411] rpn_cls_score_rpn_cls_score_0_split -> rpn_cls_score_rpn_cls_score_0_split_1
I0502 17:22:31.435222  5543 net.cpp:150] Setting up rpn_cls_score_rpn_cls_score_0_split
I0502 17:22:31.435228  5543 net.cpp:157] Top shape: 1 30 38 63 (71820)
I0502 17:22:31.435232  5543 net.cpp:157] Top shape: 1 30 38 63 (71820)
I0502 17:22:31.435235  5543 net.cpp:165] Memory required for data: 1425502716
I0502 17:22:31.435237  5543 layer_factory.hpp:77] Creating layer rpn_bbox_pred
I0502 17:22:31.435243  5543 net.cpp:106] Creating Layer rpn_bbox_pred
I0502 17:22:31.435246  5543 net.cpp:454] rpn_bbox_pred <- rpn/output_rpn_relu/3x3_0_split_1
I0502 17:22:31.435250  5543 net.cpp:411] rpn_bbox_pred -> rpn_bbox_pred
I0502 17:22:31.436727  5543 net.cpp:150] Setting up rpn_bbox_pred
I0502 17:22:31.436734  5543 net.cpp:157] Top shape: 1 60 38 63 (143640)
I0502 17:22:31.436736  5543 net.cpp:165] Memory required for data: 1426077276
I0502 17:22:31.436740  5543 layer_factory.hpp:77] Creating layer rpn_bbox_pred_rpn_bbox_pred_0_split
I0502 17:22:31.436745  5543 net.cpp:106] Creating Layer rpn_bbox_pred_rpn_bbox_pred_0_split
I0502 17:22:31.436748  5543 net.cpp:454] rpn_bbox_pred_rpn_bbox_pred_0_split <- rpn_bbox_pred
I0502 17:22:31.436751  5543 net.cpp:411] rpn_bbox_pred_rpn_bbox_pred_0_split -> rpn_bbox_pred_rpn_bbox_pred_0_split_0
I0502 17:22:31.436755  5543 net.cpp:411] rpn_bbox_pred_rpn_bbox_pred_0_split -> rpn_bbox_pred_rpn_bbox_pred_0_split_1
I0502 17:22:31.436781  5543 net.cpp:150] Setting up rpn_bbox_pred_rpn_bbox_pred_0_split
I0502 17:22:31.436784  5543 net.cpp:157] Top shape: 1 60 38 63 (143640)
I0502 17:22:31.436787  5543 net.cpp:157] Top shape: 1 60 38 63 (143640)
I0502 17:22:31.436789  5543 net.cpp:165] Memory required for data: 1427226396
I0502 17:22:31.436790  5543 layer_factory.hpp:77] Creating layer rpn_cls_score_reshape
I0502 17:22:31.436798  5543 net.cpp:106] Creating Layer rpn_cls_score_reshape
I0502 17:22:31.436801  5543 net.cpp:454] rpn_cls_score_reshape <- rpn_cls_score_rpn_cls_score_0_split_0
I0502 17:22:31.436805  5543 net.cpp:411] rpn_cls_score_reshape -> rpn_cls_score_reshape
I0502 17:22:31.436820  5543 net.cpp:150] Setting up rpn_cls_score_reshape
I0502 17:22:31.436823  5543 net.cpp:157] Top shape: 1 2 570 63 (71820)
I0502 17:22:31.436825  5543 net.cpp:165] Memory required for data: 1427513676
I0502 17:22:31.436826  5543 layer_factory.hpp:77] Creating layer rpn_cls_score_reshape_rpn_cls_score_reshape_0_split
I0502 17:22:31.436830  5543 net.cpp:106] Creating Layer rpn_cls_score_reshape_rpn_cls_score_reshape_0_split
I0502 17:22:31.436832  5543 net.cpp:454] rpn_cls_score_reshape_rpn_cls_score_reshape_0_split <- rpn_cls_score_reshape
I0502 17:22:31.436836  5543 net.cpp:411] rpn_cls_score_reshape_rpn_cls_score_reshape_0_split -> rpn_cls_score_reshape_rpn_cls_score_reshape_0_split_0
I0502 17:22:31.436838  5543 net.cpp:411] rpn_cls_score_reshape_rpn_cls_score_reshape_0_split -> rpn_cls_score_reshape_rpn_cls_score_reshape_0_split_1
I0502 17:22:31.436861  5543 net.cpp:150] Setting up rpn_cls_score_reshape_rpn_cls_score_reshape_0_split
I0502 17:22:31.436863  5543 net.cpp:157] Top shape: 1 2 570 63 (71820)
I0502 17:22:31.436866  5543 net.cpp:157] Top shape: 1 2 570 63 (71820)
I0502 17:22:31.436867  5543 net.cpp:165] Memory required for data: 1428088236
I0502 17:22:31.436869  5543 layer_factory.hpp:77] Creating layer rpn-data
I0502 17:22:31.437166  5543 net.cpp:106] Creating Layer rpn-data
I0502 17:22:31.437173  5543 net.cpp:454] rpn-data <- rpn_cls_score_rpn_cls_score_0_split_1
I0502 17:22:31.437177  5543 net.cpp:454] rpn-data <- gt_boxes_input-data_2_split_0
I0502 17:22:31.437180  5543 net.cpp:454] rpn-data <- im_info_input-data_1_split_0
I0502 17:22:31.437182  5543 net.cpp:454] rpn-data <- data_input-data_0_split_1
I0502 17:22:31.437186  5543 net.cpp:411] rpn-data -> rpn_labels
I0502 17:22:31.437191  5543 net.cpp:411] rpn-data -> rpn_bbox_targets
I0502 17:22:31.437193  5543 net.cpp:411] rpn-data -> rpn_bbox_inside_weights
I0502 17:22:31.437197  5543 net.cpp:411] rpn-data -> rpn_bbox_outside_weights
===================================anchor_scales in AnchorTargetLayer:=============(2, 4, 8, 16, 32)
I0502 17:22:31.437990  5543 net.cpp:150] Setting up rpn-data
I0502 17:22:31.437999  5543 net.cpp:157] Top shape: 1 1 570 63 (35910)
I0502 17:22:31.438011  5543 net.cpp:157] Top shape: 1 60 38 63 (143640)
I0502 17:22:31.438014  5543 net.cpp:157] Top shape: 1 60 38 63 (143640)
I0502 17:22:31.438016  5543 net.cpp:157] Top shape: 1 60 38 63 (143640)
I0502 17:22:31.438017  5543 net.cpp:165] Memory required for data: 1429955556
I0502 17:22:31.438019  5543 layer_factory.hpp:77] Creating layer rpn_loss_cls
I0502 17:22:31.438024  5543 net.cpp:106] Creating Layer rpn_loss_cls
I0502 17:22:31.438028  5543 net.cpp:454] rpn_loss_cls <- rpn_cls_score_reshape_rpn_cls_score_reshape_0_split_0
I0502 17:22:31.438031  5543 net.cpp:454] rpn_loss_cls <- rpn_labels
…
I0502 17:22:31.439733  5543 net.cpp:157] Top shape: (1)
I0502 17:22:31.439734  5543 net.cpp:160]     with loss weight 1
I0502 17:22:31.439747  5543 net.cpp:165] Memory required for data: 1429955564
I0502 17:22:31.439750  5543 layer_factory.hpp:77] Creating layer rpn_cls_prob
I0502 17:22:31.439755  5543 net.cpp:106] Creating Layer rpn_cls_prob
I0502 17:22:31.439759  5543 net.cpp:454] rpn_cls_prob <- rpn_cls_score_reshape_rpn_cls_score_reshape_0_split_1
I0502 17:22:31.439774  5543 net.cpp:411] rpn_cls_prob -> rpn_cls_prob
I0502 17:22:31.439925  5543 net.cpp:150] Setting up rpn_cls_prob
I0502 17:22:31.439931  5543 net.cpp:157] Top shape: 1 2 570 63 (71820)
I0502 17:22:31.439934  5543 net.cpp:165] Memory required for data: 1430242844
I0502 17:22:31.439934  5543 layer_factory.hpp:77] Creating layer rpn_cls_prob_reshape
I0502 17:22:31.439939  5543 net.cpp:106] Creating Layer rpn_cls_prob_reshape
I0502 17:22:31.439941  5543 net.cpp:454] rpn_cls_prob_reshape <- rpn_cls_prob
I0502 17:22:31.439947  5543 net.cpp:411] rpn_cls_prob_reshape -> rpn_cls_prob_reshape
I0502 17:22:31.439975  5543 net.cpp:150] Setting up rpn_cls_prob_reshape
I0502 17:22:31.439988  5543 net.cpp:157] Top shape: 1 30 38 63 (71820)
I0502 17:22:31.439990  5543 net.cpp:165] Memory required for data: 1430530124
I0502 17:22:31.439991  5543 layer_factory.hpp:77] Creating layer proposal
I0502 17:22:31.440423  5543 net.cpp:106] Creating Layer proposal
I0502 17:22:31.440429  5543 net.cpp:454] proposal <- rpn_cls_prob_reshape
I0502 17:22:31.440443  5543 net.cpp:454] proposal <- rpn_bbox_pred_rpn_bbox_pred_0_split_1
I0502 17:22:31.440445  5543 net.cpp:454] proposal <- im_info_input-data_1_split_1
I0502 17:22:31.440448  5543 net.cpp:411] proposal -> rpn_rois
=================================anchor_scales in ProposalLayer:=============(2, 4, 8, 16, 32)
I0502 17:22:31.441201  5543 net.cpp:150] Setting up proposal
I0502 17:22:31.441210  5543 net.cpp:157] Top shape: 1 5 (5)
I0502 17:22:31.441212  5543 net.cpp:165] Memory required for data: 1430530144
I0502 17:22:31.441217  5543 layer_factory.hpp:77] Creating layer roi-data
I0502 17:22:31.441417  5543 net.cpp:106] Creating Layer roi-data
I0502 17:22:31.441424  5543 net.cpp:454] roi-data <- rpn_rois
I0502 17:22:31.441427  5543 net.cpp:454] roi-data <- gt_boxes_input-data_2_split_1
I0502 17:22:31.441431  5543 net.cpp:454] roi-data <- im_info_input-data_1_split_2
I0502 17:22:31.441432  5543 net.cpp:454] roi-data <- seg_mask_inds
I0502 17:22:31.441434  5543 net.cpp:454] roi-data <- flipped
I0502 17:22:31.441440  5543 net.cpp:411] roi-data -> rois
I0502 17:22:31.441457  5543 net.cpp:411] roi-data -> labels
I0502 17:22:31.441463  5543 net.cpp:411] roi-data -> bbox_targets
I0502 17:22:31.441468  5543 net.cpp:411] roi-data -> bbox_inside_weights
I0502 17:22:31.441471  5543 net.cpp:411] roi-data -> bbox_outside_weights
I0502 17:22:31.441475  5543 net.cpp:411] roi-data -> mask_targets
I0502 17:22:31.441488  5543 net.cpp:411] roi-data -> rois_pos
I0502 17:22:31.441493  5543 net.cpp:411] roi-data -> attrArray
I0502 17:22:31.441495  5543 net.cpp:411] roi-data -> attrArrayInd
I0502 17:22:31.441509  5543 net.cpp:411] roi-data -> attrArrayShift
I0502 17:22:31.441782  5543 net.cpp:150] Setting up roi-data
I0502 17:22:31.441789  5543 net.cpp:157] Top shape: 1 5 (5)
I0502 17:22:31.441802  5543 net.cpp:157] Top shape: 1 1 (1)
I0502 17:22:31.441805  5543 net.cpp:157] Top shape: 1 8 (8)
I0502 17:22:31.441807  5543 net.cpp:157] Top shape: 1 8 (8)
I0502 17:22:31.441808  5543 net.cpp:157] Top shape: 1 8 (8)
I0502 17:22:31.441812  5543 net.cpp:157] Top shape: 1 244 244 (59536)
I0502 17:22:31.441813  5543 net.cpp:157] Top shape: 1 5 (5)
I0502 17:22:31.441817  5543 net.cpp:157] Top shape: 1 7 (7)
I0502 17:22:31.441821  5543 net.cpp:157] Top shape: 1 7 (7)
I0502 17:22:31.441825  5543 net.cpp:157] Top shape: 1 7 (7)
I0502 17:22:31.441828  5543 net.cpp:165] Memory required for data: 1430768512
I0502 17:22:31.441831  5543 layer_factory.hpp:77] Creating layer roi_pool5
I0502 17:22:31.441838  5543 net.cpp:106] Creating Layer roi_pool5
I0502 17:22:31.441841  5543 net.cpp:454] roi_pool5 <- conv5_3_relu5_3_0_split_1
I0502 17:22:31.441844  5543 net.cpp:454] roi_pool5 <- rois
I0502 17:22:31.441849  5543 net.cpp:411] roi_pool5 -> pool5
I0502 17:22:31.441859  5543 roi_alignment_layer.cpp:32] Spatial scale: 0.0625
I0502 17:22:31.441927  5543 net.cpp:150] Setting up roi_pool5
I0502 17:22:31.441932  5543 net.cpp:157] Top shape: 1 512 7 7 (25088)
I0502 17:22:31.441936  5543 net.cpp:165] Memory required for data: 1430868864
I0502 17:22:31.441938  5543 layer_factory.hpp:77] Creating layer fc6
I0502 17:22:31.441944  5543 net.cpp:106] Creating Layer fc6
I0502 17:22:31.441947  5543 net.cpp:454] fc6 <- pool5
I0502 17:22:31.441951  5543 net.cpp:411] fc6 -> fc6
I0502 17:22:31.585255  5543 net.cpp:150] Setting up fc6
I0502 17:22:31.585278  5543 net.cpp:157] Top shape: 1 4096 (4096)
I0502 17:22:31.585280  5543 net.cpp:165] Memory required for data: 1430885248
I0502 17:22:31.585294  5543 layer_factory.hpp:77] Creating layer relu6
I0502 17:22:31.585314  5543 net.cpp:106] Creating Layer relu6
I0502 17:22:31.585319  5543 net.cpp:454] relu6 <- fc6
I0502 17:22:31.585322  5543 net.cpp:397] relu6 -> fc6 (in-place)
I0502 17:22:31.585532  5543 net.cpp:150] Setting up relu6
I0502 17:22:31.585539  5543 net.cpp:157] Top shape: 1 4096 (4096)
I0502 17:22:31.585541  5543 net.cpp:165] Memory required for data: 1430901632
I0502 17:22:31.585543  5543 layer_factory.hpp:77] Creating layer fc7
I0502 17:22:31.585549  5543 net.cpp:106] Creating Layer fc7
I0502 17:22:31.585551  5543 net.cpp:454] fc7 <- fc6
I0502 17:22:31.585556  5543 net.cpp:411] fc7 -> fc7
I0502 17:22:31.608747  5543 net.cpp:150] Setting up fc7
I0502 17:22:31.608769  5543 net.cpp:157] Top shape: 1 4096 (4096)
I0502 17:22:31.608772  5543 net.cpp:165] Memory required for data: 1430918016
I0502 17:22:31.608780  5543 layer_factory.hpp:77] Creating layer relu7
I0502 17:22:31.608786  5543 net.cpp:106] Creating Layer relu7
I0502 17:22:31.608791  5543 net.cpp:454] relu7 <- fc7
I0502 17:22:31.608795  5543 net.cpp:397] relu7 -> fc7 (in-place)
I0502 17:22:31.608961  5543 net.cpp:150] Setting up relu7
I0502 17:22:31.608966  5543 net.cpp:157] Top shape: 1 4096 (4096)
I0502 17:22:31.608968  5543 net.cpp:165] Memory required for data: 1430934400
I0502 17:22:31.608970  5543 layer_factory.hpp:77] Creating layer fc7_relu7_0_split
I0502 17:22:31.608973  5543 net.cpp:106] Creating Layer fc7_relu7_0_split
I0502 17:22:31.608975  5543 net.cpp:454] fc7_relu7_0_split <- fc7
I0502 17:22:31.608979  5543 net.cpp:411] fc7_relu7_0_split -> fc7_relu7_0_split_0
I0502 17:22:31.608983  5543 net.cpp:411] fc7_relu7_0_split -> fc7_relu7_0_split_1
I0502 17:22:31.608988  5543 net.cpp:411] fc7_relu7_0_split -> fc7_relu7_0_split_2
I0502 17:22:31.609025  5543 net.cpp:150] Setting up fc7_relu7_0_split
I0502 17:22:31.609030  5543 net.cpp:157] Top shape: 1 4096 (4096)
I0502 17:22:31.609031  5543 net.cpp:157] Top shape: 1 4096 (4096)
I0502 17:22:31.609033  5543 net.cpp:157] Top shape: 1 4096 (4096)
I0502 17:22:31.609035  5543 net.cpp:165] Memory required for data: 1430983552
I0502 17:22:31.609036  5543 layer_factory.hpp:77] Creating layer attr_score
I0502 17:22:31.609041  5543 net.cpp:106] Creating Layer attr_score
I0502 17:22:31.609043  5543 net.cpp:454] attr_score <- fc7_relu7_0_split_0
I0502 17:22:31.609050  5543 net.cpp:411] attr_score -> attr_score
I0502 17:22:31.609747  5543 net.cpp:150] Setting up attr_score
I0502 17:22:31.609752  5543 net.cpp:157] Top shape: 1 7 (7)
I0502 17:22:31.609764  5543 net.cpp:165] Memory required for data: 1430983580
I0502 17:22:31.609768  5543 layer_factory.hpp:77] Creating layer attr_score_pos
I0502 17:22:31.609773  5543 net.cpp:106] Creating Layer attr_score_pos
I0502 17:22:31.609776  5543 net.cpp:454] attr_score_pos <- attr_score
I0502 17:22:31.609781  5543 net.cpp:454] attr_score_pos <- attrArrayInd
I0502 17:22:31.609786  5543 net.cpp:411] attr_score_pos -> attr_score_pos
I0502 17:22:31.609805  5543 net.cpp:150] Setting up attr_score_pos
I0502 17:22:31.609809  5543 net.cpp:157] Top shape: 1 7 (7)
I0502 17:22:31.609810  5543 net.cpp:165] Memory required for data: 1430983608
I0502 17:22:31.609812  5543 layer_factory.hpp:77] Creating layer attr_score_pos_shift
I0502 17:22:31.609818  5543 net.cpp:106] Creating Layer attr_score_pos_shift
I0502 17:22:31.609822  5543 net.cpp:454] attr_score_pos_shift <- attr_score_pos
I0502 17:22:31.609825  5543 net.cpp:454] attr_score_pos_shift <- attrArrayShift
I0502 17:22:31.609829  5543 net.cpp:411] attr_score_pos_shift -> attr_score_pos_shift
I0502 17:22:31.609844  5543 net.cpp:150] Setting up attr_score_pos_shift
I0502 17:22:31.609848  5543 net.cpp:157] Top shape: 1 7 (7)
I0502 17:22:31.609849  5543 net.cpp:165] Memory required for data: 1430983636
I0502 17:22:31.609851  5543 layer_factory.hpp:77] Creating layer cls_score
I0502 17:22:31.609856  5543 net.cpp:106] Creating Layer cls_score
I0502 17:22:31.609860  5543 net.cpp:454] cls_score <- fc7_relu7_0_split_1
I0502 17:22:31.609864  5543 net.cpp:411] cls_score -> cls_score
I0502 17:22:31.610100  5543 net.cpp:150] Setting up cls_score
I0502 17:22:31.610105  5543 net.cpp:157] Top shape: 1 2 (2)
I0502 17:22:31.610106  5543 net.cpp:165] Memory required for data: 1430983644
I0502 17:22:31.610119  5543 layer_factory.hpp:77] Creating layer bbox_pred
I0502 17:22:31.610126  5543 net.cpp:106] Creating Layer bbox_pred
I0502 17:22:31.610129  5543 net.cpp:454] bbox_pred <- fc7_relu7_0_split_2
I0502 17:22:31.610132  5543 net.cpp:411] bbox_pred -> bbox_pred
I0502 17:22:31.610874  5543 net.cpp:150] Setting up bbox_pred
I0502 17:22:31.610878  5543 net.cpp:157] Top shape: 1 8 (8)
I0502 17:22:31.610880  5543 net.cpp:165] Memory required for data: 1430983676
I0502 17:22:31.610885  5543 layer_factory.hpp:77] Creating layer loss_attribute
I0502 17:22:31.610893  5543 net.cpp:106] Creating Layer loss_attribute
I0502 17:22:31.610898  5543 net.cpp:454] loss_attribute <- attr_score_pos_shift
I0502 17:22:31.610900  5543 net.cpp:454] loss_attribute <- attrArray
I0502 17:22:31.610905  5543 net.cpp:411] loss_attribute -> loss_attribute
…
I0502 17:22:31.611843  5543 net.cpp:165] Memory required for data: 1430983688
I0502 17:22:31.611846  5543 layer_factory.hpp:77] Creating layer roi_pool5_2
I0502 17:22:31.611853  5543 net.cpp:106] Creating Layer roi_pool5_2
I0502 17:22:31.611857  5543 net.cpp:454] roi_pool5_2 <- conv5_3_relu5_3_0_split_2
I0502 17:22:31.611871  5543 net.cpp:454] roi_pool5_2 <- rois_pos
I0502 17:22:31.611876  5543 net.cpp:411] roi_pool5_2 -> pool5_2
I0502 17:22:31.611882  5543 roi_alignment_layer.cpp:32] Spatial scale: 0.0625
I0502 17:22:31.611948  5543 net.cpp:150] Setting up roi_pool5_2
I0502 17:22:31.611953  5543 net.cpp:157] Top shape: 1 512 7 7 (25088)
I0502 17:22:31.611954  5543 net.cpp:165] Memory required for data: 1431084040
I0502 17:22:31.611966  5543 layer_factory.hpp:77] Creating layer pool5_2_conv
I0502 17:22:31.611974  5543 net.cpp:106] Creating Layer pool5_2_conv
I0502 17:22:31.611977  5543 net.cpp:454] pool5_2_conv <- pool5_2
I0502 17:22:31.611984  5543 net.cpp:411] pool5_2_conv -> pool5_2_conv
I0502 17:22:31.618542  5543 net.cpp:150] Setting up pool5_2_conv
I0502 17:22:31.618561  5543 net.cpp:157] Top shape: 1 512 7 7 (25088)
I0502 17:22:31.618562  5543 net.cpp:165] Memory required for data: 1431184392
I0502 17:22:31.618567  5543 layer_factory.hpp:77] Creating layer pool5_2_conv_relu
I0502 17:22:31.618573  5543 net.cpp:106] Creating Layer pool5_2_conv_relu
I0502 17:22:31.618578  5543 net.cpp:454] pool5_2_conv_relu <- pool5_2_conv
I0502 17:22:31.618584  5543 net.cpp:411] pool5_2_conv_relu -> pool5_2_conv_relu
I0502 17:22:31.618722  5543 net.cpp:150] Setting up pool5_2_conv_relu
I0502 17:22:31.618728  5543 net.cpp:157] Top shape: 1 512 7 7 (25088)
I0502 17:22:31.618741  5543 net.cpp:165] Memory required for data: 1431284744
I0502 17:22:31.618742  5543 layer_factory.hpp:77] Creating layer pool5_2_conv2
I0502 17:22:31.618749  5543 net.cpp:106] Creating Layer pool5_2_conv2
I0502 17:22:31.618755  5543 net.cpp:454] pool5_2_conv2 <- pool5_2_conv_relu
I0502 17:22:31.618762  5543 net.cpp:411] pool5_2_conv2 -> pool5_2_conv2
I0502 17:22:31.668974  5543 net.cpp:150] Setting up pool5_2_conv2
I0502 17:22:31.668990  5543 net.cpp:157] Top shape: 1 512 7 7 (25088)
I0502 17:22:31.668992  5543 net.cpp:165] Memory required for data: 1431385096
I0502 17:22:31.668999  5543 layer_factory.hpp:77] Creating layer pool5_2_conv2_relu
I0502 17:22:31.669008  5543 net.cpp:106] Creating Layer pool5_2_conv2_relu
I0502 17:22:31.669013  5543 net.cpp:454] pool5_2_conv2_relu <- pool5_2_conv2
I0502 17:22:31.669029  5543 net.cpp:411] pool5_2_conv2_relu -> pool5_2_conv2_relu
I0502 17:22:31.669173  5543 net.cpp:150] Setting up pool5_2_conv2_relu
I0502 17:22:31.669179  5543 net.cpp:157] Top shape: 1 512 7 7 (25088)
I0502 17:22:31.669180  5543 net.cpp:165] Memory required for data: 1431485448
I0502 17:22:31.669183  5543 layer_factory.hpp:77] Creating layer mask_deconv1
I0502 17:22:31.669189  5543 net.cpp:106] Creating Layer mask_deconv1
I0502 17:22:31.669193  5543 net.cpp:454] mask_deconv1 <- pool5_2_conv2_relu
I0502 17:22:31.669209  5543 net.cpp:411] mask_deconv1 -> mask_deconv1
I0502 17:22:31.669983  5543 net.cpp:150] Setting up mask_deconv1
I0502 17:22:31.669988  5543 net.cpp:157] Top shape: 1 256 30 30 (230400)
I0502 17:22:31.669991  5543 net.cpp:165] Memory required for data: 1432407048
I0502 17:22:31.669993  5543 layer_factory.hpp:77] Creating layer pool5_2_conv3
I0502 17:22:31.670001  5543 net.cpp:106] Creating Layer pool5_2_conv3
I0502 17:22:31.670003  5543 net.cpp:454] pool5_2_conv3 <- mask_deconv1
I0502 17:22:31.670009  5543 net.cpp:411] pool5_2_conv3 -> pool5_2_conv3
I0502 17:22:31.695664  5543 net.cpp:150] Setting up pool5_2_conv3
I0502 17:22:31.695679  5543 net.cpp:157] Top shape: 1 512 30 30 (460800)
I0502 17:22:31.695681  5543 net.cpp:165] Memory required for data: 1434250248
I0502 17:22:31.695688  5543 layer_factory.hpp:77] Creating layer pool5_2_conv3_relu
I0502 17:22:31.695695  5543 net.cpp:106] Creating Layer pool5_2_conv3_relu
I0502 17:22:31.695700  5543 net.cpp:454] pool5_2_conv3_relu <- pool5_2_conv3
I0502 17:22:31.695716  5543 net.cpp:411] pool5_2_conv3_relu -> pool5_2_conv3_relu
I0502 17:22:31.695858  5543 net.cpp:150] Setting up pool5_2_conv3_relu
I0502 17:22:31.695863  5543 net.cpp:157] Top shape: 1 512 30 30 (460800)
I0502 17:22:31.695864  5543 net.cpp:165] Memory required for data: 1436093448
I0502 17:22:31.695866  5543 layer_factory.hpp:77] Creating layer pool5_2_conv4
I0502 17:22:31.695874  5543 net.cpp:106] Creating Layer pool5_2_conv4
I0502 17:22:31.695876  5543 net.cpp:454] pool5_2_conv4 <- pool5_2_conv3_relu
I0502 17:22:31.695881  5543 net.cpp:411] pool5_2_conv4 -> pool5_2_conv4
I0502 17:22:31.745699  5543 net.cpp:150] Setting up pool5_2_conv4
I0502 17:22:31.745715  5543 net.cpp:157] Top shape: 1 512 30 30 (460800)
I0502 17:22:31.745718  5543 net.cpp:165] Memory required for data: 1437936648
I0502 17:22:31.745723  5543 layer_factory.hpp:77] Creating layer pool5_2_conv4_relu
I0502 17:22:31.745731  5543 net.cpp:106] Creating Layer pool5_2_conv4_relu
I0502 17:22:31.745736  5543 net.cpp:454] pool5_2_conv4_relu <- pool5_2_conv4
I0502 17:22:31.745754  5543 net.cpp:411] pool5_2_conv4_relu -> pool5_2_conv4_relu
I0502 17:22:31.745887  5543 net.cpp:150] Setting up pool5_2_conv4_relu
I0502 17:22:31.745893  5543 net.cpp:157] Top shape: 1 512 30 30 (460800)
I0502 17:22:31.745894  5543 net.cpp:165] Memory required for data: 1439779848
I0502 17:22:31.745896  5543 layer_factory.hpp:77] Creating layer pool5_2_conv4_relu_pool5_2_conv4_relu_0_split
I0502 17:22:31.745900  5543 net.cpp:106] Creating Layer pool5_2_conv4_relu_pool5_2_conv4_relu_0_split
I0502 17:22:31.745903  5543 net.cpp:454] pool5_2_conv4_relu_pool5_2_conv4_relu_0_split <- pool5_2_conv4_relu
I0502 17:22:31.745906  5543 net.cpp:411] pool5_2_conv4_relu_pool5_2_conv4_relu_0_split -> pool5_2_conv4_relu_pool5_2_conv4_relu_0_split_0
I0502 17:22:31.745911  5543 net.cpp:411] pool5_2_conv4_relu_pool5_2_conv4_relu_0_split -> pool5_2_conv4_relu_pool5_2_conv4_relu_0_split_1
I0502 17:22:31.745926  5543 net.cpp:411] pool5_2_conv4_relu_pool5_2_conv4_relu_0_split -> pool5_2_conv4_relu_pool5_2_conv4_relu_0_split_2
I0502 17:22:31.745932  5543 net.cpp:411] pool5_2_conv4_relu_pool5_2_conv4_relu_0_split -> pool5_2_conv4_relu_pool5_2_conv4_relu_0_split_3
I0502 17:22:31.745983  5543 net.cpp:150] Setting up pool5_2_conv4_relu_pool5_2_conv4_relu_0_split
I0502 17:22:31.745986  5543 net.cpp:157] Top shape: 1 512 30 30 (460800)
I0502 17:22:31.745990  5543 net.cpp:157] Top shape: 1 512 30 30 (460800)
I0502 17:22:31.745990  5543 net.cpp:157] Top shape: 1 512 30 30 (460800)
I0502 17:22:31.745992  5543 net.cpp:157] Top shape: 1 512 30 30 (460800)
I0502 17:22:31.745995  5543 net.cpp:165] Memory required for data: 1447152648
I0502 17:22:31.745995  5543 layer_factory.hpp:77] Creating layer query_conv
I0502 17:22:31.746004  5543 net.cpp:106] Creating Layer query_conv
I0502 17:22:31.746007  5543 net.cpp:454] query_conv <- pool5_2_conv4_relu_pool5_2_conv4_relu_0_split_0
I0502 17:22:31.746021  5543 net.cpp:411] query_conv -> query_conv
I0502 17:22:31.747558  5543 net.cpp:150] Setting up query_conv
I0502 17:22:31.747566  5543 net.cpp:157] Top shape: 1 64 30 30 (57600)
I0502 17:22:31.747568  5543 net.cpp:165] Memory required for data: 1447383048
I0502 17:22:31.747571  5543 layer_factory.hpp:77] Creating layer key_conv
I0502 17:22:31.747578  5543 net.cpp:106] Creating Layer key_conv
I0502 17:22:31.747581  5543 net.cpp:454] key_conv <- pool5_2_conv4_relu_pool5_2_conv4_relu_0_split_1
I0502 17:22:31.747596  5543 net.cpp:411] key_conv -> key_conv
I0502 17:22:31.749112  5543 net.cpp:150] Setting up key_conv
I0502 17:22:31.749119  5543 net.cpp:157] Top shape: 1 64 30 30 (57600)
I0502 17:22:31.749121  5543 net.cpp:165] Memory required for data: 1447613448
I0502 17:22:31.749125  5543 layer_factory.hpp:77] Creating layer value_conv
I0502 17:22:31.749132  5543 net.cpp:106] Creating Layer value_conv
I0502 17:22:31.749135  5543 net.cpp:454] value_conv <- pool5_2_conv4_relu_pool5_2_conv4_relu_0_split_2
I0502 17:22:31.749151  5543 net.cpp:411] value_conv -> value_conv
I0502 17:22:31.755684  5543 net.cpp:150] Setting up value_conv
I0502 17:22:31.755693  5543 net.cpp:157] Top shape: 1 512 30 30 (460800)
I0502 17:22:31.755694  5543 net.cpp:165] Memory required for data: 1449456648
I0502 17:22:31.755698  5543 layer_factory.hpp:77] Creating layer query_conv_reshape
I0502 17:22:31.755703  5543 net.cpp:106] Creating Layer query_conv_reshape
I0502 17:22:31.755707  5543 net.cpp:454] query_conv_reshape <- query_conv
I0502 17:22:31.755709  5543 net.cpp:411] query_conv_reshape -> query_conv_reshape
I0502 17:22:31.755761  5543 net.cpp:150] Setting up query_conv_reshape
I0502 17:22:31.755765  5543 net.cpp:157] Top shape: 1 64 900 1 (57600)
I0502 17:22:31.755766  5543 net.cpp:165] Memory required for data: 1449687048
I0502 17:22:31.755769  5543 layer_factory.hpp:77] Creating layer key_conv_reshape
I0502 17:22:31.755782  5543 net.cpp:106] Creating Layer key_conv_reshape
I0502 17:22:31.755784  5543 net.cpp:454] key_conv_reshape <- key_conv
I0502 17:22:31.755786  5543 net.cpp:411] key_conv_reshape -> key_conv_reshape
I0502 17:22:31.755828  5543 net.cpp:150] Setting up key_conv_reshape
I0502 17:22:31.755832  5543 net.cpp:157] Top shape: 1 64 900 1 (57600)
I0502 17:22:31.755833  5543 net.cpp:165] Memory required for data: 1449917448
I0502 17:22:31.755846  5543 layer_factory.hpp:77] Creating layer value_conv_reshape
I0502 17:22:31.755849  5543 net.cpp:106] Creating Layer value_conv_reshape
I0502 17:22:31.755851  5543 net.cpp:454] value_conv_reshape <- value_conv
I0502 17:22:31.755853  5543 net.cpp:411] value_conv_reshape -> value_conv_reshape
I0502 17:22:31.755892  5543 net.cpp:150] Setting up value_conv_reshape
I0502 17:22:31.755894  5543 net.cpp:157] Top shape: 1 512 900 1 (460800)
I0502 17:22:31.755897  5543 net.cpp:165] Memory required for data: 1451760648
I0502 17:22:31.755898  5543 layer_factory.hpp:77] Creating layer query_conv_reshape_perm
I0502 17:22:31.755915  5543 net.cpp:106] Creating Layer query_conv_reshape_perm
I0502 17:22:31.755929  5543 net.cpp:454] query_conv_reshape_perm <- query_conv_reshape
I0502 17:22:31.755933  5543 net.cpp:411] query_conv_reshape_perm -> query_conv_reshape_perm
I0502 17:22:31.756029  5543 net.cpp:150] Setting up query_conv_reshape_perm
I0502 17:22:31.756032  5543 net.cpp:157] Top shape: 1 1 900 64 (57600)
I0502 17:22:31.756034  5543 net.cpp:165] Memory required for data: 1451991048
I0502 17:22:31.756036  5543 layer_factory.hpp:77] Creating layer key_conv_reshape_perm
I0502 17:22:31.756039  5543 net.cpp:106] Creating Layer key_conv_reshape_perm
I0502 17:22:31.756042  5543 net.cpp:454] key_conv_reshape_perm <- key_conv_reshape
I0502 17:22:31.756043  5543 net.cpp:411] key_conv_reshape_perm -> key_conv_reshape_perm
I0502 17:22:31.756136  5543 net.cpp:150] Setting up key_conv_reshape_perm
I0502 17:22:31.756140  5543 net.cpp:157] Top shape: 1 1 64 900 (57600)
I0502 17:22:31.756141  5543 net.cpp:165] Memory required for data: 1452221448
I0502 17:22:31.756144  5543 layer_factory.hpp:77] Creating layer energy
I0502 17:22:31.756146  5543 net.cpp:106] Creating Layer energy
I0502 17:22:31.756148  5543 net.cpp:454] energy <- query_conv_reshape_perm
I0502 17:22:31.756150  5543 net.cpp:454] energy <- key_conv_reshape_perm
I0502 17:22:31.756155  5543 net.cpp:411] energy -> energy
I0502 17:22:31.756197  5543 net.cpp:150] Setting up energy
I0502 17:22:31.756201  5543 net.cpp:157] Top shape: 1 1 900 900 (810000)
I0502 17:22:31.756202  5543 net.cpp:165] Memory required for data: 1455461448
I0502 17:22:31.756204  5543 layer_factory.hpp:77] Creating layer attention
I0502 17:22:31.756217  5543 net.cpp:106] Creating Layer attention
I0502 17:22:31.756219  5543 net.cpp:454] attention <- energy
I0502 17:22:31.756222  5543 net.cpp:411] attention -> attention
I0502 17:22:31.756403  5543 net.cpp:150] Setting up attention
I0502 17:22:31.756410  5543 net.cpp:157] Top shape: 1 1 900 900 (810000)
I0502 17:22:31.756414  5543 net.cpp:165] Memory required for data: 1458701448
I0502 17:22:31.756418  5543 layer_factory.hpp:77] Creating layer value_conv_reshape_perm
I0502 17:22:31.756424  5543 net.cpp:106] Creating Layer value_conv_reshape_perm
I0502 17:22:31.756428  5543 net.cpp:454] value_conv_reshape_perm <- value_conv_reshape
I0502 17:22:31.756434  5543 net.cpp:411] value_conv_reshape_perm -> value_conv_reshape_perm
I0502 17:22:31.756501  5543 net.cpp:150] Setting up value_conv_reshape_perm
I0502 17:22:31.756505  5543 net.cpp:157] Top shape: 1 1 512 900 (460800)
I0502 17:22:31.756510  5543 net.cpp:165] Memory required for data: 1460544648
I0502 17:22:31.756512  5543 layer_factory.hpp:77] Creating layer attention_perm
I0502 17:22:31.756518  5543 net.cpp:106] Creating Layer attention_perm
I0502 17:22:31.756522  5543 net.cpp:454] attention_perm <- attention
I0502 17:22:31.756537  5543 net.cpp:411] attention_perm -> attention_perm
I0502 17:22:31.756610  5543 net.cpp:150] Setting up attention_perm
I0502 17:22:31.756615  5543 net.cpp:157] Top shape: 1 1 900 900 (810000)
I0502 17:22:31.756618  5543 net.cpp:165] Memory required for data: 1463784648
I0502 17:22:31.756623  5543 layer_factory.hpp:77] Creating layer out
I0502 17:22:31.756637  5543 net.cpp:106] Creating Layer out
I0502 17:22:31.756641  5543 net.cpp:454] out <- value_conv_reshape_perm
I0502 17:22:31.756646  5543 net.cpp:454] out <- attention_perm
I0502 17:22:31.756660  5543 net.cpp:411] out -> out
I0502 17:22:31.756687  5543 net.cpp:150] Setting up out
I0502 17:22:31.756690  5543 net.cpp:157] Top shape: 1 1 512 900 (460800)
I0502 17:22:31.756703  5543 net.cpp:165] Memory required for data: 1465627848
I0502 17:22:31.756705  5543 layer_factory.hpp:77] Creating layer out_reshape
I0502 17:22:31.756709  5543 net.cpp:106] Creating Layer out_reshape
I0502 17:22:31.756721  5543 net.cpp:454] out_reshape <- out
I0502 17:22:31.756726  5543 net.cpp:411] out_reshape -> out_reshape
I0502 17:22:31.756753  5543 net.cpp:150] Setting up out_reshape
I0502 17:22:31.756757  5543 net.cpp:157] Top shape: 1 512 30 30 (460800)
I0502 17:22:31.756760  5543 net.cpp:165] Memory required for data: 1467471048
I0502 17:22:31.756764  5543 layer_factory.hpp:77] Creating layer out_reshape_scale
I0502 17:22:31.756783  5543 net.cpp:106] Creating Layer out_reshape_scale
I0502 17:22:31.756785  5543 net.cpp:454] out_reshape_scale <- out_reshape
I0502 17:22:31.756796  5543 net.cpp:411] out_reshape_scale -> out_reshape_scale
I0502 17:22:31.756858  5543 net.cpp:150] Setting up out_reshape_scale
I0502 17:22:31.756862  5543 net.cpp:157] Top shape: 1 512 30 30 (460800)
I0502 17:22:31.756865  5543 net.cpp:165] Memory required for data: 1469314248
I0502 17:22:31.756867  5543 layer_factory.hpp:77] Creating layer out_x
I0502 17:22:31.756875  5543 net.cpp:106] Creating Layer out_x
I0502 17:22:31.756878  5543 net.cpp:454] out_x <- out_reshape_scale
I0502 17:22:31.756880  5543 net.cpp:454] out_x <- pool5_2_conv4_relu_pool5_2_conv4_relu_0_split_3
I0502 17:22:31.756883  5543 net.cpp:411] out_x -> out_x
I0502 17:22:31.756901  5543 net.cpp:150] Setting up out_x
I0502 17:22:31.756906  5543 net.cpp:157] Top shape: 1 512 30 30 (460800)
I0502 17:22:31.756909  5543 net.cpp:165] Memory required for data: 1471157448
I0502 17:22:31.756913  5543 layer_factory.hpp:77] Creating layer mask_deconv2
I0502 17:22:31.756922  5543 net.cpp:106] Creating Layer mask_deconv2
I0502 17:22:31.756924  5543 net.cpp:454] mask_deconv2 <- out_x
I0502 17:22:31.756930  5543 net.cpp:411] mask_deconv2 -> mask_deconv2
I0502 17:22:31.757758  5543 net.cpp:150] Setting up mask_deconv2
I0502 17:22:31.757763  5543 net.cpp:157] Top shape: 1 256 122 122 (3810304)
I0502 17:22:31.757766  5543 net.cpp:165] Memory required for data: 1486398664
I0502 17:22:31.757769  5543 layer_factory.hpp:77] Creating layer pool5_2_conv5
I0502 17:22:31.757776  5543 net.cpp:106] Creating Layer pool5_2_conv5
I0502 17:22:31.757778  5543 net.cpp:454] pool5_2_conv5 <- mask_deconv2
I0502 17:22:31.757783  5543 net.cpp:411] pool5_2_conv5 -> pool5_2_conv5
I0502 17:22:31.783677  5543 net.cpp:150] Setting up pool5_2_conv5
I0502 17:22:31.783694  5543 net.cpp:157] Top shape: 1 512 122 122 (7620608)
I0502 17:22:31.783696  5543 net.cpp:165] Memory required for data: 1516881096
I0502 17:22:31.783702  5543 layer_factory.hpp:77] Creating layer pool5_2_conv5_relu
I0502 17:22:31.783710  5543 net.cpp:106] Creating Layer pool5_2_conv5_relu
I0502 17:22:31.783715  5543 net.cpp:454] pool5_2_conv5_relu <- pool5_2_conv5
I0502 17:22:31.783722  5543 net.cpp:411] pool5_2_conv5_relu -> pool5_2_conv5_relu
I0502 17:22:31.783855  5543 net.cpp:150] Setting up pool5_2_conv5_relu
I0502 17:22:31.783862  5543 net.cpp:157] Top shape: 1 512 122 122 (7620608)
I0502 17:22:31.783864  5543 net.cpp:165] Memory required for data: 1547363528
I0502 17:22:31.783866  5543 layer_factory.hpp:77] Creating layer pool5_2_conv6
I0502 17:22:31.783874  5543 net.cpp:106] Creating Layer pool5_2_conv6
I0502 17:22:31.783876  5543 net.cpp:454] pool5_2_conv6 <- pool5_2_conv5_relu
I0502 17:22:31.783881  5543 net.cpp:411] pool5_2_conv6 -> pool5_2_conv6
I0502 17:22:31.833400  5543 net.cpp:150] Setting up pool5_2_conv6
I0502 17:22:31.833416  5543 net.cpp:157] Top shape: 1 512 122 122 (7620608)
I0502 17:22:31.833418  5543 net.cpp:165] Memory required for data: 1577845960
I0502 17:22:31.833433  5543 layer_factory.hpp:77] Creating layer pool5_2_conv6_relu
I0502 17:22:31.833443  5543 net.cpp:106] Creating Layer pool5_2_conv6_relu
I0502 17:22:31.833461  5543 net.cpp:454] pool5_2_conv6_relu <- pool5_2_conv6
I0502 17:22:31.833467  5543 net.cpp:411] pool5_2_conv6_relu -> pool5_2_conv6_relu
I0502 17:22:31.833976  5543 net.cpp:150] Setting up pool5_2_conv6_relu
I0502 17:22:31.833983  5543 net.cpp:157] Top shape: 1 512 122 122 (7620608)
I0502 17:22:31.833986  5543 net.cpp:165] Memory required for data: 1608328392
I0502 17:22:31.833987  5543 layer_factory.hpp:77] Creating layer mask_deconv3
I0502 17:22:31.833994  5543 net.cpp:106] Creating Layer mask_deconv3
I0502 17:22:31.833997  5543 net.cpp:454] mask_deconv3 <- pool5_2_conv6_relu
I0502 17:22:31.834002  5543 net.cpp:411] mask_deconv3 -> mask_deconv3
I0502 17:22:31.834373  5543 net.cpp:150] Setting up mask_deconv3
I0502 17:22:31.834378  5543 net.cpp:157] Top shape: 1 256 244 244 (15241216)
I0502 17:22:31.834379  5543 net.cpp:165] Memory required for data: 1669293256
I0502 17:22:31.834383  5543 layer_factory.hpp:77] Creating layer mask_score
I0502 17:22:31.834389  5543 net.cpp:106] Creating Layer mask_score
I0502 17:22:31.834391  5543 net.cpp:454] mask_score <- mask_deconv3
I0502 17:22:31.834398  5543 net.cpp:411] mask_score -> mask_score
I0502 17:22:31.834985  5543 net.cpp:150] Setting up mask_score
I0502 17:22:31.834992  5543 net.cpp:157] Top shape: 1 8 244 244 (476288)
I0502 17:22:31.834995  5543 net.cpp:165] Memory required for data: 1671198408
I0502 17:22:31.834997  5543 layer_factory.hpp:77] Creating layer loss_mask
I0502 17:22:31.835002  5543 net.cpp:106] Creating Layer loss_mask
I0502 17:22:31.835005  5543 net.cpp:454] loss_mask <- mask_score
I0502 17:22:31.835007  5543 net.cpp:454] loss_mask <- mask_targets
I0502 17:22:31.835014  5543 net.cpp:411] loss_mask -> loss_mask
…
