…
average_loss: 100
iter_size: 2
I0625 15:33:17.720734 20108 solver.cpp:81] Creating training net from train_net file: models/pascal_voc/VGG16/faster_rcnn_end2end/train.prototxt
I0625 15:33:17.722143 20108 net.cpp:49] Initializing net from parameters: 
name: "VGG_ILSVRC_16_layers"
state {
  phase: TRAIN
}
layer {
  name: "input-data"
  type: "Python"
  top: "data"
  top: "im_info"
  top: "gt_boxes"
  top: "seg_mask_inds"
  top: "flipped"
  python_param {
    module: "roi_data_layer.layer"
    layer: "RoIDataLayer"
    param_str: "\'num_classes\': 2"
  }
}
layer {
  name: "conv1_1"
  type: "Convolution"
  bottom: "data"
  top: "conv1_1"
  param {
    lr_mult: 0
    decay_mult: 0
  }
  param {
    lr_mult: 0
    decay_mult: 0
  }
  convolution_param {
    num_output: 64
    pad: 1
    kernel_size: 3
  }
}
layer {
  name: "relu1_1"
  type: "ReLU"
  bottom: "conv1_1"
  top: "conv1_1"
}
layer {
  name: "conv1_2"
  type: "Convolution"
  bottom: "conv1_1"
  top: "conv1_2"
  param {
    lr_mult: 0
    decay_mult: 0
  }
  param {
    lr_mult: 0
    decay_mult: 0
  }
  convolution_param {
    num_output: 64
    pad: 1
    kernel_size: 3
  }
}
layer {
  name: "relu1_2"
  type: "ReLU"
  bottom: "conv1_2"
  top: "conv1_2"
}
layer {
  name: "pool1"
  type: "Pooling"
  bottom: "conv1_2"
  top: "pool1"
  pooling_param {
    pool: MAX
    kernel_size: 2
    stride: 2
  }
}
layer {
  name: "conv2_1"
  type: "Convolution"
  bottom: "pool1"
  top: "conv2_1"
  param {
    lr_mult: 0
    decay_mult: 0
  }
  param {
    lr_mult: 0
    decay_mult: 0
  }
  convolution_param {
    num_output: 128
    pad: 1
    kernel_size: 3
  }
}
layer {
  name: "relu2_1"
  type: "ReLU"
  bottom: "conv2_1"
  top: "conv2_1"
}
layer {
  name: "conv2_2"
  type: "Convolution"
  bottom: "conv2_1"
  top: "conv2_2"
  param {
    lr_mult: 0
    decay_mult: 0
  }
  param {
    lr_mult: 0
    decay_mult: 0
  }
  convolution_param {
    num_output: 128
    pad: 1
    kernel_size: 3
  }
}
layer {
  name: "relu2_2"
  type: "ReLU"
  bottom: "conv2_2"
  top: "conv2_2"
}
layer {
  name: "pool2"
  type: "Pooling"
  bottom: "conv2_2"
  top: "pool2"
  pooling_param {
    pool: MAX
    kernel_size: 2
    stride: 2
  }
}
layer {
  name: "conv3_1"
  type: "Convolution"
  bottom: "pool2"
  top: "conv3_1"
  param {
    lr_mult: 1
  }
  param {
    lr_mult: 2
  }
  convolution_param {
    num_output: 256
    pad: 1
    kernel_size: 3
  }
}
layer {
  name: "relu3_1"
  type: "ReLU"
  bottom: "conv3_1"
  top: "conv3_1"
}
layer {
  name: "conv3_2"
  type: "Convolution"
  bottom: "conv3_1"
  top: "conv3_2"
  param {
    lr_mult: 1
  }
  param {
    lr_mult: 2
  }
  convolution_param {
    num_output: 256
    pad: 1
    kernel_size: 3
  }
}
layer {
  name: "relu3_2"
  type: "ReLU"
  bottom: "conv3_2"
  top: "conv3_2"
}
layer {
  name: "conv3_3"
  type: "Convolution"
  bottom: "conv3_2"
  top: "conv3_3"
  param {
    lr_mult: 1
  }
  param {
    lr_mult: 2
  }
  convolution_param {
    num_output: 256
    pad: 1
    kernel_size: 3
  }
}
layer {
  name: "relu3_3"
  type: "ReLU"
  bottom: "conv3_3"
  top: "conv3_3"
}
layer {
  name: "pool3"
  type: "Pooling"
  bottom: "conv3_3"
  top: "pool3"
  pooling_param {
    pool: MAX
    kernel_size: 2
    stride: 2
  }
}
layer {
  name: "conv4_1"
  type: "Convolution"
  bottom: "pool3"
  top: "conv4_1"
  param {
    lr_mult: 1
  }
  param {
    lr_mult: 2
  }
  convolution_param {
    num_output: 512
    pad: 1
    kernel_size: 3
  }
}
layer {
  name: "relu4_1"
  type: "ReLU"
  bottom: "conv4_1"
  top: "conv4_1"
}
layer {
  name: "conv4_2"
  type: "Convolution"
  bottom: "conv4_1"
  top: "conv4_2"
  param {
    lr_mult: 1
  }
  param {
    lr_mult: 2
  }
  convolution_param {
    num_output: 512
    pad: 1
    kernel_size: 3
  }
}
layer {
  name: "relu4_2"
  type: "ReLU"
  bottom: "conv4_2"
  top: "conv4_2"
}
layer {
  name: "conv4_3"
  type: "Convolution"
  bottom: "conv4_2"
  top: "conv4_3"
  param {
    lr_mult: 1
  }
  param {
    lr_mult: 2
  }
  convolution_param {
    num_output: 512
    pad: 1
    kernel_size: 3
  }
}
layer {
  name: "relu4_3"
  type: "ReLU"
  bottom: "conv4_3"
  top: "conv4_3"
}
layer {
  name: "pool4"
  type: "Pooling"
  bottom: "conv4_3"
  top: "pool4"
  pooling_param {
    pool: MAX
    kernel_size: 2
    stride: 2
  }
}
layer {
  name: "conv5_1"
  type: "Convolution"
  bottom: "pool4"
  top: "conv5_1"
  param {
    lr_mult: 1
  }
  param {
    lr_mult: 2
  }
  convolution_param {
    num_output: 512
    pad: 1
    kernel_size: 3
  }
}
layer {
  name: "relu5_1"
  type: "ReLU"
  bottom: "conv5_1"
  top: "conv5_1"
}
layer {
  name: "conv5_2"
  type: "Convolution"
  bottom: "conv5_1"
  top: "conv5_2"
  param {
    lr_mult: 1
  }
  param {
    lr_mult: 2
  }
  convolution_param {
    num_output: 512
    pad: 1
    kernel_size: 3
  }
}
layer {
  name: "relu5_2"
  type: "ReLU"
  bottom: "conv5_2"
  top: "conv5_2"
}
layer {
  name: "conv5_3"
  type: "Convolution"
  bottom: "conv5_2"
  top: "conv5_3"
  param {
    lr_mult: 1
  }
  param {
    lr_mult: 2
  }
  convolution_param {
    num_output: 512
    pad: 1
    kernel_size: 3
  }
}
layer {
  name: "relu5_3"
  type: "ReLU"
  bottom: "conv5_3"
  top: "conv5_3"
}
layer {
  name: "rpn_conv/3x3"
  type: "Convolution"
  bottom: "conv5_3"
  top: "rpn/output"
  param {
    lr_mult: 1
  }
  param {
    lr_mult: 2
  }
  convolution_param {
    num_output: 512
    pad: 1
    kernel_size: 3
    stride: 1
    weight_filler {
      type: "gaussian"
      std: 0.01
    }
    bias_filler {
      type: "constant"
      value: 0
    }
  }
}
layer {
  name: "rpn_relu/3x3"
  type: "ReLU"
  bottom: "rpn/output"
  top: "rpn/output"
}
layer {
  name: "rpn_cls_score"
  type: "Convolution"
  bottom: "rpn/output"
  top: "rpn_cls_score"
  param {
    lr_mult: 1
  }
  param {
    lr_mult: 2
  }
  convolution_param {
    num_output: 30
    pad: 0
    kernel_size: 1
    stride: 1
    weight_filler {
      type: "gaussian"
      std: 0.01
    }
    bias_filler {
      type: "constant"
      value: 0
    }
  }
}
layer {
  name: "rpn_bbox_pred"
  type: "Convolution"
  bottom: "rpn/output"
  top: "rpn_bbox_pred"
  param {
    lr_mult: 1
  }
  param {
    lr_mult: 2
  }
  convolution_param {
    num_output: 60
    pad: 0
    kernel_size: 1
    stride: 1
    weight_filler {
      type: "gaussian"
      std: 0.01
    }
    bias_filler {
      type: "constant"
      value: 0
    }
  }
}
layer {
  name: "rpn_cls_score_reshape"
  type: "Reshape"
  bottom: "rpn_cls_score"
  top: "rpn_cls_score_reshape"
  reshape_param {
    shape {
      dim: 0
      dim: 2
      dim: -1
      dim: 0
    }
  }
}
layer {
  name: "rpn-data"
  type: "Python"
  bottom: "rpn_cls_score"
  bottom: "gt_boxes"
  bottom: "im_info"
  bottom: "data"
  top: "rpn_labels"
  top: "rpn_bbox_targets"
  top: "rpn_bbox_inside_weights"
  top: "rpn_bbox_outside_weights"
  python_param {
    module: "rpn.anchor_target_layer"
    layer: "AnchorTargetLayer"
    param_str: "\'feat_stride\': 16 \n\'scales\': !!python/tuple [2, 4, 8, 16, 32]"
  }
}
layer {
  name: "rpn_loss_cls"
  type: "SoftmaxWithLoss"
  bottom: "rpn_cls_score_reshape"
  bottom: "rpn_labels"
  top: "rpn_cls_loss"
  loss_weight: 1
  propagate_down: true
  propagate_down: false
  loss_param {
    ignore_label: -1
    normalize: true
  }
}
layer {
  name: "rpn_loss_bbox"
  type: "SmoothL1Loss"
  bottom: "rpn_bbox_pred"
  bottom: "rpn_bbox_targets"
  bottom: "rpn_bbox_inside_weights"
  bottom: "rpn_bbox_outside_weights"
  top: "rpn_loss_bbox"
  loss_weight: 1
  smooth_l1_loss_param {
    sigma: 3
  }
}
layer {
  name: "rpn_cls_prob"
  type: "Softmax"
  bottom: "rpn_cls_score_reshape"
  top: "rpn_cls_prob"
}
layer {
  name: "rpn_cls_prob_reshape"
  type: "Reshape"
  bottom: "rpn_cls_prob"
  top: "rpn_cls_prob_reshape"
  reshape_param {
    shape {
      dim: 0
      dim: 30
      dim: -1
      dim: 0
    }
  }
}
layer {
  name: "proposal"
  type: "Python"
  bottom: "rpn_cls_prob_reshape"
  bottom: "rpn_bbox_pred"
  bottom: "im_info"
  top: "rpn_rois"
  python_param {
    module: "rpn.proposal_layer"
    layer: "ProposalLayer"
    param_str: "\'feat_stride\': 16 \n\'scales\': !!python/tuple [2, 4, 8, 16, 32]"
  }
}
layer {
  name: "roi-data"
  type: "Python"
  bottom: "rpn_rois"
  bottom: "gt_boxes"
  bottom: "im_info"
  bottom: "seg_mask_inds"
  bottom: "flipped"
  top: "rois"
  top: "labels"
  top: "bbox_targets"
  top: "bbox_inside_weights"
  top: "bbox_outside_weights"
  top: "mask_targets"
  top: "rois_pos"
  top: "attrArray"
  top: "attrArrayInd"
  top: "attrArrayShift"
  python_param {
    module: "rpn.proposal_target_layer"
    layer: "ProposalTargetLayer"
    param_str: "\'num_classes\': 2"
  }
}
layer {
  name: "roi_pool5"
  type: "ROIAlignment"
  bottom: "conv5_3"
  bottom: "rois"
  top: "pool5"
  roi_alignment_param {
    pooled_h: 7
    pooled_w: 7
    spatial_scale: 0.0625
  }
}
layer {
  name: "fc6"
  type: "InnerProduct"
  bottom: "pool5"
  top: "fc6"
  param {
    lr_mult: 1
  }
  param {
    lr_mult: 2
  }
  inner_product_param {
    num_output: 4096
  }
}
layer {
  name: "relu6"
  type: "ReLU"
  bottom: "fc6"
  top: "fc6"
}
layer {
  name: "fc7"
  type: "InnerProduct"
  bottom: "fc6"
  top: "fc7"
  param {
    lr_mult: 1
  }
  param {
    lr_mult: 2
  }
  inner_product_param {
    num_output: 4096
  }
}
layer {
  name: "relu7"
  type: "ReLU"
  bottom: "fc7"
  top: "fc7"
}
layer {
  name: "attr_score"
  type: "InnerProduct"
  bottom: "fc7"
  top: "attr_score"
  param {
    lr_mult: 1
  }
  param {
    lr_mult: 2
  }
  inner_product_param {
    num_output: 7
    weight_filler {
      type: "gaussian"
      std: 0.001
    }
    bias_filler {
      type: "constant"
      value: 0
    }
  }
}
layer {
  name: "attr_score_pos"
  type: "Eltwise"
  bottom: "attr_score"
  bottom: "attrArrayInd"
  top: "attr_score_pos"
  eltwise_param {
    operation: PROD
  }
}
layer {
  name: "attr_score_pos_shift"
  type: "Eltwise"
  bottom: "attr_score_pos"
  bottom: "attrArrayShift"
  top: "attr_score_pos_shift"
  eltwise_param {
    operation: SUM
  }
}
layer {
  name: "cls_score"
  type: "InnerProduct"
  bottom: "fc7"
  top: "cls_score"
  param {
    lr_mult: 1
  }
  param {
    lr_mult: 2
  }
  inner_product_param {
    num_output: 2
    weight_filler {
      type: "gaussian"
      std: 0.01
    }
    bias_filler {
      type: "constant"
      value: 0
    }
  }
}
layer {
  name: "bbox_pred"
  type: "InnerProduct"
  bottom: "fc7"
  top: "bbox_pred"
  param {
    lr_mult: 1
  }
  param {
    lr_mult: 2
  }
  inner_product_param {
    num_output: 8
    weight_filler {
      type: "gaussian"
      std: 0.001
    }
    bias_filler {
      type: "constant"
      value: 0
    }
  }
}
layer {
  name: "loss_attribute"
  type: "SigmoidCrossEntropyLoss"
  bottom: "attr_score_pos_shift"
  bottom: "attrArray"
  top: "loss_attribute"
  loss_weight: 1
  propagate_down: true
  propagate_down: false
}
layer {
  name: "loss_cls"
  type: "SoftmaxWithLoss"
  bottom: "cls_score"
  bottom: "labels"
  top: "loss_cls"
  loss_weight: 3
  propagate_down: true
  propagate_down: false
}
layer {
  name: "loss_bbox"
  type: "SmoothL1Loss"
  bottom: "bbox_pred"
  bottom: "bbox_targets"
  bottom: "bbox_inside_weights"
  bottom: "bbox_outside_weights"
  top: "loss_bbox"
  loss_weight: 2
}
layer {
  name: "roi_pool5_2"
  type: "ROIAlignment"
  bottom: "conv5_3"
  bottom: "rois_pos"
  top: "pool5_2"
  roi_alignment_param {
    pooled_h: 7
    pooled_w: 7
    spatial_scale: 0.0625
  }
}
layer {
  name: "pool5_2_conv"
  type: "Convolution"
  bottom: "pool5_2"
  top: "pool5_2_conv"
  param {
    lr_mult: 1
    decay_mult: 1
  }
  param {
    lr_mult: 2
    decay_mult: 0
  }
  convolution_param {
    num_output: 512
    pad: 0
    kernel_size: 1
    weight_filler {
      type: "gaussian"
      std: 0.01
    }
    bias_filler {
      type: "constant"
      value: 0
    }
  }
}
layer {
  name: "pool5_2_conv_relu"
  type: "ReLU"
  bottom: "pool5_2_conv"
  top: "pool5_2_conv_relu"
}
layer {
  name: "pool5_2_conv2"
  type: "Convolution"
  bottom: "pool5_2_conv_relu"
  top: "pool5_2_conv2"
  param {
    lr_mult: 1
    decay_mult: 1
  }
  param {
    lr_mult: 2
    decay_mult: 0
  }
  convolution_param {
    num_output: 512
    pad: 1
    kernel_size: 3
    stride: 1
    weight_filler {
      type: "gaussian"
      std: 0.01
    }
    bias_filler {
      type: "constant"
      value: 0
    }
  }
}
layer {
  name: "pool5_2_conv2_relu"
  type: "ReLU"
  bottom: "pool5_2_conv2"
  top: "pool5_2_conv2_relu"
}
layer {
  name: "mask_deconv1"
  type: "Deconvolution"
  bottom: "pool5_2_conv2_relu"
  top: "mask_deconv1"
  param {
    lr_mult: 1
    decay_mult: 1
  }
  param {
    lr_mult: 2
    decay_mult: 0
  }
  convolution_param {
    num_output: 256
    pad: 1
    kernel_size: 8
    group: 256
    stride: 4
    weight_filler {
      type: "bilinear"
    }
  }
}
layer {
  name: "pool5_2_conv3"
  type: "Convolution"
  bottom: "mask_deconv1"
  top: "pool5_2_conv3"
  param {
    lr_mult: 1
    decay_mult: 1
  }
  param {
    lr_mult: 2
    decay_mult: 0
  }
  convolution_param {
    num_output: 512
    pad: 1
    kernel_size: 3
    stride: 1
    weight_filler {
      type: "gaussian"
      std: 0.01
    }
    bias_filler {
      type: "constant"
      value: 0
    }
  }
}
layer {
  name: "pool5_2_conv3_relu"
  type: "ReLU"
  bottom: "pool5_2_conv3"
  top: "pool5_2_conv3_relu"
}
layer {
  name: "pool5_2_conv4"
  type: "Convolution"
  bottom: "pool5_2_conv3_relu"
  top: "pool5_2_conv4"
  param {
    lr_mult: 1
    decay_mult: 1
  }
  param {
    lr_mult: 2
    decay_mult: 0
  }
  convolution_param {
    num_output: 512
    pad: 1
    kernel_size: 3
    stride: 1
    weight_filler {
      type: "gaussian"
      std: 0.01
    }
    bias_filler {
      type: "constant"
      value: 0
    }
  }
}
layer {
  name: "pool5_2_conv4_relu"
  type: "ReLU"
  bottom: "pool5_2_conv4"
  top: "pool5_2_conv4_relu"
}
layer {
  name: "query_conv"
  type: "Convolution"
  bottom: "pool5_2_conv4_relu"
  top: "query_conv"
  param {
    lr_mult: 1
    decay_mult: 1
  }
  param {
    lr_mult: 2
    decay_mult: 0
  }
  convolution_param {
    num_output: 64
    pad: 0
    kernel_size: 1
    stride: 1
    weight_filler {
      type: "gaussian"
      std: 0.01
    }
    bias_filler {
      type: "constant"
      value: 0
    }
  }
}
layer {
  name: "key_conv"
  type: "Convolution"
  bottom: "pool5_2_conv4_relu"
  top: "key_conv"
  param {
    lr_mult: 1
    decay_mult: 1
  }
  param {
    lr_mult: 2
    decay_mult: 0
  }
  convolution_param {
    num_output: 64
    pad: 0
    kernel_size: 1
    stride: 1
    weight_filler {
      type: "gaussian"
      std: 0.01
    }
    bias_filler {
      type: "constant"
      value: 0
    }
  }
}
layer {
  name: "value_conv"
  type: "Convolution"
  bottom: "pool5_2_conv4_relu"
  top: "value_conv"
  param {
    lr_mult: 1
    decay_mult: 1
  }
  param {
    lr_mult: 2
    decay_mult: 0
  }
  convolution_param {
    num_output: 512
    pad: 0
    kernel_size: 1
    stride: 1
    weight_filler {
      type: "gaussian"
      std: 0.01
    }
    bias_filler {
      type: "constant"
      value: 0
    }
  }
}
layer {
  name: "query_conv_reshape"
  type: "Reshape"
  bottom: "query_conv"
  top: "query_conv_reshape"
  reshape_param {
    shape {
      dim: -1
      dim: 64
      dim: 900
      dim: 1
    }
  }
}
layer {
  name: "key_conv_reshape"
  type: "Reshape"
  bottom: "key_conv"
  top: "key_conv_reshape"
  reshape_param {
    shape {
      dim: -1
      dim: 64
      dim: 900
      dim: 1
    }
  }
}
layer {
  name: "value_conv_reshape"
  type: "Reshape"
  bottom: "value_conv"
  top: "value_conv_reshape"
  reshape_param {
    shape {
      dim: -1
      dim: 512
      dim: 900
      dim: 1
    }
  }
}
layer {
  name: "query_conv_reshape_perm"
  type: "Permute"
  bottom: "query_conv_reshape"
  top: "query_conv_reshape_perm"
  permute_param {
    order: 0
    order: 3
    order: 2
    order: 1
  }
}
layer {
  name: "key_conv_reshape_perm"
  type: "Permute"
  bottom: "key_conv_reshape"
  top: "key_conv_reshape_perm"
  permute_param {
    order: 0
    order: 3
    order: 1
    order: 2
  }
}
layer {
  name: "energy"
  type: "MatrixMultiplication"
  bottom: "query_conv_reshape_perm"
  bottom: "key_conv_reshape_perm"
  top: "energy"
}
layer {
  name: "attention"
  type: "Softmax"
  bottom: "energy"
  top: "attention"
  softmax_param {
    axis: 3
  }
}
layer {
  name: "value_conv_reshape_perm"
  type: "Permute"
  bottom: "value_conv_reshape"
  top: "value_conv_reshape_perm"
  permute_param {
    order: 0
    order: 3
    order: 1
    order: 2
  }
}
layer {
  name: "attention_perm"
  type: "Permute"
  bottom: "attention"
  top: "attention_perm"
  permute_param {
    order: 0
    order: 1
    order: 2
    order: 3
  }
}
layer {
  name: "out"
  type: "MatrixMultiplication"
  bottom: "value_conv_reshape_perm"
  bottom: "attention_perm"
  top: "out"
}
layer {
  name: "out_reshape"
  type: "Reshape"
  bottom: "out"
  top: "out_reshape"
  reshape_param {
    shape {
      dim: -1
      dim: 512
      dim: 30
      dim: 30
    }
  }
}
layer {
  name: "out_reshape_scale"
  type: "Scale"
  bottom: "out_reshape"
  top: "out_reshape_scale"
  param {
    name: "scale_conv1_1"
    lr_mult: 1
  }
  scale_param {
    bias_term: false
  }
}
layer {
  name: "out_x"
  type: "Eltwise"
  bottom: "out_reshape_scale"
  bottom: "pool5_2_conv4_relu"
  top: "out_x"
  eltwise_param {
    operation: SUM
  }
}
layer {
  name: "mask_deconv2"
  type: "Deconvolution"
  bottom: "out_x"
  top: "mask_deconv2"
  param {
    lr_mult: 1
    decay_mult: 1
  }
  param {
    lr_mult: 2
    decay_mult: 0
  }
  convolution_param {
    num_output: 256
    pad: 1
    kernel_size: 8
    group: 256
    stride: 4
    weight_filler {
      type: "bilinear"
    }
  }
}
layer {
  name: "pool5_2_conv5"
  type: "Convolution"
  bottom: "mask_deconv2"
  top: "pool5_2_conv5"
  param {
    lr_mult: 1
    decay_mult: 1
  }
  param {
    lr_mult: 2
    decay_mult: 0
  }
  convolution_param {
    num_output: 512
    pad: 1
    kernel_size: 3
    stride: 1
    weight_filler {
      type: "gaussian"
      std: 0.01
    }
    bias_filler {
      type: "constant"
      value: 0
    }
  }
}
layer {
  name: "pool5_2_conv5_relu"
  type: "ReLU"
  bottom: "pool5_2_conv5"
  top: "pool5_2_conv5_relu"
}
layer {
  name: "pool5_2_conv6"
  type: "Convolution"
  bottom: "pool5_2_conv5_relu"
  top: "pool5_2_conv6"
  param {
    lr_mult: 1
    decay_mult: 1
  }
  param {
    lr_mult: 2
    decay_mult: 0
  }
  convolution_param {
    num_output: 512
    pad: 1
    kernel_size: 3
    stride: 1
    weight_filler {
      type: "gaussian"
      std: 0.01
    }
    bias_filler {
      type: "constant"
      value: 0
    }
  }
}
layer {
  name: "pool5_2_conv6_relu"
  type: "ReLU"
  bottom: "pool5_2_conv6"
  top: "pool5_2_conv6_relu"
}
layer {
  name: "mask_deconv3"
  type: "Deconvolution"
  bottom: "pool5_2_conv6_relu"
  top: "mask_deconv3"
  param {
    lr_mult: 1
    decay_mult: 1
  }
  param {
    lr_mult: 2
    decay_mult: 0
  }
  convolution_param {
    num_output: 256
    pad: 1
    kernel_size: 4
    group: 256
    stride: 2
    weight_filler {
      type: "bilinear"
    }
  }
}
layer {
  name: "mask_score"
  type: "Convolution"
  bottom: "mask_deconv3"
  top: "mask_score"
  param {
    lr_mult: 1
    decay_mult: 1
  }
  param {
    lr_mult: 2
    decay_mult: 0
  }
  convolution_param {
    num_output: 8
    pad: 0
    kernel_size: 1
    weight_filler {
      type: "gaussian"
      std: 0.01
    }
    bias_filler {
      type: "constant"
      value: 0
    }
  }
}
layer {
  name: "prob"
  type: "Softmax"
  bottom: "mask_score"
  top: "mask_score_softmax"
  softmax_param {
    axis: 1
  }
}
layer {
  name: "log"
  type: "Log"
  bottom: "mask_score_softmax"
  top: "log"
}
layer {
  name: "mult1"
  type: "Eltwise"
  bottom: "log"
  bottom: "mask_targets"
  top: "mult1"
  eltwise_param {
    operation: PROD
  }
}
layer {
  name: "cross_entropy"
  type: "Power"
  bottom: "mult1"
  top: "cross_entropy"
  power_param {
    power: 1
    scale: -1
    shift: 0
  }
}
layer {
  name: "ce_sum"
  type: "Convolution"
  bottom: "cross_entropy"
  top: "cross_entropy_sum"
  param {
    lr_mult: 0
    decay_mult: 0
  }
  convolution_param {
    num_output: 1
    bias_term: false
    kernel_size: 1
    weight_filler {
      type: "constant"
      value: 1
    }
  }
}
layer {
  name: "ce_mean"
  type: "Reduction"
  bottom: "cross_entropy_sum"
  top: "cross_entropy_mean"
  loss_weight: 1
  reduction_param {
    operation: MEAN
    axis: 0
  }
}
I0625 15:33:17.722476 20108 layer_factory.hpp:77] Creating layer input-data
I0625 15:33:17.770459 20108 net.cpp:106] Creating Layer input-data
I0625 15:33:17.770478 20108 net.cpp:411] input-data -> data
I0625 15:33:17.770503 20108 net.cpp:411] input-data -> im_info
I0625 15:33:17.770511 20108 net.cpp:411] input-data -> gt_boxes
I0625 15:33:17.770524 20108 net.cpp:411] input-data -> seg_mask_inds
I0625 15:33:17.770530 20108 net.cpp:411] input-data -> flipped
RoiDataLayer: name_to_top: {'gt_boxes': 2, 'data': 0, 'seg_mask_inds': 3, 'im_info': 1, 'flipped': 4}
I0625 15:33:17.788156 20108 net.cpp:150] Setting up input-data
I0625 15:33:17.788190 20108 net.cpp:157] Top shape: 1 3 600 1000 (1800000)
I0625 15:33:17.788194 20108 net.cpp:157] Top shape: 1 3 (3)
I0625 15:33:17.788208 20108 net.cpp:157] Top shape: 1 4 (4)
I0625 15:33:17.788210 20108 net.cpp:157] Top shape: 1 2 (2)
I0625 15:33:17.788213 20108 net.cpp:157] Top shape: 1 1 (1)
I0625 15:33:17.788214 20108 net.cpp:165] Memory required for data: 7200040
I0625 15:33:17.788219 20108 layer_factory.hpp:77] Creating layer data_input-data_0_split
I0625 15:33:17.788231 20108 net.cpp:106] Creating Layer data_input-data_0_split
I0625 15:33:17.788249 20108 net.cpp:454] data_input-data_0_split <- data
I0625 15:33:17.788252 20108 net.cpp:411] data_input-data_0_split -> data_input-data_0_split_0
I0625 15:33:17.788269 20108 net.cpp:411] data_input-data_0_split -> data_input-data_0_split_1
I0625 15:33:17.788312 20108 net.cpp:150] Setting up data_input-data_0_split
I0625 15:33:17.788326 20108 net.cpp:157] Top shape: 1 3 600 1000 (1800000)
I0625 15:33:17.788328 20108 net.cpp:157] Top shape: 1 3 600 1000 (1800000)
I0625 15:33:17.788331 20108 net.cpp:165] Memory required for data: 21600040
I0625 15:33:17.788343 20108 layer_factory.hpp:77] Creating layer im_info_input-data_1_split
I0625 15:33:17.788348 20108 net.cpp:106] Creating Layer im_info_input-data_1_split
I0625 15:33:17.788350 20108 net.cpp:454] im_info_input-data_1_split <- im_info
I0625 15:33:17.788368 20108 net.cpp:411] im_info_input-data_1_split -> im_info_input-data_1_split_0
I0625 15:33:17.788372 20108 net.cpp:411] im_info_input-data_1_split -> im_info_input-data_1_split_1
I0625 15:33:17.788385 20108 net.cpp:411] im_info_input-data_1_split -> im_info_input-data_1_split_2
I0625 15:33:17.788430 20108 net.cpp:150] Setting up im_info_input-data_1_split
I0625 15:33:17.788434 20108 net.cpp:157] Top shape: 1 3 (3)
I0625 15:33:17.788436 20108 net.cpp:157] Top shape: 1 3 (3)
I0625 15:33:17.788450 20108 net.cpp:157] Top shape: 1 3 (3)
I0625 15:33:17.788452 20108 net.cpp:165] Memory required for data: 21600076
I0625 15:33:17.788455 20108 layer_factory.hpp:77] Creating layer gt_boxes_input-data_2_split
I0625 15:33:17.788456 20108 net.cpp:106] Creating Layer gt_boxes_input-data_2_split
I0625 15:33:17.788458 20108 net.cpp:454] gt_boxes_input-data_2_split <- gt_boxes
I0625 15:33:17.788461 20108 net.cpp:411] gt_boxes_input-data_2_split -> gt_boxes_input-data_2_split_0
I0625 15:33:17.788463 20108 net.cpp:411] gt_boxes_input-data_2_split -> gt_boxes_input-data_2_split_1
I0625 15:33:17.788481 20108 net.cpp:150] Setting up gt_boxes_input-data_2_split
I0625 15:33:17.788486 20108 net.cpp:157] Top shape: 1 4 (4)
I0625 15:33:17.788496 20108 net.cpp:157] Top shape: 1 4 (4)
I0625 15:33:17.788499 20108 net.cpp:165] Memory required for data: 21600108
I0625 15:33:17.788501 20108 layer_factory.hpp:77] Creating layer conv1_1
I0625 15:33:17.788519 20108 net.cpp:106] Creating Layer conv1_1
I0625 15:33:17.788522 20108 net.cpp:454] conv1_1 <- data_input-data_0_split_0
I0625 15:33:17.788527 20108 net.cpp:411] conv1_1 -> conv1_1
I0625 15:33:18.107343 20108 net.cpp:150] Setting up conv1_1
I0625 15:33:18.107362 20108 net.cpp:157] Top shape: 1 64 600 1000 (38400000)
I0625 15:33:18.107364 20108 net.cpp:165] Memory required for data: 175200108
I0625 15:33:18.107376 20108 layer_factory.hpp:77] Creating layer relu1_1
I0625 15:33:18.107394 20108 net.cpp:106] Creating Layer relu1_1
I0625 15:33:18.107398 20108 net.cpp:454] relu1_1 <- conv1_1
I0625 15:33:18.107401 20108 net.cpp:397] relu1_1 -> conv1_1 (in-place)
I0625 15:33:18.107571 20108 net.cpp:150] Setting up relu1_1
I0625 15:33:18.107579 20108 net.cpp:157] Top shape: 1 64 600 1000 (38400000)
I0625 15:33:18.107583 20108 net.cpp:165] Memory required for data: 328800108
I0625 15:33:18.107585 20108 layer_factory.hpp:77] Creating layer conv1_2
I0625 15:33:18.107596 20108 net.cpp:106] Creating Layer conv1_2
I0625 15:33:18.107610 20108 net.cpp:454] conv1_2 <- conv1_1
I0625 15:33:18.107635 20108 net.cpp:411] conv1_2 -> conv1_2
I0625 15:33:18.109781 20108 net.cpp:150] Setting up conv1_2
I0625 15:33:18.109802 20108 net.cpp:157] Top shape: 1 64 600 1000 (38400000)
I0625 15:33:18.109803 20108 net.cpp:165] Memory required for data: 482400108
I0625 15:33:18.109810 20108 layer_factory.hpp:77] Creating layer relu1_2
I0625 15:33:18.109827 20108 net.cpp:106] Creating Layer relu1_2
I0625 15:33:18.109832 20108 net.cpp:454] relu1_2 <- conv1_2
I0625 15:33:18.109834 20108 net.cpp:397] relu1_2 -> conv1_2 (in-place)
I0625 15:33:18.109973 20108 net.cpp:150] Setting up relu1_2
I0625 15:33:18.109994 20108 net.cpp:157] Top shape: 1 64 600 1000 (38400000)
I0625 15:33:18.109997 20108 net.cpp:165] Memory required for data: 636000108
I0625 15:33:18.110000 20108 layer_factory.hpp:77] Creating layer pool1
I0625 15:33:18.110019 20108 net.cpp:106] Creating Layer pool1
I0625 15:33:18.110023 20108 net.cpp:454] pool1 <- conv1_2
I0625 15:33:18.110038 20108 net.cpp:411] pool1 -> pool1
I0625 15:33:18.110693 20108 net.cpp:150] Setting up pool1
I0625 15:33:18.110702 20108 net.cpp:157] Top shape: 1 64 300 500 (9600000)
I0625 15:33:18.110703 20108 net.cpp:165] Memory required for data: 674400108
I0625 15:33:18.110704 20108 layer_factory.hpp:77] Creating layer conv2_1
I0625 15:33:18.110711 20108 net.cpp:106] Creating Layer conv2_1
I0625 15:33:18.110714 20108 net.cpp:454] conv2_1 <- pool1
I0625 15:33:18.110718 20108 net.cpp:411] conv2_1 -> conv2_1
I0625 15:33:18.112581 20108 net.cpp:150] Setting up conv2_1
I0625 15:33:18.112591 20108 net.cpp:157] Top shape: 1 128 300 500 (19200000)
I0625 15:33:18.112592 20108 net.cpp:165] Memory required for data: 751200108
I0625 15:33:18.112598 20108 layer_factory.hpp:77] Creating layer relu2_1
I0625 15:33:18.112603 20108 net.cpp:106] Creating Layer relu2_1
I0625 15:33:18.112605 20108 net.cpp:454] relu2_1 <- conv2_1
I0625 15:33:18.112608 20108 net.cpp:397] relu2_1 -> conv2_1 (in-place)
I0625 15:33:18.113059 20108 net.cpp:150] Setting up relu2_1
I0625 15:33:18.113065 20108 net.cpp:157] Top shape: 1 128 300 500 (19200000)
I0625 15:33:18.113068 20108 net.cpp:165] Memory required for data: 828000108
I0625 15:33:18.113070 20108 layer_factory.hpp:77] Creating layer conv2_2
I0625 15:33:18.113075 20108 net.cpp:106] Creating Layer conv2_2
I0625 15:33:18.113077 20108 net.cpp:454] conv2_2 <- conv2_1
I0625 15:33:18.113081 20108 net.cpp:411] conv2_2 -> conv2_2
I0625 15:33:18.115010 20108 net.cpp:150] Setting up conv2_2
I0625 15:33:18.115029 20108 net.cpp:157] Top shape: 1 128 300 500 (19200000)
I0625 15:33:18.115032 20108 net.cpp:165] Memory required for data: 904800108
I0625 15:33:18.115036 20108 layer_factory.hpp:77] Creating layer relu2_2
I0625 15:33:18.115042 20108 net.cpp:106] Creating Layer relu2_2
I0625 15:33:18.115044 20108 net.cpp:454] relu2_2 <- conv2_2
I0625 15:33:18.115058 20108 net.cpp:397] relu2_2 -> conv2_2 (in-place)
I0625 15:33:18.115231 20108 net.cpp:150] Setting up relu2_2
I0625 15:33:18.115238 20108 net.cpp:157] Top shape: 1 128 300 500 (19200000)
I0625 15:33:18.115250 20108 net.cpp:165] Memory required for data: 981600108
I0625 15:33:18.115252 20108 layer_factory.hpp:77] Creating layer pool2
I0625 15:33:18.115257 20108 net.cpp:106] Creating Layer pool2
I0625 15:33:18.115259 20108 net.cpp:454] pool2 <- conv2_2
I0625 15:33:18.115272 20108 net.cpp:411] pool2 -> pool2
I0625 15:33:18.115329 20108 net.cpp:150] Setting up pool2
I0625 15:33:18.115334 20108 net.cpp:157] Top shape: 1 128 150 250 (4800000)
I0625 15:33:18.115335 20108 net.cpp:165] Memory required for data: 1000800108
I0625 15:33:18.115347 20108 layer_factory.hpp:77] Creating layer conv3_1
I0625 15:33:18.115352 20108 net.cpp:106] Creating Layer conv3_1
I0625 15:33:18.115355 20108 net.cpp:454] conv3_1 <- pool2
I0625 15:33:18.115368 20108 net.cpp:411] conv3_1 -> conv3_1
I0625 15:33:18.117264 20108 net.cpp:150] Setting up conv3_1
I0625 15:33:18.117272 20108 net.cpp:157] Top shape: 1 256 150 250 (9600000)
I0625 15:33:18.117275 20108 net.cpp:165] Memory required for data: 1039200108
I0625 15:33:18.117281 20108 layer_factory.hpp:77] Creating layer relu3_1
I0625 15:33:18.117286 20108 net.cpp:106] Creating Layer relu3_1
I0625 15:33:18.117288 20108 net.cpp:454] relu3_1 <- conv3_1
I0625 15:33:18.117301 20108 net.cpp:397] relu3_1 -> conv3_1 (in-place)
I0625 15:33:18.117434 20108 net.cpp:150] Setting up relu3_1
I0625 15:33:18.117439 20108 net.cpp:157] Top shape: 1 256 150 250 (9600000)
I0625 15:33:18.117441 20108 net.cpp:165] Memory required for data: 1077600108
I0625 15:33:18.117444 20108 layer_factory.hpp:77] Creating layer conv3_2
I0625 15:33:18.117450 20108 net.cpp:106] Creating Layer conv3_2
I0625 15:33:18.117451 20108 net.cpp:454] conv3_2 <- conv3_1
I0625 15:33:18.117455 20108 net.cpp:411] conv3_2 -> conv3_2
I0625 15:33:18.119503 20108 net.cpp:150] Setting up conv3_2
I0625 15:33:18.119513 20108 net.cpp:157] Top shape: 1 256 150 250 (9600000)
I0625 15:33:18.119515 20108 net.cpp:165] Memory required for data: 1116000108
I0625 15:33:18.119519 20108 layer_factory.hpp:77] Creating layer relu3_2
I0625 15:33:18.119524 20108 net.cpp:106] Creating Layer relu3_2
I0625 15:33:18.119525 20108 net.cpp:454] relu3_2 <- conv3_2
I0625 15:33:18.119539 20108 net.cpp:397] relu3_2 -> conv3_2 (in-place)
I0625 15:33:18.119686 20108 net.cpp:150] Setting up relu3_2
I0625 15:33:18.119693 20108 net.cpp:157] Top shape: 1 256 150 250 (9600000)
I0625 15:33:18.119694 20108 net.cpp:165] Memory required for data: 1154400108
I0625 15:33:18.119696 20108 layer_factory.hpp:77] Creating layer conv3_3
I0625 15:33:18.119701 20108 net.cpp:106] Creating Layer conv3_3
I0625 15:33:18.119704 20108 net.cpp:454] conv3_3 <- conv3_2
I0625 15:33:18.119717 20108 net.cpp:411] conv3_3 -> conv3_3
I0625 15:33:18.121780 20108 net.cpp:150] Setting up conv3_3
I0625 15:33:18.121801 20108 net.cpp:157] Top shape: 1 256 150 250 (9600000)
I0625 15:33:18.121804 20108 net.cpp:165] Memory required for data: 1192800108
I0625 15:33:18.121809 20108 layer_factory.hpp:77] Creating layer relu3_3
I0625 15:33:18.121814 20108 net.cpp:106] Creating Layer relu3_3
I0625 15:33:18.121815 20108 net.cpp:454] relu3_3 <- conv3_3
I0625 15:33:18.121819 20108 net.cpp:397] relu3_3 -> conv3_3 (in-place)
I0625 15:33:18.121940 20108 net.cpp:150] Setting up relu3_3
I0625 15:33:18.121946 20108 net.cpp:157] Top shape: 1 256 150 250 (9600000)
I0625 15:33:18.121959 20108 net.cpp:165] Memory required for data: 1231200108
I0625 15:33:18.121961 20108 layer_factory.hpp:77] Creating layer pool3
I0625 15:33:18.121966 20108 net.cpp:106] Creating Layer pool3
I0625 15:33:18.121978 20108 net.cpp:454] pool3 <- conv3_3
I0625 15:33:18.121981 20108 net.cpp:411] pool3 -> pool3
I0625 15:33:18.122028 20108 net.cpp:150] Setting up pool3
I0625 15:33:18.122032 20108 net.cpp:157] Top shape: 1 256 75 125 (2400000)
I0625 15:33:18.122035 20108 net.cpp:165] Memory required for data: 1240800108
I0625 15:33:18.122045 20108 layer_factory.hpp:77] Creating layer conv4_1
I0625 15:33:18.122051 20108 net.cpp:106] Creating Layer conv4_1
I0625 15:33:18.122053 20108 net.cpp:454] conv4_1 <- pool3
I0625 15:33:18.122057 20108 net.cpp:411] conv4_1 -> conv4_1
I0625 15:33:18.125984 20108 net.cpp:150] Setting up conv4_1
I0625 15:33:18.126003 20108 net.cpp:157] Top shape: 1 512 75 125 (4800000)
I0625 15:33:18.126005 20108 net.cpp:165] Memory required for data: 1260000108
I0625 15:33:18.126013 20108 layer_factory.hpp:77] Creating layer relu4_1
I0625 15:33:18.126020 20108 net.cpp:106] Creating Layer relu4_1
I0625 15:33:18.126024 20108 net.cpp:454] relu4_1 <- conv4_1
I0625 15:33:18.126039 20108 net.cpp:397] relu4_1 -> conv4_1 (in-place)
I0625 15:33:18.126166 20108 net.cpp:150] Setting up relu4_1
I0625 15:33:18.126173 20108 net.cpp:157] Top shape: 1 512 75 125 (4800000)
I0625 15:33:18.126173 20108 net.cpp:165] Memory required for data: 1279200108
I0625 15:33:18.126175 20108 layer_factory.hpp:77] Creating layer conv4_2
I0625 15:33:18.126194 20108 net.cpp:106] Creating Layer conv4_2
I0625 15:33:18.126197 20108 net.cpp:454] conv4_2 <- conv4_1
I0625 15:33:18.126200 20108 net.cpp:411] conv4_2 -> conv4_2
I0625 15:33:18.131070 20108 net.cpp:150] Setting up conv4_2
I0625 15:33:18.131098 20108 net.cpp:157] Top shape: 1 512 75 125 (4800000)
I0625 15:33:18.131100 20108 net.cpp:165] Memory required for data: 1298400108
I0625 15:33:18.131112 20108 layer_factory.hpp:77] Creating layer relu4_2
I0625 15:33:18.131130 20108 net.cpp:106] Creating Layer relu4_2
I0625 15:33:18.131134 20108 net.cpp:454] relu4_2 <- conv4_2
I0625 15:33:18.131139 20108 net.cpp:397] relu4_2 -> conv4_2 (in-place)
I0625 15:33:18.131691 20108 net.cpp:150] Setting up relu4_2
I0625 15:33:18.131698 20108 net.cpp:157] Top shape: 1 512 75 125 (4800000)
I0625 15:33:18.131711 20108 net.cpp:165] Memory required for data: 1317600108
I0625 15:33:18.131713 20108 layer_factory.hpp:77] Creating layer conv4_3
I0625 15:33:18.131721 20108 net.cpp:106] Creating Layer conv4_3
I0625 15:33:18.131723 20108 net.cpp:454] conv4_3 <- conv4_2
I0625 15:33:18.131727 20108 net.cpp:411] conv4_3 -> conv4_3
I0625 15:33:18.136029 20108 net.cpp:150] Setting up conv4_3
I0625 15:33:18.136060 20108 net.cpp:157] Top shape: 1 512 75 125 (4800000)
I0625 15:33:18.136065 20108 net.cpp:165] Memory required for data: 1336800108
I0625 15:33:18.136085 20108 layer_factory.hpp:77] Creating layer relu4_3
I0625 15:33:18.136102 20108 net.cpp:106] Creating Layer relu4_3
I0625 15:33:18.136112 20108 net.cpp:454] relu4_3 <- conv4_3
I0625 15:33:18.136121 20108 net.cpp:397] relu4_3 -> conv4_3 (in-place)
I0625 15:33:18.136270 20108 net.cpp:150] Setting up relu4_3
I0625 15:33:18.136287 20108 net.cpp:157] Top shape: 1 512 75 125 (4800000)
I0625 15:33:18.136289 20108 net.cpp:165] Memory required for data: 1356000108
I0625 15:33:18.136292 20108 layer_factory.hpp:77] Creating layer pool4
I0625 15:33:18.136297 20108 net.cpp:106] Creating Layer pool4
I0625 15:33:18.136299 20108 net.cpp:454] pool4 <- conv4_3
I0625 15:33:18.136303 20108 net.cpp:411] pool4 -> pool4
I0625 15:33:18.136356 20108 net.cpp:150] Setting up pool4
I0625 15:33:18.136360 20108 net.cpp:157] Top shape: 1 512 38 63 (1225728)
I0625 15:33:18.136363 20108 net.cpp:165] Memory required for data: 1360903020
I0625 15:33:18.136374 20108 layer_factory.hpp:77] Creating layer conv5_1
I0625 15:33:18.136381 20108 net.cpp:106] Creating Layer conv5_1
I0625 15:33:18.136392 20108 net.cpp:454] conv5_1 <- pool4
I0625 15:33:18.136396 20108 net.cpp:411] conv5_1 -> conv5_1
I0625 15:33:18.140980 20108 net.cpp:150] Setting up conv5_1
I0625 15:33:18.140996 20108 net.cpp:157] Top shape: 1 512 38 63 (1225728)
I0625 15:33:18.141000 20108 net.cpp:165] Memory required for data: 1365805932
I0625 15:33:18.141006 20108 layer_factory.hpp:77] Creating layer relu5_1
I0625 15:33:18.141024 20108 net.cpp:106] Creating Layer relu5_1
I0625 15:33:18.141028 20108 net.cpp:454] relu5_1 <- conv5_1
I0625 15:33:18.141033 20108 net.cpp:397] relu5_1 -> conv5_1 (in-place)
I0625 15:33:18.141156 20108 net.cpp:150] Setting up relu5_1
I0625 15:33:18.141165 20108 net.cpp:157] Top shape: 1 512 38 63 (1225728)
I0625 15:33:18.141166 20108 net.cpp:165] Memory required for data: 1370708844
I0625 15:33:18.141177 20108 layer_factory.hpp:77] Creating layer conv5_2
I0625 15:33:18.141183 20108 net.cpp:106] Creating Layer conv5_2
I0625 15:33:18.141196 20108 net.cpp:454] conv5_2 <- conv5_1
I0625 15:33:18.141201 20108 net.cpp:411] conv5_2 -> conv5_2
I0625 15:33:18.145784 20108 net.cpp:150] Setting up conv5_2
I0625 15:33:18.145800 20108 net.cpp:157] Top shape: 1 512 38 63 (1225728)
I0625 15:33:18.145803 20108 net.cpp:165] Memory required for data: 1375611756
I0625 15:33:18.145820 20108 layer_factory.hpp:77] Creating layer relu5_2
I0625 15:33:18.145828 20108 net.cpp:106] Creating Layer relu5_2
I0625 15:33:18.145831 20108 net.cpp:454] relu5_2 <- conv5_2
I0625 15:33:18.145835 20108 net.cpp:397] relu5_2 -> conv5_2 (in-place)
I0625 15:33:18.145963 20108 net.cpp:150] Setting up relu5_2
I0625 15:33:18.145969 20108 net.cpp:157] Top shape: 1 512 38 63 (1225728)
I0625 15:33:18.145972 20108 net.cpp:165] Memory required for data: 1380514668
I0625 15:33:18.145973 20108 layer_factory.hpp:77] Creating layer conv5_3
I0625 15:33:18.145993 20108 net.cpp:106] Creating Layer conv5_3
I0625 15:33:18.145997 20108 net.cpp:454] conv5_3 <- conv5_2
I0625 15:33:18.146001 20108 net.cpp:411] conv5_3 -> conv5_3
I0625 15:33:18.150554 20108 net.cpp:150] Setting up conv5_3
I0625 15:33:18.150570 20108 net.cpp:157] Top shape: 1 512 38 63 (1225728)
I0625 15:33:18.150573 20108 net.cpp:165] Memory required for data: 1385417580
I0625 15:33:18.150580 20108 layer_factory.hpp:77] Creating layer relu5_3
I0625 15:33:18.150597 20108 net.cpp:106] Creating Layer relu5_3
I0625 15:33:18.150602 20108 net.cpp:454] relu5_3 <- conv5_3
I0625 15:33:18.150607 20108 net.cpp:397] relu5_3 -> conv5_3 (in-place)
I0625 15:33:18.150761 20108 net.cpp:150] Setting up relu5_3
I0625 15:33:18.150769 20108 net.cpp:157] Top shape: 1 512 38 63 (1225728)
I0625 15:33:18.150771 20108 net.cpp:165] Memory required for data: 1390320492
I0625 15:33:18.150774 20108 layer_factory.hpp:77] Creating layer conv5_3_relu5_3_0_split
I0625 15:33:18.150779 20108 net.cpp:106] Creating Layer conv5_3_relu5_3_0_split
I0625 15:33:18.150780 20108 net.cpp:454] conv5_3_relu5_3_0_split <- conv5_3
I0625 15:33:18.150784 20108 net.cpp:411] conv5_3_relu5_3_0_split -> conv5_3_relu5_3_0_split_0
I0625 15:33:18.150799 20108 net.cpp:411] conv5_3_relu5_3_0_split -> conv5_3_relu5_3_0_split_1
I0625 15:33:18.150804 20108 net.cpp:411] conv5_3_relu5_3_0_split -> conv5_3_relu5_3_0_split_2
I0625 15:33:18.150852 20108 net.cpp:150] Setting up conv5_3_relu5_3_0_split
I0625 15:33:18.150857 20108 net.cpp:157] Top shape: 1 512 38 63 (1225728)
I0625 15:33:18.150859 20108 net.cpp:157] Top shape: 1 512 38 63 (1225728)
I0625 15:33:18.150861 20108 net.cpp:157] Top shape: 1 512 38 63 (1225728)
I0625 15:33:18.150873 20108 net.cpp:165] Memory required for data: 1405029228
I0625 15:33:18.150876 20108 layer_factory.hpp:77] Creating layer rpn_conv/3x3
I0625 15:33:18.150883 20108 net.cpp:106] Creating Layer rpn_conv/3x3
I0625 15:33:18.150885 20108 net.cpp:454] rpn_conv/3x3 <- conv5_3_relu5_3_0_split_0
I0625 15:33:18.150890 20108 net.cpp:411] rpn_conv/3x3 -> rpn/output
I0625 15:33:18.207535 20108 net.cpp:150] Setting up rpn_conv/3x3
I0625 15:33:18.207562 20108 net.cpp:157] Top shape: 1 512 38 63 (1225728)
I0625 15:33:18.207566 20108 net.cpp:165] Memory required for data: 1409932140
I0625 15:33:18.207587 20108 layer_factory.hpp:77] Creating layer rpn_relu/3x3
I0625 15:33:18.207599 20108 net.cpp:106] Creating Layer rpn_relu/3x3
I0625 15:33:18.207607 20108 net.cpp:454] rpn_relu/3x3 <- rpn/output
I0625 15:33:18.207613 20108 net.cpp:397] rpn_relu/3x3 -> rpn/output (in-place)
I0625 15:33:18.207800 20108 net.cpp:150] Setting up rpn_relu/3x3
I0625 15:33:18.207810 20108 net.cpp:157] Top shape: 1 512 38 63 (1225728)
I0625 15:33:18.207813 20108 net.cpp:165] Memory required for data: 1414835052
I0625 15:33:18.207816 20108 layer_factory.hpp:77] Creating layer rpn/output_rpn_relu/3x3_0_split
I0625 15:33:18.207823 20108 net.cpp:106] Creating Layer rpn/output_rpn_relu/3x3_0_split
I0625 15:33:18.207835 20108 net.cpp:454] rpn/output_rpn_relu/3x3_0_split <- rpn/output
I0625 15:33:18.207844 20108 net.cpp:411] rpn/output_rpn_relu/3x3_0_split -> rpn/output_rpn_relu/3x3_0_split_0
I0625 15:33:18.207851 20108 net.cpp:411] rpn/output_rpn_relu/3x3_0_split -> rpn/output_rpn_relu/3x3_0_split_1
I0625 15:33:18.207906 20108 net.cpp:150] Setting up rpn/output_rpn_relu/3x3_0_split
I0625 15:33:18.207912 20108 net.cpp:157] Top shape: 1 512 38 63 (1225728)
I0625 15:33:18.207926 20108 net.cpp:157] Top shape: 1 512 38 63 (1225728)
I0625 15:33:18.207931 20108 net.cpp:165] Memory required for data: 1424640876
I0625 15:33:18.207934 20108 layer_factory.hpp:77] Creating layer rpn_cls_score
I0625 15:33:18.207947 20108 net.cpp:106] Creating Layer rpn_cls_score
I0625 15:33:18.207952 20108 net.cpp:454] rpn_cls_score <- rpn/output_rpn_relu/3x3_0_split_0
I0625 15:33:18.207960 20108 net.cpp:411] rpn_cls_score -> rpn_cls_score
I0625 15:33:18.210778 20108 net.cpp:150] Setting up rpn_cls_score
I0625 15:33:18.210978 20108 net.cpp:157] Top shape: 1 30 38 63 (71820)
I0625 15:33:18.211050 20108 net.cpp:165] Memory required for data: 1424928156
I0625 15:33:18.211125 20108 layer_factory.hpp:77] Creating layer rpn_cls_score_rpn_cls_score_0_split
I0625 15:33:18.211158 20108 net.cpp:106] Creating Layer rpn_cls_score_rpn_cls_score_0_split
I0625 15:33:18.211177 20108 net.cpp:454] rpn_cls_score_rpn_cls_score_0_split <- rpn_cls_score
I0625 15:33:18.211199 20108 net.cpp:411] rpn_cls_score_rpn_cls_score_0_split -> rpn_cls_score_rpn_cls_score_0_split_0
I0625 15:33:18.211220 20108 net.cpp:411] rpn_cls_score_rpn_cls_score_0_split -> rpn_cls_score_rpn_cls_score_0_split_1
I0625 15:33:18.211338 20108 net.cpp:150] Setting up rpn_cls_score_rpn_cls_score_0_split
I0625 15:33:18.211347 20108 net.cpp:157] Top shape: 1 30 38 63 (71820)
I0625 15:33:18.211351 20108 net.cpp:157] Top shape: 1 30 38 63 (71820)
I0625 15:33:18.211354 20108 net.cpp:165] Memory required for data: 1425502716
I0625 15:33:18.211359 20108 layer_factory.hpp:77] Creating layer rpn_bbox_pred
I0625 15:33:18.211377 20108 net.cpp:106] Creating Layer rpn_bbox_pred
I0625 15:33:18.211383 20108 net.cpp:454] rpn_bbox_pred <- rpn/output_rpn_relu/3x3_0_split_1
I0625 15:33:18.211395 20108 net.cpp:411] rpn_bbox_pred -> rpn_bbox_pred
I0625 15:33:18.213989 20108 net.cpp:150] Setting up rpn_bbox_pred
I0625 15:33:18.214028 20108 net.cpp:157] Top shape: 1 60 38 63 (143640)
I0625 15:33:18.214035 20108 net.cpp:165] Memory required for data: 1426077276
I0625 15:33:18.214046 20108 layer_factory.hpp:77] Creating layer rpn_bbox_pred_rpn_bbox_pred_0_split
I0625 15:33:18.214073 20108 net.cpp:106] Creating Layer rpn_bbox_pred_rpn_bbox_pred_0_split
I0625 15:33:18.214088 20108 net.cpp:454] rpn_bbox_pred_rpn_bbox_pred_0_split <- rpn_bbox_pred
I0625 15:33:18.214103 20108 net.cpp:411] rpn_bbox_pred_rpn_bbox_pred_0_split -> rpn_bbox_pred_rpn_bbox_pred_0_split_0
I0625 15:33:18.214112 20108 net.cpp:411] rpn_bbox_pred_rpn_bbox_pred_0_split -> rpn_bbox_pred_rpn_bbox_pred_0_split_1
I0625 15:33:18.214159 20108 net.cpp:150] Setting up rpn_bbox_pred_rpn_bbox_pred_0_split
I0625 15:33:18.214164 20108 net.cpp:157] Top shape: 1 60 38 63 (143640)
I0625 15:33:18.214169 20108 net.cpp:157] Top shape: 1 60 38 63 (143640)
I0625 15:33:18.214174 20108 net.cpp:165] Memory required for data: 1427226396
I0625 15:33:18.214177 20108 layer_factory.hpp:77] Creating layer rpn_cls_score_reshape
I0625 15:33:18.214190 20108 net.cpp:106] Creating Layer rpn_cls_score_reshape
I0625 15:33:18.214195 20108 net.cpp:454] rpn_cls_score_reshape <- rpn_cls_score_rpn_cls_score_0_split_0
I0625 15:33:18.214200 20108 net.cpp:411] rpn_cls_score_reshape -> rpn_cls_score_reshape
I0625 15:33:18.214226 20108 net.cpp:150] Setting up rpn_cls_score_reshape
I0625 15:33:18.214232 20108 net.cpp:157] Top shape: 1 2 570 63 (71820)
I0625 15:33:18.214236 20108 net.cpp:165] Memory required for data: 1427513676
I0625 15:33:18.214241 20108 layer_factory.hpp:77] Creating layer rpn_cls_score_reshape_rpn_cls_score_reshape_0_split
I0625 15:33:18.214246 20108 net.cpp:106] Creating Layer rpn_cls_score_reshape_rpn_cls_score_reshape_0_split
I0625 15:33:18.214251 20108 net.cpp:454] rpn_cls_score_reshape_rpn_cls_score_reshape_0_split <- rpn_cls_score_reshape
I0625 15:33:18.214270 20108 net.cpp:411] rpn_cls_score_reshape_rpn_cls_score_reshape_0_split -> rpn_cls_score_reshape_rpn_cls_score_reshape_0_split_0
I0625 15:33:18.214280 20108 net.cpp:411] rpn_cls_score_reshape_rpn_cls_score_reshape_0_split -> rpn_cls_score_reshape_rpn_cls_score_reshape_0_split_1
I0625 15:33:18.214323 20108 net.cpp:150] Setting up rpn_cls_score_reshape_rpn_cls_score_reshape_0_split
I0625 15:33:18.214330 20108 net.cpp:157] Top shape: 1 2 570 63 (71820)
I0625 15:33:18.214336 20108 net.cpp:157] Top shape: 1 2 570 63 (71820)
I0625 15:33:18.214339 20108 net.cpp:165] Memory required for data: 1428088236
I0625 15:33:18.214344 20108 layer_factory.hpp:77] Creating layer rpn-data
I0625 15:33:18.215014 20108 net.cpp:106] Creating Layer rpn-data
I0625 15:33:18.215029 20108 net.cpp:454] rpn-data <- rpn_cls_score_rpn_cls_score_0_split_1
I0625 15:33:18.215036 20108 net.cpp:454] rpn-data <- gt_boxes_input-data_2_split_0
I0625 15:33:18.215042 20108 net.cpp:454] rpn-data <- im_info_input-data_1_split_0
I0625 15:33:18.215049 20108 net.cpp:454] rpn-data <- data_input-data_0_split_1
I0625 15:33:18.215056 20108 net.cpp:411] rpn-data -> rpn_labels
I0625 15:33:18.215065 20108 net.cpp:411] rpn-data -> rpn_bbox_targets
I0625 15:33:18.215073 20108 net.cpp:411] rpn-data -> rpn_bbox_inside_weights
I0625 15:33:18.215080 20108 net.cpp:411] rpn-data -> rpn_bbox_outside_weights
===================================anchor_scales in AnchorTargetLayer:=============(2, 4, 8, 16, 32)
I0625 15:33:18.217059 20108 net.cpp:150] Setting up rpn-data
I0625 15:33:18.217092 20108 net.cpp:157] Top shape: 1 1 570 63 (35910)
I0625 15:33:18.217108 20108 net.cpp:157] Top shape: 1 60 38 63 (143640)
I0625 15:33:18.217113 20108 net.cpp:157] Top shape: 1 60 38 63 (143640)
I0625 15:33:18.217118 20108 net.cpp:157] Top shape: 1 60 38 63 (143640)
I0625 15:33:18.217121 20108 net.cpp:165] Memory required for data: 1429955556
I0625 15:33:18.217128 20108 layer_factory.hpp:77] Creating layer rpn_loss_cls
I0625 15:33:18.217142 20108 net.cpp:106] Creating Layer rpn_loss_cls
I0625 15:33:18.217149 20108 net.cpp:454] rpn_loss_cls <- rpn_cls_score_reshape_rpn_cls_score_reshape_0_split_0
I0625 15:33:18.217159 20108 net.cpp:454] rpn_loss_cls <- rpn_labels
…
