…
average_loss: 100
iter_size: 2
I0605 13:34:46.449223  1472 solver.cpp:81] Creating training net from train_net file: models/pascal_voc/VGG16/faster_rcnn_end2end/train.prototxt
I0605 13:34:46.450837  1472 net.cpp:49] Initializing net from parameters: 
name: "VGG_ILSVRC_16_layers"
state {
  phase: TRAIN
}
layer {
  name: "input-data"
  type: "Python"
  top: "data"
  top: "im_info"
  top: "gt_boxes"
  top: "seg_mask_inds"
  top: "flipped"
  python_param {
    module: "roi_data_layer.layer"
    layer: "RoIDataLayer"
    param_str: "\'num_classes\': 2"
  }
}
layer {
  name: "conv1_1"
  type: "Convolution"
  bottom: "data"
  top: "conv1_1"
  param {
    lr_mult: 0
    decay_mult: 0
  }
  param {
    lr_mult: 0
    decay_mult: 0
  }
  convolution_param {
    num_output: 64
    pad: 1
    kernel_size: 3
  }
}
layer {
  name: "relu1_1"
  type: "ReLU"
  bottom: "conv1_1"
  top: "conv1_1"
}
layer {
  name: "conv1_2"
  type: "Convolution"
  bottom: "conv1_1"
  top: "conv1_2"
  param {
    lr_mult: 0
    decay_mult: 0
  }
  param {
    lr_mult: 0
    decay_mult: 0
  }
  convolution_param {
    num_output: 64
    pad: 1
    kernel_size: 3
  }
}
layer {
  name: "relu1_2"
  type: "ReLU"
  bottom: "conv1_2"
  top: "conv1_2"
}
layer {
  name: "pool1"
  type: "Pooling"
  bottom: "conv1_2"
  top: "pool1"
  pooling_param {
    pool: MAX
    kernel_size: 2
    stride: 2
  }
}
layer {
  name: "conv2_1"
  type: "Convolution"
  bottom: "pool1"
  top: "conv2_1"
  param {
    lr_mult: 0
    decay_mult: 0
  }
  param {
    lr_mult: 0
    decay_mult: 0
  }
  convolution_param {
    num_output: 128
    pad: 1
    kernel_size: 3
  }
}
layer {
  name: "relu2_1"
  type: "ReLU"
  bottom: "conv2_1"
  top: "conv2_1"
}
layer {
  name: "conv2_2"
  type: "Convolution"
  bottom: "conv2_1"
  top: "conv2_2"
  param {
    lr_mult: 0
    decay_mult: 0
  }
  param {
    lr_mult: 0
    decay_mult: 0
  }
  convolution_param {
    num_output: 128
    pad: 1
    kernel_size: 3
  }
}
layer {
  name: "relu2_2"
  type: "ReLU"
  bottom: "conv2_2"
  top: "conv2_2"
}
layer {
  name: "pool2"
  type: "Pooling"
  bottom: "conv2_2"
  top: "pool2"
  pooling_param {
    pool: MAX
    kernel_size: 2
    stride: 2
  }
}
layer {
  name: "conv3_1"
  type: "Convolution"
  bottom: "pool2"
  top: "conv3_1"
  param {
    lr_mult: 1
  }
  param {
    lr_mult: 2
  }
  convolution_param {
    num_output: 256
    pad: 1
    kernel_size: 3
  }
}
layer {
  name: "relu3_1"
  type: "ReLU"
  bottom: "conv3_1"
  top: "conv3_1"
}
layer {
  name: "conv3_2"
  type: "Convolution"
  bottom: "conv3_1"
  top: "conv3_2"
  param {
    lr_mult: 1
  }
  param {
    lr_mult: 2
  }
  convolution_param {
    num_output: 256
    pad: 1
    kernel_size: 3
  }
}
layer {
  name: "relu3_2"
  type: "ReLU"
  bottom: "conv3_2"
  top: "conv3_2"
}
layer {
  name: "conv3_3"
  type: "Convolution"
  bottom: "conv3_2"
  top: "conv3_3"
  param {
    lr_mult: 1
  }
  param {
    lr_mult: 2
  }
  convolution_param {
    num_output: 256
    pad: 1
    kernel_size: 3
  }
}
layer {
  name: "relu3_3"
  type: "ReLU"
  bottom: "conv3_3"
  top: "conv3_3"
}
layer {
  name: "pool3"
  type: "Pooling"
  bottom: "conv3_3"
  top: "pool3"
  pooling_param {
    pool: MAX
    kernel_size: 2
    stride: 2
  }
}
layer {
  name: "conv4_1"
  type: "Convolution"
  bottom: "pool3"
  top: "conv4_1"
  param {
    lr_mult: 1
  }
  param {
    lr_mult: 2
  }
  convolution_param {
    num_output: 512
    pad: 1
    kernel_size: 3
  }
}
layer {
  name: "relu4_1"
  type: "ReLU"
  bottom: "conv4_1"
  top: "conv4_1"
}
layer {
  name: "conv4_2"
  type: "Convolution"
  bottom: "conv4_1"
  top: "conv4_2"
  param {
    lr_mult: 1
  }
  param {
    lr_mult: 2
  }
  convolution_param {
    num_output: 512
    pad: 1
    kernel_size: 3
  }
}
layer {
  name: "relu4_2"
  type: "ReLU"
  bottom: "conv4_2"
  top: "conv4_2"
}
layer {
  name: "conv4_3"
  type: "Convolution"
  bottom: "conv4_2"
  top: "conv4_3"
  param {
    lr_mult: 1
  }
  param {
    lr_mult: 2
  }
  convolution_param {
    num_output: 512
    pad: 1
    kernel_size: 3
  }
}
layer {
  name: "relu4_3"
  type: "ReLU"
  bottom: "conv4_3"
  top: "conv4_3"
}
layer {
  name: "pool4"
  type: "Pooling"
  bottom: "conv4_3"
  top: "pool4"
  pooling_param {
    pool: MAX
    kernel_size: 2
    stride: 2
  }
}
layer {
  name: "conv5_1"
  type: "Convolution"
  bottom: "pool4"
  top: "conv5_1"
  param {
    lr_mult: 1
  }
  param {
    lr_mult: 2
  }
  convolution_param {
    num_output: 512
    pad: 1
    kernel_size: 3
  }
}
layer {
  name: "relu5_1"
  type: "ReLU"
  bottom: "conv5_1"
  top: "conv5_1"
}
layer {
  name: "conv5_2"
  type: "Convolution"
  bottom: "conv5_1"
  top: "conv5_2"
  param {
    lr_mult: 1
  }
  param {
    lr_mult: 2
  }
  convolution_param {
    num_output: 512
    pad: 1
    kernel_size: 3
  }
}
layer {
  name: "relu5_2"
  type: "ReLU"
  bottom: "conv5_2"
  top: "conv5_2"
}
layer {
  name: "conv5_3"
  type: "Convolution"
  bottom: "conv5_2"
  top: "conv5_3"
  param {
    lr_mult: 1
  }
  param {
    lr_mult: 2
  }
  convolution_param {
    num_output: 512
    pad: 1
    kernel_size: 3
  }
}
layer {
  name: "relu5_3"
  type: "ReLU"
  bottom: "conv5_3"
  top: "conv5_3"
}
layer {
  name: "rpn_conv/3x3"
  type: "Convolution"
  bottom: "conv5_3"
  top: "rpn/output"
  param {
    lr_mult: 1
  }
  param {
    lr_mult: 2
  }
  convolution_param {
    num_output: 512
    pad: 1
    kernel_size: 3
    stride: 1
    weight_filler {
      type: "gaussian"
      std: 0.01
    }
    bias_filler {
      type: "constant"
      value: 0
    }
  }
}
layer {
  name: "rpn_relu/3x3"
  type: "ReLU"
  bottom: "rpn/output"
  top: "rpn/output"
}
layer {
  name: "rpn_cls_score"
  type: "Convolution"
  bottom: "rpn/output"
  top: "rpn_cls_score"
  param {
    lr_mult: 1
  }
  param {
    lr_mult: 2
  }
  convolution_param {
    num_output: 30
    pad: 0
    kernel_size: 1
    stride: 1
    weight_filler {
      type: "gaussian"
      std: 0.01
    }
    bias_filler {
      type: "constant"
      value: 0
    }
  }
}
layer {
  name: "rpn_bbox_pred"
  type: "Convolution"
  bottom: "rpn/output"
  top: "rpn_bbox_pred"
  param {
    lr_mult: 1
  }
  param {
    lr_mult: 2
  }
  convolution_param {
    num_output: 60
    pad: 0
    kernel_size: 1
    stride: 1
    weight_filler {
      type: "gaussian"
      std: 0.01
    }
    bias_filler {
      type: "constant"
      value: 0
    }
  }
}
layer {
  name: "rpn_cls_score_reshape"
  type: "Reshape"
  bottom: "rpn_cls_score"
  top: "rpn_cls_score_reshape"
  reshape_param {
    shape {
      dim: 0
      dim: 2
      dim: -1
      dim: 0
    }
  }
}
layer {
  name: "rpn-data"
  type: "Python"
  bottom: "rpn_cls_score"
  bottom: "gt_boxes"
  bottom: "im_info"
  bottom: "data"
  top: "rpn_labels"
  top: "rpn_bbox_targets"
  top: "rpn_bbox_inside_weights"
  top: "rpn_bbox_outside_weights"
  python_param {
    module: "rpn.anchor_target_layer"
    layer: "AnchorTargetLayer"
    param_str: "\'feat_stride\': 16 \n\'scales\': !!python/tuple [2, 4, 8, 16, 32]"
  }
}
layer {
  name: "rpn_loss_cls"
  type: "SoftmaxWithLoss"
  bottom: "rpn_cls_score_reshape"
  bottom: "rpn_labels"
  top: "rpn_cls_loss"
  loss_weight: 1
  propagate_down: true
  propagate_down: false
  loss_param {
    ignore_label: -1
    normalize: true
  }
}
layer {
  name: "rpn_loss_bbox"
  type: "SmoothL1Loss"
  bottom: "rpn_bbox_pred"
  bottom: "rpn_bbox_targets"
  bottom: "rpn_bbox_inside_weights"
  bottom: "rpn_bbox_outside_weights"
  top: "rpn_loss_bbox"
  loss_weight: 1
  smooth_l1_loss_param {
    sigma: 3
  }
}
layer {
  name: "rpn_cls_prob"
  type: "Softmax"
  bottom: "rpn_cls_score_reshape"
  top: "rpn_cls_prob"
}
layer {
  name: "rpn_cls_prob_reshape"
  type: "Reshape"
  bottom: "rpn_cls_prob"
  top: "rpn_cls_prob_reshape"
  reshape_param {
    shape {
      dim: 0
      dim: 30
      dim: -1
      dim: 0
    }
  }
}
layer {
  name: "proposal"
  type: "Python"
  bottom: "rpn_cls_prob_reshape"
  bottom: "rpn_bbox_pred"
  bottom: "im_info"
  top: "rpn_rois"
  python_param {
    module: "rpn.proposal_layer"
    layer: "ProposalLayer"
    param_str: "\'feat_stride\': 16 \n\'scales\': !!python/tuple [2, 4, 8, 16, 32]"
  }
}
layer {
  name: "roi-data"
  type: "Python"
  bottom: "rpn_rois"
  bottom: "gt_boxes"
  bottom: "im_info"
  bottom: "seg_mask_inds"
  bottom: "flipped"
  top: "rois"
  top: "labels"
  top: "bbox_targets"
  top: "bbox_inside_weights"
  top: "bbox_outside_weights"
  top: "mask_targets"
  top: "rois_pos"
  top: "rois_attribute"
  python_param {
    module: "rpn.proposal_target_layer"
    layer: "ProposalTargetLayer"
    param_str: "\'num_classes\': 2"
  }
}
layer {
  name: "roi_pool5"
  type: "ROIAlignment"
  bottom: "conv5_3"
  bottom: "rois"
  top: "pool5"
  roi_alignment_param {
    pooled_h: 7
    pooled_w: 7
    spatial_scale: 0.0625
  }
}
layer {
  name: "fc6"
  type: "InnerProduct"
  bottom: "pool5"
  top: "fc6"
  param {
    lr_mult: 1
  }
  param {
    lr_mult: 2
  }
  inner_product_param {
    num_output: 4096
  }
}
layer {
  name: "relu6"
  type: "ReLU"
  bottom: "fc6"
  top: "fc6"
}
layer {
  name: "fc7"
  type: "InnerProduct"
  bottom: "fc6"
  top: "fc7"
  param {
    lr_mult: 1
  }
  param {
    lr_mult: 2
  }
  inner_product_param {
    num_output: 4096
  }
}
layer {
  name: "relu7"
  type: "ReLU"
  bottom: "fc7"
  top: "fc7"
}
layer {
  name: "cls_score"
  type: "InnerProduct"
  bottom: "fc7"
  top: "cls_score"
  param {
    lr_mult: 1
  }
  param {
    lr_mult: 2
  }
  inner_product_param {
    num_output: 2
    weight_filler {
      type: "gaussian"
      std: 0.01
    }
    bias_filler {
      type: "constant"
      value: 0
    }
  }
}
layer {
  name: "bbox_pred"
  type: "InnerProduct"
  bottom: "fc7"
  top: "bbox_pred"
  param {
    lr_mult: 1
  }
  param {
    lr_mult: 2
  }
  inner_product_param {
    num_output: 8
    weight_filler {
      type: "gaussian"
      std: 0.001
    }
    bias_filler {
      type: "constant"
      value: 0
    }
  }
}
layer {
  name: "loss_cls"
  type: "SoftmaxWithLoss"
  bottom: "cls_score"
  bottom: "labels"
  top: "loss_cls"
  loss_weight: 3
  propagate_down: true
  propagate_down: false
}
layer {
  name: "loss_bbox"
  type: "SmoothL1Loss"
  bottom: "bbox_pred"
  bottom: "bbox_targets"
  bottom: "bbox_inside_weights"
  bottom: "bbox_outside_weights"
  top: "loss_bbox"
  loss_weight: 2
}
layer {
  name: "roi_pool5_2"
  type: "ROIAlignment"
  bottom: "conv5_3"
  bottom: "rois_pos"
  top: "pool5_2"
  roi_alignment_param {
    pooled_h: 7
    pooled_w: 7
    spatial_scale: 0.0625
  }
}
layer {
  name: "pool5_2_conv"
  type: "Convolution"
  bottom: "pool5_2"
  top: "pool5_2_conv"
  param {
    lr_mult: 1
    decay_mult: 1
  }
  param {
    lr_mult: 2
    decay_mult: 0
  }
  convolution_param {
    num_output: 512
    pad: 0
    kernel_size: 1
    weight_filler {
      type: "gaussian"
      std: 0.01
    }
    bias_filler {
      type: "constant"
      value: 0
    }
  }
}
layer {
  name: "pool5_2_conv_relu"
  type: "ReLU"
  bottom: "pool5_2_conv"
  top: "pool5_2_conv_relu"
}
layer {
  name: "pool5_2_conv2"
  type: "Convolution"
  bottom: "pool5_2_conv_relu"
  top: "pool5_2_conv2"
  param {
    lr_mult: 1
    decay_mult: 1
  }
  param {
    lr_mult: 2
    decay_mult: 0
  }
  convolution_param {
    num_output: 512
    pad: 1
    kernel_size: 3
    stride: 1
    weight_filler {
      type: "gaussian"
      std: 0.01
    }
    bias_filler {
      type: "constant"
      value: 0
    }
  }
}
layer {
  name: "pool5_2_conv2_relu"
  type: "ReLU"
  bottom: "pool5_2_conv2"
  top: "pool5_2_conv2_relu"
}
layer {
  name: "mask_deconv1"
  type: "Deconvolution"
  bottom: "pool5_2_conv2_relu"
  top: "mask_deconv1"
  param {
    lr_mult: 1
    decay_mult: 1
  }
  param {
    lr_mult: 2
    decay_mult: 0
  }
  convolution_param {
    num_output: 256
    pad: 1
    kernel_size: 8
    group: 256
    stride: 4
    weight_filler {
      type: "bilinear"
    }
  }
}
layer {
  name: "pool5_2_conv3"
  type: "Convolution"
  bottom: "mask_deconv1"
  top: "pool5_2_conv3"
  param {
    lr_mult: 1
    decay_mult: 1
  }
  param {
    lr_mult: 2
    decay_mult: 0
  }
  convolution_param {
    num_output: 512
    pad: 1
    kernel_size: 3
    stride: 1
    weight_filler {
      type: "gaussian"
      std: 0.01
    }
    bias_filler {
      type: "constant"
      value: 0
    }
  }
}
layer {
  name: "pool5_2_conv3_relu"
  type: "ReLU"
  bottom: "pool5_2_conv3"
  top: "pool5_2_conv3_relu"
}
layer {
  name: "pool5_2_conv4"
  type: "Convolution"
  bottom: "pool5_2_conv3_relu"
  top: "pool5_2_conv4"
  param {
    lr_mult: 1
    decay_mult: 1
  }
  param {
    lr_mult: 2
    decay_mult: 0
  }
  convolution_param {
    num_output: 512
    pad: 1
    kernel_size: 3
    stride: 1
    weight_filler {
      type: "gaussian"
      std: 0.01
    }
    bias_filler {
      type: "constant"
      value: 0
    }
  }
}
layer {
  name: "pool5_2_conv4_relu"
  type: "ReLU"
  bottom: "pool5_2_conv4"
  top: "pool5_2_conv4_relu"
}
layer {
  name: "query_conv"
  type: "Convolution"
  bottom: "pool5_2_conv4_relu"
  top: "query_conv"
  param {
    lr_mult: 1
    decay_mult: 1
  }
  param {
    lr_mult: 2
    decay_mult: 0
  }
  convolution_param {
    num_output: 64
    pad: 0
    kernel_size: 1
    stride: 1
    weight_filler {
      type: "gaussian"
      std: 0.01
    }
    bias_filler {
      type: "constant"
      value: 0
    }
  }
}
layer {
  name: "key_conv"
  type: "Convolution"
  bottom: "pool5_2_conv4_relu"
  top: "key_conv"
  param {
    lr_mult: 1
    decay_mult: 1
  }
  param {
    lr_mult: 2
    decay_mult: 0
  }
  convolution_param {
    num_output: 64
    pad: 0
    kernel_size: 1
    stride: 1
    weight_filler {
      type: "gaussian"
      std: 0.01
    }
    bias_filler {
      type: "constant"
      value: 0
    }
  }
}
layer {
  name: "value_conv"
  type: "Convolution"
  bottom: "pool5_2_conv4_relu"
  top: "value_conv"
  param {
    lr_mult: 1
    decay_mult: 1
  }
  param {
    lr_mult: 2
    decay_mult: 0
  }
  convolution_param {
    num_output: 512
    pad: 0
    kernel_size: 1
    stride: 1
    weight_filler {
      type: "gaussian"
      std: 0.01
    }
    bias_filler {
      type: "constant"
      value: 0
    }
  }
}
layer {
  name: "query_conv_reshape"
  type: "Reshape"
  bottom: "query_conv"
  top: "query_conv_reshape"
  reshape_param {
    shape {
      dim: -1
      dim: 64
      dim: 900
      dim: 1
    }
  }
}
layer {
  name: "key_conv_reshape"
  type: "Reshape"
  bottom: "key_conv"
  top: "key_conv_reshape"
  reshape_param {
    shape {
      dim: -1
      dim: 64
      dim: 900
      dim: 1
    }
  }
}
layer {
  name: "value_conv_reshape"
  type: "Reshape"
  bottom: "value_conv"
  top: "value_conv_reshape"
  reshape_param {
    shape {
      dim: -1
      dim: 512
      dim: 900
      dim: 1
    }
  }
}
layer {
  name: "query_conv_reshape_perm"
  type: "Permute"
  bottom: "query_conv_reshape"
  top: "query_conv_reshape_perm"
  permute_param {
    order: 0
    order: 3
    order: 2
    order: 1
  }
}
layer {
  name: "key_conv_reshape_perm"
  type: "Permute"
  bottom: "key_conv_reshape"
  top: "key_conv_reshape_perm"
  permute_param {
    order: 0
    order: 3
    order: 1
    order: 2
  }
}
layer {
  name: "energy"
  type: "MatrixMultiplication"
  bottom: "query_conv_reshape_perm"
  bottom: "key_conv_reshape_perm"
  top: "energy"
}
layer {
  name: "attention"
  type: "Softmax"
  bottom: "energy"
  top: "attention"
  softmax_param {
    axis: 3
  }
}
layer {
  name: "value_conv_reshape_perm"
  type: "Permute"
  bottom: "value_conv_reshape"
  top: "value_conv_reshape_perm"
  permute_param {
    order: 0
    order: 3
    order: 1
    order: 2
  }
}
layer {
  name: "attention_perm"
  type: "Permute"
  bottom: "attention"
  top: "attention_perm"
  permute_param {
    order: 0
    order: 1
    order: 2
    order: 3
  }
}
layer {
  name: "out"
  type: "MatrixMultiplication"
  bottom: "value_conv_reshape_perm"
  bottom: "attention_perm"
  top: "out"
}
layer {
  name: "out_reshape"
  type: "Reshape"
  bottom: "out"
  top: "out_reshape"
  reshape_param {
    shape {
      dim: -1
      dim: 512
      dim: 30
      dim: 30
    }
  }
}
layer {
  name: "out_reshape_scale"
  type: "Scale"
  bottom: "out_reshape"
  top: "out_reshape_scale"
  param {
    name: "scale_conv1_1"
    lr_mult: 1
  }
  scale_param {
    bias_term: false
  }
}
layer {
  name: "out_x"
  type: "Eltwise"
  bottom: "out_reshape_scale"
  bottom: "pool5_2_conv4_relu"
  top: "out_x"
  eltwise_param {
    operation: SUM
  }
}
layer {
  name: "query_conv_reshape_ch"
  type: "Reshape"
  bottom: "pool5_2_conv4_relu"
  top: "query_conv_reshape_ch"
  reshape_param {
    shape {
      dim: 1
      dim: 512
      dim: -1
      dim: 1
    }
  }
}
layer {
  name: "key_conv_reshape_ch"
  type: "Reshape"
  bottom: "pool5_2_conv4_relu"
  top: "key_conv_reshape_ch"
  reshape_param {
    shape {
      dim: 1
      dim: 512
      dim: -1
      dim: 1
    }
  }
}
layer {
  name: "value_conv_reshape_ch"
  type: "Reshape"
  bottom: "pool5_2_conv4_relu"
  top: "value_conv_reshape_ch"
  reshape_param {
    shape {
      dim: 1
      dim: 512
      dim: -1
      dim: 1
    }
  }
}
layer {
  name: "query_conv_reshape_perm_ch"
  type: "Permute"
  bottom: "query_conv_reshape_ch"
  top: "query_conv_reshape_perm_ch"
  permute_param {
    order: 0
    order: 3
    order: 1
    order: 2
  }
}
layer {
  name: "key_conv_reshape_perm_ch"
  type: "Permute"
  bottom: "key_conv_reshape_ch"
  top: "key_conv_reshape_perm_ch"
  permute_param {
    order: 0
    order: 3
    order: 2
    order: 1
  }
}
layer {
  name: "energy_ch"
  type: "MatrixMultiplication"
  bottom: "query_conv_reshape_perm_ch"
  bottom: "key_conv_reshape_perm_ch"
  top: "energy_ch"
}
layer {
  name: "energy_ch_pool"
  type: "Pooling"
  bottom: "energy_ch"
  top: "energy_ch_pool"
  pooling_param {
    pool: MAX
    kernel_h: 1
    kernel_w: 512
    stride_h: 1
    stride_w: 512
  }
}
layer {
  name: "energy_ch_max"
  type: "Tile"
  bottom: "energy_ch_pool"
  top: "energy_ch_max"
  tile_param {
    axis: 3
    tiles: 512
  }
}
layer {
  name: "energy_ch_minus"
  type: "Power"
  bottom: "energy_ch"
  top: "energy_ch_minus"
  power_param {
    power: 1
    scale: -1
    shift: 0
  }
}
layer {
  name: "energy_new"
  type: "Eltwise"
  bottom: "energy_ch_max"
  bottom: "energy_ch_minus"
  top: "energy_new"
  eltwise_param {
    operation: SUM
  }
}
layer {
  name: "attention_ch"
  type: "Softmax"
  bottom: "energy_new"
  top: "attention_ch"
  softmax_param {
    axis: 3
  }
}
layer {
  name: "value_conv_reshape_ch_perm"
  type: "Permute"
  bottom: "value_conv_reshape_ch"
  top: "value_conv_reshape_ch_perm"
  permute_param {
    order: 0
    order: 3
    order: 1
    order: 2
  }
}
layer {
  name: "attention_ch_perm"
  type: "Permute"
  bottom: "attention_ch"
  top: "attention_ch_perm"
  permute_param {
    order: 0
    order: 1
    order: 2
    order: 3
  }
}
layer {
  name: "out_ch"
  type: "MatrixMultiplication"
  bottom: "attention_ch_perm"
  bottom: "value_conv_reshape_ch_perm"
  top: "out_ch"
}
layer {
  name: "out_ch_reshape"
  type: "Reshape"
  bottom: "out_ch"
  top: "out_ch_reshape"
  reshape_param {
    shape {
      dim: -1
      dim: 512
      dim: 30
      dim: 30
    }
  }
}
layer {
  name: "out_ch_reshape_scale"
  type: "Scale"
  bottom: "out_ch_reshape"
  top: "out_ch_reshape_scale"
  param {
    name: "scale_conv1_1"
    lr_mult: 1
  }
  scale_param {
    bias_term: false
  }
}
layer {
  name: "out_ch_x"
  type: "Eltwise"
  bottom: "out_ch_reshape_scale"
  bottom: "pool5_2_conv4_relu"
  top: "out_ch_x"
  eltwise_param {
    operation: SUM
  }
}
layer {
  name: "out_conv_ch_x"
  type: "Convolution"
  bottom: "out_ch_x"
  top: "out_conv_ch_x"
  param {
    lr_mult: 1
    decay_mult: 1
  }
  param {
    lr_mult: 2
    decay_mult: 0
  }
  convolution_param {
    num_output: 512
    pad: 0
    kernel_size: 1
    weight_filler {
      type: "gaussian"
      std: 0.01
    }
    bias_filler {
      type: "constant"
      value: 0
    }
  }
}
layer {
  name: "out_conv_x"
  type: "Convolution"
  bottom: "out_x"
  top: "out_conv_x"
  param {
    lr_mult: 1
    decay_mult: 1
  }
  param {
    lr_mult: 2
    decay_mult: 0
  }
  convolution_param {
    num_output: 512
    pad: 0
    kernel_size: 1
    weight_filler {
      type: "gaussian"
      std: 0.01
    }
    bias_filler {
      type: "constant"
      value: 0
    }
  }
}
layer {
  name: "out_x_sum"
  type: "Eltwise"
  bottom: "out_conv_x"
  bottom: "out_conv_ch_x"
  top: "out_x_sum"
  eltwise_param {
    operation: SUM
  }
}
layer {
  name: "mask_deconv2"
  type: "Deconvolution"
  bottom: "out_x_sum"
  top: "mask_deconv2"
  param {
    lr_mult: 1
    decay_mult: 1
  }
  param {
    lr_mult: 2
    decay_mult: 0
  }
  convolution_param {
    num_output: 256
    pad: 1
    kernel_size: 8
    group: 256
    stride: 4
    weight_filler {
      type: "bilinear"
    }
  }
}
layer {
  name: "pool5_2_conv5"
  type: "Convolution"
  bottom: "mask_deconv2"
  top: "pool5_2_conv5"
  param {
    lr_mult: 1
    decay_mult: 1
  }
  param {
    lr_mult: 2
    decay_mult: 0
  }
  convolution_param {
    num_output: 512
    pad: 1
    kernel_size: 3
    stride: 1
    weight_filler {
      type: "gaussian"
      std: 0.01
    }
    bias_filler {
      type: "constant"
      value: 0
    }
  }
}
layer {
  name: "pool5_2_conv5_relu"
  type: "ReLU"
  bottom: "pool5_2_conv5"
  top: "pool5_2_conv5_relu"
}
layer {
  name: "pool5_2_conv6"
  type: "Convolution"
  bottom: "pool5_2_conv5_relu"
  top: "pool5_2_conv6"
  param {
    lr_mult: 1
    decay_mult: 1
  }
  param {
    lr_mult: 2
    decay_mult: 0
  }
  convolution_param {
    num_output: 512
    pad: 1
    kernel_size: 3
    stride: 1
    weight_filler {
      type: "gaussian"
      std: 0.01
    }
    bias_filler {
      type: "constant"
      value: 0
    }
  }
}
layer {
  name: "pool5_2_conv6_relu"
  type: "ReLU"
  bottom: "pool5_2_conv6"
  top: "pool5_2_conv6_relu"
}
layer {
  name: "mask_deconv3"
  type: "Deconvolution"
  bottom: "pool5_2_conv6_relu"
  top: "mask_deconv3"
  param {
    lr_mult: 1
    decay_mult: 1
  }
  param {
    lr_mult: 2
    decay_mult: 0
  }
  convolution_param {
    num_output: 256
    pad: 1
    kernel_size: 4
    group: 256
    stride: 2
    weight_filler {
      type: "bilinear"
    }
  }
}
layer {
  name: "mask_score"
  type: "Convolution"
  bottom: "mask_deconv3"
  top: "mask_score"
  param {
    lr_mult: 1
    decay_mult: 1
  }
  param {
    lr_mult: 2
    decay_mult: 0
  }
  convolution_param {
    num_output: 8
    pad: 0
    kernel_size: 1
    weight_filler {
      type: "gaussian"
      std: 0.01
    }
    bias_filler {
      type: "constant"
      value: 0
    }
  }
}
layer {
  name: "loss_mask"
  type: "SoftmaxWithLoss"
  bottom: "mask_score"
  bottom: "mask_targets"
  top: "loss_mask"
  loss_weight: 3
  propagate_down: true
  propagate_down: false
  loss_param {
    ignore_label: -1
    normalize: true
  }
}
I0605 13:34:46.451395  1472 layer_factory.hpp:77] Creating layer input-data
I0605 13:34:46.485253  1472 net.cpp:106] Creating Layer input-data
I0605 13:34:46.485278  1472 net.cpp:411] input-data -> data
I0605 13:34:46.485286  1472 net.cpp:411] input-data -> im_info
I0605 13:34:46.485292  1472 net.cpp:411] input-data -> gt_boxes
I0605 13:34:46.485307  1472 net.cpp:411] input-data -> seg_mask_inds
I0605 13:34:46.485311  1472 net.cpp:411] input-data -> flipped
RoiDataLayer: name_to_top: {'gt_boxes': 2, 'data': 0, 'seg_mask_inds': 3, 'im_info': 1, 'flipped': 4}
I0605 13:34:46.499248  1472 net.cpp:150] Setting up input-data
I0605 13:34:46.499287  1472 net.cpp:157] Top shape: 1 3 600 1000 (1800000)
I0605 13:34:46.499305  1472 net.cpp:157] Top shape: 1 3 (3)
I0605 13:34:46.499310  1472 net.cpp:157] Top shape: 1 4 (4)
I0605 13:34:46.499322  1472 net.cpp:157] Top shape: 1 2 (2)
I0605 13:34:46.499326  1472 net.cpp:157] Top shape: 1 1 (1)
I0605 13:34:46.499339  1472 net.cpp:165] Memory required for data: 7200040
I0605 13:34:46.499344  1472 layer_factory.hpp:77] Creating layer data_input-data_0_split
I0605 13:34:46.499377  1472 net.cpp:106] Creating Layer data_input-data_0_split
I0605 13:34:46.499380  1472 net.cpp:454] data_input-data_0_split <- data
I0605 13:34:46.499387  1472 net.cpp:411] data_input-data_0_split -> data_input-data_0_split_0
I0605 13:34:46.499398  1472 net.cpp:411] data_input-data_0_split -> data_input-data_0_split_1
I0605 13:34:46.499445  1472 net.cpp:150] Setting up data_input-data_0_split
I0605 13:34:46.499460  1472 net.cpp:157] Top shape: 1 3 600 1000 (1800000)
I0605 13:34:46.499475  1472 net.cpp:157] Top shape: 1 3 600 1000 (1800000)
I0605 13:34:46.499480  1472 net.cpp:165] Memory required for data: 21600040
I0605 13:34:46.499491  1472 layer_factory.hpp:77] Creating layer im_info_input-data_1_split
I0605 13:34:46.499497  1472 net.cpp:106] Creating Layer im_info_input-data_1_split
I0605 13:34:46.499511  1472 net.cpp:454] im_info_input-data_1_split <- im_info
I0605 13:34:46.499516  1472 net.cpp:411] im_info_input-data_1_split -> im_info_input-data_1_split_0
I0605 13:34:46.499521  1472 net.cpp:411] im_info_input-data_1_split -> im_info_input-data_1_split_1
I0605 13:34:46.499528  1472 net.cpp:411] im_info_input-data_1_split -> im_info_input-data_1_split_2
I0605 13:34:46.499593  1472 net.cpp:150] Setting up im_info_input-data_1_split
I0605 13:34:46.499600  1472 net.cpp:157] Top shape: 1 3 (3)
I0605 13:34:46.499614  1472 net.cpp:157] Top shape: 1 3 (3)
I0605 13:34:46.499617  1472 net.cpp:157] Top shape: 1 3 (3)
I0605 13:34:46.499619  1472 net.cpp:165] Memory required for data: 21600076
I0605 13:34:46.499622  1472 layer_factory.hpp:77] Creating layer gt_boxes_input-data_2_split
I0605 13:34:46.499627  1472 net.cpp:106] Creating Layer gt_boxes_input-data_2_split
I0605 13:34:46.499634  1472 net.cpp:454] gt_boxes_input-data_2_split <- gt_boxes
I0605 13:34:46.499639  1472 net.cpp:411] gt_boxes_input-data_2_split -> gt_boxes_input-data_2_split_0
I0605 13:34:46.499644  1472 net.cpp:411] gt_boxes_input-data_2_split -> gt_boxes_input-data_2_split_1
I0605 13:34:46.499672  1472 net.cpp:150] Setting up gt_boxes_input-data_2_split
I0605 13:34:46.499677  1472 net.cpp:157] Top shape: 1 4 (4)
I0605 13:34:46.499680  1472 net.cpp:157] Top shape: 1 4 (4)
I0605 13:34:46.499686  1472 net.cpp:165] Memory required for data: 21600108
I0605 13:34:46.499689  1472 layer_factory.hpp:77] Creating layer conv1_1
I0605 13:34:46.499716  1472 net.cpp:106] Creating Layer conv1_1
I0605 13:34:46.499722  1472 net.cpp:454] conv1_1 <- data_input-data_0_split_0
I0605 13:34:46.499739  1472 net.cpp:411] conv1_1 -> conv1_1
I0605 13:34:46.704054  1472 net.cpp:150] Setting up conv1_1
I0605 13:34:46.704074  1472 net.cpp:157] Top shape: 1 64 600 1000 (38400000)
I0605 13:34:46.704077  1472 net.cpp:165] Memory required for data: 175200108
I0605 13:34:46.704090  1472 layer_factory.hpp:77] Creating layer relu1_1
I0605 13:34:46.704109  1472 net.cpp:106] Creating Layer relu1_1
I0605 13:34:46.704113  1472 net.cpp:454] relu1_1 <- conv1_1
I0605 13:34:46.704118  1472 net.cpp:397] relu1_1 -> conv1_1 (in-place)
I0605 13:34:46.704262  1472 net.cpp:150] Setting up relu1_1
I0605 13:34:46.704267  1472 net.cpp:157] Top shape: 1 64 600 1000 (38400000)
I0605 13:34:46.704270  1472 net.cpp:165] Memory required for data: 328800108
I0605 13:34:46.704272  1472 layer_factory.hpp:77] Creating layer conv1_2
I0605 13:34:46.704279  1472 net.cpp:106] Creating Layer conv1_2
I0605 13:34:46.704282  1472 net.cpp:454] conv1_2 <- conv1_1
I0605 13:34:46.704285  1472 net.cpp:411] conv1_2 -> conv1_2
I0605 13:34:46.706743  1472 net.cpp:150] Setting up conv1_2
I0605 13:34:46.706769  1472 net.cpp:157] Top shape: 1 64 600 1000 (38400000)
I0605 13:34:46.706773  1472 net.cpp:165] Memory required for data: 482400108
I0605 13:34:46.706781  1472 layer_factory.hpp:77] Creating layer relu1_2
I0605 13:34:46.706789  1472 net.cpp:106] Creating Layer relu1_2
I0605 13:34:46.706794  1472 net.cpp:454] relu1_2 <- conv1_2
I0605 13:34:46.706797  1472 net.cpp:397] relu1_2 -> conv1_2 (in-place)
I0605 13:34:46.706952  1472 net.cpp:150] Setting up relu1_2
I0605 13:34:46.706959  1472 net.cpp:157] Top shape: 1 64 600 1000 (38400000)
I0605 13:34:46.706971  1472 net.cpp:165] Memory required for data: 636000108
I0605 13:34:46.706974  1472 layer_factory.hpp:77] Creating layer pool1
I0605 13:34:46.706984  1472 net.cpp:106] Creating Layer pool1
I0605 13:34:46.706985  1472 net.cpp:454] pool1 <- conv1_2
I0605 13:34:46.706990  1472 net.cpp:411] pool1 -> pool1
I0605 13:34:46.707036  1472 net.cpp:150] Setting up pool1
I0605 13:34:46.707041  1472 net.cpp:157] Top shape: 1 64 300 500 (9600000)
I0605 13:34:46.707052  1472 net.cpp:165] Memory required for data: 674400108
I0605 13:34:46.707056  1472 layer_factory.hpp:77] Creating layer conv2_1
I0605 13:34:46.707062  1472 net.cpp:106] Creating Layer conv2_1
I0605 13:34:46.707065  1472 net.cpp:454] conv2_1 <- pool1
I0605 13:34:46.707069  1472 net.cpp:411] conv2_1 -> conv2_1
I0605 13:34:46.708902  1472 net.cpp:150] Setting up conv2_1
I0605 13:34:46.708910  1472 net.cpp:157] Top shape: 1 128 300 500 (19200000)
I0605 13:34:46.708914  1472 net.cpp:165] Memory required for data: 751200108
I0605 13:34:46.708920  1472 layer_factory.hpp:77] Creating layer relu2_1
I0605 13:34:46.708925  1472 net.cpp:106] Creating Layer relu2_1
I0605 13:34:46.708928  1472 net.cpp:454] relu2_1 <- conv2_1
I0605 13:34:46.708931  1472 net.cpp:397] relu2_1 -> conv2_1 (in-place)
I0605 13:34:46.709446  1472 net.cpp:150] Setting up relu2_1
I0605 13:34:46.709458  1472 net.cpp:157] Top shape: 1 128 300 500 (19200000)
I0605 13:34:46.709461  1472 net.cpp:165] Memory required for data: 828000108
I0605 13:34:46.709472  1472 layer_factory.hpp:77] Creating layer conv2_2
I0605 13:34:46.709491  1472 net.cpp:106] Creating Layer conv2_2
I0605 13:34:46.709493  1472 net.cpp:454] conv2_2 <- conv2_1
I0605 13:34:46.709498  1472 net.cpp:411] conv2_2 -> conv2_2
I0605 13:34:46.710794  1472 net.cpp:150] Setting up conv2_2
I0605 13:34:46.710803  1472 net.cpp:157] Top shape: 1 128 300 500 (19200000)
I0605 13:34:46.710805  1472 net.cpp:165] Memory required for data: 904800108
I0605 13:34:46.710810  1472 layer_factory.hpp:77] Creating layer relu2_2
I0605 13:34:46.710814  1472 net.cpp:106] Creating Layer relu2_2
I0605 13:34:46.710817  1472 net.cpp:454] relu2_2 <- conv2_2
I0605 13:34:46.710830  1472 net.cpp:397] relu2_2 -> conv2_2 (in-place)
I0605 13:34:46.710964  1472 net.cpp:150] Setting up relu2_2
I0605 13:34:46.710971  1472 net.cpp:157] Top shape: 1 128 300 500 (19200000)
I0605 13:34:46.710973  1472 net.cpp:165] Memory required for data: 981600108
I0605 13:34:46.710975  1472 layer_factory.hpp:77] Creating layer pool2
I0605 13:34:46.710980  1472 net.cpp:106] Creating Layer pool2
I0605 13:34:46.710983  1472 net.cpp:454] pool2 <- conv2_2
I0605 13:34:46.710985  1472 net.cpp:411] pool2 -> pool2
I0605 13:34:46.711045  1472 net.cpp:150] Setting up pool2
I0605 13:34:46.711050  1472 net.cpp:157] Top shape: 1 128 150 250 (4800000)
I0605 13:34:46.711062  1472 net.cpp:165] Memory required for data: 1000800108
I0605 13:34:46.711064  1472 layer_factory.hpp:77] Creating layer conv3_1
I0605 13:34:46.711071  1472 net.cpp:106] Creating Layer conv3_1
I0605 13:34:46.711072  1472 net.cpp:454] conv3_1 <- pool2
I0605 13:34:46.711087  1472 net.cpp:411] conv3_1 -> conv3_1
I0605 13:34:46.712860  1472 net.cpp:150] Setting up conv3_1
I0605 13:34:46.712868  1472 net.cpp:157] Top shape: 1 256 150 250 (9600000)
I0605 13:34:46.712872  1472 net.cpp:165] Memory required for data: 1039200108
I0605 13:34:46.712878  1472 layer_factory.hpp:77] Creating layer relu3_1
I0605 13:34:46.712882  1472 net.cpp:106] Creating Layer relu3_1
I0605 13:34:46.712884  1472 net.cpp:454] relu3_1 <- conv3_1
I0605 13:34:46.712899  1472 net.cpp:397] relu3_1 -> conv3_1 (in-place)
I0605 13:34:46.713040  1472 net.cpp:150] Setting up relu3_1
I0605 13:34:46.713047  1472 net.cpp:157] Top shape: 1 256 150 250 (9600000)
I0605 13:34:46.713048  1472 net.cpp:165] Memory required for data: 1077600108
I0605 13:34:46.713050  1472 layer_factory.hpp:77] Creating layer conv3_2
I0605 13:34:46.713058  1472 net.cpp:106] Creating Layer conv3_2
I0605 13:34:46.713071  1472 net.cpp:454] conv3_2 <- conv3_1
I0605 13:34:46.713075  1472 net.cpp:411] conv3_2 -> conv3_2
I0605 13:34:46.715098  1472 net.cpp:150] Setting up conv3_2
I0605 13:34:46.715107  1472 net.cpp:157] Top shape: 1 256 150 250 (9600000)
I0605 13:34:46.715111  1472 net.cpp:165] Memory required for data: 1116000108
I0605 13:34:46.715131  1472 layer_factory.hpp:77] Creating layer relu3_2
I0605 13:34:46.715137  1472 net.cpp:106] Creating Layer relu3_2
I0605 13:34:46.715139  1472 net.cpp:454] relu3_2 <- conv3_2
I0605 13:34:46.715143  1472 net.cpp:397] relu3_2 -> conv3_2 (in-place)
I0605 13:34:46.715286  1472 net.cpp:150] Setting up relu3_2
I0605 13:34:46.715292  1472 net.cpp:157] Top shape: 1 256 150 250 (9600000)
I0605 13:34:46.715294  1472 net.cpp:165] Memory required for data: 1154400108
I0605 13:34:46.715296  1472 layer_factory.hpp:77] Creating layer conv3_3
I0605 13:34:46.715302  1472 net.cpp:106] Creating Layer conv3_3
I0605 13:34:46.715304  1472 net.cpp:454] conv3_3 <- conv3_2
I0605 13:34:46.715308  1472 net.cpp:411] conv3_3 -> conv3_3
I0605 13:34:46.717315  1472 net.cpp:150] Setting up conv3_3
I0605 13:34:46.717324  1472 net.cpp:157] Top shape: 1 256 150 250 (9600000)
I0605 13:34:46.717326  1472 net.cpp:165] Memory required for data: 1192800108
I0605 13:34:46.717331  1472 layer_factory.hpp:77] Creating layer relu3_3
I0605 13:34:46.717336  1472 net.cpp:106] Creating Layer relu3_3
I0605 13:34:46.717339  1472 net.cpp:454] relu3_3 <- conv3_3
I0605 13:34:46.717352  1472 net.cpp:397] relu3_3 -> conv3_3 (in-place)
I0605 13:34:46.717519  1472 net.cpp:150] Setting up relu3_3
I0605 13:34:46.717525  1472 net.cpp:157] Top shape: 1 256 150 250 (9600000)
I0605 13:34:46.717527  1472 net.cpp:165] Memory required for data: 1231200108
I0605 13:34:46.717530  1472 layer_factory.hpp:77] Creating layer pool3
I0605 13:34:46.717535  1472 net.cpp:106] Creating Layer pool3
I0605 13:34:46.717537  1472 net.cpp:454] pool3 <- conv3_3
I0605 13:34:46.717542  1472 net.cpp:411] pool3 -> pool3
I0605 13:34:46.717604  1472 net.cpp:150] Setting up pool3
I0605 13:34:46.717608  1472 net.cpp:157] Top shape: 1 256 75 125 (2400000)
I0605 13:34:46.717620  1472 net.cpp:165] Memory required for data: 1240800108
I0605 13:34:46.717623  1472 layer_factory.hpp:77] Creating layer conv4_1
I0605 13:34:46.717629  1472 net.cpp:106] Creating Layer conv4_1
I0605 13:34:46.717631  1472 net.cpp:454] conv4_1 <- pool3
I0605 13:34:46.717645  1472 net.cpp:411] conv4_1 -> conv4_1
I0605 13:34:46.721340  1472 net.cpp:150] Setting up conv4_1
I0605 13:34:46.721359  1472 net.cpp:157] Top shape: 1 512 75 125 (4800000)
I0605 13:34:46.721362  1472 net.cpp:165] Memory required for data: 1260000108
I0605 13:34:46.721370  1472 layer_factory.hpp:77] Creating layer relu4_1
I0605 13:34:46.721379  1472 net.cpp:106] Creating Layer relu4_1
I0605 13:34:46.721392  1472 net.cpp:454] relu4_1 <- conv4_1
I0605 13:34:46.721396  1472 net.cpp:397] relu4_1 -> conv4_1 (in-place)
I0605 13:34:46.721560  1472 net.cpp:150] Setting up relu4_1
I0605 13:34:46.721567  1472 net.cpp:157] Top shape: 1 512 75 125 (4800000)
I0605 13:34:46.721570  1472 net.cpp:165] Memory required for data: 1279200108
I0605 13:34:46.721571  1472 layer_factory.hpp:77] Creating layer conv4_2
I0605 13:34:46.721577  1472 net.cpp:106] Creating Layer conv4_2
I0605 13:34:46.721580  1472 net.cpp:454] conv4_2 <- conv4_1
I0605 13:34:46.721594  1472 net.cpp:411] conv4_2 -> conv4_2
I0605 13:34:46.726678  1472 net.cpp:150] Setting up conv4_2
I0605 13:34:46.726698  1472 net.cpp:157] Top shape: 1 512 75 125 (4800000)
I0605 13:34:46.726701  1472 net.cpp:165] Memory required for data: 1298400108
I0605 13:34:46.726714  1472 layer_factory.hpp:77] Creating layer relu4_2
I0605 13:34:46.726733  1472 net.cpp:106] Creating Layer relu4_2
I0605 13:34:46.726738  1472 net.cpp:454] relu4_2 <- conv4_2
I0605 13:34:46.726755  1472 net.cpp:397] relu4_2 -> conv4_2 (in-place)
I0605 13:34:46.727262  1472 net.cpp:150] Setting up relu4_2
I0605 13:34:46.727269  1472 net.cpp:157] Top shape: 1 512 75 125 (4800000)
I0605 13:34:46.727272  1472 net.cpp:165] Memory required for data: 1317600108
I0605 13:34:46.727274  1472 layer_factory.hpp:77] Creating layer conv4_3
I0605 13:34:46.727283  1472 net.cpp:106] Creating Layer conv4_3
I0605 13:34:46.727298  1472 net.cpp:454] conv4_3 <- conv4_2
I0605 13:34:46.727303  1472 net.cpp:411] conv4_3 -> conv4_3
I0605 13:34:46.731539  1472 net.cpp:150] Setting up conv4_3
I0605 13:34:46.731559  1472 net.cpp:157] Top shape: 1 512 75 125 (4800000)
I0605 13:34:46.731562  1472 net.cpp:165] Memory required for data: 1336800108
I0605 13:34:46.731570  1472 layer_factory.hpp:77] Creating layer relu4_3
I0605 13:34:46.731590  1472 net.cpp:106] Creating Layer relu4_3
I0605 13:34:46.731595  1472 net.cpp:454] relu4_3 <- conv4_3
I0605 13:34:46.731601  1472 net.cpp:397] relu4_3 -> conv4_3 (in-place)
I0605 13:34:46.731748  1472 net.cpp:150] Setting up relu4_3
I0605 13:34:46.731755  1472 net.cpp:157] Top shape: 1 512 75 125 (4800000)
I0605 13:34:46.731757  1472 net.cpp:165] Memory required for data: 1356000108
I0605 13:34:46.731760  1472 layer_factory.hpp:77] Creating layer pool4
I0605 13:34:46.731766  1472 net.cpp:106] Creating Layer pool4
I0605 13:34:46.731770  1472 net.cpp:454] pool4 <- conv4_3
I0605 13:34:46.731773  1472 net.cpp:411] pool4 -> pool4
I0605 13:34:46.731824  1472 net.cpp:150] Setting up pool4
I0605 13:34:46.731829  1472 net.cpp:157] Top shape: 1 512 38 63 (1225728)
I0605 13:34:46.731842  1472 net.cpp:165] Memory required for data: 1360903020
I0605 13:34:46.731844  1472 layer_factory.hpp:77] Creating layer conv5_1
I0605 13:34:46.731851  1472 net.cpp:106] Creating Layer conv5_1
I0605 13:34:46.731854  1472 net.cpp:454] conv5_1 <- pool4
I0605 13:34:46.731868  1472 net.cpp:411] conv5_1 -> conv5_1
I0605 13:34:46.736243  1472 net.cpp:150] Setting up conv5_1
I0605 13:34:46.736258  1472 net.cpp:157] Top shape: 1 512 38 63 (1225728)
I0605 13:34:46.736261  1472 net.cpp:165] Memory required for data: 1365805932
I0605 13:34:46.736268  1472 layer_factory.hpp:77] Creating layer relu5_1
I0605 13:34:46.736275  1472 net.cpp:106] Creating Layer relu5_1
I0605 13:34:46.736289  1472 net.cpp:454] relu5_1 <- conv5_1
I0605 13:34:46.736295  1472 net.cpp:397] relu5_1 -> conv5_1 (in-place)
I0605 13:34:46.736444  1472 net.cpp:150] Setting up relu5_1
I0605 13:34:46.736450  1472 net.cpp:157] Top shape: 1 512 38 63 (1225728)
I0605 13:34:46.736454  1472 net.cpp:165] Memory required for data: 1370708844
I0605 13:34:46.736455  1472 layer_factory.hpp:77] Creating layer conv5_2
I0605 13:34:46.736462  1472 net.cpp:106] Creating Layer conv5_2
I0605 13:34:46.736465  1472 net.cpp:454] conv5_2 <- conv5_1
I0605 13:34:46.736469  1472 net.cpp:411] conv5_2 -> conv5_2
I0605 13:34:46.741313  1472 net.cpp:150] Setting up conv5_2
I0605 13:34:46.741333  1472 net.cpp:157] Top shape: 1 512 38 63 (1225728)
I0605 13:34:46.741335  1472 net.cpp:165] Memory required for data: 1375611756
I0605 13:34:46.741343  1472 layer_factory.hpp:77] Creating layer relu5_2
I0605 13:34:46.741353  1472 net.cpp:106] Creating Layer relu5_2
I0605 13:34:46.741356  1472 net.cpp:454] relu5_2 <- conv5_2
I0605 13:34:46.741361  1472 net.cpp:397] relu5_2 -> conv5_2 (in-place)
I0605 13:34:46.741504  1472 net.cpp:150] Setting up relu5_2
I0605 13:34:46.741513  1472 net.cpp:157] Top shape: 1 512 38 63 (1225728)
I0605 13:34:46.741515  1472 net.cpp:165] Memory required for data: 1380514668
I0605 13:34:46.741518  1472 layer_factory.hpp:77] Creating layer conv5_3
I0605 13:34:46.741528  1472 net.cpp:106] Creating Layer conv5_3
I0605 13:34:46.741530  1472 net.cpp:454] conv5_3 <- conv5_2
I0605 13:34:46.741535  1472 net.cpp:411] conv5_3 -> conv5_3
I0605 13:34:46.746004  1472 net.cpp:150] Setting up conv5_3
I0605 13:34:46.746026  1472 net.cpp:157] Top shape: 1 512 38 63 (1225728)
I0605 13:34:46.746028  1472 net.cpp:165] Memory required for data: 1385417580
I0605 13:34:46.746037  1472 layer_factory.hpp:77] Creating layer relu5_3
I0605 13:34:46.746047  1472 net.cpp:106] Creating Layer relu5_3
I0605 13:34:46.746052  1472 net.cpp:454] relu5_3 <- conv5_3
I0605 13:34:46.746067  1472 net.cpp:397] relu5_3 -> conv5_3 (in-place)
I0605 13:34:46.746197  1472 net.cpp:150] Setting up relu5_3
I0605 13:34:46.746206  1472 net.cpp:157] Top shape: 1 512 38 63 (1225728)
I0605 13:34:46.746207  1472 net.cpp:165] Memory required for data: 1390320492
I0605 13:34:46.746210  1472 layer_factory.hpp:77] Creating layer conv5_3_relu5_3_0_split
I0605 13:34:46.746214  1472 net.cpp:106] Creating Layer conv5_3_relu5_3_0_split
I0605 13:34:46.746217  1472 net.cpp:454] conv5_3_relu5_3_0_split <- conv5_3
I0605 13:34:46.746222  1472 net.cpp:411] conv5_3_relu5_3_0_split -> conv5_3_relu5_3_0_split_0
I0605 13:34:46.746235  1472 net.cpp:411] conv5_3_relu5_3_0_split -> conv5_3_relu5_3_0_split_1
I0605 13:34:46.746239  1472 net.cpp:411] conv5_3_relu5_3_0_split -> conv5_3_relu5_3_0_split_2
I0605 13:34:46.746287  1472 net.cpp:150] Setting up conv5_3_relu5_3_0_split
I0605 13:34:46.746292  1472 net.cpp:157] Top shape: 1 512 38 63 (1225728)
I0605 13:34:46.746295  1472 net.cpp:157] Top shape: 1 512 38 63 (1225728)
I0605 13:34:46.746307  1472 net.cpp:157] Top shape: 1 512 38 63 (1225728)
I0605 13:34:46.746309  1472 net.cpp:165] Memory required for data: 1405029228
I0605 13:34:46.746311  1472 layer_factory.hpp:77] Creating layer rpn_conv/3x3
I0605 13:34:46.746330  1472 net.cpp:106] Creating Layer rpn_conv/3x3
I0605 13:34:46.746345  1472 net.cpp:454] rpn_conv/3x3 <- conv5_3_relu5_3_0_split_0
I0605 13:34:46.746349  1472 net.cpp:411] rpn_conv/3x3 -> rpn/output
I0605 13:34:46.796941  1472 net.cpp:150] Setting up rpn_conv/3x3
I0605 13:34:46.796958  1472 net.cpp:157] Top shape: 1 512 38 63 (1225728)
I0605 13:34:46.796962  1472 net.cpp:165] Memory required for data: 1409932140
I0605 13:34:46.796968  1472 layer_factory.hpp:77] Creating layer rpn_relu/3x3
I0605 13:34:46.796985  1472 net.cpp:106] Creating Layer rpn_relu/3x3
I0605 13:34:46.796989  1472 net.cpp:454] rpn_relu/3x3 <- rpn/output
I0605 13:34:46.796994  1472 net.cpp:397] rpn_relu/3x3 -> rpn/output (in-place)
I0605 13:34:46.797118  1472 net.cpp:150] Setting up rpn_relu/3x3
I0605 13:34:46.797123  1472 net.cpp:157] Top shape: 1 512 38 63 (1225728)
I0605 13:34:46.797125  1472 net.cpp:165] Memory required for data: 1414835052
I0605 13:34:46.797128  1472 layer_factory.hpp:77] Creating layer rpn/output_rpn_relu/3x3_0_split
I0605 13:34:46.797132  1472 net.cpp:106] Creating Layer rpn/output_rpn_relu/3x3_0_split
I0605 13:34:46.797135  1472 net.cpp:454] rpn/output_rpn_relu/3x3_0_split <- rpn/output
I0605 13:34:46.797138  1472 net.cpp:411] rpn/output_rpn_relu/3x3_0_split -> rpn/output_rpn_relu/3x3_0_split_0
I0605 13:34:46.797152  1472 net.cpp:411] rpn/output_rpn_relu/3x3_0_split -> rpn/output_rpn_relu/3x3_0_split_1
I0605 13:34:46.797189  1472 net.cpp:150] Setting up rpn/output_rpn_relu/3x3_0_split
I0605 13:34:46.797194  1472 net.cpp:157] Top shape: 1 512 38 63 (1225728)
I0605 13:34:46.797206  1472 net.cpp:157] Top shape: 1 512 38 63 (1225728)
I0605 13:34:46.797209  1472 net.cpp:165] Memory required for data: 1424640876
I0605 13:34:46.797210  1472 layer_factory.hpp:77] Creating layer rpn_cls_score
I0605 13:34:46.797219  1472 net.cpp:106] Creating Layer rpn_cls_score
I0605 13:34:46.797224  1472 net.cpp:454] rpn_cls_score <- rpn/output_rpn_relu/3x3_0_split_0
I0605 13:34:46.797227  1472 net.cpp:411] rpn_cls_score -> rpn_cls_score
I0605 13:34:46.798825  1472 net.cpp:150] Setting up rpn_cls_score
I0605 13:34:46.798833  1472 net.cpp:157] Top shape: 1 30 38 63 (71820)
I0605 13:34:46.798835  1472 net.cpp:165] Memory required for data: 1424928156
I0605 13:34:46.798840  1472 layer_factory.hpp:77] Creating layer rpn_cls_score_rpn_cls_score_0_split
I0605 13:34:46.798846  1472 net.cpp:106] Creating Layer rpn_cls_score_rpn_cls_score_0_split
I0605 13:34:46.798848  1472 net.cpp:454] rpn_cls_score_rpn_cls_score_0_split <- rpn_cls_score
I0605 13:34:46.798862  1472 net.cpp:411] rpn_cls_score_rpn_cls_score_0_split -> rpn_cls_score_rpn_cls_score_0_split_0
I0605 13:34:46.798866  1472 net.cpp:411] rpn_cls_score_rpn_cls_score_0_split -> rpn_cls_score_rpn_cls_score_0_split_1
I0605 13:34:46.798903  1472 net.cpp:150] Setting up rpn_cls_score_rpn_cls_score_0_split
I0605 13:34:46.798907  1472 net.cpp:157] Top shape: 1 30 38 63 (71820)
I0605 13:34:46.798920  1472 net.cpp:157] Top shape: 1 30 38 63 (71820)
I0605 13:34:46.798923  1472 net.cpp:165] Memory required for data: 1425502716
I0605 13:34:46.798925  1472 layer_factory.hpp:77] Creating layer rpn_bbox_pred
I0605 13:34:46.798933  1472 net.cpp:106] Creating Layer rpn_bbox_pred
I0605 13:34:46.798934  1472 net.cpp:454] rpn_bbox_pred <- rpn/output_rpn_relu/3x3_0_split_1
I0605 13:34:46.798940  1472 net.cpp:411] rpn_bbox_pred -> rpn_bbox_pred
I0605 13:34:46.800741  1472 net.cpp:150] Setting up rpn_bbox_pred
I0605 13:34:46.800750  1472 net.cpp:157] Top shape: 1 60 38 63 (143640)
I0605 13:34:46.800751  1472 net.cpp:165] Memory required for data: 1426077276
I0605 13:34:46.800756  1472 layer_factory.hpp:77] Creating layer rpn_bbox_pred_rpn_bbox_pred_0_split
I0605 13:34:46.800760  1472 net.cpp:106] Creating Layer rpn_bbox_pred_rpn_bbox_pred_0_split
I0605 13:34:46.800763  1472 net.cpp:454] rpn_bbox_pred_rpn_bbox_pred_0_split <- rpn_bbox_pred
I0605 13:34:46.800777  1472 net.cpp:411] rpn_bbox_pred_rpn_bbox_pred_0_split -> rpn_bbox_pred_rpn_bbox_pred_0_split_0
I0605 13:34:46.800782  1472 net.cpp:411] rpn_bbox_pred_rpn_bbox_pred_0_split -> rpn_bbox_pred_rpn_bbox_pred_0_split_1
I0605 13:34:46.800817  1472 net.cpp:150] Setting up rpn_bbox_pred_rpn_bbox_pred_0_split
I0605 13:34:46.800822  1472 net.cpp:157] Top shape: 1 60 38 63 (143640)
I0605 13:34:46.800834  1472 net.cpp:157] Top shape: 1 60 38 63 (143640)
I0605 13:34:46.800837  1472 net.cpp:165] Memory required for data: 1427226396
I0605 13:34:46.800839  1472 layer_factory.hpp:77] Creating layer rpn_cls_score_reshape
I0605 13:34:46.800848  1472 net.cpp:106] Creating Layer rpn_cls_score_reshape
I0605 13:34:46.800851  1472 net.cpp:454] rpn_cls_score_reshape <- rpn_cls_score_rpn_cls_score_0_split_0
I0605 13:34:46.800864  1472 net.cpp:411] rpn_cls_score_reshape -> rpn_cls_score_reshape
I0605 13:34:46.800891  1472 net.cpp:150] Setting up rpn_cls_score_reshape
I0605 13:34:46.800895  1472 net.cpp:157] Top shape: 1 2 570 63 (71820)
I0605 13:34:46.800897  1472 net.cpp:165] Memory required for data: 1427513676
I0605 13:34:46.800900  1472 layer_factory.hpp:77] Creating layer rpn_cls_score_reshape_rpn_cls_score_reshape_0_split
I0605 13:34:46.800904  1472 net.cpp:106] Creating Layer rpn_cls_score_reshape_rpn_cls_score_reshape_0_split
I0605 13:34:46.800907  1472 net.cpp:454] rpn_cls_score_reshape_rpn_cls_score_reshape_0_split <- rpn_cls_score_reshape
I0605 13:34:46.800911  1472 net.cpp:411] rpn_cls_score_reshape_rpn_cls_score_reshape_0_split -> rpn_cls_score_reshape_rpn_cls_score_reshape_0_split_0
I0605 13:34:46.800916  1472 net.cpp:411] rpn_cls_score_reshape_rpn_cls_score_reshape_0_split -> rpn_cls_score_reshape_rpn_cls_score_reshape_0_split_1
I0605 13:34:46.800947  1472 net.cpp:150] Setting up rpn_cls_score_reshape_rpn_cls_score_reshape_0_split
I0605 13:34:46.800951  1472 net.cpp:157] Top shape: 1 2 570 63 (71820)
I0605 13:34:46.800954  1472 net.cpp:157] Top shape: 1 2 570 63 (71820)
I0605 13:34:46.800966  1472 net.cpp:165] Memory required for data: 1428088236
I0605 13:34:46.800969  1472 layer_factory.hpp:77] Creating layer rpn-data
I0605 13:34:46.801280  1472 net.cpp:106] Creating Layer rpn-data
I0605 13:34:46.801286  1472 net.cpp:454] rpn-data <- rpn_cls_score_rpn_cls_score_0_split_1
I0605 13:34:46.801291  1472 net.cpp:454] rpn-data <- gt_boxes_input-data_2_split_0
I0605 13:34:46.801295  1472 net.cpp:454] rpn-data <- im_info_input-data_1_split_0
I0605 13:34:46.801299  1472 net.cpp:454] rpn-data <- data_input-data_0_split_1
I0605 13:34:46.801304  1472 net.cpp:411] rpn-data -> rpn_labels
I0605 13:34:46.801309  1472 net.cpp:411] rpn-data -> rpn_bbox_targets
I0605 13:34:46.801314  1472 net.cpp:411] rpn-data -> rpn_bbox_inside_weights
I0605 13:34:46.801319  1472 net.cpp:411] rpn-data -> rpn_bbox_outside_weights
===================================anchor_scales in AnchorTargetLayer:=============(2, 4, 8, 16, 32)
I0605 13:34:46.802161  1472 net.cpp:150] Setting up rpn-data
I0605 13:34:46.802170  1472 net.cpp:157] Top shape: 1 1 570 63 (35910)
I0605 13:34:46.802172  1472 net.cpp:157] Top shape: 1 60 38 63 (143640)
I0605 13:34:46.802175  1472 net.cpp:157] Top shape: 1 60 38 63 (143640)
I0605 13:34:46.802177  1472 net.cpp:157] Top shape: 1 60 38 63 (143640)
I0605 13:34:46.802179  1472 net.cpp:165] Memory required for data: 1429955556
I0605 13:34:46.802182  1472 layer_factory.hpp:77] Creating layer rpn_loss_cls
I0605 13:34:46.802187  1472 net.cpp:106] Creating Layer rpn_loss_cls
I0605 13:34:46.802201  1472 net.cpp:454] rpn_loss_cls <- rpn_cls_score_reshape_rpn_cls_score_reshape_0_split_0
I0605 13:34:46.802206  1472 net.cpp:454] rpn_loss_cls <- rpn_labels
…
I0605 13:34:46.803951  1472 net.cpp:157] Top shape: (1)
I0605 13:34:46.803962  1472 net.cpp:160]     with loss weight 1
I0605 13:34:46.803967  1472 net.cpp:165] Memory required for data: 1429955564
I0605 13:34:46.803969  1472 layer_factory.hpp:77] Creating layer rpn_cls_prob
I0605 13:34:46.803985  1472 net.cpp:106] Creating Layer rpn_cls_prob
I0605 13:34:46.803989  1472 net.cpp:454] rpn_cls_prob <- rpn_cls_score_reshape_rpn_cls_score_reshape_0_split_1
I0605 13:34:46.803992  1472 net.cpp:411] rpn_cls_prob -> rpn_cls_prob
I0605 13:34:46.804167  1472 net.cpp:150] Setting up rpn_cls_prob
I0605 13:34:46.804173  1472 net.cpp:157] Top shape: 1 2 570 63 (71820)
I0605 13:34:46.804186  1472 net.cpp:165] Memory required for data: 1430242844
I0605 13:34:46.804188  1472 layer_factory.hpp:77] Creating layer rpn_cls_prob_reshape
I0605 13:34:46.804194  1472 net.cpp:106] Creating Layer rpn_cls_prob_reshape
I0605 13:34:46.804198  1472 net.cpp:454] rpn_cls_prob_reshape <- rpn_cls_prob
I0605 13:34:46.804200  1472 net.cpp:411] rpn_cls_prob_reshape -> rpn_cls_prob_reshape
I0605 13:34:46.804230  1472 net.cpp:150] Setting up rpn_cls_prob_reshape
I0605 13:34:46.804234  1472 net.cpp:157] Top shape: 1 30 38 63 (71820)
I0605 13:34:46.804237  1472 net.cpp:165] Memory required for data: 1430530124
I0605 13:34:46.804239  1472 layer_factory.hpp:77] Creating layer proposal
I0605 13:34:46.820514  1472 net.cpp:106] Creating Layer proposal
I0605 13:34:46.820538  1472 net.cpp:454] proposal <- rpn_cls_prob_reshape
I0605 13:34:46.820544  1472 net.cpp:454] proposal <- rpn_bbox_pred_rpn_bbox_pred_0_split_1
I0605 13:34:46.820546  1472 net.cpp:454] proposal <- im_info_input-data_1_split_1
I0605 13:34:46.820551  1472 net.cpp:411] proposal -> rpn_rois
=================================anchor_scales in ProposalLayer:=============(2, 4, 8, 16, 32)
I0605 13:34:46.821789  1472 net.cpp:150] Setting up proposal
I0605 13:34:46.821808  1472 net.cpp:157] Top shape: 1 5 (5)
I0605 13:34:46.821811  1472 net.cpp:165] Memory required for data: 1430530144
I0605 13:34:46.821815  1472 layer_factory.hpp:77] Creating layer roi-data
I0605 13:34:46.824159  1472 net.cpp:106] Creating Layer roi-data
I0605 13:34:46.824179  1472 net.cpp:454] roi-data <- rpn_rois
I0605 13:34:46.824184  1472 net.cpp:454] roi-data <- gt_boxes_input-data_2_split_1
I0605 13:34:46.824187  1472 net.cpp:454] roi-data <- im_info_input-data_1_split_2
I0605 13:34:46.824190  1472 net.cpp:454] roi-data <- seg_mask_inds
I0605 13:34:46.824204  1472 net.cpp:454] roi-data <- flipped
I0605 13:34:46.824209  1472 net.cpp:411] roi-data -> rois
I0605 13:34:46.824215  1472 net.cpp:411] roi-data -> labels
I0605 13:34:46.824220  1472 net.cpp:411] roi-data -> bbox_targets
I0605 13:34:46.824224  1472 net.cpp:411] roi-data -> bbox_inside_weights
I0605 13:34:46.824229  1472 net.cpp:411] roi-data -> bbox_outside_weights
I0605 13:34:46.824232  1472 net.cpp:411] roi-data -> mask_targets
I0605 13:34:46.824236  1472 net.cpp:411] roi-data -> rois_pos
I0605 13:34:46.824240  1472 net.cpp:411] roi-data -> rois_attribute
I0605 13:34:46.824571  1472 net.cpp:150] Setting up roi-data
I0605 13:34:46.824589  1472 net.cpp:157] Top shape: 1 5 (5)
I0605 13:34:46.824594  1472 net.cpp:157] Top shape: 1 1 (1)
I0605 13:34:46.824595  1472 net.cpp:157] Top shape: 1 8 (8)
I0605 13:34:46.824599  1472 net.cpp:157] Top shape: 1 8 (8)
I0605 13:34:46.824600  1472 net.cpp:157] Top shape: 1 8 (8)
I0605 13:34:46.824604  1472 net.cpp:157] Top shape: 1 244 244 (59536)
I0605 13:34:46.824616  1472 net.cpp:157] Top shape: 1 5 (5)
I0605 13:34:46.824620  1472 net.cpp:157] Top shape: 1 10 (10)
I0605 13:34:46.824623  1472 net.cpp:165] Memory required for data: 1430768468
I0605 13:34:46.824626  1472 layer_factory.hpp:77] Creating layer roi_pool5
I0605 13:34:46.824631  1472 net.cpp:106] Creating Layer roi_pool5
I0605 13:34:46.824641  1472 net.cpp:454] roi_pool5 <- conv5_3_relu5_3_0_split_1
I0605 13:34:46.824645  1472 net.cpp:454] roi_pool5 <- rois
I0605 13:34:46.824649  1472 net.cpp:411] roi_pool5 -> pool5
I0605 13:34:46.824658  1472 roi_alignment_layer.cpp:32] Spatial scale: 0.0625
I0605 13:34:46.824776  1472 net.cpp:150] Setting up roi_pool5
I0605 13:34:46.824781  1472 net.cpp:157] Top shape: 1 512 7 7 (25088)
I0605 13:34:46.824784  1472 net.cpp:165] Memory required for data: 1430868820
I0605 13:34:46.824786  1472 layer_factory.hpp:77] Creating layer fc6
I0605 13:34:46.824802  1472 net.cpp:106] Creating Layer fc6
I0605 13:34:46.824806  1472 net.cpp:454] fc6 <- pool5
I0605 13:34:46.824810  1472 net.cpp:411] fc6 -> fc6
I0605 13:34:46.967146  1472 net.cpp:150] Setting up fc6
I0605 13:34:46.967173  1472 net.cpp:157] Top shape: 1 4096 (4096)
I0605 13:34:46.967177  1472 net.cpp:165] Memory required for data: 1430885204
I0605 13:34:46.967190  1472 layer_factory.hpp:77] Creating layer relu6
I0605 13:34:46.967200  1472 net.cpp:106] Creating Layer relu6
I0605 13:34:46.967213  1472 net.cpp:454] relu6 <- fc6
I0605 13:34:46.967218  1472 net.cpp:397] relu6 -> fc6 (in-place)
I0605 13:34:46.967403  1472 net.cpp:150] Setting up relu6
I0605 13:34:46.967409  1472 net.cpp:157] Top shape: 1 4096 (4096)
I0605 13:34:46.967412  1472 net.cpp:165] Memory required for data: 1430901588
I0605 13:34:46.967414  1472 layer_factory.hpp:77] Creating layer fc7
I0605 13:34:46.967419  1472 net.cpp:106] Creating Layer fc7
I0605 13:34:46.967422  1472 net.cpp:454] fc7 <- fc6
I0605 13:34:46.967427  1472 net.cpp:411] fc7 -> fc7
I0605 13:34:46.991310  1472 net.cpp:150] Setting up fc7
I0605 13:34:46.991345  1472 net.cpp:157] Top shape: 1 4096 (4096)
I0605 13:34:46.991348  1472 net.cpp:165] Memory required for data: 1430917972
I0605 13:34:46.991358  1472 layer_factory.hpp:77] Creating layer relu7
I0605 13:34:46.991365  1472 net.cpp:106] Creating Layer relu7
I0605 13:34:46.991369  1472 net.cpp:454] relu7 <- fc7
I0605 13:34:46.991384  1472 net.cpp:397] relu7 -> fc7 (in-place)
I0605 13:34:46.991571  1472 net.cpp:150] Setting up relu7
I0605 13:34:46.991577  1472 net.cpp:157] Top shape: 1 4096 (4096)
I0605 13:34:46.991590  1472 net.cpp:165] Memory required for data: 1430934356
I0605 13:34:46.991593  1472 layer_factory.hpp:77] Creating layer fc7_relu7_0_split
I0605 13:34:46.991597  1472 net.cpp:106] Creating Layer fc7_relu7_0_split
I0605 13:34:46.991600  1472 net.cpp:454] fc7_relu7_0_split <- fc7
I0605 13:34:46.991603  1472 net.cpp:411] fc7_relu7_0_split -> fc7_relu7_0_split_0
I0605 13:34:46.991623  1472 net.cpp:411] fc7_relu7_0_split -> fc7_relu7_0_split_1
I0605 13:34:46.991660  1472 net.cpp:150] Setting up fc7_relu7_0_split
I0605 13:34:46.991665  1472 net.cpp:157] Top shape: 1 4096 (4096)
I0605 13:34:46.991678  1472 net.cpp:157] Top shape: 1 4096 (4096)
I0605 13:34:46.991681  1472 net.cpp:165] Memory required for data: 1430967124
I0605 13:34:46.991684  1472 layer_factory.hpp:77] Creating layer cls_score
I0605 13:34:46.991689  1472 net.cpp:106] Creating Layer cls_score
I0605 13:34:46.991695  1472 net.cpp:454] cls_score <- fc7_relu7_0_split_0
I0605 13:34:46.991699  1472 net.cpp:411] cls_score -> cls_score
I0605 13:34:46.991945  1472 net.cpp:150] Setting up cls_score
I0605 13:34:46.991950  1472 net.cpp:157] Top shape: 1 2 (2)
I0605 13:34:46.991962  1472 net.cpp:165] Memory required for data: 1430967132
I0605 13:34:46.991966  1472 layer_factory.hpp:77] Creating layer bbox_pred
I0605 13:34:46.991971  1472 net.cpp:106] Creating Layer bbox_pred
I0605 13:34:46.991974  1472 net.cpp:454] bbox_pred <- fc7_relu7_0_split_1
I0605 13:34:46.991988  1472 net.cpp:411] bbox_pred -> bbox_pred
I0605 13:34:46.992848  1472 net.cpp:150] Setting up bbox_pred
I0605 13:34:46.992856  1472 net.cpp:157] Top shape: 1 8 (8)
I0605 13:34:46.992868  1472 net.cpp:165] Memory required for data: 1430967164
I0605 13:34:46.992873  1472 layer_factory.hpp:77] Creating layer loss_cls
I0605 13:34:46.992878  1472 net.cpp:106] Creating Layer loss_cls
I0605 13:34:46.992880  1472 net.cpp:454] loss_cls <- cls_score
I0605 13:34:46.992884  1472 net.cpp:454] loss_cls <- labels
I0605 13:34:46.992899  1472 net.cpp:411] loss_cls -> loss_cls
…
I0605 13:34:46.993990  1472 net.cpp:165] Memory required for data: 1430967172
I0605 13:34:46.993993  1472 layer_factory.hpp:77] Creating layer roi_pool5_2
I0605 13:34:46.993999  1472 net.cpp:106] Creating Layer roi_pool5_2
I0605 13:34:46.994004  1472 net.cpp:454] roi_pool5_2 <- conv5_3_relu5_3_0_split_2
I0605 13:34:46.994006  1472 net.cpp:454] roi_pool5_2 <- rois_pos
I0605 13:34:46.994010  1472 net.cpp:411] roi_pool5_2 -> pool5_2
I0605 13:34:46.994016  1472 roi_alignment_layer.cpp:32] Spatial scale: 0.0625
I0605 13:34:46.994109  1472 net.cpp:150] Setting up roi_pool5_2
I0605 13:34:46.994127  1472 net.cpp:157] Top shape: 1 512 7 7 (25088)
I0605 13:34:46.994132  1472 net.cpp:165] Memory required for data: 1431067524
I0605 13:34:46.994135  1472 layer_factory.hpp:77] Creating layer pool5_2_conv
I0605 13:34:46.994156  1472 net.cpp:106] Creating Layer pool5_2_conv
I0605 13:34:46.994163  1472 net.cpp:454] pool5_2_conv <- pool5_2
I0605 13:34:46.994179  1472 net.cpp:411] pool5_2_conv -> pool5_2_conv
I0605 13:34:47.001098  1472 net.cpp:150] Setting up pool5_2_conv
I0605 13:34:47.001111  1472 net.cpp:157] Top shape: 1 512 7 7 (25088)
I0605 13:34:47.001113  1472 net.cpp:165] Memory required for data: 1431167876
I0605 13:34:47.001119  1472 layer_factory.hpp:77] Creating layer pool5_2_conv_relu
I0605 13:34:47.001127  1472 net.cpp:106] Creating Layer pool5_2_conv_relu
I0605 13:34:47.001132  1472 net.cpp:454] pool5_2_conv_relu <- pool5_2_conv
I0605 13:34:47.001148  1472 net.cpp:411] pool5_2_conv_relu -> pool5_2_conv_relu
I0605 13:34:47.001325  1472 net.cpp:150] Setting up pool5_2_conv_relu
I0605 13:34:47.001332  1472 net.cpp:157] Top shape: 1 512 7 7 (25088)
I0605 13:34:47.001334  1472 net.cpp:165] Memory required for data: 1431268228
I0605 13:34:47.001338  1472 layer_factory.hpp:77] Creating layer pool5_2_conv2
I0605 13:34:47.001351  1472 net.cpp:106] Creating Layer pool5_2_conv2
I0605 13:34:47.001355  1472 net.cpp:454] pool5_2_conv2 <- pool5_2_conv_relu
I0605 13:34:47.001360  1472 net.cpp:411] pool5_2_conv2 -> pool5_2_conv2
I0605 13:34:47.052381  1472 net.cpp:150] Setting up pool5_2_conv2
I0605 13:34:47.052408  1472 net.cpp:157] Top shape: 1 512 7 7 (25088)
I0605 13:34:47.052410  1472 net.cpp:165] Memory required for data: 1431368580
I0605 13:34:47.052419  1472 layer_factory.hpp:77] Creating layer pool5_2_conv2_relu
I0605 13:34:47.052428  1472 net.cpp:106] Creating Layer pool5_2_conv2_relu
I0605 13:34:47.052443  1472 net.cpp:454] pool5_2_conv2_relu <- pool5_2_conv2
I0605 13:34:47.052448  1472 net.cpp:411] pool5_2_conv2_relu -> pool5_2_conv2_relu
I0605 13:34:47.052600  1472 net.cpp:150] Setting up pool5_2_conv2_relu
I0605 13:34:47.052606  1472 net.cpp:157] Top shape: 1 512 7 7 (25088)
I0605 13:34:47.052620  1472 net.cpp:165] Memory required for data: 1431468932
I0605 13:34:47.052623  1472 layer_factory.hpp:77] Creating layer mask_deconv1
I0605 13:34:47.052629  1472 net.cpp:106] Creating Layer mask_deconv1
I0605 13:34:47.052633  1472 net.cpp:454] mask_deconv1 <- pool5_2_conv2_relu
I0605 13:34:47.052646  1472 net.cpp:411] mask_deconv1 -> mask_deconv1
I0605 13:34:47.053500  1472 net.cpp:150] Setting up mask_deconv1
I0605 13:34:47.053508  1472 net.cpp:157] Top shape: 1 256 30 30 (230400)
I0605 13:34:47.053509  1472 net.cpp:165] Memory required for data: 1432390532
I0605 13:34:47.053514  1472 layer_factory.hpp:77] Creating layer pool5_2_conv3
I0605 13:34:47.053532  1472 net.cpp:106] Creating Layer pool5_2_conv3
I0605 13:34:47.053537  1472 net.cpp:454] pool5_2_conv3 <- mask_deconv1
I0605 13:34:47.053542  1472 net.cpp:411] pool5_2_conv3 -> pool5_2_conv3
I0605 13:34:47.079270  1472 net.cpp:150] Setting up pool5_2_conv3
I0605 13:34:47.079288  1472 net.cpp:157] Top shape: 1 512 30 30 (460800)
I0605 13:34:47.079290  1472 net.cpp:165] Memory required for data: 1434233732
I0605 13:34:47.079298  1472 layer_factory.hpp:77] Creating layer pool5_2_conv3_relu
I0605 13:34:47.079304  1472 net.cpp:106] Creating Layer pool5_2_conv3_relu
I0605 13:34:47.079319  1472 net.cpp:454] pool5_2_conv3_relu <- pool5_2_conv3
I0605 13:34:47.079324  1472 net.cpp:411] pool5_2_conv3_relu -> pool5_2_conv3_relu
I0605 13:34:47.079484  1472 net.cpp:150] Setting up pool5_2_conv3_relu
I0605 13:34:47.079490  1472 net.cpp:157] Top shape: 1 512 30 30 (460800)
I0605 13:34:47.079493  1472 net.cpp:165] Memory required for data: 1436076932
I0605 13:34:47.079495  1472 layer_factory.hpp:77] Creating layer pool5_2_conv4
I0605 13:34:47.079502  1472 net.cpp:106] Creating Layer pool5_2_conv4
I0605 13:34:47.079505  1472 net.cpp:454] pool5_2_conv4 <- pool5_2_conv3_relu
I0605 13:34:47.079520  1472 net.cpp:411] pool5_2_conv4 -> pool5_2_conv4
I0605 13:34:47.130282  1472 net.cpp:150] Setting up pool5_2_conv4
I0605 13:34:47.130300  1472 net.cpp:157] Top shape: 1 512 30 30 (460800)
I0605 13:34:47.130301  1472 net.cpp:165] Memory required for data: 1437920132
I0605 13:34:47.130319  1472 layer_factory.hpp:77] Creating layer pool5_2_conv4_relu
I0605 13:34:47.130337  1472 net.cpp:106] Creating Layer pool5_2_conv4_relu
I0605 13:34:47.130342  1472 net.cpp:454] pool5_2_conv4_relu <- pool5_2_conv4
I0605 13:34:47.130358  1472 net.cpp:411] pool5_2_conv4_relu -> pool5_2_conv4_relu
I0605 13:34:47.130508  1472 net.cpp:150] Setting up pool5_2_conv4_relu
I0605 13:34:47.130514  1472 net.cpp:157] Top shape: 1 512 30 30 (460800)
I0605 13:34:47.130517  1472 net.cpp:165] Memory required for data: 1439763332
I0605 13:34:47.130519  1472 layer_factory.hpp:77] Creating layer pool5_2_conv4_relu_pool5_2_conv4_relu_0_split
I0605 13:34:47.130537  1472 net.cpp:106] Creating Layer pool5_2_conv4_relu_pool5_2_conv4_relu_0_split
I0605 13:34:47.130539  1472 net.cpp:454] pool5_2_conv4_relu_pool5_2_conv4_relu_0_split <- pool5_2_conv4_relu
…
I0605 13:34:47.130563  1472 net.cpp:411] pool5_2_conv4_relu_pool5_2_conv4_relu_0_split -> pool5_2_conv4_relu_pool5_2_conv4_relu_0_split_4
I0605 13:34:47.130566  1472 net.cpp:411] pool5_2_conv4_relu_pool5_2_conv4_relu_0_split -> pool5_2_conv4_relu_pool5_2_conv4_relu_0_split_5
I0605 13:34:47.130570  1472 net.cpp:411] pool5_2_conv4_relu_pool5_2_conv4_relu_0_split -> pool5_2_conv4_relu_pool5_2_conv4_relu_0_split_6
I0605 13:34:47.130573  1472 net.cpp:411] pool5_2_conv4_relu_pool5_2_conv4_relu_0_split -> pool5_2_conv4_relu_pool5_2_conv4_relu_0_split_7
I0605 13:34:47.130647  1472 net.cpp:150] Setting up pool5_2_conv4_relu_pool5_2_conv4_relu_0_split
I0605 13:34:47.130652  1472 net.cpp:157] Top shape: 1 512 30 30 (460800)
I0605 13:34:47.130656  1472 net.cpp:157] Top shape: 1 512 30 30 (460800)
I0605 13:34:47.130658  1472 net.cpp:157] Top shape: 1 512 30 30 (460800)
I0605 13:34:47.130661  1472 net.cpp:157] Top shape: 1 512 30 30 (460800)
I0605 13:34:47.130663  1472 net.cpp:157] Top shape: 1 512 30 30 (460800)
I0605 13:34:47.130666  1472 net.cpp:157] Top shape: 1 512 30 30 (460800)
I0605 13:34:47.130669  1472 net.cpp:157] Top shape: 1 512 30 30 (460800)
I0605 13:34:47.130672  1472 net.cpp:157] Top shape: 1 512 30 30 (460800)
I0605 13:34:47.130674  1472 net.cpp:165] Memory required for data: 1454508932
I0605 13:34:47.130676  1472 layer_factory.hpp:77] Creating layer query_conv
I0605 13:34:47.130686  1472 net.cpp:106] Creating Layer query_conv
I0605 13:34:47.130689  1472 net.cpp:454] query_conv <- pool5_2_conv4_relu_pool5_2_conv4_relu_0_split_0
I0605 13:34:47.130695  1472 net.cpp:411] query_conv -> query_conv
I0605 13:34:47.132299  1472 net.cpp:150] Setting up query_conv
I0605 13:34:47.132308  1472 net.cpp:157] Top shape: 1 64 30 30 (57600)
I0605 13:34:47.132310  1472 net.cpp:165] Memory required for data: 1454739332
I0605 13:34:47.132326  1472 layer_factory.hpp:77] Creating layer key_conv
I0605 13:34:47.132335  1472 net.cpp:106] Creating Layer key_conv
I0605 13:34:47.132339  1472 net.cpp:454] key_conv <- pool5_2_conv4_relu_pool5_2_conv4_relu_0_split_1
I0605 13:34:47.132344  1472 net.cpp:411] key_conv -> key_conv
I0605 13:34:47.133955  1472 net.cpp:150] Setting up key_conv
I0605 13:34:47.133962  1472 net.cpp:157] Top shape: 1 64 30 30 (57600)
I0605 13:34:47.133976  1472 net.cpp:165] Memory required for data: 1454969732
I0605 13:34:47.133981  1472 layer_factory.hpp:77] Creating layer value_conv
I0605 13:34:47.133999  1472 net.cpp:106] Creating Layer value_conv
I0605 13:34:47.134003  1472 net.cpp:454] value_conv <- pool5_2_conv4_relu_pool5_2_conv4_relu_0_split_2
I0605 13:34:47.134009  1472 net.cpp:411] value_conv -> value_conv
I0605 13:34:47.140611  1472 net.cpp:150] Setting up value_conv
I0605 13:34:47.140630  1472 net.cpp:157] Top shape: 1 512 30 30 (460800)
I0605 13:34:47.140632  1472 net.cpp:165] Memory required for data: 1456812932
I0605 13:34:47.140638  1472 layer_factory.hpp:77] Creating layer query_conv_reshape
I0605 13:34:47.140655  1472 net.cpp:106] Creating Layer query_conv_reshape
I0605 13:34:47.140658  1472 net.cpp:454] query_conv_reshape <- query_conv
I0605 13:34:47.140664  1472 net.cpp:411] query_conv_reshape -> query_conv_reshape
I0605 13:34:47.140686  1472 net.cpp:150] Setting up query_conv_reshape
I0605 13:34:47.140700  1472 net.cpp:157] Top shape: 1 64 900 1 (57600)
I0605 13:34:47.140702  1472 net.cpp:165] Memory required for data: 1457043332
I0605 13:34:47.140705  1472 layer_factory.hpp:77] Creating layer key_conv_reshape
I0605 13:34:47.140722  1472 net.cpp:106] Creating Layer key_conv_reshape
I0605 13:34:47.140724  1472 net.cpp:454] key_conv_reshape <- key_conv
I0605 13:34:47.140727  1472 net.cpp:411] key_conv_reshape -> key_conv_reshape
I0605 13:34:47.140763  1472 net.cpp:150] Setting up key_conv_reshape
I0605 13:34:47.140777  1472 net.cpp:157] Top shape: 1 64 900 1 (57600)
I0605 13:34:47.140779  1472 net.cpp:165] Memory required for data: 1457273732
I0605 13:34:47.140781  1472 layer_factory.hpp:77] Creating layer value_conv_reshape
I0605 13:34:47.140785  1472 net.cpp:106] Creating Layer value_conv_reshape
I0605 13:34:47.140797  1472 net.cpp:454] value_conv_reshape <- value_conv
I0605 13:34:47.140800  1472 net.cpp:411] value_conv_reshape -> value_conv_reshape
I0605 13:34:47.140815  1472 net.cpp:150] Setting up value_conv_reshape
I0605 13:34:47.140820  1472 net.cpp:157] Top shape: 1 512 900 1 (460800)
I0605 13:34:47.140831  1472 net.cpp:165] Memory required for data: 1459116932
I0605 13:34:47.140833  1472 layer_factory.hpp:77] Creating layer query_conv_reshape_perm
I0605 13:34:47.140838  1472 net.cpp:106] Creating Layer query_conv_reshape_perm
I0605 13:34:47.140849  1472 net.cpp:454] query_conv_reshape_perm <- query_conv_reshape
I0605 13:34:47.140853  1472 net.cpp:411] query_conv_reshape_perm -> query_conv_reshape_perm
I0605 13:34:47.140929  1472 net.cpp:150] Setting up query_conv_reshape_perm
I0605 13:34:47.140934  1472 net.cpp:157] Top shape: 1 1 900 64 (57600)
I0605 13:34:47.140938  1472 net.cpp:165] Memory required for data: 1459347332
I0605 13:34:47.140949  1472 layer_factory.hpp:77] Creating layer key_conv_reshape_perm
I0605 13:34:47.140954  1472 net.cpp:106] Creating Layer key_conv_reshape_perm
I0605 13:34:47.140956  1472 net.cpp:454] key_conv_reshape_perm <- key_conv_reshape
I0605 13:34:47.140959  1472 net.cpp:411] key_conv_reshape_perm -> key_conv_reshape_perm
I0605 13:34:47.141023  1472 net.cpp:150] Setting up key_conv_reshape_perm
I0605 13:34:47.141027  1472 net.cpp:157] Top shape: 1 1 64 900 (57600)
I0605 13:34:47.141029  1472 net.cpp:165] Memory required for data: 1459577732
I0605 13:34:47.141033  1472 layer_factory.hpp:77] Creating layer energy
I0605 13:34:47.141038  1472 net.cpp:106] Creating Layer energy
I0605 13:34:47.141042  1472 net.cpp:454] energy <- query_conv_reshape_perm
I0605 13:34:47.141047  1472 net.cpp:454] energy <- key_conv_reshape_perm
I0605 13:34:47.141050  1472 net.cpp:411] energy -> energy
I0605 13:34:47.141067  1472 net.cpp:150] Setting up energy
I0605 13:34:47.141072  1472 net.cpp:157] Top shape: 1 1 900 900 (810000)
I0605 13:34:47.141073  1472 net.cpp:165] Memory required for data: 1462817732
I0605 13:34:47.141077  1472 layer_factory.hpp:77] Creating layer attention
I0605 13:34:47.141080  1472 net.cpp:106] Creating Layer attention
I0605 13:34:47.141083  1472 net.cpp:454] attention <- energy
I0605 13:34:47.141088  1472 net.cpp:411] attention -> attention
I0605 13:34:47.141252  1472 net.cpp:150] Setting up attention
I0605 13:34:47.141258  1472 net.cpp:157] Top shape: 1 1 900 900 (810000)
I0605 13:34:47.141261  1472 net.cpp:165] Memory required for data: 1466057732
I0605 13:34:47.141264  1472 layer_factory.hpp:77] Creating layer value_conv_reshape_perm
I0605 13:34:47.141268  1472 net.cpp:106] Creating Layer value_conv_reshape_perm
I0605 13:34:47.141273  1472 net.cpp:454] value_conv_reshape_perm <- value_conv_reshape
I0605 13:34:47.141278  1472 net.cpp:411] value_conv_reshape_perm -> value_conv_reshape_perm
I0605 13:34:47.141348  1472 net.cpp:150] Setting up value_conv_reshape_perm
I0605 13:34:47.141352  1472 net.cpp:157] Top shape: 1 1 512 900 (460800)
I0605 13:34:47.141355  1472 net.cpp:165] Memory required for data: 1467900932
I0605 13:34:47.141357  1472 layer_factory.hpp:77] Creating layer attention_perm
I0605 13:34:47.141362  1472 net.cpp:106] Creating Layer attention_perm
I0605 13:34:47.141366  1472 net.cpp:454] attention_perm <- attention
I0605 13:34:47.141369  1472 net.cpp:411] attention_perm -> attention_perm
I0605 13:34:47.141450  1472 net.cpp:150] Setting up attention_perm
I0605 13:34:47.141455  1472 net.cpp:157] Top shape: 1 1 900 900 (810000)
I0605 13:34:47.141458  1472 net.cpp:165] Memory required for data: 1471140932
I0605 13:34:47.141460  1472 layer_factory.hpp:77] Creating layer out
I0605 13:34:47.141465  1472 net.cpp:106] Creating Layer out
I0605 13:34:47.141469  1472 net.cpp:454] out <- value_conv_reshape_perm
I0605 13:34:47.141472  1472 net.cpp:454] out <- attention_perm
I0605 13:34:47.141476  1472 net.cpp:411] out -> out
I0605 13:34:47.141494  1472 net.cpp:150] Setting up out
I0605 13:34:47.141497  1472 net.cpp:157] Top shape: 1 1 512 900 (460800)
I0605 13:34:47.141499  1472 net.cpp:165] Memory required for data: 1472984132
I0605 13:34:47.141502  1472 layer_factory.hpp:77] Creating layer out_reshape
I0605 13:34:47.141506  1472 net.cpp:106] Creating Layer out_reshape
I0605 13:34:47.141508  1472 net.cpp:454] out_reshape <- out
I0605 13:34:47.141512  1472 net.cpp:411] out_reshape -> out_reshape
I0605 13:34:47.141530  1472 net.cpp:150] Setting up out_reshape
I0605 13:34:47.141535  1472 net.cpp:157] Top shape: 1 512 30 30 (460800)
I0605 13:34:47.141537  1472 net.cpp:165] Memory required for data: 1474827332
I0605 13:34:47.141541  1472 layer_factory.hpp:77] Creating layer out_reshape_scale
I0605 13:34:47.141546  1472 net.cpp:106] Creating Layer out_reshape_scale
I0605 13:34:47.141551  1472 net.cpp:454] out_reshape_scale <- out_reshape
I0605 13:34:47.141554  1472 net.cpp:411] out_reshape_scale -> out_reshape_scale
I0605 13:34:47.141618  1472 net.cpp:150] Setting up out_reshape_scale
I0605 13:34:47.141621  1472 net.cpp:157] Top shape: 1 512 30 30 (460800)
I0605 13:34:47.141623  1472 net.cpp:165] Memory required for data: 1476670532
I0605 13:34:47.141629  1472 layer_factory.hpp:77] Creating layer out_x
I0605 13:34:47.141636  1472 net.cpp:106] Creating Layer out_x
I0605 13:34:47.141639  1472 net.cpp:454] out_x <- out_reshape_scale
I0605 13:34:47.141643  1472 net.cpp:454] out_x <- pool5_2_conv4_relu_pool5_2_conv4_relu_0_split_3
I0605 13:34:47.141647  1472 net.cpp:411] out_x -> out_x
I0605 13:34:47.141667  1472 net.cpp:150] Setting up out_x
I0605 13:34:47.141671  1472 net.cpp:157] Top shape: 1 512 30 30 (460800)
I0605 13:34:47.141674  1472 net.cpp:165] Memory required for data: 1478513732
I0605 13:34:47.141676  1472 layer_factory.hpp:77] Creating layer query_conv_reshape_ch
I0605 13:34:47.141681  1472 net.cpp:106] Creating Layer query_conv_reshape_ch
I0605 13:34:47.141686  1472 net.cpp:454] query_conv_reshape_ch <- pool5_2_conv4_relu_pool5_2_conv4_relu_0_split_4
I0605 13:34:47.141690  1472 net.cpp:411] query_conv_reshape_ch -> query_conv_reshape_ch
I0605 13:34:47.141707  1472 net.cpp:150] Setting up query_conv_reshape_ch
I0605 13:34:47.141711  1472 net.cpp:157] Top shape: 1 512 900 1 (460800)
I0605 13:34:47.141713  1472 net.cpp:165] Memory required for data: 1480356932
I0605 13:34:47.141716  1472 layer_factory.hpp:77] Creating layer key_conv_reshape_ch
I0605 13:34:47.141721  1472 net.cpp:106] Creating Layer key_conv_reshape_ch
I0605 13:34:47.141723  1472 net.cpp:454] key_conv_reshape_ch <- pool5_2_conv4_relu_pool5_2_conv4_relu_0_split_5
I0605 13:34:47.141729  1472 net.cpp:411] key_conv_reshape_ch -> key_conv_reshape_ch
I0605 13:34:47.141746  1472 net.cpp:150] Setting up key_conv_reshape_ch
I0605 13:34:47.141750  1472 net.cpp:157] Top shape: 1 512 900 1 (460800)
I0605 13:34:47.141753  1472 net.cpp:165] Memory required for data: 1482200132
I0605 13:34:47.141755  1472 layer_factory.hpp:77] Creating layer value_conv_reshape_ch
I0605 13:34:47.141760  1472 net.cpp:106] Creating Layer value_conv_reshape_ch
I0605 13:34:47.141763  1472 net.cpp:454] value_conv_reshape_ch <- pool5_2_conv4_relu_pool5_2_conv4_relu_0_split_6
I0605 13:34:47.141767  1472 net.cpp:411] value_conv_reshape_ch -> value_conv_reshape_ch
I0605 13:34:47.141783  1472 net.cpp:150] Setting up value_conv_reshape_ch
I0605 13:34:47.141788  1472 net.cpp:157] Top shape: 1 512 900 1 (460800)
I0605 13:34:47.141789  1472 net.cpp:165] Memory required for data: 1484043332
I0605 13:34:47.141793  1472 layer_factory.hpp:77] Creating layer query_conv_reshape_perm_ch
I0605 13:34:47.141798  1472 net.cpp:106] Creating Layer query_conv_reshape_perm_ch
I0605 13:34:47.141799  1472 net.cpp:454] query_conv_reshape_perm_ch <- query_conv_reshape_ch
I0605 13:34:47.141803  1472 net.cpp:411] query_conv_reshape_perm_ch -> query_conv_reshape_perm_ch
I0605 13:34:47.141865  1472 net.cpp:150] Setting up query_conv_reshape_perm_ch
I0605 13:34:47.141870  1472 net.cpp:157] Top shape: 1 1 512 900 (460800)
I0605 13:34:47.141872  1472 net.cpp:165] Memory required for data: 1485886532
I0605 13:34:47.141877  1472 layer_factory.hpp:77] Creating layer key_conv_reshape_perm_ch
I0605 13:34:47.141881  1472 net.cpp:106] Creating Layer key_conv_reshape_perm_ch
I0605 13:34:47.141883  1472 net.cpp:454] key_conv_reshape_perm_ch <- key_conv_reshape_ch
I0605 13:34:47.141888  1472 net.cpp:411] key_conv_reshape_perm_ch -> key_conv_reshape_perm_ch
I0605 13:34:47.141949  1472 net.cpp:150] Setting up key_conv_reshape_perm_ch
I0605 13:34:47.141954  1472 net.cpp:157] Top shape: 1 1 900 512 (460800)
I0605 13:34:47.141957  1472 net.cpp:165] Memory required for data: 1487729732
I0605 13:34:47.141961  1472 layer_factory.hpp:77] Creating layer energy_ch
I0605 13:34:47.141965  1472 net.cpp:106] Creating Layer energy_ch
I0605 13:34:47.141970  1472 net.cpp:454] energy_ch <- query_conv_reshape_perm_ch
I0605 13:34:47.141973  1472 net.cpp:454] energy_ch <- key_conv_reshape_perm_ch
I0605 13:34:47.141978  1472 net.cpp:411] energy_ch -> energy_ch
I0605 13:34:47.141993  1472 net.cpp:150] Setting up energy_ch
I0605 13:34:47.141996  1472 net.cpp:157] Top shape: 1 1 512 512 (262144)
I0605 13:34:47.141999  1472 net.cpp:165] Memory required for data: 1488778308
I0605 13:34:47.142004  1472 layer_factory.hpp:77] Creating layer energy_ch_energy_ch_0_split
I0605 13:34:47.142007  1472 net.cpp:106] Creating Layer energy_ch_energy_ch_0_split
I0605 13:34:47.142011  1472 net.cpp:454] energy_ch_energy_ch_0_split <- energy_ch
I0605 13:34:47.142015  1472 net.cpp:411] energy_ch_energy_ch_0_split -> energy_ch_energy_ch_0_split_0
I0605 13:34:47.142020  1472 net.cpp:411] energy_ch_energy_ch_0_split -> energy_ch_energy_ch_0_split_1
I0605 13:34:47.142042  1472 net.cpp:150] Setting up energy_ch_energy_ch_0_split
I0605 13:34:47.142047  1472 net.cpp:157] Top shape: 1 1 512 512 (262144)
I0605 13:34:47.142051  1472 net.cpp:157] Top shape: 1 1 512 512 (262144)
I0605 13:34:47.142053  1472 net.cpp:165] Memory required for data: 1490875460
I0605 13:34:47.142057  1472 layer_factory.hpp:77] Creating layer energy_ch_pool
I0605 13:34:47.142062  1472 net.cpp:106] Creating Layer energy_ch_pool
I0605 13:34:47.142066  1472 net.cpp:454] energy_ch_pool <- energy_ch_energy_ch_0_split_0
I0605 13:34:47.142071  1472 net.cpp:411] energy_ch_pool -> energy_ch_pool
I0605 13:34:47.142096  1472 net.cpp:150] Setting up energy_ch_pool
I0605 13:34:47.142102  1472 net.cpp:157] Top shape: 1 1 512 1 (512)
I0605 13:34:47.142103  1472 net.cpp:165] Memory required for data: 1490877508
I0605 13:34:47.142107  1472 layer_factory.hpp:77] Creating layer energy_ch_max
I0605 13:34:47.142112  1472 net.cpp:106] Creating Layer energy_ch_max
I0605 13:34:47.142117  1472 net.cpp:454] energy_ch_max <- energy_ch_pool
I0605 13:34:47.142120  1472 net.cpp:411] energy_ch_max -> energy_ch_max
I0605 13:34:47.142139  1472 net.cpp:150] Setting up energy_ch_max
I0605 13:34:47.142144  1472 net.cpp:157] Top shape: 1 1 512 512 (262144)
I0605 13:34:47.142146  1472 net.cpp:165] Memory required for data: 1491926084
I0605 13:34:47.142151  1472 layer_factory.hpp:77] Creating layer energy_ch_minus
I0605 13:34:47.142155  1472 net.cpp:106] Creating Layer energy_ch_minus
I0605 13:34:47.142159  1472 net.cpp:454] energy_ch_minus <- energy_ch_energy_ch_0_split_1
I0605 13:34:47.142163  1472 net.cpp:411] energy_ch_minus -> energy_ch_minus
I0605 13:34:47.142179  1472 net.cpp:150] Setting up energy_ch_minus
I0605 13:34:47.142184  1472 net.cpp:157] Top shape: 1 1 512 512 (262144)
I0605 13:34:47.142185  1472 net.cpp:165] Memory required for data: 1492974660
I0605 13:34:47.142189  1472 layer_factory.hpp:77] Creating layer energy_new
I0605 13:34:47.142194  1472 net.cpp:106] Creating Layer energy_new
I0605 13:34:47.142199  1472 net.cpp:454] energy_new <- energy_ch_max
I0605 13:34:47.142202  1472 net.cpp:454] energy_new <- energy_ch_minus
I0605 13:34:47.142207  1472 net.cpp:411] energy_new -> energy_new
I0605 13:34:47.142223  1472 net.cpp:150] Setting up energy_new
I0605 13:34:47.142227  1472 net.cpp:157] Top shape: 1 1 512 512 (262144)
I0605 13:34:47.142230  1472 net.cpp:165] Memory required for data: 1494023236
I0605 13:34:47.142232  1472 layer_factory.hpp:77] Creating layer attention_ch
I0605 13:34:47.142238  1472 net.cpp:106] Creating Layer attention_ch
I0605 13:34:47.142241  1472 net.cpp:454] attention_ch <- energy_new
I0605 13:34:47.142244  1472 net.cpp:411] attention_ch -> attention_ch
I0605 13:34:47.142788  1472 net.cpp:150] Setting up attention_ch
I0605 13:34:47.142796  1472 net.cpp:157] Top shape: 1 1 512 512 (262144)
I0605 13:34:47.142801  1472 net.cpp:165] Memory required for data: 1495071812
I0605 13:34:47.142803  1472 layer_factory.hpp:77] Creating layer value_conv_reshape_ch_perm
I0605 13:34:47.142808  1472 net.cpp:106] Creating Layer value_conv_reshape_ch_perm
I0605 13:34:47.142812  1472 net.cpp:454] value_conv_reshape_ch_perm <- value_conv_reshape_ch
I0605 13:34:47.142817  1472 net.cpp:411] value_conv_reshape_ch_perm -> value_conv_reshape_ch_perm
I0605 13:34:47.142889  1472 net.cpp:150] Setting up value_conv_reshape_ch_perm
I0605 13:34:47.142892  1472 net.cpp:157] Top shape: 1 1 512 900 (460800)
I0605 13:34:47.142895  1472 net.cpp:165] Memory required for data: 1496915012
I0605 13:34:47.142897  1472 layer_factory.hpp:77] Creating layer attention_ch_perm
I0605 13:34:47.142902  1472 net.cpp:106] Creating Layer attention_ch_perm
I0605 13:34:47.142905  1472 net.cpp:454] attention_ch_perm <- attention_ch
I0605 13:34:47.142910  1472 net.cpp:411] attention_ch_perm -> attention_ch_perm
I0605 13:34:47.142976  1472 net.cpp:150] Setting up attention_ch_perm
I0605 13:34:47.142979  1472 net.cpp:157] Top shape: 1 1 512 512 (262144)
I0605 13:34:47.142982  1472 net.cpp:165] Memory required for data: 1497963588
I0605 13:34:47.142984  1472 layer_factory.hpp:77] Creating layer out_ch
I0605 13:34:47.142990  1472 net.cpp:106] Creating Layer out_ch
I0605 13:34:47.142995  1472 net.cpp:454] out_ch <- attention_ch_perm
I0605 13:34:47.142998  1472 net.cpp:454] out_ch <- value_conv_reshape_ch_perm
I0605 13:34:47.143002  1472 net.cpp:411] out_ch -> out_ch
I0605 13:34:47.143018  1472 net.cpp:150] Setting up out_ch
I0605 13:34:47.143023  1472 net.cpp:157] Top shape: 1 1 512 900 (460800)
I0605 13:34:47.143024  1472 net.cpp:165] Memory required for data: 1499806788
I0605 13:34:47.143028  1472 layer_factory.hpp:77] Creating layer out_ch_reshape
I0605 13:34:47.143033  1472 net.cpp:106] Creating Layer out_ch_reshape
I0605 13:34:47.143036  1472 net.cpp:454] out_ch_reshape <- out_ch
I0605 13:34:47.143040  1472 net.cpp:411] out_ch_reshape -> out_ch_reshape
I0605 13:34:47.143059  1472 net.cpp:150] Setting up out_ch_reshape
I0605 13:34:47.143064  1472 net.cpp:157] Top shape: 1 512 30 30 (460800)
I0605 13:34:47.143065  1472 net.cpp:165] Memory required for data: 1501649988
I0605 13:34:47.143069  1472 layer_factory.hpp:77] Creating layer out_ch_reshape_scale
I0605 13:34:47.143072  1472 net.cpp:106] Creating Layer out_ch_reshape_scale
I0605 13:34:47.143075  1472 net.cpp:454] out_ch_reshape_scale <- out_ch_reshape
I0605 13:34:47.143080  1472 net.cpp:411] out_ch_reshape_scale -> out_ch_reshape_scale
I0605 13:34:47.143139  1472 net.cpp:150] Setting up out_ch_reshape_scale
I0605 13:34:47.143143  1472 net.cpp:157] Top shape: 1 512 30 30 (460800)
I0605 13:34:47.143146  1472 net.cpp:165] Memory required for data: 1503493188
I0605 13:34:47.143149  1472 net.cpp:514] Sharing parameters 'scale_conv1_1' owned by layer 'out_reshape_scale', param index 0
I0605 13:34:47.143153  1472 layer_factory.hpp:77] Creating layer out_ch_x
I0605 13:34:47.143157  1472 net.cpp:106] Creating Layer out_ch_x
I0605 13:34:47.143162  1472 net.cpp:454] out_ch_x <- out_ch_reshape_scale
I0605 13:34:47.143164  1472 net.cpp:454] out_ch_x <- pool5_2_conv4_relu_pool5_2_conv4_relu_0_split_7
I0605 13:34:47.143168  1472 net.cpp:411] out_ch_x -> out_ch_x
I0605 13:34:47.143187  1472 net.cpp:150] Setting up out_ch_x
I0605 13:34:47.143190  1472 net.cpp:157] Top shape: 1 512 30 30 (460800)
I0605 13:34:47.143193  1472 net.cpp:165] Memory required for data: 1505336388
I0605 13:34:47.143195  1472 layer_factory.hpp:77] Creating layer out_conv_ch_x
I0605 13:34:47.143203  1472 net.cpp:106] Creating Layer out_conv_ch_x
I0605 13:34:47.143208  1472 net.cpp:454] out_conv_ch_x <- out_ch_x
I0605 13:34:47.143213  1472 net.cpp:411] out_conv_ch_x -> out_conv_ch_x
I0605 13:34:47.149034  1472 net.cpp:150] Setting up out_conv_ch_x
I0605 13:34:47.149042  1472 net.cpp:157] Top shape: 1 512 30 30 (460800)
I0605 13:34:47.149045  1472 net.cpp:165] Memory required for data: 1507179588
I0605 13:34:47.149050  1472 layer_factory.hpp:77] Creating layer out_conv_x
I0605 13:34:47.149058  1472 net.cpp:106] Creating Layer out_conv_x
I0605 13:34:47.149062  1472 net.cpp:454] out_conv_x <- out_x
I0605 13:34:47.149067  1472 net.cpp:411] out_conv_x -> out_conv_x
I0605 13:34:47.155771  1472 net.cpp:150] Setting up out_conv_x
I0605 13:34:47.155792  1472 net.cpp:157] Top shape: 1 512 30 30 (460800)
I0605 13:34:47.155795  1472 net.cpp:165] Memory required for data: 1509022788
I0605 13:34:47.155802  1472 layer_factory.hpp:77] Creating layer out_x_sum
I0605 13:34:47.155807  1472 net.cpp:106] Creating Layer out_x_sum
I0605 13:34:47.155810  1472 net.cpp:454] out_x_sum <- out_conv_x
I0605 13:34:47.155825  1472 net.cpp:454] out_x_sum <- out_conv_ch_x
I0605 13:34:47.155829  1472 net.cpp:411] out_x_sum -> out_x_sum
I0605 13:34:47.155860  1472 net.cpp:150] Setting up out_x_sum
I0605 13:34:47.155865  1472 net.cpp:157] Top shape: 1 512 30 30 (460800)
I0605 13:34:47.155867  1472 net.cpp:165] Memory required for data: 1510865988
I0605 13:34:47.155879  1472 layer_factory.hpp:77] Creating layer mask_deconv2
I0605 13:34:47.155886  1472 net.cpp:106] Creating Layer mask_deconv2
I0605 13:34:47.155891  1472 net.cpp:454] mask_deconv2 <- out_x_sum
I0605 13:34:47.155895  1472 net.cpp:411] mask_deconv2 -> mask_deconv2
I0605 13:34:47.156689  1472 net.cpp:150] Setting up mask_deconv2
I0605 13:34:47.156694  1472 net.cpp:157] Top shape: 1 256 122 122 (3810304)
I0605 13:34:47.156697  1472 net.cpp:165] Memory required for data: 1526107204
I0605 13:34:47.156700  1472 layer_factory.hpp:77] Creating layer pool5_2_conv5
I0605 13:34:47.156723  1472 net.cpp:106] Creating Layer pool5_2_conv5
I0605 13:34:47.156725  1472 net.cpp:454] pool5_2_conv5 <- mask_deconv2
I0605 13:34:47.156729  1472 net.cpp:411] pool5_2_conv5 -> pool5_2_conv5
I0605 13:34:47.182734  1472 net.cpp:150] Setting up pool5_2_conv5
I0605 13:34:47.182751  1472 net.cpp:157] Top shape: 1 512 122 122 (7620608)
I0605 13:34:47.182754  1472 net.cpp:165] Memory required for data: 1556589636
I0605 13:34:47.182770  1472 layer_factory.hpp:77] Creating layer pool5_2_conv5_relu
I0605 13:34:47.182790  1472 net.cpp:106] Creating Layer pool5_2_conv5_relu
I0605 13:34:47.182795  1472 net.cpp:454] pool5_2_conv5_relu <- pool5_2_conv5
I0605 13:34:47.182799  1472 net.cpp:411] pool5_2_conv5_relu -> pool5_2_conv5_relu
I0605 13:34:47.182952  1472 net.cpp:150] Setting up pool5_2_conv5_relu
I0605 13:34:47.182960  1472 net.cpp:157] Top shape: 1 512 122 122 (7620608)
I0605 13:34:47.182961  1472 net.cpp:165] Memory required for data: 1587072068
I0605 13:34:47.182965  1472 layer_factory.hpp:77] Creating layer pool5_2_conv6
I0605 13:34:47.182972  1472 net.cpp:106] Creating Layer pool5_2_conv6
I0605 13:34:47.182976  1472 net.cpp:454] pool5_2_conv6 <- pool5_2_conv5_relu
I0605 13:34:47.182991  1472 net.cpp:411] pool5_2_conv6 -> pool5_2_conv6
I0605 13:34:47.233554  1472 net.cpp:150] Setting up pool5_2_conv6
I0605 13:34:47.233572  1472 net.cpp:157] Top shape: 1 512 122 122 (7620608)
I0605 13:34:47.233574  1472 net.cpp:165] Memory required for data: 1617554500
I0605 13:34:47.233582  1472 layer_factory.hpp:77] Creating layer pool5_2_conv6_relu
I0605 13:34:47.233598  1472 net.cpp:106] Creating Layer pool5_2_conv6_relu
I0605 13:34:47.233603  1472 net.cpp:454] pool5_2_conv6_relu <- pool5_2_conv6
I0605 13:34:47.233609  1472 net.cpp:411] pool5_2_conv6_relu -> pool5_2_conv6_relu
I0605 13:34:47.234125  1472 net.cpp:150] Setting up pool5_2_conv6_relu
I0605 13:34:47.234133  1472 net.cpp:157] Top shape: 1 512 122 122 (7620608)
I0605 13:34:47.234135  1472 net.cpp:165] Memory required for data: 1648036932
I0605 13:34:47.234138  1472 layer_factory.hpp:77] Creating layer mask_deconv3
I0605 13:34:47.234145  1472 net.cpp:106] Creating Layer mask_deconv3
I0605 13:34:47.234148  1472 net.cpp:454] mask_deconv3 <- pool5_2_conv6_relu
I0605 13:34:47.234163  1472 net.cpp:411] mask_deconv3 -> mask_deconv3
I0605 13:34:47.234526  1472 net.cpp:150] Setting up mask_deconv3
I0605 13:34:47.234532  1472 net.cpp:157] Top shape: 1 256 244 244 (15241216)
I0605 13:34:47.234534  1472 net.cpp:165] Memory required for data: 1709001796
I0605 13:34:47.234539  1472 layer_factory.hpp:77] Creating layer mask_score
I0605 13:34:47.234544  1472 net.cpp:106] Creating Layer mask_score
I0605 13:34:47.234547  1472 net.cpp:454] mask_score <- mask_deconv3
I0605 13:34:47.234562  1472 net.cpp:411] mask_score -> mask_score
I0605 13:34:47.235550  1472 net.cpp:150] Setting up mask_score
I0605 13:34:47.235559  1472 net.cpp:157] Top shape: 1 8 244 244 (476288)
I0605 13:34:47.235561  1472 net.cpp:165] Memory required for data: 1710906948
I0605 13:34:47.235566  1472 layer_factory.hpp:77] Creating layer loss_mask
I0605 13:34:47.235572  1472 net.cpp:106] Creating Layer loss_mask
I0605 13:34:47.235575  1472 net.cpp:454] loss_mask <- mask_score
I0605 13:34:47.235579  1472 net.cpp:454] loss_mask <- mask_targets
I0605 13:34:47.235584  1472 net.cpp:411] loss_mask -> loss_mask
…
