…
average_loss: 100
iter_size: 2
I0625 18:43:40.110746 27285 solver.cpp:81] Creating training net from train_net file: models/pascal_voc/VGG16/faster_rcnn_end2end/train.prototxt
I0625 18:43:40.112143 27285 net.cpp:49] Initializing net from parameters: 
name: "VGG_ILSVRC_16_layers"
state {
  phase: TRAIN
}
layer {
  name: "input-data"
  type: "Python"
  top: "data"
  top: "im_info"
  top: "gt_boxes"
  top: "seg_mask_inds"
  top: "flipped"
  python_param {
    module: "roi_data_layer.layer"
    layer: "RoIDataLayer"
    param_str: "\'num_classes\': 2"
  }
}
layer {
  name: "conv1_1"
  type: "Convolution"
  bottom: "data"
  top: "conv1_1"
  param {
    lr_mult: 0
    decay_mult: 0
  }
  param {
    lr_mult: 0
    decay_mult: 0
  }
  convolution_param {
    num_output: 64
    pad: 1
    kernel_size: 3
  }
}
layer {
  name: "relu1_1"
  type: "ReLU"
  bottom: "conv1_1"
  top: "conv1_1"
}
layer {
  name: "conv1_2"
  type: "Convolution"
  bottom: "conv1_1"
  top: "conv1_2"
  param {
    lr_mult: 0
    decay_mult: 0
  }
  param {
    lr_mult: 0
    decay_mult: 0
  }
  convolution_param {
    num_output: 64
    pad: 1
    kernel_size: 3
  }
}
layer {
  name: "relu1_2"
  type: "ReLU"
  bottom: "conv1_2"
  top: "conv1_2"
}
layer {
  name: "pool1"
  type: "Pooling"
  bottom: "conv1_2"
  top: "pool1"
  pooling_param {
    pool: MAX
    kernel_size: 2
    stride: 2
  }
}
layer {
  name: "conv2_1"
  type: "Convolution"
  bottom: "pool1"
  top: "conv2_1"
  param {
    lr_mult: 0
    decay_mult: 0
  }
  param {
    lr_mult: 0
    decay_mult: 0
  }
  convolution_param {
    num_output: 128
    pad: 1
    kernel_size: 3
  }
}
layer {
  name: "relu2_1"
  type: "ReLU"
  bottom: "conv2_1"
  top: "conv2_1"
}
layer {
  name: "conv2_2"
  type: "Convolution"
  bottom: "conv2_1"
  top: "conv2_2"
  param {
    lr_mult: 0
    decay_mult: 0
  }
  param {
    lr_mult: 0
    decay_mult: 0
  }
  convolution_param {
    num_output: 128
    pad: 1
    kernel_size: 3
  }
}
layer {
  name: "relu2_2"
  type: "ReLU"
  bottom: "conv2_2"
  top: "conv2_2"
}
layer {
  name: "pool2"
  type: "Pooling"
  bottom: "conv2_2"
  top: "pool2"
  pooling_param {
    pool: MAX
    kernel_size: 2
    stride: 2
  }
}
layer {
  name: "conv3_1"
  type: "Convolution"
  bottom: "pool2"
  top: "conv3_1"
  param {
    lr_mult: 1
  }
  param {
    lr_mult: 2
  }
  convolution_param {
    num_output: 256
    pad: 1
    kernel_size: 3
  }
}
layer {
  name: "relu3_1"
  type: "ReLU"
  bottom: "conv3_1"
  top: "conv3_1"
}
layer {
  name: "conv3_2"
  type: "Convolution"
  bottom: "conv3_1"
  top: "conv3_2"
  param {
    lr_mult: 1
  }
  param {
    lr_mult: 2
  }
  convolution_param {
    num_output: 256
    pad: 1
    kernel_size: 3
  }
}
layer {
  name: "relu3_2"
  type: "ReLU"
  bottom: "conv3_2"
  top: "conv3_2"
}
layer {
  name: "conv3_3"
  type: "Convolution"
  bottom: "conv3_2"
  top: "conv3_3"
  param {
    lr_mult: 1
  }
  param {
    lr_mult: 2
  }
  convolution_param {
    num_output: 256
    pad: 1
    kernel_size: 3
  }
}
layer {
  name: "relu3_3"
  type: "ReLU"
  bottom: "conv3_3"
  top: "conv3_3"
}
layer {
  name: "pool3"
  type: "Pooling"
  bottom: "conv3_3"
  top: "pool3"
  pooling_param {
    pool: MAX
    kernel_size: 2
    stride: 2
  }
}
layer {
  name: "conv4_1"
  type: "Convolution"
  bottom: "pool3"
  top: "conv4_1"
  param {
    lr_mult: 1
  }
  param {
    lr_mult: 2
  }
  convolution_param {
    num_output: 512
    pad: 1
    kernel_size: 3
  }
}
layer {
  name: "relu4_1"
  type: "ReLU"
  bottom: "conv4_1"
  top: "conv4_1"
}
layer {
  name: "conv4_2"
  type: "Convolution"
  bottom: "conv4_1"
  top: "conv4_2"
  param {
    lr_mult: 1
  }
  param {
    lr_mult: 2
  }
  convolution_param {
    num_output: 512
    pad: 1
    kernel_size: 3
  }
}
layer {
  name: "relu4_2"
  type: "ReLU"
  bottom: "conv4_2"
  top: "conv4_2"
}
layer {
  name: "conv4_3"
  type: "Convolution"
  bottom: "conv4_2"
  top: "conv4_3"
  param {
    lr_mult: 1
  }
  param {
    lr_mult: 2
  }
  convolution_param {
    num_output: 512
    pad: 1
    kernel_size: 3
  }
}
layer {
  name: "relu4_3"
  type: "ReLU"
  bottom: "conv4_3"
  top: "conv4_3"
}
layer {
  name: "pool4"
  type: "Pooling"
  bottom: "conv4_3"
  top: "pool4"
  pooling_param {
    pool: MAX
    kernel_size: 2
    stride: 2
  }
}
layer {
  name: "conv5_1"
  type: "Convolution"
  bottom: "pool4"
  top: "conv5_1"
  param {
    lr_mult: 1
  }
  param {
    lr_mult: 2
  }
  convolution_param {
    num_output: 512
    pad: 1
    kernel_size: 3
  }
}
layer {
  name: "relu5_1"
  type: "ReLU"
  bottom: "conv5_1"
  top: "conv5_1"
}
layer {
  name: "conv5_2"
  type: "Convolution"
  bottom: "conv5_1"
  top: "conv5_2"
  param {
    lr_mult: 1
  }
  param {
    lr_mult: 2
  }
  convolution_param {
    num_output: 512
    pad: 1
    kernel_size: 3
  }
}
layer {
  name: "relu5_2"
  type: "ReLU"
  bottom: "conv5_2"
  top: "conv5_2"
}
layer {
  name: "conv5_3"
  type: "Convolution"
  bottom: "conv5_2"
  top: "conv5_3"
  param {
    lr_mult: 1
  }
  param {
    lr_mult: 2
  }
  convolution_param {
    num_output: 512
    pad: 1
    kernel_size: 3
  }
}
layer {
  name: "relu5_3"
  type: "ReLU"
  bottom: "conv5_3"
  top: "conv5_3"
}
layer {
  name: "rpn_conv/3x3"
  type: "Convolution"
  bottom: "conv5_3"
  top: "rpn/output"
  param {
    lr_mult: 1
  }
  param {
    lr_mult: 2
  }
  convolution_param {
    num_output: 512
    pad: 1
    kernel_size: 3
    stride: 1
    weight_filler {
      type: "gaussian"
      std: 0.01
    }
    bias_filler {
      type: "constant"
      value: 0
    }
  }
}
layer {
  name: "rpn_relu/3x3"
  type: "ReLU"
  bottom: "rpn/output"
  top: "rpn/output"
}
layer {
  name: "rpn_cls_score"
  type: "Convolution"
  bottom: "rpn/output"
  top: "rpn_cls_score"
  param {
    lr_mult: 1
  }
  param {
    lr_mult: 2
  }
  convolution_param {
    num_output: 30
    pad: 0
    kernel_size: 1
    stride: 1
    weight_filler {
      type: "gaussian"
      std: 0.01
    }
    bias_filler {
      type: "constant"
      value: 0
    }
  }
}
layer {
  name: "rpn_bbox_pred"
  type: "Convolution"
  bottom: "rpn/output"
  top: "rpn_bbox_pred"
  param {
    lr_mult: 1
  }
  param {
    lr_mult: 2
  }
  convolution_param {
    num_output: 60
    pad: 0
    kernel_size: 1
    stride: 1
    weight_filler {
      type: "gaussian"
      std: 0.01
    }
    bias_filler {
      type: "constant"
      value: 0
    }
  }
}
layer {
  name: "rpn_cls_score_reshape"
  type: "Reshape"
  bottom: "rpn_cls_score"
  top: "rpn_cls_score_reshape"
  reshape_param {
    shape {
      dim: 0
      dim: 2
      dim: -1
      dim: 0
    }
  }
}
layer {
  name: "rpn-data"
  type: "Python"
  bottom: "rpn_cls_score"
  bottom: "gt_boxes"
  bottom: "im_info"
  bottom: "data"
  top: "rpn_labels"
  top: "rpn_bbox_targets"
  top: "rpn_bbox_inside_weights"
  top: "rpn_bbox_outside_weights"
  python_param {
    module: "rpn.anchor_target_layer"
    layer: "AnchorTargetLayer"
    param_str: "\'feat_stride\': 16 \n\'scales\': !!python/tuple [2, 4, 8, 16, 32]"
  }
}
layer {
  name: "rpn_loss_cls"
  type: "SoftmaxWithLoss"
  bottom: "rpn_cls_score_reshape"
  bottom: "rpn_labels"
  top: "rpn_cls_loss"
  loss_weight: 1
  propagate_down: true
  propagate_down: false
  loss_param {
    ignore_label: -1
    normalize: true
  }
}
layer {
  name: "rpn_loss_bbox"
  type: "SmoothL1Loss"
  bottom: "rpn_bbox_pred"
  bottom: "rpn_bbox_targets"
  bottom: "rpn_bbox_inside_weights"
  bottom: "rpn_bbox_outside_weights"
  top: "rpn_loss_bbox"
  loss_weight: 1
  smooth_l1_loss_param {
    sigma: 3
  }
}
layer {
  name: "rpn_cls_prob"
  type: "Softmax"
  bottom: "rpn_cls_score_reshape"
  top: "rpn_cls_prob"
}
layer {
  name: "rpn_cls_prob_reshape"
  type: "Reshape"
  bottom: "rpn_cls_prob"
  top: "rpn_cls_prob_reshape"
  reshape_param {
    shape {
      dim: 0
      dim: 30
      dim: -1
      dim: 0
    }
  }
}
layer {
  name: "proposal"
  type: "Python"
  bottom: "rpn_cls_prob_reshape"
  bottom: "rpn_bbox_pred"
  bottom: "im_info"
  top: "rpn_rois"
  python_param {
    module: "rpn.proposal_layer"
    layer: "ProposalLayer"
    param_str: "\'feat_stride\': 16 \n\'scales\': !!python/tuple [2, 4, 8, 16, 32]"
  }
}
layer {
  name: "roi-data"
  type: "Python"
  bottom: "rpn_rois"
  bottom: "gt_boxes"
  bottom: "im_info"
  bottom: "seg_mask_inds"
  bottom: "flipped"
  top: "rois"
  top: "labels"
  top: "bbox_targets"
  top: "bbox_inside_weights"
  top: "bbox_outside_weights"
  top: "mask_targets"
  top: "rois_pos"
  top: "attrArray"
  top: "attrArrayInd"
  top: "attrArrayShift"
  python_param {
    module: "rpn.proposal_target_layer"
    layer: "ProposalTargetLayer"
    param_str: "\'num_classes\': 2"
  }
}
layer {
  name: "roi_pool5"
  type: "ROIAlignment"
  bottom: "conv5_3"
  bottom: "rois"
  top: "pool5"
  roi_alignment_param {
    pooled_h: 7
    pooled_w: 7
    spatial_scale: 0.0625
  }
}
layer {
  name: "fc6"
  type: "InnerProduct"
  bottom: "pool5"
  top: "fc6"
  param {
    lr_mult: 1
  }
  param {
    lr_mult: 2
  }
  inner_product_param {
    num_output: 4096
  }
}
layer {
  name: "relu6"
  type: "ReLU"
  bottom: "fc6"
  top: "fc6"
}
layer {
  name: "fc7"
  type: "InnerProduct"
  bottom: "fc6"
  top: "fc7"
  param {
    lr_mult: 1
  }
  param {
    lr_mult: 2
  }
  inner_product_param {
    num_output: 4096
  }
}
layer {
  name: "relu7"
  type: "ReLU"
  bottom: "fc7"
  top: "fc7"
}
layer {
  name: "attr_score"
  type: "InnerProduct"
  bottom: "fc7"
  top: "attr_score"
  param {
    lr_mult: 1
  }
  param {
    lr_mult: 2
  }
  inner_product_param {
    num_output: 7
    weight_filler {
      type: "gaussian"
      std: 0.001
    }
    bias_filler {
      type: "constant"
      value: 0
    }
  }
}
layer {
  name: "attr_score_pos"
  type: "Eltwise"
  bottom: "attr_score"
  bottom: "attrArrayInd"
  top: "attr_score_pos"
  eltwise_param {
    operation: PROD
  }
}
layer {
  name: "attr_score_pos_shift"
  type: "Eltwise"
  bottom: "attr_score_pos"
  bottom: "attrArrayShift"
  top: "attr_score_pos_shift"
  eltwise_param {
    operation: SUM
  }
}
layer {
  name: "cls_score"
  type: "InnerProduct"
  bottom: "fc7"
  top: "cls_score"
  param {
    lr_mult: 1
  }
  param {
    lr_mult: 2
  }
  inner_product_param {
    num_output: 2
    weight_filler {
      type: "gaussian"
      std: 0.01
    }
    bias_filler {
      type: "constant"
      value: 0
    }
  }
}
layer {
  name: "bbox_pred"
  type: "InnerProduct"
  bottom: "fc7"
  top: "bbox_pred"
  param {
    lr_mult: 1
  }
  param {
    lr_mult: 2
  }
  inner_product_param {
    num_output: 8
    weight_filler {
      type: "gaussian"
      std: 0.001
    }
    bias_filler {
      type: "constant"
      value: 0
    }
  }
}
layer {
  name: "loss_attribute"
  type: "SigmoidCrossEntropyLoss"
  bottom: "attr_score_pos_shift"
  bottom: "attrArray"
  top: "loss_attribute"
  loss_weight: 1
  propagate_down: true
  propagate_down: false
}
layer {
  name: "loss_cls"
  type: "SoftmaxWithLoss"
  bottom: "cls_score"
  bottom: "labels"
  top: "loss_cls"
  loss_weight: 3
  propagate_down: true
  propagate_down: false
}
layer {
  name: "loss_bbox"
  type: "SmoothL1Loss"
  bottom: "bbox_pred"
  bottom: "bbox_targets"
  bottom: "bbox_inside_weights"
  bottom: "bbox_outside_weights"
  top: "loss_bbox"
  loss_weight: 2
}
layer {
  name: "roi_pool5_2"
  type: "ROIAlignment"
  bottom: "conv5_3"
  bottom: "rois_pos"
  top: "pool5_2"
  roi_alignment_param {
    pooled_h: 7
    pooled_w: 7
    spatial_scale: 0.0625
  }
}
layer {
  name: "pool5_2_conv"
  type: "Convolution"
  bottom: "pool5_2"
  top: "pool5_2_conv"
  param {
    lr_mult: 1
    decay_mult: 1
  }
  param {
    lr_mult: 2
    decay_mult: 0
  }
  convolution_param {
    num_output: 512
    pad: 0
    kernel_size: 1
    weight_filler {
      type: "gaussian"
      std: 0.01
    }
    bias_filler {
      type: "constant"
      value: 0
    }
  }
}
layer {
  name: "pool5_2_conv_relu"
  type: "ReLU"
  bottom: "pool5_2_conv"
  top: "pool5_2_conv_relu"
}
layer {
  name: "pool5_2_conv2"
  type: "Convolution"
  bottom: "pool5_2_conv_relu"
  top: "pool5_2_conv2"
  param {
    lr_mult: 1
    decay_mult: 1
  }
  param {
    lr_mult: 2
    decay_mult: 0
  }
  convolution_param {
    num_output: 512
    pad: 1
    kernel_size: 3
    stride: 1
    weight_filler {
      type: "gaussian"
      std: 0.01
    }
    bias_filler {
      type: "constant"
      value: 0
    }
  }
}
layer {
  name: "pool5_2_conv2_relu"
  type: "ReLU"
  bottom: "pool5_2_conv2"
  top: "pool5_2_conv2_relu"
}
layer {
  name: "mask_deconv1"
  type: "Deconvolution"
  bottom: "pool5_2_conv2_relu"
  top: "mask_deconv1"
  param {
    lr_mult: 1
    decay_mult: 1
  }
  param {
    lr_mult: 2
    decay_mult: 0
  }
  convolution_param {
    num_output: 256
    pad: 1
    kernel_size: 8
    group: 256
    stride: 4
    weight_filler {
      type: "bilinear"
    }
  }
}
layer {
  name: "pool5_2_conv3"
  type: "Convolution"
  bottom: "mask_deconv1"
  top: "pool5_2_conv3"
  param {
    lr_mult: 1
    decay_mult: 1
  }
  param {
    lr_mult: 2
    decay_mult: 0
  }
  convolution_param {
    num_output: 512
    pad: 1
    kernel_size: 3
    stride: 1
    weight_filler {
      type: "gaussian"
      std: 0.01
    }
    bias_filler {
      type: "constant"
      value: 0
    }
  }
}
layer {
  name: "pool5_2_conv3_relu"
  type: "ReLU"
  bottom: "pool5_2_conv3"
  top: "pool5_2_conv3_relu"
}
layer {
  name: "pool5_2_conv4"
  type: "Convolution"
  bottom: "pool5_2_conv3_relu"
  top: "pool5_2_conv4"
  param {
    lr_mult: 1
    decay_mult: 1
  }
  param {
    lr_mult: 2
    decay_mult: 0
  }
  convolution_param {
    num_output: 512
    pad: 1
    kernel_size: 3
    stride: 1
    weight_filler {
      type: "gaussian"
      std: 0.01
    }
    bias_filler {
      type: "constant"
      value: 0
    }
  }
}
layer {
  name: "pool5_2_conv4_relu"
  type: "ReLU"
  bottom: "pool5_2_conv4"
  top: "pool5_2_conv4_relu"
}
layer {
  name: "query_conv"
  type: "Convolution"
  bottom: "pool5_2_conv4_relu"
  top: "query_conv"
  param {
    lr_mult: 1
    decay_mult: 1
  }
  param {
    lr_mult: 2
    decay_mult: 0
  }
  convolution_param {
    num_output: 64
    pad: 0
    kernel_size: 1
    stride: 1
    weight_filler {
      type: "gaussian"
      std: 0.01
    }
    bias_filler {
      type: "constant"
      value: 0
    }
  }
}
layer {
  name: "key_conv"
  type: "Convolution"
  bottom: "pool5_2_conv4_relu"
  top: "key_conv"
  param {
    lr_mult: 1
    decay_mult: 1
  }
  param {
    lr_mult: 2
    decay_mult: 0
  }
  convolution_param {
    num_output: 64
    pad: 0
    kernel_size: 1
    stride: 1
    weight_filler {
      type: "gaussian"
      std: 0.01
    }
    bias_filler {
      type: "constant"
      value: 0
    }
  }
}
layer {
  name: "value_conv"
  type: "Convolution"
  bottom: "pool5_2_conv4_relu"
  top: "value_conv"
  param {
    lr_mult: 1
    decay_mult: 1
  }
  param {
    lr_mult: 2
    decay_mult: 0
  }
  convolution_param {
    num_output: 512
    pad: 0
    kernel_size: 1
    stride: 1
    weight_filler {
      type: "gaussian"
      std: 0.01
    }
    bias_filler {
      type: "constant"
      value: 0
    }
  }
}
layer {
  name: "query_conv_reshape"
  type: "Reshape"
  bottom: "query_conv"
  top: "query_conv_reshape"
  reshape_param {
    shape {
      dim: -1
      dim: 64
      dim: 900
      dim: 1
    }
  }
}
layer {
  name: "key_conv_reshape"
  type: "Reshape"
  bottom: "key_conv"
  top: "key_conv_reshape"
  reshape_param {
    shape {
      dim: -1
      dim: 64
      dim: 900
      dim: 1
    }
  }
}
layer {
  name: "value_conv_reshape"
  type: "Reshape"
  bottom: "value_conv"
  top: "value_conv_reshape"
  reshape_param {
    shape {
      dim: -1
      dim: 512
      dim: 900
      dim: 1
    }
  }
}
layer {
  name: "query_conv_reshape_perm"
  type: "Permute"
  bottom: "query_conv_reshape"
  top: "query_conv_reshape_perm"
  permute_param {
    order: 0
    order: 3
    order: 2
    order: 1
  }
}
layer {
  name: "key_conv_reshape_perm"
  type: "Permute"
  bottom: "key_conv_reshape"
  top: "key_conv_reshape_perm"
  permute_param {
    order: 0
    order: 3
    order: 1
    order: 2
  }
}
layer {
  name: "energy"
  type: "MatrixMultiplication"
  bottom: "query_conv_reshape_perm"
  bottom: "key_conv_reshape_perm"
  top: "energy"
}
layer {
  name: "attention"
  type: "Softmax"
  bottom: "energy"
  top: "attention"
  softmax_param {
    axis: 3
  }
}
layer {
  name: "value_conv_reshape_perm"
  type: "Permute"
  bottom: "value_conv_reshape"
  top: "value_conv_reshape_perm"
  permute_param {
    order: 0
    order: 3
    order: 1
    order: 2
  }
}
layer {
  name: "attention_perm"
  type: "Permute"
  bottom: "attention"
  top: "attention_perm"
  permute_param {
    order: 0
    order: 1
    order: 2
    order: 3
  }
}
layer {
  name: "out"
  type: "MatrixMultiplication"
  bottom: "value_conv_reshape_perm"
  bottom: "attention_perm"
  top: "out"
}
layer {
  name: "out_reshape"
  type: "Reshape"
  bottom: "out"
  top: "out_reshape"
  reshape_param {
    shape {
      dim: -1
      dim: 512
      dim: 30
      dim: 30
    }
  }
}
layer {
  name: "out_reshape_scale"
  type: "Scale"
  bottom: "out_reshape"
  top: "out_reshape_scale"
  param {
    name: "scale_conv1_1"
    lr_mult: 1
  }
  scale_param {
    bias_term: false
  }
}
layer {
  name: "out_x"
  type: "Eltwise"
  bottom: "out_reshape_scale"
  bottom: "pool5_2_conv4_relu"
  top: "out_x"
  eltwise_param {
    operation: SUM
  }
}
layer {
  name: "mask_deconv2"
  type: "Deconvolution"
  bottom: "out_x"
  top: "mask_deconv2"
  param {
    lr_mult: 1
    decay_mult: 1
  }
  param {
    lr_mult: 2
    decay_mult: 0
  }
  convolution_param {
    num_output: 256
    pad: 1
    kernel_size: 8
    group: 256
    stride: 4
    weight_filler {
      type: "bilinear"
    }
  }
}
layer {
  name: "pool5_2_conv5"
  type: "Convolution"
  bottom: "mask_deconv2"
  top: "pool5_2_conv5"
  param {
    lr_mult: 1
    decay_mult: 1
  }
  param {
    lr_mult: 2
    decay_mult: 0
  }
  convolution_param {
    num_output: 512
    pad: 1
    kernel_size: 3
    stride: 1
    weight_filler {
      type: "gaussian"
      std: 0.01
    }
    bias_filler {
      type: "constant"
      value: 0
    }
  }
}
layer {
  name: "pool5_2_conv5_relu"
  type: "ReLU"
  bottom: "pool5_2_conv5"
  top: "pool5_2_conv5_relu"
}
layer {
  name: "pool5_2_conv6"
  type: "Convolution"
  bottom: "pool5_2_conv5_relu"
  top: "pool5_2_conv6"
  param {
    lr_mult: 1
    decay_mult: 1
  }
  param {
    lr_mult: 2
    decay_mult: 0
  }
  convolution_param {
    num_output: 512
    pad: 1
    kernel_size: 3
    stride: 1
    weight_filler {
      type: "gaussian"
      std: 0.01
    }
    bias_filler {
      type: "constant"
      value: 0
    }
  }
}
layer {
  name: "pool5_2_conv6_relu"
  type: "ReLU"
  bottom: "pool5_2_conv6"
  top: "pool5_2_conv6_relu"
}
layer {
  name: "mask_deconv3"
  type: "Deconvolution"
  bottom: "pool5_2_conv6_relu"
  top: "mask_deconv3"
  param {
    lr_mult: 1
    decay_mult: 1
  }
  param {
    lr_mult: 2
    decay_mult: 0
  }
  convolution_param {
    num_output: 256
    pad: 1
    kernel_size: 4
    group: 256
    stride: 2
    weight_filler {
      type: "bilinear"
    }
  }
}
layer {
  name: "mask_score"
  type: "Convolution"
  bottom: "mask_deconv3"
  top: "mask_score"
  param {
    lr_mult: 1
    decay_mult: 1
  }
  param {
    lr_mult: 2
    decay_mult: 0
  }
  convolution_param {
    num_output: 8
    pad: 0
    kernel_size: 1
    weight_filler {
      type: "gaussian"
      std: 0.01
    }
    bias_filler {
      type: "constant"
      value: 0
    }
  }
}
layer {
  name: "prob"
  type: "Softmax"
  bottom: "mask_score"
  top: "mask_score_softmax"
  softmax_param {
    axis: 1
  }
}
layer {
  name: "log"
  type: "Log"
  bottom: "mask_score_softmax"
  top: "log"
}
layer {
  name: "mult1"
  type: "Eltwise"
  bottom: "log"
  bottom: "mask_targets"
  top: "mult1"
  eltwise_param {
    operation: PROD
  }
}
layer {
  name: "cross_entropy"
  type: "Power"
  bottom: "mult1"
  top: "cross_entropy"
  power_param {
    power: 1
    scale: -1
    shift: 0
  }
}
layer {
  name: "ce_sum"
  type: "Convolution"
  bottom: "cross_entropy"
  top: "cross_entropy_sum"
  param {
    lr_mult: 0
    decay_mult: 0
  }
  convolution_param {
    num_output: 1
    bias_term: false
    kernel_size: 1
    weight_filler {
      type: "constant"
      value: 1
    }
  }
}
layer {
  name: "ce_mean"
  type: "Reduction"
  bottom: "cross_entropy_sum"
  top: "cross_entropy_mean"
  loss_weight: 1
  reduction_param {
    operation: MEAN
    axis: 0
  }
}
I0625 18:43:40.112524 27285 layer_factory.hpp:77] Creating layer input-data
I0625 18:43:40.124794 27285 net.cpp:106] Creating Layer input-data
I0625 18:43:40.124819 27285 net.cpp:411] input-data -> data
I0625 18:43:40.124825 27285 net.cpp:411] input-data -> im_info
I0625 18:43:40.124840 27285 net.cpp:411] input-data -> gt_boxes
I0625 18:43:40.124845 27285 net.cpp:411] input-data -> seg_mask_inds
I0625 18:43:40.124847 27285 net.cpp:411] input-data -> flipped
RoiDataLayer: name_to_top: {'gt_boxes': 2, 'data': 0, 'seg_mask_inds': 3, 'im_info': 1, 'flipped': 4}
I0625 18:43:40.135468 27285 net.cpp:150] Setting up input-data
I0625 18:43:40.135491 27285 net.cpp:157] Top shape: 1 3 600 1000 (1800000)
I0625 18:43:40.135504 27285 net.cpp:157] Top shape: 1 3 (3)
I0625 18:43:40.135505 27285 net.cpp:157] Top shape: 1 4 (4)
I0625 18:43:40.135507 27285 net.cpp:157] Top shape: 1 2 (2)
I0625 18:43:40.135509 27285 net.cpp:157] Top shape: 1 1 (1)
I0625 18:43:40.135520 27285 net.cpp:165] Memory required for data: 7200040
I0625 18:43:40.135525 27285 layer_factory.hpp:77] Creating layer data_input-data_0_split
I0625 18:43:40.135546 27285 net.cpp:106] Creating Layer data_input-data_0_split
I0625 18:43:40.135550 27285 net.cpp:454] data_input-data_0_split <- data
I0625 18:43:40.135553 27285 net.cpp:411] data_input-data_0_split -> data_input-data_0_split_0
I0625 18:43:40.135560 27285 net.cpp:411] data_input-data_0_split -> data_input-data_0_split_1
I0625 18:43:40.135588 27285 net.cpp:150] Setting up data_input-data_0_split
I0625 18:43:40.135602 27285 net.cpp:157] Top shape: 1 3 600 1000 (1800000)
I0625 18:43:40.135604 27285 net.cpp:157] Top shape: 1 3 600 1000 (1800000)
I0625 18:43:40.135605 27285 net.cpp:165] Memory required for data: 21600040
I0625 18:43:40.135607 27285 layer_factory.hpp:77] Creating layer im_info_input-data_1_split
I0625 18:43:40.135619 27285 net.cpp:106] Creating Layer im_info_input-data_1_split
I0625 18:43:40.135622 27285 net.cpp:454] im_info_input-data_1_split <- im_info
I0625 18:43:40.135624 27285 net.cpp:411] im_info_input-data_1_split -> im_info_input-data_1_split_0
I0625 18:43:40.135627 27285 net.cpp:411] im_info_input-data_1_split -> im_info_input-data_1_split_1
I0625 18:43:40.135641 27285 net.cpp:411] im_info_input-data_1_split -> im_info_input-data_1_split_2
I0625 18:43:40.135685 27285 net.cpp:150] Setting up im_info_input-data_1_split
I0625 18:43:40.135697 27285 net.cpp:157] Top shape: 1 3 (3)
I0625 18:43:40.135700 27285 net.cpp:157] Top shape: 1 3 (3)
I0625 18:43:40.135701 27285 net.cpp:157] Top shape: 1 3 (3)
I0625 18:43:40.135704 27285 net.cpp:165] Memory required for data: 21600076
I0625 18:43:40.135704 27285 layer_factory.hpp:77] Creating layer gt_boxes_input-data_2_split
I0625 18:43:40.135718 27285 net.cpp:106] Creating Layer gt_boxes_input-data_2_split
I0625 18:43:40.135720 27285 net.cpp:454] gt_boxes_input-data_2_split <- gt_boxes
I0625 18:43:40.135722 27285 net.cpp:411] gt_boxes_input-data_2_split -> gt_boxes_input-data_2_split_0
I0625 18:43:40.135725 27285 net.cpp:411] gt_boxes_input-data_2_split -> gt_boxes_input-data_2_split_1
I0625 18:43:40.135762 27285 net.cpp:150] Setting up gt_boxes_input-data_2_split
I0625 18:43:40.135766 27285 net.cpp:157] Top shape: 1 4 (4)
I0625 18:43:40.135776 27285 net.cpp:157] Top shape: 1 4 (4)
I0625 18:43:40.135777 27285 net.cpp:165] Memory required for data: 21600108
I0625 18:43:40.135779 27285 layer_factory.hpp:77] Creating layer conv1_1
I0625 18:43:40.135797 27285 net.cpp:106] Creating Layer conv1_1
I0625 18:43:40.135798 27285 net.cpp:454] conv1_1 <- data_input-data_0_split_0
I0625 18:43:40.135800 27285 net.cpp:411] conv1_1 -> conv1_1
I0625 18:43:40.297423 27285 net.cpp:150] Setting up conv1_1
I0625 18:43:40.297442 27285 net.cpp:157] Top shape: 1 64 600 1000 (38400000)
I0625 18:43:40.297444 27285 net.cpp:165] Memory required for data: 175200108
I0625 18:43:40.297456 27285 layer_factory.hpp:77] Creating layer relu1_1
I0625 18:43:40.297473 27285 net.cpp:106] Creating Layer relu1_1
I0625 18:43:40.297477 27285 net.cpp:454] relu1_1 <- conv1_1
I0625 18:43:40.297480 27285 net.cpp:397] relu1_1 -> conv1_1 (in-place)
I0625 18:43:40.297616 27285 net.cpp:150] Setting up relu1_1
I0625 18:43:40.297621 27285 net.cpp:157] Top shape: 1 64 600 1000 (38400000)
I0625 18:43:40.297622 27285 net.cpp:165] Memory required for data: 328800108
I0625 18:43:40.297624 27285 layer_factory.hpp:77] Creating layer conv1_2
I0625 18:43:40.297631 27285 net.cpp:106] Creating Layer conv1_2
I0625 18:43:40.297632 27285 net.cpp:454] conv1_2 <- conv1_1
I0625 18:43:40.297636 27285 net.cpp:411] conv1_2 -> conv1_2
I0625 18:43:40.299736 27285 net.cpp:150] Setting up conv1_2
I0625 18:43:40.299758 27285 net.cpp:157] Top shape: 1 64 600 1000 (38400000)
I0625 18:43:40.299760 27285 net.cpp:165] Memory required for data: 482400108
I0625 18:43:40.299775 27285 layer_factory.hpp:77] Creating layer relu1_2
I0625 18:43:40.299780 27285 net.cpp:106] Creating Layer relu1_2
I0625 18:43:40.299794 27285 net.cpp:454] relu1_2 <- conv1_2
I0625 18:43:40.299798 27285 net.cpp:397] relu1_2 -> conv1_2 (in-place)
I0625 18:43:40.299916 27285 net.cpp:150] Setting up relu1_2
I0625 18:43:40.299922 27285 net.cpp:157] Top shape: 1 64 600 1000 (38400000)
I0625 18:43:40.299923 27285 net.cpp:165] Memory required for data: 636000108
I0625 18:43:40.299926 27285 layer_factory.hpp:77] Creating layer pool1
I0625 18:43:40.299932 27285 net.cpp:106] Creating Layer pool1
I0625 18:43:40.299932 27285 net.cpp:454] pool1 <- conv1_2
I0625 18:43:40.299935 27285 net.cpp:411] pool1 -> pool1
I0625 18:43:40.299998 27285 net.cpp:150] Setting up pool1
I0625 18:43:40.300002 27285 net.cpp:157] Top shape: 1 64 300 500 (9600000)
I0625 18:43:40.300004 27285 net.cpp:165] Memory required for data: 674400108
I0625 18:43:40.300015 27285 layer_factory.hpp:77] Creating layer conv2_1
I0625 18:43:40.300020 27285 net.cpp:106] Creating Layer conv2_1
I0625 18:43:40.300022 27285 net.cpp:454] conv2_1 <- pool1
I0625 18:43:40.300035 27285 net.cpp:411] conv2_1 -> conv2_1
I0625 18:43:40.301780 27285 net.cpp:150] Setting up conv2_1
I0625 18:43:40.301789 27285 net.cpp:157] Top shape: 1 128 300 500 (19200000)
I0625 18:43:40.301791 27285 net.cpp:165] Memory required for data: 751200108
I0625 18:43:40.301797 27285 layer_factory.hpp:77] Creating layer relu2_1
I0625 18:43:40.301800 27285 net.cpp:106] Creating Layer relu2_1
I0625 18:43:40.301803 27285 net.cpp:454] relu2_1 <- conv2_1
I0625 18:43:40.301805 27285 net.cpp:397] relu2_1 -> conv2_1 (in-place)
I0625 18:43:40.302281 27285 net.cpp:150] Setting up relu2_1
I0625 18:43:40.302289 27285 net.cpp:157] Top shape: 1 128 300 500 (19200000)
I0625 18:43:40.302290 27285 net.cpp:165] Memory required for data: 828000108
I0625 18:43:40.302294 27285 layer_factory.hpp:77] Creating layer conv2_2
I0625 18:43:40.302309 27285 net.cpp:106] Creating Layer conv2_2
I0625 18:43:40.302325 27285 net.cpp:454] conv2_2 <- conv2_1
I0625 18:43:40.302327 27285 net.cpp:411] conv2_2 -> conv2_2
I0625 18:43:40.303553 27285 net.cpp:150] Setting up conv2_2
I0625 18:43:40.303561 27285 net.cpp:157] Top shape: 1 128 300 500 (19200000)
I0625 18:43:40.303563 27285 net.cpp:165] Memory required for data: 904800108
I0625 18:43:40.303567 27285 layer_factory.hpp:77] Creating layer relu2_2
I0625 18:43:40.303571 27285 net.cpp:106] Creating Layer relu2_2
I0625 18:43:40.303573 27285 net.cpp:454] relu2_2 <- conv2_2
I0625 18:43:40.303576 27285 net.cpp:397] relu2_2 -> conv2_2 (in-place)
I0625 18:43:40.303707 27285 net.cpp:150] Setting up relu2_2
I0625 18:43:40.303712 27285 net.cpp:157] Top shape: 1 128 300 500 (19200000)
I0625 18:43:40.303714 27285 net.cpp:165] Memory required for data: 981600108
I0625 18:43:40.303716 27285 layer_factory.hpp:77] Creating layer pool2
I0625 18:43:40.303719 27285 net.cpp:106] Creating Layer pool2
I0625 18:43:40.303721 27285 net.cpp:454] pool2 <- conv2_2
I0625 18:43:40.303725 27285 net.cpp:411] pool2 -> pool2
I0625 18:43:40.303771 27285 net.cpp:150] Setting up pool2
I0625 18:43:40.303783 27285 net.cpp:157] Top shape: 1 128 150 250 (4800000)
I0625 18:43:40.303784 27285 net.cpp:165] Memory required for data: 1000800108
I0625 18:43:40.303786 27285 layer_factory.hpp:77] Creating layer conv3_1
I0625 18:43:40.303791 27285 net.cpp:106] Creating Layer conv3_1
I0625 18:43:40.303802 27285 net.cpp:454] conv3_1 <- pool2
I0625 18:43:40.303805 27285 net.cpp:411] conv3_1 -> conv3_1
I0625 18:43:40.305554 27285 net.cpp:150] Setting up conv3_1
I0625 18:43:40.305563 27285 net.cpp:157] Top shape: 1 256 150 250 (9600000)
I0625 18:43:40.305565 27285 net.cpp:165] Memory required for data: 1039200108
I0625 18:43:40.305572 27285 layer_factory.hpp:77] Creating layer relu3_1
I0625 18:43:40.305575 27285 net.cpp:106] Creating Layer relu3_1
I0625 18:43:40.305577 27285 net.cpp:454] relu3_1 <- conv3_1
I0625 18:43:40.305590 27285 net.cpp:397] relu3_1 -> conv3_1 (in-place)
I0625 18:43:40.305706 27285 net.cpp:150] Setting up relu3_1
I0625 18:43:40.305711 27285 net.cpp:157] Top shape: 1 256 150 250 (9600000)
I0625 18:43:40.305713 27285 net.cpp:165] Memory required for data: 1077600108
I0625 18:43:40.305716 27285 layer_factory.hpp:77] Creating layer conv3_2
I0625 18:43:40.305721 27285 net.cpp:106] Creating Layer conv3_2
I0625 18:43:40.305723 27285 net.cpp:454] conv3_2 <- conv3_1
I0625 18:43:40.305727 27285 net.cpp:411] conv3_2 -> conv3_2
I0625 18:43:40.307787 27285 net.cpp:150] Setting up conv3_2
I0625 18:43:40.307796 27285 net.cpp:157] Top shape: 1 256 150 250 (9600000)
I0625 18:43:40.307799 27285 net.cpp:165] Memory required for data: 1116000108
I0625 18:43:40.307803 27285 layer_factory.hpp:77] Creating layer relu3_2
I0625 18:43:40.307817 27285 net.cpp:106] Creating Layer relu3_2
I0625 18:43:40.307821 27285 net.cpp:454] relu3_2 <- conv3_2
I0625 18:43:40.307823 27285 net.cpp:397] relu3_2 -> conv3_2 (in-place)
I0625 18:43:40.307979 27285 net.cpp:150] Setting up relu3_2
I0625 18:43:40.307986 27285 net.cpp:157] Top shape: 1 256 150 250 (9600000)
I0625 18:43:40.307997 27285 net.cpp:165] Memory required for data: 1154400108
I0625 18:43:40.307999 27285 layer_factory.hpp:77] Creating layer conv3_3
I0625 18:43:40.308006 27285 net.cpp:106] Creating Layer conv3_3
I0625 18:43:40.308007 27285 net.cpp:454] conv3_3 <- conv3_2
I0625 18:43:40.308010 27285 net.cpp:411] conv3_3 -> conv3_3
I0625 18:43:40.312502 27285 net.cpp:150] Setting up conv3_3
I0625 18:43:40.312543 27285 net.cpp:157] Top shape: 1 256 150 250 (9600000)
I0625 18:43:40.312554 27285 net.cpp:165] Memory required for data: 1192800108
I0625 18:43:40.312562 27285 layer_factory.hpp:77] Creating layer relu3_3
I0625 18:43:40.312569 27285 net.cpp:106] Creating Layer relu3_3
I0625 18:43:40.312573 27285 net.cpp:454] relu3_3 <- conv3_3
I0625 18:43:40.312577 27285 net.cpp:397] relu3_3 -> conv3_3 (in-place)
I0625 18:43:40.312703 27285 net.cpp:150] Setting up relu3_3
I0625 18:43:40.312710 27285 net.cpp:157] Top shape: 1 256 150 250 (9600000)
I0625 18:43:40.312721 27285 net.cpp:165] Memory required for data: 1231200108
I0625 18:43:40.312722 27285 layer_factory.hpp:77] Creating layer pool3
I0625 18:43:40.312727 27285 net.cpp:106] Creating Layer pool3
I0625 18:43:40.312729 27285 net.cpp:454] pool3 <- conv3_3
I0625 18:43:40.312733 27285 net.cpp:411] pool3 -> pool3
I0625 18:43:40.312773 27285 net.cpp:150] Setting up pool3
I0625 18:43:40.312777 27285 net.cpp:157] Top shape: 1 256 75 125 (2400000)
I0625 18:43:40.312778 27285 net.cpp:165] Memory required for data: 1240800108
I0625 18:43:40.312790 27285 layer_factory.hpp:77] Creating layer conv4_1
I0625 18:43:40.312796 27285 net.cpp:106] Creating Layer conv4_1
I0625 18:43:40.312798 27285 net.cpp:454] conv4_1 <- pool3
I0625 18:43:40.312803 27285 net.cpp:411] conv4_1 -> conv4_1
I0625 18:43:40.319175 27285 net.cpp:150] Setting up conv4_1
I0625 18:43:40.319195 27285 net.cpp:157] Top shape: 1 512 75 125 (4800000)
I0625 18:43:40.319197 27285 net.cpp:165] Memory required for data: 1260000108
I0625 18:43:40.319221 27285 layer_factory.hpp:77] Creating layer relu4_1
I0625 18:43:40.319239 27285 net.cpp:106] Creating Layer relu4_1
I0625 18:43:40.319243 27285 net.cpp:454] relu4_1 <- conv4_1
I0625 18:43:40.319248 27285 net.cpp:397] relu4_1 -> conv4_1 (in-place)
I0625 18:43:40.319384 27285 net.cpp:150] Setting up relu4_1
I0625 18:43:40.319391 27285 net.cpp:157] Top shape: 1 512 75 125 (4800000)
I0625 18:43:40.319392 27285 net.cpp:165] Memory required for data: 1279200108
I0625 18:43:40.319394 27285 layer_factory.hpp:77] Creating layer conv4_2
I0625 18:43:40.319401 27285 net.cpp:106] Creating Layer conv4_2
I0625 18:43:40.319402 27285 net.cpp:454] conv4_2 <- conv4_1
I0625 18:43:40.319406 27285 net.cpp:411] conv4_2 -> conv4_2
I0625 18:43:40.324400 27285 net.cpp:150] Setting up conv4_2
I0625 18:43:40.324430 27285 net.cpp:157] Top shape: 1 512 75 125 (4800000)
I0625 18:43:40.324434 27285 net.cpp:165] Memory required for data: 1298400108
I0625 18:43:40.324445 27285 layer_factory.hpp:77] Creating layer relu4_2
I0625 18:43:40.324462 27285 net.cpp:106] Creating Layer relu4_2
I0625 18:43:40.324466 27285 net.cpp:454] relu4_2 <- conv4_2
I0625 18:43:40.324471 27285 net.cpp:397] relu4_2 -> conv4_2 (in-place)
I0625 18:43:40.324962 27285 net.cpp:150] Setting up relu4_2
I0625 18:43:40.324970 27285 net.cpp:157] Top shape: 1 512 75 125 (4800000)
I0625 18:43:40.324971 27285 net.cpp:165] Memory required for data: 1317600108
I0625 18:43:40.324973 27285 layer_factory.hpp:77] Creating layer conv4_3
I0625 18:43:40.324980 27285 net.cpp:106] Creating Layer conv4_3
I0625 18:43:40.324982 27285 net.cpp:454] conv4_3 <- conv4_2
I0625 18:43:40.324996 27285 net.cpp:411] conv4_3 -> conv4_3
I0625 18:43:40.329808 27285 net.cpp:150] Setting up conv4_3
I0625 18:43:40.329829 27285 net.cpp:157] Top shape: 1 512 75 125 (4800000)
I0625 18:43:40.329833 27285 net.cpp:165] Memory required for data: 1336800108
I0625 18:43:40.329839 27285 layer_factory.hpp:77] Creating layer relu4_3
I0625 18:43:40.329859 27285 net.cpp:106] Creating Layer relu4_3
I0625 18:43:40.329864 27285 net.cpp:454] relu4_3 <- conv4_3
I0625 18:43:40.329869 27285 net.cpp:397] relu4_3 -> conv4_3 (in-place)
I0625 18:43:40.329996 27285 net.cpp:150] Setting up relu4_3
I0625 18:43:40.330003 27285 net.cpp:157] Top shape: 1 512 75 125 (4800000)
I0625 18:43:40.330005 27285 net.cpp:165] Memory required for data: 1356000108
I0625 18:43:40.330008 27285 layer_factory.hpp:77] Creating layer pool4
I0625 18:43:40.330022 27285 net.cpp:106] Creating Layer pool4
I0625 18:43:40.330024 27285 net.cpp:454] pool4 <- conv4_3
I0625 18:43:40.330029 27285 net.cpp:411] pool4 -> pool4
I0625 18:43:40.330070 27285 net.cpp:150] Setting up pool4
I0625 18:43:40.330075 27285 net.cpp:157] Top shape: 1 512 38 63 (1225728)
I0625 18:43:40.330077 27285 net.cpp:165] Memory required for data: 1360903020
I0625 18:43:40.330088 27285 layer_factory.hpp:77] Creating layer conv5_1
I0625 18:43:40.330096 27285 net.cpp:106] Creating Layer conv5_1
I0625 18:43:40.330097 27285 net.cpp:454] conv5_1 <- pool4
I0625 18:43:40.330101 27285 net.cpp:411] conv5_1 -> conv5_1
I0625 18:43:40.334736 27285 net.cpp:150] Setting up conv5_1
I0625 18:43:40.334753 27285 net.cpp:157] Top shape: 1 512 38 63 (1225728)
I0625 18:43:40.334755 27285 net.cpp:165] Memory required for data: 1365805932
I0625 18:43:40.334772 27285 layer_factory.hpp:77] Creating layer relu5_1
I0625 18:43:40.334779 27285 net.cpp:106] Creating Layer relu5_1
I0625 18:43:40.334784 27285 net.cpp:454] relu5_1 <- conv5_1
I0625 18:43:40.334787 27285 net.cpp:397] relu5_1 -> conv5_1 (in-place)
I0625 18:43:40.334914 27285 net.cpp:150] Setting up relu5_1
I0625 18:43:40.334921 27285 net.cpp:157] Top shape: 1 512 38 63 (1225728)
I0625 18:43:40.334923 27285 net.cpp:165] Memory required for data: 1370708844
I0625 18:43:40.334924 27285 layer_factory.hpp:77] Creating layer conv5_2
I0625 18:43:40.334931 27285 net.cpp:106] Creating Layer conv5_2
I0625 18:43:40.334934 27285 net.cpp:454] conv5_2 <- conv5_1
I0625 18:43:40.334937 27285 net.cpp:411] conv5_2 -> conv5_2
I0625 18:43:40.339542 27285 net.cpp:150] Setting up conv5_2
I0625 18:43:40.339560 27285 net.cpp:157] Top shape: 1 512 38 63 (1225728)
I0625 18:43:40.339562 27285 net.cpp:165] Memory required for data: 1375611756
I0625 18:43:40.339570 27285 layer_factory.hpp:77] Creating layer relu5_2
I0625 18:43:40.339576 27285 net.cpp:106] Creating Layer relu5_2
I0625 18:43:40.339579 27285 net.cpp:454] relu5_2 <- conv5_2
I0625 18:43:40.339583 27285 net.cpp:397] relu5_2 -> conv5_2 (in-place)
I0625 18:43:40.339717 27285 net.cpp:150] Setting up relu5_2
I0625 18:43:40.339725 27285 net.cpp:157] Top shape: 1 512 38 63 (1225728)
I0625 18:43:40.339725 27285 net.cpp:165] Memory required for data: 1380514668
I0625 18:43:40.339728 27285 layer_factory.hpp:77] Creating layer conv5_3
I0625 18:43:40.339737 27285 net.cpp:106] Creating Layer conv5_3
I0625 18:43:40.339740 27285 net.cpp:454] conv5_3 <- conv5_2
I0625 18:43:40.339743 27285 net.cpp:411] conv5_3 -> conv5_3
I0625 18:43:40.344254 27285 net.cpp:150] Setting up conv5_3
I0625 18:43:40.344270 27285 net.cpp:157] Top shape: 1 512 38 63 (1225728)
I0625 18:43:40.344272 27285 net.cpp:165] Memory required for data: 1385417580
I0625 18:43:40.344278 27285 layer_factory.hpp:77] Creating layer relu5_3
I0625 18:43:40.344286 27285 net.cpp:106] Creating Layer relu5_3
I0625 18:43:40.344290 27285 net.cpp:454] relu5_3 <- conv5_3
I0625 18:43:40.344305 27285 net.cpp:397] relu5_3 -> conv5_3 (in-place)
I0625 18:43:40.344429 27285 net.cpp:150] Setting up relu5_3
I0625 18:43:40.344436 27285 net.cpp:157] Top shape: 1 512 38 63 (1225728)
I0625 18:43:40.344437 27285 net.cpp:165] Memory required for data: 1390320492
I0625 18:43:40.344439 27285 layer_factory.hpp:77] Creating layer conv5_3_relu5_3_0_split
I0625 18:43:40.344444 27285 net.cpp:106] Creating Layer conv5_3_relu5_3_0_split
I0625 18:43:40.344446 27285 net.cpp:454] conv5_3_relu5_3_0_split <- conv5_3
I0625 18:43:40.344450 27285 net.cpp:411] conv5_3_relu5_3_0_split -> conv5_3_relu5_3_0_split_0
I0625 18:43:40.344465 27285 net.cpp:411] conv5_3_relu5_3_0_split -> conv5_3_relu5_3_0_split_1
I0625 18:43:40.344467 27285 net.cpp:411] conv5_3_relu5_3_0_split -> conv5_3_relu5_3_0_split_2
I0625 18:43:40.344503 27285 net.cpp:150] Setting up conv5_3_relu5_3_0_split
I0625 18:43:40.344516 27285 net.cpp:157] Top shape: 1 512 38 63 (1225728)
I0625 18:43:40.344518 27285 net.cpp:157] Top shape: 1 512 38 63 (1225728)
I0625 18:43:40.344521 27285 net.cpp:157] Top shape: 1 512 38 63 (1225728)
I0625 18:43:40.344522 27285 net.cpp:165] Memory required for data: 1405029228
I0625 18:43:40.344534 27285 layer_factory.hpp:77] Creating layer rpn_conv/3x3
I0625 18:43:40.344542 27285 net.cpp:106] Creating Layer rpn_conv/3x3
I0625 18:43:40.344545 27285 net.cpp:454] rpn_conv/3x3 <- conv5_3_relu5_3_0_split_0
I0625 18:43:40.344548 27285 net.cpp:411] rpn_conv/3x3 -> rpn/output
I0625 18:43:40.394927 27285 net.cpp:150] Setting up rpn_conv/3x3
I0625 18:43:40.394946 27285 net.cpp:157] Top shape: 1 512 38 63 (1225728)
I0625 18:43:40.394948 27285 net.cpp:165] Memory required for data: 1409932140
I0625 18:43:40.394956 27285 layer_factory.hpp:77] Creating layer rpn_relu/3x3
I0625 18:43:40.394963 27285 net.cpp:106] Creating Layer rpn_relu/3x3
I0625 18:43:40.394978 27285 net.cpp:454] rpn_relu/3x3 <- rpn/output
I0625 18:43:40.394982 27285 net.cpp:397] rpn_relu/3x3 -> rpn/output (in-place)
I0625 18:43:40.395112 27285 net.cpp:150] Setting up rpn_relu/3x3
I0625 18:43:40.395118 27285 net.cpp:157] Top shape: 1 512 38 63 (1225728)
I0625 18:43:40.395120 27285 net.cpp:165] Memory required for data: 1414835052
I0625 18:43:40.395123 27285 layer_factory.hpp:77] Creating layer rpn/output_rpn_relu/3x3_0_split
I0625 18:43:40.395128 27285 net.cpp:106] Creating Layer rpn/output_rpn_relu/3x3_0_split
I0625 18:43:40.395129 27285 net.cpp:454] rpn/output_rpn_relu/3x3_0_split <- rpn/output
I0625 18:43:40.395133 27285 net.cpp:411] rpn/output_rpn_relu/3x3_0_split -> rpn/output_rpn_relu/3x3_0_split_0
I0625 18:43:40.395138 27285 net.cpp:411] rpn/output_rpn_relu/3x3_0_split -> rpn/output_rpn_relu/3x3_0_split_1
I0625 18:43:40.395186 27285 net.cpp:150] Setting up rpn/output_rpn_relu/3x3_0_split
I0625 18:43:40.395190 27285 net.cpp:157] Top shape: 1 512 38 63 (1225728)
I0625 18:43:40.395205 27285 net.cpp:157] Top shape: 1 512 38 63 (1225728)
I0625 18:43:40.395206 27285 net.cpp:165] Memory required for data: 1424640876
I0625 18:43:40.395208 27285 layer_factory.hpp:77] Creating layer rpn_cls_score
I0625 18:43:40.395225 27285 net.cpp:106] Creating Layer rpn_cls_score
I0625 18:43:40.395226 27285 net.cpp:454] rpn_cls_score <- rpn/output_rpn_relu/3x3_0_split_0
I0625 18:43:40.395231 27285 net.cpp:411] rpn_cls_score -> rpn_cls_score
I0625 18:43:40.396903 27285 net.cpp:150] Setting up rpn_cls_score
I0625 18:43:40.396911 27285 net.cpp:157] Top shape: 1 30 38 63 (71820)
I0625 18:43:40.396912 27285 net.cpp:165] Memory required for data: 1424928156
I0625 18:43:40.396917 27285 layer_factory.hpp:77] Creating layer rpn_cls_score_rpn_cls_score_0_split
I0625 18:43:40.396922 27285 net.cpp:106] Creating Layer rpn_cls_score_rpn_cls_score_0_split
I0625 18:43:40.396924 27285 net.cpp:454] rpn_cls_score_rpn_cls_score_0_split <- rpn_cls_score
I0625 18:43:40.396927 27285 net.cpp:411] rpn_cls_score_rpn_cls_score_0_split -> rpn_cls_score_rpn_cls_score_0_split_0
I0625 18:43:40.396942 27285 net.cpp:411] rpn_cls_score_rpn_cls_score_0_split -> rpn_cls_score_rpn_cls_score_0_split_1
I0625 18:43:40.396976 27285 net.cpp:150] Setting up rpn_cls_score_rpn_cls_score_0_split
I0625 18:43:40.396981 27285 net.cpp:157] Top shape: 1 30 38 63 (71820)
I0625 18:43:40.396994 27285 net.cpp:157] Top shape: 1 30 38 63 (71820)
I0625 18:43:40.396996 27285 net.cpp:165] Memory required for data: 1425502716
I0625 18:43:40.396997 27285 layer_factory.hpp:77] Creating layer rpn_bbox_pred
I0625 18:43:40.397016 27285 net.cpp:106] Creating Layer rpn_bbox_pred
I0625 18:43:40.397017 27285 net.cpp:454] rpn_bbox_pred <- rpn/output_rpn_relu/3x3_0_split_1
I0625 18:43:40.397022 27285 net.cpp:411] rpn_bbox_pred -> rpn_bbox_pred
I0625 18:43:40.398501 27285 net.cpp:150] Setting up rpn_bbox_pred
I0625 18:43:40.398509 27285 net.cpp:157] Top shape: 1 60 38 63 (143640)
I0625 18:43:40.398511 27285 net.cpp:165] Memory required for data: 1426077276
I0625 18:43:40.398515 27285 layer_factory.hpp:77] Creating layer rpn_bbox_pred_rpn_bbox_pred_0_split
I0625 18:43:40.398519 27285 net.cpp:106] Creating Layer rpn_bbox_pred_rpn_bbox_pred_0_split
I0625 18:43:40.398521 27285 net.cpp:454] rpn_bbox_pred_rpn_bbox_pred_0_split <- rpn_bbox_pred
I0625 18:43:40.398524 27285 net.cpp:411] rpn_bbox_pred_rpn_bbox_pred_0_split -> rpn_bbox_pred_rpn_bbox_pred_0_split_0
I0625 18:43:40.398530 27285 net.cpp:411] rpn_bbox_pred_rpn_bbox_pred_0_split -> rpn_bbox_pred_rpn_bbox_pred_0_split_1
I0625 18:43:40.398572 27285 net.cpp:150] Setting up rpn_bbox_pred_rpn_bbox_pred_0_split
I0625 18:43:40.398576 27285 net.cpp:157] Top shape: 1 60 38 63 (143640)
I0625 18:43:40.398588 27285 net.cpp:157] Top shape: 1 60 38 63 (143640)
I0625 18:43:40.398591 27285 net.cpp:165] Memory required for data: 1427226396
I0625 18:43:40.398591 27285 layer_factory.hpp:77] Creating layer rpn_cls_score_reshape
I0625 18:43:40.398612 27285 net.cpp:106] Creating Layer rpn_cls_score_reshape
I0625 18:43:40.398614 27285 net.cpp:454] rpn_cls_score_reshape <- rpn_cls_score_rpn_cls_score_0_split_0
I0625 18:43:40.398617 27285 net.cpp:411] rpn_cls_score_reshape -> rpn_cls_score_reshape
I0625 18:43:40.398653 27285 net.cpp:150] Setting up rpn_cls_score_reshape
I0625 18:43:40.398656 27285 net.cpp:157] Top shape: 1 2 570 63 (71820)
I0625 18:43:40.398658 27285 net.cpp:165] Memory required for data: 1427513676
I0625 18:43:40.398659 27285 layer_factory.hpp:77] Creating layer rpn_cls_score_reshape_rpn_cls_score_reshape_0_split
I0625 18:43:40.398671 27285 net.cpp:106] Creating Layer rpn_cls_score_reshape_rpn_cls_score_reshape_0_split
I0625 18:43:40.398674 27285 net.cpp:454] rpn_cls_score_reshape_rpn_cls_score_reshape_0_split <- rpn_cls_score_reshape
I0625 18:43:40.398676 27285 net.cpp:411] rpn_cls_score_reshape_rpn_cls_score_reshape_0_split -> rpn_cls_score_reshape_rpn_cls_score_reshape_0_split_0
I0625 18:43:40.398680 27285 net.cpp:411] rpn_cls_score_reshape_rpn_cls_score_reshape_0_split -> rpn_cls_score_reshape_rpn_cls_score_reshape_0_split_1
I0625 18:43:40.398708 27285 net.cpp:150] Setting up rpn_cls_score_reshape_rpn_cls_score_reshape_0_split
I0625 18:43:40.398711 27285 net.cpp:157] Top shape: 1 2 570 63 (71820)
I0625 18:43:40.398713 27285 net.cpp:157] Top shape: 1 2 570 63 (71820)
I0625 18:43:40.398715 27285 net.cpp:165] Memory required for data: 1428088236
I0625 18:43:40.398715 27285 layer_factory.hpp:77] Creating layer rpn-data
I0625 18:43:40.399046 27285 net.cpp:106] Creating Layer rpn-data
I0625 18:43:40.399052 27285 net.cpp:454] rpn-data <- rpn_cls_score_rpn_cls_score_0_split_1
I0625 18:43:40.399067 27285 net.cpp:454] rpn-data <- gt_boxes_input-data_2_split_0
I0625 18:43:40.399071 27285 net.cpp:454] rpn-data <- im_info_input-data_1_split_0
I0625 18:43:40.399075 27285 net.cpp:454] rpn-data <- data_input-data_0_split_1
I0625 18:43:40.399077 27285 net.cpp:411] rpn-data -> rpn_labels
I0625 18:43:40.399082 27285 net.cpp:411] rpn-data -> rpn_bbox_targets
I0625 18:43:40.399087 27285 net.cpp:411] rpn-data -> rpn_bbox_inside_weights
I0625 18:43:40.399091 27285 net.cpp:411] rpn-data -> rpn_bbox_outside_weights
===================================anchor_scales in AnchorTargetLayer:=============(2, 4, 8, 16, 32)
I0625 18:43:40.399912 27285 net.cpp:150] Setting up rpn-data
I0625 18:43:40.399920 27285 net.cpp:157] Top shape: 1 1 570 63 (35910)
I0625 18:43:40.399924 27285 net.cpp:157] Top shape: 1 60 38 63 (143640)
I0625 18:43:40.399925 27285 net.cpp:157] Top shape: 1 60 38 63 (143640)
I0625 18:43:40.399929 27285 net.cpp:157] Top shape: 1 60 38 63 (143640)
I0625 18:43:40.399930 27285 net.cpp:165] Memory required for data: 1429955556
I0625 18:43:40.399932 27285 layer_factory.hpp:77] Creating layer rpn_loss_cls
I0625 18:43:40.399937 27285 net.cpp:106] Creating Layer rpn_loss_cls
I0625 18:43:40.399940 27285 net.cpp:454] rpn_loss_cls <- rpn_cls_score_reshape_rpn_cls_score_reshape_0_split_0
I0625 18:43:40.399953 27285 net.cpp:454] rpn_loss_cls <- rpn_labels
…
I0625 18:43:40.401880 27285 net.cpp:157] Top shape: (1)
I0625 18:43:40.401881 27285 net.cpp:160]     with loss weight 1
I0625 18:43:40.401886 27285 net.cpp:165] Memory required for data: 1429955564
I0625 18:43:40.401888 27285 layer_factory.hpp:77] Creating layer rpn_cls_prob
I0625 18:43:40.401893 27285 net.cpp:106] Creating Layer rpn_cls_prob
I0625 18:43:40.401896 27285 net.cpp:454] rpn_cls_prob <- rpn_cls_score_reshape_rpn_cls_score_reshape_0_split_1
I0625 18:43:40.401909 27285 net.cpp:411] rpn_cls_prob -> rpn_cls_prob
I0625 18:43:40.402109 27285 net.cpp:150] Setting up rpn_cls_prob
I0625 18:43:40.402115 27285 net.cpp:157] Top shape: 1 2 570 63 (71820)
I0625 18:43:40.402117 27285 net.cpp:165] Memory required for data: 1430242844
I0625 18:43:40.402119 27285 layer_factory.hpp:77] Creating layer rpn_cls_prob_reshape
I0625 18:43:40.402124 27285 net.cpp:106] Creating Layer rpn_cls_prob_reshape
I0625 18:43:40.402127 27285 net.cpp:454] rpn_cls_prob_reshape <- rpn_cls_prob
I0625 18:43:40.402130 27285 net.cpp:411] rpn_cls_prob_reshape -> rpn_cls_prob_reshape
I0625 18:43:40.402148 27285 net.cpp:150] Setting up rpn_cls_prob_reshape
I0625 18:43:40.402151 27285 net.cpp:157] Top shape: 1 30 38 63 (71820)
I0625 18:43:40.402153 27285 net.cpp:165] Memory required for data: 1430530124
I0625 18:43:40.402154 27285 layer_factory.hpp:77] Creating layer proposal
I0625 18:43:40.402743 27285 net.cpp:106] Creating Layer proposal
I0625 18:43:40.402751 27285 net.cpp:454] proposal <- rpn_cls_prob_reshape
I0625 18:43:40.402755 27285 net.cpp:454] proposal <- rpn_bbox_pred_rpn_bbox_pred_0_split_1
I0625 18:43:40.402758 27285 net.cpp:454] proposal <- im_info_input-data_1_split_1
I0625 18:43:40.402761 27285 net.cpp:411] proposal -> rpn_rois
=================================anchor_scales in ProposalLayer:=============(2, 4, 8, 16, 32)
I0625 18:43:40.403631 27285 net.cpp:150] Setting up proposal
I0625 18:43:40.403640 27285 net.cpp:157] Top shape: 1 5 (5)
I0625 18:43:40.403641 27285 net.cpp:165] Memory required for data: 1430530144
I0625 18:43:40.403643 27285 layer_factory.hpp:77] Creating layer roi-data
I0625 18:43:40.403844 27285 net.cpp:106] Creating Layer roi-data
I0625 18:43:40.403851 27285 net.cpp:454] roi-data <- rpn_rois
I0625 18:43:40.403854 27285 net.cpp:454] roi-data <- gt_boxes_input-data_2_split_1
I0625 18:43:40.403856 27285 net.cpp:454] roi-data <- im_info_input-data_1_split_2
I0625 18:43:40.403858 27285 net.cpp:454] roi-data <- seg_mask_inds
I0625 18:43:40.403861 27285 net.cpp:454] roi-data <- flipped
I0625 18:43:40.403864 27285 net.cpp:411] roi-data -> rois
I0625 18:43:40.403868 27285 net.cpp:411] roi-data -> labels
I0625 18:43:40.403873 27285 net.cpp:411] roi-data -> bbox_targets
I0625 18:43:40.403877 27285 net.cpp:411] roi-data -> bbox_inside_weights
I0625 18:43:40.403882 27285 net.cpp:411] roi-data -> bbox_outside_weights
I0625 18:43:40.403884 27285 net.cpp:411] roi-data -> mask_targets
I0625 18:43:40.403889 27285 net.cpp:411] roi-data -> rois_pos
I0625 18:43:40.403892 27285 net.cpp:411] roi-data -> attrArray
I0625 18:43:40.403897 27285 net.cpp:411] roi-data -> attrArrayInd
I0625 18:43:40.403900 27285 net.cpp:411] roi-data -> attrArrayShift
I0625 18:43:40.404181 27285 net.cpp:150] Setting up roi-data
I0625 18:43:40.404188 27285 net.cpp:157] Top shape: 1 5 (5)
I0625 18:43:40.404192 27285 net.cpp:157] Top shape: 1 1 (1)
I0625 18:43:40.404194 27285 net.cpp:157] Top shape: 1 8 (8)
I0625 18:43:40.404196 27285 net.cpp:157] Top shape: 1 8 (8)
I0625 18:43:40.404197 27285 net.cpp:157] Top shape: 1 8 (8)
I0625 18:43:40.404199 27285 net.cpp:157] Top shape: 1 8 244 244 (476288)
I0625 18:43:40.404201 27285 net.cpp:157] Top shape: 1 5 (5)
I0625 18:43:40.404203 27285 net.cpp:157] Top shape: 1 7 (7)
I0625 18:43:40.404206 27285 net.cpp:157] Top shape: 1 7 (7)
I0625 18:43:40.404207 27285 net.cpp:157] Top shape: 1 7 (7)
I0625 18:43:40.404208 27285 net.cpp:165] Memory required for data: 1432435520
I0625 18:43:40.404211 27285 layer_factory.hpp:77] Creating layer roi_pool5
I0625 18:43:40.404219 27285 net.cpp:106] Creating Layer roi_pool5
I0625 18:43:40.404222 27285 net.cpp:454] roi_pool5 <- conv5_3_relu5_3_0_split_1
I0625 18:43:40.404225 27285 net.cpp:454] roi_pool5 <- rois
I0625 18:43:40.404227 27285 net.cpp:411] roi_pool5 -> pool5
I0625 18:43:40.404232 27285 roi_alignment_layer.cpp:32] Spatial scale: 0.0625
I0625 18:43:40.404295 27285 net.cpp:150] Setting up roi_pool5
I0625 18:43:40.404299 27285 net.cpp:157] Top shape: 1 512 7 7 (25088)
I0625 18:43:40.404301 27285 net.cpp:165] Memory required for data: 1432535872
I0625 18:43:40.404304 27285 layer_factory.hpp:77] Creating layer fc6
I0625 18:43:40.404307 27285 net.cpp:106] Creating Layer fc6
I0625 18:43:40.404309 27285 net.cpp:454] fc6 <- pool5
I0625 18:43:40.404314 27285 net.cpp:411] fc6 -> fc6
I0625 18:43:40.547806 27285 net.cpp:150] Setting up fc6
I0625 18:43:40.547829 27285 net.cpp:157] Top shape: 1 4096 (4096)
I0625 18:43:40.547832 27285 net.cpp:165] Memory required for data: 1432552256
I0625 18:43:40.547844 27285 layer_factory.hpp:77] Creating layer relu6
I0625 18:43:40.547865 27285 net.cpp:106] Creating Layer relu6
I0625 18:43:40.547879 27285 net.cpp:454] relu6 <- fc6
I0625 18:43:40.547885 27285 net.cpp:397] relu6 -> fc6 (in-place)
I0625 18:43:40.548091 27285 net.cpp:150] Setting up relu6
I0625 18:43:40.548099 27285 net.cpp:157] Top shape: 1 4096 (4096)
I0625 18:43:40.548100 27285 net.cpp:165] Memory required for data: 1432568640
I0625 18:43:40.548115 27285 layer_factory.hpp:77] Creating layer fc7
I0625 18:43:40.548121 27285 net.cpp:106] Creating Layer fc7
I0625 18:43:40.548135 27285 net.cpp:454] fc7 <- fc6
I0625 18:43:40.548139 27285 net.cpp:411] fc7 -> fc7
I0625 18:43:40.572036 27285 net.cpp:150] Setting up fc7
I0625 18:43:40.572059 27285 net.cpp:157] Top shape: 1 4096 (4096)
I0625 18:43:40.572062 27285 net.cpp:165] Memory required for data: 1432585024
I0625 18:43:40.572072 27285 layer_factory.hpp:77] Creating layer relu7
I0625 18:43:40.572088 27285 net.cpp:106] Creating Layer relu7
I0625 18:43:40.572094 27285 net.cpp:454] relu7 <- fc7
I0625 18:43:40.572100 27285 net.cpp:397] relu7 -> fc7 (in-place)
I0625 18:43:40.572374 27285 net.cpp:150] Setting up relu7
I0625 18:43:40.572391 27285 net.cpp:157] Top shape: 1 4096 (4096)
I0625 18:43:40.572403 27285 net.cpp:165] Memory required for data: 1432601408
I0625 18:43:40.572405 27285 layer_factory.hpp:77] Creating layer fc7_relu7_0_split
I0625 18:43:40.572410 27285 net.cpp:106] Creating Layer fc7_relu7_0_split
I0625 18:43:40.572413 27285 net.cpp:454] fc7_relu7_0_split <- fc7
I0625 18:43:40.572417 27285 net.cpp:411] fc7_relu7_0_split -> fc7_relu7_0_split_0
I0625 18:43:40.572422 27285 net.cpp:411] fc7_relu7_0_split -> fc7_relu7_0_split_1
I0625 18:43:40.572427 27285 net.cpp:411] fc7_relu7_0_split -> fc7_relu7_0_split_2
I0625 18:43:40.572479 27285 net.cpp:150] Setting up fc7_relu7_0_split
I0625 18:43:40.572482 27285 net.cpp:157] Top shape: 1 4096 (4096)
I0625 18:43:40.572484 27285 net.cpp:157] Top shape: 1 4096 (4096)
I0625 18:43:40.572486 27285 net.cpp:157] Top shape: 1 4096 (4096)
I0625 18:43:40.572487 27285 net.cpp:165] Memory required for data: 1432650560
I0625 18:43:40.572489 27285 layer_factory.hpp:77] Creating layer attr_score
I0625 18:43:40.572494 27285 net.cpp:106] Creating Layer attr_score
I0625 18:43:40.572495 27285 net.cpp:454] attr_score <- fc7_relu7_0_split_0
I0625 18:43:40.572499 27285 net.cpp:411] attr_score -> attr_score
I0625 18:43:40.573182 27285 net.cpp:150] Setting up attr_score
I0625 18:43:40.573187 27285 net.cpp:157] Top shape: 1 7 (7)
I0625 18:43:40.573199 27285 net.cpp:165] Memory required for data: 1432650588
I0625 18:43:40.573204 27285 layer_factory.hpp:77] Creating layer attr_score_pos
I0625 18:43:40.573209 27285 net.cpp:106] Creating Layer attr_score_pos
I0625 18:43:40.573220 27285 net.cpp:454] attr_score_pos <- attr_score
I0625 18:43:40.573222 27285 net.cpp:454] attr_score_pos <- attrArrayInd
I0625 18:43:40.573227 27285 net.cpp:411] attr_score_pos -> attr_score_pos
I0625 18:43:40.573243 27285 net.cpp:150] Setting up attr_score_pos
I0625 18:43:40.573256 27285 net.cpp:157] Top shape: 1 7 (7)
I0625 18:43:40.573257 27285 net.cpp:165] Memory required for data: 1432650616
I0625 18:43:40.573259 27285 layer_factory.hpp:77] Creating layer attr_score_pos_shift
I0625 18:43:40.573272 27285 net.cpp:106] Creating Layer attr_score_pos_shift
I0625 18:43:40.573276 27285 net.cpp:454] attr_score_pos_shift <- attr_score_pos
I0625 18:43:40.573277 27285 net.cpp:454] attr_score_pos_shift <- attrArrayShift
I0625 18:43:40.573280 27285 net.cpp:411] attr_score_pos_shift -> attr_score_pos_shift
I0625 18:43:40.573302 27285 net.cpp:150] Setting up attr_score_pos_shift
I0625 18:43:40.573307 27285 net.cpp:157] Top shape: 1 7 (7)
I0625 18:43:40.573308 27285 net.cpp:165] Memory required for data: 1432650644
I0625 18:43:40.573309 27285 layer_factory.hpp:77] Creating layer cls_score
I0625 18:43:40.573313 27285 net.cpp:106] Creating Layer cls_score
I0625 18:43:40.573316 27285 net.cpp:454] cls_score <- fc7_relu7_0_split_1
I0625 18:43:40.573330 27285 net.cpp:411] cls_score -> cls_score
I0625 18:43:40.573566 27285 net.cpp:150] Setting up cls_score
I0625 18:43:40.573570 27285 net.cpp:157] Top shape: 1 2 (2)
I0625 18:43:40.573571 27285 net.cpp:165] Memory required for data: 1432650652
I0625 18:43:40.573575 27285 layer_factory.hpp:77] Creating layer bbox_pred
I0625 18:43:40.573580 27285 net.cpp:106] Creating Layer bbox_pred
I0625 18:43:40.573582 27285 net.cpp:454] bbox_pred <- fc7_relu7_0_split_2
I0625 18:43:40.573596 27285 net.cpp:411] bbox_pred -> bbox_pred
I0625 18:43:40.574369 27285 net.cpp:150] Setting up bbox_pred
I0625 18:43:40.574374 27285 net.cpp:157] Top shape: 1 8 (8)
I0625 18:43:40.574375 27285 net.cpp:165] Memory required for data: 1432650684
I0625 18:43:40.574378 27285 layer_factory.hpp:77] Creating layer loss_attribute
I0625 18:43:40.574395 27285 net.cpp:106] Creating Layer loss_attribute
I0625 18:43:40.574398 27285 net.cpp:454] loss_attribute <- attr_score_pos_shift
I0625 18:43:40.574400 27285 net.cpp:454] loss_attribute <- attrArray
I0625 18:43:40.574404 27285 net.cpp:411] loss_attribute -> loss_attribute
…
I0625 18:43:40.575282 27285 net.cpp:165] Memory required for data: 1432650696
I0625 18:43:40.575284 27285 layer_factory.hpp:77] Creating layer roi_pool5_2
I0625 18:43:40.575289 27285 net.cpp:106] Creating Layer roi_pool5_2
I0625 18:43:40.575291 27285 net.cpp:454] roi_pool5_2 <- conv5_3_relu5_3_0_split_2
I0625 18:43:40.575304 27285 net.cpp:454] roi_pool5_2 <- rois_pos
I0625 18:43:40.575309 27285 net.cpp:411] roi_pool5_2 -> pool5_2
I0625 18:43:40.575312 27285 roi_alignment_layer.cpp:32] Spatial scale: 0.0625
I0625 18:43:40.575390 27285 net.cpp:150] Setting up roi_pool5_2
I0625 18:43:40.575394 27285 net.cpp:157] Top shape: 1 512 7 7 (25088)
I0625 18:43:40.575395 27285 net.cpp:165] Memory required for data: 1432751048
I0625 18:43:40.575407 27285 layer_factory.hpp:77] Creating layer pool5_2_conv
I0625 18:43:40.575415 27285 net.cpp:106] Creating Layer pool5_2_conv
I0625 18:43:40.575428 27285 net.cpp:454] pool5_2_conv <- pool5_2
I0625 18:43:40.575430 27285 net.cpp:411] pool5_2_conv -> pool5_2_conv
I0625 18:43:40.582149 27285 net.cpp:150] Setting up pool5_2_conv
I0625 18:43:40.582159 27285 net.cpp:157] Top shape: 1 512 7 7 (25088)
I0625 18:43:40.582160 27285 net.cpp:165] Memory required for data: 1432851400
I0625 18:43:40.582165 27285 layer_factory.hpp:77] Creating layer pool5_2_conv_relu
I0625 18:43:40.582170 27285 net.cpp:106] Creating Layer pool5_2_conv_relu
I0625 18:43:40.582171 27285 net.cpp:454] pool5_2_conv_relu <- pool5_2_conv
I0625 18:43:40.582175 27285 net.cpp:411] pool5_2_conv_relu -> pool5_2_conv_relu
I0625 18:43:40.582355 27285 net.cpp:150] Setting up pool5_2_conv_relu
I0625 18:43:40.582360 27285 net.cpp:157] Top shape: 1 512 7 7 (25088)
I0625 18:43:40.582362 27285 net.cpp:165] Memory required for data: 1432951752
I0625 18:43:40.582365 27285 layer_factory.hpp:77] Creating layer pool5_2_conv2
I0625 18:43:40.582370 27285 net.cpp:106] Creating Layer pool5_2_conv2
I0625 18:43:40.582372 27285 net.cpp:454] pool5_2_conv2 <- pool5_2_conv_relu
I0625 18:43:40.582376 27285 net.cpp:411] pool5_2_conv2 -> pool5_2_conv2
I0625 18:43:40.633030 27285 net.cpp:150] Setting up pool5_2_conv2
I0625 18:43:40.633049 27285 net.cpp:157] Top shape: 1 512 7 7 (25088)
I0625 18:43:40.633050 27285 net.cpp:165] Memory required for data: 1433052104
I0625 18:43:40.633059 27285 layer_factory.hpp:77] Creating layer pool5_2_conv2_relu
I0625 18:43:40.633067 27285 net.cpp:106] Creating Layer pool5_2_conv2_relu
I0625 18:43:40.633081 27285 net.cpp:454] pool5_2_conv2_relu <- pool5_2_conv2
I0625 18:43:40.633086 27285 net.cpp:411] pool5_2_conv2_relu -> pool5_2_conv2_relu
I0625 18:43:40.633260 27285 net.cpp:150] Setting up pool5_2_conv2_relu
I0625 18:43:40.633268 27285 net.cpp:157] Top shape: 1 512 7 7 (25088)
I0625 18:43:40.633270 27285 net.cpp:165] Memory required for data: 1433152456
I0625 18:43:40.633272 27285 layer_factory.hpp:77] Creating layer mask_deconv1
I0625 18:43:40.633288 27285 net.cpp:106] Creating Layer mask_deconv1
I0625 18:43:40.633291 27285 net.cpp:454] mask_deconv1 <- pool5_2_conv2_relu
I0625 18:43:40.633306 27285 net.cpp:411] mask_deconv1 -> mask_deconv1
I0625 18:43:40.634088 27285 net.cpp:150] Setting up mask_deconv1
I0625 18:43:40.634093 27285 net.cpp:157] Top shape: 1 256 30 30 (230400)
I0625 18:43:40.634094 27285 net.cpp:165] Memory required for data: 1434074056
I0625 18:43:40.634099 27285 layer_factory.hpp:77] Creating layer pool5_2_conv3
I0625 18:43:40.634104 27285 net.cpp:106] Creating Layer pool5_2_conv3
I0625 18:43:40.634106 27285 net.cpp:454] pool5_2_conv3 <- mask_deconv1
I0625 18:43:40.634110 27285 net.cpp:411] pool5_2_conv3 -> pool5_2_conv3
I0625 18:43:40.661164 27285 net.cpp:150] Setting up pool5_2_conv3
I0625 18:43:40.661180 27285 net.cpp:157] Top shape: 1 512 30 30 (460800)
I0625 18:43:40.661182 27285 net.cpp:165] Memory required for data: 1435917256
I0625 18:43:40.661190 27285 layer_factory.hpp:77] Creating layer pool5_2_conv3_relu
I0625 18:43:40.661207 27285 net.cpp:106] Creating Layer pool5_2_conv3_relu
I0625 18:43:40.661211 27285 net.cpp:454] pool5_2_conv3_relu <- pool5_2_conv3
I0625 18:43:40.661226 27285 net.cpp:411] pool5_2_conv3_relu -> pool5_2_conv3_relu
I0625 18:43:40.661393 27285 net.cpp:150] Setting up pool5_2_conv3_relu
I0625 18:43:40.661401 27285 net.cpp:157] Top shape: 1 512 30 30 (460800)
I0625 18:43:40.661402 27285 net.cpp:165] Memory required for data: 1437760456
I0625 18:43:40.661404 27285 layer_factory.hpp:77] Creating layer pool5_2_conv4
I0625 18:43:40.661412 27285 net.cpp:106] Creating Layer pool5_2_conv4
I0625 18:43:40.661427 27285 net.cpp:454] pool5_2_conv4 <- pool5_2_conv3_relu
I0625 18:43:40.661430 27285 net.cpp:411] pool5_2_conv4 -> pool5_2_conv4
I0625 18:43:40.711760 27285 net.cpp:150] Setting up pool5_2_conv4
I0625 18:43:40.711777 27285 net.cpp:157] Top shape: 1 512 30 30 (460800)
I0625 18:43:40.711779 27285 net.cpp:165] Memory required for data: 1439603656
I0625 18:43:40.711786 27285 layer_factory.hpp:77] Creating layer pool5_2_conv4_relu
I0625 18:43:40.711794 27285 net.cpp:106] Creating Layer pool5_2_conv4_relu
I0625 18:43:40.711798 27285 net.cpp:454] pool5_2_conv4_relu <- pool5_2_conv4
I0625 18:43:40.711814 27285 net.cpp:411] pool5_2_conv4_relu -> pool5_2_conv4_relu
I0625 18:43:40.711973 27285 net.cpp:150] Setting up pool5_2_conv4_relu
I0625 18:43:40.711980 27285 net.cpp:157] Top shape: 1 512 30 30 (460800)
I0625 18:43:40.711982 27285 net.cpp:165] Memory required for data: 1441446856
I0625 18:43:40.711983 27285 layer_factory.hpp:77] Creating layer pool5_2_conv4_relu_pool5_2_conv4_relu_0_split
I0625 18:43:40.711987 27285 net.cpp:106] Creating Layer pool5_2_conv4_relu_pool5_2_conv4_relu_0_split
I0625 18:43:40.711989 27285 net.cpp:454] pool5_2_conv4_relu_pool5_2_conv4_relu_0_split <- pool5_2_conv4_relu
I0625 18:43:40.711993 27285 net.cpp:411] pool5_2_conv4_relu_pool5_2_conv4_relu_0_split -> pool5_2_conv4_relu_pool5_2_conv4_relu_0_split_0
I0625 18:43:40.711997 27285 net.cpp:411] pool5_2_conv4_relu_pool5_2_conv4_relu_0_split -> pool5_2_conv4_relu_pool5_2_conv4_relu_0_split_1
I0625 18:43:40.712010 27285 net.cpp:411] pool5_2_conv4_relu_pool5_2_conv4_relu_0_split -> pool5_2_conv4_relu_pool5_2_conv4_relu_0_split_2
I0625 18:43:40.712013 27285 net.cpp:411] pool5_2_conv4_relu_pool5_2_conv4_relu_0_split -> pool5_2_conv4_relu_pool5_2_conv4_relu_0_split_3
I0625 18:43:40.712088 27285 net.cpp:150] Setting up pool5_2_conv4_relu_pool5_2_conv4_relu_0_split
I0625 18:43:40.712091 27285 net.cpp:157] Top shape: 1 512 30 30 (460800)
I0625 18:43:40.712105 27285 net.cpp:157] Top shape: 1 512 30 30 (460800)
I0625 18:43:40.712106 27285 net.cpp:157] Top shape: 1 512 30 30 (460800)
I0625 18:43:40.712108 27285 net.cpp:157] Top shape: 1 512 30 30 (460800)
I0625 18:43:40.712110 27285 net.cpp:165] Memory required for data: 1448819656
I0625 18:43:40.712111 27285 layer_factory.hpp:77] Creating layer query_conv
I0625 18:43:40.712128 27285 net.cpp:106] Creating Layer query_conv
I0625 18:43:40.712131 27285 net.cpp:454] query_conv <- pool5_2_conv4_relu_pool5_2_conv4_relu_0_split_0
I0625 18:43:40.712146 27285 net.cpp:411] query_conv -> query_conv
I0625 18:43:40.713788 27285 net.cpp:150] Setting up query_conv
I0625 18:43:40.713796 27285 net.cpp:157] Top shape: 1 64 30 30 (57600)
I0625 18:43:40.713798 27285 net.cpp:165] Memory required for data: 1449050056
I0625 18:43:40.713802 27285 layer_factory.hpp:77] Creating layer key_conv
I0625 18:43:40.713810 27285 net.cpp:106] Creating Layer key_conv
I0625 18:43:40.713814 27285 net.cpp:454] key_conv <- pool5_2_conv4_relu_pool5_2_conv4_relu_0_split_1
I0625 18:43:40.713827 27285 net.cpp:411] key_conv -> key_conv
I0625 18:43:40.715384 27285 net.cpp:150] Setting up key_conv
I0625 18:43:40.715394 27285 net.cpp:157] Top shape: 1 64 30 30 (57600)
I0625 18:43:40.715394 27285 net.cpp:165] Memory required for data: 1449280456
I0625 18:43:40.715399 27285 layer_factory.hpp:77] Creating layer value_conv
I0625 18:43:40.715406 27285 net.cpp:106] Creating Layer value_conv
I0625 18:43:40.715409 27285 net.cpp:454] value_conv <- pool5_2_conv4_relu_pool5_2_conv4_relu_0_split_2
I0625 18:43:40.715422 27285 net.cpp:411] value_conv -> value_conv
I0625 18:43:40.722292 27285 net.cpp:150] Setting up value_conv
I0625 18:43:40.722312 27285 net.cpp:157] Top shape: 1 512 30 30 (460800)
I0625 18:43:40.722314 27285 net.cpp:165] Memory required for data: 1451123656
I0625 18:43:40.722318 27285 layer_factory.hpp:77] Creating layer query_conv_reshape
I0625 18:43:40.722334 27285 net.cpp:106] Creating Layer query_conv_reshape
I0625 18:43:40.722337 27285 net.cpp:454] query_conv_reshape <- query_conv
I0625 18:43:40.722340 27285 net.cpp:411] query_conv_reshape -> query_conv_reshape
I0625 18:43:40.722380 27285 net.cpp:150] Setting up query_conv_reshape
I0625 18:43:40.722384 27285 net.cpp:157] Top shape: 1 64 900 1 (57600)
I0625 18:43:40.722395 27285 net.cpp:165] Memory required for data: 1451354056
I0625 18:43:40.722398 27285 layer_factory.hpp:77] Creating layer key_conv_reshape
I0625 18:43:40.722401 27285 net.cpp:106] Creating Layer key_conv_reshape
I0625 18:43:40.722404 27285 net.cpp:454] key_conv_reshape <- key_conv
I0625 18:43:40.722415 27285 net.cpp:411] key_conv_reshape -> key_conv_reshape
I0625 18:43:40.722430 27285 net.cpp:150] Setting up key_conv_reshape
I0625 18:43:40.722434 27285 net.cpp:157] Top shape: 1 64 900 1 (57600)
I0625 18:43:40.722435 27285 net.cpp:165] Memory required for data: 1451584456
I0625 18:43:40.722437 27285 layer_factory.hpp:77] Creating layer value_conv_reshape
I0625 18:43:40.722440 27285 net.cpp:106] Creating Layer value_conv_reshape
I0625 18:43:40.722442 27285 net.cpp:454] value_conv_reshape <- value_conv
I0625 18:43:40.722445 27285 net.cpp:411] value_conv_reshape -> value_conv_reshape
I0625 18:43:40.722460 27285 net.cpp:150] Setting up value_conv_reshape
I0625 18:43:40.722465 27285 net.cpp:157] Top shape: 1 512 900 1 (460800)
I0625 18:43:40.722466 27285 net.cpp:165] Memory required for data: 1453427656
I0625 18:43:40.722467 27285 layer_factory.hpp:77] Creating layer query_conv_reshape_perm
I0625 18:43:40.722472 27285 net.cpp:106] Creating Layer query_conv_reshape_perm
I0625 18:43:40.722474 27285 net.cpp:454] query_conv_reshape_perm <- query_conv_reshape
I0625 18:43:40.722477 27285 net.cpp:411] query_conv_reshape_perm -> query_conv_reshape_perm
I0625 18:43:40.722553 27285 net.cpp:150] Setting up query_conv_reshape_perm
I0625 18:43:40.722555 27285 net.cpp:157] Top shape: 1 1 900 64 (57600)
I0625 18:43:40.722558 27285 net.cpp:165] Memory required for data: 1453658056
I0625 18:43:40.722558 27285 layer_factory.hpp:77] Creating layer key_conv_reshape_perm
I0625 18:43:40.722573 27285 net.cpp:106] Creating Layer key_conv_reshape_perm
I0625 18:43:40.722574 27285 net.cpp:454] key_conv_reshape_perm <- key_conv_reshape
I0625 18:43:40.722577 27285 net.cpp:411] key_conv_reshape_perm -> key_conv_reshape_perm
I0625 18:43:40.722645 27285 net.cpp:150] Setting up key_conv_reshape_perm
I0625 18:43:40.722648 27285 net.cpp:157] Top shape: 1 1 64 900 (57600)
I0625 18:43:40.722651 27285 net.cpp:165] Memory required for data: 1453888456
I0625 18:43:40.722651 27285 layer_factory.hpp:77] Creating layer energy
I0625 18:43:40.722666 27285 net.cpp:106] Creating Layer energy
I0625 18:43:40.722667 27285 net.cpp:454] energy <- query_conv_reshape_perm
I0625 18:43:40.722671 27285 net.cpp:454] energy <- key_conv_reshape_perm
I0625 18:43:40.722674 27285 net.cpp:411] energy -> energy
I0625 18:43:40.722687 27285 net.cpp:150] Setting up energy
I0625 18:43:40.722690 27285 net.cpp:157] Top shape: 1 1 900 900 (810000)
I0625 18:43:40.722692 27285 net.cpp:165] Memory required for data: 1457128456
I0625 18:43:40.722694 27285 layer_factory.hpp:77] Creating layer attention
I0625 18:43:40.722697 27285 net.cpp:106] Creating Layer attention
I0625 18:43:40.722700 27285 net.cpp:454] attention <- energy
I0625 18:43:40.722703 27285 net.cpp:411] attention -> attention
I0625 18:43:40.722870 27285 net.cpp:150] Setting up attention
I0625 18:43:40.722877 27285 net.cpp:157] Top shape: 1 1 900 900 (810000)
I0625 18:43:40.722888 27285 net.cpp:165] Memory required for data: 1460368456
I0625 18:43:40.722890 27285 layer_factory.hpp:77] Creating layer value_conv_reshape_perm
I0625 18:43:40.722893 27285 net.cpp:106] Creating Layer value_conv_reshape_perm
I0625 18:43:40.722895 27285 net.cpp:454] value_conv_reshape_perm <- value_conv_reshape
I0625 18:43:40.722898 27285 net.cpp:411] value_conv_reshape_perm -> value_conv_reshape_perm
I0625 18:43:40.722972 27285 net.cpp:150] Setting up value_conv_reshape_perm
I0625 18:43:40.722976 27285 net.cpp:157] Top shape: 1 1 512 900 (460800)
I0625 18:43:40.722977 27285 net.cpp:165] Memory required for data: 1462211656
I0625 18:43:40.722980 27285 layer_factory.hpp:77] Creating layer attention_perm
I0625 18:43:40.722982 27285 net.cpp:106] Creating Layer attention_perm
I0625 18:43:40.722985 27285 net.cpp:454] attention_perm <- attention
I0625 18:43:40.722986 27285 net.cpp:411] attention_perm -> attention_perm
I0625 18:43:40.723047 27285 net.cpp:150] Setting up attention_perm
I0625 18:43:40.723050 27285 net.cpp:157] Top shape: 1 1 900 900 (810000)
I0625 18:43:40.723052 27285 net.cpp:165] Memory required for data: 1465451656
I0625 18:43:40.723053 27285 layer_factory.hpp:77] Creating layer out
I0625 18:43:40.723055 27285 net.cpp:106] Creating Layer out
I0625 18:43:40.723057 27285 net.cpp:454] out <- value_conv_reshape_perm
I0625 18:43:40.723059 27285 net.cpp:454] out <- attention_perm
I0625 18:43:40.723062 27285 net.cpp:411] out -> out
I0625 18:43:40.723074 27285 net.cpp:150] Setting up out
I0625 18:43:40.723078 27285 net.cpp:157] Top shape: 1 1 512 900 (460800)
I0625 18:43:40.723079 27285 net.cpp:165] Memory required for data: 1467294856
I0625 18:43:40.723080 27285 layer_factory.hpp:77] Creating layer out_reshape
I0625 18:43:40.723084 27285 net.cpp:106] Creating Layer out_reshape
I0625 18:43:40.723086 27285 net.cpp:454] out_reshape <- out
I0625 18:43:40.723089 27285 net.cpp:411] out_reshape -> out_reshape
I0625 18:43:40.723103 27285 net.cpp:150] Setting up out_reshape
I0625 18:43:40.723105 27285 net.cpp:157] Top shape: 1 512 30 30 (460800)
I0625 18:43:40.723107 27285 net.cpp:165] Memory required for data: 1469138056
I0625 18:43:40.723109 27285 layer_factory.hpp:77] Creating layer out_reshape_scale
I0625 18:43:40.723114 27285 net.cpp:106] Creating Layer out_reshape_scale
I0625 18:43:40.723115 27285 net.cpp:454] out_reshape_scale <- out_reshape
I0625 18:43:40.723119 27285 net.cpp:411] out_reshape_scale -> out_reshape_scale
I0625 18:43:40.723186 27285 net.cpp:150] Setting up out_reshape_scale
I0625 18:43:40.723189 27285 net.cpp:157] Top shape: 1 512 30 30 (460800)
I0625 18:43:40.723191 27285 net.cpp:165] Memory required for data: 1470981256
I0625 18:43:40.723193 27285 layer_factory.hpp:77] Creating layer out_x
I0625 18:43:40.723197 27285 net.cpp:106] Creating Layer out_x
I0625 18:43:40.723199 27285 net.cpp:454] out_x <- out_reshape_scale
I0625 18:43:40.723204 27285 net.cpp:454] out_x <- pool5_2_conv4_relu_pool5_2_conv4_relu_0_split_3
I0625 18:43:40.723208 27285 net.cpp:411] out_x -> out_x
I0625 18:43:40.723234 27285 net.cpp:150] Setting up out_x
I0625 18:43:40.723237 27285 net.cpp:157] Top shape: 1 512 30 30 (460800)
I0625 18:43:40.723239 27285 net.cpp:165] Memory required for data: 1472824456
I0625 18:43:40.723240 27285 layer_factory.hpp:77] Creating layer mask_deconv2
I0625 18:43:40.723248 27285 net.cpp:106] Creating Layer mask_deconv2
I0625 18:43:40.723250 27285 net.cpp:454] mask_deconv2 <- out_x
I0625 18:43:40.723258 27285 net.cpp:411] mask_deconv2 -> mask_deconv2
I0625 18:43:40.724088 27285 net.cpp:150] Setting up mask_deconv2
I0625 18:43:40.724093 27285 net.cpp:157] Top shape: 1 256 122 122 (3810304)
I0625 18:43:40.724094 27285 net.cpp:165] Memory required for data: 1488065672
I0625 18:43:40.724098 27285 layer_factory.hpp:77] Creating layer pool5_2_conv5
I0625 18:43:40.724104 27285 net.cpp:106] Creating Layer pool5_2_conv5
I0625 18:43:40.724107 27285 net.cpp:454] pool5_2_conv5 <- mask_deconv2
I0625 18:43:40.724112 27285 net.cpp:411] pool5_2_conv5 -> pool5_2_conv5
I0625 18:43:40.756593 27285 net.cpp:150] Setting up pool5_2_conv5
I0625 18:43:40.756618 27285 net.cpp:157] Top shape: 1 512 122 122 (7620608)
I0625 18:43:40.756623 27285 net.cpp:165] Memory required for data: 1518548104
I0625 18:43:40.756633 27285 layer_factory.hpp:77] Creating layer pool5_2_conv5_relu
I0625 18:43:40.756645 27285 net.cpp:106] Creating Layer pool5_2_conv5_relu
I0625 18:43:40.756652 27285 net.cpp:454] pool5_2_conv5_relu <- pool5_2_conv5
I0625 18:43:40.756659 27285 net.cpp:411] pool5_2_conv5_relu -> pool5_2_conv5_relu
I0625 18:43:40.756943 27285 net.cpp:150] Setting up pool5_2_conv5_relu
I0625 18:43:40.756953 27285 net.cpp:157] Top shape: 1 512 122 122 (7620608)
I0625 18:43:40.756956 27285 net.cpp:165] Memory required for data: 1549030536
I0625 18:43:40.756960 27285 layer_factory.hpp:77] Creating layer pool5_2_conv6
I0625 18:43:40.756974 27285 net.cpp:106] Creating Layer pool5_2_conv6
I0625 18:43:40.756978 27285 net.cpp:454] pool5_2_conv6 <- pool5_2_conv5_relu
I0625 18:43:40.756983 27285 net.cpp:411] pool5_2_conv6 -> pool5_2_conv6
I0625 18:43:40.808287 27285 net.cpp:150] Setting up pool5_2_conv6
I0625 18:43:40.808307 27285 net.cpp:157] Top shape: 1 512 122 122 (7620608)
I0625 18:43:40.808310 27285 net.cpp:165] Memory required for data: 1579512968
I0625 18:43:40.808351 27285 layer_factory.hpp:77] Creating layer pool5_2_conv6_relu
I0625 18:43:40.808362 27285 net.cpp:106] Creating Layer pool5_2_conv6_relu
I0625 18:43:40.808377 27285 net.cpp:454] pool5_2_conv6_relu <- pool5_2_conv6
I0625 18:43:40.808383 27285 net.cpp:411] pool5_2_conv6_relu -> pool5_2_conv6_relu
I0625 18:43:40.808884 27285 net.cpp:150] Setting up pool5_2_conv6_relu
I0625 18:43:40.808893 27285 net.cpp:157] Top shape: 1 512 122 122 (7620608)
I0625 18:43:40.808897 27285 net.cpp:165] Memory required for data: 1609995400
I0625 18:43:40.808899 27285 layer_factory.hpp:77] Creating layer mask_deconv3
I0625 18:43:40.808919 27285 net.cpp:106] Creating Layer mask_deconv3
I0625 18:43:40.808923 27285 net.cpp:454] mask_deconv3 <- pool5_2_conv6_relu
I0625 18:43:40.808943 27285 net.cpp:411] mask_deconv3 -> mask_deconv3
I0625 18:43:40.809314 27285 net.cpp:150] Setting up mask_deconv3
I0625 18:43:40.809320 27285 net.cpp:157] Top shape: 1 256 244 244 (15241216)
I0625 18:43:40.809322 27285 net.cpp:165] Memory required for data: 1670960264
I0625 18:43:40.809339 27285 layer_factory.hpp:77] Creating layer mask_score
I0625 18:43:40.809357 27285 net.cpp:106] Creating Layer mask_score
I0625 18:43:40.809361 27285 net.cpp:454] mask_score <- mask_deconv3
I0625 18:43:40.809378 27285 net.cpp:411] mask_score -> mask_score
I0625 18:43:40.809963 27285 net.cpp:150] Setting up mask_score
I0625 18:43:40.809973 27285 net.cpp:157] Top shape: 1 8 244 244 (476288)
I0625 18:43:40.809975 27285 net.cpp:165] Memory required for data: 1672865416
I0625 18:43:40.809991 27285 layer_factory.hpp:77] Creating layer prob
I0625 18:43:40.809998 27285 net.cpp:106] Creating Layer prob
I0625 18:43:40.810003 27285 net.cpp:454] prob <- mask_score
I0625 18:43:40.810009 27285 net.cpp:411] prob -> mask_score_softmax
I0625 18:43:40.810593 27285 net.cpp:150] Setting up prob
I0625 18:43:40.810602 27285 net.cpp:157] Top shape: 1 8 244 244 (476288)
I0625 18:43:40.810606 27285 net.cpp:165] Memory required for data: 1674770568
I0625 18:43:40.810619 27285 layer_factory.hpp:77] Creating layer log
I0625 18:43:40.810626 27285 net.cpp:106] Creating Layer log
I0625 18:43:40.810631 27285 net.cpp:454] log <- mask_score_softmax
I0625 18:43:40.810636 27285 net.cpp:411] log -> log
I0625 18:43:40.810663 27285 net.cpp:150] Setting up log
I0625 18:43:40.810668 27285 net.cpp:157] Top shape: 1 8 244 244 (476288)
I0625 18:43:40.810672 27285 net.cpp:165] Memory required for data: 1676675720
I0625 18:43:40.810684 27285 layer_factory.hpp:77] Creating layer mult1
I0625 18:43:40.810691 27285 net.cpp:106] Creating Layer mult1
I0625 18:43:40.810694 27285 net.cpp:454] mult1 <- log
I0625 18:43:40.810698 27285 net.cpp:454] mult1 <- mask_targets
I0625 18:43:40.810714 27285 net.cpp:411] mult1 -> mult1
I0625 18:43:40.810736 27285 net.cpp:150] Setting up mult1
I0625 18:43:40.810751 27285 net.cpp:157] Top shape: 1 8 244 244 (476288)
I0625 18:43:40.810755 27285 net.cpp:165] Memory required for data: 1678580872
I0625 18:43:40.810770 27285 layer_factory.hpp:77] Creating layer cross_entropy
I0625 18:43:40.810776 27285 net.cpp:106] Creating Layer cross_entropy
I0625 18:43:40.810789 27285 net.cpp:454] cross_entropy <- mult1
I0625 18:43:40.810794 27285 net.cpp:411] cross_entropy -> cross_entropy
I0625 18:43:40.810824 27285 net.cpp:150] Setting up cross_entropy
I0625 18:43:40.810829 27285 net.cpp:157] Top shape: 1 8 244 244 (476288)
I0625 18:43:40.810832 27285 net.cpp:165] Memory required for data: 1680486024
I0625 18:43:40.810834 27285 layer_factory.hpp:77] Creating layer ce_sum
I0625 18:43:40.810853 27285 net.cpp:106] Creating Layer ce_sum
I0625 18:43:40.810865 27285 net.cpp:454] ce_sum <- cross_entropy
I0625 18:43:40.810871 27285 net.cpp:411] ce_sum -> cross_entropy_sum
I0625 18:43:40.812100 27285 net.cpp:150] Setting up ce_sum
I0625 18:43:40.812110 27285 net.cpp:157] Top shape: 1 1 244 244 (59536)
I0625 18:43:40.812114 27285 net.cpp:165] Memory required for data: 1680724168
I0625 18:43:40.812120 27285 layer_factory.hpp:77] Creating layer ce_mean
I0625 18:43:40.812129 27285 net.cpp:106] Creating Layer ce_mean
I0625 18:43:40.812132 27285 net.cpp:454] ce_mean <- cross_entropy_sum
I0625 18:43:40.812137 27285 net.cpp:411] ce_mean -> cross_entropy_mean
I0625 18:43:40.812789 27285 net.cpp:150] Setting up ce_mean
…
