…
average_loss: 100
iter_size: 2
I0625 19:20:29.330658  3703 solver.cpp:81] Creating training net from train_net file: models/pascal_voc/VGG16/faster_rcnn_end2end/train.prototxt
I0625 19:20:29.332101  3703 net.cpp:49] Initializing net from parameters: 
name: "VGG_ILSVRC_16_layers"
state {
  phase: TRAIN
}
layer {
  name: "input-data"
  type: "Python"
  top: "data"
  top: "im_info"
  top: "gt_boxes"
  top: "seg_mask_inds"
  top: "flipped"
  python_param {
    module: "roi_data_layer.layer"
    layer: "RoIDataLayer"
    param_str: "\'num_classes\': 2"
  }
}
layer {
  name: "conv1_1"
  type: "Convolution"
  bottom: "data"
  top: "conv1_1"
  param {
    lr_mult: 0
    decay_mult: 0
  }
  param {
    lr_mult: 0
    decay_mult: 0
  }
  convolution_param {
    num_output: 64
    pad: 1
    kernel_size: 3
  }
}
layer {
  name: "relu1_1"
  type: "ReLU"
  bottom: "conv1_1"
  top: "conv1_1"
}
layer {
  name: "conv1_2"
  type: "Convolution"
  bottom: "conv1_1"
  top: "conv1_2"
  param {
    lr_mult: 0
    decay_mult: 0
  }
  param {
    lr_mult: 0
    decay_mult: 0
  }
  convolution_param {
    num_output: 64
    pad: 1
    kernel_size: 3
  }
}
layer {
  name: "relu1_2"
  type: "ReLU"
  bottom: "conv1_2"
  top: "conv1_2"
}
layer {
  name: "pool1"
  type: "Pooling"
  bottom: "conv1_2"
  top: "pool1"
  pooling_param {
    pool: MAX
    kernel_size: 2
    stride: 2
  }
}
layer {
  name: "conv2_1"
  type: "Convolution"
  bottom: "pool1"
  top: "conv2_1"
  param {
    lr_mult: 0
    decay_mult: 0
  }
  param {
    lr_mult: 0
    decay_mult: 0
  }
  convolution_param {
    num_output: 128
    pad: 1
    kernel_size: 3
  }
}
layer {
  name: "relu2_1"
  type: "ReLU"
  bottom: "conv2_1"
  top: "conv2_1"
}
layer {
  name: "conv2_2"
  type: "Convolution"
  bottom: "conv2_1"
  top: "conv2_2"
  param {
    lr_mult: 0
    decay_mult: 0
  }
  param {
    lr_mult: 0
    decay_mult: 0
  }
  convolution_param {
    num_output: 128
    pad: 1
    kernel_size: 3
  }
}
layer {
  name: "relu2_2"
  type: "ReLU"
  bottom: "conv2_2"
  top: "conv2_2"
}
layer {
  name: "pool2"
  type: "Pooling"
  bottom: "conv2_2"
  top: "pool2"
  pooling_param {
    pool: MAX
    kernel_size: 2
    stride: 2
  }
}
layer {
  name: "conv3_1"
  type: "Convolution"
  bottom: "pool2"
  top: "conv3_1"
  param {
    lr_mult: 1
  }
  param {
    lr_mult: 2
  }
  convolution_param {
    num_output: 256
    pad: 1
    kernel_size: 3
  }
}
layer {
  name: "relu3_1"
  type: "ReLU"
  bottom: "conv3_1"
  top: "conv3_1"
}
layer {
  name: "conv3_2"
  type: "Convolution"
  bottom: "conv3_1"
  top: "conv3_2"
  param {
    lr_mult: 1
  }
  param {
    lr_mult: 2
  }
  convolution_param {
    num_output: 256
    pad: 1
    kernel_size: 3
  }
}
layer {
  name: "relu3_2"
  type: "ReLU"
  bottom: "conv3_2"
  top: "conv3_2"
}
layer {
  name: "conv3_3"
  type: "Convolution"
  bottom: "conv3_2"
  top: "conv3_3"
  param {
    lr_mult: 1
  }
  param {
    lr_mult: 2
  }
  convolution_param {
    num_output: 256
    pad: 1
    kernel_size: 3
  }
}
layer {
  name: "relu3_3"
  type: "ReLU"
  bottom: "conv3_3"
  top: "conv3_3"
}
layer {
  name: "pool3"
  type: "Pooling"
  bottom: "conv3_3"
  top: "pool3"
  pooling_param {
    pool: MAX
    kernel_size: 2
    stride: 2
  }
}
layer {
  name: "conv4_1"
  type: "Convolution"
  bottom: "pool3"
  top: "conv4_1"
  param {
    lr_mult: 1
  }
  param {
    lr_mult: 2
  }
  convolution_param {
    num_output: 512
    pad: 1
    kernel_size: 3
  }
}
layer {
  name: "relu4_1"
  type: "ReLU"
  bottom: "conv4_1"
  top: "conv4_1"
}
layer {
  name: "conv4_2"
  type: "Convolution"
  bottom: "conv4_1"
  top: "conv4_2"
  param {
    lr_mult: 1
  }
  param {
    lr_mult: 2
  }
  convolution_param {
    num_output: 512
    pad: 1
    kernel_size: 3
  }
}
layer {
  name: "relu4_2"
  type: "ReLU"
  bottom: "conv4_2"
  top: "conv4_2"
}
layer {
  name: "conv4_3"
  type: "Convolution"
  bottom: "conv4_2"
  top: "conv4_3"
  param {
    lr_mult: 1
  }
  param {
    lr_mult: 2
  }
  convolution_param {
    num_output: 512
    pad: 1
    kernel_size: 3
  }
}
layer {
  name: "relu4_3"
  type: "ReLU"
  bottom: "conv4_3"
  top: "conv4_3"
}
layer {
  name: "pool4"
  type: "Pooling"
  bottom: "conv4_3"
  top: "pool4"
  pooling_param {
    pool: MAX
    kernel_size: 2
    stride: 2
  }
}
layer {
  name: "conv5_1"
  type: "Convolution"
  bottom: "pool4"
  top: "conv5_1"
  param {
    lr_mult: 1
  }
  param {
    lr_mult: 2
  }
  convolution_param {
    num_output: 512
    pad: 1
    kernel_size: 3
  }
}
layer {
  name: "relu5_1"
  type: "ReLU"
  bottom: "conv5_1"
  top: "conv5_1"
}
layer {
  name: "conv5_2"
  type: "Convolution"
  bottom: "conv5_1"
  top: "conv5_2"
  param {
    lr_mult: 1
  }
  param {
    lr_mult: 2
  }
  convolution_param {
    num_output: 512
    pad: 1
    kernel_size: 3
  }
}
layer {
  name: "relu5_2"
  type: "ReLU"
  bottom: "conv5_2"
  top: "conv5_2"
}
layer {
  name: "conv5_3"
  type: "Convolution"
  bottom: "conv5_2"
  top: "conv5_3"
  param {
    lr_mult: 1
  }
  param {
    lr_mult: 2
  }
  convolution_param {
    num_output: 512
    pad: 1
    kernel_size: 3
  }
}
layer {
  name: "relu5_3"
  type: "ReLU"
  bottom: "conv5_3"
  top: "conv5_3"
}
layer {
  name: "rpn_conv/3x3"
  type: "Convolution"
  bottom: "conv5_3"
  top: "rpn/output"
  param {
    lr_mult: 1
  }
  param {
    lr_mult: 2
  }
  convolution_param {
    num_output: 512
    pad: 1
    kernel_size: 3
    stride: 1
    weight_filler {
      type: "gaussian"
      std: 0.01
    }
    bias_filler {
      type: "constant"
      value: 0
    }
  }
}
layer {
  name: "rpn_relu/3x3"
  type: "ReLU"
  bottom: "rpn/output"
  top: "rpn/output"
}
layer {
  name: "rpn_cls_score"
  type: "Convolution"
  bottom: "rpn/output"
  top: "rpn_cls_score"
  param {
    lr_mult: 1
  }
  param {
    lr_mult: 2
  }
  convolution_param {
    num_output: 30
    pad: 0
    kernel_size: 1
    stride: 1
    weight_filler {
      type: "gaussian"
      std: 0.01
    }
    bias_filler {
      type: "constant"
      value: 0
    }
  }
}
layer {
  name: "rpn_bbox_pred"
  type: "Convolution"
  bottom: "rpn/output"
  top: "rpn_bbox_pred"
  param {
    lr_mult: 1
  }
  param {
    lr_mult: 2
  }
  convolution_param {
    num_output: 60
    pad: 0
    kernel_size: 1
    stride: 1
    weight_filler {
      type: "gaussian"
      std: 0.01
    }
    bias_filler {
      type: "constant"
      value: 0
    }
  }
}
layer {
  name: "rpn_cls_score_reshape"
  type: "Reshape"
  bottom: "rpn_cls_score"
  top: "rpn_cls_score_reshape"
  reshape_param {
    shape {
      dim: 0
      dim: 2
      dim: -1
      dim: 0
    }
  }
}
layer {
  name: "rpn-data"
  type: "Python"
  bottom: "rpn_cls_score"
  bottom: "gt_boxes"
  bottom: "im_info"
  bottom: "data"
  top: "rpn_labels"
  top: "rpn_bbox_targets"
  top: "rpn_bbox_inside_weights"
  top: "rpn_bbox_outside_weights"
  python_param {
    module: "rpn.anchor_target_layer"
    layer: "AnchorTargetLayer"
    param_str: "\'feat_stride\': 16 \n\'scales\': !!python/tuple [2, 4, 8, 16, 32]"
  }
}
layer {
  name: "rpn_loss_cls"
  type: "SoftmaxWithLoss"
  bottom: "rpn_cls_score_reshape"
  bottom: "rpn_labels"
  top: "rpn_cls_loss"
  loss_weight: 1
  propagate_down: true
  propagate_down: false
  loss_param {
    ignore_label: -1
    normalize: true
  }
}
layer {
  name: "rpn_loss_bbox"
  type: "SmoothL1Loss"
  bottom: "rpn_bbox_pred"
  bottom: "rpn_bbox_targets"
  bottom: "rpn_bbox_inside_weights"
  bottom: "rpn_bbox_outside_weights"
  top: "rpn_loss_bbox"
  loss_weight: 1
  smooth_l1_loss_param {
    sigma: 3
  }
}
layer {
  name: "rpn_cls_prob"
  type: "Softmax"
  bottom: "rpn_cls_score_reshape"
  top: "rpn_cls_prob"
}
layer {
  name: "rpn_cls_prob_reshape"
  type: "Reshape"
  bottom: "rpn_cls_prob"
  top: "rpn_cls_prob_reshape"
  reshape_param {
    shape {
      dim: 0
      dim: 30
      dim: -1
      dim: 0
    }
  }
}
layer {
  name: "proposal"
  type: "Python"
  bottom: "rpn_cls_prob_reshape"
  bottom: "rpn_bbox_pred"
  bottom: "im_info"
  top: "rpn_rois"
  python_param {
    module: "rpn.proposal_layer"
    layer: "ProposalLayer"
    param_str: "\'feat_stride\': 16 \n\'scales\': !!python/tuple [2, 4, 8, 16, 32]"
  }
}
layer {
  name: "roi-data"
  type: "Python"
  bottom: "rpn_rois"
  bottom: "gt_boxes"
  bottom: "im_info"
  bottom: "seg_mask_inds"
  bottom: "flipped"
  top: "rois"
  top: "labels"
  top: "bbox_targets"
  top: "bbox_inside_weights"
  top: "bbox_outside_weights"
  top: "mask_targets"
  top: "rois_pos"
  top: "attrArray"
  top: "attrArrayInd"
  top: "attrArrayShift"
  python_param {
    module: "rpn.proposal_target_layer"
    layer: "ProposalTargetLayer"
    param_str: "\'num_classes\': 2"
  }
}
layer {
  name: "roi_pool5"
  type: "ROIAlignment"
  bottom: "conv5_3"
  bottom: "rois"
  top: "pool5"
  roi_alignment_param {
    pooled_h: 7
    pooled_w: 7
    spatial_scale: 0.0625
  }
}
layer {
  name: "fc6"
  type: "InnerProduct"
  bottom: "pool5"
  top: "fc6"
  param {
    lr_mult: 1
  }
  param {
    lr_mult: 2
  }
  inner_product_param {
    num_output: 4096
  }
}
layer {
  name: "relu6"
  type: "ReLU"
  bottom: "fc6"
  top: "fc6"
}
layer {
  name: "fc7"
  type: "InnerProduct"
  bottom: "fc6"
  top: "fc7"
  param {
    lr_mult: 1
  }
  param {
    lr_mult: 2
  }
  inner_product_param {
    num_output: 4096
  }
}
layer {
  name: "relu7"
  type: "ReLU"
  bottom: "fc7"
  top: "fc7"
}
layer {
  name: "attr_score"
  type: "InnerProduct"
  bottom: "fc7"
  top: "attr_score"
  param {
    lr_mult: 1
  }
  param {
    lr_mult: 2
  }
  inner_product_param {
    num_output: 7
    weight_filler {
      type: "gaussian"
      std: 0.001
    }
    bias_filler {
      type: "constant"
      value: 0
    }
  }
}
layer {
  name: "attr_score_pos"
  type: "Eltwise"
  bottom: "attr_score"
  bottom: "attrArrayInd"
  top: "attr_score_pos"
  eltwise_param {
    operation: PROD
  }
}
layer {
  name: "attr_score_pos_shift"
  type: "Eltwise"
  bottom: "attr_score_pos"
  bottom: "attrArrayShift"
  top: "attr_score_pos_shift"
  eltwise_param {
    operation: SUM
  }
}
layer {
  name: "cls_score"
  type: "InnerProduct"
  bottom: "fc7"
  top: "cls_score"
  param {
    lr_mult: 1
  }
  param {
    lr_mult: 2
  }
  inner_product_param {
    num_output: 2
    weight_filler {
      type: "gaussian"
      std: 0.01
    }
    bias_filler {
      type: "constant"
      value: 0
    }
  }
}
layer {
  name: "bbox_pred"
  type: "InnerProduct"
  bottom: "fc7"
  top: "bbox_pred"
  param {
    lr_mult: 1
  }
  param {
    lr_mult: 2
  }
  inner_product_param {
    num_output: 8
    weight_filler {
      type: "gaussian"
      std: 0.001
    }
    bias_filler {
      type: "constant"
      value: 0
    }
  }
}
layer {
  name: "loss_attribute"
  type: "SigmoidCrossEntropyLoss"
  bottom: "attr_score_pos_shift"
  bottom: "attrArray"
  top: "loss_attribute"
  loss_weight: 1
  propagate_down: true
  propagate_down: false
}
layer {
  name: "loss_cls"
  type: "SoftmaxWithLoss"
  bottom: "cls_score"
  bottom: "labels"
  top: "loss_cls"
  loss_weight: 3
  propagate_down: true
  propagate_down: false
}
layer {
  name: "loss_bbox"
  type: "SmoothL1Loss"
  bottom: "bbox_pred"
  bottom: "bbox_targets"
  bottom: "bbox_inside_weights"
  bottom: "bbox_outside_weights"
  top: "loss_bbox"
  loss_weight: 2
}
layer {
  name: "roi_pool5_2"
  type: "ROIAlignment"
  bottom: "conv5_3"
  bottom: "rois_pos"
  top: "pool5_2"
  roi_alignment_param {
    pooled_h: 7
    pooled_w: 7
    spatial_scale: 0.0625
  }
}
layer {
  name: "pool5_2_conv"
  type: "Convolution"
  bottom: "pool5_2"
  top: "pool5_2_conv"
  param {
    lr_mult: 1
    decay_mult: 1
  }
  param {
    lr_mult: 2
    decay_mult: 0
  }
  convolution_param {
    num_output: 512
    pad: 0
    kernel_size: 1
    weight_filler {
      type: "gaussian"
      std: 0.01
    }
    bias_filler {
      type: "constant"
      value: 0
    }
  }
}
layer {
  name: "pool5_2_conv_relu"
  type: "ReLU"
  bottom: "pool5_2_conv"
  top: "pool5_2_conv_relu"
}
layer {
  name: "pool5_2_conv2"
  type: "Convolution"
  bottom: "pool5_2_conv_relu"
  top: "pool5_2_conv2"
  param {
    lr_mult: 1
    decay_mult: 1
  }
  param {
    lr_mult: 2
    decay_mult: 0
  }
  convolution_param {
    num_output: 512
    pad: 1
    kernel_size: 3
    stride: 1
    weight_filler {
      type: "gaussian"
      std: 0.01
    }
    bias_filler {
      type: "constant"
      value: 0
    }
  }
}
layer {
  name: "pool5_2_conv2_relu"
  type: "ReLU"
  bottom: "pool5_2_conv2"
  top: "pool5_2_conv2_relu"
}
layer {
  name: "mask_deconv1"
  type: "Deconvolution"
  bottom: "pool5_2_conv2_relu"
  top: "mask_deconv1"
  param {
    lr_mult: 1
    decay_mult: 1
  }
  param {
    lr_mult: 2
    decay_mult: 0
  }
  convolution_param {
    num_output: 256
    pad: 1
    kernel_size: 8
    group: 256
    stride: 4
    weight_filler {
      type: "bilinear"
    }
  }
}
layer {
  name: "pool5_2_conv3"
  type: "Convolution"
  bottom: "mask_deconv1"
  top: "pool5_2_conv3"
  param {
    lr_mult: 1
    decay_mult: 1
  }
  param {
    lr_mult: 2
    decay_mult: 0
  }
  convolution_param {
    num_output: 512
    pad: 1
    kernel_size: 3
    stride: 1
    weight_filler {
      type: "gaussian"
      std: 0.01
    }
    bias_filler {
      type: "constant"
      value: 0
    }
  }
}
layer {
  name: "pool5_2_conv3_relu"
  type: "ReLU"
  bottom: "pool5_2_conv3"
  top: "pool5_2_conv3_relu"
}
layer {
  name: "pool5_2_conv4"
  type: "Convolution"
  bottom: "pool5_2_conv3_relu"
  top: "pool5_2_conv4"
  param {
    lr_mult: 1
    decay_mult: 1
  }
  param {
    lr_mult: 2
    decay_mult: 0
  }
  convolution_param {
    num_output: 512
    pad: 1
    kernel_size: 3
    stride: 1
    weight_filler {
      type: "gaussian"
      std: 0.01
    }
    bias_filler {
      type: "constant"
      value: 0
    }
  }
}
layer {
  name: "pool5_2_conv4_relu"
  type: "ReLU"
  bottom: "pool5_2_conv4"
  top: "pool5_2_conv4_relu"
}
layer {
  name: "query_conv"
  type: "Convolution"
  bottom: "pool5_2_conv4_relu"
  top: "query_conv"
  param {
    lr_mult: 1
    decay_mult: 1
  }
  param {
    lr_mult: 2
    decay_mult: 0
  }
  convolution_param {
    num_output: 64
    pad: 0
    kernel_size: 1
    stride: 1
    weight_filler {
      type: "gaussian"
      std: 0.01
    }
    bias_filler {
      type: "constant"
      value: 0
    }
  }
}
layer {
  name: "key_conv"
  type: "Convolution"
  bottom: "pool5_2_conv4_relu"
  top: "key_conv"
  param {
    lr_mult: 1
    decay_mult: 1
  }
  param {
    lr_mult: 2
    decay_mult: 0
  }
  convolution_param {
    num_output: 64
    pad: 0
    kernel_size: 1
    stride: 1
    weight_filler {
      type: "gaussian"
      std: 0.01
    }
    bias_filler {
      type: "constant"
      value: 0
    }
  }
}
layer {
  name: "value_conv"
  type: "Convolution"
  bottom: "pool5_2_conv4_relu"
  top: "value_conv"
  param {
    lr_mult: 1
    decay_mult: 1
  }
  param {
    lr_mult: 2
    decay_mult: 0
  }
  convolution_param {
    num_output: 512
    pad: 0
    kernel_size: 1
    stride: 1
    weight_filler {
      type: "gaussian"
      std: 0.01
    }
    bias_filler {
      type: "constant"
      value: 0
    }
  }
}
layer {
  name: "query_conv_reshape"
  type: "Reshape"
  bottom: "query_conv"
  top: "query_conv_reshape"
  reshape_param {
    shape {
      dim: -1
      dim: 64
      dim: 900
      dim: 1
    }
  }
}
layer {
  name: "key_conv_reshape"
  type: "Reshape"
  bottom: "key_conv"
  top: "key_conv_reshape"
  reshape_param {
    shape {
      dim: -1
      dim: 64
      dim: 900
      dim: 1
    }
  }
}
layer {
  name: "value_conv_reshape"
  type: "Reshape"
  bottom: "value_conv"
  top: "value_conv_reshape"
  reshape_param {
    shape {
      dim: -1
      dim: 512
      dim: 900
      dim: 1
    }
  }
}
layer {
  name: "query_conv_reshape_perm"
  type: "Permute"
  bottom: "query_conv_reshape"
  top: "query_conv_reshape_perm"
  permute_param {
    order: 0
    order: 3
    order: 2
    order: 1
  }
}
layer {
  name: "key_conv_reshape_perm"
  type: "Permute"
  bottom: "key_conv_reshape"
  top: "key_conv_reshape_perm"
  permute_param {
    order: 0
    order: 3
    order: 1
    order: 2
  }
}
layer {
  name: "energy"
  type: "MatrixMultiplication"
  bottom: "query_conv_reshape_perm"
  bottom: "key_conv_reshape_perm"
  top: "energy"
}
layer {
  name: "attention"
  type: "Softmax"
  bottom: "energy"
  top: "attention"
  softmax_param {
    axis: 3
  }
}
layer {
  name: "value_conv_reshape_perm"
  type: "Permute"
  bottom: "value_conv_reshape"
  top: "value_conv_reshape_perm"
  permute_param {
    order: 0
    order: 3
    order: 1
    order: 2
  }
}
layer {
  name: "attention_perm"
  type: "Permute"
  bottom: "attention"
  top: "attention_perm"
  permute_param {
    order: 0
    order: 1
    order: 2
    order: 3
  }
}
layer {
  name: "out"
  type: "MatrixMultiplication"
  bottom: "value_conv_reshape_perm"
  bottom: "attention_perm"
  top: "out"
}
layer {
  name: "out_reshape"
  type: "Reshape"
  bottom: "out"
  top: "out_reshape"
  reshape_param {
    shape {
      dim: -1
      dim: 512
      dim: 30
      dim: 30
    }
  }
}
layer {
  name: "out_reshape_scale"
  type: "Scale"
  bottom: "out_reshape"
  top: "out_reshape_scale"
  param {
    name: "scale_conv1_1"
    lr_mult: 1
  }
  scale_param {
    bias_term: false
  }
}
layer {
  name: "out_x"
  type: "Eltwise"
  bottom: "out_reshape_scale"
  bottom: "pool5_2_conv4_relu"
  top: "out_x"
  eltwise_param {
    operation: SUM
  }
}
layer {
  name: "mask_deconv2"
  type: "Deconvolution"
  bottom: "out_x"
  top: "mask_deconv2"
  param {
    lr_mult: 1
    decay_mult: 1
  }
  param {
    lr_mult: 2
    decay_mult: 0
  }
  convolution_param {
    num_output: 256
    pad: 1
    kernel_size: 8
    group: 256
    stride: 4
    weight_filler {
      type: "bilinear"
    }
  }
}
layer {
  name: "pool5_2_conv5"
  type: "Convolution"
  bottom: "mask_deconv2"
  top: "pool5_2_conv5"
  param {
    lr_mult: 1
    decay_mult: 1
  }
  param {
    lr_mult: 2
    decay_mult: 0
  }
  convolution_param {
    num_output: 512
    pad: 1
    kernel_size: 3
    stride: 1
    weight_filler {
      type: "gaussian"
      std: 0.01
    }
    bias_filler {
      type: "constant"
      value: 0
    }
  }
}
layer {
  name: "pool5_2_conv5_relu"
  type: "ReLU"
  bottom: "pool5_2_conv5"
  top: "pool5_2_conv5_relu"
}
layer {
  name: "pool5_2_conv6"
  type: "Convolution"
  bottom: "pool5_2_conv5_relu"
  top: "pool5_2_conv6"
  param {
    lr_mult: 1
    decay_mult: 1
  }
  param {
    lr_mult: 2
    decay_mult: 0
  }
  convolution_param {
    num_output: 512
    pad: 1
    kernel_size: 3
    stride: 1
    weight_filler {
      type: "gaussian"
      std: 0.01
    }
    bias_filler {
      type: "constant"
      value: 0
    }
  }
}
layer {
  name: "pool5_2_conv6_relu"
  type: "ReLU"
  bottom: "pool5_2_conv6"
  top: "pool5_2_conv6_relu"
}
layer {
  name: "mask_deconv3"
  type: "Deconvolution"
  bottom: "pool5_2_conv6_relu"
  top: "mask_deconv3"
  param {
    lr_mult: 1
    decay_mult: 1
  }
  param {
    lr_mult: 2
    decay_mult: 0
  }
  convolution_param {
    num_output: 256
    pad: 1
    kernel_size: 4
    group: 256
    stride: 2
    weight_filler {
      type: "bilinear"
    }
  }
}
layer {
  name: "mask_score"
  type: "Convolution"
  bottom: "mask_deconv3"
  top: "mask_score"
  param {
    lr_mult: 1
    decay_mult: 1
  }
  param {
    lr_mult: 2
    decay_mult: 0
  }
  convolution_param {
    num_output: 8
    pad: 0
    kernel_size: 1
    weight_filler {
      type: "gaussian"
      std: 0.01
    }
    bias_filler {
      type: "constant"
      value: 0
    }
  }
}
layer {
  name: "prob"
  type: "Softmax"
  bottom: "mask_score"
  top: "mask_score_softmax"
  softmax_param {
    axis: 1
  }
}
layer {
  name: "log"
  type: "Log"
  bottom: "mask_score_softmax"
  top: "log"
}
layer {
  name: "mult1"
  type: "Eltwise"
  bottom: "log"
  bottom: "mask_targets"
  top: "mult1"
  eltwise_param {
    operation: PROD
  }
}
layer {
  name: "cross_entropy"
  type: "Power"
  bottom: "mult1"
  top: "cross_entropy"
  power_param {
    power: 1
    scale: -1
    shift: 0
  }
}
layer {
  name: "ce_sum"
  type: "Convolution"
  bottom: "cross_entropy"
  top: "cross_entropy_sum"
  param {
    lr_mult: 0
    decay_mult: 0
  }
  convolution_param {
    num_output: 1
    bias_term: false
    kernel_size: 1
    weight_filler {
      type: "constant"
      value: 1
    }
  }
}
layer {
  name: "ce_mean"
  type: "Reduction"
  bottom: "cross_entropy_sum"
  top: "cross_entropy_mean"
  loss_weight: 1
  reduction_param {
    operation: MEAN
    axis: 0
  }
}
I0625 19:20:29.332509  3703 layer_factory.hpp:77] Creating layer input-data
I0625 19:20:29.344532  3703 net.cpp:106] Creating Layer input-data
I0625 19:20:29.344547  3703 net.cpp:411] input-data -> data
I0625 19:20:29.344557  3703 net.cpp:411] input-data -> im_info
I0625 19:20:29.344563  3703 net.cpp:411] input-data -> gt_boxes
I0625 19:20:29.344568  3703 net.cpp:411] input-data -> seg_mask_inds
I0625 19:20:29.344575  3703 net.cpp:411] input-data -> flipped
RoiDataLayer: name_to_top: {'gt_boxes': 2, 'data': 0, 'seg_mask_inds': 3, 'im_info': 1, 'flipped': 4}
I0625 19:20:29.355309  3703 net.cpp:150] Setting up input-data
I0625 19:20:29.355326  3703 net.cpp:157] Top shape: 1 3 600 1000 (1800000)
I0625 19:20:29.355342  3703 net.cpp:157] Top shape: 1 3 (3)
I0625 19:20:29.355347  3703 net.cpp:157] Top shape: 1 4 (4)
I0625 19:20:29.355350  3703 net.cpp:157] Top shape: 1 2 (2)
I0625 19:20:29.355355  3703 net.cpp:157] Top shape: 1 1 (1)
I0625 19:20:29.355358  3703 net.cpp:165] Memory required for data: 7200040
I0625 19:20:29.355365  3703 layer_factory.hpp:77] Creating layer data_input-data_0_split
I0625 19:20:29.355379  3703 net.cpp:106] Creating Layer data_input-data_0_split
I0625 19:20:29.355383  3703 net.cpp:454] data_input-data_0_split <- data
I0625 19:20:29.355398  3703 net.cpp:411] data_input-data_0_split -> data_input-data_0_split_0
I0625 19:20:29.355417  3703 net.cpp:411] data_input-data_0_split -> data_input-data_0_split_1
I0625 19:20:29.355459  3703 net.cpp:150] Setting up data_input-data_0_split
I0625 19:20:29.355474  3703 net.cpp:157] Top shape: 1 3 600 1000 (1800000)
I0625 19:20:29.355479  3703 net.cpp:157] Top shape: 1 3 600 1000 (1800000)
I0625 19:20:29.355492  3703 net.cpp:165] Memory required for data: 21600040
I0625 19:20:29.355495  3703 layer_factory.hpp:77] Creating layer im_info_input-data_1_split
I0625 19:20:29.355504  3703 net.cpp:106] Creating Layer im_info_input-data_1_split
I0625 19:20:29.355507  3703 net.cpp:454] im_info_input-data_1_split <- im_info
I0625 19:20:29.355511  3703 net.cpp:411] im_info_input-data_1_split -> im_info_input-data_1_split_0
I0625 19:20:29.355518  3703 net.cpp:411] im_info_input-data_1_split -> im_info_input-data_1_split_1
I0625 19:20:29.355525  3703 net.cpp:411] im_info_input-data_1_split -> im_info_input-data_1_split_2
I0625 19:20:29.355553  3703 net.cpp:150] Setting up im_info_input-data_1_split
I0625 19:20:29.355558  3703 net.cpp:157] Top shape: 1 3 (3)
I0625 19:20:29.355562  3703 net.cpp:157] Top shape: 1 3 (3)
I0625 19:20:29.355567  3703 net.cpp:157] Top shape: 1 3 (3)
I0625 19:20:29.355571  3703 net.cpp:165] Memory required for data: 21600076
I0625 19:20:29.355573  3703 layer_factory.hpp:77] Creating layer gt_boxes_input-data_2_split
I0625 19:20:29.355578  3703 net.cpp:106] Creating Layer gt_boxes_input-data_2_split
I0625 19:20:29.355581  3703 net.cpp:454] gt_boxes_input-data_2_split <- gt_boxes
I0625 19:20:29.355587  3703 net.cpp:411] gt_boxes_input-data_2_split -> gt_boxes_input-data_2_split_0
I0625 19:20:29.355593  3703 net.cpp:411] gt_boxes_input-data_2_split -> gt_boxes_input-data_2_split_1
I0625 19:20:29.355615  3703 net.cpp:150] Setting up gt_boxes_input-data_2_split
I0625 19:20:29.355620  3703 net.cpp:157] Top shape: 1 4 (4)
I0625 19:20:29.355624  3703 net.cpp:157] Top shape: 1 4 (4)
I0625 19:20:29.355628  3703 net.cpp:165] Memory required for data: 21600108
I0625 19:20:29.355630  3703 layer_factory.hpp:77] Creating layer conv1_1
I0625 19:20:29.355640  3703 net.cpp:106] Creating Layer conv1_1
I0625 19:20:29.355643  3703 net.cpp:454] conv1_1 <- data_input-data_0_split_0
I0625 19:20:29.355648  3703 net.cpp:411] conv1_1 -> conv1_1
I0625 19:20:29.516400  3703 net.cpp:150] Setting up conv1_1
I0625 19:20:29.516422  3703 net.cpp:157] Top shape: 1 64 600 1000 (38400000)
I0625 19:20:29.516433  3703 net.cpp:165] Memory required for data: 175200108
I0625 19:20:29.516458  3703 layer_factory.hpp:77] Creating layer relu1_1
I0625 19:20:29.516469  3703 net.cpp:106] Creating Layer relu1_1
I0625 19:20:29.516474  3703 net.cpp:454] relu1_1 <- conv1_1
I0625 19:20:29.516489  3703 net.cpp:397] relu1_1 -> conv1_1 (in-place)
I0625 19:20:29.516630  3703 net.cpp:150] Setting up relu1_1
I0625 19:20:29.516638  3703 net.cpp:157] Top shape: 1 64 600 1000 (38400000)
I0625 19:20:29.516640  3703 net.cpp:165] Memory required for data: 328800108
I0625 19:20:29.516654  3703 layer_factory.hpp:77] Creating layer conv1_2
I0625 19:20:29.516664  3703 net.cpp:106] Creating Layer conv1_2
I0625 19:20:29.516669  3703 net.cpp:454] conv1_2 <- conv1_1
I0625 19:20:29.516683  3703 net.cpp:411] conv1_2 -> conv1_2
I0625 19:20:29.518882  3703 net.cpp:150] Setting up conv1_2
I0625 19:20:29.518893  3703 net.cpp:157] Top shape: 1 64 600 1000 (38400000)
I0625 19:20:29.518895  3703 net.cpp:165] Memory required for data: 482400108
I0625 19:20:29.518915  3703 layer_factory.hpp:77] Creating layer relu1_2
I0625 19:20:29.518924  3703 net.cpp:106] Creating Layer relu1_2
I0625 19:20:29.518929  3703 net.cpp:454] relu1_2 <- conv1_2
I0625 19:20:29.518936  3703 net.cpp:397] relu1_2 -> conv1_2 (in-place)
I0625 19:20:29.519058  3703 net.cpp:150] Setting up relu1_2
I0625 19:20:29.519065  3703 net.cpp:157] Top shape: 1 64 600 1000 (38400000)
I0625 19:20:29.519068  3703 net.cpp:165] Memory required for data: 636000108
I0625 19:20:29.519080  3703 layer_factory.hpp:77] Creating layer pool1
I0625 19:20:29.519090  3703 net.cpp:106] Creating Layer pool1
I0625 19:20:29.519094  3703 net.cpp:454] pool1 <- conv1_2
I0625 19:20:29.519099  3703 net.cpp:411] pool1 -> pool1
I0625 19:20:29.519134  3703 net.cpp:150] Setting up pool1
I0625 19:20:29.519140  3703 net.cpp:157] Top shape: 1 64 300 500 (9600000)
I0625 19:20:29.519142  3703 net.cpp:165] Memory required for data: 674400108
I0625 19:20:29.519145  3703 layer_factory.hpp:77] Creating layer conv2_1
I0625 19:20:29.519155  3703 net.cpp:106] Creating Layer conv2_1
I0625 19:20:29.519158  3703 net.cpp:454] conv2_1 <- pool1
I0625 19:20:29.519163  3703 net.cpp:411] conv2_1 -> conv2_1
I0625 19:20:29.520908  3703 net.cpp:150] Setting up conv2_1
I0625 19:20:29.520918  3703 net.cpp:157] Top shape: 1 128 300 500 (19200000)
I0625 19:20:29.520921  3703 net.cpp:165] Memory required for data: 751200108
I0625 19:20:29.520931  3703 layer_factory.hpp:77] Creating layer relu2_1
I0625 19:20:29.520937  3703 net.cpp:106] Creating Layer relu2_1
I0625 19:20:29.520941  3703 net.cpp:454] relu2_1 <- conv2_1
I0625 19:20:29.520947  3703 net.cpp:397] relu2_1 -> conv2_1 (in-place)
I0625 19:20:29.521399  3703 net.cpp:150] Setting up relu2_1
I0625 19:20:29.521407  3703 net.cpp:157] Top shape: 1 128 300 500 (19200000)
I0625 19:20:29.521410  3703 net.cpp:165] Memory required for data: 828000108
I0625 19:20:29.521414  3703 layer_factory.hpp:77] Creating layer conv2_2
I0625 19:20:29.521422  3703 net.cpp:106] Creating Layer conv2_2
I0625 19:20:29.521426  3703 net.cpp:454] conv2_2 <- conv2_1
I0625 19:20:29.521432  3703 net.cpp:411] conv2_2 -> conv2_2
I0625 19:20:29.522720  3703 net.cpp:150] Setting up conv2_2
I0625 19:20:29.522730  3703 net.cpp:157] Top shape: 1 128 300 500 (19200000)
I0625 19:20:29.522734  3703 net.cpp:165] Memory required for data: 904800108
I0625 19:20:29.522740  3703 layer_factory.hpp:77] Creating layer relu2_2
I0625 19:20:29.522747  3703 net.cpp:106] Creating Layer relu2_2
I0625 19:20:29.522750  3703 net.cpp:454] relu2_2 <- conv2_2
I0625 19:20:29.522758  3703 net.cpp:397] relu2_2 -> conv2_2 (in-place)
I0625 19:20:29.522876  3703 net.cpp:150] Setting up relu2_2
I0625 19:20:29.522883  3703 net.cpp:157] Top shape: 1 128 300 500 (19200000)
I0625 19:20:29.522886  3703 net.cpp:165] Memory required for data: 981600108
I0625 19:20:29.522889  3703 layer_factory.hpp:77] Creating layer pool2
I0625 19:20:29.522897  3703 net.cpp:106] Creating Layer pool2
I0625 19:20:29.522900  3703 net.cpp:454] pool2 <- conv2_2
I0625 19:20:29.522904  3703 net.cpp:411] pool2 -> pool2
I0625 19:20:29.522934  3703 net.cpp:150] Setting up pool2
I0625 19:20:29.522940  3703 net.cpp:157] Top shape: 1 128 150 250 (4800000)
I0625 19:20:29.522943  3703 net.cpp:165] Memory required for data: 1000800108
I0625 19:20:29.522945  3703 layer_factory.hpp:77] Creating layer conv3_1
I0625 19:20:29.522953  3703 net.cpp:106] Creating Layer conv3_1
I0625 19:20:29.522958  3703 net.cpp:454] conv3_1 <- pool2
I0625 19:20:29.522963  3703 net.cpp:411] conv3_1 -> conv3_1
I0625 19:20:29.524755  3703 net.cpp:150] Setting up conv3_1
I0625 19:20:29.524765  3703 net.cpp:157] Top shape: 1 256 150 250 (9600000)
I0625 19:20:29.524768  3703 net.cpp:165] Memory required for data: 1039200108
I0625 19:20:29.524777  3703 layer_factory.hpp:77] Creating layer relu3_1
I0625 19:20:29.524785  3703 net.cpp:106] Creating Layer relu3_1
I0625 19:20:29.524788  3703 net.cpp:454] relu3_1 <- conv3_1
I0625 19:20:29.524794  3703 net.cpp:397] relu3_1 -> conv3_1 (in-place)
I0625 19:20:29.524910  3703 net.cpp:150] Setting up relu3_1
I0625 19:20:29.524917  3703 net.cpp:157] Top shape: 1 256 150 250 (9600000)
I0625 19:20:29.524920  3703 net.cpp:165] Memory required for data: 1077600108
I0625 19:20:29.524924  3703 layer_factory.hpp:77] Creating layer conv3_2
I0625 19:20:29.524933  3703 net.cpp:106] Creating Layer conv3_2
I0625 19:20:29.524936  3703 net.cpp:454] conv3_2 <- conv3_1
I0625 19:20:29.524943  3703 net.cpp:411] conv3_2 -> conv3_2
I0625 19:20:29.526939  3703 net.cpp:150] Setting up conv3_2
I0625 19:20:29.526949  3703 net.cpp:157] Top shape: 1 256 150 250 (9600000)
I0625 19:20:29.526952  3703 net.cpp:165] Memory required for data: 1116000108
I0625 19:20:29.526969  3703 layer_factory.hpp:77] Creating layer relu3_2
I0625 19:20:29.526978  3703 net.cpp:106] Creating Layer relu3_2
I0625 19:20:29.526981  3703 net.cpp:454] relu3_2 <- conv3_2
I0625 19:20:29.526986  3703 net.cpp:397] relu3_2 -> conv3_2 (in-place)
I0625 19:20:29.527110  3703 net.cpp:150] Setting up relu3_2
I0625 19:20:29.527118  3703 net.cpp:157] Top shape: 1 256 150 250 (9600000)
I0625 19:20:29.527122  3703 net.cpp:165] Memory required for data: 1154400108
I0625 19:20:29.527134  3703 layer_factory.hpp:77] Creating layer conv3_3
I0625 19:20:29.527153  3703 net.cpp:106] Creating Layer conv3_3
I0625 19:20:29.527158  3703 net.cpp:454] conv3_3 <- conv3_2
I0625 19:20:29.527173  3703 net.cpp:411] conv3_3 -> conv3_3
I0625 19:20:29.529258  3703 net.cpp:150] Setting up conv3_3
I0625 19:20:29.529269  3703 net.cpp:157] Top shape: 1 256 150 250 (9600000)
I0625 19:20:29.529271  3703 net.cpp:165] Memory required for data: 1192800108
I0625 19:20:29.529289  3703 layer_factory.hpp:77] Creating layer relu3_3
I0625 19:20:29.529296  3703 net.cpp:106] Creating Layer relu3_3
I0625 19:20:29.529301  3703 net.cpp:454] relu3_3 <- conv3_3
I0625 19:20:29.529306  3703 net.cpp:397] relu3_3 -> conv3_3 (in-place)
I0625 19:20:29.529419  3703 net.cpp:150] Setting up relu3_3
I0625 19:20:29.529426  3703 net.cpp:157] Top shape: 1 256 150 250 (9600000)
I0625 19:20:29.529430  3703 net.cpp:165] Memory required for data: 1231200108
I0625 19:20:29.529433  3703 layer_factory.hpp:77] Creating layer pool3
I0625 19:20:29.529440  3703 net.cpp:106] Creating Layer pool3
I0625 19:20:29.529444  3703 net.cpp:454] pool3 <- conv3_3
I0625 19:20:29.529449  3703 net.cpp:411] pool3 -> pool3
I0625 19:20:29.529481  3703 net.cpp:150] Setting up pool3
I0625 19:20:29.529487  3703 net.cpp:157] Top shape: 1 256 75 125 (2400000)
I0625 19:20:29.529489  3703 net.cpp:165] Memory required for data: 1240800108
I0625 19:20:29.529492  3703 layer_factory.hpp:77] Creating layer conv4_1
I0625 19:20:29.529501  3703 net.cpp:106] Creating Layer conv4_1
I0625 19:20:29.529505  3703 net.cpp:454] conv4_1 <- pool3
I0625 19:20:29.529511  3703 net.cpp:411] conv4_1 -> conv4_1
I0625 19:20:29.533599  3703 net.cpp:150] Setting up conv4_1
I0625 19:20:29.533619  3703 net.cpp:157] Top shape: 1 512 75 125 (4800000)
I0625 19:20:29.533622  3703 net.cpp:165] Memory required for data: 1260000108
I0625 19:20:29.533632  3703 layer_factory.hpp:77] Creating layer relu4_1
I0625 19:20:29.533643  3703 net.cpp:106] Creating Layer relu4_1
I0625 19:20:29.533658  3703 net.cpp:454] relu4_1 <- conv4_1
I0625 19:20:29.533665  3703 net.cpp:397] relu4_1 -> conv4_1 (in-place)
I0625 19:20:29.533814  3703 net.cpp:150] Setting up relu4_1
I0625 19:20:29.533821  3703 net.cpp:157] Top shape: 1 512 75 125 (4800000)
I0625 19:20:29.533823  3703 net.cpp:165] Memory required for data: 1279200108
I0625 19:20:29.533828  3703 layer_factory.hpp:77] Creating layer conv4_2
I0625 19:20:29.533836  3703 net.cpp:106] Creating Layer conv4_2
I0625 19:20:29.533851  3703 net.cpp:454] conv4_2 <- conv4_1
I0625 19:20:29.533867  3703 net.cpp:411] conv4_2 -> conv4_2
I0625 19:20:29.538499  3703 net.cpp:150] Setting up conv4_2
I0625 19:20:29.538519  3703 net.cpp:157] Top shape: 1 512 75 125 (4800000)
I0625 19:20:29.538522  3703 net.cpp:165] Memory required for data: 1298400108
I0625 19:20:29.538537  3703 layer_factory.hpp:77] Creating layer relu4_2
I0625 19:20:29.538559  3703 net.cpp:106] Creating Layer relu4_2
I0625 19:20:29.538564  3703 net.cpp:454] relu4_2 <- conv4_2
I0625 19:20:29.538581  3703 net.cpp:397] relu4_2 -> conv4_2 (in-place)
I0625 19:20:29.539059  3703 net.cpp:150] Setting up relu4_2
I0625 19:20:29.539067  3703 net.cpp:157] Top shape: 1 512 75 125 (4800000)
I0625 19:20:29.539070  3703 net.cpp:165] Memory required for data: 1317600108
I0625 19:20:29.539073  3703 layer_factory.hpp:77] Creating layer conv4_3
I0625 19:20:29.539083  3703 net.cpp:106] Creating Layer conv4_3
I0625 19:20:29.539098  3703 net.cpp:454] conv4_3 <- conv4_2
I0625 19:20:29.539103  3703 net.cpp:411] conv4_3 -> conv4_3
I0625 19:20:29.543491  3703 net.cpp:150] Setting up conv4_3
I0625 19:20:29.543511  3703 net.cpp:157] Top shape: 1 512 75 125 (4800000)
I0625 19:20:29.543514  3703 net.cpp:165] Memory required for data: 1336800108
I0625 19:20:29.543522  3703 layer_factory.hpp:77] Creating layer relu4_3
I0625 19:20:29.543532  3703 net.cpp:106] Creating Layer relu4_3
I0625 19:20:29.543548  3703 net.cpp:454] relu4_3 <- conv4_3
I0625 19:20:29.543555  3703 net.cpp:397] relu4_3 -> conv4_3 (in-place)
I0625 19:20:29.543699  3703 net.cpp:150] Setting up relu4_3
I0625 19:20:29.543705  3703 net.cpp:157] Top shape: 1 512 75 125 (4800000)
I0625 19:20:29.543709  3703 net.cpp:165] Memory required for data: 1356000108
I0625 19:20:29.543711  3703 layer_factory.hpp:77] Creating layer pool4
I0625 19:20:29.543720  3703 net.cpp:106] Creating Layer pool4
I0625 19:20:29.543722  3703 net.cpp:454] pool4 <- conv4_3
I0625 19:20:29.543737  3703 net.cpp:411] pool4 -> pool4
I0625 19:20:29.543778  3703 net.cpp:150] Setting up pool4
I0625 19:20:29.543783  3703 net.cpp:157] Top shape: 1 512 38 63 (1225728)
I0625 19:20:29.543787  3703 net.cpp:165] Memory required for data: 1360903020
I0625 19:20:29.543789  3703 layer_factory.hpp:77] Creating layer conv5_1
I0625 19:20:29.543797  3703 net.cpp:106] Creating Layer conv5_1
I0625 19:20:29.543800  3703 net.cpp:454] conv5_1 <- pool4
I0625 19:20:29.543815  3703 net.cpp:411] conv5_1 -> conv5_1
I0625 19:20:29.548779  3703 net.cpp:150] Setting up conv5_1
I0625 19:20:29.548799  3703 net.cpp:157] Top shape: 1 512 38 63 (1225728)
I0625 19:20:29.548802  3703 net.cpp:165] Memory required for data: 1365805932
I0625 19:20:29.548811  3703 layer_factory.hpp:77] Creating layer relu5_1
I0625 19:20:29.548820  3703 net.cpp:106] Creating Layer relu5_1
I0625 19:20:29.548835  3703 net.cpp:454] relu5_1 <- conv5_1
I0625 19:20:29.548842  3703 net.cpp:397] relu5_1 -> conv5_1 (in-place)
I0625 19:20:29.548995  3703 net.cpp:150] Setting up relu5_1
I0625 19:20:29.549001  3703 net.cpp:157] Top shape: 1 512 38 63 (1225728)
I0625 19:20:29.549005  3703 net.cpp:165] Memory required for data: 1370708844
I0625 19:20:29.549007  3703 layer_factory.hpp:77] Creating layer conv5_2
I0625 19:20:29.549017  3703 net.cpp:106] Creating Layer conv5_2
I0625 19:20:29.549033  3703 net.cpp:454] conv5_2 <- conv5_1
I0625 19:20:29.549049  3703 net.cpp:411] conv5_2 -> conv5_2
I0625 19:20:29.553231  3703 net.cpp:150] Setting up conv5_2
I0625 19:20:29.553254  3703 net.cpp:157] Top shape: 1 512 38 63 (1225728)
I0625 19:20:29.553257  3703 net.cpp:165] Memory required for data: 1375611756
I0625 19:20:29.553266  3703 layer_factory.hpp:77] Creating layer relu5_2
I0625 19:20:29.553274  3703 net.cpp:106] Creating Layer relu5_2
I0625 19:20:29.553278  3703 net.cpp:454] relu5_2 <- conv5_2
I0625 19:20:29.553287  3703 net.cpp:397] relu5_2 -> conv5_2 (in-place)
I0625 19:20:29.553424  3703 net.cpp:150] Setting up relu5_2
I0625 19:20:29.553431  3703 net.cpp:157] Top shape: 1 512 38 63 (1225728)
I0625 19:20:29.553433  3703 net.cpp:165] Memory required for data: 1380514668
I0625 19:20:29.553436  3703 layer_factory.hpp:77] Creating layer conv5_3
I0625 19:20:29.553448  3703 net.cpp:106] Creating Layer conv5_3
I0625 19:20:29.553452  3703 net.cpp:454] conv5_3 <- conv5_2
I0625 19:20:29.553467  3703 net.cpp:411] conv5_3 -> conv5_3
I0625 19:20:29.557751  3703 net.cpp:150] Setting up conv5_3
I0625 19:20:29.557770  3703 net.cpp:157] Top shape: 1 512 38 63 (1225728)
I0625 19:20:29.557773  3703 net.cpp:165] Memory required for data: 1385417580
I0625 19:20:29.557782  3703 layer_factory.hpp:77] Creating layer relu5_3
I0625 19:20:29.557791  3703 net.cpp:106] Creating Layer relu5_3
I0625 19:20:29.557806  3703 net.cpp:454] relu5_3 <- conv5_3
I0625 19:20:29.557812  3703 net.cpp:397] relu5_3 -> conv5_3 (in-place)
I0625 19:20:29.557963  3703 net.cpp:150] Setting up relu5_3
I0625 19:20:29.557970  3703 net.cpp:157] Top shape: 1 512 38 63 (1225728)
I0625 19:20:29.557972  3703 net.cpp:165] Memory required for data: 1390320492
I0625 19:20:29.557976  3703 layer_factory.hpp:77] Creating layer conv5_3_relu5_3_0_split
I0625 19:20:29.557981  3703 net.cpp:106] Creating Layer conv5_3_relu5_3_0_split
I0625 19:20:29.557984  3703 net.cpp:454] conv5_3_relu5_3_0_split <- conv5_3
I0625 19:20:29.558002  3703 net.cpp:411] conv5_3_relu5_3_0_split -> conv5_3_relu5_3_0_split_0
I0625 19:20:29.558009  3703 net.cpp:411] conv5_3_relu5_3_0_split -> conv5_3_relu5_3_0_split_1
I0625 19:20:29.558017  3703 net.cpp:411] conv5_3_relu5_3_0_split -> conv5_3_relu5_3_0_split_2
I0625 19:20:29.558063  3703 net.cpp:150] Setting up conv5_3_relu5_3_0_split
I0625 19:20:29.558068  3703 net.cpp:157] Top shape: 1 512 38 63 (1225728)
I0625 19:20:29.558071  3703 net.cpp:157] Top shape: 1 512 38 63 (1225728)
I0625 19:20:29.558085  3703 net.cpp:157] Top shape: 1 512 38 63 (1225728)
I0625 19:20:29.558089  3703 net.cpp:165] Memory required for data: 1405029228
I0625 19:20:29.558091  3703 layer_factory.hpp:77] Creating layer rpn_conv/3x3
I0625 19:20:29.558102  3703 net.cpp:106] Creating Layer rpn_conv/3x3
I0625 19:20:29.558106  3703 net.cpp:454] rpn_conv/3x3 <- conv5_3_relu5_3_0_split_0
I0625 19:20:29.558112  3703 net.cpp:411] rpn_conv/3x3 -> rpn/output
I0625 19:20:29.609860  3703 net.cpp:150] Setting up rpn_conv/3x3
I0625 19:20:29.609881  3703 net.cpp:157] Top shape: 1 512 38 63 (1225728)
I0625 19:20:29.609884  3703 net.cpp:165] Memory required for data: 1409932140
I0625 19:20:29.609894  3703 layer_factory.hpp:77] Creating layer rpn_relu/3x3
I0625 19:20:29.609903  3703 net.cpp:106] Creating Layer rpn_relu/3x3
I0625 19:20:29.609910  3703 net.cpp:454] rpn_relu/3x3 <- rpn/output
I0625 19:20:29.609915  3703 net.cpp:397] rpn_relu/3x3 -> rpn/output (in-place)
I0625 19:20:29.610049  3703 net.cpp:150] Setting up rpn_relu/3x3
I0625 19:20:29.610055  3703 net.cpp:157] Top shape: 1 512 38 63 (1225728)
I0625 19:20:29.610059  3703 net.cpp:165] Memory required for data: 1414835052
I0625 19:20:29.610061  3703 layer_factory.hpp:77] Creating layer rpn/output_rpn_relu/3x3_0_split
I0625 19:20:29.610067  3703 net.cpp:106] Creating Layer rpn/output_rpn_relu/3x3_0_split
I0625 19:20:29.610071  3703 net.cpp:454] rpn/output_rpn_relu/3x3_0_split <- rpn/output
I0625 19:20:29.610077  3703 net.cpp:411] rpn/output_rpn_relu/3x3_0_split -> rpn/output_rpn_relu/3x3_0_split_0
I0625 19:20:29.610085  3703 net.cpp:411] rpn/output_rpn_relu/3x3_0_split -> rpn/output_rpn_relu/3x3_0_split_1
I0625 19:20:29.610121  3703 net.cpp:150] Setting up rpn/output_rpn_relu/3x3_0_split
I0625 19:20:29.610126  3703 net.cpp:157] Top shape: 1 512 38 63 (1225728)
I0625 19:20:29.610131  3703 net.cpp:157] Top shape: 1 512 38 63 (1225728)
I0625 19:20:29.610132  3703 net.cpp:165] Memory required for data: 1424640876
I0625 19:20:29.610136  3703 layer_factory.hpp:77] Creating layer rpn_cls_score
I0625 19:20:29.610147  3703 net.cpp:106] Creating Layer rpn_cls_score
I0625 19:20:29.610152  3703 net.cpp:454] rpn_cls_score <- rpn/output_rpn_relu/3x3_0_split_0
I0625 19:20:29.610158  3703 net.cpp:411] rpn_cls_score -> rpn_cls_score
I0625 19:20:29.613538  3703 net.cpp:150] Setting up rpn_cls_score
I0625 19:20:29.613548  3703 net.cpp:157] Top shape: 1 30 38 63 (71820)
I0625 19:20:29.613550  3703 net.cpp:165] Memory required for data: 1424928156
I0625 19:20:29.613566  3703 layer_factory.hpp:77] Creating layer rpn_cls_score_rpn_cls_score_0_split
I0625 19:20:29.613572  3703 net.cpp:106] Creating Layer rpn_cls_score_rpn_cls_score_0_split
I0625 19:20:29.613577  3703 net.cpp:454] rpn_cls_score_rpn_cls_score_0_split <- rpn_cls_score
I0625 19:20:29.613584  3703 net.cpp:411] rpn_cls_score_rpn_cls_score_0_split -> rpn_cls_score_rpn_cls_score_0_split_0
I0625 19:20:29.613592  3703 net.cpp:411] rpn_cls_score_rpn_cls_score_0_split -> rpn_cls_score_rpn_cls_score_0_split_1
I0625 19:20:29.613622  3703 net.cpp:150] Setting up rpn_cls_score_rpn_cls_score_0_split
I0625 19:20:29.613637  3703 net.cpp:157] Top shape: 1 30 38 63 (71820)
I0625 19:20:29.613641  3703 net.cpp:157] Top shape: 1 30 38 63 (71820)
I0625 19:20:29.613654  3703 net.cpp:165] Memory required for data: 1425502716
I0625 19:20:29.613658  3703 layer_factory.hpp:77] Creating layer rpn_bbox_pred
I0625 19:20:29.613668  3703 net.cpp:106] Creating Layer rpn_bbox_pred
I0625 19:20:29.613672  3703 net.cpp:454] rpn_bbox_pred <- rpn/output_rpn_relu/3x3_0_split_1
I0625 19:20:29.613678  3703 net.cpp:411] rpn_bbox_pred -> rpn_bbox_pred
I0625 19:20:29.615289  3703 net.cpp:150] Setting up rpn_bbox_pred
I0625 19:20:29.615298  3703 net.cpp:157] Top shape: 1 60 38 63 (143640)
I0625 19:20:29.615301  3703 net.cpp:165] Memory required for data: 1426077276
I0625 19:20:29.615308  3703 layer_factory.hpp:77] Creating layer rpn_bbox_pred_rpn_bbox_pred_0_split
I0625 19:20:29.615315  3703 net.cpp:106] Creating Layer rpn_bbox_pred_rpn_bbox_pred_0_split
I0625 19:20:29.615320  3703 net.cpp:454] rpn_bbox_pred_rpn_bbox_pred_0_split <- rpn_bbox_pred
I0625 19:20:29.615326  3703 net.cpp:411] rpn_bbox_pred_rpn_bbox_pred_0_split -> rpn_bbox_pred_rpn_bbox_pred_0_split_0
I0625 19:20:29.615334  3703 net.cpp:411] rpn_bbox_pred_rpn_bbox_pred_0_split -> rpn_bbox_pred_rpn_bbox_pred_0_split_1
I0625 19:20:29.615365  3703 net.cpp:150] Setting up rpn_bbox_pred_rpn_bbox_pred_0_split
I0625 19:20:29.615370  3703 net.cpp:157] Top shape: 1 60 38 63 (143640)
I0625 19:20:29.615373  3703 net.cpp:157] Top shape: 1 60 38 63 (143640)
I0625 19:20:29.615377  3703 net.cpp:165] Memory required for data: 1427226396
I0625 19:20:29.615381  3703 layer_factory.hpp:77] Creating layer rpn_cls_score_reshape
I0625 19:20:29.615386  3703 net.cpp:106] Creating Layer rpn_cls_score_reshape
I0625 19:20:29.615401  3703 net.cpp:454] rpn_cls_score_reshape <- rpn_cls_score_rpn_cls_score_0_split_0
I0625 19:20:29.615406  3703 net.cpp:411] rpn_cls_score_reshape -> rpn_cls_score_reshape
I0625 19:20:29.615438  3703 net.cpp:150] Setting up rpn_cls_score_reshape
I0625 19:20:29.615443  3703 net.cpp:157] Top shape: 1 2 570 63 (71820)
I0625 19:20:29.615447  3703 net.cpp:165] Memory required for data: 1427513676
I0625 19:20:29.615458  3703 layer_factory.hpp:77] Creating layer rpn_cls_score_reshape_rpn_cls_score_reshape_0_split
I0625 19:20:29.615464  3703 net.cpp:106] Creating Layer rpn_cls_score_reshape_rpn_cls_score_reshape_0_split
I0625 19:20:29.615468  3703 net.cpp:454] rpn_cls_score_reshape_rpn_cls_score_reshape_0_split <- rpn_cls_score_reshape
I0625 19:20:29.615473  3703 net.cpp:411] rpn_cls_score_reshape_rpn_cls_score_reshape_0_split -> rpn_cls_score_reshape_rpn_cls_score_reshape_0_split_0
I0625 19:20:29.615489  3703 net.cpp:411] rpn_cls_score_reshape_rpn_cls_score_reshape_0_split -> rpn_cls_score_reshape_rpn_cls_score_reshape_0_split_1
I0625 19:20:29.615535  3703 net.cpp:150] Setting up rpn_cls_score_reshape_rpn_cls_score_reshape_0_split
I0625 19:20:29.615540  3703 net.cpp:157] Top shape: 1 2 570 63 (71820)
I0625 19:20:29.615545  3703 net.cpp:157] Top shape: 1 2 570 63 (71820)
I0625 19:20:29.615556  3703 net.cpp:165] Memory required for data: 1428088236
I0625 19:20:29.615559  3703 layer_factory.hpp:77] Creating layer rpn-data
I0625 19:20:29.615877  3703 net.cpp:106] Creating Layer rpn-data
I0625 19:20:29.615885  3703 net.cpp:454] rpn-data <- rpn_cls_score_rpn_cls_score_0_split_1
I0625 19:20:29.615890  3703 net.cpp:454] rpn-data <- gt_boxes_input-data_2_split_0
I0625 19:20:29.615895  3703 net.cpp:454] rpn-data <- im_info_input-data_1_split_0
I0625 19:20:29.615900  3703 net.cpp:454] rpn-data <- data_input-data_0_split_1
I0625 19:20:29.615905  3703 net.cpp:411] rpn-data -> rpn_labels
I0625 19:20:29.615912  3703 net.cpp:411] rpn-data -> rpn_bbox_targets
I0625 19:20:29.615921  3703 net.cpp:411] rpn-data -> rpn_bbox_inside_weights
I0625 19:20:29.615927  3703 net.cpp:411] rpn-data -> rpn_bbox_outside_weights
===================================anchor_scales in AnchorTargetLayer:=============(2, 4, 8, 16, 32)
I0625 19:20:29.616749  3703 net.cpp:150] Setting up rpn-data
I0625 19:20:29.616757  3703 net.cpp:157] Top shape: 1 1 570 63 (35910)
I0625 19:20:29.616762  3703 net.cpp:157] Top shape: 1 60 38 63 (143640)
I0625 19:20:29.616776  3703 net.cpp:157] Top shape: 1 60 38 63 (143640)
I0625 19:20:29.616781  3703 net.cpp:157] Top shape: 1 60 38 63 (143640)
I0625 19:20:29.616784  3703 net.cpp:165] Memory required for data: 1429955556
I0625 19:20:29.616788  3703 layer_factory.hpp:77] Creating layer rpn_loss_cls
I0625 19:20:29.616796  3703 net.cpp:106] Creating Layer rpn_loss_cls
I0625 19:20:29.616799  3703 net.cpp:454] rpn_loss_cls <- rpn_cls_score_reshape_rpn_cls_score_reshape_0_split_0
I0625 19:20:29.616814  3703 net.cpp:454] rpn_loss_cls <- rpn_labels
…
I0625 19:20:29.618647  3703 net.cpp:157] Top shape: (1)
I0625 19:20:29.618650  3703 net.cpp:160]     with loss weight 1
I0625 19:20:29.618656  3703 net.cpp:165] Memory required for data: 1429955564
I0625 19:20:29.618659  3703 layer_factory.hpp:77] Creating layer rpn_cls_prob
I0625 19:20:29.618664  3703 net.cpp:106] Creating Layer rpn_cls_prob
I0625 19:20:29.618669  3703 net.cpp:454] rpn_cls_prob <- rpn_cls_score_reshape_rpn_cls_score_reshape_0_split_1
I0625 19:20:29.618675  3703 net.cpp:411] rpn_cls_prob -> rpn_cls_prob
I0625 19:20:29.618834  3703 net.cpp:150] Setting up rpn_cls_prob
I0625 19:20:29.618840  3703 net.cpp:157] Top shape: 1 2 570 63 (71820)
I0625 19:20:29.618844  3703 net.cpp:165] Memory required for data: 1430242844
I0625 19:20:29.618846  3703 layer_factory.hpp:77] Creating layer rpn_cls_prob_reshape
I0625 19:20:29.618861  3703 net.cpp:106] Creating Layer rpn_cls_prob_reshape
I0625 19:20:29.618866  3703 net.cpp:454] rpn_cls_prob_reshape <- rpn_cls_prob
I0625 19:20:29.618872  3703 net.cpp:411] rpn_cls_prob_reshape -> rpn_cls_prob_reshape
I0625 19:20:29.618894  3703 net.cpp:150] Setting up rpn_cls_prob_reshape
I0625 19:20:29.618901  3703 net.cpp:157] Top shape: 1 30 38 63 (71820)
I0625 19:20:29.618903  3703 net.cpp:165] Memory required for data: 1430530124
I0625 19:20:29.618906  3703 layer_factory.hpp:77] Creating layer proposal
I0625 19:20:29.619343  3703 net.cpp:106] Creating Layer proposal
I0625 19:20:29.619350  3703 net.cpp:454] proposal <- rpn_cls_prob_reshape
I0625 19:20:29.619354  3703 net.cpp:454] proposal <- rpn_bbox_pred_rpn_bbox_pred_0_split_1
I0625 19:20:29.619359  3703 net.cpp:454] proposal <- im_info_input-data_1_split_1
I0625 19:20:29.619366  3703 net.cpp:411] proposal -> rpn_rois
=================================anchor_scales in ProposalLayer:=============(2, 4, 8, 16, 32)
I0625 19:20:29.620132  3703 net.cpp:150] Setting up proposal
I0625 19:20:29.620141  3703 net.cpp:157] Top shape: 1 5 (5)
I0625 19:20:29.620143  3703 net.cpp:165] Memory required for data: 1430530144
I0625 19:20:29.620147  3703 layer_factory.hpp:77] Creating layer roi-data
I0625 19:20:29.620349  3703 net.cpp:106] Creating Layer roi-data
I0625 19:20:29.620355  3703 net.cpp:454] roi-data <- rpn_rois
I0625 19:20:29.620360  3703 net.cpp:454] roi-data <- gt_boxes_input-data_2_split_1
I0625 19:20:29.620374  3703 net.cpp:454] roi-data <- im_info_input-data_1_split_2
I0625 19:20:29.620378  3703 net.cpp:454] roi-data <- seg_mask_inds
I0625 19:20:29.620384  3703 net.cpp:454] roi-data <- flipped
I0625 19:20:29.620391  3703 net.cpp:411] roi-data -> rois
I0625 19:20:29.620409  3703 net.cpp:411] roi-data -> labels
I0625 19:20:29.620416  3703 net.cpp:411] roi-data -> bbox_targets
I0625 19:20:29.620432  3703 net.cpp:411] roi-data -> bbox_inside_weights
I0625 19:20:29.620440  3703 net.cpp:411] roi-data -> bbox_outside_weights
I0625 19:20:29.620447  3703 net.cpp:411] roi-data -> mask_targets
I0625 19:20:29.620453  3703 net.cpp:411] roi-data -> rois_pos
I0625 19:20:29.620460  3703 net.cpp:411] roi-data -> attrArray
I0625 19:20:29.620466  3703 net.cpp:411] roi-data -> attrArrayInd
I0625 19:20:29.620473  3703 net.cpp:411] roi-data -> attrArrayShift
I0625 19:20:29.620743  3703 net.cpp:150] Setting up roi-data
I0625 19:20:29.620752  3703 net.cpp:157] Top shape: 1 5 (5)
I0625 19:20:29.620756  3703 net.cpp:157] Top shape: 1 1 (1)
I0625 19:20:29.620759  3703 net.cpp:157] Top shape: 1 8 (8)
I0625 19:20:29.620764  3703 net.cpp:157] Top shape: 1 8 (8)
I0625 19:20:29.620766  3703 net.cpp:157] Top shape: 1 8 (8)
I0625 19:20:29.620772  3703 net.cpp:157] Top shape: 1 8 244 244 (476288)
I0625 19:20:29.620776  3703 net.cpp:157] Top shape: 1 5 (5)
I0625 19:20:29.620781  3703 net.cpp:157] Top shape: 1 7 (7)
I0625 19:20:29.620785  3703 net.cpp:157] Top shape: 1 7 (7)
I0625 19:20:29.620790  3703 net.cpp:157] Top shape: 1 7 (7)
I0625 19:20:29.620793  3703 net.cpp:165] Memory required for data: 1432435520
I0625 19:20:29.620796  3703 layer_factory.hpp:77] Creating layer roi_pool5
I0625 19:20:29.620803  3703 net.cpp:106] Creating Layer roi_pool5
I0625 19:20:29.620807  3703 net.cpp:454] roi_pool5 <- conv5_3_relu5_3_0_split_1
I0625 19:20:29.620812  3703 net.cpp:454] roi_pool5 <- rois
I0625 19:20:29.620817  3703 net.cpp:411] roi_pool5 -> pool5
I0625 19:20:29.620826  3703 roi_alignment_layer.cpp:32] Spatial scale: 0.0625
I0625 19:20:29.620893  3703 net.cpp:150] Setting up roi_pool5
I0625 19:20:29.620899  3703 net.cpp:157] Top shape: 1 512 7 7 (25088)
I0625 19:20:29.620913  3703 net.cpp:165] Memory required for data: 1432535872
I0625 19:20:29.620915  3703 layer_factory.hpp:77] Creating layer fc6
I0625 19:20:29.620921  3703 net.cpp:106] Creating Layer fc6
I0625 19:20:29.620925  3703 net.cpp:454] fc6 <- pool5
I0625 19:20:29.620932  3703 net.cpp:411] fc6 -> fc6
I0625 19:20:29.765444  3703 net.cpp:150] Setting up fc6
I0625 19:20:29.765470  3703 net.cpp:157] Top shape: 1 4096 (4096)
I0625 19:20:29.765473  3703 net.cpp:165] Memory required for data: 1432552256
I0625 19:20:29.765492  3703 layer_factory.hpp:77] Creating layer relu6
I0625 19:20:29.765514  3703 net.cpp:106] Creating Layer relu6
I0625 19:20:29.765533  3703 net.cpp:454] relu6 <- fc6
I0625 19:20:29.765549  3703 net.cpp:397] relu6 -> fc6 (in-place)
I0625 19:20:29.765764  3703 net.cpp:150] Setting up relu6
I0625 19:20:29.765772  3703 net.cpp:157] Top shape: 1 4096 (4096)
I0625 19:20:29.765775  3703 net.cpp:165] Memory required for data: 1432568640
I0625 19:20:29.765779  3703 layer_factory.hpp:77] Creating layer fc7
I0625 19:20:29.765787  3703 net.cpp:106] Creating Layer fc7
I0625 19:20:29.765791  3703 net.cpp:454] fc7 <- fc6
I0625 19:20:29.765810  3703 net.cpp:411] fc7 -> fc7
I0625 19:20:29.789818  3703 net.cpp:150] Setting up fc7
I0625 19:20:29.789839  3703 net.cpp:157] Top shape: 1 4096 (4096)
I0625 19:20:29.789842  3703 net.cpp:165] Memory required for data: 1432585024
I0625 19:20:29.789852  3703 layer_factory.hpp:77] Creating layer relu7
I0625 19:20:29.789862  3703 net.cpp:106] Creating Layer relu7
I0625 19:20:29.789877  3703 net.cpp:454] relu7 <- fc7
I0625 19:20:29.789897  3703 net.cpp:397] relu7 -> fc7 (in-place)
I0625 19:20:29.790103  3703 net.cpp:150] Setting up relu7
I0625 19:20:29.790110  3703 net.cpp:157] Top shape: 1 4096 (4096)
I0625 19:20:29.790113  3703 net.cpp:165] Memory required for data: 1432601408
I0625 19:20:29.790117  3703 layer_factory.hpp:77] Creating layer fc7_relu7_0_split
I0625 19:20:29.790122  3703 net.cpp:106] Creating Layer fc7_relu7_0_split
I0625 19:20:29.790127  3703 net.cpp:454] fc7_relu7_0_split <- fc7
I0625 19:20:29.790144  3703 net.cpp:411] fc7_relu7_0_split -> fc7_relu7_0_split_0
I0625 19:20:29.790151  3703 net.cpp:411] fc7_relu7_0_split -> fc7_relu7_0_split_1
I0625 19:20:29.790158  3703 net.cpp:411] fc7_relu7_0_split -> fc7_relu7_0_split_2
I0625 19:20:29.790210  3703 net.cpp:150] Setting up fc7_relu7_0_split
I0625 19:20:29.790215  3703 net.cpp:157] Top shape: 1 4096 (4096)
I0625 19:20:29.790218  3703 net.cpp:157] Top shape: 1 4096 (4096)
I0625 19:20:29.790231  3703 net.cpp:157] Top shape: 1 4096 (4096)
I0625 19:20:29.790235  3703 net.cpp:165] Memory required for data: 1432650560
I0625 19:20:29.790237  3703 layer_factory.hpp:77] Creating layer attr_score
I0625 19:20:29.790244  3703 net.cpp:106] Creating Layer attr_score
I0625 19:20:29.790264  3703 net.cpp:454] attr_score <- fc7_relu7_0_split_0
I0625 19:20:29.790272  3703 net.cpp:411] attr_score -> attr_score
I0625 19:20:29.791043  3703 net.cpp:150] Setting up attr_score
I0625 19:20:29.791049  3703 net.cpp:157] Top shape: 1 7 (7)
I0625 19:20:29.791051  3703 net.cpp:165] Memory required for data: 1432650588
I0625 19:20:29.791066  3703 layer_factory.hpp:77] Creating layer attr_score_pos
I0625 19:20:29.791086  3703 net.cpp:106] Creating Layer attr_score_pos
I0625 19:20:29.791090  3703 net.cpp:454] attr_score_pos <- attr_score
I0625 19:20:29.791095  3703 net.cpp:454] attr_score_pos <- attrArrayInd
I0625 19:20:29.791111  3703 net.cpp:411] attr_score_pos -> attr_score_pos
I0625 19:20:29.791151  3703 net.cpp:150] Setting up attr_score_pos
I0625 19:20:29.791165  3703 net.cpp:157] Top shape: 1 7 (7)
I0625 19:20:29.791168  3703 net.cpp:165] Memory required for data: 1432650616
I0625 19:20:29.791172  3703 layer_factory.hpp:77] Creating layer attr_score_pos_shift
I0625 19:20:29.791177  3703 net.cpp:106] Creating Layer attr_score_pos_shift
I0625 19:20:29.791182  3703 net.cpp:454] attr_score_pos_shift <- attr_score_pos
I0625 19:20:29.791185  3703 net.cpp:454] attr_score_pos_shift <- attrArrayShift
I0625 19:20:29.791199  3703 net.cpp:411] attr_score_pos_shift -> attr_score_pos_shift
I0625 19:20:29.791218  3703 net.cpp:150] Setting up attr_score_pos_shift
I0625 19:20:29.791222  3703 net.cpp:157] Top shape: 1 7 (7)
I0625 19:20:29.791225  3703 net.cpp:165] Memory required for data: 1432650644
I0625 19:20:29.791229  3703 layer_factory.hpp:77] Creating layer cls_score
I0625 19:20:29.791235  3703 net.cpp:106] Creating Layer cls_score
I0625 19:20:29.791239  3703 net.cpp:454] cls_score <- fc7_relu7_0_split_1
I0625 19:20:29.791244  3703 net.cpp:411] cls_score -> cls_score
I0625 19:20:29.791474  3703 net.cpp:150] Setting up cls_score
I0625 19:20:29.791479  3703 net.cpp:157] Top shape: 1 2 (2)
I0625 19:20:29.791482  3703 net.cpp:165] Memory required for data: 1432650652
I0625 19:20:29.791487  3703 layer_factory.hpp:77] Creating layer bbox_pred
I0625 19:20:29.791496  3703 net.cpp:106] Creating Layer bbox_pred
I0625 19:20:29.791499  3703 net.cpp:454] bbox_pred <- fc7_relu7_0_split_2
I0625 19:20:29.791504  3703 net.cpp:411] bbox_pred -> bbox_pred
I0625 19:20:29.792253  3703 net.cpp:150] Setting up bbox_pred
I0625 19:20:29.792258  3703 net.cpp:157] Top shape: 1 8 (8)
I0625 19:20:29.792261  3703 net.cpp:165] Memory required for data: 1432650684
I0625 19:20:29.792266  3703 layer_factory.hpp:77] Creating layer loss_attribute
I0625 19:20:29.792275  3703 net.cpp:106] Creating Layer loss_attribute
I0625 19:20:29.792279  3703 net.cpp:454] loss_attribute <- attr_score_pos_shift
I0625 19:20:29.792282  3703 net.cpp:454] loss_attribute <- attrArray
I0625 19:20:29.792289  3703 net.cpp:411] loss_attribute -> loss_attribute
…
I0625 19:20:29.793143  3703 net.cpp:165] Memory required for data: 1432650696
I0625 19:20:29.793146  3703 layer_factory.hpp:77] Creating layer roi_pool5_2
I0625 19:20:29.793154  3703 net.cpp:106] Creating Layer roi_pool5_2
I0625 19:20:29.793159  3703 net.cpp:454] roi_pool5_2 <- conv5_3_relu5_3_0_split_2
I0625 19:20:29.793164  3703 net.cpp:454] roi_pool5_2 <- rois_pos
I0625 19:20:29.793170  3703 net.cpp:411] roi_pool5_2 -> pool5_2
I0625 19:20:29.793177  3703 roi_alignment_layer.cpp:32] Spatial scale: 0.0625
I0625 19:20:29.793244  3703 net.cpp:150] Setting up roi_pool5_2
I0625 19:20:29.793249  3703 net.cpp:157] Top shape: 1 512 7 7 (25088)
I0625 19:20:29.793252  3703 net.cpp:165] Memory required for data: 1432751048
I0625 19:20:29.793256  3703 layer_factory.hpp:77] Creating layer pool5_2_conv
I0625 19:20:29.793265  3703 net.cpp:106] Creating Layer pool5_2_conv
I0625 19:20:29.793268  3703 net.cpp:454] pool5_2_conv <- pool5_2
I0625 19:20:29.793274  3703 net.cpp:411] pool5_2_conv -> pool5_2_conv
I0625 19:20:29.799700  3703 net.cpp:150] Setting up pool5_2_conv
I0625 19:20:29.799710  3703 net.cpp:157] Top shape: 1 512 7 7 (25088)
I0625 19:20:29.799712  3703 net.cpp:165] Memory required for data: 1432851400
I0625 19:20:29.799719  3703 layer_factory.hpp:77] Creating layer pool5_2_conv_relu
I0625 19:20:29.799726  3703 net.cpp:106] Creating Layer pool5_2_conv_relu
I0625 19:20:29.799731  3703 net.cpp:454] pool5_2_conv_relu <- pool5_2_conv
I0625 19:20:29.799736  3703 net.cpp:411] pool5_2_conv_relu -> pool5_2_conv_relu
I0625 19:20:29.799865  3703 net.cpp:150] Setting up pool5_2_conv_relu
I0625 19:20:29.799872  3703 net.cpp:157] Top shape: 1 512 7 7 (25088)
I0625 19:20:29.799875  3703 net.cpp:165] Memory required for data: 1432951752
I0625 19:20:29.799878  3703 layer_factory.hpp:77] Creating layer pool5_2_conv2
I0625 19:20:29.799890  3703 net.cpp:106] Creating Layer pool5_2_conv2
I0625 19:20:29.799895  3703 net.cpp:454] pool5_2_conv2 <- pool5_2_conv_relu
I0625 19:20:29.799901  3703 net.cpp:411] pool5_2_conv2 -> pool5_2_conv2
I0625 19:20:29.850769  3703 net.cpp:150] Setting up pool5_2_conv2
I0625 19:20:29.850785  3703 net.cpp:157] Top shape: 1 512 7 7 (25088)
I0625 19:20:29.850788  3703 net.cpp:165] Memory required for data: 1433052104
I0625 19:20:29.850797  3703 layer_factory.hpp:77] Creating layer pool5_2_conv2_relu
I0625 19:20:29.850807  3703 net.cpp:106] Creating Layer pool5_2_conv2_relu
I0625 19:20:29.850824  3703 net.cpp:454] pool5_2_conv2_relu <- pool5_2_conv2
I0625 19:20:29.850843  3703 net.cpp:411] pool5_2_conv2_relu -> pool5_2_conv2_relu
I0625 19:20:29.851018  3703 net.cpp:150] Setting up pool5_2_conv2_relu
I0625 19:20:29.851025  3703 net.cpp:157] Top shape: 1 512 7 7 (25088)
I0625 19:20:29.851028  3703 net.cpp:165] Memory required for data: 1433152456
I0625 19:20:29.851032  3703 layer_factory.hpp:77] Creating layer mask_deconv1
I0625 19:20:29.851040  3703 net.cpp:106] Creating Layer mask_deconv1
I0625 19:20:29.851044  3703 net.cpp:454] mask_deconv1 <- pool5_2_conv2_relu
I0625 19:20:29.851060  3703 net.cpp:411] mask_deconv1 -> mask_deconv1
I0625 19:20:29.851850  3703 net.cpp:150] Setting up mask_deconv1
I0625 19:20:29.851855  3703 net.cpp:157] Top shape: 1 256 30 30 (230400)
I0625 19:20:29.851858  3703 net.cpp:165] Memory required for data: 1434074056
I0625 19:20:29.851863  3703 layer_factory.hpp:77] Creating layer pool5_2_conv3
I0625 19:20:29.851886  3703 net.cpp:106] Creating Layer pool5_2_conv3
I0625 19:20:29.851888  3703 net.cpp:454] pool5_2_conv3 <- mask_deconv1
I0625 19:20:29.851894  3703 net.cpp:411] pool5_2_conv3 -> pool5_2_conv3
I0625 19:20:29.877884  3703 net.cpp:150] Setting up pool5_2_conv3
I0625 19:20:29.877902  3703 net.cpp:157] Top shape: 1 512 30 30 (460800)
I0625 19:20:29.877904  3703 net.cpp:165] Memory required for data: 1435917256
I0625 19:20:29.877913  3703 layer_factory.hpp:77] Creating layer pool5_2_conv3_relu
I0625 19:20:29.877921  3703 net.cpp:106] Creating Layer pool5_2_conv3_relu
I0625 19:20:29.877938  3703 net.cpp:454] pool5_2_conv3_relu <- pool5_2_conv3
I0625 19:20:29.877961  3703 net.cpp:411] pool5_2_conv3_relu -> pool5_2_conv3_relu
I0625 19:20:29.878154  3703 net.cpp:150] Setting up pool5_2_conv3_relu
I0625 19:20:29.878161  3703 net.cpp:157] Top shape: 1 512 30 30 (460800)
I0625 19:20:29.878165  3703 net.cpp:165] Memory required for data: 1437760456
I0625 19:20:29.878167  3703 layer_factory.hpp:77] Creating layer pool5_2_conv4
I0625 19:20:29.878187  3703 net.cpp:106] Creating Layer pool5_2_conv4
I0625 19:20:29.878190  3703 net.cpp:454] pool5_2_conv4 <- pool5_2_conv3_relu
I0625 19:20:29.878197  3703 net.cpp:411] pool5_2_conv4 -> pool5_2_conv4
I0625 19:20:29.928275  3703 net.cpp:150] Setting up pool5_2_conv4
I0625 19:20:29.928293  3703 net.cpp:157] Top shape: 1 512 30 30 (460800)
I0625 19:20:29.928295  3703 net.cpp:165] Memory required for data: 1439603656
I0625 19:20:29.928303  3703 layer_factory.hpp:77] Creating layer pool5_2_conv4_relu
I0625 19:20:29.928313  3703 net.cpp:106] Creating Layer pool5_2_conv4_relu
I0625 19:20:29.928328  3703 net.cpp:454] pool5_2_conv4_relu <- pool5_2_conv4
I0625 19:20:29.928345  3703 net.cpp:411] pool5_2_conv4_relu -> pool5_2_conv4_relu
I0625 19:20:29.928511  3703 net.cpp:150] Setting up pool5_2_conv4_relu
I0625 19:20:29.928519  3703 net.cpp:157] Top shape: 1 512 30 30 (460800)
I0625 19:20:29.928521  3703 net.cpp:165] Memory required for data: 1441446856
I0625 19:20:29.928534  3703 layer_factory.hpp:77] Creating layer pool5_2_conv4_relu_pool5_2_conv4_relu_0_split
I0625 19:20:29.928541  3703 net.cpp:106] Creating Layer pool5_2_conv4_relu_pool5_2_conv4_relu_0_split
I0625 19:20:29.928560  3703 net.cpp:454] pool5_2_conv4_relu_pool5_2_conv4_relu_0_split <- pool5_2_conv4_relu
I0625 19:20:29.928565  3703 net.cpp:411] pool5_2_conv4_relu_pool5_2_conv4_relu_0_split -> pool5_2_conv4_relu_pool5_2_conv4_relu_0_split_0
I0625 19:20:29.928580  3703 net.cpp:411] pool5_2_conv4_relu_pool5_2_conv4_relu_0_split -> pool5_2_conv4_relu_pool5_2_conv4_relu_0_split_1
I0625 19:20:29.928596  3703 net.cpp:411] pool5_2_conv4_relu_pool5_2_conv4_relu_0_split -> pool5_2_conv4_relu_pool5_2_conv4_relu_0_split_2
I0625 19:20:29.928601  3703 net.cpp:411] pool5_2_conv4_relu_pool5_2_conv4_relu_0_split -> pool5_2_conv4_relu_pool5_2_conv4_relu_0_split_3
I0625 19:20:29.928665  3703 net.cpp:150] Setting up pool5_2_conv4_relu_pool5_2_conv4_relu_0_split
I0625 19:20:29.928670  3703 net.cpp:157] Top shape: 1 512 30 30 (460800)
I0625 19:20:29.928674  3703 net.cpp:157] Top shape: 1 512 30 30 (460800)
I0625 19:20:29.928689  3703 net.cpp:157] Top shape: 1 512 30 30 (460800)
I0625 19:20:29.928692  3703 net.cpp:157] Top shape: 1 512 30 30 (460800)
I0625 19:20:29.928695  3703 net.cpp:165] Memory required for data: 1448819656
I0625 19:20:29.928709  3703 layer_factory.hpp:77] Creating layer query_conv
I0625 19:20:29.928719  3703 net.cpp:106] Creating Layer query_conv
I0625 19:20:29.928723  3703 net.cpp:454] query_conv <- pool5_2_conv4_relu_pool5_2_conv4_relu_0_split_0
I0625 19:20:29.928730  3703 net.cpp:411] query_conv -> query_conv
I0625 19:20:29.930467  3703 net.cpp:150] Setting up query_conv
I0625 19:20:29.930492  3703 net.cpp:157] Top shape: 1 64 30 30 (57600)
I0625 19:20:29.930495  3703 net.cpp:165] Memory required for data: 1449050056
I0625 19:20:29.930505  3703 layer_factory.hpp:77] Creating layer key_conv
I0625 19:20:29.930527  3703 net.cpp:106] Creating Layer key_conv
I0625 19:20:29.930532  3703 net.cpp:454] key_conv <- pool5_2_conv4_relu_pool5_2_conv4_relu_0_split_1
I0625 19:20:29.930542  3703 net.cpp:411] key_conv -> key_conv
I0625 19:20:29.933961  3703 net.cpp:150] Setting up key_conv
I0625 19:20:29.933971  3703 net.cpp:157] Top shape: 1 64 30 30 (57600)
I0625 19:20:29.933975  3703 net.cpp:165] Memory required for data: 1449280456
I0625 19:20:29.933981  3703 layer_factory.hpp:77] Creating layer value_conv
I0625 19:20:29.933995  3703 net.cpp:106] Creating Layer value_conv
I0625 19:20:29.933998  3703 net.cpp:454] value_conv <- pool5_2_conv4_relu_pool5_2_conv4_relu_0_split_2
I0625 19:20:29.934005  3703 net.cpp:411] value_conv -> value_conv
I0625 19:20:29.942946  3703 net.cpp:150] Setting up value_conv
I0625 19:20:29.942961  3703 net.cpp:157] Top shape: 1 512 30 30 (460800)
I0625 19:20:29.942965  3703 net.cpp:165] Memory required for data: 1451123656
I0625 19:20:29.942972  3703 layer_factory.hpp:77] Creating layer query_conv_reshape
I0625 19:20:29.942981  3703 net.cpp:106] Creating Layer query_conv_reshape
I0625 19:20:29.943001  3703 net.cpp:454] query_conv_reshape <- query_conv
I0625 19:20:29.943015  3703 net.cpp:411] query_conv_reshape -> query_conv_reshape
I0625 19:20:29.943074  3703 net.cpp:150] Setting up query_conv_reshape
I0625 19:20:29.943080  3703 net.cpp:157] Top shape: 1 64 900 1 (57600)
I0625 19:20:29.943083  3703 net.cpp:165] Memory required for data: 1451354056
I0625 19:20:29.943094  3703 layer_factory.hpp:77] Creating layer key_conv_reshape
I0625 19:20:29.943114  3703 net.cpp:106] Creating Layer key_conv_reshape
I0625 19:20:29.943118  3703 net.cpp:454] key_conv_reshape <- key_conv
I0625 19:20:29.943132  3703 net.cpp:411] key_conv_reshape -> key_conv_reshape
I0625 19:20:29.943172  3703 net.cpp:150] Setting up key_conv_reshape
I0625 19:20:29.943178  3703 net.cpp:157] Top shape: 1 64 900 1 (57600)
I0625 19:20:29.943181  3703 net.cpp:165] Memory required for data: 1451584456
I0625 19:20:29.943183  3703 layer_factory.hpp:77] Creating layer value_conv_reshape
I0625 19:20:29.943198  3703 net.cpp:106] Creating Layer value_conv_reshape
I0625 19:20:29.943202  3703 net.cpp:454] value_conv_reshape <- value_conv
I0625 19:20:29.943208  3703 net.cpp:411] value_conv_reshape -> value_conv_reshape
I0625 19:20:29.943228  3703 net.cpp:150] Setting up value_conv_reshape
I0625 19:20:29.943233  3703 net.cpp:157] Top shape: 1 512 900 1 (460800)
I0625 19:20:29.943234  3703 net.cpp:165] Memory required for data: 1453427656
I0625 19:20:29.943248  3703 layer_factory.hpp:77] Creating layer query_conv_reshape_perm
I0625 19:20:29.943269  3703 net.cpp:106] Creating Layer query_conv_reshape_perm
I0625 19:20:29.943271  3703 net.cpp:454] query_conv_reshape_perm <- query_conv_reshape
I0625 19:20:29.943277  3703 net.cpp:411] query_conv_reshape_perm -> query_conv_reshape_perm
I0625 19:20:29.943367  3703 net.cpp:150] Setting up query_conv_reshape_perm
I0625 19:20:29.943372  3703 net.cpp:157] Top shape: 1 1 900 64 (57600)
I0625 19:20:29.943375  3703 net.cpp:165] Memory required for data: 1453658056
I0625 19:20:29.943387  3703 layer_factory.hpp:77] Creating layer key_conv_reshape_perm
I0625 19:20:29.943393  3703 net.cpp:106] Creating Layer key_conv_reshape_perm
I0625 19:20:29.943397  3703 net.cpp:454] key_conv_reshape_perm <- key_conv_reshape
I0625 19:20:29.943401  3703 net.cpp:411] key_conv_reshape_perm -> key_conv_reshape_perm
I0625 19:20:29.943475  3703 net.cpp:150] Setting up key_conv_reshape_perm
I0625 19:20:29.943480  3703 net.cpp:157] Top shape: 1 1 64 900 (57600)
I0625 19:20:29.943482  3703 net.cpp:165] Memory required for data: 1453888456
I0625 19:20:29.943495  3703 layer_factory.hpp:77] Creating layer energy
I0625 19:20:29.943500  3703 net.cpp:106] Creating Layer energy
I0625 19:20:29.943503  3703 net.cpp:454] energy <- query_conv_reshape_perm
I0625 19:20:29.943507  3703 net.cpp:454] energy <- key_conv_reshape_perm
I0625 19:20:29.943514  3703 net.cpp:411] energy -> energy
I0625 19:20:29.943533  3703 net.cpp:150] Setting up energy
I0625 19:20:29.943538  3703 net.cpp:157] Top shape: 1 1 900 900 (810000)
I0625 19:20:29.943542  3703 net.cpp:165] Memory required for data: 1457128456
I0625 19:20:29.943543  3703 layer_factory.hpp:77] Creating layer attention
I0625 19:20:29.943549  3703 net.cpp:106] Creating Layer attention
I0625 19:20:29.943553  3703 net.cpp:454] attention <- energy
I0625 19:20:29.943558  3703 net.cpp:411] attention -> attention
I0625 19:20:29.943715  3703 net.cpp:150] Setting up attention
I0625 19:20:29.943722  3703 net.cpp:157] Top shape: 1 1 900 900 (810000)
I0625 19:20:29.943725  3703 net.cpp:165] Memory required for data: 1460368456
I0625 19:20:29.943728  3703 layer_factory.hpp:77] Creating layer value_conv_reshape_perm
I0625 19:20:29.943733  3703 net.cpp:106] Creating Layer value_conv_reshape_perm
I0625 19:20:29.943737  3703 net.cpp:454] value_conv_reshape_perm <- value_conv_reshape
I0625 19:20:29.943742  3703 net.cpp:411] value_conv_reshape_perm -> value_conv_reshape_perm
I0625 19:20:29.943811  3703 net.cpp:150] Setting up value_conv_reshape_perm
I0625 19:20:29.943817  3703 net.cpp:157] Top shape: 1 1 512 900 (460800)
I0625 19:20:29.943819  3703 net.cpp:165] Memory required for data: 1462211656
I0625 19:20:29.943822  3703 layer_factory.hpp:77] Creating layer attention_perm
I0625 19:20:29.943828  3703 net.cpp:106] Creating Layer attention_perm
I0625 19:20:29.943833  3703 net.cpp:454] attention_perm <- attention
I0625 19:20:29.943837  3703 net.cpp:411] attention_perm -> attention_perm
I0625 19:20:29.943903  3703 net.cpp:150] Setting up attention_perm
I0625 19:20:29.943908  3703 net.cpp:157] Top shape: 1 1 900 900 (810000)
I0625 19:20:29.943912  3703 net.cpp:165] Memory required for data: 1465451656
I0625 19:20:29.943914  3703 layer_factory.hpp:77] Creating layer out
I0625 19:20:29.943918  3703 net.cpp:106] Creating Layer out
I0625 19:20:29.943922  3703 net.cpp:454] out <- value_conv_reshape_perm
I0625 19:20:29.943926  3703 net.cpp:454] out <- attention_perm
I0625 19:20:29.943931  3703 net.cpp:411] out -> out
I0625 19:20:29.943950  3703 net.cpp:150] Setting up out
I0625 19:20:29.943955  3703 net.cpp:157] Top shape: 1 1 512 900 (460800)
I0625 19:20:29.943958  3703 net.cpp:165] Memory required for data: 1467294856
I0625 19:20:29.943960  3703 layer_factory.hpp:77] Creating layer out_reshape
I0625 19:20:29.943967  3703 net.cpp:106] Creating Layer out_reshape
I0625 19:20:29.943971  3703 net.cpp:454] out_reshape <- out
I0625 19:20:29.943977  3703 net.cpp:411] out_reshape -> out_reshape
I0625 19:20:29.943997  3703 net.cpp:150] Setting up out_reshape
I0625 19:20:29.944002  3703 net.cpp:157] Top shape: 1 512 30 30 (460800)
I0625 19:20:29.944005  3703 net.cpp:165] Memory required for data: 1469138056
I0625 19:20:29.944008  3703 layer_factory.hpp:77] Creating layer out_reshape_scale
I0625 19:20:29.944020  3703 net.cpp:106] Creating Layer out_reshape_scale
I0625 19:20:29.944023  3703 net.cpp:454] out_reshape_scale <- out_reshape
I0625 19:20:29.944027  3703 net.cpp:411] out_reshape_scale -> out_reshape_scale
I0625 19:20:29.944089  3703 net.cpp:150] Setting up out_reshape_scale
I0625 19:20:29.944095  3703 net.cpp:157] Top shape: 1 512 30 30 (460800)
I0625 19:20:29.944097  3703 net.cpp:165] Memory required for data: 1470981256
I0625 19:20:29.944101  3703 layer_factory.hpp:77] Creating layer out_x
I0625 19:20:29.944110  3703 net.cpp:106] Creating Layer out_x
I0625 19:20:29.944114  3703 net.cpp:454] out_x <- out_reshape_scale
I0625 19:20:29.944119  3703 net.cpp:454] out_x <- pool5_2_conv4_relu_pool5_2_conv4_relu_0_split_3
I0625 19:20:29.944124  3703 net.cpp:411] out_x -> out_x
I0625 19:20:29.944146  3703 net.cpp:150] Setting up out_x
I0625 19:20:29.944151  3703 net.cpp:157] Top shape: 1 512 30 30 (460800)
I0625 19:20:29.944154  3703 net.cpp:165] Memory required for data: 1472824456
I0625 19:20:29.944157  3703 layer_factory.hpp:77] Creating layer mask_deconv2
I0625 19:20:29.944165  3703 net.cpp:106] Creating Layer mask_deconv2
I0625 19:20:29.944169  3703 net.cpp:454] mask_deconv2 <- out_x
I0625 19:20:29.944175  3703 net.cpp:411] mask_deconv2 -> mask_deconv2
I0625 19:20:29.944950  3703 net.cpp:150] Setting up mask_deconv2
I0625 19:20:29.944957  3703 net.cpp:157] Top shape: 1 256 122 122 (3810304)
I0625 19:20:29.944959  3703 net.cpp:165] Memory required for data: 1488065672
I0625 19:20:29.944965  3703 layer_factory.hpp:77] Creating layer pool5_2_conv5
I0625 19:20:29.944975  3703 net.cpp:106] Creating Layer pool5_2_conv5
I0625 19:20:29.944978  3703 net.cpp:454] pool5_2_conv5 <- mask_deconv2
I0625 19:20:29.944985  3703 net.cpp:411] pool5_2_conv5 -> pool5_2_conv5
I0625 19:20:29.971045  3703 net.cpp:150] Setting up pool5_2_conv5
I0625 19:20:29.971062  3703 net.cpp:157] Top shape: 1 512 122 122 (7620608)
I0625 19:20:29.971065  3703 net.cpp:165] Memory required for data: 1518548104
I0625 19:20:29.971084  3703 layer_factory.hpp:77] Creating layer pool5_2_conv5_relu
I0625 19:20:29.971096  3703 net.cpp:106] Creating Layer pool5_2_conv5_relu
I0625 19:20:29.971101  3703 net.cpp:454] pool5_2_conv5_relu <- pool5_2_conv5
I0625 19:20:29.971117  3703 net.cpp:411] pool5_2_conv5_relu -> pool5_2_conv5_relu
I0625 19:20:29.971268  3703 net.cpp:150] Setting up pool5_2_conv5_relu
I0625 19:20:29.971276  3703 net.cpp:157] Top shape: 1 512 122 122 (7620608)
I0625 19:20:29.971279  3703 net.cpp:165] Memory required for data: 1549030536
I0625 19:20:29.971292  3703 layer_factory.hpp:77] Creating layer pool5_2_conv6
I0625 19:20:29.971304  3703 net.cpp:106] Creating Layer pool5_2_conv6
I0625 19:20:29.971308  3703 net.cpp:454] pool5_2_conv6 <- pool5_2_conv5_relu
I0625 19:20:29.971323  3703 net.cpp:411] pool5_2_conv6 -> pool5_2_conv6
I0625 19:20:30.021728  3703 net.cpp:150] Setting up pool5_2_conv6
I0625 19:20:30.021747  3703 net.cpp:157] Top shape: 1 512 122 122 (7620608)
I0625 19:20:30.021750  3703 net.cpp:165] Memory required for data: 1579512968
I0625 19:20:30.021780  3703 layer_factory.hpp:77] Creating layer pool5_2_conv6_relu
I0625 19:20:30.021790  3703 net.cpp:106] Creating Layer pool5_2_conv6_relu
I0625 19:20:30.021796  3703 net.cpp:454] pool5_2_conv6_relu <- pool5_2_conv6
I0625 19:20:30.021812  3703 net.cpp:411] pool5_2_conv6_relu -> pool5_2_conv6_relu
I0625 19:20:30.022348  3703 net.cpp:150] Setting up pool5_2_conv6_relu
I0625 19:20:30.022356  3703 net.cpp:157] Top shape: 1 512 122 122 (7620608)
I0625 19:20:30.022359  3703 net.cpp:165] Memory required for data: 1609995400
I0625 19:20:30.022372  3703 layer_factory.hpp:77] Creating layer mask_deconv3
I0625 19:20:30.022382  3703 net.cpp:106] Creating Layer mask_deconv3
I0625 19:20:30.022387  3703 net.cpp:454] mask_deconv3 <- pool5_2_conv6_relu
I0625 19:20:30.022403  3703 net.cpp:411] mask_deconv3 -> mask_deconv3
I0625 19:20:30.022758  3703 net.cpp:150] Setting up mask_deconv3
I0625 19:20:30.022764  3703 net.cpp:157] Top shape: 1 256 244 244 (15241216)
I0625 19:20:30.022766  3703 net.cpp:165] Memory required for data: 1670960264
I0625 19:20:30.022771  3703 layer_factory.hpp:77] Creating layer mask_score
I0625 19:20:30.022780  3703 net.cpp:106] Creating Layer mask_score
I0625 19:20:30.022785  3703 net.cpp:454] mask_score <- mask_deconv3
I0625 19:20:30.022792  3703 net.cpp:411] mask_score -> mask_score
I0625 19:20:30.023382  3703 net.cpp:150] Setting up mask_score
I0625 19:20:30.023391  3703 net.cpp:157] Top shape: 1 8 244 244 (476288)
I0625 19:20:30.023393  3703 net.cpp:165] Memory required for data: 1672865416
I0625 19:20:30.023399  3703 layer_factory.hpp:77] Creating layer prob
I0625 19:20:30.023406  3703 net.cpp:106] Creating Layer prob
I0625 19:20:30.023411  3703 net.cpp:454] prob <- mask_score
I0625 19:20:30.023416  3703 net.cpp:411] prob -> mask_score_softmax
I0625 19:20:30.023944  3703 net.cpp:150] Setting up prob
I0625 19:20:30.023952  3703 net.cpp:157] Top shape: 1 8 244 244 (476288)
I0625 19:20:30.023955  3703 net.cpp:165] Memory required for data: 1674770568
I0625 19:20:30.023958  3703 layer_factory.hpp:77] Creating layer log
I0625 19:20:30.023964  3703 net.cpp:106] Creating Layer log
I0625 19:20:30.023969  3703 net.cpp:454] log <- mask_score_softmax
I0625 19:20:30.023974  3703 net.cpp:411] log -> log
I0625 19:20:30.024015  3703 net.cpp:150] Setting up log
I0625 19:20:30.024020  3703 net.cpp:157] Top shape: 1 8 244 244 (476288)
I0625 19:20:30.024024  3703 net.cpp:165] Memory required for data: 1676675720
I0625 19:20:30.024035  3703 layer_factory.hpp:77] Creating layer mult1
I0625 19:20:30.024041  3703 net.cpp:106] Creating Layer mult1
I0625 19:20:30.024045  3703 net.cpp:454] mult1 <- log
I0625 19:20:30.024049  3703 net.cpp:454] mult1 <- mask_targets
I0625 19:20:30.024056  3703 net.cpp:411] mult1 -> mult1
I0625 19:20:30.024086  3703 net.cpp:150] Setting up mult1
I0625 19:20:30.024092  3703 net.cpp:157] Top shape: 1 8 244 244 (476288)
I0625 19:20:30.024094  3703 net.cpp:165] Memory required for data: 1678580872
I0625 19:20:30.024097  3703 layer_factory.hpp:77] Creating layer cross_entropy
I0625 19:20:30.024102  3703 net.cpp:106] Creating Layer cross_entropy
I0625 19:20:30.024106  3703 net.cpp:454] cross_entropy <- mult1
I0625 19:20:30.024111  3703 net.cpp:411] cross_entropy -> cross_entropy
I0625 19:20:30.024132  3703 net.cpp:150] Setting up cross_entropy
I0625 19:20:30.024137  3703 net.cpp:157] Top shape: 1 8 244 244 (476288)
I0625 19:20:30.024140  3703 net.cpp:165] Memory required for data: 1680486024
I0625 19:20:30.024143  3703 layer_factory.hpp:77] Creating layer ce_sum
I0625 19:20:30.024150  3703 net.cpp:106] Creating Layer ce_sum
I0625 19:20:30.024153  3703 net.cpp:454] ce_sum <- cross_entropy
I0625 19:20:30.024159  3703 net.cpp:411] ce_sum -> cross_entropy_sum
I0625 19:20:30.025318  3703 net.cpp:150] Setting up ce_sum
I0625 19:20:30.025328  3703 net.cpp:157] Top shape: 1 1 244 244 (59536)
I0625 19:20:30.025331  3703 net.cpp:165] Memory required for data: 1680724168
I0625 19:20:30.025336  3703 layer_factory.hpp:77] Creating layer ce_mean
I0625 19:20:30.025348  3703 net.cpp:106] Creating Layer ce_mean
I0625 19:20:30.025352  3703 net.cpp:454] ce_mean <- cross_entropy_sum
I0625 19:20:30.025357  3703 net.cpp:411] ce_mean -> cross_entropy_mean
I0625 19:20:30.025923  3703 net.cpp:150] Setting up ce_mean
…
