…
average_loss: 100
iter_size: 2
I0605 14:13:02.671136  1940 solver.cpp:81] Creating training net from train_net file: models/pascal_voc/VGG16/faster_rcnn_end2end/train.prototxt
I0605 14:13:02.672654  1940 net.cpp:49] Initializing net from parameters: 
name: "VGG_ILSVRC_16_layers"
state {
  phase: TRAIN
}
layer {
  name: "input-data"
  type: "Python"
  top: "data"
  top: "im_info"
  top: "gt_boxes"
  top: "seg_mask_inds"
  top: "flipped"
  python_param {
    module: "roi_data_layer.layer"
    layer: "RoIDataLayer"
    param_str: "\'num_classes\': 2"
  }
}
layer {
  name: "conv1_1"
  type: "Convolution"
  bottom: "data"
  top: "conv1_1"
  param {
    lr_mult: 0
    decay_mult: 0
  }
  param {
    lr_mult: 0
    decay_mult: 0
  }
  convolution_param {
    num_output: 64
    pad: 1
    kernel_size: 3
  }
}
layer {
  name: "relu1_1"
  type: "ReLU"
  bottom: "conv1_1"
  top: "conv1_1"
}
layer {
  name: "conv1_2"
  type: "Convolution"
  bottom: "conv1_1"
  top: "conv1_2"
  param {
    lr_mult: 0
    decay_mult: 0
  }
  param {
    lr_mult: 0
    decay_mult: 0
  }
  convolution_param {
    num_output: 64
    pad: 1
    kernel_size: 3
  }
}
layer {
  name: "relu1_2"
  type: "ReLU"
  bottom: "conv1_2"
  top: "conv1_2"
}
layer {
  name: "pool1"
  type: "Pooling"
  bottom: "conv1_2"
  top: "pool1"
  pooling_param {
    pool: MAX
    kernel_size: 2
    stride: 2
  }
}
layer {
  name: "conv2_1"
  type: "Convolution"
  bottom: "pool1"
  top: "conv2_1"
  param {
    lr_mult: 0
    decay_mult: 0
  }
  param {
    lr_mult: 0
    decay_mult: 0
  }
  convolution_param {
    num_output: 128
    pad: 1
    kernel_size: 3
  }
}
layer {
  name: "relu2_1"
  type: "ReLU"
  bottom: "conv2_1"
  top: "conv2_1"
}
layer {
  name: "conv2_2"
  type: "Convolution"
  bottom: "conv2_1"
  top: "conv2_2"
  param {
    lr_mult: 0
    decay_mult: 0
  }
  param {
    lr_mult: 0
    decay_mult: 0
  }
  convolution_param {
    num_output: 128
    pad: 1
    kernel_size: 3
  }
}
layer {
  name: "relu2_2"
  type: "ReLU"
  bottom: "conv2_2"
  top: "conv2_2"
}
layer {
  name: "pool2"
  type: "Pooling"
  bottom: "conv2_2"
  top: "pool2"
  pooling_param {
    pool: MAX
    kernel_size: 2
    stride: 2
  }
}
layer {
  name: "conv3_1"
  type: "Convolution"
  bottom: "pool2"
  top: "conv3_1"
  param {
    lr_mult: 1
  }
  param {
    lr_mult: 2
  }
  convolution_param {
    num_output: 256
    pad: 1
    kernel_size: 3
  }
}
layer {
  name: "relu3_1"
  type: "ReLU"
  bottom: "conv3_1"
  top: "conv3_1"
}
layer {
  name: "conv3_2"
  type: "Convolution"
  bottom: "conv3_1"
  top: "conv3_2"
  param {
    lr_mult: 1
  }
  param {
    lr_mult: 2
  }
  convolution_param {
    num_output: 256
    pad: 1
    kernel_size: 3
  }
}
layer {
  name: "relu3_2"
  type: "ReLU"
  bottom: "conv3_2"
  top: "conv3_2"
}
layer {
  name: "conv3_3"
  type: "Convolution"
  bottom: "conv3_2"
  top: "conv3_3"
  param {
    lr_mult: 1
  }
  param {
    lr_mult: 2
  }
  convolution_param {
    num_output: 256
    pad: 1
    kernel_size: 3
  }
}
layer {
  name: "relu3_3"
  type: "ReLU"
  bottom: "conv3_3"
  top: "conv3_3"
}
layer {
  name: "pool3"
  type: "Pooling"
  bottom: "conv3_3"
  top: "pool3"
  pooling_param {
    pool: MAX
    kernel_size: 2
    stride: 2
  }
}
layer {
  name: "conv4_1"
  type: "Convolution"
  bottom: "pool3"
  top: "conv4_1"
  param {
    lr_mult: 1
  }
  param {
    lr_mult: 2
  }
  convolution_param {
    num_output: 512
    pad: 1
    kernel_size: 3
  }
}
layer {
  name: "relu4_1"
  type: "ReLU"
  bottom: "conv4_1"
  top: "conv4_1"
}
layer {
  name: "conv4_2"
  type: "Convolution"
  bottom: "conv4_1"
  top: "conv4_2"
  param {
    lr_mult: 1
  }
  param {
    lr_mult: 2
  }
  convolution_param {
    num_output: 512
    pad: 1
    kernel_size: 3
  }
}
layer {
  name: "relu4_2"
  type: "ReLU"
  bottom: "conv4_2"
  top: "conv4_2"
}
layer {
  name: "conv4_3"
  type: "Convolution"
  bottom: "conv4_2"
  top: "conv4_3"
  param {
    lr_mult: 1
  }
  param {
    lr_mult: 2
  }
  convolution_param {
    num_output: 512
    pad: 1
    kernel_size: 3
  }
}
layer {
  name: "relu4_3"
  type: "ReLU"
  bottom: "conv4_3"
  top: "conv4_3"
}
layer {
  name: "pool4"
  type: "Pooling"
  bottom: "conv4_3"
  top: "pool4"
  pooling_param {
    pool: MAX
    kernel_size: 2
    stride: 2
  }
}
layer {
  name: "conv5_1"
  type: "Convolution"
  bottom: "pool4"
  top: "conv5_1"
  param {
    lr_mult: 1
  }
  param {
    lr_mult: 2
  }
  convolution_param {
    num_output: 512
    pad: 1
    kernel_size: 3
  }
}
layer {
  name: "relu5_1"
  type: "ReLU"
  bottom: "conv5_1"
  top: "conv5_1"
}
layer {
  name: "conv5_2"
  type: "Convolution"
  bottom: "conv5_1"
  top: "conv5_2"
  param {
    lr_mult: 1
  }
  param {
    lr_mult: 2
  }
  convolution_param {
    num_output: 512
    pad: 1
    kernel_size: 3
  }
}
layer {
  name: "relu5_2"
  type: "ReLU"
  bottom: "conv5_2"
  top: "conv5_2"
}
layer {
  name: "conv5_3"
  type: "Convolution"
  bottom: "conv5_2"
  top: "conv5_3"
  param {
    lr_mult: 1
  }
  param {
    lr_mult: 2
  }
  convolution_param {
    num_output: 512
    pad: 1
    kernel_size: 3
  }
}
layer {
  name: "relu5_3"
  type: "ReLU"
  bottom: "conv5_3"
  top: "conv5_3"
}
layer {
  name: "rpn_conv/3x3"
  type: "Convolution"
  bottom: "conv5_3"
  top: "rpn/output"
  param {
    lr_mult: 1
  }
  param {
    lr_mult: 2
  }
  convolution_param {
    num_output: 512
    pad: 1
    kernel_size: 3
    stride: 1
    weight_filler {
      type: "gaussian"
      std: 0.01
    }
    bias_filler {
      type: "constant"
      value: 0
    }
  }
}
layer {
  name: "rpn_relu/3x3"
  type: "ReLU"
  bottom: "rpn/output"
  top: "rpn/output"
}
layer {
  name: "rpn_cls_score"
  type: "Convolution"
  bottom: "rpn/output"
  top: "rpn_cls_score"
  param {
    lr_mult: 1
  }
  param {
    lr_mult: 2
  }
  convolution_param {
    num_output: 30
    pad: 0
    kernel_size: 1
    stride: 1
    weight_filler {
      type: "gaussian"
      std: 0.01
    }
    bias_filler {
      type: "constant"
      value: 0
    }
  }
}
layer {
  name: "rpn_bbox_pred"
  type: "Convolution"
  bottom: "rpn/output"
  top: "rpn_bbox_pred"
  param {
    lr_mult: 1
  }
  param {
    lr_mult: 2
  }
  convolution_param {
    num_output: 60
    pad: 0
    kernel_size: 1
    stride: 1
    weight_filler {
      type: "gaussian"
      std: 0.01
    }
    bias_filler {
      type: "constant"
      value: 0
    }
  }
}
layer {
  name: "rpn_cls_score_reshape"
  type: "Reshape"
  bottom: "rpn_cls_score"
  top: "rpn_cls_score_reshape"
  reshape_param {
    shape {
      dim: 0
      dim: 2
      dim: -1
      dim: 0
    }
  }
}
layer {
  name: "rpn-data"
  type: "Python"
  bottom: "rpn_cls_score"
  bottom: "gt_boxes"
  bottom: "im_info"
  bottom: "data"
  top: "rpn_labels"
  top: "rpn_bbox_targets"
  top: "rpn_bbox_inside_weights"
  top: "rpn_bbox_outside_weights"
  python_param {
    module: "rpn.anchor_target_layer"
    layer: "AnchorTargetLayer"
    param_str: "\'feat_stride\': 16 \n\'scales\': !!python/tuple [2, 4, 8, 16, 32]"
  }
}
layer {
  name: "rpn_loss_cls"
  type: "SoftmaxWithLoss"
  bottom: "rpn_cls_score_reshape"
  bottom: "rpn_labels"
  top: "rpn_cls_loss"
  loss_weight: 1
  propagate_down: true
  propagate_down: false
  loss_param {
    ignore_label: -1
    normalize: true
  }
}
layer {
  name: "rpn_loss_bbox"
  type: "SmoothL1Loss"
  bottom: "rpn_bbox_pred"
  bottom: "rpn_bbox_targets"
  bottom: "rpn_bbox_inside_weights"
  bottom: "rpn_bbox_outside_weights"
  top: "rpn_loss_bbox"
  loss_weight: 1
  smooth_l1_loss_param {
    sigma: 3
  }
}
layer {
  name: "rpn_cls_prob"
  type: "Softmax"
  bottom: "rpn_cls_score_reshape"
  top: "rpn_cls_prob"
}
layer {
  name: "rpn_cls_prob_reshape"
  type: "Reshape"
  bottom: "rpn_cls_prob"
  top: "rpn_cls_prob_reshape"
  reshape_param {
    shape {
      dim: 0
      dim: 30
      dim: -1
      dim: 0
    }
  }
}
layer {
  name: "proposal"
  type: "Python"
  bottom: "rpn_cls_prob_reshape"
  bottom: "rpn_bbox_pred"
  bottom: "im_info"
  top: "rpn_rois"
  python_param {
    module: "rpn.proposal_layer"
    layer: "ProposalLayer"
    param_str: "\'feat_stride\': 16 \n\'scales\': !!python/tuple [2, 4, 8, 16, 32]"
  }
}
layer {
  name: "roi-data"
  type: "Python"
  bottom: "rpn_rois"
  bottom: "gt_boxes"
  bottom: "im_info"
  bottom: "seg_mask_inds"
  bottom: "flipped"
  top: "rois"
  top: "labels"
  top: "bbox_targets"
  top: "bbox_inside_weights"
  top: "bbox_outside_weights"
  top: "mask_targets"
  top: "rois_pos"
  top: "rois_attribute"
  python_param {
    module: "rpn.proposal_target_layer"
    layer: "ProposalTargetLayer"
    param_str: "\'num_classes\': 2"
  }
}
layer {
  name: "roi_pool5"
  type: "ROIAlignment"
  bottom: "conv5_3"
  bottom: "rois"
  top: "pool5"
  roi_alignment_param {
    pooled_h: 7
    pooled_w: 7
    spatial_scale: 0.0625
  }
}
layer {
  name: "fc6"
  type: "InnerProduct"
  bottom: "pool5"
  top: "fc6"
  param {
    lr_mult: 1
  }
  param {
    lr_mult: 2
  }
  inner_product_param {
    num_output: 4096
  }
}
layer {
  name: "relu6"
  type: "ReLU"
  bottom: "fc6"
  top: "fc6"
}
layer {
  name: "fc7"
  type: "InnerProduct"
  bottom: "fc6"
  top: "fc7"
  param {
    lr_mult: 1
  }
  param {
    lr_mult: 2
  }
  inner_product_param {
    num_output: 4096
  }
}
layer {
  name: "relu7"
  type: "ReLU"
  bottom: "fc7"
  top: "fc7"
}
layer {
  name: "cls_score"
  type: "InnerProduct"
  bottom: "fc7"
  top: "cls_score"
  param {
    lr_mult: 1
  }
  param {
    lr_mult: 2
  }
  inner_product_param {
    num_output: 2
    weight_filler {
      type: "gaussian"
      std: 0.01
    }
    bias_filler {
      type: "constant"
      value: 0
    }
  }
}
layer {
  name: "bbox_pred"
  type: "InnerProduct"
  bottom: "fc7"
  top: "bbox_pred"
  param {
    lr_mult: 1
  }
  param {
    lr_mult: 2
  }
  inner_product_param {
    num_output: 8
    weight_filler {
      type: "gaussian"
      std: 0.001
    }
    bias_filler {
      type: "constant"
      value: 0
    }
  }
}
layer {
  name: "loss_cls"
  type: "SoftmaxWithLoss"
  bottom: "cls_score"
  bottom: "labels"
  top: "loss_cls"
  loss_weight: 3
  propagate_down: true
  propagate_down: false
}
layer {
  name: "loss_bbox"
  type: "SmoothL1Loss"
  bottom: "bbox_pred"
  bottom: "bbox_targets"
  bottom: "bbox_inside_weights"
  bottom: "bbox_outside_weights"
  top: "loss_bbox"
  loss_weight: 2
}
layer {
  name: "roi_pool5_2"
  type: "ROIAlignment"
  bottom: "conv5_3"
  bottom: "rois_pos"
  top: "pool5_2"
  roi_alignment_param {
    pooled_h: 7
    pooled_w: 7
    spatial_scale: 0.0625
  }
}
layer {
  name: "pool5_2_conv"
  type: "Convolution"
  bottom: "pool5_2"
  top: "pool5_2_conv"
  param {
    lr_mult: 1
    decay_mult: 1
  }
  param {
    lr_mult: 2
    decay_mult: 0
  }
  convolution_param {
    num_output: 512
    pad: 0
    kernel_size: 1
    weight_filler {
      type: "gaussian"
      std: 0.01
    }
    bias_filler {
      type: "constant"
      value: 0
    }
  }
}
layer {
  name: "pool5_2_conv_relu"
  type: "ReLU"
  bottom: "pool5_2_conv"
  top: "pool5_2_conv_relu"
}
layer {
  name: "pool5_2_conv2"
  type: "Convolution"
  bottom: "pool5_2_conv_relu"
  top: "pool5_2_conv2"
  param {
    lr_mult: 1
    decay_mult: 1
  }
  param {
    lr_mult: 2
    decay_mult: 0
  }
  convolution_param {
    num_output: 512
    pad: 1
    kernel_size: 3
    stride: 1
    weight_filler {
      type: "gaussian"
      std: 0.01
    }
    bias_filler {
      type: "constant"
      value: 0
    }
  }
}
layer {
  name: "pool5_2_conv2_relu"
  type: "ReLU"
  bottom: "pool5_2_conv2"
  top: "pool5_2_conv2_relu"
}
layer {
  name: "mask_deconv1"
  type: "Deconvolution"
  bottom: "pool5_2_conv2_relu"
  top: "mask_deconv1"
  param {
    lr_mult: 1
    decay_mult: 1
  }
  param {
    lr_mult: 2
    decay_mult: 0
  }
  convolution_param {
    num_output: 256
    pad: 1
    kernel_size: 8
    group: 256
    stride: 4
    weight_filler {
      type: "bilinear"
    }
  }
}
layer {
  name: "pool5_2_conv3"
  type: "Convolution"
  bottom: "mask_deconv1"
  top: "pool5_2_conv3"
  param {
    lr_mult: 1
    decay_mult: 1
  }
  param {
    lr_mult: 2
    decay_mult: 0
  }
  convolution_param {
    num_output: 512
    pad: 1
    kernel_size: 3
    stride: 1
    weight_filler {
      type: "gaussian"
      std: 0.01
    }
    bias_filler {
      type: "constant"
      value: 0
    }
  }
}
layer {
  name: "pool5_2_conv3_relu"
  type: "ReLU"
  bottom: "pool5_2_conv3"
  top: "pool5_2_conv3_relu"
}
layer {
  name: "pool5_2_conv4"
  type: "Convolution"
  bottom: "pool5_2_conv3_relu"
  top: "pool5_2_conv4"
  param {
    lr_mult: 1
    decay_mult: 1
  }
  param {
    lr_mult: 2
    decay_mult: 0
  }
  convolution_param {
    num_output: 512
    pad: 1
    kernel_size: 3
    stride: 1
    weight_filler {
      type: "gaussian"
      std: 0.01
    }
    bias_filler {
      type: "constant"
      value: 0
    }
  }
}
layer {
  name: "pool5_2_conv4_relu"
  type: "ReLU"
  bottom: "pool5_2_conv4"
  top: "pool5_2_conv4_relu"
}
layer {
  name: "query_conv"
  type: "Convolution"
  bottom: "pool5_2_conv4_relu"
  top: "query_conv"
  param {
    lr_mult: 1
    decay_mult: 1
  }
  param {
    lr_mult: 2
    decay_mult: 0
  }
  convolution_param {
    num_output: 64
    pad: 0
    kernel_size: 1
    stride: 1
    weight_filler {
      type: "gaussian"
      std: 0.01
    }
    bias_filler {
      type: "constant"
      value: 0
    }
  }
}
layer {
  name: "key_conv"
  type: "Convolution"
  bottom: "pool5_2_conv4_relu"
  top: "key_conv"
  param {
    lr_mult: 1
    decay_mult: 1
  }
  param {
    lr_mult: 2
    decay_mult: 0
  }
  convolution_param {
    num_output: 64
    pad: 0
    kernel_size: 1
    stride: 1
    weight_filler {
      type: "gaussian"
      std: 0.01
    }
    bias_filler {
      type: "constant"
      value: 0
    }
  }
}
layer {
  name: "value_conv"
  type: "Convolution"
  bottom: "pool5_2_conv4_relu"
  top: "value_conv"
  param {
    lr_mult: 1
    decay_mult: 1
  }
  param {
    lr_mult: 2
    decay_mult: 0
  }
  convolution_param {
    num_output: 512
    pad: 0
    kernel_size: 1
    stride: 1
    weight_filler {
      type: "gaussian"
      std: 0.01
    }
    bias_filler {
      type: "constant"
      value: 0
    }
  }
}
layer {
  name: "query_conv_reshape"
  type: "Reshape"
  bottom: "query_conv"
  top: "query_conv_reshape"
  reshape_param {
    shape {
      dim: -1
      dim: 64
      dim: 900
      dim: 1
    }
  }
}
layer {
  name: "key_conv_reshape"
  type: "Reshape"
  bottom: "key_conv"
  top: "key_conv_reshape"
  reshape_param {
    shape {
      dim: -1
      dim: 64
      dim: 900
      dim: 1
    }
  }
}
layer {
  name: "value_conv_reshape"
  type: "Reshape"
  bottom: "value_conv"
  top: "value_conv_reshape"
  reshape_param {
    shape {
      dim: -1
      dim: 512
      dim: 900
      dim: 1
    }
  }
}
layer {
  name: "query_conv_reshape_perm"
  type: "Permute"
  bottom: "query_conv_reshape"
  top: "query_conv_reshape_perm"
  permute_param {
    order: 0
    order: 3
    order: 2
    order: 1
  }
}
layer {
  name: "key_conv_reshape_perm"
  type: "Permute"
  bottom: "key_conv_reshape"
  top: "key_conv_reshape_perm"
  permute_param {
    order: 0
    order: 3
    order: 1
    order: 2
  }
}
layer {
  name: "energy"
  type: "MatrixMultiplication"
  bottom: "query_conv_reshape_perm"
  bottom: "key_conv_reshape_perm"
  top: "energy"
}
layer {
  name: "attention"
  type: "Softmax"
  bottom: "energy"
  top: "attention"
  softmax_param {
    axis: 3
  }
}
layer {
  name: "value_conv_reshape_perm"
  type: "Permute"
  bottom: "value_conv_reshape"
  top: "value_conv_reshape_perm"
  permute_param {
    order: 0
    order: 3
    order: 1
    order: 2
  }
}
layer {
  name: "attention_perm"
  type: "Permute"
  bottom: "attention"
  top: "attention_perm"
  permute_param {
    order: 0
    order: 1
    order: 2
    order: 3
  }
}
layer {
  name: "out"
  type: "MatrixMultiplication"
  bottom: "value_conv_reshape_perm"
  bottom: "attention_perm"
  top: "out"
}
layer {
  name: "out_reshape"
  type: "Reshape"
  bottom: "out"
  top: "out_reshape"
  reshape_param {
    shape {
      dim: -1
      dim: 512
      dim: 30
      dim: 30
    }
  }
}
layer {
  name: "out_reshape_scale"
  type: "Scale"
  bottom: "out_reshape"
  top: "out_reshape_scale"
  param {
    name: "scale_conv1_1"
    lr_mult: 1
  }
  scale_param {
    bias_term: false
  }
}
layer {
  name: "out_x"
  type: "Eltwise"
  bottom: "out_reshape_scale"
  bottom: "pool5_2_conv4_relu"
  top: "out_x"
  eltwise_param {
    operation: SUM
  }
}
layer {
  name: "query_conv_reshape_ch"
  type: "Reshape"
  bottom: "pool5_2_conv4_relu"
  top: "query_conv_reshape_ch"
  reshape_param {
    shape {
      dim: 1
      dim: 512
      dim: -1
      dim: 1
    }
  }
}
layer {
  name: "key_conv_reshape_ch"
  type: "Reshape"
  bottom: "pool5_2_conv4_relu"
  top: "key_conv_reshape_ch"
  reshape_param {
    shape {
      dim: 1
      dim: 512
      dim: -1
      dim: 1
    }
  }
}
layer {
  name: "value_conv_reshape_ch"
  type: "Reshape"
  bottom: "pool5_2_conv4_relu"
  top: "value_conv_reshape_ch"
  reshape_param {
    shape {
      dim: 1
      dim: 512
      dim: -1
      dim: 1
    }
  }
}
layer {
  name: "query_conv_reshape_perm_ch"
  type: "Permute"
  bottom: "query_conv_reshape_ch"
  top: "query_conv_reshape_perm_ch"
  permute_param {
    order: 0
    order: 3
    order: 1
    order: 2
  }
}
layer {
  name: "key_conv_reshape_perm_ch"
  type: "Permute"
  bottom: "key_conv_reshape_ch"
  top: "key_conv_reshape_perm_ch"
  permute_param {
    order: 0
    order: 3
    order: 2
    order: 1
  }
}
layer {
  name: "energy_ch"
  type: "MatrixMultiplication"
  bottom: "query_conv_reshape_perm_ch"
  bottom: "key_conv_reshape_perm_ch"
  top: "energy_ch"
}
layer {
  name: "energy_ch_pool"
  type: "Pooling"
  bottom: "energy_ch"
  top: "energy_ch_pool"
  pooling_param {
    pool: MAX
    kernel_h: 1
    kernel_w: 512
    stride_h: 1
    stride_w: 512
  }
}
layer {
  name: "energy_ch_max"
  type: "Tile"
  bottom: "energy_ch_pool"
  top: "energy_ch_max"
  tile_param {
    axis: 3
    tiles: 512
  }
}
layer {
  name: "energy_ch_minus"
  type: "Power"
  bottom: "energy_ch"
  top: "energy_ch_minus"
  power_param {
    power: 1
    scale: -1
    shift: 0
  }
}
layer {
  name: "energy_new"
  type: "Eltwise"
  bottom: "energy_ch_max"
  bottom: "energy_ch_minus"
  top: "energy_new"
  eltwise_param {
    operation: SUM
  }
}
layer {
  name: "attention_ch"
  type: "Softmax"
  bottom: "energy_new"
  top: "attention_ch"
  softmax_param {
    axis: 3
  }
}
layer {
  name: "value_conv_reshape_ch_perm"
  type: "Permute"
  bottom: "value_conv_reshape_ch"
  top: "value_conv_reshape_ch_perm"
  permute_param {
    order: 0
    order: 3
    order: 1
    order: 2
  }
}
layer {
  name: "attention_ch_perm"
  type: "Permute"
  bottom: "attention_ch"
  top: "attention_ch_perm"
  permute_param {
    order: 0
    order: 1
    order: 2
    order: 3
  }
}
layer {
  name: "out_ch"
  type: "MatrixMultiplication"
  bottom: "attention_ch_perm"
  bottom: "value_conv_reshape_ch_perm"
  top: "out_ch"
}
layer {
  name: "out_ch_reshape"
  type: "Reshape"
  bottom: "out_ch"
  top: "out_ch_reshape"
  reshape_param {
    shape {
      dim: -1
      dim: 512
      dim: 30
      dim: 30
    }
  }
}
layer {
  name: "out_ch_reshape_scale"
  type: "Scale"
  bottom: "out_ch_reshape"
  top: "out_ch_reshape_scale"
  param {
    name: "scale_conv1_1"
    lr_mult: 1
  }
  scale_param {
    bias_term: false
  }
}
layer {
  name: "out_ch_x"
  type: "Eltwise"
  bottom: "out_ch_reshape_scale"
  bottom: "pool5_2_conv4_relu"
  top: "out_ch_x"
  eltwise_param {
    operation: SUM
  }
}
layer {
  name: "out_conv_ch_x"
  type: "Convolution"
  bottom: "out_ch_x"
  top: "out_conv_ch_x"
  param {
    lr_mult: 1
    decay_mult: 1
  }
  param {
    lr_mult: 2
    decay_mult: 0
  }
  convolution_param {
    num_output: 512
    pad: 0
    kernel_size: 1
    weight_filler {
      type: "gaussian"
      std: 0.01
    }
    bias_filler {
      type: "constant"
      value: 0
    }
  }
}
layer {
  name: "out_conv_x"
  type: "Convolution"
  bottom: "out_x"
  top: "out_conv_x"
  param {
    lr_mult: 1
    decay_mult: 1
  }
  param {
    lr_mult: 2
    decay_mult: 0
  }
  convolution_param {
    num_output: 512
    pad: 0
    kernel_size: 1
    weight_filler {
      type: "gaussian"
      std: 0.01
    }
    bias_filler {
      type: "constant"
      value: 0
    }
  }
}
layer {
  name: "out_x_sum"
  type: "Eltwise"
  bottom: "out_conv_x"
  bottom: "out_conv_ch_x"
  top: "out_x_sum"
  eltwise_param {
    operation: SUM
  }
}
layer {
  name: "mask_deconv2"
  type: "Deconvolution"
  bottom: "out_x_sum"
  top: "mask_deconv2"
  param {
    lr_mult: 1
    decay_mult: 1
  }
  param {
    lr_mult: 2
    decay_mult: 0
  }
  convolution_param {
    num_output: 256
    pad: 1
    kernel_size: 8
    group: 256
    stride: 4
    weight_filler {
      type: "bilinear"
    }
  }
}
layer {
  name: "pool5_2_conv5"
  type: "Convolution"
  bottom: "mask_deconv2"
  top: "pool5_2_conv5"
  param {
    lr_mult: 1
    decay_mult: 1
  }
  param {
    lr_mult: 2
    decay_mult: 0
  }
  convolution_param {
    num_output: 512
    pad: 1
    kernel_size: 3
    stride: 1
    weight_filler {
      type: "gaussian"
      std: 0.01
    }
    bias_filler {
      type: "constant"
      value: 0
    }
  }
}
layer {
  name: "pool5_2_conv5_relu"
  type: "ReLU"
  bottom: "pool5_2_conv5"
  top: "pool5_2_conv5_relu"
}
layer {
  name: "pool5_2_conv6"
  type: "Convolution"
  bottom: "pool5_2_conv5_relu"
  top: "pool5_2_conv6"
  param {
    lr_mult: 1
    decay_mult: 1
  }
  param {
    lr_mult: 2
    decay_mult: 0
  }
  convolution_param {
    num_output: 512
    pad: 1
    kernel_size: 3
    stride: 1
    weight_filler {
      type: "gaussian"
      std: 0.01
    }
    bias_filler {
      type: "constant"
      value: 0
    }
  }
}
layer {
  name: "pool5_2_conv6_relu"
  type: "ReLU"
  bottom: "pool5_2_conv6"
  top: "pool5_2_conv6_relu"
}
layer {
  name: "mask_deconv3"
  type: "Deconvolution"
  bottom: "pool5_2_conv6_relu"
  top: "mask_deconv3"
  param {
    lr_mult: 1
    decay_mult: 1
  }
  param {
    lr_mult: 2
    decay_mult: 0
  }
  convolution_param {
    num_output: 256
    pad: 1
    kernel_size: 4
    group: 256
    stride: 2
    weight_filler {
      type: "bilinear"
    }
  }
}
layer {
  name: "mask_score"
  type: "Convolution"
  bottom: "mask_deconv3"
  top: "mask_score"
  param {
    lr_mult: 1
    decay_mult: 1
  }
  param {
    lr_mult: 2
    decay_mult: 0
  }
  convolution_param {
    num_output: 8
    pad: 0
    kernel_size: 1
    weight_filler {
      type: "gaussian"
      std: 0.01
    }
    bias_filler {
      type: "constant"
      value: 0
    }
  }
}
layer {
  name: "loss_mask"
  type: "SoftmaxWithLoss"
  bottom: "mask_score"
  bottom: "mask_targets"
  top: "loss_mask"
  loss_weight: 3
  propagate_down: true
  propagate_down: false
  loss_param {
    ignore_label: -1
    normalize: true
  }
}
I0605 14:13:02.673009  1940 layer_factory.hpp:77] Creating layer input-data
I0605 14:13:02.758525  1940 net.cpp:106] Creating Layer input-data
I0605 14:13:02.758541  1940 net.cpp:411] input-data -> data
I0605 14:13:02.758549  1940 net.cpp:411] input-data -> im_info
I0605 14:13:02.758555  1940 net.cpp:411] input-data -> gt_boxes
I0605 14:13:02.758561  1940 net.cpp:411] input-data -> seg_mask_inds
I0605 14:13:02.758566  1940 net.cpp:411] input-data -> flipped
RoiDataLayer: name_to_top: {'gt_boxes': 2, 'data': 0, 'seg_mask_inds': 3, 'im_info': 1, 'flipped': 4}
I0605 14:13:02.857610  1940 net.cpp:150] Setting up input-data
I0605 14:13:02.857625  1940 net.cpp:157] Top shape: 1 3 600 1000 (1800000)
I0605 14:13:02.857630  1940 net.cpp:157] Top shape: 1 3 (3)
I0605 14:13:02.857633  1940 net.cpp:157] Top shape: 1 4 (4)
I0605 14:13:02.857636  1940 net.cpp:157] Top shape: 1 2 (2)
I0605 14:13:02.857640  1940 net.cpp:157] Top shape: 1 1 (1)
I0605 14:13:02.857641  1940 net.cpp:165] Memory required for data: 7200040
I0605 14:13:02.857647  1940 layer_factory.hpp:77] Creating layer data_input-data_0_split
I0605 14:13:02.857661  1940 net.cpp:106] Creating Layer data_input-data_0_split
I0605 14:13:02.857666  1940 net.cpp:454] data_input-data_0_split <- data
I0605 14:13:02.857671  1940 net.cpp:411] data_input-data_0_split -> data_input-data_0_split_0
I0605 14:13:02.857677  1940 net.cpp:411] data_input-data_0_split -> data_input-data_0_split_1
I0605 14:13:02.857699  1940 net.cpp:150] Setting up data_input-data_0_split
I0605 14:13:02.857705  1940 net.cpp:157] Top shape: 1 3 600 1000 (1800000)
I0605 14:13:02.857708  1940 net.cpp:157] Top shape: 1 3 600 1000 (1800000)
I0605 14:13:02.857712  1940 net.cpp:165] Memory required for data: 21600040
I0605 14:13:02.857714  1940 layer_factory.hpp:77] Creating layer im_info_input-data_1_split
I0605 14:13:02.857718  1940 net.cpp:106] Creating Layer im_info_input-data_1_split
I0605 14:13:02.857722  1940 net.cpp:454] im_info_input-data_1_split <- im_info
I0605 14:13:02.857725  1940 net.cpp:411] im_info_input-data_1_split -> im_info_input-data_1_split_0
I0605 14:13:02.857731  1940 net.cpp:411] im_info_input-data_1_split -> im_info_input-data_1_split_1
I0605 14:13:02.857738  1940 net.cpp:411] im_info_input-data_1_split -> im_info_input-data_1_split_2
I0605 14:13:02.857761  1940 net.cpp:150] Setting up im_info_input-data_1_split
I0605 14:13:02.857766  1940 net.cpp:157] Top shape: 1 3 (3)
I0605 14:13:02.857769  1940 net.cpp:157] Top shape: 1 3 (3)
I0605 14:13:02.857774  1940 net.cpp:157] Top shape: 1 3 (3)
I0605 14:13:02.857776  1940 net.cpp:165] Memory required for data: 21600076
I0605 14:13:02.857779  1940 layer_factory.hpp:77] Creating layer gt_boxes_input-data_2_split
I0605 14:13:02.857784  1940 net.cpp:106] Creating Layer gt_boxes_input-data_2_split
I0605 14:13:02.857787  1940 net.cpp:454] gt_boxes_input-data_2_split <- gt_boxes
I0605 14:13:02.857791  1940 net.cpp:411] gt_boxes_input-data_2_split -> gt_boxes_input-data_2_split_0
I0605 14:13:02.857798  1940 net.cpp:411] gt_boxes_input-data_2_split -> gt_boxes_input-data_2_split_1
I0605 14:13:02.857816  1940 net.cpp:150] Setting up gt_boxes_input-data_2_split
I0605 14:13:02.857820  1940 net.cpp:157] Top shape: 1 4 (4)
I0605 14:13:02.857823  1940 net.cpp:157] Top shape: 1 4 (4)
I0605 14:13:02.857826  1940 net.cpp:165] Memory required for data: 21600108
I0605 14:13:02.857830  1940 layer_factory.hpp:77] Creating layer conv1_1
I0605 14:13:02.857837  1940 net.cpp:106] Creating Layer conv1_1
I0605 14:13:02.857841  1940 net.cpp:454] conv1_1 <- data_input-data_0_split_0
I0605 14:13:02.857846  1940 net.cpp:411] conv1_1 -> conv1_1
I0605 14:13:03.266098  1940 net.cpp:150] Setting up conv1_1
I0605 14:13:03.266117  1940 net.cpp:157] Top shape: 1 64 600 1000 (38400000)
I0605 14:13:03.266120  1940 net.cpp:165] Memory required for data: 175200108
I0605 14:13:03.266132  1940 layer_factory.hpp:77] Creating layer relu1_1
I0605 14:13:03.266141  1940 net.cpp:106] Creating Layer relu1_1
I0605 14:13:03.266145  1940 net.cpp:454] relu1_1 <- conv1_1
I0605 14:13:03.266150  1940 net.cpp:397] relu1_1 -> conv1_1 (in-place)
I0605 14:13:03.266263  1940 net.cpp:150] Setting up relu1_1
I0605 14:13:03.266270  1940 net.cpp:157] Top shape: 1 64 600 1000 (38400000)
I0605 14:13:03.266273  1940 net.cpp:165] Memory required for data: 328800108
I0605 14:13:03.266276  1940 layer_factory.hpp:77] Creating layer conv1_2
I0605 14:13:03.266283  1940 net.cpp:106] Creating Layer conv1_2
I0605 14:13:03.266285  1940 net.cpp:454] conv1_2 <- conv1_1
I0605 14:13:03.266289  1940 net.cpp:411] conv1_2 -> conv1_2
I0605 14:13:03.268616  1940 net.cpp:150] Setting up conv1_2
I0605 14:13:03.268627  1940 net.cpp:157] Top shape: 1 64 600 1000 (38400000)
I0605 14:13:03.268630  1940 net.cpp:165] Memory required for data: 482400108
I0605 14:13:03.268637  1940 layer_factory.hpp:77] Creating layer relu1_2
I0605 14:13:03.268642  1940 net.cpp:106] Creating Layer relu1_2
I0605 14:13:03.268646  1940 net.cpp:454] relu1_2 <- conv1_2
I0605 14:13:03.268648  1940 net.cpp:397] relu1_2 -> conv1_2 (in-place)
I0605 14:13:03.268764  1940 net.cpp:150] Setting up relu1_2
I0605 14:13:03.268769  1940 net.cpp:157] Top shape: 1 64 600 1000 (38400000)
I0605 14:13:03.268771  1940 net.cpp:165] Memory required for data: 636000108
I0605 14:13:03.268774  1940 layer_factory.hpp:77] Creating layer pool1
I0605 14:13:03.268780  1940 net.cpp:106] Creating Layer pool1
I0605 14:13:03.268782  1940 net.cpp:454] pool1 <- conv1_2
I0605 14:13:03.268787  1940 net.cpp:411] pool1 -> pool1
I0605 14:13:03.268822  1940 net.cpp:150] Setting up pool1
I0605 14:13:03.268826  1940 net.cpp:157] Top shape: 1 64 300 500 (9600000)
I0605 14:13:03.268828  1940 net.cpp:165] Memory required for data: 674400108
I0605 14:13:03.268831  1940 layer_factory.hpp:77] Creating layer conv2_1
I0605 14:13:03.268836  1940 net.cpp:106] Creating Layer conv2_1
I0605 14:13:03.268841  1940 net.cpp:454] conv2_1 <- pool1
I0605 14:13:03.268844  1940 net.cpp:411] conv2_1 -> conv2_1
I0605 14:13:03.270696  1940 net.cpp:150] Setting up conv2_1
I0605 14:13:03.270706  1940 net.cpp:157] Top shape: 1 128 300 500 (19200000)
I0605 14:13:03.270709  1940 net.cpp:165] Memory required for data: 751200108
I0605 14:13:03.270715  1940 layer_factory.hpp:77] Creating layer relu2_1
I0605 14:13:03.270720  1940 net.cpp:106] Creating Layer relu2_1
I0605 14:13:03.270723  1940 net.cpp:454] relu2_1 <- conv2_1
I0605 14:13:03.270727  1940 net.cpp:397] relu2_1 -> conv2_1 (in-place)
I0605 14:13:03.271186  1940 net.cpp:150] Setting up relu2_1
I0605 14:13:03.271195  1940 net.cpp:157] Top shape: 1 128 300 500 (19200000)
I0605 14:13:03.271198  1940 net.cpp:165] Memory required for data: 828000108
I0605 14:13:03.271199  1940 layer_factory.hpp:77] Creating layer conv2_2
I0605 14:13:03.271210  1940 net.cpp:106] Creating Layer conv2_2
I0605 14:13:03.271212  1940 net.cpp:454] conv2_2 <- conv2_1
I0605 14:13:03.271216  1940 net.cpp:411] conv2_2 -> conv2_2
I0605 14:13:03.272653  1940 net.cpp:150] Setting up conv2_2
I0605 14:13:03.272663  1940 net.cpp:157] Top shape: 1 128 300 500 (19200000)
I0605 14:13:03.272676  1940 net.cpp:165] Memory required for data: 904800108
I0605 14:13:03.272682  1940 layer_factory.hpp:77] Creating layer relu2_2
I0605 14:13:03.272686  1940 net.cpp:106] Creating Layer relu2_2
I0605 14:13:03.272698  1940 net.cpp:454] relu2_2 <- conv2_2
I0605 14:13:03.272704  1940 net.cpp:397] relu2_2 -> conv2_2 (in-place)
I0605 14:13:03.272841  1940 net.cpp:150] Setting up relu2_2
I0605 14:13:03.272847  1940 net.cpp:157] Top shape: 1 128 300 500 (19200000)
I0605 14:13:03.272850  1940 net.cpp:165] Memory required for data: 981600108
I0605 14:13:03.272852  1940 layer_factory.hpp:77] Creating layer pool2
I0605 14:13:03.272857  1940 net.cpp:106] Creating Layer pool2
I0605 14:13:03.272859  1940 net.cpp:454] pool2 <- conv2_2
I0605 14:13:03.272873  1940 net.cpp:411] pool2 -> pool2
I0605 14:13:03.272912  1940 net.cpp:150] Setting up pool2
I0605 14:13:03.272917  1940 net.cpp:157] Top shape: 1 128 150 250 (4800000)
I0605 14:13:03.272919  1940 net.cpp:165] Memory required for data: 1000800108
I0605 14:13:03.272931  1940 layer_factory.hpp:77] Creating layer conv3_1
I0605 14:13:03.272938  1940 net.cpp:106] Creating Layer conv3_1
I0605 14:13:03.272941  1940 net.cpp:454] conv3_1 <- pool2
I0605 14:13:03.272945  1940 net.cpp:411] conv3_1 -> conv3_1
I0605 14:13:03.274808  1940 net.cpp:150] Setting up conv3_1
I0605 14:13:03.274817  1940 net.cpp:157] Top shape: 1 256 150 250 (9600000)
I0605 14:13:03.274821  1940 net.cpp:165] Memory required for data: 1039200108
I0605 14:13:03.274827  1940 layer_factory.hpp:77] Creating layer relu3_1
I0605 14:13:03.274832  1940 net.cpp:106] Creating Layer relu3_1
I0605 14:13:03.274834  1940 net.cpp:454] relu3_1 <- conv3_1
I0605 14:13:03.274837  1940 net.cpp:397] relu3_1 -> conv3_1 (in-place)
I0605 14:13:03.274955  1940 net.cpp:150] Setting up relu3_1
I0605 14:13:03.274960  1940 net.cpp:157] Top shape: 1 256 150 250 (9600000)
I0605 14:13:03.274963  1940 net.cpp:165] Memory required for data: 1077600108
I0605 14:13:03.274966  1940 layer_factory.hpp:77] Creating layer conv3_2
I0605 14:13:03.274972  1940 net.cpp:106] Creating Layer conv3_2
I0605 14:13:03.274976  1940 net.cpp:454] conv3_2 <- conv3_1
I0605 14:13:03.274979  1940 net.cpp:411] conv3_2 -> conv3_2
I0605 14:13:03.276944  1940 net.cpp:150] Setting up conv3_2
I0605 14:13:03.276953  1940 net.cpp:157] Top shape: 1 256 150 250 (9600000)
I0605 14:13:03.276955  1940 net.cpp:165] Memory required for data: 1116000108
I0605 14:13:03.276960  1940 layer_factory.hpp:77] Creating layer relu3_2
I0605 14:13:03.276965  1940 net.cpp:106] Creating Layer relu3_2
I0605 14:13:03.276968  1940 net.cpp:454] relu3_2 <- conv3_2
I0605 14:13:03.276971  1940 net.cpp:397] relu3_2 -> conv3_2 (in-place)
I0605 14:13:03.277086  1940 net.cpp:150] Setting up relu3_2
I0605 14:13:03.277092  1940 net.cpp:157] Top shape: 1 256 150 250 (9600000)
I0605 14:13:03.277096  1940 net.cpp:165] Memory required for data: 1154400108
I0605 14:13:03.277098  1940 layer_factory.hpp:77] Creating layer conv3_3
I0605 14:13:03.277104  1940 net.cpp:106] Creating Layer conv3_3
I0605 14:13:03.277108  1940 net.cpp:454] conv3_3 <- conv3_2
I0605 14:13:03.277113  1940 net.cpp:411] conv3_3 -> conv3_3
I0605 14:13:03.279134  1940 net.cpp:150] Setting up conv3_3
I0605 14:13:03.279142  1940 net.cpp:157] Top shape: 1 256 150 250 (9600000)
I0605 14:13:03.279145  1940 net.cpp:165] Memory required for data: 1192800108
I0605 14:13:03.279150  1940 layer_factory.hpp:77] Creating layer relu3_3
I0605 14:13:03.279155  1940 net.cpp:106] Creating Layer relu3_3
I0605 14:13:03.279157  1940 net.cpp:454] relu3_3 <- conv3_3
I0605 14:13:03.279162  1940 net.cpp:397] relu3_3 -> conv3_3 (in-place)
I0605 14:13:03.279273  1940 net.cpp:150] Setting up relu3_3
I0605 14:13:03.279279  1940 net.cpp:157] Top shape: 1 256 150 250 (9600000)
I0605 14:13:03.279281  1940 net.cpp:165] Memory required for data: 1231200108
I0605 14:13:03.279284  1940 layer_factory.hpp:77] Creating layer pool3
I0605 14:13:03.279289  1940 net.cpp:106] Creating Layer pool3
I0605 14:13:03.279292  1940 net.cpp:454] pool3 <- conv3_3
I0605 14:13:03.279296  1940 net.cpp:411] pool3 -> pool3
I0605 14:13:03.279325  1940 net.cpp:150] Setting up pool3
I0605 14:13:03.279330  1940 net.cpp:157] Top shape: 1 256 75 125 (2400000)
I0605 14:13:03.279331  1940 net.cpp:165] Memory required for data: 1240800108
I0605 14:13:03.279333  1940 layer_factory.hpp:77] Creating layer conv4_1
I0605 14:13:03.279340  1940 net.cpp:106] Creating Layer conv4_1
I0605 14:13:03.279343  1940 net.cpp:454] conv4_1 <- pool3
I0605 14:13:03.279347  1940 net.cpp:411] conv4_1 -> conv4_1
I0605 14:13:03.283285  1940 net.cpp:150] Setting up conv4_1
I0605 14:13:03.283304  1940 net.cpp:157] Top shape: 1 512 75 125 (4800000)
I0605 14:13:03.283306  1940 net.cpp:165] Memory required for data: 1260000108
I0605 14:13:03.283314  1940 layer_factory.hpp:77] Creating layer relu4_1
I0605 14:13:03.283322  1940 net.cpp:106] Creating Layer relu4_1
I0605 14:13:03.283337  1940 net.cpp:454] relu4_1 <- conv4_1
I0605 14:13:03.283344  1940 net.cpp:397] relu4_1 -> conv4_1 (in-place)
I0605 14:13:03.283473  1940 net.cpp:150] Setting up relu4_1
I0605 14:13:03.283479  1940 net.cpp:157] Top shape: 1 512 75 125 (4800000)
I0605 14:13:03.283493  1940 net.cpp:165] Memory required for data: 1279200108
I0605 14:13:03.283494  1940 layer_factory.hpp:77] Creating layer conv4_2
I0605 14:13:03.283501  1940 net.cpp:106] Creating Layer conv4_2
I0605 14:13:03.283504  1940 net.cpp:454] conv4_2 <- conv4_1
I0605 14:13:03.283509  1940 net.cpp:411] conv4_2 -> conv4_2
I0605 14:13:03.288341  1940 net.cpp:150] Setting up conv4_2
I0605 14:13:03.288372  1940 net.cpp:157] Top shape: 1 512 75 125 (4800000)
I0605 14:13:03.288375  1940 net.cpp:165] Memory required for data: 1298400108
I0605 14:13:03.288389  1940 layer_factory.hpp:77] Creating layer relu4_2
I0605 14:13:03.288399  1940 net.cpp:106] Creating Layer relu4_2
I0605 14:13:03.288403  1940 net.cpp:454] relu4_2 <- conv4_2
I0605 14:13:03.288408  1940 net.cpp:397] relu4_2 -> conv4_2 (in-place)
I0605 14:13:03.288926  1940 net.cpp:150] Setting up relu4_2
I0605 14:13:03.288934  1940 net.cpp:157] Top shape: 1 512 75 125 (4800000)
I0605 14:13:03.288946  1940 net.cpp:165] Memory required for data: 1317600108
I0605 14:13:03.288949  1940 layer_factory.hpp:77] Creating layer conv4_3
I0605 14:13:03.288957  1940 net.cpp:106] Creating Layer conv4_3
I0605 14:13:03.288959  1940 net.cpp:454] conv4_3 <- conv4_2
I0605 14:13:03.288964  1940 net.cpp:411] conv4_3 -> conv4_3
I0605 14:13:03.293471  1940 net.cpp:150] Setting up conv4_3
I0605 14:13:03.293489  1940 net.cpp:157] Top shape: 1 512 75 125 (4800000)
I0605 14:13:03.293493  1940 net.cpp:165] Memory required for data: 1336800108
I0605 14:13:03.293499  1940 layer_factory.hpp:77] Creating layer relu4_3
I0605 14:13:03.293507  1940 net.cpp:106] Creating Layer relu4_3
I0605 14:13:03.293511  1940 net.cpp:454] relu4_3 <- conv4_3
I0605 14:13:03.293516  1940 net.cpp:397] relu4_3 -> conv4_3 (in-place)
I0605 14:13:03.293648  1940 net.cpp:150] Setting up relu4_3
I0605 14:13:03.293653  1940 net.cpp:157] Top shape: 1 512 75 125 (4800000)
I0605 14:13:03.293655  1940 net.cpp:165] Memory required for data: 1356000108
I0605 14:13:03.293658  1940 layer_factory.hpp:77] Creating layer pool4
I0605 14:13:03.293663  1940 net.cpp:106] Creating Layer pool4
I0605 14:13:03.293666  1940 net.cpp:454] pool4 <- conv4_3
I0605 14:13:03.293670  1940 net.cpp:411] pool4 -> pool4
I0605 14:13:03.293717  1940 net.cpp:150] Setting up pool4
I0605 14:13:03.293721  1940 net.cpp:157] Top shape: 1 512 38 63 (1225728)
I0605 14:13:03.293735  1940 net.cpp:165] Memory required for data: 1360903020
I0605 14:13:03.293737  1940 layer_factory.hpp:77] Creating layer conv5_1
I0605 14:13:03.293745  1940 net.cpp:106] Creating Layer conv5_1
I0605 14:13:03.293746  1940 net.cpp:454] conv5_1 <- pool4
I0605 14:13:03.293751  1940 net.cpp:411] conv5_1 -> conv5_1
I0605 14:13:03.297988  1940 net.cpp:150] Setting up conv5_1
I0605 14:13:03.298007  1940 net.cpp:157] Top shape: 1 512 38 63 (1225728)
I0605 14:13:03.298010  1940 net.cpp:165] Memory required for data: 1365805932
I0605 14:13:03.298018  1940 layer_factory.hpp:77] Creating layer relu5_1
I0605 14:13:03.298036  1940 net.cpp:106] Creating Layer relu5_1
I0605 14:13:03.298040  1940 net.cpp:454] relu5_1 <- conv5_1
I0605 14:13:03.298045  1940 net.cpp:397] relu5_1 -> conv5_1 (in-place)
I0605 14:13:03.298192  1940 net.cpp:150] Setting up relu5_1
I0605 14:13:03.298197  1940 net.cpp:157] Top shape: 1 512 38 63 (1225728)
I0605 14:13:03.298210  1940 net.cpp:165] Memory required for data: 1370708844
I0605 14:13:03.298213  1940 layer_factory.hpp:77] Creating layer conv5_2
I0605 14:13:03.298220  1940 net.cpp:106] Creating Layer conv5_2
I0605 14:13:03.298223  1940 net.cpp:454] conv5_2 <- conv5_1
I0605 14:13:03.298228  1940 net.cpp:411] conv5_2 -> conv5_2
I0605 14:13:03.302739  1940 net.cpp:150] Setting up conv5_2
I0605 14:13:03.302757  1940 net.cpp:157] Top shape: 1 512 38 63 (1225728)
I0605 14:13:03.302759  1940 net.cpp:165] Memory required for data: 1375611756
I0605 14:13:03.302767  1940 layer_factory.hpp:77] Creating layer relu5_2
I0605 14:13:03.302774  1940 net.cpp:106] Creating Layer relu5_2
I0605 14:13:03.302779  1940 net.cpp:454] relu5_2 <- conv5_2
I0605 14:13:03.302784  1940 net.cpp:397] relu5_2 -> conv5_2 (in-place)
I0605 14:13:03.302917  1940 net.cpp:150] Setting up relu5_2
I0605 14:13:03.302922  1940 net.cpp:157] Top shape: 1 512 38 63 (1225728)
I0605 14:13:03.302924  1940 net.cpp:165] Memory required for data: 1380514668
I0605 14:13:03.302927  1940 layer_factory.hpp:77] Creating layer conv5_3
I0605 14:13:03.302937  1940 net.cpp:106] Creating Layer conv5_3
I0605 14:13:03.302939  1940 net.cpp:454] conv5_3 <- conv5_2
I0605 14:13:03.302944  1940 net.cpp:411] conv5_3 -> conv5_3
I0605 14:13:03.307459  1940 net.cpp:150] Setting up conv5_3
I0605 14:13:03.307477  1940 net.cpp:157] Top shape: 1 512 38 63 (1225728)
I0605 14:13:03.307480  1940 net.cpp:165] Memory required for data: 1385417580
I0605 14:13:03.307487  1940 layer_factory.hpp:77] Creating layer relu5_3
I0605 14:13:03.307495  1940 net.cpp:106] Creating Layer relu5_3
I0605 14:13:03.307499  1940 net.cpp:454] relu5_3 <- conv5_3
I0605 14:13:03.307503  1940 net.cpp:397] relu5_3 -> conv5_3 (in-place)
I0605 14:13:03.307618  1940 net.cpp:150] Setting up relu5_3
I0605 14:13:03.307624  1940 net.cpp:157] Top shape: 1 512 38 63 (1225728)
I0605 14:13:03.307627  1940 net.cpp:165] Memory required for data: 1390320492
I0605 14:13:03.307629  1940 layer_factory.hpp:77] Creating layer conv5_3_relu5_3_0_split
I0605 14:13:03.307633  1940 net.cpp:106] Creating Layer conv5_3_relu5_3_0_split
I0605 14:13:03.307636  1940 net.cpp:454] conv5_3_relu5_3_0_split <- conv5_3
I0605 14:13:03.307641  1940 net.cpp:411] conv5_3_relu5_3_0_split -> conv5_3_relu5_3_0_split_0
I0605 14:13:03.307644  1940 net.cpp:411] conv5_3_relu5_3_0_split -> conv5_3_relu5_3_0_split_1
I0605 14:13:03.307648  1940 net.cpp:411] conv5_3_relu5_3_0_split -> conv5_3_relu5_3_0_split_2
I0605 14:13:03.307680  1940 net.cpp:150] Setting up conv5_3_relu5_3_0_split
I0605 14:13:03.307684  1940 net.cpp:157] Top shape: 1 512 38 63 (1225728)
I0605 14:13:03.307687  1940 net.cpp:157] Top shape: 1 512 38 63 (1225728)
I0605 14:13:03.307689  1940 net.cpp:157] Top shape: 1 512 38 63 (1225728)
I0605 14:13:03.307691  1940 net.cpp:165] Memory required for data: 1405029228
I0605 14:13:03.307693  1940 layer_factory.hpp:77] Creating layer rpn_conv/3x3
I0605 14:13:03.307703  1940 net.cpp:106] Creating Layer rpn_conv/3x3
I0605 14:13:03.307708  1940 net.cpp:454] rpn_conv/3x3 <- conv5_3_relu5_3_0_split_0
I0605 14:13:03.307711  1940 net.cpp:411] rpn_conv/3x3 -> rpn/output
I0605 14:13:03.358805  1940 net.cpp:150] Setting up rpn_conv/3x3
I0605 14:13:03.358824  1940 net.cpp:157] Top shape: 1 512 38 63 (1225728)
I0605 14:13:03.358826  1940 net.cpp:165] Memory required for data: 1409932140
I0605 14:13:03.358834  1940 layer_factory.hpp:77] Creating layer rpn_relu/3x3
I0605 14:13:03.358841  1940 net.cpp:106] Creating Layer rpn_relu/3x3
I0605 14:13:03.358845  1940 net.cpp:454] rpn_relu/3x3 <- rpn/output
I0605 14:13:03.358851  1940 net.cpp:397] rpn_relu/3x3 -> rpn/output (in-place)
I0605 14:13:03.358975  1940 net.cpp:150] Setting up rpn_relu/3x3
I0605 14:13:03.358983  1940 net.cpp:157] Top shape: 1 512 38 63 (1225728)
I0605 14:13:03.358984  1940 net.cpp:165] Memory required for data: 1414835052
I0605 14:13:03.358988  1940 layer_factory.hpp:77] Creating layer rpn/output_rpn_relu/3x3_0_split
I0605 14:13:03.358992  1940 net.cpp:106] Creating Layer rpn/output_rpn_relu/3x3_0_split
I0605 14:13:03.358995  1940 net.cpp:454] rpn/output_rpn_relu/3x3_0_split <- rpn/output
I0605 14:13:03.358999  1940 net.cpp:411] rpn/output_rpn_relu/3x3_0_split -> rpn/output_rpn_relu/3x3_0_split_0
I0605 14:13:03.359004  1940 net.cpp:411] rpn/output_rpn_relu/3x3_0_split -> rpn/output_rpn_relu/3x3_0_split_1
I0605 14:13:03.359031  1940 net.cpp:150] Setting up rpn/output_rpn_relu/3x3_0_split
I0605 14:13:03.359035  1940 net.cpp:157] Top shape: 1 512 38 63 (1225728)
I0605 14:13:03.359038  1940 net.cpp:157] Top shape: 1 512 38 63 (1225728)
I0605 14:13:03.359040  1940 net.cpp:165] Memory required for data: 1424640876
I0605 14:13:03.359043  1940 layer_factory.hpp:77] Creating layer rpn_cls_score
I0605 14:13:03.359051  1940 net.cpp:106] Creating Layer rpn_cls_score
I0605 14:13:03.359055  1940 net.cpp:454] rpn_cls_score <- rpn/output_rpn_relu/3x3_0_split_0
I0605 14:13:03.359059  1940 net.cpp:411] rpn_cls_score -> rpn_cls_score
I0605 14:13:03.363001  1940 net.cpp:150] Setting up rpn_cls_score
I0605 14:13:03.363010  1940 net.cpp:157] Top shape: 1 30 38 63 (71820)
I0605 14:13:03.363013  1940 net.cpp:165] Memory required for data: 1424928156
I0605 14:13:03.363018  1940 layer_factory.hpp:77] Creating layer rpn_cls_score_rpn_cls_score_0_split
I0605 14:13:03.363023  1940 net.cpp:106] Creating Layer rpn_cls_score_rpn_cls_score_0_split
I0605 14:13:03.363026  1940 net.cpp:454] rpn_cls_score_rpn_cls_score_0_split <- rpn_cls_score
I0605 14:13:03.363030  1940 net.cpp:411] rpn_cls_score_rpn_cls_score_0_split -> rpn_cls_score_rpn_cls_score_0_split_0
I0605 14:13:03.363046  1940 net.cpp:411] rpn_cls_score_rpn_cls_score_0_split -> rpn_cls_score_rpn_cls_score_0_split_1
I0605 14:13:03.363083  1940 net.cpp:150] Setting up rpn_cls_score_rpn_cls_score_0_split
I0605 14:13:03.363087  1940 net.cpp:157] Top shape: 1 30 38 63 (71820)
I0605 14:13:03.363101  1940 net.cpp:157] Top shape: 1 30 38 63 (71820)
I0605 14:13:03.363102  1940 net.cpp:165] Memory required for data: 1425502716
I0605 14:13:03.363104  1940 layer_factory.hpp:77] Creating layer rpn_bbox_pred
I0605 14:13:03.363121  1940 net.cpp:106] Creating Layer rpn_bbox_pred
I0605 14:13:03.363123  1940 net.cpp:454] rpn_bbox_pred <- rpn/output_rpn_relu/3x3_0_split_1
I0605 14:13:03.363128  1940 net.cpp:411] rpn_bbox_pred -> rpn_bbox_pred
I0605 14:13:03.364599  1940 net.cpp:150] Setting up rpn_bbox_pred
I0605 14:13:03.364607  1940 net.cpp:157] Top shape: 1 60 38 63 (143640)
I0605 14:13:03.364609  1940 net.cpp:165] Memory required for data: 1426077276
I0605 14:13:03.364614  1940 layer_factory.hpp:77] Creating layer rpn_bbox_pred_rpn_bbox_pred_0_split
I0605 14:13:03.364619  1940 net.cpp:106] Creating Layer rpn_bbox_pred_rpn_bbox_pred_0_split
I0605 14:13:03.364620  1940 net.cpp:454] rpn_bbox_pred_rpn_bbox_pred_0_split <- rpn_bbox_pred
I0605 14:13:03.364625  1940 net.cpp:411] rpn_bbox_pred_rpn_bbox_pred_0_split -> rpn_bbox_pred_rpn_bbox_pred_0_split_0
I0605 14:13:03.364629  1940 net.cpp:411] rpn_bbox_pred_rpn_bbox_pred_0_split -> rpn_bbox_pred_rpn_bbox_pred_0_split_1
I0605 14:13:03.364675  1940 net.cpp:150] Setting up rpn_bbox_pred_rpn_bbox_pred_0_split
I0605 14:13:03.364678  1940 net.cpp:157] Top shape: 1 60 38 63 (143640)
I0605 14:13:03.364691  1940 net.cpp:157] Top shape: 1 60 38 63 (143640)
I0605 14:13:03.364693  1940 net.cpp:165] Memory required for data: 1427226396
I0605 14:13:03.364696  1940 layer_factory.hpp:77] Creating layer rpn_cls_score_reshape
I0605 14:13:03.364706  1940 net.cpp:106] Creating Layer rpn_cls_score_reshape
I0605 14:13:03.364717  1940 net.cpp:454] rpn_cls_score_reshape <- rpn_cls_score_rpn_cls_score_0_split_0
I0605 14:13:03.364722  1940 net.cpp:411] rpn_cls_score_reshape -> rpn_cls_score_reshape
I0605 14:13:03.364750  1940 net.cpp:150] Setting up rpn_cls_score_reshape
I0605 14:13:03.364763  1940 net.cpp:157] Top shape: 1 2 570 63 (71820)
I0605 14:13:03.364765  1940 net.cpp:165] Memory required for data: 1427513676
I0605 14:13:03.364768  1940 layer_factory.hpp:77] Creating layer rpn_cls_score_reshape_rpn_cls_score_reshape_0_split
I0605 14:13:03.364773  1940 net.cpp:106] Creating Layer rpn_cls_score_reshape_rpn_cls_score_reshape_0_split
I0605 14:13:03.364784  1940 net.cpp:454] rpn_cls_score_reshape_rpn_cls_score_reshape_0_split <- rpn_cls_score_reshape
I0605 14:13:03.364787  1940 net.cpp:411] rpn_cls_score_reshape_rpn_cls_score_reshape_0_split -> rpn_cls_score_reshape_rpn_cls_score_reshape_0_split_0
I0605 14:13:03.364791  1940 net.cpp:411] rpn_cls_score_reshape_rpn_cls_score_reshape_0_split -> rpn_cls_score_reshape_rpn_cls_score_reshape_0_split_1
I0605 14:13:03.364821  1940 net.cpp:150] Setting up rpn_cls_score_reshape_rpn_cls_score_reshape_0_split
I0605 14:13:03.364825  1940 net.cpp:157] Top shape: 1 2 570 63 (71820)
I0605 14:13:03.364828  1940 net.cpp:157] Top shape: 1 2 570 63 (71820)
I0605 14:13:03.364841  1940 net.cpp:165] Memory required for data: 1428088236
I0605 14:13:03.364843  1940 layer_factory.hpp:77] Creating layer rpn-data
I0605 14:13:03.365185  1940 net.cpp:106] Creating Layer rpn-data
I0605 14:13:03.365193  1940 net.cpp:454] rpn-data <- rpn_cls_score_rpn_cls_score_0_split_1
I0605 14:13:03.365197  1940 net.cpp:454] rpn-data <- gt_boxes_input-data_2_split_0
I0605 14:13:03.365200  1940 net.cpp:454] rpn-data <- im_info_input-data_1_split_0
I0605 14:13:03.365216  1940 net.cpp:454] rpn-data <- data_input-data_0_split_1
I0605 14:13:03.365221  1940 net.cpp:411] rpn-data -> rpn_labels
I0605 14:13:03.365226  1940 net.cpp:411] rpn-data -> rpn_bbox_targets
I0605 14:13:03.365231  1940 net.cpp:411] rpn-data -> rpn_bbox_inside_weights
I0605 14:13:03.365237  1940 net.cpp:411] rpn-data -> rpn_bbox_outside_weights
===================================anchor_scales in AnchorTargetLayer:=============(2, 4, 8, 16, 32)
I0605 14:13:03.366094  1940 net.cpp:150] Setting up rpn-data
I0605 14:13:03.366102  1940 net.cpp:157] Top shape: 1 1 570 63 (35910)
I0605 14:13:03.366106  1940 net.cpp:157] Top shape: 1 60 38 63 (143640)
I0605 14:13:03.366109  1940 net.cpp:157] Top shape: 1 60 38 63 (143640)
I0605 14:13:03.366111  1940 net.cpp:157] Top shape: 1 60 38 63 (143640)
I0605 14:13:03.366116  1940 net.cpp:165] Memory required for data: 1429955556
I0605 14:13:03.366117  1940 layer_factory.hpp:77] Creating layer rpn_loss_cls
I0605 14:13:03.366124  1940 net.cpp:106] Creating Layer rpn_loss_cls
I0605 14:13:03.366127  1940 net.cpp:454] rpn_loss_cls <- rpn_cls_score_reshape_rpn_cls_score_reshape_0_split_0
I0605 14:13:03.366132  1940 net.cpp:454] rpn_loss_cls <- rpn_labels
…
I0605 14:13:03.367842  1940 net.cpp:157] Top shape: (1)
I0605 14:13:03.367844  1940 net.cpp:160]     with loss weight 1
I0605 14:13:03.367848  1940 net.cpp:165] Memory required for data: 1429955564
I0605 14:13:03.367851  1940 layer_factory.hpp:77] Creating layer rpn_cls_prob
I0605 14:13:03.367866  1940 net.cpp:106] Creating Layer rpn_cls_prob
I0605 14:13:03.367868  1940 net.cpp:454] rpn_cls_prob <- rpn_cls_score_reshape_rpn_cls_score_reshape_0_split_1
I0605 14:13:03.367873  1940 net.cpp:411] rpn_cls_prob -> rpn_cls_prob
I0605 14:13:03.368049  1940 net.cpp:150] Setting up rpn_cls_prob
I0605 14:13:03.368055  1940 net.cpp:157] Top shape: 1 2 570 63 (71820)
I0605 14:13:03.368058  1940 net.cpp:165] Memory required for data: 1430242844
I0605 14:13:03.368060  1940 layer_factory.hpp:77] Creating layer rpn_cls_prob_reshape
I0605 14:13:03.368065  1940 net.cpp:106] Creating Layer rpn_cls_prob_reshape
I0605 14:13:03.368068  1940 net.cpp:454] rpn_cls_prob_reshape <- rpn_cls_prob
I0605 14:13:03.368072  1940 net.cpp:411] rpn_cls_prob_reshape -> rpn_cls_prob_reshape
I0605 14:13:03.368101  1940 net.cpp:150] Setting up rpn_cls_prob_reshape
I0605 14:13:03.368115  1940 net.cpp:157] Top shape: 1 30 38 63 (71820)
I0605 14:13:03.368118  1940 net.cpp:165] Memory required for data: 1430530124
I0605 14:13:03.368119  1940 layer_factory.hpp:77] Creating layer proposal
I0605 14:13:03.370730  1940 net.cpp:106] Creating Layer proposal
I0605 14:13:03.370743  1940 net.cpp:454] proposal <- rpn_cls_prob_reshape
I0605 14:13:03.370749  1940 net.cpp:454] proposal <- rpn_bbox_pred_rpn_bbox_pred_0_split_1
I0605 14:13:03.370755  1940 net.cpp:454] proposal <- im_info_input-data_1_split_1
I0605 14:13:03.370762  1940 net.cpp:411] proposal -> rpn_rois
=================================anchor_scales in ProposalLayer:=============(2, 4, 8, 16, 32)
I0605 14:13:03.372359  1940 net.cpp:150] Setting up proposal
I0605 14:13:03.372370  1940 net.cpp:157] Top shape: 1 5 (5)
I0605 14:13:03.372373  1940 net.cpp:165] Memory required for data: 1430530144
I0605 14:13:03.372376  1940 layer_factory.hpp:77] Creating layer roi-data
I0605 14:13:03.375207  1940 net.cpp:106] Creating Layer roi-data
I0605 14:13:03.375216  1940 net.cpp:454] roi-data <- rpn_rois
I0605 14:13:03.375221  1940 net.cpp:454] roi-data <- gt_boxes_input-data_2_split_1
I0605 14:13:03.375224  1940 net.cpp:454] roi-data <- im_info_input-data_1_split_2
I0605 14:13:03.375227  1940 net.cpp:454] roi-data <- seg_mask_inds
I0605 14:13:03.375231  1940 net.cpp:454] roi-data <- flipped
I0605 14:13:03.375234  1940 net.cpp:411] roi-data -> rois
I0605 14:13:03.375241  1940 net.cpp:411] roi-data -> labels
I0605 14:13:03.375255  1940 net.cpp:411] roi-data -> bbox_targets
I0605 14:13:03.375260  1940 net.cpp:411] roi-data -> bbox_inside_weights
I0605 14:13:03.375264  1940 net.cpp:411] roi-data -> bbox_outside_weights
I0605 14:13:03.375269  1940 net.cpp:411] roi-data -> mask_targets
I0605 14:13:03.375274  1940 net.cpp:411] roi-data -> rois_pos
I0605 14:13:03.375281  1940 net.cpp:411] roi-data -> rois_attribute
I0605 14:13:03.375600  1940 net.cpp:150] Setting up roi-data
I0605 14:13:03.375608  1940 net.cpp:157] Top shape: 1 5 (5)
I0605 14:13:03.375612  1940 net.cpp:157] Top shape: 1 1 (1)
I0605 14:13:03.375613  1940 net.cpp:157] Top shape: 1 8 (8)
I0605 14:13:03.375617  1940 net.cpp:157] Top shape: 1 8 (8)
I0605 14:13:03.375618  1940 net.cpp:157] Top shape: 1 8 (8)
I0605 14:13:03.375622  1940 net.cpp:157] Top shape: 1 244 244 (59536)
I0605 14:13:03.375624  1940 net.cpp:157] Top shape: 1 5 (5)
I0605 14:13:03.375627  1940 net.cpp:157] Top shape: 1 10 (10)
I0605 14:13:03.375639  1940 net.cpp:165] Memory required for data: 1430768468
I0605 14:13:03.375643  1940 layer_factory.hpp:77] Creating layer roi_pool5
I0605 14:13:03.375648  1940 net.cpp:106] Creating Layer roi_pool5
I0605 14:13:03.375651  1940 net.cpp:454] roi_pool5 <- conv5_3_relu5_3_0_split_1
I0605 14:13:03.375655  1940 net.cpp:454] roi_pool5 <- rois
I0605 14:13:03.375659  1940 net.cpp:411] roi_pool5 -> pool5
I0605 14:13:03.375669  1940 roi_alignment_layer.cpp:32] Spatial scale: 0.0625
I0605 14:13:03.375787  1940 net.cpp:150] Setting up roi_pool5
I0605 14:13:03.375790  1940 net.cpp:157] Top shape: 1 512 7 7 (25088)
I0605 14:13:03.375803  1940 net.cpp:165] Memory required for data: 1430868820
I0605 14:13:03.375805  1940 layer_factory.hpp:77] Creating layer fc6
I0605 14:13:03.375810  1940 net.cpp:106] Creating Layer fc6
I0605 14:13:03.375823  1940 net.cpp:454] fc6 <- pool5
I0605 14:13:03.375828  1940 net.cpp:411] fc6 -> fc6
I0605 14:13:03.517810  1940 net.cpp:150] Setting up fc6
I0605 14:13:03.517834  1940 net.cpp:157] Top shape: 1 4096 (4096)
I0605 14:13:03.517838  1940 net.cpp:165] Memory required for data: 1430885204
I0605 14:13:03.517851  1940 layer_factory.hpp:77] Creating layer relu6
I0605 14:13:03.517859  1940 net.cpp:106] Creating Layer relu6
I0605 14:13:03.517864  1940 net.cpp:454] relu6 <- fc6
I0605 14:13:03.517868  1940 net.cpp:397] relu6 -> fc6 (in-place)
I0605 14:13:03.518059  1940 net.cpp:150] Setting up relu6
I0605 14:13:03.518064  1940 net.cpp:157] Top shape: 1 4096 (4096)
I0605 14:13:03.518066  1940 net.cpp:165] Memory required for data: 1430901588
I0605 14:13:03.518069  1940 layer_factory.hpp:77] Creating layer fc7
I0605 14:13:03.518074  1940 net.cpp:106] Creating Layer fc7
I0605 14:13:03.518076  1940 net.cpp:454] fc7 <- fc6
I0605 14:13:03.518080  1940 net.cpp:411] fc7 -> fc7
I0605 14:13:03.542013  1940 net.cpp:150] Setting up fc7
I0605 14:13:03.542034  1940 net.cpp:157] Top shape: 1 4096 (4096)
I0605 14:13:03.542037  1940 net.cpp:165] Memory required for data: 1430917972
I0605 14:13:03.542045  1940 layer_factory.hpp:77] Creating layer relu7
I0605 14:13:03.542053  1940 net.cpp:106] Creating Layer relu7
I0605 14:13:03.542058  1940 net.cpp:454] relu7 <- fc7
I0605 14:13:03.542073  1940 net.cpp:397] relu7 -> fc7 (in-place)
I0605 14:13:03.542258  1940 net.cpp:150] Setting up relu7
I0605 14:13:03.542266  1940 net.cpp:157] Top shape: 1 4096 (4096)
I0605 14:13:03.542268  1940 net.cpp:165] Memory required for data: 1430934356
I0605 14:13:03.542271  1940 layer_factory.hpp:77] Creating layer fc7_relu7_0_split
I0605 14:13:03.542276  1940 net.cpp:106] Creating Layer fc7_relu7_0_split
I0605 14:13:03.542279  1940 net.cpp:454] fc7_relu7_0_split <- fc7
I0605 14:13:03.542284  1940 net.cpp:411] fc7_relu7_0_split -> fc7_relu7_0_split_0
I0605 14:13:03.542304  1940 net.cpp:411] fc7_relu7_0_split -> fc7_relu7_0_split_1
I0605 14:13:03.542345  1940 net.cpp:150] Setting up fc7_relu7_0_split
I0605 14:13:03.542349  1940 net.cpp:157] Top shape: 1 4096 (4096)
I0605 14:13:03.542362  1940 net.cpp:157] Top shape: 1 4096 (4096)
I0605 14:13:03.542364  1940 net.cpp:165] Memory required for data: 1430967124
I0605 14:13:03.542366  1940 layer_factory.hpp:77] Creating layer cls_score
I0605 14:13:03.542382  1940 net.cpp:106] Creating Layer cls_score
I0605 14:13:03.542384  1940 net.cpp:454] cls_score <- fc7_relu7_0_split_0
I0605 14:13:03.542398  1940 net.cpp:411] cls_score -> cls_score
I0605 14:13:03.542640  1940 net.cpp:150] Setting up cls_score
I0605 14:13:03.542644  1940 net.cpp:157] Top shape: 1 2 (2)
I0605 14:13:03.542647  1940 net.cpp:165] Memory required for data: 1430967132
I0605 14:13:03.542651  1940 layer_factory.hpp:77] Creating layer bbox_pred
I0605 14:13:03.542655  1940 net.cpp:106] Creating Layer bbox_pred
I0605 14:13:03.542659  1940 net.cpp:454] bbox_pred <- fc7_relu7_0_split_1
I0605 14:13:03.542662  1940 net.cpp:411] bbox_pred -> bbox_pred
I0605 14:13:03.543426  1940 net.cpp:150] Setting up bbox_pred
I0605 14:13:03.543431  1940 net.cpp:157] Top shape: 1 8 (8)
I0605 14:13:03.543434  1940 net.cpp:165] Memory required for data: 1430967164
I0605 14:13:03.543437  1940 layer_factory.hpp:77] Creating layer loss_cls
I0605 14:13:03.543443  1940 net.cpp:106] Creating Layer loss_cls
I0605 14:13:03.543445  1940 net.cpp:454] loss_cls <- cls_score
I0605 14:13:03.543448  1940 net.cpp:454] loss_cls <- labels
I0605 14:13:03.543452  1940 net.cpp:411] loss_cls -> loss_cls
…
I0605 14:13:03.544265  1940 net.cpp:165] Memory required for data: 1430967172
I0605 14:13:03.544267  1940 layer_factory.hpp:77] Creating layer roi_pool5_2
I0605 14:13:03.544272  1940 net.cpp:106] Creating Layer roi_pool5_2
I0605 14:13:03.544275  1940 net.cpp:454] roi_pool5_2 <- conv5_3_relu5_3_0_split_2
I0605 14:13:03.544278  1940 net.cpp:454] roi_pool5_2 <- rois_pos
I0605 14:13:03.544281  1940 net.cpp:411] roi_pool5_2 -> pool5_2
I0605 14:13:03.544296  1940 roi_alignment_layer.cpp:32] Spatial scale: 0.0625
I0605 14:13:03.544364  1940 net.cpp:150] Setting up roi_pool5_2
I0605 14:13:03.544368  1940 net.cpp:157] Top shape: 1 512 7 7 (25088)
I0605 14:13:03.544370  1940 net.cpp:165] Memory required for data: 1431067524
I0605 14:13:03.544373  1940 layer_factory.hpp:77] Creating layer pool5_2_conv
I0605 14:13:03.544379  1940 net.cpp:106] Creating Layer pool5_2_conv
I0605 14:13:03.544382  1940 net.cpp:454] pool5_2_conv <- pool5_2
I0605 14:13:03.544386  1940 net.cpp:411] pool5_2_conv -> pool5_2_conv
I0605 14:13:03.551122  1940 net.cpp:150] Setting up pool5_2_conv
I0605 14:13:03.551131  1940 net.cpp:157] Top shape: 1 512 7 7 (25088)
I0605 14:13:03.551144  1940 net.cpp:165] Memory required for data: 1431167876
I0605 14:13:03.551149  1940 layer_factory.hpp:77] Creating layer pool5_2_conv_relu
I0605 14:13:03.551154  1940 net.cpp:106] Creating Layer pool5_2_conv_relu
I0605 14:13:03.551157  1940 net.cpp:454] pool5_2_conv_relu <- pool5_2_conv
I0605 14:13:03.551162  1940 net.cpp:411] pool5_2_conv_relu -> pool5_2_conv_relu
I0605 14:13:03.551304  1940 net.cpp:150] Setting up pool5_2_conv_relu
I0605 14:13:03.551311  1940 net.cpp:157] Top shape: 1 512 7 7 (25088)
I0605 14:13:03.551322  1940 net.cpp:165] Memory required for data: 1431268228
I0605 14:13:03.551326  1940 layer_factory.hpp:77] Creating layer pool5_2_conv2
I0605 14:13:03.551338  1940 net.cpp:106] Creating Layer pool5_2_conv2
I0605 14:13:03.551342  1940 net.cpp:454] pool5_2_conv2 <- pool5_2_conv_relu
I0605 14:13:03.551355  1940 net.cpp:411] pool5_2_conv2 -> pool5_2_conv2
I0605 14:13:03.604442  1940 net.cpp:150] Setting up pool5_2_conv2
I0605 14:13:03.604460  1940 net.cpp:157] Top shape: 1 512 7 7 (25088)
I0605 14:13:03.604463  1940 net.cpp:165] Memory required for data: 1431368580
I0605 14:13:03.604471  1940 layer_factory.hpp:77] Creating layer pool5_2_conv2_relu
I0605 14:13:03.604480  1940 net.cpp:106] Creating Layer pool5_2_conv2_relu
I0605 14:13:03.604485  1940 net.cpp:454] pool5_2_conv2_relu <- pool5_2_conv2
I0605 14:13:03.604490  1940 net.cpp:411] pool5_2_conv2_relu -> pool5_2_conv2_relu
I0605 14:13:03.604640  1940 net.cpp:150] Setting up pool5_2_conv2_relu
I0605 14:13:03.604648  1940 net.cpp:157] Top shape: 1 512 7 7 (25088)
I0605 14:13:03.604650  1940 net.cpp:165] Memory required for data: 1431468932
I0605 14:13:03.604653  1940 layer_factory.hpp:77] Creating layer mask_deconv1
I0605 14:13:03.604660  1940 net.cpp:106] Creating Layer mask_deconv1
I0605 14:13:03.604663  1940 net.cpp:454] mask_deconv1 <- pool5_2_conv2_relu
I0605 14:13:03.604668  1940 net.cpp:411] mask_deconv1 -> mask_deconv1
I0605 14:13:03.605491  1940 net.cpp:150] Setting up mask_deconv1
I0605 14:13:03.605499  1940 net.cpp:157] Top shape: 1 256 30 30 (230400)
I0605 14:13:03.605500  1940 net.cpp:165] Memory required for data: 1432390532
I0605 14:13:03.605504  1940 layer_factory.hpp:77] Creating layer pool5_2_conv3
I0605 14:13:03.605511  1940 net.cpp:106] Creating Layer pool5_2_conv3
I0605 14:13:03.605515  1940 net.cpp:454] pool5_2_conv3 <- mask_deconv1
I0605 14:13:03.605518  1940 net.cpp:411] pool5_2_conv3 -> pool5_2_conv3
I0605 14:13:03.632242  1940 net.cpp:150] Setting up pool5_2_conv3
I0605 14:13:03.632272  1940 net.cpp:157] Top shape: 1 512 30 30 (460800)
I0605 14:13:03.632274  1940 net.cpp:165] Memory required for data: 1434233732
I0605 14:13:03.632282  1940 layer_factory.hpp:77] Creating layer pool5_2_conv3_relu
I0605 14:13:03.632292  1940 net.cpp:106] Creating Layer pool5_2_conv3_relu
I0605 14:13:03.632298  1940 net.cpp:454] pool5_2_conv3_relu <- pool5_2_conv3
I0605 14:13:03.632318  1940 net.cpp:411] pool5_2_conv3_relu -> pool5_2_conv3_relu
I0605 14:13:03.632536  1940 net.cpp:150] Setting up pool5_2_conv3_relu
I0605 14:13:03.632544  1940 net.cpp:157] Top shape: 1 512 30 30 (460800)
I0605 14:13:03.632546  1940 net.cpp:165] Memory required for data: 1436076932
I0605 14:13:03.632549  1940 layer_factory.hpp:77] Creating layer pool5_2_conv4
I0605 14:13:03.632557  1940 net.cpp:106] Creating Layer pool5_2_conv4
I0605 14:13:03.632560  1940 net.cpp:454] pool5_2_conv4 <- pool5_2_conv3_relu
I0605 14:13:03.632575  1940 net.cpp:411] pool5_2_conv4 -> pool5_2_conv4
I0605 14:13:03.684111  1940 net.cpp:150] Setting up pool5_2_conv4
I0605 14:13:03.684139  1940 net.cpp:157] Top shape: 1 512 30 30 (460800)
I0605 14:13:03.684142  1940 net.cpp:165] Memory required for data: 1437920132
I0605 14:13:03.684149  1940 layer_factory.hpp:77] Creating layer pool5_2_conv4_relu
I0605 14:13:03.684167  1940 net.cpp:106] Creating Layer pool5_2_conv4_relu
I0605 14:13:03.684172  1940 net.cpp:454] pool5_2_conv4_relu <- pool5_2_conv4
I0605 14:13:03.684181  1940 net.cpp:411] pool5_2_conv4_relu -> pool5_2_conv4_relu
I0605 14:13:03.684345  1940 net.cpp:150] Setting up pool5_2_conv4_relu
I0605 14:13:03.684352  1940 net.cpp:157] Top shape: 1 512 30 30 (460800)
I0605 14:13:03.684363  1940 net.cpp:165] Memory required for data: 1439763332
I0605 14:13:03.684366  1940 layer_factory.hpp:77] Creating layer pool5_2_conv4_relu_pool5_2_conv4_relu_0_split
I0605 14:13:03.684371  1940 net.cpp:106] Creating Layer pool5_2_conv4_relu_pool5_2_conv4_relu_0_split
I0605 14:13:03.684387  1940 net.cpp:454] pool5_2_conv4_relu_pool5_2_conv4_relu_0_split <- pool5_2_conv4_relu
…
I0605 14:13:03.684425  1940 net.cpp:411] pool5_2_conv4_relu_pool5_2_conv4_relu_0_split -> pool5_2_conv4_relu_pool5_2_conv4_relu_0_split_4
I0605 14:13:03.684433  1940 net.cpp:411] pool5_2_conv4_relu_pool5_2_conv4_relu_0_split -> pool5_2_conv4_relu_pool5_2_conv4_relu_0_split_5
I0605 14:13:03.684439  1940 net.cpp:411] pool5_2_conv4_relu_pool5_2_conv4_relu_0_split -> pool5_2_conv4_relu_pool5_2_conv4_relu_0_split_6
I0605 14:13:03.684448  1940 net.cpp:411] pool5_2_conv4_relu_pool5_2_conv4_relu_0_split -> pool5_2_conv4_relu_pool5_2_conv4_relu_0_split_7
I0605 14:13:03.684538  1940 net.cpp:150] Setting up pool5_2_conv4_relu_pool5_2_conv4_relu_0_split
I0605 14:13:03.684543  1940 net.cpp:157] Top shape: 1 512 30 30 (460800)
I0605 14:13:03.684546  1940 net.cpp:157] Top shape: 1 512 30 30 (460800)
I0605 14:13:03.684548  1940 net.cpp:157] Top shape: 1 512 30 30 (460800)
I0605 14:13:03.684551  1940 net.cpp:157] Top shape: 1 512 30 30 (460800)
I0605 14:13:03.684563  1940 net.cpp:157] Top shape: 1 512 30 30 (460800)
I0605 14:13:03.684566  1940 net.cpp:157] Top shape: 1 512 30 30 (460800)
I0605 14:13:03.684569  1940 net.cpp:157] Top shape: 1 512 30 30 (460800)
I0605 14:13:03.684573  1940 net.cpp:157] Top shape: 1 512 30 30 (460800)
I0605 14:13:03.684578  1940 net.cpp:165] Memory required for data: 1454508932
I0605 14:13:03.684582  1940 layer_factory.hpp:77] Creating layer query_conv
I0605 14:13:03.684597  1940 net.cpp:106] Creating Layer query_conv
I0605 14:13:03.684602  1940 net.cpp:454] query_conv <- pool5_2_conv4_relu_pool5_2_conv4_relu_0_split_0
I0605 14:13:03.684618  1940 net.cpp:411] query_conv -> query_conv
I0605 14:13:03.686403  1940 net.cpp:150] Setting up query_conv
I0605 14:13:03.686412  1940 net.cpp:157] Top shape: 1 64 30 30 (57600)
I0605 14:13:03.686414  1940 net.cpp:165] Memory required for data: 1454739332
I0605 14:13:03.686419  1940 layer_factory.hpp:77] Creating layer key_conv
I0605 14:13:03.686437  1940 net.cpp:106] Creating Layer key_conv
I0605 14:13:03.686445  1940 net.cpp:454] key_conv <- pool5_2_conv4_relu_pool5_2_conv4_relu_0_split_1
I0605 14:13:03.686453  1940 net.cpp:411] key_conv -> key_conv
I0605 14:13:03.690449  1940 net.cpp:150] Setting up key_conv
I0605 14:13:03.690459  1940 net.cpp:157] Top shape: 1 64 30 30 (57600)
I0605 14:13:03.690462  1940 net.cpp:165] Memory required for data: 1454969732
I0605 14:13:03.690467  1940 layer_factory.hpp:77] Creating layer value_conv
I0605 14:13:03.690477  1940 net.cpp:106] Creating Layer value_conv
I0605 14:13:03.690485  1940 net.cpp:454] value_conv <- pool5_2_conv4_relu_pool5_2_conv4_relu_0_split_2
I0605 14:13:03.690491  1940 net.cpp:411] value_conv -> value_conv
I0605 14:13:03.700217  1940 net.cpp:150] Setting up value_conv
I0605 14:13:03.700232  1940 net.cpp:157] Top shape: 1 512 30 30 (460800)
I0605 14:13:03.700235  1940 net.cpp:165] Memory required for data: 1456812932
I0605 14:13:03.700251  1940 layer_factory.hpp:77] Creating layer query_conv_reshape
I0605 14:13:03.700263  1940 net.cpp:106] Creating Layer query_conv_reshape
I0605 14:13:03.700269  1940 net.cpp:454] query_conv_reshape <- query_conv
I0605 14:13:03.700280  1940 net.cpp:411] query_conv_reshape -> query_conv_reshape
I0605 14:13:03.700328  1940 net.cpp:150] Setting up query_conv_reshape
I0605 14:13:03.700336  1940 net.cpp:157] Top shape: 1 64 900 1 (57600)
I0605 14:13:03.700343  1940 net.cpp:165] Memory required for data: 1457043332
I0605 14:13:03.700347  1940 layer_factory.hpp:77] Creating layer key_conv_reshape
I0605 14:13:03.700359  1940 net.cpp:106] Creating Layer key_conv_reshape
I0605 14:13:03.700366  1940 net.cpp:454] key_conv_reshape <- key_conv
I0605 14:13:03.700373  1940 net.cpp:411] key_conv_reshape -> key_conv_reshape
I0605 14:13:03.700402  1940 net.cpp:150] Setting up key_conv_reshape
I0605 14:13:03.700409  1940 net.cpp:157] Top shape: 1 64 900 1 (57600)
I0605 14:13:03.700413  1940 net.cpp:165] Memory required for data: 1457273732
I0605 14:13:03.700417  1940 layer_factory.hpp:77] Creating layer value_conv_reshape
I0605 14:13:03.700425  1940 net.cpp:106] Creating Layer value_conv_reshape
I0605 14:13:03.700433  1940 net.cpp:454] value_conv_reshape <- value_conv
I0605 14:13:03.700439  1940 net.cpp:411] value_conv_reshape -> value_conv_reshape
I0605 14:13:03.700469  1940 net.cpp:150] Setting up value_conv_reshape
I0605 14:13:03.700475  1940 net.cpp:157] Top shape: 1 512 900 1 (460800)
I0605 14:13:03.700479  1940 net.cpp:165] Memory required for data: 1459116932
I0605 14:13:03.700484  1940 layer_factory.hpp:77] Creating layer query_conv_reshape_perm
I0605 14:13:03.700840  1940 net.cpp:106] Creating Layer query_conv_reshape_perm
I0605 14:13:03.700847  1940 net.cpp:454] query_conv_reshape_perm <- query_conv_reshape
I0605 14:13:03.700852  1940 net.cpp:411] query_conv_reshape_perm -> query_conv_reshape_perm
I0605 14:13:03.700953  1940 net.cpp:150] Setting up query_conv_reshape_perm
I0605 14:13:03.700959  1940 net.cpp:157] Top shape: 1 1 900 64 (57600)
I0605 14:13:03.700963  1940 net.cpp:165] Memory required for data: 1459347332
I0605 14:13:03.700964  1940 layer_factory.hpp:77] Creating layer key_conv_reshape_perm
I0605 14:13:03.700979  1940 net.cpp:106] Creating Layer key_conv_reshape_perm
I0605 14:13:03.700984  1940 net.cpp:454] key_conv_reshape_perm <- key_conv_reshape
I0605 14:13:03.700999  1940 net.cpp:411] key_conv_reshape_perm -> key_conv_reshape_perm
I0605 14:13:03.701086  1940 net.cpp:150] Setting up key_conv_reshape_perm
I0605 14:13:03.701092  1940 net.cpp:157] Top shape: 1 1 64 900 (57600)
I0605 14:13:03.701093  1940 net.cpp:165] Memory required for data: 1459577732
I0605 14:13:03.701095  1940 layer_factory.hpp:77] Creating layer energy
I0605 14:13:03.701099  1940 net.cpp:106] Creating Layer energy
I0605 14:13:03.701112  1940 net.cpp:454] energy <- query_conv_reshape_perm
I0605 14:13:03.701115  1940 net.cpp:454] energy <- key_conv_reshape_perm
I0605 14:13:03.701131  1940 net.cpp:411] energy -> energy
I0605 14:13:03.701150  1940 net.cpp:150] Setting up energy
I0605 14:13:03.701165  1940 net.cpp:157] Top shape: 1 1 900 900 (810000)
I0605 14:13:03.701169  1940 net.cpp:165] Memory required for data: 1462817732
I0605 14:13:03.701170  1940 layer_factory.hpp:77] Creating layer attention
I0605 14:13:03.701186  1940 net.cpp:106] Creating Layer attention
I0605 14:13:03.701189  1940 net.cpp:454] attention <- energy
I0605 14:13:03.701194  1940 net.cpp:411] attention -> attention
I0605 14:13:03.701370  1940 net.cpp:150] Setting up attention
I0605 14:13:03.701375  1940 net.cpp:157] Top shape: 1 1 900 900 (810000)
I0605 14:13:03.701377  1940 net.cpp:165] Memory required for data: 1466057732
I0605 14:13:03.701381  1940 layer_factory.hpp:77] Creating layer value_conv_reshape_perm
I0605 14:13:03.701395  1940 net.cpp:106] Creating Layer value_conv_reshape_perm
I0605 14:13:03.701400  1940 net.cpp:454] value_conv_reshape_perm <- value_conv_reshape
I0605 14:13:03.701403  1940 net.cpp:411] value_conv_reshape_perm -> value_conv_reshape_perm
I0605 14:13:03.701515  1940 net.cpp:150] Setting up value_conv_reshape_perm
I0605 14:13:03.701521  1940 net.cpp:157] Top shape: 1 1 512 900 (460800)
I0605 14:13:03.701524  1940 net.cpp:165] Memory required for data: 1467900932
I0605 14:13:03.701525  1940 layer_factory.hpp:77] Creating layer attention_perm
I0605 14:13:03.701540  1940 net.cpp:106] Creating Layer attention_perm
I0605 14:13:03.701544  1940 net.cpp:454] attention_perm <- attention
I0605 14:13:03.701547  1940 net.cpp:411] attention_perm -> attention_perm
I0605 14:13:03.701623  1940 net.cpp:150] Setting up attention_perm
I0605 14:13:03.701628  1940 net.cpp:157] Top shape: 1 1 900 900 (810000)
I0605 14:13:03.701630  1940 net.cpp:165] Memory required for data: 1471140932
I0605 14:13:03.701632  1940 layer_factory.hpp:77] Creating layer out
I0605 14:13:03.701637  1940 net.cpp:106] Creating Layer out
I0605 14:13:03.701639  1940 net.cpp:454] out <- value_conv_reshape_perm
I0605 14:13:03.701643  1940 net.cpp:454] out <- attention_perm
I0605 14:13:03.701647  1940 net.cpp:411] out -> out
I0605 14:13:03.701663  1940 net.cpp:150] Setting up out
I0605 14:13:03.701668  1940 net.cpp:157] Top shape: 1 1 512 900 (460800)
I0605 14:13:03.701669  1940 net.cpp:165] Memory required for data: 1472984132
I0605 14:13:03.701671  1940 layer_factory.hpp:77] Creating layer out_reshape
I0605 14:13:03.701678  1940 net.cpp:106] Creating Layer out_reshape
I0605 14:13:03.701680  1940 net.cpp:454] out_reshape <- out
I0605 14:13:03.701685  1940 net.cpp:411] out_reshape -> out_reshape
I0605 14:13:03.701704  1940 net.cpp:150] Setting up out_reshape
I0605 14:13:03.701709  1940 net.cpp:157] Top shape: 1 512 30 30 (460800)
I0605 14:13:03.701712  1940 net.cpp:165] Memory required for data: 1474827332
I0605 14:13:03.701714  1940 layer_factory.hpp:77] Creating layer out_reshape_scale
I0605 14:13:03.701721  1940 net.cpp:106] Creating Layer out_reshape_scale
I0605 14:13:03.701725  1940 net.cpp:454] out_reshape_scale <- out_reshape
I0605 14:13:03.701730  1940 net.cpp:411] out_reshape_scale -> out_reshape_scale
I0605 14:13:03.701797  1940 net.cpp:150] Setting up out_reshape_scale
I0605 14:13:03.701802  1940 net.cpp:157] Top shape: 1 512 30 30 (460800)
I0605 14:13:03.701803  1940 net.cpp:165] Memory required for data: 1476670532
I0605 14:13:03.701807  1940 layer_factory.hpp:77] Creating layer out_x
I0605 14:13:03.701813  1940 net.cpp:106] Creating Layer out_x
I0605 14:13:03.701817  1940 net.cpp:454] out_x <- out_reshape_scale
I0605 14:13:03.701820  1940 net.cpp:454] out_x <- pool5_2_conv4_relu_pool5_2_conv4_relu_0_split_3
I0605 14:13:03.701825  1940 net.cpp:411] out_x -> out_x
I0605 14:13:03.701845  1940 net.cpp:150] Setting up out_x
I0605 14:13:03.701850  1940 net.cpp:157] Top shape: 1 512 30 30 (460800)
I0605 14:13:03.701853  1940 net.cpp:165] Memory required for data: 1478513732
I0605 14:13:03.701855  1940 layer_factory.hpp:77] Creating layer query_conv_reshape_ch
I0605 14:13:03.701860  1940 net.cpp:106] Creating Layer query_conv_reshape_ch
I0605 14:13:03.701864  1940 net.cpp:454] query_conv_reshape_ch <- pool5_2_conv4_relu_pool5_2_conv4_relu_0_split_4
I0605 14:13:03.701869  1940 net.cpp:411] query_conv_reshape_ch -> query_conv_reshape_ch
I0605 14:13:03.701889  1940 net.cpp:150] Setting up query_conv_reshape_ch
I0605 14:13:03.701892  1940 net.cpp:157] Top shape: 1 512 900 1 (460800)
I0605 14:13:03.701895  1940 net.cpp:165] Memory required for data: 1480356932
I0605 14:13:03.701897  1940 layer_factory.hpp:77] Creating layer key_conv_reshape_ch
I0605 14:13:03.701901  1940 net.cpp:106] Creating Layer key_conv_reshape_ch
I0605 14:13:03.701903  1940 net.cpp:454] key_conv_reshape_ch <- pool5_2_conv4_relu_pool5_2_conv4_relu_0_split_5
I0605 14:13:03.701907  1940 net.cpp:411] key_conv_reshape_ch -> key_conv_reshape_ch
I0605 14:13:03.701926  1940 net.cpp:150] Setting up key_conv_reshape_ch
I0605 14:13:03.701931  1940 net.cpp:157] Top shape: 1 512 900 1 (460800)
I0605 14:13:03.701933  1940 net.cpp:165] Memory required for data: 1482200132
I0605 14:13:03.701936  1940 layer_factory.hpp:77] Creating layer value_conv_reshape_ch
I0605 14:13:03.701941  1940 net.cpp:106] Creating Layer value_conv_reshape_ch
I0605 14:13:03.701943  1940 net.cpp:454] value_conv_reshape_ch <- pool5_2_conv4_relu_pool5_2_conv4_relu_0_split_6
I0605 14:13:03.701947  1940 net.cpp:411] value_conv_reshape_ch -> value_conv_reshape_ch
I0605 14:13:03.701966  1940 net.cpp:150] Setting up value_conv_reshape_ch
I0605 14:13:03.701970  1940 net.cpp:157] Top shape: 1 512 900 1 (460800)
I0605 14:13:03.701973  1940 net.cpp:165] Memory required for data: 1484043332
I0605 14:13:03.701975  1940 layer_factory.hpp:77] Creating layer query_conv_reshape_perm_ch
I0605 14:13:03.701979  1940 net.cpp:106] Creating Layer query_conv_reshape_perm_ch
I0605 14:13:03.701982  1940 net.cpp:454] query_conv_reshape_perm_ch <- query_conv_reshape_ch
I0605 14:13:03.701987  1940 net.cpp:411] query_conv_reshape_perm_ch -> query_conv_reshape_perm_ch
I0605 14:13:03.702059  1940 net.cpp:150] Setting up query_conv_reshape_perm_ch
I0605 14:13:03.702064  1940 net.cpp:157] Top shape: 1 1 512 900 (460800)
I0605 14:13:03.702065  1940 net.cpp:165] Memory required for data: 1485886532
I0605 14:13:03.702069  1940 layer_factory.hpp:77] Creating layer key_conv_reshape_perm_ch
I0605 14:13:03.702072  1940 net.cpp:106] Creating Layer key_conv_reshape_perm_ch
I0605 14:13:03.702075  1940 net.cpp:454] key_conv_reshape_perm_ch <- key_conv_reshape_ch
I0605 14:13:03.702080  1940 net.cpp:411] key_conv_reshape_perm_ch -> key_conv_reshape_perm_ch
I0605 14:13:03.702142  1940 net.cpp:150] Setting up key_conv_reshape_perm_ch
I0605 14:13:03.702147  1940 net.cpp:157] Top shape: 1 1 900 512 (460800)
I0605 14:13:03.702149  1940 net.cpp:165] Memory required for data: 1487729732
I0605 14:13:03.702152  1940 layer_factory.hpp:77] Creating layer energy_ch
I0605 14:13:03.702157  1940 net.cpp:106] Creating Layer energy_ch
I0605 14:13:03.702160  1940 net.cpp:454] energy_ch <- query_conv_reshape_perm_ch
I0605 14:13:03.702165  1940 net.cpp:454] energy_ch <- key_conv_reshape_perm_ch
I0605 14:13:03.702170  1940 net.cpp:411] energy_ch -> energy_ch
I0605 14:13:03.702185  1940 net.cpp:150] Setting up energy_ch
I0605 14:13:03.702190  1940 net.cpp:157] Top shape: 1 1 512 512 (262144)
I0605 14:13:03.702193  1940 net.cpp:165] Memory required for data: 1488778308
I0605 14:13:03.702198  1940 layer_factory.hpp:77] Creating layer energy_ch_energy_ch_0_split
I0605 14:13:03.702203  1940 net.cpp:106] Creating Layer energy_ch_energy_ch_0_split
I0605 14:13:03.702208  1940 net.cpp:454] energy_ch_energy_ch_0_split <- energy_ch
I0605 14:13:03.702214  1940 net.cpp:411] energy_ch_energy_ch_0_split -> energy_ch_energy_ch_0_split_0
I0605 14:13:03.702219  1940 net.cpp:411] energy_ch_energy_ch_0_split -> energy_ch_energy_ch_0_split_1
I0605 14:13:03.702244  1940 net.cpp:150] Setting up energy_ch_energy_ch_0_split
I0605 14:13:03.702250  1940 net.cpp:157] Top shape: 1 1 512 512 (262144)
I0605 14:13:03.702252  1940 net.cpp:157] Top shape: 1 1 512 512 (262144)
I0605 14:13:03.702257  1940 net.cpp:165] Memory required for data: 1490875460
I0605 14:13:03.702260  1940 layer_factory.hpp:77] Creating layer energy_ch_pool
I0605 14:13:03.702266  1940 net.cpp:106] Creating Layer energy_ch_pool
I0605 14:13:03.702271  1940 net.cpp:454] energy_ch_pool <- energy_ch_energy_ch_0_split_0
I0605 14:13:03.702275  1940 net.cpp:411] energy_ch_pool -> energy_ch_pool
I0605 14:13:03.702304  1940 net.cpp:150] Setting up energy_ch_pool
I0605 14:13:03.702309  1940 net.cpp:157] Top shape: 1 1 512 1 (512)
I0605 14:13:03.702311  1940 net.cpp:165] Memory required for data: 1490877508
I0605 14:13:03.702314  1940 layer_factory.hpp:77] Creating layer energy_ch_max
I0605 14:13:03.702319  1940 net.cpp:106] Creating Layer energy_ch_max
I0605 14:13:03.702322  1940 net.cpp:454] energy_ch_max <- energy_ch_pool
I0605 14:13:03.702327  1940 net.cpp:411] energy_ch_max -> energy_ch_max
I0605 14:13:03.702344  1940 net.cpp:150] Setting up energy_ch_max
I0605 14:13:03.702350  1940 net.cpp:157] Top shape: 1 1 512 512 (262144)
I0605 14:13:03.702353  1940 net.cpp:165] Memory required for data: 1491926084
I0605 14:13:03.702355  1940 layer_factory.hpp:77] Creating layer energy_ch_minus
I0605 14:13:03.702653  1940 net.cpp:106] Creating Layer energy_ch_minus
I0605 14:13:03.702659  1940 net.cpp:454] energy_ch_minus <- energy_ch_energy_ch_0_split_1
I0605 14:13:03.702666  1940 net.cpp:411] energy_ch_minus -> energy_ch_minus
I0605 14:13:03.702690  1940 net.cpp:150] Setting up energy_ch_minus
I0605 14:13:03.702697  1940 net.cpp:157] Top shape: 1 1 512 512 (262144)
I0605 14:13:03.702698  1940 net.cpp:165] Memory required for data: 1492974660
I0605 14:13:03.702700  1940 layer_factory.hpp:77] Creating layer energy_new
I0605 14:13:03.702708  1940 net.cpp:106] Creating Layer energy_new
I0605 14:13:03.702710  1940 net.cpp:454] energy_new <- energy_ch_max
I0605 14:13:03.702713  1940 net.cpp:454] energy_new <- energy_ch_minus
I0605 14:13:03.702718  1940 net.cpp:411] energy_new -> energy_new
I0605 14:13:03.702735  1940 net.cpp:150] Setting up energy_new
I0605 14:13:03.702740  1940 net.cpp:157] Top shape: 1 1 512 512 (262144)
I0605 14:13:03.702742  1940 net.cpp:165] Memory required for data: 1494023236
I0605 14:13:03.702744  1940 layer_factory.hpp:77] Creating layer attention_ch
I0605 14:13:03.702750  1940 net.cpp:106] Creating Layer attention_ch
I0605 14:13:03.702754  1940 net.cpp:454] attention_ch <- energy_new
I0605 14:13:03.702757  1940 net.cpp:411] attention_ch -> attention_ch
I0605 14:13:03.703325  1940 net.cpp:150] Setting up attention_ch
I0605 14:13:03.703332  1940 net.cpp:157] Top shape: 1 1 512 512 (262144)
I0605 14:13:03.703336  1940 net.cpp:165] Memory required for data: 1495071812
I0605 14:13:03.703341  1940 layer_factory.hpp:77] Creating layer value_conv_reshape_ch_perm
I0605 14:13:03.703344  1940 net.cpp:106] Creating Layer value_conv_reshape_ch_perm
I0605 14:13:03.703348  1940 net.cpp:454] value_conv_reshape_ch_perm <- value_conv_reshape_ch
I0605 14:13:03.703353  1940 net.cpp:411] value_conv_reshape_ch_perm -> value_conv_reshape_ch_perm
I0605 14:13:03.703423  1940 net.cpp:150] Setting up value_conv_reshape_ch_perm
I0605 14:13:03.703428  1940 net.cpp:157] Top shape: 1 1 512 900 (460800)
I0605 14:13:03.703430  1940 net.cpp:165] Memory required for data: 1496915012
I0605 14:13:03.703435  1940 layer_factory.hpp:77] Creating layer attention_ch_perm
I0605 14:13:03.703438  1940 net.cpp:106] Creating Layer attention_ch_perm
I0605 14:13:03.703441  1940 net.cpp:454] attention_ch_perm <- attention_ch
I0605 14:13:03.703445  1940 net.cpp:411] attention_ch_perm -> attention_ch_perm
I0605 14:13:03.703516  1940 net.cpp:150] Setting up attention_ch_perm
I0605 14:13:03.703521  1940 net.cpp:157] Top shape: 1 1 512 512 (262144)
I0605 14:13:03.703522  1940 net.cpp:165] Memory required for data: 1497963588
I0605 14:13:03.703526  1940 layer_factory.hpp:77] Creating layer out_ch
I0605 14:13:03.703531  1940 net.cpp:106] Creating Layer out_ch
I0605 14:13:03.703536  1940 net.cpp:454] out_ch <- attention_ch_perm
I0605 14:13:03.703539  1940 net.cpp:454] out_ch <- value_conv_reshape_ch_perm
I0605 14:13:03.703543  1940 net.cpp:411] out_ch -> out_ch
I0605 14:13:03.703560  1940 net.cpp:150] Setting up out_ch
I0605 14:13:03.703564  1940 net.cpp:157] Top shape: 1 1 512 900 (460800)
I0605 14:13:03.703567  1940 net.cpp:165] Memory required for data: 1499806788
I0605 14:13:03.703569  1940 layer_factory.hpp:77] Creating layer out_ch_reshape
I0605 14:13:03.703574  1940 net.cpp:106] Creating Layer out_ch_reshape
I0605 14:13:03.703578  1940 net.cpp:454] out_ch_reshape <- out_ch
I0605 14:13:03.703584  1940 net.cpp:411] out_ch_reshape -> out_ch_reshape
I0605 14:13:03.703604  1940 net.cpp:150] Setting up out_ch_reshape
I0605 14:13:03.703608  1940 net.cpp:157] Top shape: 1 512 30 30 (460800)
I0605 14:13:03.703610  1940 net.cpp:165] Memory required for data: 1501649988
I0605 14:13:03.703613  1940 layer_factory.hpp:77] Creating layer out_ch_reshape_scale
I0605 14:13:03.703619  1940 net.cpp:106] Creating Layer out_ch_reshape_scale
I0605 14:13:03.703624  1940 net.cpp:454] out_ch_reshape_scale <- out_ch_reshape
I0605 14:13:03.703629  1940 net.cpp:411] out_ch_reshape_scale -> out_ch_reshape_scale
I0605 14:13:03.703688  1940 net.cpp:150] Setting up out_ch_reshape_scale
I0605 14:13:03.703692  1940 net.cpp:157] Top shape: 1 512 30 30 (460800)
I0605 14:13:03.703696  1940 net.cpp:165] Memory required for data: 1503493188
I0605 14:13:03.703701  1940 net.cpp:514] Sharing parameters 'scale_conv1_1' owned by layer 'out_reshape_scale', param index 0
I0605 14:13:03.703703  1940 layer_factory.hpp:77] Creating layer out_ch_x
I0605 14:13:03.703709  1940 net.cpp:106] Creating Layer out_ch_x
I0605 14:13:03.703716  1940 net.cpp:454] out_ch_x <- out_ch_reshape_scale
I0605 14:13:03.703719  1940 net.cpp:454] out_ch_x <- pool5_2_conv4_relu_pool5_2_conv4_relu_0_split_7
I0605 14:13:03.703723  1940 net.cpp:411] out_ch_x -> out_ch_x
I0605 14:13:03.703742  1940 net.cpp:150] Setting up out_ch_x
I0605 14:13:03.703747  1940 net.cpp:157] Top shape: 1 512 30 30 (460800)
I0605 14:13:03.703748  1940 net.cpp:165] Memory required for data: 1505336388
I0605 14:13:03.703753  1940 layer_factory.hpp:77] Creating layer out_conv_ch_x
I0605 14:13:03.703761  1940 net.cpp:106] Creating Layer out_conv_ch_x
I0605 14:13:03.703764  1940 net.cpp:454] out_conv_ch_x <- out_ch_x
I0605 14:13:03.703770  1940 net.cpp:411] out_conv_ch_x -> out_conv_ch_x
I0605 14:13:03.709686  1940 net.cpp:150] Setting up out_conv_ch_x
I0605 14:13:03.709694  1940 net.cpp:157] Top shape: 1 512 30 30 (460800)
I0605 14:13:03.709697  1940 net.cpp:165] Memory required for data: 1507179588
I0605 14:13:03.709704  1940 layer_factory.hpp:77] Creating layer out_conv_x
I0605 14:13:03.709715  1940 net.cpp:106] Creating Layer out_conv_x
I0605 14:13:03.709720  1940 net.cpp:454] out_conv_x <- out_x
I0605 14:13:03.709724  1940 net.cpp:411] out_conv_x -> out_conv_x
I0605 14:13:03.716903  1940 net.cpp:150] Setting up out_conv_x
I0605 14:13:03.716920  1940 net.cpp:157] Top shape: 1 512 30 30 (460800)
I0605 14:13:03.716923  1940 net.cpp:165] Memory required for data: 1509022788
I0605 14:13:03.716928  1940 layer_factory.hpp:77] Creating layer out_x_sum
I0605 14:13:03.716938  1940 net.cpp:106] Creating Layer out_x_sum
I0605 14:13:03.716941  1940 net.cpp:454] out_x_sum <- out_conv_x
I0605 14:13:03.716946  1940 net.cpp:454] out_x_sum <- out_conv_ch_x
I0605 14:13:03.716953  1940 net.cpp:411] out_x_sum -> out_x_sum
I0605 14:13:03.716974  1940 net.cpp:150] Setting up out_x_sum
I0605 14:13:03.716979  1940 net.cpp:157] Top shape: 1 512 30 30 (460800)
I0605 14:13:03.716980  1940 net.cpp:165] Memory required for data: 1510865988
I0605 14:13:03.716984  1940 layer_factory.hpp:77] Creating layer mask_deconv2
I0605 14:13:03.716989  1940 net.cpp:106] Creating Layer mask_deconv2
I0605 14:13:03.716995  1940 net.cpp:454] mask_deconv2 <- out_x_sum
I0605 14:13:03.716998  1940 net.cpp:411] mask_deconv2 -> mask_deconv2
I0605 14:13:03.717828  1940 net.cpp:150] Setting up mask_deconv2
I0605 14:13:03.717834  1940 net.cpp:157] Top shape: 1 256 122 122 (3810304)
I0605 14:13:03.717836  1940 net.cpp:165] Memory required for data: 1526107204
I0605 14:13:03.717839  1940 layer_factory.hpp:77] Creating layer pool5_2_conv5
I0605 14:13:03.717847  1940 net.cpp:106] Creating Layer pool5_2_conv5
I0605 14:13:03.717849  1940 net.cpp:454] pool5_2_conv5 <- mask_deconv2
I0605 14:13:03.717864  1940 net.cpp:411] pool5_2_conv5 -> pool5_2_conv5
I0605 14:13:03.744001  1940 net.cpp:150] Setting up pool5_2_conv5
I0605 14:13:03.744017  1940 net.cpp:157] Top shape: 1 512 122 122 (7620608)
I0605 14:13:03.744020  1940 net.cpp:165] Memory required for data: 1556589636
I0605 14:13:03.744036  1940 layer_factory.hpp:77] Creating layer pool5_2_conv5_relu
I0605 14:13:03.744055  1940 net.cpp:106] Creating Layer pool5_2_conv5_relu
I0605 14:13:03.744071  1940 net.cpp:454] pool5_2_conv5_relu <- pool5_2_conv5
I0605 14:13:03.744077  1940 net.cpp:411] pool5_2_conv5_relu -> pool5_2_conv5_relu
I0605 14:13:03.744243  1940 net.cpp:150] Setting up pool5_2_conv5_relu
I0605 14:13:03.744251  1940 net.cpp:157] Top shape: 1 512 122 122 (7620608)
I0605 14:13:03.744253  1940 net.cpp:165] Memory required for data: 1587072068
I0605 14:13:03.744256  1940 layer_factory.hpp:77] Creating layer pool5_2_conv6
I0605 14:13:03.744264  1940 net.cpp:106] Creating Layer pool5_2_conv6
I0605 14:13:03.744278  1940 net.cpp:454] pool5_2_conv6 <- pool5_2_conv5_relu
I0605 14:13:03.744284  1940 net.cpp:411] pool5_2_conv6 -> pool5_2_conv6
I0605 14:13:03.795083  1940 net.cpp:150] Setting up pool5_2_conv6
I0605 14:13:03.795102  1940 net.cpp:157] Top shape: 1 512 122 122 (7620608)
I0605 14:13:03.795106  1940 net.cpp:165] Memory required for data: 1617554500
I0605 14:13:03.795114  1940 layer_factory.hpp:77] Creating layer pool5_2_conv6_relu
I0605 14:13:03.795126  1940 net.cpp:106] Creating Layer pool5_2_conv6_relu
I0605 14:13:03.795135  1940 net.cpp:454] pool5_2_conv6_relu <- pool5_2_conv6
I0605 14:13:03.795141  1940 net.cpp:411] pool5_2_conv6_relu -> pool5_2_conv6_relu
I0605 14:13:03.795740  1940 net.cpp:150] Setting up pool5_2_conv6_relu
I0605 14:13:03.795761  1940 net.cpp:157] Top shape: 1 512 122 122 (7620608)
I0605 14:13:03.795763  1940 net.cpp:165] Memory required for data: 1648036932
I0605 14:13:03.795768  1940 layer_factory.hpp:77] Creating layer mask_deconv3
I0605 14:13:03.795786  1940 net.cpp:106] Creating Layer mask_deconv3
I0605 14:13:03.795792  1940 net.cpp:454] mask_deconv3 <- pool5_2_conv6_relu
I0605 14:13:03.795797  1940 net.cpp:411] mask_deconv3 -> mask_deconv3
I0605 14:13:03.796226  1940 net.cpp:150] Setting up mask_deconv3
I0605 14:13:03.796232  1940 net.cpp:157] Top shape: 1 256 244 244 (15241216)
I0605 14:13:03.796245  1940 net.cpp:165] Memory required for data: 1709001796
I0605 14:13:03.796250  1940 layer_factory.hpp:77] Creating layer mask_score
I0605 14:13:03.796269  1940 net.cpp:106] Creating Layer mask_score
I0605 14:13:03.796273  1940 net.cpp:454] mask_score <- mask_deconv3
I0605 14:13:03.796279  1940 net.cpp:411] mask_score -> mask_score
I0605 14:13:03.797722  1940 net.cpp:150] Setting up mask_score
I0605 14:13:03.797744  1940 net.cpp:157] Top shape: 1 8 244 244 (476288)
I0605 14:13:03.797746  1940 net.cpp:165] Memory required for data: 1710906948
I0605 14:13:03.797751  1940 layer_factory.hpp:77] Creating layer loss_mask
I0605 14:13:03.797770  1940 net.cpp:106] Creating Layer loss_mask
I0605 14:13:03.797776  1940 net.cpp:454] loss_mask <- mask_score
I0605 14:13:03.797781  1940 net.cpp:454] loss_mask <- mask_targets
I0605 14:13:03.797785  1940 net.cpp:411] loss_mask -> loss_mask
…
