…
average_loss: 100
iter_size: 2
I0625 15:11:11.468384 29544 solver.cpp:81] Creating training net from train_net file: models/pascal_voc/VGG16/faster_rcnn_end2end/train.prototxt
I0625 15:11:11.469991 29544 net.cpp:49] Initializing net from parameters: 
name: "VGG_ILSVRC_16_layers"
state {
  phase: TRAIN
}
layer {
  name: "input-data"
  type: "Python"
  top: "data"
  top: "im_info"
  top: "gt_boxes"
  top: "seg_mask_inds"
  top: "flipped"
  python_param {
    module: "roi_data_layer.layer"
    layer: "RoIDataLayer"
    param_str: "\'num_classes\': 2"
  }
}
layer {
  name: "conv1_1"
  type: "Convolution"
  bottom: "data"
  top: "conv1_1"
  param {
    lr_mult: 0
    decay_mult: 0
  }
  param {
    lr_mult: 0
    decay_mult: 0
  }
  convolution_param {
    num_output: 64
    pad: 1
    kernel_size: 3
  }
}
layer {
  name: "relu1_1"
  type: "ReLU"
  bottom: "conv1_1"
  top: "conv1_1"
}
layer {
  name: "conv1_2"
  type: "Convolution"
  bottom: "conv1_1"
  top: "conv1_2"
  param {
    lr_mult: 0
    decay_mult: 0
  }
  param {
    lr_mult: 0
    decay_mult: 0
  }
  convolution_param {
    num_output: 64
    pad: 1
    kernel_size: 3
  }
}
layer {
  name: "relu1_2"
  type: "ReLU"
  bottom: "conv1_2"
  top: "conv1_2"
}
layer {
  name: "pool1"
  type: "Pooling"
  bottom: "conv1_2"
  top: "pool1"
  pooling_param {
    pool: MAX
    kernel_size: 2
    stride: 2
  }
}
layer {
  name: "conv2_1"
  type: "Convolution"
  bottom: "pool1"
  top: "conv2_1"
  param {
    lr_mult: 0
    decay_mult: 0
  }
  param {
    lr_mult: 0
    decay_mult: 0
  }
  convolution_param {
    num_output: 128
    pad: 1
    kernel_size: 3
  }
}
layer {
  name: "relu2_1"
  type: "ReLU"
  bottom: "conv2_1"
  top: "conv2_1"
}
layer {
  name: "conv2_2"
  type: "Convolution"
  bottom: "conv2_1"
  top: "conv2_2"
  param {
    lr_mult: 0
    decay_mult: 0
  }
  param {
    lr_mult: 0
    decay_mult: 0
  }
  convolution_param {
    num_output: 128
    pad: 1
    kernel_size: 3
  }
}
layer {
  name: "relu2_2"
  type: "ReLU"
  bottom: "conv2_2"
  top: "conv2_2"
}
layer {
  name: "pool2"
  type: "Pooling"
  bottom: "conv2_2"
  top: "pool2"
  pooling_param {
    pool: MAX
    kernel_size: 2
    stride: 2
  }
}
layer {
  name: "conv3_1"
  type: "Convolution"
  bottom: "pool2"
  top: "conv3_1"
  param {
    lr_mult: 1
  }
  param {
    lr_mult: 2
  }
  convolution_param {
    num_output: 256
    pad: 1
    kernel_size: 3
  }
}
layer {
  name: "relu3_1"
  type: "ReLU"
  bottom: "conv3_1"
  top: "conv3_1"
}
layer {
  name: "conv3_2"
  type: "Convolution"
  bottom: "conv3_1"
  top: "conv3_2"
  param {
    lr_mult: 1
  }
  param {
    lr_mult: 2
  }
  convolution_param {
    num_output: 256
    pad: 1
    kernel_size: 3
  }
}
layer {
  name: "relu3_2"
  type: "ReLU"
  bottom: "conv3_2"
  top: "conv3_2"
}
layer {
  name: "conv3_3"
  type: "Convolution"
  bottom: "conv3_2"
  top: "conv3_3"
  param {
    lr_mult: 1
  }
  param {
    lr_mult: 2
  }
  convolution_param {
    num_output: 256
    pad: 1
    kernel_size: 3
  }
}
layer {
  name: "relu3_3"
  type: "ReLU"
  bottom: "conv3_3"
  top: "conv3_3"
}
layer {
  name: "pool3"
  type: "Pooling"
  bottom: "conv3_3"
  top: "pool3"
  pooling_param {
    pool: MAX
    kernel_size: 2
    stride: 2
  }
}
layer {
  name: "conv4_1"
  type: "Convolution"
  bottom: "pool3"
  top: "conv4_1"
  param {
    lr_mult: 1
  }
  param {
    lr_mult: 2
  }
  convolution_param {
    num_output: 512
    pad: 1
    kernel_size: 3
  }
}
layer {
  name: "relu4_1"
  type: "ReLU"
  bottom: "conv4_1"
  top: "conv4_1"
}
layer {
  name: "conv4_2"
  type: "Convolution"
  bottom: "conv4_1"
  top: "conv4_2"
  param {
    lr_mult: 1
  }
  param {
    lr_mult: 2
  }
  convolution_param {
    num_output: 512
    pad: 1
    kernel_size: 3
  }
}
layer {
  name: "relu4_2"
  type: "ReLU"
  bottom: "conv4_2"
  top: "conv4_2"
}
layer {
  name: "conv4_3"
  type: "Convolution"
  bottom: "conv4_2"
  top: "conv4_3"
  param {
    lr_mult: 1
  }
  param {
    lr_mult: 2
  }
  convolution_param {
    num_output: 512
    pad: 1
    kernel_size: 3
  }
}
layer {
  name: "relu4_3"
  type: "ReLU"
  bottom: "conv4_3"
  top: "conv4_3"
}
layer {
  name: "pool4"
  type: "Pooling"
  bottom: "conv4_3"
  top: "pool4"
  pooling_param {
    pool: MAX
    kernel_size: 2
    stride: 2
  }
}
layer {
  name: "conv5_1"
  type: "Convolution"
  bottom: "pool4"
  top: "conv5_1"
  param {
    lr_mult: 1
  }
  param {
    lr_mult: 2
  }
  convolution_param {
    num_output: 512
    pad: 1
    kernel_size: 3
  }
}
layer {
  name: "relu5_1"
  type: "ReLU"
  bottom: "conv5_1"
  top: "conv5_1"
}
layer {
  name: "conv5_2"
  type: "Convolution"
  bottom: "conv5_1"
  top: "conv5_2"
  param {
    lr_mult: 1
  }
  param {
    lr_mult: 2
  }
  convolution_param {
    num_output: 512
    pad: 1
    kernel_size: 3
  }
}
layer {
  name: "relu5_2"
  type: "ReLU"
  bottom: "conv5_2"
  top: "conv5_2"
}
layer {
  name: "conv5_3"
  type: "Convolution"
  bottom: "conv5_2"
  top: "conv5_3"
  param {
    lr_mult: 1
  }
  param {
    lr_mult: 2
  }
  convolution_param {
    num_output: 512
    pad: 1
    kernel_size: 3
  }
}
layer {
  name: "relu5_3"
  type: "ReLU"
  bottom: "conv5_3"
  top: "conv5_3"
}
layer {
  name: "rpn_conv/3x3"
  type: "Convolution"
  bottom: "conv5_3"
  top: "rpn/output"
  param {
    lr_mult: 1
  }
  param {
    lr_mult: 2
  }
  convolution_param {
    num_output: 512
    pad: 1
    kernel_size: 3
    stride: 1
    weight_filler {
      type: "gaussian"
      std: 0.01
    }
    bias_filler {
      type: "constant"
      value: 0
    }
  }
}
layer {
  name: "rpn_relu/3x3"
  type: "ReLU"
  bottom: "rpn/output"
  top: "rpn/output"
}
layer {
  name: "rpn_cls_score"
  type: "Convolution"
  bottom: "rpn/output"
  top: "rpn_cls_score"
  param {
    lr_mult: 1
  }
  param {
    lr_mult: 2
  }
  convolution_param {
    num_output: 30
    pad: 0
    kernel_size: 1
    stride: 1
    weight_filler {
      type: "gaussian"
      std: 0.01
    }
    bias_filler {
      type: "constant"
      value: 0
    }
  }
}
layer {
  name: "rpn_bbox_pred"
  type: "Convolution"
  bottom: "rpn/output"
  top: "rpn_bbox_pred"
  param {
    lr_mult: 1
  }
  param {
    lr_mult: 2
  }
  convolution_param {
    num_output: 60
    pad: 0
    kernel_size: 1
    stride: 1
    weight_filler {
      type: "gaussian"
      std: 0.01
    }
    bias_filler {
      type: "constant"
      value: 0
    }
  }
}
layer {
  name: "rpn_cls_score_reshape"
  type: "Reshape"
  bottom: "rpn_cls_score"
  top: "rpn_cls_score_reshape"
  reshape_param {
    shape {
      dim: 0
      dim: 2
      dim: -1
      dim: 0
    }
  }
}
layer {
  name: "rpn-data"
  type: "Python"
  bottom: "rpn_cls_score"
  bottom: "gt_boxes"
  bottom: "im_info"
  bottom: "data"
  top: "rpn_labels"
  top: "rpn_bbox_targets"
  top: "rpn_bbox_inside_weights"
  top: "rpn_bbox_outside_weights"
  python_param {
    module: "rpn.anchor_target_layer"
    layer: "AnchorTargetLayer"
    param_str: "\'feat_stride\': 16 \n\'scales\': !!python/tuple [2, 4, 8, 16, 32]"
  }
}
layer {
  name: "rpn_loss_cls"
  type: "SoftmaxWithLoss"
  bottom: "rpn_cls_score_reshape"
  bottom: "rpn_labels"
  top: "rpn_cls_loss"
  loss_weight: 1
  propagate_down: true
  propagate_down: false
  loss_param {
    ignore_label: -1
    normalize: true
  }
}
layer {
  name: "rpn_loss_bbox"
  type: "SmoothL1Loss"
  bottom: "rpn_bbox_pred"
  bottom: "rpn_bbox_targets"
  bottom: "rpn_bbox_inside_weights"
  bottom: "rpn_bbox_outside_weights"
  top: "rpn_loss_bbox"
  loss_weight: 1
  smooth_l1_loss_param {
    sigma: 3
  }
}
layer {
  name: "rpn_cls_prob"
  type: "Softmax"
  bottom: "rpn_cls_score_reshape"
  top: "rpn_cls_prob"
}
layer {
  name: "rpn_cls_prob_reshape"
  type: "Reshape"
  bottom: "rpn_cls_prob"
  top: "rpn_cls_prob_reshape"
  reshape_param {
    shape {
      dim: 0
      dim: 30
      dim: -1
      dim: 0
    }
  }
}
layer {
  name: "proposal"
  type: "Python"
  bottom: "rpn_cls_prob_reshape"
  bottom: "rpn_bbox_pred"
  bottom: "im_info"
  top: "rpn_rois"
  python_param {
    module: "rpn.proposal_layer"
    layer: "ProposalLayer"
    param_str: "\'feat_stride\': 16 \n\'scales\': !!python/tuple [2, 4, 8, 16, 32]"
  }
}
layer {
  name: "roi-data"
  type: "Python"
  bottom: "rpn_rois"
  bottom: "gt_boxes"
  bottom: "im_info"
  bottom: "seg_mask_inds"
  bottom: "flipped"
  top: "rois"
  top: "labels"
  top: "bbox_targets"
  top: "bbox_inside_weights"
  top: "bbox_outside_weights"
  top: "mask_targets"
  top: "rois_pos"
  top: "attrArray"
  top: "attrArrayInd"
  top: "attrArrayShift"
  python_param {
    module: "rpn.proposal_target_layer"
    layer: "ProposalTargetLayer"
    param_str: "\'num_classes\': 2"
  }
}
layer {
  name: "roi_pool5"
  type: "ROIAlignment"
  bottom: "conv5_3"
  bottom: "rois"
  top: "pool5"
  roi_alignment_param {
    pooled_h: 7
    pooled_w: 7
    spatial_scale: 0.0625
  }
}
layer {
  name: "fc6"
  type: "InnerProduct"
  bottom: "pool5"
  top: "fc6"
  param {
    lr_mult: 1
  }
  param {
    lr_mult: 2
  }
  inner_product_param {
    num_output: 4096
  }
}
layer {
  name: "relu6"
  type: "ReLU"
  bottom: "fc6"
  top: "fc6"
}
layer {
  name: "fc7"
  type: "InnerProduct"
  bottom: "fc6"
  top: "fc7"
  param {
    lr_mult: 1
  }
  param {
    lr_mult: 2
  }
  inner_product_param {
    num_output: 4096
  }
}
layer {
  name: "relu7"
  type: "ReLU"
  bottom: "fc7"
  top: "fc7"
}
layer {
  name: "attr_score"
  type: "InnerProduct"
  bottom: "fc7"
  top: "attr_score"
  param {
    lr_mult: 1
  }
  param {
    lr_mult: 2
  }
  inner_product_param {
    num_output: 7
    weight_filler {
      type: "gaussian"
      std: 0.001
    }
    bias_filler {
      type: "constant"
      value: 0
    }
  }
}
layer {
  name: "attr_score_pos"
  type: "Eltwise"
  bottom: "attr_score"
  bottom: "attrArrayInd"
  top: "attr_score_pos"
  eltwise_param {
    operation: PROD
  }
}
layer {
  name: "attr_score_pos_shift"
  type: "Eltwise"
  bottom: "attr_score_pos"
  bottom: "attrArrayShift"
  top: "attr_score_pos_shift"
  eltwise_param {
    operation: SUM
  }
}
layer {
  name: "cls_score"
  type: "InnerProduct"
  bottom: "fc7"
  top: "cls_score"
  param {
    lr_mult: 1
  }
  param {
    lr_mult: 2
  }
  inner_product_param {
    num_output: 2
    weight_filler {
      type: "gaussian"
      std: 0.01
    }
    bias_filler {
      type: "constant"
      value: 0
    }
  }
}
layer {
  name: "bbox_pred"
  type: "InnerProduct"
  bottom: "fc7"
  top: "bbox_pred"
  param {
    lr_mult: 1
  }
  param {
    lr_mult: 2
  }
  inner_product_param {
    num_output: 8
    weight_filler {
      type: "gaussian"
      std: 0.001
    }
    bias_filler {
      type: "constant"
      value: 0
    }
  }
}
layer {
  name: "loss_attribute"
  type: "SigmoidCrossEntropyLoss"
  bottom: "attr_score_pos_shift"
  bottom: "attrArray"
  top: "loss_attribute"
  loss_weight: 1
  propagate_down: true
  propagate_down: false
}
layer {
  name: "loss_cls"
  type: "SoftmaxWithLoss"
  bottom: "cls_score"
  bottom: "labels"
  top: "loss_cls"
  loss_weight: 3
  propagate_down: true
  propagate_down: false
}
layer {
  name: "loss_bbox"
  type: "SmoothL1Loss"
  bottom: "bbox_pred"
  bottom: "bbox_targets"
  bottom: "bbox_inside_weights"
  bottom: "bbox_outside_weights"
  top: "loss_bbox"
  loss_weight: 2
}
layer {
  name: "roi_pool5_2"
  type: "ROIAlignment"
  bottom: "conv5_3"
  bottom: "rois_pos"
  top: "pool5_2"
  roi_alignment_param {
    pooled_h: 7
    pooled_w: 7
    spatial_scale: 0.0625
  }
}
layer {
  name: "pool5_2_conv"
  type: "Convolution"
  bottom: "pool5_2"
  top: "pool5_2_conv"
  param {
    lr_mult: 1
    decay_mult: 1
  }
  param {
    lr_mult: 2
    decay_mult: 0
  }
  convolution_param {
    num_output: 512
    pad: 0
    kernel_size: 1
    weight_filler {
      type: "gaussian"
      std: 0.01
    }
    bias_filler {
      type: "constant"
      value: 0
    }
  }
}
layer {
  name: "pool5_2_conv_relu"
  type: "ReLU"
  bottom: "pool5_2_conv"
  top: "pool5_2_conv_relu"
}
layer {
  name: "pool5_2_conv2"
  type: "Convolution"
  bottom: "pool5_2_conv_relu"
  top: "pool5_2_conv2"
  param {
    lr_mult: 1
    decay_mult: 1
  }
  param {
    lr_mult: 2
    decay_mult: 0
  }
  convolution_param {
    num_output: 512
    pad: 1
    kernel_size: 3
    stride: 1
    weight_filler {
      type: "gaussian"
      std: 0.01
    }
    bias_filler {
      type: "constant"
      value: 0
    }
  }
}
layer {
  name: "pool5_2_conv2_relu"
  type: "ReLU"
  bottom: "pool5_2_conv2"
  top: "pool5_2_conv2_relu"
}
layer {
  name: "mask_deconv1"
  type: "Deconvolution"
  bottom: "pool5_2_conv2_relu"
  top: "mask_deconv1"
  param {
    lr_mult: 1
    decay_mult: 1
  }
  param {
    lr_mult: 2
    decay_mult: 0
  }
  convolution_param {
    num_output: 256
    pad: 1
    kernel_size: 8
    group: 256
    stride: 4
    weight_filler {
      type: "bilinear"
    }
  }
}
layer {
  name: "pool5_2_conv3"
  type: "Convolution"
  bottom: "mask_deconv1"
  top: "pool5_2_conv3"
  param {
    lr_mult: 1
    decay_mult: 1
  }
  param {
    lr_mult: 2
    decay_mult: 0
  }
  convolution_param {
    num_output: 512
    pad: 1
    kernel_size: 3
    stride: 1
    weight_filler {
      type: "gaussian"
      std: 0.01
    }
    bias_filler {
      type: "constant"
      value: 0
    }
  }
}
layer {
  name: "pool5_2_conv3_relu"
  type: "ReLU"
  bottom: "pool5_2_conv3"
  top: "pool5_2_conv3_relu"
}
layer {
  name: "pool5_2_conv4"
  type: "Convolution"
  bottom: "pool5_2_conv3_relu"
  top: "pool5_2_conv4"
  param {
    lr_mult: 1
    decay_mult: 1
  }
  param {
    lr_mult: 2
    decay_mult: 0
  }
  convolution_param {
    num_output: 512
    pad: 1
    kernel_size: 3
    stride: 1
    weight_filler {
      type: "gaussian"
      std: 0.01
    }
    bias_filler {
      type: "constant"
      value: 0
    }
  }
}
layer {
  name: "pool5_2_conv4_relu"
  type: "ReLU"
  bottom: "pool5_2_conv4"
  top: "pool5_2_conv4_relu"
}
layer {
  name: "query_conv"
  type: "Convolution"
  bottom: "pool5_2_conv4_relu"
  top: "query_conv"
  param {
    lr_mult: 1
    decay_mult: 1
  }
  param {
    lr_mult: 2
    decay_mult: 0
  }
  convolution_param {
    num_output: 64
    pad: 0
    kernel_size: 1
    stride: 1
    weight_filler {
      type: "gaussian"
      std: 0.01
    }
    bias_filler {
      type: "constant"
      value: 0
    }
  }
}
layer {
  name: "key_conv"
  type: "Convolution"
  bottom: "pool5_2_conv4_relu"
  top: "key_conv"
  param {
    lr_mult: 1
    decay_mult: 1
  }
  param {
    lr_mult: 2
    decay_mult: 0
  }
  convolution_param {
    num_output: 64
    pad: 0
    kernel_size: 1
    stride: 1
    weight_filler {
      type: "gaussian"
      std: 0.01
    }
    bias_filler {
      type: "constant"
      value: 0
    }
  }
}
layer {
  name: "value_conv"
  type: "Convolution"
  bottom: "pool5_2_conv4_relu"
  top: "value_conv"
  param {
    lr_mult: 1
    decay_mult: 1
  }
  param {
    lr_mult: 2
    decay_mult: 0
  }
  convolution_param {
    num_output: 512
    pad: 0
    kernel_size: 1
    stride: 1
    weight_filler {
      type: "gaussian"
      std: 0.01
    }
    bias_filler {
      type: "constant"
      value: 0
    }
  }
}
layer {
  name: "query_conv_reshape"
  type: "Reshape"
  bottom: "query_conv"
  top: "query_conv_reshape"
  reshape_param {
    shape {
      dim: -1
      dim: 64
      dim: 900
      dim: 1
    }
  }
}
layer {
  name: "key_conv_reshape"
  type: "Reshape"
  bottom: "key_conv"
  top: "key_conv_reshape"
  reshape_param {
    shape {
      dim: -1
      dim: 64
      dim: 900
      dim: 1
    }
  }
}
layer {
  name: "value_conv_reshape"
  type: "Reshape"
  bottom: "value_conv"
  top: "value_conv_reshape"
  reshape_param {
    shape {
      dim: -1
      dim: 512
      dim: 900
      dim: 1
    }
  }
}
layer {
  name: "query_conv_reshape_perm"
  type: "Permute"
  bottom: "query_conv_reshape"
  top: "query_conv_reshape_perm"
  permute_param {
    order: 0
    order: 3
    order: 2
    order: 1
  }
}
layer {
  name: "key_conv_reshape_perm"
  type: "Permute"
  bottom: "key_conv_reshape"
  top: "key_conv_reshape_perm"
  permute_param {
    order: 0
    order: 3
    order: 1
    order: 2
  }
}
layer {
  name: "energy"
  type: "MatrixMultiplication"
  bottom: "query_conv_reshape_perm"
  bottom: "key_conv_reshape_perm"
  top: "energy"
}
layer {
  name: "attention"
  type: "Softmax"
  bottom: "energy"
  top: "attention"
  softmax_param {
    axis: 3
  }
}
layer {
  name: "value_conv_reshape_perm"
  type: "Permute"
  bottom: "value_conv_reshape"
  top: "value_conv_reshape_perm"
  permute_param {
    order: 0
    order: 3
    order: 1
    order: 2
  }
}
layer {
  name: "attention_perm"
  type: "Permute"
  bottom: "attention"
  top: "attention_perm"
  permute_param {
    order: 0
    order: 1
    order: 2
    order: 3
  }
}
layer {
  name: "out"
  type: "MatrixMultiplication"
  bottom: "value_conv_reshape_perm"
  bottom: "attention_perm"
  top: "out"
}
layer {
  name: "out_reshape"
  type: "Reshape"
  bottom: "out"
  top: "out_reshape"
  reshape_param {
    shape {
      dim: -1
      dim: 512
      dim: 30
      dim: 30
    }
  }
}
layer {
  name: "out_reshape_scale"
  type: "Scale"
  bottom: "out_reshape"
  top: "out_reshape_scale"
  param {
    name: "scale_conv1_1"
    lr_mult: 1
  }
  scale_param {
    bias_term: false
  }
}
layer {
  name: "out_x"
  type: "Eltwise"
  bottom: "out_reshape_scale"
  bottom: "pool5_2_conv4_relu"
  top: "out_x"
  eltwise_param {
    operation: SUM
  }
}
layer {
  name: "mask_deconv2"
  type: "Deconvolution"
  bottom: "out_x"
  top: "mask_deconv2"
  param {
    lr_mult: 1
    decay_mult: 1
  }
  param {
    lr_mult: 2
    decay_mult: 0
  }
  convolution_param {
    num_output: 256
    pad: 1
    kernel_size: 8
    group: 256
    stride: 4
    weight_filler {
      type: "bilinear"
    }
  }
}
layer {
  name: "pool5_2_conv5"
  type: "Convolution"
  bottom: "mask_deconv2"
  top: "pool5_2_conv5"
  param {
    lr_mult: 1
    decay_mult: 1
  }
  param {
    lr_mult: 2
    decay_mult: 0
  }
  convolution_param {
    num_output: 512
    pad: 1
    kernel_size: 3
    stride: 1
    weight_filler {
      type: "gaussian"
      std: 0.01
    }
    bias_filler {
      type: "constant"
      value: 0
    }
  }
}
layer {
  name: "pool5_2_conv5_relu"
  type: "ReLU"
  bottom: "pool5_2_conv5"
  top: "pool5_2_conv5_relu"
}
layer {
  name: "pool5_2_conv6"
  type: "Convolution"
  bottom: "pool5_2_conv5_relu"
  top: "pool5_2_conv6"
  param {
    lr_mult: 1
    decay_mult: 1
  }
  param {
    lr_mult: 2
    decay_mult: 0
  }
  convolution_param {
    num_output: 512
    pad: 1
    kernel_size: 3
    stride: 1
    weight_filler {
      type: "gaussian"
      std: 0.01
    }
    bias_filler {
      type: "constant"
      value: 0
    }
  }
}
layer {
  name: "pool5_2_conv6_relu"
  type: "ReLU"
  bottom: "pool5_2_conv6"
  top: "pool5_2_conv6_relu"
}
layer {
  name: "mask_deconv3"
  type: "Deconvolution"
  bottom: "pool5_2_conv6_relu"
  top: "mask_deconv3"
  param {
    lr_mult: 1
    decay_mult: 1
  }
  param {
    lr_mult: 2
    decay_mult: 0
  }
  convolution_param {
    num_output: 256
    pad: 1
    kernel_size: 4
    group: 256
    stride: 2
    weight_filler {
      type: "bilinear"
    }
  }
}
layer {
  name: "mask_score"
  type: "Convolution"
  bottom: "mask_deconv3"
  top: "mask_score"
  param {
    lr_mult: 1
    decay_mult: 1
  }
  param {
    lr_mult: 2
    decay_mult: 0
  }
  convolution_param {
    num_output: 8
    pad: 0
    kernel_size: 1
    weight_filler {
      type: "gaussian"
      std: 0.01
    }
    bias_filler {
      type: "constant"
      value: 0
    }
  }
}
layer {
  name: "prob"
  type: "Softmax"
  bottom: "mask_score"
  top: "mask_score_softmax"
  softmax_param {
    axis: 1
  }
}
layer {
  name: "log"
  type: "Log"
  bottom: "mask_score_softmax"
  top: "log"
}
layer {
  name: "mult1"
  type: "Eltwise"
  bottom: "log"
  bottom: "mask_targets"
  top: "mult1"
  eltwise_param {
    operation: PROD
  }
}
layer {
  name: "cross_entropy"
  type: "Power"
  bottom: "mult1"
  top: "cross_entropy"
  power_param {
    power: 1
    scale: -1
    shift: 0
  }
}
layer {
  name: "ce_sum"
  type: "Convolution"
  bottom: "cross_entropy"
  top: "cross_entropy_sum"
  param {
    lr_mult: 0
    decay_mult: 0
  }
  convolution_param {
    num_output: 1
    bias_term: false
    kernel_size: 1
    weight_filler {
      type: "constant"
      value: 1
    }
  }
}
layer {
  name: "ce_mean"
  type: "Reduction"
  bottom: "cross_entropy_sum"
  top: "cross_entropy_mean"
  loss_weight: 1
  reduction_param {
    operation: MEAN
    axis: 0
  }
}
I0625 15:11:11.470438 29544 layer_factory.hpp:77] Creating layer input-data
I0625 15:11:11.571702 29544 net.cpp:106] Creating Layer input-data
I0625 15:11:11.571717 29544 net.cpp:411] input-data -> data
I0625 15:11:11.571729 29544 net.cpp:411] input-data -> im_info
I0625 15:11:11.571734 29544 net.cpp:411] input-data -> gt_boxes
I0625 15:11:11.571738 29544 net.cpp:411] input-data -> seg_mask_inds
I0625 15:11:11.571741 29544 net.cpp:411] input-data -> flipped
RoiDataLayer: name_to_top: {'gt_boxes': 2, 'data': 0, 'seg_mask_inds': 3, 'im_info': 1, 'flipped': 4}
I0625 15:11:11.620040 29544 net.cpp:150] Setting up input-data
I0625 15:11:11.620062 29544 net.cpp:157] Top shape: 1 3 600 1000 (1800000)
I0625 15:11:11.620069 29544 net.cpp:157] Top shape: 1 3 (3)
I0625 15:11:11.620074 29544 net.cpp:157] Top shape: 1 4 (4)
I0625 15:11:11.620079 29544 net.cpp:157] Top shape: 1 2 (2)
I0625 15:11:11.620085 29544 net.cpp:157] Top shape: 1 1 (1)
I0625 15:11:11.620088 29544 net.cpp:165] Memory required for data: 7200040
I0625 15:11:11.620096 29544 layer_factory.hpp:77] Creating layer data_input-data_0_split
I0625 15:11:11.621130 29544 net.cpp:106] Creating Layer data_input-data_0_split
I0625 15:11:11.621137 29544 net.cpp:454] data_input-data_0_split <- data
I0625 15:11:11.621141 29544 net.cpp:411] data_input-data_0_split -> data_input-data_0_split_0
I0625 15:11:11.621148 29544 net.cpp:411] data_input-data_0_split -> data_input-data_0_split_1
I0625 15:11:11.621178 29544 net.cpp:150] Setting up data_input-data_0_split
I0625 15:11:11.621186 29544 net.cpp:157] Top shape: 1 3 600 1000 (1800000)
I0625 15:11:11.621189 29544 net.cpp:157] Top shape: 1 3 600 1000 (1800000)
I0625 15:11:11.621191 29544 net.cpp:165] Memory required for data: 21600040
I0625 15:11:11.621194 29544 layer_factory.hpp:77] Creating layer im_info_input-data_1_split
I0625 15:11:11.621201 29544 net.cpp:106] Creating Layer im_info_input-data_1_split
I0625 15:11:11.621206 29544 net.cpp:454] im_info_input-data_1_split <- im_info
I0625 15:11:11.621212 29544 net.cpp:411] im_info_input-data_1_split -> im_info_input-data_1_split_0
I0625 15:11:11.621218 29544 net.cpp:411] im_info_input-data_1_split -> im_info_input-data_1_split_1
I0625 15:11:11.621225 29544 net.cpp:411] im_info_input-data_1_split -> im_info_input-data_1_split_2
I0625 15:11:11.621258 29544 net.cpp:150] Setting up im_info_input-data_1_split
I0625 15:11:11.621263 29544 net.cpp:157] Top shape: 1 3 (3)
I0625 15:11:11.621265 29544 net.cpp:157] Top shape: 1 3 (3)
I0625 15:11:11.621269 29544 net.cpp:157] Top shape: 1 3 (3)
I0625 15:11:11.621273 29544 net.cpp:165] Memory required for data: 21600076
I0625 15:11:11.621278 29544 layer_factory.hpp:77] Creating layer gt_boxes_input-data_2_split
I0625 15:11:11.621284 29544 net.cpp:106] Creating Layer gt_boxes_input-data_2_split
I0625 15:11:11.621289 29544 net.cpp:454] gt_boxes_input-data_2_split <- gt_boxes
I0625 15:11:11.621294 29544 net.cpp:411] gt_boxes_input-data_2_split -> gt_boxes_input-data_2_split_0
I0625 15:11:11.621300 29544 net.cpp:411] gt_boxes_input-data_2_split -> gt_boxes_input-data_2_split_1
I0625 15:11:11.621335 29544 net.cpp:150] Setting up gt_boxes_input-data_2_split
I0625 15:11:11.621340 29544 net.cpp:157] Top shape: 1 4 (4)
I0625 15:11:11.621341 29544 net.cpp:157] Top shape: 1 4 (4)
I0625 15:11:11.621343 29544 net.cpp:165] Memory required for data: 21600108
I0625 15:11:11.621345 29544 layer_factory.hpp:77] Creating layer conv1_1
I0625 15:11:11.621356 29544 net.cpp:106] Creating Layer conv1_1
I0625 15:11:11.621361 29544 net.cpp:454] conv1_1 <- data_input-data_0_split_0
I0625 15:11:11.621366 29544 net.cpp:411] conv1_1 -> conv1_1
I0625 15:11:12.109077 29544 net.cpp:150] Setting up conv1_1
I0625 15:11:12.109097 29544 net.cpp:157] Top shape: 1 64 600 1000 (38400000)
I0625 15:11:12.109099 29544 net.cpp:165] Memory required for data: 175200108
I0625 15:11:12.109110 29544 layer_factory.hpp:77] Creating layer relu1_1
I0625 15:11:12.109119 29544 net.cpp:106] Creating Layer relu1_1
I0625 15:11:12.109123 29544 net.cpp:454] relu1_1 <- conv1_1
I0625 15:11:12.109127 29544 net.cpp:397] relu1_1 -> conv1_1 (in-place)
I0625 15:11:12.109244 29544 net.cpp:150] Setting up relu1_1
I0625 15:11:12.109251 29544 net.cpp:157] Top shape: 1 64 600 1000 (38400000)
I0625 15:11:12.109252 29544 net.cpp:165] Memory required for data: 328800108
I0625 15:11:12.109256 29544 layer_factory.hpp:77] Creating layer conv1_2
I0625 15:11:12.109262 29544 net.cpp:106] Creating Layer conv1_2
I0625 15:11:12.109264 29544 net.cpp:454] conv1_2 <- conv1_1
I0625 15:11:12.109267 29544 net.cpp:411] conv1_2 -> conv1_2
I0625 15:11:12.111521 29544 net.cpp:150] Setting up conv1_2
I0625 15:11:12.111531 29544 net.cpp:157] Top shape: 1 64 600 1000 (38400000)
I0625 15:11:12.111533 29544 net.cpp:165] Memory required for data: 482400108
I0625 15:11:12.111541 29544 layer_factory.hpp:77] Creating layer relu1_2
I0625 15:11:12.111546 29544 net.cpp:106] Creating Layer relu1_2
I0625 15:11:12.111548 29544 net.cpp:454] relu1_2 <- conv1_2
I0625 15:11:12.111552 29544 net.cpp:397] relu1_2 -> conv1_2 (in-place)
I0625 15:11:12.111676 29544 net.cpp:150] Setting up relu1_2
I0625 15:11:12.111681 29544 net.cpp:157] Top shape: 1 64 600 1000 (38400000)
I0625 15:11:12.111683 29544 net.cpp:165] Memory required for data: 636000108
I0625 15:11:12.111685 29544 layer_factory.hpp:77] Creating layer pool1
I0625 15:11:12.111701 29544 net.cpp:106] Creating Layer pool1
I0625 15:11:12.111704 29544 net.cpp:454] pool1 <- conv1_2
I0625 15:11:12.111707 29544 net.cpp:411] pool1 -> pool1
I0625 15:11:12.112326 29544 net.cpp:150] Setting up pool1
I0625 15:11:12.112332 29544 net.cpp:157] Top shape: 1 64 300 500 (9600000)
I0625 15:11:12.112334 29544 net.cpp:165] Memory required for data: 674400108
I0625 15:11:12.112335 29544 layer_factory.hpp:77] Creating layer conv2_1
I0625 15:11:12.112350 29544 net.cpp:106] Creating Layer conv2_1
I0625 15:11:12.112354 29544 net.cpp:454] conv2_1 <- pool1
I0625 15:11:12.112356 29544 net.cpp:411] conv2_1 -> conv2_1
I0625 15:11:12.114485 29544 net.cpp:150] Setting up conv2_1
I0625 15:11:12.114495 29544 net.cpp:157] Top shape: 1 128 300 500 (19200000)
I0625 15:11:12.114496 29544 net.cpp:165] Memory required for data: 751200108
I0625 15:11:12.114503 29544 layer_factory.hpp:77] Creating layer relu2_1
I0625 15:11:12.114508 29544 net.cpp:106] Creating Layer relu2_1
I0625 15:11:12.114511 29544 net.cpp:454] relu2_1 <- conv2_1
I0625 15:11:12.114513 29544 net.cpp:397] relu2_1 -> conv2_1 (in-place)
I0625 15:11:12.114953 29544 net.cpp:150] Setting up relu2_1
I0625 15:11:12.114961 29544 net.cpp:157] Top shape: 1 128 300 500 (19200000)
I0625 15:11:12.114964 29544 net.cpp:165] Memory required for data: 828000108
I0625 15:11:12.114965 29544 layer_factory.hpp:77] Creating layer conv2_2
I0625 15:11:12.114971 29544 net.cpp:106] Creating Layer conv2_2
I0625 15:11:12.114974 29544 net.cpp:454] conv2_2 <- conv2_1
I0625 15:11:12.114976 29544 net.cpp:411] conv2_2 -> conv2_2
I0625 15:11:12.117053 29544 net.cpp:150] Setting up conv2_2
I0625 15:11:12.117063 29544 net.cpp:157] Top shape: 1 128 300 500 (19200000)
I0625 15:11:12.117064 29544 net.cpp:165] Memory required for data: 904800108
I0625 15:11:12.117069 29544 layer_factory.hpp:77] Creating layer relu2_2
I0625 15:11:12.117072 29544 net.cpp:106] Creating Layer relu2_2
I0625 15:11:12.117075 29544 net.cpp:454] relu2_2 <- conv2_2
I0625 15:11:12.117079 29544 net.cpp:397] relu2_2 -> conv2_2 (in-place)
I0625 15:11:12.117190 29544 net.cpp:150] Setting up relu2_2
I0625 15:11:12.117197 29544 net.cpp:157] Top shape: 1 128 300 500 (19200000)
I0625 15:11:12.117198 29544 net.cpp:165] Memory required for data: 981600108
I0625 15:11:12.117200 29544 layer_factory.hpp:77] Creating layer pool2
I0625 15:11:12.117204 29544 net.cpp:106] Creating Layer pool2
I0625 15:11:12.117206 29544 net.cpp:454] pool2 <- conv2_2
I0625 15:11:12.117209 29544 net.cpp:411] pool2 -> pool2
I0625 15:11:12.117235 29544 net.cpp:150] Setting up pool2
I0625 15:11:12.117239 29544 net.cpp:157] Top shape: 1 128 150 250 (4800000)
I0625 15:11:12.117241 29544 net.cpp:165] Memory required for data: 1000800108
I0625 15:11:12.117242 29544 layer_factory.hpp:77] Creating layer conv3_1
I0625 15:11:12.117247 29544 net.cpp:106] Creating Layer conv3_1
I0625 15:11:12.117249 29544 net.cpp:454] conv3_1 <- pool2
I0625 15:11:12.117252 29544 net.cpp:411] conv3_1 -> conv3_1
I0625 15:11:12.119673 29544 net.cpp:150] Setting up conv3_1
I0625 15:11:12.119683 29544 net.cpp:157] Top shape: 1 256 150 250 (9600000)
I0625 15:11:12.119685 29544 net.cpp:165] Memory required for data: 1039200108
I0625 15:11:12.119693 29544 layer_factory.hpp:77] Creating layer relu3_1
I0625 15:11:12.119696 29544 net.cpp:106] Creating Layer relu3_1
I0625 15:11:12.119699 29544 net.cpp:454] relu3_1 <- conv3_1
I0625 15:11:12.119701 29544 net.cpp:397] relu3_1 -> conv3_1 (in-place)
I0625 15:11:12.119813 29544 net.cpp:150] Setting up relu3_1
I0625 15:11:12.119819 29544 net.cpp:157] Top shape: 1 256 150 250 (9600000)
I0625 15:11:12.119822 29544 net.cpp:165] Memory required for data: 1077600108
I0625 15:11:12.119823 29544 layer_factory.hpp:77] Creating layer conv3_2
I0625 15:11:12.119830 29544 net.cpp:106] Creating Layer conv3_2
I0625 15:11:12.119832 29544 net.cpp:454] conv3_2 <- conv3_1
I0625 15:11:12.119835 29544 net.cpp:411] conv3_2 -> conv3_2
I0625 15:11:12.121846 29544 net.cpp:150] Setting up conv3_2
I0625 15:11:12.121858 29544 net.cpp:157] Top shape: 1 256 150 250 (9600000)
I0625 15:11:12.121861 29544 net.cpp:165] Memory required for data: 1116000108
I0625 15:11:12.121870 29544 layer_factory.hpp:77] Creating layer relu3_2
I0625 15:11:12.121884 29544 net.cpp:106] Creating Layer relu3_2
I0625 15:11:12.121889 29544 net.cpp:454] relu3_2 <- conv3_2
I0625 15:11:12.121896 29544 net.cpp:397] relu3_2 -> conv3_2 (in-place)
I0625 15:11:12.122036 29544 net.cpp:150] Setting up relu3_2
I0625 15:11:12.122045 29544 net.cpp:157] Top shape: 1 256 150 250 (9600000)
I0625 15:11:12.122048 29544 net.cpp:165] Memory required for data: 1154400108
I0625 15:11:12.122051 29544 layer_factory.hpp:77] Creating layer conv3_3
I0625 15:11:12.122058 29544 net.cpp:106] Creating Layer conv3_3
I0625 15:11:12.122061 29544 net.cpp:454] conv3_3 <- conv3_2
I0625 15:11:12.122066 29544 net.cpp:411] conv3_3 -> conv3_3
I0625 15:11:12.124202 29544 net.cpp:150] Setting up conv3_3
I0625 15:11:12.124217 29544 net.cpp:157] Top shape: 1 256 150 250 (9600000)
I0625 15:11:12.124218 29544 net.cpp:165] Memory required for data: 1192800108
I0625 15:11:12.124224 29544 layer_factory.hpp:77] Creating layer relu3_3
I0625 15:11:12.124229 29544 net.cpp:106] Creating Layer relu3_3
I0625 15:11:12.124233 29544 net.cpp:454] relu3_3 <- conv3_3
I0625 15:11:12.124236 29544 net.cpp:397] relu3_3 -> conv3_3 (in-place)
I0625 15:11:12.124346 29544 net.cpp:150] Setting up relu3_3
I0625 15:11:12.124351 29544 net.cpp:157] Top shape: 1 256 150 250 (9600000)
I0625 15:11:12.124353 29544 net.cpp:165] Memory required for data: 1231200108
I0625 15:11:12.124356 29544 layer_factory.hpp:77] Creating layer pool3
I0625 15:11:12.124359 29544 net.cpp:106] Creating Layer pool3
I0625 15:11:12.124361 29544 net.cpp:454] pool3 <- conv3_3
I0625 15:11:12.124366 29544 net.cpp:411] pool3 -> pool3
I0625 15:11:12.124392 29544 net.cpp:150] Setting up pool3
I0625 15:11:12.124397 29544 net.cpp:157] Top shape: 1 256 75 125 (2400000)
I0625 15:11:12.124397 29544 net.cpp:165] Memory required for data: 1240800108
I0625 15:11:12.124399 29544 layer_factory.hpp:77] Creating layer conv4_1
I0625 15:11:12.124405 29544 net.cpp:106] Creating Layer conv4_1
I0625 15:11:12.124406 29544 net.cpp:454] conv4_1 <- pool3
I0625 15:11:12.124409 29544 net.cpp:411] conv4_1 -> conv4_1
I0625 15:11:12.129178 29544 net.cpp:150] Setting up conv4_1
I0625 15:11:12.129196 29544 net.cpp:157] Top shape: 1 512 75 125 (4800000)
I0625 15:11:12.129199 29544 net.cpp:165] Memory required for data: 1260000108
I0625 15:11:12.129205 29544 layer_factory.hpp:77] Creating layer relu4_1
I0625 15:11:12.129214 29544 net.cpp:106] Creating Layer relu4_1
I0625 15:11:12.129227 29544 net.cpp:454] relu4_1 <- conv4_1
I0625 15:11:12.129232 29544 net.cpp:397] relu4_1 -> conv4_1 (in-place)
I0625 15:11:12.129354 29544 net.cpp:150] Setting up relu4_1
I0625 15:11:12.129360 29544 net.cpp:157] Top shape: 1 512 75 125 (4800000)
I0625 15:11:12.129362 29544 net.cpp:165] Memory required for data: 1279200108
I0625 15:11:12.129364 29544 layer_factory.hpp:77] Creating layer conv4_2
I0625 15:11:12.129370 29544 net.cpp:106] Creating Layer conv4_2
I0625 15:11:12.129372 29544 net.cpp:454] conv4_2 <- conv4_1
I0625 15:11:12.129375 29544 net.cpp:411] conv4_2 -> conv4_2
I0625 15:11:12.134016 29544 net.cpp:150] Setting up conv4_2
I0625 15:11:12.134034 29544 net.cpp:157] Top shape: 1 512 75 125 (4800000)
I0625 15:11:12.134037 29544 net.cpp:165] Memory required for data: 1298400108
I0625 15:11:12.134049 29544 layer_factory.hpp:77] Creating layer relu4_2
I0625 15:11:12.134057 29544 net.cpp:106] Creating Layer relu4_2
I0625 15:11:12.134060 29544 net.cpp:454] relu4_2 <- conv4_2
I0625 15:11:12.134064 29544 net.cpp:397] relu4_2 -> conv4_2 (in-place)
I0625 15:11:12.134552 29544 net.cpp:150] Setting up relu4_2
I0625 15:11:12.134562 29544 net.cpp:157] Top shape: 1 512 75 125 (4800000)
I0625 15:11:12.134563 29544 net.cpp:165] Memory required for data: 1317600108
I0625 15:11:12.134565 29544 layer_factory.hpp:77] Creating layer conv4_3
I0625 15:11:12.134572 29544 net.cpp:106] Creating Layer conv4_3
I0625 15:11:12.134575 29544 net.cpp:454] conv4_3 <- conv4_2
I0625 15:11:12.134579 29544 net.cpp:411] conv4_3 -> conv4_3
I0625 15:11:12.138893 29544 net.cpp:150] Setting up conv4_3
I0625 15:11:12.138916 29544 net.cpp:157] Top shape: 1 512 75 125 (4800000)
I0625 15:11:12.138918 29544 net.cpp:165] Memory required for data: 1336800108
I0625 15:11:12.138926 29544 layer_factory.hpp:77] Creating layer relu4_3
I0625 15:11:12.138936 29544 net.cpp:106] Creating Layer relu4_3
I0625 15:11:12.138942 29544 net.cpp:454] relu4_3 <- conv4_3
I0625 15:11:12.138947 29544 net.cpp:397] relu4_3 -> conv4_3 (in-place)
I0625 15:11:12.139070 29544 net.cpp:150] Setting up relu4_3
I0625 15:11:12.139076 29544 net.cpp:157] Top shape: 1 512 75 125 (4800000)
I0625 15:11:12.139078 29544 net.cpp:165] Memory required for data: 1356000108
I0625 15:11:12.139081 29544 layer_factory.hpp:77] Creating layer pool4
I0625 15:11:12.139086 29544 net.cpp:106] Creating Layer pool4
I0625 15:11:12.139087 29544 net.cpp:454] pool4 <- conv4_3
I0625 15:11:12.139091 29544 net.cpp:411] pool4 -> pool4
I0625 15:11:12.139118 29544 net.cpp:150] Setting up pool4
I0625 15:11:12.139122 29544 net.cpp:157] Top shape: 1 512 38 63 (1225728)
I0625 15:11:12.139124 29544 net.cpp:165] Memory required for data: 1360903020
I0625 15:11:12.139125 29544 layer_factory.hpp:77] Creating layer conv5_1
I0625 15:11:12.139132 29544 net.cpp:106] Creating Layer conv5_1
I0625 15:11:12.139134 29544 net.cpp:454] conv5_1 <- pool4
I0625 15:11:12.139138 29544 net.cpp:411] conv5_1 -> conv5_1
I0625 15:11:12.143560 29544 net.cpp:150] Setting up conv5_1
I0625 15:11:12.143579 29544 net.cpp:157] Top shape: 1 512 38 63 (1225728)
I0625 15:11:12.143581 29544 net.cpp:165] Memory required for data: 1365805932
I0625 15:11:12.143589 29544 layer_factory.hpp:77] Creating layer relu5_1
I0625 15:11:12.143595 29544 net.cpp:106] Creating Layer relu5_1
I0625 15:11:12.143599 29544 net.cpp:454] relu5_1 <- conv5_1
I0625 15:11:12.143602 29544 net.cpp:397] relu5_1 -> conv5_1 (in-place)
I0625 15:11:12.143710 29544 net.cpp:150] Setting up relu5_1
I0625 15:11:12.143715 29544 net.cpp:157] Top shape: 1 512 38 63 (1225728)
I0625 15:11:12.143718 29544 net.cpp:165] Memory required for data: 1370708844
I0625 15:11:12.143719 29544 layer_factory.hpp:77] Creating layer conv5_2
I0625 15:11:12.143725 29544 net.cpp:106] Creating Layer conv5_2
I0625 15:11:12.143728 29544 net.cpp:454] conv5_2 <- conv5_1
I0625 15:11:12.143730 29544 net.cpp:411] conv5_2 -> conv5_2
I0625 15:11:12.148392 29544 net.cpp:150] Setting up conv5_2
I0625 15:11:12.148413 29544 net.cpp:157] Top shape: 1 512 38 63 (1225728)
I0625 15:11:12.148416 29544 net.cpp:165] Memory required for data: 1375611756
I0625 15:11:12.148424 29544 layer_factory.hpp:77] Creating layer relu5_2
I0625 15:11:12.148432 29544 net.cpp:106] Creating Layer relu5_2
I0625 15:11:12.148437 29544 net.cpp:454] relu5_2 <- conv5_2
I0625 15:11:12.148442 29544 net.cpp:397] relu5_2 -> conv5_2 (in-place)
I0625 15:11:12.148583 29544 net.cpp:150] Setting up relu5_2
I0625 15:11:12.148591 29544 net.cpp:157] Top shape: 1 512 38 63 (1225728)
I0625 15:11:12.148593 29544 net.cpp:165] Memory required for data: 1380514668
I0625 15:11:12.148596 29544 layer_factory.hpp:77] Creating layer conv5_3
I0625 15:11:12.148604 29544 net.cpp:106] Creating Layer conv5_3
I0625 15:11:12.148607 29544 net.cpp:454] conv5_3 <- conv5_2
I0625 15:11:12.148610 29544 net.cpp:411] conv5_3 -> conv5_3
I0625 15:11:12.153165 29544 net.cpp:150] Setting up conv5_3
I0625 15:11:12.153184 29544 net.cpp:157] Top shape: 1 512 38 63 (1225728)
I0625 15:11:12.153187 29544 net.cpp:165] Memory required for data: 1385417580
I0625 15:11:12.153194 29544 layer_factory.hpp:77] Creating layer relu5_3
I0625 15:11:12.153213 29544 net.cpp:106] Creating Layer relu5_3
I0625 15:11:12.153216 29544 net.cpp:454] relu5_3 <- conv5_3
I0625 15:11:12.153220 29544 net.cpp:397] relu5_3 -> conv5_3 (in-place)
I0625 15:11:12.153340 29544 net.cpp:150] Setting up relu5_3
I0625 15:11:12.153347 29544 net.cpp:157] Top shape: 1 512 38 63 (1225728)
I0625 15:11:12.153348 29544 net.cpp:165] Memory required for data: 1390320492
I0625 15:11:12.153350 29544 layer_factory.hpp:77] Creating layer conv5_3_relu5_3_0_split
I0625 15:11:12.153363 29544 net.cpp:106] Creating Layer conv5_3_relu5_3_0_split
I0625 15:11:12.153367 29544 net.cpp:454] conv5_3_relu5_3_0_split <- conv5_3
I0625 15:11:12.153370 29544 net.cpp:411] conv5_3_relu5_3_0_split -> conv5_3_relu5_3_0_split_0
I0625 15:11:12.153384 29544 net.cpp:411] conv5_3_relu5_3_0_split -> conv5_3_relu5_3_0_split_1
I0625 15:11:12.153388 29544 net.cpp:411] conv5_3_relu5_3_0_split -> conv5_3_relu5_3_0_split_2
I0625 15:11:12.153435 29544 net.cpp:150] Setting up conv5_3_relu5_3_0_split
I0625 15:11:12.153439 29544 net.cpp:157] Top shape: 1 512 38 63 (1225728)
I0625 15:11:12.153441 29544 net.cpp:157] Top shape: 1 512 38 63 (1225728)
I0625 15:11:12.153443 29544 net.cpp:157] Top shape: 1 512 38 63 (1225728)
I0625 15:11:12.153445 29544 net.cpp:165] Memory required for data: 1405029228
I0625 15:11:12.153446 29544 layer_factory.hpp:77] Creating layer rpn_conv/3x3
I0625 15:11:12.153465 29544 net.cpp:106] Creating Layer rpn_conv/3x3
I0625 15:11:12.153466 29544 net.cpp:454] rpn_conv/3x3 <- conv5_3_relu5_3_0_split_0
I0625 15:11:12.153471 29544 net.cpp:411] rpn_conv/3x3 -> rpn/output
I0625 15:11:12.205150 29544 net.cpp:150] Setting up rpn_conv/3x3
I0625 15:11:12.205173 29544 net.cpp:157] Top shape: 1 512 38 63 (1225728)
I0625 15:11:12.205176 29544 net.cpp:165] Memory required for data: 1409932140
I0625 15:11:12.205194 29544 layer_factory.hpp:77] Creating layer rpn_relu/3x3
I0625 15:11:12.205204 29544 net.cpp:106] Creating Layer rpn_relu/3x3
I0625 15:11:12.205207 29544 net.cpp:454] rpn_relu/3x3 <- rpn/output
I0625 15:11:12.205212 29544 net.cpp:397] rpn_relu/3x3 -> rpn/output (in-place)
I0625 15:11:12.205349 29544 net.cpp:150] Setting up rpn_relu/3x3
I0625 15:11:12.205358 29544 net.cpp:157] Top shape: 1 512 38 63 (1225728)
I0625 15:11:12.205359 29544 net.cpp:165] Memory required for data: 1414835052
I0625 15:11:12.205363 29544 layer_factory.hpp:77] Creating layer rpn/output_rpn_relu/3x3_0_split
I0625 15:11:12.205376 29544 net.cpp:106] Creating Layer rpn/output_rpn_relu/3x3_0_split
I0625 15:11:12.205379 29544 net.cpp:454] rpn/output_rpn_relu/3x3_0_split <- rpn/output
I0625 15:11:12.205382 29544 net.cpp:411] rpn/output_rpn_relu/3x3_0_split -> rpn/output_rpn_relu/3x3_0_split_0
I0625 15:11:12.205386 29544 net.cpp:411] rpn/output_rpn_relu/3x3_0_split -> rpn/output_rpn_relu/3x3_0_split_1
I0625 15:11:12.205420 29544 net.cpp:150] Setting up rpn/output_rpn_relu/3x3_0_split
I0625 15:11:12.205423 29544 net.cpp:157] Top shape: 1 512 38 63 (1225728)
I0625 15:11:12.205425 29544 net.cpp:157] Top shape: 1 512 38 63 (1225728)
I0625 15:11:12.205427 29544 net.cpp:165] Memory required for data: 1424640876
I0625 15:11:12.205430 29544 layer_factory.hpp:77] Creating layer rpn_cls_score
I0625 15:11:12.205436 29544 net.cpp:106] Creating Layer rpn_cls_score
I0625 15:11:12.205440 29544 net.cpp:454] rpn_cls_score <- rpn/output_rpn_relu/3x3_0_split_0
I0625 15:11:12.205442 29544 net.cpp:411] rpn_cls_score -> rpn_cls_score
I0625 15:11:12.207345 29544 net.cpp:150] Setting up rpn_cls_score
I0625 15:11:12.207360 29544 net.cpp:157] Top shape: 1 30 38 63 (71820)
I0625 15:11:12.207362 29544 net.cpp:165] Memory required for data: 1424928156
I0625 15:11:12.207379 29544 layer_factory.hpp:77] Creating layer rpn_cls_score_rpn_cls_score_0_split
I0625 15:11:12.207386 29544 net.cpp:106] Creating Layer rpn_cls_score_rpn_cls_score_0_split
I0625 15:11:12.207388 29544 net.cpp:454] rpn_cls_score_rpn_cls_score_0_split <- rpn_cls_score
I0625 15:11:12.207393 29544 net.cpp:411] rpn_cls_score_rpn_cls_score_0_split -> rpn_cls_score_rpn_cls_score_0_split_0
I0625 15:11:12.207399 29544 net.cpp:411] rpn_cls_score_rpn_cls_score_0_split -> rpn_cls_score_rpn_cls_score_0_split_1
I0625 15:11:12.207427 29544 net.cpp:150] Setting up rpn_cls_score_rpn_cls_score_0_split
I0625 15:11:12.207432 29544 net.cpp:157] Top shape: 1 30 38 63 (71820)
I0625 15:11:12.207443 29544 net.cpp:157] Top shape: 1 30 38 63 (71820)
I0625 15:11:12.207445 29544 net.cpp:165] Memory required for data: 1425502716
I0625 15:11:12.207448 29544 layer_factory.hpp:77] Creating layer rpn_bbox_pred
I0625 15:11:12.207464 29544 net.cpp:106] Creating Layer rpn_bbox_pred
I0625 15:11:12.207468 29544 net.cpp:454] rpn_bbox_pred <- rpn/output_rpn_relu/3x3_0_split_1
I0625 15:11:12.207471 29544 net.cpp:411] rpn_bbox_pred -> rpn_bbox_pred
I0625 15:11:12.209046 29544 net.cpp:150] Setting up rpn_bbox_pred
I0625 15:11:12.209059 29544 net.cpp:157] Top shape: 1 60 38 63 (143640)
I0625 15:11:12.209064 29544 net.cpp:165] Memory required for data: 1426077276
I0625 15:11:12.209071 29544 layer_factory.hpp:77] Creating layer rpn_bbox_pred_rpn_bbox_pred_0_split
I0625 15:11:12.209079 29544 net.cpp:106] Creating Layer rpn_bbox_pred_rpn_bbox_pred_0_split
I0625 15:11:12.209082 29544 net.cpp:454] rpn_bbox_pred_rpn_bbox_pred_0_split <- rpn_bbox_pred
I0625 15:11:12.209089 29544 net.cpp:411] rpn_bbox_pred_rpn_bbox_pred_0_split -> rpn_bbox_pred_rpn_bbox_pred_0_split_0
I0625 15:11:12.209096 29544 net.cpp:411] rpn_bbox_pred_rpn_bbox_pred_0_split -> rpn_bbox_pred_rpn_bbox_pred_0_split_1
I0625 15:11:12.209131 29544 net.cpp:150] Setting up rpn_bbox_pred_rpn_bbox_pred_0_split
I0625 15:11:12.209136 29544 net.cpp:157] Top shape: 1 60 38 63 (143640)
I0625 15:11:12.209138 29544 net.cpp:157] Top shape: 1 60 38 63 (143640)
I0625 15:11:12.209139 29544 net.cpp:165] Memory required for data: 1427226396
I0625 15:11:12.209141 29544 layer_factory.hpp:77] Creating layer rpn_cls_score_reshape
I0625 15:11:12.209151 29544 net.cpp:106] Creating Layer rpn_cls_score_reshape
I0625 15:11:12.209154 29544 net.cpp:454] rpn_cls_score_reshape <- rpn_cls_score_rpn_cls_score_0_split_0
I0625 15:11:12.209158 29544 net.cpp:411] rpn_cls_score_reshape -> rpn_cls_score_reshape
I0625 15:11:12.209177 29544 net.cpp:150] Setting up rpn_cls_score_reshape
I0625 15:11:12.209179 29544 net.cpp:157] Top shape: 1 2 570 63 (71820)
I0625 15:11:12.209182 29544 net.cpp:165] Memory required for data: 1427513676
I0625 15:11:12.209183 29544 layer_factory.hpp:77] Creating layer rpn_cls_score_reshape_rpn_cls_score_reshape_0_split
I0625 15:11:12.209187 29544 net.cpp:106] Creating Layer rpn_cls_score_reshape_rpn_cls_score_reshape_0_split
I0625 15:11:12.209189 29544 net.cpp:454] rpn_cls_score_reshape_rpn_cls_score_reshape_0_split <- rpn_cls_score_reshape
I0625 15:11:12.209192 29544 net.cpp:411] rpn_cls_score_reshape_rpn_cls_score_reshape_0_split -> rpn_cls_score_reshape_rpn_cls_score_reshape_0_split_0
I0625 15:11:12.209195 29544 net.cpp:411] rpn_cls_score_reshape_rpn_cls_score_reshape_0_split -> rpn_cls_score_reshape_rpn_cls_score_reshape_0_split_1
I0625 15:11:12.209216 29544 net.cpp:150] Setting up rpn_cls_score_reshape_rpn_cls_score_reshape_0_split
I0625 15:11:12.209219 29544 net.cpp:157] Top shape: 1 2 570 63 (71820)
I0625 15:11:12.209223 29544 net.cpp:157] Top shape: 1 2 570 63 (71820)
I0625 15:11:12.209223 29544 net.cpp:165] Memory required for data: 1428088236
I0625 15:11:12.209225 29544 layer_factory.hpp:77] Creating layer rpn-data
I0625 15:11:12.210244 29544 net.cpp:106] Creating Layer rpn-data
I0625 15:11:12.210253 29544 net.cpp:454] rpn-data <- rpn_cls_score_rpn_cls_score_0_split_1
I0625 15:11:12.210271 29544 net.cpp:454] rpn-data <- gt_boxes_input-data_2_split_0
I0625 15:11:12.210275 29544 net.cpp:454] rpn-data <- im_info_input-data_1_split_0
I0625 15:11:12.210278 29544 net.cpp:454] rpn-data <- data_input-data_0_split_1
I0625 15:11:12.210283 29544 net.cpp:411] rpn-data -> rpn_labels
I0625 15:11:12.210286 29544 net.cpp:411] rpn-data -> rpn_bbox_targets
I0625 15:11:12.210291 29544 net.cpp:411] rpn-data -> rpn_bbox_inside_weights
I0625 15:11:12.210295 29544 net.cpp:411] rpn-data -> rpn_bbox_outside_weights
===================================anchor_scales in AnchorTargetLayer:=============(2, 4, 8, 16, 32)
I0625 15:11:12.211447 29544 net.cpp:150] Setting up rpn-data
I0625 15:11:12.211457 29544 net.cpp:157] Top shape: 1 1 570 63 (35910)
I0625 15:11:12.211460 29544 net.cpp:157] Top shape: 1 60 38 63 (143640)
I0625 15:11:12.211462 29544 net.cpp:157] Top shape: 1 60 38 63 (143640)
I0625 15:11:12.211464 29544 net.cpp:157] Top shape: 1 60 38 63 (143640)
I0625 15:11:12.211467 29544 net.cpp:165] Memory required for data: 1429955556
I0625 15:11:12.211469 29544 layer_factory.hpp:77] Creating layer rpn_loss_cls
I0625 15:11:12.211475 29544 net.cpp:106] Creating Layer rpn_loss_cls
I0625 15:11:12.211478 29544 net.cpp:454] rpn_loss_cls <- rpn_cls_score_reshape_rpn_cls_score_reshape_0_split_0
I0625 15:11:12.211482 29544 net.cpp:454] rpn_loss_cls <- rpn_labels
…
