…
average_loss: 100
iter_size: 2
I0625 17:10:33.535006   431 solver.cpp:81] Creating training net from train_net file: models/pascal_voc/VGG16/faster_rcnn_end2end/train.prototxt
I0625 17:10:33.536365   431 net.cpp:49] Initializing net from parameters: 
name: "VGG_ILSVRC_16_layers"
state {
  phase: TRAIN
}
layer {
  name: "input-data"
  type: "Python"
  top: "data"
  top: "im_info"
  top: "gt_boxes"
  top: "seg_mask_inds"
  top: "flipped"
  python_param {
    module: "roi_data_layer.layer"
    layer: "RoIDataLayer"
    param_str: "\'num_classes\': 2"
  }
}
layer {
  name: "conv1_1"
  type: "Convolution"
  bottom: "data"
  top: "conv1_1"
  param {
    lr_mult: 0
    decay_mult: 0
  }
  param {
    lr_mult: 0
    decay_mult: 0
  }
  convolution_param {
    num_output: 64
    pad: 1
    kernel_size: 3
  }
}
layer {
  name: "relu1_1"
  type: "ReLU"
  bottom: "conv1_1"
  top: "conv1_1"
}
layer {
  name: "conv1_2"
  type: "Convolution"
  bottom: "conv1_1"
  top: "conv1_2"
  param {
    lr_mult: 0
    decay_mult: 0
  }
  param {
    lr_mult: 0
    decay_mult: 0
  }
  convolution_param {
    num_output: 64
    pad: 1
    kernel_size: 3
  }
}
layer {
  name: "relu1_2"
  type: "ReLU"
  bottom: "conv1_2"
  top: "conv1_2"
}
layer {
  name: "pool1"
  type: "Pooling"
  bottom: "conv1_2"
  top: "pool1"
  pooling_param {
    pool: MAX
    kernel_size: 2
    stride: 2
  }
}
layer {
  name: "conv2_1"
  type: "Convolution"
  bottom: "pool1"
  top: "conv2_1"
  param {
    lr_mult: 0
    decay_mult: 0
  }
  param {
    lr_mult: 0
    decay_mult: 0
  }
  convolution_param {
    num_output: 128
    pad: 1
    kernel_size: 3
  }
}
layer {
  name: "relu2_1"
  type: "ReLU"
  bottom: "conv2_1"
  top: "conv2_1"
}
layer {
  name: "conv2_2"
  type: "Convolution"
  bottom: "conv2_1"
  top: "conv2_2"
  param {
    lr_mult: 0
    decay_mult: 0
  }
  param {
    lr_mult: 0
    decay_mult: 0
  }
  convolution_param {
    num_output: 128
    pad: 1
    kernel_size: 3
  }
}
layer {
  name: "relu2_2"
  type: "ReLU"
  bottom: "conv2_2"
  top: "conv2_2"
}
layer {
  name: "pool2"
  type: "Pooling"
  bottom: "conv2_2"
  top: "pool2"
  pooling_param {
    pool: MAX
    kernel_size: 2
    stride: 2
  }
}
layer {
  name: "conv3_1"
  type: "Convolution"
  bottom: "pool2"
  top: "conv3_1"
  param {
    lr_mult: 1
  }
  param {
    lr_mult: 2
  }
  convolution_param {
    num_output: 256
    pad: 1
    kernel_size: 3
  }
}
layer {
  name: "relu3_1"
  type: "ReLU"
  bottom: "conv3_1"
  top: "conv3_1"
}
layer {
  name: "conv3_2"
  type: "Convolution"
  bottom: "conv3_1"
  top: "conv3_2"
  param {
    lr_mult: 1
  }
  param {
    lr_mult: 2
  }
  convolution_param {
    num_output: 256
    pad: 1
    kernel_size: 3
  }
}
layer {
  name: "relu3_2"
  type: "ReLU"
  bottom: "conv3_2"
  top: "conv3_2"
}
layer {
  name: "conv3_3"
  type: "Convolution"
  bottom: "conv3_2"
  top: "conv3_3"
  param {
    lr_mult: 1
  }
  param {
    lr_mult: 2
  }
  convolution_param {
    num_output: 256
    pad: 1
    kernel_size: 3
  }
}
layer {
  name: "relu3_3"
  type: "ReLU"
  bottom: "conv3_3"
  top: "conv3_3"
}
layer {
  name: "pool3"
  type: "Pooling"
  bottom: "conv3_3"
  top: "pool3"
  pooling_param {
    pool: MAX
    kernel_size: 2
    stride: 2
  }
}
layer {
  name: "conv4_1"
  type: "Convolution"
  bottom: "pool3"
  top: "conv4_1"
  param {
    lr_mult: 1
  }
  param {
    lr_mult: 2
  }
  convolution_param {
    num_output: 512
    pad: 1
    kernel_size: 3
  }
}
layer {
  name: "relu4_1"
  type: "ReLU"
  bottom: "conv4_1"
  top: "conv4_1"
}
layer {
  name: "conv4_2"
  type: "Convolution"
  bottom: "conv4_1"
  top: "conv4_2"
  param {
    lr_mult: 1
  }
  param {
    lr_mult: 2
  }
  convolution_param {
    num_output: 512
    pad: 1
    kernel_size: 3
  }
}
layer {
  name: "relu4_2"
  type: "ReLU"
  bottom: "conv4_2"
  top: "conv4_2"
}
layer {
  name: "conv4_3"
  type: "Convolution"
  bottom: "conv4_2"
  top: "conv4_3"
  param {
    lr_mult: 1
  }
  param {
    lr_mult: 2
  }
  convolution_param {
    num_output: 512
    pad: 1
    kernel_size: 3
  }
}
layer {
  name: "relu4_3"
  type: "ReLU"
  bottom: "conv4_3"
  top: "conv4_3"
}
layer {
  name: "pool4"
  type: "Pooling"
  bottom: "conv4_3"
  top: "pool4"
  pooling_param {
    pool: MAX
    kernel_size: 2
    stride: 2
  }
}
layer {
  name: "conv5_1"
  type: "Convolution"
  bottom: "pool4"
  top: "conv5_1"
  param {
    lr_mult: 1
  }
  param {
    lr_mult: 2
  }
  convolution_param {
    num_output: 512
    pad: 1
    kernel_size: 3
  }
}
layer {
  name: "relu5_1"
  type: "ReLU"
  bottom: "conv5_1"
  top: "conv5_1"
}
layer {
  name: "conv5_2"
  type: "Convolution"
  bottom: "conv5_1"
  top: "conv5_2"
  param {
    lr_mult: 1
  }
  param {
    lr_mult: 2
  }
  convolution_param {
    num_output: 512
    pad: 1
    kernel_size: 3
  }
}
layer {
  name: "relu5_2"
  type: "ReLU"
  bottom: "conv5_2"
  top: "conv5_2"
}
layer {
  name: "conv5_3"
  type: "Convolution"
  bottom: "conv5_2"
  top: "conv5_3"
  param {
    lr_mult: 1
  }
  param {
    lr_mult: 2
  }
  convolution_param {
    num_output: 512
    pad: 1
    kernel_size: 3
  }
}
layer {
  name: "relu5_3"
  type: "ReLU"
  bottom: "conv5_3"
  top: "conv5_3"
}
layer {
  name: "rpn_conv/3x3"
  type: "Convolution"
  bottom: "conv5_3"
  top: "rpn/output"
  param {
    lr_mult: 1
  }
  param {
    lr_mult: 2
  }
  convolution_param {
    num_output: 512
    pad: 1
    kernel_size: 3
    stride: 1
    weight_filler {
      type: "gaussian"
      std: 0.01
    }
    bias_filler {
      type: "constant"
      value: 0
    }
  }
}
layer {
  name: "rpn_relu/3x3"
  type: "ReLU"
  bottom: "rpn/output"
  top: "rpn/output"
}
layer {
  name: "rpn_cls_score"
  type: "Convolution"
  bottom: "rpn/output"
  top: "rpn_cls_score"
  param {
    lr_mult: 1
  }
  param {
    lr_mult: 2
  }
  convolution_param {
    num_output: 30
    pad: 0
    kernel_size: 1
    stride: 1
    weight_filler {
      type: "gaussian"
      std: 0.01
    }
    bias_filler {
      type: "constant"
      value: 0
    }
  }
}
layer {
  name: "rpn_bbox_pred"
  type: "Convolution"
  bottom: "rpn/output"
  top: "rpn_bbox_pred"
  param {
    lr_mult: 1
  }
  param {
    lr_mult: 2
  }
  convolution_param {
    num_output: 60
    pad: 0
    kernel_size: 1
    stride: 1
    weight_filler {
      type: "gaussian"
      std: 0.01
    }
    bias_filler {
      type: "constant"
      value: 0
    }
  }
}
layer {
  name: "rpn_cls_score_reshape"
  type: "Reshape"
  bottom: "rpn_cls_score"
  top: "rpn_cls_score_reshape"
  reshape_param {
    shape {
      dim: 0
      dim: 2
      dim: -1
      dim: 0
    }
  }
}
layer {
  name: "rpn-data"
  type: "Python"
  bottom: "rpn_cls_score"
  bottom: "gt_boxes"
  bottom: "im_info"
  bottom: "data"
  top: "rpn_labels"
  top: "rpn_bbox_targets"
  top: "rpn_bbox_inside_weights"
  top: "rpn_bbox_outside_weights"
  python_param {
    module: "rpn.anchor_target_layer"
    layer: "AnchorTargetLayer"
    param_str: "\'feat_stride\': 16 \n\'scales\': !!python/tuple [2, 4, 8, 16, 32]"
  }
}
layer {
  name: "rpn_loss_cls"
  type: "SoftmaxWithLoss"
  bottom: "rpn_cls_score_reshape"
  bottom: "rpn_labels"
  top: "rpn_cls_loss"
  loss_weight: 1
  propagate_down: true
  propagate_down: false
  loss_param {
    ignore_label: -1
    normalize: true
  }
}
layer {
  name: "rpn_loss_bbox"
  type: "SmoothL1Loss"
  bottom: "rpn_bbox_pred"
  bottom: "rpn_bbox_targets"
  bottom: "rpn_bbox_inside_weights"
  bottom: "rpn_bbox_outside_weights"
  top: "rpn_loss_bbox"
  loss_weight: 1
  smooth_l1_loss_param {
    sigma: 3
  }
}
layer {
  name: "rpn_cls_prob"
  type: "Softmax"
  bottom: "rpn_cls_score_reshape"
  top: "rpn_cls_prob"
}
layer {
  name: "rpn_cls_prob_reshape"
  type: "Reshape"
  bottom: "rpn_cls_prob"
  top: "rpn_cls_prob_reshape"
  reshape_param {
    shape {
      dim: 0
      dim: 30
      dim: -1
      dim: 0
    }
  }
}
layer {
  name: "proposal"
  type: "Python"
  bottom: "rpn_cls_prob_reshape"
  bottom: "rpn_bbox_pred"
  bottom: "im_info"
  top: "rpn_rois"
  python_param {
    module: "rpn.proposal_layer"
    layer: "ProposalLayer"
    param_str: "\'feat_stride\': 16 \n\'scales\': !!python/tuple [2, 4, 8, 16, 32]"
  }
}
layer {
  name: "roi-data"
  type: "Python"
  bottom: "rpn_rois"
  bottom: "gt_boxes"
  bottom: "im_info"
  bottom: "seg_mask_inds"
  bottom: "flipped"
  top: "rois"
  top: "labels"
  top: "bbox_targets"
  top: "bbox_inside_weights"
  top: "bbox_outside_weights"
  top: "mask_targets"
  top: "rois_pos"
  top: "attrArray"
  top: "attrArrayInd"
  top: "attrArrayShift"
  python_param {
    module: "rpn.proposal_target_layer"
    layer: "ProposalTargetLayer"
    param_str: "\'num_classes\': 2"
  }
}
layer {
  name: "roi_pool5"
  type: "ROIAlignment"
  bottom: "conv5_3"
  bottom: "rois"
  top: "pool5"
  roi_alignment_param {
    pooled_h: 7
    pooled_w: 7
    spatial_scale: 0.0625
  }
}
layer {
  name: "fc6"
  type: "InnerProduct"
  bottom: "pool5"
  top: "fc6"
  param {
    lr_mult: 1
  }
  param {
    lr_mult: 2
  }
  inner_product_param {
    num_output: 4096
  }
}
layer {
  name: "relu6"
  type: "ReLU"
  bottom: "fc6"
  top: "fc6"
}
layer {
  name: "fc7"
  type: "InnerProduct"
  bottom: "fc6"
  top: "fc7"
  param {
    lr_mult: 1
  }
  param {
    lr_mult: 2
  }
  inner_product_param {
    num_output: 4096
  }
}
layer {
  name: "relu7"
  type: "ReLU"
  bottom: "fc7"
  top: "fc7"
}
layer {
  name: "attr_score"
  type: "InnerProduct"
  bottom: "fc7"
  top: "attr_score"
  param {
    lr_mult: 1
  }
  param {
    lr_mult: 2
  }
  inner_product_param {
    num_output: 7
    weight_filler {
      type: "gaussian"
      std: 0.001
    }
    bias_filler {
      type: "constant"
      value: 0
    }
  }
}
layer {
  name: "attr_score_pos"
  type: "Eltwise"
  bottom: "attr_score"
  bottom: "attrArrayInd"
  top: "attr_score_pos"
  eltwise_param {
    operation: PROD
  }
}
layer {
  name: "attr_score_pos_shift"
  type: "Eltwise"
  bottom: "attr_score_pos"
  bottom: "attrArrayShift"
  top: "attr_score_pos_shift"
  eltwise_param {
    operation: SUM
  }
}
layer {
  name: "cls_score"
  type: "InnerProduct"
  bottom: "fc7"
  top: "cls_score"
  param {
    lr_mult: 1
  }
  param {
    lr_mult: 2
  }
  inner_product_param {
    num_output: 2
    weight_filler {
      type: "gaussian"
      std: 0.01
    }
    bias_filler {
      type: "constant"
      value: 0
    }
  }
}
layer {
  name: "bbox_pred"
  type: "InnerProduct"
  bottom: "fc7"
  top: "bbox_pred"
  param {
    lr_mult: 1
  }
  param {
    lr_mult: 2
  }
  inner_product_param {
    num_output: 8
    weight_filler {
      type: "gaussian"
      std: 0.001
    }
    bias_filler {
      type: "constant"
      value: 0
    }
  }
}
layer {
  name: "loss_attribute"
  type: "SigmoidCrossEntropyLoss"
  bottom: "attr_score_pos_shift"
  bottom: "attrArray"
  top: "loss_attribute"
  loss_weight: 1
  propagate_down: true
  propagate_down: false
}
layer {
  name: "loss_cls"
  type: "SoftmaxWithLoss"
  bottom: "cls_score"
  bottom: "labels"
  top: "loss_cls"
  loss_weight: 3
  propagate_down: true
  propagate_down: false
}
layer {
  name: "loss_bbox"
  type: "SmoothL1Loss"
  bottom: "bbox_pred"
  bottom: "bbox_targets"
  bottom: "bbox_inside_weights"
  bottom: "bbox_outside_weights"
  top: "loss_bbox"
  loss_weight: 2
}
layer {
  name: "roi_pool5_2"
  type: "ROIAlignment"
  bottom: "conv5_3"
  bottom: "rois_pos"
  top: "pool5_2"
  roi_alignment_param {
    pooled_h: 7
    pooled_w: 7
    spatial_scale: 0.0625
  }
}
layer {
  name: "pool5_2_conv"
  type: "Convolution"
  bottom: "pool5_2"
  top: "pool5_2_conv"
  param {
    lr_mult: 1
    decay_mult: 1
  }
  param {
    lr_mult: 2
    decay_mult: 0
  }
  convolution_param {
    num_output: 512
    pad: 0
    kernel_size: 1
    weight_filler {
      type: "gaussian"
      std: 0.01
    }
    bias_filler {
      type: "constant"
      value: 0
    }
  }
}
layer {
  name: "pool5_2_conv_relu"
  type: "ReLU"
  bottom: "pool5_2_conv"
  top: "pool5_2_conv_relu"
}
layer {
  name: "pool5_2_conv2"
  type: "Convolution"
  bottom: "pool5_2_conv_relu"
  top: "pool5_2_conv2"
  param {
    lr_mult: 1
    decay_mult: 1
  }
  param {
    lr_mult: 2
    decay_mult: 0
  }
  convolution_param {
    num_output: 512
    pad: 1
    kernel_size: 3
    stride: 1
    weight_filler {
      type: "gaussian"
      std: 0.01
    }
    bias_filler {
      type: "constant"
      value: 0
    }
  }
}
layer {
  name: "pool5_2_conv2_relu"
  type: "ReLU"
  bottom: "pool5_2_conv2"
  top: "pool5_2_conv2_relu"
}
layer {
  name: "mask_deconv1"
  type: "Deconvolution"
  bottom: "pool5_2_conv2_relu"
  top: "mask_deconv1"
  param {
    lr_mult: 1
    decay_mult: 1
  }
  param {
    lr_mult: 2
    decay_mult: 0
  }
  convolution_param {
    num_output: 256
    pad: 1
    kernel_size: 8
    group: 256
    stride: 4
    weight_filler {
      type: "bilinear"
    }
  }
}
layer {
  name: "pool5_2_conv3"
  type: "Convolution"
  bottom: "mask_deconv1"
  top: "pool5_2_conv3"
  param {
    lr_mult: 1
    decay_mult: 1
  }
  param {
    lr_mult: 2
    decay_mult: 0
  }
  convolution_param {
    num_output: 512
    pad: 1
    kernel_size: 3
    stride: 1
    weight_filler {
      type: "gaussian"
      std: 0.01
    }
    bias_filler {
      type: "constant"
      value: 0
    }
  }
}
layer {
  name: "pool5_2_conv3_relu"
  type: "ReLU"
  bottom: "pool5_2_conv3"
  top: "pool5_2_conv3_relu"
}
layer {
  name: "pool5_2_conv4"
  type: "Convolution"
  bottom: "pool5_2_conv3_relu"
  top: "pool5_2_conv4"
  param {
    lr_mult: 1
    decay_mult: 1
  }
  param {
    lr_mult: 2
    decay_mult: 0
  }
  convolution_param {
    num_output: 512
    pad: 1
    kernel_size: 3
    stride: 1
    weight_filler {
      type: "gaussian"
      std: 0.01
    }
    bias_filler {
      type: "constant"
      value: 0
    }
  }
}
layer {
  name: "pool5_2_conv4_relu"
  type: "ReLU"
  bottom: "pool5_2_conv4"
  top: "pool5_2_conv4_relu"
}
layer {
  name: "query_conv"
  type: "Convolution"
  bottom: "pool5_2_conv4_relu"
  top: "query_conv"
  param {
    lr_mult: 1
    decay_mult: 1
  }
  param {
    lr_mult: 2
    decay_mult: 0
  }
  convolution_param {
    num_output: 64
    pad: 0
    kernel_size: 1
    stride: 1
    weight_filler {
      type: "gaussian"
      std: 0.01
    }
    bias_filler {
      type: "constant"
      value: 0
    }
  }
}
layer {
  name: "key_conv"
  type: "Convolution"
  bottom: "pool5_2_conv4_relu"
  top: "key_conv"
  param {
    lr_mult: 1
    decay_mult: 1
  }
  param {
    lr_mult: 2
    decay_mult: 0
  }
  convolution_param {
    num_output: 64
    pad: 0
    kernel_size: 1
    stride: 1
    weight_filler {
      type: "gaussian"
      std: 0.01
    }
    bias_filler {
      type: "constant"
      value: 0
    }
  }
}
layer {
  name: "value_conv"
  type: "Convolution"
  bottom: "pool5_2_conv4_relu"
  top: "value_conv"
  param {
    lr_mult: 1
    decay_mult: 1
  }
  param {
    lr_mult: 2
    decay_mult: 0
  }
  convolution_param {
    num_output: 512
    pad: 0
    kernel_size: 1
    stride: 1
    weight_filler {
      type: "gaussian"
      std: 0.01
    }
    bias_filler {
      type: "constant"
      value: 0
    }
  }
}
layer {
  name: "query_conv_reshape"
  type: "Reshape"
  bottom: "query_conv"
  top: "query_conv_reshape"
  reshape_param {
    shape {
      dim: -1
      dim: 64
      dim: 900
      dim: 1
    }
  }
}
layer {
  name: "key_conv_reshape"
  type: "Reshape"
  bottom: "key_conv"
  top: "key_conv_reshape"
  reshape_param {
    shape {
      dim: -1
      dim: 64
      dim: 900
      dim: 1
    }
  }
}
layer {
  name: "value_conv_reshape"
  type: "Reshape"
  bottom: "value_conv"
  top: "value_conv_reshape"
  reshape_param {
    shape {
      dim: -1
      dim: 512
      dim: 900
      dim: 1
    }
  }
}
layer {
  name: "query_conv_reshape_perm"
  type: "Permute"
  bottom: "query_conv_reshape"
  top: "query_conv_reshape_perm"
  permute_param {
    order: 0
    order: 3
    order: 2
    order: 1
  }
}
layer {
  name: "key_conv_reshape_perm"
  type: "Permute"
  bottom: "key_conv_reshape"
  top: "key_conv_reshape_perm"
  permute_param {
    order: 0
    order: 3
    order: 1
    order: 2
  }
}
layer {
  name: "energy"
  type: "MatrixMultiplication"
  bottom: "query_conv_reshape_perm"
  bottom: "key_conv_reshape_perm"
  top: "energy"
}
layer {
  name: "attention"
  type: "Softmax"
  bottom: "energy"
  top: "attention"
  softmax_param {
    axis: 3
  }
}
layer {
  name: "value_conv_reshape_perm"
  type: "Permute"
  bottom: "value_conv_reshape"
  top: "value_conv_reshape_perm"
  permute_param {
    order: 0
    order: 3
    order: 1
    order: 2
  }
}
layer {
  name: "attention_perm"
  type: "Permute"
  bottom: "attention"
  top: "attention_perm"
  permute_param {
    order: 0
    order: 1
    order: 2
    order: 3
  }
}
layer {
  name: "out"
  type: "MatrixMultiplication"
  bottom: "value_conv_reshape_perm"
  bottom: "attention_perm"
  top: "out"
}
layer {
  name: "out_reshape"
  type: "Reshape"
  bottom: "out"
  top: "out_reshape"
  reshape_param {
    shape {
      dim: -1
      dim: 512
      dim: 30
      dim: 30
    }
  }
}
layer {
  name: "out_reshape_scale"
  type: "Scale"
  bottom: "out_reshape"
  top: "out_reshape_scale"
  param {
    name: "scale_conv1_1"
    lr_mult: 1
  }
  scale_param {
    bias_term: false
  }
}
layer {
  name: "out_x"
  type: "Eltwise"
  bottom: "out_reshape_scale"
  bottom: "pool5_2_conv4_relu"
  top: "out_x"
  eltwise_param {
    operation: SUM
  }
}
layer {
  name: "mask_deconv2"
  type: "Deconvolution"
  bottom: "out_x"
  top: "mask_deconv2"
  param {
    lr_mult: 1
    decay_mult: 1
  }
  param {
    lr_mult: 2
    decay_mult: 0
  }
  convolution_param {
    num_output: 256
    pad: 1
    kernel_size: 8
    group: 256
    stride: 4
    weight_filler {
      type: "bilinear"
    }
  }
}
layer {
  name: "pool5_2_conv5"
  type: "Convolution"
  bottom: "mask_deconv2"
  top: "pool5_2_conv5"
  param {
    lr_mult: 1
    decay_mult: 1
  }
  param {
    lr_mult: 2
    decay_mult: 0
  }
  convolution_param {
    num_output: 512
    pad: 1
    kernel_size: 3
    stride: 1
    weight_filler {
      type: "gaussian"
      std: 0.01
    }
    bias_filler {
      type: "constant"
      value: 0
    }
  }
}
layer {
  name: "pool5_2_conv5_relu"
  type: "ReLU"
  bottom: "pool5_2_conv5"
  top: "pool5_2_conv5_relu"
}
layer {
  name: "pool5_2_conv6"
  type: "Convolution"
  bottom: "pool5_2_conv5_relu"
  top: "pool5_2_conv6"
  param {
    lr_mult: 1
    decay_mult: 1
  }
  param {
    lr_mult: 2
    decay_mult: 0
  }
  convolution_param {
    num_output: 512
    pad: 1
    kernel_size: 3
    stride: 1
    weight_filler {
      type: "gaussian"
      std: 0.01
    }
    bias_filler {
      type: "constant"
      value: 0
    }
  }
}
layer {
  name: "pool5_2_conv6_relu"
  type: "ReLU"
  bottom: "pool5_2_conv6"
  top: "pool5_2_conv6_relu"
}
layer {
  name: "mask_deconv3"
  type: "Deconvolution"
  bottom: "pool5_2_conv6_relu"
  top: "mask_deconv3"
  param {
    lr_mult: 1
    decay_mult: 1
  }
  param {
    lr_mult: 2
    decay_mult: 0
  }
  convolution_param {
    num_output: 256
    pad: 1
    kernel_size: 4
    group: 256
    stride: 2
    weight_filler {
      type: "bilinear"
    }
  }
}
layer {
  name: "mask_score"
  type: "Convolution"
  bottom: "mask_deconv3"
  top: "mask_score"
  param {
    lr_mult: 1
    decay_mult: 1
  }
  param {
    lr_mult: 2
    decay_mult: 0
  }
  convolution_param {
    num_output: 8
    pad: 0
    kernel_size: 1
    weight_filler {
      type: "gaussian"
      std: 0.01
    }
    bias_filler {
      type: "constant"
      value: 0
    }
  }
}
layer {
  name: "prob"
  type: "Softmax"
  bottom: "mask_score"
  top: "mask_score_softmax"
  softmax_param {
    axis: 1
  }
}
layer {
  name: "log"
  type: "Log"
  bottom: "mask_score_softmax"
  top: "log"
}
layer {
  name: "mult1"
  type: "Eltwise"
  bottom: "log"
  bottom: "mask_targets"
  top: "mult1"
  eltwise_param {
    operation: PROD
  }
}
layer {
  name: "cross_entropy"
  type: "Power"
  bottom: "mult1"
  top: "cross_entropy"
  power_param {
    power: 1
    scale: -1
    shift: 0
  }
}
layer {
  name: "ce_sum"
  type: "Convolution"
  bottom: "cross_entropy"
  top: "cross_entropy_sum"
  param {
    lr_mult: 0
    decay_mult: 0
  }
  convolution_param {
    num_output: 1
    bias_term: false
    kernel_size: 1
    weight_filler {
      type: "constant"
      value: 1
    }
  }
}
layer {
  name: "ce_mean"
  type: "Reduction"
  bottom: "cross_entropy_sum"
  top: "cross_entropy_mean"
  loss_weight: 1
  reduction_param {
    operation: MEAN
    axis: 0
  }
}
I0625 17:10:33.536696   431 layer_factory.hpp:77] Creating layer input-data
I0625 17:10:33.548399   431 net.cpp:106] Creating Layer input-data
I0625 17:10:33.548425   431 net.cpp:411] input-data -> data
I0625 17:10:33.548432   431 net.cpp:411] input-data -> im_info
I0625 17:10:33.548447   431 net.cpp:411] input-data -> gt_boxes
I0625 17:10:33.548454   431 net.cpp:411] input-data -> seg_mask_inds
I0625 17:10:33.548457   431 net.cpp:411] input-data -> flipped
RoiDataLayer: name_to_top: {'gt_boxes': 2, 'data': 0, 'seg_mask_inds': 3, 'im_info': 1, 'flipped': 4}
I0625 17:10:33.559553   431 net.cpp:150] Setting up input-data
I0625 17:10:33.559571   431 net.cpp:157] Top shape: 1 3 600 1000 (1800000)
I0625 17:10:33.559584   431 net.cpp:157] Top shape: 1 3 (3)
I0625 17:10:33.559587   431 net.cpp:157] Top shape: 1 4 (4)
I0625 17:10:33.559602   431 net.cpp:157] Top shape: 1 2 (2)
I0625 17:10:33.559605   431 net.cpp:157] Top shape: 1 1 (1)
I0625 17:10:33.559609   431 net.cpp:165] Memory required for data: 7200040
I0625 17:10:33.559625   431 layer_factory.hpp:77] Creating layer data_input-data_0_split
I0625 17:10:33.559639   431 net.cpp:106] Creating Layer data_input-data_0_split
I0625 17:10:33.559643   431 net.cpp:454] data_input-data_0_split <- data
I0625 17:10:33.559649   431 net.cpp:411] data_input-data_0_split -> data_input-data_0_split_0
I0625 17:10:33.559657   431 net.cpp:411] data_input-data_0_split -> data_input-data_0_split_1
I0625 17:10:33.559682   431 net.cpp:150] Setting up data_input-data_0_split
I0625 17:10:33.559696   431 net.cpp:157] Top shape: 1 3 600 1000 (1800000)
I0625 17:10:33.559700   431 net.cpp:157] Top shape: 1 3 600 1000 (1800000)
I0625 17:10:33.559713   431 net.cpp:165] Memory required for data: 21600040
I0625 17:10:33.559716   431 layer_factory.hpp:77] Creating layer im_info_input-data_1_split
I0625 17:10:33.559721   431 net.cpp:106] Creating Layer im_info_input-data_1_split
I0625 17:10:33.559725   431 net.cpp:454] im_info_input-data_1_split <- im_info
I0625 17:10:33.559729   431 net.cpp:411] im_info_input-data_1_split -> im_info_input-data_1_split_0
I0625 17:10:33.559736   431 net.cpp:411] im_info_input-data_1_split -> im_info_input-data_1_split_1
I0625 17:10:33.559743   431 net.cpp:411] im_info_input-data_1_split -> im_info_input-data_1_split_2
I0625 17:10:33.559767   431 net.cpp:150] Setting up im_info_input-data_1_split
I0625 17:10:33.559770   431 net.cpp:157] Top shape: 1 3 (3)
I0625 17:10:33.559772   431 net.cpp:157] Top shape: 1 3 (3)
I0625 17:10:33.559775   431 net.cpp:157] Top shape: 1 3 (3)
I0625 17:10:33.559777   431 net.cpp:165] Memory required for data: 21600076
I0625 17:10:33.559778   431 layer_factory.hpp:77] Creating layer gt_boxes_input-data_2_split
I0625 17:10:33.559782   431 net.cpp:106] Creating Layer gt_boxes_input-data_2_split
I0625 17:10:33.559784   431 net.cpp:454] gt_boxes_input-data_2_split <- gt_boxes
I0625 17:10:33.559788   431 net.cpp:411] gt_boxes_input-data_2_split -> gt_boxes_input-data_2_split_0
I0625 17:10:33.559793   431 net.cpp:411] gt_boxes_input-data_2_split -> gt_boxes_input-data_2_split_1
I0625 17:10:33.559814   431 net.cpp:150] Setting up gt_boxes_input-data_2_split
I0625 17:10:33.559818   431 net.cpp:157] Top shape: 1 4 (4)
I0625 17:10:33.559823   431 net.cpp:157] Top shape: 1 4 (4)
I0625 17:10:33.559825   431 net.cpp:165] Memory required for data: 21600108
I0625 17:10:33.559828   431 layer_factory.hpp:77] Creating layer conv1_1
I0625 17:10:33.559835   431 net.cpp:106] Creating Layer conv1_1
I0625 17:10:33.559839   431 net.cpp:454] conv1_1 <- data_input-data_0_split_0
I0625 17:10:33.559842   431 net.cpp:411] conv1_1 -> conv1_1
I0625 17:10:33.722692   431 net.cpp:150] Setting up conv1_1
I0625 17:10:33.722710   431 net.cpp:157] Top shape: 1 64 600 1000 (38400000)
I0625 17:10:33.722713   431 net.cpp:165] Memory required for data: 175200108
I0625 17:10:33.722724   431 layer_factory.hpp:77] Creating layer relu1_1
I0625 17:10:33.722745   431 net.cpp:106] Creating Layer relu1_1
I0625 17:10:33.722749   431 net.cpp:454] relu1_1 <- conv1_1
I0625 17:10:33.722754   431 net.cpp:397] relu1_1 -> conv1_1 (in-place)
I0625 17:10:33.722868   431 net.cpp:150] Setting up relu1_1
I0625 17:10:33.722874   431 net.cpp:157] Top shape: 1 64 600 1000 (38400000)
I0625 17:10:33.722877   431 net.cpp:165] Memory required for data: 328800108
I0625 17:10:33.722878   431 layer_factory.hpp:77] Creating layer conv1_2
I0625 17:10:33.722885   431 net.cpp:106] Creating Layer conv1_2
I0625 17:10:33.722887   431 net.cpp:454] conv1_2 <- conv1_1
I0625 17:10:33.722890   431 net.cpp:411] conv1_2 -> conv1_2
I0625 17:10:33.725100   431 net.cpp:150] Setting up conv1_2
I0625 17:10:33.725109   431 net.cpp:157] Top shape: 1 64 600 1000 (38400000)
I0625 17:10:33.725111   431 net.cpp:165] Memory required for data: 482400108
I0625 17:10:33.725117   431 layer_factory.hpp:77] Creating layer relu1_2
I0625 17:10:33.725122   431 net.cpp:106] Creating Layer relu1_2
I0625 17:10:33.725124   431 net.cpp:454] relu1_2 <- conv1_2
I0625 17:10:33.725138   431 net.cpp:397] relu1_2 -> conv1_2 (in-place)
I0625 17:10:33.725248   431 net.cpp:150] Setting up relu1_2
I0625 17:10:33.725255   431 net.cpp:157] Top shape: 1 64 600 1000 (38400000)
I0625 17:10:33.725255   431 net.cpp:165] Memory required for data: 636000108
I0625 17:10:33.725258   431 layer_factory.hpp:77] Creating layer pool1
I0625 17:10:33.725263   431 net.cpp:106] Creating Layer pool1
I0625 17:10:33.725265   431 net.cpp:454] pool1 <- conv1_2
I0625 17:10:33.725270   431 net.cpp:411] pool1 -> pool1
I0625 17:10:33.725317   431 net.cpp:150] Setting up pool1
I0625 17:10:33.725322   431 net.cpp:157] Top shape: 1 64 300 500 (9600000)
I0625 17:10:33.725333   431 net.cpp:165] Memory required for data: 674400108
I0625 17:10:33.725335   431 layer_factory.hpp:77] Creating layer conv2_1
I0625 17:10:33.725339   431 net.cpp:106] Creating Layer conv2_1
I0625 17:10:33.725342   431 net.cpp:454] conv2_1 <- pool1
I0625 17:10:33.725345   431 net.cpp:411] conv2_1 -> conv2_1
I0625 17:10:33.727052   431 net.cpp:150] Setting up conv2_1
I0625 17:10:33.727062   431 net.cpp:157] Top shape: 1 128 300 500 (19200000)
I0625 17:10:33.727064   431 net.cpp:165] Memory required for data: 751200108
I0625 17:10:33.727071   431 layer_factory.hpp:77] Creating layer relu2_1
I0625 17:10:33.727075   431 net.cpp:106] Creating Layer relu2_1
I0625 17:10:33.727077   431 net.cpp:454] relu2_1 <- conv2_1
I0625 17:10:33.727090   431 net.cpp:397] relu2_1 -> conv2_1 (in-place)
I0625 17:10:33.727526   431 net.cpp:150] Setting up relu2_1
I0625 17:10:33.727535   431 net.cpp:157] Top shape: 1 128 300 500 (19200000)
I0625 17:10:33.727536   431 net.cpp:165] Memory required for data: 828000108
I0625 17:10:33.727538   431 layer_factory.hpp:77] Creating layer conv2_2
I0625 17:10:33.727543   431 net.cpp:106] Creating Layer conv2_2
I0625 17:10:33.727545   431 net.cpp:454] conv2_2 <- conv2_1
I0625 17:10:33.727550   431 net.cpp:411] conv2_2 -> conv2_2
I0625 17:10:33.728762   431 net.cpp:150] Setting up conv2_2
I0625 17:10:33.728771   431 net.cpp:157] Top shape: 1 128 300 500 (19200000)
I0625 17:10:33.728773   431 net.cpp:165] Memory required for data: 904800108
I0625 17:10:33.728777   431 layer_factory.hpp:77] Creating layer relu2_2
I0625 17:10:33.728781   431 net.cpp:106] Creating Layer relu2_2
I0625 17:10:33.728783   431 net.cpp:454] relu2_2 <- conv2_2
I0625 17:10:33.728786   431 net.cpp:397] relu2_2 -> conv2_2 (in-place)
I0625 17:10:33.728907   431 net.cpp:150] Setting up relu2_2
I0625 17:10:33.728914   431 net.cpp:157] Top shape: 1 128 300 500 (19200000)
I0625 17:10:33.728915   431 net.cpp:165] Memory required for data: 981600108
I0625 17:10:33.728917   431 layer_factory.hpp:77] Creating layer pool2
I0625 17:10:33.728921   431 net.cpp:106] Creating Layer pool2
I0625 17:10:33.728922   431 net.cpp:454] pool2 <- conv2_2
I0625 17:10:33.728926   431 net.cpp:411] pool2 -> pool2
I0625 17:10:33.728968   431 net.cpp:150] Setting up pool2
I0625 17:10:33.728972   431 net.cpp:157] Top shape: 1 128 150 250 (4800000)
I0625 17:10:33.728986   431 net.cpp:165] Memory required for data: 1000800108
I0625 17:10:33.728988   431 layer_factory.hpp:77] Creating layer conv3_1
I0625 17:10:33.728992   431 net.cpp:106] Creating Layer conv3_1
I0625 17:10:33.728994   431 net.cpp:454] conv3_1 <- pool2
I0625 17:10:33.729007   431 net.cpp:411] conv3_1 -> conv3_1
I0625 17:10:33.730978   431 net.cpp:150] Setting up conv3_1
I0625 17:10:33.731031   431 net.cpp:157] Top shape: 1 256 150 250 (9600000)
I0625 17:10:33.731042   431 net.cpp:165] Memory required for data: 1039200108
I0625 17:10:33.731062   431 layer_factory.hpp:77] Creating layer relu3_1
I0625 17:10:33.731081   431 net.cpp:106] Creating Layer relu3_1
I0625 17:10:33.731093   431 net.cpp:454] relu3_1 <- conv3_1
I0625 17:10:33.731106   431 net.cpp:397] relu3_1 -> conv3_1 (in-place)
I0625 17:10:33.731289   431 net.cpp:150] Setting up relu3_1
I0625 17:10:33.731308   431 net.cpp:157] Top shape: 1 256 150 250 (9600000)
I0625 17:10:33.731317   431 net.cpp:165] Memory required for data: 1077600108
I0625 17:10:33.731326   431 layer_factory.hpp:77] Creating layer conv3_2
I0625 17:10:33.731349   431 net.cpp:106] Creating Layer conv3_2
I0625 17:10:33.731360   431 net.cpp:454] conv3_2 <- conv3_1
I0625 17:10:33.731372   431 net.cpp:411] conv3_2 -> conv3_2
I0625 17:10:33.734674   431 net.cpp:150] Setting up conv3_2
I0625 17:10:33.734738   431 net.cpp:157] Top shape: 1 256 150 250 (9600000)
I0625 17:10:33.734753   431 net.cpp:165] Memory required for data: 1116000108
I0625 17:10:33.734776   431 layer_factory.hpp:77] Creating layer relu3_2
I0625 17:10:33.734800   431 net.cpp:106] Creating Layer relu3_2
I0625 17:10:33.734814   431 net.cpp:454] relu3_2 <- conv3_2
I0625 17:10:33.734830   431 net.cpp:397] relu3_2 -> conv3_2 (in-place)
I0625 17:10:33.735033   431 net.cpp:150] Setting up relu3_2
I0625 17:10:33.735054   431 net.cpp:157] Top shape: 1 256 150 250 (9600000)
I0625 17:10:33.735064   431 net.cpp:165] Memory required for data: 1154400108
I0625 17:10:33.735074   431 layer_factory.hpp:77] Creating layer conv3_3
I0625 17:10:33.735091   431 net.cpp:106] Creating Layer conv3_3
I0625 17:10:33.735102   431 net.cpp:454] conv3_3 <- conv3_2
I0625 17:10:33.735116   431 net.cpp:411] conv3_3 -> conv3_3
I0625 17:10:33.738242   431 net.cpp:150] Setting up conv3_3
I0625 17:10:33.738312   431 net.cpp:157] Top shape: 1 256 150 250 (9600000)
I0625 17:10:33.738323   431 net.cpp:165] Memory required for data: 1192800108
I0625 17:10:33.738340   431 layer_factory.hpp:77] Creating layer relu3_3
I0625 17:10:33.738360   431 net.cpp:106] Creating Layer relu3_3
I0625 17:10:33.738374   431 net.cpp:454] relu3_3 <- conv3_3
I0625 17:10:33.738386   431 net.cpp:397] relu3_3 -> conv3_3 (in-place)
I0625 17:10:33.738548   431 net.cpp:150] Setting up relu3_3
I0625 17:10:33.738564   431 net.cpp:157] Top shape: 1 256 150 250 (9600000)
I0625 17:10:33.738572   431 net.cpp:165] Memory required for data: 1231200108
I0625 17:10:33.738581   431 layer_factory.hpp:77] Creating layer pool3
I0625 17:10:33.738596   431 net.cpp:106] Creating Layer pool3
I0625 17:10:33.738605   431 net.cpp:454] pool3 <- conv3_3
I0625 17:10:33.738617   431 net.cpp:411] pool3 -> pool3
I0625 17:10:33.738665   431 net.cpp:150] Setting up pool3
I0625 17:10:33.738678   431 net.cpp:157] Top shape: 1 256 75 125 (2400000)
I0625 17:10:33.738687   431 net.cpp:165] Memory required for data: 1240800108
I0625 17:10:33.738695   431 layer_factory.hpp:77] Creating layer conv4_1
I0625 17:10:33.738713   431 net.cpp:106] Creating Layer conv4_1
I0625 17:10:33.738721   431 net.cpp:454] conv4_1 <- pool3
I0625 17:10:33.738734   431 net.cpp:411] conv4_1 -> conv4_1
I0625 17:10:33.744840   431 net.cpp:150] Setting up conv4_1
I0625 17:10:33.744864   431 net.cpp:157] Top shape: 1 512 75 125 (4800000)
I0625 17:10:33.744869   431 net.cpp:165] Memory required for data: 1260000108
I0625 17:10:33.744881   431 layer_factory.hpp:77] Creating layer relu4_1
I0625 17:10:33.744894   431 net.cpp:106] Creating Layer relu4_1
I0625 17:10:33.744910   431 net.cpp:454] relu4_1 <- conv4_1
I0625 17:10:33.744918   431 net.cpp:397] relu4_1 -> conv4_1 (in-place)
I0625 17:10:33.745091   431 net.cpp:150] Setting up relu4_1
I0625 17:10:33.745097   431 net.cpp:157] Top shape: 1 512 75 125 (4800000)
I0625 17:10:33.745110   431 net.cpp:165] Memory required for data: 1279200108
I0625 17:10:33.745111   431 layer_factory.hpp:77] Creating layer conv4_2
I0625 17:10:33.745120   431 net.cpp:106] Creating Layer conv4_2
I0625 17:10:33.745122   431 net.cpp:454] conv4_2 <- conv4_1
I0625 17:10:33.745129   431 net.cpp:411] conv4_2 -> conv4_2
I0625 17:10:33.751101   431 net.cpp:150] Setting up conv4_2
I0625 17:10:33.751123   431 net.cpp:157] Top shape: 1 512 75 125 (4800000)
I0625 17:10:33.751127   431 net.cpp:165] Memory required for data: 1298400108
I0625 17:10:33.751139   431 layer_factory.hpp:77] Creating layer relu4_2
I0625 17:10:33.751147   431 net.cpp:106] Creating Layer relu4_2
I0625 17:10:33.751150   431 net.cpp:454] relu4_2 <- conv4_2
I0625 17:10:33.751159   431 net.cpp:397] relu4_2 -> conv4_2 (in-place)
I0625 17:10:33.751658   431 net.cpp:150] Setting up relu4_2
I0625 17:10:33.751668   431 net.cpp:157] Top shape: 1 512 75 125 (4800000)
I0625 17:10:33.751672   431 net.cpp:165] Memory required for data: 1317600108
I0625 17:10:33.751675   431 layer_factory.hpp:77] Creating layer conv4_3
I0625 17:10:33.751685   431 net.cpp:106] Creating Layer conv4_3
I0625 17:10:33.751701   431 net.cpp:454] conv4_3 <- conv4_2
I0625 17:10:33.751716   431 net.cpp:411] conv4_3 -> conv4_3
I0625 17:10:33.757084   431 net.cpp:150] Setting up conv4_3
I0625 17:10:33.757112   431 net.cpp:157] Top shape: 1 512 75 125 (4800000)
I0625 17:10:33.757117   431 net.cpp:165] Memory required for data: 1336800108
I0625 17:10:33.757128   431 layer_factory.hpp:77] Creating layer relu4_3
I0625 17:10:33.757139   431 net.cpp:106] Creating Layer relu4_3
I0625 17:10:33.757145   431 net.cpp:454] relu4_3 <- conv4_3
I0625 17:10:33.757151   431 net.cpp:397] relu4_3 -> conv4_3 (in-place)
I0625 17:10:33.757298   431 net.cpp:150] Setting up relu4_3
I0625 17:10:33.757305   431 net.cpp:157] Top shape: 1 512 75 125 (4800000)
I0625 17:10:33.757309   431 net.cpp:165] Memory required for data: 1356000108
I0625 17:10:33.757313   431 layer_factory.hpp:77] Creating layer pool4
I0625 17:10:33.757334   431 net.cpp:106] Creating Layer pool4
I0625 17:10:33.757339   431 net.cpp:454] pool4 <- conv4_3
I0625 17:10:33.757344   431 net.cpp:411] pool4 -> pool4
I0625 17:10:33.757386   431 net.cpp:150] Setting up pool4
I0625 17:10:33.757392   431 net.cpp:157] Top shape: 1 512 38 63 (1225728)
I0625 17:10:33.757395   431 net.cpp:165] Memory required for data: 1360903020
I0625 17:10:33.757398   431 layer_factory.hpp:77] Creating layer conv5_1
I0625 17:10:33.757408   431 net.cpp:106] Creating Layer conv5_1
I0625 17:10:33.757412   431 net.cpp:454] conv5_1 <- pool4
I0625 17:10:33.757419   431 net.cpp:411] conv5_1 -> conv5_1
I0625 17:10:33.762850   431 net.cpp:150] Setting up conv5_1
I0625 17:10:33.762874   431 net.cpp:157] Top shape: 1 512 38 63 (1225728)
I0625 17:10:33.762877   431 net.cpp:165] Memory required for data: 1365805932
I0625 17:10:33.762887   431 layer_factory.hpp:77] Creating layer relu5_1
I0625 17:10:33.762897   431 net.cpp:106] Creating Layer relu5_1
I0625 17:10:33.762917   431 net.cpp:454] relu5_1 <- conv5_1
I0625 17:10:33.762934   431 net.cpp:397] relu5_1 -> conv5_1 (in-place)
I0625 17:10:33.763079   431 net.cpp:150] Setting up relu5_1
I0625 17:10:33.763087   431 net.cpp:157] Top shape: 1 512 38 63 (1225728)
I0625 17:10:33.763090   431 net.cpp:165] Memory required for data: 1370708844
I0625 17:10:33.763094   431 layer_factory.hpp:77] Creating layer conv5_2
I0625 17:10:33.763119   431 net.cpp:106] Creating Layer conv5_2
I0625 17:10:33.763132   431 net.cpp:454] conv5_2 <- conv5_1
I0625 17:10:33.763146   431 net.cpp:411] conv5_2 -> conv5_2
I0625 17:10:33.768415   431 net.cpp:150] Setting up conv5_2
I0625 17:10:33.768440   431 net.cpp:157] Top shape: 1 512 38 63 (1225728)
I0625 17:10:33.768443   431 net.cpp:165] Memory required for data: 1375611756
I0625 17:10:33.768452   431 layer_factory.hpp:77] Creating layer relu5_2
I0625 17:10:33.768465   431 net.cpp:106] Creating Layer relu5_2
I0625 17:10:33.768469   431 net.cpp:454] relu5_2 <- conv5_2
I0625 17:10:33.768476   431 net.cpp:397] relu5_2 -> conv5_2 (in-place)
I0625 17:10:33.768636   431 net.cpp:150] Setting up relu5_2
I0625 17:10:33.768645   431 net.cpp:157] Top shape: 1 512 38 63 (1225728)
I0625 17:10:33.768647   431 net.cpp:165] Memory required for data: 1380514668
I0625 17:10:33.768651   431 layer_factory.hpp:77] Creating layer conv5_3
I0625 17:10:33.768676   431 net.cpp:106] Creating Layer conv5_3
I0625 17:10:33.768690   431 net.cpp:454] conv5_3 <- conv5_2
I0625 17:10:33.768705   431 net.cpp:411] conv5_3 -> conv5_3
I0625 17:10:33.774557   431 net.cpp:150] Setting up conv5_3
I0625 17:10:33.774585   431 net.cpp:157] Top shape: 1 512 38 63 (1225728)
I0625 17:10:33.774591   431 net.cpp:165] Memory required for data: 1385417580
I0625 17:10:33.774603   431 layer_factory.hpp:77] Creating layer relu5_3
I0625 17:10:33.774639   431 net.cpp:106] Creating Layer relu5_3
I0625 17:10:33.774659   431 net.cpp:454] relu5_3 <- conv5_3
I0625 17:10:33.774677   431 net.cpp:397] relu5_3 -> conv5_3 (in-place)
I0625 17:10:33.774860   431 net.cpp:150] Setting up relu5_3
I0625 17:10:33.774873   431 net.cpp:157] Top shape: 1 512 38 63 (1225728)
I0625 17:10:33.774876   431 net.cpp:165] Memory required for data: 1390320492
I0625 17:10:33.774881   431 layer_factory.hpp:77] Creating layer conv5_3_relu5_3_0_split
I0625 17:10:33.774899   431 net.cpp:106] Creating Layer conv5_3_relu5_3_0_split
I0625 17:10:33.774911   431 net.cpp:454] conv5_3_relu5_3_0_split <- conv5_3
I0625 17:10:33.774926   431 net.cpp:411] conv5_3_relu5_3_0_split -> conv5_3_relu5_3_0_split_0
I0625 17:10:33.774943   431 net.cpp:411] conv5_3_relu5_3_0_split -> conv5_3_relu5_3_0_split_1
I0625 17:10:33.774960   431 net.cpp:411] conv5_3_relu5_3_0_split -> conv5_3_relu5_3_0_split_2
I0625 17:10:33.775032   431 net.cpp:150] Setting up conv5_3_relu5_3_0_split
I0625 17:10:33.775041   431 net.cpp:157] Top shape: 1 512 38 63 (1225728)
I0625 17:10:33.775045   431 net.cpp:157] Top shape: 1 512 38 63 (1225728)
I0625 17:10:33.775049   431 net.cpp:157] Top shape: 1 512 38 63 (1225728)
I0625 17:10:33.775061   431 net.cpp:165] Memory required for data: 1405029228
I0625 17:10:33.775074   431 layer_factory.hpp:77] Creating layer rpn_conv/3x3
I0625 17:10:33.775095   431 net.cpp:106] Creating Layer rpn_conv/3x3
I0625 17:10:33.775108   431 net.cpp:454] rpn_conv/3x3 <- conv5_3_relu5_3_0_split_0
I0625 17:10:33.775125   431 net.cpp:411] rpn_conv/3x3 -> rpn/output
I0625 17:10:33.829342   431 net.cpp:150] Setting up rpn_conv/3x3
I0625 17:10:33.829363   431 net.cpp:157] Top shape: 1 512 38 63 (1225728)
I0625 17:10:33.829367   431 net.cpp:165] Memory required for data: 1409932140
I0625 17:10:33.829376   431 layer_factory.hpp:77] Creating layer rpn_relu/3x3
I0625 17:10:33.829386   431 net.cpp:106] Creating Layer rpn_relu/3x3
I0625 17:10:33.829392   431 net.cpp:454] rpn_relu/3x3 <- rpn/output
I0625 17:10:33.829398   431 net.cpp:397] rpn_relu/3x3 -> rpn/output (in-place)
I0625 17:10:33.829540   431 net.cpp:150] Setting up rpn_relu/3x3
I0625 17:10:33.829547   431 net.cpp:157] Top shape: 1 512 38 63 (1225728)
I0625 17:10:33.829550   431 net.cpp:165] Memory required for data: 1414835052
I0625 17:10:33.829552   431 layer_factory.hpp:77] Creating layer rpn/output_rpn_relu/3x3_0_split
I0625 17:10:33.829557   431 net.cpp:106] Creating Layer rpn/output_rpn_relu/3x3_0_split
I0625 17:10:33.829560   431 net.cpp:454] rpn/output_rpn_relu/3x3_0_split <- rpn/output
I0625 17:10:33.829565   431 net.cpp:411] rpn/output_rpn_relu/3x3_0_split -> rpn/output_rpn_relu/3x3_0_split_0
I0625 17:10:33.829571   431 net.cpp:411] rpn/output_rpn_relu/3x3_0_split -> rpn/output_rpn_relu/3x3_0_split_1
I0625 17:10:33.829607   431 net.cpp:150] Setting up rpn/output_rpn_relu/3x3_0_split
I0625 17:10:33.829612   431 net.cpp:157] Top shape: 1 512 38 63 (1225728)
I0625 17:10:33.829614   431 net.cpp:157] Top shape: 1 512 38 63 (1225728)
I0625 17:10:33.829615   431 net.cpp:165] Memory required for data: 1424640876
I0625 17:10:33.829617   431 layer_factory.hpp:77] Creating layer rpn_cls_score
I0625 17:10:33.829627   431 net.cpp:106] Creating Layer rpn_cls_score
I0625 17:10:33.829629   431 net.cpp:454] rpn_cls_score <- rpn/output_rpn_relu/3x3_0_split_0
I0625 17:10:33.829636   431 net.cpp:411] rpn_cls_score -> rpn_cls_score
I0625 17:10:33.831288   431 net.cpp:150] Setting up rpn_cls_score
I0625 17:10:33.831297   431 net.cpp:157] Top shape: 1 30 38 63 (71820)
I0625 17:10:33.831300   431 net.cpp:165] Memory required for data: 1424928156
I0625 17:10:33.831305   431 layer_factory.hpp:77] Creating layer rpn_cls_score_rpn_cls_score_0_split
I0625 17:10:33.831310   431 net.cpp:106] Creating Layer rpn_cls_score_rpn_cls_score_0_split
I0625 17:10:33.831312   431 net.cpp:454] rpn_cls_score_rpn_cls_score_0_split <- rpn_cls_score
I0625 17:10:33.831326   431 net.cpp:411] rpn_cls_score_rpn_cls_score_0_split -> rpn_cls_score_rpn_cls_score_0_split_0
I0625 17:10:33.831331   431 net.cpp:411] rpn_cls_score_rpn_cls_score_0_split -> rpn_cls_score_rpn_cls_score_0_split_1
I0625 17:10:33.831382   431 net.cpp:150] Setting up rpn_cls_score_rpn_cls_score_0_split
I0625 17:10:33.831395   431 net.cpp:157] Top shape: 1 30 38 63 (71820)
I0625 17:10:33.831398   431 net.cpp:157] Top shape: 1 30 38 63 (71820)
I0625 17:10:33.831399   431 net.cpp:165] Memory required for data: 1425502716
I0625 17:10:33.831411   431 layer_factory.hpp:77] Creating layer rpn_bbox_pred
I0625 17:10:33.831418   431 net.cpp:106] Creating Layer rpn_bbox_pred
I0625 17:10:33.831419   431 net.cpp:454] rpn_bbox_pred <- rpn/output_rpn_relu/3x3_0_split_1
I0625 17:10:33.831432   431 net.cpp:411] rpn_bbox_pred -> rpn_bbox_pred
I0625 17:10:33.833081   431 net.cpp:150] Setting up rpn_bbox_pred
I0625 17:10:33.833089   431 net.cpp:157] Top shape: 1 60 38 63 (143640)
I0625 17:10:33.833091   431 net.cpp:165] Memory required for data: 1426077276
I0625 17:10:33.833096   431 layer_factory.hpp:77] Creating layer rpn_bbox_pred_rpn_bbox_pred_0_split
I0625 17:10:33.833101   431 net.cpp:106] Creating Layer rpn_bbox_pred_rpn_bbox_pred_0_split
I0625 17:10:33.833113   431 net.cpp:454] rpn_bbox_pred_rpn_bbox_pred_0_split <- rpn_bbox_pred
I0625 17:10:33.833117   431 net.cpp:411] rpn_bbox_pred_rpn_bbox_pred_0_split -> rpn_bbox_pred_rpn_bbox_pred_0_split_0
I0625 17:10:33.833137   431 net.cpp:411] rpn_bbox_pred_rpn_bbox_pred_0_split -> rpn_bbox_pred_rpn_bbox_pred_0_split_1
I0625 17:10:33.833191   431 net.cpp:150] Setting up rpn_bbox_pred_rpn_bbox_pred_0_split
I0625 17:10:33.833195   431 net.cpp:157] Top shape: 1 60 38 63 (143640)
I0625 17:10:33.833199   431 net.cpp:157] Top shape: 1 60 38 63 (143640)
I0625 17:10:33.833199   431 net.cpp:165] Memory required for data: 1427226396
I0625 17:10:33.833218   431 layer_factory.hpp:77] Creating layer rpn_cls_score_reshape
I0625 17:10:33.833225   431 net.cpp:106] Creating Layer rpn_cls_score_reshape
I0625 17:10:33.833242   431 net.cpp:454] rpn_cls_score_reshape <- rpn_cls_score_rpn_cls_score_0_split_0
I0625 17:10:33.833245   431 net.cpp:411] rpn_cls_score_reshape -> rpn_cls_score_reshape
I0625 17:10:33.833283   431 net.cpp:150] Setting up rpn_cls_score_reshape
I0625 17:10:33.833287   431 net.cpp:157] Top shape: 1 2 570 63 (71820)
I0625 17:10:33.833298   431 net.cpp:165] Memory required for data: 1427513676
I0625 17:10:33.833299   431 layer_factory.hpp:77] Creating layer rpn_cls_score_reshape_rpn_cls_score_reshape_0_split
I0625 17:10:33.833302   431 net.cpp:106] Creating Layer rpn_cls_score_reshape_rpn_cls_score_reshape_0_split
I0625 17:10:33.833304   431 net.cpp:454] rpn_cls_score_reshape_rpn_cls_score_reshape_0_split <- rpn_cls_score_reshape
I0625 17:10:33.833320   431 net.cpp:411] rpn_cls_score_reshape_rpn_cls_score_reshape_0_split -> rpn_cls_score_reshape_rpn_cls_score_reshape_0_split_0
I0625 17:10:33.833324   431 net.cpp:411] rpn_cls_score_reshape_rpn_cls_score_reshape_0_split -> rpn_cls_score_reshape_rpn_cls_score_reshape_0_split_1
I0625 17:10:33.833376   431 net.cpp:150] Setting up rpn_cls_score_reshape_rpn_cls_score_reshape_0_split
I0625 17:10:33.833381   431 net.cpp:157] Top shape: 1 2 570 63 (71820)
I0625 17:10:33.833393   431 net.cpp:157] Top shape: 1 2 570 63 (71820)
I0625 17:10:33.833395   431 net.cpp:165] Memory required for data: 1428088236
I0625 17:10:33.833397   431 layer_factory.hpp:77] Creating layer rpn-data
I0625 17:10:33.833720   431 net.cpp:106] Creating Layer rpn-data
I0625 17:10:33.833729   431 net.cpp:454] rpn-data <- rpn_cls_score_rpn_cls_score_0_split_1
I0625 17:10:33.833732   431 net.cpp:454] rpn-data <- gt_boxes_input-data_2_split_0
I0625 17:10:33.833735   431 net.cpp:454] rpn-data <- im_info_input-data_1_split_0
I0625 17:10:33.833739   431 net.cpp:454] rpn-data <- data_input-data_0_split_1
I0625 17:10:33.833743   431 net.cpp:411] rpn-data -> rpn_labels
I0625 17:10:33.833762   431 net.cpp:411] rpn-data -> rpn_bbox_targets
I0625 17:10:33.833767   431 net.cpp:411] rpn-data -> rpn_bbox_inside_weights
I0625 17:10:33.833787   431 net.cpp:411] rpn-data -> rpn_bbox_outside_weights
===================================anchor_scales in AnchorTargetLayer:=============(2, 4, 8, 16, 32)
I0625 17:10:33.834700   431 net.cpp:150] Setting up rpn-data
I0625 17:10:33.834708   431 net.cpp:157] Top shape: 1 1 570 63 (35910)
I0625 17:10:33.834712   431 net.cpp:157] Top shape: 1 60 38 63 (143640)
I0625 17:10:33.834713   431 net.cpp:157] Top shape: 1 60 38 63 (143640)
I0625 17:10:33.834715   431 net.cpp:157] Top shape: 1 60 38 63 (143640)
I0625 17:10:33.834717   431 net.cpp:165] Memory required for data: 1429955556
I0625 17:10:33.834718   431 layer_factory.hpp:77] Creating layer rpn_loss_cls
I0625 17:10:33.834724   431 net.cpp:106] Creating Layer rpn_loss_cls
I0625 17:10:33.834736   431 net.cpp:454] rpn_loss_cls <- rpn_cls_score_reshape_rpn_cls_score_reshape_0_split_0
I0625 17:10:33.834740   431 net.cpp:454] rpn_loss_cls <- rpn_labels
…
I0625 17:10:33.836557   431 net.cpp:157] Top shape: (1)
I0625 17:10:33.836560   431 net.cpp:160]     with loss weight 1
I0625 17:10:33.836562   431 net.cpp:165] Memory required for data: 1429955564
I0625 17:10:33.836565   431 layer_factory.hpp:77] Creating layer rpn_cls_prob
I0625 17:10:33.836570   431 net.cpp:106] Creating Layer rpn_cls_prob
I0625 17:10:33.836585   431 net.cpp:454] rpn_cls_prob <- rpn_cls_score_reshape_rpn_cls_score_reshape_0_split_1
I0625 17:10:33.836587   431 net.cpp:411] rpn_cls_prob -> rpn_cls_prob
I0625 17:10:33.836773   431 net.cpp:150] Setting up rpn_cls_prob
I0625 17:10:33.836779   431 net.cpp:157] Top shape: 1 2 570 63 (71820)
I0625 17:10:33.836781   431 net.cpp:165] Memory required for data: 1430242844
I0625 17:10:33.836782   431 layer_factory.hpp:77] Creating layer rpn_cls_prob_reshape
I0625 17:10:33.836787   431 net.cpp:106] Creating Layer rpn_cls_prob_reshape
I0625 17:10:33.836791   431 net.cpp:454] rpn_cls_prob_reshape <- rpn_cls_prob
I0625 17:10:33.836804   431 net.cpp:411] rpn_cls_prob_reshape -> rpn_cls_prob_reshape
I0625 17:10:33.836841   431 net.cpp:150] Setting up rpn_cls_prob_reshape
I0625 17:10:33.836844   431 net.cpp:157] Top shape: 1 30 38 63 (71820)
I0625 17:10:33.836846   431 net.cpp:165] Memory required for data: 1430530124
I0625 17:10:33.836848   431 layer_factory.hpp:77] Creating layer proposal
I0625 17:10:33.837329   431 net.cpp:106] Creating Layer proposal
I0625 17:10:33.837337   431 net.cpp:454] proposal <- rpn_cls_prob_reshape
I0625 17:10:33.837339   431 net.cpp:454] proposal <- rpn_bbox_pred_rpn_bbox_pred_0_split_1
I0625 17:10:33.837342   431 net.cpp:454] proposal <- im_info_input-data_1_split_1
I0625 17:10:33.837345   431 net.cpp:411] proposal -> rpn_rois
=================================anchor_scales in ProposalLayer:=============(2, 4, 8, 16, 32)
I0625 17:10:33.838122   431 net.cpp:150] Setting up proposal
I0625 17:10:33.838130   431 net.cpp:157] Top shape: 1 5 (5)
I0625 17:10:33.838132   431 net.cpp:165] Memory required for data: 1430530144
I0625 17:10:33.838135   431 layer_factory.hpp:77] Creating layer roi-data
I0625 17:10:33.838378   431 net.cpp:106] Creating Layer roi-data
I0625 17:10:33.838385   431 net.cpp:454] roi-data <- rpn_rois
I0625 17:10:33.838389   431 net.cpp:454] roi-data <- gt_boxes_input-data_2_split_1
I0625 17:10:33.838392   431 net.cpp:454] roi-data <- im_info_input-data_1_split_2
I0625 17:10:33.838394   431 net.cpp:454] roi-data <- seg_mask_inds
I0625 17:10:33.838397   431 net.cpp:454] roi-data <- flipped
I0625 17:10:33.838412   431 net.cpp:411] roi-data -> rois
I0625 17:10:33.838418   431 net.cpp:411] roi-data -> labels
I0625 17:10:33.838434   431 net.cpp:411] roi-data -> bbox_targets
I0625 17:10:33.838439   431 net.cpp:411] roi-data -> bbox_inside_weights
I0625 17:10:33.838459   431 net.cpp:411] roi-data -> bbox_outside_weights
I0625 17:10:33.838464   431 net.cpp:411] roi-data -> mask_targets
I0625 17:10:33.838480   431 net.cpp:411] roi-data -> rois_pos
I0625 17:10:33.838485   431 net.cpp:411] roi-data -> attrArray
I0625 17:10:33.838497   431 net.cpp:411] roi-data -> attrArrayInd
I0625 17:10:33.838501   431 net.cpp:411] roi-data -> attrArrayShift
I0625 17:10:33.838819   431 net.cpp:150] Setting up roi-data
I0625 17:10:33.838826   431 net.cpp:157] Top shape: 1 5 (5)
I0625 17:10:33.838829   431 net.cpp:157] Top shape: 1 1 (1)
I0625 17:10:33.838830   431 net.cpp:157] Top shape: 1 8 (8)
I0625 17:10:33.838832   431 net.cpp:157] Top shape: 1 8 (8)
I0625 17:10:33.838835   431 net.cpp:157] Top shape: 1 8 (8)
I0625 17:10:33.838837   431 net.cpp:157] Top shape: 1 8 244 244 (476288)
I0625 17:10:33.838850   431 net.cpp:157] Top shape: 1 5 (5)
I0625 17:10:33.838853   431 net.cpp:157] Top shape: 1 7 (7)
I0625 17:10:33.838855   431 net.cpp:157] Top shape: 1 7 (7)
I0625 17:10:33.838857   431 net.cpp:157] Top shape: 1 7 (7)
I0625 17:10:33.838871   431 net.cpp:165] Memory required for data: 1432435520
I0625 17:10:33.838873   431 layer_factory.hpp:77] Creating layer roi_pool5
I0625 17:10:33.838878   431 net.cpp:106] Creating Layer roi_pool5
I0625 17:10:33.838891   431 net.cpp:454] roi_pool5 <- conv5_3_relu5_3_0_split_1
I0625 17:10:33.838894   431 net.cpp:454] roi_pool5 <- rois
I0625 17:10:33.838908   431 net.cpp:411] roi_pool5 -> pool5
I0625 17:10:33.838913   431 roi_alignment_layer.cpp:32] Spatial scale: 0.0625
I0625 17:10:33.839026   431 net.cpp:150] Setting up roi_pool5
I0625 17:10:33.839031   431 net.cpp:157] Top shape: 1 512 7 7 (25088)
I0625 17:10:33.839043   431 net.cpp:165] Memory required for data: 1432535872
I0625 17:10:33.839046   431 layer_factory.hpp:77] Creating layer fc6
I0625 17:10:33.839061   431 net.cpp:106] Creating Layer fc6
I0625 17:10:33.839066   431 net.cpp:454] fc6 <- pool5
I0625 17:10:33.839082   431 net.cpp:411] fc6 -> fc6
I0625 17:10:33.986543   431 net.cpp:150] Setting up fc6
I0625 17:10:33.986567   431 net.cpp:157] Top shape: 1 4096 (4096)
I0625 17:10:33.986568   431 net.cpp:165] Memory required for data: 1432552256
I0625 17:10:33.986583   431 layer_factory.hpp:77] Creating layer relu6
I0625 17:10:33.986603   431 net.cpp:106] Creating Layer relu6
I0625 17:10:33.986611   431 net.cpp:454] relu6 <- fc6
I0625 17:10:33.986616   431 net.cpp:397] relu6 -> fc6 (in-place)
I0625 17:10:33.986799   431 net.cpp:150] Setting up relu6
I0625 17:10:33.986805   431 net.cpp:157] Top shape: 1 4096 (4096)
I0625 17:10:33.986807   431 net.cpp:165] Memory required for data: 1432568640
I0625 17:10:33.986809   431 layer_factory.hpp:77] Creating layer fc7
I0625 17:10:33.986817   431 net.cpp:106] Creating Layer fc7
I0625 17:10:33.986819   431 net.cpp:454] fc7 <- fc6
I0625 17:10:33.986824   431 net.cpp:411] fc7 -> fc7
I0625 17:10:34.011099   431 net.cpp:150] Setting up fc7
I0625 17:10:34.011121   431 net.cpp:157] Top shape: 1 4096 (4096)
I0625 17:10:34.011123   431 net.cpp:165] Memory required for data: 1432585024
I0625 17:10:34.011132   431 layer_factory.hpp:77] Creating layer relu7
I0625 17:10:34.011139   431 net.cpp:106] Creating Layer relu7
I0625 17:10:34.011145   431 net.cpp:454] relu7 <- fc7
I0625 17:10:34.011162   431 net.cpp:397] relu7 -> fc7 (in-place)
I0625 17:10:34.011340   431 net.cpp:150] Setting up relu7
I0625 17:10:34.011348   431 net.cpp:157] Top shape: 1 4096 (4096)
I0625 17:10:34.011349   431 net.cpp:165] Memory required for data: 1432601408
I0625 17:10:34.011351   431 layer_factory.hpp:77] Creating layer fc7_relu7_0_split
I0625 17:10:34.011355   431 net.cpp:106] Creating Layer fc7_relu7_0_split
I0625 17:10:34.011358   431 net.cpp:454] fc7_relu7_0_split <- fc7
I0625 17:10:34.011361   431 net.cpp:411] fc7_relu7_0_split -> fc7_relu7_0_split_0
I0625 17:10:34.011366   431 net.cpp:411] fc7_relu7_0_split -> fc7_relu7_0_split_1
I0625 17:10:34.011381   431 net.cpp:411] fc7_relu7_0_split -> fc7_relu7_0_split_2
I0625 17:10:34.011427   431 net.cpp:150] Setting up fc7_relu7_0_split
I0625 17:10:34.011431   431 net.cpp:157] Top shape: 1 4096 (4096)
I0625 17:10:34.011433   431 net.cpp:157] Top shape: 1 4096 (4096)
I0625 17:10:34.011435   431 net.cpp:157] Top shape: 1 4096 (4096)
I0625 17:10:34.011437   431 net.cpp:165] Memory required for data: 1432650560
I0625 17:10:34.011440   431 layer_factory.hpp:77] Creating layer attr_score
I0625 17:10:34.011445   431 net.cpp:106] Creating Layer attr_score
I0625 17:10:34.011447   431 net.cpp:454] attr_score <- fc7_relu7_0_split_0
I0625 17:10:34.011463   431 net.cpp:411] attr_score -> attr_score
I0625 17:10:34.012109   431 net.cpp:150] Setting up attr_score
I0625 17:10:34.012115   431 net.cpp:157] Top shape: 1 7 (7)
I0625 17:10:34.012116   431 net.cpp:165] Memory required for data: 1432650588
I0625 17:10:34.012120   431 layer_factory.hpp:77] Creating layer attr_score_pos
I0625 17:10:34.012125   431 net.cpp:106] Creating Layer attr_score_pos
I0625 17:10:34.012127   431 net.cpp:454] attr_score_pos <- attr_score
I0625 17:10:34.012130   431 net.cpp:454] attr_score_pos <- attrArrayInd
I0625 17:10:34.012135   431 net.cpp:411] attr_score_pos -> attr_score_pos
I0625 17:10:34.012172   431 net.cpp:150] Setting up attr_score_pos
I0625 17:10:34.012176   431 net.cpp:157] Top shape: 1 7 (7)
I0625 17:10:34.012177   431 net.cpp:165] Memory required for data: 1432650616
I0625 17:10:34.012189   431 layer_factory.hpp:77] Creating layer attr_score_pos_shift
I0625 17:10:34.012192   431 net.cpp:106] Creating Layer attr_score_pos_shift
I0625 17:10:34.012194   431 net.cpp:454] attr_score_pos_shift <- attr_score_pos
I0625 17:10:34.012197   431 net.cpp:454] attr_score_pos_shift <- attrArrayShift
I0625 17:10:34.012209   431 net.cpp:411] attr_score_pos_shift -> attr_score_pos_shift
I0625 17:10:34.012235   431 net.cpp:150] Setting up attr_score_pos_shift
I0625 17:10:34.012251   431 net.cpp:157] Top shape: 1 7 (7)
I0625 17:10:34.012253   431 net.cpp:165] Memory required for data: 1432650644
I0625 17:10:34.012254   431 layer_factory.hpp:77] Creating layer cls_score
I0625 17:10:34.012270   431 net.cpp:106] Creating Layer cls_score
I0625 17:10:34.012274   431 net.cpp:454] cls_score <- fc7_relu7_0_split_1
I0625 17:10:34.012276   431 net.cpp:411] cls_score -> cls_score
I0625 17:10:34.012564   431 net.cpp:150] Setting up cls_score
I0625 17:10:34.012568   431 net.cpp:157] Top shape: 1 2 (2)
I0625 17:10:34.012570   431 net.cpp:165] Memory required for data: 1432650652
I0625 17:10:34.012584   431 layer_factory.hpp:77] Creating layer bbox_pred
I0625 17:10:34.012588   431 net.cpp:106] Creating Layer bbox_pred
I0625 17:10:34.012591   431 net.cpp:454] bbox_pred <- fc7_relu7_0_split_2
I0625 17:10:34.012609   431 net.cpp:411] bbox_pred -> bbox_pred
I0625 17:10:34.013366   431 net.cpp:150] Setting up bbox_pred
I0625 17:10:34.013370   431 net.cpp:157] Top shape: 1 8 (8)
I0625 17:10:34.013372   431 net.cpp:165] Memory required for data: 1432650684
I0625 17:10:34.013375   431 layer_factory.hpp:77] Creating layer loss_attribute
I0625 17:10:34.013381   431 net.cpp:106] Creating Layer loss_attribute
I0625 17:10:34.013382   431 net.cpp:454] loss_attribute <- attr_score_pos_shift
I0625 17:10:34.013386   431 net.cpp:454] loss_attribute <- attrArray
I0625 17:10:34.013401   431 net.cpp:411] loss_attribute -> loss_attribute
…
I0625 17:10:34.014283   431 net.cpp:165] Memory required for data: 1432650696
I0625 17:10:34.014286   431 layer_factory.hpp:77] Creating layer roi_pool5_2
I0625 17:10:34.014292   431 net.cpp:106] Creating Layer roi_pool5_2
I0625 17:10:34.014295   431 net.cpp:454] roi_pool5_2 <- conv5_3_relu5_3_0_split_2
I0625 17:10:34.014299   431 net.cpp:454] roi_pool5_2 <- rois_pos
I0625 17:10:34.014314   431 net.cpp:411] roi_pool5_2 -> pool5_2
I0625 17:10:34.014318   431 roi_alignment_layer.cpp:32] Spatial scale: 0.0625
I0625 17:10:34.014425   431 net.cpp:150] Setting up roi_pool5_2
I0625 17:10:34.014430   431 net.cpp:157] Top shape: 1 512 7 7 (25088)
I0625 17:10:34.014441   431 net.cpp:165] Memory required for data: 1432751048
I0625 17:10:34.014443   431 layer_factory.hpp:77] Creating layer pool5_2_conv
I0625 17:10:34.014451   431 net.cpp:106] Creating Layer pool5_2_conv
I0625 17:10:34.014462   431 net.cpp:454] pool5_2_conv <- pool5_2
I0625 17:10:34.014467   431 net.cpp:411] pool5_2_conv -> pool5_2_conv
I0625 17:10:34.021023   431 net.cpp:150] Setting up pool5_2_conv
I0625 17:10:34.021034   431 net.cpp:157] Top shape: 1 512 7 7 (25088)
I0625 17:10:34.021036   431 net.cpp:165] Memory required for data: 1432851400
I0625 17:10:34.021041   431 layer_factory.hpp:77] Creating layer pool5_2_conv_relu
I0625 17:10:34.021047   431 net.cpp:106] Creating Layer pool5_2_conv_relu
I0625 17:10:34.021049   431 net.cpp:454] pool5_2_conv_relu <- pool5_2_conv
I0625 17:10:34.021064   431 net.cpp:411] pool5_2_conv_relu -> pool5_2_conv_relu
I0625 17:10:34.021203   431 net.cpp:150] Setting up pool5_2_conv_relu
I0625 17:10:34.021210   431 net.cpp:157] Top shape: 1 512 7 7 (25088)
I0625 17:10:34.021212   431 net.cpp:165] Memory required for data: 1432951752
I0625 17:10:34.021214   431 layer_factory.hpp:77] Creating layer pool5_2_conv2
I0625 17:10:34.021220   431 net.cpp:106] Creating Layer pool5_2_conv2
I0625 17:10:34.021222   431 net.cpp:454] pool5_2_conv2 <- pool5_2_conv_relu
I0625 17:10:34.021225   431 net.cpp:411] pool5_2_conv2 -> pool5_2_conv2
I0625 17:10:34.071911   431 net.cpp:150] Setting up pool5_2_conv2
I0625 17:10:34.071928   431 net.cpp:157] Top shape: 1 512 7 7 (25088)
I0625 17:10:34.071931   431 net.cpp:165] Memory required for data: 1433052104
I0625 17:10:34.071938   431 layer_factory.hpp:77] Creating layer pool5_2_conv2_relu
I0625 17:10:34.071945   431 net.cpp:106] Creating Layer pool5_2_conv2_relu
I0625 17:10:34.071960   431 net.cpp:454] pool5_2_conv2_relu <- pool5_2_conv2
I0625 17:10:34.071964   431 net.cpp:411] pool5_2_conv2_relu -> pool5_2_conv2_relu
I0625 17:10:34.072104   431 net.cpp:150] Setting up pool5_2_conv2_relu
I0625 17:10:34.072110   431 net.cpp:157] Top shape: 1 512 7 7 (25088)
I0625 17:10:34.072113   431 net.cpp:165] Memory required for data: 1433152456
I0625 17:10:34.072114   431 layer_factory.hpp:77] Creating layer mask_deconv1
I0625 17:10:34.072121   431 net.cpp:106] Creating Layer mask_deconv1
I0625 17:10:34.072124   431 net.cpp:454] mask_deconv1 <- pool5_2_conv2_relu
I0625 17:10:34.072127   431 net.cpp:411] mask_deconv1 -> mask_deconv1
I0625 17:10:34.072892   431 net.cpp:150] Setting up mask_deconv1
I0625 17:10:34.072897   431 net.cpp:157] Top shape: 1 256 30 30 (230400)
I0625 17:10:34.072898   431 net.cpp:165] Memory required for data: 1434074056
I0625 17:10:34.072902   431 layer_factory.hpp:77] Creating layer pool5_2_conv3
I0625 17:10:34.072909   431 net.cpp:106] Creating Layer pool5_2_conv3
I0625 17:10:34.072912   431 net.cpp:454] pool5_2_conv3 <- mask_deconv1
I0625 17:10:34.072926   431 net.cpp:411] pool5_2_conv3 -> pool5_2_conv3
I0625 17:10:34.098886   431 net.cpp:150] Setting up pool5_2_conv3
I0625 17:10:34.098914   431 net.cpp:157] Top shape: 1 512 30 30 (460800)
I0625 17:10:34.098917   431 net.cpp:165] Memory required for data: 1435917256
I0625 17:10:34.098923   431 layer_factory.hpp:77] Creating layer pool5_2_conv3_relu
I0625 17:10:34.098944   431 net.cpp:106] Creating Layer pool5_2_conv3_relu
I0625 17:10:34.098951   431 net.cpp:454] pool5_2_conv3_relu <- pool5_2_conv3
I0625 17:10:34.098958   431 net.cpp:411] pool5_2_conv3_relu -> pool5_2_conv3_relu
I0625 17:10:34.099140   431 net.cpp:150] Setting up pool5_2_conv3_relu
I0625 17:10:34.099148   431 net.cpp:157] Top shape: 1 512 30 30 (460800)
I0625 17:10:34.099149   431 net.cpp:165] Memory required for data: 1437760456
I0625 17:10:34.099153   431 layer_factory.hpp:77] Creating layer pool5_2_conv4
I0625 17:10:34.099171   431 net.cpp:106] Creating Layer pool5_2_conv4
I0625 17:10:34.099175   431 net.cpp:454] pool5_2_conv4 <- pool5_2_conv3_relu
I0625 17:10:34.099189   431 net.cpp:411] pool5_2_conv4 -> pool5_2_conv4
I0625 17:10:34.149310   431 net.cpp:150] Setting up pool5_2_conv4
I0625 17:10:34.149328   431 net.cpp:157] Top shape: 1 512 30 30 (460800)
I0625 17:10:34.149332   431 net.cpp:165] Memory required for data: 1439603656
I0625 17:10:34.149338   431 layer_factory.hpp:77] Creating layer pool5_2_conv4_relu
I0625 17:10:34.149358   431 net.cpp:106] Creating Layer pool5_2_conv4_relu
I0625 17:10:34.149363   431 net.cpp:454] pool5_2_conv4_relu <- pool5_2_conv4
I0625 17:10:34.149379   431 net.cpp:411] pool5_2_conv4_relu -> pool5_2_conv4_relu
I0625 17:10:34.149529   431 net.cpp:150] Setting up pool5_2_conv4_relu
I0625 17:10:34.149536   431 net.cpp:157] Top shape: 1 512 30 30 (460800)
I0625 17:10:34.149538   431 net.cpp:165] Memory required for data: 1441446856
I0625 17:10:34.149540   431 layer_factory.hpp:77] Creating layer pool5_2_conv4_relu_pool5_2_conv4_relu_0_split
I0625 17:10:34.149544   431 net.cpp:106] Creating Layer pool5_2_conv4_relu_pool5_2_conv4_relu_0_split
I0625 17:10:34.149546   431 net.cpp:454] pool5_2_conv4_relu_pool5_2_conv4_relu_0_split <- pool5_2_conv4_relu
I0625 17:10:34.149549   431 net.cpp:411] pool5_2_conv4_relu_pool5_2_conv4_relu_0_split -> pool5_2_conv4_relu_pool5_2_conv4_relu_0_split_0
I0625 17:10:34.149564   431 net.cpp:411] pool5_2_conv4_relu_pool5_2_conv4_relu_0_split -> pool5_2_conv4_relu_pool5_2_conv4_relu_0_split_1
I0625 17:10:34.149569   431 net.cpp:411] pool5_2_conv4_relu_pool5_2_conv4_relu_0_split -> pool5_2_conv4_relu_pool5_2_conv4_relu_0_split_2
I0625 17:10:34.149583   431 net.cpp:411] pool5_2_conv4_relu_pool5_2_conv4_relu_0_split -> pool5_2_conv4_relu_pool5_2_conv4_relu_0_split_3
I0625 17:10:34.149649   431 net.cpp:150] Setting up pool5_2_conv4_relu_pool5_2_conv4_relu_0_split
I0625 17:10:34.149653   431 net.cpp:157] Top shape: 1 512 30 30 (460800)
I0625 17:10:34.149657   431 net.cpp:157] Top shape: 1 512 30 30 (460800)
I0625 17:10:34.149658   431 net.cpp:157] Top shape: 1 512 30 30 (460800)
I0625 17:10:34.149660   431 net.cpp:157] Top shape: 1 512 30 30 (460800)
I0625 17:10:34.149662   431 net.cpp:165] Memory required for data: 1448819656
I0625 17:10:34.149663   431 layer_factory.hpp:77] Creating layer query_conv
I0625 17:10:34.149688   431 net.cpp:106] Creating Layer query_conv
I0625 17:10:34.149690   431 net.cpp:454] query_conv <- pool5_2_conv4_relu_pool5_2_conv4_relu_0_split_0
I0625 17:10:34.149694   431 net.cpp:411] query_conv -> query_conv
I0625 17:10:34.151491   431 net.cpp:150] Setting up query_conv
I0625 17:10:34.151504   431 net.cpp:157] Top shape: 1 64 30 30 (57600)
I0625 17:10:34.151507   431 net.cpp:165] Memory required for data: 1449050056
I0625 17:10:34.151515   431 layer_factory.hpp:77] Creating layer key_conv
I0625 17:10:34.151527   431 net.cpp:106] Creating Layer key_conv
I0625 17:10:34.151535   431 net.cpp:454] key_conv <- pool5_2_conv4_relu_pool5_2_conv4_relu_0_split_1
I0625 17:10:34.151543   431 net.cpp:411] key_conv -> key_conv
I0625 17:10:34.153354   431 net.cpp:150] Setting up key_conv
I0625 17:10:34.153364   431 net.cpp:157] Top shape: 1 64 30 30 (57600)
I0625 17:10:34.153368   431 net.cpp:165] Memory required for data: 1449280456
I0625 17:10:34.153385   431 layer_factory.hpp:77] Creating layer value_conv
I0625 17:10:34.153398   431 net.cpp:106] Creating Layer value_conv
I0625 17:10:34.153403   431 net.cpp:454] value_conv <- pool5_2_conv4_relu_pool5_2_conv4_relu_0_split_2
I0625 17:10:34.153410   431 net.cpp:411] value_conv -> value_conv
I0625 17:10:34.165067   431 net.cpp:150] Setting up value_conv
I0625 17:10:34.165086   431 net.cpp:157] Top shape: 1 512 30 30 (460800)
I0625 17:10:34.165088   431 net.cpp:165] Memory required for data: 1451123656
I0625 17:10:34.165096   431 layer_factory.hpp:77] Creating layer query_conv_reshape
I0625 17:10:34.165123   431 net.cpp:106] Creating Layer query_conv_reshape
I0625 17:10:34.165129   431 net.cpp:454] query_conv_reshape <- query_conv
I0625 17:10:34.165136   431 net.cpp:411] query_conv_reshape -> query_conv_reshape
I0625 17:10:34.165185   431 net.cpp:150] Setting up query_conv_reshape
I0625 17:10:34.165191   431 net.cpp:157] Top shape: 1 64 900 1 (57600)
I0625 17:10:34.165194   431 net.cpp:165] Memory required for data: 1451354056
I0625 17:10:34.165197   431 layer_factory.hpp:77] Creating layer key_conv_reshape
I0625 17:10:34.165204   431 net.cpp:106] Creating Layer key_conv_reshape
I0625 17:10:34.165243   431 net.cpp:454] key_conv_reshape <- key_conv
I0625 17:10:34.165259   431 net.cpp:411] key_conv_reshape -> key_conv_reshape
I0625 17:10:34.165283   431 net.cpp:150] Setting up key_conv_reshape
I0625 17:10:34.165289   431 net.cpp:157] Top shape: 1 64 900 1 (57600)
I0625 17:10:34.165293   431 net.cpp:165] Memory required for data: 1451584456
I0625 17:10:34.165297   431 layer_factory.hpp:77] Creating layer value_conv_reshape
I0625 17:10:34.165302   431 net.cpp:106] Creating Layer value_conv_reshape
I0625 17:10:34.165304   431 net.cpp:454] value_conv_reshape <- value_conv
I0625 17:10:34.165308   431 net.cpp:411] value_conv_reshape -> value_conv_reshape
I0625 17:10:34.165325   431 net.cpp:150] Setting up value_conv_reshape
I0625 17:10:34.165329   431 net.cpp:157] Top shape: 1 512 900 1 (460800)
I0625 17:10:34.165330   431 net.cpp:165] Memory required for data: 1453427656
I0625 17:10:34.165333   431 layer_factory.hpp:77] Creating layer query_conv_reshape_perm
I0625 17:10:34.165341   431 net.cpp:106] Creating Layer query_conv_reshape_perm
I0625 17:10:34.165344   431 net.cpp:454] query_conv_reshape_perm <- query_conv_reshape
I0625 17:10:34.165347   431 net.cpp:411] query_conv_reshape_perm -> query_conv_reshape_perm
I0625 17:10:34.165423   431 net.cpp:150] Setting up query_conv_reshape_perm
I0625 17:10:34.165427   431 net.cpp:157] Top shape: 1 1 900 64 (57600)
I0625 17:10:34.165429   431 net.cpp:165] Memory required for data: 1453658056
I0625 17:10:34.165441   431 layer_factory.hpp:77] Creating layer key_conv_reshape_perm
I0625 17:10:34.165443   431 net.cpp:106] Creating Layer key_conv_reshape_perm
I0625 17:10:34.165446   431 net.cpp:454] key_conv_reshape_perm <- key_conv_reshape
I0625 17:10:34.165449   431 net.cpp:411] key_conv_reshape_perm -> key_conv_reshape_perm
I0625 17:10:34.165515   431 net.cpp:150] Setting up key_conv_reshape_perm
I0625 17:10:34.165519   431 net.cpp:157] Top shape: 1 1 64 900 (57600)
I0625 17:10:34.165521   431 net.cpp:165] Memory required for data: 1453888456
I0625 17:10:34.165532   431 layer_factory.hpp:77] Creating layer energy
I0625 17:10:34.165536   431 net.cpp:106] Creating Layer energy
I0625 17:10:34.165539   431 net.cpp:454] energy <- query_conv_reshape_perm
I0625 17:10:34.165540   431 net.cpp:454] energy <- key_conv_reshape_perm
I0625 17:10:34.165545   431 net.cpp:411] energy -> energy
I0625 17:10:34.165563   431 net.cpp:150] Setting up energy
I0625 17:10:34.165567   431 net.cpp:157] Top shape: 1 1 900 900 (810000)
I0625 17:10:34.165571   431 net.cpp:165] Memory required for data: 1457128456
I0625 17:10:34.165575   431 layer_factory.hpp:77] Creating layer attention
I0625 17:10:34.165581   431 net.cpp:106] Creating Layer attention
I0625 17:10:34.165585   431 net.cpp:454] attention <- energy
I0625 17:10:34.165591   431 net.cpp:411] attention -> attention
I0625 17:10:34.165750   431 net.cpp:150] Setting up attention
I0625 17:10:34.165756   431 net.cpp:157] Top shape: 1 1 900 900 (810000)
I0625 17:10:34.165758   431 net.cpp:165] Memory required for data: 1460368456
I0625 17:10:34.165760   431 layer_factory.hpp:77] Creating layer value_conv_reshape_perm
I0625 17:10:34.165765   431 net.cpp:106] Creating Layer value_conv_reshape_perm
I0625 17:10:34.165767   431 net.cpp:454] value_conv_reshape_perm <- value_conv_reshape
I0625 17:10:34.165771   431 net.cpp:411] value_conv_reshape_perm -> value_conv_reshape_perm
I0625 17:10:34.165838   431 net.cpp:150] Setting up value_conv_reshape_perm
I0625 17:10:34.165843   431 net.cpp:157] Top shape: 1 1 512 900 (460800)
I0625 17:10:34.165845   431 net.cpp:165] Memory required for data: 1462211656
I0625 17:10:34.165849   431 layer_factory.hpp:77] Creating layer attention_perm
I0625 17:10:34.165854   431 net.cpp:106] Creating Layer attention_perm
I0625 17:10:34.165858   431 net.cpp:454] attention_perm <- attention
I0625 17:10:34.165865   431 net.cpp:411] attention_perm -> attention_perm
I0625 17:10:34.165930   431 net.cpp:150] Setting up attention_perm
I0625 17:10:34.165933   431 net.cpp:157] Top shape: 1 1 900 900 (810000)
I0625 17:10:34.165937   431 net.cpp:165] Memory required for data: 1465451656
I0625 17:10:34.165941   431 layer_factory.hpp:77] Creating layer out
I0625 17:10:34.165947   431 net.cpp:106] Creating Layer out
I0625 17:10:34.165951   431 net.cpp:454] out <- value_conv_reshape_perm
I0625 17:10:34.165954   431 net.cpp:454] out <- attention_perm
I0625 17:10:34.165958   431 net.cpp:411] out -> out
I0625 17:10:34.165974   431 net.cpp:150] Setting up out
I0625 17:10:34.165978   431 net.cpp:157] Top shape: 1 1 512 900 (460800)
I0625 17:10:34.165980   431 net.cpp:165] Memory required for data: 1467294856
I0625 17:10:34.165982   431 layer_factory.hpp:77] Creating layer out_reshape
I0625 17:10:34.165985   431 net.cpp:106] Creating Layer out_reshape
I0625 17:10:34.165988   431 net.cpp:454] out_reshape <- out
I0625 17:10:34.165992   431 net.cpp:411] out_reshape -> out_reshape
I0625 17:10:34.166007   431 net.cpp:150] Setting up out_reshape
I0625 17:10:34.166010   431 net.cpp:157] Top shape: 1 512 30 30 (460800)
I0625 17:10:34.166013   431 net.cpp:165] Memory required for data: 1469138056
I0625 17:10:34.166013   431 layer_factory.hpp:77] Creating layer out_reshape_scale
I0625 17:10:34.166020   431 net.cpp:106] Creating Layer out_reshape_scale
I0625 17:10:34.166024   431 net.cpp:454] out_reshape_scale <- out_reshape
I0625 17:10:34.166028   431 net.cpp:411] out_reshape_scale -> out_reshape_scale
I0625 17:10:34.166091   431 net.cpp:150] Setting up out_reshape_scale
I0625 17:10:34.166096   431 net.cpp:157] Top shape: 1 512 30 30 (460800)
I0625 17:10:34.166100   431 net.cpp:165] Memory required for data: 1470981256
I0625 17:10:34.166105   431 layer_factory.hpp:77] Creating layer out_x
I0625 17:10:34.166111   431 net.cpp:106] Creating Layer out_x
I0625 17:10:34.166115   431 net.cpp:454] out_x <- out_reshape_scale
I0625 17:10:34.166121   431 net.cpp:454] out_x <- pool5_2_conv4_relu_pool5_2_conv4_relu_0_split_3
I0625 17:10:34.166127   431 net.cpp:411] out_x -> out_x
I0625 17:10:34.166146   431 net.cpp:150] Setting up out_x
I0625 17:10:34.166151   431 net.cpp:157] Top shape: 1 512 30 30 (460800)
I0625 17:10:34.166154   431 net.cpp:165] Memory required for data: 1472824456
I0625 17:10:34.166157   431 layer_factory.hpp:77] Creating layer mask_deconv2
I0625 17:10:34.166165   431 net.cpp:106] Creating Layer mask_deconv2
I0625 17:10:34.166168   431 net.cpp:454] mask_deconv2 <- out_x
I0625 17:10:34.166172   431 net.cpp:411] mask_deconv2 -> mask_deconv2
I0625 17:10:34.166970   431 net.cpp:150] Setting up mask_deconv2
I0625 17:10:34.166975   431 net.cpp:157] Top shape: 1 256 122 122 (3810304)
I0625 17:10:34.166976   431 net.cpp:165] Memory required for data: 1488065672
I0625 17:10:34.166980   431 layer_factory.hpp:77] Creating layer pool5_2_conv5
I0625 17:10:34.166987   431 net.cpp:106] Creating Layer pool5_2_conv5
I0625 17:10:34.166990   431 net.cpp:454] pool5_2_conv5 <- mask_deconv2
I0625 17:10:34.166995   431 net.cpp:411] pool5_2_conv5 -> pool5_2_conv5
I0625 17:10:34.192777   431 net.cpp:150] Setting up pool5_2_conv5
I0625 17:10:34.192795   431 net.cpp:157] Top shape: 1 512 122 122 (7620608)
I0625 17:10:34.192797   431 net.cpp:165] Memory required for data: 1518548104
I0625 17:10:34.192804   431 layer_factory.hpp:77] Creating layer pool5_2_conv5_relu
I0625 17:10:34.192811   431 net.cpp:106] Creating Layer pool5_2_conv5_relu
I0625 17:10:34.192826   431 net.cpp:454] pool5_2_conv5_relu <- pool5_2_conv5
I0625 17:10:34.192831   431 net.cpp:411] pool5_2_conv5_relu -> pool5_2_conv5_relu
I0625 17:10:34.192991   431 net.cpp:150] Setting up pool5_2_conv5_relu
I0625 17:10:34.192997   431 net.cpp:157] Top shape: 1 512 122 122 (7620608)
I0625 17:10:34.192999   431 net.cpp:165] Memory required for data: 1549030536
I0625 17:10:34.193001   431 layer_factory.hpp:77] Creating layer pool5_2_conv6
I0625 17:10:34.193009   431 net.cpp:106] Creating Layer pool5_2_conv6
I0625 17:10:34.193011   431 net.cpp:454] pool5_2_conv6 <- pool5_2_conv5_relu
I0625 17:10:34.193017   431 net.cpp:411] pool5_2_conv6 -> pool5_2_conv6
I0625 17:10:34.243136   431 net.cpp:150] Setting up pool5_2_conv6
I0625 17:10:34.243153   431 net.cpp:157] Top shape: 1 512 122 122 (7620608)
I0625 17:10:34.243156   431 net.cpp:165] Memory required for data: 1579512968
I0625 17:10:34.243171   431 layer_factory.hpp:77] Creating layer pool5_2_conv6_relu
I0625 17:10:34.243192   431 net.cpp:106] Creating Layer pool5_2_conv6_relu
I0625 17:10:34.243199   431 net.cpp:454] pool5_2_conv6_relu <- pool5_2_conv6
I0625 17:10:34.243206   431 net.cpp:411] pool5_2_conv6_relu -> pool5_2_conv6_relu
I0625 17:10:34.243700   431 net.cpp:150] Setting up pool5_2_conv6_relu
I0625 17:10:34.243707   431 net.cpp:157] Top shape: 1 512 122 122 (7620608)
I0625 17:10:34.243710   431 net.cpp:165] Memory required for data: 1609995400
I0625 17:10:34.243711   431 layer_factory.hpp:77] Creating layer mask_deconv3
I0625 17:10:34.243718   431 net.cpp:106] Creating Layer mask_deconv3
I0625 17:10:34.243721   431 net.cpp:454] mask_deconv3 <- pool5_2_conv6_relu
I0625 17:10:34.243727   431 net.cpp:411] mask_deconv3 -> mask_deconv3
I0625 17:10:34.244120   431 net.cpp:150] Setting up mask_deconv3
I0625 17:10:34.244127   431 net.cpp:157] Top shape: 1 256 244 244 (15241216)
I0625 17:10:34.244127   431 net.cpp:165] Memory required for data: 1670960264
I0625 17:10:34.244132   431 layer_factory.hpp:77] Creating layer mask_score
I0625 17:10:34.244138   431 net.cpp:106] Creating Layer mask_score
I0625 17:10:34.244140   431 net.cpp:454] mask_score <- mask_deconv3
I0625 17:10:34.244143   431 net.cpp:411] mask_score -> mask_score
I0625 17:10:34.244755   431 net.cpp:150] Setting up mask_score
I0625 17:10:34.244762   431 net.cpp:157] Top shape: 1 8 244 244 (476288)
I0625 17:10:34.244765   431 net.cpp:165] Memory required for data: 1672865416
I0625 17:10:34.244767   431 layer_factory.hpp:77] Creating layer prob
I0625 17:10:34.244783   431 net.cpp:106] Creating Layer prob
I0625 17:10:34.244787   431 net.cpp:454] prob <- mask_score
I0625 17:10:34.244804   431 net.cpp:411] prob -> mask_score_softmax
I0625 17:10:34.245354   431 net.cpp:150] Setting up prob
I0625 17:10:34.245362   431 net.cpp:157] Top shape: 1 8 244 244 (476288)
I0625 17:10:34.245363   431 net.cpp:165] Memory required for data: 1674770568
I0625 17:10:34.245366   431 layer_factory.hpp:77] Creating layer log
I0625 17:10:34.245369   431 net.cpp:106] Creating Layer log
I0625 17:10:34.245371   431 net.cpp:454] log <- mask_score_softmax
I0625 17:10:34.245375   431 net.cpp:411] log -> log
I0625 17:10:34.245414   431 net.cpp:150] Setting up log
I0625 17:10:34.245419   431 net.cpp:157] Top shape: 1 8 244 244 (476288)
I0625 17:10:34.245420   431 net.cpp:165] Memory required for data: 1676675720
I0625 17:10:34.245431   431 layer_factory.hpp:77] Creating layer mult1
I0625 17:10:34.245436   431 net.cpp:106] Creating Layer mult1
I0625 17:10:34.245438   431 net.cpp:454] mult1 <- log
I0625 17:10:34.245450   431 net.cpp:454] mult1 <- mask_targets
I0625 17:10:34.245455   431 net.cpp:411] mult1 -> mult1
I0625 17:10:34.245479   431 net.cpp:150] Setting up mult1
I0625 17:10:34.245482   431 net.cpp:157] Top shape: 1 8 244 244 (476288)
I0625 17:10:34.245484   431 net.cpp:165] Memory required for data: 1678580872
I0625 17:10:34.245496   431 layer_factory.hpp:77] Creating layer cross_entropy
I0625 17:10:34.245499   431 net.cpp:106] Creating Layer cross_entropy
I0625 17:10:34.245501   431 net.cpp:454] cross_entropy <- mult1
I0625 17:10:34.245514   431 net.cpp:411] cross_entropy -> cross_entropy
I0625 17:10:34.245540   431 net.cpp:150] Setting up cross_entropy
I0625 17:10:34.245544   431 net.cpp:157] Top shape: 1 8 244 244 (476288)
I0625 17:10:34.245556   431 net.cpp:165] Memory required for data: 1680486024
I0625 17:10:34.245558   431 layer_factory.hpp:77] Creating layer ce_sum
I0625 17:10:34.245568   431 net.cpp:106] Creating Layer ce_sum
I0625 17:10:34.245570   431 net.cpp:454] ce_sum <- cross_entropy
I0625 17:10:34.245574   431 net.cpp:411] ce_sum -> cross_entropy_sum
I0625 17:10:34.246760   431 net.cpp:150] Setting up ce_sum
I0625 17:10:34.246768   431 net.cpp:157] Top shape: 1 1 244 244 (59536)
I0625 17:10:34.246770   431 net.cpp:165] Memory required for data: 1680724168
I0625 17:10:34.246773   431 layer_factory.hpp:77] Creating layer ce_mean
I0625 17:10:34.246783   431 net.cpp:106] Creating Layer ce_mean
I0625 17:10:34.246786   431 net.cpp:454] ce_mean <- cross_entropy_sum
I0625 17:10:34.246803   431 net.cpp:411] ce_mean -> cross_entropy_mean
I0625 17:10:34.247427   431 net.cpp:150] Setting up ce_mean
…
