…
average_loss: 100
iter_size: 2
I0611 14:24:21.554610 10712 solver.cpp:81] Creating training net from train_net file: models/pascal_voc/VGG16/faster_rcnn_end2end/train.prototxt
I0611 14:24:21.555902 10712 net.cpp:49] Initializing net from parameters: 
name: "VGG_ILSVRC_16_layers"
state {
  phase: TRAIN
}
layer {
  name: "input-data"
  type: "Python"
  top: "data"
  top: "im_info"
  top: "gt_boxes"
  top: "seg_mask_inds"
  top: "flipped"
  python_param {
    module: "roi_data_layer.layer"
    layer: "RoIDataLayer"
    param_str: "\'num_classes\': 2"
  }
}
layer {
  name: "conv1_1"
  type: "Convolution"
  bottom: "data"
  top: "conv1_1"
  param {
    lr_mult: 0
    decay_mult: 0
  }
  param {
    lr_mult: 0
    decay_mult: 0
  }
  convolution_param {
    num_output: 64
    pad: 1
    kernel_size: 3
  }
}
layer {
  name: "relu1_1"
  type: "ReLU"
  bottom: "conv1_1"
  top: "conv1_1"
}
layer {
  name: "conv1_2"
  type: "Convolution"
  bottom: "conv1_1"
  top: "conv1_2"
  param {
    lr_mult: 0
    decay_mult: 0
  }
  param {
    lr_mult: 0
    decay_mult: 0
  }
  convolution_param {
    num_output: 64
    pad: 1
    kernel_size: 3
  }
}
layer {
  name: "relu1_2"
  type: "ReLU"
  bottom: "conv1_2"
  top: "conv1_2"
}
layer {
  name: "pool1"
  type: "Pooling"
  bottom: "conv1_2"
  top: "pool1"
  pooling_param {
    pool: MAX
    kernel_size: 2
    stride: 2
  }
}
layer {
  name: "conv2_1"
  type: "Convolution"
  bottom: "pool1"
  top: "conv2_1"
  param {
    lr_mult: 0
    decay_mult: 0
  }
  param {
    lr_mult: 0
    decay_mult: 0
  }
  convolution_param {
    num_output: 128
    pad: 1
    kernel_size: 3
  }
}
layer {
  name: "relu2_1"
  type: "ReLU"
  bottom: "conv2_1"
  top: "conv2_1"
}
layer {
  name: "conv2_2"
  type: "Convolution"
  bottom: "conv2_1"
  top: "conv2_2"
  param {
    lr_mult: 0
    decay_mult: 0
  }
  param {
    lr_mult: 0
    decay_mult: 0
  }
  convolution_param {
    num_output: 128
    pad: 1
    kernel_size: 3
  }
}
layer {
  name: "relu2_2"
  type: "ReLU"
  bottom: "conv2_2"
  top: "conv2_2"
}
layer {
  name: "pool2"
  type: "Pooling"
  bottom: "conv2_2"
  top: "pool2"
  pooling_param {
    pool: MAX
    kernel_size: 2
    stride: 2
  }
}
layer {
  name: "conv3_1"
  type: "Convolution"
  bottom: "pool2"
  top: "conv3_1"
  param {
    lr_mult: 1
  }
  param {
    lr_mult: 2
  }
  convolution_param {
    num_output: 256
    pad: 1
    kernel_size: 3
  }
}
layer {
  name: "relu3_1"
  type: "ReLU"
  bottom: "conv3_1"
  top: "conv3_1"
}
layer {
  name: "conv3_2"
  type: "Convolution"
  bottom: "conv3_1"
  top: "conv3_2"
  param {
    lr_mult: 1
  }
  param {
    lr_mult: 2
  }
  convolution_param {
    num_output: 256
    pad: 1
    kernel_size: 3
  }
}
layer {
  name: "relu3_2"
  type: "ReLU"
  bottom: "conv3_2"
  top: "conv3_2"
}
layer {
  name: "conv3_3"
  type: "Convolution"
  bottom: "conv3_2"
  top: "conv3_3"
  param {
    lr_mult: 1
  }
  param {
    lr_mult: 2
  }
  convolution_param {
    num_output: 256
    pad: 1
    kernel_size: 3
  }
}
layer {
  name: "relu3_3"
  type: "ReLU"
  bottom: "conv3_3"
  top: "conv3_3"
}
layer {
  name: "pool3"
  type: "Pooling"
  bottom: "conv3_3"
  top: "pool3"
  pooling_param {
    pool: MAX
    kernel_size: 2
    stride: 2
  }
}
layer {
  name: "conv4_1"
  type: "Convolution"
  bottom: "pool3"
  top: "conv4_1"
  param {
    lr_mult: 1
  }
  param {
    lr_mult: 2
  }
  convolution_param {
    num_output: 512
    pad: 1
    kernel_size: 3
  }
}
layer {
  name: "relu4_1"
  type: "ReLU"
  bottom: "conv4_1"
  top: "conv4_1"
}
layer {
  name: "conv4_2"
  type: "Convolution"
  bottom: "conv4_1"
  top: "conv4_2"
  param {
    lr_mult: 1
  }
  param {
    lr_mult: 2
  }
  convolution_param {
    num_output: 512
    pad: 1
    kernel_size: 3
  }
}
layer {
  name: "relu4_2"
  type: "ReLU"
  bottom: "conv4_2"
  top: "conv4_2"
}
layer {
  name: "conv4_3"
  type: "Convolution"
  bottom: "conv4_2"
  top: "conv4_3"
  param {
    lr_mult: 1
  }
  param {
    lr_mult: 2
  }
  convolution_param {
    num_output: 512
    pad: 1
    kernel_size: 3
  }
}
layer {
  name: "relu4_3"
  type: "ReLU"
  bottom: "conv4_3"
  top: "conv4_3"
}
layer {
  name: "pool4"
  type: "Pooling"
  bottom: "conv4_3"
  top: "pool4"
  pooling_param {
    pool: MAX
    kernel_size: 2
    stride: 2
  }
}
layer {
  name: "conv5_1"
  type: "Convolution"
  bottom: "pool4"
  top: "conv5_1"
  param {
    lr_mult: 1
  }
  param {
    lr_mult: 2
  }
  convolution_param {
    num_output: 512
    pad: 1
    kernel_size: 3
  }
}
layer {
  name: "relu5_1"
  type: "ReLU"
  bottom: "conv5_1"
  top: "conv5_1"
}
layer {
  name: "conv5_2"
  type: "Convolution"
  bottom: "conv5_1"
  top: "conv5_2"
  param {
    lr_mult: 1
  }
  param {
    lr_mult: 2
  }
  convolution_param {
    num_output: 512
    pad: 1
    kernel_size: 3
  }
}
layer {
  name: "relu5_2"
  type: "ReLU"
  bottom: "conv5_2"
  top: "conv5_2"
}
layer {
  name: "conv5_3"
  type: "Convolution"
  bottom: "conv5_2"
  top: "conv5_3"
  param {
    lr_mult: 1
  }
  param {
    lr_mult: 2
  }
  convolution_param {
    num_output: 512
    pad: 1
    kernel_size: 3
  }
}
layer {
  name: "relu5_3"
  type: "ReLU"
  bottom: "conv5_3"
  top: "conv5_3"
}
layer {
  name: "rpn_conv/3x3"
  type: "Convolution"
  bottom: "conv5_3"
  top: "rpn/output"
  param {
    lr_mult: 1
  }
  param {
    lr_mult: 2
  }
  convolution_param {
    num_output: 512
    pad: 1
    kernel_size: 3
    stride: 1
    weight_filler {
      type: "gaussian"
      std: 0.01
    }
    bias_filler {
      type: "constant"
      value: 0
    }
  }
}
layer {
  name: "rpn_relu/3x3"
  type: "ReLU"
  bottom: "rpn/output"
  top: "rpn/output"
}
layer {
  name: "rpn_cls_score"
  type: "Convolution"
  bottom: "rpn/output"
  top: "rpn_cls_score"
  param {
    lr_mult: 1
  }
  param {
    lr_mult: 2
  }
  convolution_param {
    num_output: 30
    pad: 0
    kernel_size: 1
    stride: 1
    weight_filler {
      type: "gaussian"
      std: 0.01
    }
    bias_filler {
      type: "constant"
      value: 0
    }
  }
}
layer {
  name: "rpn_bbox_pred"
  type: "Convolution"
  bottom: "rpn/output"
  top: "rpn_bbox_pred"
  param {
    lr_mult: 1
  }
  param {
    lr_mult: 2
  }
  convolution_param {
    num_output: 60
    pad: 0
    kernel_size: 1
    stride: 1
    weight_filler {
      type: "gaussian"
      std: 0.01
    }
    bias_filler {
      type: "constant"
      value: 0
    }
  }
}
layer {
  name: "rpn_cls_score_reshape"
  type: "Reshape"
  bottom: "rpn_cls_score"
  top: "rpn_cls_score_reshape"
  reshape_param {
    shape {
      dim: 0
      dim: 2
      dim: -1
      dim: 0
    }
  }
}
layer {
  name: "rpn-data"
  type: "Python"
  bottom: "rpn_cls_score"
  bottom: "gt_boxes"
  bottom: "im_info"
  bottom: "data"
  top: "rpn_labels"
  top: "rpn_bbox_targets"
  top: "rpn_bbox_inside_weights"
  top: "rpn_bbox_outside_weights"
  python_param {
    module: "rpn.anchor_target_layer"
    layer: "AnchorTargetLayer"
    param_str: "\'feat_stride\': 16 \n\'scales\': !!python/tuple [2, 4, 8, 16, 32]"
  }
}
layer {
  name: "rpn_loss_cls"
  type: "SoftmaxWithLoss"
  bottom: "rpn_cls_score_reshape"
  bottom: "rpn_labels"
  top: "rpn_cls_loss"
  loss_weight: 1
  propagate_down: true
  propagate_down: false
  loss_param {
    ignore_label: -1
    normalize: true
  }
}
layer {
  name: "rpn_loss_bbox"
  type: "SmoothL1Loss"
  bottom: "rpn_bbox_pred"
  bottom: "rpn_bbox_targets"
  bottom: "rpn_bbox_inside_weights"
  bottom: "rpn_bbox_outside_weights"
  top: "rpn_loss_bbox"
  loss_weight: 1
  smooth_l1_loss_param {
    sigma: 3
  }
}
layer {
  name: "rpn_cls_prob"
  type: "Softmax"
  bottom: "rpn_cls_score_reshape"
  top: "rpn_cls_prob"
}
layer {
  name: "rpn_cls_prob_reshape"
  type: "Reshape"
  bottom: "rpn_cls_prob"
  top: "rpn_cls_prob_reshape"
  reshape_param {
    shape {
      dim: 0
      dim: 30
      dim: -1
      dim: 0
    }
  }
}
layer {
  name: "proposal"
  type: "Python"
  bottom: "rpn_cls_prob_reshape"
  bottom: "rpn_bbox_pred"
  bottom: "im_info"
  top: "rpn_rois"
  python_param {
    module: "rpn.proposal_layer"
    layer: "ProposalLayer"
    param_str: "\'feat_stride\': 16 \n\'scales\': !!python/tuple [2, 4, 8, 16, 32]"
  }
}
layer {
  name: "roi-data"
  type: "Python"
  bottom: "rpn_rois"
  bottom: "gt_boxes"
  bottom: "im_info"
  bottom: "seg_mask_inds"
  bottom: "flipped"
  top: "rois"
  top: "labels"
  top: "bbox_targets"
  top: "bbox_inside_weights"
  top: "bbox_outside_weights"
  top: "mask_targets"
  top: "rois_pos"
  top: "attrArray"
  python_param {
    module: "rpn.proposal_target_layer"
    layer: "ProposalTargetLayer"
    param_str: "\'num_classes\': 2"
  }
}
layer {
  name: "roi_pool5"
  type: "ROIAlignment"
  bottom: "conv5_3"
  bottom: "rois"
  top: "pool5"
  roi_alignment_param {
    pooled_h: 7
    pooled_w: 7
    spatial_scale: 0.0625
  }
}
layer {
  name: "fc6"
  type: "InnerProduct"
  bottom: "pool5"
  top: "fc6"
  param {
    lr_mult: 1
  }
  param {
    lr_mult: 2
  }
  inner_product_param {
    num_output: 4096
  }
}
layer {
  name: "relu6"
  type: "ReLU"
  bottom: "fc6"
  top: "fc6"
}
layer {
  name: "fc7"
  type: "InnerProduct"
  bottom: "fc6"
  top: "fc7"
  param {
    lr_mult: 1
  }
  param {
    lr_mult: 2
  }
  inner_product_param {
    num_output: 4096
  }
}
layer {
  name: "relu7"
  type: "ReLU"
  bottom: "fc7"
  top: "fc7"
}
layer {
  name: "cls_score"
  type: "InnerProduct"
  bottom: "fc7"
  top: "cls_score"
  param {
    lr_mult: 1
  }
  param {
    lr_mult: 2
  }
  inner_product_param {
    num_output: 2
    weight_filler {
      type: "gaussian"
      std: 0.01
    }
    bias_filler {
      type: "constant"
      value: 0
    }
  }
}
layer {
  name: "bbox_pred"
  type: "InnerProduct"
  bottom: "fc7"
  top: "bbox_pred"
  param {
    lr_mult: 1
  }
  param {
    lr_mult: 2
  }
  inner_product_param {
    num_output: 8
    weight_filler {
      type: "gaussian"
      std: 0.001
    }
    bias_filler {
      type: "constant"
      value: 0
    }
  }
}
layer {
  name: "loss_cls"
  type: "SoftmaxWithLoss"
  bottom: "cls_score"
  bottom: "labels"
  top: "loss_cls"
  loss_weight: 3
  propagate_down: true
  propagate_down: false
}
layer {
  name: "loss_bbox"
  type: "SmoothL1Loss"
  bottom: "bbox_pred"
  bottom: "bbox_targets"
  bottom: "bbox_inside_weights"
  bottom: "bbox_outside_weights"
  top: "loss_bbox"
  loss_weight: 2
}
layer {
  name: "roi_pool5_2"
  type: "ROIAlignment"
  bottom: "conv5_3"
  bottom: "rois_pos"
  top: "pool5_2"
  roi_alignment_param {
    pooled_h: 7
    pooled_w: 7
    spatial_scale: 0.0625
  }
}
layer {
  name: "pool5_2_conv"
  type: "Convolution"
  bottom: "pool5_2"
  top: "pool5_2_conv"
  param {
    lr_mult: 1
    decay_mult: 1
  }
  param {
    lr_mult: 2
    decay_mult: 0
  }
  convolution_param {
    num_output: 512
    pad: 0
    kernel_size: 1
    weight_filler {
      type: "gaussian"
      std: 0.01
    }
    bias_filler {
      type: "constant"
      value: 0
    }
  }
}
layer {
  name: "pool5_2_conv_relu"
  type: "ReLU"
  bottom: "pool5_2_conv"
  top: "pool5_2_conv_relu"
}
layer {
  name: "pool5_2_conv2"
  type: "Convolution"
  bottom: "pool5_2_conv_relu"
  top: "pool5_2_conv2"
  param {
    lr_mult: 1
    decay_mult: 1
  }
  param {
    lr_mult: 2
    decay_mult: 0
  }
  convolution_param {
    num_output: 512
    pad: 1
    kernel_size: 3
    stride: 1
    weight_filler {
      type: "gaussian"
      std: 0.01
    }
    bias_filler {
      type: "constant"
      value: 0
    }
  }
}
layer {
  name: "pool5_2_conv2_relu"
  type: "ReLU"
  bottom: "pool5_2_conv2"
  top: "pool5_2_conv2_relu"
}
layer {
  name: "mask_deconv1"
  type: "Deconvolution"
  bottom: "pool5_2_conv2_relu"
  top: "mask_deconv1"
  param {
    lr_mult: 1
    decay_mult: 1
  }
  param {
    lr_mult: 2
    decay_mult: 0
  }
  convolution_param {
    num_output: 256
    pad: 1
    kernel_size: 8
    group: 256
    stride: 4
    weight_filler {
      type: "bilinear"
    }
  }
}
layer {
  name: "pool5_2_conv3"
  type: "Convolution"
  bottom: "mask_deconv1"
  top: "pool5_2_conv3"
  param {
    lr_mult: 1
    decay_mult: 1
  }
  param {
    lr_mult: 2
    decay_mult: 0
  }
  convolution_param {
    num_output: 512
    pad: 1
    kernel_size: 3
    stride: 1
    weight_filler {
      type: "gaussian"
      std: 0.01
    }
    bias_filler {
      type: "constant"
      value: 0
    }
  }
}
layer {
  name: "pool5_2_conv3_relu"
  type: "ReLU"
  bottom: "pool5_2_conv3"
  top: "pool5_2_conv3_relu"
}
layer {
  name: "pool5_2_conv4"
  type: "Convolution"
  bottom: "pool5_2_conv3_relu"
  top: "pool5_2_conv4"
  param {
    lr_mult: 1
    decay_mult: 1
  }
  param {
    lr_mult: 2
    decay_mult: 0
  }
  convolution_param {
    num_output: 512
    pad: 1
    kernel_size: 3
    stride: 1
    weight_filler {
      type: "gaussian"
      std: 0.01
    }
    bias_filler {
      type: "constant"
      value: 0
    }
  }
}
layer {
  name: "pool5_2_conv4_relu"
  type: "ReLU"
  bottom: "pool5_2_conv4"
  top: "pool5_2_conv4_relu"
}
layer {
  name: "query_conv"
  type: "Convolution"
  bottom: "pool5_2_conv4_relu"
  top: "query_conv"
  param {
    lr_mult: 1
    decay_mult: 1
  }
  param {
    lr_mult: 2
    decay_mult: 0
  }
  convolution_param {
    num_output: 64
    pad: 0
    kernel_size: 1
    stride: 1
    weight_filler {
      type: "gaussian"
      std: 0.01
    }
    bias_filler {
      type: "constant"
      value: 0
    }
  }
}
layer {
  name: "key_conv"
  type: "Convolution"
  bottom: "pool5_2_conv4_relu"
  top: "key_conv"
  param {
    lr_mult: 1
    decay_mult: 1
  }
  param {
    lr_mult: 2
    decay_mult: 0
  }
  convolution_param {
    num_output: 64
    pad: 0
    kernel_size: 1
    stride: 1
    weight_filler {
      type: "gaussian"
      std: 0.01
    }
    bias_filler {
      type: "constant"
      value: 0
    }
  }
}
layer {
  name: "value_conv"
  type: "Convolution"
  bottom: "pool5_2_conv4_relu"
  top: "value_conv"
  param {
    lr_mult: 1
    decay_mult: 1
  }
  param {
    lr_mult: 2
    decay_mult: 0
  }
  convolution_param {
    num_output: 512
    pad: 0
    kernel_size: 1
    stride: 1
    weight_filler {
      type: "gaussian"
      std: 0.01
    }
    bias_filler {
      type: "constant"
      value: 0
    }
  }
}
layer {
  name: "query_conv_reshape"
  type: "Reshape"
  bottom: "query_conv"
  top: "query_conv_reshape"
  reshape_param {
    shape {
      dim: -1
      dim: 64
      dim: 900
      dim: 1
    }
  }
}
layer {
  name: "key_conv_reshape"
  type: "Reshape"
  bottom: "key_conv"
  top: "key_conv_reshape"
  reshape_param {
    shape {
      dim: -1
      dim: 64
      dim: 900
      dim: 1
    }
  }
}
layer {
  name: "value_conv_reshape"
  type: "Reshape"
  bottom: "value_conv"
  top: "value_conv_reshape"
  reshape_param {
    shape {
      dim: -1
      dim: 512
      dim: 900
      dim: 1
    }
  }
}
layer {
  name: "query_conv_reshape_perm"
  type: "Permute"
  bottom: "query_conv_reshape"
  top: "query_conv_reshape_perm"
  permute_param {
    order: 0
    order: 3
    order: 2
    order: 1
  }
}
layer {
  name: "key_conv_reshape_perm"
  type: "Permute"
  bottom: "key_conv_reshape"
  top: "key_conv_reshape_perm"
  permute_param {
    order: 0
    order: 3
    order: 1
    order: 2
  }
}
layer {
  name: "energy"
  type: "MatrixMultiplication"
  bottom: "query_conv_reshape_perm"
  bottom: "key_conv_reshape_perm"
  top: "energy"
}
layer {
  name: "attention"
  type: "Softmax"
  bottom: "energy"
  top: "attention"
  softmax_param {
    axis: 3
  }
}
layer {
  name: "value_conv_reshape_perm"
  type: "Permute"
  bottom: "value_conv_reshape"
  top: "value_conv_reshape_perm"
  permute_param {
    order: 0
    order: 3
    order: 1
    order: 2
  }
}
layer {
  name: "attention_perm"
  type: "Permute"
  bottom: "attention"
  top: "attention_perm"
  permute_param {
    order: 0
    order: 1
    order: 2
    order: 3
  }
}
layer {
  name: "out"
  type: "MatrixMultiplication"
  bottom: "value_conv_reshape_perm"
  bottom: "attention_perm"
  top: "out"
}
layer {
  name: "out_reshape"
  type: "Reshape"
  bottom: "out"
  top: "out_reshape"
  reshape_param {
    shape {
      dim: -1
      dim: 512
      dim: 30
      dim: 30
    }
  }
}
layer {
  name: "out_reshape_scale"
  type: "Scale"
  bottom: "out_reshape"
  top: "out_reshape_scale"
  param {
    name: "scale_conv1_1"
    lr_mult: 1
  }
  scale_param {
    bias_term: false
  }
}
layer {
  name: "out_x"
  type: "Eltwise"
  bottom: "out_reshape_scale"
  bottom: "pool5_2_conv4_relu"
  top: "out_x"
  eltwise_param {
    operation: SUM
  }
}
layer {
  name: "mask_deconv2"
  type: "Deconvolution"
  bottom: "out_x"
  top: "mask_deconv2"
  param {
    lr_mult: 1
    decay_mult: 1
  }
  param {
    lr_mult: 2
    decay_mult: 0
  }
  convolution_param {
    num_output: 256
    pad: 1
    kernel_size: 8
    group: 256
    stride: 4
    weight_filler {
      type: "bilinear"
    }
  }
}
layer {
  name: "pool5_2_conv5"
  type: "Convolution"
  bottom: "mask_deconv2"
  top: "pool5_2_conv5"
  param {
    lr_mult: 1
    decay_mult: 1
  }
  param {
    lr_mult: 2
    decay_mult: 0
  }
  convolution_param {
    num_output: 512
    pad: 1
    kernel_size: 3
    stride: 1
    weight_filler {
      type: "gaussian"
      std: 0.01
    }
    bias_filler {
      type: "constant"
      value: 0
    }
  }
}
layer {
  name: "pool5_2_conv5_relu"
  type: "ReLU"
  bottom: "pool5_2_conv5"
  top: "pool5_2_conv5_relu"
}
layer {
  name: "pool5_2_conv6"
  type: "Convolution"
  bottom: "pool5_2_conv5_relu"
  top: "pool5_2_conv6"
  param {
    lr_mult: 1
    decay_mult: 1
  }
  param {
    lr_mult: 2
    decay_mult: 0
  }
  convolution_param {
    num_output: 512
    pad: 1
    kernel_size: 3
    stride: 1
    weight_filler {
      type: "gaussian"
      std: 0.01
    }
    bias_filler {
      type: "constant"
      value: 0
    }
  }
}
layer {
  name: "pool5_2_conv6_relu"
  type: "ReLU"
  bottom: "pool5_2_conv6"
  top: "pool5_2_conv6_relu"
}
layer {
  name: "mask_deconv3"
  type: "Deconvolution"
  bottom: "pool5_2_conv6_relu"
  top: "mask_deconv3"
  param {
    lr_mult: 1
    decay_mult: 1
  }
  param {
    lr_mult: 2
    decay_mult: 0
  }
  convolution_param {
    num_output: 256
    pad: 1
    kernel_size: 4
    group: 256
    stride: 2
    weight_filler {
      type: "bilinear"
    }
  }
}
layer {
  name: "mask_score"
  type: "Convolution"
  bottom: "mask_deconv3"
  top: "mask_score"
  param {
    lr_mult: 1
    decay_mult: 1
  }
  param {
    lr_mult: 2
    decay_mult: 0
  }
  convolution_param {
    num_output: 8
    pad: 0
    kernel_size: 1
    weight_filler {
      type: "gaussian"
      std: 0.01
    }
    bias_filler {
      type: "constant"
      value: 0
    }
  }
}
layer {
  name: "loss_mask"
  type: "SoftmaxWithLoss"
  bottom: "mask_score"
  bottom: "mask_targets"
  top: "loss_mask"
  loss_weight: 3
  propagate_down: true
  propagate_down: false
  loss_param {
    ignore_label: -1
    normalize: true
  }
}
I0611 14:24:21.556187 10712 layer_factory.hpp:77] Creating layer input-data
I0611 14:24:21.628592 10712 net.cpp:106] Creating Layer input-data
I0611 14:24:21.628608 10712 net.cpp:411] input-data -> data
I0611 14:24:21.628615 10712 net.cpp:411] input-data -> im_info
I0611 14:24:21.628620 10712 net.cpp:411] input-data -> gt_boxes
I0611 14:24:21.628625 10712 net.cpp:411] input-data -> seg_mask_inds
I0611 14:24:21.628629 10712 net.cpp:411] input-data -> flipped
RoiDataLayer: name_to_top: {'gt_boxes': 2, 'data': 0, 'seg_mask_inds': 3, 'im_info': 1, 'flipped': 4}
I0611 14:24:21.662734 10712 net.cpp:150] Setting up input-data
I0611 14:24:21.662748 10712 net.cpp:157] Top shape: 1 3 600 1000 (1800000)
I0611 14:24:21.662752 10712 net.cpp:157] Top shape: 1 3 (3)
I0611 14:24:21.662755 10712 net.cpp:157] Top shape: 1 4 (4)
I0611 14:24:21.662760 10712 net.cpp:157] Top shape: 1 2 (2)
I0611 14:24:21.662762 10712 net.cpp:157] Top shape: 1 1 (1)
I0611 14:24:21.662765 10712 net.cpp:165] Memory required for data: 7200040
I0611 14:24:21.662771 10712 layer_factory.hpp:77] Creating layer data_input-data_0_split
I0611 14:24:21.662784 10712 net.cpp:106] Creating Layer data_input-data_0_split
I0611 14:24:21.662788 10712 net.cpp:454] data_input-data_0_split <- data
I0611 14:24:21.662793 10712 net.cpp:411] data_input-data_0_split -> data_input-data_0_split_0
I0611 14:24:21.662801 10712 net.cpp:411] data_input-data_0_split -> data_input-data_0_split_1
I0611 14:24:21.662824 10712 net.cpp:150] Setting up data_input-data_0_split
I0611 14:24:21.662829 10712 net.cpp:157] Top shape: 1 3 600 1000 (1800000)
I0611 14:24:21.662832 10712 net.cpp:157] Top shape: 1 3 600 1000 (1800000)
I0611 14:24:21.662834 10712 net.cpp:165] Memory required for data: 21600040
I0611 14:24:21.662837 10712 layer_factory.hpp:77] Creating layer im_info_input-data_1_split
I0611 14:24:21.662842 10712 net.cpp:106] Creating Layer im_info_input-data_1_split
I0611 14:24:21.662844 10712 net.cpp:454] im_info_input-data_1_split <- im_info
I0611 14:24:21.662848 10712 net.cpp:411] im_info_input-data_1_split -> im_info_input-data_1_split_0
I0611 14:24:21.662853 10712 net.cpp:411] im_info_input-data_1_split -> im_info_input-data_1_split_1
I0611 14:24:21.662858 10712 net.cpp:411] im_info_input-data_1_split -> im_info_input-data_1_split_2
I0611 14:24:21.662881 10712 net.cpp:150] Setting up im_info_input-data_1_split
I0611 14:24:21.662884 10712 net.cpp:157] Top shape: 1 3 (3)
I0611 14:24:21.662887 10712 net.cpp:157] Top shape: 1 3 (3)
I0611 14:24:21.662890 10712 net.cpp:157] Top shape: 1 3 (3)
I0611 14:24:21.662892 10712 net.cpp:165] Memory required for data: 21600076
I0611 14:24:21.662894 10712 layer_factory.hpp:77] Creating layer gt_boxes_input-data_2_split
I0611 14:24:21.662899 10712 net.cpp:106] Creating Layer gt_boxes_input-data_2_split
I0611 14:24:21.662901 10712 net.cpp:454] gt_boxes_input-data_2_split <- gt_boxes
I0611 14:24:21.662904 10712 net.cpp:411] gt_boxes_input-data_2_split -> gt_boxes_input-data_2_split_0
I0611 14:24:21.662907 10712 net.cpp:411] gt_boxes_input-data_2_split -> gt_boxes_input-data_2_split_1
I0611 14:24:21.662925 10712 net.cpp:150] Setting up gt_boxes_input-data_2_split
I0611 14:24:21.662930 10712 net.cpp:157] Top shape: 1 4 (4)
I0611 14:24:21.662932 10712 net.cpp:157] Top shape: 1 4 (4)
I0611 14:24:21.662935 10712 net.cpp:165] Memory required for data: 21600108
I0611 14:24:21.662936 10712 layer_factory.hpp:77] Creating layer conv1_1
I0611 14:24:21.662946 10712 net.cpp:106] Creating Layer conv1_1
I0611 14:24:21.662950 10712 net.cpp:454] conv1_1 <- data_input-data_0_split_0
I0611 14:24:21.662956 10712 net.cpp:411] conv1_1 -> conv1_1
I0611 14:24:22.070672 10712 net.cpp:150] Setting up conv1_1
I0611 14:24:22.070711 10712 net.cpp:157] Top shape: 1 64 600 1000 (38400000)
I0611 14:24:22.070715 10712 net.cpp:165] Memory required for data: 175200108
I0611 14:24:22.070731 10712 layer_factory.hpp:77] Creating layer relu1_1
I0611 14:24:22.070744 10712 net.cpp:106] Creating Layer relu1_1
I0611 14:24:22.070756 10712 net.cpp:454] relu1_1 <- conv1_1
I0611 14:24:22.070768 10712 net.cpp:397] relu1_1 -> conv1_1 (in-place)
I0611 14:24:22.070982 10712 net.cpp:150] Setting up relu1_1
I0611 14:24:22.071002 10712 net.cpp:157] Top shape: 1 64 600 1000 (38400000)
I0611 14:24:22.071014 10712 net.cpp:165] Memory required for data: 328800108
I0611 14:24:22.071018 10712 layer_factory.hpp:77] Creating layer conv1_2
I0611 14:24:22.071027 10712 net.cpp:106] Creating Layer conv1_2
I0611 14:24:22.071030 10712 net.cpp:454] conv1_2 <- conv1_1
I0611 14:24:22.071036 10712 net.cpp:411] conv1_2 -> conv1_2
I0611 14:24:22.073405 10712 net.cpp:150] Setting up conv1_2
I0611 14:24:22.073422 10712 net.cpp:157] Top shape: 1 64 600 1000 (38400000)
I0611 14:24:22.073441 10712 net.cpp:165] Memory required for data: 482400108
I0611 14:24:22.073462 10712 layer_factory.hpp:77] Creating layer relu1_2
I0611 14:24:22.073468 10712 net.cpp:106] Creating Layer relu1_2
I0611 14:24:22.073474 10712 net.cpp:454] relu1_2 <- conv1_2
I0611 14:24:22.073491 10712 net.cpp:397] relu1_2 -> conv1_2 (in-place)
I0611 14:24:22.073647 10712 net.cpp:150] Setting up relu1_2
I0611 14:24:22.073652 10712 net.cpp:157] Top shape: 1 64 600 1000 (38400000)
I0611 14:24:22.073655 10712 net.cpp:165] Memory required for data: 636000108
I0611 14:24:22.073657 10712 layer_factory.hpp:77] Creating layer pool1
I0611 14:24:22.073664 10712 net.cpp:106] Creating Layer pool1
I0611 14:24:22.073666 10712 net.cpp:454] pool1 <- conv1_2
I0611 14:24:22.073670 10712 net.cpp:411] pool1 -> pool1
I0611 14:24:22.074278 10712 net.cpp:150] Setting up pool1
I0611 14:24:22.074285 10712 net.cpp:157] Top shape: 1 64 300 500 (9600000)
I0611 14:24:22.074286 10712 net.cpp:165] Memory required for data: 674400108
I0611 14:24:22.074290 10712 layer_factory.hpp:77] Creating layer conv2_1
I0611 14:24:22.074296 10712 net.cpp:106] Creating Layer conv2_1
I0611 14:24:22.074298 10712 net.cpp:454] conv2_1 <- pool1
I0611 14:24:22.074302 10712 net.cpp:411] conv2_1 -> conv2_1
I0611 14:24:22.076158 10712 net.cpp:150] Setting up conv2_1
I0611 14:24:22.076166 10712 net.cpp:157] Top shape: 1 128 300 500 (19200000)
I0611 14:24:22.076169 10712 net.cpp:165] Memory required for data: 751200108
I0611 14:24:22.076175 10712 layer_factory.hpp:77] Creating layer relu2_1
I0611 14:24:22.076179 10712 net.cpp:106] Creating Layer relu2_1
I0611 14:24:22.076182 10712 net.cpp:454] relu2_1 <- conv2_1
I0611 14:24:22.076196 10712 net.cpp:397] relu2_1 -> conv2_1 (in-place)
I0611 14:24:22.076670 10712 net.cpp:150] Setting up relu2_1
I0611 14:24:22.076678 10712 net.cpp:157] Top shape: 1 128 300 500 (19200000)
I0611 14:24:22.076680 10712 net.cpp:165] Memory required for data: 828000108
I0611 14:24:22.076683 10712 layer_factory.hpp:77] Creating layer conv2_2
I0611 14:24:22.076689 10712 net.cpp:106] Creating Layer conv2_2
I0611 14:24:22.076692 10712 net.cpp:454] conv2_2 <- conv2_1
I0611 14:24:22.076695 10712 net.cpp:411] conv2_2 -> conv2_2
I0611 14:24:22.078037 10712 net.cpp:150] Setting up conv2_2
I0611 14:24:22.078055 10712 net.cpp:157] Top shape: 1 128 300 500 (19200000)
I0611 14:24:22.078058 10712 net.cpp:165] Memory required for data: 904800108
I0611 14:24:22.078063 10712 layer_factory.hpp:77] Creating layer relu2_2
I0611 14:24:22.078066 10712 net.cpp:106] Creating Layer relu2_2
I0611 14:24:22.078079 10712 net.cpp:454] relu2_2 <- conv2_2
I0611 14:24:22.078083 10712 net.cpp:397] relu2_2 -> conv2_2 (in-place)
I0611 14:24:22.078236 10712 net.cpp:150] Setting up relu2_2
I0611 14:24:22.078243 10712 net.cpp:157] Top shape: 1 128 300 500 (19200000)
I0611 14:24:22.078255 10712 net.cpp:165] Memory required for data: 981600108
I0611 14:24:22.078258 10712 layer_factory.hpp:77] Creating layer pool2
I0611 14:24:22.078263 10712 net.cpp:106] Creating Layer pool2
I0611 14:24:22.078265 10712 net.cpp:454] pool2 <- conv2_2
I0611 14:24:22.078269 10712 net.cpp:411] pool2 -> pool2
I0611 14:24:22.078318 10712 net.cpp:150] Setting up pool2
I0611 14:24:22.078325 10712 net.cpp:157] Top shape: 1 128 150 250 (4800000)
I0611 14:24:22.078339 10712 net.cpp:165] Memory required for data: 1000800108
I0611 14:24:22.078342 10712 layer_factory.hpp:77] Creating layer conv3_1
I0611 14:24:22.078351 10712 net.cpp:106] Creating Layer conv3_1
I0611 14:24:22.078354 10712 net.cpp:454] conv3_1 <- pool2
I0611 14:24:22.078357 10712 net.cpp:411] conv3_1 -> conv3_1
I0611 14:24:22.080420 10712 net.cpp:150] Setting up conv3_1
I0611 14:24:22.080441 10712 net.cpp:157] Top shape: 1 256 150 250 (9600000)
I0611 14:24:22.080443 10712 net.cpp:165] Memory required for data: 1039200108
I0611 14:24:22.080452 10712 layer_factory.hpp:77] Creating layer relu3_1
I0611 14:24:22.080458 10712 net.cpp:106] Creating Layer relu3_1
I0611 14:24:22.080462 10712 net.cpp:454] relu3_1 <- conv3_1
I0611 14:24:22.080466 10712 net.cpp:397] relu3_1 -> conv3_1 (in-place)
I0611 14:24:22.080585 10712 net.cpp:150] Setting up relu3_1
I0611 14:24:22.080590 10712 net.cpp:157] Top shape: 1 256 150 250 (9600000)
I0611 14:24:22.080602 10712 net.cpp:165] Memory required for data: 1077600108
I0611 14:24:22.080605 10712 layer_factory.hpp:77] Creating layer conv3_2
I0611 14:24:22.080615 10712 net.cpp:106] Creating Layer conv3_2
I0611 14:24:22.080616 10712 net.cpp:454] conv3_2 <- conv3_1
I0611 14:24:22.080621 10712 net.cpp:411] conv3_2 -> conv3_2
I0611 14:24:22.083197 10712 net.cpp:150] Setting up conv3_2
I0611 14:24:22.083221 10712 net.cpp:157] Top shape: 1 256 150 250 (9600000)
I0611 14:24:22.083225 10712 net.cpp:165] Memory required for data: 1116000108
I0611 14:24:22.083232 10712 layer_factory.hpp:77] Creating layer relu3_2
I0611 14:24:22.083250 10712 net.cpp:106] Creating Layer relu3_2
I0611 14:24:22.083254 10712 net.cpp:454] relu3_2 <- conv3_2
I0611 14:24:22.083261 10712 net.cpp:397] relu3_2 -> conv3_2 (in-place)
I0611 14:24:22.083415 10712 net.cpp:150] Setting up relu3_2
I0611 14:24:22.083423 10712 net.cpp:157] Top shape: 1 256 150 250 (9600000)
I0611 14:24:22.083429 10712 net.cpp:165] Memory required for data: 1154400108
I0611 14:24:22.083433 10712 layer_factory.hpp:77] Creating layer conv3_3
I0611 14:24:22.083443 10712 net.cpp:106] Creating Layer conv3_3
I0611 14:24:22.083448 10712 net.cpp:454] conv3_3 <- conv3_2
I0611 14:24:22.083457 10712 net.cpp:411] conv3_3 -> conv3_3
I0611 14:24:22.086107 10712 net.cpp:150] Setting up conv3_3
I0611 14:24:22.086123 10712 net.cpp:157] Top shape: 1 256 150 250 (9600000)
I0611 14:24:22.086127 10712 net.cpp:165] Memory required for data: 1192800108
I0611 14:24:22.086135 10712 layer_factory.hpp:77] Creating layer relu3_3
I0611 14:24:22.086144 10712 net.cpp:106] Creating Layer relu3_3
I0611 14:24:22.086151 10712 net.cpp:454] relu3_3 <- conv3_3
I0611 14:24:22.086167 10712 net.cpp:397] relu3_3 -> conv3_3 (in-place)
I0611 14:24:22.086323 10712 net.cpp:150] Setting up relu3_3
I0611 14:24:22.086330 10712 net.cpp:157] Top shape: 1 256 150 250 (9600000)
I0611 14:24:22.086333 10712 net.cpp:165] Memory required for data: 1231200108
I0611 14:24:22.086335 10712 layer_factory.hpp:77] Creating layer pool3
I0611 14:24:22.086341 10712 net.cpp:106] Creating Layer pool3
I0611 14:24:22.086344 10712 net.cpp:454] pool3 <- conv3_3
I0611 14:24:22.086347 10712 net.cpp:411] pool3 -> pool3
I0611 14:24:22.086403 10712 net.cpp:150] Setting up pool3
I0611 14:24:22.086410 10712 net.cpp:157] Top shape: 1 256 75 125 (2400000)
I0611 14:24:22.086413 10712 net.cpp:165] Memory required for data: 1240800108
I0611 14:24:22.086416 10712 layer_factory.hpp:77] Creating layer conv4_1
I0611 14:24:22.086422 10712 net.cpp:106] Creating Layer conv4_1
I0611 14:24:22.086424 10712 net.cpp:454] conv4_1 <- pool3
I0611 14:24:22.086428 10712 net.cpp:411] conv4_1 -> conv4_1
I0611 14:24:22.090368 10712 net.cpp:150] Setting up conv4_1
I0611 14:24:22.090396 10712 net.cpp:157] Top shape: 1 512 75 125 (4800000)
I0611 14:24:22.090399 10712 net.cpp:165] Memory required for data: 1260000108
I0611 14:24:22.090407 10712 layer_factory.hpp:77] Creating layer relu4_1
I0611 14:24:22.090426 10712 net.cpp:106] Creating Layer relu4_1
I0611 14:24:22.090430 10712 net.cpp:454] relu4_1 <- conv4_1
I0611 14:24:22.090437 10712 net.cpp:397] relu4_1 -> conv4_1 (in-place)
I0611 14:24:22.090602 10712 net.cpp:150] Setting up relu4_1
I0611 14:24:22.090610 10712 net.cpp:157] Top shape: 1 512 75 125 (4800000)
I0611 14:24:22.090622 10712 net.cpp:165] Memory required for data: 1279200108
I0611 14:24:22.090625 10712 layer_factory.hpp:77] Creating layer conv4_2
I0611 14:24:22.090642 10712 net.cpp:106] Creating Layer conv4_2
I0611 14:24:22.090646 10712 net.cpp:454] conv4_2 <- conv4_1
I0611 14:24:22.090652 10712 net.cpp:411] conv4_2 -> conv4_2
I0611 14:24:22.099967 10712 net.cpp:150] Setting up conv4_2
I0611 14:24:22.099997 10712 net.cpp:157] Top shape: 1 512 75 125 (4800000)
I0611 14:24:22.100003 10712 net.cpp:165] Memory required for data: 1298400108
I0611 14:24:22.100021 10712 layer_factory.hpp:77] Creating layer relu4_2
I0611 14:24:22.100035 10712 net.cpp:106] Creating Layer relu4_2
I0611 14:24:22.100054 10712 net.cpp:454] relu4_2 <- conv4_2
I0611 14:24:22.100071 10712 net.cpp:397] relu4_2 -> conv4_2 (in-place)
I0611 14:24:22.100776 10712 net.cpp:150] Setting up relu4_2
I0611 14:24:22.100802 10712 net.cpp:157] Top shape: 1 512 75 125 (4800000)
I0611 14:24:22.100807 10712 net.cpp:165] Memory required for data: 1317600108
I0611 14:24:22.100812 10712 layer_factory.hpp:77] Creating layer conv4_3
I0611 14:24:22.100827 10712 net.cpp:106] Creating Layer conv4_3
I0611 14:24:22.100836 10712 net.cpp:454] conv4_3 <- conv4_2
I0611 14:24:22.100848 10712 net.cpp:411] conv4_3 -> conv4_3
I0611 14:24:22.105298 10712 net.cpp:150] Setting up conv4_3
I0611 14:24:22.105327 10712 net.cpp:157] Top shape: 1 512 75 125 (4800000)
I0611 14:24:22.105331 10712 net.cpp:165] Memory required for data: 1336800108
I0611 14:24:22.105340 10712 layer_factory.hpp:77] Creating layer relu4_3
I0611 14:24:22.105351 10712 net.cpp:106] Creating Layer relu4_3
I0611 14:24:22.105358 10712 net.cpp:454] relu4_3 <- conv4_3
I0611 14:24:22.105366 10712 net.cpp:397] relu4_3 -> conv4_3 (in-place)
I0611 14:24:22.105543 10712 net.cpp:150] Setting up relu4_3
I0611 14:24:22.105552 10712 net.cpp:157] Top shape: 1 512 75 125 (4800000)
I0611 14:24:22.105554 10712 net.cpp:165] Memory required for data: 1356000108
I0611 14:24:22.105557 10712 layer_factory.hpp:77] Creating layer pool4
I0611 14:24:22.105564 10712 net.cpp:106] Creating Layer pool4
I0611 14:24:22.105566 10712 net.cpp:454] pool4 <- conv4_3
I0611 14:24:22.105581 10712 net.cpp:411] pool4 -> pool4
I0611 14:24:22.105634 10712 net.cpp:150] Setting up pool4
I0611 14:24:22.105639 10712 net.cpp:157] Top shape: 1 512 38 63 (1225728)
I0611 14:24:22.105641 10712 net.cpp:165] Memory required for data: 1360903020
I0611 14:24:22.105643 10712 layer_factory.hpp:77] Creating layer conv5_1
I0611 14:24:22.105650 10712 net.cpp:106] Creating Layer conv5_1
I0611 14:24:22.105653 10712 net.cpp:454] conv5_1 <- pool4
I0611 14:24:22.105656 10712 net.cpp:411] conv5_1 -> conv5_1
I0611 14:24:22.110013 10712 net.cpp:150] Setting up conv5_1
I0611 14:24:22.110028 10712 net.cpp:157] Top shape: 1 512 38 63 (1225728)
I0611 14:24:22.110031 10712 net.cpp:165] Memory required for data: 1365805932
I0611 14:24:22.110038 10712 layer_factory.hpp:77] Creating layer relu5_1
I0611 14:24:22.110045 10712 net.cpp:106] Creating Layer relu5_1
I0611 14:24:22.110059 10712 net.cpp:454] relu5_1 <- conv5_1
I0611 14:24:22.110064 10712 net.cpp:397] relu5_1 -> conv5_1 (in-place)
I0611 14:24:22.110234 10712 net.cpp:150] Setting up relu5_1
I0611 14:24:22.110242 10712 net.cpp:157] Top shape: 1 512 38 63 (1225728)
I0611 14:24:22.110244 10712 net.cpp:165] Memory required for data: 1370708844
I0611 14:24:22.110247 10712 layer_factory.hpp:77] Creating layer conv5_2
I0611 14:24:22.110253 10712 net.cpp:106] Creating Layer conv5_2
I0611 14:24:22.110256 10712 net.cpp:454] conv5_2 <- conv5_1
I0611 14:24:22.110271 10712 net.cpp:411] conv5_2 -> conv5_2
I0611 14:24:22.114789 10712 net.cpp:150] Setting up conv5_2
I0611 14:24:22.114817 10712 net.cpp:157] Top shape: 1 512 38 63 (1225728)
I0611 14:24:22.114820 10712 net.cpp:165] Memory required for data: 1375611756
I0611 14:24:22.114828 10712 layer_factory.hpp:77] Creating layer relu5_2
I0611 14:24:22.114846 10712 net.cpp:106] Creating Layer relu5_2
I0611 14:24:22.114851 10712 net.cpp:454] relu5_2 <- conv5_2
I0611 14:24:22.114862 10712 net.cpp:397] relu5_2 -> conv5_2 (in-place)
I0611 14:24:22.115032 10712 net.cpp:150] Setting up relu5_2
I0611 14:24:22.115038 10712 net.cpp:157] Top shape: 1 512 38 63 (1225728)
I0611 14:24:22.115051 10712 net.cpp:165] Memory required for data: 1380514668
I0611 14:24:22.115054 10712 layer_factory.hpp:77] Creating layer conv5_3
I0611 14:24:22.115078 10712 net.cpp:106] Creating Layer conv5_3
I0611 14:24:22.115082 10712 net.cpp:454] conv5_3 <- conv5_2
I0611 14:24:22.115097 10712 net.cpp:411] conv5_3 -> conv5_3
I0611 14:24:22.120332 10712 net.cpp:150] Setting up conv5_3
I0611 14:24:22.120363 10712 net.cpp:157] Top shape: 1 512 38 63 (1225728)
I0611 14:24:22.120366 10712 net.cpp:165] Memory required for data: 1385417580
I0611 14:24:22.120374 10712 layer_factory.hpp:77] Creating layer relu5_3
I0611 14:24:22.120393 10712 net.cpp:106] Creating Layer relu5_3
I0611 14:24:22.120398 10712 net.cpp:454] relu5_3 <- conv5_3
I0611 14:24:22.120405 10712 net.cpp:397] relu5_3 -> conv5_3 (in-place)
I0611 14:24:22.120584 10712 net.cpp:150] Setting up relu5_3
I0611 14:24:22.120592 10712 net.cpp:157] Top shape: 1 512 38 63 (1225728)
I0611 14:24:22.120605 10712 net.cpp:165] Memory required for data: 1390320492
I0611 14:24:22.120609 10712 layer_factory.hpp:77] Creating layer conv5_3_relu5_3_0_split
I0611 14:24:22.120612 10712 net.cpp:106] Creating Layer conv5_3_relu5_3_0_split
I0611 14:24:22.120615 10712 net.cpp:454] conv5_3_relu5_3_0_split <- conv5_3
I0611 14:24:22.120630 10712 net.cpp:411] conv5_3_relu5_3_0_split -> conv5_3_relu5_3_0_split_0
I0611 14:24:22.120638 10712 net.cpp:411] conv5_3_relu5_3_0_split -> conv5_3_relu5_3_0_split_1
I0611 14:24:22.120645 10712 net.cpp:411] conv5_3_relu5_3_0_split -> conv5_3_relu5_3_0_split_2
I0611 14:24:22.120707 10712 net.cpp:150] Setting up conv5_3_relu5_3_0_split
I0611 14:24:22.120712 10712 net.cpp:157] Top shape: 1 512 38 63 (1225728)
I0611 14:24:22.120725 10712 net.cpp:157] Top shape: 1 512 38 63 (1225728)
I0611 14:24:22.120728 10712 net.cpp:157] Top shape: 1 512 38 63 (1225728)
I0611 14:24:22.120729 10712 net.cpp:165] Memory required for data: 1405029228
I0611 14:24:22.120733 10712 layer_factory.hpp:77] Creating layer rpn_conv/3x3
I0611 14:24:22.120744 10712 net.cpp:106] Creating Layer rpn_conv/3x3
I0611 14:24:22.120750 10712 net.cpp:454] rpn_conv/3x3 <- conv5_3_relu5_3_0_split_0
I0611 14:24:22.120771 10712 net.cpp:411] rpn_conv/3x3 -> rpn/output
I0611 14:24:22.172482 10712 net.cpp:150] Setting up rpn_conv/3x3
I0611 14:24:22.172513 10712 net.cpp:157] Top shape: 1 512 38 63 (1225728)
I0611 14:24:22.172515 10712 net.cpp:165] Memory required for data: 1409932140
I0611 14:24:22.172523 10712 layer_factory.hpp:77] Creating layer rpn_relu/3x3
I0611 14:24:22.172541 10712 net.cpp:106] Creating Layer rpn_relu/3x3
I0611 14:24:22.172545 10712 net.cpp:454] rpn_relu/3x3 <- rpn/output
I0611 14:24:22.172554 10712 net.cpp:397] rpn_relu/3x3 -> rpn/output (in-place)
I0611 14:24:22.172716 10712 net.cpp:150] Setting up rpn_relu/3x3
I0611 14:24:22.172734 10712 net.cpp:157] Top shape: 1 512 38 63 (1225728)
I0611 14:24:22.172737 10712 net.cpp:165] Memory required for data: 1414835052
I0611 14:24:22.172740 10712 layer_factory.hpp:77] Creating layer rpn/output_rpn_relu/3x3_0_split
I0611 14:24:22.172745 10712 net.cpp:106] Creating Layer rpn/output_rpn_relu/3x3_0_split
I0611 14:24:22.172758 10712 net.cpp:454] rpn/output_rpn_relu/3x3_0_split <- rpn/output
I0611 14:24:22.172763 10712 net.cpp:411] rpn/output_rpn_relu/3x3_0_split -> rpn/output_rpn_relu/3x3_0_split_0
I0611 14:24:22.172773 10712 net.cpp:411] rpn/output_rpn_relu/3x3_0_split -> rpn/output_rpn_relu/3x3_0_split_1
I0611 14:24:22.172845 10712 net.cpp:150] Setting up rpn/output_rpn_relu/3x3_0_split
I0611 14:24:22.172861 10712 net.cpp:157] Top shape: 1 512 38 63 (1225728)
I0611 14:24:22.172876 10712 net.cpp:157] Top shape: 1 512 38 63 (1225728)
I0611 14:24:22.172878 10712 net.cpp:165] Memory required for data: 1424640876
I0611 14:24:22.172881 10712 layer_factory.hpp:77] Creating layer rpn_cls_score
I0611 14:24:22.172901 10712 net.cpp:106] Creating Layer rpn_cls_score
I0611 14:24:22.172905 10712 net.cpp:454] rpn_cls_score <- rpn/output_rpn_relu/3x3_0_split_0
I0611 14:24:22.172911 10712 net.cpp:411] rpn_cls_score -> rpn_cls_score
I0611 14:24:22.174629 10712 net.cpp:150] Setting up rpn_cls_score
I0611 14:24:22.174638 10712 net.cpp:157] Top shape: 1 30 38 63 (71820)
I0611 14:24:22.174651 10712 net.cpp:165] Memory required for data: 1424928156
I0611 14:24:22.174656 10712 layer_factory.hpp:77] Creating layer rpn_cls_score_rpn_cls_score_0_split
I0611 14:24:22.174661 10712 net.cpp:106] Creating Layer rpn_cls_score_rpn_cls_score_0_split
I0611 14:24:22.174674 10712 net.cpp:454] rpn_cls_score_rpn_cls_score_0_split <- rpn_cls_score
I0611 14:24:22.174682 10712 net.cpp:411] rpn_cls_score_rpn_cls_score_0_split -> rpn_cls_score_rpn_cls_score_0_split_0
I0611 14:24:22.174690 10712 net.cpp:411] rpn_cls_score_rpn_cls_score_0_split -> rpn_cls_score_rpn_cls_score_0_split_1
I0611 14:24:22.174753 10712 net.cpp:150] Setting up rpn_cls_score_rpn_cls_score_0_split
I0611 14:24:22.174768 10712 net.cpp:157] Top shape: 1 30 38 63 (71820)
I0611 14:24:22.174773 10712 net.cpp:157] Top shape: 1 30 38 63 (71820)
I0611 14:24:22.174785 10712 net.cpp:165] Memory required for data: 1425502716
I0611 14:24:22.174789 10712 layer_factory.hpp:77] Creating layer rpn_bbox_pred
I0611 14:24:22.174809 10712 net.cpp:106] Creating Layer rpn_bbox_pred
I0611 14:24:22.174813 10712 net.cpp:454] rpn_bbox_pred <- rpn/output_rpn_relu/3x3_0_split_1
I0611 14:24:22.174830 10712 net.cpp:411] rpn_bbox_pred -> rpn_bbox_pred
I0611 14:24:22.176403 10712 net.cpp:150] Setting up rpn_bbox_pred
I0611 14:24:22.176410 10712 net.cpp:157] Top shape: 1 60 38 63 (143640)
I0611 14:24:22.176422 10712 net.cpp:165] Memory required for data: 1426077276
I0611 14:24:22.176427 10712 layer_factory.hpp:77] Creating layer rpn_bbox_pred_rpn_bbox_pred_0_split
I0611 14:24:22.176437 10712 net.cpp:106] Creating Layer rpn_bbox_pred_rpn_bbox_pred_0_split
I0611 14:24:22.176441 10712 net.cpp:454] rpn_bbox_pred_rpn_bbox_pred_0_split <- rpn_bbox_pred
I0611 14:24:22.176450 10712 net.cpp:411] rpn_bbox_pred_rpn_bbox_pred_0_split -> rpn_bbox_pred_rpn_bbox_pred_0_split_0
I0611 14:24:22.176457 10712 net.cpp:411] rpn_bbox_pred_rpn_bbox_pred_0_split -> rpn_bbox_pred_rpn_bbox_pred_0_split_1
I0611 14:24:22.176507 10712 net.cpp:150] Setting up rpn_bbox_pred_rpn_bbox_pred_0_split
I0611 14:24:22.176513 10712 net.cpp:157] Top shape: 1 60 38 63 (143640)
I0611 14:24:22.176525 10712 net.cpp:157] Top shape: 1 60 38 63 (143640)
I0611 14:24:22.176527 10712 net.cpp:165] Memory required for data: 1427226396
I0611 14:24:22.176530 10712 layer_factory.hpp:77] Creating layer rpn_cls_score_reshape
I0611 14:24:22.176542 10712 net.cpp:106] Creating Layer rpn_cls_score_reshape
I0611 14:24:22.176548 10712 net.cpp:454] rpn_cls_score_reshape <- rpn_cls_score_rpn_cls_score_0_split_0
I0611 14:24:22.176553 10712 net.cpp:411] rpn_cls_score_reshape -> rpn_cls_score_reshape
I0611 14:24:22.176581 10712 net.cpp:150] Setting up rpn_cls_score_reshape
I0611 14:24:22.176589 10712 net.cpp:157] Top shape: 1 2 570 63 (71820)
I0611 14:24:22.176591 10712 net.cpp:165] Memory required for data: 1427513676
I0611 14:24:22.176594 10712 layer_factory.hpp:77] Creating layer rpn_cls_score_reshape_rpn_cls_score_reshape_0_split
I0611 14:24:22.176597 10712 net.cpp:106] Creating Layer rpn_cls_score_reshape_rpn_cls_score_reshape_0_split
I0611 14:24:22.176601 10712 net.cpp:454] rpn_cls_score_reshape_rpn_cls_score_reshape_0_split <- rpn_cls_score_reshape
I0611 14:24:22.176604 10712 net.cpp:411] rpn_cls_score_reshape_rpn_cls_score_reshape_0_split -> rpn_cls_score_reshape_rpn_cls_score_reshape_0_split_0
I0611 14:24:22.176609 10712 net.cpp:411] rpn_cls_score_reshape_rpn_cls_score_reshape_0_split -> rpn_cls_score_reshape_rpn_cls_score_reshape_0_split_1
I0611 14:24:22.176632 10712 net.cpp:150] Setting up rpn_cls_score_reshape_rpn_cls_score_reshape_0_split
I0611 14:24:22.176636 10712 net.cpp:157] Top shape: 1 2 570 63 (71820)
I0611 14:24:22.176638 10712 net.cpp:157] Top shape: 1 2 570 63 (71820)
I0611 14:24:22.176641 10712 net.cpp:165] Memory required for data: 1428088236
I0611 14:24:22.176643 10712 layer_factory.hpp:77] Creating layer rpn-data
I0611 14:24:22.177659 10712 net.cpp:106] Creating Layer rpn-data
I0611 14:24:22.177666 10712 net.cpp:454] rpn-data <- rpn_cls_score_rpn_cls_score_0_split_1
I0611 14:24:22.177671 10712 net.cpp:454] rpn-data <- gt_boxes_input-data_2_split_0
I0611 14:24:22.177675 10712 net.cpp:454] rpn-data <- im_info_input-data_1_split_0
I0611 14:24:22.177678 10712 net.cpp:454] rpn-data <- data_input-data_0_split_1
I0611 14:24:22.177683 10712 net.cpp:411] rpn-data -> rpn_labels
I0611 14:24:22.177690 10712 net.cpp:411] rpn-data -> rpn_bbox_targets
I0611 14:24:22.177695 10712 net.cpp:411] rpn-data -> rpn_bbox_inside_weights
I0611 14:24:22.177702 10712 net.cpp:411] rpn-data -> rpn_bbox_outside_weights
===================================anchor_scales in AnchorTargetLayer:=============(2, 4, 8, 16, 32)
I0611 14:24:22.178578 10712 net.cpp:150] Setting up rpn-data
I0611 14:24:22.178586 10712 net.cpp:157] Top shape: 1 1 570 63 (35910)
I0611 14:24:22.178598 10712 net.cpp:157] Top shape: 1 60 38 63 (143640)
I0611 14:24:22.178601 10712 net.cpp:157] Top shape: 1 60 38 63 (143640)
I0611 14:24:22.178603 10712 net.cpp:157] Top shape: 1 60 38 63 (143640)
I0611 14:24:22.178606 10712 net.cpp:165] Memory required for data: 1429955556
I0611 14:24:22.178611 10712 layer_factory.hpp:77] Creating layer rpn_loss_cls
I0611 14:24:22.178617 10712 net.cpp:106] Creating Layer rpn_loss_cls
I0611 14:24:22.178620 10712 net.cpp:454] rpn_loss_cls <- rpn_cls_score_reshape_rpn_cls_score_reshape_0_split_0
I0611 14:24:22.178623 10712 net.cpp:454] rpn_loss_cls <- rpn_labels
…
I0611 14:24:22.180603 10712 net.cpp:157] Top shape: (1)
I0611 14:24:22.180606 10712 net.cpp:160]     with loss weight 1
I0611 14:24:22.180613 10712 net.cpp:165] Memory required for data: 1429955564
I0611 14:24:22.180618 10712 layer_factory.hpp:77] Creating layer rpn_cls_prob
I0611 14:24:22.180624 10712 net.cpp:106] Creating Layer rpn_cls_prob
I0611 14:24:22.180630 10712 net.cpp:454] rpn_cls_prob <- rpn_cls_score_reshape_rpn_cls_score_reshape_0_split_1
I0611 14:24:22.180640 10712 net.cpp:411] rpn_cls_prob -> rpn_cls_prob
I0611 14:24:22.180810 10712 net.cpp:150] Setting up rpn_cls_prob
I0611 14:24:22.180819 10712 net.cpp:157] Top shape: 1 2 570 63 (71820)
I0611 14:24:22.180822 10712 net.cpp:165] Memory required for data: 1430242844
I0611 14:24:22.180825 10712 layer_factory.hpp:77] Creating layer rpn_cls_prob_reshape
I0611 14:24:22.180833 10712 net.cpp:106] Creating Layer rpn_cls_prob_reshape
I0611 14:24:22.180837 10712 net.cpp:454] rpn_cls_prob_reshape <- rpn_cls_prob
I0611 14:24:22.180845 10712 net.cpp:411] rpn_cls_prob_reshape -> rpn_cls_prob_reshape
I0611 14:24:22.180867 10712 net.cpp:150] Setting up rpn_cls_prob_reshape
I0611 14:24:22.180874 10712 net.cpp:157] Top shape: 1 30 38 63 (71820)
I0611 14:24:22.180877 10712 net.cpp:165] Memory required for data: 1430530124
I0611 14:24:22.180881 10712 layer_factory.hpp:77] Creating layer proposal
I0611 14:24:22.183365 10712 net.cpp:106] Creating Layer proposal
I0611 14:24:22.183374 10712 net.cpp:454] proposal <- rpn_cls_prob_reshape
I0611 14:24:22.183380 10712 net.cpp:454] proposal <- rpn_bbox_pred_rpn_bbox_pred_0_split_1
I0611 14:24:22.183385 10712 net.cpp:454] proposal <- im_info_input-data_1_split_1
I0611 14:24:22.183394 10712 net.cpp:411] proposal -> rpn_rois
=================================anchor_scales in ProposalLayer:=============(2, 4, 8, 16, 32)
I0611 14:24:22.184922 10712 net.cpp:150] Setting up proposal
I0611 14:24:22.184936 10712 net.cpp:157] Top shape: 1 5 (5)
I0611 14:24:22.184939 10712 net.cpp:165] Memory required for data: 1430530144
I0611 14:24:22.184954 10712 layer_factory.hpp:77] Creating layer roi-data
I0611 14:24:22.187590 10712 net.cpp:106] Creating Layer roi-data
I0611 14:24:22.187602 10712 net.cpp:454] roi-data <- rpn_rois
I0611 14:24:22.187608 10712 net.cpp:454] roi-data <- gt_boxes_input-data_2_split_1
I0611 14:24:22.187623 10712 net.cpp:454] roi-data <- im_info_input-data_1_split_2
I0611 14:24:22.187628 10712 net.cpp:454] roi-data <- seg_mask_inds
I0611 14:24:22.187661 10712 net.cpp:454] roi-data <- flipped
I0611 14:24:22.187680 10712 net.cpp:411] roi-data -> rois
I0611 14:24:22.187691 10712 net.cpp:411] roi-data -> labels
I0611 14:24:22.187702 10712 net.cpp:411] roi-data -> bbox_targets
I0611 14:24:22.187711 10712 net.cpp:411] roi-data -> bbox_inside_weights
I0611 14:24:22.187718 10712 net.cpp:411] roi-data -> bbox_outside_weights
I0611 14:24:22.187726 10712 net.cpp:411] roi-data -> mask_targets
I0611 14:24:22.187736 10712 net.cpp:411] roi-data -> rois_pos
I0611 14:24:22.187747 10712 net.cpp:411] roi-data -> attrArray
I0611 14:24:22.188088 10712 net.cpp:150] Setting up roi-data
I0611 14:24:22.188098 10712 net.cpp:157] Top shape: 1 5 (5)
I0611 14:24:22.188102 10712 net.cpp:157] Top shape: 1 1 (1)
I0611 14:24:22.188117 10712 net.cpp:157] Top shape: 1 8 (8)
I0611 14:24:22.188122 10712 net.cpp:157] Top shape: 1 8 (8)
I0611 14:24:22.188127 10712 net.cpp:157] Top shape: 1 8 (8)
I0611 14:24:22.188133 10712 net.cpp:157] Top shape: 1 244 244 (59536)
I0611 14:24:22.188136 10712 net.cpp:157] Top shape: 1 5 (5)
I0611 14:24:22.188141 10712 net.cpp:157] Top shape: 1 10 (10)
I0611 14:24:22.188144 10712 net.cpp:165] Memory required for data: 1430768468
I0611 14:24:22.188150 10712 layer_factory.hpp:77] Creating layer roi_pool5
I0611 14:24:22.188166 10712 net.cpp:106] Creating Layer roi_pool5
I0611 14:24:22.188171 10712 net.cpp:454] roi_pool5 <- conv5_3_relu5_3_0_split_1
I0611 14:24:22.188176 10712 net.cpp:454] roi_pool5 <- rois
I0611 14:24:22.188181 10712 net.cpp:411] roi_pool5 -> pool5
I0611 14:24:22.188200 10712 roi_alignment_layer.cpp:32] Spatial scale: 0.0625
I0611 14:24:22.188272 10712 net.cpp:150] Setting up roi_pool5
I0611 14:24:22.188278 10712 net.cpp:157] Top shape: 1 512 7 7 (25088)
I0611 14:24:22.188282 10712 net.cpp:165] Memory required for data: 1430868820
I0611 14:24:22.188285 10712 layer_factory.hpp:77] Creating layer fc6
I0611 14:24:22.188294 10712 net.cpp:106] Creating Layer fc6
I0611 14:24:22.188299 10712 net.cpp:454] fc6 <- pool5
I0611 14:24:22.188305 10712 net.cpp:411] fc6 -> fc6
I0611 14:24:22.343588 10712 net.cpp:150] Setting up fc6
I0611 14:24:22.343618 10712 net.cpp:157] Top shape: 1 4096 (4096)
I0611 14:24:22.343622 10712 net.cpp:165] Memory required for data: 1430885204
I0611 14:24:22.343641 10712 layer_factory.hpp:77] Creating layer relu6
I0611 14:24:22.343652 10712 net.cpp:106] Creating Layer relu6
I0611 14:24:22.343672 10712 net.cpp:454] relu6 <- fc6
I0611 14:24:22.343688 10712 net.cpp:397] relu6 -> fc6 (in-place)
I0611 14:24:22.343917 10712 net.cpp:150] Setting up relu6
I0611 14:24:22.343927 10712 net.cpp:157] Top shape: 1 4096 (4096)
I0611 14:24:22.343930 10712 net.cpp:165] Memory required for data: 1430901588
I0611 14:24:22.343935 10712 layer_factory.hpp:77] Creating layer fc7
I0611 14:24:22.343941 10712 net.cpp:106] Creating Layer fc7
I0611 14:24:22.343947 10712 net.cpp:454] fc7 <- fc6
I0611 14:24:22.343962 10712 net.cpp:411] fc7 -> fc7
I0611 14:24:22.369760 10712 net.cpp:150] Setting up fc7
I0611 14:24:22.369784 10712 net.cpp:157] Top shape: 1 4096 (4096)
I0611 14:24:22.369789 10712 net.cpp:165] Memory required for data: 1430917972
I0611 14:24:22.369812 10712 layer_factory.hpp:77] Creating layer relu7
I0611 14:24:22.369824 10712 net.cpp:106] Creating Layer relu7
I0611 14:24:22.369832 10712 net.cpp:454] relu7 <- fc7
I0611 14:24:22.369839 10712 net.cpp:397] relu7 -> fc7 (in-place)
I0611 14:24:22.370057 10712 net.cpp:150] Setting up relu7
I0611 14:24:22.370066 10712 net.cpp:157] Top shape: 1 4096 (4096)
I0611 14:24:22.370070 10712 net.cpp:165] Memory required for data: 1430934356
I0611 14:24:22.370085 10712 layer_factory.hpp:77] Creating layer fc7_relu7_0_split
I0611 14:24:22.370092 10712 net.cpp:106] Creating Layer fc7_relu7_0_split
I0611 14:24:22.370110 10712 net.cpp:454] fc7_relu7_0_split <- fc7
I0611 14:24:22.370117 10712 net.cpp:411] fc7_relu7_0_split -> fc7_relu7_0_split_0
I0611 14:24:22.370141 10712 net.cpp:411] fc7_relu7_0_split -> fc7_relu7_0_split_1
I0611 14:24:22.370203 10712 net.cpp:150] Setting up fc7_relu7_0_split
I0611 14:24:22.370211 10712 net.cpp:157] Top shape: 1 4096 (4096)
I0611 14:24:22.370216 10712 net.cpp:157] Top shape: 1 4096 (4096)
I0611 14:24:22.370232 10712 net.cpp:165] Memory required for data: 1430967124
I0611 14:24:22.370236 10712 layer_factory.hpp:77] Creating layer cls_score
I0611 14:24:22.370254 10712 net.cpp:106] Creating Layer cls_score
I0611 14:24:22.370268 10712 net.cpp:454] cls_score <- fc7_relu7_0_split_0
I0611 14:24:22.370275 10712 net.cpp:411] cls_score -> cls_score
I0611 14:24:22.370568 10712 net.cpp:150] Setting up cls_score
I0611 14:24:22.370575 10712 net.cpp:157] Top shape: 1 2 (2)
I0611 14:24:22.370579 10712 net.cpp:165] Memory required for data: 1430967132
I0611 14:24:22.370585 10712 layer_factory.hpp:77] Creating layer bbox_pred
I0611 14:24:22.370594 10712 net.cpp:106] Creating Layer bbox_pred
I0611 14:24:22.370599 10712 net.cpp:454] bbox_pred <- fc7_relu7_0_split_1
I0611 14:24:22.370605 10712 net.cpp:411] bbox_pred -> bbox_pred
I0611 14:24:22.371413 10712 net.cpp:150] Setting up bbox_pred
I0611 14:24:22.371421 10712 net.cpp:157] Top shape: 1 8 (8)
I0611 14:24:22.371424 10712 net.cpp:165] Memory required for data: 1430967164
I0611 14:24:22.371441 10712 layer_factory.hpp:77] Creating layer loss_cls
I0611 14:24:22.371459 10712 net.cpp:106] Creating Layer loss_cls
I0611 14:24:22.371465 10712 net.cpp:454] loss_cls <- cls_score
I0611 14:24:22.371471 10712 net.cpp:454] loss_cls <- labels
I0611 14:24:22.371479 10712 net.cpp:411] loss_cls -> loss_cls
…
I0611 14:24:22.372375 10712 net.cpp:165] Memory required for data: 1430967172
I0611 14:24:22.372391 10712 layer_factory.hpp:77] Creating layer roi_pool5_2
I0611 14:24:22.372400 10712 net.cpp:106] Creating Layer roi_pool5_2
I0611 14:24:22.372407 10712 net.cpp:454] roi_pool5_2 <- conv5_3_relu5_3_0_split_2
I0611 14:24:22.372414 10712 net.cpp:454] roi_pool5_2 <- rois_pos
I0611 14:24:22.372421 10712 net.cpp:411] roi_pool5_2 -> pool5_2
I0611 14:24:22.372431 10712 roi_alignment_layer.cpp:32] Spatial scale: 0.0625
I0611 14:24:22.372501 10712 net.cpp:150] Setting up roi_pool5_2
I0611 14:24:22.372507 10712 net.cpp:157] Top shape: 1 512 7 7 (25088)
I0611 14:24:22.372511 10712 net.cpp:165] Memory required for data: 1431067524
I0611 14:24:22.372516 10712 layer_factory.hpp:77] Creating layer pool5_2_conv
I0611 14:24:22.372527 10712 net.cpp:106] Creating Layer pool5_2_conv
I0611 14:24:22.372534 10712 net.cpp:454] pool5_2_conv <- pool5_2
I0611 14:24:22.372541 10712 net.cpp:411] pool5_2_conv -> pool5_2_conv
I0611 14:24:22.379180 10712 net.cpp:150] Setting up pool5_2_conv
I0611 14:24:22.379199 10712 net.cpp:157] Top shape: 1 512 7 7 (25088)
I0611 14:24:22.379204 10712 net.cpp:165] Memory required for data: 1431167876
I0611 14:24:22.379220 10712 layer_factory.hpp:77] Creating layer pool5_2_conv_relu
I0611 14:24:22.379241 10712 net.cpp:106] Creating Layer pool5_2_conv_relu
I0611 14:24:22.379247 10712 net.cpp:454] pool5_2_conv_relu <- pool5_2_conv
I0611 14:24:22.379266 10712 net.cpp:411] pool5_2_conv_relu -> pool5_2_conv_relu
I0611 14:24:22.379433 10712 net.cpp:150] Setting up pool5_2_conv_relu
I0611 14:24:22.379441 10712 net.cpp:157] Top shape: 1 512 7 7 (25088)
I0611 14:24:22.379444 10712 net.cpp:165] Memory required for data: 1431268228
I0611 14:24:22.379458 10712 layer_factory.hpp:77] Creating layer pool5_2_conv2
I0611 14:24:22.379489 10712 net.cpp:106] Creating Layer pool5_2_conv2
I0611 14:24:22.379504 10712 net.cpp:454] pool5_2_conv2 <- pool5_2_conv_relu
I0611 14:24:22.379511 10712 net.cpp:411] pool5_2_conv2 -> pool5_2_conv2
I0611 14:24:22.431901 10712 net.cpp:150] Setting up pool5_2_conv2
I0611 14:24:22.431922 10712 net.cpp:157] Top shape: 1 512 7 7 (25088)
I0611 14:24:22.431927 10712 net.cpp:165] Memory required for data: 1431368580
I0611 14:24:22.431939 10712 layer_factory.hpp:77] Creating layer pool5_2_conv2_relu
I0611 14:24:22.431952 10712 net.cpp:106] Creating Layer pool5_2_conv2_relu
I0611 14:24:22.431959 10712 net.cpp:454] pool5_2_conv2_relu <- pool5_2_conv2
I0611 14:24:22.431967 10712 net.cpp:411] pool5_2_conv2_relu -> pool5_2_conv2_relu
I0611 14:24:22.432128 10712 net.cpp:150] Setting up pool5_2_conv2_relu
I0611 14:24:22.432137 10712 net.cpp:157] Top shape: 1 512 7 7 (25088)
I0611 14:24:22.432142 10712 net.cpp:165] Memory required for data: 1431468932
I0611 14:24:22.432145 10712 layer_factory.hpp:77] Creating layer mask_deconv1
I0611 14:24:22.432157 10712 net.cpp:106] Creating Layer mask_deconv1
I0611 14:24:22.432163 10712 net.cpp:454] mask_deconv1 <- pool5_2_conv2_relu
I0611 14:24:22.432171 10712 net.cpp:411] mask_deconv1 -> mask_deconv1
I0611 14:24:22.432974 10712 net.cpp:150] Setting up mask_deconv1
I0611 14:24:22.432982 10712 net.cpp:157] Top shape: 1 256 30 30 (230400)
I0611 14:24:22.432986 10712 net.cpp:165] Memory required for data: 1432390532
I0611 14:24:22.433003 10712 layer_factory.hpp:77] Creating layer pool5_2_conv3
I0611 14:24:22.433014 10712 net.cpp:106] Creating Layer pool5_2_conv3
I0611 14:24:22.433018 10712 net.cpp:454] pool5_2_conv3 <- mask_deconv1
I0611 14:24:22.433027 10712 net.cpp:411] pool5_2_conv3 -> pool5_2_conv3
I0611 14:24:22.460158 10712 net.cpp:150] Setting up pool5_2_conv3
I0611 14:24:22.460180 10712 net.cpp:157] Top shape: 1 512 30 30 (460800)
I0611 14:24:22.460184 10712 net.cpp:165] Memory required for data: 1434233732
I0611 14:24:22.460206 10712 layer_factory.hpp:77] Creating layer pool5_2_conv3_relu
I0611 14:24:22.460227 10712 net.cpp:106] Creating Layer pool5_2_conv3_relu
I0611 14:24:22.460234 10712 net.cpp:454] pool5_2_conv3_relu <- pool5_2_conv3
I0611 14:24:22.460253 10712 net.cpp:411] pool5_2_conv3_relu -> pool5_2_conv3_relu
I0611 14:24:22.460435 10712 net.cpp:150] Setting up pool5_2_conv3_relu
I0611 14:24:22.460446 10712 net.cpp:157] Top shape: 1 512 30 30 (460800)
I0611 14:24:22.460450 10712 net.cpp:165] Memory required for data: 1436076932
I0611 14:24:22.460465 10712 layer_factory.hpp:77] Creating layer pool5_2_conv4
I0611 14:24:22.460491 10712 net.cpp:106] Creating Layer pool5_2_conv4
I0611 14:24:22.460505 10712 net.cpp:454] pool5_2_conv4 <- pool5_2_conv3_relu
I0611 14:24:22.460511 10712 net.cpp:411] pool5_2_conv4 -> pool5_2_conv4
I0611 14:24:22.511297 10712 net.cpp:150] Setting up pool5_2_conv4
I0611 14:24:22.511317 10712 net.cpp:157] Top shape: 1 512 30 30 (460800)
I0611 14:24:22.511322 10712 net.cpp:165] Memory required for data: 1437920132
I0611 14:24:22.511332 10712 layer_factory.hpp:77] Creating layer pool5_2_conv4_relu
I0611 14:24:22.511353 10712 net.cpp:106] Creating Layer pool5_2_conv4_relu
I0611 14:24:22.511370 10712 net.cpp:454] pool5_2_conv4_relu <- pool5_2_conv4
I0611 14:24:22.511377 10712 net.cpp:411] pool5_2_conv4_relu -> pool5_2_conv4_relu
I0611 14:24:22.511536 10712 net.cpp:150] Setting up pool5_2_conv4_relu
I0611 14:24:22.511545 10712 net.cpp:157] Top shape: 1 512 30 30 (460800)
I0611 14:24:22.511548 10712 net.cpp:165] Memory required for data: 1439763332
I0611 14:24:22.511552 10712 layer_factory.hpp:77] Creating layer pool5_2_conv4_relu_pool5_2_conv4_relu_0_split
I0611 14:24:22.511560 10712 net.cpp:106] Creating Layer pool5_2_conv4_relu_pool5_2_conv4_relu_0_split
I0611 14:24:22.511564 10712 net.cpp:454] pool5_2_conv4_relu_pool5_2_conv4_relu_0_split <- pool5_2_conv4_relu
I0611 14:24:22.511580 10712 net.cpp:411] pool5_2_conv4_relu_pool5_2_conv4_relu_0_split -> pool5_2_conv4_relu_pool5_2_conv4_relu_0_split_0
I0611 14:24:22.511590 10712 net.cpp:411] pool5_2_conv4_relu_pool5_2_conv4_relu_0_split -> pool5_2_conv4_relu_pool5_2_conv4_relu_0_split_1
I0611 14:24:22.511597 10712 net.cpp:411] pool5_2_conv4_relu_pool5_2_conv4_relu_0_split -> pool5_2_conv4_relu_pool5_2_conv4_relu_0_split_2
I0611 14:24:22.511611 10712 net.cpp:411] pool5_2_conv4_relu_pool5_2_conv4_relu_0_split -> pool5_2_conv4_relu_pool5_2_conv4_relu_0_split_3
I0611 14:24:22.511704 10712 net.cpp:150] Setting up pool5_2_conv4_relu_pool5_2_conv4_relu_0_split
I0611 14:24:22.511710 10712 net.cpp:157] Top shape: 1 512 30 30 (460800)
I0611 14:24:22.511715 10712 net.cpp:157] Top shape: 1 512 30 30 (460800)
I0611 14:24:22.511729 10712 net.cpp:157] Top shape: 1 512 30 30 (460800)
I0611 14:24:22.511734 10712 net.cpp:157] Top shape: 1 512 30 30 (460800)
I0611 14:24:22.511749 10712 net.cpp:165] Memory required for data: 1447136132
I0611 14:24:22.511751 10712 layer_factory.hpp:77] Creating layer query_conv
I0611 14:24:22.511777 10712 net.cpp:106] Creating Layer query_conv
I0611 14:24:22.511781 10712 net.cpp:454] query_conv <- pool5_2_conv4_relu_pool5_2_conv4_relu_0_split_0
I0611 14:24:22.511797 10712 net.cpp:411] query_conv -> query_conv
I0611 14:24:22.513447 10712 net.cpp:150] Setting up query_conv
I0611 14:24:22.513456 10712 net.cpp:157] Top shape: 1 64 30 30 (57600)
I0611 14:24:22.513460 10712 net.cpp:165] Memory required for data: 1447366532
I0611 14:24:22.513478 10712 layer_factory.hpp:77] Creating layer key_conv
I0611 14:24:22.513501 10712 net.cpp:106] Creating Layer key_conv
I0611 14:24:22.513506 10712 net.cpp:454] key_conv <- pool5_2_conv4_relu_pool5_2_conv4_relu_0_split_1
I0611 14:24:22.513514 10712 net.cpp:411] key_conv -> key_conv
I0611 14:24:22.515115 10712 net.cpp:150] Setting up key_conv
I0611 14:24:22.515123 10712 net.cpp:157] Top shape: 1 64 30 30 (57600)
I0611 14:24:22.515127 10712 net.cpp:165] Memory required for data: 1447596932
I0611 14:24:22.515136 10712 layer_factory.hpp:77] Creating layer value_conv
I0611 14:24:22.515159 10712 net.cpp:106] Creating Layer value_conv
I0611 14:24:22.515173 10712 net.cpp:454] value_conv <- pool5_2_conv4_relu_pool5_2_conv4_relu_0_split_2
I0611 14:24:22.515195 10712 net.cpp:411] value_conv -> value_conv
I0611 14:24:22.522567 10712 net.cpp:150] Setting up value_conv
I0611 14:24:22.522583 10712 net.cpp:157] Top shape: 1 512 30 30 (460800)
I0611 14:24:22.522588 10712 net.cpp:165] Memory required for data: 1449440132
I0611 14:24:22.522608 10712 layer_factory.hpp:77] Creating layer query_conv_reshape
I0611 14:24:22.522619 10712 net.cpp:106] Creating Layer query_conv_reshape
I0611 14:24:22.522624 10712 net.cpp:454] query_conv_reshape <- query_conv
I0611 14:24:22.522631 10712 net.cpp:411] query_conv_reshape -> query_conv_reshape
I0611 14:24:22.522686 10712 net.cpp:150] Setting up query_conv_reshape
I0611 14:24:22.522691 10712 net.cpp:157] Top shape: 1 64 900 1 (57600)
I0611 14:24:22.522703 10712 net.cpp:165] Memory required for data: 1449670532
I0611 14:24:22.522707 10712 layer_factory.hpp:77] Creating layer key_conv_reshape
I0611 14:24:22.522725 10712 net.cpp:106] Creating Layer key_conv_reshape
I0611 14:24:22.522730 10712 net.cpp:454] key_conv_reshape <- key_conv
I0611 14:24:22.522747 10712 net.cpp:411] key_conv_reshape -> key_conv_reshape
I0611 14:24:22.522773 10712 net.cpp:150] Setting up key_conv_reshape
I0611 14:24:22.522789 10712 net.cpp:157] Top shape: 1 64 900 1 (57600)
I0611 14:24:22.522792 10712 net.cpp:165] Memory required for data: 1449900932
I0611 14:24:22.522811 10712 layer_factory.hpp:77] Creating layer value_conv_reshape
I0611 14:24:22.522827 10712 net.cpp:106] Creating Layer value_conv_reshape
I0611 14:24:22.522832 10712 net.cpp:454] value_conv_reshape <- value_conv
I0611 14:24:22.522848 10712 net.cpp:411] value_conv_reshape -> value_conv_reshape
I0611 14:24:22.522872 10712 net.cpp:150] Setting up value_conv_reshape
I0611 14:24:22.522887 10712 net.cpp:157] Top shape: 1 512 900 1 (460800)
I0611 14:24:22.522891 10712 net.cpp:165] Memory required for data: 1451744132
I0611 14:24:22.522905 10712 layer_factory.hpp:77] Creating layer query_conv_reshape_perm
I0611 14:24:22.538724 10712 net.cpp:106] Creating Layer query_conv_reshape_perm
I0611 14:24:22.538758 10712 net.cpp:454] query_conv_reshape_perm <- query_conv_reshape
I0611 14:24:22.538769 10712 net.cpp:411] query_conv_reshape_perm -> query_conv_reshape_perm
I0611 14:24:22.538985 10712 net.cpp:150] Setting up query_conv_reshape_perm
I0611 14:24:22.538998 10712 net.cpp:157] Top shape: 1 1 900 64 (57600)
I0611 14:24:22.539001 10712 net.cpp:165] Memory required for data: 1451974532
I0611 14:24:22.539006 10712 layer_factory.hpp:77] Creating layer key_conv_reshape_perm
I0611 14:24:22.539014 10712 net.cpp:106] Creating Layer key_conv_reshape_perm
I0611 14:24:22.539029 10712 net.cpp:454] key_conv_reshape_perm <- key_conv_reshape
I0611 14:24:22.539043 10712 net.cpp:411] key_conv_reshape_perm -> key_conv_reshape_perm
I0611 14:24:22.539147 10712 net.cpp:150] Setting up key_conv_reshape_perm
I0611 14:24:22.539153 10712 net.cpp:157] Top shape: 1 1 64 900 (57600)
I0611 14:24:22.539156 10712 net.cpp:165] Memory required for data: 1452204932
I0611 14:24:22.539160 10712 layer_factory.hpp:77] Creating layer energy
I0611 14:24:22.539168 10712 net.cpp:106] Creating Layer energy
I0611 14:24:22.539171 10712 net.cpp:454] energy <- query_conv_reshape_perm
I0611 14:24:22.539177 10712 net.cpp:454] energy <- key_conv_reshape_perm
I0611 14:24:22.539185 10712 net.cpp:411] energy -> energy
I0611 14:24:22.539208 10712 net.cpp:150] Setting up energy
I0611 14:24:22.539216 10712 net.cpp:157] Top shape: 1 1 900 900 (810000)
I0611 14:24:22.539221 10712 net.cpp:165] Memory required for data: 1455444932
I0611 14:24:22.539225 10712 layer_factory.hpp:77] Creating layer attention
I0611 14:24:22.539250 10712 net.cpp:106] Creating Layer attention
I0611 14:24:22.539256 10712 net.cpp:454] attention <- energy
I0611 14:24:22.539263 10712 net.cpp:411] attention -> attention
I0611 14:24:22.539597 10712 net.cpp:150] Setting up attention
I0611 14:24:22.539608 10712 net.cpp:157] Top shape: 1 1 900 900 (810000)
I0611 14:24:22.539623 10712 net.cpp:165] Memory required for data: 1458684932
I0611 14:24:22.539628 10712 layer_factory.hpp:77] Creating layer value_conv_reshape_perm
I0611 14:24:22.539639 10712 net.cpp:106] Creating Layer value_conv_reshape_perm
I0611 14:24:22.539649 10712 net.cpp:454] value_conv_reshape_perm <- value_conv_reshape
I0611 14:24:22.539656 10712 net.cpp:411] value_conv_reshape_perm -> value_conv_reshape_perm
I0611 14:24:22.539768 10712 net.cpp:150] Setting up value_conv_reshape_perm
I0611 14:24:22.539777 10712 net.cpp:157] Top shape: 1 1 512 900 (460800)
I0611 14:24:22.539783 10712 net.cpp:165] Memory required for data: 1460528132
I0611 14:24:22.539788 10712 layer_factory.hpp:77] Creating layer attention_perm
I0611 14:24:22.539798 10712 net.cpp:106] Creating Layer attention_perm
I0611 14:24:22.539803 10712 net.cpp:454] attention_perm <- attention
I0611 14:24:22.539813 10712 net.cpp:411] attention_perm -> attention_perm
I0611 14:24:22.539906 10712 net.cpp:150] Setting up attention_perm
I0611 14:24:22.539916 10712 net.cpp:157] Top shape: 1 1 900 900 (810000)
I0611 14:24:22.539919 10712 net.cpp:165] Memory required for data: 1463768132
I0611 14:24:22.539927 10712 layer_factory.hpp:77] Creating layer out
I0611 14:24:22.539938 10712 net.cpp:106] Creating Layer out
I0611 14:24:22.539943 10712 net.cpp:454] out <- value_conv_reshape_perm
I0611 14:24:22.539950 10712 net.cpp:454] out <- attention_perm
I0611 14:24:22.539957 10712 net.cpp:411] out -> out
I0611 14:24:22.539984 10712 net.cpp:150] Setting up out
I0611 14:24:22.539991 10712 net.cpp:157] Top shape: 1 1 512 900 (460800)
I0611 14:24:22.539997 10712 net.cpp:165] Memory required for data: 1465611332
I0611 14:24:22.540001 10712 layer_factory.hpp:77] Creating layer out_reshape
I0611 14:24:22.540014 10712 net.cpp:106] Creating Layer out_reshape
I0611 14:24:22.540019 10712 net.cpp:454] out_reshape <- out
I0611 14:24:22.540024 10712 net.cpp:411] out_reshape -> out_reshape
I0611 14:24:22.540052 10712 net.cpp:150] Setting up out_reshape
I0611 14:24:22.540058 10712 net.cpp:157] Top shape: 1 512 30 30 (460800)
I0611 14:24:22.540066 10712 net.cpp:165] Memory required for data: 1467454532
I0611 14:24:22.540071 10712 layer_factory.hpp:77] Creating layer out_reshape_scale
I0611 14:24:22.540081 10712 net.cpp:106] Creating Layer out_reshape_scale
I0611 14:24:22.540086 10712 net.cpp:454] out_reshape_scale <- out_reshape
I0611 14:24:22.540092 10712 net.cpp:411] out_reshape_scale -> out_reshape_scale
I0611 14:24:22.540184 10712 net.cpp:150] Setting up out_reshape_scale
I0611 14:24:22.540191 10712 net.cpp:157] Top shape: 1 512 30 30 (460800)
I0611 14:24:22.540199 10712 net.cpp:165] Memory required for data: 1469297732
I0611 14:24:22.540205 10712 layer_factory.hpp:77] Creating layer out_x
I0611 14:24:22.540215 10712 net.cpp:106] Creating Layer out_x
I0611 14:24:22.540220 10712 net.cpp:454] out_x <- out_reshape_scale
I0611 14:24:22.540230 10712 net.cpp:454] out_x <- pool5_2_conv4_relu_pool5_2_conv4_relu_0_split_3
I0611 14:24:22.540241 10712 net.cpp:411] out_x -> out_x
I0611 14:24:22.540266 10712 net.cpp:150] Setting up out_x
I0611 14:24:22.540271 10712 net.cpp:157] Top shape: 1 512 30 30 (460800)
I0611 14:24:22.540278 10712 net.cpp:165] Memory required for data: 1471140932
I0611 14:24:22.540282 10712 layer_factory.hpp:77] Creating layer mask_deconv2
I0611 14:24:22.540298 10712 net.cpp:106] Creating Layer mask_deconv2
I0611 14:24:22.540303 10712 net.cpp:454] mask_deconv2 <- out_x
I0611 14:24:22.540311 10712 net.cpp:411] mask_deconv2 -> mask_deconv2
I0611 14:24:22.541721 10712 net.cpp:150] Setting up mask_deconv2
I0611 14:24:22.541730 10712 net.cpp:157] Top shape: 1 256 122 122 (3810304)
I0611 14:24:22.541733 10712 net.cpp:165] Memory required for data: 1486382148
I0611 14:24:22.541740 10712 layer_factory.hpp:77] Creating layer pool5_2_conv5
I0611 14:24:22.541751 10712 net.cpp:106] Creating Layer pool5_2_conv5
I0611 14:24:22.541755 10712 net.cpp:454] pool5_2_conv5 <- mask_deconv2
I0611 14:24:22.541759 10712 net.cpp:411] pool5_2_conv5 -> pool5_2_conv5
I0611 14:24:22.568723 10712 net.cpp:150] Setting up pool5_2_conv5
I0611 14:24:22.568742 10712 net.cpp:157] Top shape: 1 512 122 122 (7620608)
I0611 14:24:22.568745 10712 net.cpp:165] Memory required for data: 1516864580
I0611 14:24:22.568753 10712 layer_factory.hpp:77] Creating layer pool5_2_conv5_relu
I0611 14:24:22.568760 10712 net.cpp:106] Creating Layer pool5_2_conv5_relu
I0611 14:24:22.568776 10712 net.cpp:454] pool5_2_conv5_relu <- pool5_2_conv5
I0611 14:24:22.568783 10712 net.cpp:411] pool5_2_conv5_relu -> pool5_2_conv5_relu
I0611 14:24:22.568940 10712 net.cpp:150] Setting up pool5_2_conv5_relu
I0611 14:24:22.568948 10712 net.cpp:157] Top shape: 1 512 122 122 (7620608)
I0611 14:24:22.568950 10712 net.cpp:165] Memory required for data: 1547347012
I0611 14:24:22.568953 10712 layer_factory.hpp:77] Creating layer pool5_2_conv6
I0611 14:24:22.568961 10712 net.cpp:106] Creating Layer pool5_2_conv6
I0611 14:24:22.568964 10712 net.cpp:454] pool5_2_conv6 <- pool5_2_conv5_relu
I0611 14:24:22.568979 10712 net.cpp:411] pool5_2_conv6 -> pool5_2_conv6
I0611 14:24:22.620117 10712 net.cpp:150] Setting up pool5_2_conv6
I0611 14:24:22.620136 10712 net.cpp:157] Top shape: 1 512 122 122 (7620608)
I0611 14:24:22.620138 10712 net.cpp:165] Memory required for data: 1577829444
I0611 14:24:22.620146 10712 layer_factory.hpp:77] Creating layer pool5_2_conv6_relu
I0611 14:24:22.620154 10712 net.cpp:106] Creating Layer pool5_2_conv6_relu
I0611 14:24:22.620170 10712 net.cpp:454] pool5_2_conv6_relu <- pool5_2_conv6
I0611 14:24:22.620177 10712 net.cpp:411] pool5_2_conv6_relu -> pool5_2_conv6_relu
I0611 14:24:22.620743 10712 net.cpp:150] Setting up pool5_2_conv6_relu
I0611 14:24:22.620752 10712 net.cpp:157] Top shape: 1 512 122 122 (7620608)
I0611 14:24:22.620754 10712 net.cpp:165] Memory required for data: 1608311876
I0611 14:24:22.620757 10712 layer_factory.hpp:77] Creating layer mask_deconv3
I0611 14:24:22.620765 10712 net.cpp:106] Creating Layer mask_deconv3
I0611 14:24:22.620769 10712 net.cpp:454] mask_deconv3 <- pool5_2_conv6_relu
I0611 14:24:22.620784 10712 net.cpp:411] mask_deconv3 -> mask_deconv3
I0611 14:24:22.621179 10712 net.cpp:150] Setting up mask_deconv3
I0611 14:24:22.621186 10712 net.cpp:157] Top shape: 1 256 244 244 (15241216)
I0611 14:24:22.621188 10712 net.cpp:165] Memory required for data: 1669276740
I0611 14:24:22.621201 10712 layer_factory.hpp:77] Creating layer mask_score
I0611 14:24:22.621218 10712 net.cpp:106] Creating Layer mask_score
I0611 14:24:22.621222 10712 net.cpp:454] mask_score <- mask_deconv3
I0611 14:24:22.621227 10712 net.cpp:411] mask_score -> mask_score
I0611 14:24:22.622175 10712 net.cpp:150] Setting up mask_score
I0611 14:24:22.622184 10712 net.cpp:157] Top shape: 1 8 244 244 (476288)
I0611 14:24:22.622187 10712 net.cpp:165] Memory required for data: 1671181892
I0611 14:24:22.622192 10712 layer_factory.hpp:77] Creating layer loss_mask
I0611 14:24:22.622198 10712 net.cpp:106] Creating Layer loss_mask
I0611 14:24:22.622201 10712 net.cpp:454] loss_mask <- mask_score
I0611 14:24:22.622215 10712 net.cpp:454] loss_mask <- mask_targets
I0611 14:24:22.622218 10712 net.cpp:411] loss_mask -> loss_mask
…
