…
average_loss: 100
iter_size: 2
I0605 13:19:46.124106  7811 solver.cpp:81] Creating training net from train_net file: models/pascal_voc/VGG16/faster_rcnn_end2end/train.prototxt
I0605 13:19:46.125696  7811 net.cpp:49] Initializing net from parameters: 
name: "VGG_ILSVRC_16_layers"
state {
  phase: TRAIN
}
layer {
  name: "input-data"
  type: "Python"
  top: "data"
  top: "im_info"
  top: "gt_boxes"
  top: "seg_mask_inds"
  top: "flipped"
  python_param {
    module: "roi_data_layer.layer"
    layer: "RoIDataLayer"
    param_str: "\'num_classes\': 2"
  }
}
layer {
  name: "conv1_1"
  type: "Convolution"
  bottom: "data"
  top: "conv1_1"
  param {
    lr_mult: 0
    decay_mult: 0
  }
  param {
    lr_mult: 0
    decay_mult: 0
  }
  convolution_param {
    num_output: 64
    pad: 1
    kernel_size: 3
  }
}
layer {
  name: "relu1_1"
  type: "ReLU"
  bottom: "conv1_1"
  top: "conv1_1"
}
layer {
  name: "conv1_2"
  type: "Convolution"
  bottom: "conv1_1"
  top: "conv1_2"
  param {
    lr_mult: 0
    decay_mult: 0
  }
  param {
    lr_mult: 0
    decay_mult: 0
  }
  convolution_param {
    num_output: 64
    pad: 1
    kernel_size: 3
  }
}
layer {
  name: "relu1_2"
  type: "ReLU"
  bottom: "conv1_2"
  top: "conv1_2"
}
layer {
  name: "pool1"
  type: "Pooling"
  bottom: "conv1_2"
  top: "pool1"
  pooling_param {
    pool: MAX
    kernel_size: 2
    stride: 2
  }
}
layer {
  name: "conv2_1"
  type: "Convolution"
  bottom: "pool1"
  top: "conv2_1"
  param {
    lr_mult: 0
    decay_mult: 0
  }
  param {
    lr_mult: 0
    decay_mult: 0
  }
  convolution_param {
    num_output: 128
    pad: 1
    kernel_size: 3
  }
}
layer {
  name: "relu2_1"
  type: "ReLU"
  bottom: "conv2_1"
  top: "conv2_1"
}
layer {
  name: "conv2_2"
  type: "Convolution"
  bottom: "conv2_1"
  top: "conv2_2"
  param {
    lr_mult: 0
    decay_mult: 0
  }
  param {
    lr_mult: 0
    decay_mult: 0
  }
  convolution_param {
    num_output: 128
    pad: 1
    kernel_size: 3
  }
}
layer {
  name: "relu2_2"
  type: "ReLU"
  bottom: "conv2_2"
  top: "conv2_2"
}
layer {
  name: "pool2"
  type: "Pooling"
  bottom: "conv2_2"
  top: "pool2"
  pooling_param {
    pool: MAX
    kernel_size: 2
    stride: 2
  }
}
layer {
  name: "conv3_1"
  type: "Convolution"
  bottom: "pool2"
  top: "conv3_1"
  param {
    lr_mult: 1
  }
  param {
    lr_mult: 2
  }
  convolution_param {
    num_output: 256
    pad: 1
    kernel_size: 3
  }
}
layer {
  name: "relu3_1"
  type: "ReLU"
  bottom: "conv3_1"
  top: "conv3_1"
}
layer {
  name: "conv3_2"
  type: "Convolution"
  bottom: "conv3_1"
  top: "conv3_2"
  param {
    lr_mult: 1
  }
  param {
    lr_mult: 2
  }
  convolution_param {
    num_output: 256
    pad: 1
    kernel_size: 3
  }
}
layer {
  name: "relu3_2"
  type: "ReLU"
  bottom: "conv3_2"
  top: "conv3_2"
}
layer {
  name: "conv3_3"
  type: "Convolution"
  bottom: "conv3_2"
  top: "conv3_3"
  param {
    lr_mult: 1
  }
  param {
    lr_mult: 2
  }
  convolution_param {
    num_output: 256
    pad: 1
    kernel_size: 3
  }
}
layer {
  name: "relu3_3"
  type: "ReLU"
  bottom: "conv3_3"
  top: "conv3_3"
}
layer {
  name: "pool3"
  type: "Pooling"
  bottom: "conv3_3"
  top: "pool3"
  pooling_param {
    pool: MAX
    kernel_size: 2
    stride: 2
  }
}
layer {
  name: "conv4_1"
  type: "Convolution"
  bottom: "pool3"
  top: "conv4_1"
  param {
    lr_mult: 1
  }
  param {
    lr_mult: 2
  }
  convolution_param {
    num_output: 512
    pad: 1
    kernel_size: 3
  }
}
layer {
  name: "relu4_1"
  type: "ReLU"
  bottom: "conv4_1"
  top: "conv4_1"
}
layer {
  name: "conv4_2"
  type: "Convolution"
  bottom: "conv4_1"
  top: "conv4_2"
  param {
    lr_mult: 1
  }
  param {
    lr_mult: 2
  }
  convolution_param {
    num_output: 512
    pad: 1
    kernel_size: 3
  }
}
layer {
  name: "relu4_2"
  type: "ReLU"
  bottom: "conv4_2"
  top: "conv4_2"
}
layer {
  name: "conv4_3"
  type: "Convolution"
  bottom: "conv4_2"
  top: "conv4_3"
  param {
    lr_mult: 1
  }
  param {
    lr_mult: 2
  }
  convolution_param {
    num_output: 512
    pad: 1
    kernel_size: 3
  }
}
layer {
  name: "relu4_3"
  type: "ReLU"
  bottom: "conv4_3"
  top: "conv4_3"
}
layer {
  name: "pool4"
  type: "Pooling"
  bottom: "conv4_3"
  top: "pool4"
  pooling_param {
    pool: MAX
    kernel_size: 2
    stride: 2
  }
}
layer {
  name: "conv5_1"
  type: "Convolution"
  bottom: "pool4"
  top: "conv5_1"
  param {
    lr_mult: 1
  }
  param {
    lr_mult: 2
  }
  convolution_param {
    num_output: 512
    pad: 1
    kernel_size: 3
  }
}
layer {
  name: "relu5_1"
  type: "ReLU"
  bottom: "conv5_1"
  top: "conv5_1"
}
layer {
  name: "conv5_2"
  type: "Convolution"
  bottom: "conv5_1"
  top: "conv5_2"
  param {
    lr_mult: 1
  }
  param {
    lr_mult: 2
  }
  convolution_param {
    num_output: 512
    pad: 1
    kernel_size: 3
  }
}
layer {
  name: "relu5_2"
  type: "ReLU"
  bottom: "conv5_2"
  top: "conv5_2"
}
layer {
  name: "conv5_3"
  type: "Convolution"
  bottom: "conv5_2"
  top: "conv5_3"
  param {
    lr_mult: 1
  }
  param {
    lr_mult: 2
  }
  convolution_param {
    num_output: 512
    pad: 1
    kernel_size: 3
  }
}
layer {
  name: "relu5_3"
  type: "ReLU"
  bottom: "conv5_3"
  top: "conv5_3"
}
layer {
  name: "rpn_conv/3x3"
  type: "Convolution"
  bottom: "conv5_3"
  top: "rpn/output"
  param {
    lr_mult: 1
  }
  param {
    lr_mult: 2
  }
  convolution_param {
    num_output: 512
    pad: 1
    kernel_size: 3
    stride: 1
    weight_filler {
      type: "gaussian"
      std: 0.01
    }
    bias_filler {
      type: "constant"
      value: 0
    }
  }
}
layer {
  name: "rpn_relu/3x3"
  type: "ReLU"
  bottom: "rpn/output"
  top: "rpn/output"
}
layer {
  name: "rpn_cls_score"
  type: "Convolution"
  bottom: "rpn/output"
  top: "rpn_cls_score"
  param {
    lr_mult: 1
  }
  param {
    lr_mult: 2
  }
  convolution_param {
    num_output: 30
    pad: 0
    kernel_size: 1
    stride: 1
    weight_filler {
      type: "gaussian"
      std: 0.01
    }
    bias_filler {
      type: "constant"
      value: 0
    }
  }
}
layer {
  name: "rpn_bbox_pred"
  type: "Convolution"
  bottom: "rpn/output"
  top: "rpn_bbox_pred"
  param {
    lr_mult: 1
  }
  param {
    lr_mult: 2
  }
  convolution_param {
    num_output: 60
    pad: 0
    kernel_size: 1
    stride: 1
    weight_filler {
      type: "gaussian"
      std: 0.01
    }
    bias_filler {
      type: "constant"
      value: 0
    }
  }
}
layer {
  name: "rpn_cls_score_reshape"
  type: "Reshape"
  bottom: "rpn_cls_score"
  top: "rpn_cls_score_reshape"
  reshape_param {
    shape {
      dim: 0
      dim: 2
      dim: -1
      dim: 0
    }
  }
}
layer {
  name: "rpn-data"
  type: "Python"
  bottom: "rpn_cls_score"
  bottom: "gt_boxes"
  bottom: "im_info"
  bottom: "data"
  top: "rpn_labels"
  top: "rpn_bbox_targets"
  top: "rpn_bbox_inside_weights"
  top: "rpn_bbox_outside_weights"
  python_param {
    module: "rpn.anchor_target_layer"
    layer: "AnchorTargetLayer"
    param_str: "\'feat_stride\': 16 \n\'scales\': !!python/tuple [2, 4, 8, 16, 32]"
  }
}
layer {
  name: "rpn_loss_cls"
  type: "SoftmaxWithLoss"
  bottom: "rpn_cls_score_reshape"
  bottom: "rpn_labels"
  top: "rpn_cls_loss"
  loss_weight: 1
  propagate_down: true
  propagate_down: false
  loss_param {
    ignore_label: -1
    normalize: true
  }
}
layer {
  name: "rpn_loss_bbox"
  type: "SmoothL1Loss"
  bottom: "rpn_bbox_pred"
  bottom: "rpn_bbox_targets"
  bottom: "rpn_bbox_inside_weights"
  bottom: "rpn_bbox_outside_weights"
  top: "rpn_loss_bbox"
  loss_weight: 1
  smooth_l1_loss_param {
    sigma: 3
  }
}
layer {
  name: "rpn_cls_prob"
  type: "Softmax"
  bottom: "rpn_cls_score_reshape"
  top: "rpn_cls_prob"
}
layer {
  name: "rpn_cls_prob_reshape"
  type: "Reshape"
  bottom: "rpn_cls_prob"
  top: "rpn_cls_prob_reshape"
  reshape_param {
    shape {
      dim: 0
      dim: 30
      dim: -1
      dim: 0
    }
  }
}
layer {
  name: "proposal"
  type: "Python"
  bottom: "rpn_cls_prob_reshape"
  bottom: "rpn_bbox_pred"
  bottom: "im_info"
  top: "rpn_rois"
  python_param {
    module: "rpn.proposal_layer"
    layer: "ProposalLayer"
    param_str: "\'feat_stride\': 16 \n\'scales\': !!python/tuple [2, 4, 8, 16, 32]"
  }
}
layer {
  name: "roi-data"
  type: "Python"
  bottom: "rpn_rois"
  bottom: "gt_boxes"
  bottom: "im_info"
  bottom: "seg_mask_inds"
  bottom: "flipped"
  top: "rois"
  top: "labels"
  top: "bbox_targets"
  top: "bbox_inside_weights"
  top: "bbox_outside_weights"
  top: "mask_targets"
  top: "rois_pos"
  top: "rois_attribute"
  python_param {
    module: "rpn.proposal_target_layer"
    layer: "ProposalTargetLayer"
    param_str: "\'num_classes\': 2"
  }
}
layer {
  name: "roi_pool5"
  type: "ROIAlignment"
  bottom: "conv5_3"
  bottom: "rois"
  top: "pool5"
  roi_alignment_param {
    pooled_h: 7
    pooled_w: 7
    spatial_scale: 0.0625
  }
}
layer {
  name: "fc6"
  type: "InnerProduct"
  bottom: "pool5"
  top: "fc6"
  param {
    lr_mult: 1
  }
  param {
    lr_mult: 2
  }
  inner_product_param {
    num_output: 4096
  }
}
layer {
  name: "relu6"
  type: "ReLU"
  bottom: "fc6"
  top: "fc6"
}
layer {
  name: "fc7"
  type: "InnerProduct"
  bottom: "fc6"
  top: "fc7"
  param {
    lr_mult: 1
  }
  param {
    lr_mult: 2
  }
  inner_product_param {
    num_output: 4096
  }
}
layer {
  name: "relu7"
  type: "ReLU"
  bottom: "fc7"
  top: "fc7"
}
layer {
  name: "cls_score"
  type: "InnerProduct"
  bottom: "fc7"
  top: "cls_score"
  param {
    lr_mult: 1
  }
  param {
    lr_mult: 2
  }
  inner_product_param {
    num_output: 2
    weight_filler {
      type: "gaussian"
      std: 0.01
    }
    bias_filler {
      type: "constant"
      value: 0
    }
  }
}
layer {
  name: "bbox_pred"
  type: "InnerProduct"
  bottom: "fc7"
  top: "bbox_pred"
  param {
    lr_mult: 1
  }
  param {
    lr_mult: 2
  }
  inner_product_param {
    num_output: 8
    weight_filler {
      type: "gaussian"
      std: 0.001
    }
    bias_filler {
      type: "constant"
      value: 0
    }
  }
}
layer {
  name: "loss_cls"
  type: "SoftmaxWithLoss"
  bottom: "cls_score"
  bottom: "labels"
  top: "loss_cls"
  loss_weight: 3
  propagate_down: true
  propagate_down: false
}
layer {
  name: "loss_bbox"
  type: "SmoothL1Loss"
  bottom: "bbox_pred"
  bottom: "bbox_targets"
  bottom: "bbox_inside_weights"
  bottom: "bbox_outside_weights"
  top: "loss_bbox"
  loss_weight: 2
}
layer {
  name: "roi_pool5_2"
  type: "ROIAlignment"
  bottom: "conv5_3"
  bottom: "rois_pos"
  top: "pool5_2"
  roi_alignment_param {
    pooled_h: 7
    pooled_w: 7
    spatial_scale: 0.0625
  }
}
layer {
  name: "pool5_2_conv"
  type: "Convolution"
  bottom: "pool5_2"
  top: "pool5_2_conv"
  param {
    lr_mult: 1
    decay_mult: 1
  }
  param {
    lr_mult: 2
    decay_mult: 0
  }
  convolution_param {
    num_output: 512
    pad: 0
    kernel_size: 1
    weight_filler {
      type: "gaussian"
      std: 0.01
    }
    bias_filler {
      type: "constant"
      value: 0
    }
  }
}
layer {
  name: "pool5_2_conv_relu"
  type: "ReLU"
  bottom: "pool5_2_conv"
  top: "pool5_2_conv_relu"
}
layer {
  name: "pool5_2_conv2"
  type: "Convolution"
  bottom: "pool5_2_conv_relu"
  top: "pool5_2_conv2"
  param {
    lr_mult: 1
    decay_mult: 1
  }
  param {
    lr_mult: 2
    decay_mult: 0
  }
  convolution_param {
    num_output: 512
    pad: 1
    kernel_size: 3
    stride: 1
    weight_filler {
      type: "gaussian"
      std: 0.01
    }
    bias_filler {
      type: "constant"
      value: 0
    }
  }
}
layer {
  name: "pool5_2_conv2_relu"
  type: "ReLU"
  bottom: "pool5_2_conv2"
  top: "pool5_2_conv2_relu"
}
layer {
  name: "mask_deconv1"
  type: "Deconvolution"
  bottom: "pool5_2_conv2_relu"
  top: "mask_deconv1"
  param {
    lr_mult: 1
    decay_mult: 1
  }
  param {
    lr_mult: 2
    decay_mult: 0
  }
  convolution_param {
    num_output: 256
    pad: 1
    kernel_size: 8
    group: 256
    stride: 4
    weight_filler {
      type: "bilinear"
    }
  }
}
layer {
  name: "pool5_2_conv3"
  type: "Convolution"
  bottom: "mask_deconv1"
  top: "pool5_2_conv3"
  param {
    lr_mult: 1
    decay_mult: 1
  }
  param {
    lr_mult: 2
    decay_mult: 0
  }
  convolution_param {
    num_output: 512
    pad: 1
    kernel_size: 3
    stride: 1
    weight_filler {
      type: "gaussian"
      std: 0.01
    }
    bias_filler {
      type: "constant"
      value: 0
    }
  }
}
layer {
  name: "pool5_2_conv3_relu"
  type: "ReLU"
  bottom: "pool5_2_conv3"
  top: "pool5_2_conv3_relu"
}
layer {
  name: "pool5_2_conv4"
  type: "Convolution"
  bottom: "pool5_2_conv3_relu"
  top: "pool5_2_conv4"
  param {
    lr_mult: 1
    decay_mult: 1
  }
  param {
    lr_mult: 2
    decay_mult: 0
  }
  convolution_param {
    num_output: 512
    pad: 1
    kernel_size: 3
    stride: 1
    weight_filler {
      type: "gaussian"
      std: 0.01
    }
    bias_filler {
      type: "constant"
      value: 0
    }
  }
}
layer {
  name: "pool5_2_conv4_relu"
  type: "ReLU"
  bottom: "pool5_2_conv4"
  top: "pool5_2_conv4_relu"
}
layer {
  name: "query_conv"
  type: "Convolution"
  bottom: "pool5_2_conv4_relu"
  top: "query_conv"
  param {
    lr_mult: 1
    decay_mult: 1
  }
  param {
    lr_mult: 2
    decay_mult: 0
  }
  convolution_param {
    num_output: 64
    pad: 0
    kernel_size: 1
    stride: 1
    weight_filler {
      type: "gaussian"
      std: 0.01
    }
    bias_filler {
      type: "constant"
      value: 0
    }
  }
}
layer {
  name: "key_conv"
  type: "Convolution"
  bottom: "pool5_2_conv4_relu"
  top: "key_conv"
  param {
    lr_mult: 1
    decay_mult: 1
  }
  param {
    lr_mult: 2
    decay_mult: 0
  }
  convolution_param {
    num_output: 64
    pad: 0
    kernel_size: 1
    stride: 1
    weight_filler {
      type: "gaussian"
      std: 0.01
    }
    bias_filler {
      type: "constant"
      value: 0
    }
  }
}
layer {
  name: "value_conv"
  type: "Convolution"
  bottom: "pool5_2_conv4_relu"
  top: "value_conv"
  param {
    lr_mult: 1
    decay_mult: 1
  }
  param {
    lr_mult: 2
    decay_mult: 0
  }
  convolution_param {
    num_output: 512
    pad: 0
    kernel_size: 1
    stride: 1
    weight_filler {
      type: "gaussian"
      std: 0.01
    }
    bias_filler {
      type: "constant"
      value: 0
    }
  }
}
layer {
  name: "query_conv_reshape"
  type: "Reshape"
  bottom: "query_conv"
  top: "query_conv_reshape"
  reshape_param {
    shape {
      dim: -1
      dim: 64
      dim: 900
      dim: 1
    }
  }
}
layer {
  name: "key_conv_reshape"
  type: "Reshape"
  bottom: "key_conv"
  top: "key_conv_reshape"
  reshape_param {
    shape {
      dim: -1
      dim: 64
      dim: 900
      dim: 1
    }
  }
}
layer {
  name: "value_conv_reshape"
  type: "Reshape"
  bottom: "value_conv"
  top: "value_conv_reshape"
  reshape_param {
    shape {
      dim: -1
      dim: 512
      dim: 900
      dim: 1
    }
  }
}
layer {
  name: "query_conv_reshape_perm"
  type: "Permute"
  bottom: "query_conv_reshape"
  top: "query_conv_reshape_perm"
  permute_param {
    order: 0
    order: 3
    order: 2
    order: 1
  }
}
layer {
  name: "key_conv_reshape_perm"
  type: "Permute"
  bottom: "key_conv_reshape"
  top: "key_conv_reshape_perm"
  permute_param {
    order: 0
    order: 3
    order: 1
    order: 2
  }
}
layer {
  name: "energy"
  type: "MatrixMultiplication"
  bottom: "query_conv_reshape_perm"
  bottom: "key_conv_reshape_perm"
  top: "energy"
}
layer {
  name: "attention"
  type: "Softmax"
  bottom: "energy"
  top: "attention"
  softmax_param {
    axis: 3
  }
}
layer {
  name: "value_conv_reshape_perm"
  type: "Permute"
  bottom: "value_conv_reshape"
  top: "value_conv_reshape_perm"
  permute_param {
    order: 0
    order: 3
    order: 1
    order: 2
  }
}
layer {
  name: "attention_perm"
  type: "Permute"
  bottom: "attention"
  top: "attention_perm"
  permute_param {
    order: 0
    order: 1
    order: 2
    order: 3
  }
}
layer {
  name: "out"
  type: "MatrixMultiplication"
  bottom: "value_conv_reshape_perm"
  bottom: "attention_perm"
  top: "out"
}
layer {
  name: "out_reshape"
  type: "Reshape"
  bottom: "out"
  top: "out_reshape"
  reshape_param {
    shape {
      dim: -1
      dim: 512
      dim: 30
      dim: 30
    }
  }
}
layer {
  name: "out_reshape_scale"
  type: "Scale"
  bottom: "out_reshape"
  top: "out_reshape_scale"
  param {
    name: "scale_conv1_1"
    lr_mult: 1
  }
  scale_param {
    bias_term: false
  }
}
layer {
  name: "out_x"
  type: "Eltwise"
  bottom: "out_reshape_scale"
  bottom: "pool5_2_conv4_relu"
  top: "out_x"
  eltwise_param {
    operation: SUM
  }
}
layer {
  name: "query_conv_reshape_ch"
  type: "Reshape"
  bottom: "pool5_2_conv4_relu"
  top: "query_conv_reshape_ch"
  reshape_param {
    shape {
      dim: 1
      dim: 512
      dim: -1
      dim: 1
    }
  }
}
layer {
  name: "key_conv_reshape_ch"
  type: "Reshape"
  bottom: "pool5_2_conv4_relu"
  top: "key_conv_reshape_ch"
  reshape_param {
    shape {
      dim: 1
      dim: 512
      dim: -1
      dim: 1
    }
  }
}
layer {
  name: "value_conv_reshape_ch"
  type: "Reshape"
  bottom: "pool5_2_conv4_relu"
  top: "value_conv_reshape_ch"
  reshape_param {
    shape {
      dim: 1
      dim: 512
      dim: -1
      dim: 1
    }
  }
}
layer {
  name: "query_conv_reshape_perm_ch"
  type: "Permute"
  bottom: "query_conv_reshape_ch"
  top: "query_conv_reshape_perm_ch"
  permute_param {
    order: 0
    order: 3
    order: 1
    order: 2
  }
}
layer {
  name: "key_conv_reshape_perm_ch"
  type: "Permute"
  bottom: "key_conv_reshape_ch"
  top: "key_conv_reshape_perm_ch"
  permute_param {
    order: 0
    order: 3
    order: 2
    order: 1
  }
}
layer {
  name: "energy_ch"
  type: "MatrixMultiplication"
  bottom: "query_conv_reshape_perm_ch"
  bottom: "key_conv_reshape_perm_ch"
  top: "energy_ch"
}
layer {
  name: "energy_ch_pool"
  type: "Pooling"
  bottom: "energy_ch"
  top: "energy_ch_pool"
  pooling_param {
    pool: MAX
    kernel_h: 1
    kernel_w: 512
    stride_h: 1
    stride_w: 512
  }
}
layer {
  name: "energy_ch_max"
  type: "Tile"
  bottom: "energy_ch_pool"
  top: "energy_ch_max"
  tile_param {
    axis: 3
    tiles: 512
  }
}
layer {
  name: "energy_ch_minus"
  type: "Power"
  bottom: "energy_ch"
  top: "energy_ch_minus"
  power_param {
    power: 1
    scale: -1
    shift: 0
  }
}
layer {
  name: "energy_new"
  type: "Eltwise"
  bottom: "energy_ch_max"
  bottom: "energy_ch_minus"
  top: "energy_new"
  eltwise_param {
    operation: SUM
  }
}
layer {
  name: "attention_ch"
  type: "Softmax"
  bottom: "energy_new"
  top: "attention_ch"
  softmax_param {
    axis: 3
  }
}
layer {
  name: "value_conv_reshape_ch_perm"
  type: "Permute"
  bottom: "value_conv_reshape_ch"
  top: "value_conv_reshape_ch_perm"
  permute_param {
    order: 0
    order: 3
    order: 1
    order: 2
  }
}
layer {
  name: "attention_ch_perm"
  type: "Permute"
  bottom: "attention_ch"
  top: "attention_ch_perm"
  permute_param {
    order: 0
    order: 1
    order: 2
    order: 3
  }
}
layer {
  name: "out_ch"
  type: "MatrixMultiplication"
  bottom: "attention_ch_perm"
  bottom: "value_conv_reshape_ch_perm"
  top: "out_ch"
}
layer {
  name: "out_ch_reshape"
  type: "Reshape"
  bottom: "out_ch"
  top: "out_ch_reshape"
  reshape_param {
    shape {
      dim: -1
      dim: 512
      dim: 30
      dim: 30
    }
  }
}
layer {
  name: "out_ch_reshape_scale"
  type: "Scale"
  bottom: "out_ch_reshape"
  top: "out_ch_reshape_scale"
  param {
    name: "scale_conv1_1"
    lr_mult: 1
  }
  scale_param {
    bias_term: false
  }
}
layer {
  name: "out_ch_x"
  type: "Eltwise"
  bottom: "out_ch_reshape_scale"
  bottom: "pool5_2_conv4_relu"
  top: "out_ch_x"
  eltwise_param {
    operation: SUM
  }
}
layer {
  name: "out_conv_ch_x"
  type: "Convolution"
  bottom: "out_ch_x"
  top: "out_conv_ch_x"
  param {
    lr_mult: 1
    decay_mult: 1
  }
  param {
    lr_mult: 2
    decay_mult: 0
  }
  convolution_param {
    num_output: 512
    pad: 0
    kernel_size: 1
    weight_filler {
      type: "gaussian"
      std: 0.01
    }
    bias_filler {
      type: "constant"
      value: 0
    }
  }
}
layer {
  name: "out_conv_x"
  type: "Convolution"
  bottom: "out_x"
  top: "out_conv_x"
  param {
    lr_mult: 1
    decay_mult: 1
  }
  param {
    lr_mult: 2
    decay_mult: 0
  }
  convolution_param {
    num_output: 512
    pad: 0
    kernel_size: 1
    weight_filler {
      type: "gaussian"
      std: 0.01
    }
    bias_filler {
      type: "constant"
      value: 0
    }
  }
}
layer {
  name: "out_x_sum"
  type: "Eltwise"
  bottom: "out_conv_x"
  bottom: "out_conv_ch_x"
  top: "out_x_sum"
  eltwise_param {
    operation: SUM
  }
}
layer {
  name: "mask_deconv2"
  type: "Deconvolution"
  bottom: "out_x_sum"
  top: "mask_deconv2"
  param {
    lr_mult: 1
    decay_mult: 1
  }
  param {
    lr_mult: 2
    decay_mult: 0
  }
  convolution_param {
    num_output: 256
    pad: 1
    kernel_size: 8
    group: 256
    stride: 4
    weight_filler {
      type: "bilinear"
    }
  }
}
layer {
  name: "pool5_2_conv5"
  type: "Convolution"
  bottom: "mask_deconv2"
  top: "pool5_2_conv5"
  param {
    lr_mult: 1
    decay_mult: 1
  }
  param {
    lr_mult: 2
    decay_mult: 0
  }
  convolution_param {
    num_output: 512
    pad: 1
    kernel_size: 3
    stride: 1
    weight_filler {
      type: "gaussian"
      std: 0.01
    }
    bias_filler {
      type: "constant"
      value: 0
    }
  }
}
layer {
  name: "pool5_2_conv5_relu"
  type: "ReLU"
  bottom: "pool5_2_conv5"
  top: "pool5_2_conv5_relu"
}
layer {
  name: "pool5_2_conv6"
  type: "Convolution"
  bottom: "pool5_2_conv5_relu"
  top: "pool5_2_conv6"
  param {
    lr_mult: 1
    decay_mult: 1
  }
  param {
    lr_mult: 2
    decay_mult: 0
  }
  convolution_param {
    num_output: 512
    pad: 1
    kernel_size: 3
    stride: 1
    weight_filler {
      type: "gaussian"
      std: 0.01
    }
    bias_filler {
      type: "constant"
      value: 0
    }
  }
}
layer {
  name: "pool5_2_conv6_relu"
  type: "ReLU"
  bottom: "pool5_2_conv6"
  top: "pool5_2_conv6_relu"
}
layer {
  name: "mask_deconv3"
  type: "Deconvolution"
  bottom: "pool5_2_conv6_relu"
  top: "mask_deconv3"
  param {
    lr_mult: 1
    decay_mult: 1
  }
  param {
    lr_mult: 2
    decay_mult: 0
  }
  convolution_param {
    num_output: 256
    pad: 1
    kernel_size: 4
    group: 256
    stride: 2
    weight_filler {
      type: "bilinear"
    }
  }
}
layer {
  name: "mask_score"
  type: "Convolution"
  bottom: "mask_deconv3"
  top: "mask_score"
  param {
    lr_mult: 1
    decay_mult: 1
  }
  param {
    lr_mult: 2
    decay_mult: 0
  }
  convolution_param {
    num_output: 8
    pad: 0
    kernel_size: 1
    weight_filler {
      type: "gaussian"
      std: 0.01
    }
    bias_filler {
      type: "constant"
      value: 0
    }
  }
}
layer {
  name: "loss_mask"
  type: "SoftmaxWithLoss"
  bottom: "mask_score"
  bottom: "mask_targets"
  top: "loss_mask"
  loss_weight: 3
  propagate_down: true
  propagate_down: false
  loss_param {
    ignore_label: -1
    normalize: true
  }
}
I0605 13:19:46.126195  7811 layer_factory.hpp:77] Creating layer input-data
I0605 13:19:46.200444  7811 net.cpp:106] Creating Layer input-data
I0605 13:19:46.200461  7811 net.cpp:411] input-data -> data
I0605 13:19:46.200470  7811 net.cpp:411] input-data -> im_info
I0605 13:19:46.200476  7811 net.cpp:411] input-data -> gt_boxes
I0605 13:19:46.200480  7811 net.cpp:411] input-data -> seg_mask_inds
I0605 13:19:46.200484  7811 net.cpp:411] input-data -> flipped
RoiDataLayer: name_to_top: {'gt_boxes': 2, 'data': 0, 'seg_mask_inds': 3, 'im_info': 1, 'flipped': 4}
I0605 13:19:46.251968  7811 net.cpp:150] Setting up input-data
I0605 13:19:46.251986  7811 net.cpp:157] Top shape: 1 3 600 1000 (1800000)
I0605 13:19:46.251989  7811 net.cpp:157] Top shape: 1 3 (3)
I0605 13:19:46.251992  7811 net.cpp:157] Top shape: 1 4 (4)
I0605 13:19:46.251996  7811 net.cpp:157] Top shape: 1 2 (2)
I0605 13:19:46.251997  7811 net.cpp:157] Top shape: 1 1 (1)
I0605 13:19:46.251999  7811 net.cpp:165] Memory required for data: 7200040
I0605 13:19:46.252005  7811 layer_factory.hpp:77] Creating layer data_input-data_0_split
I0605 13:19:46.252019  7811 net.cpp:106] Creating Layer data_input-data_0_split
I0605 13:19:46.252023  7811 net.cpp:454] data_input-data_0_split <- data
I0605 13:19:46.252028  7811 net.cpp:411] data_input-data_0_split -> data_input-data_0_split_0
I0605 13:19:46.252035  7811 net.cpp:411] data_input-data_0_split -> data_input-data_0_split_1
I0605 13:19:46.252056  7811 net.cpp:150] Setting up data_input-data_0_split
I0605 13:19:46.252061  7811 net.cpp:157] Top shape: 1 3 600 1000 (1800000)
I0605 13:19:46.252064  7811 net.cpp:157] Top shape: 1 3 600 1000 (1800000)
I0605 13:19:46.252066  7811 net.cpp:165] Memory required for data: 21600040
I0605 13:19:46.252069  7811 layer_factory.hpp:77] Creating layer im_info_input-data_1_split
I0605 13:19:46.252074  7811 net.cpp:106] Creating Layer im_info_input-data_1_split
I0605 13:19:46.252075  7811 net.cpp:454] im_info_input-data_1_split <- im_info
I0605 13:19:46.252079  7811 net.cpp:411] im_info_input-data_1_split -> im_info_input-data_1_split_0
I0605 13:19:46.252084  7811 net.cpp:411] im_info_input-data_1_split -> im_info_input-data_1_split_1
I0605 13:19:46.252090  7811 net.cpp:411] im_info_input-data_1_split -> im_info_input-data_1_split_2
I0605 13:19:46.252115  7811 net.cpp:150] Setting up im_info_input-data_1_split
I0605 13:19:46.252118  7811 net.cpp:157] Top shape: 1 3 (3)
I0605 13:19:46.252121  7811 net.cpp:157] Top shape: 1 3 (3)
I0605 13:19:46.252126  7811 net.cpp:157] Top shape: 1 3 (3)
I0605 13:19:46.252128  7811 net.cpp:165] Memory required for data: 21600076
I0605 13:19:46.252131  7811 layer_factory.hpp:77] Creating layer gt_boxes_input-data_2_split
I0605 13:19:46.252135  7811 net.cpp:106] Creating Layer gt_boxes_input-data_2_split
I0605 13:19:46.252140  7811 net.cpp:454] gt_boxes_input-data_2_split <- gt_boxes
I0605 13:19:46.252143  7811 net.cpp:411] gt_boxes_input-data_2_split -> gt_boxes_input-data_2_split_0
I0605 13:19:46.252148  7811 net.cpp:411] gt_boxes_input-data_2_split -> gt_boxes_input-data_2_split_1
I0605 13:19:46.252164  7811 net.cpp:150] Setting up gt_boxes_input-data_2_split
I0605 13:19:46.252169  7811 net.cpp:157] Top shape: 1 4 (4)
I0605 13:19:46.252171  7811 net.cpp:157] Top shape: 1 4 (4)
I0605 13:19:46.252177  7811 net.cpp:165] Memory required for data: 21600108
I0605 13:19:46.252178  7811 layer_factory.hpp:77] Creating layer conv1_1
I0605 13:19:46.252187  7811 net.cpp:106] Creating Layer conv1_1
I0605 13:19:46.252190  7811 net.cpp:454] conv1_1 <- data_input-data_0_split_0
I0605 13:19:46.252194  7811 net.cpp:411] conv1_1 -> conv1_1
I0605 13:19:46.629616  7811 net.cpp:150] Setting up conv1_1
I0605 13:19:46.629637  7811 net.cpp:157] Top shape: 1 64 600 1000 (38400000)
I0605 13:19:46.629639  7811 net.cpp:165] Memory required for data: 175200108
I0605 13:19:46.629652  7811 layer_factory.hpp:77] Creating layer relu1_1
I0605 13:19:46.629660  7811 net.cpp:106] Creating Layer relu1_1
I0605 13:19:46.629665  7811 net.cpp:454] relu1_1 <- conv1_1
I0605 13:19:46.629671  7811 net.cpp:397] relu1_1 -> conv1_1 (in-place)
I0605 13:19:46.629786  7811 net.cpp:150] Setting up relu1_1
I0605 13:19:46.629793  7811 net.cpp:157] Top shape: 1 64 600 1000 (38400000)
I0605 13:19:46.629796  7811 net.cpp:165] Memory required for data: 328800108
I0605 13:19:46.629798  7811 layer_factory.hpp:77] Creating layer conv1_2
I0605 13:19:46.629806  7811 net.cpp:106] Creating Layer conv1_2
I0605 13:19:46.629808  7811 net.cpp:454] conv1_2 <- conv1_1
I0605 13:19:46.629812  7811 net.cpp:411] conv1_2 -> conv1_2
I0605 13:19:46.631913  7811 net.cpp:150] Setting up conv1_2
I0605 13:19:46.631924  7811 net.cpp:157] Top shape: 1 64 600 1000 (38400000)
I0605 13:19:46.631927  7811 net.cpp:165] Memory required for data: 482400108
I0605 13:19:46.631934  7811 layer_factory.hpp:77] Creating layer relu1_2
I0605 13:19:46.631939  7811 net.cpp:106] Creating Layer relu1_2
I0605 13:19:46.631942  7811 net.cpp:454] relu1_2 <- conv1_2
I0605 13:19:46.631947  7811 net.cpp:397] relu1_2 -> conv1_2 (in-place)
I0605 13:19:46.632055  7811 net.cpp:150] Setting up relu1_2
I0605 13:19:46.632061  7811 net.cpp:157] Top shape: 1 64 600 1000 (38400000)
I0605 13:19:46.632066  7811 net.cpp:165] Memory required for data: 636000108
I0605 13:19:46.632069  7811 layer_factory.hpp:77] Creating layer pool1
I0605 13:19:46.632082  7811 net.cpp:106] Creating Layer pool1
I0605 13:19:46.632087  7811 net.cpp:454] pool1 <- conv1_2
I0605 13:19:46.632095  7811 net.cpp:411] pool1 -> pool1
I0605 13:19:46.632133  7811 net.cpp:150] Setting up pool1
I0605 13:19:46.632138  7811 net.cpp:157] Top shape: 1 64 300 500 (9600000)
I0605 13:19:46.632143  7811 net.cpp:165] Memory required for data: 674400108
I0605 13:19:46.632146  7811 layer_factory.hpp:77] Creating layer conv2_1
I0605 13:19:46.632154  7811 net.cpp:106] Creating Layer conv2_1
I0605 13:19:46.632159  7811 net.cpp:454] conv2_1 <- pool1
I0605 13:19:46.632165  7811 net.cpp:411] conv2_1 -> conv2_1
I0605 13:19:46.633900  7811 net.cpp:150] Setting up conv2_1
I0605 13:19:46.633910  7811 net.cpp:157] Top shape: 1 128 300 500 (19200000)
I0605 13:19:46.633913  7811 net.cpp:165] Memory required for data: 751200108
I0605 13:19:46.633919  7811 layer_factory.hpp:77] Creating layer relu2_1
I0605 13:19:46.633924  7811 net.cpp:106] Creating Layer relu2_1
I0605 13:19:46.633926  7811 net.cpp:454] relu2_1 <- conv2_1
I0605 13:19:46.633931  7811 net.cpp:397] relu2_1 -> conv2_1 (in-place)
I0605 13:19:46.634393  7811 net.cpp:150] Setting up relu2_1
I0605 13:19:46.634402  7811 net.cpp:157] Top shape: 1 128 300 500 (19200000)
I0605 13:19:46.634404  7811 net.cpp:165] Memory required for data: 828000108
I0605 13:19:46.634407  7811 layer_factory.hpp:77] Creating layer conv2_2
I0605 13:19:46.634413  7811 net.cpp:106] Creating Layer conv2_2
I0605 13:19:46.634415  7811 net.cpp:454] conv2_2 <- conv2_1
I0605 13:19:46.634420  7811 net.cpp:411] conv2_2 -> conv2_2
I0605 13:19:46.635707  7811 net.cpp:150] Setting up conv2_2
I0605 13:19:46.635716  7811 net.cpp:157] Top shape: 1 128 300 500 (19200000)
I0605 13:19:46.635720  7811 net.cpp:165] Memory required for data: 904800108
I0605 13:19:46.635725  7811 layer_factory.hpp:77] Creating layer relu2_2
I0605 13:19:46.635728  7811 net.cpp:106] Creating Layer relu2_2
I0605 13:19:46.635731  7811 net.cpp:454] relu2_2 <- conv2_2
I0605 13:19:46.635735  7811 net.cpp:397] relu2_2 -> conv2_2 (in-place)
I0605 13:19:46.635840  7811 net.cpp:150] Setting up relu2_2
I0605 13:19:46.635848  7811 net.cpp:157] Top shape: 1 128 300 500 (19200000)
I0605 13:19:46.635849  7811 net.cpp:165] Memory required for data: 981600108
I0605 13:19:46.635852  7811 layer_factory.hpp:77] Creating layer pool2
I0605 13:19:46.635857  7811 net.cpp:106] Creating Layer pool2
I0605 13:19:46.635859  7811 net.cpp:454] pool2 <- conv2_2
I0605 13:19:46.635862  7811 net.cpp:411] pool2 -> pool2
I0605 13:19:46.635887  7811 net.cpp:150] Setting up pool2
I0605 13:19:46.635892  7811 net.cpp:157] Top shape: 1 128 150 250 (4800000)
I0605 13:19:46.635895  7811 net.cpp:165] Memory required for data: 1000800108
I0605 13:19:46.635896  7811 layer_factory.hpp:77] Creating layer conv3_1
I0605 13:19:46.635901  7811 net.cpp:106] Creating Layer conv3_1
I0605 13:19:46.635903  7811 net.cpp:454] conv3_1 <- pool2
I0605 13:19:46.635907  7811 net.cpp:411] conv3_1 -> conv3_1
I0605 13:19:46.637719  7811 net.cpp:150] Setting up conv3_1
I0605 13:19:46.637729  7811 net.cpp:157] Top shape: 1 256 150 250 (9600000)
I0605 13:19:46.637732  7811 net.cpp:165] Memory required for data: 1039200108
I0605 13:19:46.637739  7811 layer_factory.hpp:77] Creating layer relu3_1
I0605 13:19:46.637744  7811 net.cpp:106] Creating Layer relu3_1
I0605 13:19:46.637746  7811 net.cpp:454] relu3_1 <- conv3_1
I0605 13:19:46.637750  7811 net.cpp:397] relu3_1 -> conv3_1 (in-place)
I0605 13:19:46.637857  7811 net.cpp:150] Setting up relu3_1
I0605 13:19:46.637863  7811 net.cpp:157] Top shape: 1 256 150 250 (9600000)
I0605 13:19:46.637866  7811 net.cpp:165] Memory required for data: 1077600108
I0605 13:19:46.637868  7811 layer_factory.hpp:77] Creating layer conv3_2
I0605 13:19:46.637876  7811 net.cpp:106] Creating Layer conv3_2
I0605 13:19:46.637878  7811 net.cpp:454] conv3_2 <- conv3_1
I0605 13:19:46.637881  7811 net.cpp:411] conv3_2 -> conv3_2
I0605 13:19:46.639850  7811 net.cpp:150] Setting up conv3_2
I0605 13:19:46.639859  7811 net.cpp:157] Top shape: 1 256 150 250 (9600000)
I0605 13:19:46.639863  7811 net.cpp:165] Memory required for data: 1116000108
I0605 13:19:46.639868  7811 layer_factory.hpp:77] Creating layer relu3_2
I0605 13:19:46.639871  7811 net.cpp:106] Creating Layer relu3_2
I0605 13:19:46.639874  7811 net.cpp:454] relu3_2 <- conv3_2
I0605 13:19:46.639878  7811 net.cpp:397] relu3_2 -> conv3_2 (in-place)
I0605 13:19:46.639986  7811 net.cpp:150] Setting up relu3_2
I0605 13:19:46.639992  7811 net.cpp:157] Top shape: 1 256 150 250 (9600000)
I0605 13:19:46.639994  7811 net.cpp:165] Memory required for data: 1154400108
I0605 13:19:46.639997  7811 layer_factory.hpp:77] Creating layer conv3_3
I0605 13:19:46.640003  7811 net.cpp:106] Creating Layer conv3_3
I0605 13:19:46.640005  7811 net.cpp:454] conv3_3 <- conv3_2
I0605 13:19:46.640009  7811 net.cpp:411] conv3_3 -> conv3_3
I0605 13:19:46.642182  7811 net.cpp:150] Setting up conv3_3
I0605 13:19:46.642196  7811 net.cpp:157] Top shape: 1 256 150 250 (9600000)
I0605 13:19:46.642199  7811 net.cpp:165] Memory required for data: 1192800108
I0605 13:19:46.642205  7811 layer_factory.hpp:77] Creating layer relu3_3
I0605 13:19:46.642211  7811 net.cpp:106] Creating Layer relu3_3
I0605 13:19:46.642215  7811 net.cpp:454] relu3_3 <- conv3_3
I0605 13:19:46.642220  7811 net.cpp:397] relu3_3 -> conv3_3 (in-place)
I0605 13:19:46.642330  7811 net.cpp:150] Setting up relu3_3
I0605 13:19:46.642336  7811 net.cpp:157] Top shape: 1 256 150 250 (9600000)
I0605 13:19:46.642339  7811 net.cpp:165] Memory required for data: 1231200108
I0605 13:19:46.642341  7811 layer_factory.hpp:77] Creating layer pool3
I0605 13:19:46.642347  7811 net.cpp:106] Creating Layer pool3
I0605 13:19:46.642349  7811 net.cpp:454] pool3 <- conv3_3
I0605 13:19:46.642354  7811 net.cpp:411] pool3 -> pool3
I0605 13:19:46.642382  7811 net.cpp:150] Setting up pool3
I0605 13:19:46.642387  7811 net.cpp:157] Top shape: 1 256 75 125 (2400000)
I0605 13:19:46.642390  7811 net.cpp:165] Memory required for data: 1240800108
I0605 13:19:46.642392  7811 layer_factory.hpp:77] Creating layer conv4_1
I0605 13:19:46.642398  7811 net.cpp:106] Creating Layer conv4_1
I0605 13:19:46.642401  7811 net.cpp:454] conv4_1 <- pool3
I0605 13:19:46.642405  7811 net.cpp:411] conv4_1 -> conv4_1
I0605 13:19:46.646270  7811 net.cpp:150] Setting up conv4_1
I0605 13:19:46.646288  7811 net.cpp:157] Top shape: 1 512 75 125 (4800000)
I0605 13:19:46.646291  7811 net.cpp:165] Memory required for data: 1260000108
I0605 13:19:46.646299  7811 layer_factory.hpp:77] Creating layer relu4_1
I0605 13:19:46.646307  7811 net.cpp:106] Creating Layer relu4_1
I0605 13:19:46.646311  7811 net.cpp:454] relu4_1 <- conv4_1
I0605 13:19:46.646315  7811 net.cpp:397] relu4_1 -> conv4_1 (in-place)
I0605 13:19:46.646428  7811 net.cpp:150] Setting up relu4_1
I0605 13:19:46.646435  7811 net.cpp:157] Top shape: 1 512 75 125 (4800000)
I0605 13:19:46.646437  7811 net.cpp:165] Memory required for data: 1279200108
I0605 13:19:46.646440  7811 layer_factory.hpp:77] Creating layer conv4_2
I0605 13:19:46.646446  7811 net.cpp:106] Creating Layer conv4_2
I0605 13:19:46.646450  7811 net.cpp:454] conv4_2 <- conv4_1
I0605 13:19:46.646454  7811 net.cpp:411] conv4_2 -> conv4_2
I0605 13:19:46.650996  7811 net.cpp:150] Setting up conv4_2
I0605 13:19:46.651016  7811 net.cpp:157] Top shape: 1 512 75 125 (4800000)
I0605 13:19:46.651019  7811 net.cpp:165] Memory required for data: 1298400108
I0605 13:19:46.651029  7811 layer_factory.hpp:77] Creating layer relu4_2
I0605 13:19:46.651037  7811 net.cpp:106] Creating Layer relu4_2
I0605 13:19:46.651042  7811 net.cpp:454] relu4_2 <- conv4_2
I0605 13:19:46.651046  7811 net.cpp:397] relu4_2 -> conv4_2 (in-place)
I0605 13:19:46.651522  7811 net.cpp:150] Setting up relu4_2
I0605 13:19:46.651530  7811 net.cpp:157] Top shape: 1 512 75 125 (4800000)
I0605 13:19:46.651533  7811 net.cpp:165] Memory required for data: 1317600108
I0605 13:19:46.651535  7811 layer_factory.hpp:77] Creating layer conv4_3
I0605 13:19:46.651543  7811 net.cpp:106] Creating Layer conv4_3
I0605 13:19:46.651546  7811 net.cpp:454] conv4_3 <- conv4_2
I0605 13:19:46.651551  7811 net.cpp:411] conv4_3 -> conv4_3
I0605 13:19:46.655783  7811 net.cpp:150] Setting up conv4_3
I0605 13:19:46.655803  7811 net.cpp:157] Top shape: 1 512 75 125 (4800000)
I0605 13:19:46.655807  7811 net.cpp:165] Memory required for data: 1336800108
I0605 13:19:46.655813  7811 layer_factory.hpp:77] Creating layer relu4_3
I0605 13:19:46.655822  7811 net.cpp:106] Creating Layer relu4_3
I0605 13:19:46.655825  7811 net.cpp:454] relu4_3 <- conv4_3
I0605 13:19:46.655831  7811 net.cpp:397] relu4_3 -> conv4_3 (in-place)
I0605 13:19:46.655942  7811 net.cpp:150] Setting up relu4_3
I0605 13:19:46.655948  7811 net.cpp:157] Top shape: 1 512 75 125 (4800000)
I0605 13:19:46.655951  7811 net.cpp:165] Memory required for data: 1356000108
I0605 13:19:46.655953  7811 layer_factory.hpp:77] Creating layer pool4
I0605 13:19:46.655958  7811 net.cpp:106] Creating Layer pool4
I0605 13:19:46.655961  7811 net.cpp:454] pool4 <- conv4_3
I0605 13:19:46.655966  7811 net.cpp:411] pool4 -> pool4
I0605 13:19:46.655992  7811 net.cpp:150] Setting up pool4
I0605 13:19:46.655997  7811 net.cpp:157] Top shape: 1 512 38 63 (1225728)
I0605 13:19:46.655999  7811 net.cpp:165] Memory required for data: 1360903020
I0605 13:19:46.656002  7811 layer_factory.hpp:77] Creating layer conv5_1
I0605 13:19:46.656008  7811 net.cpp:106] Creating Layer conv5_1
I0605 13:19:46.656010  7811 net.cpp:454] conv5_1 <- pool4
I0605 13:19:46.656013  7811 net.cpp:411] conv5_1 -> conv5_1
I0605 13:19:46.660670  7811 net.cpp:150] Setting up conv5_1
I0605 13:19:46.660688  7811 net.cpp:157] Top shape: 1 512 38 63 (1225728)
I0605 13:19:46.660691  7811 net.cpp:165] Memory required for data: 1365805932
I0605 13:19:46.660701  7811 layer_factory.hpp:77] Creating layer relu5_1
I0605 13:19:46.660708  7811 net.cpp:106] Creating Layer relu5_1
I0605 13:19:46.660723  7811 net.cpp:454] relu5_1 <- conv5_1
I0605 13:19:46.660728  7811 net.cpp:397] relu5_1 -> conv5_1 (in-place)
I0605 13:19:46.660861  7811 net.cpp:150] Setting up relu5_1
I0605 13:19:46.660867  7811 net.cpp:157] Top shape: 1 512 38 63 (1225728)
I0605 13:19:46.660869  7811 net.cpp:165] Memory required for data: 1370708844
I0605 13:19:46.660872  7811 layer_factory.hpp:77] Creating layer conv5_2
I0605 13:19:46.660879  7811 net.cpp:106] Creating Layer conv5_2
I0605 13:19:46.660881  7811 net.cpp:454] conv5_2 <- conv5_1
I0605 13:19:46.660885  7811 net.cpp:411] conv5_2 -> conv5_2
I0605 13:19:46.665163  7811 net.cpp:150] Setting up conv5_2
I0605 13:19:46.665182  7811 net.cpp:157] Top shape: 1 512 38 63 (1225728)
I0605 13:19:46.665185  7811 net.cpp:165] Memory required for data: 1375611756
I0605 13:19:46.665192  7811 layer_factory.hpp:77] Creating layer relu5_2
I0605 13:19:46.665200  7811 net.cpp:106] Creating Layer relu5_2
I0605 13:19:46.665205  7811 net.cpp:454] relu5_2 <- conv5_2
I0605 13:19:46.665212  7811 net.cpp:397] relu5_2 -> conv5_2 (in-place)
I0605 13:19:46.665345  7811 net.cpp:150] Setting up relu5_2
I0605 13:19:46.665352  7811 net.cpp:157] Top shape: 1 512 38 63 (1225728)
I0605 13:19:46.665365  7811 net.cpp:165] Memory required for data: 1380514668
I0605 13:19:46.665367  7811 layer_factory.hpp:77] Creating layer conv5_3
I0605 13:19:46.665381  7811 net.cpp:106] Creating Layer conv5_3
I0605 13:19:46.665387  7811 net.cpp:454] conv5_3 <- conv5_2
I0605 13:19:46.665392  7811 net.cpp:411] conv5_3 -> conv5_3
I0605 13:19:46.669767  7811 net.cpp:150] Setting up conv5_3
I0605 13:19:46.669796  7811 net.cpp:157] Top shape: 1 512 38 63 (1225728)
I0605 13:19:46.669800  7811 net.cpp:165] Memory required for data: 1385417580
I0605 13:19:46.669806  7811 layer_factory.hpp:77] Creating layer relu5_3
I0605 13:19:46.669816  7811 net.cpp:106] Creating Layer relu5_3
I0605 13:19:46.669832  7811 net.cpp:454] relu5_3 <- conv5_3
I0605 13:19:46.669842  7811 net.cpp:397] relu5_3 -> conv5_3 (in-place)
I0605 13:19:46.669982  7811 net.cpp:150] Setting up relu5_3
I0605 13:19:46.669988  7811 net.cpp:157] Top shape: 1 512 38 63 (1225728)
I0605 13:19:46.670001  7811 net.cpp:165] Memory required for data: 1390320492
I0605 13:19:46.670003  7811 layer_factory.hpp:77] Creating layer conv5_3_relu5_3_0_split
I0605 13:19:46.670009  7811 net.cpp:106] Creating Layer conv5_3_relu5_3_0_split
I0605 13:19:46.670012  7811 net.cpp:454] conv5_3_relu5_3_0_split <- conv5_3
I0605 13:19:46.670028  7811 net.cpp:411] conv5_3_relu5_3_0_split -> conv5_3_relu5_3_0_split_0
I0605 13:19:46.670037  7811 net.cpp:411] conv5_3_relu5_3_0_split -> conv5_3_relu5_3_0_split_1
I0605 13:19:46.670040  7811 net.cpp:411] conv5_3_relu5_3_0_split -> conv5_3_relu5_3_0_split_2
I0605 13:19:46.670085  7811 net.cpp:150] Setting up conv5_3_relu5_3_0_split
I0605 13:19:46.670089  7811 net.cpp:157] Top shape: 1 512 38 63 (1225728)
I0605 13:19:46.670105  7811 net.cpp:157] Top shape: 1 512 38 63 (1225728)
I0605 13:19:46.670107  7811 net.cpp:157] Top shape: 1 512 38 63 (1225728)
I0605 13:19:46.670109  7811 net.cpp:165] Memory required for data: 1405029228
I0605 13:19:46.670112  7811 layer_factory.hpp:77] Creating layer rpn_conv/3x3
I0605 13:19:46.670130  7811 net.cpp:106] Creating Layer rpn_conv/3x3
I0605 13:19:46.670133  7811 net.cpp:454] rpn_conv/3x3 <- conv5_3_relu5_3_0_split_0
I0605 13:19:46.670138  7811 net.cpp:411] rpn_conv/3x3 -> rpn/output
I0605 13:19:46.722882  7811 net.cpp:150] Setting up rpn_conv/3x3
I0605 13:19:46.722899  7811 net.cpp:157] Top shape: 1 512 38 63 (1225728)
I0605 13:19:46.722903  7811 net.cpp:165] Memory required for data: 1409932140
I0605 13:19:46.722909  7811 layer_factory.hpp:77] Creating layer rpn_relu/3x3
I0605 13:19:46.722918  7811 net.cpp:106] Creating Layer rpn_relu/3x3
I0605 13:19:46.722921  7811 net.cpp:454] rpn_relu/3x3 <- rpn/output
I0605 13:19:46.722936  7811 net.cpp:397] rpn_relu/3x3 -> rpn/output (in-place)
I0605 13:19:46.723063  7811 net.cpp:150] Setting up rpn_relu/3x3
I0605 13:19:46.723069  7811 net.cpp:157] Top shape: 1 512 38 63 (1225728)
I0605 13:19:46.723073  7811 net.cpp:165] Memory required for data: 1414835052
I0605 13:19:46.723074  7811 layer_factory.hpp:77] Creating layer rpn/output_rpn_relu/3x3_0_split
I0605 13:19:46.723078  7811 net.cpp:106] Creating Layer rpn/output_rpn_relu/3x3_0_split
I0605 13:19:46.723080  7811 net.cpp:454] rpn/output_rpn_relu/3x3_0_split <- rpn/output
I0605 13:19:46.723084  7811 net.cpp:411] rpn/output_rpn_relu/3x3_0_split -> rpn/output_rpn_relu/3x3_0_split_0
I0605 13:19:46.723090  7811 net.cpp:411] rpn/output_rpn_relu/3x3_0_split -> rpn/output_rpn_relu/3x3_0_split_1
I0605 13:19:46.723141  7811 net.cpp:150] Setting up rpn/output_rpn_relu/3x3_0_split
I0605 13:19:46.723147  7811 net.cpp:157] Top shape: 1 512 38 63 (1225728)
I0605 13:19:46.723161  7811 net.cpp:157] Top shape: 1 512 38 63 (1225728)
I0605 13:19:46.723163  7811 net.cpp:165] Memory required for data: 1424640876
I0605 13:19:46.723165  7811 layer_factory.hpp:77] Creating layer rpn_cls_score
I0605 13:19:46.723184  7811 net.cpp:106] Creating Layer rpn_cls_score
I0605 13:19:46.723191  7811 net.cpp:454] rpn_cls_score <- rpn/output_rpn_relu/3x3_0_split_0
I0605 13:19:46.723204  7811 net.cpp:411] rpn_cls_score -> rpn_cls_score
I0605 13:19:46.724745  7811 net.cpp:150] Setting up rpn_cls_score
I0605 13:19:46.724752  7811 net.cpp:157] Top shape: 1 30 38 63 (71820)
I0605 13:19:46.724754  7811 net.cpp:165] Memory required for data: 1424928156
I0605 13:19:46.724759  7811 layer_factory.hpp:77] Creating layer rpn_cls_score_rpn_cls_score_0_split
I0605 13:19:46.724763  7811 net.cpp:106] Creating Layer rpn_cls_score_rpn_cls_score_0_split
I0605 13:19:46.724766  7811 net.cpp:454] rpn_cls_score_rpn_cls_score_0_split <- rpn_cls_score
I0605 13:19:46.724771  7811 net.cpp:411] rpn_cls_score_rpn_cls_score_0_split -> rpn_cls_score_rpn_cls_score_0_split_0
I0605 13:19:46.724776  7811 net.cpp:411] rpn_cls_score_rpn_cls_score_0_split -> rpn_cls_score_rpn_cls_score_0_split_1
I0605 13:19:46.724819  7811 net.cpp:150] Setting up rpn_cls_score_rpn_cls_score_0_split
I0605 13:19:46.724825  7811 net.cpp:157] Top shape: 1 30 38 63 (71820)
I0605 13:19:46.724838  7811 net.cpp:157] Top shape: 1 30 38 63 (71820)
I0605 13:19:46.724839  7811 net.cpp:165] Memory required for data: 1425502716
I0605 13:19:46.724843  7811 layer_factory.hpp:77] Creating layer rpn_bbox_pred
I0605 13:19:46.724853  7811 net.cpp:106] Creating Layer rpn_bbox_pred
I0605 13:19:46.724858  7811 net.cpp:454] rpn_bbox_pred <- rpn/output_rpn_relu/3x3_0_split_1
I0605 13:19:46.724864  7811 net.cpp:411] rpn_bbox_pred -> rpn_bbox_pred
I0605 13:19:46.726359  7811 net.cpp:150] Setting up rpn_bbox_pred
I0605 13:19:46.726368  7811 net.cpp:157] Top shape: 1 60 38 63 (143640)
I0605 13:19:46.726370  7811 net.cpp:165] Memory required for data: 1426077276
I0605 13:19:46.726375  7811 layer_factory.hpp:77] Creating layer rpn_bbox_pred_rpn_bbox_pred_0_split
I0605 13:19:46.726379  7811 net.cpp:106] Creating Layer rpn_bbox_pred_rpn_bbox_pred_0_split
I0605 13:19:46.726382  7811 net.cpp:454] rpn_bbox_pred_rpn_bbox_pred_0_split <- rpn_bbox_pred
I0605 13:19:46.726387  7811 net.cpp:411] rpn_bbox_pred_rpn_bbox_pred_0_split -> rpn_bbox_pred_rpn_bbox_pred_0_split_0
I0605 13:19:46.726404  7811 net.cpp:411] rpn_bbox_pred_rpn_bbox_pred_0_split -> rpn_bbox_pred_rpn_bbox_pred_0_split_1
I0605 13:19:46.726445  7811 net.cpp:150] Setting up rpn_bbox_pred_rpn_bbox_pred_0_split
I0605 13:19:46.726450  7811 net.cpp:157] Top shape: 1 60 38 63 (143640)
I0605 13:19:46.726464  7811 net.cpp:157] Top shape: 1 60 38 63 (143640)
I0605 13:19:46.726465  7811 net.cpp:165] Memory required for data: 1427226396
I0605 13:19:46.726467  7811 layer_factory.hpp:77] Creating layer rpn_cls_score_reshape
I0605 13:19:46.726488  7811 net.cpp:106] Creating Layer rpn_cls_score_reshape
I0605 13:19:46.726503  7811 net.cpp:454] rpn_cls_score_reshape <- rpn_cls_score_rpn_cls_score_0_split_0
I0605 13:19:46.726508  7811 net.cpp:411] rpn_cls_score_reshape -> rpn_cls_score_reshape
I0605 13:19:46.726537  7811 net.cpp:150] Setting up rpn_cls_score_reshape
I0605 13:19:46.726542  7811 net.cpp:157] Top shape: 1 2 570 63 (71820)
I0605 13:19:46.726555  7811 net.cpp:165] Memory required for data: 1427513676
I0605 13:19:46.726557  7811 layer_factory.hpp:77] Creating layer rpn_cls_score_reshape_rpn_cls_score_reshape_0_split
I0605 13:19:46.726562  7811 net.cpp:106] Creating Layer rpn_cls_score_reshape_rpn_cls_score_reshape_0_split
I0605 13:19:46.726567  7811 net.cpp:454] rpn_cls_score_reshape_rpn_cls_score_reshape_0_split <- rpn_cls_score_reshape
I0605 13:19:46.726580  7811 net.cpp:411] rpn_cls_score_reshape_rpn_cls_score_reshape_0_split -> rpn_cls_score_reshape_rpn_cls_score_reshape_0_split_0
I0605 13:19:46.726588  7811 net.cpp:411] rpn_cls_score_reshape_rpn_cls_score_reshape_0_split -> rpn_cls_score_reshape_rpn_cls_score_reshape_0_split_1
I0605 13:19:46.726613  7811 net.cpp:150] Setting up rpn_cls_score_reshape_rpn_cls_score_reshape_0_split
I0605 13:19:46.726619  7811 net.cpp:157] Top shape: 1 2 570 63 (71820)
I0605 13:19:46.726622  7811 net.cpp:157] Top shape: 1 2 570 63 (71820)
I0605 13:19:46.726626  7811 net.cpp:165] Memory required for data: 1428088236
I0605 13:19:46.726629  7811 layer_factory.hpp:77] Creating layer rpn-data
I0605 13:19:46.727579  7811 net.cpp:106] Creating Layer rpn-data
I0605 13:19:46.727587  7811 net.cpp:454] rpn-data <- rpn_cls_score_rpn_cls_score_0_split_1
I0605 13:19:46.727603  7811 net.cpp:454] rpn-data <- gt_boxes_input-data_2_split_0
I0605 13:19:46.727608  7811 net.cpp:454] rpn-data <- im_info_input-data_1_split_0
I0605 13:19:46.727612  7811 net.cpp:454] rpn-data <- data_input-data_0_split_1
I0605 13:19:46.727617  7811 net.cpp:411] rpn-data -> rpn_labels
I0605 13:19:46.727623  7811 net.cpp:411] rpn-data -> rpn_bbox_targets
I0605 13:19:46.727629  7811 net.cpp:411] rpn-data -> rpn_bbox_inside_weights
I0605 13:19:46.727634  7811 net.cpp:411] rpn-data -> rpn_bbox_outside_weights
===================================anchor_scales in AnchorTargetLayer:=============(2, 4, 8, 16, 32)
I0605 13:19:46.728514  7811 net.cpp:150] Setting up rpn-data
I0605 13:19:46.728523  7811 net.cpp:157] Top shape: 1 1 570 63 (35910)
I0605 13:19:46.728528  7811 net.cpp:157] Top shape: 1 60 38 63 (143640)
I0605 13:19:46.728531  7811 net.cpp:157] Top shape: 1 60 38 63 (143640)
I0605 13:19:46.728536  7811 net.cpp:157] Top shape: 1 60 38 63 (143640)
I0605 13:19:46.728538  7811 net.cpp:165] Memory required for data: 1429955556
I0605 13:19:46.728543  7811 layer_factory.hpp:77] Creating layer rpn_loss_cls
I0605 13:19:46.728549  7811 net.cpp:106] Creating Layer rpn_loss_cls
I0605 13:19:46.728554  7811 net.cpp:454] rpn_loss_cls <- rpn_cls_score_reshape_rpn_cls_score_reshape_0_split_0
I0605 13:19:46.728557  7811 net.cpp:454] rpn_loss_cls <- rpn_labels
…
I0605 13:19:46.730458  7811 net.cpp:157] Top shape: (1)
I0605 13:19:46.730461  7811 net.cpp:160]     with loss weight 1
I0605 13:19:46.730479  7811 net.cpp:165] Memory required for data: 1429955564
I0605 13:19:46.730481  7811 layer_factory.hpp:77] Creating layer rpn_cls_prob
I0605 13:19:46.730486  7811 net.cpp:106] Creating Layer rpn_cls_prob
I0605 13:19:46.730499  7811 net.cpp:454] rpn_cls_prob <- rpn_cls_score_reshape_rpn_cls_score_reshape_0_split_1
I0605 13:19:46.730502  7811 net.cpp:411] rpn_cls_prob -> rpn_cls_prob
I0605 13:19:46.730693  7811 net.cpp:150] Setting up rpn_cls_prob
I0605 13:19:46.730700  7811 net.cpp:157] Top shape: 1 2 570 63 (71820)
I0605 13:19:46.730702  7811 net.cpp:165] Memory required for data: 1430242844
I0605 13:19:46.730705  7811 layer_factory.hpp:77] Creating layer rpn_cls_prob_reshape
I0605 13:19:46.730720  7811 net.cpp:106] Creating Layer rpn_cls_prob_reshape
I0605 13:19:46.730724  7811 net.cpp:454] rpn_cls_prob_reshape <- rpn_cls_prob
I0605 13:19:46.730729  7811 net.cpp:411] rpn_cls_prob_reshape -> rpn_cls_prob_reshape
I0605 13:19:46.730756  7811 net.cpp:150] Setting up rpn_cls_prob_reshape
I0605 13:19:46.730760  7811 net.cpp:157] Top shape: 1 30 38 63 (71820)
I0605 13:19:46.730762  7811 net.cpp:165] Memory required for data: 1430530124
I0605 13:19:46.730764  7811 layer_factory.hpp:77] Creating layer proposal
I0605 13:19:46.732084  7811 net.cpp:106] Creating Layer proposal
I0605 13:19:46.732092  7811 net.cpp:454] proposal <- rpn_cls_prob_reshape
I0605 13:19:46.732097  7811 net.cpp:454] proposal <- rpn_bbox_pred_rpn_bbox_pred_0_split_1
I0605 13:19:46.732100  7811 net.cpp:454] proposal <- im_info_input-data_1_split_1
I0605 13:19:46.732105  7811 net.cpp:411] proposal -> rpn_rois
=================================anchor_scales in ProposalLayer:=============(2, 4, 8, 16, 32)
I0605 13:19:46.742147  7811 net.cpp:150] Setting up proposal
I0605 13:19:46.742158  7811 net.cpp:157] Top shape: 1 5 (5)
I0605 13:19:46.742161  7811 net.cpp:165] Memory required for data: 1430530144
I0605 13:19:46.742164  7811 layer_factory.hpp:77] Creating layer roi-data
I0605 13:19:46.744597  7811 net.cpp:106] Creating Layer roi-data
I0605 13:19:46.744606  7811 net.cpp:454] roi-data <- rpn_rois
I0605 13:19:46.744611  7811 net.cpp:454] roi-data <- gt_boxes_input-data_2_split_1
I0605 13:19:46.744614  7811 net.cpp:454] roi-data <- im_info_input-data_1_split_2
I0605 13:19:46.744617  7811 net.cpp:454] roi-data <- seg_mask_inds
I0605 13:19:46.744619  7811 net.cpp:454] roi-data <- flipped
I0605 13:19:46.744624  7811 net.cpp:411] roi-data -> rois
I0605 13:19:46.744639  7811 net.cpp:411] roi-data -> labels
I0605 13:19:46.744647  7811 net.cpp:411] roi-data -> bbox_targets
I0605 13:19:46.744662  7811 net.cpp:411] roi-data -> bbox_inside_weights
I0605 13:19:46.744665  7811 net.cpp:411] roi-data -> bbox_outside_weights
I0605 13:19:46.744678  7811 net.cpp:411] roi-data -> mask_targets
I0605 13:19:46.744683  7811 net.cpp:411] roi-data -> rois_pos
I0605 13:19:46.744699  7811 net.cpp:411] roi-data -> rois_attribute
I0605 13:19:46.745124  7811 net.cpp:150] Setting up roi-data
I0605 13:19:46.745132  7811 net.cpp:157] Top shape: 1 5 (5)
I0605 13:19:46.745136  7811 net.cpp:157] Top shape: 1 1 (1)
I0605 13:19:46.745138  7811 net.cpp:157] Top shape: 1 8 (8)
I0605 13:19:46.745141  7811 net.cpp:157] Top shape: 1 8 (8)
I0605 13:19:46.745143  7811 net.cpp:157] Top shape: 1 8 (8)
I0605 13:19:46.745146  7811 net.cpp:157] Top shape: 1 244 244 (59536)
I0605 13:19:46.745158  7811 net.cpp:157] Top shape: 1 5 (5)
I0605 13:19:46.745162  7811 net.cpp:157] Top shape: 1 20 (20)
I0605 13:19:46.745164  7811 net.cpp:165] Memory required for data: 1430768508
I0605 13:19:46.745167  7811 layer_factory.hpp:77] Creating layer roi_pool5
I0605 13:19:46.745188  7811 net.cpp:106] Creating Layer roi_pool5
I0605 13:19:46.745193  7811 net.cpp:454] roi_pool5 <- conv5_3_relu5_3_0_split_1
I0605 13:19:46.745205  7811 net.cpp:454] roi_pool5 <- rois
I0605 13:19:46.745210  7811 net.cpp:411] roi_pool5 -> pool5
I0605 13:19:46.745215  7811 roi_alignment_layer.cpp:32] Spatial scale: 0.0625
I0605 13:19:46.745292  7811 net.cpp:150] Setting up roi_pool5
I0605 13:19:46.745296  7811 net.cpp:157] Top shape: 1 512 7 7 (25088)
I0605 13:19:46.745299  7811 net.cpp:165] Memory required for data: 1430868860
I0605 13:19:46.745301  7811 layer_factory.hpp:77] Creating layer fc6
I0605 13:19:46.745306  7811 net.cpp:106] Creating Layer fc6
I0605 13:19:46.745311  7811 net.cpp:454] fc6 <- pool5
I0605 13:19:46.745313  7811 net.cpp:411] fc6 -> fc6
I0605 13:19:46.885432  7811 net.cpp:150] Setting up fc6
I0605 13:19:46.885459  7811 net.cpp:157] Top shape: 1 4096 (4096)
I0605 13:19:46.885463  7811 net.cpp:165] Memory required for data: 1430885244
I0605 13:19:46.885478  7811 layer_factory.hpp:77] Creating layer relu6
I0605 13:19:46.885488  7811 net.cpp:106] Creating Layer relu6
I0605 13:19:46.885493  7811 net.cpp:454] relu6 <- fc6
I0605 13:19:46.885509  7811 net.cpp:397] relu6 -> fc6 (in-place)
I0605 13:19:46.885707  7811 net.cpp:150] Setting up relu6
I0605 13:19:46.885716  7811 net.cpp:157] Top shape: 1 4096 (4096)
I0605 13:19:46.885718  7811 net.cpp:165] Memory required for data: 1430901628
I0605 13:19:46.885722  7811 layer_factory.hpp:77] Creating layer fc7
I0605 13:19:46.885727  7811 net.cpp:106] Creating Layer fc7
I0605 13:19:46.885730  7811 net.cpp:454] fc7 <- fc6
I0605 13:19:46.885735  7811 net.cpp:411] fc7 -> fc7
I0605 13:19:46.911527  7811 net.cpp:150] Setting up fc7
I0605 13:19:46.911554  7811 net.cpp:157] Top shape: 1 4096 (4096)
I0605 13:19:46.911558  7811 net.cpp:165] Memory required for data: 1430918012
I0605 13:19:46.911566  7811 layer_factory.hpp:77] Creating layer relu7
I0605 13:19:46.911574  7811 net.cpp:106] Creating Layer relu7
I0605 13:19:46.911579  7811 net.cpp:454] relu7 <- fc7
I0605 13:19:46.911584  7811 net.cpp:397] relu7 -> fc7 (in-place)
I0605 13:19:46.911774  7811 net.cpp:150] Setting up relu7
I0605 13:19:46.911782  7811 net.cpp:157] Top shape: 1 4096 (4096)
I0605 13:19:46.911793  7811 net.cpp:165] Memory required for data: 1430934396
I0605 13:19:46.911797  7811 layer_factory.hpp:77] Creating layer fc7_relu7_0_split
I0605 13:19:46.911800  7811 net.cpp:106] Creating Layer fc7_relu7_0_split
I0605 13:19:46.911803  7811 net.cpp:454] fc7_relu7_0_split <- fc7
I0605 13:19:46.911806  7811 net.cpp:411] fc7_relu7_0_split -> fc7_relu7_0_split_0
I0605 13:19:46.911816  7811 net.cpp:411] fc7_relu7_0_split -> fc7_relu7_0_split_1
I0605 13:19:46.911844  7811 net.cpp:150] Setting up fc7_relu7_0_split
I0605 13:19:46.911849  7811 net.cpp:157] Top shape: 1 4096 (4096)
I0605 13:19:46.911852  7811 net.cpp:157] Top shape: 1 4096 (4096)
I0605 13:19:46.911854  7811 net.cpp:165] Memory required for data: 1430967164
I0605 13:19:46.911859  7811 layer_factory.hpp:77] Creating layer cls_score
I0605 13:19:46.911864  7811 net.cpp:106] Creating Layer cls_score
I0605 13:19:46.911867  7811 net.cpp:454] cls_score <- fc7_relu7_0_split_0
I0605 13:19:46.911872  7811 net.cpp:411] cls_score -> cls_score
I0605 13:19:46.912124  7811 net.cpp:150] Setting up cls_score
I0605 13:19:46.912129  7811 net.cpp:157] Top shape: 1 2 (2)
I0605 13:19:46.912132  7811 net.cpp:165] Memory required for data: 1430967172
I0605 13:19:46.912137  7811 layer_factory.hpp:77] Creating layer bbox_pred
I0605 13:19:46.912153  7811 net.cpp:106] Creating Layer bbox_pred
I0605 13:19:46.912159  7811 net.cpp:454] bbox_pred <- fc7_relu7_0_split_1
I0605 13:19:46.912166  7811 net.cpp:411] bbox_pred -> bbox_pred
I0605 13:19:46.912947  7811 net.cpp:150] Setting up bbox_pred
I0605 13:19:46.912955  7811 net.cpp:157] Top shape: 1 8 (8)
I0605 13:19:46.912956  7811 net.cpp:165] Memory required for data: 1430967204
I0605 13:19:46.912961  7811 layer_factory.hpp:77] Creating layer loss_cls
I0605 13:19:46.912976  7811 net.cpp:106] Creating Layer loss_cls
I0605 13:19:46.912981  7811 net.cpp:454] loss_cls <- cls_score
I0605 13:19:46.912983  7811 net.cpp:454] loss_cls <- labels
I0605 13:19:46.912987  7811 net.cpp:411] loss_cls -> loss_cls
…
I0605 13:19:46.913837  7811 net.cpp:165] Memory required for data: 1430967212
I0605 13:19:46.913841  7811 layer_factory.hpp:77] Creating layer roi_pool5_2
I0605 13:19:46.913846  7811 net.cpp:106] Creating Layer roi_pool5_2
I0605 13:19:46.913861  7811 net.cpp:454] roi_pool5_2 <- conv5_3_relu5_3_0_split_2
I0605 13:19:46.913864  7811 net.cpp:454] roi_pool5_2 <- rois_pos
I0605 13:19:46.913877  7811 net.cpp:411] roi_pool5_2 -> pool5_2
I0605 13:19:46.913883  7811 roi_alignment_layer.cpp:32] Spatial scale: 0.0625
I0605 13:19:46.913975  7811 net.cpp:150] Setting up roi_pool5_2
I0605 13:19:46.913983  7811 net.cpp:157] Top shape: 1 512 7 7 (25088)
I0605 13:19:46.913997  7811 net.cpp:165] Memory required for data: 1431067564
I0605 13:19:46.914000  7811 layer_factory.hpp:77] Creating layer pool5_2_conv
I0605 13:19:46.914007  7811 net.cpp:106] Creating Layer pool5_2_conv
I0605 13:19:46.914011  7811 net.cpp:454] pool5_2_conv <- pool5_2
I0605 13:19:46.914016  7811 net.cpp:411] pool5_2_conv -> pool5_2_conv
I0605 13:19:46.920547  7811 net.cpp:150] Setting up pool5_2_conv
I0605 13:19:46.920557  7811 net.cpp:157] Top shape: 1 512 7 7 (25088)
I0605 13:19:46.920560  7811 net.cpp:165] Memory required for data: 1431167916
I0605 13:19:46.920575  7811 layer_factory.hpp:77] Creating layer pool5_2_conv_relu
I0605 13:19:46.920583  7811 net.cpp:106] Creating Layer pool5_2_conv_relu
I0605 13:19:46.920586  7811 net.cpp:454] pool5_2_conv_relu <- pool5_2_conv
I0605 13:19:46.920590  7811 net.cpp:411] pool5_2_conv_relu -> pool5_2_conv_relu
I0605 13:19:46.920761  7811 net.cpp:150] Setting up pool5_2_conv_relu
I0605 13:19:46.920768  7811 net.cpp:157] Top shape: 1 512 7 7 (25088)
I0605 13:19:46.920770  7811 net.cpp:165] Memory required for data: 1431268268
I0605 13:19:46.920773  7811 layer_factory.hpp:77] Creating layer pool5_2_conv2
I0605 13:19:46.920795  7811 net.cpp:106] Creating Layer pool5_2_conv2
I0605 13:19:46.920799  7811 net.cpp:454] pool5_2_conv2 <- pool5_2_conv_relu
I0605 13:19:46.920817  7811 net.cpp:411] pool5_2_conv2 -> pool5_2_conv2
I0605 13:19:46.970798  7811 net.cpp:150] Setting up pool5_2_conv2
I0605 13:19:46.970825  7811 net.cpp:157] Top shape: 1 512 7 7 (25088)
I0605 13:19:46.970829  7811 net.cpp:165] Memory required for data: 1431368620
I0605 13:19:46.970836  7811 layer_factory.hpp:77] Creating layer pool5_2_conv2_relu
I0605 13:19:46.970845  7811 net.cpp:106] Creating Layer pool5_2_conv2_relu
I0605 13:19:46.970860  7811 net.cpp:454] pool5_2_conv2_relu <- pool5_2_conv2
I0605 13:19:46.970866  7811 net.cpp:411] pool5_2_conv2_relu -> pool5_2_conv2_relu
I0605 13:19:46.971014  7811 net.cpp:150] Setting up pool5_2_conv2_relu
I0605 13:19:46.971021  7811 net.cpp:157] Top shape: 1 512 7 7 (25088)
I0605 13:19:46.971033  7811 net.cpp:165] Memory required for data: 1431468972
I0605 13:19:46.971036  7811 layer_factory.hpp:77] Creating layer mask_deconv1
I0605 13:19:46.971043  7811 net.cpp:106] Creating Layer mask_deconv1
I0605 13:19:46.971046  7811 net.cpp:454] mask_deconv1 <- pool5_2_conv2_relu
I0605 13:19:46.971063  7811 net.cpp:411] mask_deconv1 -> mask_deconv1
I0605 13:19:46.971837  7811 net.cpp:150] Setting up mask_deconv1
I0605 13:19:46.971843  7811 net.cpp:157] Top shape: 1 256 30 30 (230400)
I0605 13:19:46.971854  7811 net.cpp:165] Memory required for data: 1432390572
I0605 13:19:46.971858  7811 layer_factory.hpp:77] Creating layer pool5_2_conv3
I0605 13:19:46.971864  7811 net.cpp:106] Creating Layer pool5_2_conv3
I0605 13:19:46.971866  7811 net.cpp:454] pool5_2_conv3 <- mask_deconv1
I0605 13:19:46.971884  7811 net.cpp:411] pool5_2_conv3 -> pool5_2_conv3
I0605 13:19:46.998764  7811 net.cpp:150] Setting up pool5_2_conv3
I0605 13:19:46.998785  7811 net.cpp:157] Top shape: 1 512 30 30 (460800)
I0605 13:19:46.998786  7811 net.cpp:165] Memory required for data: 1434233772
I0605 13:19:46.998795  7811 layer_factory.hpp:77] Creating layer pool5_2_conv3_relu
I0605 13:19:46.998803  7811 net.cpp:106] Creating Layer pool5_2_conv3_relu
I0605 13:19:46.998816  7811 net.cpp:454] pool5_2_conv3_relu <- pool5_2_conv3
I0605 13:19:46.998833  7811 net.cpp:411] pool5_2_conv3_relu -> pool5_2_conv3_relu
I0605 13:19:46.998989  7811 net.cpp:150] Setting up pool5_2_conv3_relu
I0605 13:19:46.998996  7811 net.cpp:157] Top shape: 1 512 30 30 (460800)
I0605 13:19:46.998998  7811 net.cpp:165] Memory required for data: 1436076972
I0605 13:19:46.999001  7811 layer_factory.hpp:77] Creating layer pool5_2_conv4
I0605 13:19:46.999024  7811 net.cpp:106] Creating Layer pool5_2_conv4
I0605 13:19:46.999028  7811 net.cpp:454] pool5_2_conv4 <- pool5_2_conv3_relu
I0605 13:19:46.999042  7811 net.cpp:411] pool5_2_conv4 -> pool5_2_conv4
I0605 13:19:47.049837  7811 net.cpp:150] Setting up pool5_2_conv4
I0605 13:19:47.049856  7811 net.cpp:157] Top shape: 1 512 30 30 (460800)
I0605 13:19:47.049860  7811 net.cpp:165] Memory required for data: 1437920172
I0605 13:19:47.049867  7811 layer_factory.hpp:77] Creating layer pool5_2_conv4_relu
I0605 13:19:47.049886  7811 net.cpp:106] Creating Layer pool5_2_conv4_relu
I0605 13:19:47.049892  7811 net.cpp:454] pool5_2_conv4_relu <- pool5_2_conv4
I0605 13:19:47.049907  7811 net.cpp:411] pool5_2_conv4_relu -> pool5_2_conv4_relu
I0605 13:19:47.050055  7811 net.cpp:150] Setting up pool5_2_conv4_relu
I0605 13:19:47.050061  7811 net.cpp:157] Top shape: 1 512 30 30 (460800)
I0605 13:19:47.050065  7811 net.cpp:165] Memory required for data: 1439763372
I0605 13:19:47.050066  7811 layer_factory.hpp:77] Creating layer pool5_2_conv4_relu_pool5_2_conv4_relu_0_split
I0605 13:19:47.050072  7811 net.cpp:106] Creating Layer pool5_2_conv4_relu_pool5_2_conv4_relu_0_split
I0605 13:19:47.050074  7811 net.cpp:454] pool5_2_conv4_relu_pool5_2_conv4_relu_0_split <- pool5_2_conv4_relu
…
I0605 13:19:47.050130  7811 net.cpp:411] pool5_2_conv4_relu_pool5_2_conv4_relu_0_split -> pool5_2_conv4_relu_pool5_2_conv4_relu_0_split_4
I0605 13:19:47.050134  7811 net.cpp:411] pool5_2_conv4_relu_pool5_2_conv4_relu_0_split -> pool5_2_conv4_relu_pool5_2_conv4_relu_0_split_5
I0605 13:19:47.050137  7811 net.cpp:411] pool5_2_conv4_relu_pool5_2_conv4_relu_0_split -> pool5_2_conv4_relu_pool5_2_conv4_relu_0_split_6
I0605 13:19:47.050141  7811 net.cpp:411] pool5_2_conv4_relu_pool5_2_conv4_relu_0_split -> pool5_2_conv4_relu_pool5_2_conv4_relu_0_split_7
I0605 13:19:47.050246  7811 net.cpp:150] Setting up pool5_2_conv4_relu_pool5_2_conv4_relu_0_split
I0605 13:19:47.050251  7811 net.cpp:157] Top shape: 1 512 30 30 (460800)
I0605 13:19:47.050252  7811 net.cpp:157] Top shape: 1 512 30 30 (460800)
I0605 13:19:47.050256  7811 net.cpp:157] Top shape: 1 512 30 30 (460800)
I0605 13:19:47.050257  7811 net.cpp:157] Top shape: 1 512 30 30 (460800)
I0605 13:19:47.050259  7811 net.cpp:157] Top shape: 1 512 30 30 (460800)
I0605 13:19:47.050262  7811 net.cpp:157] Top shape: 1 512 30 30 (460800)
I0605 13:19:47.050264  7811 net.cpp:157] Top shape: 1 512 30 30 (460800)
I0605 13:19:47.050266  7811 net.cpp:157] Top shape: 1 512 30 30 (460800)
I0605 13:19:47.050268  7811 net.cpp:165] Memory required for data: 1454508972
I0605 13:19:47.050281  7811 layer_factory.hpp:77] Creating layer query_conv
I0605 13:19:47.050303  7811 net.cpp:106] Creating Layer query_conv
I0605 13:19:47.050307  7811 net.cpp:454] query_conv <- pool5_2_conv4_relu_pool5_2_conv4_relu_0_split_0
I0605 13:19:47.050312  7811 net.cpp:411] query_conv -> query_conv
I0605 13:19:47.052067  7811 net.cpp:150] Setting up query_conv
I0605 13:19:47.052076  7811 net.cpp:157] Top shape: 1 64 30 30 (57600)
I0605 13:19:47.052079  7811 net.cpp:165] Memory required for data: 1454739372
I0605 13:19:47.052084  7811 layer_factory.hpp:77] Creating layer key_conv
I0605 13:19:47.052093  7811 net.cpp:106] Creating Layer key_conv
I0605 13:19:47.052105  7811 net.cpp:454] key_conv <- pool5_2_conv4_relu_pool5_2_conv4_relu_0_split_1
I0605 13:19:47.052111  7811 net.cpp:411] key_conv -> key_conv
I0605 13:19:47.053761  7811 net.cpp:150] Setting up key_conv
I0605 13:19:47.053771  7811 net.cpp:157] Top shape: 1 64 30 30 (57600)
I0605 13:19:47.053783  7811 net.cpp:165] Memory required for data: 1454969772
I0605 13:19:47.053787  7811 layer_factory.hpp:77] Creating layer value_conv
I0605 13:19:47.053795  7811 net.cpp:106] Creating Layer value_conv
I0605 13:19:47.053797  7811 net.cpp:454] value_conv <- pool5_2_conv4_relu_pool5_2_conv4_relu_0_split_2
I0605 13:19:47.053814  7811 net.cpp:411] value_conv -> value_conv
I0605 13:19:47.060480  7811 net.cpp:150] Setting up value_conv
I0605 13:19:47.060492  7811 net.cpp:157] Top shape: 1 512 30 30 (460800)
I0605 13:19:47.060494  7811 net.cpp:165] Memory required for data: 1456812972
I0605 13:19:47.060499  7811 layer_factory.hpp:77] Creating layer query_conv_reshape
I0605 13:19:47.060505  7811 net.cpp:106] Creating Layer query_conv_reshape
I0605 13:19:47.060508  7811 net.cpp:454] query_conv_reshape <- query_conv
I0605 13:19:47.060513  7811 net.cpp:411] query_conv_reshape -> query_conv_reshape
I0605 13:19:47.060569  7811 net.cpp:150] Setting up query_conv_reshape
I0605 13:19:47.060573  7811 net.cpp:157] Top shape: 1 64 900 1 (57600)
I0605 13:19:47.060575  7811 net.cpp:165] Memory required for data: 1457043372
I0605 13:19:47.060587  7811 layer_factory.hpp:77] Creating layer key_conv_reshape
I0605 13:19:47.060591  7811 net.cpp:106] Creating Layer key_conv_reshape
I0605 13:19:47.060593  7811 net.cpp:454] key_conv_reshape <- key_conv
I0605 13:19:47.060607  7811 net.cpp:411] key_conv_reshape -> key_conv_reshape
I0605 13:19:47.060622  7811 net.cpp:150] Setting up key_conv_reshape
I0605 13:19:47.060626  7811 net.cpp:157] Top shape: 1 64 900 1 (57600)
I0605 13:19:47.060628  7811 net.cpp:165] Memory required for data: 1457273772
I0605 13:19:47.060631  7811 layer_factory.hpp:77] Creating layer value_conv_reshape
I0605 13:19:47.060636  7811 net.cpp:106] Creating Layer value_conv_reshape
I0605 13:19:47.060652  7811 net.cpp:454] value_conv_reshape <- value_conv
I0605 13:19:47.060654  7811 net.cpp:411] value_conv_reshape -> value_conv_reshape
I0605 13:19:47.060669  7811 net.cpp:150] Setting up value_conv_reshape
I0605 13:19:47.060683  7811 net.cpp:157] Top shape: 1 512 900 1 (460800)
I0605 13:19:47.060685  7811 net.cpp:165] Memory required for data: 1459116972
I0605 13:19:47.060688  7811 layer_factory.hpp:77] Creating layer query_conv_reshape_perm
I0605 13:19:47.060691  7811 net.cpp:106] Creating Layer query_conv_reshape_perm
I0605 13:19:47.060694  7811 net.cpp:454] query_conv_reshape_perm <- query_conv_reshape
I0605 13:19:47.060698  7811 net.cpp:411] query_conv_reshape_perm -> query_conv_reshape_perm
I0605 13:19:47.060793  7811 net.cpp:150] Setting up query_conv_reshape_perm
I0605 13:19:47.060797  7811 net.cpp:157] Top shape: 1 1 900 64 (57600)
I0605 13:19:47.060799  7811 net.cpp:165] Memory required for data: 1459347372
I0605 13:19:47.060801  7811 layer_factory.hpp:77] Creating layer key_conv_reshape_perm
I0605 13:19:47.060804  7811 net.cpp:106] Creating Layer key_conv_reshape_perm
I0605 13:19:47.060807  7811 net.cpp:454] key_conv_reshape_perm <- key_conv_reshape
I0605 13:19:47.060811  7811 net.cpp:411] key_conv_reshape_perm -> key_conv_reshape_perm
I0605 13:19:47.060901  7811 net.cpp:150] Setting up key_conv_reshape_perm
I0605 13:19:47.060905  7811 net.cpp:157] Top shape: 1 1 64 900 (57600)
I0605 13:19:47.060907  7811 net.cpp:165] Memory required for data: 1459577772
I0605 13:19:47.060909  7811 layer_factory.hpp:77] Creating layer energy
I0605 13:19:47.060914  7811 net.cpp:106] Creating Layer energy
I0605 13:19:47.060915  7811 net.cpp:454] energy <- query_conv_reshape_perm
I0605 13:19:47.060919  7811 net.cpp:454] energy <- key_conv_reshape_perm
I0605 13:19:47.060932  7811 net.cpp:411] energy -> energy
I0605 13:19:47.060958  7811 net.cpp:150] Setting up energy
I0605 13:19:47.060972  7811 net.cpp:157] Top shape: 1 1 900 900 (810000)
I0605 13:19:47.060976  7811 net.cpp:165] Memory required for data: 1462817772
I0605 13:19:47.060977  7811 layer_factory.hpp:77] Creating layer attention
I0605 13:19:47.060990  7811 net.cpp:106] Creating Layer attention
I0605 13:19:47.060994  7811 net.cpp:454] attention <- energy
I0605 13:19:47.060999  7811 net.cpp:411] attention -> attention
I0605 13:19:47.061174  7811 net.cpp:150] Setting up attention
I0605 13:19:47.061182  7811 net.cpp:157] Top shape: 1 1 900 900 (810000)
I0605 13:19:47.061193  7811 net.cpp:165] Memory required for data: 1466057772
I0605 13:19:47.061195  7811 layer_factory.hpp:77] Creating layer value_conv_reshape_perm
I0605 13:19:47.061199  7811 net.cpp:106] Creating Layer value_conv_reshape_perm
I0605 13:19:47.061213  7811 net.cpp:454] value_conv_reshape_perm <- value_conv_reshape
I0605 13:19:47.061218  7811 net.cpp:411] value_conv_reshape_perm -> value_conv_reshape_perm
I0605 13:19:47.061293  7811 net.cpp:150] Setting up value_conv_reshape_perm
I0605 13:19:47.061298  7811 net.cpp:157] Top shape: 1 1 512 900 (460800)
I0605 13:19:47.061300  7811 net.cpp:165] Memory required for data: 1467900972
I0605 13:19:47.061303  7811 layer_factory.hpp:77] Creating layer attention_perm
I0605 13:19:47.061317  7811 net.cpp:106] Creating Layer attention_perm
I0605 13:19:47.061322  7811 net.cpp:454] attention_perm <- attention
I0605 13:19:47.061326  7811 net.cpp:411] attention_perm -> attention_perm
I0605 13:19:47.061398  7811 net.cpp:150] Setting up attention_perm
I0605 13:19:47.061403  7811 net.cpp:157] Top shape: 1 1 900 900 (810000)
I0605 13:19:47.061405  7811 net.cpp:165] Memory required for data: 1471140972
I0605 13:19:47.061408  7811 layer_factory.hpp:77] Creating layer out
I0605 13:19:47.061436  7811 net.cpp:106] Creating Layer out
I0605 13:19:47.061440  7811 net.cpp:454] out <- value_conv_reshape_perm
I0605 13:19:47.061445  7811 net.cpp:454] out <- attention_perm
I0605 13:19:47.061450  7811 net.cpp:411] out -> out
I0605 13:19:47.061481  7811 net.cpp:150] Setting up out
I0605 13:19:47.061486  7811 net.cpp:157] Top shape: 1 1 512 900 (460800)
I0605 13:19:47.061488  7811 net.cpp:165] Memory required for data: 1472984172
I0605 13:19:47.061491  7811 layer_factory.hpp:77] Creating layer out_reshape
I0605 13:19:47.061496  7811 net.cpp:106] Creating Layer out_reshape
I0605 13:19:47.061497  7811 net.cpp:454] out_reshape <- out
I0605 13:19:47.061502  7811 net.cpp:411] out_reshape -> out_reshape
I0605 13:19:47.061532  7811 net.cpp:150] Setting up out_reshape
I0605 13:19:47.061537  7811 net.cpp:157] Top shape: 1 512 30 30 (460800)
I0605 13:19:47.061539  7811 net.cpp:165] Memory required for data: 1474827372
I0605 13:19:47.061542  7811 layer_factory.hpp:77] Creating layer out_reshape_scale
I0605 13:19:47.061547  7811 net.cpp:106] Creating Layer out_reshape_scale
I0605 13:19:47.061550  7811 net.cpp:454] out_reshape_scale <- out_reshape
I0605 13:19:47.061555  7811 net.cpp:411] out_reshape_scale -> out_reshape_scale
I0605 13:19:47.061621  7811 net.cpp:150] Setting up out_reshape_scale
I0605 13:19:47.061626  7811 net.cpp:157] Top shape: 1 512 30 30 (460800)
I0605 13:19:47.061628  7811 net.cpp:165] Memory required for data: 1476670572
I0605 13:19:47.061632  7811 layer_factory.hpp:77] Creating layer out_x
I0605 13:19:47.061637  7811 net.cpp:106] Creating Layer out_x
I0605 13:19:47.061641  7811 net.cpp:454] out_x <- out_reshape_scale
I0605 13:19:47.061645  7811 net.cpp:454] out_x <- pool5_2_conv4_relu_pool5_2_conv4_relu_0_split_3
I0605 13:19:47.061653  7811 net.cpp:411] out_x -> out_x
I0605 13:19:47.061673  7811 net.cpp:150] Setting up out_x
I0605 13:19:47.061678  7811 net.cpp:157] Top shape: 1 512 30 30 (460800)
I0605 13:19:47.061682  7811 net.cpp:165] Memory required for data: 1478513772
I0605 13:19:47.061686  7811 layer_factory.hpp:77] Creating layer query_conv_reshape_ch
I0605 13:19:47.061691  7811 net.cpp:106] Creating Layer query_conv_reshape_ch
I0605 13:19:47.061694  7811 net.cpp:454] query_conv_reshape_ch <- pool5_2_conv4_relu_pool5_2_conv4_relu_0_split_4
I0605 13:19:47.061697  7811 net.cpp:411] query_conv_reshape_ch -> query_conv_reshape_ch
I0605 13:19:47.061717  7811 net.cpp:150] Setting up query_conv_reshape_ch
I0605 13:19:47.061722  7811 net.cpp:157] Top shape: 1 512 900 1 (460800)
I0605 13:19:47.061724  7811 net.cpp:165] Memory required for data: 1480356972
I0605 13:19:47.061728  7811 layer_factory.hpp:77] Creating layer key_conv_reshape_ch
I0605 13:19:47.061733  7811 net.cpp:106] Creating Layer key_conv_reshape_ch
I0605 13:19:47.061738  7811 net.cpp:454] key_conv_reshape_ch <- pool5_2_conv4_relu_pool5_2_conv4_relu_0_split_5
I0605 13:19:47.061741  7811 net.cpp:411] key_conv_reshape_ch -> key_conv_reshape_ch
I0605 13:19:47.061760  7811 net.cpp:150] Setting up key_conv_reshape_ch
I0605 13:19:47.061764  7811 net.cpp:157] Top shape: 1 512 900 1 (460800)
I0605 13:19:47.061766  7811 net.cpp:165] Memory required for data: 1482200172
I0605 13:19:47.061769  7811 layer_factory.hpp:77] Creating layer value_conv_reshape_ch
I0605 13:19:47.061774  7811 net.cpp:106] Creating Layer value_conv_reshape_ch
I0605 13:19:47.061777  7811 net.cpp:454] value_conv_reshape_ch <- pool5_2_conv4_relu_pool5_2_conv4_relu_0_split_6
I0605 13:19:47.061781  7811 net.cpp:411] value_conv_reshape_ch -> value_conv_reshape_ch
I0605 13:19:47.061800  7811 net.cpp:150] Setting up value_conv_reshape_ch
I0605 13:19:47.061805  7811 net.cpp:157] Top shape: 1 512 900 1 (460800)
I0605 13:19:47.061808  7811 net.cpp:165] Memory required for data: 1484043372
I0605 13:19:47.061810  7811 layer_factory.hpp:77] Creating layer query_conv_reshape_perm_ch
I0605 13:19:47.061815  7811 net.cpp:106] Creating Layer query_conv_reshape_perm_ch
I0605 13:19:47.061820  7811 net.cpp:454] query_conv_reshape_perm_ch <- query_conv_reshape_ch
I0605 13:19:47.061823  7811 net.cpp:411] query_conv_reshape_perm_ch -> query_conv_reshape_perm_ch
I0605 13:19:47.061892  7811 net.cpp:150] Setting up query_conv_reshape_perm_ch
I0605 13:19:47.061895  7811 net.cpp:157] Top shape: 1 1 512 900 (460800)
I0605 13:19:47.061898  7811 net.cpp:165] Memory required for data: 1485886572
I0605 13:19:47.061902  7811 layer_factory.hpp:77] Creating layer key_conv_reshape_perm_ch
I0605 13:19:47.061905  7811 net.cpp:106] Creating Layer key_conv_reshape_perm_ch
I0605 13:19:47.061908  7811 net.cpp:454] key_conv_reshape_perm_ch <- key_conv_reshape_ch
I0605 13:19:47.061913  7811 net.cpp:411] key_conv_reshape_perm_ch -> key_conv_reshape_perm_ch
I0605 13:19:47.061975  7811 net.cpp:150] Setting up key_conv_reshape_perm_ch
I0605 13:19:47.061978  7811 net.cpp:157] Top shape: 1 1 900 512 (460800)
I0605 13:19:47.061980  7811 net.cpp:165] Memory required for data: 1487729772
I0605 13:19:47.061983  7811 layer_factory.hpp:77] Creating layer energy_ch
I0605 13:19:47.061987  7811 net.cpp:106] Creating Layer energy_ch
I0605 13:19:47.061991  7811 net.cpp:454] energy_ch <- query_conv_reshape_perm_ch
I0605 13:19:47.061995  7811 net.cpp:454] energy_ch <- key_conv_reshape_perm_ch
I0605 13:19:47.062002  7811 net.cpp:411] energy_ch -> energy_ch
I0605 13:19:47.062022  7811 net.cpp:150] Setting up energy_ch
I0605 13:19:47.062027  7811 net.cpp:157] Top shape: 1 1 512 512 (262144)
I0605 13:19:47.062031  7811 net.cpp:165] Memory required for data: 1488778348
I0605 13:19:47.062034  7811 layer_factory.hpp:77] Creating layer energy_ch_energy_ch_0_split
I0605 13:19:47.062039  7811 net.cpp:106] Creating Layer energy_ch_energy_ch_0_split
I0605 13:19:47.062042  7811 net.cpp:454] energy_ch_energy_ch_0_split <- energy_ch
I0605 13:19:47.062047  7811 net.cpp:411] energy_ch_energy_ch_0_split -> energy_ch_energy_ch_0_split_0
I0605 13:19:47.062050  7811 net.cpp:411] energy_ch_energy_ch_0_split -> energy_ch_energy_ch_0_split_1
I0605 13:19:47.062077  7811 net.cpp:150] Setting up energy_ch_energy_ch_0_split
I0605 13:19:47.062083  7811 net.cpp:157] Top shape: 1 1 512 512 (262144)
I0605 13:19:47.062085  7811 net.cpp:157] Top shape: 1 1 512 512 (262144)
I0605 13:19:47.062088  7811 net.cpp:165] Memory required for data: 1490875500
I0605 13:19:47.062090  7811 layer_factory.hpp:77] Creating layer energy_ch_pool
I0605 13:19:47.062095  7811 net.cpp:106] Creating Layer energy_ch_pool
I0605 13:19:47.062099  7811 net.cpp:454] energy_ch_pool <- energy_ch_energy_ch_0_split_0
I0605 13:19:47.062104  7811 net.cpp:411] energy_ch_pool -> energy_ch_pool
I0605 13:19:47.062136  7811 net.cpp:150] Setting up energy_ch_pool
I0605 13:19:47.062141  7811 net.cpp:157] Top shape: 1 1 512 1 (512)
I0605 13:19:47.062144  7811 net.cpp:165] Memory required for data: 1490877548
I0605 13:19:47.062146  7811 layer_factory.hpp:77] Creating layer energy_ch_max
I0605 13:19:47.062153  7811 net.cpp:106] Creating Layer energy_ch_max
I0605 13:19:47.062157  7811 net.cpp:454] energy_ch_max <- energy_ch_pool
I0605 13:19:47.062161  7811 net.cpp:411] energy_ch_max -> energy_ch_max
I0605 13:19:47.062180  7811 net.cpp:150] Setting up energy_ch_max
I0605 13:19:47.062184  7811 net.cpp:157] Top shape: 1 1 512 512 (262144)
I0605 13:19:47.062187  7811 net.cpp:165] Memory required for data: 1491926124
I0605 13:19:47.062189  7811 layer_factory.hpp:77] Creating layer energy_ch_minus
I0605 13:19:47.062201  7811 net.cpp:106] Creating Layer energy_ch_minus
I0605 13:19:47.062204  7811 net.cpp:454] energy_ch_minus <- energy_ch_energy_ch_0_split_1
I0605 13:19:47.062209  7811 net.cpp:411] energy_ch_minus -> energy_ch_minus
I0605 13:19:47.062230  7811 net.cpp:150] Setting up energy_ch_minus
I0605 13:19:47.062235  7811 net.cpp:157] Top shape: 1 1 512 512 (262144)
I0605 13:19:47.062238  7811 net.cpp:165] Memory required for data: 1492974700
I0605 13:19:47.062242  7811 layer_factory.hpp:77] Creating layer energy_new
I0605 13:19:47.062245  7811 net.cpp:106] Creating Layer energy_new
I0605 13:19:47.062249  7811 net.cpp:454] energy_new <- energy_ch_max
I0605 13:19:47.062253  7811 net.cpp:454] energy_new <- energy_ch_minus
I0605 13:19:47.062258  7811 net.cpp:411] energy_new -> energy_new
I0605 13:19:47.062273  7811 net.cpp:150] Setting up energy_new
I0605 13:19:47.062278  7811 net.cpp:157] Top shape: 1 1 512 512 (262144)
I0605 13:19:47.062280  7811 net.cpp:165] Memory required for data: 1494023276
I0605 13:19:47.062283  7811 layer_factory.hpp:77] Creating layer attention_ch
I0605 13:19:47.062288  7811 net.cpp:106] Creating Layer attention_ch
I0605 13:19:47.062289  7811 net.cpp:454] attention_ch <- energy_new
I0605 13:19:47.062294  7811 net.cpp:411] attention_ch -> attention_ch
I0605 13:19:47.062850  7811 net.cpp:150] Setting up attention_ch
I0605 13:19:47.062858  7811 net.cpp:157] Top shape: 1 1 512 512 (262144)
I0605 13:19:47.062862  7811 net.cpp:165] Memory required for data: 1495071852
I0605 13:19:47.062865  7811 layer_factory.hpp:77] Creating layer value_conv_reshape_ch_perm
I0605 13:19:47.062871  7811 net.cpp:106] Creating Layer value_conv_reshape_ch_perm
I0605 13:19:47.062875  7811 net.cpp:454] value_conv_reshape_ch_perm <- value_conv_reshape_ch
I0605 13:19:47.062880  7811 net.cpp:411] value_conv_reshape_ch_perm -> value_conv_reshape_ch_perm
I0605 13:19:47.062949  7811 net.cpp:150] Setting up value_conv_reshape_ch_perm
I0605 13:19:47.062954  7811 net.cpp:157] Top shape: 1 1 512 900 (460800)
I0605 13:19:47.062958  7811 net.cpp:165] Memory required for data: 1496915052
I0605 13:19:47.062963  7811 layer_factory.hpp:77] Creating layer attention_ch_perm
I0605 13:19:47.062968  7811 net.cpp:106] Creating Layer attention_ch_perm
I0605 13:19:47.062973  7811 net.cpp:454] attention_ch_perm <- attention_ch
I0605 13:19:47.062976  7811 net.cpp:411] attention_ch_perm -> attention_ch_perm
I0605 13:19:47.063043  7811 net.cpp:150] Setting up attention_ch_perm
I0605 13:19:47.063048  7811 net.cpp:157] Top shape: 1 1 512 512 (262144)
I0605 13:19:47.063051  7811 net.cpp:165] Memory required for data: 1497963628
I0605 13:19:47.063056  7811 layer_factory.hpp:77] Creating layer out_ch
I0605 13:19:47.063060  7811 net.cpp:106] Creating Layer out_ch
I0605 13:19:47.063063  7811 net.cpp:454] out_ch <- attention_ch_perm
I0605 13:19:47.063067  7811 net.cpp:454] out_ch <- value_conv_reshape_ch_perm
I0605 13:19:47.063074  7811 net.cpp:411] out_ch -> out_ch
I0605 13:19:47.063091  7811 net.cpp:150] Setting up out_ch
I0605 13:19:47.063097  7811 net.cpp:157] Top shape: 1 1 512 900 (460800)
I0605 13:19:47.063099  7811 net.cpp:165] Memory required for data: 1499806828
I0605 13:19:47.063104  7811 layer_factory.hpp:77] Creating layer out_ch_reshape
I0605 13:19:47.063109  7811 net.cpp:106] Creating Layer out_ch_reshape
I0605 13:19:47.063114  7811 net.cpp:454] out_ch_reshape <- out_ch
I0605 13:19:47.063118  7811 net.cpp:411] out_ch_reshape -> out_ch_reshape
I0605 13:19:47.063136  7811 net.cpp:150] Setting up out_ch_reshape
I0605 13:19:47.063141  7811 net.cpp:157] Top shape: 1 512 30 30 (460800)
I0605 13:19:47.063143  7811 net.cpp:165] Memory required for data: 1501650028
I0605 13:19:47.063145  7811 layer_factory.hpp:77] Creating layer out_ch_reshape_scale
I0605 13:19:47.063151  7811 net.cpp:106] Creating Layer out_ch_reshape_scale
I0605 13:19:47.063156  7811 net.cpp:454] out_ch_reshape_scale <- out_ch_reshape
I0605 13:19:47.063159  7811 net.cpp:411] out_ch_reshape_scale -> out_ch_reshape_scale
I0605 13:19:47.063217  7811 net.cpp:150] Setting up out_ch_reshape_scale
I0605 13:19:47.063222  7811 net.cpp:157] Top shape: 1 512 30 30 (460800)
I0605 13:19:47.063225  7811 net.cpp:165] Memory required for data: 1503493228
I0605 13:19:47.063230  7811 net.cpp:514] Sharing parameters 'scale_conv1_1' owned by layer 'out_reshape_scale', param index 0
I0605 13:19:47.063232  7811 layer_factory.hpp:77] Creating layer out_ch_x
I0605 13:19:47.063238  7811 net.cpp:106] Creating Layer out_ch_x
I0605 13:19:47.063242  7811 net.cpp:454] out_ch_x <- out_ch_reshape_scale
I0605 13:19:47.063246  7811 net.cpp:454] out_ch_x <- pool5_2_conv4_relu_pool5_2_conv4_relu_0_split_7
I0605 13:19:47.063251  7811 net.cpp:411] out_ch_x -> out_ch_x
I0605 13:19:47.063269  7811 net.cpp:150] Setting up out_ch_x
I0605 13:19:47.063274  7811 net.cpp:157] Top shape: 1 512 30 30 (460800)
I0605 13:19:47.063277  7811 net.cpp:165] Memory required for data: 1505336428
I0605 13:19:47.063279  7811 layer_factory.hpp:77] Creating layer out_conv_ch_x
I0605 13:19:47.063289  7811 net.cpp:106] Creating Layer out_conv_ch_x
I0605 13:19:47.063294  7811 net.cpp:454] out_conv_ch_x <- out_ch_x
I0605 13:19:47.063299  7811 net.cpp:411] out_conv_ch_x -> out_conv_ch_x
I0605 13:19:47.069103  7811 net.cpp:150] Setting up out_conv_ch_x
I0605 13:19:47.069111  7811 net.cpp:157] Top shape: 1 512 30 30 (460800)
I0605 13:19:47.069113  7811 net.cpp:165] Memory required for data: 1507179628
I0605 13:19:47.069118  7811 layer_factory.hpp:77] Creating layer out_conv_x
I0605 13:19:47.069137  7811 net.cpp:106] Creating Layer out_conv_x
I0605 13:19:47.069142  7811 net.cpp:454] out_conv_x <- out_x
I0605 13:19:47.069149  7811 net.cpp:411] out_conv_x -> out_conv_x
I0605 13:19:47.076082  7811 net.cpp:150] Setting up out_conv_x
I0605 13:19:47.076095  7811 net.cpp:157] Top shape: 1 512 30 30 (460800)
I0605 13:19:47.076098  7811 net.cpp:165] Memory required for data: 1509022828
I0605 13:19:47.076103  7811 layer_factory.hpp:77] Creating layer out_x_sum
I0605 13:19:47.076110  7811 net.cpp:106] Creating Layer out_x_sum
I0605 13:19:47.076114  7811 net.cpp:454] out_x_sum <- out_conv_x
I0605 13:19:47.076118  7811 net.cpp:454] out_x_sum <- out_conv_ch_x
I0605 13:19:47.076133  7811 net.cpp:411] out_x_sum -> out_x_sum
I0605 13:19:47.076162  7811 net.cpp:150] Setting up out_x_sum
I0605 13:19:47.076166  7811 net.cpp:157] Top shape: 1 512 30 30 (460800)
I0605 13:19:47.076169  7811 net.cpp:165] Memory required for data: 1510866028
I0605 13:19:47.076181  7811 layer_factory.hpp:77] Creating layer mask_deconv2
I0605 13:19:47.076187  7811 net.cpp:106] Creating Layer mask_deconv2
I0605 13:19:47.076190  7811 net.cpp:454] mask_deconv2 <- out_x_sum
I0605 13:19:47.076195  7811 net.cpp:411] mask_deconv2 -> mask_deconv2
I0605 13:19:47.076967  7811 net.cpp:150] Setting up mask_deconv2
I0605 13:19:47.076973  7811 net.cpp:157] Top shape: 1 256 122 122 (3810304)
I0605 13:19:47.076975  7811 net.cpp:165] Memory required for data: 1526107244
I0605 13:19:47.076979  7811 layer_factory.hpp:77] Creating layer pool5_2_conv5
I0605 13:19:47.076985  7811 net.cpp:106] Creating Layer pool5_2_conv5
I0605 13:19:47.076988  7811 net.cpp:454] pool5_2_conv5 <- mask_deconv2
I0605 13:19:47.076992  7811 net.cpp:411] pool5_2_conv5 -> pool5_2_conv5
I0605 13:19:47.103597  7811 net.cpp:150] Setting up pool5_2_conv5
I0605 13:19:47.103615  7811 net.cpp:157] Top shape: 1 512 122 122 (7620608)
I0605 13:19:47.103617  7811 net.cpp:165] Memory required for data: 1556589676
I0605 13:19:47.103633  7811 layer_factory.hpp:77] Creating layer pool5_2_conv5_relu
I0605 13:19:47.103652  7811 net.cpp:106] Creating Layer pool5_2_conv5_relu
I0605 13:19:47.103657  7811 net.cpp:454] pool5_2_conv5_relu <- pool5_2_conv5
I0605 13:19:47.103662  7811 net.cpp:411] pool5_2_conv5_relu -> pool5_2_conv5_relu
I0605 13:19:47.103814  7811 net.cpp:150] Setting up pool5_2_conv5_relu
I0605 13:19:47.103823  7811 net.cpp:157] Top shape: 1 512 122 122 (7620608)
I0605 13:19:47.103826  7811 net.cpp:165] Memory required for data: 1587072108
I0605 13:19:47.103827  7811 layer_factory.hpp:77] Creating layer pool5_2_conv6
I0605 13:19:47.103835  7811 net.cpp:106] Creating Layer pool5_2_conv6
I0605 13:19:47.103838  7811 net.cpp:454] pool5_2_conv6 <- pool5_2_conv5_relu
I0605 13:19:47.103842  7811 net.cpp:411] pool5_2_conv6 -> pool5_2_conv6
I0605 13:19:47.154103  7811 net.cpp:150] Setting up pool5_2_conv6
I0605 13:19:47.154120  7811 net.cpp:157] Top shape: 1 512 122 122 (7620608)
I0605 13:19:47.154124  7811 net.cpp:165] Memory required for data: 1617554540
I0605 13:19:47.154130  7811 layer_factory.hpp:77] Creating layer pool5_2_conv6_relu
I0605 13:19:47.154139  7811 net.cpp:106] Creating Layer pool5_2_conv6_relu
I0605 13:19:47.154143  7811 net.cpp:454] pool5_2_conv6_relu <- pool5_2_conv6
I0605 13:19:47.154158  7811 net.cpp:411] pool5_2_conv6_relu -> pool5_2_conv6_relu
I0605 13:19:47.154669  7811 net.cpp:150] Setting up pool5_2_conv6_relu
I0605 13:19:47.154676  7811 net.cpp:157] Top shape: 1 512 122 122 (7620608)
I0605 13:19:47.154680  7811 net.cpp:165] Memory required for data: 1648036972
I0605 13:19:47.154681  7811 layer_factory.hpp:77] Creating layer mask_deconv3
I0605 13:19:47.154688  7811 net.cpp:106] Creating Layer mask_deconv3
I0605 13:19:47.154691  7811 net.cpp:454] mask_deconv3 <- pool5_2_conv6_relu
I0605 13:19:47.154696  7811 net.cpp:411] mask_deconv3 -> mask_deconv3
I0605 13:19:47.155069  7811 net.cpp:150] Setting up mask_deconv3
I0605 13:19:47.155074  7811 net.cpp:157] Top shape: 1 256 244 244 (15241216)
I0605 13:19:47.155077  7811 net.cpp:165] Memory required for data: 1709001836
I0605 13:19:47.155081  7811 layer_factory.hpp:77] Creating layer mask_score
I0605 13:19:47.155088  7811 net.cpp:106] Creating Layer mask_score
I0605 13:19:47.155091  7811 net.cpp:454] mask_score <- mask_deconv3
I0605 13:19:47.155094  7811 net.cpp:411] mask_score -> mask_score
I0605 13:19:47.156069  7811 net.cpp:150] Setting up mask_score
I0605 13:19:47.156076  7811 net.cpp:157] Top shape: 1 8 244 244 (476288)
I0605 13:19:47.156078  7811 net.cpp:165] Memory required for data: 1710906988
I0605 13:19:47.156083  7811 layer_factory.hpp:77] Creating layer loss_mask
I0605 13:19:47.156090  7811 net.cpp:106] Creating Layer loss_mask
I0605 13:19:47.156092  7811 net.cpp:454] loss_mask <- mask_score
I0605 13:19:47.156095  7811 net.cpp:454] loss_mask <- mask_targets
I0605 13:19:47.156100  7811 net.cpp:411] loss_mask -> loss_mask
…
