…
average_loss: 100
iter_size: 2
I0625 15:12:46.083432   773 solver.cpp:81] Creating training net from train_net file: models/pascal_voc/VGG16/faster_rcnn_end2end/train.prototxt
I0625 15:12:46.085088   773 net.cpp:49] Initializing net from parameters: 
name: "VGG_ILSVRC_16_layers"
state {
  phase: TRAIN
}
layer {
  name: "input-data"
  type: "Python"
  top: "data"
  top: "im_info"
  top: "gt_boxes"
  top: "seg_mask_inds"
  top: "flipped"
  python_param {
    module: "roi_data_layer.layer"
    layer: "RoIDataLayer"
    param_str: "\'num_classes\': 2"
  }
}
layer {
  name: "conv1_1"
  type: "Convolution"
  bottom: "data"
  top: "conv1_1"
  param {
    lr_mult: 0
    decay_mult: 0
  }
  param {
    lr_mult: 0
    decay_mult: 0
  }
  convolution_param {
    num_output: 64
    pad: 1
    kernel_size: 3
  }
}
layer {
  name: "relu1_1"
  type: "ReLU"
  bottom: "conv1_1"
  top: "conv1_1"
}
layer {
  name: "conv1_2"
  type: "Convolution"
  bottom: "conv1_1"
  top: "conv1_2"
  param {
    lr_mult: 0
    decay_mult: 0
  }
  param {
    lr_mult: 0
    decay_mult: 0
  }
  convolution_param {
    num_output: 64
    pad: 1
    kernel_size: 3
  }
}
layer {
  name: "relu1_2"
  type: "ReLU"
  bottom: "conv1_2"
  top: "conv1_2"
}
layer {
  name: "pool1"
  type: "Pooling"
  bottom: "conv1_2"
  top: "pool1"
  pooling_param {
    pool: MAX
    kernel_size: 2
    stride: 2
  }
}
layer {
  name: "conv2_1"
  type: "Convolution"
  bottom: "pool1"
  top: "conv2_1"
  param {
    lr_mult: 0
    decay_mult: 0
  }
  param {
    lr_mult: 0
    decay_mult: 0
  }
  convolution_param {
    num_output: 128
    pad: 1
    kernel_size: 3
  }
}
layer {
  name: "relu2_1"
  type: "ReLU"
  bottom: "conv2_1"
  top: "conv2_1"
}
layer {
  name: "conv2_2"
  type: "Convolution"
  bottom: "conv2_1"
  top: "conv2_2"
  param {
    lr_mult: 0
    decay_mult: 0
  }
  param {
    lr_mult: 0
    decay_mult: 0
  }
  convolution_param {
    num_output: 128
    pad: 1
    kernel_size: 3
  }
}
layer {
  name: "relu2_2"
  type: "ReLU"
  bottom: "conv2_2"
  top: "conv2_2"
}
layer {
  name: "pool2"
  type: "Pooling"
  bottom: "conv2_2"
  top: "pool2"
  pooling_param {
    pool: MAX
    kernel_size: 2
    stride: 2
  }
}
layer {
  name: "conv3_1"
  type: "Convolution"
  bottom: "pool2"
  top: "conv3_1"
  param {
    lr_mult: 1
  }
  param {
    lr_mult: 2
  }
  convolution_param {
    num_output: 256
    pad: 1
    kernel_size: 3
  }
}
layer {
  name: "relu3_1"
  type: "ReLU"
  bottom: "conv3_1"
  top: "conv3_1"
}
layer {
  name: "conv3_2"
  type: "Convolution"
  bottom: "conv3_1"
  top: "conv3_2"
  param {
    lr_mult: 1
  }
  param {
    lr_mult: 2
  }
  convolution_param {
    num_output: 256
    pad: 1
    kernel_size: 3
  }
}
layer {
  name: "relu3_2"
  type: "ReLU"
  bottom: "conv3_2"
  top: "conv3_2"
}
layer {
  name: "conv3_3"
  type: "Convolution"
  bottom: "conv3_2"
  top: "conv3_3"
  param {
    lr_mult: 1
  }
  param {
    lr_mult: 2
  }
  convolution_param {
    num_output: 256
    pad: 1
    kernel_size: 3
  }
}
layer {
  name: "relu3_3"
  type: "ReLU"
  bottom: "conv3_3"
  top: "conv3_3"
}
layer {
  name: "pool3"
  type: "Pooling"
  bottom: "conv3_3"
  top: "pool3"
  pooling_param {
    pool: MAX
    kernel_size: 2
    stride: 2
  }
}
layer {
  name: "conv4_1"
  type: "Convolution"
  bottom: "pool3"
  top: "conv4_1"
  param {
    lr_mult: 1
  }
  param {
    lr_mult: 2
  }
  convolution_param {
    num_output: 512
    pad: 1
    kernel_size: 3
  }
}
layer {
  name: "relu4_1"
  type: "ReLU"
  bottom: "conv4_1"
  top: "conv4_1"
}
layer {
  name: "conv4_2"
  type: "Convolution"
  bottom: "conv4_1"
  top: "conv4_2"
  param {
    lr_mult: 1
  }
  param {
    lr_mult: 2
  }
  convolution_param {
    num_output: 512
    pad: 1
    kernel_size: 3
  }
}
layer {
  name: "relu4_2"
  type: "ReLU"
  bottom: "conv4_2"
  top: "conv4_2"
}
layer {
  name: "conv4_3"
  type: "Convolution"
  bottom: "conv4_2"
  top: "conv4_3"
  param {
    lr_mult: 1
  }
  param {
    lr_mult: 2
  }
  convolution_param {
    num_output: 512
    pad: 1
    kernel_size: 3
  }
}
layer {
  name: "relu4_3"
  type: "ReLU"
  bottom: "conv4_3"
  top: "conv4_3"
}
layer {
  name: "pool4"
  type: "Pooling"
  bottom: "conv4_3"
  top: "pool4"
  pooling_param {
    pool: MAX
    kernel_size: 2
    stride: 2
  }
}
layer {
  name: "conv5_1"
  type: "Convolution"
  bottom: "pool4"
  top: "conv5_1"
  param {
    lr_mult: 1
  }
  param {
    lr_mult: 2
  }
  convolution_param {
    num_output: 512
    pad: 1
    kernel_size: 3
  }
}
layer {
  name: "relu5_1"
  type: "ReLU"
  bottom: "conv5_1"
  top: "conv5_1"
}
layer {
  name: "conv5_2"
  type: "Convolution"
  bottom: "conv5_1"
  top: "conv5_2"
  param {
    lr_mult: 1
  }
  param {
    lr_mult: 2
  }
  convolution_param {
    num_output: 512
    pad: 1
    kernel_size: 3
  }
}
layer {
  name: "relu5_2"
  type: "ReLU"
  bottom: "conv5_2"
  top: "conv5_2"
}
layer {
  name: "conv5_3"
  type: "Convolution"
  bottom: "conv5_2"
  top: "conv5_3"
  param {
    lr_mult: 1
  }
  param {
    lr_mult: 2
  }
  convolution_param {
    num_output: 512
    pad: 1
    kernel_size: 3
  }
}
layer {
  name: "relu5_3"
  type: "ReLU"
  bottom: "conv5_3"
  top: "conv5_3"
}
layer {
  name: "rpn_conv/3x3"
  type: "Convolution"
  bottom: "conv5_3"
  top: "rpn/output"
  param {
    lr_mult: 1
  }
  param {
    lr_mult: 2
  }
  convolution_param {
    num_output: 512
    pad: 1
    kernel_size: 3
    stride: 1
    weight_filler {
      type: "gaussian"
      std: 0.01
    }
    bias_filler {
      type: "constant"
      value: 0
    }
  }
}
layer {
  name: "rpn_relu/3x3"
  type: "ReLU"
  bottom: "rpn/output"
  top: "rpn/output"
}
layer {
  name: "rpn_cls_score"
  type: "Convolution"
  bottom: "rpn/output"
  top: "rpn_cls_score"
  param {
    lr_mult: 1
  }
  param {
    lr_mult: 2
  }
  convolution_param {
    num_output: 30
    pad: 0
    kernel_size: 1
    stride: 1
    weight_filler {
      type: "gaussian"
      std: 0.01
    }
    bias_filler {
      type: "constant"
      value: 0
    }
  }
}
layer {
  name: "rpn_bbox_pred"
  type: "Convolution"
  bottom: "rpn/output"
  top: "rpn_bbox_pred"
  param {
    lr_mult: 1
  }
  param {
    lr_mult: 2
  }
  convolution_param {
    num_output: 60
    pad: 0
    kernel_size: 1
    stride: 1
    weight_filler {
      type: "gaussian"
      std: 0.01
    }
    bias_filler {
      type: "constant"
      value: 0
    }
  }
}
layer {
  name: "rpn_cls_score_reshape"
  type: "Reshape"
  bottom: "rpn_cls_score"
  top: "rpn_cls_score_reshape"
  reshape_param {
    shape {
      dim: 0
      dim: 2
      dim: -1
      dim: 0
    }
  }
}
layer {
  name: "rpn-data"
  type: "Python"
  bottom: "rpn_cls_score"
  bottom: "gt_boxes"
  bottom: "im_info"
  bottom: "data"
  top: "rpn_labels"
  top: "rpn_bbox_targets"
  top: "rpn_bbox_inside_weights"
  top: "rpn_bbox_outside_weights"
  python_param {
    module: "rpn.anchor_target_layer"
    layer: "AnchorTargetLayer"
    param_str: "\'feat_stride\': 16 \n\'scales\': !!python/tuple [2, 4, 8, 16, 32]"
  }
}
layer {
  name: "rpn_loss_cls"
  type: "SoftmaxWithLoss"
  bottom: "rpn_cls_score_reshape"
  bottom: "rpn_labels"
  top: "rpn_cls_loss"
  loss_weight: 1
  propagate_down: true
  propagate_down: false
  loss_param {
    ignore_label: -1
    normalize: true
  }
}
layer {
  name: "rpn_loss_bbox"
  type: "SmoothL1Loss"
  bottom: "rpn_bbox_pred"
  bottom: "rpn_bbox_targets"
  bottom: "rpn_bbox_inside_weights"
  bottom: "rpn_bbox_outside_weights"
  top: "rpn_loss_bbox"
  loss_weight: 1
  smooth_l1_loss_param {
    sigma: 3
  }
}
layer {
  name: "rpn_cls_prob"
  type: "Softmax"
  bottom: "rpn_cls_score_reshape"
  top: "rpn_cls_prob"
}
layer {
  name: "rpn_cls_prob_reshape"
  type: "Reshape"
  bottom: "rpn_cls_prob"
  top: "rpn_cls_prob_reshape"
  reshape_param {
    shape {
      dim: 0
      dim: 30
      dim: -1
      dim: 0
    }
  }
}
layer {
  name: "proposal"
  type: "Python"
  bottom: "rpn_cls_prob_reshape"
  bottom: "rpn_bbox_pred"
  bottom: "im_info"
  top: "rpn_rois"
  python_param {
    module: "rpn.proposal_layer"
    layer: "ProposalLayer"
    param_str: "\'feat_stride\': 16 \n\'scales\': !!python/tuple [2, 4, 8, 16, 32]"
  }
}
layer {
  name: "roi-data"
  type: "Python"
  bottom: "rpn_rois"
  bottom: "gt_boxes"
  bottom: "im_info"
  bottom: "seg_mask_inds"
  bottom: "flipped"
  top: "rois"
  top: "labels"
  top: "bbox_targets"
  top: "bbox_inside_weights"
  top: "bbox_outside_weights"
  top: "mask_targets"
  top: "rois_pos"
  top: "attrArray"
  top: "attrArrayInd"
  top: "attrArrayShift"
  python_param {
    module: "rpn.proposal_target_layer"
    layer: "ProposalTargetLayer"
    param_str: "\'num_classes\': 2"
  }
}
layer {
  name: "roi_pool5"
  type: "ROIAlignment"
  bottom: "conv5_3"
  bottom: "rois"
  top: "pool5"
  roi_alignment_param {
    pooled_h: 7
    pooled_w: 7
    spatial_scale: 0.0625
  }
}
layer {
  name: "fc6"
  type: "InnerProduct"
  bottom: "pool5"
  top: "fc6"
  param {
    lr_mult: 1
  }
  param {
    lr_mult: 2
  }
  inner_product_param {
    num_output: 4096
  }
}
layer {
  name: "relu6"
  type: "ReLU"
  bottom: "fc6"
  top: "fc6"
}
layer {
  name: "fc7"
  type: "InnerProduct"
  bottom: "fc6"
  top: "fc7"
  param {
    lr_mult: 1
  }
  param {
    lr_mult: 2
  }
  inner_product_param {
    num_output: 4096
  }
}
layer {
  name: "relu7"
  type: "ReLU"
  bottom: "fc7"
  top: "fc7"
}
layer {
  name: "attr_score"
  type: "InnerProduct"
  bottom: "fc7"
  top: "attr_score"
  param {
    lr_mult: 1
  }
  param {
    lr_mult: 2
  }
  inner_product_param {
    num_output: 7
    weight_filler {
      type: "gaussian"
      std: 0.001
    }
    bias_filler {
      type: "constant"
      value: 0
    }
  }
}
layer {
  name: "attr_score_pos"
  type: "Eltwise"
  bottom: "attr_score"
  bottom: "attrArrayInd"
  top: "attr_score_pos"
  eltwise_param {
    operation: PROD
  }
}
layer {
  name: "attr_score_pos_shift"
  type: "Eltwise"
  bottom: "attr_score_pos"
  bottom: "attrArrayShift"
  top: "attr_score_pos_shift"
  eltwise_param {
    operation: SUM
  }
}
layer {
  name: "cls_score"
  type: "InnerProduct"
  bottom: "fc7"
  top: "cls_score"
  param {
    lr_mult: 1
  }
  param {
    lr_mult: 2
  }
  inner_product_param {
    num_output: 2
    weight_filler {
      type: "gaussian"
      std: 0.01
    }
    bias_filler {
      type: "constant"
      value: 0
    }
  }
}
layer {
  name: "bbox_pred"
  type: "InnerProduct"
  bottom: "fc7"
  top: "bbox_pred"
  param {
    lr_mult: 1
  }
  param {
    lr_mult: 2
  }
  inner_product_param {
    num_output: 8
    weight_filler {
      type: "gaussian"
      std: 0.001
    }
    bias_filler {
      type: "constant"
      value: 0
    }
  }
}
layer {
  name: "loss_attribute"
  type: "SigmoidCrossEntropyLoss"
  bottom: "attr_score_pos_shift"
  bottom: "attrArray"
  top: "loss_attribute"
  loss_weight: 1
  propagate_down: true
  propagate_down: false
}
layer {
  name: "loss_cls"
  type: "SoftmaxWithLoss"
  bottom: "cls_score"
  bottom: "labels"
  top: "loss_cls"
  loss_weight: 3
  propagate_down: true
  propagate_down: false
}
layer {
  name: "loss_bbox"
  type: "SmoothL1Loss"
  bottom: "bbox_pred"
  bottom: "bbox_targets"
  bottom: "bbox_inside_weights"
  bottom: "bbox_outside_weights"
  top: "loss_bbox"
  loss_weight: 2
}
layer {
  name: "roi_pool5_2"
  type: "ROIAlignment"
  bottom: "conv5_3"
  bottom: "rois_pos"
  top: "pool5_2"
  roi_alignment_param {
    pooled_h: 7
    pooled_w: 7
    spatial_scale: 0.0625
  }
}
layer {
  name: "pool5_2_conv"
  type: "Convolution"
  bottom: "pool5_2"
  top: "pool5_2_conv"
  param {
    lr_mult: 1
    decay_mult: 1
  }
  param {
    lr_mult: 2
    decay_mult: 0
  }
  convolution_param {
    num_output: 512
    pad: 0
    kernel_size: 1
    weight_filler {
      type: "gaussian"
      std: 0.01
    }
    bias_filler {
      type: "constant"
      value: 0
    }
  }
}
layer {
  name: "pool5_2_conv_relu"
  type: "ReLU"
  bottom: "pool5_2_conv"
  top: "pool5_2_conv_relu"
}
layer {
  name: "pool5_2_conv2"
  type: "Convolution"
  bottom: "pool5_2_conv_relu"
  top: "pool5_2_conv2"
  param {
    lr_mult: 1
    decay_mult: 1
  }
  param {
    lr_mult: 2
    decay_mult: 0
  }
  convolution_param {
    num_output: 512
    pad: 1
    kernel_size: 3
    stride: 1
    weight_filler {
      type: "gaussian"
      std: 0.01
    }
    bias_filler {
      type: "constant"
      value: 0
    }
  }
}
layer {
  name: "pool5_2_conv2_relu"
  type: "ReLU"
  bottom: "pool5_2_conv2"
  top: "pool5_2_conv2_relu"
}
layer {
  name: "mask_deconv1"
  type: "Deconvolution"
  bottom: "pool5_2_conv2_relu"
  top: "mask_deconv1"
  param {
    lr_mult: 1
    decay_mult: 1
  }
  param {
    lr_mult: 2
    decay_mult: 0
  }
  convolution_param {
    num_output: 256
    pad: 1
    kernel_size: 8
    group: 256
    stride: 4
    weight_filler {
      type: "bilinear"
    }
  }
}
layer {
  name: "pool5_2_conv3"
  type: "Convolution"
  bottom: "mask_deconv1"
  top: "pool5_2_conv3"
  param {
    lr_mult: 1
    decay_mult: 1
  }
  param {
    lr_mult: 2
    decay_mult: 0
  }
  convolution_param {
    num_output: 512
    pad: 1
    kernel_size: 3
    stride: 1
    weight_filler {
      type: "gaussian"
      std: 0.01
    }
    bias_filler {
      type: "constant"
      value: 0
    }
  }
}
layer {
  name: "pool5_2_conv3_relu"
  type: "ReLU"
  bottom: "pool5_2_conv3"
  top: "pool5_2_conv3_relu"
}
layer {
  name: "pool5_2_conv4"
  type: "Convolution"
  bottom: "pool5_2_conv3_relu"
  top: "pool5_2_conv4"
  param {
    lr_mult: 1
    decay_mult: 1
  }
  param {
    lr_mult: 2
    decay_mult: 0
  }
  convolution_param {
    num_output: 512
    pad: 1
    kernel_size: 3
    stride: 1
    weight_filler {
      type: "gaussian"
      std: 0.01
    }
    bias_filler {
      type: "constant"
      value: 0
    }
  }
}
layer {
  name: "pool5_2_conv4_relu"
  type: "ReLU"
  bottom: "pool5_2_conv4"
  top: "pool5_2_conv4_relu"
}
layer {
  name: "query_conv"
  type: "Convolution"
  bottom: "pool5_2_conv4_relu"
  top: "query_conv"
  param {
    lr_mult: 1
    decay_mult: 1
  }
  param {
    lr_mult: 2
    decay_mult: 0
  }
  convolution_param {
    num_output: 64
    pad: 0
    kernel_size: 1
    stride: 1
    weight_filler {
      type: "gaussian"
      std: 0.01
    }
    bias_filler {
      type: "constant"
      value: 0
    }
  }
}
layer {
  name: "key_conv"
  type: "Convolution"
  bottom: "pool5_2_conv4_relu"
  top: "key_conv"
  param {
    lr_mult: 1
    decay_mult: 1
  }
  param {
    lr_mult: 2
    decay_mult: 0
  }
  convolution_param {
    num_output: 64
    pad: 0
    kernel_size: 1
    stride: 1
    weight_filler {
      type: "gaussian"
      std: 0.01
    }
    bias_filler {
      type: "constant"
      value: 0
    }
  }
}
layer {
  name: "value_conv"
  type: "Convolution"
  bottom: "pool5_2_conv4_relu"
  top: "value_conv"
  param {
    lr_mult: 1
    decay_mult: 1
  }
  param {
    lr_mult: 2
    decay_mult: 0
  }
  convolution_param {
    num_output: 512
    pad: 0
    kernel_size: 1
    stride: 1
    weight_filler {
      type: "gaussian"
      std: 0.01
    }
    bias_filler {
      type: "constant"
      value: 0
    }
  }
}
layer {
  name: "query_conv_reshape"
  type: "Reshape"
  bottom: "query_conv"
  top: "query_conv_reshape"
  reshape_param {
    shape {
      dim: -1
      dim: 64
      dim: 900
      dim: 1
    }
  }
}
layer {
  name: "key_conv_reshape"
  type: "Reshape"
  bottom: "key_conv"
  top: "key_conv_reshape"
  reshape_param {
    shape {
      dim: -1
      dim: 64
      dim: 900
      dim: 1
    }
  }
}
layer {
  name: "value_conv_reshape"
  type: "Reshape"
  bottom: "value_conv"
  top: "value_conv_reshape"
  reshape_param {
    shape {
      dim: -1
      dim: 512
      dim: 900
      dim: 1
    }
  }
}
layer {
  name: "query_conv_reshape_perm"
  type: "Permute"
  bottom: "query_conv_reshape"
  top: "query_conv_reshape_perm"
  permute_param {
    order: 0
    order: 3
    order: 2
    order: 1
  }
}
layer {
  name: "key_conv_reshape_perm"
  type: "Permute"
  bottom: "key_conv_reshape"
  top: "key_conv_reshape_perm"
  permute_param {
    order: 0
    order: 3
    order: 1
    order: 2
  }
}
layer {
  name: "energy"
  type: "MatrixMultiplication"
  bottom: "query_conv_reshape_perm"
  bottom: "key_conv_reshape_perm"
  top: "energy"
}
layer {
  name: "attention"
  type: "Softmax"
  bottom: "energy"
  top: "attention"
  softmax_param {
    axis: 3
  }
}
layer {
  name: "value_conv_reshape_perm"
  type: "Permute"
  bottom: "value_conv_reshape"
  top: "value_conv_reshape_perm"
  permute_param {
    order: 0
    order: 3
    order: 1
    order: 2
  }
}
layer {
  name: "attention_perm"
  type: "Permute"
  bottom: "attention"
  top: "attention_perm"
  permute_param {
    order: 0
    order: 1
    order: 2
    order: 3
  }
}
layer {
  name: "out"
  type: "MatrixMultiplication"
  bottom: "value_conv_reshape_perm"
  bottom: "attention_perm"
  top: "out"
}
layer {
  name: "out_reshape"
  type: "Reshape"
  bottom: "out"
  top: "out_reshape"
  reshape_param {
    shape {
      dim: -1
      dim: 512
      dim: 30
      dim: 30
    }
  }
}
layer {
  name: "out_reshape_scale"
  type: "Scale"
  bottom: "out_reshape"
  top: "out_reshape_scale"
  param {
    name: "scale_conv1_1"
    lr_mult: 1
  }
  scale_param {
    bias_term: false
  }
}
layer {
  name: "out_x"
  type: "Eltwise"
  bottom: "out_reshape_scale"
  bottom: "pool5_2_conv4_relu"
  top: "out_x"
  eltwise_param {
    operation: SUM
  }
}
layer {
  name: "mask_deconv2"
  type: "Deconvolution"
  bottom: "out_x"
  top: "mask_deconv2"
  param {
    lr_mult: 1
    decay_mult: 1
  }
  param {
    lr_mult: 2
    decay_mult: 0
  }
  convolution_param {
    num_output: 256
    pad: 1
    kernel_size: 8
    group: 256
    stride: 4
    weight_filler {
      type: "bilinear"
    }
  }
}
layer {
  name: "pool5_2_conv5"
  type: "Convolution"
  bottom: "mask_deconv2"
  top: "pool5_2_conv5"
  param {
    lr_mult: 1
    decay_mult: 1
  }
  param {
    lr_mult: 2
    decay_mult: 0
  }
  convolution_param {
    num_output: 512
    pad: 1
    kernel_size: 3
    stride: 1
    weight_filler {
      type: "gaussian"
      std: 0.01
    }
    bias_filler {
      type: "constant"
      value: 0
    }
  }
}
layer {
  name: "pool5_2_conv5_relu"
  type: "ReLU"
  bottom: "pool5_2_conv5"
  top: "pool5_2_conv5_relu"
}
layer {
  name: "pool5_2_conv6"
  type: "Convolution"
  bottom: "pool5_2_conv5_relu"
  top: "pool5_2_conv6"
  param {
    lr_mult: 1
    decay_mult: 1
  }
  param {
    lr_mult: 2
    decay_mult: 0
  }
  convolution_param {
    num_output: 512
    pad: 1
    kernel_size: 3
    stride: 1
    weight_filler {
      type: "gaussian"
      std: 0.01
    }
    bias_filler {
      type: "constant"
      value: 0
    }
  }
}
layer {
  name: "pool5_2_conv6_relu"
  type: "ReLU"
  bottom: "pool5_2_conv6"
  top: "pool5_2_conv6_relu"
}
layer {
  name: "mask_deconv3"
  type: "Deconvolution"
  bottom: "pool5_2_conv6_relu"
  top: "mask_deconv3"
  param {
    lr_mult: 1
    decay_mult: 1
  }
  param {
    lr_mult: 2
    decay_mult: 0
  }
  convolution_param {
    num_output: 256
    pad: 1
    kernel_size: 4
    group: 256
    stride: 2
    weight_filler {
      type: "bilinear"
    }
  }
}
layer {
  name: "mask_score"
  type: "Convolution"
  bottom: "mask_deconv3"
  top: "mask_score"
  param {
    lr_mult: 1
    decay_mult: 1
  }
  param {
    lr_mult: 2
    decay_mult: 0
  }
  convolution_param {
    num_output: 8
    pad: 0
    kernel_size: 1
    weight_filler {
      type: "gaussian"
      std: 0.01
    }
    bias_filler {
      type: "constant"
      value: 0
    }
  }
}
layer {
  name: "prob"
  type: "Softmax"
  bottom: "mask_score"
  top: "mask_score_softmax"
  softmax_param {
    axis: 1
  }
}
layer {
  name: "log"
  type: "Log"
  bottom: "mask_score_softmax"
  top: "log"
}
layer {
  name: "mult1"
  type: "Eltwise"
  bottom: "log"
  bottom: "mask_targets"
  top: "mult1"
  eltwise_param {
    operation: PROD
  }
}
layer {
  name: "cross_entropy"
  type: "Power"
  bottom: "mult1"
  top: "cross_entropy"
  power_param {
    power: 1
    scale: -1
    shift: 0
  }
}
layer {
  name: "ce_sum"
  type: "Convolution"
  bottom: "cross_entropy"
  top: "cross_entropy_sum"
  param {
    lr_mult: 0
    decay_mult: 0
  }
  convolution_param {
    num_output: 1
    bias_term: false
    kernel_size: 1
    weight_filler {
      type: "constant"
      value: 1
    }
  }
}
layer {
  name: "ce_mean"
  type: "Reduction"
  bottom: "cross_entropy_sum"
  top: "cross_entropy_mean"
  loss_weight: 1
  reduction_param {
    operation: MEAN
    axis: 0
  }
}
I0625 15:12:46.085402   773 layer_factory.hpp:77] Creating layer input-data
I0625 15:12:46.213768   773 net.cpp:106] Creating Layer input-data
I0625 15:12:46.213786   773 net.cpp:411] input-data -> data
I0625 15:12:46.213796   773 net.cpp:411] input-data -> im_info
I0625 15:12:46.213801   773 net.cpp:411] input-data -> gt_boxes
I0625 15:12:46.213805   773 net.cpp:411] input-data -> seg_mask_inds
I0625 15:12:46.213809   773 net.cpp:411] input-data -> flipped
RoiDataLayer: name_to_top: {'gt_boxes': 2, 'data': 0, 'seg_mask_inds': 3, 'im_info': 1, 'flipped': 4}
I0625 15:12:46.260974   773 net.cpp:150] Setting up input-data
I0625 15:12:46.260989   773 net.cpp:157] Top shape: 1 3 600 1000 (1800000)
I0625 15:12:46.260993   773 net.cpp:157] Top shape: 1 3 (3)
I0625 15:12:46.260994   773 net.cpp:157] Top shape: 1 4 (4)
I0625 15:12:46.260998   773 net.cpp:157] Top shape: 1 2 (2)
I0625 15:12:46.260999   773 net.cpp:157] Top shape: 1 1 (1)
I0625 15:12:46.261001   773 net.cpp:165] Memory required for data: 7200040
I0625 15:12:46.261006   773 layer_factory.hpp:77] Creating layer data_input-data_0_split
I0625 15:12:46.261576   773 net.cpp:106] Creating Layer data_input-data_0_split
I0625 15:12:46.261581   773 net.cpp:454] data_input-data_0_split <- data
I0625 15:12:46.261585   773 net.cpp:411] data_input-data_0_split -> data_input-data_0_split_0
I0625 15:12:46.261591   773 net.cpp:411] data_input-data_0_split -> data_input-data_0_split_1
I0625 15:12:46.261611   773 net.cpp:150] Setting up data_input-data_0_split
I0625 15:12:46.261616   773 net.cpp:157] Top shape: 1 3 600 1000 (1800000)
I0625 15:12:46.261618   773 net.cpp:157] Top shape: 1 3 600 1000 (1800000)
I0625 15:12:46.261620   773 net.cpp:165] Memory required for data: 21600040
I0625 15:12:46.261622   773 layer_factory.hpp:77] Creating layer im_info_input-data_1_split
I0625 15:12:46.261626   773 net.cpp:106] Creating Layer im_info_input-data_1_split
I0625 15:12:46.261627   773 net.cpp:454] im_info_input-data_1_split <- im_info
I0625 15:12:46.261631   773 net.cpp:411] im_info_input-data_1_split -> im_info_input-data_1_split_0
I0625 15:12:46.261633   773 net.cpp:411] im_info_input-data_1_split -> im_info_input-data_1_split_1
I0625 15:12:46.261637   773 net.cpp:411] im_info_input-data_1_split -> im_info_input-data_1_split_2
I0625 15:12:46.261658   773 net.cpp:150] Setting up im_info_input-data_1_split
I0625 15:12:46.261662   773 net.cpp:157] Top shape: 1 3 (3)
I0625 15:12:46.261664   773 net.cpp:157] Top shape: 1 3 (3)
I0625 15:12:46.261667   773 net.cpp:157] Top shape: 1 3 (3)
I0625 15:12:46.261668   773 net.cpp:165] Memory required for data: 21600076
I0625 15:12:46.261669   773 layer_factory.hpp:77] Creating layer gt_boxes_input-data_2_split
I0625 15:12:46.261672   773 net.cpp:106] Creating Layer gt_boxes_input-data_2_split
I0625 15:12:46.261674   773 net.cpp:454] gt_boxes_input-data_2_split <- gt_boxes
I0625 15:12:46.261677   773 net.cpp:411] gt_boxes_input-data_2_split -> gt_boxes_input-data_2_split_0
I0625 15:12:46.261679   773 net.cpp:411] gt_boxes_input-data_2_split -> gt_boxes_input-data_2_split_1
I0625 15:12:46.261694   773 net.cpp:150] Setting up gt_boxes_input-data_2_split
I0625 15:12:46.261698   773 net.cpp:157] Top shape: 1 4 (4)
I0625 15:12:46.261699   773 net.cpp:157] Top shape: 1 4 (4)
I0625 15:12:46.261701   773 net.cpp:165] Memory required for data: 21600108
I0625 15:12:46.261703   773 layer_factory.hpp:77] Creating layer conv1_1
I0625 15:12:46.261711   773 net.cpp:106] Creating Layer conv1_1
I0625 15:12:46.261714   773 net.cpp:454] conv1_1 <- data_input-data_0_split_0
I0625 15:12:46.261718   773 net.cpp:411] conv1_1 -> conv1_1
I0625 15:12:46.723809   773 net.cpp:150] Setting up conv1_1
I0625 15:12:46.723832   773 net.cpp:157] Top shape: 1 64 600 1000 (38400000)
I0625 15:12:46.723835   773 net.cpp:165] Memory required for data: 175200108
I0625 15:12:46.723860   773 layer_factory.hpp:77] Creating layer relu1_1
I0625 15:12:46.723870   773 net.cpp:106] Creating Layer relu1_1
I0625 15:12:46.723884   773 net.cpp:454] relu1_1 <- conv1_1
I0625 15:12:46.723899   773 net.cpp:397] relu1_1 -> conv1_1 (in-place)
I0625 15:12:46.724047   773 net.cpp:150] Setting up relu1_1
I0625 15:12:46.724053   773 net.cpp:157] Top shape: 1 64 600 1000 (38400000)
I0625 15:12:46.724056   773 net.cpp:165] Memory required for data: 328800108
I0625 15:12:46.724059   773 layer_factory.hpp:77] Creating layer conv1_2
I0625 15:12:46.724079   773 net.cpp:106] Creating Layer conv1_2
I0625 15:12:46.724082   773 net.cpp:454] conv1_2 <- conv1_1
I0625 15:12:46.724087   773 net.cpp:411] conv1_2 -> conv1_2
I0625 15:12:46.726717   773 net.cpp:150] Setting up conv1_2
I0625 15:12:46.726730   773 net.cpp:157] Top shape: 1 64 600 1000 (38400000)
I0625 15:12:46.726733   773 net.cpp:165] Memory required for data: 482400108
I0625 15:12:46.726752   773 layer_factory.hpp:77] Creating layer relu1_2
I0625 15:12:46.726768   773 net.cpp:106] Creating Layer relu1_2
I0625 15:12:46.726773   773 net.cpp:454] relu1_2 <- conv1_2
I0625 15:12:46.726778   773 net.cpp:397] relu1_2 -> conv1_2 (in-place)
I0625 15:12:46.726943   773 net.cpp:150] Setting up relu1_2
I0625 15:12:46.726950   773 net.cpp:157] Top shape: 1 64 600 1000 (38400000)
I0625 15:12:46.726953   773 net.cpp:165] Memory required for data: 636000108
I0625 15:12:46.726965   773 layer_factory.hpp:77] Creating layer pool1
I0625 15:12:46.726974   773 net.cpp:106] Creating Layer pool1
I0625 15:12:46.726986   773 net.cpp:454] pool1 <- conv1_2
I0625 15:12:46.726991   773 net.cpp:411] pool1 -> pool1
I0625 15:12:46.727635   773 net.cpp:150] Setting up pool1
I0625 15:12:46.727643   773 net.cpp:157] Top shape: 1 64 300 500 (9600000)
I0625 15:12:46.727646   773 net.cpp:165] Memory required for data: 674400108
I0625 15:12:46.727649   773 layer_factory.hpp:77] Creating layer conv2_1
I0625 15:12:46.727668   773 net.cpp:106] Creating Layer conv2_1
I0625 15:12:46.727671   773 net.cpp:454] conv2_1 <- pool1
I0625 15:12:46.727676   773 net.cpp:411] conv2_1 -> conv2_1
I0625 15:12:46.729792   773 net.cpp:150] Setting up conv2_1
I0625 15:12:46.729802   773 net.cpp:157] Top shape: 1 128 300 500 (19200000)
I0625 15:12:46.729821   773 net.cpp:165] Memory required for data: 751200108
I0625 15:12:46.729830   773 layer_factory.hpp:77] Creating layer relu2_1
I0625 15:12:46.729835   773 net.cpp:106] Creating Layer relu2_1
I0625 15:12:46.729849   773 net.cpp:454] relu2_1 <- conv2_1
I0625 15:12:46.729854   773 net.cpp:397] relu2_1 -> conv2_1 (in-place)
I0625 15:12:46.730438   773 net.cpp:150] Setting up relu2_1
I0625 15:12:46.730470   773 net.cpp:157] Top shape: 1 128 300 500 (19200000)
I0625 15:12:46.730482   773 net.cpp:165] Memory required for data: 828000108
I0625 15:12:46.730494   773 layer_factory.hpp:77] Creating layer conv2_2
I0625 15:12:46.730511   773 net.cpp:106] Creating Layer conv2_2
I0625 15:12:46.730523   773 net.cpp:454] conv2_2 <- conv2_1
I0625 15:12:46.730538   773 net.cpp:411] conv2_2 -> conv2_2
I0625 15:12:46.733651   773 net.cpp:150] Setting up conv2_2
I0625 15:12:46.733716   773 net.cpp:157] Top shape: 1 128 300 500 (19200000)
I0625 15:12:46.733728   773 net.cpp:165] Memory required for data: 904800108
I0625 15:12:46.733752   773 layer_factory.hpp:77] Creating layer relu2_2
I0625 15:12:46.733773   773 net.cpp:106] Creating Layer relu2_2
I0625 15:12:46.733788   773 net.cpp:454] relu2_2 <- conv2_2
I0625 15:12:46.733803   773 net.cpp:397] relu2_2 -> conv2_2 (in-place)
I0625 15:12:46.734038   773 net.cpp:150] Setting up relu2_2
I0625 15:12:46.734061   773 net.cpp:157] Top shape: 1 128 300 500 (19200000)
I0625 15:12:46.734072   773 net.cpp:165] Memory required for data: 981600108
I0625 15:12:46.734082   773 layer_factory.hpp:77] Creating layer pool2
I0625 15:12:46.734099   773 net.cpp:106] Creating Layer pool2
I0625 15:12:46.734112   773 net.cpp:454] pool2 <- conv2_2
I0625 15:12:46.734124   773 net.cpp:411] pool2 -> pool2
I0625 15:12:46.734195   773 net.cpp:150] Setting up pool2
I0625 15:12:46.734215   773 net.cpp:157] Top shape: 1 128 150 250 (4800000)
I0625 15:12:46.734231   773 net.cpp:165] Memory required for data: 1000800108
I0625 15:12:46.734242   773 layer_factory.hpp:77] Creating layer conv3_1
I0625 15:12:46.734280   773 net.cpp:106] Creating Layer conv3_1
I0625 15:12:46.734295   773 net.cpp:454] conv3_1 <- pool2
I0625 15:12:46.734308   773 net.cpp:411] conv3_1 -> conv3_1
I0625 15:12:46.738057   773 net.cpp:150] Setting up conv3_1
I0625 15:12:46.738121   773 net.cpp:157] Top shape: 1 256 150 250 (9600000)
I0625 15:12:46.738133   773 net.cpp:165] Memory required for data: 1039200108
I0625 15:12:46.738159   773 layer_factory.hpp:77] Creating layer relu3_1
I0625 15:12:46.738180   773 net.cpp:106] Creating Layer relu3_1
I0625 15:12:46.738194   773 net.cpp:454] relu3_1 <- conv3_1
I0625 15:12:46.738207   773 net.cpp:397] relu3_1 -> conv3_1 (in-place)
I0625 15:12:46.738430   773 net.cpp:150] Setting up relu3_1
I0625 15:12:46.738453   773 net.cpp:157] Top shape: 1 256 150 250 (9600000)
I0625 15:12:46.738466   773 net.cpp:165] Memory required for data: 1077600108
I0625 15:12:46.738478   773 layer_factory.hpp:77] Creating layer conv3_2
I0625 15:12:46.738499   773 net.cpp:106] Creating Layer conv3_2
I0625 15:12:46.738512   773 net.cpp:454] conv3_2 <- conv3_1
I0625 15:12:46.738531   773 net.cpp:411] conv3_2 -> conv3_2
I0625 15:12:46.742121   773 net.cpp:150] Setting up conv3_2
I0625 15:12:46.742192   773 net.cpp:157] Top shape: 1 256 150 250 (9600000)
I0625 15:12:46.742215   773 net.cpp:165] Memory required for data: 1116000108
I0625 15:12:46.742244   773 layer_factory.hpp:77] Creating layer relu3_2
I0625 15:12:46.742280   773 net.cpp:106] Creating Layer relu3_2
I0625 15:12:46.742302   773 net.cpp:454] relu3_2 <- conv3_2
I0625 15:12:46.742321   773 net.cpp:397] relu3_2 -> conv3_2 (in-place)
I0625 15:12:46.742522   773 net.cpp:150] Setting up relu3_2
I0625 15:12:46.742550   773 net.cpp:157] Top shape: 1 256 150 250 (9600000)
I0625 15:12:46.742564   773 net.cpp:165] Memory required for data: 1154400108
I0625 15:12:46.742579   773 layer_factory.hpp:77] Creating layer conv3_3
I0625 15:12:46.742599   773 net.cpp:106] Creating Layer conv3_3
I0625 15:12:46.742611   773 net.cpp:454] conv3_3 <- conv3_2
I0625 15:12:46.742626   773 net.cpp:411] conv3_3 -> conv3_3
I0625 15:12:46.745364   773 net.cpp:150] Setting up conv3_3
I0625 15:12:46.745388   773 net.cpp:157] Top shape: 1 256 150 250 (9600000)
I0625 15:12:46.745393   773 net.cpp:165] Memory required for data: 1192800108
I0625 15:12:46.745405   773 layer_factory.hpp:77] Creating layer relu3_3
I0625 15:12:46.745417   773 net.cpp:106] Creating Layer relu3_3
I0625 15:12:46.745450   773 net.cpp:454] relu3_3 <- conv3_3
I0625 15:12:46.745473   773 net.cpp:397] relu3_3 -> conv3_3 (in-place)
I0625 15:12:46.745664   773 net.cpp:150] Setting up relu3_3
I0625 15:12:46.745689   773 net.cpp:157] Top shape: 1 256 150 250 (9600000)
I0625 15:12:46.745702   773 net.cpp:165] Memory required for data: 1231200108
I0625 15:12:46.745714   773 layer_factory.hpp:77] Creating layer pool3
I0625 15:12:46.745731   773 net.cpp:106] Creating Layer pool3
I0625 15:12:46.745743   773 net.cpp:454] pool3 <- conv3_3
I0625 15:12:46.745757   773 net.cpp:411] pool3 -> pool3
I0625 15:12:46.745826   773 net.cpp:150] Setting up pool3
I0625 15:12:46.745834   773 net.cpp:157] Top shape: 1 256 75 125 (2400000)
I0625 15:12:46.745837   773 net.cpp:165] Memory required for data: 1240800108
I0625 15:12:46.745841   773 layer_factory.hpp:77] Creating layer conv4_1
I0625 15:12:46.745862   773 net.cpp:106] Creating Layer conv4_1
I0625 15:12:46.745867   773 net.cpp:454] conv4_1 <- pool3
I0625 15:12:46.745872   773 net.cpp:411] conv4_1 -> conv4_1
I0625 15:12:46.753520   773 net.cpp:150] Setting up conv4_1
I0625 15:12:46.753546   773 net.cpp:157] Top shape: 1 512 75 125 (4800000)
I0625 15:12:46.753552   773 net.cpp:165] Memory required for data: 1260000108
I0625 15:12:46.753566   773 layer_factory.hpp:77] Creating layer relu4_1
I0625 15:12:46.753578   773 net.cpp:106] Creating Layer relu4_1
I0625 15:12:46.753587   773 net.cpp:454] relu4_1 <- conv4_1
I0625 15:12:46.753593   773 net.cpp:397] relu4_1 -> conv4_1 (in-place)
I0625 15:12:46.753805   773 net.cpp:150] Setting up relu4_1
I0625 15:12:46.753815   773 net.cpp:157] Top shape: 1 512 75 125 (4800000)
I0625 15:12:46.753818   773 net.cpp:165] Memory required for data: 1279200108
I0625 15:12:46.753820   773 layer_factory.hpp:77] Creating layer conv4_2
I0625 15:12:46.753830   773 net.cpp:106] Creating Layer conv4_2
I0625 15:12:46.753834   773 net.cpp:454] conv4_2 <- conv4_1
I0625 15:12:46.753840   773 net.cpp:411] conv4_2 -> conv4_2
I0625 15:12:46.760999   773 net.cpp:150] Setting up conv4_2
I0625 15:12:46.761019   773 net.cpp:157] Top shape: 1 512 75 125 (4800000)
I0625 15:12:46.761023   773 net.cpp:165] Memory required for data: 1298400108
I0625 15:12:46.761040   773 layer_factory.hpp:77] Creating layer relu4_2
I0625 15:12:46.761063   773 net.cpp:106] Creating Layer relu4_2
I0625 15:12:46.761076   773 net.cpp:454] relu4_2 <- conv4_2
I0625 15:12:46.761090   773 net.cpp:397] relu4_2 -> conv4_2 (in-place)
I0625 15:12:46.761612   773 net.cpp:150] Setting up relu4_2
I0625 15:12:46.761620   773 net.cpp:157] Top shape: 1 512 75 125 (4800000)
I0625 15:12:46.761631   773 net.cpp:165] Memory required for data: 1317600108
I0625 15:12:46.761633   773 layer_factory.hpp:77] Creating layer conv4_3
I0625 15:12:46.761643   773 net.cpp:106] Creating Layer conv4_3
I0625 15:12:46.761647   773 net.cpp:454] conv4_3 <- conv4_2
I0625 15:12:46.761652   773 net.cpp:411] conv4_3 -> conv4_3
I0625 15:12:46.766507   773 net.cpp:150] Setting up conv4_3
I0625 15:12:46.766536   773 net.cpp:157] Top shape: 1 512 75 125 (4800000)
I0625 15:12:46.766538   773 net.cpp:165] Memory required for data: 1336800108
I0625 15:12:46.766547   773 layer_factory.hpp:77] Creating layer relu4_3
I0625 15:12:46.766556   773 net.cpp:106] Creating Layer relu4_3
I0625 15:12:46.766563   773 net.cpp:454] relu4_3 <- conv4_3
I0625 15:12:46.766569   773 net.cpp:397] relu4_3 -> conv4_3 (in-place)
I0625 15:12:46.766688   773 net.cpp:150] Setting up relu4_3
I0625 15:12:46.766695   773 net.cpp:157] Top shape: 1 512 75 125 (4800000)
I0625 15:12:46.766698   773 net.cpp:165] Memory required for data: 1356000108
I0625 15:12:46.766701   773 layer_factory.hpp:77] Creating layer pool4
I0625 15:12:46.766710   773 net.cpp:106] Creating Layer pool4
I0625 15:12:46.766714   773 net.cpp:454] pool4 <- conv4_3
I0625 15:12:46.766719   773 net.cpp:411] pool4 -> pool4
I0625 15:12:46.766754   773 net.cpp:150] Setting up pool4
I0625 15:12:46.766759   773 net.cpp:157] Top shape: 1 512 38 63 (1225728)
I0625 15:12:46.766762   773 net.cpp:165] Memory required for data: 1360903020
I0625 15:12:46.766765   773 layer_factory.hpp:77] Creating layer conv5_1
I0625 15:12:46.766784   773 net.cpp:106] Creating Layer conv5_1
I0625 15:12:46.766788   773 net.cpp:454] conv5_1 <- pool4
I0625 15:12:46.766793   773 net.cpp:411] conv5_1 -> conv5_1
I0625 15:12:46.771486   773 net.cpp:150] Setting up conv5_1
I0625 15:12:46.771507   773 net.cpp:157] Top shape: 1 512 38 63 (1225728)
I0625 15:12:46.771509   773 net.cpp:165] Memory required for data: 1365805932
I0625 15:12:46.771518   773 layer_factory.hpp:77] Creating layer relu5_1
I0625 15:12:46.771528   773 net.cpp:106] Creating Layer relu5_1
I0625 15:12:46.771533   773 net.cpp:454] relu5_1 <- conv5_1
I0625 15:12:46.771550   773 net.cpp:397] relu5_1 -> conv5_1 (in-place)
I0625 15:12:46.771679   773 net.cpp:150] Setting up relu5_1
I0625 15:12:46.771685   773 net.cpp:157] Top shape: 1 512 38 63 (1225728)
I0625 15:12:46.771687   773 net.cpp:165] Memory required for data: 1370708844
I0625 15:12:46.771688   773 layer_factory.hpp:77] Creating layer conv5_2
I0625 15:12:46.771697   773 net.cpp:106] Creating Layer conv5_2
I0625 15:12:46.771700   773 net.cpp:454] conv5_2 <- conv5_1
I0625 15:12:46.771706   773 net.cpp:411] conv5_2 -> conv5_2
I0625 15:12:46.776237   773 net.cpp:150] Setting up conv5_2
I0625 15:12:46.776257   773 net.cpp:157] Top shape: 1 512 38 63 (1225728)
I0625 15:12:46.776259   773 net.cpp:165] Memory required for data: 1375611756
I0625 15:12:46.776266   773 layer_factory.hpp:77] Creating layer relu5_2
I0625 15:12:46.776276   773 net.cpp:106] Creating Layer relu5_2
I0625 15:12:46.776281   773 net.cpp:454] relu5_2 <- conv5_2
I0625 15:12:46.776288   773 net.cpp:397] relu5_2 -> conv5_2 (in-place)
I0625 15:12:46.776407   773 net.cpp:150] Setting up relu5_2
I0625 15:12:46.776414   773 net.cpp:157] Top shape: 1 512 38 63 (1225728)
I0625 15:12:46.776417   773 net.cpp:165] Memory required for data: 1380514668
I0625 15:12:46.776418   773 layer_factory.hpp:77] Creating layer conv5_3
I0625 15:12:46.776428   773 net.cpp:106] Creating Layer conv5_3
I0625 15:12:46.776430   773 net.cpp:454] conv5_3 <- conv5_2
I0625 15:12:46.776437   773 net.cpp:411] conv5_3 -> conv5_3
I0625 15:12:46.781206   773 net.cpp:150] Setting up conv5_3
I0625 15:12:46.781237   773 net.cpp:157] Top shape: 1 512 38 63 (1225728)
I0625 15:12:46.781240   773 net.cpp:165] Memory required for data: 1385417580
I0625 15:12:46.781249   773 layer_factory.hpp:77] Creating layer relu5_3
I0625 15:12:46.781261   773 net.cpp:106] Creating Layer relu5_3
I0625 15:12:46.781267   773 net.cpp:454] relu5_3 <- conv5_3
I0625 15:12:46.781275   773 net.cpp:397] relu5_3 -> conv5_3 (in-place)
I0625 15:12:46.781415   773 net.cpp:150] Setting up relu5_3
I0625 15:12:46.781433   773 net.cpp:157] Top shape: 1 512 38 63 (1225728)
I0625 15:12:46.781435   773 net.cpp:165] Memory required for data: 1390320492
I0625 15:12:46.781438   773 layer_factory.hpp:77] Creating layer conv5_3_relu5_3_0_split
I0625 15:12:46.781443   773 net.cpp:106] Creating Layer conv5_3_relu5_3_0_split
I0625 15:12:46.781447   773 net.cpp:454] conv5_3_relu5_3_0_split <- conv5_3
I0625 15:12:46.781452   773 net.cpp:411] conv5_3_relu5_3_0_split -> conv5_3_relu5_3_0_split_0
I0625 15:12:46.781469   773 net.cpp:411] conv5_3_relu5_3_0_split -> conv5_3_relu5_3_0_split_1
I0625 15:12:46.781474   773 net.cpp:411] conv5_3_relu5_3_0_split -> conv5_3_relu5_3_0_split_2
I0625 15:12:46.781527   773 net.cpp:150] Setting up conv5_3_relu5_3_0_split
I0625 15:12:46.781531   773 net.cpp:157] Top shape: 1 512 38 63 (1225728)
I0625 15:12:46.781543   773 net.cpp:157] Top shape: 1 512 38 63 (1225728)
I0625 15:12:46.781545   773 net.cpp:157] Top shape: 1 512 38 63 (1225728)
I0625 15:12:46.781546   773 net.cpp:165] Memory required for data: 1405029228
I0625 15:12:46.781549   773 layer_factory.hpp:77] Creating layer rpn_conv/3x3
I0625 15:12:46.781560   773 net.cpp:106] Creating Layer rpn_conv/3x3
I0625 15:12:46.781564   773 net.cpp:454] rpn_conv/3x3 <- conv5_3_relu5_3_0_split_0
I0625 15:12:46.781570   773 net.cpp:411] rpn_conv/3x3 -> rpn/output
I0625 15:12:46.833099   773 net.cpp:150] Setting up rpn_conv/3x3
I0625 15:12:46.833127   773 net.cpp:157] Top shape: 1 512 38 63 (1225728)
I0625 15:12:46.833129   773 net.cpp:165] Memory required for data: 1409932140
I0625 15:12:46.833146   773 layer_factory.hpp:77] Creating layer rpn_relu/3x3
I0625 15:12:46.833156   773 net.cpp:106] Creating Layer rpn_relu/3x3
I0625 15:12:46.833160   773 net.cpp:454] rpn_relu/3x3 <- rpn/output
I0625 15:12:46.833168   773 net.cpp:397] rpn_relu/3x3 -> rpn/output (in-place)
I0625 15:12:46.833304   773 net.cpp:150] Setting up rpn_relu/3x3
I0625 15:12:46.833310   773 net.cpp:157] Top shape: 1 512 38 63 (1225728)
I0625 15:12:46.833323   773 net.cpp:165] Memory required for data: 1414835052
I0625 15:12:46.833324   773 layer_factory.hpp:77] Creating layer rpn/output_rpn_relu/3x3_0_split
I0625 15:12:46.833328   773 net.cpp:106] Creating Layer rpn/output_rpn_relu/3x3_0_split
I0625 15:12:46.833331   773 net.cpp:454] rpn/output_rpn_relu/3x3_0_split <- rpn/output
I0625 15:12:46.833335   773 net.cpp:411] rpn/output_rpn_relu/3x3_0_split -> rpn/output_rpn_relu/3x3_0_split_0
I0625 15:12:46.833343   773 net.cpp:411] rpn/output_rpn_relu/3x3_0_split -> rpn/output_rpn_relu/3x3_0_split_1
I0625 15:12:46.833374   773 net.cpp:150] Setting up rpn/output_rpn_relu/3x3_0_split
I0625 15:12:46.833377   773 net.cpp:157] Top shape: 1 512 38 63 (1225728)
I0625 15:12:46.833379   773 net.cpp:157] Top shape: 1 512 38 63 (1225728)
I0625 15:12:46.833381   773 net.cpp:165] Memory required for data: 1424640876
I0625 15:12:46.833384   773 layer_factory.hpp:77] Creating layer rpn_cls_score
I0625 15:12:46.833402   773 net.cpp:106] Creating Layer rpn_cls_score
I0625 15:12:46.833405   773 net.cpp:454] rpn_cls_score <- rpn/output_rpn_relu/3x3_0_split_0
I0625 15:12:46.833410   773 net.cpp:411] rpn_cls_score -> rpn_cls_score
I0625 15:12:46.834996   773 net.cpp:150] Setting up rpn_cls_score
I0625 15:12:46.835005   773 net.cpp:157] Top shape: 1 30 38 63 (71820)
I0625 15:12:46.835006   773 net.cpp:165] Memory required for data: 1424928156
I0625 15:12:46.835011   773 layer_factory.hpp:77] Creating layer rpn_cls_score_rpn_cls_score_0_split
I0625 15:12:46.835016   773 net.cpp:106] Creating Layer rpn_cls_score_rpn_cls_score_0_split
I0625 15:12:46.835017   773 net.cpp:454] rpn_cls_score_rpn_cls_score_0_split <- rpn_cls_score
I0625 15:12:46.835021   773 net.cpp:411] rpn_cls_score_rpn_cls_score_0_split -> rpn_cls_score_rpn_cls_score_0_split_0
I0625 15:12:46.835036   773 net.cpp:411] rpn_cls_score_rpn_cls_score_0_split -> rpn_cls_score_rpn_cls_score_0_split_1
I0625 15:12:46.835072   773 net.cpp:150] Setting up rpn_cls_score_rpn_cls_score_0_split
I0625 15:12:46.835074   773 net.cpp:157] Top shape: 1 30 38 63 (71820)
I0625 15:12:46.835078   773 net.cpp:157] Top shape: 1 30 38 63 (71820)
I0625 15:12:46.835078   773 net.cpp:165] Memory required for data: 1425502716
I0625 15:12:46.835080   773 layer_factory.hpp:77] Creating layer rpn_bbox_pred
I0625 15:12:46.835098   773 net.cpp:106] Creating Layer rpn_bbox_pred
I0625 15:12:46.835099   773 net.cpp:454] rpn_bbox_pred <- rpn/output_rpn_relu/3x3_0_split_1
I0625 15:12:46.835103   773 net.cpp:411] rpn_bbox_pred -> rpn_bbox_pred
I0625 15:12:46.836593   773 net.cpp:150] Setting up rpn_bbox_pred
I0625 15:12:46.836601   773 net.cpp:157] Top shape: 1 60 38 63 (143640)
I0625 15:12:46.836613   773 net.cpp:165] Memory required for data: 1426077276
I0625 15:12:46.836617   773 layer_factory.hpp:77] Creating layer rpn_bbox_pred_rpn_bbox_pred_0_split
I0625 15:12:46.836622   773 net.cpp:106] Creating Layer rpn_bbox_pred_rpn_bbox_pred_0_split
I0625 15:12:46.836634   773 net.cpp:454] rpn_bbox_pred_rpn_bbox_pred_0_split <- rpn_bbox_pred
I0625 15:12:46.836638   773 net.cpp:411] rpn_bbox_pred_rpn_bbox_pred_0_split -> rpn_bbox_pred_rpn_bbox_pred_0_split_0
I0625 15:12:46.836647   773 net.cpp:411] rpn_bbox_pred_rpn_bbox_pred_0_split -> rpn_bbox_pred_rpn_bbox_pred_0_split_1
I0625 15:12:46.836685   773 net.cpp:150] Setting up rpn_bbox_pred_rpn_bbox_pred_0_split
I0625 15:12:46.836699   773 net.cpp:157] Top shape: 1 60 38 63 (143640)
I0625 15:12:46.836700   773 net.cpp:157] Top shape: 1 60 38 63 (143640)
I0625 15:12:46.836702   773 net.cpp:165] Memory required for data: 1427226396
I0625 15:12:46.836704   773 layer_factory.hpp:77] Creating layer rpn_cls_score_reshape
I0625 15:12:46.836719   773 net.cpp:106] Creating Layer rpn_cls_score_reshape
I0625 15:12:46.836721   773 net.cpp:454] rpn_cls_score_reshape <- rpn_cls_score_rpn_cls_score_0_split_0
I0625 15:12:46.836725   773 net.cpp:411] rpn_cls_score_reshape -> rpn_cls_score_reshape
I0625 15:12:46.836745   773 net.cpp:150] Setting up rpn_cls_score_reshape
I0625 15:12:46.836748   773 net.cpp:157] Top shape: 1 2 570 63 (71820)
I0625 15:12:46.836750   773 net.cpp:165] Memory required for data: 1427513676
I0625 15:12:46.836752   773 layer_factory.hpp:77] Creating layer rpn_cls_score_reshape_rpn_cls_score_reshape_0_split
I0625 15:12:46.836756   773 net.cpp:106] Creating Layer rpn_cls_score_reshape_rpn_cls_score_reshape_0_split
I0625 15:12:46.836761   773 net.cpp:454] rpn_cls_score_reshape_rpn_cls_score_reshape_0_split <- rpn_cls_score_reshape
I0625 15:12:46.836766   773 net.cpp:411] rpn_cls_score_reshape_rpn_cls_score_reshape_0_split -> rpn_cls_score_reshape_rpn_cls_score_reshape_0_split_0
I0625 15:12:46.836771   773 net.cpp:411] rpn_cls_score_reshape_rpn_cls_score_reshape_0_split -> rpn_cls_score_reshape_rpn_cls_score_reshape_0_split_1
I0625 15:12:46.836794   773 net.cpp:150] Setting up rpn_cls_score_reshape_rpn_cls_score_reshape_0_split
I0625 15:12:46.836799   773 net.cpp:157] Top shape: 1 2 570 63 (71820)
I0625 15:12:46.836803   773 net.cpp:157] Top shape: 1 2 570 63 (71820)
I0625 15:12:46.836805   773 net.cpp:165] Memory required for data: 1428088236
I0625 15:12:46.836807   773 layer_factory.hpp:77] Creating layer rpn-data
I0625 15:12:46.837795   773 net.cpp:106] Creating Layer rpn-data
I0625 15:12:46.837801   773 net.cpp:454] rpn-data <- rpn_cls_score_rpn_cls_score_0_split_1
I0625 15:12:46.837815   773 net.cpp:454] rpn-data <- gt_boxes_input-data_2_split_0
I0625 15:12:46.837819   773 net.cpp:454] rpn-data <- im_info_input-data_1_split_0
I0625 15:12:46.837822   773 net.cpp:454] rpn-data <- data_input-data_0_split_1
I0625 15:12:46.837826   773 net.cpp:411] rpn-data -> rpn_labels
I0625 15:12:46.837832   773 net.cpp:411] rpn-data -> rpn_bbox_targets
I0625 15:12:46.837836   773 net.cpp:411] rpn-data -> rpn_bbox_inside_weights
I0625 15:12:46.837841   773 net.cpp:411] rpn-data -> rpn_bbox_outside_weights
===================================anchor_scales in AnchorTargetLayer:=============(2, 4, 8, 16, 32)
I0625 15:12:46.839002   773 net.cpp:150] Setting up rpn-data
I0625 15:12:46.839011   773 net.cpp:157] Top shape: 1 1 570 63 (35910)
I0625 15:12:46.839025   773 net.cpp:157] Top shape: 1 60 38 63 (143640)
I0625 15:12:46.839026   773 net.cpp:157] Top shape: 1 60 38 63 (143640)
I0625 15:12:46.839028   773 net.cpp:157] Top shape: 1 60 38 63 (143640)
I0625 15:12:46.839030   773 net.cpp:165] Memory required for data: 1429955556
I0625 15:12:46.839031   773 layer_factory.hpp:77] Creating layer rpn_loss_cls
I0625 15:12:46.839036   773 net.cpp:106] Creating Layer rpn_loss_cls
I0625 15:12:46.839040   773 net.cpp:454] rpn_loss_cls <- rpn_cls_score_reshape_rpn_cls_score_reshape_0_split_0
I0625 15:12:46.839042   773 net.cpp:454] rpn_loss_cls <- rpn_labels
…
