…
average_loss: 100
iter_size: 2
I0615 17:29:42.866518 17675 solver.cpp:81] Creating training net from train_net file: models/pascal_voc/VGG16/faster_rcnn_end2end/train.prototxt
I0615 17:29:42.867882 17675 net.cpp:49] Initializing net from parameters: 
name: "VGG_ILSVRC_16_layers"
state {
  phase: TRAIN
}
layer {
  name: "input-data"
  type: "Python"
  top: "data"
  top: "im_info"
  top: "gt_boxes"
  top: "seg_mask_inds"
  top: "flipped"
  python_param {
    module: "roi_data_layer.layer"
    layer: "RoIDataLayer"
    param_str: "\'num_classes\': 2"
  }
}
layer {
  name: "conv1_1"
  type: "Convolution"
  bottom: "data"
  top: "conv1_1"
  param {
    lr_mult: 0
    decay_mult: 0
  }
  param {
    lr_mult: 0
    decay_mult: 0
  }
  convolution_param {
    num_output: 64
    pad: 1
    kernel_size: 3
  }
}
layer {
  name: "relu1_1"
  type: "ReLU"
  bottom: "conv1_1"
  top: "conv1_1"
}
layer {
  name: "conv1_2"
  type: "Convolution"
  bottom: "conv1_1"
  top: "conv1_2"
  param {
    lr_mult: 0
    decay_mult: 0
  }
  param {
    lr_mult: 0
    decay_mult: 0
  }
  convolution_param {
    num_output: 64
    pad: 1
    kernel_size: 3
  }
}
layer {
  name: "relu1_2"
  type: "ReLU"
  bottom: "conv1_2"
  top: "conv1_2"
}
layer {
  name: "pool1"
  type: "Pooling"
  bottom: "conv1_2"
  top: "pool1"
  pooling_param {
    pool: MAX
    kernel_size: 2
    stride: 2
  }
}
layer {
  name: "conv2_1"
  type: "Convolution"
  bottom: "pool1"
  top: "conv2_1"
  param {
    lr_mult: 0
    decay_mult: 0
  }
  param {
    lr_mult: 0
    decay_mult: 0
  }
  convolution_param {
    num_output: 128
    pad: 1
    kernel_size: 3
  }
}
layer {
  name: "relu2_1"
  type: "ReLU"
  bottom: "conv2_1"
  top: "conv2_1"
}
layer {
  name: "conv2_2"
  type: "Convolution"
  bottom: "conv2_1"
  top: "conv2_2"
  param {
    lr_mult: 0
    decay_mult: 0
  }
  param {
    lr_mult: 0
    decay_mult: 0
  }
  convolution_param {
    num_output: 128
    pad: 1
    kernel_size: 3
  }
}
layer {
  name: "relu2_2"
  type: "ReLU"
  bottom: "conv2_2"
  top: "conv2_2"
}
layer {
  name: "pool2"
  type: "Pooling"
  bottom: "conv2_2"
  top: "pool2"
  pooling_param {
    pool: MAX
    kernel_size: 2
    stride: 2
  }
}
layer {
  name: "conv3_1"
  type: "Convolution"
  bottom: "pool2"
  top: "conv3_1"
  param {
    lr_mult: 1
  }
  param {
    lr_mult: 2
  }
  convolution_param {
    num_output: 256
    pad: 1
    kernel_size: 3
  }
}
layer {
  name: "relu3_1"
  type: "ReLU"
  bottom: "conv3_1"
  top: "conv3_1"
}
layer {
  name: "conv3_2"
  type: "Convolution"
  bottom: "conv3_1"
  top: "conv3_2"
  param {
    lr_mult: 1
  }
  param {
    lr_mult: 2
  }
  convolution_param {
    num_output: 256
    pad: 1
    kernel_size: 3
  }
}
layer {
  name: "relu3_2"
  type: "ReLU"
  bottom: "conv3_2"
  top: "conv3_2"
}
layer {
  name: "conv3_3"
  type: "Convolution"
  bottom: "conv3_2"
  top: "conv3_3"
  param {
    lr_mult: 1
  }
  param {
    lr_mult: 2
  }
  convolution_param {
    num_output: 256
    pad: 1
    kernel_size: 3
  }
}
layer {
  name: "relu3_3"
  type: "ReLU"
  bottom: "conv3_3"
  top: "conv3_3"
}
layer {
  name: "pool3"
  type: "Pooling"
  bottom: "conv3_3"
  top: "pool3"
  pooling_param {
    pool: MAX
    kernel_size: 2
    stride: 2
  }
}
layer {
  name: "conv4_1"
  type: "Convolution"
  bottom: "pool3"
  top: "conv4_1"
  param {
    lr_mult: 1
  }
  param {
    lr_mult: 2
  }
  convolution_param {
    num_output: 512
    pad: 1
    kernel_size: 3
  }
}
layer {
  name: "relu4_1"
  type: "ReLU"
  bottom: "conv4_1"
  top: "conv4_1"
}
layer {
  name: "conv4_2"
  type: "Convolution"
  bottom: "conv4_1"
  top: "conv4_2"
  param {
    lr_mult: 1
  }
  param {
    lr_mult: 2
  }
  convolution_param {
    num_output: 512
    pad: 1
    kernel_size: 3
  }
}
layer {
  name: "relu4_2"
  type: "ReLU"
  bottom: "conv4_2"
  top: "conv4_2"
}
layer {
  name: "conv4_3"
  type: "Convolution"
  bottom: "conv4_2"
  top: "conv4_3"
  param {
    lr_mult: 1
  }
  param {
    lr_mult: 2
  }
  convolution_param {
    num_output: 512
    pad: 1
    kernel_size: 3
  }
}
layer {
  name: "relu4_3"
  type: "ReLU"
  bottom: "conv4_3"
  top: "conv4_3"
}
layer {
  name: "pool4"
  type: "Pooling"
  bottom: "conv4_3"
  top: "pool4"
  pooling_param {
    pool: MAX
    kernel_size: 2
    stride: 2
  }
}
layer {
  name: "conv5_1"
  type: "Convolution"
  bottom: "pool4"
  top: "conv5_1"
  param {
    lr_mult: 1
  }
  param {
    lr_mult: 2
  }
  convolution_param {
    num_output: 512
    pad: 1
    kernel_size: 3
  }
}
layer {
  name: "relu5_1"
  type: "ReLU"
  bottom: "conv5_1"
  top: "conv5_1"
}
layer {
  name: "conv5_2"
  type: "Convolution"
  bottom: "conv5_1"
  top: "conv5_2"
  param {
    lr_mult: 1
  }
  param {
    lr_mult: 2
  }
  convolution_param {
    num_output: 512
    pad: 1
    kernel_size: 3
  }
}
layer {
  name: "relu5_2"
  type: "ReLU"
  bottom: "conv5_2"
  top: "conv5_2"
}
layer {
  name: "conv5_3"
  type: "Convolution"
  bottom: "conv5_2"
  top: "conv5_3"
  param {
    lr_mult: 1
  }
  param {
    lr_mult: 2
  }
  convolution_param {
    num_output: 512
    pad: 1
    kernel_size: 3
  }
}
layer {
  name: "relu5_3"
  type: "ReLU"
  bottom: "conv5_3"
  top: "conv5_3"
}
layer {
  name: "rpn_conv/3x3"
  type: "Convolution"
  bottom: "conv5_3"
  top: "rpn/output"
  param {
    lr_mult: 1
  }
  param {
    lr_mult: 2
  }
  convolution_param {
    num_output: 512
    pad: 1
    kernel_size: 3
    stride: 1
    weight_filler {
      type: "gaussian"
      std: 0.01
    }
    bias_filler {
      type: "constant"
      value: 0
    }
  }
}
layer {
  name: "rpn_relu/3x3"
  type: "ReLU"
  bottom: "rpn/output"
  top: "rpn/output"
}
layer {
  name: "rpn_cls_score"
  type: "Convolution"
  bottom: "rpn/output"
  top: "rpn_cls_score"
  param {
    lr_mult: 1
  }
  param {
    lr_mult: 2
  }
  convolution_param {
    num_output: 30
    pad: 0
    kernel_size: 1
    stride: 1
    weight_filler {
      type: "gaussian"
      std: 0.01
    }
    bias_filler {
      type: "constant"
      value: 0
    }
  }
}
layer {
  name: "rpn_bbox_pred"
  type: "Convolution"
  bottom: "rpn/output"
  top: "rpn_bbox_pred"
  param {
    lr_mult: 1
  }
  param {
    lr_mult: 2
  }
  convolution_param {
    num_output: 60
    pad: 0
    kernel_size: 1
    stride: 1
    weight_filler {
      type: "gaussian"
      std: 0.01
    }
    bias_filler {
      type: "constant"
      value: 0
    }
  }
}
layer {
  name: "rpn_cls_score_reshape"
  type: "Reshape"
  bottom: "rpn_cls_score"
  top: "rpn_cls_score_reshape"
  reshape_param {
    shape {
      dim: 0
      dim: 2
      dim: -1
      dim: 0
    }
  }
}
layer {
  name: "rpn-data"
  type: "Python"
  bottom: "rpn_cls_score"
  bottom: "gt_boxes"
  bottom: "im_info"
  bottom: "data"
  top: "rpn_labels"
  top: "rpn_bbox_targets"
  top: "rpn_bbox_inside_weights"
  top: "rpn_bbox_outside_weights"
  python_param {
    module: "rpn.anchor_target_layer"
    layer: "AnchorTargetLayer"
    param_str: "\'feat_stride\': 16 \n\'scales\': !!python/tuple [2, 4, 8, 16, 32]"
  }
}
layer {
  name: "rpn_loss_cls"
  type: "SoftmaxWithLoss"
  bottom: "rpn_cls_score_reshape"
  bottom: "rpn_labels"
  top: "rpn_cls_loss"
  loss_weight: 1
  propagate_down: true
  propagate_down: false
  loss_param {
    ignore_label: -1
    normalize: true
  }
}
layer {
  name: "rpn_loss_bbox"
  type: "SmoothL1Loss"
  bottom: "rpn_bbox_pred"
  bottom: "rpn_bbox_targets"
  bottom: "rpn_bbox_inside_weights"
  bottom: "rpn_bbox_outside_weights"
  top: "rpn_loss_bbox"
  loss_weight: 1
  smooth_l1_loss_param {
    sigma: 3
  }
}
layer {
  name: "rpn_cls_prob"
  type: "Softmax"
  bottom: "rpn_cls_score_reshape"
  top: "rpn_cls_prob"
}
layer {
  name: "rpn_cls_prob_reshape"
  type: "Reshape"
  bottom: "rpn_cls_prob"
  top: "rpn_cls_prob_reshape"
  reshape_param {
    shape {
      dim: 0
      dim: 30
      dim: -1
      dim: 0
    }
  }
}
layer {
  name: "proposal"
  type: "Python"
  bottom: "rpn_cls_prob_reshape"
  bottom: "rpn_bbox_pred"
  bottom: "im_info"
  top: "rpn_rois"
  python_param {
    module: "rpn.proposal_layer"
    layer: "ProposalLayer"
    param_str: "\'feat_stride\': 16 \n\'scales\': !!python/tuple [2, 4, 8, 16, 32]"
  }
}
layer {
  name: "roi-data"
  type: "Python"
  bottom: "rpn_rois"
  bottom: "gt_boxes"
  bottom: "im_info"
  bottom: "seg_mask_inds"
  bottom: "flipped"
  top: "rois"
  top: "labels"
  top: "bbox_targets"
  top: "bbox_inside_weights"
  top: "bbox_outside_weights"
  top: "mask_targets"
  top: "rois_pos"
  top: "attrArray"
  top: "attrArrayInd"
  top: "attrArrayShift"
  python_param {
    module: "rpn.proposal_target_layer"
    layer: "ProposalTargetLayer"
    param_str: "\'num_classes\': 2"
  }
}
layer {
  name: "roi_pool5"
  type: "ROIAlignment"
  bottom: "conv5_3"
  bottom: "rois"
  top: "pool5"
  roi_alignment_param {
    pooled_h: 7
    pooled_w: 7
    spatial_scale: 0.0625
  }
}
layer {
  name: "fc6"
  type: "InnerProduct"
  bottom: "pool5"
  top: "fc6"
  param {
    lr_mult: 1
  }
  param {
    lr_mult: 2
  }
  inner_product_param {
    num_output: 4096
  }
}
layer {
  name: "relu6"
  type: "ReLU"
  bottom: "fc6"
  top: "fc6"
}
layer {
  name: "fc7"
  type: "InnerProduct"
  bottom: "fc6"
  top: "fc7"
  param {
    lr_mult: 1
  }
  param {
    lr_mult: 2
  }
  inner_product_param {
    num_output: 4096
  }
}
layer {
  name: "relu7"
  type: "ReLU"
  bottom: "fc7"
  top: "fc7"
}
layer {
  name: "attr_score"
  type: "InnerProduct"
  bottom: "fc7"
  top: "attr_score"
  param {
    lr_mult: 1
  }
  param {
    lr_mult: 2
  }
  inner_product_param {
    num_output: 7
    weight_filler {
      type: "gaussian"
      std: 0.001
    }
    bias_filler {
      type: "constant"
      value: 0
    }
  }
}
layer {
  name: "attr_score_pos"
  type: "Eltwise"
  bottom: "attr_score"
  bottom: "attrArrayInd"
  top: "attr_score_pos"
  eltwise_param {
    operation: PROD
  }
}
layer {
  name: "attr_score_pos_shift"
  type: "Eltwise"
  bottom: "attr_score_pos"
  bottom: "attrArrayShift"
  top: "attr_score_pos_shift"
  eltwise_param {
    operation: SUM
  }
}
layer {
  name: "cls_score"
  type: "InnerProduct"
  bottom: "fc7"
  top: "cls_score"
  param {
    lr_mult: 1
  }
  param {
    lr_mult: 2
  }
  inner_product_param {
    num_output: 2
    weight_filler {
      type: "gaussian"
      std: 0.01
    }
    bias_filler {
      type: "constant"
      value: 0
    }
  }
}
layer {
  name: "bbox_pred"
  type: "InnerProduct"
  bottom: "fc7"
  top: "bbox_pred"
  param {
    lr_mult: 1
  }
  param {
    lr_mult: 2
  }
  inner_product_param {
    num_output: 8
    weight_filler {
      type: "gaussian"
      std: 0.001
    }
    bias_filler {
      type: "constant"
      value: 0
    }
  }
}
layer {
  name: "loss_attribute"
  type: "SigmoidCrossEntropyLoss"
  bottom: "attr_score_pos_shift"
  bottom: "attrArray"
  top: "loss_attribute"
  loss_weight: 1
  propagate_down: true
  propagate_down: false
}
layer {
  name: "loss_cls"
  type: "SoftmaxWithLoss"
  bottom: "cls_score"
  bottom: "labels"
  top: "loss_cls"
  loss_weight: 3
  propagate_down: true
  propagate_down: false
}
layer {
  name: "loss_bbox"
  type: "SmoothL1Loss"
  bottom: "bbox_pred"
  bottom: "bbox_targets"
  bottom: "bbox_inside_weights"
  bottom: "bbox_outside_weights"
  top: "loss_bbox"
  loss_weight: 2
}
layer {
  name: "roi_pool5_2"
  type: "ROIAlignment"
  bottom: "conv5_3"
  bottom: "rois_pos"
  top: "pool5_2"
  roi_alignment_param {
    pooled_h: 7
    pooled_w: 7
    spatial_scale: 0.0625
  }
}
layer {
  name: "pool5_2_conv"
  type: "Convolution"
  bottom: "pool5_2"
  top: "pool5_2_conv"
  param {
    lr_mult: 1
    decay_mult: 1
  }
  param {
    lr_mult: 2
    decay_mult: 0
  }
  convolution_param {
    num_output: 512
    pad: 0
    kernel_size: 1
    weight_filler {
      type: "gaussian"
      std: 0.01
    }
    bias_filler {
      type: "constant"
      value: 0
    }
  }
}
layer {
  name: "pool5_2_conv_relu"
  type: "ReLU"
  bottom: "pool5_2_conv"
  top: "pool5_2_conv_relu"
}
layer {
  name: "pool5_2_conv2"
  type: "Convolution"
  bottom: "pool5_2_conv_relu"
  top: "pool5_2_conv2"
  param {
    lr_mult: 1
    decay_mult: 1
  }
  param {
    lr_mult: 2
    decay_mult: 0
  }
  convolution_param {
    num_output: 512
    pad: 1
    kernel_size: 3
    stride: 1
    weight_filler {
      type: "gaussian"
      std: 0.01
    }
    bias_filler {
      type: "constant"
      value: 0
    }
  }
}
layer {
  name: "pool5_2_conv2_relu"
  type: "ReLU"
  bottom: "pool5_2_conv2"
  top: "pool5_2_conv2_relu"
}
layer {
  name: "mask_deconv1"
  type: "Deconvolution"
  bottom: "pool5_2_conv2_relu"
  top: "mask_deconv1"
  param {
    lr_mult: 1
    decay_mult: 1
  }
  param {
    lr_mult: 2
    decay_mult: 0
  }
  convolution_param {
    num_output: 256
    pad: 1
    kernel_size: 8
    group: 256
    stride: 4
    weight_filler {
      type: "bilinear"
    }
  }
}
layer {
  name: "pool5_2_conv3"
  type: "Convolution"
  bottom: "mask_deconv1"
  top: "pool5_2_conv3"
  param {
    lr_mult: 1
    decay_mult: 1
  }
  param {
    lr_mult: 2
    decay_mult: 0
  }
  convolution_param {
    num_output: 512
    pad: 1
    kernel_size: 3
    stride: 1
    weight_filler {
      type: "gaussian"
      std: 0.01
    }
    bias_filler {
      type: "constant"
      value: 0
    }
  }
}
layer {
  name: "pool5_2_conv3_relu"
  type: "ReLU"
  bottom: "pool5_2_conv3"
  top: "pool5_2_conv3_relu"
}
layer {
  name: "pool5_2_conv4"
  type: "Convolution"
  bottom: "pool5_2_conv3_relu"
  top: "pool5_2_conv4"
  param {
    lr_mult: 1
    decay_mult: 1
  }
  param {
    lr_mult: 2
    decay_mult: 0
  }
  convolution_param {
    num_output: 512
    pad: 1
    kernel_size: 3
    stride: 1
    weight_filler {
      type: "gaussian"
      std: 0.01
    }
    bias_filler {
      type: "constant"
      value: 0
    }
  }
}
layer {
  name: "pool5_2_conv4_relu"
  type: "ReLU"
  bottom: "pool5_2_conv4"
  top: "pool5_2_conv4_relu"
}
layer {
  name: "query_conv"
  type: "Convolution"
  bottom: "pool5_2_conv4_relu"
  top: "query_conv"
  param {
    lr_mult: 1
    decay_mult: 1
  }
  param {
    lr_mult: 2
    decay_mult: 0
  }
  convolution_param {
    num_output: 64
    pad: 0
    kernel_size: 1
    stride: 1
    weight_filler {
      type: "gaussian"
      std: 0.01
    }
    bias_filler {
      type: "constant"
      value: 0
    }
  }
}
layer {
  name: "key_conv"
  type: "Convolution"
  bottom: "pool5_2_conv4_relu"
  top: "key_conv"
  param {
    lr_mult: 1
    decay_mult: 1
  }
  param {
    lr_mult: 2
    decay_mult: 0
  }
  convolution_param {
    num_output: 64
    pad: 0
    kernel_size: 1
    stride: 1
    weight_filler {
      type: "gaussian"
      std: 0.01
    }
    bias_filler {
      type: "constant"
      value: 0
    }
  }
}
layer {
  name: "value_conv"
  type: "Convolution"
  bottom: "pool5_2_conv4_relu"
  top: "value_conv"
  param {
    lr_mult: 1
    decay_mult: 1
  }
  param {
    lr_mult: 2
    decay_mult: 0
  }
  convolution_param {
    num_output: 512
    pad: 0
    kernel_size: 1
    stride: 1
    weight_filler {
      type: "gaussian"
      std: 0.01
    }
    bias_filler {
      type: "constant"
      value: 0
    }
  }
}
layer {
  name: "query_conv_reshape"
  type: "Reshape"
  bottom: "query_conv"
  top: "query_conv_reshape"
  reshape_param {
    shape {
      dim: -1
      dim: 64
      dim: 900
      dim: 1
    }
  }
}
layer {
  name: "key_conv_reshape"
  type: "Reshape"
  bottom: "key_conv"
  top: "key_conv_reshape"
  reshape_param {
    shape {
      dim: -1
      dim: 64
      dim: 900
      dim: 1
    }
  }
}
layer {
  name: "value_conv_reshape"
  type: "Reshape"
  bottom: "value_conv"
  top: "value_conv_reshape"
  reshape_param {
    shape {
      dim: -1
      dim: 512
      dim: 900
      dim: 1
    }
  }
}
layer {
  name: "query_conv_reshape_perm"
  type: "Permute"
  bottom: "query_conv_reshape"
  top: "query_conv_reshape_perm"
  permute_param {
    order: 0
    order: 3
    order: 2
    order: 1
  }
}
layer {
  name: "key_conv_reshape_perm"
  type: "Permute"
  bottom: "key_conv_reshape"
  top: "key_conv_reshape_perm"
  permute_param {
    order: 0
    order: 3
    order: 1
    order: 2
  }
}
layer {
  name: "energy"
  type: "MatrixMultiplication"
  bottom: "query_conv_reshape_perm"
  bottom: "key_conv_reshape_perm"
  top: "energy"
}
layer {
  name: "attention"
  type: "Softmax"
  bottom: "energy"
  top: "attention"
  softmax_param {
    axis: 3
  }
}
layer {
  name: "value_conv_reshape_perm"
  type: "Permute"
  bottom: "value_conv_reshape"
  top: "value_conv_reshape_perm"
  permute_param {
    order: 0
    order: 3
    order: 1
    order: 2
  }
}
layer {
  name: "attention_perm"
  type: "Permute"
  bottom: "attention"
  top: "attention_perm"
  permute_param {
    order: 0
    order: 1
    order: 2
    order: 3
  }
}
layer {
  name: "out"
  type: "MatrixMultiplication"
  bottom: "value_conv_reshape_perm"
  bottom: "attention_perm"
  top: "out"
}
layer {
  name: "out_reshape"
  type: "Reshape"
  bottom: "out"
  top: "out_reshape"
  reshape_param {
    shape {
      dim: -1
      dim: 512
      dim: 30
      dim: 30
    }
  }
}
layer {
  name: "out_reshape_scale"
  type: "Scale"
  bottom: "out_reshape"
  top: "out_reshape_scale"
  param {
    name: "scale_conv1_1"
    lr_mult: 1
  }
  scale_param {
    bias_term: false
  }
}
layer {
  name: "out_x"
  type: "Eltwise"
  bottom: "out_reshape_scale"
  bottom: "pool5_2_conv4_relu"
  top: "out_x"
  eltwise_param {
    operation: SUM
  }
}
layer {
  name: "mask_deconv2"
  type: "Deconvolution"
  bottom: "out_x"
  top: "mask_deconv2"
  param {
    lr_mult: 1
    decay_mult: 1
  }
  param {
    lr_mult: 2
    decay_mult: 0
  }
  convolution_param {
    num_output: 256
    pad: 1
    kernel_size: 8
    group: 256
    stride: 4
    weight_filler {
      type: "bilinear"
    }
  }
}
layer {
  name: "pool5_2_conv5"
  type: "Convolution"
  bottom: "mask_deconv2"
  top: "pool5_2_conv5"
  param {
    lr_mult: 1
    decay_mult: 1
  }
  param {
    lr_mult: 2
    decay_mult: 0
  }
  convolution_param {
    num_output: 512
    pad: 1
    kernel_size: 3
    stride: 1
    weight_filler {
      type: "gaussian"
      std: 0.01
    }
    bias_filler {
      type: "constant"
      value: 0
    }
  }
}
layer {
  name: "pool5_2_conv5_relu"
  type: "ReLU"
  bottom: "pool5_2_conv5"
  top: "pool5_2_conv5_relu"
}
layer {
  name: "pool5_2_conv6"
  type: "Convolution"
  bottom: "pool5_2_conv5_relu"
  top: "pool5_2_conv6"
  param {
    lr_mult: 1
    decay_mult: 1
  }
  param {
    lr_mult: 2
    decay_mult: 0
  }
  convolution_param {
    num_output: 512
    pad: 1
    kernel_size: 3
    stride: 1
    weight_filler {
      type: "gaussian"
      std: 0.01
    }
    bias_filler {
      type: "constant"
      value: 0
    }
  }
}
layer {
  name: "pool5_2_conv6_relu"
  type: "ReLU"
  bottom: "pool5_2_conv6"
  top: "pool5_2_conv6_relu"
}
layer {
  name: "mask_deconv3"
  type: "Deconvolution"
  bottom: "pool5_2_conv6_relu"
  top: "mask_deconv3"
  param {
    lr_mult: 1
    decay_mult: 1
  }
  param {
    lr_mult: 2
    decay_mult: 0
  }
  convolution_param {
    num_output: 256
    pad: 1
    kernel_size: 4
    group: 256
    stride: 2
    weight_filler {
      type: "bilinear"
    }
  }
}
layer {
  name: "mask_score"
  type: "Convolution"
  bottom: "mask_deconv3"
  top: "mask_score"
  param {
    lr_mult: 1
    decay_mult: 1
  }
  param {
    lr_mult: 2
    decay_mult: 0
  }
  convolution_param {
    num_output: 8
    pad: 0
    kernel_size: 1
    weight_filler {
      type: "gaussian"
      std: 0.01
    }
    bias_filler {
      type: "constant"
      value: 0
    }
  }
}
layer {
  name: "loss_mask"
  type: "SoftmaxWithLoss"
  bottom: "mask_score"
  bottom: "mask_targets"
  top: "loss_mask"
  loss_weight: 3
  propagate_down: true
  propagate_down: false
  loss_param {
    ignore_label: -1
    normalize: true
  }
}
I0615 17:29:42.868203 17675 layer_factory.hpp:77] Creating layer input-data
I0615 17:29:42.880761 17675 net.cpp:106] Creating Layer input-data
I0615 17:29:42.880787 17675 net.cpp:411] input-data -> data
I0615 17:29:42.880797 17675 net.cpp:411] input-data -> im_info
I0615 17:29:42.880805 17675 net.cpp:411] input-data -> gt_boxes
I0615 17:29:42.880811 17675 net.cpp:411] input-data -> seg_mask_inds
I0615 17:29:42.880818 17675 net.cpp:411] input-data -> flipped
RoiDataLayer: name_to_top: {'gt_boxes': 2, 'data': 0, 'seg_mask_inds': 3, 'im_info': 1, 'flipped': 4}
I0615 17:29:42.892029 17675 net.cpp:150] Setting up input-data
I0615 17:29:42.892045 17675 net.cpp:157] Top shape: 1 3 600 1000 (1800000)
I0615 17:29:42.892050 17675 net.cpp:157] Top shape: 1 3 (3)
I0615 17:29:42.892053 17675 net.cpp:157] Top shape: 1 4 (4)
I0615 17:29:42.892056 17675 net.cpp:157] Top shape: 1 2 (2)
I0615 17:29:42.892071 17675 net.cpp:157] Top shape: 1 1 (1)
I0615 17:29:42.892073 17675 net.cpp:165] Memory required for data: 7200040
I0615 17:29:42.892078 17675 layer_factory.hpp:77] Creating layer data_input-data_0_split
I0615 17:29:42.892092 17675 net.cpp:106] Creating Layer data_input-data_0_split
I0615 17:29:42.892097 17675 net.cpp:454] data_input-data_0_split <- data
I0615 17:29:42.892112 17675 net.cpp:411] data_input-data_0_split -> data_input-data_0_split_0
I0615 17:29:42.892117 17675 net.cpp:411] data_input-data_0_split -> data_input-data_0_split_1
I0615 17:29:42.892148 17675 net.cpp:150] Setting up data_input-data_0_split
I0615 17:29:42.892164 17675 net.cpp:157] Top shape: 1 3 600 1000 (1800000)
I0615 17:29:42.892168 17675 net.cpp:157] Top shape: 1 3 600 1000 (1800000)
I0615 17:29:42.892169 17675 net.cpp:165] Memory required for data: 21600040
I0615 17:29:42.892181 17675 layer_factory.hpp:77] Creating layer im_info_input-data_1_split
I0615 17:29:42.892185 17675 net.cpp:106] Creating Layer im_info_input-data_1_split
I0615 17:29:42.892187 17675 net.cpp:454] im_info_input-data_1_split <- im_info
I0615 17:29:42.892201 17675 net.cpp:411] im_info_input-data_1_split -> im_info_input-data_1_split_0
I0615 17:29:42.892205 17675 net.cpp:411] im_info_input-data_1_split -> im_info_input-data_1_split_1
I0615 17:29:42.892210 17675 net.cpp:411] im_info_input-data_1_split -> im_info_input-data_1_split_2
I0615 17:29:42.892254 17675 net.cpp:150] Setting up im_info_input-data_1_split
I0615 17:29:42.892258 17675 net.cpp:157] Top shape: 1 3 (3)
I0615 17:29:42.892271 17675 net.cpp:157] Top shape: 1 3 (3)
I0615 17:29:42.892272 17675 net.cpp:157] Top shape: 1 3 (3)
I0615 17:29:42.892274 17675 net.cpp:165] Memory required for data: 21600076
I0615 17:29:42.892277 17675 layer_factory.hpp:77] Creating layer gt_boxes_input-data_2_split
I0615 17:29:42.892290 17675 net.cpp:106] Creating Layer gt_boxes_input-data_2_split
I0615 17:29:42.892293 17675 net.cpp:454] gt_boxes_input-data_2_split <- gt_boxes
I0615 17:29:42.892297 17675 net.cpp:411] gt_boxes_input-data_2_split -> gt_boxes_input-data_2_split_0
I0615 17:29:42.892310 17675 net.cpp:411] gt_boxes_input-data_2_split -> gt_boxes_input-data_2_split_1
I0615 17:29:42.892328 17675 net.cpp:150] Setting up gt_boxes_input-data_2_split
I0615 17:29:42.892333 17675 net.cpp:157] Top shape: 1 4 (4)
I0615 17:29:42.892335 17675 net.cpp:157] Top shape: 1 4 (4)
I0615 17:29:42.892339 17675 net.cpp:165] Memory required for data: 21600108
I0615 17:29:42.892341 17675 layer_factory.hpp:77] Creating layer conv1_1
I0615 17:29:42.892352 17675 net.cpp:106] Creating Layer conv1_1
I0615 17:29:42.892355 17675 net.cpp:454] conv1_1 <- data_input-data_0_split_0
I0615 17:29:42.892359 17675 net.cpp:411] conv1_1 -> conv1_1
I0615 17:29:43.054810 17675 net.cpp:150] Setting up conv1_1
I0615 17:29:43.054827 17675 net.cpp:157] Top shape: 1 64 600 1000 (38400000)
I0615 17:29:43.054831 17675 net.cpp:165] Memory required for data: 175200108
I0615 17:29:43.054841 17675 layer_factory.hpp:77] Creating layer relu1_1
I0615 17:29:43.054860 17675 net.cpp:106] Creating Layer relu1_1
I0615 17:29:43.054864 17675 net.cpp:454] relu1_1 <- conv1_1
I0615 17:29:43.054868 17675 net.cpp:397] relu1_1 -> conv1_1 (in-place)
I0615 17:29:43.055007 17675 net.cpp:150] Setting up relu1_1
I0615 17:29:43.055013 17675 net.cpp:157] Top shape: 1 64 600 1000 (38400000)
I0615 17:29:43.055016 17675 net.cpp:165] Memory required for data: 328800108
I0615 17:29:43.055018 17675 layer_factory.hpp:77] Creating layer conv1_2
I0615 17:29:43.055024 17675 net.cpp:106] Creating Layer conv1_2
I0615 17:29:43.055027 17675 net.cpp:454] conv1_2 <- conv1_1
I0615 17:29:43.055040 17675 net.cpp:411] conv1_2 -> conv1_2
I0615 17:29:43.057078 17675 net.cpp:150] Setting up conv1_2
I0615 17:29:43.057090 17675 net.cpp:157] Top shape: 1 64 600 1000 (38400000)
I0615 17:29:43.057103 17675 net.cpp:165] Memory required for data: 482400108
I0615 17:29:43.057111 17675 layer_factory.hpp:77] Creating layer relu1_2
I0615 17:29:43.057126 17675 net.cpp:106] Creating Layer relu1_2
I0615 17:29:43.057129 17675 net.cpp:454] relu1_2 <- conv1_2
I0615 17:29:43.057133 17675 net.cpp:397] relu1_2 -> conv1_2 (in-place)
I0615 17:29:43.057256 17675 net.cpp:150] Setting up relu1_2
I0615 17:29:43.057262 17675 net.cpp:157] Top shape: 1 64 600 1000 (38400000)
I0615 17:29:43.057274 17675 net.cpp:165] Memory required for data: 636000108
I0615 17:29:43.057277 17675 layer_factory.hpp:77] Creating layer pool1
I0615 17:29:43.057283 17675 net.cpp:106] Creating Layer pool1
I0615 17:29:43.057287 17675 net.cpp:454] pool1 <- conv1_2
I0615 17:29:43.057301 17675 net.cpp:411] pool1 -> pool1
I0615 17:29:43.057335 17675 net.cpp:150] Setting up pool1
I0615 17:29:43.057339 17675 net.cpp:157] Top shape: 1 64 300 500 (9600000)
I0615 17:29:43.057343 17675 net.cpp:165] Memory required for data: 674400108
I0615 17:29:43.057344 17675 layer_factory.hpp:77] Creating layer conv2_1
I0615 17:29:43.057361 17675 net.cpp:106] Creating Layer conv2_1
I0615 17:29:43.057364 17675 net.cpp:454] conv2_1 <- pool1
I0615 17:29:43.057377 17675 net.cpp:411] conv2_1 -> conv2_1
I0615 17:29:43.059319 17675 net.cpp:150] Setting up conv2_1
I0615 17:29:43.059332 17675 net.cpp:157] Top shape: 1 128 300 500 (19200000)
I0615 17:29:43.059335 17675 net.cpp:165] Memory required for data: 751200108
I0615 17:29:43.059343 17675 layer_factory.hpp:77] Creating layer relu2_1
I0615 17:29:43.059350 17675 net.cpp:106] Creating Layer relu2_1
I0615 17:29:43.059355 17675 net.cpp:454] relu2_1 <- conv2_1
I0615 17:29:43.059358 17675 net.cpp:397] relu2_1 -> conv2_1 (in-place)
I0615 17:29:43.059937 17675 net.cpp:150] Setting up relu2_1
I0615 17:29:43.059945 17675 net.cpp:157] Top shape: 1 128 300 500 (19200000)
I0615 17:29:43.059958 17675 net.cpp:165] Memory required for data: 828000108
I0615 17:29:43.059962 17675 layer_factory.hpp:77] Creating layer conv2_2
I0615 17:29:43.059968 17675 net.cpp:106] Creating Layer conv2_2
I0615 17:29:43.059972 17675 net.cpp:454] conv2_2 <- conv2_1
I0615 17:29:43.059976 17675 net.cpp:411] conv2_2 -> conv2_2
I0615 17:29:43.061398 17675 net.cpp:150] Setting up conv2_2
I0615 17:29:43.061406 17675 net.cpp:157] Top shape: 1 128 300 500 (19200000)
I0615 17:29:43.061409 17675 net.cpp:165] Memory required for data: 904800108
I0615 17:29:43.061434 17675 layer_factory.hpp:77] Creating layer relu2_2
I0615 17:29:43.061439 17675 net.cpp:106] Creating Layer relu2_2
I0615 17:29:43.061441 17675 net.cpp:454] relu2_2 <- conv2_2
I0615 17:29:43.061446 17675 net.cpp:397] relu2_2 -> conv2_2 (in-place)
I0615 17:29:43.061573 17675 net.cpp:150] Setting up relu2_2
I0615 17:29:43.061579 17675 net.cpp:157] Top shape: 1 128 300 500 (19200000)
I0615 17:29:43.061590 17675 net.cpp:165] Memory required for data: 981600108
I0615 17:29:43.061594 17675 layer_factory.hpp:77] Creating layer pool2
I0615 17:29:43.061599 17675 net.cpp:106] Creating Layer pool2
I0615 17:29:43.061601 17675 net.cpp:454] pool2 <- conv2_2
I0615 17:29:43.061605 17675 net.cpp:411] pool2 -> pool2
I0615 17:29:43.061633 17675 net.cpp:150] Setting up pool2
I0615 17:29:43.061638 17675 net.cpp:157] Top shape: 1 128 150 250 (4800000)
I0615 17:29:43.061641 17675 net.cpp:165] Memory required for data: 1000800108
I0615 17:29:43.061643 17675 layer_factory.hpp:77] Creating layer conv3_1
I0615 17:29:43.061650 17675 net.cpp:106] Creating Layer conv3_1
I0615 17:29:43.061655 17675 net.cpp:454] conv3_1 <- pool2
I0615 17:29:43.061659 17675 net.cpp:411] conv3_1 -> conv3_1
I0615 17:29:43.063493 17675 net.cpp:150] Setting up conv3_1
I0615 17:29:43.063503 17675 net.cpp:157] Top shape: 1 256 150 250 (9600000)
I0615 17:29:43.063505 17675 net.cpp:165] Memory required for data: 1039200108
I0615 17:29:43.063529 17675 layer_factory.hpp:77] Creating layer relu3_1
I0615 17:29:43.063535 17675 net.cpp:106] Creating Layer relu3_1
I0615 17:29:43.063549 17675 net.cpp:454] relu3_1 <- conv3_1
I0615 17:29:43.063554 17675 net.cpp:397] relu3_1 -> conv3_1 (in-place)
I0615 17:29:43.063685 17675 net.cpp:150] Setting up relu3_1
I0615 17:29:43.063693 17675 net.cpp:157] Top shape: 1 256 150 250 (9600000)
I0615 17:29:43.063695 17675 net.cpp:165] Memory required for data: 1077600108
I0615 17:29:43.063709 17675 layer_factory.hpp:77] Creating layer conv3_2
I0615 17:29:43.063731 17675 net.cpp:106] Creating Layer conv3_2
I0615 17:29:43.063736 17675 net.cpp:454] conv3_2 <- conv3_1
I0615 17:29:43.063755 17675 net.cpp:411] conv3_2 -> conv3_2
I0615 17:29:43.065733 17675 net.cpp:150] Setting up conv3_2
I0615 17:29:43.065743 17675 net.cpp:157] Top shape: 1 256 150 250 (9600000)
I0615 17:29:43.065747 17675 net.cpp:165] Memory required for data: 1116000108
I0615 17:29:43.065765 17675 layer_factory.hpp:77] Creating layer relu3_2
I0615 17:29:43.065773 17675 net.cpp:106] Creating Layer relu3_2
I0615 17:29:43.065778 17675 net.cpp:454] relu3_2 <- conv3_2
I0615 17:29:43.065783 17675 net.cpp:397] relu3_2 -> conv3_2 (in-place)
I0615 17:29:43.065920 17675 net.cpp:150] Setting up relu3_2
I0615 17:29:43.065928 17675 net.cpp:157] Top shape: 1 256 150 250 (9600000)
I0615 17:29:43.065932 17675 net.cpp:165] Memory required for data: 1154400108
I0615 17:29:43.065945 17675 layer_factory.hpp:77] Creating layer conv3_3
I0615 17:29:43.065954 17675 net.cpp:106] Creating Layer conv3_3
I0615 17:29:43.065959 17675 net.cpp:454] conv3_3 <- conv3_2
I0615 17:29:43.065965 17675 net.cpp:411] conv3_3 -> conv3_3
I0615 17:29:43.068208 17675 net.cpp:150] Setting up conv3_3
I0615 17:29:43.068228 17675 net.cpp:157] Top shape: 1 256 150 250 (9600000)
I0615 17:29:43.068231 17675 net.cpp:165] Memory required for data: 1192800108
I0615 17:29:43.068250 17675 layer_factory.hpp:77] Creating layer relu3_3
I0615 17:29:43.068261 17675 net.cpp:106] Creating Layer relu3_3
I0615 17:29:43.068269 17675 net.cpp:454] relu3_3 <- conv3_3
I0615 17:29:43.068284 17675 net.cpp:397] relu3_3 -> conv3_3 (in-place)
I0615 17:29:43.068428 17675 net.cpp:150] Setting up relu3_3
I0615 17:29:43.068435 17675 net.cpp:157] Top shape: 1 256 150 250 (9600000)
I0615 17:29:43.068439 17675 net.cpp:165] Memory required for data: 1231200108
I0615 17:29:43.068442 17675 layer_factory.hpp:77] Creating layer pool3
I0615 17:29:43.068461 17675 net.cpp:106] Creating Layer pool3
I0615 17:29:43.068467 17675 net.cpp:454] pool3 <- conv3_3
I0615 17:29:43.068473 17675 net.cpp:411] pool3 -> pool3
I0615 17:29:43.068523 17675 net.cpp:150] Setting up pool3
I0615 17:29:43.068528 17675 net.cpp:157] Top shape: 1 256 75 125 (2400000)
I0615 17:29:43.068531 17675 net.cpp:165] Memory required for data: 1240800108
I0615 17:29:43.068536 17675 layer_factory.hpp:77] Creating layer conv4_1
I0615 17:29:43.068557 17675 net.cpp:106] Creating Layer conv4_1
I0615 17:29:43.068560 17675 net.cpp:454] conv4_1 <- pool3
I0615 17:29:43.068568 17675 net.cpp:411] conv4_1 -> conv4_1
I0615 17:29:43.075959 17675 net.cpp:150] Setting up conv4_1
I0615 17:29:43.075983 17675 net.cpp:157] Top shape: 1 512 75 125 (4800000)
I0615 17:29:43.075986 17675 net.cpp:165] Memory required for data: 1260000108
I0615 17:29:43.075999 17675 layer_factory.hpp:77] Creating layer relu4_1
I0615 17:29:43.076012 17675 net.cpp:106] Creating Layer relu4_1
I0615 17:29:43.076018 17675 net.cpp:454] relu4_1 <- conv4_1
I0615 17:29:43.076026 17675 net.cpp:397] relu4_1 -> conv4_1 (in-place)
I0615 17:29:43.076246 17675 net.cpp:150] Setting up relu4_1
I0615 17:29:43.076256 17675 net.cpp:157] Top shape: 1 512 75 125 (4800000)
I0615 17:29:43.076259 17675 net.cpp:165] Memory required for data: 1279200108
I0615 17:29:43.076263 17675 layer_factory.hpp:77] Creating layer conv4_2
I0615 17:29:43.076275 17675 net.cpp:106] Creating Layer conv4_2
I0615 17:29:43.076295 17675 net.cpp:454] conv4_2 <- conv4_1
I0615 17:29:43.076305 17675 net.cpp:411] conv4_2 -> conv4_2
I0615 17:29:43.081454 17675 net.cpp:150] Setting up conv4_2
I0615 17:29:43.081487 17675 net.cpp:157] Top shape: 1 512 75 125 (4800000)
I0615 17:29:43.081501 17675 net.cpp:165] Memory required for data: 1298400108
I0615 17:29:43.081516 17675 layer_factory.hpp:77] Creating layer relu4_2
I0615 17:29:43.081537 17675 net.cpp:106] Creating Layer relu4_2
I0615 17:29:43.081553 17675 net.cpp:454] relu4_2 <- conv4_2
I0615 17:29:43.081560 17675 net.cpp:397] relu4_2 -> conv4_2 (in-place)
I0615 17:29:43.082229 17675 net.cpp:150] Setting up relu4_2
I0615 17:29:43.082240 17675 net.cpp:157] Top shape: 1 512 75 125 (4800000)
I0615 17:29:43.082244 17675 net.cpp:165] Memory required for data: 1317600108
I0615 17:29:43.082259 17675 layer_factory.hpp:77] Creating layer conv4_3
I0615 17:29:43.082270 17675 net.cpp:106] Creating Layer conv4_3
I0615 17:29:43.082274 17675 net.cpp:454] conv4_3 <- conv4_2
I0615 17:29:43.082290 17675 net.cpp:411] conv4_3 -> conv4_3
I0615 17:29:43.086767 17675 net.cpp:150] Setting up conv4_3
I0615 17:29:43.086786 17675 net.cpp:157] Top shape: 1 512 75 125 (4800000)
I0615 17:29:43.086789 17675 net.cpp:165] Memory required for data: 1336800108
I0615 17:29:43.086807 17675 layer_factory.hpp:77] Creating layer relu4_3
I0615 17:29:43.086817 17675 net.cpp:106] Creating Layer relu4_3
I0615 17:29:43.086833 17675 net.cpp:454] relu4_3 <- conv4_3
I0615 17:29:43.086839 17675 net.cpp:397] relu4_3 -> conv4_3 (in-place)
I0615 17:29:43.086964 17675 net.cpp:150] Setting up relu4_3
I0615 17:29:43.086971 17675 net.cpp:157] Top shape: 1 512 75 125 (4800000)
I0615 17:29:43.086973 17675 net.cpp:165] Memory required for data: 1356000108
I0615 17:29:43.086975 17675 layer_factory.hpp:77] Creating layer pool4
I0615 17:29:43.086982 17675 net.cpp:106] Creating Layer pool4
I0615 17:29:43.086984 17675 net.cpp:454] pool4 <- conv4_3
I0615 17:29:43.086988 17675 net.cpp:411] pool4 -> pool4
I0615 17:29:43.087029 17675 net.cpp:150] Setting up pool4
I0615 17:29:43.087035 17675 net.cpp:157] Top shape: 1 512 38 63 (1225728)
I0615 17:29:43.087038 17675 net.cpp:165] Memory required for data: 1360903020
I0615 17:29:43.087039 17675 layer_factory.hpp:77] Creating layer conv5_1
I0615 17:29:43.087045 17675 net.cpp:106] Creating Layer conv5_1
I0615 17:29:43.087049 17675 net.cpp:454] conv5_1 <- pool4
I0615 17:29:43.087054 17675 net.cpp:411] conv5_1 -> conv5_1
I0615 17:29:43.091615 17675 net.cpp:150] Setting up conv5_1
I0615 17:29:43.091640 17675 net.cpp:157] Top shape: 1 512 38 63 (1225728)
I0615 17:29:43.091643 17675 net.cpp:165] Memory required for data: 1365805932
I0615 17:29:43.091650 17675 layer_factory.hpp:77] Creating layer relu5_1
I0615 17:29:43.091658 17675 net.cpp:106] Creating Layer relu5_1
I0615 17:29:43.091663 17675 net.cpp:454] relu5_1 <- conv5_1
I0615 17:29:43.091671 17675 net.cpp:397] relu5_1 -> conv5_1 (in-place)
I0615 17:29:43.091810 17675 net.cpp:150] Setting up relu5_1
I0615 17:29:43.091816 17675 net.cpp:157] Top shape: 1 512 38 63 (1225728)
I0615 17:29:43.091828 17675 net.cpp:165] Memory required for data: 1370708844
I0615 17:29:43.091831 17675 layer_factory.hpp:77] Creating layer conv5_2
I0615 17:29:43.091841 17675 net.cpp:106] Creating Layer conv5_2
I0615 17:29:43.091845 17675 net.cpp:454] conv5_2 <- conv5_1
I0615 17:29:43.091852 17675 net.cpp:411] conv5_2 -> conv5_2
I0615 17:29:43.096827 17675 net.cpp:150] Setting up conv5_2
I0615 17:29:43.096845 17675 net.cpp:157] Top shape: 1 512 38 63 (1225728)
I0615 17:29:43.096848 17675 net.cpp:165] Memory required for data: 1375611756
I0615 17:29:43.096873 17675 layer_factory.hpp:77] Creating layer relu5_2
I0615 17:29:43.096879 17675 net.cpp:106] Creating Layer relu5_2
I0615 17:29:43.096884 17675 net.cpp:454] relu5_2 <- conv5_2
I0615 17:29:43.096891 17675 net.cpp:397] relu5_2 -> conv5_2 (in-place)
I0615 17:29:43.097038 17675 net.cpp:150] Setting up relu5_2
I0615 17:29:43.097044 17675 net.cpp:157] Top shape: 1 512 38 63 (1225728)
I0615 17:29:43.097046 17675 net.cpp:165] Memory required for data: 1380514668
I0615 17:29:43.097048 17675 layer_factory.hpp:77] Creating layer conv5_3
I0615 17:29:43.097059 17675 net.cpp:106] Creating Layer conv5_3
I0615 17:29:43.097062 17675 net.cpp:454] conv5_3 <- conv5_2
I0615 17:29:43.097067 17675 net.cpp:411] conv5_3 -> conv5_3
I0615 17:29:43.101878 17675 net.cpp:150] Setting up conv5_3
I0615 17:29:43.101897 17675 net.cpp:157] Top shape: 1 512 38 63 (1225728)
I0615 17:29:43.101900 17675 net.cpp:165] Memory required for data: 1385417580
I0615 17:29:43.101909 17675 layer_factory.hpp:77] Creating layer relu5_3
I0615 17:29:43.101920 17675 net.cpp:106] Creating Layer relu5_3
I0615 17:29:43.101927 17675 net.cpp:454] relu5_3 <- conv5_3
I0615 17:29:43.101938 17675 net.cpp:397] relu5_3 -> conv5_3 (in-place)
I0615 17:29:43.102082 17675 net.cpp:150] Setting up relu5_3
I0615 17:29:43.102089 17675 net.cpp:157] Top shape: 1 512 38 63 (1225728)
I0615 17:29:43.102092 17675 net.cpp:165] Memory required for data: 1390320492
I0615 17:29:43.102097 17675 layer_factory.hpp:77] Creating layer conv5_3_relu5_3_0_split
I0615 17:29:43.102105 17675 net.cpp:106] Creating Layer conv5_3_relu5_3_0_split
I0615 17:29:43.102110 17675 net.cpp:454] conv5_3_relu5_3_0_split <- conv5_3
I0615 17:29:43.102118 17675 net.cpp:411] conv5_3_relu5_3_0_split -> conv5_3_relu5_3_0_split_0
I0615 17:29:43.102126 17675 net.cpp:411] conv5_3_relu5_3_0_split -> conv5_3_relu5_3_0_split_1
I0615 17:29:43.102133 17675 net.cpp:411] conv5_3_relu5_3_0_split -> conv5_3_relu5_3_0_split_2
I0615 17:29:43.102185 17675 net.cpp:150] Setting up conv5_3_relu5_3_0_split
I0615 17:29:43.102191 17675 net.cpp:157] Top shape: 1 512 38 63 (1225728)
I0615 17:29:43.102193 17675 net.cpp:157] Top shape: 1 512 38 63 (1225728)
I0615 17:29:43.102200 17675 net.cpp:157] Top shape: 1 512 38 63 (1225728)
I0615 17:29:43.102202 17675 net.cpp:165] Memory required for data: 1405029228
I0615 17:29:43.102207 17675 layer_factory.hpp:77] Creating layer rpn_conv/3x3
I0615 17:29:43.102223 17675 net.cpp:106] Creating Layer rpn_conv/3x3
I0615 17:29:43.102228 17675 net.cpp:454] rpn_conv/3x3 <- conv5_3_relu5_3_0_split_0
I0615 17:29:43.102237 17675 net.cpp:411] rpn_conv/3x3 -> rpn/output
I0615 17:29:43.155601 17675 net.cpp:150] Setting up rpn_conv/3x3
I0615 17:29:43.155620 17675 net.cpp:157] Top shape: 1 512 38 63 (1225728)
I0615 17:29:43.155639 17675 net.cpp:165] Memory required for data: 1409932140
I0615 17:29:43.155647 17675 layer_factory.hpp:77] Creating layer rpn_relu/3x3
I0615 17:29:43.155656 17675 net.cpp:106] Creating Layer rpn_relu/3x3
I0615 17:29:43.155663 17675 net.cpp:454] rpn_relu/3x3 <- rpn/output
I0615 17:29:43.155669 17675 net.cpp:397] rpn_relu/3x3 -> rpn/output (in-place)
I0615 17:29:43.155819 17675 net.cpp:150] Setting up rpn_relu/3x3
I0615 17:29:43.155827 17675 net.cpp:157] Top shape: 1 512 38 63 (1225728)
I0615 17:29:43.155828 17675 net.cpp:165] Memory required for data: 1414835052
I0615 17:29:43.155831 17675 layer_factory.hpp:77] Creating layer rpn/output_rpn_relu/3x3_0_split
I0615 17:29:43.155836 17675 net.cpp:106] Creating Layer rpn/output_rpn_relu/3x3_0_split
I0615 17:29:43.155838 17675 net.cpp:454] rpn/output_rpn_relu/3x3_0_split <- rpn/output
I0615 17:29:43.155853 17675 net.cpp:411] rpn/output_rpn_relu/3x3_0_split -> rpn/output_rpn_relu/3x3_0_split_0
I0615 17:29:43.155860 17675 net.cpp:411] rpn/output_rpn_relu/3x3_0_split -> rpn/output_rpn_relu/3x3_0_split_1
I0615 17:29:43.155930 17675 net.cpp:150] Setting up rpn/output_rpn_relu/3x3_0_split
I0615 17:29:43.155937 17675 net.cpp:157] Top shape: 1 512 38 63 (1225728)
I0615 17:29:43.155952 17675 net.cpp:157] Top shape: 1 512 38 63 (1225728)
I0615 17:29:43.155956 17675 net.cpp:165] Memory required for data: 1424640876
I0615 17:29:43.155961 17675 layer_factory.hpp:77] Creating layer rpn_cls_score
I0615 17:29:43.155974 17675 net.cpp:106] Creating Layer rpn_cls_score
I0615 17:29:43.155988 17675 net.cpp:454] rpn_cls_score <- rpn/output_rpn_relu/3x3_0_split_0
I0615 17:29:43.155997 17675 net.cpp:411] rpn_cls_score -> rpn_cls_score
I0615 17:29:43.157703 17675 net.cpp:150] Setting up rpn_cls_score
I0615 17:29:43.157711 17675 net.cpp:157] Top shape: 1 30 38 63 (71820)
I0615 17:29:43.157714 17675 net.cpp:165] Memory required for data: 1424928156
I0615 17:29:43.157729 17675 layer_factory.hpp:77] Creating layer rpn_cls_score_rpn_cls_score_0_split
I0615 17:29:43.157737 17675 net.cpp:106] Creating Layer rpn_cls_score_rpn_cls_score_0_split
I0615 17:29:43.157742 17675 net.cpp:454] rpn_cls_score_rpn_cls_score_0_split <- rpn_cls_score
I0615 17:29:43.157750 17675 net.cpp:411] rpn_cls_score_rpn_cls_score_0_split -> rpn_cls_score_rpn_cls_score_0_split_0
I0615 17:29:43.157761 17675 net.cpp:411] rpn_cls_score_rpn_cls_score_0_split -> rpn_cls_score_rpn_cls_score_0_split_1
I0615 17:29:43.157810 17675 net.cpp:150] Setting up rpn_cls_score_rpn_cls_score_0_split
I0615 17:29:43.157816 17675 net.cpp:157] Top shape: 1 30 38 63 (71820)
I0615 17:29:43.157819 17675 net.cpp:157] Top shape: 1 30 38 63 (71820)
I0615 17:29:43.157832 17675 net.cpp:165] Memory required for data: 1425502716
I0615 17:29:43.157835 17675 layer_factory.hpp:77] Creating layer rpn_bbox_pred
I0615 17:29:43.157846 17675 net.cpp:106] Creating Layer rpn_bbox_pred
I0615 17:29:43.157851 17675 net.cpp:454] rpn_bbox_pred <- rpn/output_rpn_relu/3x3_0_split_1
I0615 17:29:43.157869 17675 net.cpp:411] rpn_bbox_pred -> rpn_bbox_pred
I0615 17:29:43.159592 17675 net.cpp:150] Setting up rpn_bbox_pred
I0615 17:29:43.159610 17675 net.cpp:157] Top shape: 1 60 38 63 (143640)
I0615 17:29:43.159613 17675 net.cpp:165] Memory required for data: 1426077276
I0615 17:29:43.159618 17675 layer_factory.hpp:77] Creating layer rpn_bbox_pred_rpn_bbox_pred_0_split
I0615 17:29:43.159626 17675 net.cpp:106] Creating Layer rpn_bbox_pred_rpn_bbox_pred_0_split
I0615 17:29:43.159631 17675 net.cpp:454] rpn_bbox_pred_rpn_bbox_pred_0_split <- rpn_bbox_pred
I0615 17:29:43.159638 17675 net.cpp:411] rpn_bbox_pred_rpn_bbox_pred_0_split -> rpn_bbox_pred_rpn_bbox_pred_0_split_0
I0615 17:29:43.159648 17675 net.cpp:411] rpn_bbox_pred_rpn_bbox_pred_0_split -> rpn_bbox_pred_rpn_bbox_pred_0_split_1
I0615 17:29:43.159730 17675 net.cpp:150] Setting up rpn_bbox_pred_rpn_bbox_pred_0_split
I0615 17:29:43.159745 17675 net.cpp:157] Top shape: 1 60 38 63 (143640)
I0615 17:29:43.159749 17675 net.cpp:157] Top shape: 1 60 38 63 (143640)
I0615 17:29:43.159750 17675 net.cpp:165] Memory required for data: 1427226396
I0615 17:29:43.159752 17675 layer_factory.hpp:77] Creating layer rpn_cls_score_reshape
I0615 17:29:43.159767 17675 net.cpp:106] Creating Layer rpn_cls_score_reshape
I0615 17:29:43.159770 17675 net.cpp:454] rpn_cls_score_reshape <- rpn_cls_score_rpn_cls_score_0_split_0
I0615 17:29:43.159788 17675 net.cpp:411] rpn_cls_score_reshape -> rpn_cls_score_reshape
I0615 17:29:43.159833 17675 net.cpp:150] Setting up rpn_cls_score_reshape
I0615 17:29:43.159842 17675 net.cpp:157] Top shape: 1 2 570 63 (71820)
I0615 17:29:43.159855 17675 net.cpp:165] Memory required for data: 1427513676
I0615 17:29:43.159858 17675 layer_factory.hpp:77] Creating layer rpn_cls_score_reshape_rpn_cls_score_reshape_0_split
I0615 17:29:43.159873 17675 net.cpp:106] Creating Layer rpn_cls_score_reshape_rpn_cls_score_reshape_0_split
I0615 17:29:43.159876 17675 net.cpp:454] rpn_cls_score_reshape_rpn_cls_score_reshape_0_split <- rpn_cls_score_reshape
I0615 17:29:43.159880 17675 net.cpp:411] rpn_cls_score_reshape_rpn_cls_score_reshape_0_split -> rpn_cls_score_reshape_rpn_cls_score_reshape_0_split_0
I0615 17:29:43.159883 17675 net.cpp:411] rpn_cls_score_reshape_rpn_cls_score_reshape_0_split -> rpn_cls_score_reshape_rpn_cls_score_reshape_0_split_1
I0615 17:29:43.159929 17675 net.cpp:150] Setting up rpn_cls_score_reshape_rpn_cls_score_reshape_0_split
I0615 17:29:43.159934 17675 net.cpp:157] Top shape: 1 2 570 63 (71820)
I0615 17:29:43.159945 17675 net.cpp:157] Top shape: 1 2 570 63 (71820)
I0615 17:29:43.159947 17675 net.cpp:165] Memory required for data: 1428088236
I0615 17:29:43.159950 17675 layer_factory.hpp:77] Creating layer rpn-data
I0615 17:29:43.160320 17675 net.cpp:106] Creating Layer rpn-data
I0615 17:29:43.160328 17675 net.cpp:454] rpn-data <- rpn_cls_score_rpn_cls_score_0_split_1
I0615 17:29:43.160343 17675 net.cpp:454] rpn-data <- gt_boxes_input-data_2_split_0
I0615 17:29:43.160346 17675 net.cpp:454] rpn-data <- im_info_input-data_1_split_0
I0615 17:29:43.160351 17675 net.cpp:454] rpn-data <- data_input-data_0_split_1
I0615 17:29:43.160356 17675 net.cpp:411] rpn-data -> rpn_labels
I0615 17:29:43.160360 17675 net.cpp:411] rpn-data -> rpn_bbox_targets
I0615 17:29:43.160365 17675 net.cpp:411] rpn-data -> rpn_bbox_inside_weights
I0615 17:29:43.160370 17675 net.cpp:411] rpn-data -> rpn_bbox_outside_weights
===================================anchor_scales in AnchorTargetLayer:=============(2, 4, 8, 16, 32)
I0615 17:29:43.161240 17675 net.cpp:150] Setting up rpn-data
I0615 17:29:43.161248 17675 net.cpp:157] Top shape: 1 1 570 63 (35910)
I0615 17:29:43.161252 17675 net.cpp:157] Top shape: 1 60 38 63 (143640)
I0615 17:29:43.161253 17675 net.cpp:157] Top shape: 1 60 38 63 (143640)
I0615 17:29:43.161257 17675 net.cpp:157] Top shape: 1 60 38 63 (143640)
I0615 17:29:43.161258 17675 net.cpp:165] Memory required for data: 1429955556
I0615 17:29:43.161262 17675 layer_factory.hpp:77] Creating layer rpn_loss_cls
I0615 17:29:43.161278 17675 net.cpp:106] Creating Layer rpn_loss_cls
I0615 17:29:43.161281 17675 net.cpp:454] rpn_loss_cls <- rpn_cls_score_reshape_rpn_cls_score_reshape_0_split_0
I0615 17:29:43.161284 17675 net.cpp:454] rpn_loss_cls <- rpn_labels
…
I0615 17:29:43.163286 17675 net.cpp:157] Top shape: (1)
I0615 17:29:43.163290 17675 net.cpp:160]     with loss weight 1
I0615 17:29:43.163307 17675 net.cpp:165] Memory required for data: 1429955564
I0615 17:29:43.163311 17675 layer_factory.hpp:77] Creating layer rpn_cls_prob
I0615 17:29:43.163324 17675 net.cpp:106] Creating Layer rpn_cls_prob
I0615 17:29:43.163327 17675 net.cpp:454] rpn_cls_prob <- rpn_cls_score_reshape_rpn_cls_score_reshape_0_split_1
I0615 17:29:43.163341 17675 net.cpp:411] rpn_cls_prob -> rpn_cls_prob
I0615 17:29:43.163548 17675 net.cpp:150] Setting up rpn_cls_prob
I0615 17:29:43.163554 17675 net.cpp:157] Top shape: 1 2 570 63 (71820)
I0615 17:29:43.163566 17675 net.cpp:165] Memory required for data: 1430242844
I0615 17:29:43.163568 17675 layer_factory.hpp:77] Creating layer rpn_cls_prob_reshape
I0615 17:29:43.163573 17675 net.cpp:106] Creating Layer rpn_cls_prob_reshape
I0615 17:29:43.163576 17675 net.cpp:454] rpn_cls_prob_reshape <- rpn_cls_prob
I0615 17:29:43.163580 17675 net.cpp:411] rpn_cls_prob_reshape -> rpn_cls_prob_reshape
I0615 17:29:43.163609 17675 net.cpp:150] Setting up rpn_cls_prob_reshape
I0615 17:29:43.163614 17675 net.cpp:157] Top shape: 1 30 38 63 (71820)
I0615 17:29:43.163614 17675 net.cpp:165] Memory required for data: 1430530124
I0615 17:29:43.163616 17675 layer_factory.hpp:77] Creating layer proposal
I0615 17:29:43.164086 17675 net.cpp:106] Creating Layer proposal
I0615 17:29:43.164094 17675 net.cpp:454] proposal <- rpn_cls_prob_reshape
I0615 17:29:43.164098 17675 net.cpp:454] proposal <- rpn_bbox_pred_rpn_bbox_pred_0_split_1
I0615 17:29:43.164101 17675 net.cpp:454] proposal <- im_info_input-data_1_split_1
I0615 17:29:43.164105 17675 net.cpp:411] proposal -> rpn_rois
=================================anchor_scales in ProposalLayer:=============(2, 4, 8, 16, 32)
I0615 17:29:43.164867 17675 net.cpp:150] Setting up proposal
I0615 17:29:43.164875 17675 net.cpp:157] Top shape: 1 5 (5)
I0615 17:29:43.164878 17675 net.cpp:165] Memory required for data: 1430530144
I0615 17:29:43.164880 17675 layer_factory.hpp:77] Creating layer roi-data
I0615 17:29:43.165086 17675 net.cpp:106] Creating Layer roi-data
I0615 17:29:43.165093 17675 net.cpp:454] roi-data <- rpn_rois
I0615 17:29:43.165097 17675 net.cpp:454] roi-data <- gt_boxes_input-data_2_split_1
I0615 17:29:43.165100 17675 net.cpp:454] roi-data <- im_info_input-data_1_split_2
I0615 17:29:43.165102 17675 net.cpp:454] roi-data <- seg_mask_inds
I0615 17:29:43.165105 17675 net.cpp:454] roi-data <- flipped
I0615 17:29:43.165118 17675 net.cpp:411] roi-data -> rois
I0615 17:29:43.165125 17675 net.cpp:411] roi-data -> labels
I0615 17:29:43.165130 17675 net.cpp:411] roi-data -> bbox_targets
I0615 17:29:43.165135 17675 net.cpp:411] roi-data -> bbox_inside_weights
I0615 17:29:43.165139 17675 net.cpp:411] roi-data -> bbox_outside_weights
I0615 17:29:43.165144 17675 net.cpp:411] roi-data -> mask_targets
I0615 17:29:43.165148 17675 net.cpp:411] roi-data -> rois_pos
I0615 17:29:43.165153 17675 net.cpp:411] roi-data -> attrArray
I0615 17:29:43.165156 17675 net.cpp:411] roi-data -> attrArrayInd
I0615 17:29:43.165161 17675 net.cpp:411] roi-data -> attrArrayShift
I0615 17:29:43.165460 17675 net.cpp:150] Setting up roi-data
I0615 17:29:43.165468 17675 net.cpp:157] Top shape: 1 5 (5)
I0615 17:29:43.165480 17675 net.cpp:157] Top shape: 1 1 (1)
I0615 17:29:43.165482 17675 net.cpp:157] Top shape: 1 8 (8)
I0615 17:29:43.165485 17675 net.cpp:157] Top shape: 1 8 (8)
I0615 17:29:43.165488 17675 net.cpp:157] Top shape: 1 8 (8)
I0615 17:29:43.165490 17675 net.cpp:157] Top shape: 1 244 244 (59536)
I0615 17:29:43.165493 17675 net.cpp:157] Top shape: 1 5 (5)
I0615 17:29:43.165496 17675 net.cpp:157] Top shape: 1 7 (7)
I0615 17:29:43.165499 17675 net.cpp:157] Top shape: 1 7 (7)
I0615 17:29:43.165501 17675 net.cpp:157] Top shape: 1 7 (7)
I0615 17:29:43.165504 17675 net.cpp:165] Memory required for data: 1430768512
I0615 17:29:43.165506 17675 layer_factory.hpp:77] Creating layer roi_pool5
I0615 17:29:43.165516 17675 net.cpp:106] Creating Layer roi_pool5
I0615 17:29:43.165520 17675 net.cpp:454] roi_pool5 <- conv5_3_relu5_3_0_split_1
I0615 17:29:43.165532 17675 net.cpp:454] roi_pool5 <- rois
I0615 17:29:43.165536 17675 net.cpp:411] roi_pool5 -> pool5
I0615 17:29:43.165540 17675 roi_alignment_layer.cpp:32] Spatial scale: 0.0625
I0615 17:29:43.165624 17675 net.cpp:150] Setting up roi_pool5
I0615 17:29:43.165628 17675 net.cpp:157] Top shape: 1 512 7 7 (25088)
I0615 17:29:43.165640 17675 net.cpp:165] Memory required for data: 1430868864
I0615 17:29:43.165642 17675 layer_factory.hpp:77] Creating layer fc6
I0615 17:29:43.165647 17675 net.cpp:106] Creating Layer fc6
I0615 17:29:43.165649 17675 net.cpp:454] fc6 <- pool5
I0615 17:29:43.165654 17675 net.cpp:411] fc6 -> fc6
I0615 17:29:43.306556 17675 net.cpp:150] Setting up fc6
I0615 17:29:43.306581 17675 net.cpp:157] Top shape: 1 4096 (4096)
I0615 17:29:43.306584 17675 net.cpp:165] Memory required for data: 1430885248
I0615 17:29:43.306609 17675 layer_factory.hpp:77] Creating layer relu6
I0615 17:29:43.306620 17675 net.cpp:106] Creating Layer relu6
I0615 17:29:43.306629 17675 net.cpp:454] relu6 <- fc6
I0615 17:29:43.306636 17675 net.cpp:397] relu6 -> fc6 (in-place)
I0615 17:29:43.306855 17675 net.cpp:150] Setting up relu6
I0615 17:29:43.306864 17675 net.cpp:157] Top shape: 1 4096 (4096)
I0615 17:29:43.306866 17675 net.cpp:165] Memory required for data: 1430901632
I0615 17:29:43.306869 17675 layer_factory.hpp:77] Creating layer fc7
I0615 17:29:43.306874 17675 net.cpp:106] Creating Layer fc7
I0615 17:29:43.306879 17675 net.cpp:454] fc7 <- fc6
I0615 17:29:43.306882 17675 net.cpp:411] fc7 -> fc7
I0615 17:29:43.332257 17675 net.cpp:150] Setting up fc7
I0615 17:29:43.332289 17675 net.cpp:157] Top shape: 1 4096 (4096)
I0615 17:29:43.332293 17675 net.cpp:165] Memory required for data: 1430918016
I0615 17:29:43.332301 17675 layer_factory.hpp:77] Creating layer relu7
I0615 17:29:43.332321 17675 net.cpp:106] Creating Layer relu7
I0615 17:29:43.332327 17675 net.cpp:454] relu7 <- fc7
I0615 17:29:43.332334 17675 net.cpp:397] relu7 -> fc7 (in-place)
I0615 17:29:43.332568 17675 net.cpp:150] Setting up relu7
I0615 17:29:43.332577 17675 net.cpp:157] Top shape: 1 4096 (4096)
I0615 17:29:43.332579 17675 net.cpp:165] Memory required for data: 1430934400
I0615 17:29:43.332582 17675 layer_factory.hpp:77] Creating layer fc7_relu7_0_split
I0615 17:29:43.332587 17675 net.cpp:106] Creating Layer fc7_relu7_0_split
I0615 17:29:43.332590 17675 net.cpp:454] fc7_relu7_0_split <- fc7
I0615 17:29:43.332594 17675 net.cpp:411] fc7_relu7_0_split -> fc7_relu7_0_split_0
I0615 17:29:43.332609 17675 net.cpp:411] fc7_relu7_0_split -> fc7_relu7_0_split_1
I0615 17:29:43.332613 17675 net.cpp:411] fc7_relu7_0_split -> fc7_relu7_0_split_2
I0615 17:29:43.332686 17675 net.cpp:150] Setting up fc7_relu7_0_split
I0615 17:29:43.332690 17675 net.cpp:157] Top shape: 1 4096 (4096)
I0615 17:29:43.332703 17675 net.cpp:157] Top shape: 1 4096 (4096)
I0615 17:29:43.332705 17675 net.cpp:157] Top shape: 1 4096 (4096)
I0615 17:29:43.332707 17675 net.cpp:165] Memory required for data: 1430983552
I0615 17:29:43.332710 17675 layer_factory.hpp:77] Creating layer attr_score
I0615 17:29:43.332725 17675 net.cpp:106] Creating Layer attr_score
I0615 17:29:43.332729 17675 net.cpp:454] attr_score <- fc7_relu7_0_split_0
I0615 17:29:43.332744 17675 net.cpp:411] attr_score -> attr_score
I0615 17:29:43.333439 17675 net.cpp:150] Setting up attr_score
I0615 17:29:43.333446 17675 net.cpp:157] Top shape: 1 7 (7)
I0615 17:29:43.333448 17675 net.cpp:165] Memory required for data: 1430983580
I0615 17:29:43.333453 17675 layer_factory.hpp:77] Creating layer attr_score_pos
I0615 17:29:43.333458 17675 net.cpp:106] Creating Layer attr_score_pos
I0615 17:29:43.333461 17675 net.cpp:454] attr_score_pos <- attr_score
I0615 17:29:43.333464 17675 net.cpp:454] attr_score_pos <- attrArrayInd
I0615 17:29:43.333472 17675 net.cpp:411] attr_score_pos -> attr_score_pos
I0615 17:29:43.333500 17675 net.cpp:150] Setting up attr_score_pos
I0615 17:29:43.333513 17675 net.cpp:157] Top shape: 1 7 (7)
I0615 17:29:43.333515 17675 net.cpp:165] Memory required for data: 1430983608
I0615 17:29:43.333518 17675 layer_factory.hpp:77] Creating layer attr_score_pos_shift
I0615 17:29:43.333532 17675 net.cpp:106] Creating Layer attr_score_pos_shift
I0615 17:29:43.333535 17675 net.cpp:454] attr_score_pos_shift <- attr_score_pos
I0615 17:29:43.333537 17675 net.cpp:454] attr_score_pos_shift <- attrArrayShift
I0615 17:29:43.333540 17675 net.cpp:411] attr_score_pos_shift -> attr_score_pos_shift
I0615 17:29:43.333570 17675 net.cpp:150] Setting up attr_score_pos_shift
I0615 17:29:43.333586 17675 net.cpp:157] Top shape: 1 7 (7)
I0615 17:29:43.333588 17675 net.cpp:165] Memory required for data: 1430983636
I0615 17:29:43.333590 17675 layer_factory.hpp:77] Creating layer cls_score
I0615 17:29:43.333595 17675 net.cpp:106] Creating Layer cls_score
I0615 17:29:43.333597 17675 net.cpp:454] cls_score <- fc7_relu7_0_split_1
I0615 17:29:43.333601 17675 net.cpp:411] cls_score -> cls_score
I0615 17:29:43.333858 17675 net.cpp:150] Setting up cls_score
I0615 17:29:43.333863 17675 net.cpp:157] Top shape: 1 2 (2)
I0615 17:29:43.333864 17675 net.cpp:165] Memory required for data: 1430983644
I0615 17:29:43.333868 17675 layer_factory.hpp:77] Creating layer bbox_pred
I0615 17:29:43.333871 17675 net.cpp:106] Creating Layer bbox_pred
I0615 17:29:43.333873 17675 net.cpp:454] bbox_pred <- fc7_relu7_0_split_2
I0615 17:29:43.333878 17675 net.cpp:411] bbox_pred -> bbox_pred
I0615 17:29:43.334623 17675 net.cpp:150] Setting up bbox_pred
I0615 17:29:43.334627 17675 net.cpp:157] Top shape: 1 8 (8)
I0615 17:29:43.334630 17675 net.cpp:165] Memory required for data: 1430983676
I0615 17:29:43.334632 17675 layer_factory.hpp:77] Creating layer loss_attribute
I0615 17:29:43.334638 17675 net.cpp:106] Creating Layer loss_attribute
I0615 17:29:43.334640 17675 net.cpp:454] loss_attribute <- attr_score_pos_shift
I0615 17:29:43.334643 17675 net.cpp:454] loss_attribute <- attrArray
I0615 17:29:43.334646 17675 net.cpp:411] loss_attribute -> loss_attribute
…
I0615 17:29:43.335608 17675 net.cpp:165] Memory required for data: 1430983688
I0615 17:29:43.335609 17675 layer_factory.hpp:77] Creating layer roi_pool5_2
I0615 17:29:43.335614 17675 net.cpp:106] Creating Layer roi_pool5_2
I0615 17:29:43.335616 17675 net.cpp:454] roi_pool5_2 <- conv5_3_relu5_3_0_split_2
I0615 17:29:43.335633 17675 net.cpp:454] roi_pool5_2 <- rois_pos
I0615 17:29:43.335636 17675 net.cpp:411] roi_pool5_2 -> pool5_2
I0615 17:29:43.335654 17675 roi_alignment_layer.cpp:32] Spatial scale: 0.0625
I0615 17:29:43.335749 17675 net.cpp:150] Setting up roi_pool5_2
I0615 17:29:43.335753 17675 net.cpp:157] Top shape: 1 512 7 7 (25088)
I0615 17:29:43.335755 17675 net.cpp:165] Memory required for data: 1431084040
I0615 17:29:43.335768 17675 layer_factory.hpp:77] Creating layer pool5_2_conv
I0615 17:29:43.335777 17675 net.cpp:106] Creating Layer pool5_2_conv
I0615 17:29:43.335780 17675 net.cpp:454] pool5_2_conv <- pool5_2
I0615 17:29:43.335795 17675 net.cpp:411] pool5_2_conv -> pool5_2_conv
I0615 17:29:43.342659 17675 net.cpp:150] Setting up pool5_2_conv
I0615 17:29:43.342667 17675 net.cpp:157] Top shape: 1 512 7 7 (25088)
I0615 17:29:43.342670 17675 net.cpp:165] Memory required for data: 1431184392
I0615 17:29:43.342674 17675 layer_factory.hpp:77] Creating layer pool5_2_conv_relu
I0615 17:29:43.342679 17675 net.cpp:106] Creating Layer pool5_2_conv_relu
I0615 17:29:43.342681 17675 net.cpp:454] pool5_2_conv_relu <- pool5_2_conv
I0615 17:29:43.342698 17675 net.cpp:411] pool5_2_conv_relu -> pool5_2_conv_relu
I0615 17:29:43.342850 17675 net.cpp:150] Setting up pool5_2_conv_relu
I0615 17:29:43.342856 17675 net.cpp:157] Top shape: 1 512 7 7 (25088)
I0615 17:29:43.342859 17675 net.cpp:165] Memory required for data: 1431284744
I0615 17:29:43.342860 17675 layer_factory.hpp:77] Creating layer pool5_2_conv2
I0615 17:29:43.342867 17675 net.cpp:106] Creating Layer pool5_2_conv2
I0615 17:29:43.342870 17675 net.cpp:454] pool5_2_conv2 <- pool5_2_conv_relu
I0615 17:29:43.342875 17675 net.cpp:411] pool5_2_conv2 -> pool5_2_conv2
I0615 17:29:43.393941 17675 net.cpp:150] Setting up pool5_2_conv2
I0615 17:29:43.393959 17675 net.cpp:157] Top shape: 1 512 7 7 (25088)
I0615 17:29:43.393960 17675 net.cpp:165] Memory required for data: 1431385096
I0615 17:29:43.393967 17675 layer_factory.hpp:77] Creating layer pool5_2_conv2_relu
I0615 17:29:43.393976 17675 net.cpp:106] Creating Layer pool5_2_conv2_relu
I0615 17:29:43.393991 17675 net.cpp:454] pool5_2_conv2_relu <- pool5_2_conv2
I0615 17:29:43.393996 17675 net.cpp:411] pool5_2_conv2_relu -> pool5_2_conv2_relu
I0615 17:29:43.394171 17675 net.cpp:150] Setting up pool5_2_conv2_relu
I0615 17:29:43.394178 17675 net.cpp:157] Top shape: 1 512 7 7 (25088)
I0615 17:29:43.394181 17675 net.cpp:165] Memory required for data: 1431485448
I0615 17:29:43.394182 17675 layer_factory.hpp:77] Creating layer mask_deconv1
I0615 17:29:43.394191 17675 net.cpp:106] Creating Layer mask_deconv1
I0615 17:29:43.394193 17675 net.cpp:454] mask_deconv1 <- pool5_2_conv2_relu
I0615 17:29:43.394197 17675 net.cpp:411] mask_deconv1 -> mask_deconv1
I0615 17:29:43.395002 17675 net.cpp:150] Setting up mask_deconv1
I0615 17:29:43.395009 17675 net.cpp:157] Top shape: 1 256 30 30 (230400)
I0615 17:29:43.395010 17675 net.cpp:165] Memory required for data: 1432407048
I0615 17:29:43.395015 17675 layer_factory.hpp:77] Creating layer pool5_2_conv3
I0615 17:29:43.395021 17675 net.cpp:106] Creating Layer pool5_2_conv3
I0615 17:29:43.395023 17675 net.cpp:454] pool5_2_conv3 <- mask_deconv1
I0615 17:29:43.395037 17675 net.cpp:411] pool5_2_conv3 -> pool5_2_conv3
I0615 17:29:43.421617 17675 net.cpp:150] Setting up pool5_2_conv3
I0615 17:29:43.421633 17675 net.cpp:157] Top shape: 1 512 30 30 (460800)
I0615 17:29:43.421634 17675 net.cpp:165] Memory required for data: 1434250248
I0615 17:29:43.421641 17675 layer_factory.hpp:77] Creating layer pool5_2_conv3_relu
I0615 17:29:43.421648 17675 net.cpp:106] Creating Layer pool5_2_conv3_relu
I0615 17:29:43.421663 17675 net.cpp:454] pool5_2_conv3_relu <- pool5_2_conv3
I0615 17:29:43.421669 17675 net.cpp:411] pool5_2_conv3_relu -> pool5_2_conv3_relu
I0615 17:29:43.421830 17675 net.cpp:150] Setting up pool5_2_conv3_relu
I0615 17:29:43.421836 17675 net.cpp:157] Top shape: 1 512 30 30 (460800)
I0615 17:29:43.421838 17675 net.cpp:165] Memory required for data: 1436093448
I0615 17:29:43.421840 17675 layer_factory.hpp:77] Creating layer pool5_2_conv4
I0615 17:29:43.421850 17675 net.cpp:106] Creating Layer pool5_2_conv4
I0615 17:29:43.421864 17675 net.cpp:454] pool5_2_conv4 <- pool5_2_conv3_relu
I0615 17:29:43.421869 17675 net.cpp:411] pool5_2_conv4 -> pool5_2_conv4
I0615 17:29:43.473139 17675 net.cpp:150] Setting up pool5_2_conv4
I0615 17:29:43.473165 17675 net.cpp:157] Top shape: 1 512 30 30 (460800)
I0615 17:29:43.473167 17675 net.cpp:165] Memory required for data: 1437936648
I0615 17:29:43.473174 17675 layer_factory.hpp:77] Creating layer pool5_2_conv4_relu
I0615 17:29:43.473192 17675 net.cpp:106] Creating Layer pool5_2_conv4_relu
I0615 17:29:43.473197 17675 net.cpp:454] pool5_2_conv4_relu <- pool5_2_conv4
I0615 17:29:43.473204 17675 net.cpp:411] pool5_2_conv4_relu -> pool5_2_conv4_relu
I0615 17:29:43.473354 17675 net.cpp:150] Setting up pool5_2_conv4_relu
I0615 17:29:43.473361 17675 net.cpp:157] Top shape: 1 512 30 30 (460800)
I0615 17:29:43.473362 17675 net.cpp:165] Memory required for data: 1439779848
I0615 17:29:43.473366 17675 layer_factory.hpp:77] Creating layer pool5_2_conv4_relu_pool5_2_conv4_relu_0_split
I0615 17:29:43.473369 17675 net.cpp:106] Creating Layer pool5_2_conv4_relu_pool5_2_conv4_relu_0_split
I0615 17:29:43.473372 17675 net.cpp:454] pool5_2_conv4_relu_pool5_2_conv4_relu_0_split <- pool5_2_conv4_relu
I0615 17:29:43.473376 17675 net.cpp:411] pool5_2_conv4_relu_pool5_2_conv4_relu_0_split -> pool5_2_conv4_relu_pool5_2_conv4_relu_0_split_0
I0615 17:29:43.473379 17675 net.cpp:411] pool5_2_conv4_relu_pool5_2_conv4_relu_0_split -> pool5_2_conv4_relu_pool5_2_conv4_relu_0_split_1
I0615 17:29:43.473393 17675 net.cpp:411] pool5_2_conv4_relu_pool5_2_conv4_relu_0_split -> pool5_2_conv4_relu_pool5_2_conv4_relu_0_split_2
I0615 17:29:43.473397 17675 net.cpp:411] pool5_2_conv4_relu_pool5_2_conv4_relu_0_split -> pool5_2_conv4_relu_pool5_2_conv4_relu_0_split_3
I0615 17:29:43.473479 17675 net.cpp:150] Setting up pool5_2_conv4_relu_pool5_2_conv4_relu_0_split
I0615 17:29:43.473482 17675 net.cpp:157] Top shape: 1 512 30 30 (460800)
I0615 17:29:43.473484 17675 net.cpp:157] Top shape: 1 512 30 30 (460800)
I0615 17:29:43.473487 17675 net.cpp:157] Top shape: 1 512 30 30 (460800)
I0615 17:29:43.473489 17675 net.cpp:157] Top shape: 1 512 30 30 (460800)
I0615 17:29:43.473491 17675 net.cpp:165] Memory required for data: 1447152648
I0615 17:29:43.473493 17675 layer_factory.hpp:77] Creating layer query_conv
I0615 17:29:43.473502 17675 net.cpp:106] Creating Layer query_conv
I0615 17:29:43.473515 17675 net.cpp:454] query_conv <- pool5_2_conv4_relu_pool5_2_conv4_relu_0_split_0
I0615 17:29:43.473518 17675 net.cpp:411] query_conv -> query_conv
I0615 17:29:43.475059 17675 net.cpp:150] Setting up query_conv
I0615 17:29:43.475067 17675 net.cpp:157] Top shape: 1 64 30 30 (57600)
I0615 17:29:43.475080 17675 net.cpp:165] Memory required for data: 1447383048
I0615 17:29:43.475085 17675 layer_factory.hpp:77] Creating layer key_conv
I0615 17:29:43.475101 17675 net.cpp:106] Creating Layer key_conv
I0615 17:29:43.475106 17675 net.cpp:454] key_conv <- pool5_2_conv4_relu_pool5_2_conv4_relu_0_split_1
I0615 17:29:43.475113 17675 net.cpp:411] key_conv -> key_conv
I0615 17:29:43.476639 17675 net.cpp:150] Setting up key_conv
I0615 17:29:43.476649 17675 net.cpp:157] Top shape: 1 64 30 30 (57600)
I0615 17:29:43.476650 17675 net.cpp:165] Memory required for data: 1447613448
I0615 17:29:43.476655 17675 layer_factory.hpp:77] Creating layer value_conv
I0615 17:29:43.476661 17675 net.cpp:106] Creating Layer value_conv
I0615 17:29:43.476665 17675 net.cpp:454] value_conv <- pool5_2_conv4_relu_pool5_2_conv4_relu_0_split_2
I0615 17:29:43.476678 17675 net.cpp:411] value_conv -> value_conv
I0615 17:29:43.483397 17675 net.cpp:150] Setting up value_conv
I0615 17:29:43.483407 17675 net.cpp:157] Top shape: 1 512 30 30 (460800)
I0615 17:29:43.483409 17675 net.cpp:165] Memory required for data: 1449456648
I0615 17:29:43.483413 17675 layer_factory.hpp:77] Creating layer query_conv_reshape
I0615 17:29:43.483422 17675 net.cpp:106] Creating Layer query_conv_reshape
I0615 17:29:43.483424 17675 net.cpp:454] query_conv_reshape <- query_conv
I0615 17:29:43.483439 17675 net.cpp:411] query_conv_reshape -> query_conv_reshape
I0615 17:29:43.483479 17675 net.cpp:150] Setting up query_conv_reshape
I0615 17:29:43.483484 17675 net.cpp:157] Top shape: 1 64 900 1 (57600)
I0615 17:29:43.483485 17675 net.cpp:165] Memory required for data: 1449687048
I0615 17:29:43.483497 17675 layer_factory.hpp:77] Creating layer key_conv_reshape
I0615 17:29:43.483501 17675 net.cpp:106] Creating Layer key_conv_reshape
I0615 17:29:43.483505 17675 net.cpp:454] key_conv_reshape <- key_conv
I0615 17:29:43.483517 17675 net.cpp:411] key_conv_reshape -> key_conv_reshape
I0615 17:29:43.483547 17675 net.cpp:150] Setting up key_conv_reshape
I0615 17:29:43.483563 17675 net.cpp:157] Top shape: 1 64 900 1 (57600)
I0615 17:29:43.483566 17675 net.cpp:165] Memory required for data: 1449917448
I0615 17:29:43.483567 17675 layer_factory.hpp:77] Creating layer value_conv_reshape
I0615 17:29:43.483570 17675 net.cpp:106] Creating Layer value_conv_reshape
I0615 17:29:43.483585 17675 net.cpp:454] value_conv_reshape <- value_conv
I0615 17:29:43.483589 17675 net.cpp:411] value_conv_reshape -> value_conv_reshape
I0615 17:29:43.483608 17675 net.cpp:150] Setting up value_conv_reshape
I0615 17:29:43.483620 17675 net.cpp:157] Top shape: 1 512 900 1 (460800)
I0615 17:29:43.483623 17675 net.cpp:165] Memory required for data: 1451760648
I0615 17:29:43.483624 17675 layer_factory.hpp:77] Creating layer query_conv_reshape_perm
I0615 17:29:43.483629 17675 net.cpp:106] Creating Layer query_conv_reshape_perm
I0615 17:29:43.483631 17675 net.cpp:454] query_conv_reshape_perm <- query_conv_reshape
I0615 17:29:43.483634 17675 net.cpp:411] query_conv_reshape_perm -> query_conv_reshape_perm
I0615 17:29:43.483747 17675 net.cpp:150] Setting up query_conv_reshape_perm
I0615 17:29:43.483759 17675 net.cpp:157] Top shape: 1 1 900 64 (57600)
I0615 17:29:43.483762 17675 net.cpp:165] Memory required for data: 1451991048
I0615 17:29:43.483763 17675 layer_factory.hpp:77] Creating layer key_conv_reshape_perm
I0615 17:29:43.483779 17675 net.cpp:106] Creating Layer key_conv_reshape_perm
I0615 17:29:43.483783 17675 net.cpp:454] key_conv_reshape_perm <- key_conv_reshape
I0615 17:29:43.483796 17675 net.cpp:411] key_conv_reshape_perm -> key_conv_reshape_perm
I0615 17:29:43.483875 17675 net.cpp:150] Setting up key_conv_reshape_perm
I0615 17:29:43.483880 17675 net.cpp:157] Top shape: 1 1 64 900 (57600)
I0615 17:29:43.483881 17675 net.cpp:165] Memory required for data: 1452221448
I0615 17:29:43.483883 17675 layer_factory.hpp:77] Creating layer energy
I0615 17:29:43.483886 17675 net.cpp:106] Creating Layer energy
I0615 17:29:43.483888 17675 net.cpp:454] energy <- query_conv_reshape_perm
I0615 17:29:43.483891 17675 net.cpp:454] energy <- key_conv_reshape_perm
I0615 17:29:43.483894 17675 net.cpp:411] energy -> energy
I0615 17:29:43.483918 17675 net.cpp:150] Setting up energy
I0615 17:29:43.483933 17675 net.cpp:157] Top shape: 1 1 900 900 (810000)
I0615 17:29:43.483935 17675 net.cpp:165] Memory required for data: 1455461448
I0615 17:29:43.483937 17675 layer_factory.hpp:77] Creating layer attention
I0615 17:29:43.483952 17675 net.cpp:106] Creating Layer attention
I0615 17:29:43.483954 17675 net.cpp:454] attention <- energy
I0615 17:29:43.483958 17675 net.cpp:411] attention -> attention
I0615 17:29:43.484146 17675 net.cpp:150] Setting up attention
I0615 17:29:43.484153 17675 net.cpp:157] Top shape: 1 1 900 900 (810000)
I0615 17:29:43.484154 17675 net.cpp:165] Memory required for data: 1458701448
I0615 17:29:43.484156 17675 layer_factory.hpp:77] Creating layer value_conv_reshape_perm
I0615 17:29:43.484161 17675 net.cpp:106] Creating Layer value_conv_reshape_perm
I0615 17:29:43.484163 17675 net.cpp:454] value_conv_reshape_perm <- value_conv_reshape
I0615 17:29:43.484177 17675 net.cpp:411] value_conv_reshape_perm -> value_conv_reshape_perm
I0615 17:29:43.484270 17675 net.cpp:150] Setting up value_conv_reshape_perm
I0615 17:29:43.484273 17675 net.cpp:157] Top shape: 1 1 512 900 (460800)
I0615 17:29:43.484275 17675 net.cpp:165] Memory required for data: 1460544648
I0615 17:29:43.484277 17675 layer_factory.hpp:77] Creating layer attention_perm
I0615 17:29:43.484282 17675 net.cpp:106] Creating Layer attention_perm
I0615 17:29:43.484283 17675 net.cpp:454] attention_perm <- attention
I0615 17:29:43.484287 17675 net.cpp:411] attention_perm -> attention_perm
I0615 17:29:43.484369 17675 net.cpp:150] Setting up attention_perm
I0615 17:29:43.484372 17675 net.cpp:157] Top shape: 1 1 900 900 (810000)
I0615 17:29:43.484375 17675 net.cpp:165] Memory required for data: 1463784648
I0615 17:29:43.484376 17675 layer_factory.hpp:77] Creating layer out
I0615 17:29:43.484380 17675 net.cpp:106] Creating Layer out
I0615 17:29:43.484381 17675 net.cpp:454] out <- value_conv_reshape_perm
I0615 17:29:43.484383 17675 net.cpp:454] out <- attention_perm
I0615 17:29:43.484387 17675 net.cpp:411] out -> out
I0615 17:29:43.484412 17675 net.cpp:150] Setting up out
I0615 17:29:43.484426 17675 net.cpp:157] Top shape: 1 1 512 900 (460800)
I0615 17:29:43.484427 17675 net.cpp:165] Memory required for data: 1465627848
I0615 17:29:43.484429 17675 layer_factory.hpp:77] Creating layer out_reshape
I0615 17:29:43.484433 17675 net.cpp:106] Creating Layer out_reshape
I0615 17:29:43.484436 17675 net.cpp:454] out_reshape <- out
I0615 17:29:43.484438 17675 net.cpp:411] out_reshape -> out_reshape
I0615 17:29:43.484462 17675 net.cpp:150] Setting up out_reshape
I0615 17:29:43.484479 17675 net.cpp:157] Top shape: 1 512 30 30 (460800)
I0615 17:29:43.484481 17675 net.cpp:165] Memory required for data: 1467471048
I0615 17:29:43.484483 17675 layer_factory.hpp:77] Creating layer out_reshape_scale
I0615 17:29:43.484491 17675 net.cpp:106] Creating Layer out_reshape_scale
I0615 17:29:43.484493 17675 net.cpp:454] out_reshape_scale <- out_reshape
I0615 17:29:43.484496 17675 net.cpp:411] out_reshape_scale -> out_reshape_scale
I0615 17:29:43.484586 17675 net.cpp:150] Setting up out_reshape_scale
I0615 17:29:43.484591 17675 net.cpp:157] Top shape: 1 512 30 30 (460800)
I0615 17:29:43.484592 17675 net.cpp:165] Memory required for data: 1469314248
I0615 17:29:43.484596 17675 layer_factory.hpp:77] Creating layer out_x
I0615 17:29:43.484601 17675 net.cpp:106] Creating Layer out_x
I0615 17:29:43.484603 17675 net.cpp:454] out_x <- out_reshape_scale
I0615 17:29:43.484606 17675 net.cpp:454] out_x <- pool5_2_conv4_relu_pool5_2_conv4_relu_0_split_3
I0615 17:29:43.484609 17675 net.cpp:411] out_x -> out_x
I0615 17:29:43.484627 17675 net.cpp:150] Setting up out_x
I0615 17:29:43.484630 17675 net.cpp:157] Top shape: 1 512 30 30 (460800)
I0615 17:29:43.484632 17675 net.cpp:165] Memory required for data: 1471157448
I0615 17:29:43.484634 17675 layer_factory.hpp:77] Creating layer mask_deconv2
I0615 17:29:43.484642 17675 net.cpp:106] Creating Layer mask_deconv2
I0615 17:29:43.484644 17675 net.cpp:454] mask_deconv2 <- out_x
I0615 17:29:43.484649 17675 net.cpp:411] mask_deconv2 -> mask_deconv2
I0615 17:29:43.485487 17675 net.cpp:150] Setting up mask_deconv2
I0615 17:29:43.485493 17675 net.cpp:157] Top shape: 1 256 122 122 (3810304)
I0615 17:29:43.485496 17675 net.cpp:165] Memory required for data: 1486398664
I0615 17:29:43.485500 17675 layer_factory.hpp:77] Creating layer pool5_2_conv5
I0615 17:29:43.485508 17675 net.cpp:106] Creating Layer pool5_2_conv5
I0615 17:29:43.485512 17675 net.cpp:454] pool5_2_conv5 <- mask_deconv2
I0615 17:29:43.485517 17675 net.cpp:411] pool5_2_conv5 -> pool5_2_conv5
I0615 17:29:43.516366 17675 net.cpp:150] Setting up pool5_2_conv5
I0615 17:29:43.516383 17675 net.cpp:157] Top shape: 1 512 122 122 (7620608)
I0615 17:29:43.516386 17675 net.cpp:165] Memory required for data: 1516881096
I0615 17:29:43.516396 17675 layer_factory.hpp:77] Creating layer pool5_2_conv5_relu
I0615 17:29:43.516402 17675 net.cpp:106] Creating Layer pool5_2_conv5_relu
I0615 17:29:43.516407 17675 net.cpp:454] pool5_2_conv5_relu <- pool5_2_conv5
I0615 17:29:43.516413 17675 net.cpp:411] pool5_2_conv5_relu -> pool5_2_conv5_relu
I0615 17:29:43.516567 17675 net.cpp:150] Setting up pool5_2_conv5_relu
I0615 17:29:43.516574 17675 net.cpp:157] Top shape: 1 512 122 122 (7620608)
I0615 17:29:43.516577 17675 net.cpp:165] Memory required for data: 1547363528
I0615 17:29:43.516578 17675 layer_factory.hpp:77] Creating layer pool5_2_conv6
I0615 17:29:43.516589 17675 net.cpp:106] Creating Layer pool5_2_conv6
I0615 17:29:43.516592 17675 net.cpp:454] pool5_2_conv6 <- pool5_2_conv5_relu
I0615 17:29:43.516597 17675 net.cpp:411] pool5_2_conv6 -> pool5_2_conv6
I0615 17:29:43.567682 17675 net.cpp:150] Setting up pool5_2_conv6
I0615 17:29:43.567698 17675 net.cpp:157] Top shape: 1 512 122 122 (7620608)
I0615 17:29:43.567701 17675 net.cpp:165] Memory required for data: 1577845960
I0615 17:29:43.567715 17675 layer_factory.hpp:77] Creating layer pool5_2_conv6_relu
I0615 17:29:43.567734 17675 net.cpp:106] Creating Layer pool5_2_conv6_relu
I0615 17:29:43.567739 17675 net.cpp:454] pool5_2_conv6_relu <- pool5_2_conv6
I0615 17:29:43.567754 17675 net.cpp:411] pool5_2_conv6_relu -> pool5_2_conv6_relu
I0615 17:29:43.568279 17675 net.cpp:150] Setting up pool5_2_conv6_relu
I0615 17:29:43.568287 17675 net.cpp:157] Top shape: 1 512 122 122 (7620608)
I0615 17:29:43.568289 17675 net.cpp:165] Memory required for data: 1608328392
I0615 17:29:43.568291 17675 layer_factory.hpp:77] Creating layer mask_deconv3
I0615 17:29:43.568298 17675 net.cpp:106] Creating Layer mask_deconv3
I0615 17:29:43.568301 17675 net.cpp:454] mask_deconv3 <- pool5_2_conv6_relu
I0615 17:29:43.568316 17675 net.cpp:411] mask_deconv3 -> mask_deconv3
I0615 17:29:43.568697 17675 net.cpp:150] Setting up mask_deconv3
I0615 17:29:43.568703 17675 net.cpp:157] Top shape: 1 256 244 244 (15241216)
I0615 17:29:43.568706 17675 net.cpp:165] Memory required for data: 1669293256
I0615 17:29:43.568709 17675 layer_factory.hpp:77] Creating layer mask_score
I0615 17:29:43.568714 17675 net.cpp:106] Creating Layer mask_score
I0615 17:29:43.568717 17675 net.cpp:454] mask_score <- mask_deconv3
I0615 17:29:43.568722 17675 net.cpp:411] mask_score -> mask_score
I0615 17:29:43.569334 17675 net.cpp:150] Setting up mask_score
I0615 17:29:43.569340 17675 net.cpp:157] Top shape: 1 8 244 244 (476288)
I0615 17:29:43.569342 17675 net.cpp:165] Memory required for data: 1671198408
I0615 17:29:43.569346 17675 layer_factory.hpp:77] Creating layer loss_mask
I0615 17:29:43.569352 17675 net.cpp:106] Creating Layer loss_mask
I0615 17:29:43.569355 17675 net.cpp:454] loss_mask <- mask_score
I0615 17:29:43.569358 17675 net.cpp:454] loss_mask <- mask_targets
I0615 17:29:43.569372 17675 net.cpp:411] loss_mask -> loss_mask
…
