…
average_loss: 100
iter_size: 2
I0628 16:42:08.287750 22618 solver.cpp:81] Creating training net from train_net file: models/pascal_voc/VGG16/faster_rcnn_end2end/train.prototxt
I0628 16:42:08.289081 22618 net.cpp:49] Initializing net from parameters: 
name: "VGG_ILSVRC_16_layers"
state {
  phase: TRAIN
}
layer {
  name: "input-data"
  type: "Python"
  top: "data"
  top: "im_info"
  top: "gt_boxes"
  top: "seg_mask_inds"
  top: "flipped"
  python_param {
    module: "roi_data_layer.layer"
    layer: "RoIDataLayer"
    param_str: "\'num_classes\': 2"
  }
}
layer {
  name: "conv1_1"
  type: "Convolution"
  bottom: "data"
  top: "conv1_1"
  param {
    lr_mult: 0
    decay_mult: 0
  }
  param {
    lr_mult: 0
    decay_mult: 0
  }
  convolution_param {
    num_output: 64
    pad: 1
    kernel_size: 3
  }
}
layer {
  name: "relu1_1"
  type: "ReLU"
  bottom: "conv1_1"
  top: "conv1_1"
}
layer {
  name: "conv1_2"
  type: "Convolution"
  bottom: "conv1_1"
  top: "conv1_2"
  param {
    lr_mult: 0
    decay_mult: 0
  }
  param {
    lr_mult: 0
    decay_mult: 0
  }
  convolution_param {
    num_output: 64
    pad: 1
    kernel_size: 3
  }
}
layer {
  name: "relu1_2"
  type: "ReLU"
  bottom: "conv1_2"
  top: "conv1_2"
}
layer {
  name: "pool1"
  type: "Pooling"
  bottom: "conv1_2"
  top: "pool1"
  pooling_param {
    pool: MAX
    kernel_size: 2
    stride: 2
  }
}
layer {
  name: "conv2_1"
  type: "Convolution"
  bottom: "pool1"
  top: "conv2_1"
  param {
    lr_mult: 0
    decay_mult: 0
  }
  param {
    lr_mult: 0
    decay_mult: 0
  }
  convolution_param {
    num_output: 128
    pad: 1
    kernel_size: 3
  }
}
layer {
  name: "relu2_1"
  type: "ReLU"
  bottom: "conv2_1"
  top: "conv2_1"
}
layer {
  name: "conv2_2"
  type: "Convolution"
  bottom: "conv2_1"
  top: "conv2_2"
  param {
    lr_mult: 0
    decay_mult: 0
  }
  param {
    lr_mult: 0
    decay_mult: 0
  }
  convolution_param {
    num_output: 128
    pad: 1
    kernel_size: 3
  }
}
layer {
  name: "relu2_2"
  type: "ReLU"
  bottom: "conv2_2"
  top: "conv2_2"
}
layer {
  name: "pool2"
  type: "Pooling"
  bottom: "conv2_2"
  top: "pool2"
  pooling_param {
    pool: MAX
    kernel_size: 2
    stride: 2
  }
}
layer {
  name: "conv3_1"
  type: "Convolution"
  bottom: "pool2"
  top: "conv3_1"
  param {
    lr_mult: 1
  }
  param {
    lr_mult: 2
  }
  convolution_param {
    num_output: 256
    pad: 1
    kernel_size: 3
  }
}
layer {
  name: "relu3_1"
  type: "ReLU"
  bottom: "conv3_1"
  top: "conv3_1"
}
layer {
  name: "conv3_2"
  type: "Convolution"
  bottom: "conv3_1"
  top: "conv3_2"
  param {
    lr_mult: 1
  }
  param {
    lr_mult: 2
  }
  convolution_param {
    num_output: 256
    pad: 1
    kernel_size: 3
  }
}
layer {
  name: "relu3_2"
  type: "ReLU"
  bottom: "conv3_2"
  top: "conv3_2"
}
layer {
  name: "conv3_3"
  type: "Convolution"
  bottom: "conv3_2"
  top: "conv3_3"
  param {
    lr_mult: 1
  }
  param {
    lr_mult: 2
  }
  convolution_param {
    num_output: 256
    pad: 1
    kernel_size: 3
  }
}
layer {
  name: "relu3_3"
  type: "ReLU"
  bottom: "conv3_3"
  top: "conv3_3"
}
layer {
  name: "pool3"
  type: "Pooling"
  bottom: "conv3_3"
  top: "pool3"
  pooling_param {
    pool: MAX
    kernel_size: 2
    stride: 2
  }
}
layer {
  name: "conv4_1"
  type: "Convolution"
  bottom: "pool3"
  top: "conv4_1"
  param {
    lr_mult: 1
  }
  param {
    lr_mult: 2
  }
  convolution_param {
    num_output: 512
    pad: 1
    kernel_size: 3
  }
}
layer {
  name: "relu4_1"
  type: "ReLU"
  bottom: "conv4_1"
  top: "conv4_1"
}
layer {
  name: "conv4_2"
  type: "Convolution"
  bottom: "conv4_1"
  top: "conv4_2"
  param {
    lr_mult: 1
  }
  param {
    lr_mult: 2
  }
  convolution_param {
    num_output: 512
    pad: 1
    kernel_size: 3
  }
}
layer {
  name: "relu4_2"
  type: "ReLU"
  bottom: "conv4_2"
  top: "conv4_2"
}
layer {
  name: "conv4_3"
  type: "Convolution"
  bottom: "conv4_2"
  top: "conv4_3"
  param {
    lr_mult: 1
  }
  param {
    lr_mult: 2
  }
  convolution_param {
    num_output: 512
    pad: 1
    kernel_size: 3
  }
}
layer {
  name: "relu4_3"
  type: "ReLU"
  bottom: "conv4_3"
  top: "conv4_3"
}
layer {
  name: "pool4"
  type: "Pooling"
  bottom: "conv4_3"
  top: "pool4"
  pooling_param {
    pool: MAX
    kernel_size: 2
    stride: 2
  }
}
layer {
  name: "conv5_1"
  type: "Convolution"
  bottom: "pool4"
  top: "conv5_1"
  param {
    lr_mult: 1
  }
  param {
    lr_mult: 2
  }
  convolution_param {
    num_output: 512
    pad: 1
    kernel_size: 3
  }
}
layer {
  name: "relu5_1"
  type: "ReLU"
  bottom: "conv5_1"
  top: "conv5_1"
}
layer {
  name: "conv5_2"
  type: "Convolution"
  bottom: "conv5_1"
  top: "conv5_2"
  param {
    lr_mult: 1
  }
  param {
    lr_mult: 2
  }
  convolution_param {
    num_output: 512
    pad: 1
    kernel_size: 3
  }
}
layer {
  name: "relu5_2"
  type: "ReLU"
  bottom: "conv5_2"
  top: "conv5_2"
}
layer {
  name: "conv5_3"
  type: "Convolution"
  bottom: "conv5_2"
  top: "conv5_3"
  param {
    lr_mult: 1
  }
  param {
    lr_mult: 2
  }
  convolution_param {
    num_output: 512
    pad: 1
    kernel_size: 3
  }
}
layer {
  name: "relu5_3"
  type: "ReLU"
  bottom: "conv5_3"
  top: "conv5_3"
}
layer {
  name: "rpn_conv/3x3"
  type: "Convolution"
  bottom: "conv5_3"
  top: "rpn/output"
  param {
    lr_mult: 1
  }
  param {
    lr_mult: 2
  }
  convolution_param {
    num_output: 512
    pad: 1
    kernel_size: 3
    stride: 1
    weight_filler {
      type: "gaussian"
      std: 0.01
    }
    bias_filler {
      type: "constant"
      value: 0
    }
  }
}
layer {
  name: "rpn_relu/3x3"
  type: "ReLU"
  bottom: "rpn/output"
  top: "rpn/output"
}
layer {
  name: "rpn_cls_score"
  type: "Convolution"
  bottom: "rpn/output"
  top: "rpn_cls_score"
  param {
    lr_mult: 1
  }
  param {
    lr_mult: 2
  }
  convolution_param {
    num_output: 30
    pad: 0
    kernel_size: 1
    stride: 1
    weight_filler {
      type: "gaussian"
      std: 0.01
    }
    bias_filler {
      type: "constant"
      value: 0
    }
  }
}
layer {
  name: "rpn_bbox_pred"
  type: "Convolution"
  bottom: "rpn/output"
  top: "rpn_bbox_pred"
  param {
    lr_mult: 1
  }
  param {
    lr_mult: 2
  }
  convolution_param {
    num_output: 60
    pad: 0
    kernel_size: 1
    stride: 1
    weight_filler {
      type: "gaussian"
      std: 0.01
    }
    bias_filler {
      type: "constant"
      value: 0
    }
  }
}
layer {
  name: "rpn_cls_score_reshape"
  type: "Reshape"
  bottom: "rpn_cls_score"
  top: "rpn_cls_score_reshape"
  reshape_param {
    shape {
      dim: 0
      dim: 2
      dim: -1
      dim: 0
    }
  }
}
layer {
  name: "rpn-data"
  type: "Python"
  bottom: "rpn_cls_score"
  bottom: "gt_boxes"
  bottom: "im_info"
  bottom: "data"
  top: "rpn_labels"
  top: "rpn_bbox_targets"
  top: "rpn_bbox_inside_weights"
  top: "rpn_bbox_outside_weights"
  python_param {
    module: "rpn.anchor_target_layer"
    layer: "AnchorTargetLayer"
    param_str: "\'feat_stride\': 16 \n\'scales\': !!python/tuple [2, 4, 8, 16, 32]"
  }
}
layer {
  name: "rpn_loss_cls"
  type: "SoftmaxWithLoss"
  bottom: "rpn_cls_score_reshape"
  bottom: "rpn_labels"
  top: "rpn_cls_loss"
  loss_weight: 1
  propagate_down: true
  propagate_down: false
  loss_param {
    ignore_label: -1
    normalize: true
  }
}
layer {
  name: "rpn_loss_bbox"
  type: "SmoothL1Loss"
  bottom: "rpn_bbox_pred"
  bottom: "rpn_bbox_targets"
  bottom: "rpn_bbox_inside_weights"
  bottom: "rpn_bbox_outside_weights"
  top: "rpn_loss_bbox"
  loss_weight: 1
  smooth_l1_loss_param {
    sigma: 3
  }
}
layer {
  name: "rpn_cls_prob"
  type: "Softmax"
  bottom: "rpn_cls_score_reshape"
  top: "rpn_cls_prob"
}
layer {
  name: "rpn_cls_prob_reshape"
  type: "Reshape"
  bottom: "rpn_cls_prob"
  top: "rpn_cls_prob_reshape"
  reshape_param {
    shape {
      dim: 0
      dim: 30
      dim: -1
      dim: 0
    }
  }
}
layer {
  name: "proposal"
  type: "Python"
  bottom: "rpn_cls_prob_reshape"
  bottom: "rpn_bbox_pred"
  bottom: "im_info"
  top: "rpn_rois"
  python_param {
    module: "rpn.proposal_layer"
    layer: "ProposalLayer"
    param_str: "\'feat_stride\': 16 \n\'scales\': !!python/tuple [2, 4, 8, 16, 32]"
  }
}
layer {
  name: "roi-data"
  type: "Python"
  bottom: "rpn_rois"
  bottom: "gt_boxes"
  bottom: "im_info"
  bottom: "seg_mask_inds"
  bottom: "flipped"
  top: "rois"
  top: "labels"
  top: "bbox_targets"
  top: "bbox_inside_weights"
  top: "bbox_outside_weights"
  top: "mask_targets"
  top: "rois_pos"
  python_param {
    module: "rpn.proposal_target_layer"
    layer: "ProposalTargetLayer"
    param_str: "\'num_classes\': 2"
  }
}
layer {
  name: "roi_pool5"
  type: "ROIAlignment"
  bottom: "conv5_3"
  bottom: "rois"
  top: "pool5"
  roi_alignment_param {
    pooled_h: 7
    pooled_w: 7
    spatial_scale: 0.0625
  }
}
layer {
  name: "fc6"
  type: "InnerProduct"
  bottom: "pool5"
  top: "fc6"
  param {
    lr_mult: 1
  }
  param {
    lr_mult: 2
  }
  inner_product_param {
    num_output: 4096
  }
}
layer {
  name: "relu6"
  type: "ReLU"
  bottom: "fc6"
  top: "fc6"
}
layer {
  name: "fc7"
  type: "InnerProduct"
  bottom: "fc6"
  top: "fc7"
  param {
    lr_mult: 1
  }
  param {
    lr_mult: 2
  }
  inner_product_param {
    num_output: 4096
  }
}
layer {
  name: "relu7"
  type: "ReLU"
  bottom: "fc7"
  top: "fc7"
}
layer {
  name: "cls_score"
  type: "InnerProduct"
  bottom: "fc7"
  top: "cls_score"
  param {
    lr_mult: 1
  }
  param {
    lr_mult: 2
  }
  inner_product_param {
    num_output: 2
    weight_filler {
      type: "gaussian"
      std: 0.01
    }
    bias_filler {
      type: "constant"
      value: 0
    }
  }
}
layer {
  name: "bbox_pred"
  type: "InnerProduct"
  bottom: "fc7"
  top: "bbox_pred"
  param {
    lr_mult: 1
  }
  param {
    lr_mult: 2
  }
  inner_product_param {
    num_output: 8
    weight_filler {
      type: "gaussian"
      std: 0.001
    }
    bias_filler {
      type: "constant"
      value: 0
    }
  }
}
layer {
  name: "loss_cls"
  type: "SoftmaxWithLoss"
  bottom: "cls_score"
  bottom: "labels"
  top: "loss_cls"
  loss_weight: 3
  propagate_down: true
  propagate_down: false
}
layer {
  name: "loss_bbox"
  type: "SmoothL1Loss"
  bottom: "bbox_pred"
  bottom: "bbox_targets"
  bottom: "bbox_inside_weights"
  bottom: "bbox_outside_weights"
  top: "loss_bbox"
  loss_weight: 2
}
layer {
  name: "roi_pool5_2"
  type: "ROIAlignment"
  bottom: "conv5_3"
  bottom: "rois_pos"
  top: "pool5_2"
  roi_alignment_param {
    pooled_h: 7
    pooled_w: 7
    spatial_scale: 0.0625
  }
}
layer {
  name: "pool5_2_conv"
  type: "Convolution"
  bottom: "pool5_2"
  top: "pool5_2_conv"
  param {
    lr_mult: 1
    decay_mult: 1
  }
  param {
    lr_mult: 2
    decay_mult: 0
  }
  convolution_param {
    num_output: 512
    pad: 0
    kernel_size: 1
    weight_filler {
      type: "gaussian"
      std: 0.01
    }
    bias_filler {
      type: "constant"
      value: 0
    }
  }
}
layer {
  name: "pool5_2_conv_relu"
  type: "ReLU"
  bottom: "pool5_2_conv"
  top: "pool5_2_conv_relu"
}
layer {
  name: "pool5_2_conv2"
  type: "Convolution"
  bottom: "pool5_2_conv_relu"
  top: "pool5_2_conv2"
  param {
    lr_mult: 1
    decay_mult: 1
  }
  param {
    lr_mult: 2
    decay_mult: 0
  }
  convolution_param {
    num_output: 512
    pad: 1
    kernel_size: 3
    stride: 1
    weight_filler {
      type: "gaussian"
      std: 0.01
    }
    bias_filler {
      type: "constant"
      value: 0
    }
  }
}
layer {
  name: "pool5_2_conv2_relu"
  type: "ReLU"
  bottom: "pool5_2_conv2"
  top: "pool5_2_conv2_relu"
}
layer {
  name: "mask_deconv1"
  type: "Deconvolution"
  bottom: "pool5_2_conv2_relu"
  top: "mask_deconv1"
  param {
    lr_mult: 1
    decay_mult: 1
  }
  param {
    lr_mult: 2
    decay_mult: 0
  }
  convolution_param {
    num_output: 256
    pad: 1
    kernel_size: 8
    group: 256
    stride: 4
    weight_filler {
      type: "bilinear"
    }
  }
}
layer {
  name: "pool5_2_conv3"
  type: "Convolution"
  bottom: "mask_deconv1"
  top: "pool5_2_conv3"
  param {
    lr_mult: 1
    decay_mult: 1
  }
  param {
    lr_mult: 2
    decay_mult: 0
  }
  convolution_param {
    num_output: 512
    pad: 1
    kernel_size: 3
    stride: 1
    weight_filler {
      type: "gaussian"
      std: 0.01
    }
    bias_filler {
      type: "constant"
      value: 0
    }
  }
}
layer {
  name: "pool5_2_conv3_relu"
  type: "ReLU"
  bottom: "pool5_2_conv3"
  top: "pool5_2_conv3_relu"
}
layer {
  name: "pool5_2_conv4"
  type: "Convolution"
  bottom: "pool5_2_conv3_relu"
  top: "pool5_2_conv4"
  param {
    lr_mult: 1
    decay_mult: 1
  }
  param {
    lr_mult: 2
    decay_mult: 0
  }
  convolution_param {
    num_output: 512
    pad: 1
    kernel_size: 3
    stride: 1
    weight_filler {
      type: "gaussian"
      std: 0.01
    }
    bias_filler {
      type: "constant"
      value: 0
    }
  }
}
layer {
  name: "pool5_2_conv4_relu"
  type: "ReLU"
  bottom: "pool5_2_conv4"
  top: "pool5_2_conv4_relu"
}
layer {
  name: "query_conv"
  type: "Convolution"
  bottom: "pool5_2_conv4_relu"
  top: "query_conv"
  param {
    lr_mult: 1
    decay_mult: 1
  }
  param {
    lr_mult: 2
    decay_mult: 0
  }
  convolution_param {
    num_output: 64
    pad: 0
    kernel_size: 1
    stride: 1
    weight_filler {
      type: "gaussian"
      std: 0.01
    }
    bias_filler {
      type: "constant"
      value: 0
    }
  }
}
layer {
  name: "key_conv"
  type: "Convolution"
  bottom: "pool5_2_conv4_relu"
  top: "key_conv"
  param {
    lr_mult: 1
    decay_mult: 1
  }
  param {
    lr_mult: 2
    decay_mult: 0
  }
  convolution_param {
    num_output: 64
    pad: 0
    kernel_size: 1
    stride: 1
    weight_filler {
      type: "gaussian"
      std: 0.01
    }
    bias_filler {
      type: "constant"
      value: 0
    }
  }
}
layer {
  name: "value_conv"
  type: "Convolution"
  bottom: "pool5_2_conv4_relu"
  top: "value_conv"
  param {
    lr_mult: 1
    decay_mult: 1
  }
  param {
    lr_mult: 2
    decay_mult: 0
  }
  convolution_param {
    num_output: 512
    pad: 0
    kernel_size: 1
    stride: 1
    weight_filler {
      type: "gaussian"
      std: 0.01
    }
    bias_filler {
      type: "constant"
      value: 0
    }
  }
}
layer {
  name: "query_conv_reshape"
  type: "Reshape"
  bottom: "query_conv"
  top: "query_conv_reshape"
  reshape_param {
    shape {
      dim: -1
      dim: 64
      dim: 900
      dim: 1
    }
  }
}
layer {
  name: "key_conv_reshape"
  type: "Reshape"
  bottom: "key_conv"
  top: "key_conv_reshape"
  reshape_param {
    shape {
      dim: -1
      dim: 64
      dim: 900
      dim: 1
    }
  }
}
layer {
  name: "value_conv_reshape"
  type: "Reshape"
  bottom: "value_conv"
  top: "value_conv_reshape"
  reshape_param {
    shape {
      dim: -1
      dim: 512
      dim: 900
      dim: 1
    }
  }
}
layer {
  name: "query_conv_reshape_perm"
  type: "Permute"
  bottom: "query_conv_reshape"
  top: "query_conv_reshape_perm"
  permute_param {
    order: 0
    order: 3
    order: 2
    order: 1
  }
}
layer {
  name: "key_conv_reshape_perm"
  type: "Permute"
  bottom: "key_conv_reshape"
  top: "key_conv_reshape_perm"
  permute_param {
    order: 0
    order: 3
    order: 1
    order: 2
  }
}
layer {
  name: "energy"
  type: "MatrixMultiplication"
  bottom: "query_conv_reshape_perm"
  bottom: "key_conv_reshape_perm"
  top: "energy"
}
layer {
  name: "attention"
  type: "Softmax"
  bottom: "energy"
  top: "attention"
  softmax_param {
    axis: 3
  }
}
layer {
  name: "value_conv_reshape_perm"
  type: "Permute"
  bottom: "value_conv_reshape"
  top: "value_conv_reshape_perm"
  permute_param {
    order: 0
    order: 3
    order: 1
    order: 2
  }
}
layer {
  name: "attention_perm"
  type: "Permute"
  bottom: "attention"
  top: "attention_perm"
  permute_param {
    order: 0
    order: 1
    order: 2
    order: 3
  }
}
layer {
  name: "out"
  type: "MatrixMultiplication"
  bottom: "value_conv_reshape_perm"
  bottom: "attention_perm"
  top: "out"
}
layer {
  name: "out_reshape"
  type: "Reshape"
  bottom: "out"
  top: "out_reshape"
  reshape_param {
    shape {
      dim: -1
      dim: 512
      dim: 30
      dim: 30
    }
  }
}
layer {
  name: "out_reshape_scale"
  type: "Scale"
  bottom: "out_reshape"
  top: "out_reshape_scale"
  param {
    name: "scale_conv1_1"
    lr_mult: 1
  }
  scale_param {
    bias_term: false
  }
}
layer {
  name: "out_x"
  type: "Eltwise"
  bottom: "out_reshape_scale"
  bottom: "pool5_2_conv4_relu"
  top: "out_x"
  eltwise_param {
    operation: SUM
  }
}
layer {
  name: "mask_deconv2"
  type: "Deconvolution"
  bottom: "out_x"
  top: "mask_deconv2"
  param {
    lr_mult: 1
    decay_mult: 1
  }
  param {
    lr_mult: 2
    decay_mult: 0
  }
  convolution_param {
    num_output: 256
    pad: 1
    kernel_size: 8
    group: 256
    stride: 4
    weight_filler {
      type: "bilinear"
    }
  }
}
layer {
  name: "pool5_2_conv5"
  type: "Convolution"
  bottom: "mask_deconv2"
  top: "pool5_2_conv5"
  param {
    lr_mult: 1
    decay_mult: 1
  }
  param {
    lr_mult: 2
    decay_mult: 0
  }
  convolution_param {
    num_output: 512
    pad: 1
    kernel_size: 3
    stride: 1
    weight_filler {
      type: "gaussian"
      std: 0.01
    }
    bias_filler {
      type: "constant"
      value: 0
    }
  }
}
layer {
  name: "pool5_2_conv5_relu"
  type: "ReLU"
  bottom: "pool5_2_conv5"
  top: "pool5_2_conv5_relu"
}
layer {
  name: "pool5_2_conv6"
  type: "Convolution"
  bottom: "pool5_2_conv5_relu"
  top: "pool5_2_conv6"
  param {
    lr_mult: 1
    decay_mult: 1
  }
  param {
    lr_mult: 2
    decay_mult: 0
  }
  convolution_param {
    num_output: 512
    pad: 1
    kernel_size: 3
    stride: 1
    weight_filler {
      type: "gaussian"
      std: 0.01
    }
    bias_filler {
      type: "constant"
      value: 0
    }
  }
}
layer {
  name: "pool5_2_conv6_relu"
  type: "ReLU"
  bottom: "pool5_2_conv6"
  top: "pool5_2_conv6_relu"
}
layer {
  name: "mask_deconv3"
  type: "Deconvolution"
  bottom: "pool5_2_conv6_relu"
  top: "mask_deconv3"
  param {
    lr_mult: 1
    decay_mult: 1
  }
  param {
    lr_mult: 2
    decay_mult: 0
  }
  convolution_param {
    num_output: 256
    pad: 1
    kernel_size: 4
    group: 256
    stride: 2
    weight_filler {
      type: "bilinear"
    }
  }
}
layer {
  name: "mask_score"
  type: "Convolution"
  bottom: "mask_deconv3"
  top: "mask_score"
  param {
    lr_mult: 1
    decay_mult: 1
  }
  param {
    lr_mult: 2
    decay_mult: 0
  }
  convolution_param {
    num_output: 8
    pad: 0
    kernel_size: 1
    weight_filler {
      type: "gaussian"
      std: 0.01
    }
    bias_filler {
      type: "constant"
      value: 0
    }
  }
}
layer {
  name: "prob"
  type: "Softmax"
  bottom: "mask_score"
  top: "mask_score_softmax"
  softmax_param {
    axis: 1
  }
}
layer {
  name: "log"
  type: "Log"
  bottom: "mask_score_softmax"
  top: "log"
}
layer {
  name: "mult1"
  type: "Eltwise"
  bottom: "log"
  bottom: "mask_targets"
  top: "mult1"
  eltwise_param {
    operation: PROD
  }
}
layer {
  name: "cross_entropy"
  type: "Power"
  bottom: "mult1"
  top: "cross_entropy"
  power_param {
    power: 1
    scale: -1
    shift: 0
  }
}
layer {
  name: "ce_sum"
  type: "Convolution"
  bottom: "cross_entropy"
  top: "cross_entropy_sum"
  param {
    lr_mult: 0
    decay_mult: 0
  }
  convolution_param {
    num_output: 1
    bias_term: false
    kernel_size: 1
    weight_filler {
      type: "constant"
      value: 1
    }
  }
}
layer {
  name: "ce_mean"
  type: "Reduction"
  bottom: "cross_entropy_sum"
  top: "cross_entropy_mean"
  loss_weight: 3
  reduction_param {
    operation: MEAN
    axis: 0
  }
}
I0628 16:42:08.289412 22618 layer_factory.hpp:77] Creating layer input-data
I0628 16:42:08.303035 22618 net.cpp:106] Creating Layer input-data
I0628 16:42:08.303050 22618 net.cpp:411] input-data -> data
I0628 16:42:08.303058 22618 net.cpp:411] input-data -> im_info
I0628 16:42:08.303072 22618 net.cpp:411] input-data -> gt_boxes
I0628 16:42:08.303076 22618 net.cpp:411] input-data -> seg_mask_inds
I0628 16:42:08.303079 22618 net.cpp:411] input-data -> flipped
RoiDataLayer: name_to_top: {'gt_boxes': 2, 'data': 0, 'seg_mask_inds': 3, 'im_info': 1, 'flipped': 4}
I0628 16:42:08.314136 22618 net.cpp:150] Setting up input-data
I0628 16:42:08.314163 22618 net.cpp:157] Top shape: 1 3 600 1000 (1800000)
I0628 16:42:08.314169 22618 net.cpp:157] Top shape: 1 3 (3)
I0628 16:42:08.314174 22618 net.cpp:157] Top shape: 1 4 (4)
I0628 16:42:08.314178 22618 net.cpp:157] Top shape: 1 2 (2)
I0628 16:42:08.314182 22618 net.cpp:157] Top shape: 1 1 (1)
I0628 16:42:08.314185 22618 net.cpp:165] Memory required for data: 7200040
I0628 16:42:08.314191 22618 layer_factory.hpp:77] Creating layer data_input-data_0_split
I0628 16:42:08.314218 22618 net.cpp:106] Creating Layer data_input-data_0_split
I0628 16:42:08.314224 22618 net.cpp:454] data_input-data_0_split <- data
I0628 16:42:08.314230 22618 net.cpp:411] data_input-data_0_split -> data_input-data_0_split_0
I0628 16:42:08.314239 22618 net.cpp:411] data_input-data_0_split -> data_input-data_0_split_1
I0628 16:42:08.314280 22618 net.cpp:150] Setting up data_input-data_0_split
I0628 16:42:08.314290 22618 net.cpp:157] Top shape: 1 3 600 1000 (1800000)
I0628 16:42:08.314294 22618 net.cpp:157] Top shape: 1 3 600 1000 (1800000)
I0628 16:42:08.314297 22618 net.cpp:165] Memory required for data: 21600040
I0628 16:42:08.314302 22618 layer_factory.hpp:77] Creating layer im_info_input-data_1_split
I0628 16:42:08.314309 22618 net.cpp:106] Creating Layer im_info_input-data_1_split
I0628 16:42:08.314314 22618 net.cpp:454] im_info_input-data_1_split <- im_info
I0628 16:42:08.314321 22618 net.cpp:411] im_info_input-data_1_split -> im_info_input-data_1_split_0
I0628 16:42:08.314327 22618 net.cpp:411] im_info_input-data_1_split -> im_info_input-data_1_split_1
I0628 16:42:08.314335 22618 net.cpp:411] im_info_input-data_1_split -> im_info_input-data_1_split_2
I0628 16:42:08.314369 22618 net.cpp:150] Setting up im_info_input-data_1_split
I0628 16:42:08.314374 22618 net.cpp:157] Top shape: 1 3 (3)
I0628 16:42:08.314378 22618 net.cpp:157] Top shape: 1 3 (3)
I0628 16:42:08.314383 22618 net.cpp:157] Top shape: 1 3 (3)
I0628 16:42:08.314385 22618 net.cpp:165] Memory required for data: 21600076
I0628 16:42:08.314388 22618 layer_factory.hpp:77] Creating layer gt_boxes_input-data_2_split
I0628 16:42:08.314394 22618 net.cpp:106] Creating Layer gt_boxes_input-data_2_split
I0628 16:42:08.314399 22618 net.cpp:454] gt_boxes_input-data_2_split <- gt_boxes
I0628 16:42:08.314404 22618 net.cpp:411] gt_boxes_input-data_2_split -> gt_boxes_input-data_2_split_0
I0628 16:42:08.314410 22618 net.cpp:411] gt_boxes_input-data_2_split -> gt_boxes_input-data_2_split_1
I0628 16:42:08.314435 22618 net.cpp:150] Setting up gt_boxes_input-data_2_split
I0628 16:42:08.314440 22618 net.cpp:157] Top shape: 1 4 (4)
I0628 16:42:08.314443 22618 net.cpp:157] Top shape: 1 4 (4)
I0628 16:42:08.314446 22618 net.cpp:165] Memory required for data: 21600108
I0628 16:42:08.314451 22618 layer_factory.hpp:77] Creating layer conv1_1
I0628 16:42:08.314462 22618 net.cpp:106] Creating Layer conv1_1
I0628 16:42:08.314466 22618 net.cpp:454] conv1_1 <- data_input-data_0_split_0
I0628 16:42:08.314472 22618 net.cpp:411] conv1_1 -> conv1_1
I0628 16:42:08.496801 22618 net.cpp:150] Setting up conv1_1
I0628 16:42:08.496821 22618 net.cpp:157] Top shape: 1 64 600 1000 (38400000)
I0628 16:42:08.496824 22618 net.cpp:165] Memory required for data: 175200108
I0628 16:42:08.496834 22618 layer_factory.hpp:77] Creating layer relu1_1
I0628 16:42:08.496852 22618 net.cpp:106] Creating Layer relu1_1
I0628 16:42:08.496855 22618 net.cpp:454] relu1_1 <- conv1_1
I0628 16:42:08.496860 22618 net.cpp:397] relu1_1 -> conv1_1 (in-place)
I0628 16:42:08.496989 22618 net.cpp:150] Setting up relu1_1
I0628 16:42:08.496994 22618 net.cpp:157] Top shape: 1 64 600 1000 (38400000)
I0628 16:42:08.496996 22618 net.cpp:165] Memory required for data: 328800108
I0628 16:42:08.496999 22618 layer_factory.hpp:77] Creating layer conv1_2
I0628 16:42:08.497004 22618 net.cpp:106] Creating Layer conv1_2
I0628 16:42:08.497006 22618 net.cpp:454] conv1_2 <- conv1_1
I0628 16:42:08.497011 22618 net.cpp:411] conv1_2 -> conv1_2
I0628 16:42:08.499009 22618 net.cpp:150] Setting up conv1_2
I0628 16:42:08.499022 22618 net.cpp:157] Top shape: 1 64 600 1000 (38400000)
I0628 16:42:08.499023 22618 net.cpp:165] Memory required for data: 482400108
I0628 16:42:08.499029 22618 layer_factory.hpp:77] Creating layer relu1_2
I0628 16:42:08.499035 22618 net.cpp:106] Creating Layer relu1_2
I0628 16:42:08.499037 22618 net.cpp:454] relu1_2 <- conv1_2
I0628 16:42:08.499042 22618 net.cpp:397] relu1_2 -> conv1_2 (in-place)
I0628 16:42:08.499152 22618 net.cpp:150] Setting up relu1_2
I0628 16:42:08.499158 22618 net.cpp:157] Top shape: 1 64 600 1000 (38400000)
I0628 16:42:08.499161 22618 net.cpp:165] Memory required for data: 636000108
I0628 16:42:08.499162 22618 layer_factory.hpp:77] Creating layer pool1
I0628 16:42:08.499168 22618 net.cpp:106] Creating Layer pool1
I0628 16:42:08.499171 22618 net.cpp:454] pool1 <- conv1_2
I0628 16:42:08.499176 22618 net.cpp:411] pool1 -> pool1
I0628 16:42:08.499212 22618 net.cpp:150] Setting up pool1
I0628 16:42:08.499217 22618 net.cpp:157] Top shape: 1 64 300 500 (9600000)
I0628 16:42:08.499219 22618 net.cpp:165] Memory required for data: 674400108
I0628 16:42:08.499222 22618 layer_factory.hpp:77] Creating layer conv2_1
I0628 16:42:08.499229 22618 net.cpp:106] Creating Layer conv2_1
I0628 16:42:08.499234 22618 net.cpp:454] conv2_1 <- pool1
I0628 16:42:08.499240 22618 net.cpp:411] conv2_1 -> conv2_1
I0628 16:42:08.500921 22618 net.cpp:150] Setting up conv2_1
I0628 16:42:08.500928 22618 net.cpp:157] Top shape: 1 128 300 500 (19200000)
I0628 16:42:08.500931 22618 net.cpp:165] Memory required for data: 751200108
I0628 16:42:08.500939 22618 layer_factory.hpp:77] Creating layer relu2_1
I0628 16:42:08.500947 22618 net.cpp:106] Creating Layer relu2_1
I0628 16:42:08.500952 22618 net.cpp:454] relu2_1 <- conv2_1
I0628 16:42:08.500957 22618 net.cpp:397] relu2_1 -> conv2_1 (in-place)
I0628 16:42:08.501412 22618 net.cpp:150] Setting up relu2_1
I0628 16:42:08.501420 22618 net.cpp:157] Top shape: 1 128 300 500 (19200000)
I0628 16:42:08.501421 22618 net.cpp:165] Memory required for data: 828000108
I0628 16:42:08.501425 22618 layer_factory.hpp:77] Creating layer conv2_2
I0628 16:42:08.501433 22618 net.cpp:106] Creating Layer conv2_2
I0628 16:42:08.501438 22618 net.cpp:454] conv2_2 <- conv2_1
I0628 16:42:08.501444 22618 net.cpp:411] conv2_2 -> conv2_2
I0628 16:42:08.502699 22618 net.cpp:150] Setting up conv2_2
I0628 16:42:08.502708 22618 net.cpp:157] Top shape: 1 128 300 500 (19200000)
I0628 16:42:08.502710 22618 net.cpp:165] Memory required for data: 904800108
I0628 16:42:08.502718 22618 layer_factory.hpp:77] Creating layer relu2_2
I0628 16:42:08.502723 22618 net.cpp:106] Creating Layer relu2_2
I0628 16:42:08.502727 22618 net.cpp:454] relu2_2 <- conv2_2
I0628 16:42:08.502732 22618 net.cpp:397] relu2_2 -> conv2_2 (in-place)
I0628 16:42:08.502879 22618 net.cpp:150] Setting up relu2_2
I0628 16:42:08.502887 22618 net.cpp:157] Top shape: 1 128 300 500 (19200000)
I0628 16:42:08.502892 22618 net.cpp:165] Memory required for data: 981600108
I0628 16:42:08.502894 22618 layer_factory.hpp:77] Creating layer pool2
I0628 16:42:08.502902 22618 net.cpp:106] Creating Layer pool2
I0628 16:42:08.502904 22618 net.cpp:454] pool2 <- conv2_2
I0628 16:42:08.502910 22618 net.cpp:411] pool2 -> pool2
I0628 16:42:08.502941 22618 net.cpp:150] Setting up pool2
I0628 16:42:08.502948 22618 net.cpp:157] Top shape: 1 128 150 250 (4800000)
I0628 16:42:08.502950 22618 net.cpp:165] Memory required for data: 1000800108
I0628 16:42:08.502954 22618 layer_factory.hpp:77] Creating layer conv3_1
I0628 16:42:08.502961 22618 net.cpp:106] Creating Layer conv3_1
I0628 16:42:08.502965 22618 net.cpp:454] conv3_1 <- pool2
I0628 16:42:08.502970 22618 net.cpp:411] conv3_1 -> conv3_1
I0628 16:42:08.505012 22618 net.cpp:150] Setting up conv3_1
I0628 16:42:08.505024 22618 net.cpp:157] Top shape: 1 256 150 250 (9600000)
I0628 16:42:08.505026 22618 net.cpp:165] Memory required for data: 1039200108
I0628 16:42:08.505038 22618 layer_factory.hpp:77] Creating layer relu3_1
I0628 16:42:08.505046 22618 net.cpp:106] Creating Layer relu3_1
I0628 16:42:08.505051 22618 net.cpp:454] relu3_1 <- conv3_1
I0628 16:42:08.505057 22618 net.cpp:397] relu3_1 -> conv3_1 (in-place)
I0628 16:42:08.505172 22618 net.cpp:150] Setting up relu3_1
I0628 16:42:08.505178 22618 net.cpp:157] Top shape: 1 256 150 250 (9600000)
I0628 16:42:08.505182 22618 net.cpp:165] Memory required for data: 1077600108
I0628 16:42:08.505185 22618 layer_factory.hpp:77] Creating layer conv3_2
I0628 16:42:08.505195 22618 net.cpp:106] Creating Layer conv3_2
I0628 16:42:08.505200 22618 net.cpp:454] conv3_2 <- conv3_1
I0628 16:42:08.505206 22618 net.cpp:411] conv3_2 -> conv3_2
I0628 16:42:08.507401 22618 net.cpp:150] Setting up conv3_2
I0628 16:42:08.507414 22618 net.cpp:157] Top shape: 1 256 150 250 (9600000)
I0628 16:42:08.507416 22618 net.cpp:165] Memory required for data: 1116000108
I0628 16:42:08.507422 22618 layer_factory.hpp:77] Creating layer relu3_2
I0628 16:42:08.507431 22618 net.cpp:106] Creating Layer relu3_2
I0628 16:42:08.507434 22618 net.cpp:454] relu3_2 <- conv3_2
I0628 16:42:08.507441 22618 net.cpp:397] relu3_2 -> conv3_2 (in-place)
I0628 16:42:08.507557 22618 net.cpp:150] Setting up relu3_2
I0628 16:42:08.507563 22618 net.cpp:157] Top shape: 1 256 150 250 (9600000)
I0628 16:42:08.507567 22618 net.cpp:165] Memory required for data: 1154400108
I0628 16:42:08.507570 22618 layer_factory.hpp:77] Creating layer conv3_3
I0628 16:42:08.507578 22618 net.cpp:106] Creating Layer conv3_3
I0628 16:42:08.507582 22618 net.cpp:454] conv3_3 <- conv3_2
I0628 16:42:08.507587 22618 net.cpp:411] conv3_3 -> conv3_3
I0628 16:42:08.509596 22618 net.cpp:150] Setting up conv3_3
I0628 16:42:08.509605 22618 net.cpp:157] Top shape: 1 256 150 250 (9600000)
I0628 16:42:08.509608 22618 net.cpp:165] Memory required for data: 1192800108
I0628 16:42:08.509614 22618 layer_factory.hpp:77] Creating layer relu3_3
I0628 16:42:08.509620 22618 net.cpp:106] Creating Layer relu3_3
I0628 16:42:08.509625 22618 net.cpp:454] relu3_3 <- conv3_3
I0628 16:42:08.509631 22618 net.cpp:397] relu3_3 -> conv3_3 (in-place)
I0628 16:42:08.509760 22618 net.cpp:150] Setting up relu3_3
I0628 16:42:08.509766 22618 net.cpp:157] Top shape: 1 256 150 250 (9600000)
I0628 16:42:08.509769 22618 net.cpp:165] Memory required for data: 1231200108
I0628 16:42:08.509781 22618 layer_factory.hpp:77] Creating layer pool3
I0628 16:42:08.509788 22618 net.cpp:106] Creating Layer pool3
I0628 16:42:08.509791 22618 net.cpp:454] pool3 <- conv3_3
I0628 16:42:08.509797 22618 net.cpp:411] pool3 -> pool3
I0628 16:42:08.509843 22618 net.cpp:150] Setting up pool3
I0628 16:42:08.509848 22618 net.cpp:157] Top shape: 1 256 75 125 (2400000)
I0628 16:42:08.509850 22618 net.cpp:165] Memory required for data: 1240800108
I0628 16:42:08.509861 22618 layer_factory.hpp:77] Creating layer conv4_1
I0628 16:42:08.509867 22618 net.cpp:106] Creating Layer conv4_1
I0628 16:42:08.509871 22618 net.cpp:454] conv4_1 <- pool3
I0628 16:42:08.509886 22618 net.cpp:411] conv4_1 -> conv4_1
I0628 16:42:08.513470 22618 net.cpp:150] Setting up conv4_1
I0628 16:42:08.513490 22618 net.cpp:157] Top shape: 1 512 75 125 (4800000)
I0628 16:42:08.513492 22618 net.cpp:165] Memory required for data: 1260000108
I0628 16:42:08.513510 22618 layer_factory.hpp:77] Creating layer relu4_1
I0628 16:42:08.513520 22618 net.cpp:106] Creating Layer relu4_1
I0628 16:42:08.513525 22618 net.cpp:454] relu4_1 <- conv4_1
I0628 16:42:08.513540 22618 net.cpp:397] relu4_1 -> conv4_1 (in-place)
I0628 16:42:08.513682 22618 net.cpp:150] Setting up relu4_1
I0628 16:42:08.513689 22618 net.cpp:157] Top shape: 1 512 75 125 (4800000)
I0628 16:42:08.513691 22618 net.cpp:165] Memory required for data: 1279200108
I0628 16:42:08.513703 22618 layer_factory.hpp:77] Creating layer conv4_2
I0628 16:42:08.513712 22618 net.cpp:106] Creating Layer conv4_2
I0628 16:42:08.513716 22618 net.cpp:454] conv4_2 <- conv4_1
I0628 16:42:08.513731 22618 net.cpp:411] conv4_2 -> conv4_2
I0628 16:42:08.518304 22618 net.cpp:150] Setting up conv4_2
I0628 16:42:08.518355 22618 net.cpp:157] Top shape: 1 512 75 125 (4800000)
I0628 16:42:08.518360 22618 net.cpp:165] Memory required for data: 1298400108
I0628 16:42:08.518376 22618 layer_factory.hpp:77] Creating layer relu4_2
I0628 16:42:08.518395 22618 net.cpp:106] Creating Layer relu4_2
I0628 16:42:08.518411 22618 net.cpp:454] relu4_2 <- conv4_2
I0628 16:42:08.518419 22618 net.cpp:397] relu4_2 -> conv4_2 (in-place)
I0628 16:42:08.519109 22618 net.cpp:150] Setting up relu4_2
I0628 16:42:08.519124 22618 net.cpp:157] Top shape: 1 512 75 125 (4800000)
I0628 16:42:08.519137 22618 net.cpp:165] Memory required for data: 1317600108
I0628 16:42:08.519142 22618 layer_factory.hpp:77] Creating layer conv4_3
I0628 16:42:08.519153 22618 net.cpp:106] Creating Layer conv4_3
I0628 16:42:08.519158 22618 net.cpp:454] conv4_3 <- conv4_2
I0628 16:42:08.519165 22618 net.cpp:411] conv4_3 -> conv4_3
I0628 16:42:08.524068 22618 net.cpp:150] Setting up conv4_3
I0628 16:42:08.524089 22618 net.cpp:157] Top shape: 1 512 75 125 (4800000)
I0628 16:42:08.524092 22618 net.cpp:165] Memory required for data: 1336800108
I0628 16:42:08.524099 22618 layer_factory.hpp:77] Creating layer relu4_3
I0628 16:42:08.524118 22618 net.cpp:106] Creating Layer relu4_3
I0628 16:42:08.524124 22618 net.cpp:454] relu4_3 <- conv4_3
I0628 16:42:08.524132 22618 net.cpp:397] relu4_3 -> conv4_3 (in-place)
I0628 16:42:08.524296 22618 net.cpp:150] Setting up relu4_3
I0628 16:42:08.524303 22618 net.cpp:157] Top shape: 1 512 75 125 (4800000)
I0628 16:42:08.524305 22618 net.cpp:165] Memory required for data: 1356000108
I0628 16:42:08.524308 22618 layer_factory.hpp:77] Creating layer pool4
I0628 16:42:08.524313 22618 net.cpp:106] Creating Layer pool4
I0628 16:42:08.524317 22618 net.cpp:454] pool4 <- conv4_3
I0628 16:42:08.524319 22618 net.cpp:411] pool4 -> pool4
I0628 16:42:08.524379 22618 net.cpp:150] Setting up pool4
I0628 16:42:08.524384 22618 net.cpp:157] Top shape: 1 512 38 63 (1225728)
I0628 16:42:08.524385 22618 net.cpp:165] Memory required for data: 1360903020
I0628 16:42:08.524387 22618 layer_factory.hpp:77] Creating layer conv5_1
I0628 16:42:08.524392 22618 net.cpp:106] Creating Layer conv5_1
I0628 16:42:08.524394 22618 net.cpp:454] conv5_1 <- pool4
I0628 16:42:08.524397 22618 net.cpp:411] conv5_1 -> conv5_1
I0628 16:42:08.528609 22618 net.cpp:150] Setting up conv5_1
I0628 16:42:08.528626 22618 net.cpp:157] Top shape: 1 512 38 63 (1225728)
I0628 16:42:08.528630 22618 net.cpp:165] Memory required for data: 1365805932
I0628 16:42:08.528635 22618 layer_factory.hpp:77] Creating layer relu5_1
I0628 16:42:08.528642 22618 net.cpp:106] Creating Layer relu5_1
I0628 16:42:08.528656 22618 net.cpp:454] relu5_1 <- conv5_1
I0628 16:42:08.528661 22618 net.cpp:397] relu5_1 -> conv5_1 (in-place)
I0628 16:42:08.528795 22618 net.cpp:150] Setting up relu5_1
I0628 16:42:08.528801 22618 net.cpp:157] Top shape: 1 512 38 63 (1225728)
I0628 16:42:08.528802 22618 net.cpp:165] Memory required for data: 1370708844
I0628 16:42:08.528805 22618 layer_factory.hpp:77] Creating layer conv5_2
I0628 16:42:08.528811 22618 net.cpp:106] Creating Layer conv5_2
I0628 16:42:08.528813 22618 net.cpp:454] conv5_2 <- conv5_1
I0628 16:42:08.528817 22618 net.cpp:411] conv5_2 -> conv5_2
I0628 16:42:08.533031 22618 net.cpp:150] Setting up conv5_2
I0628 16:42:08.533048 22618 net.cpp:157] Top shape: 1 512 38 63 (1225728)
I0628 16:42:08.533051 22618 net.cpp:165] Memory required for data: 1375611756
I0628 16:42:08.533057 22618 layer_factory.hpp:77] Creating layer relu5_2
I0628 16:42:08.533063 22618 net.cpp:106] Creating Layer relu5_2
I0628 16:42:08.533067 22618 net.cpp:454] relu5_2 <- conv5_2
I0628 16:42:08.533072 22618 net.cpp:397] relu5_2 -> conv5_2 (in-place)
I0628 16:42:08.533197 22618 net.cpp:150] Setting up relu5_2
I0628 16:42:08.533205 22618 net.cpp:157] Top shape: 1 512 38 63 (1225728)
I0628 16:42:08.533206 22618 net.cpp:165] Memory required for data: 1380514668
I0628 16:42:08.533208 22618 layer_factory.hpp:77] Creating layer conv5_3
I0628 16:42:08.533217 22618 net.cpp:106] Creating Layer conv5_3
I0628 16:42:08.533221 22618 net.cpp:454] conv5_3 <- conv5_2
I0628 16:42:08.533226 22618 net.cpp:411] conv5_3 -> conv5_3
I0628 16:42:08.537425 22618 net.cpp:150] Setting up conv5_3
I0628 16:42:08.537441 22618 net.cpp:157] Top shape: 1 512 38 63 (1225728)
I0628 16:42:08.537443 22618 net.cpp:165] Memory required for data: 1385417580
I0628 16:42:08.537449 22618 layer_factory.hpp:77] Creating layer relu5_3
I0628 16:42:08.537456 22618 net.cpp:106] Creating Layer relu5_3
I0628 16:42:08.537459 22618 net.cpp:454] relu5_3 <- conv5_3
I0628 16:42:08.537463 22618 net.cpp:397] relu5_3 -> conv5_3 (in-place)
I0628 16:42:08.537590 22618 net.cpp:150] Setting up relu5_3
I0628 16:42:08.537596 22618 net.cpp:157] Top shape: 1 512 38 63 (1225728)
I0628 16:42:08.537598 22618 net.cpp:165] Memory required for data: 1390320492
I0628 16:42:08.537600 22618 layer_factory.hpp:77] Creating layer conv5_3_relu5_3_0_split
I0628 16:42:08.537605 22618 net.cpp:106] Creating Layer conv5_3_relu5_3_0_split
I0628 16:42:08.537606 22618 net.cpp:454] conv5_3_relu5_3_0_split <- conv5_3
I0628 16:42:08.537611 22618 net.cpp:411] conv5_3_relu5_3_0_split -> conv5_3_relu5_3_0_split_0
I0628 16:42:08.537618 22618 net.cpp:411] conv5_3_relu5_3_0_split -> conv5_3_relu5_3_0_split_1
I0628 16:42:08.537626 22618 net.cpp:411] conv5_3_relu5_3_0_split -> conv5_3_relu5_3_0_split_2
I0628 16:42:08.537667 22618 net.cpp:150] Setting up conv5_3_relu5_3_0_split
I0628 16:42:08.537672 22618 net.cpp:157] Top shape: 1 512 38 63 (1225728)
I0628 16:42:08.537674 22618 net.cpp:157] Top shape: 1 512 38 63 (1225728)
I0628 16:42:08.537678 22618 net.cpp:157] Top shape: 1 512 38 63 (1225728)
I0628 16:42:08.537680 22618 net.cpp:165] Memory required for data: 1405029228
I0628 16:42:08.537683 22618 layer_factory.hpp:77] Creating layer rpn_conv/3x3
I0628 16:42:08.537703 22618 net.cpp:106] Creating Layer rpn_conv/3x3
I0628 16:42:08.537708 22618 net.cpp:454] rpn_conv/3x3 <- conv5_3_relu5_3_0_split_0
I0628 16:42:08.537714 22618 net.cpp:411] rpn_conv/3x3 -> rpn/output
I0628 16:42:08.587991 22618 net.cpp:150] Setting up rpn_conv/3x3
I0628 16:42:08.588019 22618 net.cpp:157] Top shape: 1 512 38 63 (1225728)
I0628 16:42:08.588022 22618 net.cpp:165] Memory required for data: 1409932140
I0628 16:42:08.588028 22618 layer_factory.hpp:77] Creating layer rpn_relu/3x3
I0628 16:42:08.588037 22618 net.cpp:106] Creating Layer rpn_relu/3x3
I0628 16:42:08.588042 22618 net.cpp:454] rpn_relu/3x3 <- rpn/output
I0628 16:42:08.588049 22618 net.cpp:397] rpn_relu/3x3 -> rpn/output (in-place)
I0628 16:42:08.588176 22618 net.cpp:150] Setting up rpn_relu/3x3
I0628 16:42:08.588182 22618 net.cpp:157] Top shape: 1 512 38 63 (1225728)
I0628 16:42:08.588194 22618 net.cpp:165] Memory required for data: 1414835052
I0628 16:42:08.588196 22618 layer_factory.hpp:77] Creating layer rpn/output_rpn_relu/3x3_0_split
I0628 16:42:08.588201 22618 net.cpp:106] Creating Layer rpn/output_rpn_relu/3x3_0_split
I0628 16:42:08.588202 22618 net.cpp:454] rpn/output_rpn_relu/3x3_0_split <- rpn/output
I0628 16:42:08.588207 22618 net.cpp:411] rpn/output_rpn_relu/3x3_0_split -> rpn/output_rpn_relu/3x3_0_split_0
I0628 16:42:08.588214 22618 net.cpp:411] rpn/output_rpn_relu/3x3_0_split -> rpn/output_rpn_relu/3x3_0_split_1
I0628 16:42:08.588261 22618 net.cpp:150] Setting up rpn/output_rpn_relu/3x3_0_split
I0628 16:42:08.588266 22618 net.cpp:157] Top shape: 1 512 38 63 (1225728)
I0628 16:42:08.588268 22618 net.cpp:157] Top shape: 1 512 38 63 (1225728)
I0628 16:42:08.588270 22618 net.cpp:165] Memory required for data: 1424640876
I0628 16:42:08.588271 22618 layer_factory.hpp:77] Creating layer rpn_cls_score
I0628 16:42:08.588279 22618 net.cpp:106] Creating Layer rpn_cls_score
I0628 16:42:08.588280 22618 net.cpp:454] rpn_cls_score <- rpn/output_rpn_relu/3x3_0_split_0
I0628 16:42:08.588284 22618 net.cpp:411] rpn_cls_score -> rpn_cls_score
I0628 16:42:08.589746 22618 net.cpp:150] Setting up rpn_cls_score
I0628 16:42:08.589754 22618 net.cpp:157] Top shape: 1 30 38 63 (71820)
I0628 16:42:08.589756 22618 net.cpp:165] Memory required for data: 1424928156
I0628 16:42:08.589761 22618 layer_factory.hpp:77] Creating layer rpn_cls_score_rpn_cls_score_0_split
I0628 16:42:08.589764 22618 net.cpp:106] Creating Layer rpn_cls_score_rpn_cls_score_0_split
I0628 16:42:08.589766 22618 net.cpp:454] rpn_cls_score_rpn_cls_score_0_split <- rpn_cls_score
I0628 16:42:08.589769 22618 net.cpp:411] rpn_cls_score_rpn_cls_score_0_split -> rpn_cls_score_rpn_cls_score_0_split_0
I0628 16:42:08.589773 22618 net.cpp:411] rpn_cls_score_rpn_cls_score_0_split -> rpn_cls_score_rpn_cls_score_0_split_1
I0628 16:42:08.589807 22618 net.cpp:150] Setting up rpn_cls_score_rpn_cls_score_0_split
I0628 16:42:08.589813 22618 net.cpp:157] Top shape: 1 30 38 63 (71820)
I0628 16:42:08.589817 22618 net.cpp:157] Top shape: 1 30 38 63 (71820)
I0628 16:42:08.589820 22618 net.cpp:165] Memory required for data: 1425502716
I0628 16:42:08.589823 22618 layer_factory.hpp:77] Creating layer rpn_bbox_pred
I0628 16:42:08.589833 22618 net.cpp:106] Creating Layer rpn_bbox_pred
I0628 16:42:08.589836 22618 net.cpp:454] rpn_bbox_pred <- rpn/output_rpn_relu/3x3_0_split_1
I0628 16:42:08.589843 22618 net.cpp:411] rpn_bbox_pred -> rpn_bbox_pred
I0628 16:42:08.591260 22618 net.cpp:150] Setting up rpn_bbox_pred
I0628 16:42:08.591269 22618 net.cpp:157] Top shape: 1 60 38 63 (143640)
I0628 16:42:08.591270 22618 net.cpp:165] Memory required for data: 1426077276
I0628 16:42:08.591276 22618 layer_factory.hpp:77] Creating layer rpn_bbox_pred_rpn_bbox_pred_0_split
I0628 16:42:08.591282 22618 net.cpp:106] Creating Layer rpn_bbox_pred_rpn_bbox_pred_0_split
I0628 16:42:08.591286 22618 net.cpp:454] rpn_bbox_pred_rpn_bbox_pred_0_split <- rpn_bbox_pred
I0628 16:42:08.591292 22618 net.cpp:411] rpn_bbox_pred_rpn_bbox_pred_0_split -> rpn_bbox_pred_rpn_bbox_pred_0_split_0
I0628 16:42:08.591300 22618 net.cpp:411] rpn_bbox_pred_rpn_bbox_pred_0_split -> rpn_bbox_pred_rpn_bbox_pred_0_split_1
I0628 16:42:08.591332 22618 net.cpp:150] Setting up rpn_bbox_pred_rpn_bbox_pred_0_split
I0628 16:42:08.591336 22618 net.cpp:157] Top shape: 1 60 38 63 (143640)
I0628 16:42:08.591339 22618 net.cpp:157] Top shape: 1 60 38 63 (143640)
I0628 16:42:08.591342 22618 net.cpp:165] Memory required for data: 1427226396
I0628 16:42:08.591346 22618 layer_factory.hpp:77] Creating layer rpn_cls_score_reshape
I0628 16:42:08.591358 22618 net.cpp:106] Creating Layer rpn_cls_score_reshape
I0628 16:42:08.591362 22618 net.cpp:454] rpn_cls_score_reshape <- rpn_cls_score_rpn_cls_score_0_split_0
I0628 16:42:08.591368 22618 net.cpp:411] rpn_cls_score_reshape -> rpn_cls_score_reshape
I0628 16:42:08.591387 22618 net.cpp:150] Setting up rpn_cls_score_reshape
I0628 16:42:08.591390 22618 net.cpp:157] Top shape: 1 2 570 63 (71820)
I0628 16:42:08.591392 22618 net.cpp:165] Memory required for data: 1427513676
I0628 16:42:08.591393 22618 layer_factory.hpp:77] Creating layer rpn_cls_score_reshape_rpn_cls_score_reshape_0_split
I0628 16:42:08.591397 22618 net.cpp:106] Creating Layer rpn_cls_score_reshape_rpn_cls_score_reshape_0_split
I0628 16:42:08.591398 22618 net.cpp:454] rpn_cls_score_reshape_rpn_cls_score_reshape_0_split <- rpn_cls_score_reshape
I0628 16:42:08.591401 22618 net.cpp:411] rpn_cls_score_reshape_rpn_cls_score_reshape_0_split -> rpn_cls_score_reshape_rpn_cls_score_reshape_0_split_0
I0628 16:42:08.591404 22618 net.cpp:411] rpn_cls_score_reshape_rpn_cls_score_reshape_0_split -> rpn_cls_score_reshape_rpn_cls_score_reshape_0_split_1
I0628 16:42:08.591423 22618 net.cpp:150] Setting up rpn_cls_score_reshape_rpn_cls_score_reshape_0_split
I0628 16:42:08.591426 22618 net.cpp:157] Top shape: 1 2 570 63 (71820)
I0628 16:42:08.591428 22618 net.cpp:157] Top shape: 1 2 570 63 (71820)
I0628 16:42:08.591429 22618 net.cpp:165] Memory required for data: 1428088236
I0628 16:42:08.591431 22618 layer_factory.hpp:77] Creating layer rpn-data
I0628 16:42:08.591732 22618 net.cpp:106] Creating Layer rpn-data
I0628 16:42:08.591738 22618 net.cpp:454] rpn-data <- rpn_cls_score_rpn_cls_score_0_split_1
I0628 16:42:08.591742 22618 net.cpp:454] rpn-data <- gt_boxes_input-data_2_split_0
I0628 16:42:08.591745 22618 net.cpp:454] rpn-data <- im_info_input-data_1_split_0
I0628 16:42:08.591748 22618 net.cpp:454] rpn-data <- data_input-data_0_split_1
I0628 16:42:08.591751 22618 net.cpp:411] rpn-data -> rpn_labels
I0628 16:42:08.591756 22618 net.cpp:411] rpn-data -> rpn_bbox_targets
I0628 16:42:08.591760 22618 net.cpp:411] rpn-data -> rpn_bbox_inside_weights
I0628 16:42:08.591764 22618 net.cpp:411] rpn-data -> rpn_bbox_outside_weights
===================================anchor_scales in AnchorTargetLayer:=============(2, 4, 8, 16, 32)
I0628 16:42:08.592559 22618 net.cpp:150] Setting up rpn-data
I0628 16:42:08.592568 22618 net.cpp:157] Top shape: 1 1 570 63 (35910)
I0628 16:42:08.592571 22618 net.cpp:157] Top shape: 1 60 38 63 (143640)
I0628 16:42:08.592573 22618 net.cpp:157] Top shape: 1 60 38 63 (143640)
I0628 16:42:08.592576 22618 net.cpp:157] Top shape: 1 60 38 63 (143640)
I0628 16:42:08.592576 22618 net.cpp:165] Memory required for data: 1429955556
I0628 16:42:08.592578 22618 layer_factory.hpp:77] Creating layer rpn_loss_cls
I0628 16:42:08.592583 22618 net.cpp:106] Creating Layer rpn_loss_cls
I0628 16:42:08.592586 22618 net.cpp:454] rpn_loss_cls <- rpn_cls_score_reshape_rpn_cls_score_reshape_0_split_0
I0628 16:42:08.592589 22618 net.cpp:454] rpn_loss_cls <- rpn_labels
…
I0628 16:42:08.594393 22618 net.cpp:157] Top shape: (1)
I0628 16:42:08.594395 22618 net.cpp:160]     with loss weight 1
I0628 16:42:08.594400 22618 net.cpp:165] Memory required for data: 1429955564
I0628 16:42:08.594413 22618 layer_factory.hpp:77] Creating layer rpn_cls_prob
I0628 16:42:08.594419 22618 net.cpp:106] Creating Layer rpn_cls_prob
I0628 16:42:08.594421 22618 net.cpp:454] rpn_cls_prob <- rpn_cls_score_reshape_rpn_cls_score_reshape_0_split_1
I0628 16:42:08.594425 22618 net.cpp:411] rpn_cls_prob -> rpn_cls_prob
I0628 16:42:08.594599 22618 net.cpp:150] Setting up rpn_cls_prob
I0628 16:42:08.594605 22618 net.cpp:157] Top shape: 1 2 570 63 (71820)
I0628 16:42:08.594617 22618 net.cpp:165] Memory required for data: 1430242844
I0628 16:42:08.594619 22618 layer_factory.hpp:77] Creating layer rpn_cls_prob_reshape
I0628 16:42:08.594624 22618 net.cpp:106] Creating Layer rpn_cls_prob_reshape
I0628 16:42:08.594626 22618 net.cpp:454] rpn_cls_prob_reshape <- rpn_cls_prob
I0628 16:42:08.594630 22618 net.cpp:411] rpn_cls_prob_reshape -> rpn_cls_prob_reshape
I0628 16:42:08.594655 22618 net.cpp:150] Setting up rpn_cls_prob_reshape
I0628 16:42:08.594658 22618 net.cpp:157] Top shape: 1 30 38 63 (71820)
I0628 16:42:08.594660 22618 net.cpp:165] Memory required for data: 1430530124
I0628 16:42:08.594661 22618 layer_factory.hpp:77] Creating layer proposal
I0628 16:42:08.596165 22618 net.cpp:106] Creating Layer proposal
I0628 16:42:08.596173 22618 net.cpp:454] proposal <- rpn_cls_prob_reshape
I0628 16:42:08.596186 22618 net.cpp:454] proposal <- rpn_bbox_pred_rpn_bbox_pred_0_split_1
I0628 16:42:08.596189 22618 net.cpp:454] proposal <- im_info_input-data_1_split_1
I0628 16:42:08.596192 22618 net.cpp:411] proposal -> rpn_rois
=================================anchor_scales in ProposalLayer:=============(2, 4, 8, 16, 32)
I0628 16:42:08.597033 22618 net.cpp:150] Setting up proposal
I0628 16:42:08.597040 22618 net.cpp:157] Top shape: 1 5 (5)
I0628 16:42:08.597052 22618 net.cpp:165] Memory required for data: 1430530144
I0628 16:42:08.597054 22618 layer_factory.hpp:77] Creating layer roi-data
I0628 16:42:08.597249 22618 net.cpp:106] Creating Layer roi-data
I0628 16:42:08.597254 22618 net.cpp:454] roi-data <- rpn_rois
I0628 16:42:08.597268 22618 net.cpp:454] roi-data <- gt_boxes_input-data_2_split_1
I0628 16:42:08.597270 22618 net.cpp:454] roi-data <- im_info_input-data_1_split_2
I0628 16:42:08.597273 22618 net.cpp:454] roi-data <- seg_mask_inds
I0628 16:42:08.597275 22618 net.cpp:454] roi-data <- flipped
I0628 16:42:08.597278 22618 net.cpp:411] roi-data -> rois
I0628 16:42:08.597283 22618 net.cpp:411] roi-data -> labels
I0628 16:42:08.597287 22618 net.cpp:411] roi-data -> bbox_targets
I0628 16:42:08.597292 22618 net.cpp:411] roi-data -> bbox_inside_weights
I0628 16:42:08.597296 22618 net.cpp:411] roi-data -> bbox_outside_weights
I0628 16:42:08.597311 22618 net.cpp:411] roi-data -> mask_targets
I0628 16:42:08.597316 22618 net.cpp:411] roi-data -> rois_pos
I0628 16:42:08.597587 22618 net.cpp:150] Setting up roi-data
I0628 16:42:08.597594 22618 net.cpp:157] Top shape: 1 5 (5)
I0628 16:42:08.597610 22618 net.cpp:157] Top shape: 1 1 (1)
I0628 16:42:08.597612 22618 net.cpp:157] Top shape: 1 8 (8)
I0628 16:42:08.597615 22618 net.cpp:157] Top shape: 1 8 (8)
I0628 16:42:08.597616 22618 net.cpp:157] Top shape: 1 8 (8)
I0628 16:42:08.597618 22618 net.cpp:157] Top shape: 1 8 244 244 (476288)
I0628 16:42:08.597620 22618 net.cpp:157] Top shape: 1 5 (5)
I0628 16:42:08.597621 22618 net.cpp:165] Memory required for data: 1432435436
I0628 16:42:08.597623 22618 layer_factory.hpp:77] Creating layer roi_pool5
I0628 16:42:08.597633 22618 net.cpp:106] Creating Layer roi_pool5
I0628 16:42:08.597635 22618 net.cpp:454] roi_pool5 <- conv5_3_relu5_3_0_split_1
I0628 16:42:08.597638 22618 net.cpp:454] roi_pool5 <- rois
I0628 16:42:08.597651 22618 net.cpp:411] roi_pool5 -> pool5
I0628 16:42:08.597654 22618 roi_alignment_layer.cpp:32] Spatial scale: 0.0625
I0628 16:42:08.597735 22618 net.cpp:150] Setting up roi_pool5
I0628 16:42:08.597739 22618 net.cpp:157] Top shape: 1 512 7 7 (25088)
I0628 16:42:08.597741 22618 net.cpp:165] Memory required for data: 1432535788
I0628 16:42:08.597753 22618 layer_factory.hpp:77] Creating layer fc6
I0628 16:42:08.597756 22618 net.cpp:106] Creating Layer fc6
I0628 16:42:08.597759 22618 net.cpp:454] fc6 <- pool5
I0628 16:42:08.597761 22618 net.cpp:411] fc6 -> fc6
I0628 16:42:08.738644 22618 net.cpp:150] Setting up fc6
I0628 16:42:08.738729 22618 net.cpp:157] Top shape: 1 4096 (4096)
I0628 16:42:08.738749 22618 net.cpp:165] Memory required for data: 1432552172
I0628 16:42:08.738785 22618 layer_factory.hpp:77] Creating layer relu6
I0628 16:42:08.738811 22618 net.cpp:106] Creating Layer relu6
I0628 16:42:08.738826 22618 net.cpp:454] relu6 <- fc6
I0628 16:42:08.738843 22618 net.cpp:397] relu6 -> fc6 (in-place)
I0628 16:42:08.739169 22618 net.cpp:150] Setting up relu6
I0628 16:42:08.739193 22618 net.cpp:157] Top shape: 1 4096 (4096)
I0628 16:42:08.739203 22618 net.cpp:165] Memory required for data: 1432568556
I0628 16:42:08.739214 22618 layer_factory.hpp:77] Creating layer fc7
I0628 16:42:08.739230 22618 net.cpp:106] Creating Layer fc7
I0628 16:42:08.739241 22618 net.cpp:454] fc7 <- fc6
I0628 16:42:08.739255 22618 net.cpp:411] fc7 -> fc7
I0628 16:42:08.783896 22618 net.cpp:150] Setting up fc7
I0628 16:42:08.783931 22618 net.cpp:157] Top shape: 1 4096 (4096)
I0628 16:42:08.783936 22618 net.cpp:165] Memory required for data: 1432584940
I0628 16:42:08.783946 22618 layer_factory.hpp:77] Creating layer relu7
I0628 16:42:08.783957 22618 net.cpp:106] Creating Layer relu7
I0628 16:42:08.783964 22618 net.cpp:454] relu7 <- fc7
I0628 16:42:08.783982 22618 net.cpp:397] relu7 -> fc7 (in-place)
I0628 16:42:08.784158 22618 net.cpp:150] Setting up relu7
I0628 16:42:08.784165 22618 net.cpp:157] Top shape: 1 4096 (4096)
I0628 16:42:08.784168 22618 net.cpp:165] Memory required for data: 1432601324
I0628 16:42:08.784173 22618 layer_factory.hpp:77] Creating layer fc7_relu7_0_split
I0628 16:42:08.784179 22618 net.cpp:106] Creating Layer fc7_relu7_0_split
I0628 16:42:08.784184 22618 net.cpp:454] fc7_relu7_0_split <- fc7
I0628 16:42:08.784190 22618 net.cpp:411] fc7_relu7_0_split -> fc7_relu7_0_split_0
I0628 16:42:08.784198 22618 net.cpp:411] fc7_relu7_0_split -> fc7_relu7_0_split_1
I0628 16:42:08.784238 22618 net.cpp:150] Setting up fc7_relu7_0_split
I0628 16:42:08.784245 22618 net.cpp:157] Top shape: 1 4096 (4096)
I0628 16:42:08.784248 22618 net.cpp:157] Top shape: 1 4096 (4096)
I0628 16:42:08.784253 22618 net.cpp:165] Memory required for data: 1432634092
I0628 16:42:08.784256 22618 layer_factory.hpp:77] Creating layer cls_score
I0628 16:42:08.784265 22618 net.cpp:106] Creating Layer cls_score
I0628 16:42:08.784270 22618 net.cpp:454] cls_score <- fc7_relu7_0_split_0
I0628 16:42:08.784276 22618 net.cpp:411] cls_score -> cls_score
I0628 16:42:08.784520 22618 net.cpp:150] Setting up cls_score
I0628 16:42:08.784526 22618 net.cpp:157] Top shape: 1 2 (2)
I0628 16:42:08.784528 22618 net.cpp:165] Memory required for data: 1432634100
I0628 16:42:08.784535 22618 layer_factory.hpp:77] Creating layer bbox_pred
I0628 16:42:08.784541 22618 net.cpp:106] Creating Layer bbox_pred
I0628 16:42:08.784545 22618 net.cpp:454] bbox_pred <- fc7_relu7_0_split_1
I0628 16:42:08.784551 22618 net.cpp:411] bbox_pred -> bbox_pred
I0628 16:42:08.785310 22618 net.cpp:150] Setting up bbox_pred
I0628 16:42:08.785317 22618 net.cpp:157] Top shape: 1 8 (8)
I0628 16:42:08.785320 22618 net.cpp:165] Memory required for data: 1432634132
I0628 16:42:08.785326 22618 layer_factory.hpp:77] Creating layer loss_cls
I0628 16:42:08.785334 22618 net.cpp:106] Creating Layer loss_cls
I0628 16:42:08.785338 22618 net.cpp:454] loss_cls <- cls_score
I0628 16:42:08.785356 22618 net.cpp:454] loss_cls <- labels
I0628 16:42:08.785363 22618 net.cpp:411] loss_cls -> loss_cls
…
I0628 16:42:08.786229 22618 net.cpp:165] Memory required for data: 1432634140
I0628 16:42:08.786232 22618 layer_factory.hpp:77] Creating layer roi_pool5_2
I0628 16:42:08.786242 22618 net.cpp:106] Creating Layer roi_pool5_2
I0628 16:42:08.786245 22618 net.cpp:454] roi_pool5_2 <- conv5_3_relu5_3_0_split_2
I0628 16:42:08.786252 22618 net.cpp:454] roi_pool5_2 <- rois_pos
I0628 16:42:08.786262 22618 net.cpp:411] roi_pool5_2 -> pool5_2
I0628 16:42:08.786268 22618 roi_alignment_layer.cpp:32] Spatial scale: 0.0625
I0628 16:42:08.786335 22618 net.cpp:150] Setting up roi_pool5_2
I0628 16:42:08.786341 22618 net.cpp:157] Top shape: 1 512 7 7 (25088)
I0628 16:42:08.786345 22618 net.cpp:165] Memory required for data: 1432734492
I0628 16:42:08.786348 22618 layer_factory.hpp:77] Creating layer pool5_2_conv
I0628 16:42:08.786358 22618 net.cpp:106] Creating Layer pool5_2_conv
I0628 16:42:08.786362 22618 net.cpp:454] pool5_2_conv <- pool5_2
I0628 16:42:08.786368 22618 net.cpp:411] pool5_2_conv -> pool5_2_conv
I0628 16:42:08.793973 22618 net.cpp:150] Setting up pool5_2_conv
I0628 16:42:08.793993 22618 net.cpp:157] Top shape: 1 512 7 7 (25088)
I0628 16:42:08.793998 22618 net.cpp:165] Memory required for data: 1432834844
I0628 16:42:08.794018 22618 layer_factory.hpp:77] Creating layer pool5_2_conv_relu
I0628 16:42:08.794026 22618 net.cpp:106] Creating Layer pool5_2_conv_relu
I0628 16:42:08.794032 22618 net.cpp:454] pool5_2_conv_relu <- pool5_2_conv
I0628 16:42:08.794039 22618 net.cpp:411] pool5_2_conv_relu -> pool5_2_conv_relu
I0628 16:42:08.794181 22618 net.cpp:150] Setting up pool5_2_conv_relu
I0628 16:42:08.794188 22618 net.cpp:157] Top shape: 1 512 7 7 (25088)
I0628 16:42:08.794191 22618 net.cpp:165] Memory required for data: 1432935196
I0628 16:42:08.794205 22618 layer_factory.hpp:77] Creating layer pool5_2_conv2
I0628 16:42:08.794231 22618 net.cpp:106] Creating Layer pool5_2_conv2
I0628 16:42:08.794235 22618 net.cpp:454] pool5_2_conv2 <- pool5_2_conv_relu
I0628 16:42:08.794241 22618 net.cpp:411] pool5_2_conv2 -> pool5_2_conv2
I0628 16:42:08.845283 22618 net.cpp:150] Setting up pool5_2_conv2
I0628 16:42:08.845302 22618 net.cpp:157] Top shape: 1 512 7 7 (25088)
I0628 16:42:08.845305 22618 net.cpp:165] Memory required for data: 1433035548
I0628 16:42:08.845315 22618 layer_factory.hpp:77] Creating layer pool5_2_conv2_relu
I0628 16:42:08.845335 22618 net.cpp:106] Creating Layer pool5_2_conv2_relu
I0628 16:42:08.845340 22618 net.cpp:454] pool5_2_conv2_relu <- pool5_2_conv2
I0628 16:42:08.845360 22618 net.cpp:411] pool5_2_conv2_relu -> pool5_2_conv2_relu
I0628 16:42:08.845536 22618 net.cpp:150] Setting up pool5_2_conv2_relu
I0628 16:42:08.845543 22618 net.cpp:157] Top shape: 1 512 7 7 (25088)
I0628 16:42:08.845546 22618 net.cpp:165] Memory required for data: 1433135900
I0628 16:42:08.845551 22618 layer_factory.hpp:77] Creating layer mask_deconv1
I0628 16:42:08.845559 22618 net.cpp:106] Creating Layer mask_deconv1
I0628 16:42:08.845562 22618 net.cpp:454] mask_deconv1 <- pool5_2_conv2_relu
I0628 16:42:08.845582 22618 net.cpp:411] mask_deconv1 -> mask_deconv1
I0628 16:42:08.846395 22618 net.cpp:150] Setting up mask_deconv1
I0628 16:42:08.846402 22618 net.cpp:157] Top shape: 1 256 30 30 (230400)
I0628 16:42:08.846405 22618 net.cpp:165] Memory required for data: 1434057500
I0628 16:42:08.846411 22618 layer_factory.hpp:77] Creating layer pool5_2_conv3
I0628 16:42:08.846432 22618 net.cpp:106] Creating Layer pool5_2_conv3
I0628 16:42:08.846436 22618 net.cpp:454] pool5_2_conv3 <- mask_deconv1
I0628 16:42:08.846451 22618 net.cpp:411] pool5_2_conv3 -> pool5_2_conv3
I0628 16:42:08.872223 22618 net.cpp:150] Setting up pool5_2_conv3
I0628 16:42:08.872242 22618 net.cpp:157] Top shape: 1 512 30 30 (460800)
I0628 16:42:08.872246 22618 net.cpp:165] Memory required for data: 1435900700
I0628 16:42:08.872254 22618 layer_factory.hpp:77] Creating layer pool5_2_conv3_relu
I0628 16:42:08.872263 22618 net.cpp:106] Creating Layer pool5_2_conv3_relu
I0628 16:42:08.872283 22618 net.cpp:454] pool5_2_conv3_relu <- pool5_2_conv3
I0628 16:42:08.872299 22618 net.cpp:411] pool5_2_conv3_relu -> pool5_2_conv3_relu
I0628 16:42:08.872447 22618 net.cpp:150] Setting up pool5_2_conv3_relu
I0628 16:42:08.872453 22618 net.cpp:157] Top shape: 1 512 30 30 (460800)
I0628 16:42:08.872457 22618 net.cpp:165] Memory required for data: 1437743900
I0628 16:42:08.872459 22618 layer_factory.hpp:77] Creating layer pool5_2_conv4
I0628 16:42:08.872469 22618 net.cpp:106] Creating Layer pool5_2_conv4
I0628 16:42:08.872488 22618 net.cpp:454] pool5_2_conv4 <- pool5_2_conv3_relu
I0628 16:42:08.872493 22618 net.cpp:411] pool5_2_conv4 -> pool5_2_conv4
I0628 16:42:08.922045 22618 net.cpp:150] Setting up pool5_2_conv4
I0628 16:42:08.922065 22618 net.cpp:157] Top shape: 1 512 30 30 (460800)
I0628 16:42:08.922068 22618 net.cpp:165] Memory required for data: 1439587100
I0628 16:42:08.922077 22618 layer_factory.hpp:77] Creating layer pool5_2_conv4_relu
I0628 16:42:08.922086 22618 net.cpp:106] Creating Layer pool5_2_conv4_relu
I0628 16:42:08.922104 22618 net.cpp:454] pool5_2_conv4_relu <- pool5_2_conv4
I0628 16:42:08.922122 22618 net.cpp:411] pool5_2_conv4_relu -> pool5_2_conv4_relu
I0628 16:42:08.922268 22618 net.cpp:150] Setting up pool5_2_conv4_relu
I0628 16:42:08.922276 22618 net.cpp:157] Top shape: 1 512 30 30 (460800)
I0628 16:42:08.922279 22618 net.cpp:165] Memory required for data: 1441430300
I0628 16:42:08.922282 22618 layer_factory.hpp:77] Creating layer pool5_2_conv4_relu_pool5_2_conv4_relu_0_split
I0628 16:42:08.922299 22618 net.cpp:106] Creating Layer pool5_2_conv4_relu_pool5_2_conv4_relu_0_split
I0628 16:42:08.922303 22618 net.cpp:454] pool5_2_conv4_relu_pool5_2_conv4_relu_0_split <- pool5_2_conv4_relu
I0628 16:42:08.922308 22618 net.cpp:411] pool5_2_conv4_relu_pool5_2_conv4_relu_0_split -> pool5_2_conv4_relu_pool5_2_conv4_relu_0_split_0
I0628 16:42:08.922314 22618 net.cpp:411] pool5_2_conv4_relu_pool5_2_conv4_relu_0_split -> pool5_2_conv4_relu_pool5_2_conv4_relu_0_split_1
I0628 16:42:08.922328 22618 net.cpp:411] pool5_2_conv4_relu_pool5_2_conv4_relu_0_split -> pool5_2_conv4_relu_pool5_2_conv4_relu_0_split_2
I0628 16:42:08.922335 22618 net.cpp:411] pool5_2_conv4_relu_pool5_2_conv4_relu_0_split -> pool5_2_conv4_relu_pool5_2_conv4_relu_0_split_3
I0628 16:42:08.922407 22618 net.cpp:150] Setting up pool5_2_conv4_relu_pool5_2_conv4_relu_0_split
I0628 16:42:08.922422 22618 net.cpp:157] Top shape: 1 512 30 30 (460800)
I0628 16:42:08.922436 22618 net.cpp:157] Top shape: 1 512 30 30 (460800)
I0628 16:42:08.922441 22618 net.cpp:157] Top shape: 1 512 30 30 (460800)
I0628 16:42:08.922446 22618 net.cpp:157] Top shape: 1 512 30 30 (460800)
I0628 16:42:08.922458 22618 net.cpp:165] Memory required for data: 1448803100
I0628 16:42:08.922461 22618 layer_factory.hpp:77] Creating layer query_conv
I0628 16:42:08.922472 22618 net.cpp:106] Creating Layer query_conv
I0628 16:42:08.922483 22618 net.cpp:454] query_conv <- pool5_2_conv4_relu_pool5_2_conv4_relu_0_split_0
I0628 16:42:08.922488 22618 net.cpp:411] query_conv -> query_conv
I0628 16:42:08.924088 22618 net.cpp:150] Setting up query_conv
I0628 16:42:08.924098 22618 net.cpp:157] Top shape: 1 64 30 30 (57600)
I0628 16:42:08.924100 22618 net.cpp:165] Memory required for data: 1449033500
I0628 16:42:08.924108 22618 layer_factory.hpp:77] Creating layer key_conv
I0628 16:42:08.924118 22618 net.cpp:106] Creating Layer key_conv
I0628 16:42:08.924122 22618 net.cpp:454] key_conv <- pool5_2_conv4_relu_pool5_2_conv4_relu_0_split_1
I0628 16:42:08.924129 22618 net.cpp:411] key_conv -> key_conv
I0628 16:42:08.927556 22618 net.cpp:150] Setting up key_conv
I0628 16:42:08.927567 22618 net.cpp:157] Top shape: 1 64 30 30 (57600)
I0628 16:42:08.927569 22618 net.cpp:165] Memory required for data: 1449263900
I0628 16:42:08.927577 22618 layer_factory.hpp:77] Creating layer value_conv
I0628 16:42:08.927598 22618 net.cpp:106] Creating Layer value_conv
I0628 16:42:08.927603 22618 net.cpp:454] value_conv <- pool5_2_conv4_relu_pool5_2_conv4_relu_0_split_2
I0628 16:42:08.927608 22618 net.cpp:411] value_conv -> value_conv
I0628 16:42:08.938865 22618 net.cpp:150] Setting up value_conv
I0628 16:42:08.938882 22618 net.cpp:157] Top shape: 1 512 30 30 (460800)
I0628 16:42:08.938884 22618 net.cpp:165] Memory required for data: 1451107100
I0628 16:42:08.938890 22618 layer_factory.hpp:77] Creating layer query_conv_reshape
I0628 16:42:08.938899 22618 net.cpp:106] Creating Layer query_conv_reshape
I0628 16:42:08.938905 22618 net.cpp:454] query_conv_reshape <- query_conv
I0628 16:42:08.938920 22618 net.cpp:411] query_conv_reshape -> query_conv_reshape
I0628 16:42:08.938969 22618 net.cpp:150] Setting up query_conv_reshape
I0628 16:42:08.938983 22618 net.cpp:157] Top shape: 1 64 900 1 (57600)
I0628 16:42:08.938984 22618 net.cpp:165] Memory required for data: 1451337500
I0628 16:42:08.938987 22618 layer_factory.hpp:77] Creating layer key_conv_reshape
I0628 16:42:08.938989 22618 net.cpp:106] Creating Layer key_conv_reshape
I0628 16:42:08.939005 22618 net.cpp:454] key_conv_reshape <- key_conv
I0628 16:42:08.939008 22618 net.cpp:411] key_conv_reshape -> key_conv_reshape
I0628 16:42:08.939041 22618 net.cpp:150] Setting up key_conv_reshape
I0628 16:42:08.939044 22618 net.cpp:157] Top shape: 1 64 900 1 (57600)
I0628 16:42:08.939046 22618 net.cpp:165] Memory required for data: 1451567900
I0628 16:42:08.939049 22618 layer_factory.hpp:77] Creating layer value_conv_reshape
I0628 16:42:08.939060 22618 net.cpp:106] Creating Layer value_conv_reshape
I0628 16:42:08.939062 22618 net.cpp:454] value_conv_reshape <- value_conv
I0628 16:42:08.939065 22618 net.cpp:411] value_conv_reshape -> value_conv_reshape
I0628 16:42:08.939097 22618 net.cpp:150] Setting up value_conv_reshape
I0628 16:42:08.939100 22618 net.cpp:157] Top shape: 1 512 900 1 (460800)
I0628 16:42:08.939101 22618 net.cpp:165] Memory required for data: 1453411100
I0628 16:42:08.939103 22618 layer_factory.hpp:77] Creating layer query_conv_reshape_perm
I0628 16:42:08.939119 22618 net.cpp:106] Creating Layer query_conv_reshape_perm
I0628 16:42:08.939122 22618 net.cpp:454] query_conv_reshape_perm <- query_conv_reshape
I0628 16:42:08.939126 22618 net.cpp:411] query_conv_reshape_perm -> query_conv_reshape_perm
I0628 16:42:08.939225 22618 net.cpp:150] Setting up query_conv_reshape_perm
I0628 16:42:08.939229 22618 net.cpp:157] Top shape: 1 1 900 64 (57600)
I0628 16:42:08.939230 22618 net.cpp:165] Memory required for data: 1453641500
I0628 16:42:08.939232 22618 layer_factory.hpp:77] Creating layer key_conv_reshape_perm
I0628 16:42:08.939246 22618 net.cpp:106] Creating Layer key_conv_reshape_perm
I0628 16:42:08.939249 22618 net.cpp:454] key_conv_reshape_perm <- key_conv_reshape
I0628 16:42:08.939251 22618 net.cpp:411] key_conv_reshape_perm -> key_conv_reshape_perm
I0628 16:42:08.939335 22618 net.cpp:150] Setting up key_conv_reshape_perm
I0628 16:42:08.939339 22618 net.cpp:157] Top shape: 1 1 64 900 (57600)
I0628 16:42:08.939342 22618 net.cpp:165] Memory required for data: 1453871900
I0628 16:42:08.939353 22618 layer_factory.hpp:77] Creating layer energy
I0628 16:42:08.939357 22618 net.cpp:106] Creating Layer energy
I0628 16:42:08.939359 22618 net.cpp:454] energy <- query_conv_reshape_perm
I0628 16:42:08.939363 22618 net.cpp:454] energy <- key_conv_reshape_perm
I0628 16:42:08.939375 22618 net.cpp:411] energy -> energy
I0628 16:42:08.939389 22618 net.cpp:150] Setting up energy
I0628 16:42:08.939393 22618 net.cpp:157] Top shape: 1 1 900 900 (810000)
I0628 16:42:08.939394 22618 net.cpp:165] Memory required for data: 1457111900
I0628 16:42:08.939396 22618 layer_factory.hpp:77] Creating layer attention
I0628 16:42:08.939401 22618 net.cpp:106] Creating Layer attention
I0628 16:42:08.939404 22618 net.cpp:454] attention <- energy
I0628 16:42:08.939409 22618 net.cpp:411] attention -> attention
I0628 16:42:08.939579 22618 net.cpp:150] Setting up attention
I0628 16:42:08.939586 22618 net.cpp:157] Top shape: 1 1 900 900 (810000)
I0628 16:42:08.939590 22618 net.cpp:165] Memory required for data: 1460351900
I0628 16:42:08.939604 22618 layer_factory.hpp:77] Creating layer value_conv_reshape_perm
I0628 16:42:08.939610 22618 net.cpp:106] Creating Layer value_conv_reshape_perm
I0628 16:42:08.939613 22618 net.cpp:454] value_conv_reshape_perm <- value_conv_reshape
I0628 16:42:08.939617 22618 net.cpp:411] value_conv_reshape_perm -> value_conv_reshape_perm
I0628 16:42:08.939703 22618 net.cpp:150] Setting up value_conv_reshape_perm
I0628 16:42:08.939707 22618 net.cpp:157] Top shape: 1 1 512 900 (460800)
I0628 16:42:08.939712 22618 net.cpp:165] Memory required for data: 1462195100
I0628 16:42:08.939715 22618 layer_factory.hpp:77] Creating layer attention_perm
I0628 16:42:08.939720 22618 net.cpp:106] Creating Layer attention_perm
I0628 16:42:08.939724 22618 net.cpp:454] attention_perm <- attention
I0628 16:42:08.939728 22618 net.cpp:411] attention_perm -> attention_perm
I0628 16:42:08.939810 22618 net.cpp:150] Setting up attention_perm
I0628 16:42:08.939815 22618 net.cpp:157] Top shape: 1 1 900 900 (810000)
I0628 16:42:08.939817 22618 net.cpp:165] Memory required for data: 1465435100
I0628 16:42:08.939829 22618 layer_factory.hpp:77] Creating layer out
I0628 16:42:08.939832 22618 net.cpp:106] Creating Layer out
I0628 16:42:08.939836 22618 net.cpp:454] out <- value_conv_reshape_perm
I0628 16:42:08.939837 22618 net.cpp:454] out <- attention_perm
I0628 16:42:08.939841 22618 net.cpp:411] out -> out
I0628 16:42:08.939867 22618 net.cpp:150] Setting up out
I0628 16:42:08.939870 22618 net.cpp:157] Top shape: 1 1 512 900 (460800)
I0628 16:42:08.939874 22618 net.cpp:165] Memory required for data: 1467278300
I0628 16:42:08.939877 22618 layer_factory.hpp:77] Creating layer out_reshape
I0628 16:42:08.939882 22618 net.cpp:106] Creating Layer out_reshape
I0628 16:42:08.939895 22618 net.cpp:454] out_reshape <- out
I0628 16:42:08.939899 22618 net.cpp:411] out_reshape -> out_reshape
I0628 16:42:08.939915 22618 net.cpp:150] Setting up out_reshape
I0628 16:42:08.939919 22618 net.cpp:157] Top shape: 1 512 30 30 (460800)
I0628 16:42:08.939921 22618 net.cpp:165] Memory required for data: 1469121500
I0628 16:42:08.939934 22618 layer_factory.hpp:77] Creating layer out_reshape_scale
I0628 16:42:08.939937 22618 net.cpp:106] Creating Layer out_reshape_scale
I0628 16:42:08.939939 22618 net.cpp:454] out_reshape_scale <- out_reshape
I0628 16:42:08.939952 22618 net.cpp:411] out_reshape_scale -> out_reshape_scale
I0628 16:42:08.940018 22618 net.cpp:150] Setting up out_reshape_scale
I0628 16:42:08.940021 22618 net.cpp:157] Top shape: 1 512 30 30 (460800)
I0628 16:42:08.940024 22618 net.cpp:165] Memory required for data: 1470964700
I0628 16:42:08.940037 22618 layer_factory.hpp:77] Creating layer out_x
I0628 16:42:08.940040 22618 net.cpp:106] Creating Layer out_x
I0628 16:42:08.940043 22618 net.cpp:454] out_x <- out_reshape_scale
I0628 16:42:08.940045 22618 net.cpp:454] out_x <- pool5_2_conv4_relu_pool5_2_conv4_relu_0_split_3
I0628 16:42:08.940048 22618 net.cpp:411] out_x -> out_x
I0628 16:42:08.940068 22618 net.cpp:150] Setting up out_x
I0628 16:42:08.940071 22618 net.cpp:157] Top shape: 1 512 30 30 (460800)
I0628 16:42:08.940074 22618 net.cpp:165] Memory required for data: 1472807900
I0628 16:42:08.940078 22618 layer_factory.hpp:77] Creating layer mask_deconv2
I0628 16:42:08.940086 22618 net.cpp:106] Creating Layer mask_deconv2
I0628 16:42:08.940089 22618 net.cpp:454] mask_deconv2 <- out_x
I0628 16:42:08.940093 22618 net.cpp:411] mask_deconv2 -> mask_deconv2
I0628 16:42:08.940881 22618 net.cpp:150] Setting up mask_deconv2
I0628 16:42:08.940886 22618 net.cpp:157] Top shape: 1 256 122 122 (3810304)
I0628 16:42:08.940887 22618 net.cpp:165] Memory required for data: 1488049116
I0628 16:42:08.940891 22618 layer_factory.hpp:77] Creating layer pool5_2_conv5
I0628 16:42:08.940897 22618 net.cpp:106] Creating Layer pool5_2_conv5
I0628 16:42:08.940899 22618 net.cpp:454] pool5_2_conv5 <- mask_deconv2
I0628 16:42:08.940903 22618 net.cpp:411] pool5_2_conv5 -> pool5_2_conv5
I0628 16:42:08.966935 22618 net.cpp:150] Setting up pool5_2_conv5
I0628 16:42:08.966953 22618 net.cpp:157] Top shape: 1 512 122 122 (7620608)
I0628 16:42:08.966955 22618 net.cpp:165] Memory required for data: 1518531548
I0628 16:42:08.966961 22618 layer_factory.hpp:77] Creating layer pool5_2_conv5_relu
I0628 16:42:08.966969 22618 net.cpp:106] Creating Layer pool5_2_conv5_relu
I0628 16:42:08.966982 22618 net.cpp:454] pool5_2_conv5_relu <- pool5_2_conv5
I0628 16:42:08.966986 22618 net.cpp:411] pool5_2_conv5_relu -> pool5_2_conv5_relu
I0628 16:42:08.967147 22618 net.cpp:150] Setting up pool5_2_conv5_relu
I0628 16:42:08.967154 22618 net.cpp:157] Top shape: 1 512 122 122 (7620608)
I0628 16:42:08.967155 22618 net.cpp:165] Memory required for data: 1549013980
I0628 16:42:08.967157 22618 layer_factory.hpp:77] Creating layer pool5_2_conv6
I0628 16:42:08.967164 22618 net.cpp:106] Creating Layer pool5_2_conv6
I0628 16:42:08.967166 22618 net.cpp:454] pool5_2_conv6 <- pool5_2_conv5_relu
I0628 16:42:08.967170 22618 net.cpp:411] pool5_2_conv6 -> pool5_2_conv6
I0628 16:42:09.016496 22618 net.cpp:150] Setting up pool5_2_conv6
I0628 16:42:09.016513 22618 net.cpp:157] Top shape: 1 512 122 122 (7620608)
I0628 16:42:09.016516 22618 net.cpp:165] Memory required for data: 1579496412
I0628 16:42:09.016522 22618 layer_factory.hpp:77] Creating layer pool5_2_conv6_relu
I0628 16:42:09.016530 22618 net.cpp:106] Creating Layer pool5_2_conv6_relu
I0628 16:42:09.016544 22618 net.cpp:454] pool5_2_conv6_relu <- pool5_2_conv6
I0628 16:42:09.016548 22618 net.cpp:411] pool5_2_conv6_relu -> pool5_2_conv6_relu
I0628 16:42:09.017046 22618 net.cpp:150] Setting up pool5_2_conv6_relu
I0628 16:42:09.017055 22618 net.cpp:157] Top shape: 1 512 122 122 (7620608)
I0628 16:42:09.017056 22618 net.cpp:165] Memory required for data: 1609978844
I0628 16:42:09.017058 22618 layer_factory.hpp:77] Creating layer mask_deconv3
I0628 16:42:09.017065 22618 net.cpp:106] Creating Layer mask_deconv3
I0628 16:42:09.017066 22618 net.cpp:454] mask_deconv3 <- pool5_2_conv6_relu
I0628 16:42:09.017071 22618 net.cpp:411] mask_deconv3 -> mask_deconv3
I0628 16:42:09.017485 22618 net.cpp:150] Setting up mask_deconv3
I0628 16:42:09.017491 22618 net.cpp:157] Top shape: 1 256 244 244 (15241216)
I0628 16:42:09.017503 22618 net.cpp:165] Memory required for data: 1670943708
I0628 16:42:09.017513 22618 layer_factory.hpp:77] Creating layer mask_score
I0628 16:42:09.017531 22618 net.cpp:106] Creating Layer mask_score
I0628 16:42:09.017534 22618 net.cpp:454] mask_score <- mask_deconv3
I0628 16:42:09.017539 22618 net.cpp:411] mask_score -> mask_score
I0628 16:42:09.018110 22618 net.cpp:150] Setting up mask_score
I0628 16:42:09.018116 22618 net.cpp:157] Top shape: 1 8 244 244 (476288)
I0628 16:42:09.018128 22618 net.cpp:165] Memory required for data: 1672848860
I0628 16:42:09.018132 22618 layer_factory.hpp:77] Creating layer prob
I0628 16:42:09.018137 22618 net.cpp:106] Creating Layer prob
I0628 16:42:09.018139 22618 net.cpp:454] prob <- mask_score
I0628 16:42:09.018142 22618 net.cpp:411] prob -> mask_score_softmax
I0628 16:42:09.018698 22618 net.cpp:150] Setting up prob
I0628 16:42:09.018707 22618 net.cpp:157] Top shape: 1 8 244 244 (476288)
I0628 16:42:09.018718 22618 net.cpp:165] Memory required for data: 1674754012
I0628 16:42:09.018720 22618 layer_factory.hpp:77] Creating layer log
I0628 16:42:09.018724 22618 net.cpp:106] Creating Layer log
I0628 16:42:09.018726 22618 net.cpp:454] log <- mask_score_softmax
I0628 16:42:09.018729 22618 net.cpp:411] log -> log
I0628 16:42:09.018771 22618 net.cpp:150] Setting up log
I0628 16:42:09.018774 22618 net.cpp:157] Top shape: 1 8 244 244 (476288)
I0628 16:42:09.018776 22618 net.cpp:165] Memory required for data: 1676659164
I0628 16:42:09.018788 22618 layer_factory.hpp:77] Creating layer mult1
I0628 16:42:09.018792 22618 net.cpp:106] Creating Layer mult1
I0628 16:42:09.018793 22618 net.cpp:454] mult1 <- log
I0628 16:42:09.018796 22618 net.cpp:454] mult1 <- mask_targets
I0628 16:42:09.018800 22618 net.cpp:411] mult1 -> mult1
I0628 16:42:09.018837 22618 net.cpp:150] Setting up mult1
I0628 16:42:09.018851 22618 net.cpp:157] Top shape: 1 8 244 244 (476288)
I0628 16:42:09.018852 22618 net.cpp:165] Memory required for data: 1678564316
I0628 16:42:09.018854 22618 layer_factory.hpp:77] Creating layer cross_entropy
I0628 16:42:09.018858 22618 net.cpp:106] Creating Layer cross_entropy
I0628 16:42:09.018869 22618 net.cpp:454] cross_entropy <- mult1
I0628 16:42:09.018873 22618 net.cpp:411] cross_entropy -> cross_entropy
I0628 16:42:09.018890 22618 net.cpp:150] Setting up cross_entropy
I0628 16:42:09.018894 22618 net.cpp:157] Top shape: 1 8 244 244 (476288)
I0628 16:42:09.018905 22618 net.cpp:165] Memory required for data: 1680469468
I0628 16:42:09.018906 22618 layer_factory.hpp:77] Creating layer ce_sum
I0628 16:42:09.018911 22618 net.cpp:106] Creating Layer ce_sum
I0628 16:42:09.018923 22618 net.cpp:454] ce_sum <- cross_entropy
I0628 16:42:09.018926 22618 net.cpp:411] ce_sum -> cross_entropy_sum
I0628 16:42:09.020174 22618 net.cpp:150] Setting up ce_sum
I0628 16:42:09.020182 22618 net.cpp:157] Top shape: 1 1 244 244 (59536)
I0628 16:42:09.020184 22618 net.cpp:165] Memory required for data: 1680707612
I0628 16:42:09.020187 22618 layer_factory.hpp:77] Creating layer ce_mean
I0628 16:42:09.020191 22618 net.cpp:106] Creating Layer ce_mean
I0628 16:42:09.020195 22618 net.cpp:454] ce_mean <- cross_entropy_sum
I0628 16:42:09.020197 22618 net.cpp:411] ce_mean -> cross_entropy_mean
I0628 16:42:09.020298 22618 net.cpp:150] Setting up ce_mean
…
