…
average_loss: 100
iter_size: 2
I0628 00:19:09.554391  7878 solver.cpp:81] Creating training net from train_net file: models/pascal_voc/VGG16/faster_rcnn_end2end/train.prototxt
I0628 00:19:09.556577  7878 net.cpp:49] Initializing net from parameters: 
name: "VGG_ILSVRC_16_layers"
state {
  phase: TRAIN
}
layer {
  name: "input-data"
  type: "Python"
  top: "data"
  top: "im_info"
  top: "gt_boxes"
  top: "seg_mask_inds"
  top: "flipped"
  python_param {
    module: "roi_data_layer.layer"
    layer: "RoIDataLayer"
    param_str: "\'num_classes\': 2"
  }
}
layer {
  name: "conv1_1"
  type: "Convolution"
  bottom: "data"
  top: "conv1_1"
  param {
    lr_mult: 0
    decay_mult: 0
  }
  param {
    lr_mult: 0
    decay_mult: 0
  }
  convolution_param {
    num_output: 64
    pad: 1
    kernel_size: 3
  }
}
layer {
  name: "relu1_1"
  type: "ReLU"
  bottom: "conv1_1"
  top: "conv1_1"
}
layer {
  name: "conv1_2"
  type: "Convolution"
  bottom: "conv1_1"
  top: "conv1_2"
  param {
    lr_mult: 0
    decay_mult: 0
  }
  param {
    lr_mult: 0
    decay_mult: 0
  }
  convolution_param {
    num_output: 64
    pad: 1
    kernel_size: 3
  }
}
layer {
  name: "relu1_2"
  type: "ReLU"
  bottom: "conv1_2"
  top: "conv1_2"
}
layer {
  name: "pool1"
  type: "Pooling"
  bottom: "conv1_2"
  top: "pool1"
  pooling_param {
    pool: MAX
    kernel_size: 2
    stride: 2
  }
}
layer {
  name: "conv2_1"
  type: "Convolution"
  bottom: "pool1"
  top: "conv2_1"
  param {
    lr_mult: 0
    decay_mult: 0
  }
  param {
    lr_mult: 0
    decay_mult: 0
  }
  convolution_param {
    num_output: 128
    pad: 1
    kernel_size: 3
  }
}
layer {
  name: "relu2_1"
  type: "ReLU"
  bottom: "conv2_1"
  top: "conv2_1"
}
layer {
  name: "conv2_2"
  type: "Convolution"
  bottom: "conv2_1"
  top: "conv2_2"
  param {
    lr_mult: 0
    decay_mult: 0
  }
  param {
    lr_mult: 0
    decay_mult: 0
  }
  convolution_param {
    num_output: 128
    pad: 1
    kernel_size: 3
  }
}
layer {
  name: "relu2_2"
  type: "ReLU"
  bottom: "conv2_2"
  top: "conv2_2"
}
layer {
  name: "pool2"
  type: "Pooling"
  bottom: "conv2_2"
  top: "pool2"
  pooling_param {
    pool: MAX
    kernel_size: 2
    stride: 2
  }
}
layer {
  name: "conv3_1"
  type: "Convolution"
  bottom: "pool2"
  top: "conv3_1"
  param {
    lr_mult: 1
  }
  param {
    lr_mult: 2
  }
  convolution_param {
    num_output: 256
    pad: 1
    kernel_size: 3
  }
}
layer {
  name: "relu3_1"
  type: "ReLU"
  bottom: "conv3_1"
  top: "conv3_1"
}
layer {
  name: "conv3_2"
  type: "Convolution"
  bottom: "conv3_1"
  top: "conv3_2"
  param {
    lr_mult: 1
  }
  param {
    lr_mult: 2
  }
  convolution_param {
    num_output: 256
    pad: 1
    kernel_size: 3
  }
}
layer {
  name: "relu3_2"
  type: "ReLU"
  bottom: "conv3_2"
  top: "conv3_2"
}
layer {
  name: "conv3_3"
  type: "Convolution"
  bottom: "conv3_2"
  top: "conv3_3"
  param {
    lr_mult: 1
  }
  param {
    lr_mult: 2
  }
  convolution_param {
    num_output: 256
    pad: 1
    kernel_size: 3
  }
}
layer {
  name: "relu3_3"
  type: "ReLU"
  bottom: "conv3_3"
  top: "conv3_3"
}
layer {
  name: "pool3"
  type: "Pooling"
  bottom: "conv3_3"
  top: "pool3"
  pooling_param {
    pool: MAX
    kernel_size: 2
    stride: 2
  }
}
layer {
  name: "conv4_1"
  type: "Convolution"
  bottom: "pool3"
  top: "conv4_1"
  param {
    lr_mult: 1
  }
  param {
    lr_mult: 2
  }
  convolution_param {
    num_output: 512
    pad: 1
    kernel_size: 3
  }
}
layer {
  name: "relu4_1"
  type: "ReLU"
  bottom: "conv4_1"
  top: "conv4_1"
}
layer {
  name: "conv4_2"
  type: "Convolution"
  bottom: "conv4_1"
  top: "conv4_2"
  param {
    lr_mult: 1
  }
  param {
    lr_mult: 2
  }
  convolution_param {
    num_output: 512
    pad: 1
    kernel_size: 3
  }
}
layer {
  name: "relu4_2"
  type: "ReLU"
  bottom: "conv4_2"
  top: "conv4_2"
}
layer {
  name: "conv4_3"
  type: "Convolution"
  bottom: "conv4_2"
  top: "conv4_3"
  param {
    lr_mult: 1
  }
  param {
    lr_mult: 2
  }
  convolution_param {
    num_output: 512
    pad: 1
    kernel_size: 3
  }
}
layer {
  name: "relu4_3"
  type: "ReLU"
  bottom: "conv4_3"
  top: "conv4_3"
}
layer {
  name: "pool4"
  type: "Pooling"
  bottom: "conv4_3"
  top: "pool4"
  pooling_param {
    pool: MAX
    kernel_size: 2
    stride: 2
  }
}
layer {
  name: "conv5_1"
  type: "Convolution"
  bottom: "pool4"
  top: "conv5_1"
  param {
    lr_mult: 1
  }
  param {
    lr_mult: 2
  }
  convolution_param {
    num_output: 512
    pad: 1
    kernel_size: 3
  }
}
layer {
  name: "relu5_1"
  type: "ReLU"
  bottom: "conv5_1"
  top: "conv5_1"
}
layer {
  name: "conv5_2"
  type: "Convolution"
  bottom: "conv5_1"
  top: "conv5_2"
  param {
    lr_mult: 1
  }
  param {
    lr_mult: 2
  }
  convolution_param {
    num_output: 512
    pad: 1
    kernel_size: 3
  }
}
layer {
  name: "relu5_2"
  type: "ReLU"
  bottom: "conv5_2"
  top: "conv5_2"
}
layer {
  name: "conv5_3"
  type: "Convolution"
  bottom: "conv5_2"
  top: "conv5_3"
  param {
    lr_mult: 1
  }
  param {
    lr_mult: 2
  }
  convolution_param {
    num_output: 512
    pad: 1
    kernel_size: 3
  }
}
layer {
  name: "relu5_3"
  type: "ReLU"
  bottom: "conv5_3"
  top: "conv5_3"
}
layer {
  name: "rpn_conv/3x3"
  type: "Convolution"
  bottom: "conv5_3"
  top: "rpn/output"
  param {
    lr_mult: 1
  }
  param {
    lr_mult: 2
  }
  convolution_param {
    num_output: 512
    pad: 1
    kernel_size: 3
    stride: 1
    weight_filler {
      type: "gaussian"
      std: 0.01
    }
    bias_filler {
      type: "constant"
      value: 0
    }
  }
}
layer {
  name: "rpn_relu/3x3"
  type: "ReLU"
  bottom: "rpn/output"
  top: "rpn/output"
}
layer {
  name: "rpn_cls_score"
  type: "Convolution"
  bottom: "rpn/output"
  top: "rpn_cls_score"
  param {
    lr_mult: 1
  }
  param {
    lr_mult: 2
  }
  convolution_param {
    num_output: 30
    pad: 0
    kernel_size: 1
    stride: 1
    weight_filler {
      type: "gaussian"
      std: 0.01
    }
    bias_filler {
      type: "constant"
      value: 0
    }
  }
}
layer {
  name: "rpn_bbox_pred"
  type: "Convolution"
  bottom: "rpn/output"
  top: "rpn_bbox_pred"
  param {
    lr_mult: 1
  }
  param {
    lr_mult: 2
  }
  convolution_param {
    num_output: 60
    pad: 0
    kernel_size: 1
    stride: 1
    weight_filler {
      type: "gaussian"
      std: 0.01
    }
    bias_filler {
      type: "constant"
      value: 0
    }
  }
}
layer {
  name: "rpn_cls_score_reshape"
  type: "Reshape"
  bottom: "rpn_cls_score"
  top: "rpn_cls_score_reshape"
  reshape_param {
    shape {
      dim: 0
      dim: 2
      dim: -1
      dim: 0
    }
  }
}
layer {
  name: "rpn-data"
  type: "Python"
  bottom: "rpn_cls_score"
  bottom: "gt_boxes"
  bottom: "im_info"
  bottom: "data"
  top: "rpn_labels"
  top: "rpn_bbox_targets"
  top: "rpn_bbox_inside_weights"
  top: "rpn_bbox_outside_weights"
  python_param {
    module: "rpn.anchor_target_layer"
    layer: "AnchorTargetLayer"
    param_str: "\'feat_stride\': 16 \n\'scales\': !!python/tuple [2, 4, 8, 16, 32]"
  }
}
layer {
  name: "rpn_loss_cls"
  type: "SoftmaxWithLoss"
  bottom: "rpn_cls_score_reshape"
  bottom: "rpn_labels"
  top: "rpn_cls_loss"
  loss_weight: 1
  propagate_down: true
  propagate_down: false
  loss_param {
    ignore_label: -1
    normalize: true
  }
}
layer {
  name: "rpn_loss_bbox"
  type: "SmoothL1Loss"
  bottom: "rpn_bbox_pred"
  bottom: "rpn_bbox_targets"
  bottom: "rpn_bbox_inside_weights"
  bottom: "rpn_bbox_outside_weights"
  top: "rpn_loss_bbox"
  loss_weight: 1
  smooth_l1_loss_param {
    sigma: 3
  }
}
layer {
  name: "rpn_cls_prob"
  type: "Softmax"
  bottom: "rpn_cls_score_reshape"
  top: "rpn_cls_prob"
}
layer {
  name: "rpn_cls_prob_reshape"
  type: "Reshape"
  bottom: "rpn_cls_prob"
  top: "rpn_cls_prob_reshape"
  reshape_param {
    shape {
      dim: 0
      dim: 30
      dim: -1
      dim: 0
    }
  }
}
layer {
  name: "proposal"
  type: "Python"
  bottom: "rpn_cls_prob_reshape"
  bottom: "rpn_bbox_pred"
  bottom: "im_info"
  top: "rpn_rois"
  python_param {
    module: "rpn.proposal_layer"
    layer: "ProposalLayer"
    param_str: "\'feat_stride\': 16 \n\'scales\': !!python/tuple [2, 4, 8, 16, 32]"
  }
}
layer {
  name: "roi-data"
  type: "Python"
  bottom: "rpn_rois"
  bottom: "gt_boxes"
  bottom: "im_info"
  bottom: "seg_mask_inds"
  bottom: "flipped"
  top: "rois"
  top: "labels"
  top: "bbox_targets"
  top: "bbox_inside_weights"
  top: "bbox_outside_weights"
  top: "mask_targets"
  top: "rois_pos"
  python_param {
    module: "rpn.proposal_target_layer"
    layer: "ProposalTargetLayer"
    param_str: "\'num_classes\': 2"
  }
}
layer {
  name: "roi_pool5"
  type: "ROIAlignment"
  bottom: "conv5_3"
  bottom: "rois"
  top: "pool5"
  roi_alignment_param {
    pooled_h: 7
    pooled_w: 7
    spatial_scale: 0.0625
  }
}
layer {
  name: "fc6"
  type: "InnerProduct"
  bottom: "pool5"
  top: "fc6"
  param {
    lr_mult: 1
  }
  param {
    lr_mult: 2
  }
  inner_product_param {
    num_output: 4096
  }
}
layer {
  name: "relu6"
  type: "ReLU"
  bottom: "fc6"
  top: "fc6"
}
layer {
  name: "fc7"
  type: "InnerProduct"
  bottom: "fc6"
  top: "fc7"
  param {
    lr_mult: 1
  }
  param {
    lr_mult: 2
  }
  inner_product_param {
    num_output: 4096
  }
}
layer {
  name: "relu7"
  type: "ReLU"
  bottom: "fc7"
  top: "fc7"
}
layer {
  name: "cls_score"
  type: "InnerProduct"
  bottom: "fc7"
  top: "cls_score"
  param {
    lr_mult: 1
  }
  param {
    lr_mult: 2
  }
  inner_product_param {
    num_output: 2
    weight_filler {
      type: "gaussian"
      std: 0.01
    }
    bias_filler {
      type: "constant"
      value: 0
    }
  }
}
layer {
  name: "bbox_pred"
  type: "InnerProduct"
  bottom: "fc7"
  top: "bbox_pred"
  param {
    lr_mult: 1
  }
  param {
    lr_mult: 2
  }
  inner_product_param {
    num_output: 8
    weight_filler {
      type: "gaussian"
      std: 0.001
    }
    bias_filler {
      type: "constant"
      value: 0
    }
  }
}
layer {
  name: "loss_cls"
  type: "SoftmaxWithLoss"
  bottom: "cls_score"
  bottom: "labels"
  top: "loss_cls"
  loss_weight: 3
  propagate_down: true
  propagate_down: false
}
layer {
  name: "loss_bbox"
  type: "SmoothL1Loss"
  bottom: "bbox_pred"
  bottom: "bbox_targets"
  bottom: "bbox_inside_weights"
  bottom: "bbox_outside_weights"
  top: "loss_bbox"
  loss_weight: 2
}
layer {
  name: "roi_pool5_2"
  type: "ROIAlignment"
  bottom: "conv5_3"
  bottom: "rois_pos"
  top: "pool5_2"
  roi_alignment_param {
    pooled_h: 7
    pooled_w: 7
    spatial_scale: 0.0625
  }
}
layer {
  name: "pool5_2_conv"
  type: "Convolution"
  bottom: "pool5_2"
  top: "pool5_2_conv"
  param {
    lr_mult: 1
    decay_mult: 1
  }
  param {
    lr_mult: 2
    decay_mult: 0
  }
  convolution_param {
    num_output: 512
    pad: 0
    kernel_size: 1
    weight_filler {
      type: "gaussian"
      std: 0.01
    }
    bias_filler {
      type: "constant"
      value: 0
    }
  }
}
layer {
  name: "pool5_2_conv_relu"
  type: "ReLU"
  bottom: "pool5_2_conv"
  top: "pool5_2_conv_relu"
}
layer {
  name: "pool5_2_conv2"
  type: "Convolution"
  bottom: "pool5_2_conv_relu"
  top: "pool5_2_conv2"
  param {
    lr_mult: 1
    decay_mult: 1
  }
  param {
    lr_mult: 2
    decay_mult: 0
  }
  convolution_param {
    num_output: 512
    pad: 1
    kernel_size: 3
    stride: 1
    weight_filler {
      type: "gaussian"
      std: 0.01
    }
    bias_filler {
      type: "constant"
      value: 0
    }
  }
}
layer {
  name: "pool5_2_conv2_relu"
  type: "ReLU"
  bottom: "pool5_2_conv2"
  top: "pool5_2_conv2_relu"
}
layer {
  name: "mask_deconv1"
  type: "Deconvolution"
  bottom: "pool5_2_conv2_relu"
  top: "mask_deconv1"
  param {
    lr_mult: 1
    decay_mult: 1
  }
  param {
    lr_mult: 2
    decay_mult: 0
  }
  convolution_param {
    num_output: 256
    pad: 1
    kernel_size: 8
    group: 256
    stride: 4
    weight_filler {
      type: "bilinear"
    }
  }
}
layer {
  name: "pool5_2_conv3"
  type: "Convolution"
  bottom: "mask_deconv1"
  top: "pool5_2_conv3"
  param {
    lr_mult: 1
    decay_mult: 1
  }
  param {
    lr_mult: 2
    decay_mult: 0
  }
  convolution_param {
    num_output: 512
    pad: 1
    kernel_size: 3
    stride: 1
    weight_filler {
      type: "gaussian"
      std: 0.01
    }
    bias_filler {
      type: "constant"
      value: 0
    }
  }
}
layer {
  name: "pool5_2_conv3_relu"
  type: "ReLU"
  bottom: "pool5_2_conv3"
  top: "pool5_2_conv3_relu"
}
layer {
  name: "pool5_2_conv4"
  type: "Convolution"
  bottom: "pool5_2_conv3_relu"
  top: "pool5_2_conv4"
  param {
    lr_mult: 1
    decay_mult: 1
  }
  param {
    lr_mult: 2
    decay_mult: 0
  }
  convolution_param {
    num_output: 512
    pad: 1
    kernel_size: 3
    stride: 1
    weight_filler {
      type: "gaussian"
      std: 0.01
    }
    bias_filler {
      type: "constant"
      value: 0
    }
  }
}
layer {
  name: "pool5_2_conv4_relu"
  type: "ReLU"
  bottom: "pool5_2_conv4"
  top: "pool5_2_conv4_relu"
}
layer {
  name: "query_conv"
  type: "Convolution"
  bottom: "pool5_2_conv4_relu"
  top: "query_conv"
  param {
    lr_mult: 1
    decay_mult: 1
  }
  param {
    lr_mult: 2
    decay_mult: 0
  }
  convolution_param {
    num_output: 64
    pad: 0
    kernel_size: 1
    stride: 1
    weight_filler {
      type: "gaussian"
      std: 0.01
    }
    bias_filler {
      type: "constant"
      value: 0
    }
  }
}
layer {
  name: "key_conv"
  type: "Convolution"
  bottom: "pool5_2_conv4_relu"
  top: "key_conv"
  param {
    lr_mult: 1
    decay_mult: 1
  }
  param {
    lr_mult: 2
    decay_mult: 0
  }
  convolution_param {
    num_output: 64
    pad: 0
    kernel_size: 1
    stride: 1
    weight_filler {
      type: "gaussian"
      std: 0.01
    }
    bias_filler {
      type: "constant"
      value: 0
    }
  }
}
layer {
  name: "value_conv"
  type: "Convolution"
  bottom: "pool5_2_conv4_relu"
  top: "value_conv"
  param {
    lr_mult: 1
    decay_mult: 1
  }
  param {
    lr_mult: 2
    decay_mult: 0
  }
  convolution_param {
    num_output: 512
    pad: 0
    kernel_size: 1
    stride: 1
    weight_filler {
      type: "gaussian"
      std: 0.01
    }
    bias_filler {
      type: "constant"
      value: 0
    }
  }
}
layer {
  name: "query_conv_reshape"
  type: "Reshape"
  bottom: "query_conv"
  top: "query_conv_reshape"
  reshape_param {
    shape {
      dim: -1
      dim: 64
      dim: 900
      dim: 1
    }
  }
}
layer {
  name: "key_conv_reshape"
  type: "Reshape"
  bottom: "key_conv"
  top: "key_conv_reshape"
  reshape_param {
    shape {
      dim: -1
      dim: 64
      dim: 900
      dim: 1
    }
  }
}
layer {
  name: "value_conv_reshape"
  type: "Reshape"
  bottom: "value_conv"
  top: "value_conv_reshape"
  reshape_param {
    shape {
      dim: -1
      dim: 512
      dim: 900
      dim: 1
    }
  }
}
layer {
  name: "query_conv_reshape_perm"
  type: "Permute"
  bottom: "query_conv_reshape"
  top: "query_conv_reshape_perm"
  permute_param {
    order: 0
    order: 3
    order: 2
    order: 1
  }
}
layer {
  name: "key_conv_reshape_perm"
  type: "Permute"
  bottom: "key_conv_reshape"
  top: "key_conv_reshape_perm"
  permute_param {
    order: 0
    order: 3
    order: 1
    order: 2
  }
}
layer {
  name: "energy"
  type: "MatrixMultiplication"
  bottom: "query_conv_reshape_perm"
  bottom: "key_conv_reshape_perm"
  top: "energy"
}
layer {
  name: "attention"
  type: "Softmax"
  bottom: "energy"
  top: "attention"
  softmax_param {
    axis: 3
  }
}
layer {
  name: "value_conv_reshape_perm"
  type: "Permute"
  bottom: "value_conv_reshape"
  top: "value_conv_reshape_perm"
  permute_param {
    order: 0
    order: 3
    order: 1
    order: 2
  }
}
layer {
  name: "attention_perm"
  type: "Permute"
  bottom: "attention"
  top: "attention_perm"
  permute_param {
    order: 0
    order: 1
    order: 2
    order: 3
  }
}
layer {
  name: "out"
  type: "MatrixMultiplication"
  bottom: "value_conv_reshape_perm"
  bottom: "attention_perm"
  top: "out"
}
layer {
  name: "out_reshape"
  type: "Reshape"
  bottom: "out"
  top: "out_reshape"
  reshape_param {
    shape {
      dim: -1
      dim: 512
      dim: 30
      dim: 30
    }
  }
}
layer {
  name: "out_reshape_scale"
  type: "Scale"
  bottom: "out_reshape"
  top: "out_reshape_scale"
  param {
    name: "scale_conv1_1"
    lr_mult: 1
  }
  scale_param {
    bias_term: false
  }
}
layer {
  name: "out_x"
  type: "Eltwise"
  bottom: "out_reshape_scale"
  bottom: "pool5_2_conv4_relu"
  top: "out_x"
  eltwise_param {
    operation: SUM
  }
}
layer {
  name: "mask_deconv2"
  type: "Deconvolution"
  bottom: "out_x"
  top: "mask_deconv2"
  param {
    lr_mult: 1
    decay_mult: 1
  }
  param {
    lr_mult: 2
    decay_mult: 0
  }
  convolution_param {
    num_output: 256
    pad: 1
    kernel_size: 8
    group: 256
    stride: 4
    weight_filler {
      type: "bilinear"
    }
  }
}
layer {
  name: "pool5_2_conv5"
  type: "Convolution"
  bottom: "mask_deconv2"
  top: "pool5_2_conv5"
  param {
    lr_mult: 1
    decay_mult: 1
  }
  param {
    lr_mult: 2
    decay_mult: 0
  }
  convolution_param {
    num_output: 512
    pad: 1
    kernel_size: 3
    stride: 1
    weight_filler {
      type: "gaussian"
      std: 0.01
    }
    bias_filler {
      type: "constant"
      value: 0
    }
  }
}
layer {
  name: "pool5_2_conv5_relu"
  type: "ReLU"
  bottom: "pool5_2_conv5"
  top: "pool5_2_conv5_relu"
}
layer {
  name: "pool5_2_conv6"
  type: "Convolution"
  bottom: "pool5_2_conv5_relu"
  top: "pool5_2_conv6"
  param {
    lr_mult: 1
    decay_mult: 1
  }
  param {
    lr_mult: 2
    decay_mult: 0
  }
  convolution_param {
    num_output: 512
    pad: 1
    kernel_size: 3
    stride: 1
    weight_filler {
      type: "gaussian"
      std: 0.01
    }
    bias_filler {
      type: "constant"
      value: 0
    }
  }
}
layer {
  name: "pool5_2_conv6_relu"
  type: "ReLU"
  bottom: "pool5_2_conv6"
  top: "pool5_2_conv6_relu"
}
layer {
  name: "mask_deconv3"
  type: "Deconvolution"
  bottom: "pool5_2_conv6_relu"
  top: "mask_deconv3"
  param {
    lr_mult: 1
    decay_mult: 1
  }
  param {
    lr_mult: 2
    decay_mult: 0
  }
  convolution_param {
    num_output: 256
    pad: 1
    kernel_size: 4
    group: 256
    stride: 2
    weight_filler {
      type: "bilinear"
    }
  }
}
layer {
  name: "mask_score"
  type: "Convolution"
  bottom: "mask_deconv3"
  top: "mask_score"
  param {
    lr_mult: 1
    decay_mult: 1
  }
  param {
    lr_mult: 2
    decay_mult: 0
  }
  convolution_param {
    num_output: 8
    pad: 0
    kernel_size: 1
    weight_filler {
      type: "gaussian"
      std: 0.01
    }
    bias_filler {
      type: "constant"
      value: 0
    }
  }
}
layer {
  name: "prob"
  type: "Softmax"
  bottom: "mask_score"
  top: "mask_score_softmax"
  softmax_param {
    axis: 1
  }
}
layer {
  name: "log"
  type: "Log"
  bottom: "mask_score_softmax"
  top: "log"
}
layer {
  name: "mult1"
  type: "Eltwise"
  bottom: "log"
  bottom: "mask_targets"
  top: "mult1"
  eltwise_param {
    operation: PROD
  }
}
layer {
  name: "cross_entropy"
  type: "Power"
  bottom: "mult1"
  top: "cross_entropy"
  power_param {
    power: 1
    scale: -1
    shift: 0
  }
}
layer {
  name: "ce_sum"
  type: "Convolution"
  bottom: "cross_entropy"
  top: "cross_entropy_sum"
  param {
    lr_mult: 0
    decay_mult: 0
  }
  convolution_param {
    num_output: 1
    bias_term: false
    kernel_size: 1
    weight_filler {
      type: "constant"
      value: 1
    }
  }
}
layer {
  name: "ce_mean"
  type: "Reduction"
  bottom: "cross_entropy_sum"
  top: "cross_entropy_mean"
  loss_weight: 3
  reduction_param {
    operation: MEAN
    axis: 0
  }
}
I0628 00:19:09.557061  7878 layer_factory.hpp:77] Creating layer input-data
I0628 00:19:09.665091  7878 net.cpp:106] Creating Layer input-data
I0628 00:19:09.665119  7878 net.cpp:411] input-data -> data
I0628 00:19:09.665145  7878 net.cpp:411] input-data -> im_info
I0628 00:19:09.665153  7878 net.cpp:411] input-data -> gt_boxes
I0628 00:19:09.665159  7878 net.cpp:411] input-data -> seg_mask_inds
I0628 00:19:09.665184  7878 net.cpp:411] input-data -> flipped
RoiDataLayer: name_to_top: {'gt_boxes': 2, 'data': 0, 'seg_mask_inds': 3, 'im_info': 1, 'flipped': 4}
I0628 00:19:09.753600  7878 net.cpp:150] Setting up input-data
I0628 00:19:09.753621  7878 net.cpp:157] Top shape: 1 3 600 1000 (1800000)
I0628 00:19:09.753626  7878 net.cpp:157] Top shape: 1 3 (3)
I0628 00:19:09.753629  7878 net.cpp:157] Top shape: 1 4 (4)
I0628 00:19:09.753633  7878 net.cpp:157] Top shape: 1 2 (2)
I0628 00:19:09.753636  7878 net.cpp:157] Top shape: 1 1 (1)
I0628 00:19:09.753639  7878 net.cpp:165] Memory required for data: 7200040
I0628 00:19:09.753646  7878 layer_factory.hpp:77] Creating layer data_input-data_0_split
I0628 00:19:09.754288  7878 net.cpp:106] Creating Layer data_input-data_0_split
I0628 00:19:09.754300  7878 net.cpp:454] data_input-data_0_split <- data
I0628 00:19:09.754307  7878 net.cpp:411] data_input-data_0_split -> data_input-data_0_split_0
I0628 00:19:09.754317  7878 net.cpp:411] data_input-data_0_split -> data_input-data_0_split_1
I0628 00:19:09.754360  7878 net.cpp:150] Setting up data_input-data_0_split
I0628 00:19:09.754369  7878 net.cpp:157] Top shape: 1 3 600 1000 (1800000)
I0628 00:19:09.754374  7878 net.cpp:157] Top shape: 1 3 600 1000 (1800000)
I0628 00:19:09.754377  7878 net.cpp:165] Memory required for data: 21600040
I0628 00:19:09.754381  7878 layer_factory.hpp:77] Creating layer im_info_input-data_1_split
I0628 00:19:09.754387  7878 net.cpp:106] Creating Layer im_info_input-data_1_split
I0628 00:19:09.754391  7878 net.cpp:454] im_info_input-data_1_split <- im_info
I0628 00:19:09.754396  7878 net.cpp:411] im_info_input-data_1_split -> im_info_input-data_1_split_0
I0628 00:19:09.754402  7878 net.cpp:411] im_info_input-data_1_split -> im_info_input-data_1_split_1
I0628 00:19:09.754410  7878 net.cpp:411] im_info_input-data_1_split -> im_info_input-data_1_split_2
I0628 00:19:09.754442  7878 net.cpp:150] Setting up im_info_input-data_1_split
I0628 00:19:09.754448  7878 net.cpp:157] Top shape: 1 3 (3)
I0628 00:19:09.754452  7878 net.cpp:157] Top shape: 1 3 (3)
I0628 00:19:09.754456  7878 net.cpp:157] Top shape: 1 3 (3)
I0628 00:19:09.754459  7878 net.cpp:165] Memory required for data: 21600076
I0628 00:19:09.754462  7878 layer_factory.hpp:77] Creating layer gt_boxes_input-data_2_split
I0628 00:19:09.754467  7878 net.cpp:106] Creating Layer gt_boxes_input-data_2_split
I0628 00:19:09.754472  7878 net.cpp:454] gt_boxes_input-data_2_split <- gt_boxes
I0628 00:19:09.754475  7878 net.cpp:411] gt_boxes_input-data_2_split -> gt_boxes_input-data_2_split_0
I0628 00:19:09.754482  7878 net.cpp:411] gt_boxes_input-data_2_split -> gt_boxes_input-data_2_split_1
I0628 00:19:09.754506  7878 net.cpp:150] Setting up gt_boxes_input-data_2_split
I0628 00:19:09.754513  7878 net.cpp:157] Top shape: 1 4 (4)
I0628 00:19:09.754515  7878 net.cpp:157] Top shape: 1 4 (4)
I0628 00:19:09.754518  7878 net.cpp:165] Memory required for data: 21600108
I0628 00:19:09.754521  7878 layer_factory.hpp:77] Creating layer conv1_1
I0628 00:19:09.754530  7878 net.cpp:106] Creating Layer conv1_1
I0628 00:19:09.754535  7878 net.cpp:454] conv1_1 <- data_input-data_0_split_0
I0628 00:19:09.754540  7878 net.cpp:411] conv1_1 -> conv1_1
I0628 00:19:10.253515  7878 net.cpp:150] Setting up conv1_1
I0628 00:19:10.253549  7878 net.cpp:157] Top shape: 1 64 600 1000 (38400000)
I0628 00:19:10.253552  7878 net.cpp:165] Memory required for data: 175200108
I0628 00:19:10.253567  7878 layer_factory.hpp:77] Creating layer relu1_1
I0628 00:19:10.253582  7878 net.cpp:106] Creating Layer relu1_1
I0628 00:19:10.253603  7878 net.cpp:454] relu1_1 <- conv1_1
I0628 00:19:10.253608  7878 net.cpp:397] relu1_1 -> conv1_1 (in-place)
I0628 00:19:10.253813  7878 net.cpp:150] Setting up relu1_1
I0628 00:19:10.253819  7878 net.cpp:157] Top shape: 1 64 600 1000 (38400000)
I0628 00:19:10.253821  7878 net.cpp:165] Memory required for data: 328800108
I0628 00:19:10.253824  7878 layer_factory.hpp:77] Creating layer conv1_2
I0628 00:19:10.253835  7878 net.cpp:106] Creating Layer conv1_2
I0628 00:19:10.253839  7878 net.cpp:454] conv1_2 <- conv1_1
I0628 00:19:10.253845  7878 net.cpp:411] conv1_2 -> conv1_2
I0628 00:19:10.256645  7878 net.cpp:150] Setting up conv1_2
I0628 00:19:10.256665  7878 net.cpp:157] Top shape: 1 64 600 1000 (38400000)
I0628 00:19:10.256669  7878 net.cpp:165] Memory required for data: 482400108
I0628 00:19:10.256678  7878 layer_factory.hpp:77] Creating layer relu1_2
I0628 00:19:10.256687  7878 net.cpp:106] Creating Layer relu1_2
I0628 00:19:10.256702  7878 net.cpp:454] relu1_2 <- conv1_2
I0628 00:19:10.256708  7878 net.cpp:397] relu1_2 -> conv1_2 (in-place)
I0628 00:19:10.256834  7878 net.cpp:150] Setting up relu1_2
I0628 00:19:10.256840  7878 net.cpp:157] Top shape: 1 64 600 1000 (38400000)
I0628 00:19:10.256842  7878 net.cpp:165] Memory required for data: 636000108
I0628 00:19:10.256844  7878 layer_factory.hpp:77] Creating layer pool1
I0628 00:19:10.256851  7878 net.cpp:106] Creating Layer pool1
I0628 00:19:10.256853  7878 net.cpp:454] pool1 <- conv1_2
I0628 00:19:10.256857  7878 net.cpp:411] pool1 -> pool1
I0628 00:19:10.257531  7878 net.cpp:150] Setting up pool1
I0628 00:19:10.257537  7878 net.cpp:157] Top shape: 1 64 300 500 (9600000)
I0628 00:19:10.257539  7878 net.cpp:165] Memory required for data: 674400108
I0628 00:19:10.257541  7878 layer_factory.hpp:77] Creating layer conv2_1
I0628 00:19:10.257547  7878 net.cpp:106] Creating Layer conv2_1
I0628 00:19:10.257551  7878 net.cpp:454] conv2_1 <- pool1
I0628 00:19:10.257557  7878 net.cpp:411] conv2_1 -> conv2_1
I0628 00:19:10.259531  7878 net.cpp:150] Setting up conv2_1
I0628 00:19:10.259551  7878 net.cpp:157] Top shape: 1 128 300 500 (19200000)
I0628 00:19:10.259553  7878 net.cpp:165] Memory required for data: 751200108
I0628 00:19:10.259560  7878 layer_factory.hpp:77] Creating layer relu2_1
I0628 00:19:10.259575  7878 net.cpp:106] Creating Layer relu2_1
I0628 00:19:10.259579  7878 net.cpp:454] relu2_1 <- conv2_1
I0628 00:19:10.259585  7878 net.cpp:397] relu2_1 -> conv2_1 (in-place)
I0628 00:19:10.260062  7878 net.cpp:150] Setting up relu2_1
I0628 00:19:10.260069  7878 net.cpp:157] Top shape: 1 128 300 500 (19200000)
I0628 00:19:10.260082  7878 net.cpp:165] Memory required for data: 828000108
I0628 00:19:10.260084  7878 layer_factory.hpp:77] Creating layer conv2_2
I0628 00:19:10.260100  7878 net.cpp:106] Creating Layer conv2_2
I0628 00:19:10.260103  7878 net.cpp:454] conv2_2 <- conv2_1
I0628 00:19:10.260107  7878 net.cpp:411] conv2_2 -> conv2_2
I0628 00:19:10.267295  7878 net.cpp:150] Setting up conv2_2
I0628 00:19:10.267315  7878 net.cpp:157] Top shape: 1 128 300 500 (19200000)
I0628 00:19:10.267318  7878 net.cpp:165] Memory required for data: 904800108
I0628 00:19:10.267323  7878 layer_factory.hpp:77] Creating layer relu2_2
I0628 00:19:10.267338  7878 net.cpp:106] Creating Layer relu2_2
I0628 00:19:10.267341  7878 net.cpp:454] relu2_2 <- conv2_2
I0628 00:19:10.267346  7878 net.cpp:397] relu2_2 -> conv2_2 (in-place)
I0628 00:19:10.267489  7878 net.cpp:150] Setting up relu2_2
I0628 00:19:10.267496  7878 net.cpp:157] Top shape: 1 128 300 500 (19200000)
I0628 00:19:10.267498  7878 net.cpp:165] Memory required for data: 981600108
I0628 00:19:10.267500  7878 layer_factory.hpp:77] Creating layer pool2
I0628 00:19:10.267505  7878 net.cpp:106] Creating Layer pool2
I0628 00:19:10.267508  7878 net.cpp:454] pool2 <- conv2_2
I0628 00:19:10.267510  7878 net.cpp:411] pool2 -> pool2
I0628 00:19:10.267540  7878 net.cpp:150] Setting up pool2
I0628 00:19:10.267545  7878 net.cpp:157] Top shape: 1 128 150 250 (4800000)
I0628 00:19:10.267547  7878 net.cpp:165] Memory required for data: 1000800108
I0628 00:19:10.267549  7878 layer_factory.hpp:77] Creating layer conv3_1
I0628 00:19:10.267554  7878 net.cpp:106] Creating Layer conv3_1
I0628 00:19:10.267555  7878 net.cpp:454] conv3_1 <- pool2
I0628 00:19:10.267560  7878 net.cpp:411] conv3_1 -> conv3_1
I0628 00:19:10.271872  7878 net.cpp:150] Setting up conv3_1
I0628 00:19:10.271894  7878 net.cpp:157] Top shape: 1 256 150 250 (9600000)
I0628 00:19:10.271898  7878 net.cpp:165] Memory required for data: 1039200108
I0628 00:19:10.271914  7878 layer_factory.hpp:77] Creating layer relu3_1
I0628 00:19:10.271931  7878 net.cpp:106] Creating Layer relu3_1
I0628 00:19:10.271937  7878 net.cpp:454] relu3_1 <- conv3_1
I0628 00:19:10.271963  7878 net.cpp:397] relu3_1 -> conv3_1 (in-place)
I0628 00:19:10.272097  7878 net.cpp:150] Setting up relu3_1
I0628 00:19:10.272104  7878 net.cpp:157] Top shape: 1 256 150 250 (9600000)
I0628 00:19:10.272106  7878 net.cpp:165] Memory required for data: 1077600108
I0628 00:19:10.272109  7878 layer_factory.hpp:77] Creating layer conv3_2
I0628 00:19:10.272117  7878 net.cpp:106] Creating Layer conv3_2
I0628 00:19:10.272121  7878 net.cpp:454] conv3_2 <- conv3_1
I0628 00:19:10.272125  7878 net.cpp:411] conv3_2 -> conv3_2
I0628 00:19:10.286342  7878 net.cpp:150] Setting up conv3_2
I0628 00:19:10.286360  7878 net.cpp:157] Top shape: 1 256 150 250 (9600000)
I0628 00:19:10.286362  7878 net.cpp:165] Memory required for data: 1116000108
I0628 00:19:10.286368  7878 layer_factory.hpp:77] Creating layer relu3_2
I0628 00:19:10.286378  7878 net.cpp:106] Creating Layer relu3_2
I0628 00:19:10.286383  7878 net.cpp:454] relu3_2 <- conv3_2
I0628 00:19:10.286391  7878 net.cpp:397] relu3_2 -> conv3_2 (in-place)
I0628 00:19:10.286522  7878 net.cpp:150] Setting up relu3_2
I0628 00:19:10.286528  7878 net.cpp:157] Top shape: 1 256 150 250 (9600000)
I0628 00:19:10.286530  7878 net.cpp:165] Memory required for data: 1154400108
I0628 00:19:10.286532  7878 layer_factory.hpp:77] Creating layer conv3_3
I0628 00:19:10.286540  7878 net.cpp:106] Creating Layer conv3_3
I0628 00:19:10.286545  7878 net.cpp:454] conv3_3 <- conv3_2
I0628 00:19:10.286550  7878 net.cpp:411] conv3_3 -> conv3_3
I0628 00:19:10.289607  7878 net.cpp:150] Setting up conv3_3
I0628 00:19:10.289636  7878 net.cpp:157] Top shape: 1 256 150 250 (9600000)
I0628 00:19:10.289641  7878 net.cpp:165] Memory required for data: 1192800108
I0628 00:19:10.289650  7878 layer_factory.hpp:77] Creating layer relu3_3
I0628 00:19:10.289659  7878 net.cpp:106] Creating Layer relu3_3
I0628 00:19:10.289671  7878 net.cpp:454] relu3_3 <- conv3_3
I0628 00:19:10.289678  7878 net.cpp:397] relu3_3 -> conv3_3 (in-place)
I0628 00:19:10.289842  7878 net.cpp:150] Setting up relu3_3
I0628 00:19:10.289850  7878 net.cpp:157] Top shape: 1 256 150 250 (9600000)
I0628 00:19:10.289862  7878 net.cpp:165] Memory required for data: 1231200108
I0628 00:19:10.289865  7878 layer_factory.hpp:77] Creating layer pool3
I0628 00:19:10.289872  7878 net.cpp:106] Creating Layer pool3
I0628 00:19:10.289876  7878 net.cpp:454] pool3 <- conv3_3
I0628 00:19:10.289883  7878 net.cpp:411] pool3 -> pool3
I0628 00:19:10.289921  7878 net.cpp:150] Setting up pool3
I0628 00:19:10.289928  7878 net.cpp:157] Top shape: 1 256 75 125 (2400000)
I0628 00:19:10.289932  7878 net.cpp:165] Memory required for data: 1240800108
I0628 00:19:10.289934  7878 layer_factory.hpp:77] Creating layer conv4_1
I0628 00:19:10.289945  7878 net.cpp:106] Creating Layer conv4_1
I0628 00:19:10.289949  7878 net.cpp:454] conv4_1 <- pool3
I0628 00:19:10.289955  7878 net.cpp:411] conv4_1 -> conv4_1
I0628 00:19:10.295969  7878 net.cpp:150] Setting up conv4_1
I0628 00:19:10.296001  7878 net.cpp:157] Top shape: 1 512 75 125 (4800000)
I0628 00:19:10.296005  7878 net.cpp:165] Memory required for data: 1260000108
I0628 00:19:10.296020  7878 layer_factory.hpp:77] Creating layer relu4_1
I0628 00:19:10.296030  7878 net.cpp:106] Creating Layer relu4_1
I0628 00:19:10.296037  7878 net.cpp:454] relu4_1 <- conv4_1
I0628 00:19:10.296054  7878 net.cpp:397] relu4_1 -> conv4_1 (in-place)
I0628 00:19:10.296267  7878 net.cpp:150] Setting up relu4_1
I0628 00:19:10.296275  7878 net.cpp:157] Top shape: 1 512 75 125 (4800000)
I0628 00:19:10.296288  7878 net.cpp:165] Memory required for data: 1279200108
I0628 00:19:10.296291  7878 layer_factory.hpp:77] Creating layer conv4_2
I0628 00:19:10.296310  7878 net.cpp:106] Creating Layer conv4_2
I0628 00:19:10.296314  7878 net.cpp:454] conv4_2 <- conv4_1
I0628 00:19:10.296329  7878 net.cpp:411] conv4_2 -> conv4_2
I0628 00:19:10.302731  7878 net.cpp:150] Setting up conv4_2
I0628 00:19:10.302753  7878 net.cpp:157] Top shape: 1 512 75 125 (4800000)
I0628 00:19:10.302757  7878 net.cpp:165] Memory required for data: 1298400108
I0628 00:19:10.302783  7878 layer_factory.hpp:77] Creating layer relu4_2
I0628 00:19:10.302793  7878 net.cpp:106] Creating Layer relu4_2
I0628 00:19:10.302799  7878 net.cpp:454] relu4_2 <- conv4_2
I0628 00:19:10.302805  7878 net.cpp:397] relu4_2 -> conv4_2 (in-place)
I0628 00:19:10.303426  7878 net.cpp:150] Setting up relu4_2
I0628 00:19:10.303436  7878 net.cpp:157] Top shape: 1 512 75 125 (4800000)
I0628 00:19:10.303438  7878 net.cpp:165] Memory required for data: 1317600108
I0628 00:19:10.303442  7878 layer_factory.hpp:77] Creating layer conv4_3
I0628 00:19:10.303462  7878 net.cpp:106] Creating Layer conv4_3
I0628 00:19:10.303465  7878 net.cpp:454] conv4_3 <- conv4_2
I0628 00:19:10.303472  7878 net.cpp:411] conv4_3 -> conv4_3
I0628 00:19:10.308472  7878 net.cpp:150] Setting up conv4_3
I0628 00:19:10.308495  7878 net.cpp:157] Top shape: 1 512 75 125 (4800000)
I0628 00:19:10.308496  7878 net.cpp:165] Memory required for data: 1336800108
I0628 00:19:10.308503  7878 layer_factory.hpp:77] Creating layer relu4_3
I0628 00:19:10.308521  7878 net.cpp:106] Creating Layer relu4_3
I0628 00:19:10.308524  7878 net.cpp:454] relu4_3 <- conv4_3
I0628 00:19:10.308529  7878 net.cpp:397] relu4_3 -> conv4_3 (in-place)
I0628 00:19:10.308661  7878 net.cpp:150] Setting up relu4_3
I0628 00:19:10.308666  7878 net.cpp:157] Top shape: 1 512 75 125 (4800000)
I0628 00:19:10.308678  7878 net.cpp:165] Memory required for data: 1356000108
I0628 00:19:10.308681  7878 layer_factory.hpp:77] Creating layer pool4
I0628 00:19:10.308686  7878 net.cpp:106] Creating Layer pool4
I0628 00:19:10.308687  7878 net.cpp:454] pool4 <- conv4_3
I0628 00:19:10.308702  7878 net.cpp:411] pool4 -> pool4
I0628 00:19:10.308730  7878 net.cpp:150] Setting up pool4
I0628 00:19:10.308734  7878 net.cpp:157] Top shape: 1 512 38 63 (1225728)
I0628 00:19:10.308746  7878 net.cpp:165] Memory required for data: 1360903020
I0628 00:19:10.308748  7878 layer_factory.hpp:77] Creating layer conv5_1
I0628 00:19:10.308764  7878 net.cpp:106] Creating Layer conv5_1
I0628 00:19:10.308766  7878 net.cpp:454] conv5_1 <- pool4
I0628 00:19:10.308770  7878 net.cpp:411] conv5_1 -> conv5_1
I0628 00:19:10.313483  7878 net.cpp:150] Setting up conv5_1
I0628 00:19:10.313503  7878 net.cpp:157] Top shape: 1 512 38 63 (1225728)
I0628 00:19:10.313506  7878 net.cpp:165] Memory required for data: 1365805932
I0628 00:19:10.313522  7878 layer_factory.hpp:77] Creating layer relu5_1
I0628 00:19:10.313530  7878 net.cpp:106] Creating Layer relu5_1
I0628 00:19:10.313534  7878 net.cpp:454] relu5_1 <- conv5_1
I0628 00:19:10.313539  7878 net.cpp:397] relu5_1 -> conv5_1 (in-place)
I0628 00:19:10.313671  7878 net.cpp:150] Setting up relu5_1
I0628 00:19:10.313676  7878 net.cpp:157] Top shape: 1 512 38 63 (1225728)
I0628 00:19:10.313688  7878 net.cpp:165] Memory required for data: 1370708844
I0628 00:19:10.313690  7878 layer_factory.hpp:77] Creating layer conv5_2
I0628 00:19:10.313705  7878 net.cpp:106] Creating Layer conv5_2
I0628 00:19:10.313709  7878 net.cpp:454] conv5_2 <- conv5_1
I0628 00:19:10.313711  7878 net.cpp:411] conv5_2 -> conv5_2
I0628 00:19:10.318876  7878 net.cpp:150] Setting up conv5_2
I0628 00:19:10.318907  7878 net.cpp:157] Top shape: 1 512 38 63 (1225728)
I0628 00:19:10.318909  7878 net.cpp:165] Memory required for data: 1375611756
I0628 00:19:10.318928  7878 layer_factory.hpp:77] Creating layer relu5_2
I0628 00:19:10.318938  7878 net.cpp:106] Creating Layer relu5_2
I0628 00:19:10.318943  7878 net.cpp:454] relu5_2 <- conv5_2
I0628 00:19:10.318948  7878 net.cpp:397] relu5_2 -> conv5_2 (in-place)
I0628 00:19:10.319092  7878 net.cpp:150] Setting up relu5_2
I0628 00:19:10.319099  7878 net.cpp:157] Top shape: 1 512 38 63 (1225728)
I0628 00:19:10.319111  7878 net.cpp:165] Memory required for data: 1380514668
I0628 00:19:10.319113  7878 layer_factory.hpp:77] Creating layer conv5_3
I0628 00:19:10.319123  7878 net.cpp:106] Creating Layer conv5_3
I0628 00:19:10.319126  7878 net.cpp:454] conv5_3 <- conv5_2
I0628 00:19:10.319140  7878 net.cpp:411] conv5_3 -> conv5_3
I0628 00:19:10.325290  7878 net.cpp:150] Setting up conv5_3
I0628 00:19:10.325322  7878 net.cpp:157] Top shape: 1 512 38 63 (1225728)
I0628 00:19:10.325325  7878 net.cpp:165] Memory required for data: 1385417580
I0628 00:19:10.325345  7878 layer_factory.hpp:77] Creating layer relu5_3
I0628 00:19:10.325356  7878 net.cpp:106] Creating Layer relu5_3
I0628 00:19:10.325361  7878 net.cpp:454] relu5_3 <- conv5_3
I0628 00:19:10.325367  7878 net.cpp:397] relu5_3 -> conv5_3 (in-place)
I0628 00:19:10.325546  7878 net.cpp:150] Setting up relu5_3
I0628 00:19:10.325554  7878 net.cpp:157] Top shape: 1 512 38 63 (1225728)
I0628 00:19:10.325567  7878 net.cpp:165] Memory required for data: 1390320492
I0628 00:19:10.325569  7878 layer_factory.hpp:77] Creating layer conv5_3_relu5_3_0_split
I0628 00:19:10.325585  7878 net.cpp:106] Creating Layer conv5_3_relu5_3_0_split
I0628 00:19:10.325589  7878 net.cpp:454] conv5_3_relu5_3_0_split <- conv5_3
I0628 00:19:10.325594  7878 net.cpp:411] conv5_3_relu5_3_0_split -> conv5_3_relu5_3_0_split_0
I0628 00:19:10.325601  7878 net.cpp:411] conv5_3_relu5_3_0_split -> conv5_3_relu5_3_0_split_1
I0628 00:19:10.325608  7878 net.cpp:411] conv5_3_relu5_3_0_split -> conv5_3_relu5_3_0_split_2
I0628 00:19:10.325664  7878 net.cpp:150] Setting up conv5_3_relu5_3_0_split
I0628 00:19:10.325670  7878 net.cpp:157] Top shape: 1 512 38 63 (1225728)
I0628 00:19:10.325675  7878 net.cpp:157] Top shape: 1 512 38 63 (1225728)
I0628 00:19:10.325688  7878 net.cpp:157] Top shape: 1 512 38 63 (1225728)
I0628 00:19:10.325692  7878 net.cpp:165] Memory required for data: 1405029228
I0628 00:19:10.325695  7878 layer_factory.hpp:77] Creating layer rpn_conv/3x3
I0628 00:19:10.325707  7878 net.cpp:106] Creating Layer rpn_conv/3x3
I0628 00:19:10.325711  7878 net.cpp:454] rpn_conv/3x3 <- conv5_3_relu5_3_0_split_0
I0628 00:19:10.325717  7878 net.cpp:411] rpn_conv/3x3 -> rpn/output
I0628 00:19:10.389681  7878 net.cpp:150] Setting up rpn_conv/3x3
I0628 00:19:10.389739  7878 net.cpp:157] Top shape: 1 512 38 63 (1225728)
I0628 00:19:10.389751  7878 net.cpp:165] Memory required for data: 1409932140
I0628 00:19:10.389765  7878 layer_factory.hpp:77] Creating layer rpn_relu/3x3
I0628 00:19:10.389775  7878 net.cpp:106] Creating Layer rpn_relu/3x3
I0628 00:19:10.389782  7878 net.cpp:454] rpn_relu/3x3 <- rpn/output
I0628 00:19:10.389791  7878 net.cpp:397] rpn_relu/3x3 -> rpn/output (in-place)
I0628 00:19:10.389979  7878 net.cpp:150] Setting up rpn_relu/3x3
I0628 00:19:10.390002  7878 net.cpp:157] Top shape: 1 512 38 63 (1225728)
I0628 00:19:10.390014  7878 net.cpp:165] Memory required for data: 1414835052
I0628 00:19:10.390025  7878 layer_factory.hpp:77] Creating layer rpn/output_rpn_relu/3x3_0_split
I0628 00:19:10.390040  7878 net.cpp:106] Creating Layer rpn/output_rpn_relu/3x3_0_split
I0628 00:19:10.390051  7878 net.cpp:454] rpn/output_rpn_relu/3x3_0_split <- rpn/output
I0628 00:19:10.390064  7878 net.cpp:411] rpn/output_rpn_relu/3x3_0_split -> rpn/output_rpn_relu/3x3_0_split_0
I0628 00:19:10.390080  7878 net.cpp:411] rpn/output_rpn_relu/3x3_0_split -> rpn/output_rpn_relu/3x3_0_split_1
I0628 00:19:10.390148  7878 net.cpp:150] Setting up rpn/output_rpn_relu/3x3_0_split
I0628 00:19:10.390166  7878 net.cpp:157] Top shape: 1 512 38 63 (1225728)
I0628 00:19:10.390177  7878 net.cpp:157] Top shape: 1 512 38 63 (1225728)
I0628 00:19:10.390188  7878 net.cpp:165] Memory required for data: 1424640876
I0628 00:19:10.390198  7878 layer_factory.hpp:77] Creating layer rpn_cls_score
I0628 00:19:10.390219  7878 net.cpp:106] Creating Layer rpn_cls_score
I0628 00:19:10.390233  7878 net.cpp:454] rpn_cls_score <- rpn/output_rpn_relu/3x3_0_split_0
I0628 00:19:10.390247  7878 net.cpp:411] rpn_cls_score -> rpn_cls_score
I0628 00:19:10.392704  7878 net.cpp:150] Setting up rpn_cls_score
I0628 00:19:10.392750  7878 net.cpp:157] Top shape: 1 30 38 63 (71820)
I0628 00:19:10.392761  7878 net.cpp:165] Memory required for data: 1424928156
I0628 00:19:10.392777  7878 layer_factory.hpp:77] Creating layer rpn_cls_score_rpn_cls_score_0_split
I0628 00:19:10.392798  7878 net.cpp:106] Creating Layer rpn_cls_score_rpn_cls_score_0_split
I0628 00:19:10.392812  7878 net.cpp:454] rpn_cls_score_rpn_cls_score_0_split <- rpn_cls_score
I0628 00:19:10.392827  7878 net.cpp:411] rpn_cls_score_rpn_cls_score_0_split -> rpn_cls_score_rpn_cls_score_0_split_0
I0628 00:19:10.392850  7878 net.cpp:411] rpn_cls_score_rpn_cls_score_0_split -> rpn_cls_score_rpn_cls_score_0_split_1
I0628 00:19:10.392901  7878 net.cpp:150] Setting up rpn_cls_score_rpn_cls_score_0_split
I0628 00:19:10.392916  7878 net.cpp:157] Top shape: 1 30 38 63 (71820)
I0628 00:19:10.392927  7878 net.cpp:157] Top shape: 1 30 38 63 (71820)
I0628 00:19:10.392936  7878 net.cpp:165] Memory required for data: 1425502716
I0628 00:19:10.392946  7878 layer_factory.hpp:77] Creating layer rpn_bbox_pred
I0628 00:19:10.392966  7878 net.cpp:106] Creating Layer rpn_bbox_pred
I0628 00:19:10.392977  7878 net.cpp:454] rpn_bbox_pred <- rpn/output_rpn_relu/3x3_0_split_1
I0628 00:19:10.392992  7878 net.cpp:411] rpn_bbox_pred -> rpn_bbox_pred
I0628 00:19:10.395295  7878 net.cpp:150] Setting up rpn_bbox_pred
I0628 00:19:10.395318  7878 net.cpp:157] Top shape: 1 60 38 63 (143640)
I0628 00:19:10.395323  7878 net.cpp:165] Memory required for data: 1426077276
I0628 00:19:10.395332  7878 layer_factory.hpp:77] Creating layer rpn_bbox_pred_rpn_bbox_pred_0_split
I0628 00:19:10.395342  7878 net.cpp:106] Creating Layer rpn_bbox_pred_rpn_bbox_pred_0_split
I0628 00:19:10.395349  7878 net.cpp:454] rpn_bbox_pred_rpn_bbox_pred_0_split <- rpn_bbox_pred
I0628 00:19:10.395357  7878 net.cpp:411] rpn_bbox_pred_rpn_bbox_pred_0_split -> rpn_bbox_pred_rpn_bbox_pred_0_split_0
I0628 00:19:10.395365  7878 net.cpp:411] rpn_bbox_pred_rpn_bbox_pred_0_split -> rpn_bbox_pred_rpn_bbox_pred_0_split_1
I0628 00:19:10.395403  7878 net.cpp:150] Setting up rpn_bbox_pred_rpn_bbox_pred_0_split
I0628 00:19:10.395423  7878 net.cpp:157] Top shape: 1 60 38 63 (143640)
I0628 00:19:10.395436  7878 net.cpp:157] Top shape: 1 60 38 63 (143640)
I0628 00:19:10.395445  7878 net.cpp:165] Memory required for data: 1427226396
I0628 00:19:10.395454  7878 layer_factory.hpp:77] Creating layer rpn_cls_score_reshape
I0628 00:19:10.395470  7878 net.cpp:106] Creating Layer rpn_cls_score_reshape
I0628 00:19:10.395479  7878 net.cpp:454] rpn_cls_score_reshape <- rpn_cls_score_rpn_cls_score_0_split_0
I0628 00:19:10.395491  7878 net.cpp:411] rpn_cls_score_reshape -> rpn_cls_score_reshape
I0628 00:19:10.395526  7878 net.cpp:150] Setting up rpn_cls_score_reshape
I0628 00:19:10.395534  7878 net.cpp:157] Top shape: 1 2 570 63 (71820)
I0628 00:19:10.395536  7878 net.cpp:165] Memory required for data: 1427513676
I0628 00:19:10.395539  7878 layer_factory.hpp:77] Creating layer rpn_cls_score_reshape_rpn_cls_score_reshape_0_split
I0628 00:19:10.395543  7878 net.cpp:106] Creating Layer rpn_cls_score_reshape_rpn_cls_score_reshape_0_split
I0628 00:19:10.395555  7878 net.cpp:454] rpn_cls_score_reshape_rpn_cls_score_reshape_0_split <- rpn_cls_score_reshape
I0628 00:19:10.395568  7878 net.cpp:411] rpn_cls_score_reshape_rpn_cls_score_reshape_0_split -> rpn_cls_score_reshape_rpn_cls_score_reshape_0_split_0
I0628 00:19:10.395581  7878 net.cpp:411] rpn_cls_score_reshape_rpn_cls_score_reshape_0_split -> rpn_cls_score_reshape_rpn_cls_score_reshape_0_split_1
I0628 00:19:10.395622  7878 net.cpp:150] Setting up rpn_cls_score_reshape_rpn_cls_score_reshape_0_split
I0628 00:19:10.395637  7878 net.cpp:157] Top shape: 1 2 570 63 (71820)
I0628 00:19:10.395648  7878 net.cpp:157] Top shape: 1 2 570 63 (71820)
I0628 00:19:10.395655  7878 net.cpp:165] Memory required for data: 1428088236
I0628 00:19:10.395664  7878 layer_factory.hpp:77] Creating layer rpn-data
I0628 00:19:10.396831  7878 net.cpp:106] Creating Layer rpn-data
I0628 00:19:10.396845  7878 net.cpp:454] rpn-data <- rpn_cls_score_rpn_cls_score_0_split_1
I0628 00:19:10.396852  7878 net.cpp:454] rpn-data <- gt_boxes_input-data_2_split_0
I0628 00:19:10.396857  7878 net.cpp:454] rpn-data <- im_info_input-data_1_split_0
I0628 00:19:10.396874  7878 net.cpp:454] rpn-data <- data_input-data_0_split_1
I0628 00:19:10.396889  7878 net.cpp:411] rpn-data -> rpn_labels
I0628 00:19:10.396905  7878 net.cpp:411] rpn-data -> rpn_bbox_targets
I0628 00:19:10.396919  7878 net.cpp:411] rpn-data -> rpn_bbox_inside_weights
I0628 00:19:10.396932  7878 net.cpp:411] rpn-data -> rpn_bbox_outside_weights
===================================anchor_scales in AnchorTargetLayer:=============(2, 4, 8, 16, 32)
I0628 00:19:10.398236  7878 net.cpp:150] Setting up rpn-data
I0628 00:19:10.398252  7878 net.cpp:157] Top shape: 1 1 570 63 (35910)
I0628 00:19:10.398270  7878 net.cpp:157] Top shape: 1 60 38 63 (143640)
I0628 00:19:10.398288  7878 net.cpp:157] Top shape: 1 60 38 63 (143640)
I0628 00:19:10.398298  7878 net.cpp:157] Top shape: 1 60 38 63 (143640)
I0628 00:19:10.398303  7878 net.cpp:165] Memory required for data: 1429955556
I0628 00:19:10.398308  7878 layer_factory.hpp:77] Creating layer rpn_loss_cls
I0628 00:19:10.398319  7878 net.cpp:106] Creating Layer rpn_loss_cls
I0628 00:19:10.398332  7878 net.cpp:454] rpn_loss_cls <- rpn_cls_score_reshape_rpn_cls_score_reshape_0_split_0
I0628 00:19:10.398346  7878 net.cpp:454] rpn_loss_cls <- rpn_labels
…
I0628 00:19:10.401224  7878 net.cpp:157] Top shape: (1)
I0628 00:19:10.401226  7878 net.cpp:160]     with loss weight 1
I0628 00:19:10.401233  7878 net.cpp:165] Memory required for data: 1429955564
I0628 00:19:10.401238  7878 layer_factory.hpp:77] Creating layer rpn_cls_prob
I0628 00:19:10.401248  7878 net.cpp:106] Creating Layer rpn_cls_prob
I0628 00:19:10.401254  7878 net.cpp:454] rpn_cls_prob <- rpn_cls_score_reshape_rpn_cls_score_reshape_0_split_1
I0628 00:19:10.401262  7878 net.cpp:411] rpn_cls_prob -> rpn_cls_prob
I0628 00:19:10.401479  7878 net.cpp:150] Setting up rpn_cls_prob
I0628 00:19:10.401486  7878 net.cpp:157] Top shape: 1 2 570 63 (71820)
I0628 00:19:10.401490  7878 net.cpp:165] Memory required for data: 1430242844
I0628 00:19:10.401494  7878 layer_factory.hpp:77] Creating layer rpn_cls_prob_reshape
I0628 00:19:10.401502  7878 net.cpp:106] Creating Layer rpn_cls_prob_reshape
I0628 00:19:10.401507  7878 net.cpp:454] rpn_cls_prob_reshape <- rpn_cls_prob
I0628 00:19:10.401513  7878 net.cpp:411] rpn_cls_prob_reshape -> rpn_cls_prob_reshape
I0628 00:19:10.401542  7878 net.cpp:150] Setting up rpn_cls_prob_reshape
I0628 00:19:10.401547  7878 net.cpp:157] Top shape: 1 30 38 63 (71820)
I0628 00:19:10.401551  7878 net.cpp:165] Memory required for data: 1430530124
I0628 00:19:10.401553  7878 layer_factory.hpp:77] Creating layer proposal
I0628 00:19:10.404803  7878 net.cpp:106] Creating Layer proposal
I0628 00:19:10.404851  7878 net.cpp:454] proposal <- rpn_cls_prob_reshape
I0628 00:19:10.404870  7878 net.cpp:454] proposal <- rpn_bbox_pred_rpn_bbox_pred_0_split_1
I0628 00:19:10.404881  7878 net.cpp:454] proposal <- im_info_input-data_1_split_1
I0628 00:19:10.404894  7878 net.cpp:411] proposal -> rpn_rois
=================================anchor_scales in ProposalLayer:=============(2, 4, 8, 16, 32)
I0628 00:19:10.407168  7878 net.cpp:150] Setting up proposal
I0628 00:19:10.407188  7878 net.cpp:157] Top shape: 1 5 (5)
I0628 00:19:10.407191  7878 net.cpp:165] Memory required for data: 1430530144
I0628 00:19:10.407197  7878 layer_factory.hpp:77] Creating layer roi-data
I0628 00:19:10.411099  7878 net.cpp:106] Creating Layer roi-data
I0628 00:19:10.411119  7878 net.cpp:454] roi-data <- rpn_rois
I0628 00:19:10.411126  7878 net.cpp:454] roi-data <- gt_boxes_input-data_2_split_1
I0628 00:19:10.411131  7878 net.cpp:454] roi-data <- im_info_input-data_1_split_2
I0628 00:19:10.411134  7878 net.cpp:454] roi-data <- seg_mask_inds
I0628 00:19:10.411139  7878 net.cpp:454] roi-data <- flipped
I0628 00:19:10.411145  7878 net.cpp:411] roi-data -> rois
I0628 00:19:10.411168  7878 net.cpp:411] roi-data -> labels
I0628 00:19:10.411185  7878 net.cpp:411] roi-data -> bbox_targets
I0628 00:19:10.411201  7878 net.cpp:411] roi-data -> bbox_inside_weights
I0628 00:19:10.411216  7878 net.cpp:411] roi-data -> bbox_outside_weights
I0628 00:19:10.411231  7878 net.cpp:411] roi-data -> mask_targets
I0628 00:19:10.411247  7878 net.cpp:411] roi-data -> rois_pos
I0628 00:19:10.411648  7878 net.cpp:150] Setting up roi-data
I0628 00:19:10.411659  7878 net.cpp:157] Top shape: 1 5 (5)
I0628 00:19:10.411664  7878 net.cpp:157] Top shape: 1 1 (1)
I0628 00:19:10.411667  7878 net.cpp:157] Top shape: 1 8 (8)
I0628 00:19:10.411672  7878 net.cpp:157] Top shape: 1 8 (8)
I0628 00:19:10.411676  7878 net.cpp:157] Top shape: 1 8 (8)
I0628 00:19:10.411691  7878 net.cpp:157] Top shape: 1 8 244 244 (476288)
I0628 00:19:10.411703  7878 net.cpp:157] Top shape: 1 5 (5)
I0628 00:19:10.411715  7878 net.cpp:165] Memory required for data: 1432435436
I0628 00:19:10.411726  7878 layer_factory.hpp:77] Creating layer roi_pool5
I0628 00:19:10.412405  7878 net.cpp:106] Creating Layer roi_pool5
I0628 00:19:10.412416  7878 net.cpp:454] roi_pool5 <- conv5_3_relu5_3_0_split_1
I0628 00:19:10.412423  7878 net.cpp:454] roi_pool5 <- rois
I0628 00:19:10.412428  7878 net.cpp:411] roi_pool5 -> pool5
I0628 00:19:10.412437  7878 roi_alignment_layer.cpp:32] Spatial scale: 0.0625
I0628 00:19:10.412564  7878 net.cpp:150] Setting up roi_pool5
I0628 00:19:10.412573  7878 net.cpp:157] Top shape: 1 512 7 7 (25088)
I0628 00:19:10.412577  7878 net.cpp:165] Memory required for data: 1432535788
I0628 00:19:10.412583  7878 layer_factory.hpp:77] Creating layer fc6
I0628 00:19:10.412593  7878 net.cpp:106] Creating Layer fc6
I0628 00:19:10.412600  7878 net.cpp:454] fc6 <- pool5
I0628 00:19:10.412605  7878 net.cpp:411] fc6 -> fc6
I0628 00:19:10.626050  7878 net.cpp:150] Setting up fc6
I0628 00:19:10.626087  7878 net.cpp:157] Top shape: 1 4096 (4096)
I0628 00:19:10.626091  7878 net.cpp:165] Memory required for data: 1432552172
I0628 00:19:10.626117  7878 layer_factory.hpp:77] Creating layer relu6
I0628 00:19:10.626128  7878 net.cpp:106] Creating Layer relu6
I0628 00:19:10.626134  7878 net.cpp:454] relu6 <- fc6
I0628 00:19:10.626139  7878 net.cpp:397] relu6 -> fc6 (in-place)
I0628 00:19:10.626381  7878 net.cpp:150] Setting up relu6
I0628 00:19:10.626390  7878 net.cpp:157] Top shape: 1 4096 (4096)
I0628 00:19:10.626404  7878 net.cpp:165] Memory required for data: 1432568556
I0628 00:19:10.626406  7878 layer_factory.hpp:77] Creating layer fc7
I0628 00:19:10.626412  7878 net.cpp:106] Creating Layer fc7
I0628 00:19:10.626416  7878 net.cpp:454] fc7 <- fc6
I0628 00:19:10.626421  7878 net.cpp:411] fc7 -> fc7
I0628 00:19:10.655695  7878 net.cpp:150] Setting up fc7
I0628 00:19:10.655732  7878 net.cpp:157] Top shape: 1 4096 (4096)
I0628 00:19:10.655736  7878 net.cpp:165] Memory required for data: 1432584940
I0628 00:19:10.655746  7878 layer_factory.hpp:77] Creating layer relu7
I0628 00:19:10.655756  7878 net.cpp:106] Creating Layer relu7
I0628 00:19:10.655761  7878 net.cpp:454] relu7 <- fc7
I0628 00:19:10.655767  7878 net.cpp:397] relu7 -> fc7 (in-place)
I0628 00:19:10.655995  7878 net.cpp:150] Setting up relu7
I0628 00:19:10.656004  7878 net.cpp:157] Top shape: 1 4096 (4096)
I0628 00:19:10.656016  7878 net.cpp:165] Memory required for data: 1432601324
I0628 00:19:10.656018  7878 layer_factory.hpp:77] Creating layer fc7_relu7_0_split
I0628 00:19:10.656023  7878 net.cpp:106] Creating Layer fc7_relu7_0_split
I0628 00:19:10.656026  7878 net.cpp:454] fc7_relu7_0_split <- fc7
I0628 00:19:10.656030  7878 net.cpp:411] fc7_relu7_0_split -> fc7_relu7_0_split_0
I0628 00:19:10.656034  7878 net.cpp:411] fc7_relu7_0_split -> fc7_relu7_0_split_1
I0628 00:19:10.656086  7878 net.cpp:150] Setting up fc7_relu7_0_split
I0628 00:19:10.656091  7878 net.cpp:157] Top shape: 1 4096 (4096)
I0628 00:19:10.656103  7878 net.cpp:157] Top shape: 1 4096 (4096)
I0628 00:19:10.656105  7878 net.cpp:165] Memory required for data: 1432634092
I0628 00:19:10.656106  7878 layer_factory.hpp:77] Creating layer cls_score
I0628 00:19:10.656113  7878 net.cpp:106] Creating Layer cls_score
I0628 00:19:10.656116  7878 net.cpp:454] cls_score <- fc7_relu7_0_split_0
I0628 00:19:10.656119  7878 net.cpp:411] cls_score -> cls_score
I0628 00:19:10.656374  7878 net.cpp:150] Setting up cls_score
I0628 00:19:10.656379  7878 net.cpp:157] Top shape: 1 2 (2)
I0628 00:19:10.656381  7878 net.cpp:165] Memory required for data: 1432634100
I0628 00:19:10.656385  7878 layer_factory.hpp:77] Creating layer bbox_pred
I0628 00:19:10.656389  7878 net.cpp:106] Creating Layer bbox_pred
I0628 00:19:10.656394  7878 net.cpp:454] bbox_pred <- fc7_relu7_0_split_1
I0628 00:19:10.656397  7878 net.cpp:411] bbox_pred -> bbox_pred
I0628 00:19:10.657274  7878 net.cpp:150] Setting up bbox_pred
I0628 00:19:10.657294  7878 net.cpp:157] Top shape: 1 8 (8)
I0628 00:19:10.657296  7878 net.cpp:165] Memory required for data: 1432634132
I0628 00:19:10.657300  7878 layer_factory.hpp:77] Creating layer loss_cls
I0628 00:19:10.657306  7878 net.cpp:106] Creating Layer loss_cls
I0628 00:19:10.657310  7878 net.cpp:454] loss_cls <- cls_score
I0628 00:19:10.657313  7878 net.cpp:454] loss_cls <- labels
I0628 00:19:10.657318  7878 net.cpp:411] loss_cls -> loss_cls
…
I0628 00:19:10.658183  7878 net.cpp:165] Memory required for data: 1432634140
I0628 00:19:10.658185  7878 layer_factory.hpp:77] Creating layer roi_pool5_2
I0628 00:19:10.658192  7878 net.cpp:106] Creating Layer roi_pool5_2
I0628 00:19:10.658195  7878 net.cpp:454] roi_pool5_2 <- conv5_3_relu5_3_0_split_2
I0628 00:19:10.658198  7878 net.cpp:454] roi_pool5_2 <- rois_pos
I0628 00:19:10.658201  7878 net.cpp:411] roi_pool5_2 -> pool5_2
I0628 00:19:10.658207  7878 roi_alignment_layer.cpp:32] Spatial scale: 0.0625
I0628 00:19:10.658279  7878 net.cpp:150] Setting up roi_pool5_2
I0628 00:19:10.658285  7878 net.cpp:157] Top shape: 1 512 7 7 (25088)
I0628 00:19:10.658288  7878 net.cpp:165] Memory required for data: 1432734492
I0628 00:19:10.658289  7878 layer_factory.hpp:77] Creating layer pool5_2_conv
I0628 00:19:10.658298  7878 net.cpp:106] Creating Layer pool5_2_conv
I0628 00:19:10.658301  7878 net.cpp:454] pool5_2_conv <- pool5_2
I0628 00:19:10.658305  7878 net.cpp:411] pool5_2_conv -> pool5_2_conv
I0628 00:19:10.665868  7878 net.cpp:150] Setting up pool5_2_conv
I0628 00:19:10.665897  7878 net.cpp:157] Top shape: 1 512 7 7 (25088)
I0628 00:19:10.665901  7878 net.cpp:165] Memory required for data: 1432834844
I0628 00:19:10.665922  7878 layer_factory.hpp:77] Creating layer pool5_2_conv_relu
I0628 00:19:10.665930  7878 net.cpp:106] Creating Layer pool5_2_conv_relu
I0628 00:19:10.665946  7878 net.cpp:454] pool5_2_conv_relu <- pool5_2_conv
I0628 00:19:10.665951  7878 net.cpp:411] pool5_2_conv_relu -> pool5_2_conv_relu
I0628 00:19:10.666096  7878 net.cpp:150] Setting up pool5_2_conv_relu
I0628 00:19:10.666103  7878 net.cpp:157] Top shape: 1 512 7 7 (25088)
I0628 00:19:10.666105  7878 net.cpp:165] Memory required for data: 1432935196
I0628 00:19:10.666107  7878 layer_factory.hpp:77] Creating layer pool5_2_conv2
I0628 00:19:10.666131  7878 net.cpp:106] Creating Layer pool5_2_conv2
I0628 00:19:10.666134  7878 net.cpp:454] pool5_2_conv2 <- pool5_2_conv_relu
I0628 00:19:10.666138  7878 net.cpp:411] pool5_2_conv2 -> pool5_2_conv2
I0628 00:19:10.724984  7878 net.cpp:150] Setting up pool5_2_conv2
I0628 00:19:10.725013  7878 net.cpp:157] Top shape: 1 512 7 7 (25088)
I0628 00:19:10.725016  7878 net.cpp:165] Memory required for data: 1433035548
I0628 00:19:10.725025  7878 layer_factory.hpp:77] Creating layer pool5_2_conv2_relu
I0628 00:19:10.725037  7878 net.cpp:106] Creating Layer pool5_2_conv2_relu
I0628 00:19:10.725041  7878 net.cpp:454] pool5_2_conv2_relu <- pool5_2_conv2
I0628 00:19:10.725047  7878 net.cpp:411] pool5_2_conv2_relu -> pool5_2_conv2_relu
I0628 00:19:10.725208  7878 net.cpp:150] Setting up pool5_2_conv2_relu
I0628 00:19:10.725216  7878 net.cpp:157] Top shape: 1 512 7 7 (25088)
I0628 00:19:10.725219  7878 net.cpp:165] Memory required for data: 1433135900
I0628 00:19:10.725220  7878 layer_factory.hpp:77] Creating layer mask_deconv1
I0628 00:19:10.725227  7878 net.cpp:106] Creating Layer mask_deconv1
I0628 00:19:10.725230  7878 net.cpp:454] mask_deconv1 <- pool5_2_conv2_relu
I0628 00:19:10.725235  7878 net.cpp:411] mask_deconv1 -> mask_deconv1
I0628 00:19:10.726095  7878 net.cpp:150] Setting up mask_deconv1
I0628 00:19:10.726104  7878 net.cpp:157] Top shape: 1 256 30 30 (230400)
I0628 00:19:10.726106  7878 net.cpp:165] Memory required for data: 1434057500
I0628 00:19:10.726120  7878 layer_factory.hpp:77] Creating layer pool5_2_conv3
I0628 00:19:10.726128  7878 net.cpp:106] Creating Layer pool5_2_conv3
I0628 00:19:10.726132  7878 net.cpp:454] pool5_2_conv3 <- mask_deconv1
I0628 00:19:10.726136  7878 net.cpp:411] pool5_2_conv3 -> pool5_2_conv3
I0628 00:19:10.756255  7878 net.cpp:150] Setting up pool5_2_conv3
I0628 00:19:10.756279  7878 net.cpp:157] Top shape: 1 512 30 30 (460800)
I0628 00:19:10.756281  7878 net.cpp:165] Memory required for data: 1435900700
I0628 00:19:10.756289  7878 layer_factory.hpp:77] Creating layer pool5_2_conv3_relu
I0628 00:19:10.756299  7878 net.cpp:106] Creating Layer pool5_2_conv3_relu
I0628 00:19:10.756302  7878 net.cpp:454] pool5_2_conv3_relu <- pool5_2_conv3
I0628 00:19:10.756307  7878 net.cpp:411] pool5_2_conv3_relu -> pool5_2_conv3_relu
I0628 00:19:10.756467  7878 net.cpp:150] Setting up pool5_2_conv3_relu
I0628 00:19:10.756474  7878 net.cpp:157] Top shape: 1 512 30 30 (460800)
I0628 00:19:10.756476  7878 net.cpp:165] Memory required for data: 1437743900
I0628 00:19:10.756479  7878 layer_factory.hpp:77] Creating layer pool5_2_conv4
I0628 00:19:10.756487  7878 net.cpp:106] Creating Layer pool5_2_conv4
I0628 00:19:10.756490  7878 net.cpp:454] pool5_2_conv4 <- pool5_2_conv3_relu
I0628 00:19:10.756497  7878 net.cpp:411] pool5_2_conv4 -> pool5_2_conv4
I0628 00:19:10.813012  7878 net.cpp:150] Setting up pool5_2_conv4
I0628 00:19:10.813031  7878 net.cpp:157] Top shape: 1 512 30 30 (460800)
I0628 00:19:10.813033  7878 net.cpp:165] Memory required for data: 1439587100
I0628 00:19:10.813040  7878 layer_factory.hpp:77] Creating layer pool5_2_conv4_relu
I0628 00:19:10.813048  7878 net.cpp:106] Creating Layer pool5_2_conv4_relu
I0628 00:19:10.813052  7878 net.cpp:454] pool5_2_conv4_relu <- pool5_2_conv4
I0628 00:19:10.813072  7878 net.cpp:411] pool5_2_conv4_relu -> pool5_2_conv4_relu
I0628 00:19:10.813243  7878 net.cpp:150] Setting up pool5_2_conv4_relu
I0628 00:19:10.813251  7878 net.cpp:157] Top shape: 1 512 30 30 (460800)
I0628 00:19:10.813252  7878 net.cpp:165] Memory required for data: 1441430300
I0628 00:19:10.813254  7878 layer_factory.hpp:77] Creating layer pool5_2_conv4_relu_pool5_2_conv4_relu_0_split
I0628 00:19:10.813259  7878 net.cpp:106] Creating Layer pool5_2_conv4_relu_pool5_2_conv4_relu_0_split
I0628 00:19:10.813261  7878 net.cpp:454] pool5_2_conv4_relu_pool5_2_conv4_relu_0_split <- pool5_2_conv4_relu
I0628 00:19:10.813266  7878 net.cpp:411] pool5_2_conv4_relu_pool5_2_conv4_relu_0_split -> pool5_2_conv4_relu_pool5_2_conv4_relu_0_split_0
I0628 00:19:10.813271  7878 net.cpp:411] pool5_2_conv4_relu_pool5_2_conv4_relu_0_split -> pool5_2_conv4_relu_pool5_2_conv4_relu_0_split_1
I0628 00:19:10.813273  7878 net.cpp:411] pool5_2_conv4_relu_pool5_2_conv4_relu_0_split -> pool5_2_conv4_relu_pool5_2_conv4_relu_0_split_2
I0628 00:19:10.813277  7878 net.cpp:411] pool5_2_conv4_relu_pool5_2_conv4_relu_0_split -> pool5_2_conv4_relu_pool5_2_conv4_relu_0_split_3
I0628 00:19:10.813338  7878 net.cpp:150] Setting up pool5_2_conv4_relu_pool5_2_conv4_relu_0_split
I0628 00:19:10.813343  7878 net.cpp:157] Top shape: 1 512 30 30 (460800)
I0628 00:19:10.813344  7878 net.cpp:157] Top shape: 1 512 30 30 (460800)
I0628 00:19:10.813346  7878 net.cpp:157] Top shape: 1 512 30 30 (460800)
I0628 00:19:10.813349  7878 net.cpp:157] Top shape: 1 512 30 30 (460800)
I0628 00:19:10.813349  7878 net.cpp:165] Memory required for data: 1448803100
I0628 00:19:10.813351  7878 layer_factory.hpp:77] Creating layer query_conv
I0628 00:19:10.813360  7878 net.cpp:106] Creating Layer query_conv
I0628 00:19:10.813362  7878 net.cpp:454] query_conv <- pool5_2_conv4_relu_pool5_2_conv4_relu_0_split_0
I0628 00:19:10.813366  7878 net.cpp:411] query_conv -> query_conv
I0628 00:19:10.815102  7878 net.cpp:150] Setting up query_conv
I0628 00:19:10.815112  7878 net.cpp:157] Top shape: 1 64 30 30 (57600)
I0628 00:19:10.815115  7878 net.cpp:165] Memory required for data: 1449033500
I0628 00:19:10.815130  7878 layer_factory.hpp:77] Creating layer key_conv
I0628 00:19:10.815140  7878 net.cpp:106] Creating Layer key_conv
I0628 00:19:10.815143  7878 net.cpp:454] key_conv <- pool5_2_conv4_relu_pool5_2_conv4_relu_0_split_1
I0628 00:19:10.815150  7878 net.cpp:411] key_conv -> key_conv
I0628 00:19:10.817207  7878 net.cpp:150] Setting up key_conv
I0628 00:19:10.817220  7878 net.cpp:157] Top shape: 1 64 30 30 (57600)
I0628 00:19:10.817222  7878 net.cpp:165] Memory required for data: 1449263900
I0628 00:19:10.817239  7878 layer_factory.hpp:77] Creating layer value_conv
I0628 00:19:10.817250  7878 net.cpp:106] Creating Layer value_conv
I0628 00:19:10.817255  7878 net.cpp:454] value_conv <- pool5_2_conv4_relu_pool5_2_conv4_relu_0_split_2
I0628 00:19:10.817270  7878 net.cpp:411] value_conv -> value_conv
I0628 00:19:10.825840  7878 net.cpp:150] Setting up value_conv
I0628 00:19:10.825860  7878 net.cpp:157] Top shape: 1 512 30 30 (460800)
I0628 00:19:10.825861  7878 net.cpp:165] Memory required for data: 1451107100
I0628 00:19:10.825868  7878 layer_factory.hpp:77] Creating layer query_conv_reshape
I0628 00:19:10.825878  7878 net.cpp:106] Creating Layer query_conv_reshape
I0628 00:19:10.825882  7878 net.cpp:454] query_conv_reshape <- query_conv
I0628 00:19:10.825897  7878 net.cpp:411] query_conv_reshape -> query_conv_reshape
I0628 00:19:10.825937  7878 net.cpp:150] Setting up query_conv_reshape
I0628 00:19:10.825942  7878 net.cpp:157] Top shape: 1 64 900 1 (57600)
I0628 00:19:10.825942  7878 net.cpp:165] Memory required for data: 1451337500
I0628 00:19:10.825944  7878 layer_factory.hpp:77] Creating layer key_conv_reshape
I0628 00:19:10.825949  7878 net.cpp:106] Creating Layer key_conv_reshape
I0628 00:19:10.825951  7878 net.cpp:454] key_conv_reshape <- key_conv
I0628 00:19:10.825964  7878 net.cpp:411] key_conv_reshape -> key_conv_reshape
I0628 00:19:10.825981  7878 net.cpp:150] Setting up key_conv_reshape
I0628 00:19:10.825995  7878 net.cpp:157] Top shape: 1 64 900 1 (57600)
I0628 00:19:10.825997  7878 net.cpp:165] Memory required for data: 1451567900
I0628 00:19:10.825999  7878 layer_factory.hpp:77] Creating layer value_conv_reshape
I0628 00:19:10.826002  7878 net.cpp:106] Creating Layer value_conv_reshape
I0628 00:19:10.826015  7878 net.cpp:454] value_conv_reshape <- value_conv
I0628 00:19:10.826018  7878 net.cpp:411] value_conv_reshape -> value_conv_reshape
I0628 00:19:10.826033  7878 net.cpp:150] Setting up value_conv_reshape
I0628 00:19:10.826037  7878 net.cpp:157] Top shape: 1 512 900 1 (460800)
I0628 00:19:10.826038  7878 net.cpp:165] Memory required for data: 1453411100
I0628 00:19:10.826040  7878 layer_factory.hpp:77] Creating layer query_conv_reshape_perm
I0628 00:19:10.826489  7878 net.cpp:106] Creating Layer query_conv_reshape_perm
I0628 00:19:10.826495  7878 net.cpp:454] query_conv_reshape_perm <- query_conv_reshape
I0628 00:19:10.826498  7878 net.cpp:411] query_conv_reshape_perm -> query_conv_reshape_perm
I0628 00:19:10.826571  7878 net.cpp:150] Setting up query_conv_reshape_perm
I0628 00:19:10.826576  7878 net.cpp:157] Top shape: 1 1 900 64 (57600)
I0628 00:19:10.826578  7878 net.cpp:165] Memory required for data: 1453641500
I0628 00:19:10.826580  7878 layer_factory.hpp:77] Creating layer key_conv_reshape_perm
I0628 00:19:10.826583  7878 net.cpp:106] Creating Layer key_conv_reshape_perm
I0628 00:19:10.826587  7878 net.cpp:454] key_conv_reshape_perm <- key_conv_reshape
I0628 00:19:10.826601  7878 net.cpp:411] key_conv_reshape_perm -> key_conv_reshape_perm
I0628 00:19:10.826675  7878 net.cpp:150] Setting up key_conv_reshape_perm
I0628 00:19:10.826683  7878 net.cpp:157] Top shape: 1 1 64 900 (57600)
I0628 00:19:10.826686  7878 net.cpp:165] Memory required for data: 1453871900
I0628 00:19:10.826689  7878 layer_factory.hpp:77] Creating layer energy
I0628 00:19:10.826695  7878 net.cpp:106] Creating Layer energy
I0628 00:19:10.826699  7878 net.cpp:454] energy <- query_conv_reshape_perm
I0628 00:19:10.826700  7878 net.cpp:454] energy <- key_conv_reshape_perm
I0628 00:19:10.826704  7878 net.cpp:411] energy -> energy
I0628 00:19:10.826721  7878 net.cpp:150] Setting up energy
I0628 00:19:10.826725  7878 net.cpp:157] Top shape: 1 1 900 900 (810000)
I0628 00:19:10.826727  7878 net.cpp:165] Memory required for data: 1457111900
I0628 00:19:10.826728  7878 layer_factory.hpp:77] Creating layer attention
I0628 00:19:10.826733  7878 net.cpp:106] Creating Layer attention
I0628 00:19:10.826735  7878 net.cpp:454] attention <- energy
I0628 00:19:10.826750  7878 net.cpp:411] attention -> attention
I0628 00:19:10.826941  7878 net.cpp:150] Setting up attention
I0628 00:19:10.826947  7878 net.cpp:157] Top shape: 1 1 900 900 (810000)
I0628 00:19:10.826949  7878 net.cpp:165] Memory required for data: 1460351900
I0628 00:19:10.826951  7878 layer_factory.hpp:77] Creating layer value_conv_reshape_perm
I0628 00:19:10.826956  7878 net.cpp:106] Creating Layer value_conv_reshape_perm
I0628 00:19:10.826958  7878 net.cpp:454] value_conv_reshape_perm <- value_conv_reshape
I0628 00:19:10.826961  7878 net.cpp:411] value_conv_reshape_perm -> value_conv_reshape_perm
I0628 00:19:10.827029  7878 net.cpp:150] Setting up value_conv_reshape_perm
I0628 00:19:10.827033  7878 net.cpp:157] Top shape: 1 1 512 900 (460800)
I0628 00:19:10.827035  7878 net.cpp:165] Memory required for data: 1462195100
I0628 00:19:10.827037  7878 layer_factory.hpp:77] Creating layer attention_perm
I0628 00:19:10.827040  7878 net.cpp:106] Creating Layer attention_perm
I0628 00:19:10.827044  7878 net.cpp:454] attention_perm <- attention
I0628 00:19:10.827046  7878 net.cpp:411] attention_perm -> attention_perm
I0628 00:19:10.827109  7878 net.cpp:150] Setting up attention_perm
I0628 00:19:10.827113  7878 net.cpp:157] Top shape: 1 1 900 900 (810000)
I0628 00:19:10.827114  7878 net.cpp:165] Memory required for data: 1465435100
I0628 00:19:10.827116  7878 layer_factory.hpp:77] Creating layer out
I0628 00:19:10.827119  7878 net.cpp:106] Creating Layer out
I0628 00:19:10.827121  7878 net.cpp:454] out <- value_conv_reshape_perm
I0628 00:19:10.827124  7878 net.cpp:454] out <- attention_perm
I0628 00:19:10.827128  7878 net.cpp:411] out -> out
I0628 00:19:10.827142  7878 net.cpp:150] Setting up out
I0628 00:19:10.827145  7878 net.cpp:157] Top shape: 1 1 512 900 (460800)
I0628 00:19:10.827147  7878 net.cpp:165] Memory required for data: 1467278300
I0628 00:19:10.827148  7878 layer_factory.hpp:77] Creating layer out_reshape
I0628 00:19:10.827153  7878 net.cpp:106] Creating Layer out_reshape
I0628 00:19:10.827157  7878 net.cpp:454] out_reshape <- out
I0628 00:19:10.827159  7878 net.cpp:411] out_reshape -> out_reshape
I0628 00:19:10.827174  7878 net.cpp:150] Setting up out_reshape
I0628 00:19:10.827178  7878 net.cpp:157] Top shape: 1 512 30 30 (460800)
I0628 00:19:10.827179  7878 net.cpp:165] Memory required for data: 1469121500
I0628 00:19:10.827181  7878 layer_factory.hpp:77] Creating layer out_reshape_scale
I0628 00:19:10.827190  7878 net.cpp:106] Creating Layer out_reshape_scale
I0628 00:19:10.827193  7878 net.cpp:454] out_reshape_scale <- out_reshape
I0628 00:19:10.827196  7878 net.cpp:411] out_reshape_scale -> out_reshape_scale
I0628 00:19:10.827261  7878 net.cpp:150] Setting up out_reshape_scale
I0628 00:19:10.827266  7878 net.cpp:157] Top shape: 1 512 30 30 (460800)
I0628 00:19:10.827267  7878 net.cpp:165] Memory required for data: 1470964700
I0628 00:19:10.827270  7878 layer_factory.hpp:77] Creating layer out_x
I0628 00:19:10.827275  7878 net.cpp:106] Creating Layer out_x
I0628 00:19:10.827278  7878 net.cpp:454] out_x <- out_reshape_scale
I0628 00:19:10.827281  7878 net.cpp:454] out_x <- pool5_2_conv4_relu_pool5_2_conv4_relu_0_split_3
I0628 00:19:10.827286  7878 net.cpp:411] out_x -> out_x
I0628 00:19:10.827306  7878 net.cpp:150] Setting up out_x
I0628 00:19:10.827309  7878 net.cpp:157] Top shape: 1 512 30 30 (460800)
I0628 00:19:10.827311  7878 net.cpp:165] Memory required for data: 1472807900
I0628 00:19:10.827313  7878 layer_factory.hpp:77] Creating layer mask_deconv2
I0628 00:19:10.827319  7878 net.cpp:106] Creating Layer mask_deconv2
I0628 00:19:10.827322  7878 net.cpp:454] mask_deconv2 <- out_x
I0628 00:19:10.827325  7878 net.cpp:411] mask_deconv2 -> mask_deconv2
I0628 00:19:10.828146  7878 net.cpp:150] Setting up mask_deconv2
I0628 00:19:10.828151  7878 net.cpp:157] Top shape: 1 256 122 122 (3810304)
I0628 00:19:10.828153  7878 net.cpp:165] Memory required for data: 1488049116
I0628 00:19:10.828156  7878 layer_factory.hpp:77] Creating layer pool5_2_conv5
I0628 00:19:10.828166  7878 net.cpp:106] Creating Layer pool5_2_conv5
I0628 00:19:10.828169  7878 net.cpp:454] pool5_2_conv5 <- mask_deconv2
I0628 00:19:10.828173  7878 net.cpp:411] pool5_2_conv5 -> pool5_2_conv5
I0628 00:19:10.857336  7878 net.cpp:150] Setting up pool5_2_conv5
I0628 00:19:10.857354  7878 net.cpp:157] Top shape: 1 512 122 122 (7620608)
I0628 00:19:10.857357  7878 net.cpp:165] Memory required for data: 1518531548
I0628 00:19:10.857363  7878 layer_factory.hpp:77] Creating layer pool5_2_conv5_relu
I0628 00:19:10.857372  7878 net.cpp:106] Creating Layer pool5_2_conv5_relu
I0628 00:19:10.857386  7878 net.cpp:454] pool5_2_conv5_relu <- pool5_2_conv5
I0628 00:19:10.857391  7878 net.cpp:411] pool5_2_conv5_relu -> pool5_2_conv5_relu
I0628 00:19:10.857547  7878 net.cpp:150] Setting up pool5_2_conv5_relu
I0628 00:19:10.857553  7878 net.cpp:157] Top shape: 1 512 122 122 (7620608)
I0628 00:19:10.857555  7878 net.cpp:165] Memory required for data: 1549013980
I0628 00:19:10.857558  7878 layer_factory.hpp:77] Creating layer pool5_2_conv6
I0628 00:19:10.857565  7878 net.cpp:106] Creating Layer pool5_2_conv6
I0628 00:19:10.857568  7878 net.cpp:454] pool5_2_conv6 <- pool5_2_conv5_relu
I0628 00:19:10.857583  7878 net.cpp:411] pool5_2_conv6 -> pool5_2_conv6
I0628 00:19:10.911717  7878 net.cpp:150] Setting up pool5_2_conv6
I0628 00:19:10.911734  7878 net.cpp:157] Top shape: 1 512 122 122 (7620608)
I0628 00:19:10.911736  7878 net.cpp:165] Memory required for data: 1579496412
I0628 00:19:10.911742  7878 layer_factory.hpp:77] Creating layer pool5_2_conv6_relu
I0628 00:19:10.911751  7878 net.cpp:106] Creating Layer pool5_2_conv6_relu
I0628 00:19:10.911754  7878 net.cpp:454] pool5_2_conv6_relu <- pool5_2_conv6
I0628 00:19:10.911772  7878 net.cpp:411] pool5_2_conv6_relu -> pool5_2_conv6_relu
I0628 00:19:10.912303  7878 net.cpp:150] Setting up pool5_2_conv6_relu
I0628 00:19:10.912312  7878 net.cpp:157] Top shape: 1 512 122 122 (7620608)
I0628 00:19:10.912313  7878 net.cpp:165] Memory required for data: 1609978844
I0628 00:19:10.912315  7878 layer_factory.hpp:77] Creating layer mask_deconv3
I0628 00:19:10.912322  7878 net.cpp:106] Creating Layer mask_deconv3
I0628 00:19:10.912324  7878 net.cpp:454] mask_deconv3 <- pool5_2_conv6_relu
I0628 00:19:10.912328  7878 net.cpp:411] mask_deconv3 -> mask_deconv3
I0628 00:19:10.912726  7878 net.cpp:150] Setting up mask_deconv3
I0628 00:19:10.912735  7878 net.cpp:157] Top shape: 1 256 244 244 (15241216)
I0628 00:19:10.912756  7878 net.cpp:165] Memory required for data: 1670943708
I0628 00:19:10.912783  7878 layer_factory.hpp:77] Creating layer mask_score
I0628 00:19:10.912803  7878 net.cpp:106] Creating Layer mask_score
I0628 00:19:10.912806  7878 net.cpp:454] mask_score <- mask_deconv3
I0628 00:19:10.912811  7878 net.cpp:411] mask_score -> mask_score
I0628 00:19:10.913553  7878 net.cpp:150] Setting up mask_score
I0628 00:19:10.913561  7878 net.cpp:157] Top shape: 1 8 244 244 (476288)
I0628 00:19:10.913573  7878 net.cpp:165] Memory required for data: 1672848860
I0628 00:19:10.913578  7878 layer_factory.hpp:77] Creating layer prob
I0628 00:19:10.913590  7878 net.cpp:106] Creating Layer prob
I0628 00:19:10.913594  7878 net.cpp:454] prob <- mask_score
I0628 00:19:10.913596  7878 net.cpp:411] prob -> mask_score_softmax
I0628 00:19:10.914155  7878 net.cpp:150] Setting up prob
I0628 00:19:10.914163  7878 net.cpp:157] Top shape: 1 8 244 244 (476288)
I0628 00:19:10.914165  7878 net.cpp:165] Memory required for data: 1674754012
I0628 00:19:10.914167  7878 layer_factory.hpp:77] Creating layer log
I0628 00:19:10.914171  7878 net.cpp:106] Creating Layer log
I0628 00:19:10.914175  7878 net.cpp:454] log <- mask_score_softmax
I0628 00:19:10.914177  7878 net.cpp:411] log -> log
I0628 00:19:10.914217  7878 net.cpp:150] Setting up log
I0628 00:19:10.914222  7878 net.cpp:157] Top shape: 1 8 244 244 (476288)
I0628 00:19:10.914223  7878 net.cpp:165] Memory required for data: 1676659164
I0628 00:19:10.914233  7878 layer_factory.hpp:77] Creating layer mult1
I0628 00:19:10.914237  7878 net.cpp:106] Creating Layer mult1
I0628 00:19:10.914239  7878 net.cpp:454] mult1 <- log
I0628 00:19:10.914242  7878 net.cpp:454] mult1 <- mask_targets
I0628 00:19:10.914259  7878 net.cpp:411] mult1 -> mult1
I0628 00:19:10.914288  7878 net.cpp:150] Setting up mult1
I0628 00:19:10.914291  7878 net.cpp:157] Top shape: 1 8 244 244 (476288)
I0628 00:19:10.914292  7878 net.cpp:165] Memory required for data: 1678564316
I0628 00:19:10.914294  7878 layer_factory.hpp:77] Creating layer cross_entropy
I0628 00:19:10.914309  7878 net.cpp:106] Creating Layer cross_entropy
I0628 00:19:10.914310  7878 net.cpp:454] cross_entropy <- mult1
I0628 00:19:10.914314  7878 net.cpp:411] cross_entropy -> cross_entropy
I0628 00:19:10.914347  7878 net.cpp:150] Setting up cross_entropy
I0628 00:19:10.914351  7878 net.cpp:157] Top shape: 1 8 244 244 (476288)
I0628 00:19:10.914352  7878 net.cpp:165] Memory required for data: 1680469468
I0628 00:19:10.914355  7878 layer_factory.hpp:77] Creating layer ce_sum
I0628 00:19:10.914369  7878 net.cpp:106] Creating Layer ce_sum
I0628 00:19:10.914371  7878 net.cpp:454] ce_sum <- cross_entropy
I0628 00:19:10.914384  7878 net.cpp:411] ce_sum -> cross_entropy_sum
I0628 00:19:10.915585  7878 net.cpp:150] Setting up ce_sum
I0628 00:19:10.915593  7878 net.cpp:157] Top shape: 1 1 244 244 (59536)
I0628 00:19:10.915596  7878 net.cpp:165] Memory required for data: 1680707612
I0628 00:19:10.915598  7878 layer_factory.hpp:77] Creating layer ce_mean
I0628 00:19:10.915604  7878 net.cpp:106] Creating Layer ce_mean
I0628 00:19:10.915606  7878 net.cpp:454] ce_mean <- cross_entropy_sum
I0628 00:19:10.915619  7878 net.cpp:411] ce_mean -> cross_entropy_mean
I0628 00:19:10.915732  7878 net.cpp:150] Setting up ce_mean
…
