…
average_loss: 100
iter_size: 2
I0617 20:14:45.906635 22979 solver.cpp:81] Creating training net from train_net file: models/pascal_voc/VGG16/faster_rcnn_end2end/train.prototxt
I0617 20:14:45.908483 22979 net.cpp:49] Initializing net from parameters: 
name: "VGG_ILSVRC_16_layers"
state {
  phase: TRAIN
}
layer {
  name: "input-data"
  type: "Python"
  top: "data"
  top: "im_info"
  top: "gt_boxes"
  top: "seg_mask_inds"
  top: "flipped"
  python_param {
    module: "roi_data_layer.layer"
    layer: "RoIDataLayer"
    param_str: "\'num_classes\': 2"
  }
}
layer {
  name: "conv1_1"
  type: "Convolution"
  bottom: "data"
  top: "conv1_1"
  param {
    lr_mult: 0
    decay_mult: 0
  }
  param {
    lr_mult: 0
    decay_mult: 0
  }
  convolution_param {
    num_output: 64
    pad: 1
    kernel_size: 3
  }
}
layer {
  name: "relu1_1"
  type: "ReLU"
  bottom: "conv1_1"
  top: "conv1_1"
}
layer {
  name: "conv1_2"
  type: "Convolution"
  bottom: "conv1_1"
  top: "conv1_2"
  param {
    lr_mult: 0
    decay_mult: 0
  }
  param {
    lr_mult: 0
    decay_mult: 0
  }
  convolution_param {
    num_output: 64
    pad: 1
    kernel_size: 3
  }
}
layer {
  name: "relu1_2"
  type: "ReLU"
  bottom: "conv1_2"
  top: "conv1_2"
}
layer {
  name: "pool1"
  type: "Pooling"
  bottom: "conv1_2"
  top: "pool1"
  pooling_param {
    pool: MAX
    kernel_size: 2
    stride: 2
  }
}
layer {
  name: "conv2_1"
  type: "Convolution"
  bottom: "pool1"
  top: "conv2_1"
  param {
    lr_mult: 0
    decay_mult: 0
  }
  param {
    lr_mult: 0
    decay_mult: 0
  }
  convolution_param {
    num_output: 128
    pad: 1
    kernel_size: 3
  }
}
layer {
  name: "relu2_1"
  type: "ReLU"
  bottom: "conv2_1"
  top: "conv2_1"
}
layer {
  name: "conv2_2"
  type: "Convolution"
  bottom: "conv2_1"
  top: "conv2_2"
  param {
    lr_mult: 0
    decay_mult: 0
  }
  param {
    lr_mult: 0
    decay_mult: 0
  }
  convolution_param {
    num_output: 128
    pad: 1
    kernel_size: 3
  }
}
layer {
  name: "relu2_2"
  type: "ReLU"
  bottom: "conv2_2"
  top: "conv2_2"
}
layer {
  name: "pool2"
  type: "Pooling"
  bottom: "conv2_2"
  top: "pool2"
  pooling_param {
    pool: MAX
    kernel_size: 2
    stride: 2
  }
}
layer {
  name: "conv3_1"
  type: "Convolution"
  bottom: "pool2"
  top: "conv3_1"
  param {
    lr_mult: 1
  }
  param {
    lr_mult: 2
  }
  convolution_param {
    num_output: 256
    pad: 1
    kernel_size: 3
  }
}
layer {
  name: "relu3_1"
  type: "ReLU"
  bottom: "conv3_1"
  top: "conv3_1"
}
layer {
  name: "conv3_2"
  type: "Convolution"
  bottom: "conv3_1"
  top: "conv3_2"
  param {
    lr_mult: 1
  }
  param {
    lr_mult: 2
  }
  convolution_param {
    num_output: 256
    pad: 1
    kernel_size: 3
  }
}
layer {
  name: "relu3_2"
  type: "ReLU"
  bottom: "conv3_2"
  top: "conv3_2"
}
layer {
  name: "conv3_3"
  type: "Convolution"
  bottom: "conv3_2"
  top: "conv3_3"
  param {
    lr_mult: 1
  }
  param {
    lr_mult: 2
  }
  convolution_param {
    num_output: 256
    pad: 1
    kernel_size: 3
  }
}
layer {
  name: "relu3_3"
  type: "ReLU"
  bottom: "conv3_3"
  top: "conv3_3"
}
layer {
  name: "pool3"
  type: "Pooling"
  bottom: "conv3_3"
  top: "pool3"
  pooling_param {
    pool: MAX
    kernel_size: 2
    stride: 2
  }
}
layer {
  name: "conv4_1"
  type: "Convolution"
  bottom: "pool3"
  top: "conv4_1"
  param {
    lr_mult: 1
  }
  param {
    lr_mult: 2
  }
  convolution_param {
    num_output: 512
    pad: 1
    kernel_size: 3
  }
}
layer {
  name: "relu4_1"
  type: "ReLU"
  bottom: "conv4_1"
  top: "conv4_1"
}
layer {
  name: "conv4_2"
  type: "Convolution"
  bottom: "conv4_1"
  top: "conv4_2"
  param {
    lr_mult: 1
  }
  param {
    lr_mult: 2
  }
  convolution_param {
    num_output: 512
    pad: 1
    kernel_size: 3
  }
}
layer {
  name: "relu4_2"
  type: "ReLU"
  bottom: "conv4_2"
  top: "conv4_2"
}
layer {
  name: "conv4_3"
  type: "Convolution"
  bottom: "conv4_2"
  top: "conv4_3"
  param {
    lr_mult: 1
  }
  param {
    lr_mult: 2
  }
  convolution_param {
    num_output: 512
    pad: 1
    kernel_size: 3
  }
}
layer {
  name: "relu4_3"
  type: "ReLU"
  bottom: "conv4_3"
  top: "conv4_3"
}
layer {
  name: "pool4"
  type: "Pooling"
  bottom: "conv4_3"
  top: "pool4"
  pooling_param {
    pool: MAX
    kernel_size: 2
    stride: 2
  }
}
layer {
  name: "conv5_1"
  type: "Convolution"
  bottom: "pool4"
  top: "conv5_1"
  param {
    lr_mult: 1
  }
  param {
    lr_mult: 2
  }
  convolution_param {
    num_output: 512
    pad: 1
    kernel_size: 3
  }
}
layer {
  name: "relu5_1"
  type: "ReLU"
  bottom: "conv5_1"
  top: "conv5_1"
}
layer {
  name: "conv5_2"
  type: "Convolution"
  bottom: "conv5_1"
  top: "conv5_2"
  param {
    lr_mult: 1
  }
  param {
    lr_mult: 2
  }
  convolution_param {
    num_output: 512
    pad: 1
    kernel_size: 3
  }
}
layer {
  name: "relu5_2"
  type: "ReLU"
  bottom: "conv5_2"
  top: "conv5_2"
}
layer {
  name: "conv5_3"
  type: "Convolution"
  bottom: "conv5_2"
  top: "conv5_3"
  param {
    lr_mult: 1
  }
  param {
    lr_mult: 2
  }
  convolution_param {
    num_output: 512
    pad: 1
    kernel_size: 3
  }
}
layer {
  name: "relu5_3"
  type: "ReLU"
  bottom: "conv5_3"
  top: "conv5_3"
}
layer {
  name: "rpn_conv/3x3"
  type: "Convolution"
  bottom: "conv5_3"
  top: "rpn/output"
  param {
    lr_mult: 1
  }
  param {
    lr_mult: 2
  }
  convolution_param {
    num_output: 512
    pad: 1
    kernel_size: 3
    stride: 1
    weight_filler {
      type: "gaussian"
      std: 0.01
    }
    bias_filler {
      type: "constant"
      value: 0
    }
  }
}
layer {
  name: "rpn_relu/3x3"
  type: "ReLU"
  bottom: "rpn/output"
  top: "rpn/output"
}
layer {
  name: "rpn_cls_score"
  type: "Convolution"
  bottom: "rpn/output"
  top: "rpn_cls_score"
  param {
    lr_mult: 1
  }
  param {
    lr_mult: 2
  }
  convolution_param {
    num_output: 30
    pad: 0
    kernel_size: 1
    stride: 1
    weight_filler {
      type: "gaussian"
      std: 0.01
    }
    bias_filler {
      type: "constant"
      value: 0
    }
  }
}
layer {
  name: "rpn_bbox_pred"
  type: "Convolution"
  bottom: "rpn/output"
  top: "rpn_bbox_pred"
  param {
    lr_mult: 1
  }
  param {
    lr_mult: 2
  }
  convolution_param {
    num_output: 60
    pad: 0
    kernel_size: 1
    stride: 1
    weight_filler {
      type: "gaussian"
      std: 0.01
    }
    bias_filler {
      type: "constant"
      value: 0
    }
  }
}
layer {
  name: "rpn_cls_score_reshape"
  type: "Reshape"
  bottom: "rpn_cls_score"
  top: "rpn_cls_score_reshape"
  reshape_param {
    shape {
      dim: 0
      dim: 2
      dim: -1
      dim: 0
    }
  }
}
layer {
  name: "rpn-data"
  type: "Python"
  bottom: "rpn_cls_score"
  bottom: "gt_boxes"
  bottom: "im_info"
  bottom: "data"
  top: "rpn_labels"
  top: "rpn_bbox_targets"
  top: "rpn_bbox_inside_weights"
  top: "rpn_bbox_outside_weights"
  python_param {
    module: "rpn.anchor_target_layer"
    layer: "AnchorTargetLayer"
    param_str: "\'feat_stride\': 16 \n\'scales\': !!python/tuple [2, 4, 8, 16, 32]"
  }
}
layer {
  name: "rpn_loss_cls"
  type: "SoftmaxWithLoss"
  bottom: "rpn_cls_score_reshape"
  bottom: "rpn_labels"
  top: "rpn_cls_loss"
  loss_weight: 1
  propagate_down: true
  propagate_down: false
  loss_param {
    ignore_label: -1
    normalize: true
  }
}
layer {
  name: "rpn_loss_bbox"
  type: "SmoothL1Loss"
  bottom: "rpn_bbox_pred"
  bottom: "rpn_bbox_targets"
  bottom: "rpn_bbox_inside_weights"
  bottom: "rpn_bbox_outside_weights"
  top: "rpn_loss_bbox"
  loss_weight: 1
  smooth_l1_loss_param {
    sigma: 3
  }
}
layer {
  name: "rpn_cls_prob"
  type: "Softmax"
  bottom: "rpn_cls_score_reshape"
  top: "rpn_cls_prob"
}
layer {
  name: "rpn_cls_prob_reshape"
  type: "Reshape"
  bottom: "rpn_cls_prob"
  top: "rpn_cls_prob_reshape"
  reshape_param {
    shape {
      dim: 0
      dim: 30
      dim: -1
      dim: 0
    }
  }
}
layer {
  name: "proposal"
  type: "Python"
  bottom: "rpn_cls_prob_reshape"
  bottom: "rpn_bbox_pred"
  bottom: "im_info"
  top: "rpn_rois"
  python_param {
    module: "rpn.proposal_layer"
    layer: "ProposalLayer"
    param_str: "\'feat_stride\': 16 \n\'scales\': !!python/tuple [2, 4, 8, 16, 32]"
  }
}
layer {
  name: "roi-data"
  type: "Python"
  bottom: "rpn_rois"
  bottom: "gt_boxes"
  bottom: "im_info"
  bottom: "seg_mask_inds"
  bottom: "flipped"
  top: "rois"
  top: "labels"
  top: "bbox_targets"
  top: "bbox_inside_weights"
  top: "bbox_outside_weights"
  top: "mask_targets"
  top: "rois_pos"
  top: "attrArray"
  top: "attrArrayInd"
  top: "attrArrayShift"
  python_param {
    module: "rpn.proposal_target_layer"
    layer: "ProposalTargetLayer"
    param_str: "\'num_classes\': 2"
  }
}
layer {
  name: "roi_pool5"
  type: "ROIAlignment"
  bottom: "conv5_3"
  bottom: "rois"
  top: "pool5"
  roi_alignment_param {
    pooled_h: 7
    pooled_w: 7
    spatial_scale: 0.0625
  }
}
layer {
  name: "fc6"
  type: "InnerProduct"
  bottom: "pool5"
  top: "fc6"
  param {
    lr_mult: 1
  }
  param {
    lr_mult: 2
  }
  inner_product_param {
    num_output: 4096
  }
}
layer {
  name: "relu6"
  type: "ReLU"
  bottom: "fc6"
  top: "fc6"
}
layer {
  name: "fc7"
  type: "InnerProduct"
  bottom: "fc6"
  top: "fc7"
  param {
    lr_mult: 1
  }
  param {
    lr_mult: 2
  }
  inner_product_param {
    num_output: 4096
  }
}
layer {
  name: "relu7"
  type: "ReLU"
  bottom: "fc7"
  top: "fc7"
}
layer {
  name: "attr_score"
  type: "InnerProduct"
  bottom: "fc7"
  top: "attr_score"
  param {
    lr_mult: 1
  }
  param {
    lr_mult: 2
  }
  inner_product_param {
    num_output: 7
    weight_filler {
      type: "gaussian"
      std: 0.001
    }
    bias_filler {
      type: "constant"
      value: 0
    }
  }
}
layer {
  name: "attr_score_pos"
  type: "Eltwise"
  bottom: "attr_score"
  bottom: "attrArrayInd"
  top: "attr_score_pos"
  eltwise_param {
    operation: PROD
  }
}
layer {
  name: "attr_score_pos_shift"
  type: "Eltwise"
  bottom: "attr_score_pos"
  bottom: "attrArrayShift"
  top: "attr_score_pos_shift"
  eltwise_param {
    operation: SUM
  }
}
layer {
  name: "cls_score"
  type: "InnerProduct"
  bottom: "fc7"
  top: "cls_score"
  param {
    lr_mult: 1
  }
  param {
    lr_mult: 2
  }
  inner_product_param {
    num_output: 2
    weight_filler {
      type: "gaussian"
      std: 0.01
    }
    bias_filler {
      type: "constant"
      value: 0
    }
  }
}
layer {
  name: "bbox_pred"
  type: "InnerProduct"
  bottom: "fc7"
  top: "bbox_pred"
  param {
    lr_mult: 1
  }
  param {
    lr_mult: 2
  }
  inner_product_param {
    num_output: 8
    weight_filler {
      type: "gaussian"
      std: 0.001
    }
    bias_filler {
      type: "constant"
      value: 0
    }
  }
}
layer {
  name: "loss_attribute"
  type: "SigmoidCrossEntropyLoss"
  bottom: "attr_score_pos_shift"
  bottom: "attrArray"
  top: "loss_attribute"
  loss_weight: 1
  propagate_down: true
  propagate_down: false
}
layer {
  name: "loss_cls"
  type: "SoftmaxWithLoss"
  bottom: "cls_score"
  bottom: "labels"
  top: "loss_cls"
  loss_weight: 3
  propagate_down: true
  propagate_down: false
}
layer {
  name: "loss_bbox"
  type: "SmoothL1Loss"
  bottom: "bbox_pred"
  bottom: "bbox_targets"
  bottom: "bbox_inside_weights"
  bottom: "bbox_outside_weights"
  top: "loss_bbox"
  loss_weight: 2
}
layer {
  name: "roi_pool5_2"
  type: "ROIAlignment"
  bottom: "conv5_3"
  bottom: "rois_pos"
  top: "pool5_2"
  roi_alignment_param {
    pooled_h: 7
    pooled_w: 7
    spatial_scale: 0.0625
  }
}
layer {
  name: "pool5_2_conv"
  type: "Convolution"
  bottom: "pool5_2"
  top: "pool5_2_conv"
  param {
    lr_mult: 1
    decay_mult: 1
  }
  param {
    lr_mult: 2
    decay_mult: 0
  }
  convolution_param {
    num_output: 512
    pad: 0
    kernel_size: 1
    weight_filler {
      type: "gaussian"
      std: 0.01
    }
    bias_filler {
      type: "constant"
      value: 0
    }
  }
}
layer {
  name: "pool5_2_conv_relu"
  type: "ReLU"
  bottom: "pool5_2_conv"
  top: "pool5_2_conv_relu"
}
layer {
  name: "pool5_2_conv2"
  type: "Convolution"
  bottom: "pool5_2_conv_relu"
  top: "pool5_2_conv2"
  param {
    lr_mult: 1
    decay_mult: 1
  }
  param {
    lr_mult: 2
    decay_mult: 0
  }
  convolution_param {
    num_output: 512
    pad: 1
    kernel_size: 3
    stride: 1
    weight_filler {
      type: "gaussian"
      std: 0.01
    }
    bias_filler {
      type: "constant"
      value: 0
    }
  }
}
layer {
  name: "pool5_2_conv2_relu"
  type: "ReLU"
  bottom: "pool5_2_conv2"
  top: "pool5_2_conv2_relu"
}
layer {
  name: "mask_deconv1"
  type: "Deconvolution"
  bottom: "pool5_2_conv2_relu"
  top: "mask_deconv1"
  param {
    lr_mult: 1
    decay_mult: 1
  }
  param {
    lr_mult: 2
    decay_mult: 0
  }
  convolution_param {
    num_output: 256
    pad: 1
    kernel_size: 8
    group: 256
    stride: 4
    weight_filler {
      type: "bilinear"
    }
  }
}
layer {
  name: "pool5_2_conv3"
  type: "Convolution"
  bottom: "mask_deconv1"
  top: "pool5_2_conv3"
  param {
    lr_mult: 1
    decay_mult: 1
  }
  param {
    lr_mult: 2
    decay_mult: 0
  }
  convolution_param {
    num_output: 512
    pad: 1
    kernel_size: 3
    stride: 1
    weight_filler {
      type: "gaussian"
      std: 0.01
    }
    bias_filler {
      type: "constant"
      value: 0
    }
  }
}
layer {
  name: "pool5_2_conv3_relu"
  type: "ReLU"
  bottom: "pool5_2_conv3"
  top: "pool5_2_conv3_relu"
}
layer {
  name: "pool5_2_conv4"
  type: "Convolution"
  bottom: "pool5_2_conv3_relu"
  top: "pool5_2_conv4"
  param {
    lr_mult: 1
    decay_mult: 1
  }
  param {
    lr_mult: 2
    decay_mult: 0
  }
  convolution_param {
    num_output: 512
    pad: 1
    kernel_size: 3
    stride: 1
    weight_filler {
      type: "gaussian"
      std: 0.01
    }
    bias_filler {
      type: "constant"
      value: 0
    }
  }
}
layer {
  name: "pool5_2_conv4_relu"
  type: "ReLU"
  bottom: "pool5_2_conv4"
  top: "pool5_2_conv4_relu"
}
layer {
  name: "query_conv"
  type: "Convolution"
  bottom: "pool5_2_conv4_relu"
  top: "query_conv"
  param {
    lr_mult: 1
    decay_mult: 1
  }
  param {
    lr_mult: 2
    decay_mult: 0
  }
  convolution_param {
    num_output: 64
    pad: 0
    kernel_size: 1
    stride: 1
    weight_filler {
      type: "gaussian"
      std: 0.01
    }
    bias_filler {
      type: "constant"
      value: 0
    }
  }
}
layer {
  name: "key_conv"
  type: "Convolution"
  bottom: "pool5_2_conv4_relu"
  top: "key_conv"
  param {
    lr_mult: 1
    decay_mult: 1
  }
  param {
    lr_mult: 2
    decay_mult: 0
  }
  convolution_param {
    num_output: 64
    pad: 0
    kernel_size: 1
    stride: 1
    weight_filler {
      type: "gaussian"
      std: 0.01
    }
    bias_filler {
      type: "constant"
      value: 0
    }
  }
}
layer {
  name: "value_conv"
  type: "Convolution"
  bottom: "pool5_2_conv4_relu"
  top: "value_conv"
  param {
    lr_mult: 1
    decay_mult: 1
  }
  param {
    lr_mult: 2
    decay_mult: 0
  }
  convolution_param {
    num_output: 512
    pad: 0
    kernel_size: 1
    stride: 1
    weight_filler {
      type: "gaussian"
      std: 0.01
    }
    bias_filler {
      type: "constant"
      value: 0
    }
  }
}
layer {
  name: "query_conv_reshape"
  type: "Reshape"
  bottom: "query_conv"
  top: "query_conv_reshape"
  reshape_param {
    shape {
      dim: -1
      dim: 64
      dim: 900
      dim: 1
    }
  }
}
layer {
  name: "key_conv_reshape"
  type: "Reshape"
  bottom: "key_conv"
  top: "key_conv_reshape"
  reshape_param {
    shape {
      dim: -1
      dim: 64
      dim: 900
      dim: 1
    }
  }
}
layer {
  name: "value_conv_reshape"
  type: "Reshape"
  bottom: "value_conv"
  top: "value_conv_reshape"
  reshape_param {
    shape {
      dim: -1
      dim: 512
      dim: 900
      dim: 1
    }
  }
}
layer {
  name: "query_conv_reshape_perm"
  type: "Permute"
  bottom: "query_conv_reshape"
  top: "query_conv_reshape_perm"
  permute_param {
    order: 0
    order: 3
    order: 2
    order: 1
  }
}
layer {
  name: "key_conv_reshape_perm"
  type: "Permute"
  bottom: "key_conv_reshape"
  top: "key_conv_reshape_perm"
  permute_param {
    order: 0
    order: 3
    order: 1
    order: 2
  }
}
layer {
  name: "energy"
  type: "MatrixMultiplication"
  bottom: "query_conv_reshape_perm"
  bottom: "key_conv_reshape_perm"
  top: "energy"
}
layer {
  name: "attention"
  type: "Softmax"
  bottom: "energy"
  top: "attention"
  softmax_param {
    axis: 3
  }
}
layer {
  name: "value_conv_reshape_perm"
  type: "Permute"
  bottom: "value_conv_reshape"
  top: "value_conv_reshape_perm"
  permute_param {
    order: 0
    order: 3
    order: 1
    order: 2
  }
}
layer {
  name: "attention_perm"
  type: "Permute"
  bottom: "attention"
  top: "attention_perm"
  permute_param {
    order: 0
    order: 1
    order: 2
    order: 3
  }
}
layer {
  name: "out"
  type: "MatrixMultiplication"
  bottom: "value_conv_reshape_perm"
  bottom: "attention_perm"
  top: "out"
}
layer {
  name: "out_reshape"
  type: "Reshape"
  bottom: "out"
  top: "out_reshape"
  reshape_param {
    shape {
      dim: -1
      dim: 512
      dim: 30
      dim: 30
    }
  }
}
layer {
  name: "out_reshape_scale"
  type: "Scale"
  bottom: "out_reshape"
  top: "out_reshape_scale"
  param {
    name: "scale_conv1_1"
    lr_mult: 1
  }
  scale_param {
    bias_term: false
  }
}
layer {
  name: "out_x"
  type: "Eltwise"
  bottom: "out_reshape_scale"
  bottom: "pool5_2_conv4_relu"
  top: "out_x"
  eltwise_param {
    operation: SUM
  }
}
layer {
  name: "mask_deconv2"
  type: "Deconvolution"
  bottom: "out_x"
  top: "mask_deconv2"
  param {
    lr_mult: 1
    decay_mult: 1
  }
  param {
    lr_mult: 2
    decay_mult: 0
  }
  convolution_param {
    num_output: 256
    pad: 1
    kernel_size: 8
    group: 256
    stride: 4
    weight_filler {
      type: "bilinear"
    }
  }
}
layer {
  name: "pool5_2_conv5"
  type: "Convolution"
  bottom: "mask_deconv2"
  top: "pool5_2_conv5"
  param {
    lr_mult: 1
    decay_mult: 1
  }
  param {
    lr_mult: 2
    decay_mult: 0
  }
  convolution_param {
    num_output: 512
    pad: 1
    kernel_size: 3
    stride: 1
    weight_filler {
      type: "gaussian"
      std: 0.01
    }
    bias_filler {
      type: "constant"
      value: 0
    }
  }
}
layer {
  name: "pool5_2_conv5_relu"
  type: "ReLU"
  bottom: "pool5_2_conv5"
  top: "pool5_2_conv5_relu"
}
layer {
  name: "pool5_2_conv6"
  type: "Convolution"
  bottom: "pool5_2_conv5_relu"
  top: "pool5_2_conv6"
  param {
    lr_mult: 1
    decay_mult: 1
  }
  param {
    lr_mult: 2
    decay_mult: 0
  }
  convolution_param {
    num_output: 512
    pad: 1
    kernel_size: 3
    stride: 1
    weight_filler {
      type: "gaussian"
      std: 0.01
    }
    bias_filler {
      type: "constant"
      value: 0
    }
  }
}
layer {
  name: "pool5_2_conv6_relu"
  type: "ReLU"
  bottom: "pool5_2_conv6"
  top: "pool5_2_conv6_relu"
}
layer {
  name: "mask_deconv3"
  type: "Deconvolution"
  bottom: "pool5_2_conv6_relu"
  top: "mask_deconv3"
  param {
    lr_mult: 1
    decay_mult: 1
  }
  param {
    lr_mult: 2
    decay_mult: 0
  }
  convolution_param {
    num_output: 256
    pad: 1
    kernel_size: 4
    group: 256
    stride: 2
    weight_filler {
      type: "bilinear"
    }
  }
}
layer {
  name: "mask_score"
  type: "Convolution"
  bottom: "mask_deconv3"
  top: "mask_score"
  param {
    lr_mult: 1
    decay_mult: 1
  }
  param {
    lr_mult: 2
    decay_mult: 0
  }
  convolution_param {
    num_output: 8
    pad: 0
    kernel_size: 1
    weight_filler {
      type: "gaussian"
      std: 0.01
    }
    bias_filler {
      type: "constant"
      value: 0
    }
  }
}
layer {
  name: "loss_mask"
  type: "SoftmaxWithLoss"
  bottom: "mask_score"
  bottom: "mask_targets"
  top: "loss_mask"
  loss_weight: 3
  propagate_down: true
  propagate_down: false
  loss_param {
    ignore_label: -1
    normalize: true
  }
}
layer {
  name: "pool5_2_conv5_2"
  type: "Convolution"
  bottom: "mask_deconv2"
  top: "pool5_2_conv5_2"
  param {
    lr_mult: 1
    decay_mult: 1
  }
  param {
    lr_mult: 2
    decay_mult: 0
  }
  convolution_param {
    num_output: 512
    pad: 1
    kernel_size: 3
    stride: 1
    weight_filler {
      type: "gaussian"
      std: 0.01
    }
    bias_filler {
      type: "constant"
      value: 0
    }
  }
}
layer {
  name: "pool5_2_conv5_2_relu"
  type: "ReLU"
  bottom: "pool5_2_conv5_2"
  top: "pool5_2_conv5_2_relu"
}
layer {
  name: "mask_deconv3_2"
  type: "Deconvolution"
  bottom: "pool5_2_conv5_2_relu"
  top: "mask_deconv3_2"
  param {
    lr_mult: 1
    decay_mult: 1
  }
  param {
    lr_mult: 2
    decay_mult: 0
  }
  convolution_param {
    num_output: 256
    pad: 1
    kernel_size: 4
    group: 256
    stride: 2
    weight_filler {
      type: "bilinear"
    }
  }
}
layer {
  name: "mask_score_2"
  type: "Convolution"
  bottom: "mask_deconv3_2"
  top: "mask_score_2"
  param {
    lr_mult: 1
    decay_mult: 1
  }
  param {
    lr_mult: 2
    decay_mult: 0
  }
  convolution_param {
    num_output: 8
    pad: 0
    kernel_size: 1
    weight_filler {
      type: "gaussian"
      std: 0.01
    }
    bias_filler {
      type: "constant"
      value: 0
    }
  }
}
layer {
  name: "loss_mask_2"
  type: "SoftmaxWithLoss"
  bottom: "mask_score_2"
  bottom: "mask_targets"
  top: "loss_mask_2"
  loss_weight: 0.3
  propagate_down: true
  propagate_down: false
  loss_param {
    ignore_label: -1
    normalize: true
  }
}
I0617 20:14:45.908782 22979 layer_factory.hpp:77] Creating layer input-data
I0617 20:14:45.966491 22979 net.cpp:106] Creating Layer input-data
I0617 20:14:45.966507 22979 net.cpp:411] input-data -> data
I0617 20:14:45.966516 22979 net.cpp:411] input-data -> im_info
I0617 20:14:45.966521 22979 net.cpp:411] input-data -> gt_boxes
I0617 20:14:45.966526 22979 net.cpp:411] input-data -> seg_mask_inds
I0617 20:14:45.966529 22979 net.cpp:411] input-data -> flipped
RoiDataLayer: name_to_top: {'gt_boxes': 2, 'data': 0, 'seg_mask_inds': 3, 'im_info': 1, 'flipped': 4}
I0617 20:14:46.005018 22979 net.cpp:150] Setting up input-data
I0617 20:14:46.005036 22979 net.cpp:157] Top shape: 1 3 600 1000 (1800000)
I0617 20:14:46.005044 22979 net.cpp:157] Top shape: 1 3 (3)
I0617 20:14:46.005050 22979 net.cpp:157] Top shape: 1 4 (4)
I0617 20:14:46.005055 22979 net.cpp:157] Top shape: 1 2 (2)
I0617 20:14:46.005062 22979 net.cpp:157] Top shape: 1 1 (1)
I0617 20:14:46.005066 22979 net.cpp:165] Memory required for data: 7200040
I0617 20:14:46.005074 22979 layer_factory.hpp:77] Creating layer data_input-data_0_split
I0617 20:14:46.005090 22979 net.cpp:106] Creating Layer data_input-data_0_split
I0617 20:14:46.005095 22979 net.cpp:454] data_input-data_0_split <- data
I0617 20:14:46.005103 22979 net.cpp:411] data_input-data_0_split -> data_input-data_0_split_0
I0617 20:14:46.005115 22979 net.cpp:411] data_input-data_0_split -> data_input-data_0_split_1
I0617 20:14:46.005141 22979 net.cpp:150] Setting up data_input-data_0_split
I0617 20:14:46.005147 22979 net.cpp:157] Top shape: 1 3 600 1000 (1800000)
I0617 20:14:46.005152 22979 net.cpp:157] Top shape: 1 3 600 1000 (1800000)
I0617 20:14:46.005156 22979 net.cpp:165] Memory required for data: 21600040
I0617 20:14:46.005162 22979 layer_factory.hpp:77] Creating layer im_info_input-data_1_split
I0617 20:14:46.005169 22979 net.cpp:106] Creating Layer im_info_input-data_1_split
I0617 20:14:46.005174 22979 net.cpp:454] im_info_input-data_1_split <- im_info
I0617 20:14:46.005182 22979 net.cpp:411] im_info_input-data_1_split -> im_info_input-data_1_split_0
I0617 20:14:46.005189 22979 net.cpp:411] im_info_input-data_1_split -> im_info_input-data_1_split_1
I0617 20:14:46.005199 22979 net.cpp:411] im_info_input-data_1_split -> im_info_input-data_1_split_2
I0617 20:14:46.005231 22979 net.cpp:150] Setting up im_info_input-data_1_split
I0617 20:14:46.005237 22979 net.cpp:157] Top shape: 1 3 (3)
I0617 20:14:46.005242 22979 net.cpp:157] Top shape: 1 3 (3)
I0617 20:14:46.005247 22979 net.cpp:157] Top shape: 1 3 (3)
I0617 20:14:46.005251 22979 net.cpp:165] Memory required for data: 21600076
I0617 20:14:46.005255 22979 layer_factory.hpp:77] Creating layer gt_boxes_input-data_2_split
I0617 20:14:46.005264 22979 net.cpp:106] Creating Layer gt_boxes_input-data_2_split
I0617 20:14:46.005270 22979 net.cpp:454] gt_boxes_input-data_2_split <- gt_boxes
I0617 20:14:46.005275 22979 net.cpp:411] gt_boxes_input-data_2_split -> gt_boxes_input-data_2_split_0
I0617 20:14:46.005285 22979 net.cpp:411] gt_boxes_input-data_2_split -> gt_boxes_input-data_2_split_1
I0617 20:14:46.005309 22979 net.cpp:150] Setting up gt_boxes_input-data_2_split
I0617 20:14:46.005314 22979 net.cpp:157] Top shape: 1 4 (4)
I0617 20:14:46.005319 22979 net.cpp:157] Top shape: 1 4 (4)
I0617 20:14:46.005323 22979 net.cpp:165] Memory required for data: 21600108
I0617 20:14:46.005327 22979 layer_factory.hpp:77] Creating layer conv1_1
I0617 20:14:46.005342 22979 net.cpp:106] Creating Layer conv1_1
I0617 20:14:46.005347 22979 net.cpp:454] conv1_1 <- data_input-data_0_split_0
I0617 20:14:46.005354 22979 net.cpp:411] conv1_1 -> conv1_1
I0617 20:14:46.396488 22979 net.cpp:150] Setting up conv1_1
I0617 20:14:46.396510 22979 net.cpp:157] Top shape: 1 64 600 1000 (38400000)
I0617 20:14:46.396514 22979 net.cpp:165] Memory required for data: 175200108
I0617 20:14:46.396528 22979 layer_factory.hpp:77] Creating layer relu1_1
I0617 20:14:46.396551 22979 net.cpp:106] Creating Layer relu1_1
I0617 20:14:46.396558 22979 net.cpp:454] relu1_1 <- conv1_1
I0617 20:14:46.396571 22979 net.cpp:397] relu1_1 -> conv1_1 (in-place)
I0617 20:14:46.396701 22979 net.cpp:150] Setting up relu1_1
I0617 20:14:46.396709 22979 net.cpp:157] Top shape: 1 64 600 1000 (38400000)
I0617 20:14:46.396713 22979 net.cpp:165] Memory required for data: 328800108
I0617 20:14:46.396716 22979 layer_factory.hpp:77] Creating layer conv1_2
I0617 20:14:46.396726 22979 net.cpp:106] Creating Layer conv1_2
I0617 20:14:46.396744 22979 net.cpp:454] conv1_2 <- conv1_1
I0617 20:14:46.396759 22979 net.cpp:411] conv1_2 -> conv1_2
I0617 20:14:46.398911 22979 net.cpp:150] Setting up conv1_2
I0617 20:14:46.398924 22979 net.cpp:157] Top shape: 1 64 600 1000 (38400000)
I0617 20:14:46.398928 22979 net.cpp:165] Memory required for data: 482400108
I0617 20:14:46.398938 22979 layer_factory.hpp:77] Creating layer relu1_2
I0617 20:14:46.398947 22979 net.cpp:106] Creating Layer relu1_2
I0617 20:14:46.398962 22979 net.cpp:454] relu1_2 <- conv1_2
I0617 20:14:46.398979 22979 net.cpp:397] relu1_2 -> conv1_2 (in-place)
I0617 20:14:46.399103 22979 net.cpp:150] Setting up relu1_2
I0617 20:14:46.399111 22979 net.cpp:157] Top shape: 1 64 600 1000 (38400000)
I0617 20:14:46.399114 22979 net.cpp:165] Memory required for data: 636000108
I0617 20:14:46.399118 22979 layer_factory.hpp:77] Creating layer pool1
I0617 20:14:46.399127 22979 net.cpp:106] Creating Layer pool1
I0617 20:14:46.399132 22979 net.cpp:454] pool1 <- conv1_2
I0617 20:14:46.399147 22979 net.cpp:411] pool1 -> pool1
I0617 20:14:46.399193 22979 net.cpp:150] Setting up pool1
I0617 20:14:46.399199 22979 net.cpp:157] Top shape: 1 64 300 500 (9600000)
I0617 20:14:46.399201 22979 net.cpp:165] Memory required for data: 674400108
I0617 20:14:46.399205 22979 layer_factory.hpp:77] Creating layer conv2_1
I0617 20:14:46.399214 22979 net.cpp:106] Creating Layer conv2_1
I0617 20:14:46.399219 22979 net.cpp:454] conv2_1 <- pool1
I0617 20:14:46.399235 22979 net.cpp:411] conv2_1 -> conv2_1
I0617 20:14:46.401098 22979 net.cpp:150] Setting up conv2_1
I0617 20:14:46.401108 22979 net.cpp:157] Top shape: 1 128 300 500 (19200000)
I0617 20:14:46.401113 22979 net.cpp:165] Memory required for data: 751200108
I0617 20:14:46.401123 22979 layer_factory.hpp:77] Creating layer relu2_1
I0617 20:14:46.401129 22979 net.cpp:106] Creating Layer relu2_1
I0617 20:14:46.401144 22979 net.cpp:454] relu2_1 <- conv2_1
I0617 20:14:46.401160 22979 net.cpp:397] relu2_1 -> conv2_1 (in-place)
I0617 20:14:46.401646 22979 net.cpp:150] Setting up relu2_1
I0617 20:14:46.401655 22979 net.cpp:157] Top shape: 1 128 300 500 (19200000)
I0617 20:14:46.401659 22979 net.cpp:165] Memory required for data: 828000108
I0617 20:14:46.401674 22979 layer_factory.hpp:77] Creating layer conv2_2
I0617 20:14:46.401692 22979 net.cpp:106] Creating Layer conv2_2
I0617 20:14:46.401697 22979 net.cpp:454] conv2_2 <- conv2_1
I0617 20:14:46.401712 22979 net.cpp:411] conv2_2 -> conv2_2
I0617 20:14:46.403123 22979 net.cpp:150] Setting up conv2_2
I0617 20:14:46.403132 22979 net.cpp:157] Top shape: 1 128 300 500 (19200000)
I0617 20:14:46.403136 22979 net.cpp:165] Memory required for data: 904800108
I0617 20:14:46.403154 22979 layer_factory.hpp:77] Creating layer relu2_2
I0617 20:14:46.403172 22979 net.cpp:106] Creating Layer relu2_2
I0617 20:14:46.403177 22979 net.cpp:454] relu2_2 <- conv2_2
I0617 20:14:46.403182 22979 net.cpp:397] relu2_2 -> conv2_2 (in-place)
I0617 20:14:46.403321 22979 net.cpp:150] Setting up relu2_2
I0617 20:14:46.403337 22979 net.cpp:157] Top shape: 1 128 300 500 (19200000)
I0617 20:14:46.403350 22979 net.cpp:165] Memory required for data: 981600108
I0617 20:14:46.403354 22979 layer_factory.hpp:77] Creating layer pool2
I0617 20:14:46.403373 22979 net.cpp:106] Creating Layer pool2
I0617 20:14:46.403376 22979 net.cpp:454] pool2 <- conv2_2
I0617 20:14:46.403391 22979 net.cpp:411] pool2 -> pool2
I0617 20:14:46.403430 22979 net.cpp:150] Setting up pool2
I0617 20:14:46.403435 22979 net.cpp:157] Top shape: 1 128 150 250 (4800000)
I0617 20:14:46.403439 22979 net.cpp:165] Memory required for data: 1000800108
I0617 20:14:46.403452 22979 layer_factory.hpp:77] Creating layer conv3_1
I0617 20:14:46.403460 22979 net.cpp:106] Creating Layer conv3_1
I0617 20:14:46.403476 22979 net.cpp:454] conv3_1 <- pool2
I0617 20:14:46.403481 22979 net.cpp:411] conv3_1 -> conv3_1
I0617 20:14:46.405386 22979 net.cpp:150] Setting up conv3_1
I0617 20:14:46.405397 22979 net.cpp:157] Top shape: 1 256 150 250 (9600000)
I0617 20:14:46.405401 22979 net.cpp:165] Memory required for data: 1039200108
I0617 20:14:46.405448 22979 layer_factory.hpp:77] Creating layer relu3_1
I0617 20:14:46.405455 22979 net.cpp:106] Creating Layer relu3_1
I0617 20:14:46.405469 22979 net.cpp:454] relu3_1 <- conv3_1
I0617 20:14:46.405485 22979 net.cpp:397] relu3_1 -> conv3_1 (in-place)
I0617 20:14:46.405603 22979 net.cpp:150] Setting up relu3_1
I0617 20:14:46.405620 22979 net.cpp:157] Top shape: 1 256 150 250 (9600000)
I0617 20:14:46.405624 22979 net.cpp:165] Memory required for data: 1077600108
I0617 20:14:46.405627 22979 layer_factory.hpp:77] Creating layer conv3_2
I0617 20:14:46.405649 22979 net.cpp:106] Creating Layer conv3_2
I0617 20:14:46.405653 22979 net.cpp:454] conv3_2 <- conv3_1
I0617 20:14:46.405670 22979 net.cpp:411] conv3_2 -> conv3_2
I0617 20:14:46.407670 22979 net.cpp:150] Setting up conv3_2
I0617 20:14:46.407680 22979 net.cpp:157] Top shape: 1 256 150 250 (9600000)
I0617 20:14:46.407685 22979 net.cpp:165] Memory required for data: 1116000108
I0617 20:14:46.407701 22979 layer_factory.hpp:77] Creating layer relu3_2
I0617 20:14:46.407711 22979 net.cpp:106] Creating Layer relu3_2
I0617 20:14:46.407716 22979 net.cpp:454] relu3_2 <- conv3_2
I0617 20:14:46.407722 22979 net.cpp:397] relu3_2 -> conv3_2 (in-place)
I0617 20:14:46.407841 22979 net.cpp:150] Setting up relu3_2
I0617 20:14:46.407848 22979 net.cpp:157] Top shape: 1 256 150 250 (9600000)
I0617 20:14:46.407851 22979 net.cpp:165] Memory required for data: 1154400108
I0617 20:14:46.407855 22979 layer_factory.hpp:77] Creating layer conv3_3
I0617 20:14:46.407865 22979 net.cpp:106] Creating Layer conv3_3
I0617 20:14:46.407868 22979 net.cpp:454] conv3_3 <- conv3_2
I0617 20:14:46.407884 22979 net.cpp:411] conv3_3 -> conv3_3
I0617 20:14:46.410015 22979 net.cpp:150] Setting up conv3_3
I0617 20:14:46.410027 22979 net.cpp:157] Top shape: 1 256 150 250 (9600000)
I0617 20:14:46.410030 22979 net.cpp:165] Memory required for data: 1192800108
I0617 20:14:46.410038 22979 layer_factory.hpp:77] Creating layer relu3_3
I0617 20:14:46.410048 22979 net.cpp:106] Creating Layer relu3_3
I0617 20:14:46.410053 22979 net.cpp:454] relu3_3 <- conv3_3
I0617 20:14:46.410060 22979 net.cpp:397] relu3_3 -> conv3_3 (in-place)
I0617 20:14:46.410198 22979 net.cpp:150] Setting up relu3_3
I0617 20:14:46.410205 22979 net.cpp:157] Top shape: 1 256 150 250 (9600000)
I0617 20:14:46.410209 22979 net.cpp:165] Memory required for data: 1231200108
I0617 20:14:46.410213 22979 layer_factory.hpp:77] Creating layer pool3
I0617 20:14:46.410221 22979 net.cpp:106] Creating Layer pool3
I0617 20:14:46.410243 22979 net.cpp:454] pool3 <- conv3_3
I0617 20:14:46.410248 22979 net.cpp:411] pool3 -> pool3
I0617 20:14:46.410300 22979 net.cpp:150] Setting up pool3
I0617 20:14:46.410306 22979 net.cpp:157] Top shape: 1 256 75 125 (2400000)
I0617 20:14:46.410310 22979 net.cpp:165] Memory required for data: 1240800108
I0617 20:14:46.410326 22979 layer_factory.hpp:77] Creating layer conv4_1
I0617 20:14:46.410333 22979 net.cpp:106] Creating Layer conv4_1
I0617 20:14:46.410346 22979 net.cpp:454] conv4_1 <- pool3
I0617 20:14:46.410367 22979 net.cpp:411] conv4_1 -> conv4_1
I0617 20:14:46.414146 22979 net.cpp:150] Setting up conv4_1
I0617 20:14:46.414167 22979 net.cpp:157] Top shape: 1 512 75 125 (4800000)
I0617 20:14:46.414171 22979 net.cpp:165] Memory required for data: 1260000108
I0617 20:14:46.414191 22979 layer_factory.hpp:77] Creating layer relu4_1
I0617 20:14:46.414202 22979 net.cpp:106] Creating Layer relu4_1
I0617 20:14:46.414218 22979 net.cpp:454] relu4_1 <- conv4_1
I0617 20:14:46.414227 22979 net.cpp:397] relu4_1 -> conv4_1 (in-place)
I0617 20:14:46.414366 22979 net.cpp:150] Setting up relu4_1
I0617 20:14:46.414373 22979 net.cpp:157] Top shape: 1 512 75 125 (4800000)
I0617 20:14:46.414376 22979 net.cpp:165] Memory required for data: 1279200108
I0617 20:14:46.414381 22979 layer_factory.hpp:77] Creating layer conv4_2
I0617 20:14:46.414400 22979 net.cpp:106] Creating Layer conv4_2
I0617 20:14:46.414414 22979 net.cpp:454] conv4_2 <- conv4_1
I0617 20:14:46.414422 22979 net.cpp:411] conv4_2 -> conv4_2
I0617 20:14:46.419914 22979 net.cpp:150] Setting up conv4_2
I0617 20:14:46.419935 22979 net.cpp:157] Top shape: 1 512 75 125 (4800000)
I0617 20:14:46.419939 22979 net.cpp:165] Memory required for data: 1298400108
I0617 20:14:46.419965 22979 layer_factory.hpp:77] Creating layer relu4_2
I0617 20:14:46.419976 22979 net.cpp:106] Creating Layer relu4_2
I0617 20:14:46.419982 22979 net.cpp:454] relu4_2 <- conv4_2
I0617 20:14:46.419997 22979 net.cpp:397] relu4_2 -> conv4_2 (in-place)
I0617 20:14:46.420483 22979 net.cpp:150] Setting up relu4_2
I0617 20:14:46.420493 22979 net.cpp:157] Top shape: 1 512 75 125 (4800000)
I0617 20:14:46.420496 22979 net.cpp:165] Memory required for data: 1317600108
I0617 20:14:46.420511 22979 layer_factory.hpp:77] Creating layer conv4_3
I0617 20:14:46.420522 22979 net.cpp:106] Creating Layer conv4_3
I0617 20:14:46.420526 22979 net.cpp:454] conv4_3 <- conv4_2
I0617 20:14:46.420543 22979 net.cpp:411] conv4_3 -> conv4_3
I0617 20:14:46.425438 22979 net.cpp:150] Setting up conv4_3
I0617 20:14:46.425465 22979 net.cpp:157] Top shape: 1 512 75 125 (4800000)
I0617 20:14:46.425478 22979 net.cpp:165] Memory required for data: 1336800108
I0617 20:14:46.425488 22979 layer_factory.hpp:77] Creating layer relu4_3
I0617 20:14:46.425499 22979 net.cpp:106] Creating Layer relu4_3
I0617 20:14:46.425505 22979 net.cpp:454] relu4_3 <- conv4_3
I0617 20:14:46.425513 22979 net.cpp:397] relu4_3 -> conv4_3 (in-place)
I0617 20:14:46.425673 22979 net.cpp:150] Setting up relu4_3
I0617 20:14:46.425680 22979 net.cpp:157] Top shape: 1 512 75 125 (4800000)
I0617 20:14:46.425684 22979 net.cpp:165] Memory required for data: 1356000108
I0617 20:14:46.425698 22979 layer_factory.hpp:77] Creating layer pool4
I0617 20:14:46.425707 22979 net.cpp:106] Creating Layer pool4
I0617 20:14:46.425724 22979 net.cpp:454] pool4 <- conv4_3
I0617 20:14:46.425741 22979 net.cpp:411] pool4 -> pool4
I0617 20:14:46.425827 22979 net.cpp:150] Setting up pool4
I0617 20:14:46.425843 22979 net.cpp:157] Top shape: 1 512 38 63 (1225728)
I0617 20:14:46.425845 22979 net.cpp:165] Memory required for data: 1360903020
I0617 20:14:46.425859 22979 layer_factory.hpp:77] Creating layer conv5_1
I0617 20:14:46.425881 22979 net.cpp:106] Creating Layer conv5_1
I0617 20:14:46.425885 22979 net.cpp:454] conv5_1 <- pool4
I0617 20:14:46.425902 22979 net.cpp:411] conv5_1 -> conv5_1
I0617 20:14:46.430364 22979 net.cpp:150] Setting up conv5_1
I0617 20:14:46.430382 22979 net.cpp:157] Top shape: 1 512 38 63 (1225728)
I0617 20:14:46.430385 22979 net.cpp:165] Memory required for data: 1365805932
I0617 20:14:46.430404 22979 layer_factory.hpp:77] Creating layer relu5_1
I0617 20:14:46.430425 22979 net.cpp:106] Creating Layer relu5_1
I0617 20:14:46.430433 22979 net.cpp:454] relu5_1 <- conv5_1
I0617 20:14:46.430449 22979 net.cpp:397] relu5_1 -> conv5_1 (in-place)
I0617 20:14:46.430601 22979 net.cpp:150] Setting up relu5_1
I0617 20:14:46.430609 22979 net.cpp:157] Top shape: 1 512 38 63 (1225728)
I0617 20:14:46.430613 22979 net.cpp:165] Memory required for data: 1370708844
I0617 20:14:46.430625 22979 layer_factory.hpp:77] Creating layer conv5_2
I0617 20:14:46.430637 22979 net.cpp:106] Creating Layer conv5_2
I0617 20:14:46.430642 22979 net.cpp:454] conv5_2 <- conv5_1
I0617 20:14:46.430649 22979 net.cpp:411] conv5_2 -> conv5_2
I0617 20:14:46.435997 22979 net.cpp:150] Setting up conv5_2
I0617 20:14:46.436019 22979 net.cpp:157] Top shape: 1 512 38 63 (1225728)
I0617 20:14:46.436023 22979 net.cpp:165] Memory required for data: 1375611756
I0617 20:14:46.436043 22979 layer_factory.hpp:77] Creating layer relu5_2
I0617 20:14:46.436062 22979 net.cpp:106] Creating Layer relu5_2
I0617 20:14:46.436071 22979 net.cpp:454] relu5_2 <- conv5_2
I0617 20:14:46.436090 22979 net.cpp:397] relu5_2 -> conv5_2 (in-place)
I0617 20:14:46.436223 22979 net.cpp:150] Setting up relu5_2
I0617 20:14:46.436229 22979 net.cpp:157] Top shape: 1 512 38 63 (1225728)
I0617 20:14:46.436233 22979 net.cpp:165] Memory required for data: 1380514668
I0617 20:14:46.436236 22979 layer_factory.hpp:77] Creating layer conv5_3
I0617 20:14:46.436271 22979 net.cpp:106] Creating Layer conv5_3
I0617 20:14:46.436275 22979 net.cpp:454] conv5_3 <- conv5_2
I0617 20:14:46.436281 22979 net.cpp:411] conv5_3 -> conv5_3
I0617 20:14:46.441134 22979 net.cpp:150] Setting up conv5_3
I0617 20:14:46.441164 22979 net.cpp:157] Top shape: 1 512 38 63 (1225728)
I0617 20:14:46.441177 22979 net.cpp:165] Memory required for data: 1385417580
I0617 20:14:46.441187 22979 layer_factory.hpp:77] Creating layer relu5_3
I0617 20:14:46.441197 22979 net.cpp:106] Creating Layer relu5_3
I0617 20:14:46.441210 22979 net.cpp:454] relu5_3 <- conv5_3
I0617 20:14:46.441218 22979 net.cpp:397] relu5_3 -> conv5_3 (in-place)
I0617 20:14:46.441341 22979 net.cpp:150] Setting up relu5_3
I0617 20:14:46.441349 22979 net.cpp:157] Top shape: 1 512 38 63 (1225728)
I0617 20:14:46.441354 22979 net.cpp:165] Memory required for data: 1390320492
I0617 20:14:46.441356 22979 layer_factory.hpp:77] Creating layer conv5_3_relu5_3_0_split
I0617 20:14:46.441363 22979 net.cpp:106] Creating Layer conv5_3_relu5_3_0_split
I0617 20:14:46.441367 22979 net.cpp:454] conv5_3_relu5_3_0_split <- conv5_3
I0617 20:14:46.441375 22979 net.cpp:411] conv5_3_relu5_3_0_split -> conv5_3_relu5_3_0_split_0
I0617 20:14:46.441382 22979 net.cpp:411] conv5_3_relu5_3_0_split -> conv5_3_relu5_3_0_split_1
I0617 20:14:46.441390 22979 net.cpp:411] conv5_3_relu5_3_0_split -> conv5_3_relu5_3_0_split_2
I0617 20:14:46.441457 22979 net.cpp:150] Setting up conv5_3_relu5_3_0_split
I0617 20:14:46.441473 22979 net.cpp:157] Top shape: 1 512 38 63 (1225728)
I0617 20:14:46.441478 22979 net.cpp:157] Top shape: 1 512 38 63 (1225728)
I0617 20:14:46.441481 22979 net.cpp:157] Top shape: 1 512 38 63 (1225728)
I0617 20:14:46.441484 22979 net.cpp:165] Memory required for data: 1405029228
I0617 20:14:46.441488 22979 layer_factory.hpp:77] Creating layer rpn_conv/3x3
I0617 20:14:46.441500 22979 net.cpp:106] Creating Layer rpn_conv/3x3
I0617 20:14:46.441504 22979 net.cpp:454] rpn_conv/3x3 <- conv5_3_relu5_3_0_split_0
I0617 20:14:46.441512 22979 net.cpp:411] rpn_conv/3x3 -> rpn/output
I0617 20:14:46.493271 22979 net.cpp:150] Setting up rpn_conv/3x3
I0617 20:14:46.493289 22979 net.cpp:157] Top shape: 1 512 38 63 (1225728)
I0617 20:14:46.493293 22979 net.cpp:165] Memory required for data: 1409932140
I0617 20:14:46.493302 22979 layer_factory.hpp:77] Creating layer rpn_relu/3x3
I0617 20:14:46.493322 22979 net.cpp:106] Creating Layer rpn_relu/3x3
I0617 20:14:46.493330 22979 net.cpp:454] rpn_relu/3x3 <- rpn/output
I0617 20:14:46.493345 22979 net.cpp:397] rpn_relu/3x3 -> rpn/output (in-place)
I0617 20:14:46.493505 22979 net.cpp:150] Setting up rpn_relu/3x3
I0617 20:14:46.493512 22979 net.cpp:157] Top shape: 1 512 38 63 (1225728)
I0617 20:14:46.493515 22979 net.cpp:165] Memory required for data: 1414835052
I0617 20:14:46.493520 22979 layer_factory.hpp:77] Creating layer rpn/output_rpn_relu/3x3_0_split
I0617 20:14:46.493535 22979 net.cpp:106] Creating Layer rpn/output_rpn_relu/3x3_0_split
I0617 20:14:46.493538 22979 net.cpp:454] rpn/output_rpn_relu/3x3_0_split <- rpn/output
I0617 20:14:46.493543 22979 net.cpp:411] rpn/output_rpn_relu/3x3_0_split -> rpn/output_rpn_relu/3x3_0_split_0
I0617 20:14:46.493553 22979 net.cpp:411] rpn/output_rpn_relu/3x3_0_split -> rpn/output_rpn_relu/3x3_0_split_1
I0617 20:14:46.493607 22979 net.cpp:150] Setting up rpn/output_rpn_relu/3x3_0_split
I0617 20:14:46.493623 22979 net.cpp:157] Top shape: 1 512 38 63 (1225728)
I0617 20:14:46.493626 22979 net.cpp:157] Top shape: 1 512 38 63 (1225728)
I0617 20:14:46.493639 22979 net.cpp:165] Memory required for data: 1424640876
I0617 20:14:46.493645 22979 layer_factory.hpp:77] Creating layer rpn_cls_score
I0617 20:14:46.493669 22979 net.cpp:106] Creating Layer rpn_cls_score
I0617 20:14:46.493674 22979 net.cpp:454] rpn_cls_score <- rpn/output_rpn_relu/3x3_0_split_0
I0617 20:14:46.493680 22979 net.cpp:411] rpn_cls_score -> rpn_cls_score
I0617 20:14:46.495275 22979 net.cpp:150] Setting up rpn_cls_score
I0617 20:14:46.495283 22979 net.cpp:157] Top shape: 1 30 38 63 (71820)
I0617 20:14:46.495287 22979 net.cpp:165] Memory required for data: 1424928156
I0617 20:14:46.495304 22979 layer_factory.hpp:77] Creating layer rpn_cls_score_rpn_cls_score_0_split
I0617 20:14:46.495311 22979 net.cpp:106] Creating Layer rpn_cls_score_rpn_cls_score_0_split
I0617 20:14:46.495316 22979 net.cpp:454] rpn_cls_score_rpn_cls_score_0_split <- rpn_cls_score
I0617 20:14:46.495323 22979 net.cpp:411] rpn_cls_score_rpn_cls_score_0_split -> rpn_cls_score_rpn_cls_score_0_split_0
I0617 20:14:46.495333 22979 net.cpp:411] rpn_cls_score_rpn_cls_score_0_split -> rpn_cls_score_rpn_cls_score_0_split_1
I0617 20:14:46.495378 22979 net.cpp:150] Setting up rpn_cls_score_rpn_cls_score_0_split
I0617 20:14:46.495383 22979 net.cpp:157] Top shape: 1 30 38 63 (71820)
I0617 20:14:46.495388 22979 net.cpp:157] Top shape: 1 30 38 63 (71820)
I0617 20:14:46.495401 22979 net.cpp:165] Memory required for data: 1425502716
I0617 20:14:46.495405 22979 layer_factory.hpp:77] Creating layer rpn_bbox_pred
I0617 20:14:46.495417 22979 net.cpp:106] Creating Layer rpn_bbox_pred
I0617 20:14:46.495422 22979 net.cpp:454] rpn_bbox_pred <- rpn/output_rpn_relu/3x3_0_split_1
I0617 20:14:46.495437 22979 net.cpp:411] rpn_bbox_pred -> rpn_bbox_pred
I0617 20:14:46.496956 22979 net.cpp:150] Setting up rpn_bbox_pred
I0617 20:14:46.496965 22979 net.cpp:157] Top shape: 1 60 38 63 (143640)
I0617 20:14:46.496969 22979 net.cpp:165] Memory required for data: 1426077276
I0617 20:14:46.496986 22979 layer_factory.hpp:77] Creating layer rpn_bbox_pred_rpn_bbox_pred_0_split
I0617 20:14:46.496997 22979 net.cpp:106] Creating Layer rpn_bbox_pred_rpn_bbox_pred_0_split
I0617 20:14:46.497004 22979 net.cpp:454] rpn_bbox_pred_rpn_bbox_pred_0_split <- rpn_bbox_pred
I0617 20:14:46.497009 22979 net.cpp:411] rpn_bbox_pred_rpn_bbox_pred_0_split -> rpn_bbox_pred_rpn_bbox_pred_0_split_0
I0617 20:14:46.497025 22979 net.cpp:411] rpn_bbox_pred_rpn_bbox_pred_0_split -> rpn_bbox_pred_rpn_bbox_pred_0_split_1
I0617 20:14:46.497097 22979 net.cpp:150] Setting up rpn_bbox_pred_rpn_bbox_pred_0_split
I0617 20:14:46.497103 22979 net.cpp:157] Top shape: 1 60 38 63 (143640)
I0617 20:14:46.497107 22979 net.cpp:157] Top shape: 1 60 38 63 (143640)
I0617 20:14:46.497123 22979 net.cpp:165] Memory required for data: 1427226396
I0617 20:14:46.497125 22979 layer_factory.hpp:77] Creating layer rpn_cls_score_reshape
I0617 20:14:46.497144 22979 net.cpp:106] Creating Layer rpn_cls_score_reshape
I0617 20:14:46.497150 22979 net.cpp:454] rpn_cls_score_reshape <- rpn_cls_score_rpn_cls_score_0_split_0
I0617 20:14:46.497167 22979 net.cpp:411] rpn_cls_score_reshape -> rpn_cls_score_reshape
I0617 20:14:46.497208 22979 net.cpp:150] Setting up rpn_cls_score_reshape
I0617 20:14:46.497215 22979 net.cpp:157] Top shape: 1 2 570 63 (71820)
I0617 20:14:46.497220 22979 net.cpp:165] Memory required for data: 1427513676
I0617 20:14:46.497222 22979 layer_factory.hpp:77] Creating layer rpn_cls_score_reshape_rpn_cls_score_reshape_0_split
I0617 20:14:46.497228 22979 net.cpp:106] Creating Layer rpn_cls_score_reshape_rpn_cls_score_reshape_0_split
I0617 20:14:46.497231 22979 net.cpp:454] rpn_cls_score_reshape_rpn_cls_score_reshape_0_split <- rpn_cls_score_reshape
I0617 20:14:46.497238 22979 net.cpp:411] rpn_cls_score_reshape_rpn_cls_score_reshape_0_split -> rpn_cls_score_reshape_rpn_cls_score_reshape_0_split_0
I0617 20:14:46.497246 22979 net.cpp:411] rpn_cls_score_reshape_rpn_cls_score_reshape_0_split -> rpn_cls_score_reshape_rpn_cls_score_reshape_0_split_1
I0617 20:14:46.497275 22979 net.cpp:150] Setting up rpn_cls_score_reshape_rpn_cls_score_reshape_0_split
I0617 20:14:46.497280 22979 net.cpp:157] Top shape: 1 2 570 63 (71820)
I0617 20:14:46.497285 22979 net.cpp:157] Top shape: 1 2 570 63 (71820)
I0617 20:14:46.497288 22979 net.cpp:165] Memory required for data: 1428088236
I0617 20:14:46.497292 22979 layer_factory.hpp:77] Creating layer rpn-data
I0617 20:14:46.498365 22979 net.cpp:106] Creating Layer rpn-data
I0617 20:14:46.498374 22979 net.cpp:454] rpn-data <- rpn_cls_score_rpn_cls_score_0_split_1
I0617 20:14:46.498379 22979 net.cpp:454] rpn-data <- gt_boxes_input-data_2_split_0
I0617 20:14:46.498394 22979 net.cpp:454] rpn-data <- im_info_input-data_1_split_0
I0617 20:14:46.498399 22979 net.cpp:454] rpn-data <- data_input-data_0_split_1
I0617 20:14:46.498406 22979 net.cpp:411] rpn-data -> rpn_labels
I0617 20:14:46.498414 22979 net.cpp:411] rpn-data -> rpn_bbox_targets
I0617 20:14:46.498422 22979 net.cpp:411] rpn-data -> rpn_bbox_inside_weights
I0617 20:14:46.498428 22979 net.cpp:411] rpn-data -> rpn_bbox_outside_weights
===================================anchor_scales in AnchorTargetLayer:=============(2, 4, 8, 16, 32)
I0617 20:14:46.499581 22979 net.cpp:150] Setting up rpn-data
I0617 20:14:46.499593 22979 net.cpp:157] Top shape: 1 1 570 63 (35910)
I0617 20:14:46.499606 22979 net.cpp:157] Top shape: 1 60 38 63 (143640)
I0617 20:14:46.499613 22979 net.cpp:157] Top shape: 1 60 38 63 (143640)
I0617 20:14:46.499616 22979 net.cpp:157] Top shape: 1 60 38 63 (143640)
I0617 20:14:46.499621 22979 net.cpp:165] Memory required for data: 1429955556
I0617 20:14:46.499624 22979 layer_factory.hpp:77] Creating layer rpn_loss_cls
I0617 20:14:46.499632 22979 net.cpp:106] Creating Layer rpn_loss_cls
I0617 20:14:46.499637 22979 net.cpp:454] rpn_loss_cls <- rpn_cls_score_reshape_rpn_cls_score_reshape_0_split_0
I0617 20:14:46.499642 22979 net.cpp:454] rpn_loss_cls <- rpn_labels
…
I0617 20:14:46.502213 22979 net.cpp:157] Top shape: (1)
I0617 20:14:46.502216 22979 net.cpp:160]     with loss weight 1
I0617 20:14:46.502223 22979 net.cpp:165] Memory required for data: 1429955564
I0617 20:14:46.502225 22979 layer_factory.hpp:77] Creating layer rpn_cls_prob
I0617 20:14:46.502230 22979 net.cpp:106] Creating Layer rpn_cls_prob
I0617 20:14:46.502233 22979 net.cpp:454] rpn_cls_prob <- rpn_cls_score_reshape_rpn_cls_score_reshape_0_split_1
I0617 20:14:46.502239 22979 net.cpp:411] rpn_cls_prob -> rpn_cls_prob
I0617 20:14:46.502394 22979 net.cpp:150] Setting up rpn_cls_prob
I0617 20:14:46.502401 22979 net.cpp:157] Top shape: 1 2 570 63 (71820)
I0617 20:14:46.502404 22979 net.cpp:165] Memory required for data: 1430242844
I0617 20:14:46.502408 22979 layer_factory.hpp:77] Creating layer rpn_cls_prob_reshape
I0617 20:14:46.502413 22979 net.cpp:106] Creating Layer rpn_cls_prob_reshape
I0617 20:14:46.502416 22979 net.cpp:454] rpn_cls_prob_reshape <- rpn_cls_prob
I0617 20:14:46.502420 22979 net.cpp:411] rpn_cls_prob_reshape -> rpn_cls_prob_reshape
I0617 20:14:46.502439 22979 net.cpp:150] Setting up rpn_cls_prob_reshape
I0617 20:14:46.502444 22979 net.cpp:157] Top shape: 1 30 38 63 (71820)
I0617 20:14:46.502445 22979 net.cpp:165] Memory required for data: 1430530124
I0617 20:14:46.502449 22979 layer_factory.hpp:77] Creating layer proposal
I0617 20:14:46.504439 22979 net.cpp:106] Creating Layer proposal
I0617 20:14:46.504448 22979 net.cpp:454] proposal <- rpn_cls_prob_reshape
I0617 20:14:46.504452 22979 net.cpp:454] proposal <- rpn_bbox_pred_rpn_bbox_pred_0_split_1
I0617 20:14:46.504457 22979 net.cpp:454] proposal <- im_info_input-data_1_split_1
I0617 20:14:46.504460 22979 net.cpp:411] proposal -> rpn_rois
=================================anchor_scales in ProposalLayer:=============(2, 4, 8, 16, 32)
I0617 20:14:46.505532 22979 net.cpp:150] Setting up proposal
I0617 20:14:46.505542 22979 net.cpp:157] Top shape: 1 5 (5)
I0617 20:14:46.505543 22979 net.cpp:165] Memory required for data: 1430530144
I0617 20:14:46.505547 22979 layer_factory.hpp:77] Creating layer roi-data
I0617 20:14:46.506068 22979 net.cpp:106] Creating Layer roi-data
I0617 20:14:46.506075 22979 net.cpp:454] roi-data <- rpn_rois
I0617 20:14:46.506079 22979 net.cpp:454] roi-data <- gt_boxes_input-data_2_split_1
I0617 20:14:46.506083 22979 net.cpp:454] roi-data <- im_info_input-data_1_split_2
I0617 20:14:46.506085 22979 net.cpp:454] roi-data <- seg_mask_inds
I0617 20:14:46.506088 22979 net.cpp:454] roi-data <- flipped
I0617 20:14:46.506093 22979 net.cpp:411] roi-data -> rois
I0617 20:14:46.506098 22979 net.cpp:411] roi-data -> labels
I0617 20:14:46.506103 22979 net.cpp:411] roi-data -> bbox_targets
I0617 20:14:46.506109 22979 net.cpp:411] roi-data -> bbox_inside_weights
I0617 20:14:46.506114 22979 net.cpp:411] roi-data -> bbox_outside_weights
I0617 20:14:46.506119 22979 net.cpp:411] roi-data -> mask_targets
I0617 20:14:46.506124 22979 net.cpp:411] roi-data -> rois_pos
I0617 20:14:46.506129 22979 net.cpp:411] roi-data -> attrArray
I0617 20:14:46.506134 22979 net.cpp:411] roi-data -> attrArrayInd
I0617 20:14:46.506140 22979 net.cpp:411] roi-data -> attrArrayShift
I0617 20:14:46.506443 22979 net.cpp:150] Setting up roi-data
I0617 20:14:46.506451 22979 net.cpp:157] Top shape: 1 5 (5)
I0617 20:14:46.506455 22979 net.cpp:157] Top shape: 1 1 (1)
I0617 20:14:46.506458 22979 net.cpp:157] Top shape: 1 8 (8)
I0617 20:14:46.506459 22979 net.cpp:157] Top shape: 1 8 (8)
I0617 20:14:46.506462 22979 net.cpp:157] Top shape: 1 8 (8)
I0617 20:14:46.506465 22979 net.cpp:157] Top shape: 1 244 244 (59536)
I0617 20:14:46.506469 22979 net.cpp:157] Top shape: 1 5 (5)
I0617 20:14:46.506470 22979 net.cpp:157] Top shape: 1 7 (7)
I0617 20:14:46.506474 22979 net.cpp:157] Top shape: 1 7 (7)
I0617 20:14:46.506475 22979 net.cpp:157] Top shape: 1 7 (7)
I0617 20:14:46.506477 22979 net.cpp:165] Memory required for data: 1430768512
I0617 20:14:46.506481 22979 layer_factory.hpp:77] Creating layer mask_targets_roi-data_5_split
I0617 20:14:46.506489 22979 net.cpp:106] Creating Layer mask_targets_roi-data_5_split
I0617 20:14:46.506492 22979 net.cpp:454] mask_targets_roi-data_5_split <- mask_targets
I0617 20:14:46.506496 22979 net.cpp:411] mask_targets_roi-data_5_split -> mask_targets_roi-data_5_split_0
I0617 20:14:46.506501 22979 net.cpp:411] mask_targets_roi-data_5_split -> mask_targets_roi-data_5_split_1
I0617 20:14:46.506534 22979 net.cpp:150] Setting up mask_targets_roi-data_5_split
I0617 20:14:46.506538 22979 net.cpp:157] Top shape: 1 244 244 (59536)
I0617 20:14:46.506541 22979 net.cpp:157] Top shape: 1 244 244 (59536)
I0617 20:14:46.506543 22979 net.cpp:165] Memory required for data: 1431244800
I0617 20:14:46.506546 22979 layer_factory.hpp:77] Creating layer roi_pool5
I0617 20:14:46.506551 22979 net.cpp:106] Creating Layer roi_pool5
I0617 20:14:46.506553 22979 net.cpp:454] roi_pool5 <- conv5_3_relu5_3_0_split_1
I0617 20:14:46.506556 22979 net.cpp:454] roi_pool5 <- rois
I0617 20:14:46.506561 22979 net.cpp:411] roi_pool5 -> pool5
I0617 20:14:46.506566 22979 roi_alignment_layer.cpp:32] Spatial scale: 0.0625
I0617 20:14:46.506635 22979 net.cpp:150] Setting up roi_pool5
I0617 20:14:46.506640 22979 net.cpp:157] Top shape: 1 512 7 7 (25088)
I0617 20:14:46.506642 22979 net.cpp:165] Memory required for data: 1431345152
I0617 20:14:46.506644 22979 layer_factory.hpp:77] Creating layer fc6
I0617 20:14:46.506650 22979 net.cpp:106] Creating Layer fc6
I0617 20:14:46.506654 22979 net.cpp:454] fc6 <- pool5
I0617 20:14:46.506656 22979 net.cpp:411] fc6 -> fc6
I0617 20:14:46.665302 22979 net.cpp:150] Setting up fc6
I0617 20:14:46.665324 22979 net.cpp:157] Top shape: 1 4096 (4096)
I0617 20:14:46.665326 22979 net.cpp:165] Memory required for data: 1431361536
I0617 20:14:46.665341 22979 layer_factory.hpp:77] Creating layer relu6
I0617 20:14:46.665350 22979 net.cpp:106] Creating Layer relu6
I0617 20:14:46.665354 22979 net.cpp:454] relu6 <- fc6
I0617 20:14:46.665361 22979 net.cpp:397] relu6 -> fc6 (in-place)
I0617 20:14:46.665575 22979 net.cpp:150] Setting up relu6
I0617 20:14:46.665582 22979 net.cpp:157] Top shape: 1 4096 (4096)
I0617 20:14:46.665585 22979 net.cpp:165] Memory required for data: 1431377920
I0617 20:14:46.665587 22979 layer_factory.hpp:77] Creating layer fc7
I0617 20:14:46.665592 22979 net.cpp:106] Creating Layer fc7
I0617 20:14:46.665606 22979 net.cpp:454] fc7 <- fc6
I0617 20:14:46.665611 22979 net.cpp:411] fc7 -> fc7
I0617 20:14:46.691787 22979 net.cpp:150] Setting up fc7
I0617 20:14:46.691824 22979 net.cpp:157] Top shape: 1 4096 (4096)
I0617 20:14:46.691828 22979 net.cpp:165] Memory required for data: 1431394304
I0617 20:14:46.691845 22979 layer_factory.hpp:77] Creating layer relu7
I0617 20:14:46.691865 22979 net.cpp:106] Creating Layer relu7
I0617 20:14:46.691870 22979 net.cpp:454] relu7 <- fc7
I0617 20:14:46.691877 22979 net.cpp:397] relu7 -> fc7 (in-place)
I0617 20:14:46.692087 22979 net.cpp:150] Setting up relu7
I0617 20:14:46.692107 22979 net.cpp:157] Top shape: 1 4096 (4096)
I0617 20:14:46.692109 22979 net.cpp:165] Memory required for data: 1431410688
I0617 20:14:46.692113 22979 layer_factory.hpp:77] Creating layer fc7_relu7_0_split
I0617 20:14:46.692118 22979 net.cpp:106] Creating Layer fc7_relu7_0_split
I0617 20:14:46.692122 22979 net.cpp:454] fc7_relu7_0_split <- fc7
I0617 20:14:46.692137 22979 net.cpp:411] fc7_relu7_0_split -> fc7_relu7_0_split_0
I0617 20:14:46.692143 22979 net.cpp:411] fc7_relu7_0_split -> fc7_relu7_0_split_1
I0617 20:14:46.692149 22979 net.cpp:411] fc7_relu7_0_split -> fc7_relu7_0_split_2
I0617 20:14:46.692219 22979 net.cpp:150] Setting up fc7_relu7_0_split
I0617 20:14:46.692222 22979 net.cpp:157] Top shape: 1 4096 (4096)
I0617 20:14:46.692235 22979 net.cpp:157] Top shape: 1 4096 (4096)
I0617 20:14:46.692237 22979 net.cpp:157] Top shape: 1 4096 (4096)
I0617 20:14:46.692240 22979 net.cpp:165] Memory required for data: 1431459840
I0617 20:14:46.692242 22979 layer_factory.hpp:77] Creating layer attr_score
I0617 20:14:46.692260 22979 net.cpp:106] Creating Layer attr_score
I0617 20:14:46.692263 22979 net.cpp:454] attr_score <- fc7_relu7_0_split_0
I0617 20:14:46.692267 22979 net.cpp:411] attr_score -> attr_score
I0617 20:14:46.692951 22979 net.cpp:150] Setting up attr_score
I0617 20:14:46.692956 22979 net.cpp:157] Top shape: 1 7 (7)
I0617 20:14:46.692968 22979 net.cpp:165] Memory required for data: 1431459868
I0617 20:14:46.692973 22979 layer_factory.hpp:77] Creating layer attr_score_pos
I0617 20:14:46.692978 22979 net.cpp:106] Creating Layer attr_score_pos
I0617 20:14:46.692992 22979 net.cpp:454] attr_score_pos <- attr_score
I0617 20:14:46.692996 22979 net.cpp:454] attr_score_pos <- attrArrayInd
I0617 20:14:46.693001 22979 net.cpp:411] attr_score_pos -> attr_score_pos
I0617 20:14:46.693018 22979 net.cpp:150] Setting up attr_score_pos
I0617 20:14:46.693022 22979 net.cpp:157] Top shape: 1 7 (7)
I0617 20:14:46.693023 22979 net.cpp:165] Memory required for data: 1431459896
I0617 20:14:46.693035 22979 layer_factory.hpp:77] Creating layer attr_score_pos_shift
I0617 20:14:46.693038 22979 net.cpp:106] Creating Layer attr_score_pos_shift
I0617 20:14:46.693042 22979 net.cpp:454] attr_score_pos_shift <- attr_score_pos
I0617 20:14:46.693054 22979 net.cpp:454] attr_score_pos_shift <- attrArrayShift
I0617 20:14:46.693058 22979 net.cpp:411] attr_score_pos_shift -> attr_score_pos_shift
I0617 20:14:46.693091 22979 net.cpp:150] Setting up attr_score_pos_shift
I0617 20:14:46.693095 22979 net.cpp:157] Top shape: 1 7 (7)
I0617 20:14:46.693097 22979 net.cpp:165] Memory required for data: 1431459924
I0617 20:14:46.693099 22979 layer_factory.hpp:77] Creating layer cls_score
I0617 20:14:46.693105 22979 net.cpp:106] Creating Layer cls_score
I0617 20:14:46.693109 22979 net.cpp:454] cls_score <- fc7_relu7_0_split_1
I0617 20:14:46.693114 22979 net.cpp:411] cls_score -> cls_score
I0617 20:14:46.693353 22979 net.cpp:150] Setting up cls_score
I0617 20:14:46.693358 22979 net.cpp:157] Top shape: 1 2 (2)
I0617 20:14:46.693361 22979 net.cpp:165] Memory required for data: 1431459932
I0617 20:14:46.693364 22979 layer_factory.hpp:77] Creating layer bbox_pred
I0617 20:14:46.693382 22979 net.cpp:106] Creating Layer bbox_pred
I0617 20:14:46.693385 22979 net.cpp:454] bbox_pred <- fc7_relu7_0_split_2
I0617 20:14:46.693390 22979 net.cpp:411] bbox_pred -> bbox_pred
I0617 20:14:46.694151 22979 net.cpp:150] Setting up bbox_pred
I0617 20:14:46.694157 22979 net.cpp:157] Top shape: 1 8 (8)
I0617 20:14:46.694159 22979 net.cpp:165] Memory required for data: 1431459964
I0617 20:14:46.694164 22979 layer_factory.hpp:77] Creating layer loss_attribute
I0617 20:14:46.694180 22979 net.cpp:106] Creating Layer loss_attribute
I0617 20:14:46.694183 22979 net.cpp:454] loss_attribute <- attr_score_pos_shift
I0617 20:14:46.694186 22979 net.cpp:454] loss_attribute <- attrArray
I0617 20:14:46.694191 22979 net.cpp:411] loss_attribute -> loss_attribute
…
I0617 20:14:46.695053 22979 net.cpp:165] Memory required for data: 1431459976
I0617 20:14:46.695055 22979 layer_factory.hpp:77] Creating layer roi_pool5_2
I0617 20:14:46.695062 22979 net.cpp:106] Creating Layer roi_pool5_2
I0617 20:14:46.695065 22979 net.cpp:454] roi_pool5_2 <- conv5_3_relu5_3_0_split_2
I0617 20:14:46.695070 22979 net.cpp:454] roi_pool5_2 <- rois_pos
I0617 20:14:46.695073 22979 net.cpp:411] roi_pool5_2 -> pool5_2
I0617 20:14:46.695077 22979 roi_alignment_layer.cpp:32] Spatial scale: 0.0625
I0617 20:14:46.695143 22979 net.cpp:150] Setting up roi_pool5_2
I0617 20:14:46.695147 22979 net.cpp:157] Top shape: 1 512 7 7 (25088)
I0617 20:14:46.695150 22979 net.cpp:165] Memory required for data: 1431560328
I0617 20:14:46.695152 22979 layer_factory.hpp:77] Creating layer pool5_2_conv
I0617 20:14:46.695158 22979 net.cpp:106] Creating Layer pool5_2_conv
I0617 20:14:46.695161 22979 net.cpp:454] pool5_2_conv <- pool5_2
I0617 20:14:46.695166 22979 net.cpp:411] pool5_2_conv -> pool5_2_conv
I0617 20:14:46.702103 22979 net.cpp:150] Setting up pool5_2_conv
I0617 20:14:46.702114 22979 net.cpp:157] Top shape: 1 512 7 7 (25088)
I0617 20:14:46.702126 22979 net.cpp:165] Memory required for data: 1431660680
I0617 20:14:46.702131 22979 layer_factory.hpp:77] Creating layer pool5_2_conv_relu
I0617 20:14:46.702137 22979 net.cpp:106] Creating Layer pool5_2_conv_relu
I0617 20:14:46.702141 22979 net.cpp:454] pool5_2_conv_relu <- pool5_2_conv
I0617 20:14:46.702144 22979 net.cpp:411] pool5_2_conv_relu -> pool5_2_conv_relu
I0617 20:14:46.702289 22979 net.cpp:150] Setting up pool5_2_conv_relu
I0617 20:14:46.702296 22979 net.cpp:157] Top shape: 1 512 7 7 (25088)
I0617 20:14:46.702309 22979 net.cpp:165] Memory required for data: 1431761032
I0617 20:14:46.702311 22979 layer_factory.hpp:77] Creating layer pool5_2_conv2
I0617 20:14:46.702320 22979 net.cpp:106] Creating Layer pool5_2_conv2
I0617 20:14:46.702323 22979 net.cpp:454] pool5_2_conv2 <- pool5_2_conv_relu
I0617 20:14:46.702327 22979 net.cpp:411] pool5_2_conv2 -> pool5_2_conv2
I0617 20:14:46.753329 22979 net.cpp:150] Setting up pool5_2_conv2
I0617 20:14:46.753356 22979 net.cpp:157] Top shape: 1 512 7 7 (25088)
I0617 20:14:46.753360 22979 net.cpp:165] Memory required for data: 1431861384
I0617 20:14:46.753370 22979 layer_factory.hpp:77] Creating layer pool5_2_conv2_relu
I0617 20:14:46.753377 22979 net.cpp:106] Creating Layer pool5_2_conv2_relu
I0617 20:14:46.753392 22979 net.cpp:454] pool5_2_conv2_relu <- pool5_2_conv2
I0617 20:14:46.753399 22979 net.cpp:411] pool5_2_conv2_relu -> pool5_2_conv2_relu
I0617 20:14:46.753592 22979 net.cpp:150] Setting up pool5_2_conv2_relu
I0617 20:14:46.753610 22979 net.cpp:157] Top shape: 1 512 7 7 (25088)
I0617 20:14:46.753613 22979 net.cpp:165] Memory required for data: 1431961736
I0617 20:14:46.753617 22979 layer_factory.hpp:77] Creating layer mask_deconv1
I0617 20:14:46.753635 22979 net.cpp:106] Creating Layer mask_deconv1
I0617 20:14:46.753640 22979 net.cpp:454] mask_deconv1 <- pool5_2_conv2_relu
I0617 20:14:46.753648 22979 net.cpp:411] mask_deconv1 -> mask_deconv1
I0617 20:14:46.754441 22979 net.cpp:150] Setting up mask_deconv1
I0617 20:14:46.754447 22979 net.cpp:157] Top shape: 1 256 30 30 (230400)
I0617 20:14:46.754449 22979 net.cpp:165] Memory required for data: 1432883336
I0617 20:14:46.754453 22979 layer_factory.hpp:77] Creating layer pool5_2_conv3
I0617 20:14:46.754459 22979 net.cpp:106] Creating Layer pool5_2_conv3
I0617 20:14:46.754462 22979 net.cpp:454] pool5_2_conv3 <- mask_deconv1
I0617 20:14:46.754477 22979 net.cpp:411] pool5_2_conv3 -> pool5_2_conv3
I0617 20:14:46.782126 22979 net.cpp:150] Setting up pool5_2_conv3
I0617 20:14:46.782143 22979 net.cpp:157] Top shape: 1 512 30 30 (460800)
I0617 20:14:46.782145 22979 net.cpp:165] Memory required for data: 1434726536
I0617 20:14:46.782153 22979 layer_factory.hpp:77] Creating layer pool5_2_conv3_relu
I0617 20:14:46.782161 22979 net.cpp:106] Creating Layer pool5_2_conv3_relu
I0617 20:14:46.782176 22979 net.cpp:454] pool5_2_conv3_relu <- pool5_2_conv3
I0617 20:14:46.782181 22979 net.cpp:411] pool5_2_conv3_relu -> pool5_2_conv3_relu
I0617 20:14:46.782330 22979 net.cpp:150] Setting up pool5_2_conv3_relu
I0617 20:14:46.782337 22979 net.cpp:157] Top shape: 1 512 30 30 (460800)
I0617 20:14:46.782339 22979 net.cpp:165] Memory required for data: 1436569736
I0617 20:14:46.782341 22979 layer_factory.hpp:77] Creating layer pool5_2_conv4
I0617 20:14:46.782351 22979 net.cpp:106] Creating Layer pool5_2_conv4
I0617 20:14:46.782353 22979 net.cpp:454] pool5_2_conv4 <- pool5_2_conv3_relu
I0617 20:14:46.782357 22979 net.cpp:411] pool5_2_conv4 -> pool5_2_conv4
I0617 20:14:46.832726 22979 net.cpp:150] Setting up pool5_2_conv4
I0617 20:14:46.832742 22979 net.cpp:157] Top shape: 1 512 30 30 (460800)
I0617 20:14:46.832746 22979 net.cpp:165] Memory required for data: 1438412936
I0617 20:14:46.832751 22979 layer_factory.hpp:77] Creating layer pool5_2_conv4_relu
I0617 20:14:46.832759 22979 net.cpp:106] Creating Layer pool5_2_conv4_relu
I0617 20:14:46.832764 22979 net.cpp:454] pool5_2_conv4_relu <- pool5_2_conv4
I0617 20:14:46.832778 22979 net.cpp:411] pool5_2_conv4_relu -> pool5_2_conv4_relu
I0617 20:14:46.832933 22979 net.cpp:150] Setting up pool5_2_conv4_relu
I0617 20:14:46.832939 22979 net.cpp:157] Top shape: 1 512 30 30 (460800)
I0617 20:14:46.832942 22979 net.cpp:165] Memory required for data: 1440256136
I0617 20:14:46.832944 22979 layer_factory.hpp:77] Creating layer pool5_2_conv4_relu_pool5_2_conv4_relu_0_split
I0617 20:14:46.832949 22979 net.cpp:106] Creating Layer pool5_2_conv4_relu_pool5_2_conv4_relu_0_split
I0617 20:14:46.832952 22979 net.cpp:454] pool5_2_conv4_relu_pool5_2_conv4_relu_0_split <- pool5_2_conv4_relu
I0617 20:14:46.832955 22979 net.cpp:411] pool5_2_conv4_relu_pool5_2_conv4_relu_0_split -> pool5_2_conv4_relu_pool5_2_conv4_relu_0_split_0
I0617 20:14:46.832959 22979 net.cpp:411] pool5_2_conv4_relu_pool5_2_conv4_relu_0_split -> pool5_2_conv4_relu_pool5_2_conv4_relu_0_split_1
I0617 20:14:46.832964 22979 net.cpp:411] pool5_2_conv4_relu_pool5_2_conv4_relu_0_split -> pool5_2_conv4_relu_pool5_2_conv4_relu_0_split_2
I0617 20:14:46.832978 22979 net.cpp:411] pool5_2_conv4_relu_pool5_2_conv4_relu_0_split -> pool5_2_conv4_relu_pool5_2_conv4_relu_0_split_3
I0617 20:14:46.833027 22979 net.cpp:150] Setting up pool5_2_conv4_relu_pool5_2_conv4_relu_0_split
I0617 20:14:46.833031 22979 net.cpp:157] Top shape: 1 512 30 30 (460800)
I0617 20:14:46.833043 22979 net.cpp:157] Top shape: 1 512 30 30 (460800)
I0617 20:14:46.833046 22979 net.cpp:157] Top shape: 1 512 30 30 (460800)
I0617 20:14:46.833048 22979 net.cpp:157] Top shape: 1 512 30 30 (460800)
I0617 20:14:46.833050 22979 net.cpp:165] Memory required for data: 1447628936
I0617 20:14:46.833061 22979 layer_factory.hpp:77] Creating layer query_conv
I0617 20:14:46.833070 22979 net.cpp:106] Creating Layer query_conv
I0617 20:14:46.833084 22979 net.cpp:454] query_conv <- pool5_2_conv4_relu_pool5_2_conv4_relu_0_split_0
I0617 20:14:46.833088 22979 net.cpp:411] query_conv -> query_conv
I0617 20:14:46.834623 22979 net.cpp:150] Setting up query_conv
I0617 20:14:46.834631 22979 net.cpp:157] Top shape: 1 64 30 30 (57600)
I0617 20:14:46.834635 22979 net.cpp:165] Memory required for data: 1447859336
I0617 20:14:46.834638 22979 layer_factory.hpp:77] Creating layer key_conv
I0617 20:14:46.834662 22979 net.cpp:106] Creating Layer key_conv
I0617 20:14:46.834676 22979 net.cpp:454] key_conv <- pool5_2_conv4_relu_pool5_2_conv4_relu_0_split_1
I0617 20:14:46.834691 22979 net.cpp:411] key_conv -> key_conv
I0617 20:14:46.836226 22979 net.cpp:150] Setting up key_conv
I0617 20:14:46.836235 22979 net.cpp:157] Top shape: 1 64 30 30 (57600)
I0617 20:14:46.836236 22979 net.cpp:165] Memory required for data: 1448089736
I0617 20:14:46.836241 22979 layer_factory.hpp:77] Creating layer value_conv
I0617 20:14:46.836247 22979 net.cpp:106] Creating Layer value_conv
I0617 20:14:46.836251 22979 net.cpp:454] value_conv <- pool5_2_conv4_relu_pool5_2_conv4_relu_0_split_2
I0617 20:14:46.836266 22979 net.cpp:411] value_conv -> value_conv
I0617 20:14:46.842872 22979 net.cpp:150] Setting up value_conv
I0617 20:14:46.842881 22979 net.cpp:157] Top shape: 1 512 30 30 (460800)
I0617 20:14:46.842883 22979 net.cpp:165] Memory required for data: 1449932936
I0617 20:14:46.842887 22979 layer_factory.hpp:77] Creating layer query_conv_reshape
I0617 20:14:46.842892 22979 net.cpp:106] Creating Layer query_conv_reshape
I0617 20:14:46.842896 22979 net.cpp:454] query_conv_reshape <- query_conv
I0617 20:14:46.842900 22979 net.cpp:411] query_conv_reshape -> query_conv_reshape
I0617 20:14:46.842929 22979 net.cpp:150] Setting up query_conv_reshape
I0617 20:14:46.842943 22979 net.cpp:157] Top shape: 1 64 900 1 (57600)
I0617 20:14:46.842945 22979 net.cpp:165] Memory required for data: 1450163336
I0617 20:14:46.842947 22979 layer_factory.hpp:77] Creating layer key_conv_reshape
I0617 20:14:46.842962 22979 net.cpp:106] Creating Layer key_conv_reshape
I0617 20:14:46.842964 22979 net.cpp:454] key_conv_reshape <- key_conv
I0617 20:14:46.842968 22979 net.cpp:411] key_conv_reshape -> key_conv_reshape
I0617 20:14:46.842983 22979 net.cpp:150] Setting up key_conv_reshape
I0617 20:14:46.842986 22979 net.cpp:157] Top shape: 1 64 900 1 (57600)
I0617 20:14:46.842988 22979 net.cpp:165] Memory required for data: 1450393736
I0617 20:14:46.842991 22979 layer_factory.hpp:77] Creating layer value_conv_reshape
I0617 20:14:46.842995 22979 net.cpp:106] Creating Layer value_conv_reshape
I0617 20:14:46.842998 22979 net.cpp:454] value_conv_reshape <- value_conv
I0617 20:14:46.843001 22979 net.cpp:411] value_conv_reshape -> value_conv_reshape
I0617 20:14:46.843017 22979 net.cpp:150] Setting up value_conv_reshape
I0617 20:14:46.843030 22979 net.cpp:157] Top shape: 1 512 900 1 (460800)
I0617 20:14:46.843032 22979 net.cpp:165] Memory required for data: 1452236936
I0617 20:14:46.843034 22979 layer_factory.hpp:77] Creating layer query_conv_reshape_perm
I0617 20:14:46.843048 22979 net.cpp:106] Creating Layer query_conv_reshape_perm
I0617 20:14:46.843050 22979 net.cpp:454] query_conv_reshape_perm <- query_conv_reshape
I0617 20:14:46.843055 22979 net.cpp:411] query_conv_reshape_perm -> query_conv_reshape_perm
I0617 20:14:46.843133 22979 net.cpp:150] Setting up query_conv_reshape_perm
I0617 20:14:46.843137 22979 net.cpp:157] Top shape: 1 1 900 64 (57600)
I0617 20:14:46.843149 22979 net.cpp:165] Memory required for data: 1452467336
I0617 20:14:46.843152 22979 layer_factory.hpp:77] Creating layer key_conv_reshape_perm
I0617 20:14:46.843156 22979 net.cpp:106] Creating Layer key_conv_reshape_perm
I0617 20:14:46.843159 22979 net.cpp:454] key_conv_reshape_perm <- key_conv_reshape
I0617 20:14:46.843164 22979 net.cpp:411] key_conv_reshape_perm -> key_conv_reshape_perm
I0617 20:14:46.843232 22979 net.cpp:150] Setting up key_conv_reshape_perm
I0617 20:14:46.843236 22979 net.cpp:157] Top shape: 1 1 64 900 (57600)
I0617 20:14:46.843248 22979 net.cpp:165] Memory required for data: 1452697736
I0617 20:14:46.843251 22979 layer_factory.hpp:77] Creating layer energy
I0617 20:14:46.843255 22979 net.cpp:106] Creating Layer energy
I0617 20:14:46.843257 22979 net.cpp:454] energy <- query_conv_reshape_perm
I0617 20:14:46.843261 22979 net.cpp:454] energy <- key_conv_reshape_perm
I0617 20:14:46.843264 22979 net.cpp:411] energy -> energy
I0617 20:14:46.843279 22979 net.cpp:150] Setting up energy
I0617 20:14:46.843292 22979 net.cpp:157] Top shape: 1 1 900 900 (810000)
I0617 20:14:46.843294 22979 net.cpp:165] Memory required for data: 1455937736
I0617 20:14:46.843297 22979 layer_factory.hpp:77] Creating layer attention
I0617 20:14:46.843300 22979 net.cpp:106] Creating Layer attention
I0617 20:14:46.843312 22979 net.cpp:454] attention <- energy
I0617 20:14:46.843317 22979 net.cpp:411] attention -> attention
I0617 20:14:46.843477 22979 net.cpp:150] Setting up attention
I0617 20:14:46.843493 22979 net.cpp:157] Top shape: 1 1 900 900 (810000)
I0617 20:14:46.843495 22979 net.cpp:165] Memory required for data: 1459177736
I0617 20:14:46.843498 22979 layer_factory.hpp:77] Creating layer value_conv_reshape_perm
I0617 20:14:46.843513 22979 net.cpp:106] Creating Layer value_conv_reshape_perm
I0617 20:14:46.843514 22979 net.cpp:454] value_conv_reshape_perm <- value_conv_reshape
I0617 20:14:46.843519 22979 net.cpp:411] value_conv_reshape_perm -> value_conv_reshape_perm
I0617 20:14:46.843593 22979 net.cpp:150] Setting up value_conv_reshape_perm
I0617 20:14:46.843597 22979 net.cpp:157] Top shape: 1 1 512 900 (460800)
I0617 20:14:46.843611 22979 net.cpp:165] Memory required for data: 1461020936
I0617 20:14:46.843612 22979 layer_factory.hpp:77] Creating layer attention_perm
I0617 20:14:46.843616 22979 net.cpp:106] Creating Layer attention_perm
I0617 20:14:46.843618 22979 net.cpp:454] attention_perm <- attention
I0617 20:14:46.843622 22979 net.cpp:411] attention_perm -> attention_perm
I0617 20:14:46.843703 22979 net.cpp:150] Setting up attention_perm
I0617 20:14:46.843706 22979 net.cpp:157] Top shape: 1 1 900 900 (810000)
I0617 20:14:46.843708 22979 net.cpp:165] Memory required for data: 1464260936
I0617 20:14:46.843721 22979 layer_factory.hpp:77] Creating layer out
I0617 20:14:46.843725 22979 net.cpp:106] Creating Layer out
I0617 20:14:46.843727 22979 net.cpp:454] out <- value_conv_reshape_perm
I0617 20:14:46.843730 22979 net.cpp:454] out <- attention_perm
I0617 20:14:46.843734 22979 net.cpp:411] out -> out
I0617 20:14:46.843757 22979 net.cpp:150] Setting up out
I0617 20:14:46.843763 22979 net.cpp:157] Top shape: 1 1 512 900 (460800)
I0617 20:14:46.843766 22979 net.cpp:165] Memory required for data: 1466104136
I0617 20:14:46.843770 22979 layer_factory.hpp:77] Creating layer out_reshape
I0617 20:14:46.843773 22979 net.cpp:106] Creating Layer out_reshape
I0617 20:14:46.843775 22979 net.cpp:454] out_reshape <- out
I0617 20:14:46.843780 22979 net.cpp:411] out_reshape -> out_reshape
I0617 20:14:46.843797 22979 net.cpp:150] Setting up out_reshape
I0617 20:14:46.843801 22979 net.cpp:157] Top shape: 1 512 30 30 (460800)
I0617 20:14:46.843803 22979 net.cpp:165] Memory required for data: 1467947336
I0617 20:14:46.843816 22979 layer_factory.hpp:77] Creating layer out_reshape_scale
I0617 20:14:46.843823 22979 net.cpp:106] Creating Layer out_reshape_scale
I0617 20:14:46.843837 22979 net.cpp:454] out_reshape_scale <- out_reshape
I0617 20:14:46.843840 22979 net.cpp:411] out_reshape_scale -> out_reshape_scale
I0617 20:14:46.843910 22979 net.cpp:150] Setting up out_reshape_scale
I0617 20:14:46.843915 22979 net.cpp:157] Top shape: 1 512 30 30 (460800)
I0617 20:14:46.843917 22979 net.cpp:165] Memory required for data: 1469790536
I0617 20:14:46.843930 22979 layer_factory.hpp:77] Creating layer out_x
I0617 20:14:46.843935 22979 net.cpp:106] Creating Layer out_x
I0617 20:14:46.843938 22979 net.cpp:454] out_x <- out_reshape_scale
I0617 20:14:46.843941 22979 net.cpp:454] out_x <- pool5_2_conv4_relu_pool5_2_conv4_relu_0_split_3
I0617 20:14:46.843945 22979 net.cpp:411] out_x -> out_x
I0617 20:14:46.843963 22979 net.cpp:150] Setting up out_x
I0617 20:14:46.843977 22979 net.cpp:157] Top shape: 1 512 30 30 (460800)
I0617 20:14:46.843979 22979 net.cpp:165] Memory required for data: 1471633736
I0617 20:14:46.843981 22979 layer_factory.hpp:77] Creating layer mask_deconv2
I0617 20:14:46.843997 22979 net.cpp:106] Creating Layer mask_deconv2
I0617 20:14:46.843999 22979 net.cpp:454] mask_deconv2 <- out_x
I0617 20:14:46.844003 22979 net.cpp:411] mask_deconv2 -> mask_deconv2
I0617 20:14:46.844779 22979 net.cpp:150] Setting up mask_deconv2
I0617 20:14:46.844784 22979 net.cpp:157] Top shape: 1 256 122 122 (3810304)
I0617 20:14:46.844786 22979 net.cpp:165] Memory required for data: 1486874952
I0617 20:14:46.844790 22979 layer_factory.hpp:77] Creating layer mask_deconv2_mask_deconv2_0_split
I0617 20:14:46.844794 22979 net.cpp:106] Creating Layer mask_deconv2_mask_deconv2_0_split
I0617 20:14:46.844796 22979 net.cpp:454] mask_deconv2_mask_deconv2_0_split <- mask_deconv2
I0617 20:14:46.844799 22979 net.cpp:411] mask_deconv2_mask_deconv2_0_split -> mask_deconv2_mask_deconv2_0_split_0
I0617 20:14:46.844804 22979 net.cpp:411] mask_deconv2_mask_deconv2_0_split -> mask_deconv2_mask_deconv2_0_split_1
I0617 20:14:46.844851 22979 net.cpp:150] Setting up mask_deconv2_mask_deconv2_0_split
I0617 20:14:46.844856 22979 net.cpp:157] Top shape: 1 256 122 122 (3810304)
I0617 20:14:46.844868 22979 net.cpp:157] Top shape: 1 256 122 122 (3810304)
I0617 20:14:46.844871 22979 net.cpp:165] Memory required for data: 1517357384
I0617 20:14:46.844872 22979 layer_factory.hpp:77] Creating layer pool5_2_conv5
I0617 20:14:46.844887 22979 net.cpp:106] Creating Layer pool5_2_conv5
I0617 20:14:46.844890 22979 net.cpp:454] pool5_2_conv5 <- mask_deconv2_mask_deconv2_0_split_0
I0617 20:14:46.844894 22979 net.cpp:411] pool5_2_conv5 -> pool5_2_conv5
I0617 20:14:46.871376 22979 net.cpp:150] Setting up pool5_2_conv5
I0617 20:14:46.871392 22979 net.cpp:157] Top shape: 1 512 122 122 (7620608)
I0617 20:14:46.871395 22979 net.cpp:165] Memory required for data: 1547839816
I0617 20:14:46.871402 22979 layer_factory.hpp:77] Creating layer pool5_2_conv5_relu
I0617 20:14:46.871410 22979 net.cpp:106] Creating Layer pool5_2_conv5_relu
I0617 20:14:46.871414 22979 net.cpp:454] pool5_2_conv5_relu <- pool5_2_conv5
I0617 20:14:46.871419 22979 net.cpp:411] pool5_2_conv5_relu -> pool5_2_conv5_relu
I0617 20:14:46.871570 22979 net.cpp:150] Setting up pool5_2_conv5_relu
I0617 20:14:46.871577 22979 net.cpp:157] Top shape: 1 512 122 122 (7620608)
I0617 20:14:46.871580 22979 net.cpp:165] Memory required for data: 1578322248
I0617 20:14:46.871582 22979 layer_factory.hpp:77] Creating layer pool5_2_conv6
I0617 20:14:46.871589 22979 net.cpp:106] Creating Layer pool5_2_conv6
I0617 20:14:46.871592 22979 net.cpp:454] pool5_2_conv6 <- pool5_2_conv5_relu
I0617 20:14:46.871596 22979 net.cpp:411] pool5_2_conv6 -> pool5_2_conv6
I0617 20:14:46.923081 22979 net.cpp:150] Setting up pool5_2_conv6
I0617 20:14:46.923099 22979 net.cpp:157] Top shape: 1 512 122 122 (7620608)
I0617 20:14:46.923102 22979 net.cpp:165] Memory required for data: 1608804680
I0617 20:14:46.923116 22979 layer_factory.hpp:77] Creating layer pool5_2_conv6_relu
I0617 20:14:46.923123 22979 net.cpp:106] Creating Layer pool5_2_conv6_relu
I0617 20:14:46.923138 22979 net.cpp:454] pool5_2_conv6_relu <- pool5_2_conv6
I0617 20:14:46.923143 22979 net.cpp:411] pool5_2_conv6_relu -> pool5_2_conv6_relu
I0617 20:14:46.923724 22979 net.cpp:150] Setting up pool5_2_conv6_relu
I0617 20:14:46.923732 22979 net.cpp:157] Top shape: 1 512 122 122 (7620608)
I0617 20:14:46.923745 22979 net.cpp:165] Memory required for data: 1639287112
I0617 20:14:46.923748 22979 layer_factory.hpp:77] Creating layer mask_deconv3
I0617 20:14:46.923754 22979 net.cpp:106] Creating Layer mask_deconv3
I0617 20:14:46.923758 22979 net.cpp:454] mask_deconv3 <- pool5_2_conv6_relu
I0617 20:14:46.923774 22979 net.cpp:411] mask_deconv3 -> mask_deconv3
I0617 20:14:46.924177 22979 net.cpp:150] Setting up mask_deconv3
I0617 20:14:46.924183 22979 net.cpp:157] Top shape: 1 256 244 244 (15241216)
I0617 20:14:46.924196 22979 net.cpp:165] Memory required for data: 1700251976
I0617 20:14:46.924199 22979 layer_factory.hpp:77] Creating layer mask_score
I0617 20:14:46.924206 22979 net.cpp:106] Creating Layer mask_score
I0617 20:14:46.924209 22979 net.cpp:454] mask_score <- mask_deconv3
I0617 20:14:46.924213 22979 net.cpp:411] mask_score -> mask_score
I0617 20:14:46.924922 22979 net.cpp:150] Setting up mask_score
I0617 20:14:46.924930 22979 net.cpp:157] Top shape: 1 8 244 244 (476288)
I0617 20:14:46.924942 22979 net.cpp:165] Memory required for data: 1702157128
I0617 20:14:46.924947 22979 layer_factory.hpp:77] Creating layer loss_mask
I0617 20:14:46.924952 22979 net.cpp:106] Creating Layer loss_mask
I0617 20:14:46.924964 22979 net.cpp:454] loss_mask <- mask_score
I0617 20:14:46.924969 22979 net.cpp:454] loss_mask <- mask_targets_roi-data_5_split_0
I0617 20:14:46.924973 22979 net.cpp:411] loss_mask -> loss_mask
I0617 20:14:46.924979 22979 layer_factory.hpp:77] Creating layer loss_mask
I0617 20:14:46.926538 22979 net.cpp:150] Setting up loss_mask
I0617 20:14:46.926561 22979 net.cpp:157] Top shape: (1)
I0617 20:14:46.926563 22979 net.cpp:160]     with loss weight 3
I0617 20:14:46.926571 22979 net.cpp:165] Memory required for data: 1702157132
I0617 20:14:46.926574 22979 layer_factory.hpp:77] Creating layer pool5_2_conv5_2
I0617 20:14:46.926586 22979 net.cpp:106] Creating Layer pool5_2_conv5_2
I0617 20:14:46.926591 22979 net.cpp:454] pool5_2_conv5_2 <- mask_deconv2_mask_deconv2_0_split_1
I0617 20:14:46.926597 22979 net.cpp:411] pool5_2_conv5_2 -> pool5_2_conv5_2
I0617 20:14:46.952774 22979 net.cpp:150] Setting up pool5_2_conv5_2
I0617 20:14:46.952800 22979 net.cpp:157] Top shape: 1 512 122 122 (7620608)
I0617 20:14:46.952803 22979 net.cpp:165] Memory required for data: 1732639564
I0617 20:14:46.952811 22979 layer_factory.hpp:77] Creating layer pool5_2_conv5_2_relu
I0617 20:14:46.952821 22979 net.cpp:106] Creating Layer pool5_2_conv5_2_relu
I0617 20:14:46.952824 22979 net.cpp:454] pool5_2_conv5_2_relu <- pool5_2_conv5_2
I0617 20:14:46.952831 22979 net.cpp:411] pool5_2_conv5_2_relu -> pool5_2_conv5_2_relu
I0617 20:14:46.952980 22979 net.cpp:150] Setting up pool5_2_conv5_2_relu
I0617 20:14:46.952986 22979 net.cpp:157] Top shape: 1 512 122 122 (7620608)
I0617 20:14:46.952998 22979 net.cpp:165] Memory required for data: 1763121996
I0617 20:14:46.953001 22979 layer_factory.hpp:77] Creating layer mask_deconv3_2
I0617 20:14:46.953008 22979 net.cpp:106] Creating Layer mask_deconv3_2
I0617 20:14:46.953011 22979 net.cpp:454] mask_deconv3_2 <- pool5_2_conv5_2_relu
I0617 20:14:46.953019 22979 net.cpp:411] mask_deconv3_2 -> mask_deconv3_2
I0617 20:14:46.953934 22979 net.cpp:150] Setting up mask_deconv3_2
I0617 20:14:46.953943 22979 net.cpp:157] Top shape: 1 256 244 244 (15241216)
I0617 20:14:46.953945 22979 net.cpp:165] Memory required for data: 1824086860
I0617 20:14:46.953949 22979 layer_factory.hpp:77] Creating layer mask_score_2
I0617 20:14:46.953958 22979 net.cpp:106] Creating Layer mask_score_2
I0617 20:14:46.953960 22979 net.cpp:454] mask_score_2 <- mask_deconv3_2
I0617 20:14:46.953974 22979 net.cpp:411] mask_score_2 -> mask_score_2
I0617 20:14:46.955519 22979 net.cpp:150] Setting up mask_score_2
I0617 20:14:46.955538 22979 net.cpp:157] Top shape: 1 8 244 244 (476288)
I0617 20:14:46.955540 22979 net.cpp:165] Memory required for data: 1825992012
I0617 20:14:46.955546 22979 layer_factory.hpp:77] Creating layer loss_mask_2
I0617 20:14:46.955552 22979 net.cpp:106] Creating Layer loss_mask_2
I0617 20:14:46.955555 22979 net.cpp:454] loss_mask_2 <- mask_score_2
I0617 20:14:46.955569 22979 net.cpp:454] loss_mask_2 <- mask_targets_roi-data_5_split_1
I0617 20:14:46.955574 22979 net.cpp:411] loss_mask_2 -> loss_mask_2
…
