…
average_loss: 100
iter_size: 2
I0617 20:41:53.134596  6875 solver.cpp:81] Creating training net from train_net file: models/pascal_voc/VGG16/faster_rcnn_end2end/train.prototxt
I0617 20:41:53.136008  6875 net.cpp:49] Initializing net from parameters: 
name: "VGG_ILSVRC_16_layers"
state {
  phase: TRAIN
}
layer {
  name: "input-data"
  type: "Python"
  top: "data"
  top: "im_info"
  top: "gt_boxes"
  top: "seg_mask_inds"
  top: "flipped"
  python_param {
    module: "roi_data_layer.layer"
    layer: "RoIDataLayer"
    param_str: "\'num_classes\': 2"
  }
}
layer {
  name: "conv1_1"
  type: "Convolution"
  bottom: "data"
  top: "conv1_1"
  param {
    lr_mult: 0
    decay_mult: 0
  }
  param {
    lr_mult: 0
    decay_mult: 0
  }
  convolution_param {
    num_output: 64
    pad: 1
    kernel_size: 3
  }
}
layer {
  name: "relu1_1"
  type: "ReLU"
  bottom: "conv1_1"
  top: "conv1_1"
}
layer {
  name: "conv1_2"
  type: "Convolution"
  bottom: "conv1_1"
  top: "conv1_2"
  param {
    lr_mult: 0
    decay_mult: 0
  }
  param {
    lr_mult: 0
    decay_mult: 0
  }
  convolution_param {
    num_output: 64
    pad: 1
    kernel_size: 3
  }
}
layer {
  name: "relu1_2"
  type: "ReLU"
  bottom: "conv1_2"
  top: "conv1_2"
}
layer {
  name: "pool1"
  type: "Pooling"
  bottom: "conv1_2"
  top: "pool1"
  pooling_param {
    pool: MAX
    kernel_size: 2
    stride: 2
  }
}
layer {
  name: "conv2_1"
  type: "Convolution"
  bottom: "pool1"
  top: "conv2_1"
  param {
    lr_mult: 0
    decay_mult: 0
  }
  param {
    lr_mult: 0
    decay_mult: 0
  }
  convolution_param {
    num_output: 128
    pad: 1
    kernel_size: 3
  }
}
layer {
  name: "relu2_1"
  type: "ReLU"
  bottom: "conv2_1"
  top: "conv2_1"
}
layer {
  name: "conv2_2"
  type: "Convolution"
  bottom: "conv2_1"
  top: "conv2_2"
  param {
    lr_mult: 0
    decay_mult: 0
  }
  param {
    lr_mult: 0
    decay_mult: 0
  }
  convolution_param {
    num_output: 128
    pad: 1
    kernel_size: 3
  }
}
layer {
  name: "relu2_2"
  type: "ReLU"
  bottom: "conv2_2"
  top: "conv2_2"
}
layer {
  name: "pool2"
  type: "Pooling"
  bottom: "conv2_2"
  top: "pool2"
  pooling_param {
    pool: MAX
    kernel_size: 2
    stride: 2
  }
}
layer {
  name: "conv3_1"
  type: "Convolution"
  bottom: "pool2"
  top: "conv3_1"
  param {
    lr_mult: 1
  }
  param {
    lr_mult: 2
  }
  convolution_param {
    num_output: 256
    pad: 1
    kernel_size: 3
  }
}
layer {
  name: "relu3_1"
  type: "ReLU"
  bottom: "conv3_1"
  top: "conv3_1"
}
layer {
  name: "conv3_2"
  type: "Convolution"
  bottom: "conv3_1"
  top: "conv3_2"
  param {
    lr_mult: 1
  }
  param {
    lr_mult: 2
  }
  convolution_param {
    num_output: 256
    pad: 1
    kernel_size: 3
  }
}
layer {
  name: "relu3_2"
  type: "ReLU"
  bottom: "conv3_2"
  top: "conv3_2"
}
layer {
  name: "conv3_3"
  type: "Convolution"
  bottom: "conv3_2"
  top: "conv3_3"
  param {
    lr_mult: 1
  }
  param {
    lr_mult: 2
  }
  convolution_param {
    num_output: 256
    pad: 1
    kernel_size: 3
  }
}
layer {
  name: "relu3_3"
  type: "ReLU"
  bottom: "conv3_3"
  top: "conv3_3"
}
layer {
  name: "pool3"
  type: "Pooling"
  bottom: "conv3_3"
  top: "pool3"
  pooling_param {
    pool: MAX
    kernel_size: 2
    stride: 2
  }
}
layer {
  name: "conv4_1"
  type: "Convolution"
  bottom: "pool3"
  top: "conv4_1"
  param {
    lr_mult: 1
  }
  param {
    lr_mult: 2
  }
  convolution_param {
    num_output: 512
    pad: 1
    kernel_size: 3
  }
}
layer {
  name: "relu4_1"
  type: "ReLU"
  bottom: "conv4_1"
  top: "conv4_1"
}
layer {
  name: "conv4_2"
  type: "Convolution"
  bottom: "conv4_1"
  top: "conv4_2"
  param {
    lr_mult: 1
  }
  param {
    lr_mult: 2
  }
  convolution_param {
    num_output: 512
    pad: 1
    kernel_size: 3
  }
}
layer {
  name: "relu4_2"
  type: "ReLU"
  bottom: "conv4_2"
  top: "conv4_2"
}
layer {
  name: "conv4_3"
  type: "Convolution"
  bottom: "conv4_2"
  top: "conv4_3"
  param {
    lr_mult: 1
  }
  param {
    lr_mult: 2
  }
  convolution_param {
    num_output: 512
    pad: 1
    kernel_size: 3
  }
}
layer {
  name: "relu4_3"
  type: "ReLU"
  bottom: "conv4_3"
  top: "conv4_3"
}
layer {
  name: "pool4"
  type: "Pooling"
  bottom: "conv4_3"
  top: "pool4"
  pooling_param {
    pool: MAX
    kernel_size: 2
    stride: 2
  }
}
layer {
  name: "conv5_1"
  type: "Convolution"
  bottom: "pool4"
  top: "conv5_1"
  param {
    lr_mult: 1
  }
  param {
    lr_mult: 2
  }
  convolution_param {
    num_output: 512
    pad: 1
    kernel_size: 3
  }
}
layer {
  name: "relu5_1"
  type: "ReLU"
  bottom: "conv5_1"
  top: "conv5_1"
}
layer {
  name: "conv5_2"
  type: "Convolution"
  bottom: "conv5_1"
  top: "conv5_2"
  param {
    lr_mult: 1
  }
  param {
    lr_mult: 2
  }
  convolution_param {
    num_output: 512
    pad: 1
    kernel_size: 3
  }
}
layer {
  name: "relu5_2"
  type: "ReLU"
  bottom: "conv5_2"
  top: "conv5_2"
}
layer {
  name: "conv5_3"
  type: "Convolution"
  bottom: "conv5_2"
  top: "conv5_3"
  param {
    lr_mult: 1
  }
  param {
    lr_mult: 2
  }
  convolution_param {
    num_output: 512
    pad: 1
    kernel_size: 3
  }
}
layer {
  name: "relu5_3"
  type: "ReLU"
  bottom: "conv5_3"
  top: "conv5_3"
}
layer {
  name: "rpn_conv/3x3"
  type: "Convolution"
  bottom: "conv5_3"
  top: "rpn/output"
  param {
    lr_mult: 1
  }
  param {
    lr_mult: 2
  }
  convolution_param {
    num_output: 512
    pad: 1
    kernel_size: 3
    stride: 1
    weight_filler {
      type: "gaussian"
      std: 0.01
    }
    bias_filler {
      type: "constant"
      value: 0
    }
  }
}
layer {
  name: "rpn_relu/3x3"
  type: "ReLU"
  bottom: "rpn/output"
  top: "rpn/output"
}
layer {
  name: "rpn_cls_score"
  type: "Convolution"
  bottom: "rpn/output"
  top: "rpn_cls_score"
  param {
    lr_mult: 1
  }
  param {
    lr_mult: 2
  }
  convolution_param {
    num_output: 30
    pad: 0
    kernel_size: 1
    stride: 1
    weight_filler {
      type: "gaussian"
      std: 0.01
    }
    bias_filler {
      type: "constant"
      value: 0
    }
  }
}
layer {
  name: "rpn_bbox_pred"
  type: "Convolution"
  bottom: "rpn/output"
  top: "rpn_bbox_pred"
  param {
    lr_mult: 1
  }
  param {
    lr_mult: 2
  }
  convolution_param {
    num_output: 60
    pad: 0
    kernel_size: 1
    stride: 1
    weight_filler {
      type: "gaussian"
      std: 0.01
    }
    bias_filler {
      type: "constant"
      value: 0
    }
  }
}
layer {
  name: "rpn_cls_score_reshape"
  type: "Reshape"
  bottom: "rpn_cls_score"
  top: "rpn_cls_score_reshape"
  reshape_param {
    shape {
      dim: 0
      dim: 2
      dim: -1
      dim: 0
    }
  }
}
layer {
  name: "rpn-data"
  type: "Python"
  bottom: "rpn_cls_score"
  bottom: "gt_boxes"
  bottom: "im_info"
  bottom: "data"
  top: "rpn_labels"
  top: "rpn_bbox_targets"
  top: "rpn_bbox_inside_weights"
  top: "rpn_bbox_outside_weights"
  python_param {
    module: "rpn.anchor_target_layer"
    layer: "AnchorTargetLayer"
    param_str: "\'feat_stride\': 16 \n\'scales\': !!python/tuple [2, 4, 8, 16, 32]"
  }
}
layer {
  name: "rpn_loss_cls"
  type: "SoftmaxWithLoss"
  bottom: "rpn_cls_score_reshape"
  bottom: "rpn_labels"
  top: "rpn_cls_loss"
  loss_weight: 1
  propagate_down: true
  propagate_down: false
  loss_param {
    ignore_label: -1
    normalize: true
  }
}
layer {
  name: "rpn_loss_bbox"
  type: "SmoothL1Loss"
  bottom: "rpn_bbox_pred"
  bottom: "rpn_bbox_targets"
  bottom: "rpn_bbox_inside_weights"
  bottom: "rpn_bbox_outside_weights"
  top: "rpn_loss_bbox"
  loss_weight: 1
  smooth_l1_loss_param {
    sigma: 3
  }
}
layer {
  name: "rpn_cls_prob"
  type: "Softmax"
  bottom: "rpn_cls_score_reshape"
  top: "rpn_cls_prob"
}
layer {
  name: "rpn_cls_prob_reshape"
  type: "Reshape"
  bottom: "rpn_cls_prob"
  top: "rpn_cls_prob_reshape"
  reshape_param {
    shape {
      dim: 0
      dim: 30
      dim: -1
      dim: 0
    }
  }
}
layer {
  name: "proposal"
  type: "Python"
  bottom: "rpn_cls_prob_reshape"
  bottom: "rpn_bbox_pred"
  bottom: "im_info"
  top: "rpn_rois"
  python_param {
    module: "rpn.proposal_layer"
    layer: "ProposalLayer"
    param_str: "\'feat_stride\': 16 \n\'scales\': !!python/tuple [2, 4, 8, 16, 32]"
  }
}
layer {
  name: "roi-data"
  type: "Python"
  bottom: "rpn_rois"
  bottom: "gt_boxes"
  bottom: "im_info"
  bottom: "seg_mask_inds"
  bottom: "flipped"
  top: "rois"
  top: "labels"
  top: "bbox_targets"
  top: "bbox_inside_weights"
  top: "bbox_outside_weights"
  top: "mask_targets"
  top: "rois_pos"
  top: "attrArray"
  top: "attrArrayInd"
  top: "attrArrayShift"
  python_param {
    module: "rpn.proposal_target_layer"
    layer: "ProposalTargetLayer"
    param_str: "\'num_classes\': 2"
  }
}
layer {
  name: "roi_pool5"
  type: "ROIAlignment"
  bottom: "conv5_3"
  bottom: "rois"
  top: "pool5"
  roi_alignment_param {
    pooled_h: 7
    pooled_w: 7
    spatial_scale: 0.0625
  }
}
layer {
  name: "fc6"
  type: "InnerProduct"
  bottom: "pool5"
  top: "fc6"
  param {
    lr_mult: 1
  }
  param {
    lr_mult: 2
  }
  inner_product_param {
    num_output: 4096
  }
}
layer {
  name: "relu6"
  type: "ReLU"
  bottom: "fc6"
  top: "fc6"
}
layer {
  name: "fc7"
  type: "InnerProduct"
  bottom: "fc6"
  top: "fc7"
  param {
    lr_mult: 1
  }
  param {
    lr_mult: 2
  }
  inner_product_param {
    num_output: 4096
  }
}
layer {
  name: "relu7"
  type: "ReLU"
  bottom: "fc7"
  top: "fc7"
}
layer {
  name: "attr_score"
  type: "InnerProduct"
  bottom: "fc7"
  top: "attr_score"
  param {
    lr_mult: 1
  }
  param {
    lr_mult: 2
  }
  inner_product_param {
    num_output: 7
    weight_filler {
      type: "gaussian"
      std: 0.001
    }
    bias_filler {
      type: "constant"
      value: 0
    }
  }
}
layer {
  name: "attr_score_pos"
  type: "Eltwise"
  bottom: "attr_score"
  bottom: "attrArrayInd"
  top: "attr_score_pos"
  eltwise_param {
    operation: PROD
  }
}
layer {
  name: "attr_score_pos_shift"
  type: "Eltwise"
  bottom: "attr_score_pos"
  bottom: "attrArrayShift"
  top: "attr_score_pos_shift"
  eltwise_param {
    operation: SUM
  }
}
layer {
  name: "cls_score"
  type: "InnerProduct"
  bottom: "fc7"
  top: "cls_score"
  param {
    lr_mult: 1
  }
  param {
    lr_mult: 2
  }
  inner_product_param {
    num_output: 2
    weight_filler {
      type: "gaussian"
      std: 0.01
    }
    bias_filler {
      type: "constant"
      value: 0
    }
  }
}
layer {
  name: "bbox_pred"
  type: "InnerProduct"
  bottom: "fc7"
  top: "bbox_pred"
  param {
    lr_mult: 1
  }
  param {
    lr_mult: 2
  }
  inner_product_param {
    num_output: 8
    weight_filler {
      type: "gaussian"
      std: 0.001
    }
    bias_filler {
      type: "constant"
      value: 0
    }
  }
}
layer {
  name: "loss_attribute"
  type: "SigmoidCrossEntropyLoss"
  bottom: "attr_score_pos_shift"
  bottom: "attrArray"
  top: "loss_attribute"
  loss_weight: 1
  propagate_down: true
  propagate_down: false
}
layer {
  name: "loss_cls"
  type: "SoftmaxWithLoss"
  bottom: "cls_score"
  bottom: "labels"
  top: "loss_cls"
  loss_weight: 3
  propagate_down: true
  propagate_down: false
}
layer {
  name: "loss_bbox"
  type: "SmoothL1Loss"
  bottom: "bbox_pred"
  bottom: "bbox_targets"
  bottom: "bbox_inside_weights"
  bottom: "bbox_outside_weights"
  top: "loss_bbox"
  loss_weight: 2
}
layer {
  name: "roi_pool5_2"
  type: "ROIAlignment"
  bottom: "conv5_3"
  bottom: "rois_pos"
  top: "pool5_2"
  roi_alignment_param {
    pooled_h: 7
    pooled_w: 7
    spatial_scale: 0.0625
  }
}
layer {
  name: "pool5_2_conv"
  type: "Convolution"
  bottom: "pool5_2"
  top: "pool5_2_conv"
  param {
    lr_mult: 1
    decay_mult: 1
  }
  param {
    lr_mult: 2
    decay_mult: 0
  }
  convolution_param {
    num_output: 512
    pad: 0
    kernel_size: 1
    weight_filler {
      type: "gaussian"
      std: 0.01
    }
    bias_filler {
      type: "constant"
      value: 0
    }
  }
}
layer {
  name: "pool5_2_conv_relu"
  type: "ReLU"
  bottom: "pool5_2_conv"
  top: "pool5_2_conv_relu"
}
layer {
  name: "pool5_2_conv2"
  type: "Convolution"
  bottom: "pool5_2_conv_relu"
  top: "pool5_2_conv2"
  param {
    lr_mult: 1
    decay_mult: 1
  }
  param {
    lr_mult: 2
    decay_mult: 0
  }
  convolution_param {
    num_output: 512
    pad: 1
    kernel_size: 3
    stride: 1
    weight_filler {
      type: "gaussian"
      std: 0.01
    }
    bias_filler {
      type: "constant"
      value: 0
    }
  }
}
layer {
  name: "pool5_2_conv2_relu"
  type: "ReLU"
  bottom: "pool5_2_conv2"
  top: "pool5_2_conv2_relu"
}
layer {
  name: "mask_deconv1"
  type: "Deconvolution"
  bottom: "pool5_2_conv2_relu"
  top: "mask_deconv1"
  param {
    lr_mult: 1
    decay_mult: 1
  }
  param {
    lr_mult: 2
    decay_mult: 0
  }
  convolution_param {
    num_output: 256
    pad: 1
    kernel_size: 8
    group: 256
    stride: 4
    weight_filler {
      type: "bilinear"
    }
  }
}
layer {
  name: "pool5_2_conv3"
  type: "Convolution"
  bottom: "mask_deconv1"
  top: "pool5_2_conv3"
  param {
    lr_mult: 1
    decay_mult: 1
  }
  param {
    lr_mult: 2
    decay_mult: 0
  }
  convolution_param {
    num_output: 512
    pad: 1
    kernel_size: 3
    stride: 1
    weight_filler {
      type: "gaussian"
      std: 0.01
    }
    bias_filler {
      type: "constant"
      value: 0
    }
  }
}
layer {
  name: "pool5_2_conv3_relu"
  type: "ReLU"
  bottom: "pool5_2_conv3"
  top: "pool5_2_conv3_relu"
}
layer {
  name: "pool5_2_conv4"
  type: "Convolution"
  bottom: "pool5_2_conv3_relu"
  top: "pool5_2_conv4"
  param {
    lr_mult: 1
    decay_mult: 1
  }
  param {
    lr_mult: 2
    decay_mult: 0
  }
  convolution_param {
    num_output: 512
    pad: 1
    kernel_size: 3
    stride: 1
    weight_filler {
      type: "gaussian"
      std: 0.01
    }
    bias_filler {
      type: "constant"
      value: 0
    }
  }
}
layer {
  name: "pool5_2_conv4_relu"
  type: "ReLU"
  bottom: "pool5_2_conv4"
  top: "pool5_2_conv4_relu"
}
layer {
  name: "query_conv"
  type: "Convolution"
  bottom: "pool5_2_conv4_relu"
  top: "query_conv"
  param {
    lr_mult: 1
    decay_mult: 1
  }
  param {
    lr_mult: 2
    decay_mult: 0
  }
  convolution_param {
    num_output: 64
    pad: 0
    kernel_size: 1
    stride: 1
    weight_filler {
      type: "gaussian"
      std: 0.01
    }
    bias_filler {
      type: "constant"
      value: 0
    }
  }
}
layer {
  name: "key_conv"
  type: "Convolution"
  bottom: "pool5_2_conv4_relu"
  top: "key_conv"
  param {
    lr_mult: 1
    decay_mult: 1
  }
  param {
    lr_mult: 2
    decay_mult: 0
  }
  convolution_param {
    num_output: 64
    pad: 0
    kernel_size: 1
    stride: 1
    weight_filler {
      type: "gaussian"
      std: 0.01
    }
    bias_filler {
      type: "constant"
      value: 0
    }
  }
}
layer {
  name: "value_conv"
  type: "Convolution"
  bottom: "pool5_2_conv4_relu"
  top: "value_conv"
  param {
    lr_mult: 1
    decay_mult: 1
  }
  param {
    lr_mult: 2
    decay_mult: 0
  }
  convolution_param {
    num_output: 512
    pad: 0
    kernel_size: 1
    stride: 1
    weight_filler {
      type: "gaussian"
      std: 0.01
    }
    bias_filler {
      type: "constant"
      value: 0
    }
  }
}
layer {
  name: "query_conv_reshape"
  type: "Reshape"
  bottom: "query_conv"
  top: "query_conv_reshape"
  reshape_param {
    shape {
      dim: -1
      dim: 64
      dim: 900
      dim: 1
    }
  }
}
layer {
  name: "key_conv_reshape"
  type: "Reshape"
  bottom: "key_conv"
  top: "key_conv_reshape"
  reshape_param {
    shape {
      dim: -1
      dim: 64
      dim: 900
      dim: 1
    }
  }
}
layer {
  name: "value_conv_reshape"
  type: "Reshape"
  bottom: "value_conv"
  top: "value_conv_reshape"
  reshape_param {
    shape {
      dim: -1
      dim: 512
      dim: 900
      dim: 1
    }
  }
}
layer {
  name: "query_conv_reshape_perm"
  type: "Permute"
  bottom: "query_conv_reshape"
  top: "query_conv_reshape_perm"
  permute_param {
    order: 0
    order: 3
    order: 2
    order: 1
  }
}
layer {
  name: "key_conv_reshape_perm"
  type: "Permute"
  bottom: "key_conv_reshape"
  top: "key_conv_reshape_perm"
  permute_param {
    order: 0
    order: 3
    order: 1
    order: 2
  }
}
layer {
  name: "energy"
  type: "MatrixMultiplication"
  bottom: "query_conv_reshape_perm"
  bottom: "key_conv_reshape_perm"
  top: "energy"
}
layer {
  name: "attention"
  type: "Softmax"
  bottom: "energy"
  top: "attention"
  softmax_param {
    axis: 3
  }
}
layer {
  name: "value_conv_reshape_perm"
  type: "Permute"
  bottom: "value_conv_reshape"
  top: "value_conv_reshape_perm"
  permute_param {
    order: 0
    order: 3
    order: 1
    order: 2
  }
}
layer {
  name: "attention_perm"
  type: "Permute"
  bottom: "attention"
  top: "attention_perm"
  permute_param {
    order: 0
    order: 1
    order: 2
    order: 3
  }
}
layer {
  name: "out"
  type: "MatrixMultiplication"
  bottom: "value_conv_reshape_perm"
  bottom: "attention_perm"
  top: "out"
}
layer {
  name: "out_reshape"
  type: "Reshape"
  bottom: "out"
  top: "out_reshape"
  reshape_param {
    shape {
      dim: -1
      dim: 512
      dim: 30
      dim: 30
    }
  }
}
layer {
  name: "out_reshape_scale"
  type: "Scale"
  bottom: "out_reshape"
  top: "out_reshape_scale"
  param {
    name: "scale_conv1_1"
    lr_mult: 1
  }
  scale_param {
    bias_term: false
  }
}
layer {
  name: "out_x"
  type: "Eltwise"
  bottom: "out_reshape_scale"
  bottom: "pool5_2_conv4_relu"
  top: "out_x"
  eltwise_param {
    operation: SUM
  }
}
layer {
  name: "mask_deconv2"
  type: "Deconvolution"
  bottom: "out_x"
  top: "mask_deconv2"
  param {
    lr_mult: 1
    decay_mult: 1
  }
  param {
    lr_mult: 2
    decay_mult: 0
  }
  convolution_param {
    num_output: 256
    pad: 1
    kernel_size: 8
    group: 256
    stride: 4
    weight_filler {
      type: "bilinear"
    }
  }
}
layer {
  name: "pool5_2_conv5"
  type: "Convolution"
  bottom: "mask_deconv2"
  top: "pool5_2_conv5"
  param {
    lr_mult: 1
    decay_mult: 1
  }
  param {
    lr_mult: 2
    decay_mult: 0
  }
  convolution_param {
    num_output: 512
    pad: 1
    kernel_size: 3
    stride: 1
    weight_filler {
      type: "gaussian"
      std: 0.01
    }
    bias_filler {
      type: "constant"
      value: 0
    }
  }
}
layer {
  name: "pool5_2_conv5_relu"
  type: "ReLU"
  bottom: "pool5_2_conv5"
  top: "pool5_2_conv5_relu"
}
layer {
  name: "pool5_2_conv6"
  type: "Convolution"
  bottom: "pool5_2_conv5_relu"
  top: "pool5_2_conv6"
  param {
    lr_mult: 1
    decay_mult: 1
  }
  param {
    lr_mult: 2
    decay_mult: 0
  }
  convolution_param {
    num_output: 512
    pad: 1
    kernel_size: 3
    stride: 1
    weight_filler {
      type: "gaussian"
      std: 0.01
    }
    bias_filler {
      type: "constant"
      value: 0
    }
  }
}
layer {
  name: "pool5_2_conv6_relu"
  type: "ReLU"
  bottom: "pool5_2_conv6"
  top: "pool5_2_conv6_relu"
}
layer {
  name: "mask_deconv3"
  type: "Deconvolution"
  bottom: "pool5_2_conv6_relu"
  top: "mask_deconv3"
  param {
    lr_mult: 1
    decay_mult: 1
  }
  param {
    lr_mult: 2
    decay_mult: 0
  }
  convolution_param {
    num_output: 256
    pad: 1
    kernel_size: 4
    group: 256
    stride: 2
    weight_filler {
      type: "bilinear"
    }
  }
}
layer {
  name: "mask_score"
  type: "Convolution"
  bottom: "mask_deconv3"
  top: "mask_score"
  param {
    lr_mult: 1
    decay_mult: 1
  }
  param {
    lr_mult: 2
    decay_mult: 0
  }
  convolution_param {
    num_output: 8
    pad: 0
    kernel_size: 1
    weight_filler {
      type: "gaussian"
      std: 0.01
    }
    bias_filler {
      type: "constant"
      value: 0
    }
  }
}
layer {
  name: "loss_mask"
  type: "SoftmaxWithLoss"
  bottom: "mask_score"
  bottom: "mask_targets"
  top: "loss_mask"
  loss_weight: 3
  propagate_down: true
  propagate_down: false
  loss_param {
    ignore_label: -1
    normalize: true
  }
}
layer {
  name: "pool5_2_conv5_2"
  type: "Convolution"
  bottom: "mask_deconv2"
  top: "pool5_2_conv5_2"
  param {
    lr_mult: 1
    decay_mult: 1
  }
  param {
    lr_mult: 2
    decay_mult: 0
  }
  convolution_param {
    num_output: 512
    pad: 1
    kernel_size: 3
    stride: 1
    weight_filler {
      type: "gaussian"
      std: 0.01
    }
    bias_filler {
      type: "constant"
      value: 0
    }
  }
}
layer {
  name: "pool5_2_conv5_2_relu"
  type: "ReLU"
  bottom: "pool5_2_conv5_2"
  top: "pool5_2_conv5_2_relu"
}
layer {
  name: "mask_deconv3_2"
  type: "Deconvolution"
  bottom: "pool5_2_conv5_2_relu"
  top: "mask_deconv3_2"
  param {
    lr_mult: 1
    decay_mult: 1
  }
  param {
    lr_mult: 2
    decay_mult: 0
  }
  convolution_param {
    num_output: 256
    pad: 1
    kernel_size: 4
    group: 256
    stride: 2
    weight_filler {
      type: "bilinear"
    }
  }
}
layer {
  name: "mask_score_2"
  type: "Convolution"
  bottom: "mask_deconv3_2"
  top: "mask_score_2"
  param {
    lr_mult: 1
    decay_mult: 1
  }
  param {
    lr_mult: 2
    decay_mult: 0
  }
  convolution_param {
    num_output: 8
    pad: 0
    kernel_size: 1
    weight_filler {
      type: "gaussian"
      std: 0.01
    }
    bias_filler {
      type: "constant"
      value: 0
    }
  }
}
layer {
  name: "loss_mask_2"
  type: "SoftmaxWithLoss"
  bottom: "mask_score_2"
  bottom: "mask_targets"
  top: "loss_mask_2"
  loss_weight: 0.3
  propagate_down: true
  propagate_down: false
  loss_param {
    ignore_label: -1
    normalize: true
  }
}
I0617 20:41:53.136303  6875 layer_factory.hpp:77] Creating layer input-data
I0617 20:41:53.148056  6875 net.cpp:106] Creating Layer input-data
I0617 20:41:53.148080  6875 net.cpp:411] input-data -> data
I0617 20:41:53.148087  6875 net.cpp:411] input-data -> im_info
I0617 20:41:53.148102  6875 net.cpp:411] input-data -> gt_boxes
I0617 20:41:53.148105  6875 net.cpp:411] input-data -> seg_mask_inds
I0617 20:41:53.148108  6875 net.cpp:411] input-data -> flipped
RoiDataLayer: name_to_top: {'gt_boxes': 2, 'data': 0, 'seg_mask_inds': 3, 'im_info': 1, 'flipped': 4}
I0617 20:41:53.158402  6875 net.cpp:150] Setting up input-data
I0617 20:41:53.158437  6875 net.cpp:157] Top shape: 1 3 600 1000 (1800000)
I0617 20:41:53.158440  6875 net.cpp:157] Top shape: 1 3 (3)
I0617 20:41:53.158442  6875 net.cpp:157] Top shape: 1 4 (4)
I0617 20:41:53.158444  6875 net.cpp:157] Top shape: 1 2 (2)
I0617 20:41:53.158447  6875 net.cpp:157] Top shape: 1 1 (1)
I0617 20:41:53.158447  6875 net.cpp:165] Memory required for data: 7200040
I0617 20:41:53.158452  6875 layer_factory.hpp:77] Creating layer data_input-data_0_split
I0617 20:41:53.158474  6875 net.cpp:106] Creating Layer data_input-data_0_split
I0617 20:41:53.158478  6875 net.cpp:454] data_input-data_0_split <- data
I0617 20:41:53.158490  6875 net.cpp:411] data_input-data_0_split -> data_input-data_0_split_0
I0617 20:41:53.158496  6875 net.cpp:411] data_input-data_0_split -> data_input-data_0_split_1
I0617 20:41:53.158525  6875 net.cpp:150] Setting up data_input-data_0_split
I0617 20:41:53.158529  6875 net.cpp:157] Top shape: 1 3 600 1000 (1800000)
I0617 20:41:53.158531  6875 net.cpp:157] Top shape: 1 3 600 1000 (1800000)
I0617 20:41:53.158532  6875 net.cpp:165] Memory required for data: 21600040
I0617 20:41:53.158535  6875 layer_factory.hpp:77] Creating layer im_info_input-data_1_split
I0617 20:41:53.158538  6875 net.cpp:106] Creating Layer im_info_input-data_1_split
I0617 20:41:53.158550  6875 net.cpp:454] im_info_input-data_1_split <- im_info
I0617 20:41:53.158553  6875 net.cpp:411] im_info_input-data_1_split -> im_info_input-data_1_split_0
I0617 20:41:53.158557  6875 net.cpp:411] im_info_input-data_1_split -> im_info_input-data_1_split_1
I0617 20:41:53.158571  6875 net.cpp:411] im_info_input-data_1_split -> im_info_input-data_1_split_2
I0617 20:41:53.158612  6875 net.cpp:150] Setting up im_info_input-data_1_split
I0617 20:41:53.158615  6875 net.cpp:157] Top shape: 1 3 (3)
I0617 20:41:53.158617  6875 net.cpp:157] Top shape: 1 3 (3)
I0617 20:41:53.158619  6875 net.cpp:157] Top shape: 1 3 (3)
I0617 20:41:53.158620  6875 net.cpp:165] Memory required for data: 21600076
I0617 20:41:53.158633  6875 layer_factory.hpp:77] Creating layer gt_boxes_input-data_2_split
I0617 20:41:53.158637  6875 net.cpp:106] Creating Layer gt_boxes_input-data_2_split
I0617 20:41:53.158638  6875 net.cpp:454] gt_boxes_input-data_2_split <- gt_boxes
I0617 20:41:53.158640  6875 net.cpp:411] gt_boxes_input-data_2_split -> gt_boxes_input-data_2_split_0
I0617 20:41:53.158643  6875 net.cpp:411] gt_boxes_input-data_2_split -> gt_boxes_input-data_2_split_1
I0617 20:41:53.158668  6875 net.cpp:150] Setting up gt_boxes_input-data_2_split
I0617 20:41:53.158670  6875 net.cpp:157] Top shape: 1 4 (4)
I0617 20:41:53.158673  6875 net.cpp:157] Top shape: 1 4 (4)
I0617 20:41:53.158674  6875 net.cpp:165] Memory required for data: 21600108
I0617 20:41:53.158675  6875 layer_factory.hpp:77] Creating layer conv1_1
I0617 20:41:53.158682  6875 net.cpp:106] Creating Layer conv1_1
I0617 20:41:53.158684  6875 net.cpp:454] conv1_1 <- data_input-data_0_split_0
I0617 20:41:53.158687  6875 net.cpp:411] conv1_1 -> conv1_1
I0617 20:41:53.319227  6875 net.cpp:150] Setting up conv1_1
I0617 20:41:53.319250  6875 net.cpp:157] Top shape: 1 64 600 1000 (38400000)
I0617 20:41:53.319254  6875 net.cpp:165] Memory required for data: 175200108
I0617 20:41:53.319269  6875 layer_factory.hpp:77] Creating layer relu1_1
I0617 20:41:53.319279  6875 net.cpp:106] Creating Layer relu1_1
I0617 20:41:53.319285  6875 net.cpp:454] relu1_1 <- conv1_1
I0617 20:41:53.319288  6875 net.cpp:397] relu1_1 -> conv1_1 (in-place)
I0617 20:41:53.319424  6875 net.cpp:150] Setting up relu1_1
I0617 20:41:53.319430  6875 net.cpp:157] Top shape: 1 64 600 1000 (38400000)
I0617 20:41:53.319432  6875 net.cpp:165] Memory required for data: 328800108
I0617 20:41:53.319434  6875 layer_factory.hpp:77] Creating layer conv1_2
I0617 20:41:53.319440  6875 net.cpp:106] Creating Layer conv1_2
I0617 20:41:53.319442  6875 net.cpp:454] conv1_2 <- conv1_1
I0617 20:41:53.319447  6875 net.cpp:411] conv1_2 -> conv1_2
I0617 20:41:53.323599  6875 net.cpp:150] Setting up conv1_2
I0617 20:41:53.323626  6875 net.cpp:157] Top shape: 1 64 600 1000 (38400000)
I0617 20:41:53.323627  6875 net.cpp:165] Memory required for data: 482400108
I0617 20:41:53.323637  6875 layer_factory.hpp:77] Creating layer relu1_2
I0617 20:41:53.323653  6875 net.cpp:106] Creating Layer relu1_2
I0617 20:41:53.323658  6875 net.cpp:454] relu1_2 <- conv1_2
I0617 20:41:53.323662  6875 net.cpp:397] relu1_2 -> conv1_2 (in-place)
I0617 20:41:53.323791  6875 net.cpp:150] Setting up relu1_2
I0617 20:41:53.323797  6875 net.cpp:157] Top shape: 1 64 600 1000 (38400000)
I0617 20:41:53.323809  6875 net.cpp:165] Memory required for data: 636000108
I0617 20:41:53.323812  6875 layer_factory.hpp:77] Creating layer pool1
I0617 20:41:53.323817  6875 net.cpp:106] Creating Layer pool1
I0617 20:41:53.323819  6875 net.cpp:454] pool1 <- conv1_2
I0617 20:41:53.323832  6875 net.cpp:411] pool1 -> pool1
I0617 20:41:53.323882  6875 net.cpp:150] Setting up pool1
I0617 20:41:53.323886  6875 net.cpp:157] Top shape: 1 64 300 500 (9600000)
I0617 20:41:53.323887  6875 net.cpp:165] Memory required for data: 674400108
I0617 20:41:53.323899  6875 layer_factory.hpp:77] Creating layer conv2_1
I0617 20:41:53.323905  6875 net.cpp:106] Creating Layer conv2_1
I0617 20:41:53.323907  6875 net.cpp:454] conv2_1 <- pool1
I0617 20:41:53.323909  6875 net.cpp:411] conv2_1 -> conv2_1
I0617 20:41:53.325567  6875 net.cpp:150] Setting up conv2_1
I0617 20:41:53.325574  6875 net.cpp:157] Top shape: 1 128 300 500 (19200000)
I0617 20:41:53.325587  6875 net.cpp:165] Memory required for data: 751200108
I0617 20:41:53.325592  6875 layer_factory.hpp:77] Creating layer relu2_1
I0617 20:41:53.325597  6875 net.cpp:106] Creating Layer relu2_1
I0617 20:41:53.325598  6875 net.cpp:454] relu2_1 <- conv2_1
I0617 20:41:53.325601  6875 net.cpp:397] relu2_1 -> conv2_1 (in-place)
I0617 20:41:53.326071  6875 net.cpp:150] Setting up relu2_1
I0617 20:41:53.326078  6875 net.cpp:157] Top shape: 1 128 300 500 (19200000)
I0617 20:41:53.326090  6875 net.cpp:165] Memory required for data: 828000108
I0617 20:41:53.326092  6875 layer_factory.hpp:77] Creating layer conv2_2
I0617 20:41:53.326098  6875 net.cpp:106] Creating Layer conv2_2
I0617 20:41:53.326099  6875 net.cpp:454] conv2_2 <- conv2_1
I0617 20:41:53.326113  6875 net.cpp:411] conv2_2 -> conv2_2
I0617 20:41:53.327410  6875 net.cpp:150] Setting up conv2_2
I0617 20:41:53.327419  6875 net.cpp:157] Top shape: 1 128 300 500 (19200000)
I0617 20:41:53.327420  6875 net.cpp:165] Memory required for data: 904800108
I0617 20:41:53.327425  6875 layer_factory.hpp:77] Creating layer relu2_2
I0617 20:41:53.327427  6875 net.cpp:106] Creating Layer relu2_2
I0617 20:41:53.327430  6875 net.cpp:454] relu2_2 <- conv2_2
I0617 20:41:53.327433  6875 net.cpp:397] relu2_2 -> conv2_2 (in-place)
I0617 20:41:53.327579  6875 net.cpp:150] Setting up relu2_2
I0617 20:41:53.327584  6875 net.cpp:157] Top shape: 1 128 300 500 (19200000)
I0617 20:41:53.327585  6875 net.cpp:165] Memory required for data: 981600108
I0617 20:41:53.327587  6875 layer_factory.hpp:77] Creating layer pool2
I0617 20:41:53.327591  6875 net.cpp:106] Creating Layer pool2
I0617 20:41:53.327594  6875 net.cpp:454] pool2 <- conv2_2
I0617 20:41:53.327595  6875 net.cpp:411] pool2 -> pool2
I0617 20:41:53.327651  6875 net.cpp:150] Setting up pool2
I0617 20:41:53.327654  6875 net.cpp:157] Top shape: 1 128 150 250 (4800000)
I0617 20:41:53.327656  6875 net.cpp:165] Memory required for data: 1000800108
I0617 20:41:53.327657  6875 layer_factory.hpp:77] Creating layer conv3_1
I0617 20:41:53.327672  6875 net.cpp:106] Creating Layer conv3_1
I0617 20:41:53.327674  6875 net.cpp:454] conv3_1 <- pool2
I0617 20:41:53.327677  6875 net.cpp:411] conv3_1 -> conv3_1
I0617 20:41:53.329411  6875 net.cpp:150] Setting up conv3_1
I0617 20:41:53.329419  6875 net.cpp:157] Top shape: 1 256 150 250 (9600000)
I0617 20:41:53.329421  6875 net.cpp:165] Memory required for data: 1039200108
I0617 20:41:53.329428  6875 layer_factory.hpp:77] Creating layer relu3_1
I0617 20:41:53.329432  6875 net.cpp:106] Creating Layer relu3_1
I0617 20:41:53.329433  6875 net.cpp:454] relu3_1 <- conv3_1
I0617 20:41:53.329437  6875 net.cpp:397] relu3_1 -> conv3_1 (in-place)
I0617 20:41:53.329576  6875 net.cpp:150] Setting up relu3_1
I0617 20:41:53.329582  6875 net.cpp:157] Top shape: 1 256 150 250 (9600000)
I0617 20:41:53.329593  6875 net.cpp:165] Memory required for data: 1077600108
I0617 20:41:53.329596  6875 layer_factory.hpp:77] Creating layer conv3_2
I0617 20:41:53.329602  6875 net.cpp:106] Creating Layer conv3_2
I0617 20:41:53.329614  6875 net.cpp:454] conv3_2 <- conv3_1
I0617 20:41:53.329618  6875 net.cpp:411] conv3_2 -> conv3_2
I0617 20:41:53.331755  6875 net.cpp:150] Setting up conv3_2
I0617 20:41:53.331780  6875 net.cpp:157] Top shape: 1 256 150 250 (9600000)
I0617 20:41:53.331784  6875 net.cpp:165] Memory required for data: 1116000108
I0617 20:41:53.331789  6875 layer_factory.hpp:77] Creating layer relu3_2
I0617 20:41:53.331795  6875 net.cpp:106] Creating Layer relu3_2
I0617 20:41:53.331799  6875 net.cpp:454] relu3_2 <- conv3_2
I0617 20:41:53.331802  6875 net.cpp:397] relu3_2 -> conv3_2 (in-place)
I0617 20:41:53.331938  6875 net.cpp:150] Setting up relu3_2
I0617 20:41:53.331945  6875 net.cpp:157] Top shape: 1 256 150 250 (9600000)
I0617 20:41:53.331957  6875 net.cpp:165] Memory required for data: 1154400108
I0617 20:41:53.331959  6875 layer_factory.hpp:77] Creating layer conv3_3
I0617 20:41:53.331964  6875 net.cpp:106] Creating Layer conv3_3
I0617 20:41:53.331979  6875 net.cpp:454] conv3_3 <- conv3_2
I0617 20:41:53.331981  6875 net.cpp:411] conv3_3 -> conv3_3
I0617 20:41:53.334100  6875 net.cpp:150] Setting up conv3_3
I0617 20:41:53.334110  6875 net.cpp:157] Top shape: 1 256 150 250 (9600000)
I0617 20:41:53.334111  6875 net.cpp:165] Memory required for data: 1192800108
I0617 20:41:53.334116  6875 layer_factory.hpp:77] Creating layer relu3_3
I0617 20:41:53.334120  6875 net.cpp:106] Creating Layer relu3_3
I0617 20:41:53.334122  6875 net.cpp:454] relu3_3 <- conv3_3
I0617 20:41:53.334125  6875 net.cpp:397] relu3_3 -> conv3_3 (in-place)
I0617 20:41:53.334305  6875 net.cpp:150] Setting up relu3_3
I0617 20:41:53.334311  6875 net.cpp:157] Top shape: 1 256 150 250 (9600000)
I0617 20:41:53.334313  6875 net.cpp:165] Memory required for data: 1231200108
I0617 20:41:53.334314  6875 layer_factory.hpp:77] Creating layer pool3
I0617 20:41:53.334321  6875 net.cpp:106] Creating Layer pool3
I0617 20:41:53.334321  6875 net.cpp:454] pool3 <- conv3_3
I0617 20:41:53.334326  6875 net.cpp:411] pool3 -> pool3
I0617 20:41:53.334385  6875 net.cpp:150] Setting up pool3
I0617 20:41:53.334389  6875 net.cpp:157] Top shape: 1 256 75 125 (2400000)
I0617 20:41:53.334391  6875 net.cpp:165] Memory required for data: 1240800108
I0617 20:41:53.334403  6875 layer_factory.hpp:77] Creating layer conv4_1
I0617 20:41:53.334408  6875 net.cpp:106] Creating Layer conv4_1
I0617 20:41:53.334409  6875 net.cpp:454] conv4_1 <- pool3
I0617 20:41:53.334424  6875 net.cpp:411] conv4_1 -> conv4_1
I0617 20:41:53.338063  6875 net.cpp:150] Setting up conv4_1
I0617 20:41:53.338079  6875 net.cpp:157] Top shape: 1 512 75 125 (4800000)
I0617 20:41:53.338083  6875 net.cpp:165] Memory required for data: 1260000108
I0617 20:41:53.338088  6875 layer_factory.hpp:77] Creating layer relu4_1
I0617 20:41:53.338096  6875 net.cpp:106] Creating Layer relu4_1
I0617 20:41:53.338109  6875 net.cpp:454] relu4_1 <- conv4_1
I0617 20:41:53.338115  6875 net.cpp:397] relu4_1 -> conv4_1 (in-place)
I0617 20:41:53.338253  6875 net.cpp:150] Setting up relu4_1
I0617 20:41:53.338279  6875 net.cpp:157] Top shape: 1 512 75 125 (4800000)
I0617 20:41:53.338281  6875 net.cpp:165] Memory required for data: 1279200108
I0617 20:41:53.338284  6875 layer_factory.hpp:77] Creating layer conv4_2
I0617 20:41:53.338292  6875 net.cpp:106] Creating Layer conv4_2
I0617 20:41:53.338294  6875 net.cpp:454] conv4_2 <- conv4_1
I0617 20:41:53.338299  6875 net.cpp:411] conv4_2 -> conv4_2
I0617 20:41:53.342859  6875 net.cpp:150] Setting up conv4_2
I0617 20:41:53.342877  6875 net.cpp:157] Top shape: 1 512 75 125 (4800000)
I0617 20:41:53.342880  6875 net.cpp:165] Memory required for data: 1298400108
I0617 20:41:53.342890  6875 layer_factory.hpp:77] Creating layer relu4_2
I0617 20:41:53.342908  6875 net.cpp:106] Creating Layer relu4_2
I0617 20:41:53.342912  6875 net.cpp:454] relu4_2 <- conv4_2
I0617 20:41:53.342916  6875 net.cpp:397] relu4_2 -> conv4_2 (in-place)
I0617 20:41:53.343400  6875 net.cpp:150] Setting up relu4_2
I0617 20:41:53.343406  6875 net.cpp:157] Top shape: 1 512 75 125 (4800000)
I0617 20:41:53.343408  6875 net.cpp:165] Memory required for data: 1317600108
I0617 20:41:53.343410  6875 layer_factory.hpp:77] Creating layer conv4_3
I0617 20:41:53.343417  6875 net.cpp:106] Creating Layer conv4_3
I0617 20:41:53.343420  6875 net.cpp:454] conv4_3 <- conv4_2
I0617 20:41:53.343422  6875 net.cpp:411] conv4_3 -> conv4_3
I0617 20:41:53.348755  6875 net.cpp:150] Setting up conv4_3
I0617 20:41:53.348783  6875 net.cpp:157] Top shape: 1 512 75 125 (4800000)
I0617 20:41:53.348785  6875 net.cpp:165] Memory required for data: 1336800108
I0617 20:41:53.348791  6875 layer_factory.hpp:77] Creating layer relu4_3
I0617 20:41:53.348809  6875 net.cpp:106] Creating Layer relu4_3
I0617 20:41:53.348814  6875 net.cpp:454] relu4_3 <- conv4_3
I0617 20:41:53.348817  6875 net.cpp:397] relu4_3 -> conv4_3 (in-place)
I0617 20:41:53.348944  6875 net.cpp:150] Setting up relu4_3
I0617 20:41:53.348950  6875 net.cpp:157] Top shape: 1 512 75 125 (4800000)
I0617 20:41:53.348951  6875 net.cpp:165] Memory required for data: 1356000108
I0617 20:41:53.348963  6875 layer_factory.hpp:77] Creating layer pool4
I0617 20:41:53.348969  6875 net.cpp:106] Creating Layer pool4
I0617 20:41:53.348970  6875 net.cpp:454] pool4 <- conv4_3
I0617 20:41:53.348984  6875 net.cpp:411] pool4 -> pool4
I0617 20:41:53.349021  6875 net.cpp:150] Setting up pool4
I0617 20:41:53.349025  6875 net.cpp:157] Top shape: 1 512 38 63 (1225728)
I0617 20:41:53.349027  6875 net.cpp:165] Memory required for data: 1360903020
I0617 20:41:53.349037  6875 layer_factory.hpp:77] Creating layer conv5_1
I0617 20:41:53.349043  6875 net.cpp:106] Creating Layer conv5_1
I0617 20:41:53.349056  6875 net.cpp:454] conv5_1 <- pool4
I0617 20:41:53.349059  6875 net.cpp:411] conv5_1 -> conv5_1
I0617 20:41:53.353477  6875 net.cpp:150] Setting up conv5_1
I0617 20:41:53.353495  6875 net.cpp:157] Top shape: 1 512 38 63 (1225728)
I0617 20:41:53.353497  6875 net.cpp:165] Memory required for data: 1365805932
I0617 20:41:53.353503  6875 layer_factory.hpp:77] Creating layer relu5_1
I0617 20:41:53.353511  6875 net.cpp:106] Creating Layer relu5_1
I0617 20:41:53.353514  6875 net.cpp:454] relu5_1 <- conv5_1
I0617 20:41:53.353529  6875 net.cpp:397] relu5_1 -> conv5_1 (in-place)
I0617 20:41:53.353649  6875 net.cpp:150] Setting up relu5_1
I0617 20:41:53.353655  6875 net.cpp:157] Top shape: 1 512 38 63 (1225728)
I0617 20:41:53.353657  6875 net.cpp:165] Memory required for data: 1370708844
I0617 20:41:53.353658  6875 layer_factory.hpp:77] Creating layer conv5_2
I0617 20:41:53.353664  6875 net.cpp:106] Creating Layer conv5_2
I0617 20:41:53.353667  6875 net.cpp:454] conv5_2 <- conv5_1
I0617 20:41:53.353670  6875 net.cpp:411] conv5_2 -> conv5_2
I0617 20:41:53.357865  6875 net.cpp:150] Setting up conv5_2
I0617 20:41:53.357883  6875 net.cpp:157] Top shape: 1 512 38 63 (1225728)
I0617 20:41:53.357887  6875 net.cpp:165] Memory required for data: 1375611756
I0617 20:41:53.357892  6875 layer_factory.hpp:77] Creating layer relu5_2
I0617 20:41:53.357899  6875 net.cpp:106] Creating Layer relu5_2
I0617 20:41:53.357903  6875 net.cpp:454] relu5_2 <- conv5_2
I0617 20:41:53.357909  6875 net.cpp:397] relu5_2 -> conv5_2 (in-place)
I0617 20:41:53.358038  6875 net.cpp:150] Setting up relu5_2
I0617 20:41:53.358044  6875 net.cpp:157] Top shape: 1 512 38 63 (1225728)
I0617 20:41:53.358047  6875 net.cpp:165] Memory required for data: 1380514668
I0617 20:41:53.358047  6875 layer_factory.hpp:77] Creating layer conv5_3
I0617 20:41:53.358057  6875 net.cpp:106] Creating Layer conv5_3
I0617 20:41:53.358059  6875 net.cpp:454] conv5_3 <- conv5_2
I0617 20:41:53.358073  6875 net.cpp:411] conv5_3 -> conv5_3
I0617 20:41:53.362327  6875 net.cpp:150] Setting up conv5_3
I0617 20:41:53.362346  6875 net.cpp:157] Top shape: 1 512 38 63 (1225728)
I0617 20:41:53.362349  6875 net.cpp:165] Memory required for data: 1385417580
I0617 20:41:53.362355  6875 layer_factory.hpp:77] Creating layer relu5_3
I0617 20:41:53.362362  6875 net.cpp:106] Creating Layer relu5_3
I0617 20:41:53.362365  6875 net.cpp:454] relu5_3 <- conv5_3
I0617 20:41:53.362371  6875 net.cpp:397] relu5_3 -> conv5_3 (in-place)
I0617 20:41:53.362504  6875 net.cpp:150] Setting up relu5_3
I0617 20:41:53.362509  6875 net.cpp:157] Top shape: 1 512 38 63 (1225728)
I0617 20:41:53.362511  6875 net.cpp:165] Memory required for data: 1390320492
I0617 20:41:53.362514  6875 layer_factory.hpp:77] Creating layer conv5_3_relu5_3_0_split
I0617 20:41:53.362516  6875 net.cpp:106] Creating Layer conv5_3_relu5_3_0_split
I0617 20:41:53.362519  6875 net.cpp:454] conv5_3_relu5_3_0_split <- conv5_3
I0617 20:41:53.362522  6875 net.cpp:411] conv5_3_relu5_3_0_split -> conv5_3_relu5_3_0_split_0
I0617 20:41:53.362526  6875 net.cpp:411] conv5_3_relu5_3_0_split -> conv5_3_relu5_3_0_split_1
I0617 20:41:53.362529  6875 net.cpp:411] conv5_3_relu5_3_0_split -> conv5_3_relu5_3_0_split_2
I0617 20:41:53.362581  6875 net.cpp:150] Setting up conv5_3_relu5_3_0_split
I0617 20:41:53.362584  6875 net.cpp:157] Top shape: 1 512 38 63 (1225728)
I0617 20:41:53.362586  6875 net.cpp:157] Top shape: 1 512 38 63 (1225728)
I0617 20:41:53.362588  6875 net.cpp:157] Top shape: 1 512 38 63 (1225728)
I0617 20:41:53.362591  6875 net.cpp:165] Memory required for data: 1405029228
I0617 20:41:53.362591  6875 layer_factory.hpp:77] Creating layer rpn_conv/3x3
I0617 20:41:53.362598  6875 net.cpp:106] Creating Layer rpn_conv/3x3
I0617 20:41:53.362601  6875 net.cpp:454] rpn_conv/3x3 <- conv5_3_relu5_3_0_split_0
I0617 20:41:53.362604  6875 net.cpp:411] rpn_conv/3x3 -> rpn/output
I0617 20:41:53.413511  6875 net.cpp:150] Setting up rpn_conv/3x3
I0617 20:41:53.413529  6875 net.cpp:157] Top shape: 1 512 38 63 (1225728)
I0617 20:41:53.413532  6875 net.cpp:165] Memory required for data: 1409932140
I0617 20:41:53.413537  6875 layer_factory.hpp:77] Creating layer rpn_relu/3x3
I0617 20:41:53.413543  6875 net.cpp:106] Creating Layer rpn_relu/3x3
I0617 20:41:53.413547  6875 net.cpp:454] rpn_relu/3x3 <- rpn/output
I0617 20:41:53.413550  6875 net.cpp:397] rpn_relu/3x3 -> rpn/output (in-place)
I0617 20:41:53.413683  6875 net.cpp:150] Setting up rpn_relu/3x3
I0617 20:41:53.413689  6875 net.cpp:157] Top shape: 1 512 38 63 (1225728)
I0617 20:41:53.413691  6875 net.cpp:165] Memory required for data: 1414835052
I0617 20:41:53.413692  6875 layer_factory.hpp:77] Creating layer rpn/output_rpn_relu/3x3_0_split
I0617 20:41:53.413697  6875 net.cpp:106] Creating Layer rpn/output_rpn_relu/3x3_0_split
I0617 20:41:53.413697  6875 net.cpp:454] rpn/output_rpn_relu/3x3_0_split <- rpn/output
I0617 20:41:53.413702  6875 net.cpp:411] rpn/output_rpn_relu/3x3_0_split -> rpn/output_rpn_relu/3x3_0_split_0
I0617 20:41:53.413704  6875 net.cpp:411] rpn/output_rpn_relu/3x3_0_split -> rpn/output_rpn_relu/3x3_0_split_1
I0617 20:41:53.413739  6875 net.cpp:150] Setting up rpn/output_rpn_relu/3x3_0_split
I0617 20:41:53.413753  6875 net.cpp:157] Top shape: 1 512 38 63 (1225728)
I0617 20:41:53.413754  6875 net.cpp:157] Top shape: 1 512 38 63 (1225728)
I0617 20:41:53.413756  6875 net.cpp:165] Memory required for data: 1424640876
I0617 20:41:53.413758  6875 layer_factory.hpp:77] Creating layer rpn_cls_score
I0617 20:41:53.413776  6875 net.cpp:106] Creating Layer rpn_cls_score
I0617 20:41:53.413779  6875 net.cpp:454] rpn_cls_score <- rpn/output_rpn_relu/3x3_0_split_0
I0617 20:41:53.413790  6875 net.cpp:411] rpn_cls_score -> rpn_cls_score
I0617 20:41:53.415349  6875 net.cpp:150] Setting up rpn_cls_score
I0617 20:41:53.415356  6875 net.cpp:157] Top shape: 1 30 38 63 (71820)
I0617 20:41:53.415359  6875 net.cpp:165] Memory required for data: 1424928156
I0617 20:41:53.415362  6875 layer_factory.hpp:77] Creating layer rpn_cls_score_rpn_cls_score_0_split
I0617 20:41:53.415365  6875 net.cpp:106] Creating Layer rpn_cls_score_rpn_cls_score_0_split
I0617 20:41:53.415367  6875 net.cpp:454] rpn_cls_score_rpn_cls_score_0_split <- rpn_cls_score
I0617 20:41:53.415372  6875 net.cpp:411] rpn_cls_score_rpn_cls_score_0_split -> rpn_cls_score_rpn_cls_score_0_split_0
I0617 20:41:53.415386  6875 net.cpp:411] rpn_cls_score_rpn_cls_score_0_split -> rpn_cls_score_rpn_cls_score_0_split_1
I0617 20:41:53.415433  6875 net.cpp:150] Setting up rpn_cls_score_rpn_cls_score_0_split
I0617 20:41:53.415446  6875 net.cpp:157] Top shape: 1 30 38 63 (71820)
I0617 20:41:53.415448  6875 net.cpp:157] Top shape: 1 30 38 63 (71820)
I0617 20:41:53.415450  6875 net.cpp:165] Memory required for data: 1425502716
I0617 20:41:53.415452  6875 layer_factory.hpp:77] Creating layer rpn_bbox_pred
I0617 20:41:53.415468  6875 net.cpp:106] Creating Layer rpn_bbox_pred
I0617 20:41:53.415470  6875 net.cpp:454] rpn_bbox_pred <- rpn/output_rpn_relu/3x3_0_split_1
I0617 20:41:53.415473  6875 net.cpp:411] rpn_bbox_pred -> rpn_bbox_pred
I0617 20:41:53.416960  6875 net.cpp:150] Setting up rpn_bbox_pred
I0617 20:41:53.416967  6875 net.cpp:157] Top shape: 1 60 38 63 (143640)
I0617 20:41:53.416970  6875 net.cpp:165] Memory required for data: 1426077276
I0617 20:41:53.416972  6875 layer_factory.hpp:77] Creating layer rpn_bbox_pred_rpn_bbox_pred_0_split
I0617 20:41:53.416976  6875 net.cpp:106] Creating Layer rpn_bbox_pred_rpn_bbox_pred_0_split
I0617 20:41:53.416980  6875 net.cpp:454] rpn_bbox_pred_rpn_bbox_pred_0_split <- rpn_bbox_pred
I0617 20:41:53.416982  6875 net.cpp:411] rpn_bbox_pred_rpn_bbox_pred_0_split -> rpn_bbox_pred_rpn_bbox_pred_0_split_0
I0617 20:41:53.416986  6875 net.cpp:411] rpn_bbox_pred_rpn_bbox_pred_0_split -> rpn_bbox_pred_rpn_bbox_pred_0_split_1
I0617 20:41:53.417045  6875 net.cpp:150] Setting up rpn_bbox_pred_rpn_bbox_pred_0_split
I0617 20:41:53.417049  6875 net.cpp:157] Top shape: 1 60 38 63 (143640)
I0617 20:41:53.417063  6875 net.cpp:157] Top shape: 1 60 38 63 (143640)
I0617 20:41:53.417064  6875 net.cpp:165] Memory required for data: 1427226396
I0617 20:41:53.417066  6875 layer_factory.hpp:77] Creating layer rpn_cls_score_reshape
I0617 20:41:53.417070  6875 net.cpp:106] Creating Layer rpn_cls_score_reshape
I0617 20:41:53.417073  6875 net.cpp:454] rpn_cls_score_reshape <- rpn_cls_score_rpn_cls_score_0_split_0
I0617 20:41:53.417075  6875 net.cpp:411] rpn_cls_score_reshape -> rpn_cls_score_reshape
I0617 20:41:53.417100  6875 net.cpp:150] Setting up rpn_cls_score_reshape
I0617 20:41:53.417117  6875 net.cpp:157] Top shape: 1 2 570 63 (71820)
I0617 20:41:53.417119  6875 net.cpp:165] Memory required for data: 1427513676
I0617 20:41:53.417120  6875 layer_factory.hpp:77] Creating layer rpn_cls_score_reshape_rpn_cls_score_reshape_0_split
I0617 20:41:53.417124  6875 net.cpp:106] Creating Layer rpn_cls_score_reshape_rpn_cls_score_reshape_0_split
I0617 20:41:53.417135  6875 net.cpp:454] rpn_cls_score_reshape_rpn_cls_score_reshape_0_split <- rpn_cls_score_reshape
I0617 20:41:53.417137  6875 net.cpp:411] rpn_cls_score_reshape_rpn_cls_score_reshape_0_split -> rpn_cls_score_reshape_rpn_cls_score_reshape_0_split_0
I0617 20:41:53.417141  6875 net.cpp:411] rpn_cls_score_reshape_rpn_cls_score_reshape_0_split -> rpn_cls_score_reshape_rpn_cls_score_reshape_0_split_1
I0617 20:41:53.417197  6875 net.cpp:150] Setting up rpn_cls_score_reshape_rpn_cls_score_reshape_0_split
I0617 20:41:53.417201  6875 net.cpp:157] Top shape: 1 2 570 63 (71820)
I0617 20:41:53.417202  6875 net.cpp:157] Top shape: 1 2 570 63 (71820)
I0617 20:41:53.417203  6875 net.cpp:165] Memory required for data: 1428088236
I0617 20:41:53.417205  6875 layer_factory.hpp:77] Creating layer rpn-data
I0617 20:41:53.417542  6875 net.cpp:106] Creating Layer rpn-data
I0617 20:41:53.417549  6875 net.cpp:454] rpn-data <- rpn_cls_score_rpn_cls_score_0_split_1
I0617 20:41:53.417552  6875 net.cpp:454] rpn-data <- gt_boxes_input-data_2_split_0
I0617 20:41:53.417556  6875 net.cpp:454] rpn-data <- im_info_input-data_1_split_0
I0617 20:41:53.417557  6875 net.cpp:454] rpn-data <- data_input-data_0_split_1
I0617 20:41:53.417560  6875 net.cpp:411] rpn-data -> rpn_labels
I0617 20:41:53.417564  6875 net.cpp:411] rpn-data -> rpn_bbox_targets
I0617 20:41:53.417578  6875 net.cpp:411] rpn-data -> rpn_bbox_inside_weights
I0617 20:41:53.417582  6875 net.cpp:411] rpn-data -> rpn_bbox_outside_weights
===================================anchor_scales in AnchorTargetLayer:=============(2, 4, 8, 16, 32)
I0617 20:41:53.418386  6875 net.cpp:150] Setting up rpn-data
I0617 20:41:53.418395  6875 net.cpp:157] Top shape: 1 1 570 63 (35910)
I0617 20:41:53.418396  6875 net.cpp:157] Top shape: 1 60 38 63 (143640)
I0617 20:41:53.418398  6875 net.cpp:157] Top shape: 1 60 38 63 (143640)
I0617 20:41:53.418401  6875 net.cpp:157] Top shape: 1 60 38 63 (143640)
I0617 20:41:53.418401  6875 net.cpp:165] Memory required for data: 1429955556
I0617 20:41:53.418404  6875 layer_factory.hpp:77] Creating layer rpn_loss_cls
I0617 20:41:53.418408  6875 net.cpp:106] Creating Layer rpn_loss_cls
I0617 20:41:53.418411  6875 net.cpp:454] rpn_loss_cls <- rpn_cls_score_reshape_rpn_cls_score_reshape_0_split_0
I0617 20:41:53.418413  6875 net.cpp:454] rpn_loss_cls <- rpn_labels
…
I0617 20:41:53.420068  6875 net.cpp:157] Top shape: (1)
I0617 20:41:53.420070  6875 net.cpp:160]     with loss weight 1
I0617 20:41:53.420074  6875 net.cpp:165] Memory required for data: 1429955564
I0617 20:41:53.420076  6875 layer_factory.hpp:77] Creating layer rpn_cls_prob
I0617 20:41:53.420079  6875 net.cpp:106] Creating Layer rpn_cls_prob
I0617 20:41:53.420083  6875 net.cpp:454] rpn_cls_prob <- rpn_cls_score_reshape_rpn_cls_score_reshape_0_split_1
I0617 20:41:53.420086  6875 net.cpp:411] rpn_cls_prob -> rpn_cls_prob
I0617 20:41:53.420233  6875 net.cpp:150] Setting up rpn_cls_prob
I0617 20:41:53.420238  6875 net.cpp:157] Top shape: 1 2 570 63 (71820)
I0617 20:41:53.420240  6875 net.cpp:165] Memory required for data: 1430242844
I0617 20:41:53.420243  6875 layer_factory.hpp:77] Creating layer rpn_cls_prob_reshape
I0617 20:41:53.420245  6875 net.cpp:106] Creating Layer rpn_cls_prob_reshape
I0617 20:41:53.420248  6875 net.cpp:454] rpn_cls_prob_reshape <- rpn_cls_prob
I0617 20:41:53.420253  6875 net.cpp:411] rpn_cls_prob_reshape -> rpn_cls_prob_reshape
I0617 20:41:53.420269  6875 net.cpp:150] Setting up rpn_cls_prob_reshape
I0617 20:41:53.420272  6875 net.cpp:157] Top shape: 1 30 38 63 (71820)
I0617 20:41:53.420274  6875 net.cpp:165] Memory required for data: 1430530124
I0617 20:41:53.420275  6875 layer_factory.hpp:77] Creating layer proposal
I0617 20:41:53.420681  6875 net.cpp:106] Creating Layer proposal
I0617 20:41:53.420688  6875 net.cpp:454] proposal <- rpn_cls_prob_reshape
I0617 20:41:53.420691  6875 net.cpp:454] proposal <- rpn_bbox_pred_rpn_bbox_pred_0_split_1
I0617 20:41:53.420696  6875 net.cpp:454] proposal <- im_info_input-data_1_split_1
I0617 20:41:53.420698  6875 net.cpp:411] proposal -> rpn_rois
=================================anchor_scales in ProposalLayer:=============(2, 4, 8, 16, 32)
I0617 20:41:53.421411  6875 net.cpp:150] Setting up proposal
I0617 20:41:53.421419  6875 net.cpp:157] Top shape: 1 5 (5)
I0617 20:41:53.421422  6875 net.cpp:165] Memory required for data: 1430530144
I0617 20:41:53.421423  6875 layer_factory.hpp:77] Creating layer roi-data
I0617 20:41:53.421619  6875 net.cpp:106] Creating Layer roi-data
I0617 20:41:53.421625  6875 net.cpp:454] roi-data <- rpn_rois
I0617 20:41:53.421628  6875 net.cpp:454] roi-data <- gt_boxes_input-data_2_split_1
I0617 20:41:53.421631  6875 net.cpp:454] roi-data <- im_info_input-data_1_split_2
I0617 20:41:53.421633  6875 net.cpp:454] roi-data <- seg_mask_inds
I0617 20:41:53.421635  6875 net.cpp:454] roi-data <- flipped
I0617 20:41:53.421638  6875 net.cpp:411] roi-data -> rois
I0617 20:41:53.421644  6875 net.cpp:411] roi-data -> labels
I0617 20:41:53.421649  6875 net.cpp:411] roi-data -> bbox_targets
I0617 20:41:53.421653  6875 net.cpp:411] roi-data -> bbox_inside_weights
I0617 20:41:53.421658  6875 net.cpp:411] roi-data -> bbox_outside_weights
I0617 20:41:53.421661  6875 net.cpp:411] roi-data -> mask_targets
I0617 20:41:53.421665  6875 net.cpp:411] roi-data -> rois_pos
I0617 20:41:53.421669  6875 net.cpp:411] roi-data -> attrArray
I0617 20:41:53.421672  6875 net.cpp:411] roi-data -> attrArrayInd
I0617 20:41:53.421677  6875 net.cpp:411] roi-data -> attrArrayShift
I0617 20:41:53.421939  6875 net.cpp:150] Setting up roi-data
I0617 20:41:53.421948  6875 net.cpp:157] Top shape: 1 5 (5)
I0617 20:41:53.421960  6875 net.cpp:157] Top shape: 1 1 (1)
I0617 20:41:53.421962  6875 net.cpp:157] Top shape: 1 8 (8)
I0617 20:41:53.421964  6875 net.cpp:157] Top shape: 1 8 (8)
I0617 20:41:53.421967  6875 net.cpp:157] Top shape: 1 8 (8)
I0617 20:41:53.421968  6875 net.cpp:157] Top shape: 1 244 244 (59536)
I0617 20:41:53.421970  6875 net.cpp:157] Top shape: 1 5 (5)
I0617 20:41:53.421972  6875 net.cpp:157] Top shape: 1 7 (7)
I0617 20:41:53.421974  6875 net.cpp:157] Top shape: 1 7 (7)
I0617 20:41:53.421975  6875 net.cpp:157] Top shape: 1 7 (7)
I0617 20:41:53.421977  6875 net.cpp:165] Memory required for data: 1430768512
I0617 20:41:53.421979  6875 layer_factory.hpp:77] Creating layer mask_targets_roi-data_5_split
I0617 20:41:53.421983  6875 net.cpp:106] Creating Layer mask_targets_roi-data_5_split
I0617 20:41:53.421986  6875 net.cpp:454] mask_targets_roi-data_5_split <- mask_targets
I0617 20:41:53.421989  6875 net.cpp:411] mask_targets_roi-data_5_split -> mask_targets_roi-data_5_split_0
I0617 20:41:53.421993  6875 net.cpp:411] mask_targets_roi-data_5_split -> mask_targets_roi-data_5_split_1
I0617 20:41:53.422030  6875 net.cpp:150] Setting up mask_targets_roi-data_5_split
I0617 20:41:53.422034  6875 net.cpp:157] Top shape: 1 244 244 (59536)
I0617 20:41:53.422046  6875 net.cpp:157] Top shape: 1 244 244 (59536)
I0617 20:41:53.422049  6875 net.cpp:165] Memory required for data: 1431244800
I0617 20:41:53.422049  6875 layer_factory.hpp:77] Creating layer roi_pool5
I0617 20:41:53.422055  6875 net.cpp:106] Creating Layer roi_pool5
I0617 20:41:53.422056  6875 net.cpp:454] roi_pool5 <- conv5_3_relu5_3_0_split_1
I0617 20:41:53.422060  6875 net.cpp:454] roi_pool5 <- rois
I0617 20:41:53.422063  6875 net.cpp:411] roi_pool5 -> pool5
I0617 20:41:53.422067  6875 roi_alignment_layer.cpp:32] Spatial scale: 0.0625
I0617 20:41:53.422129  6875 net.cpp:150] Setting up roi_pool5
I0617 20:41:53.422133  6875 net.cpp:157] Top shape: 1 512 7 7 (25088)
I0617 20:41:53.422137  6875 net.cpp:165] Memory required for data: 1431345152
I0617 20:41:53.422137  6875 layer_factory.hpp:77] Creating layer fc6
I0617 20:41:53.422142  6875 net.cpp:106] Creating Layer fc6
I0617 20:41:53.422144  6875 net.cpp:454] fc6 <- pool5
I0617 20:41:53.422147  6875 net.cpp:411] fc6 -> fc6
I0617 20:41:53.563416  6875 net.cpp:150] Setting up fc6
I0617 20:41:53.563439  6875 net.cpp:157] Top shape: 1 4096 (4096)
I0617 20:41:53.563441  6875 net.cpp:165] Memory required for data: 1431361536
I0617 20:41:53.563454  6875 layer_factory.hpp:77] Creating layer relu6
I0617 20:41:53.563472  6875 net.cpp:106] Creating Layer relu6
I0617 20:41:53.563477  6875 net.cpp:454] relu6 <- fc6
I0617 20:41:53.563480  6875 net.cpp:397] relu6 -> fc6 (in-place)
I0617 20:41:53.563699  6875 net.cpp:150] Setting up relu6
I0617 20:41:53.563704  6875 net.cpp:157] Top shape: 1 4096 (4096)
I0617 20:41:53.563706  6875 net.cpp:165] Memory required for data: 1431377920
I0617 20:41:53.563707  6875 layer_factory.hpp:77] Creating layer fc7
I0617 20:41:53.563712  6875 net.cpp:106] Creating Layer fc7
I0617 20:41:53.563714  6875 net.cpp:454] fc7 <- fc6
I0617 20:41:53.563719  6875 net.cpp:411] fc7 -> fc7
I0617 20:41:53.586921  6875 net.cpp:150] Setting up fc7
I0617 20:41:53.586942  6875 net.cpp:157] Top shape: 1 4096 (4096)
I0617 20:41:53.586944  6875 net.cpp:165] Memory required for data: 1431394304
I0617 20:41:53.586952  6875 layer_factory.hpp:77] Creating layer relu7
I0617 20:41:53.586959  6875 net.cpp:106] Creating Layer relu7
I0617 20:41:53.586973  6875 net.cpp:454] relu7 <- fc7
I0617 20:41:53.586978  6875 net.cpp:397] relu7 -> fc7 (in-place)
I0617 20:41:53.587167  6875 net.cpp:150] Setting up relu7
I0617 20:41:53.587172  6875 net.cpp:157] Top shape: 1 4096 (4096)
I0617 20:41:53.587174  6875 net.cpp:165] Memory required for data: 1431410688
I0617 20:41:53.587177  6875 layer_factory.hpp:77] Creating layer fc7_relu7_0_split
I0617 20:41:53.587180  6875 net.cpp:106] Creating Layer fc7_relu7_0_split
I0617 20:41:53.587182  6875 net.cpp:454] fc7_relu7_0_split <- fc7
I0617 20:41:53.587185  6875 net.cpp:411] fc7_relu7_0_split -> fc7_relu7_0_split_0
I0617 20:41:53.587188  6875 net.cpp:411] fc7_relu7_0_split -> fc7_relu7_0_split_1
I0617 20:41:53.587191  6875 net.cpp:411] fc7_relu7_0_split -> fc7_relu7_0_split_2
I0617 20:41:53.587244  6875 net.cpp:150] Setting up fc7_relu7_0_split
I0617 20:41:53.587247  6875 net.cpp:157] Top shape: 1 4096 (4096)
I0617 20:41:53.587249  6875 net.cpp:157] Top shape: 1 4096 (4096)
I0617 20:41:53.587251  6875 net.cpp:157] Top shape: 1 4096 (4096)
I0617 20:41:53.587254  6875 net.cpp:165] Memory required for data: 1431459840
I0617 20:41:53.587255  6875 layer_factory.hpp:77] Creating layer attr_score
I0617 20:41:53.587258  6875 net.cpp:106] Creating Layer attr_score
I0617 20:41:53.587260  6875 net.cpp:454] attr_score <- fc7_relu7_0_split_0
I0617 20:41:53.587270  6875 net.cpp:411] attr_score -> attr_score
I0617 20:41:53.587920  6875 net.cpp:150] Setting up attr_score
I0617 20:41:53.587924  6875 net.cpp:157] Top shape: 1 7 (7)
I0617 20:41:53.587926  6875 net.cpp:165] Memory required for data: 1431459868
I0617 20:41:53.587929  6875 layer_factory.hpp:77] Creating layer attr_score_pos
I0617 20:41:53.587934  6875 net.cpp:106] Creating Layer attr_score_pos
I0617 20:41:53.587935  6875 net.cpp:454] attr_score_pos <- attr_score
I0617 20:41:53.587939  6875 net.cpp:454] attr_score_pos <- attrArrayInd
I0617 20:41:53.587941  6875 net.cpp:411] attr_score_pos -> attr_score_pos
I0617 20:41:53.587965  6875 net.cpp:150] Setting up attr_score_pos
I0617 20:41:53.587968  6875 net.cpp:157] Top shape: 1 7 (7)
I0617 20:41:53.587970  6875 net.cpp:165] Memory required for data: 1431459896
I0617 20:41:53.587971  6875 layer_factory.hpp:77] Creating layer attr_score_pos_shift
I0617 20:41:53.587975  6875 net.cpp:106] Creating Layer attr_score_pos_shift
I0617 20:41:53.587977  6875 net.cpp:454] attr_score_pos_shift <- attr_score_pos
I0617 20:41:53.587980  6875 net.cpp:454] attr_score_pos_shift <- attrArrayShift
I0617 20:41:53.587981  6875 net.cpp:411] attr_score_pos_shift -> attr_score_pos_shift
I0617 20:41:53.588004  6875 net.cpp:150] Setting up attr_score_pos_shift
I0617 20:41:53.588007  6875 net.cpp:157] Top shape: 1 7 (7)
I0617 20:41:53.588009  6875 net.cpp:165] Memory required for data: 1431459924
I0617 20:41:53.588011  6875 layer_factory.hpp:77] Creating layer cls_score
I0617 20:41:53.588024  6875 net.cpp:106] Creating Layer cls_score
I0617 20:41:53.588027  6875 net.cpp:454] cls_score <- fc7_relu7_0_split_1
I0617 20:41:53.588030  6875 net.cpp:411] cls_score -> cls_score
I0617 20:41:53.588284  6875 net.cpp:150] Setting up cls_score
I0617 20:41:53.588287  6875 net.cpp:157] Top shape: 1 2 (2)
I0617 20:41:53.588289  6875 net.cpp:165] Memory required for data: 1431459932
I0617 20:41:53.588302  6875 layer_factory.hpp:77] Creating layer bbox_pred
I0617 20:41:53.588307  6875 net.cpp:106] Creating Layer bbox_pred
I0617 20:41:53.588310  6875 net.cpp:454] bbox_pred <- fc7_relu7_0_split_2
I0617 20:41:53.588328  6875 net.cpp:411] bbox_pred -> bbox_pred
I0617 20:41:53.589051  6875 net.cpp:150] Setting up bbox_pred
I0617 20:41:53.589056  6875 net.cpp:157] Top shape: 1 8 (8)
I0617 20:41:53.589057  6875 net.cpp:165] Memory required for data: 1431459964
I0617 20:41:53.589061  6875 layer_factory.hpp:77] Creating layer loss_attribute
I0617 20:41:53.589076  6875 net.cpp:106] Creating Layer loss_attribute
I0617 20:41:53.589078  6875 net.cpp:454] loss_attribute <- attr_score_pos_shift
I0617 20:41:53.589080  6875 net.cpp:454] loss_attribute <- attrArray
I0617 20:41:53.589083  6875 net.cpp:411] loss_attribute -> loss_attribute
…
I0617 20:41:53.590000  6875 net.cpp:165] Memory required for data: 1431459976
I0617 20:41:53.590003  6875 layer_factory.hpp:77] Creating layer roi_pool5_2
I0617 20:41:53.590008  6875 net.cpp:106] Creating Layer roi_pool5_2
I0617 20:41:53.590010  6875 net.cpp:454] roi_pool5_2 <- conv5_3_relu5_3_0_split_2
I0617 20:41:53.590013  6875 net.cpp:454] roi_pool5_2 <- rois_pos
I0617 20:41:53.590019  6875 net.cpp:411] roi_pool5_2 -> pool5_2
I0617 20:41:53.590024  6875 roi_alignment_layer.cpp:32] Spatial scale: 0.0625
I0617 20:41:53.590097  6875 net.cpp:150] Setting up roi_pool5_2
I0617 20:41:53.590101  6875 net.cpp:157] Top shape: 1 512 7 7 (25088)
I0617 20:41:53.590103  6875 net.cpp:165] Memory required for data: 1431560328
I0617 20:41:53.590106  6875 layer_factory.hpp:77] Creating layer pool5_2_conv
I0617 20:41:53.590122  6875 net.cpp:106] Creating Layer pool5_2_conv
I0617 20:41:53.590126  6875 net.cpp:454] pool5_2_conv <- pool5_2
I0617 20:41:53.590128  6875 net.cpp:411] pool5_2_conv -> pool5_2_conv
I0617 20:41:53.596738  6875 net.cpp:150] Setting up pool5_2_conv
I0617 20:41:53.596747  6875 net.cpp:157] Top shape: 1 512 7 7 (25088)
I0617 20:41:53.596750  6875 net.cpp:165] Memory required for data: 1431660680
I0617 20:41:53.596753  6875 layer_factory.hpp:77] Creating layer pool5_2_conv_relu
I0617 20:41:53.596767  6875 net.cpp:106] Creating Layer pool5_2_conv_relu
I0617 20:41:53.596771  6875 net.cpp:454] pool5_2_conv_relu <- pool5_2_conv
I0617 20:41:53.596773  6875 net.cpp:411] pool5_2_conv_relu -> pool5_2_conv_relu
I0617 20:41:53.596910  6875 net.cpp:150] Setting up pool5_2_conv_relu
I0617 20:41:53.596916  6875 net.cpp:157] Top shape: 1 512 7 7 (25088)
I0617 20:41:53.596918  6875 net.cpp:165] Memory required for data: 1431761032
I0617 20:41:53.596920  6875 layer_factory.hpp:77] Creating layer pool5_2_conv2
I0617 20:41:53.596936  6875 net.cpp:106] Creating Layer pool5_2_conv2
I0617 20:41:53.596940  6875 net.cpp:454] pool5_2_conv2 <- pool5_2_conv_relu
I0617 20:41:53.596942  6875 net.cpp:411] pool5_2_conv2 -> pool5_2_conv2
I0617 20:41:53.649193  6875 net.cpp:150] Setting up pool5_2_conv2
I0617 20:41:53.649209  6875 net.cpp:157] Top shape: 1 512 7 7 (25088)
I0617 20:41:53.649212  6875 net.cpp:165] Memory required for data: 1431861384
I0617 20:41:53.649230  6875 layer_factory.hpp:77] Creating layer pool5_2_conv2_relu
I0617 20:41:53.649237  6875 net.cpp:106] Creating Layer pool5_2_conv2_relu
I0617 20:41:53.649250  6875 net.cpp:454] pool5_2_conv2_relu <- pool5_2_conv2
I0617 20:41:53.649255  6875 net.cpp:411] pool5_2_conv2_relu -> pool5_2_conv2_relu
I0617 20:41:53.649408  6875 net.cpp:150] Setting up pool5_2_conv2_relu
I0617 20:41:53.649415  6875 net.cpp:157] Top shape: 1 512 7 7 (25088)
I0617 20:41:53.649416  6875 net.cpp:165] Memory required for data: 1431961736
I0617 20:41:53.649417  6875 layer_factory.hpp:77] Creating layer mask_deconv1
I0617 20:41:53.649435  6875 net.cpp:106] Creating Layer mask_deconv1
I0617 20:41:53.649436  6875 net.cpp:454] mask_deconv1 <- pool5_2_conv2_relu
I0617 20:41:53.649454  6875 net.cpp:411] mask_deconv1 -> mask_deconv1
I0617 20:41:53.650425  6875 net.cpp:150] Setting up mask_deconv1
I0617 20:41:53.650432  6875 net.cpp:157] Top shape: 1 256 30 30 (230400)
I0617 20:41:53.650434  6875 net.cpp:165] Memory required for data: 1432883336
I0617 20:41:53.650437  6875 layer_factory.hpp:77] Creating layer pool5_2_conv3
I0617 20:41:53.650445  6875 net.cpp:106] Creating Layer pool5_2_conv3
I0617 20:41:53.650449  6875 net.cpp:454] pool5_2_conv3 <- mask_deconv1
I0617 20:41:53.650454  6875 net.cpp:411] pool5_2_conv3 -> pool5_2_conv3
I0617 20:41:53.677839  6875 net.cpp:150] Setting up pool5_2_conv3
I0617 20:41:53.677867  6875 net.cpp:157] Top shape: 1 512 30 30 (460800)
I0617 20:41:53.677870  6875 net.cpp:165] Memory required for data: 1434726536
I0617 20:41:53.677876  6875 layer_factory.hpp:77] Creating layer pool5_2_conv3_relu
I0617 20:41:53.677894  6875 net.cpp:106] Creating Layer pool5_2_conv3_relu
I0617 20:41:53.677898  6875 net.cpp:454] pool5_2_conv3_relu <- pool5_2_conv3
I0617 20:41:53.677903  6875 net.cpp:411] pool5_2_conv3_relu -> pool5_2_conv3_relu
I0617 20:41:53.678043  6875 net.cpp:150] Setting up pool5_2_conv3_relu
I0617 20:41:53.678050  6875 net.cpp:157] Top shape: 1 512 30 30 (460800)
I0617 20:41:53.678061  6875 net.cpp:165] Memory required for data: 1436569736
I0617 20:41:53.678063  6875 layer_factory.hpp:77] Creating layer pool5_2_conv4
I0617 20:41:53.678071  6875 net.cpp:106] Creating Layer pool5_2_conv4
I0617 20:41:53.678073  6875 net.cpp:454] pool5_2_conv4 <- pool5_2_conv3_relu
I0617 20:41:53.678077  6875 net.cpp:411] pool5_2_conv4 -> pool5_2_conv4
I0617 20:41:53.727457  6875 net.cpp:150] Setting up pool5_2_conv4
I0617 20:41:53.727474  6875 net.cpp:157] Top shape: 1 512 30 30 (460800)
I0617 20:41:53.727476  6875 net.cpp:165] Memory required for data: 1438412936
I0617 20:41:53.727483  6875 layer_factory.hpp:77] Creating layer pool5_2_conv4_relu
I0617 20:41:53.727489  6875 net.cpp:106] Creating Layer pool5_2_conv4_relu
I0617 20:41:53.727504  6875 net.cpp:454] pool5_2_conv4_relu <- pool5_2_conv4
I0617 20:41:53.727509  6875 net.cpp:411] pool5_2_conv4_relu -> pool5_2_conv4_relu
I0617 20:41:53.727658  6875 net.cpp:150] Setting up pool5_2_conv4_relu
I0617 20:41:53.727663  6875 net.cpp:157] Top shape: 1 512 30 30 (460800)
I0617 20:41:53.727665  6875 net.cpp:165] Memory required for data: 1440256136
I0617 20:41:53.727666  6875 layer_factory.hpp:77] Creating layer pool5_2_conv4_relu_pool5_2_conv4_relu_0_split
I0617 20:41:53.727671  6875 net.cpp:106] Creating Layer pool5_2_conv4_relu_pool5_2_conv4_relu_0_split
I0617 20:41:53.727674  6875 net.cpp:454] pool5_2_conv4_relu_pool5_2_conv4_relu_0_split <- pool5_2_conv4_relu
I0617 20:41:53.727676  6875 net.cpp:411] pool5_2_conv4_relu_pool5_2_conv4_relu_0_split -> pool5_2_conv4_relu_pool5_2_conv4_relu_0_split_0
I0617 20:41:53.727679  6875 net.cpp:411] pool5_2_conv4_relu_pool5_2_conv4_relu_0_split -> pool5_2_conv4_relu_pool5_2_conv4_relu_0_split_1
I0617 20:41:53.727694  6875 net.cpp:411] pool5_2_conv4_relu_pool5_2_conv4_relu_0_split -> pool5_2_conv4_relu_pool5_2_conv4_relu_0_split_2
I0617 20:41:53.727696  6875 net.cpp:411] pool5_2_conv4_relu_pool5_2_conv4_relu_0_split -> pool5_2_conv4_relu_pool5_2_conv4_relu_0_split_3
I0617 20:41:53.727767  6875 net.cpp:150] Setting up pool5_2_conv4_relu_pool5_2_conv4_relu_0_split
I0617 20:41:53.727771  6875 net.cpp:157] Top shape: 1 512 30 30 (460800)
I0617 20:41:53.727772  6875 net.cpp:157] Top shape: 1 512 30 30 (460800)
I0617 20:41:53.727774  6875 net.cpp:157] Top shape: 1 512 30 30 (460800)
I0617 20:41:53.727777  6875 net.cpp:157] Top shape: 1 512 30 30 (460800)
I0617 20:41:53.727777  6875 net.cpp:165] Memory required for data: 1447628936
I0617 20:41:53.727779  6875 layer_factory.hpp:77] Creating layer query_conv
I0617 20:41:53.727785  6875 net.cpp:106] Creating Layer query_conv
I0617 20:41:53.727787  6875 net.cpp:454] query_conv <- pool5_2_conv4_relu_pool5_2_conv4_relu_0_split_0
I0617 20:41:53.727802  6875 net.cpp:411] query_conv -> query_conv
I0617 20:41:53.729319  6875 net.cpp:150] Setting up query_conv
I0617 20:41:53.729327  6875 net.cpp:157] Top shape: 1 64 30 30 (57600)
I0617 20:41:53.729329  6875 net.cpp:165] Memory required for data: 1447859336
I0617 20:41:53.729333  6875 layer_factory.hpp:77] Creating layer key_conv
I0617 20:41:53.729341  6875 net.cpp:106] Creating Layer key_conv
I0617 20:41:53.729342  6875 net.cpp:454] key_conv <- pool5_2_conv4_relu_pool5_2_conv4_relu_0_split_1
I0617 20:41:53.729357  6875 net.cpp:411] key_conv -> key_conv
I0617 20:41:53.731075  6875 net.cpp:150] Setting up key_conv
I0617 20:41:53.731091  6875 net.cpp:157] Top shape: 1 64 30 30 (57600)
I0617 20:41:53.731094  6875 net.cpp:165] Memory required for data: 1448089736
I0617 20:41:53.731102  6875 layer_factory.hpp:77] Creating layer value_conv
I0617 20:41:53.731117  6875 net.cpp:106] Creating Layer value_conv
I0617 20:41:53.731137  6875 net.cpp:454] value_conv <- pool5_2_conv4_relu_pool5_2_conv4_relu_0_split_2
I0617 20:41:53.731145  6875 net.cpp:411] value_conv -> value_conv
I0617 20:41:53.740046  6875 net.cpp:150] Setting up value_conv
I0617 20:41:53.740073  6875 net.cpp:157] Top shape: 1 512 30 30 (460800)
I0617 20:41:53.740077  6875 net.cpp:165] Memory required for data: 1449932936
I0617 20:41:53.740082  6875 layer_factory.hpp:77] Creating layer query_conv_reshape
I0617 20:41:53.740094  6875 net.cpp:106] Creating Layer query_conv_reshape
I0617 20:41:53.740100  6875 net.cpp:454] query_conv_reshape <- query_conv
I0617 20:41:53.740108  6875 net.cpp:411] query_conv_reshape -> query_conv_reshape
I0617 20:41:53.740141  6875 net.cpp:150] Setting up query_conv_reshape
I0617 20:41:53.740147  6875 net.cpp:157] Top shape: 1 64 900 1 (57600)
I0617 20:41:53.740159  6875 net.cpp:165] Memory required for data: 1450163336
I0617 20:41:53.740160  6875 layer_factory.hpp:77] Creating layer key_conv_reshape
I0617 20:41:53.740164  6875 net.cpp:106] Creating Layer key_conv_reshape
I0617 20:41:53.740166  6875 net.cpp:454] key_conv_reshape <- key_conv
I0617 20:41:53.740170  6875 net.cpp:411] key_conv_reshape -> key_conv_reshape
I0617 20:41:53.740200  6875 net.cpp:150] Setting up key_conv_reshape
I0617 20:41:53.740203  6875 net.cpp:157] Top shape: 1 64 900 1 (57600)
I0617 20:41:53.740204  6875 net.cpp:165] Memory required for data: 1450393736
I0617 20:41:53.740216  6875 layer_factory.hpp:77] Creating layer value_conv_reshape
I0617 20:41:53.740219  6875 net.cpp:106] Creating Layer value_conv_reshape
I0617 20:41:53.740221  6875 net.cpp:454] value_conv_reshape <- value_conv
I0617 20:41:53.740226  6875 net.cpp:411] value_conv_reshape -> value_conv_reshape
I0617 20:41:53.740252  6875 net.cpp:150] Setting up value_conv_reshape
I0617 20:41:53.740257  6875 net.cpp:157] Top shape: 1 512 900 1 (460800)
I0617 20:41:53.740257  6875 net.cpp:165] Memory required for data: 1452236936
I0617 20:41:53.740259  6875 layer_factory.hpp:77] Creating layer query_conv_reshape_perm
I0617 20:41:53.740278  6875 net.cpp:106] Creating Layer query_conv_reshape_perm
I0617 20:41:53.740280  6875 net.cpp:454] query_conv_reshape_perm <- query_conv_reshape
I0617 20:41:53.740285  6875 net.cpp:411] query_conv_reshape_perm -> query_conv_reshape_perm
I0617 20:41:53.740351  6875 net.cpp:150] Setting up query_conv_reshape_perm
I0617 20:41:53.740356  6875 net.cpp:157] Top shape: 1 1 900 64 (57600)
I0617 20:41:53.740360  6875 net.cpp:165] Memory required for data: 1452467336
I0617 20:41:53.740362  6875 layer_factory.hpp:77] Creating layer key_conv_reshape_perm
I0617 20:41:53.740368  6875 net.cpp:106] Creating Layer key_conv_reshape_perm
I0617 20:41:53.740371  6875 net.cpp:454] key_conv_reshape_perm <- key_conv_reshape
I0617 20:41:53.740375  6875 net.cpp:411] key_conv_reshape_perm -> key_conv_reshape_perm
I0617 20:41:53.740435  6875 net.cpp:150] Setting up key_conv_reshape_perm
I0617 20:41:53.740439  6875 net.cpp:157] Top shape: 1 1 64 900 (57600)
I0617 20:41:53.740443  6875 net.cpp:165] Memory required for data: 1452697736
I0617 20:41:53.740445  6875 layer_factory.hpp:77] Creating layer energy
I0617 20:41:53.740451  6875 net.cpp:106] Creating Layer energy
I0617 20:41:53.740454  6875 net.cpp:454] energy <- query_conv_reshape_perm
I0617 20:41:53.740458  6875 net.cpp:454] energy <- key_conv_reshape_perm
I0617 20:41:53.740464  6875 net.cpp:411] energy -> energy
I0617 20:41:53.740479  6875 net.cpp:150] Setting up energy
I0617 20:41:53.740483  6875 net.cpp:157] Top shape: 1 1 900 900 (810000)
I0617 20:41:53.740484  6875 net.cpp:165] Memory required for data: 1455937736
I0617 20:41:53.740486  6875 layer_factory.hpp:77] Creating layer attention
I0617 20:41:53.740491  6875 net.cpp:106] Creating Layer attention
I0617 20:41:53.740495  6875 net.cpp:454] attention <- energy
I0617 20:41:53.740499  6875 net.cpp:411] attention -> attention
I0617 20:41:53.740659  6875 net.cpp:150] Setting up attention
I0617 20:41:53.740665  6875 net.cpp:157] Top shape: 1 1 900 900 (810000)
I0617 20:41:53.740667  6875 net.cpp:165] Memory required for data: 1459177736
I0617 20:41:53.740669  6875 layer_factory.hpp:77] Creating layer value_conv_reshape_perm
I0617 20:41:53.740672  6875 net.cpp:106] Creating Layer value_conv_reshape_perm
I0617 20:41:53.740674  6875 net.cpp:454] value_conv_reshape_perm <- value_conv_reshape
I0617 20:41:53.740677  6875 net.cpp:411] value_conv_reshape_perm -> value_conv_reshape_perm
I0617 20:41:53.740743  6875 net.cpp:150] Setting up value_conv_reshape_perm
I0617 20:41:53.740748  6875 net.cpp:157] Top shape: 1 1 512 900 (460800)
I0617 20:41:53.740752  6875 net.cpp:165] Memory required for data: 1461020936
I0617 20:41:53.740754  6875 layer_factory.hpp:77] Creating layer attention_perm
I0617 20:41:53.740759  6875 net.cpp:106] Creating Layer attention_perm
I0617 20:41:53.740762  6875 net.cpp:454] attention_perm <- attention
I0617 20:41:53.740767  6875 net.cpp:411] attention_perm -> attention_perm
I0617 20:41:53.740829  6875 net.cpp:150] Setting up attention_perm
I0617 20:41:53.740833  6875 net.cpp:157] Top shape: 1 1 900 900 (810000)
I0617 20:41:53.740837  6875 net.cpp:165] Memory required for data: 1464260936
I0617 20:41:53.740839  6875 layer_factory.hpp:77] Creating layer out
I0617 20:41:53.740844  6875 net.cpp:106] Creating Layer out
I0617 20:41:53.740847  6875 net.cpp:454] out <- value_conv_reshape_perm
I0617 20:41:53.740851  6875 net.cpp:454] out <- attention_perm
I0617 20:41:53.740855  6875 net.cpp:411] out -> out
I0617 20:41:53.740871  6875 net.cpp:150] Setting up out
I0617 20:41:53.740875  6875 net.cpp:157] Top shape: 1 1 512 900 (460800)
I0617 20:41:53.740878  6875 net.cpp:165] Memory required for data: 1466104136
I0617 20:41:53.740881  6875 layer_factory.hpp:77] Creating layer out_reshape
I0617 20:41:53.740890  6875 net.cpp:106] Creating Layer out_reshape
I0617 20:41:53.740891  6875 net.cpp:454] out_reshape <- out
I0617 20:41:53.740896  6875 net.cpp:411] out_reshape -> out_reshape
I0617 20:41:53.740912  6875 net.cpp:150] Setting up out_reshape
I0617 20:41:53.740916  6875 net.cpp:157] Top shape: 1 512 30 30 (460800)
I0617 20:41:53.740919  6875 net.cpp:165] Memory required for data: 1467947336
I0617 20:41:53.740922  6875 layer_factory.hpp:77] Creating layer out_reshape_scale
I0617 20:41:53.740931  6875 net.cpp:106] Creating Layer out_reshape_scale
I0617 20:41:53.740934  6875 net.cpp:454] out_reshape_scale <- out_reshape
I0617 20:41:53.740938  6875 net.cpp:411] out_reshape_scale -> out_reshape_scale
I0617 20:41:53.740998  6875 net.cpp:150] Setting up out_reshape_scale
I0617 20:41:53.741003  6875 net.cpp:157] Top shape: 1 512 30 30 (460800)
I0617 20:41:53.741006  6875 net.cpp:165] Memory required for data: 1469790536
I0617 20:41:53.741009  6875 layer_factory.hpp:77] Creating layer out_x
I0617 20:41:53.741019  6875 net.cpp:106] Creating Layer out_x
I0617 20:41:53.741021  6875 net.cpp:454] out_x <- out_reshape_scale
I0617 20:41:53.741025  6875 net.cpp:454] out_x <- pool5_2_conv4_relu_pool5_2_conv4_relu_0_split_3
I0617 20:41:53.741029  6875 net.cpp:411] out_x -> out_x
I0617 20:41:53.741050  6875 net.cpp:150] Setting up out_x
I0617 20:41:53.741052  6875 net.cpp:157] Top shape: 1 512 30 30 (460800)
I0617 20:41:53.741056  6875 net.cpp:165] Memory required for data: 1471633736
I0617 20:41:53.741058  6875 layer_factory.hpp:77] Creating layer mask_deconv2
I0617 20:41:53.741066  6875 net.cpp:106] Creating Layer mask_deconv2
I0617 20:41:53.741070  6875 net.cpp:454] mask_deconv2 <- out_x
I0617 20:41:53.741075  6875 net.cpp:411] mask_deconv2 -> mask_deconv2
I0617 20:41:53.741866  6875 net.cpp:150] Setting up mask_deconv2
I0617 20:41:53.741873  6875 net.cpp:157] Top shape: 1 256 122 122 (3810304)
I0617 20:41:53.741875  6875 net.cpp:165] Memory required for data: 1486874952
I0617 20:41:53.741881  6875 layer_factory.hpp:77] Creating layer mask_deconv2_mask_deconv2_0_split
I0617 20:41:53.741886  6875 net.cpp:106] Creating Layer mask_deconv2_mask_deconv2_0_split
I0617 20:41:53.741889  6875 net.cpp:454] mask_deconv2_mask_deconv2_0_split <- mask_deconv2
I0617 20:41:53.741894  6875 net.cpp:411] mask_deconv2_mask_deconv2_0_split -> mask_deconv2_mask_deconv2_0_split_0
I0617 20:41:53.741899  6875 net.cpp:411] mask_deconv2_mask_deconv2_0_split -> mask_deconv2_mask_deconv2_0_split_1
I0617 20:41:53.741927  6875 net.cpp:150] Setting up mask_deconv2_mask_deconv2_0_split
I0617 20:41:53.741931  6875 net.cpp:157] Top shape: 1 256 122 122 (3810304)
I0617 20:41:53.741935  6875 net.cpp:157] Top shape: 1 256 122 122 (3810304)
I0617 20:41:53.741938  6875 net.cpp:165] Memory required for data: 1517357384
I0617 20:41:53.741941  6875 layer_factory.hpp:77] Creating layer pool5_2_conv5
I0617 20:41:53.741950  6875 net.cpp:106] Creating Layer pool5_2_conv5
I0617 20:41:53.741953  6875 net.cpp:454] pool5_2_conv5 <- mask_deconv2_mask_deconv2_0_split_0
I0617 20:41:53.741958  6875 net.cpp:411] pool5_2_conv5 -> pool5_2_conv5
I0617 20:41:53.768363  6875 net.cpp:150] Setting up pool5_2_conv5
I0617 20:41:53.768380  6875 net.cpp:157] Top shape: 1 512 122 122 (7620608)
I0617 20:41:53.768383  6875 net.cpp:165] Memory required for data: 1547839816
I0617 20:41:53.768388  6875 layer_factory.hpp:77] Creating layer pool5_2_conv5_relu
I0617 20:41:53.768395  6875 net.cpp:106] Creating Layer pool5_2_conv5_relu
I0617 20:41:53.768410  6875 net.cpp:454] pool5_2_conv5_relu <- pool5_2_conv5
I0617 20:41:53.768414  6875 net.cpp:411] pool5_2_conv5_relu -> pool5_2_conv5_relu
I0617 20:41:53.768554  6875 net.cpp:150] Setting up pool5_2_conv5_relu
I0617 20:41:53.768560  6875 net.cpp:157] Top shape: 1 512 122 122 (7620608)
I0617 20:41:53.768561  6875 net.cpp:165] Memory required for data: 1578322248
I0617 20:41:53.768563  6875 layer_factory.hpp:77] Creating layer pool5_2_conv6
I0617 20:41:53.768571  6875 net.cpp:106] Creating Layer pool5_2_conv6
I0617 20:41:53.768574  6875 net.cpp:454] pool5_2_conv6 <- pool5_2_conv5_relu
I0617 20:41:53.768577  6875 net.cpp:411] pool5_2_conv6 -> pool5_2_conv6
I0617 20:41:53.818490  6875 net.cpp:150] Setting up pool5_2_conv6
I0617 20:41:53.818506  6875 net.cpp:157] Top shape: 1 512 122 122 (7620608)
I0617 20:41:53.818509  6875 net.cpp:165] Memory required for data: 1608804680
I0617 20:41:53.818522  6875 layer_factory.hpp:77] Creating layer pool5_2_conv6_relu
I0617 20:41:53.818540  6875 net.cpp:106] Creating Layer pool5_2_conv6_relu
I0617 20:41:53.818544  6875 net.cpp:454] pool5_2_conv6_relu <- pool5_2_conv6
I0617 20:41:53.818558  6875 net.cpp:411] pool5_2_conv6_relu -> pool5_2_conv6_relu
I0617 20:41:53.819073  6875 net.cpp:150] Setting up pool5_2_conv6_relu
I0617 20:41:53.819082  6875 net.cpp:157] Top shape: 1 512 122 122 (7620608)
I0617 20:41:53.819083  6875 net.cpp:165] Memory required for data: 1639287112
I0617 20:41:53.819085  6875 layer_factory.hpp:77] Creating layer mask_deconv3
I0617 20:41:53.819092  6875 net.cpp:106] Creating Layer mask_deconv3
I0617 20:41:53.819093  6875 net.cpp:454] mask_deconv3 <- pool5_2_conv6_relu
I0617 20:41:53.819097  6875 net.cpp:411] mask_deconv3 -> mask_deconv3
I0617 20:41:53.819465  6875 net.cpp:150] Setting up mask_deconv3
I0617 20:41:53.819470  6875 net.cpp:157] Top shape: 1 256 244 244 (15241216)
I0617 20:41:53.819471  6875 net.cpp:165] Memory required for data: 1700251976
I0617 20:41:53.819475  6875 layer_factory.hpp:77] Creating layer mask_score
I0617 20:41:53.819480  6875 net.cpp:106] Creating Layer mask_score
I0617 20:41:53.819483  6875 net.cpp:454] mask_score <- mask_deconv3
I0617 20:41:53.819486  6875 net.cpp:411] mask_score -> mask_score
I0617 20:41:53.820067  6875 net.cpp:150] Setting up mask_score
I0617 20:41:53.820075  6875 net.cpp:157] Top shape: 1 8 244 244 (476288)
I0617 20:41:53.820076  6875 net.cpp:165] Memory required for data: 1702157128
I0617 20:41:53.820080  6875 layer_factory.hpp:77] Creating layer loss_mask
I0617 20:41:53.820086  6875 net.cpp:106] Creating Layer loss_mask
I0617 20:41:53.820087  6875 net.cpp:454] loss_mask <- mask_score
I0617 20:41:53.820091  6875 net.cpp:454] loss_mask <- mask_targets_roi-data_5_split_0
I0617 20:41:53.820093  6875 net.cpp:411] loss_mask -> loss_mask
I0617 20:41:53.820108  6875 layer_factory.hpp:77] Creating layer loss_mask
I0617 20:41:53.821346  6875 net.cpp:150] Setting up loss_mask
I0617 20:41:53.821353  6875 net.cpp:157] Top shape: (1)
I0617 20:41:53.821354  6875 net.cpp:160]     with loss weight 3
I0617 20:41:53.821360  6875 net.cpp:165] Memory required for data: 1702157132
I0617 20:41:53.821372  6875 layer_factory.hpp:77] Creating layer pool5_2_conv5_2
I0617 20:41:53.821382  6875 net.cpp:106] Creating Layer pool5_2_conv5_2
I0617 20:41:53.821384  6875 net.cpp:454] pool5_2_conv5_2 <- mask_deconv2_mask_deconv2_0_split_1
I0617 20:41:53.821388  6875 net.cpp:411] pool5_2_conv5_2 -> pool5_2_conv5_2
I0617 20:41:53.847645  6875 net.cpp:150] Setting up pool5_2_conv5_2
I0617 20:41:53.847661  6875 net.cpp:157] Top shape: 1 512 122 122 (7620608)
I0617 20:41:53.847664  6875 net.cpp:165] Memory required for data: 1732639564
I0617 20:41:53.847671  6875 layer_factory.hpp:77] Creating layer pool5_2_conv5_2_relu
I0617 20:41:53.847678  6875 net.cpp:106] Creating Layer pool5_2_conv5_2_relu
I0617 20:41:53.847682  6875 net.cpp:454] pool5_2_conv5_2_relu <- pool5_2_conv5_2
I0617 20:41:53.847697  6875 net.cpp:411] pool5_2_conv5_2_relu -> pool5_2_conv5_2_relu
I0617 20:41:53.847857  6875 net.cpp:150] Setting up pool5_2_conv5_2_relu
I0617 20:41:53.847873  6875 net.cpp:157] Top shape: 1 512 122 122 (7620608)
I0617 20:41:53.847875  6875 net.cpp:165] Memory required for data: 1763121996
I0617 20:41:53.847887  6875 layer_factory.hpp:77] Creating layer mask_deconv3_2
I0617 20:41:53.847893  6875 net.cpp:106] Creating Layer mask_deconv3_2
I0617 20:41:53.847895  6875 net.cpp:454] mask_deconv3_2 <- pool5_2_conv5_2_relu
I0617 20:41:53.847900  6875 net.cpp:411] mask_deconv3_2 -> mask_deconv3_2
I0617 20:41:53.848897  6875 net.cpp:150] Setting up mask_deconv3_2
I0617 20:41:53.848906  6875 net.cpp:157] Top shape: 1 256 244 244 (15241216)
I0617 20:41:53.848917  6875 net.cpp:165] Memory required for data: 1824086860
I0617 20:41:53.848922  6875 layer_factory.hpp:77] Creating layer mask_score_2
I0617 20:41:53.848930  6875 net.cpp:106] Creating Layer mask_score_2
I0617 20:41:53.848942  6875 net.cpp:454] mask_score_2 <- mask_deconv3_2
I0617 20:41:53.848948  6875 net.cpp:411] mask_score_2 -> mask_score_2
I0617 20:41:53.850302  6875 net.cpp:150] Setting up mask_score_2
I0617 20:41:53.850311  6875 net.cpp:157] Top shape: 1 8 244 244 (476288)
I0617 20:41:53.850312  6875 net.cpp:165] Memory required for data: 1825992012
I0617 20:41:53.850317  6875 layer_factory.hpp:77] Creating layer loss_mask_2
I0617 20:41:53.850322  6875 net.cpp:106] Creating Layer loss_mask_2
I0617 20:41:53.850324  6875 net.cpp:454] loss_mask_2 <- mask_score_2
I0617 20:41:53.850327  6875 net.cpp:454] loss_mask_2 <- mask_targets_roi-data_5_split_1
I0617 20:41:53.850330  6875 net.cpp:411] loss_mask_2 -> loss_mask_2
…
