…
average_loss: 100
iter_size: 2
I0611 15:29:33.874258 24002 solver.cpp:81] Creating training net from train_net file: models/pascal_voc/VGG16/faster_rcnn_end2end/train.prototxt
I0611 15:29:33.875730 24002 net.cpp:49] Initializing net from parameters: 
name: "VGG_ILSVRC_16_layers"
state {
  phase: TRAIN
}
layer {
  name: "input-data"
  type: "Python"
  top: "data"
  top: "im_info"
  top: "gt_boxes"
  top: "seg_mask_inds"
  top: "flipped"
  python_param {
    module: "roi_data_layer.layer"
    layer: "RoIDataLayer"
    param_str: "\'num_classes\': 2"
  }
}
layer {
  name: "conv1_1"
  type: "Convolution"
  bottom: "data"
  top: "conv1_1"
  param {
    lr_mult: 0
    decay_mult: 0
  }
  param {
    lr_mult: 0
    decay_mult: 0
  }
  convolution_param {
    num_output: 64
    pad: 1
    kernel_size: 3
  }
}
layer {
  name: "relu1_1"
  type: "ReLU"
  bottom: "conv1_1"
  top: "conv1_1"
}
layer {
  name: "conv1_2"
  type: "Convolution"
  bottom: "conv1_1"
  top: "conv1_2"
  param {
    lr_mult: 0
    decay_mult: 0
  }
  param {
    lr_mult: 0
    decay_mult: 0
  }
  convolution_param {
    num_output: 64
    pad: 1
    kernel_size: 3
  }
}
layer {
  name: "relu1_2"
  type: "ReLU"
  bottom: "conv1_2"
  top: "conv1_2"
}
layer {
  name: "pool1"
  type: "Pooling"
  bottom: "conv1_2"
  top: "pool1"
  pooling_param {
    pool: MAX
    kernel_size: 2
    stride: 2
  }
}
layer {
  name: "conv2_1"
  type: "Convolution"
  bottom: "pool1"
  top: "conv2_1"
  param {
    lr_mult: 0
    decay_mult: 0
  }
  param {
    lr_mult: 0
    decay_mult: 0
  }
  convolution_param {
    num_output: 128
    pad: 1
    kernel_size: 3
  }
}
layer {
  name: "relu2_1"
  type: "ReLU"
  bottom: "conv2_1"
  top: "conv2_1"
}
layer {
  name: "conv2_2"
  type: "Convolution"
  bottom: "conv2_1"
  top: "conv2_2"
  param {
    lr_mult: 0
    decay_mult: 0
  }
  param {
    lr_mult: 0
    decay_mult: 0
  }
  convolution_param {
    num_output: 128
    pad: 1
    kernel_size: 3
  }
}
layer {
  name: "relu2_2"
  type: "ReLU"
  bottom: "conv2_2"
  top: "conv2_2"
}
layer {
  name: "pool2"
  type: "Pooling"
  bottom: "conv2_2"
  top: "pool2"
  pooling_param {
    pool: MAX
    kernel_size: 2
    stride: 2
  }
}
layer {
  name: "conv3_1"
  type: "Convolution"
  bottom: "pool2"
  top: "conv3_1"
  param {
    lr_mult: 1
  }
  param {
    lr_mult: 2
  }
  convolution_param {
    num_output: 256
    pad: 1
    kernel_size: 3
  }
}
layer {
  name: "relu3_1"
  type: "ReLU"
  bottom: "conv3_1"
  top: "conv3_1"
}
layer {
  name: "conv3_2"
  type: "Convolution"
  bottom: "conv3_1"
  top: "conv3_2"
  param {
    lr_mult: 1
  }
  param {
    lr_mult: 2
  }
  convolution_param {
    num_output: 256
    pad: 1
    kernel_size: 3
  }
}
layer {
  name: "relu3_2"
  type: "ReLU"
  bottom: "conv3_2"
  top: "conv3_2"
}
layer {
  name: "conv3_3"
  type: "Convolution"
  bottom: "conv3_2"
  top: "conv3_3"
  param {
    lr_mult: 1
  }
  param {
    lr_mult: 2
  }
  convolution_param {
    num_output: 256
    pad: 1
    kernel_size: 3
  }
}
layer {
  name: "relu3_3"
  type: "ReLU"
  bottom: "conv3_3"
  top: "conv3_3"
}
layer {
  name: "pool3"
  type: "Pooling"
  bottom: "conv3_3"
  top: "pool3"
  pooling_param {
    pool: MAX
    kernel_size: 2
    stride: 2
  }
}
layer {
  name: "conv4_1"
  type: "Convolution"
  bottom: "pool3"
  top: "conv4_1"
  param {
    lr_mult: 1
  }
  param {
    lr_mult: 2
  }
  convolution_param {
    num_output: 512
    pad: 1
    kernel_size: 3
  }
}
layer {
  name: "relu4_1"
  type: "ReLU"
  bottom: "conv4_1"
  top: "conv4_1"
}
layer {
  name: "conv4_2"
  type: "Convolution"
  bottom: "conv4_1"
  top: "conv4_2"
  param {
    lr_mult: 1
  }
  param {
    lr_mult: 2
  }
  convolution_param {
    num_output: 512
    pad: 1
    kernel_size: 3
  }
}
layer {
  name: "relu4_2"
  type: "ReLU"
  bottom: "conv4_2"
  top: "conv4_2"
}
layer {
  name: "conv4_3"
  type: "Convolution"
  bottom: "conv4_2"
  top: "conv4_3"
  param {
    lr_mult: 1
  }
  param {
    lr_mult: 2
  }
  convolution_param {
    num_output: 512
    pad: 1
    kernel_size: 3
  }
}
layer {
  name: "relu4_3"
  type: "ReLU"
  bottom: "conv4_3"
  top: "conv4_3"
}
layer {
  name: "pool4"
  type: "Pooling"
  bottom: "conv4_3"
  top: "pool4"
  pooling_param {
    pool: MAX
    kernel_size: 2
    stride: 2
  }
}
layer {
  name: "conv5_1"
  type: "Convolution"
  bottom: "pool4"
  top: "conv5_1"
  param {
    lr_mult: 1
  }
  param {
    lr_mult: 2
  }
  convolution_param {
    num_output: 512
    pad: 1
    kernel_size: 3
  }
}
layer {
  name: "relu5_1"
  type: "ReLU"
  bottom: "conv5_1"
  top: "conv5_1"
}
layer {
  name: "conv5_2"
  type: "Convolution"
  bottom: "conv5_1"
  top: "conv5_2"
  param {
    lr_mult: 1
  }
  param {
    lr_mult: 2
  }
  convolution_param {
    num_output: 512
    pad: 1
    kernel_size: 3
  }
}
layer {
  name: "relu5_2"
  type: "ReLU"
  bottom: "conv5_2"
  top: "conv5_2"
}
layer {
  name: "conv5_3"
  type: "Convolution"
  bottom: "conv5_2"
  top: "conv5_3"
  param {
    lr_mult: 1
  }
  param {
    lr_mult: 2
  }
  convolution_param {
    num_output: 512
    pad: 1
    kernel_size: 3
  }
}
layer {
  name: "relu5_3"
  type: "ReLU"
  bottom: "conv5_3"
  top: "conv5_3"
}
layer {
  name: "rpn_conv/3x3"
  type: "Convolution"
  bottom: "conv5_3"
  top: "rpn/output"
  param {
    lr_mult: 1
  }
  param {
    lr_mult: 2
  }
  convolution_param {
    num_output: 512
    pad: 1
    kernel_size: 3
    stride: 1
    weight_filler {
      type: "gaussian"
      std: 0.01
    }
    bias_filler {
      type: "constant"
      value: 0
    }
  }
}
layer {
  name: "rpn_relu/3x3"
  type: "ReLU"
  bottom: "rpn/output"
  top: "rpn/output"
}
layer {
  name: "rpn_cls_score"
  type: "Convolution"
  bottom: "rpn/output"
  top: "rpn_cls_score"
  param {
    lr_mult: 1
  }
  param {
    lr_mult: 2
  }
  convolution_param {
    num_output: 30
    pad: 0
    kernel_size: 1
    stride: 1
    weight_filler {
      type: "gaussian"
      std: 0.01
    }
    bias_filler {
      type: "constant"
      value: 0
    }
  }
}
layer {
  name: "rpn_bbox_pred"
  type: "Convolution"
  bottom: "rpn/output"
  top: "rpn_bbox_pred"
  param {
    lr_mult: 1
  }
  param {
    lr_mult: 2
  }
  convolution_param {
    num_output: 60
    pad: 0
    kernel_size: 1
    stride: 1
    weight_filler {
      type: "gaussian"
      std: 0.01
    }
    bias_filler {
      type: "constant"
      value: 0
    }
  }
}
layer {
  name: "rpn_cls_score_reshape"
  type: "Reshape"
  bottom: "rpn_cls_score"
  top: "rpn_cls_score_reshape"
  reshape_param {
    shape {
      dim: 0
      dim: 2
      dim: -1
      dim: 0
    }
  }
}
layer {
  name: "rpn-data"
  type: "Python"
  bottom: "rpn_cls_score"
  bottom: "gt_boxes"
  bottom: "im_info"
  bottom: "data"
  top: "rpn_labels"
  top: "rpn_bbox_targets"
  top: "rpn_bbox_inside_weights"
  top: "rpn_bbox_outside_weights"
  python_param {
    module: "rpn.anchor_target_layer"
    layer: "AnchorTargetLayer"
    param_str: "\'feat_stride\': 16 \n\'scales\': !!python/tuple [2, 4, 8, 16, 32]"
  }
}
layer {
  name: "rpn_loss_cls"
  type: "SoftmaxWithLoss"
  bottom: "rpn_cls_score_reshape"
  bottom: "rpn_labels"
  top: "rpn_cls_loss"
  loss_weight: 1
  propagate_down: true
  propagate_down: false
  loss_param {
    ignore_label: -1
    normalize: true
  }
}
layer {
  name: "rpn_loss_bbox"
  type: "SmoothL1Loss"
  bottom: "rpn_bbox_pred"
  bottom: "rpn_bbox_targets"
  bottom: "rpn_bbox_inside_weights"
  bottom: "rpn_bbox_outside_weights"
  top: "rpn_loss_bbox"
  loss_weight: 1
  smooth_l1_loss_param {
    sigma: 3
  }
}
layer {
  name: "rpn_cls_prob"
  type: "Softmax"
  bottom: "rpn_cls_score_reshape"
  top: "rpn_cls_prob"
}
layer {
  name: "rpn_cls_prob_reshape"
  type: "Reshape"
  bottom: "rpn_cls_prob"
  top: "rpn_cls_prob_reshape"
  reshape_param {
    shape {
      dim: 0
      dim: 30
      dim: -1
      dim: 0
    }
  }
}
layer {
  name: "proposal"
  type: "Python"
  bottom: "rpn_cls_prob_reshape"
  bottom: "rpn_bbox_pred"
  bottom: "im_info"
  top: "rpn_rois"
  python_param {
    module: "rpn.proposal_layer"
    layer: "ProposalLayer"
    param_str: "\'feat_stride\': 16 \n\'scales\': !!python/tuple [2, 4, 8, 16, 32]"
  }
}
layer {
  name: "roi-data"
  type: "Python"
  bottom: "rpn_rois"
  bottom: "gt_boxes"
  bottom: "im_info"
  bottom: "seg_mask_inds"
  bottom: "flipped"
  top: "rois"
  top: "labels"
  top: "bbox_targets"
  top: "bbox_inside_weights"
  top: "bbox_outside_weights"
  top: "mask_targets"
  top: "rois_pos"
  top: "attrArray"
  python_param {
    module: "rpn.proposal_target_layer"
    layer: "ProposalTargetLayer"
    param_str: "\'num_classes\': 2"
  }
}
layer {
  name: "roi_pool5"
  type: "ROIAlignment"
  bottom: "conv5_3"
  bottom: "rois"
  top: "pool5"
  roi_alignment_param {
    pooled_h: 7
    pooled_w: 7
    spatial_scale: 0.0625
  }
}
layer {
  name: "fc6"
  type: "InnerProduct"
  bottom: "pool5"
  top: "fc6"
  param {
    lr_mult: 1
  }
  param {
    lr_mult: 2
  }
  inner_product_param {
    num_output: 4096
  }
}
layer {
  name: "relu6"
  type: "ReLU"
  bottom: "fc6"
  top: "fc6"
}
layer {
  name: "fc7"
  type: "InnerProduct"
  bottom: "fc6"
  top: "fc7"
  param {
    lr_mult: 1
  }
  param {
    lr_mult: 2
  }
  inner_product_param {
    num_output: 4096
  }
}
layer {
  name: "relu7"
  type: "ReLU"
  bottom: "fc7"
  top: "fc7"
}
layer {
  name: "attr_score"
  type: "InnerProduct"
  bottom: "fc7"
  top: "attr_score"
  param {
    lr_mult: 1
  }
  param {
    lr_mult: 2
  }
  inner_product_param {
    num_output: 7
    weight_filler {
      type: "gaussian"
      std: 0.001
    }
    bias_filler {
      type: "constant"
      value: 0
    }
  }
}
layer {
  name: "cls_score"
  type: "InnerProduct"
  bottom: "fc7"
  top: "cls_score"
  param {
    lr_mult: 1
  }
  param {
    lr_mult: 2
  }
  inner_product_param {
    num_output: 2
    weight_filler {
      type: "gaussian"
      std: 0.01
    }
    bias_filler {
      type: "constant"
      value: 0
    }
  }
}
layer {
  name: "bbox_pred"
  type: "InnerProduct"
  bottom: "fc7"
  top: "bbox_pred"
  param {
    lr_mult: 1
  }
  param {
    lr_mult: 2
  }
  inner_product_param {
    num_output: 8
    weight_filler {
      type: "gaussian"
      std: 0.001
    }
    bias_filler {
      type: "constant"
      value: 0
    }
  }
}
layer {
  name: "loss_attribute"
  type: "SigmoidCrossEntropyLoss"
  bottom: "attr_score"
  bottom: "attrArray"
  top: "loss_attribute"
  loss_weight: 0.1
  propagate_down: true
  propagate_down: false
}
layer {
  name: "loss_cls"
  type: "SoftmaxWithLoss"
  bottom: "cls_score"
  bottom: "labels"
  top: "loss_cls"
  loss_weight: 3
  propagate_down: true
  propagate_down: false
}
layer {
  name: "loss_bbox"
  type: "SmoothL1Loss"
  bottom: "bbox_pred"
  bottom: "bbox_targets"
  bottom: "bbox_inside_weights"
  bottom: "bbox_outside_weights"
  top: "loss_bbox"
  loss_weight: 2
}
layer {
  name: "roi_pool5_2"
  type: "ROIAlignment"
  bottom: "conv5_3"
  bottom: "rois_pos"
  top: "pool5_2"
  roi_alignment_param {
    pooled_h: 7
    pooled_w: 7
    spatial_scale: 0.0625
  }
}
layer {
  name: "pool5_2_conv"
  type: "Convolution"
  bottom: "pool5_2"
  top: "pool5_2_conv"
  param {
    lr_mult: 1
    decay_mult: 1
  }
  param {
    lr_mult: 2
    decay_mult: 0
  }
  convolution_param {
    num_output: 512
    pad: 0
    kernel_size: 1
    weight_filler {
      type: "gaussian"
      std: 0.01
    }
    bias_filler {
      type: "constant"
      value: 0
    }
  }
}
layer {
  name: "pool5_2_conv_relu"
  type: "ReLU"
  bottom: "pool5_2_conv"
  top: "pool5_2_conv_relu"
}
layer {
  name: "pool5_2_conv2"
  type: "Convolution"
  bottom: "pool5_2_conv_relu"
  top: "pool5_2_conv2"
  param {
    lr_mult: 1
    decay_mult: 1
  }
  param {
    lr_mult: 2
    decay_mult: 0
  }
  convolution_param {
    num_output: 512
    pad: 1
    kernel_size: 3
    stride: 1
    weight_filler {
      type: "gaussian"
      std: 0.01
    }
    bias_filler {
      type: "constant"
      value: 0
    }
  }
}
layer {
  name: "pool5_2_conv2_relu"
  type: "ReLU"
  bottom: "pool5_2_conv2"
  top: "pool5_2_conv2_relu"
}
layer {
  name: "mask_deconv1"
  type: "Deconvolution"
  bottom: "pool5_2_conv2_relu"
  top: "mask_deconv1"
  param {
    lr_mult: 1
    decay_mult: 1
  }
  param {
    lr_mult: 2
    decay_mult: 0
  }
  convolution_param {
    num_output: 256
    pad: 1
    kernel_size: 8
    group: 256
    stride: 4
    weight_filler {
      type: "bilinear"
    }
  }
}
layer {
  name: "pool5_2_conv3"
  type: "Convolution"
  bottom: "mask_deconv1"
  top: "pool5_2_conv3"
  param {
    lr_mult: 1
    decay_mult: 1
  }
  param {
    lr_mult: 2
    decay_mult: 0
  }
  convolution_param {
    num_output: 512
    pad: 1
    kernel_size: 3
    stride: 1
    weight_filler {
      type: "gaussian"
      std: 0.01
    }
    bias_filler {
      type: "constant"
      value: 0
    }
  }
}
layer {
  name: "pool5_2_conv3_relu"
  type: "ReLU"
  bottom: "pool5_2_conv3"
  top: "pool5_2_conv3_relu"
}
layer {
  name: "pool5_2_conv4"
  type: "Convolution"
  bottom: "pool5_2_conv3_relu"
  top: "pool5_2_conv4"
  param {
    lr_mult: 1
    decay_mult: 1
  }
  param {
    lr_mult: 2
    decay_mult: 0
  }
  convolution_param {
    num_output: 512
    pad: 1
    kernel_size: 3
    stride: 1
    weight_filler {
      type: "gaussian"
      std: 0.01
    }
    bias_filler {
      type: "constant"
      value: 0
    }
  }
}
layer {
  name: "pool5_2_conv4_relu"
  type: "ReLU"
  bottom: "pool5_2_conv4"
  top: "pool5_2_conv4_relu"
}
layer {
  name: "query_conv"
  type: "Convolution"
  bottom: "pool5_2_conv4_relu"
  top: "query_conv"
  param {
    lr_mult: 1
    decay_mult: 1
  }
  param {
    lr_mult: 2
    decay_mult: 0
  }
  convolution_param {
    num_output: 64
    pad: 0
    kernel_size: 1
    stride: 1
    weight_filler {
      type: "gaussian"
      std: 0.01
    }
    bias_filler {
      type: "constant"
      value: 0
    }
  }
}
layer {
  name: "key_conv"
  type: "Convolution"
  bottom: "pool5_2_conv4_relu"
  top: "key_conv"
  param {
    lr_mult: 1
    decay_mult: 1
  }
  param {
    lr_mult: 2
    decay_mult: 0
  }
  convolution_param {
    num_output: 64
    pad: 0
    kernel_size: 1
    stride: 1
    weight_filler {
      type: "gaussian"
      std: 0.01
    }
    bias_filler {
      type: "constant"
      value: 0
    }
  }
}
layer {
  name: "value_conv"
  type: "Convolution"
  bottom: "pool5_2_conv4_relu"
  top: "value_conv"
  param {
    lr_mult: 1
    decay_mult: 1
  }
  param {
    lr_mult: 2
    decay_mult: 0
  }
  convolution_param {
    num_output: 512
    pad: 0
    kernel_size: 1
    stride: 1
    weight_filler {
      type: "gaussian"
      std: 0.01
    }
    bias_filler {
      type: "constant"
      value: 0
    }
  }
}
layer {
  name: "query_conv_reshape"
  type: "Reshape"
  bottom: "query_conv"
  top: "query_conv_reshape"
  reshape_param {
    shape {
      dim: -1
      dim: 64
      dim: 900
      dim: 1
    }
  }
}
layer {
  name: "key_conv_reshape"
  type: "Reshape"
  bottom: "key_conv"
  top: "key_conv_reshape"
  reshape_param {
    shape {
      dim: -1
      dim: 64
      dim: 900
      dim: 1
    }
  }
}
layer {
  name: "value_conv_reshape"
  type: "Reshape"
  bottom: "value_conv"
  top: "value_conv_reshape"
  reshape_param {
    shape {
      dim: -1
      dim: 512
      dim: 900
      dim: 1
    }
  }
}
layer {
  name: "query_conv_reshape_perm"
  type: "Permute"
  bottom: "query_conv_reshape"
  top: "query_conv_reshape_perm"
  permute_param {
    order: 0
    order: 3
    order: 2
    order: 1
  }
}
layer {
  name: "key_conv_reshape_perm"
  type: "Permute"
  bottom: "key_conv_reshape"
  top: "key_conv_reshape_perm"
  permute_param {
    order: 0
    order: 3
    order: 1
    order: 2
  }
}
layer {
  name: "energy"
  type: "MatrixMultiplication"
  bottom: "query_conv_reshape_perm"
  bottom: "key_conv_reshape_perm"
  top: "energy"
}
layer {
  name: "attention"
  type: "Softmax"
  bottom: "energy"
  top: "attention"
  softmax_param {
    axis: 3
  }
}
layer {
  name: "value_conv_reshape_perm"
  type: "Permute"
  bottom: "value_conv_reshape"
  top: "value_conv_reshape_perm"
  permute_param {
    order: 0
    order: 3
    order: 1
    order: 2
  }
}
layer {
  name: "attention_perm"
  type: "Permute"
  bottom: "attention"
  top: "attention_perm"
  permute_param {
    order: 0
    order: 1
    order: 2
    order: 3
  }
}
layer {
  name: "out"
  type: "MatrixMultiplication"
  bottom: "value_conv_reshape_perm"
  bottom: "attention_perm"
  top: "out"
}
layer {
  name: "out_reshape"
  type: "Reshape"
  bottom: "out"
  top: "out_reshape"
  reshape_param {
    shape {
      dim: -1
      dim: 512
      dim: 30
      dim: 30
    }
  }
}
layer {
  name: "out_reshape_scale"
  type: "Scale"
  bottom: "out_reshape"
  top: "out_reshape_scale"
  param {
    name: "scale_conv1_1"
    lr_mult: 1
  }
  scale_param {
    bias_term: false
  }
}
layer {
  name: "out_x"
  type: "Eltwise"
  bottom: "out_reshape_scale"
  bottom: "pool5_2_conv4_relu"
  top: "out_x"
  eltwise_param {
    operation: SUM
  }
}
layer {
  name: "mask_deconv2"
  type: "Deconvolution"
  bottom: "out_x"
  top: "mask_deconv2"
  param {
    lr_mult: 1
    decay_mult: 1
  }
  param {
    lr_mult: 2
    decay_mult: 0
  }
  convolution_param {
    num_output: 256
    pad: 1
    kernel_size: 8
    group: 256
    stride: 4
    weight_filler {
      type: "bilinear"
    }
  }
}
layer {
  name: "pool5_2_conv5"
  type: "Convolution"
  bottom: "mask_deconv2"
  top: "pool5_2_conv5"
  param {
    lr_mult: 1
    decay_mult: 1
  }
  param {
    lr_mult: 2
    decay_mult: 0
  }
  convolution_param {
    num_output: 512
    pad: 1
    kernel_size: 3
    stride: 1
    weight_filler {
      type: "gaussian"
      std: 0.01
    }
    bias_filler {
      type: "constant"
      value: 0
    }
  }
}
layer {
  name: "pool5_2_conv5_relu"
  type: "ReLU"
  bottom: "pool5_2_conv5"
  top: "pool5_2_conv5_relu"
}
layer {
  name: "pool5_2_conv6"
  type: "Convolution"
  bottom: "pool5_2_conv5_relu"
  top: "pool5_2_conv6"
  param {
    lr_mult: 1
    decay_mult: 1
  }
  param {
    lr_mult: 2
    decay_mult: 0
  }
  convolution_param {
    num_output: 512
    pad: 1
    kernel_size: 3
    stride: 1
    weight_filler {
      type: "gaussian"
      std: 0.01
    }
    bias_filler {
      type: "constant"
      value: 0
    }
  }
}
layer {
  name: "pool5_2_conv6_relu"
  type: "ReLU"
  bottom: "pool5_2_conv6"
  top: "pool5_2_conv6_relu"
}
layer {
  name: "mask_deconv3"
  type: "Deconvolution"
  bottom: "pool5_2_conv6_relu"
  top: "mask_deconv3"
  param {
    lr_mult: 1
    decay_mult: 1
  }
  param {
    lr_mult: 2
    decay_mult: 0
  }
  convolution_param {
    num_output: 256
    pad: 1
    kernel_size: 4
    group: 256
    stride: 2
    weight_filler {
      type: "bilinear"
    }
  }
}
layer {
  name: "mask_score"
  type: "Convolution"
  bottom: "mask_deconv3"
  top: "mask_score"
  param {
    lr_mult: 1
    decay_mult: 1
  }
  param {
    lr_mult: 2
    decay_mult: 0
  }
  convolution_param {
    num_output: 8
    pad: 0
    kernel_size: 1
    weight_filler {
      type: "gaussian"
      std: 0.01
    }
    bias_filler {
      type: "constant"
      value: 0
    }
  }
}
layer {
  name: "loss_mask"
  type: "SoftmaxWithLoss"
  bottom: "mask_score"
  bottom: "mask_targets"
  top: "loss_mask"
  loss_weight: 3
  propagate_down: true
  propagate_down: false
  loss_param {
    ignore_label: -1
    normalize: true
  }
}
I0611 15:29:33.876088 24002 layer_factory.hpp:77] Creating layer input-data
I0611 15:29:33.892401 24002 net.cpp:106] Creating Layer input-data
I0611 15:29:33.892416 24002 net.cpp:411] input-data -> data
I0611 15:29:33.892424 24002 net.cpp:411] input-data -> im_info
I0611 15:29:33.892429 24002 net.cpp:411] input-data -> gt_boxes
I0611 15:29:33.892434 24002 net.cpp:411] input-data -> seg_mask_inds
I0611 15:29:33.892437 24002 net.cpp:411] input-data -> flipped
RoiDataLayer: name_to_top: {'gt_boxes': 2, 'data': 0, 'seg_mask_inds': 3, 'im_info': 1, 'flipped': 4}
I0611 15:29:33.904131 24002 net.cpp:150] Setting up input-data
I0611 15:29:33.904151 24002 net.cpp:157] Top shape: 1 3 600 1000 (1800000)
I0611 15:29:33.904157 24002 net.cpp:157] Top shape: 1 3 (3)
I0611 15:29:33.904171 24002 net.cpp:157] Top shape: 1 4 (4)
I0611 15:29:33.904176 24002 net.cpp:157] Top shape: 1 2 (2)
I0611 15:29:33.904179 24002 net.cpp:157] Top shape: 1 1 (1)
I0611 15:29:33.904183 24002 net.cpp:165] Memory required for data: 7200040
I0611 15:29:33.904192 24002 layer_factory.hpp:77] Creating layer data_input-data_0_split
I0611 15:29:33.904211 24002 net.cpp:106] Creating Layer data_input-data_0_split
I0611 15:29:33.904227 24002 net.cpp:454] data_input-data_0_split <- data
I0611 15:29:33.904232 24002 net.cpp:411] data_input-data_0_split -> data_input-data_0_split_0
I0611 15:29:33.904253 24002 net.cpp:411] data_input-data_0_split -> data_input-data_0_split_1
I0611 15:29:33.904284 24002 net.cpp:150] Setting up data_input-data_0_split
I0611 15:29:33.904300 24002 net.cpp:157] Top shape: 1 3 600 1000 (1800000)
I0611 15:29:33.904316 24002 net.cpp:157] Top shape: 1 3 600 1000 (1800000)
I0611 15:29:33.904322 24002 net.cpp:165] Memory required for data: 21600040
I0611 15:29:33.904327 24002 layer_factory.hpp:77] Creating layer im_info_input-data_1_split
I0611 15:29:33.904336 24002 net.cpp:106] Creating Layer im_info_input-data_1_split
I0611 15:29:33.904342 24002 net.cpp:454] im_info_input-data_1_split <- im_info
I0611 15:29:33.904348 24002 net.cpp:411] im_info_input-data_1_split -> im_info_input-data_1_split_0
I0611 15:29:33.904357 24002 net.cpp:411] im_info_input-data_1_split -> im_info_input-data_1_split_1
I0611 15:29:33.904366 24002 net.cpp:411] im_info_input-data_1_split -> im_info_input-data_1_split_2
I0611 15:29:33.904412 24002 net.cpp:150] Setting up im_info_input-data_1_split
I0611 15:29:33.904417 24002 net.cpp:157] Top shape: 1 3 (3)
I0611 15:29:33.904419 24002 net.cpp:157] Top shape: 1 3 (3)
I0611 15:29:33.904433 24002 net.cpp:157] Top shape: 1 3 (3)
I0611 15:29:33.904438 24002 net.cpp:165] Memory required for data: 21600076
I0611 15:29:33.904440 24002 layer_factory.hpp:77] Creating layer gt_boxes_input-data_2_split
I0611 15:29:33.904448 24002 net.cpp:106] Creating Layer gt_boxes_input-data_2_split
I0611 15:29:33.904455 24002 net.cpp:454] gt_boxes_input-data_2_split <- gt_boxes
I0611 15:29:33.904464 24002 net.cpp:411] gt_boxes_input-data_2_split -> gt_boxes_input-data_2_split_0
I0611 15:29:33.904470 24002 net.cpp:411] gt_boxes_input-data_2_split -> gt_boxes_input-data_2_split_1
I0611 15:29:33.904507 24002 net.cpp:150] Setting up gt_boxes_input-data_2_split
I0611 15:29:33.904515 24002 net.cpp:157] Top shape: 1 4 (4)
I0611 15:29:33.904517 24002 net.cpp:157] Top shape: 1 4 (4)
I0611 15:29:33.904522 24002 net.cpp:165] Memory required for data: 21600108
I0611 15:29:33.904526 24002 layer_factory.hpp:77] Creating layer conv1_1
I0611 15:29:33.904539 24002 net.cpp:106] Creating Layer conv1_1
I0611 15:29:33.904546 24002 net.cpp:454] conv1_1 <- data_input-data_0_split_0
I0611 15:29:33.904553 24002 net.cpp:411] conv1_1 -> conv1_1
I0611 15:29:34.096355 24002 net.cpp:150] Setting up conv1_1
I0611 15:29:34.096390 24002 net.cpp:157] Top shape: 1 64 600 1000 (38400000)
I0611 15:29:34.096403 24002 net.cpp:165] Memory required for data: 175200108
I0611 15:29:34.096421 24002 layer_factory.hpp:77] Creating layer relu1_1
I0611 15:29:34.096431 24002 net.cpp:106] Creating Layer relu1_1
I0611 15:29:34.096436 24002 net.cpp:454] relu1_1 <- conv1_1
I0611 15:29:34.096442 24002 net.cpp:397] relu1_1 -> conv1_1 (in-place)
I0611 15:29:34.096575 24002 net.cpp:150] Setting up relu1_1
I0611 15:29:34.096583 24002 net.cpp:157] Top shape: 1 64 600 1000 (38400000)
I0611 15:29:34.096586 24002 net.cpp:165] Memory required for data: 328800108
I0611 15:29:34.096590 24002 layer_factory.hpp:77] Creating layer conv1_2
I0611 15:29:34.096599 24002 net.cpp:106] Creating Layer conv1_2
I0611 15:29:34.096603 24002 net.cpp:454] conv1_2 <- conv1_1
I0611 15:29:34.096611 24002 net.cpp:411] conv1_2 -> conv1_2
I0611 15:29:34.099053 24002 net.cpp:150] Setting up conv1_2
I0611 15:29:34.099076 24002 net.cpp:157] Top shape: 1 64 600 1000 (38400000)
I0611 15:29:34.099078 24002 net.cpp:165] Memory required for data: 482400108
I0611 15:29:34.099088 24002 layer_factory.hpp:77] Creating layer relu1_2
I0611 15:29:34.099095 24002 net.cpp:106] Creating Layer relu1_2
I0611 15:29:34.099104 24002 net.cpp:454] relu1_2 <- conv1_2
I0611 15:29:34.099112 24002 net.cpp:397] relu1_2 -> conv1_2 (in-place)
I0611 15:29:34.099249 24002 net.cpp:150] Setting up relu1_2
I0611 15:29:34.099256 24002 net.cpp:157] Top shape: 1 64 600 1000 (38400000)
I0611 15:29:34.099258 24002 net.cpp:165] Memory required for data: 636000108
I0611 15:29:34.099262 24002 layer_factory.hpp:77] Creating layer pool1
I0611 15:29:34.099273 24002 net.cpp:106] Creating Layer pool1
I0611 15:29:34.099278 24002 net.cpp:454] pool1 <- conv1_2
I0611 15:29:34.099294 24002 net.cpp:411] pool1 -> pool1
I0611 15:29:34.099351 24002 net.cpp:150] Setting up pool1
I0611 15:29:34.099356 24002 net.cpp:157] Top shape: 1 64 300 500 (9600000)
I0611 15:29:34.099359 24002 net.cpp:165] Memory required for data: 674400108
I0611 15:29:34.099364 24002 layer_factory.hpp:77] Creating layer conv2_1
I0611 15:29:34.099373 24002 net.cpp:106] Creating Layer conv2_1
I0611 15:29:34.099378 24002 net.cpp:454] conv2_1 <- pool1
I0611 15:29:34.099385 24002 net.cpp:411] conv2_1 -> conv2_1
I0611 15:29:34.101315 24002 net.cpp:150] Setting up conv2_1
I0611 15:29:34.101323 24002 net.cpp:157] Top shape: 1 128 300 500 (19200000)
I0611 15:29:34.101326 24002 net.cpp:165] Memory required for data: 751200108
I0611 15:29:34.101346 24002 layer_factory.hpp:77] Creating layer relu2_1
I0611 15:29:34.101353 24002 net.cpp:106] Creating Layer relu2_1
I0611 15:29:34.101358 24002 net.cpp:454] relu2_1 <- conv2_1
I0611 15:29:34.101366 24002 net.cpp:397] relu2_1 -> conv2_1 (in-place)
I0611 15:29:34.101881 24002 net.cpp:150] Setting up relu2_1
I0611 15:29:34.101888 24002 net.cpp:157] Top shape: 1 128 300 500 (19200000)
I0611 15:29:34.101891 24002 net.cpp:165] Memory required for data: 828000108
I0611 15:29:34.101894 24002 layer_factory.hpp:77] Creating layer conv2_2
I0611 15:29:34.101914 24002 net.cpp:106] Creating Layer conv2_2
I0611 15:29:34.101919 24002 net.cpp:454] conv2_2 <- conv2_1
I0611 15:29:34.101936 24002 net.cpp:411] conv2_2 -> conv2_2
I0611 15:29:34.103334 24002 net.cpp:150] Setting up conv2_2
I0611 15:29:34.103343 24002 net.cpp:157] Top shape: 1 128 300 500 (19200000)
I0611 15:29:34.103345 24002 net.cpp:165] Memory required for data: 904800108
I0611 15:29:34.103350 24002 layer_factory.hpp:77] Creating layer relu2_2
I0611 15:29:34.103369 24002 net.cpp:106] Creating Layer relu2_2
I0611 15:29:34.103374 24002 net.cpp:454] relu2_2 <- conv2_2
I0611 15:29:34.103389 24002 net.cpp:397] relu2_2 -> conv2_2 (in-place)
I0611 15:29:34.103544 24002 net.cpp:150] Setting up relu2_2
I0611 15:29:34.103551 24002 net.cpp:157] Top shape: 1 128 300 500 (19200000)
I0611 15:29:34.103554 24002 net.cpp:165] Memory required for data: 981600108
I0611 15:29:34.103566 24002 layer_factory.hpp:77] Creating layer pool2
I0611 15:29:34.103575 24002 net.cpp:106] Creating Layer pool2
I0611 15:29:34.103581 24002 net.cpp:454] pool2 <- conv2_2
I0611 15:29:34.103586 24002 net.cpp:411] pool2 -> pool2
I0611 15:29:34.103652 24002 net.cpp:150] Setting up pool2
I0611 15:29:34.103659 24002 net.cpp:157] Top shape: 1 128 150 250 (4800000)
I0611 15:29:34.103672 24002 net.cpp:165] Memory required for data: 1000800108
I0611 15:29:34.103674 24002 layer_factory.hpp:77] Creating layer conv3_1
I0611 15:29:34.103699 24002 net.cpp:106] Creating Layer conv3_1
I0611 15:29:34.103704 24002 net.cpp:454] conv3_1 <- pool2
I0611 15:29:34.103711 24002 net.cpp:411] conv3_1 -> conv3_1
I0611 15:29:34.105593 24002 net.cpp:150] Setting up conv3_1
I0611 15:29:34.105612 24002 net.cpp:157] Top shape: 1 256 150 250 (9600000)
I0611 15:29:34.105614 24002 net.cpp:165] Memory required for data: 1039200108
I0611 15:29:34.105623 24002 layer_factory.hpp:77] Creating layer relu3_1
I0611 15:29:34.105638 24002 net.cpp:106] Creating Layer relu3_1
I0611 15:29:34.105641 24002 net.cpp:454] relu3_1 <- conv3_1
I0611 15:29:34.105646 24002 net.cpp:397] relu3_1 -> conv3_1 (in-place)
I0611 15:29:34.105773 24002 net.cpp:150] Setting up relu3_1
I0611 15:29:34.105780 24002 net.cpp:157] Top shape: 1 256 150 250 (9600000)
I0611 15:29:34.105785 24002 net.cpp:165] Memory required for data: 1077600108
I0611 15:29:34.105789 24002 layer_factory.hpp:77] Creating layer conv3_2
I0611 15:29:34.105800 24002 net.cpp:106] Creating Layer conv3_2
I0611 15:29:34.105805 24002 net.cpp:454] conv3_2 <- conv3_1
I0611 15:29:34.105820 24002 net.cpp:411] conv3_2 -> conv3_2
I0611 15:29:34.108094 24002 net.cpp:150] Setting up conv3_2
I0611 15:29:34.108114 24002 net.cpp:157] Top shape: 1 256 150 250 (9600000)
I0611 15:29:34.108117 24002 net.cpp:165] Memory required for data: 1116000108
I0611 15:29:34.108132 24002 layer_factory.hpp:77] Creating layer relu3_2
I0611 15:29:34.108139 24002 net.cpp:106] Creating Layer relu3_2
I0611 15:29:34.108156 24002 net.cpp:454] relu3_2 <- conv3_2
I0611 15:29:34.108162 24002 net.cpp:397] relu3_2 -> conv3_2 (in-place)
I0611 15:29:34.108352 24002 net.cpp:150] Setting up relu3_2
I0611 15:29:34.108359 24002 net.cpp:157] Top shape: 1 256 150 250 (9600000)
I0611 15:29:34.108362 24002 net.cpp:165] Memory required for data: 1154400108
I0611 15:29:34.108376 24002 layer_factory.hpp:77] Creating layer conv3_3
I0611 15:29:34.108386 24002 net.cpp:106] Creating Layer conv3_3
I0611 15:29:34.108392 24002 net.cpp:454] conv3_3 <- conv3_2
I0611 15:29:34.108408 24002 net.cpp:411] conv3_3 -> conv3_3
I0611 15:29:34.110455 24002 net.cpp:150] Setting up conv3_3
I0611 15:29:34.110464 24002 net.cpp:157] Top shape: 1 256 150 250 (9600000)
I0611 15:29:34.110466 24002 net.cpp:165] Memory required for data: 1192800108
I0611 15:29:34.110472 24002 layer_factory.hpp:77] Creating layer relu3_3
I0611 15:29:34.110476 24002 net.cpp:106] Creating Layer relu3_3
I0611 15:29:34.110479 24002 net.cpp:454] relu3_3 <- conv3_3
I0611 15:29:34.110493 24002 net.cpp:397] relu3_3 -> conv3_3 (in-place)
I0611 15:29:34.110649 24002 net.cpp:150] Setting up relu3_3
I0611 15:29:34.110656 24002 net.cpp:157] Top shape: 1 256 150 250 (9600000)
I0611 15:29:34.110659 24002 net.cpp:165] Memory required for data: 1231200108
I0611 15:29:34.110661 24002 layer_factory.hpp:77] Creating layer pool3
I0611 15:29:34.110666 24002 net.cpp:106] Creating Layer pool3
I0611 15:29:34.110668 24002 net.cpp:454] pool3 <- conv3_3
I0611 15:29:34.110683 24002 net.cpp:411] pool3 -> pool3
I0611 15:29:34.110733 24002 net.cpp:150] Setting up pool3
I0611 15:29:34.110739 24002 net.cpp:157] Top shape: 1 256 75 125 (2400000)
I0611 15:29:34.110741 24002 net.cpp:165] Memory required for data: 1240800108
I0611 15:29:34.110743 24002 layer_factory.hpp:77] Creating layer conv4_1
I0611 15:29:34.110749 24002 net.cpp:106] Creating Layer conv4_1
I0611 15:29:34.110751 24002 net.cpp:454] conv4_1 <- pool3
I0611 15:29:34.110769 24002 net.cpp:411] conv4_1 -> conv4_1
I0611 15:29:34.114455 24002 net.cpp:150] Setting up conv4_1
I0611 15:29:34.114473 24002 net.cpp:157] Top shape: 1 512 75 125 (4800000)
I0611 15:29:34.114476 24002 net.cpp:165] Memory required for data: 1260000108
I0611 15:29:34.114483 24002 layer_factory.hpp:77] Creating layer relu4_1
I0611 15:29:34.114502 24002 net.cpp:106] Creating Layer relu4_1
I0611 15:29:34.114506 24002 net.cpp:454] relu4_1 <- conv4_1
I0611 15:29:34.114513 24002 net.cpp:397] relu4_1 -> conv4_1 (in-place)
I0611 15:29:34.114656 24002 net.cpp:150] Setting up relu4_1
I0611 15:29:34.114663 24002 net.cpp:157] Top shape: 1 512 75 125 (4800000)
I0611 15:29:34.114665 24002 net.cpp:165] Memory required for data: 1279200108
I0611 15:29:34.114679 24002 layer_factory.hpp:77] Creating layer conv4_2
I0611 15:29:34.114699 24002 net.cpp:106] Creating Layer conv4_2
I0611 15:29:34.114703 24002 net.cpp:454] conv4_2 <- conv4_1
I0611 15:29:34.114722 24002 net.cpp:411] conv4_2 -> conv4_2
I0611 15:29:34.119438 24002 net.cpp:150] Setting up conv4_2
I0611 15:29:34.119467 24002 net.cpp:157] Top shape: 1 512 75 125 (4800000)
I0611 15:29:34.119469 24002 net.cpp:165] Memory required for data: 1298400108
I0611 15:29:34.119482 24002 layer_factory.hpp:77] Creating layer relu4_2
I0611 15:29:34.119501 24002 net.cpp:106] Creating Layer relu4_2
I0611 15:29:34.119508 24002 net.cpp:454] relu4_2 <- conv4_2
I0611 15:29:34.119514 24002 net.cpp:397] relu4_2 -> conv4_2 (in-place)
I0611 15:29:34.120064 24002 net.cpp:150] Setting up relu4_2
I0611 15:29:34.120071 24002 net.cpp:157] Top shape: 1 512 75 125 (4800000)
I0611 15:29:34.120085 24002 net.cpp:165] Memory required for data: 1317600108
I0611 15:29:34.120086 24002 layer_factory.hpp:77] Creating layer conv4_3
I0611 15:29:34.120093 24002 net.cpp:106] Creating Layer conv4_3
I0611 15:29:34.120097 24002 net.cpp:454] conv4_3 <- conv4_2
I0611 15:29:34.120103 24002 net.cpp:411] conv4_3 -> conv4_3
I0611 15:29:34.125053 24002 net.cpp:150] Setting up conv4_3
I0611 15:29:34.125073 24002 net.cpp:157] Top shape: 1 512 75 125 (4800000)
I0611 15:29:34.125077 24002 net.cpp:165] Memory required for data: 1336800108
I0611 15:29:34.125083 24002 layer_factory.hpp:77] Creating layer relu4_3
I0611 15:29:34.125092 24002 net.cpp:106] Creating Layer relu4_3
I0611 15:29:34.125105 24002 net.cpp:454] relu4_3 <- conv4_3
I0611 15:29:34.125111 24002 net.cpp:397] relu4_3 -> conv4_3 (in-place)
I0611 15:29:34.125238 24002 net.cpp:150] Setting up relu4_3
I0611 15:29:34.125246 24002 net.cpp:157] Top shape: 1 512 75 125 (4800000)
I0611 15:29:34.125247 24002 net.cpp:165] Memory required for data: 1356000108
I0611 15:29:34.125252 24002 layer_factory.hpp:77] Creating layer pool4
I0611 15:29:34.125262 24002 net.cpp:106] Creating Layer pool4
I0611 15:29:34.125267 24002 net.cpp:454] pool4 <- conv4_3
I0611 15:29:34.125274 24002 net.cpp:411] pool4 -> pool4
I0611 15:29:34.125315 24002 net.cpp:150] Setting up pool4
I0611 15:29:34.125322 24002 net.cpp:157] Top shape: 1 512 38 63 (1225728)
I0611 15:29:34.125334 24002 net.cpp:165] Memory required for data: 1360903020
I0611 15:29:34.125337 24002 layer_factory.hpp:77] Creating layer conv5_1
I0611 15:29:34.125344 24002 net.cpp:106] Creating Layer conv5_1
I0611 15:29:34.125346 24002 net.cpp:454] conv5_1 <- pool4
I0611 15:29:34.125352 24002 net.cpp:411] conv5_1 -> conv5_1
I0611 15:29:34.129595 24002 net.cpp:150] Setting up conv5_1
I0611 15:29:34.129616 24002 net.cpp:157] Top shape: 1 512 38 63 (1225728)
I0611 15:29:34.129618 24002 net.cpp:165] Memory required for data: 1365805932
I0611 15:29:34.129626 24002 layer_factory.hpp:77] Creating layer relu5_1
I0611 15:29:34.129633 24002 net.cpp:106] Creating Layer relu5_1
I0611 15:29:34.129637 24002 net.cpp:454] relu5_1 <- conv5_1
I0611 15:29:34.129643 24002 net.cpp:397] relu5_1 -> conv5_1 (in-place)
I0611 15:29:34.129781 24002 net.cpp:150] Setting up relu5_1
I0611 15:29:34.129788 24002 net.cpp:157] Top shape: 1 512 38 63 (1225728)
I0611 15:29:34.129791 24002 net.cpp:165] Memory required for data: 1370708844
I0611 15:29:34.129793 24002 layer_factory.hpp:77] Creating layer conv5_2
I0611 15:29:34.129801 24002 net.cpp:106] Creating Layer conv5_2
I0611 15:29:34.129803 24002 net.cpp:454] conv5_2 <- conv5_1
I0611 15:29:34.129807 24002 net.cpp:411] conv5_2 -> conv5_2
I0611 15:29:34.134256 24002 net.cpp:150] Setting up conv5_2
I0611 15:29:34.134287 24002 net.cpp:157] Top shape: 1 512 38 63 (1225728)
I0611 15:29:34.134290 24002 net.cpp:165] Memory required for data: 1375611756
I0611 15:29:34.134297 24002 layer_factory.hpp:77] Creating layer relu5_2
I0611 15:29:34.134316 24002 net.cpp:106] Creating Layer relu5_2
I0611 15:29:34.134321 24002 net.cpp:454] relu5_2 <- conv5_2
I0611 15:29:34.134327 24002 net.cpp:397] relu5_2 -> conv5_2 (in-place)
I0611 15:29:34.134485 24002 net.cpp:150] Setting up relu5_2
I0611 15:29:34.134492 24002 net.cpp:157] Top shape: 1 512 38 63 (1225728)
I0611 15:29:34.134505 24002 net.cpp:165] Memory required for data: 1380514668
I0611 15:29:34.134507 24002 layer_factory.hpp:77] Creating layer conv5_3
I0611 15:29:34.134518 24002 net.cpp:106] Creating Layer conv5_3
I0611 15:29:34.134523 24002 net.cpp:454] conv5_3 <- conv5_2
I0611 15:29:34.134529 24002 net.cpp:411] conv5_3 -> conv5_3
I0611 15:29:34.138969 24002 net.cpp:150] Setting up conv5_3
I0611 15:29:34.138998 24002 net.cpp:157] Top shape: 1 512 38 63 (1225728)
I0611 15:29:34.139001 24002 net.cpp:165] Memory required for data: 1385417580
I0611 15:29:34.139009 24002 layer_factory.hpp:77] Creating layer relu5_3
I0611 15:29:34.139016 24002 net.cpp:106] Creating Layer relu5_3
I0611 15:29:34.139020 24002 net.cpp:454] relu5_3 <- conv5_3
I0611 15:29:34.139029 24002 net.cpp:397] relu5_3 -> conv5_3 (in-place)
I0611 15:29:34.139171 24002 net.cpp:150] Setting up relu5_3
I0611 15:29:34.139178 24002 net.cpp:157] Top shape: 1 512 38 63 (1225728)
I0611 15:29:34.139190 24002 net.cpp:165] Memory required for data: 1390320492
I0611 15:29:34.139194 24002 layer_factory.hpp:77] Creating layer conv5_3_relu5_3_0_split
I0611 15:29:34.139199 24002 net.cpp:106] Creating Layer conv5_3_relu5_3_0_split
I0611 15:29:34.139200 24002 net.cpp:454] conv5_3_relu5_3_0_split <- conv5_3
I0611 15:29:34.139204 24002 net.cpp:411] conv5_3_relu5_3_0_split -> conv5_3_relu5_3_0_split_0
I0611 15:29:34.139209 24002 net.cpp:411] conv5_3_relu5_3_0_split -> conv5_3_relu5_3_0_split_1
I0611 15:29:34.139219 24002 net.cpp:411] conv5_3_relu5_3_0_split -> conv5_3_relu5_3_0_split_2
I0611 15:29:34.139272 24002 net.cpp:150] Setting up conv5_3_relu5_3_0_split
I0611 15:29:34.139277 24002 net.cpp:157] Top shape: 1 512 38 63 (1225728)
I0611 15:29:34.139291 24002 net.cpp:157] Top shape: 1 512 38 63 (1225728)
I0611 15:29:34.139292 24002 net.cpp:157] Top shape: 1 512 38 63 (1225728)
I0611 15:29:34.139294 24002 net.cpp:165] Memory required for data: 1405029228
I0611 15:29:34.139297 24002 layer_factory.hpp:77] Creating layer rpn_conv/3x3
I0611 15:29:34.139305 24002 net.cpp:106] Creating Layer rpn_conv/3x3
I0611 15:29:34.139322 24002 net.cpp:454] rpn_conv/3x3 <- conv5_3_relu5_3_0_split_0
I0611 15:29:34.139331 24002 net.cpp:411] rpn_conv/3x3 -> rpn/output
I0611 15:29:34.190322 24002 net.cpp:150] Setting up rpn_conv/3x3
I0611 15:29:34.190340 24002 net.cpp:157] Top shape: 1 512 38 63 (1225728)
I0611 15:29:34.190342 24002 net.cpp:165] Memory required for data: 1409932140
I0611 15:29:34.190348 24002 layer_factory.hpp:77] Creating layer rpn_relu/3x3
I0611 15:29:34.190356 24002 net.cpp:106] Creating Layer rpn_relu/3x3
I0611 15:29:34.190371 24002 net.cpp:454] rpn_relu/3x3 <- rpn/output
I0611 15:29:34.190374 24002 net.cpp:397] rpn_relu/3x3 -> rpn/output (in-place)
I0611 15:29:34.190513 24002 net.cpp:150] Setting up rpn_relu/3x3
I0611 15:29:34.190521 24002 net.cpp:157] Top shape: 1 512 38 63 (1225728)
I0611 15:29:34.190522 24002 net.cpp:165] Memory required for data: 1414835052
I0611 15:29:34.190526 24002 layer_factory.hpp:77] Creating layer rpn/output_rpn_relu/3x3_0_split
I0611 15:29:34.190529 24002 net.cpp:106] Creating Layer rpn/output_rpn_relu/3x3_0_split
I0611 15:29:34.190532 24002 net.cpp:454] rpn/output_rpn_relu/3x3_0_split <- rpn/output
I0611 15:29:34.190536 24002 net.cpp:411] rpn/output_rpn_relu/3x3_0_split -> rpn/output_rpn_relu/3x3_0_split_0
I0611 15:29:34.190551 24002 net.cpp:411] rpn/output_rpn_relu/3x3_0_split -> rpn/output_rpn_relu/3x3_0_split_1
I0611 15:29:34.190593 24002 net.cpp:150] Setting up rpn/output_rpn_relu/3x3_0_split
I0611 15:29:34.190601 24002 net.cpp:157] Top shape: 1 512 38 63 (1225728)
I0611 15:29:34.190605 24002 net.cpp:157] Top shape: 1 512 38 63 (1225728)
I0611 15:29:34.190608 24002 net.cpp:165] Memory required for data: 1424640876
I0611 15:29:34.190610 24002 layer_factory.hpp:77] Creating layer rpn_cls_score
I0611 15:29:34.190618 24002 net.cpp:106] Creating Layer rpn_cls_score
I0611 15:29:34.190634 24002 net.cpp:454] rpn_cls_score <- rpn/output_rpn_relu/3x3_0_split_0
I0611 15:29:34.190639 24002 net.cpp:411] rpn_cls_score -> rpn_cls_score
I0611 15:29:34.192201 24002 net.cpp:150] Setting up rpn_cls_score
I0611 15:29:34.192209 24002 net.cpp:157] Top shape: 1 30 38 63 (71820)
I0611 15:29:34.192211 24002 net.cpp:165] Memory required for data: 1424928156
I0611 15:29:34.192215 24002 layer_factory.hpp:77] Creating layer rpn_cls_score_rpn_cls_score_0_split
I0611 15:29:34.192220 24002 net.cpp:106] Creating Layer rpn_cls_score_rpn_cls_score_0_split
I0611 15:29:34.192222 24002 net.cpp:454] rpn_cls_score_rpn_cls_score_0_split <- rpn_cls_score
I0611 15:29:34.192227 24002 net.cpp:411] rpn_cls_score_rpn_cls_score_0_split -> rpn_cls_score_rpn_cls_score_0_split_0
I0611 15:29:34.192242 24002 net.cpp:411] rpn_cls_score_rpn_cls_score_0_split -> rpn_cls_score_rpn_cls_score_0_split_1
I0611 15:29:34.192288 24002 net.cpp:150] Setting up rpn_cls_score_rpn_cls_score_0_split
I0611 15:29:34.192296 24002 net.cpp:157] Top shape: 1 30 38 63 (71820)
I0611 15:29:34.192299 24002 net.cpp:157] Top shape: 1 30 38 63 (71820)
I0611 15:29:34.192301 24002 net.cpp:165] Memory required for data: 1425502716
I0611 15:29:34.192303 24002 layer_factory.hpp:77] Creating layer rpn_bbox_pred
I0611 15:29:34.192309 24002 net.cpp:106] Creating Layer rpn_bbox_pred
I0611 15:29:34.192312 24002 net.cpp:454] rpn_bbox_pred <- rpn/output_rpn_relu/3x3_0_split_1
I0611 15:29:34.192327 24002 net.cpp:411] rpn_bbox_pred -> rpn_bbox_pred
I0611 15:29:34.193823 24002 net.cpp:150] Setting up rpn_bbox_pred
I0611 15:29:34.193832 24002 net.cpp:157] Top shape: 1 60 38 63 (143640)
I0611 15:29:34.193835 24002 net.cpp:165] Memory required for data: 1426077276
I0611 15:29:34.193840 24002 layer_factory.hpp:77] Creating layer rpn_bbox_pred_rpn_bbox_pred_0_split
I0611 15:29:34.193843 24002 net.cpp:106] Creating Layer rpn_bbox_pred_rpn_bbox_pred_0_split
I0611 15:29:34.193845 24002 net.cpp:454] rpn_bbox_pred_rpn_bbox_pred_0_split <- rpn_bbox_pred
I0611 15:29:34.193850 24002 net.cpp:411] rpn_bbox_pred_rpn_bbox_pred_0_split -> rpn_bbox_pred_rpn_bbox_pred_0_split_0
I0611 15:29:34.193863 24002 net.cpp:411] rpn_bbox_pred_rpn_bbox_pred_0_split -> rpn_bbox_pred_rpn_bbox_pred_0_split_1
I0611 15:29:34.193909 24002 net.cpp:150] Setting up rpn_bbox_pred_rpn_bbox_pred_0_split
I0611 15:29:34.193917 24002 net.cpp:157] Top shape: 1 60 38 63 (143640)
I0611 15:29:34.193920 24002 net.cpp:157] Top shape: 1 60 38 63 (143640)
I0611 15:29:34.193922 24002 net.cpp:165] Memory required for data: 1427226396
I0611 15:29:34.193924 24002 layer_factory.hpp:77] Creating layer rpn_cls_score_reshape
I0611 15:29:34.193929 24002 net.cpp:106] Creating Layer rpn_cls_score_reshape
I0611 15:29:34.193933 24002 net.cpp:454] rpn_cls_score_reshape <- rpn_cls_score_rpn_cls_score_0_split_0
I0611 15:29:34.193948 24002 net.cpp:411] rpn_cls_score_reshape -> rpn_cls_score_reshape
I0611 15:29:34.193981 24002 net.cpp:150] Setting up rpn_cls_score_reshape
I0611 15:29:34.193989 24002 net.cpp:157] Top shape: 1 2 570 63 (71820)
I0611 15:29:34.193992 24002 net.cpp:165] Memory required for data: 1427513676
I0611 15:29:34.193994 24002 layer_factory.hpp:77] Creating layer rpn_cls_score_reshape_rpn_cls_score_reshape_0_split
I0611 15:29:34.194000 24002 net.cpp:106] Creating Layer rpn_cls_score_reshape_rpn_cls_score_reshape_0_split
I0611 15:29:34.194002 24002 net.cpp:454] rpn_cls_score_reshape_rpn_cls_score_reshape_0_split <- rpn_cls_score_reshape
I0611 15:29:34.194006 24002 net.cpp:411] rpn_cls_score_reshape_rpn_cls_score_reshape_0_split -> rpn_cls_score_reshape_rpn_cls_score_reshape_0_split_0
I0611 15:29:34.194010 24002 net.cpp:411] rpn_cls_score_reshape_rpn_cls_score_reshape_0_split -> rpn_cls_score_reshape_rpn_cls_score_reshape_0_split_1
I0611 15:29:34.194034 24002 net.cpp:150] Setting up rpn_cls_score_reshape_rpn_cls_score_reshape_0_split
I0611 15:29:34.194038 24002 net.cpp:157] Top shape: 1 2 570 63 (71820)
I0611 15:29:34.194041 24002 net.cpp:157] Top shape: 1 2 570 63 (71820)
I0611 15:29:34.194042 24002 net.cpp:165] Memory required for data: 1428088236
I0611 15:29:34.194044 24002 layer_factory.hpp:77] Creating layer rpn-data
I0611 15:29:34.194352 24002 net.cpp:106] Creating Layer rpn-data
I0611 15:29:34.194360 24002 net.cpp:454] rpn-data <- rpn_cls_score_rpn_cls_score_0_split_1
I0611 15:29:34.194365 24002 net.cpp:454] rpn-data <- gt_boxes_input-data_2_split_0
I0611 15:29:34.194367 24002 net.cpp:454] rpn-data <- im_info_input-data_1_split_0
I0611 15:29:34.194370 24002 net.cpp:454] rpn-data <- data_input-data_0_split_1
I0611 15:29:34.194373 24002 net.cpp:411] rpn-data -> rpn_labels
I0611 15:29:34.194378 24002 net.cpp:411] rpn-data -> rpn_bbox_targets
I0611 15:29:34.194382 24002 net.cpp:411] rpn-data -> rpn_bbox_inside_weights
I0611 15:29:34.194387 24002 net.cpp:411] rpn-data -> rpn_bbox_outside_weights
===================================anchor_scales in AnchorTargetLayer:=============(2, 4, 8, 16, 32)
I0611 15:29:34.195168 24002 net.cpp:150] Setting up rpn-data
I0611 15:29:34.195176 24002 net.cpp:157] Top shape: 1 1 570 63 (35910)
I0611 15:29:34.195179 24002 net.cpp:157] Top shape: 1 60 38 63 (143640)
I0611 15:29:34.195183 24002 net.cpp:157] Top shape: 1 60 38 63 (143640)
I0611 15:29:34.195184 24002 net.cpp:157] Top shape: 1 60 38 63 (143640)
I0611 15:29:34.195186 24002 net.cpp:165] Memory required for data: 1429955556
I0611 15:29:34.195189 24002 layer_factory.hpp:77] Creating layer rpn_loss_cls
I0611 15:29:34.195194 24002 net.cpp:106] Creating Layer rpn_loss_cls
I0611 15:29:34.195197 24002 net.cpp:454] rpn_loss_cls <- rpn_cls_score_reshape_rpn_cls_score_reshape_0_split_0
I0611 15:29:34.195200 24002 net.cpp:454] rpn_loss_cls <- rpn_labels
…
I0611 15:29:34.196934 24002 net.cpp:157] Top shape: (1)
I0611 15:29:34.196947 24002 net.cpp:160]     with loss weight 1
I0611 15:29:34.196951 24002 net.cpp:165] Memory required for data: 1429955564
I0611 15:29:34.196954 24002 layer_factory.hpp:77] Creating layer rpn_cls_prob
I0611 15:29:34.196960 24002 net.cpp:106] Creating Layer rpn_cls_prob
I0611 15:29:34.196964 24002 net.cpp:454] rpn_cls_prob <- rpn_cls_score_reshape_rpn_cls_score_reshape_0_split_1
I0611 15:29:34.196969 24002 net.cpp:411] rpn_cls_prob -> rpn_cls_prob
I0611 15:29:34.197172 24002 net.cpp:150] Setting up rpn_cls_prob
I0611 15:29:34.197178 24002 net.cpp:157] Top shape: 1 2 570 63 (71820)
I0611 15:29:34.197191 24002 net.cpp:165] Memory required for data: 1430242844
I0611 15:29:34.197194 24002 layer_factory.hpp:77] Creating layer rpn_cls_prob_reshape
I0611 15:29:34.197199 24002 net.cpp:106] Creating Layer rpn_cls_prob_reshape
I0611 15:29:34.197201 24002 net.cpp:454] rpn_cls_prob_reshape <- rpn_cls_prob
I0611 15:29:34.197216 24002 net.cpp:411] rpn_cls_prob_reshape -> rpn_cls_prob_reshape
I0611 15:29:34.197234 24002 net.cpp:150] Setting up rpn_cls_prob_reshape
I0611 15:29:34.197238 24002 net.cpp:157] Top shape: 1 30 38 63 (71820)
I0611 15:29:34.197250 24002 net.cpp:165] Memory required for data: 1430530124
I0611 15:29:34.197254 24002 layer_factory.hpp:77] Creating layer proposal
I0611 15:29:34.197731 24002 net.cpp:106] Creating Layer proposal
I0611 15:29:34.197739 24002 net.cpp:454] proposal <- rpn_cls_prob_reshape
I0611 15:29:34.197743 24002 net.cpp:454] proposal <- rpn_bbox_pred_rpn_bbox_pred_0_split_1
I0611 15:29:34.197757 24002 net.cpp:454] proposal <- im_info_input-data_1_split_1
I0611 15:29:34.197762 24002 net.cpp:411] proposal -> rpn_rois
=================================anchor_scales in ProposalLayer:=============(2, 4, 8, 16, 32)
I0611 15:29:34.198602 24002 net.cpp:150] Setting up proposal
I0611 15:29:34.198614 24002 net.cpp:157] Top shape: 1 5 (5)
I0611 15:29:34.198618 24002 net.cpp:165] Memory required for data: 1430530144
I0611 15:29:34.198622 24002 layer_factory.hpp:77] Creating layer roi-data
I0611 15:29:34.198864 24002 net.cpp:106] Creating Layer roi-data
I0611 15:29:34.198873 24002 net.cpp:454] roi-data <- rpn_rois
I0611 15:29:34.198877 24002 net.cpp:454] roi-data <- gt_boxes_input-data_2_split_1
I0611 15:29:34.198882 24002 net.cpp:454] roi-data <- im_info_input-data_1_split_2
I0611 15:29:34.198887 24002 net.cpp:454] roi-data <- seg_mask_inds
I0611 15:29:34.198892 24002 net.cpp:454] roi-data <- flipped
I0611 15:29:34.198900 24002 net.cpp:411] roi-data -> rois
I0611 15:29:34.198909 24002 net.cpp:411] roi-data -> labels
I0611 15:29:34.198920 24002 net.cpp:411] roi-data -> bbox_targets
I0611 15:29:34.198927 24002 net.cpp:411] roi-data -> bbox_inside_weights
I0611 15:29:34.198952 24002 net.cpp:411] roi-data -> bbox_outside_weights
I0611 15:29:34.198962 24002 net.cpp:411] roi-data -> mask_targets
I0611 15:29:34.198971 24002 net.cpp:411] roi-data -> rois_pos
I0611 15:29:34.198977 24002 net.cpp:411] roi-data -> attrArray
I0611 15:29:34.199270 24002 net.cpp:150] Setting up roi-data
I0611 15:29:34.199280 24002 net.cpp:157] Top shape: 1 5 (5)
I0611 15:29:34.199285 24002 net.cpp:157] Top shape: 1 1 (1)
I0611 15:29:34.199290 24002 net.cpp:157] Top shape: 1 8 (8)
I0611 15:29:34.199296 24002 net.cpp:157] Top shape: 1 8 (8)
I0611 15:29:34.199301 24002 net.cpp:157] Top shape: 1 8 (8)
I0611 15:29:34.199306 24002 net.cpp:157] Top shape: 1 244 244 (59536)
I0611 15:29:34.199311 24002 net.cpp:157] Top shape: 1 5 (5)
I0611 15:29:34.199316 24002 net.cpp:157] Top shape: 1 7 (7)
I0611 15:29:34.199321 24002 net.cpp:165] Memory required for data: 1430768456
I0611 15:29:34.199324 24002 layer_factory.hpp:77] Creating layer roi_pool5
I0611 15:29:34.199337 24002 net.cpp:106] Creating Layer roi_pool5
I0611 15:29:34.199342 24002 net.cpp:454] roi_pool5 <- conv5_3_relu5_3_0_split_1
I0611 15:29:34.199347 24002 net.cpp:454] roi_pool5 <- rois
I0611 15:29:34.199354 24002 net.cpp:411] roi_pool5 -> pool5
I0611 15:29:34.199364 24002 roi_alignment_layer.cpp:32] Spatial scale: 0.0625
I0611 15:29:34.199437 24002 net.cpp:150] Setting up roi_pool5
I0611 15:29:34.199445 24002 net.cpp:157] Top shape: 1 512 7 7 (25088)
I0611 15:29:34.199450 24002 net.cpp:165] Memory required for data: 1430868808
I0611 15:29:34.199455 24002 layer_factory.hpp:77] Creating layer fc6
I0611 15:29:34.199465 24002 net.cpp:106] Creating Layer fc6
I0611 15:29:34.199470 24002 net.cpp:454] fc6 <- pool5
I0611 15:29:34.199477 24002 net.cpp:411] fc6 -> fc6
I0611 15:29:34.340354 24002 net.cpp:150] Setting up fc6
I0611 15:29:34.340382 24002 net.cpp:157] Top shape: 1 4096 (4096)
I0611 15:29:34.340386 24002 net.cpp:165] Memory required for data: 1430885192
I0611 15:29:34.340404 24002 layer_factory.hpp:77] Creating layer relu6
I0611 15:29:34.340428 24002 net.cpp:106] Creating Layer relu6
I0611 15:29:34.340446 24002 net.cpp:454] relu6 <- fc6
I0611 15:29:34.340462 24002 net.cpp:397] relu6 -> fc6 (in-place)
I0611 15:29:34.340669 24002 net.cpp:150] Setting up relu6
I0611 15:29:34.340678 24002 net.cpp:157] Top shape: 1 4096 (4096)
I0611 15:29:34.340682 24002 net.cpp:165] Memory required for data: 1430901576
I0611 15:29:34.340685 24002 layer_factory.hpp:77] Creating layer fc7
I0611 15:29:34.340694 24002 net.cpp:106] Creating Layer fc7
I0611 15:29:34.340699 24002 net.cpp:454] fc7 <- fc6
I0611 15:29:34.340716 24002 net.cpp:411] fc7 -> fc7
I0611 15:29:34.364235 24002 net.cpp:150] Setting up fc7
I0611 15:29:34.364259 24002 net.cpp:157] Top shape: 1 4096 (4096)
I0611 15:29:34.364264 24002 net.cpp:165] Memory required for data: 1430917960
I0611 15:29:34.364286 24002 layer_factory.hpp:77] Creating layer relu7
I0611 15:29:34.364307 24002 net.cpp:106] Creating Layer relu7
I0611 15:29:34.364315 24002 net.cpp:454] relu7 <- fc7
I0611 15:29:34.364332 24002 net.cpp:397] relu7 -> fc7 (in-place)
I0611 15:29:34.364547 24002 net.cpp:150] Setting up relu7
I0611 15:29:34.364555 24002 net.cpp:157] Top shape: 1 4096 (4096)
I0611 15:29:34.364558 24002 net.cpp:165] Memory required for data: 1430934344
I0611 15:29:34.364573 24002 layer_factory.hpp:77] Creating layer fc7_relu7_0_split
I0611 15:29:34.364580 24002 net.cpp:106] Creating Layer fc7_relu7_0_split
I0611 15:29:34.364595 24002 net.cpp:454] fc7_relu7_0_split <- fc7
I0611 15:29:34.364603 24002 net.cpp:411] fc7_relu7_0_split -> fc7_relu7_0_split_0
I0611 15:29:34.364629 24002 net.cpp:411] fc7_relu7_0_split -> fc7_relu7_0_split_1
I0611 15:29:34.364645 24002 net.cpp:411] fc7_relu7_0_split -> fc7_relu7_0_split_2
I0611 15:29:34.364711 24002 net.cpp:150] Setting up fc7_relu7_0_split
I0611 15:29:34.364727 24002 net.cpp:157] Top shape: 1 4096 (4096)
I0611 15:29:34.364730 24002 net.cpp:157] Top shape: 1 4096 (4096)
I0611 15:29:34.364747 24002 net.cpp:157] Top shape: 1 4096 (4096)
I0611 15:29:34.364753 24002 net.cpp:165] Memory required for data: 1430983496
I0611 15:29:34.364756 24002 layer_factory.hpp:77] Creating layer attr_score
I0611 15:29:34.364766 24002 net.cpp:106] Creating Layer attr_score
I0611 15:29:34.364773 24002 net.cpp:454] attr_score <- fc7_relu7_0_split_0
I0611 15:29:34.364781 24002 net.cpp:411] attr_score -> attr_score
I0611 15:29:34.365578 24002 net.cpp:150] Setting up attr_score
I0611 15:29:34.365586 24002 net.cpp:157] Top shape: 1 7 (7)
I0611 15:29:34.365589 24002 net.cpp:165] Memory required for data: 1430983524
I0611 15:29:34.365595 24002 layer_factory.hpp:77] Creating layer cls_score
I0611 15:29:34.365603 24002 net.cpp:106] Creating Layer cls_score
I0611 15:29:34.365618 24002 net.cpp:454] cls_score <- fc7_relu7_0_split_1
I0611 15:29:34.365626 24002 net.cpp:411] cls_score -> cls_score
I0611 15:29:34.365871 24002 net.cpp:150] Setting up cls_score
I0611 15:29:34.365877 24002 net.cpp:157] Top shape: 1 2 (2)
I0611 15:29:34.365880 24002 net.cpp:165] Memory required for data: 1430983532
I0611 15:29:34.365886 24002 layer_factory.hpp:77] Creating layer bbox_pred
I0611 15:29:34.365895 24002 net.cpp:106] Creating Layer bbox_pred
I0611 15:29:34.365909 24002 net.cpp:454] bbox_pred <- fc7_relu7_0_split_2
I0611 15:29:34.365916 24002 net.cpp:411] bbox_pred -> bbox_pred
I0611 15:29:34.366649 24002 net.cpp:150] Setting up bbox_pred
I0611 15:29:34.366655 24002 net.cpp:157] Top shape: 1 8 (8)
I0611 15:29:34.366658 24002 net.cpp:165] Memory required for data: 1430983564
I0611 15:29:34.366664 24002 layer_factory.hpp:77] Creating layer loss_attribute
I0611 15:29:34.366673 24002 net.cpp:106] Creating Layer loss_attribute
I0611 15:29:34.366688 24002 net.cpp:454] loss_attribute <- attr_score
I0611 15:29:34.366691 24002 net.cpp:454] loss_attribute <- attrArray
I0611 15:29:34.366699 24002 net.cpp:411] loss_attribute -> loss_attribute
…
I0611 15:29:34.367657 24002 net.cpp:165] Memory required for data: 1430983576
I0611 15:29:34.367661 24002 layer_factory.hpp:77] Creating layer roi_pool5_2
I0611 15:29:34.367672 24002 net.cpp:106] Creating Layer roi_pool5_2
I0611 15:29:34.367677 24002 net.cpp:454] roi_pool5_2 <- conv5_3_relu5_3_0_split_2
I0611 15:29:34.367682 24002 net.cpp:454] roi_pool5_2 <- rois_pos
I0611 15:29:34.367688 24002 net.cpp:411] roi_pool5_2 -> pool5_2
I0611 15:29:34.367696 24002 roi_alignment_layer.cpp:32] Spatial scale: 0.0625
I0611 15:29:34.367769 24002 net.cpp:150] Setting up roi_pool5_2
I0611 15:29:34.367775 24002 net.cpp:157] Top shape: 1 512 7 7 (25088)
I0611 15:29:34.367779 24002 net.cpp:165] Memory required for data: 1431083928
I0611 15:29:34.367782 24002 layer_factory.hpp:77] Creating layer pool5_2_conv
I0611 15:29:34.367801 24002 net.cpp:106] Creating Layer pool5_2_conv
I0611 15:29:34.367806 24002 net.cpp:454] pool5_2_conv <- pool5_2
I0611 15:29:34.367815 24002 net.cpp:411] pool5_2_conv -> pool5_2_conv
I0611 15:29:34.374573 24002 net.cpp:150] Setting up pool5_2_conv
I0611 15:29:34.374583 24002 net.cpp:157] Top shape: 1 512 7 7 (25088)
I0611 15:29:34.374586 24002 net.cpp:165] Memory required for data: 1431184280
I0611 15:29:34.374604 24002 layer_factory.hpp:77] Creating layer pool5_2_conv_relu
I0611 15:29:34.374615 24002 net.cpp:106] Creating Layer pool5_2_conv_relu
I0611 15:29:34.374620 24002 net.cpp:454] pool5_2_conv_relu <- pool5_2_conv
I0611 15:29:34.374626 24002 net.cpp:411] pool5_2_conv_relu -> pool5_2_conv_relu
I0611 15:29:34.374794 24002 net.cpp:150] Setting up pool5_2_conv_relu
I0611 15:29:34.374801 24002 net.cpp:157] Top shape: 1 512 7 7 (25088)
I0611 15:29:34.374805 24002 net.cpp:165] Memory required for data: 1431284632
I0611 15:29:34.374809 24002 layer_factory.hpp:77] Creating layer pool5_2_conv2
I0611 15:29:34.374819 24002 net.cpp:106] Creating Layer pool5_2_conv2
I0611 15:29:34.374822 24002 net.cpp:454] pool5_2_conv2 <- pool5_2_conv_relu
I0611 15:29:34.374830 24002 net.cpp:411] pool5_2_conv2 -> pool5_2_conv2
I0611 15:29:34.426558 24002 net.cpp:150] Setting up pool5_2_conv2
I0611 15:29:34.426576 24002 net.cpp:157] Top shape: 1 512 7 7 (25088)
I0611 15:29:34.426581 24002 net.cpp:165] Memory required for data: 1431384984
I0611 15:29:34.426590 24002 layer_factory.hpp:77] Creating layer pool5_2_conv2_relu
I0611 15:29:34.426611 24002 net.cpp:106] Creating Layer pool5_2_conv2_relu
I0611 15:29:34.426620 24002 net.cpp:454] pool5_2_conv2_relu <- pool5_2_conv2
I0611 15:29:34.426630 24002 net.cpp:411] pool5_2_conv2_relu -> pool5_2_conv2_relu
I0611 15:29:34.426837 24002 net.cpp:150] Setting up pool5_2_conv2_relu
I0611 15:29:34.426846 24002 net.cpp:157] Top shape: 1 512 7 7 (25088)
I0611 15:29:34.426849 24002 net.cpp:165] Memory required for data: 1431485336
I0611 15:29:34.426862 24002 layer_factory.hpp:77] Creating layer mask_deconv1
I0611 15:29:34.426884 24002 net.cpp:106] Creating Layer mask_deconv1
I0611 15:29:34.426890 24002 net.cpp:454] mask_deconv1 <- pool5_2_conv2_relu
I0611 15:29:34.426899 24002 net.cpp:411] mask_deconv1 -> mask_deconv1
I0611 15:29:34.427723 24002 net.cpp:150] Setting up mask_deconv1
I0611 15:29:34.427731 24002 net.cpp:157] Top shape: 1 256 30 30 (230400)
I0611 15:29:34.427733 24002 net.cpp:165] Memory required for data: 1432406936
I0611 15:29:34.427740 24002 layer_factory.hpp:77] Creating layer pool5_2_conv3
I0611 15:29:34.427765 24002 net.cpp:106] Creating Layer pool5_2_conv3
I0611 15:29:34.427772 24002 net.cpp:454] pool5_2_conv3 <- mask_deconv1
I0611 15:29:34.427789 24002 net.cpp:411] pool5_2_conv3 -> pool5_2_conv3
I0611 15:29:34.454684 24002 net.cpp:150] Setting up pool5_2_conv3
I0611 15:29:34.454702 24002 net.cpp:157] Top shape: 1 512 30 30 (460800)
I0611 15:29:34.454706 24002 net.cpp:165] Memory required for data: 1434250136
I0611 15:29:34.454718 24002 layer_factory.hpp:77] Creating layer pool5_2_conv3_relu
I0611 15:29:34.454738 24002 net.cpp:106] Creating Layer pool5_2_conv3_relu
I0611 15:29:34.454746 24002 net.cpp:454] pool5_2_conv3_relu <- pool5_2_conv3
I0611 15:29:34.454762 24002 net.cpp:411] pool5_2_conv3_relu -> pool5_2_conv3_relu
I0611 15:29:34.454932 24002 net.cpp:150] Setting up pool5_2_conv3_relu
I0611 15:29:34.454941 24002 net.cpp:157] Top shape: 1 512 30 30 (460800)
I0611 15:29:34.454943 24002 net.cpp:165] Memory required for data: 1436093336
I0611 15:29:34.454947 24002 layer_factory.hpp:77] Creating layer pool5_2_conv4
I0611 15:29:34.454960 24002 net.cpp:106] Creating Layer pool5_2_conv4
I0611 15:29:34.454977 24002 net.cpp:454] pool5_2_conv4 <- pool5_2_conv3_relu
I0611 15:29:34.454993 24002 net.cpp:411] pool5_2_conv4 -> pool5_2_conv4
I0611 15:29:34.506162 24002 net.cpp:150] Setting up pool5_2_conv4
I0611 15:29:34.506182 24002 net.cpp:157] Top shape: 1 512 30 30 (460800)
I0611 15:29:34.506187 24002 net.cpp:165] Memory required for data: 1437936536
I0611 15:29:34.506196 24002 layer_factory.hpp:77] Creating layer pool5_2_conv4_relu
I0611 15:29:34.506206 24002 net.cpp:106] Creating Layer pool5_2_conv4_relu
I0611 15:29:34.506224 24002 net.cpp:454] pool5_2_conv4_relu <- pool5_2_conv4
I0611 15:29:34.506239 24002 net.cpp:411] pool5_2_conv4_relu -> pool5_2_conv4_relu
I0611 15:29:34.506398 24002 net.cpp:150] Setting up pool5_2_conv4_relu
I0611 15:29:34.506405 24002 net.cpp:157] Top shape: 1 512 30 30 (460800)
I0611 15:29:34.506409 24002 net.cpp:165] Memory required for data: 1439779736
I0611 15:29:34.506413 24002 layer_factory.hpp:77] Creating layer pool5_2_conv4_relu_pool5_2_conv4_relu_0_split
I0611 15:29:34.506422 24002 net.cpp:106] Creating Layer pool5_2_conv4_relu_pool5_2_conv4_relu_0_split
I0611 15:29:34.506426 24002 net.cpp:454] pool5_2_conv4_relu_pool5_2_conv4_relu_0_split <- pool5_2_conv4_relu
I0611 15:29:34.506441 24002 net.cpp:411] pool5_2_conv4_relu_pool5_2_conv4_relu_0_split -> pool5_2_conv4_relu_pool5_2_conv4_relu_0_split_0
I0611 15:29:34.506453 24002 net.cpp:411] pool5_2_conv4_relu_pool5_2_conv4_relu_0_split -> pool5_2_conv4_relu_pool5_2_conv4_relu_0_split_1
I0611 15:29:34.506460 24002 net.cpp:411] pool5_2_conv4_relu_pool5_2_conv4_relu_0_split -> pool5_2_conv4_relu_pool5_2_conv4_relu_0_split_2
I0611 15:29:34.506465 24002 net.cpp:411] pool5_2_conv4_relu_pool5_2_conv4_relu_0_split -> pool5_2_conv4_relu_pool5_2_conv4_relu_0_split_3
I0611 15:29:34.506561 24002 net.cpp:150] Setting up pool5_2_conv4_relu_pool5_2_conv4_relu_0_split
I0611 15:29:34.506567 24002 net.cpp:157] Top shape: 1 512 30 30 (460800)
I0611 15:29:34.506572 24002 net.cpp:157] Top shape: 1 512 30 30 (460800)
I0611 15:29:34.506589 24002 net.cpp:157] Top shape: 1 512 30 30 (460800)
I0611 15:29:34.506594 24002 net.cpp:157] Top shape: 1 512 30 30 (460800)
I0611 15:29:34.506606 24002 net.cpp:165] Memory required for data: 1447152536
I0611 15:29:34.506609 24002 layer_factory.hpp:77] Creating layer query_conv
I0611 15:29:34.506633 24002 net.cpp:106] Creating Layer query_conv
I0611 15:29:34.506639 24002 net.cpp:454] query_conv <- pool5_2_conv4_relu_pool5_2_conv4_relu_0_split_0
I0611 15:29:34.506646 24002 net.cpp:411] query_conv -> query_conv
I0611 15:29:34.508321 24002 net.cpp:150] Setting up query_conv
I0611 15:29:34.508330 24002 net.cpp:157] Top shape: 1 64 30 30 (57600)
I0611 15:29:34.508334 24002 net.cpp:165] Memory required for data: 1447382936
I0611 15:29:34.508352 24002 layer_factory.hpp:77] Creating layer key_conv
I0611 15:29:34.508366 24002 net.cpp:106] Creating Layer key_conv
I0611 15:29:34.508373 24002 net.cpp:454] key_conv <- pool5_2_conv4_relu_pool5_2_conv4_relu_0_split_1
I0611 15:29:34.508379 24002 net.cpp:411] key_conv -> key_conv
I0611 15:29:34.510056 24002 net.cpp:150] Setting up key_conv
I0611 15:29:34.510064 24002 net.cpp:157] Top shape: 1 64 30 30 (57600)
I0611 15:29:34.510068 24002 net.cpp:165] Memory required for data: 1447613336
I0611 15:29:34.510085 24002 layer_factory.hpp:77] Creating layer value_conv
I0611 15:29:34.510098 24002 net.cpp:106] Creating Layer value_conv
I0611 15:29:34.510103 24002 net.cpp:454] value_conv <- pool5_2_conv4_relu_pool5_2_conv4_relu_0_split_2
I0611 15:29:34.510110 24002 net.cpp:411] value_conv -> value_conv
I0611 15:29:34.516829 24002 net.cpp:150] Setting up value_conv
I0611 15:29:34.516839 24002 net.cpp:157] Top shape: 1 512 30 30 (460800)
I0611 15:29:34.516844 24002 net.cpp:165] Memory required for data: 1449456536
I0611 15:29:34.516860 24002 layer_factory.hpp:77] Creating layer query_conv_reshape
I0611 15:29:34.516870 24002 net.cpp:106] Creating Layer query_conv_reshape
I0611 15:29:34.516875 24002 net.cpp:454] query_conv_reshape <- query_conv
I0611 15:29:34.516881 24002 net.cpp:411] query_conv_reshape -> query_conv_reshape
I0611 15:29:34.516908 24002 net.cpp:150] Setting up query_conv_reshape
I0611 15:29:34.516914 24002 net.cpp:157] Top shape: 1 64 900 1 (57600)
I0611 15:29:34.516917 24002 net.cpp:165] Memory required for data: 1449686936
I0611 15:29:34.516921 24002 layer_factory.hpp:77] Creating layer key_conv_reshape
I0611 15:29:34.516927 24002 net.cpp:106] Creating Layer key_conv_reshape
I0611 15:29:34.516932 24002 net.cpp:454] key_conv_reshape <- key_conv
I0611 15:29:34.516939 24002 net.cpp:411] key_conv_reshape -> key_conv_reshape
I0611 15:29:34.516963 24002 net.cpp:150] Setting up key_conv_reshape
I0611 15:29:34.516968 24002 net.cpp:157] Top shape: 1 64 900 1 (57600)
I0611 15:29:34.516971 24002 net.cpp:165] Memory required for data: 1449917336
I0611 15:29:34.516974 24002 layer_factory.hpp:77] Creating layer value_conv_reshape
I0611 15:29:34.516983 24002 net.cpp:106] Creating Layer value_conv_reshape
I0611 15:29:34.516989 24002 net.cpp:454] value_conv_reshape <- value_conv
I0611 15:29:34.516994 24002 net.cpp:411] value_conv_reshape -> value_conv_reshape
I0611 15:29:34.517015 24002 net.cpp:150] Setting up value_conv_reshape
I0611 15:29:34.517020 24002 net.cpp:157] Top shape: 1 512 900 1 (460800)
I0611 15:29:34.517024 24002 net.cpp:165] Memory required for data: 1451760536
I0611 15:29:34.517029 24002 layer_factory.hpp:77] Creating layer query_conv_reshape_perm
I0611 15:29:34.517040 24002 net.cpp:106] Creating Layer query_conv_reshape_perm
I0611 15:29:34.517045 24002 net.cpp:454] query_conv_reshape_perm <- query_conv_reshape
I0611 15:29:34.517050 24002 net.cpp:411] query_conv_reshape_perm -> query_conv_reshape_perm
I0611 15:29:34.517123 24002 net.cpp:150] Setting up query_conv_reshape_perm
I0611 15:29:34.517129 24002 net.cpp:157] Top shape: 1 1 900 64 (57600)
I0611 15:29:34.517132 24002 net.cpp:165] Memory required for data: 1451990936
I0611 15:29:34.517138 24002 layer_factory.hpp:77] Creating layer key_conv_reshape_perm
I0611 15:29:34.517144 24002 net.cpp:106] Creating Layer key_conv_reshape_perm
I0611 15:29:34.517148 24002 net.cpp:454] key_conv_reshape_perm <- key_conv_reshape
I0611 15:29:34.517154 24002 net.cpp:411] key_conv_reshape_perm -> key_conv_reshape_perm
I0611 15:29:34.517221 24002 net.cpp:150] Setting up key_conv_reshape_perm
I0611 15:29:34.517227 24002 net.cpp:157] Top shape: 1 1 64 900 (57600)
I0611 15:29:34.517231 24002 net.cpp:165] Memory required for data: 1452221336
I0611 15:29:34.517246 24002 layer_factory.hpp:77] Creating layer energy
I0611 15:29:34.517251 24002 net.cpp:106] Creating Layer energy
I0611 15:29:34.517256 24002 net.cpp:454] energy <- query_conv_reshape_perm
I0611 15:29:34.517261 24002 net.cpp:454] energy <- key_conv_reshape_perm
I0611 15:29:34.517267 24002 net.cpp:411] energy -> energy
I0611 15:29:34.517292 24002 net.cpp:150] Setting up energy
I0611 15:29:34.517297 24002 net.cpp:157] Top shape: 1 1 900 900 (810000)
I0611 15:29:34.517300 24002 net.cpp:165] Memory required for data: 1455461336
I0611 15:29:34.517304 24002 layer_factory.hpp:77] Creating layer attention
I0611 15:29:34.517311 24002 net.cpp:106] Creating Layer attention
I0611 15:29:34.517316 24002 net.cpp:454] attention <- energy
I0611 15:29:34.517323 24002 net.cpp:411] attention -> attention
I0611 15:29:34.517498 24002 net.cpp:150] Setting up attention
I0611 15:29:34.517514 24002 net.cpp:157] Top shape: 1 1 900 900 (810000)
I0611 15:29:34.517518 24002 net.cpp:165] Memory required for data: 1458701336
I0611 15:29:34.517522 24002 layer_factory.hpp:77] Creating layer value_conv_reshape_perm
I0611 15:29:34.517531 24002 net.cpp:106] Creating Layer value_conv_reshape_perm
I0611 15:29:34.517536 24002 net.cpp:454] value_conv_reshape_perm <- value_conv_reshape
I0611 15:29:34.517542 24002 net.cpp:411] value_conv_reshape_perm -> value_conv_reshape_perm
I0611 15:29:34.517616 24002 net.cpp:150] Setting up value_conv_reshape_perm
I0611 15:29:34.517621 24002 net.cpp:157] Top shape: 1 1 512 900 (460800)
I0611 15:29:34.517624 24002 net.cpp:165] Memory required for data: 1460544536
I0611 15:29:34.517628 24002 layer_factory.hpp:77] Creating layer attention_perm
I0611 15:29:34.517634 24002 net.cpp:106] Creating Layer attention_perm
I0611 15:29:34.517638 24002 net.cpp:454] attention_perm <- attention
I0611 15:29:34.517644 24002 net.cpp:411] attention_perm -> attention_perm
I0611 15:29:34.517714 24002 net.cpp:150] Setting up attention_perm
I0611 15:29:34.517719 24002 net.cpp:157] Top shape: 1 1 900 900 (810000)
I0611 15:29:34.517724 24002 net.cpp:165] Memory required for data: 1463784536
I0611 15:29:34.517726 24002 layer_factory.hpp:77] Creating layer out
I0611 15:29:34.517732 24002 net.cpp:106] Creating Layer out
I0611 15:29:34.517737 24002 net.cpp:454] out <- value_conv_reshape_perm
I0611 15:29:34.517741 24002 net.cpp:454] out <- attention_perm
I0611 15:29:34.517747 24002 net.cpp:411] out -> out
I0611 15:29:34.517766 24002 net.cpp:150] Setting up out
I0611 15:29:34.517771 24002 net.cpp:157] Top shape: 1 1 512 900 (460800)
I0611 15:29:34.517774 24002 net.cpp:165] Memory required for data: 1465627736
I0611 15:29:34.517777 24002 layer_factory.hpp:77] Creating layer out_reshape
I0611 15:29:34.517782 24002 net.cpp:106] Creating Layer out_reshape
I0611 15:29:34.517788 24002 net.cpp:454] out_reshape <- out
I0611 15:29:34.517794 24002 net.cpp:411] out_reshape -> out_reshape
I0611 15:29:34.517815 24002 net.cpp:150] Setting up out_reshape
I0611 15:29:34.517822 24002 net.cpp:157] Top shape: 1 512 30 30 (460800)
I0611 15:29:34.517824 24002 net.cpp:165] Memory required for data: 1467470936
I0611 15:29:34.517827 24002 layer_factory.hpp:77] Creating layer out_reshape_scale
I0611 15:29:34.517838 24002 net.cpp:106] Creating Layer out_reshape_scale
I0611 15:29:34.517843 24002 net.cpp:454] out_reshape_scale <- out_reshape
I0611 15:29:34.517849 24002 net.cpp:411] out_reshape_scale -> out_reshape_scale
I0611 15:29:34.517915 24002 net.cpp:150] Setting up out_reshape_scale
I0611 15:29:34.517920 24002 net.cpp:157] Top shape: 1 512 30 30 (460800)
I0611 15:29:34.517925 24002 net.cpp:165] Memory required for data: 1469314136
I0611 15:29:34.517930 24002 layer_factory.hpp:77] Creating layer out_x
I0611 15:29:34.517937 24002 net.cpp:106] Creating Layer out_x
I0611 15:29:34.517942 24002 net.cpp:454] out_x <- out_reshape_scale
I0611 15:29:34.517946 24002 net.cpp:454] out_x <- pool5_2_conv4_relu_pool5_2_conv4_relu_0_split_3
I0611 15:29:34.517952 24002 net.cpp:411] out_x -> out_x
I0611 15:29:34.517977 24002 net.cpp:150] Setting up out_x
I0611 15:29:34.517982 24002 net.cpp:157] Top shape: 1 512 30 30 (460800)
I0611 15:29:34.517987 24002 net.cpp:165] Memory required for data: 1471157336
I0611 15:29:34.517989 24002 layer_factory.hpp:77] Creating layer mask_deconv2
I0611 15:29:34.517997 24002 net.cpp:106] Creating Layer mask_deconv2
I0611 15:29:34.518002 24002 net.cpp:454] mask_deconv2 <- out_x
I0611 15:29:34.518009 24002 net.cpp:411] mask_deconv2 -> mask_deconv2
I0611 15:29:34.518808 24002 net.cpp:150] Setting up mask_deconv2
I0611 15:29:34.518815 24002 net.cpp:157] Top shape: 1 256 122 122 (3810304)
I0611 15:29:34.518818 24002 net.cpp:165] Memory required for data: 1486398552
I0611 15:29:34.518824 24002 layer_factory.hpp:77] Creating layer pool5_2_conv5
I0611 15:29:34.518834 24002 net.cpp:106] Creating Layer pool5_2_conv5
I0611 15:29:34.518839 24002 net.cpp:454] pool5_2_conv5 <- mask_deconv2
I0611 15:29:34.518847 24002 net.cpp:411] pool5_2_conv5 -> pool5_2_conv5
I0611 15:29:34.546061 24002 net.cpp:150] Setting up pool5_2_conv5
I0611 15:29:34.546080 24002 net.cpp:157] Top shape: 1 512 122 122 (7620608)
I0611 15:29:34.546084 24002 net.cpp:165] Memory required for data: 1516880984
I0611 15:29:34.546094 24002 layer_factory.hpp:77] Creating layer pool5_2_conv5_relu
I0611 15:29:34.546113 24002 net.cpp:106] Creating Layer pool5_2_conv5_relu
I0611 15:29:34.546121 24002 net.cpp:454] pool5_2_conv5_relu <- pool5_2_conv5
I0611 15:29:34.546138 24002 net.cpp:411] pool5_2_conv5_relu -> pool5_2_conv5_relu
I0611 15:29:34.546304 24002 net.cpp:150] Setting up pool5_2_conv5_relu
I0611 15:29:34.546313 24002 net.cpp:157] Top shape: 1 512 122 122 (7620608)
I0611 15:29:34.546315 24002 net.cpp:165] Memory required for data: 1547363416
I0611 15:29:34.546319 24002 layer_factory.hpp:77] Creating layer pool5_2_conv6
I0611 15:29:34.546331 24002 net.cpp:106] Creating Layer pool5_2_conv6
I0611 15:29:34.546337 24002 net.cpp:454] pool5_2_conv6 <- pool5_2_conv5_relu
I0611 15:29:34.546344 24002 net.cpp:411] pool5_2_conv6 -> pool5_2_conv6
I0611 15:29:34.597276 24002 net.cpp:150] Setting up pool5_2_conv6
I0611 15:29:34.597295 24002 net.cpp:157] Top shape: 1 512 122 122 (7620608)
I0611 15:29:34.597299 24002 net.cpp:165] Memory required for data: 1577845848
I0611 15:29:34.597332 24002 layer_factory.hpp:77] Creating layer pool5_2_conv6_relu
I0611 15:29:34.597342 24002 net.cpp:106] Creating Layer pool5_2_conv6_relu
I0611 15:29:34.597349 24002 net.cpp:454] pool5_2_conv6_relu <- pool5_2_conv6
I0611 15:29:34.597357 24002 net.cpp:411] pool5_2_conv6_relu -> pool5_2_conv6_relu
I0611 15:29:34.597939 24002 net.cpp:150] Setting up pool5_2_conv6_relu
I0611 15:29:34.597949 24002 net.cpp:157] Top shape: 1 512 122 122 (7620608)
I0611 15:29:34.597952 24002 net.cpp:165] Memory required for data: 1608328280
I0611 15:29:34.597956 24002 layer_factory.hpp:77] Creating layer mask_deconv3
I0611 15:29:34.597966 24002 net.cpp:106] Creating Layer mask_deconv3
I0611 15:29:34.597981 24002 net.cpp:454] mask_deconv3 <- pool5_2_conv6_relu
I0611 15:29:34.597990 24002 net.cpp:411] mask_deconv3 -> mask_deconv3
I0611 15:29:34.598390 24002 net.cpp:150] Setting up mask_deconv3
I0611 15:29:34.598398 24002 net.cpp:157] Top shape: 1 256 244 244 (15241216)
I0611 15:29:34.598402 24002 net.cpp:165] Memory required for data: 1669293144
I0611 15:29:34.598417 24002 layer_factory.hpp:77] Creating layer mask_score
I0611 15:29:34.598431 24002 net.cpp:106] Creating Layer mask_score
I0611 15:29:34.598436 24002 net.cpp:454] mask_score <- mask_deconv3
I0611 15:29:34.598443 24002 net.cpp:411] mask_score -> mask_score
I0611 15:29:34.599077 24002 net.cpp:150] Setting up mask_score
I0611 15:29:34.599086 24002 net.cpp:157] Top shape: 1 8 244 244 (476288)
I0611 15:29:34.599089 24002 net.cpp:165] Memory required for data: 1671198296
I0611 15:29:34.599107 24002 layer_factory.hpp:77] Creating layer loss_mask
I0611 15:29:34.599118 24002 net.cpp:106] Creating Layer loss_mask
I0611 15:29:34.599123 24002 net.cpp:454] loss_mask <- mask_score
I0611 15:29:34.599128 24002 net.cpp:454] loss_mask <- mask_targets
I0611 15:29:34.599134 24002 net.cpp:411] loss_mask -> loss_mask
…
