…
average_loss: 100
iter_size: 2
I0625 15:11:45.481887 30910 solver.cpp:81] Creating training net from train_net file: models/pascal_voc/VGG16/faster_rcnn_end2end/train.prototxt
I0625 15:11:45.483600 30910 net.cpp:49] Initializing net from parameters: 
name: "VGG_ILSVRC_16_layers"
state {
  phase: TRAIN
}
layer {
  name: "input-data"
  type: "Python"
  top: "data"
  top: "im_info"
  top: "gt_boxes"
  top: "seg_mask_inds"
  top: "flipped"
  python_param {
    module: "roi_data_layer.layer"
    layer: "RoIDataLayer"
    param_str: "\'num_classes\': 2"
  }
}
layer {
  name: "conv1_1"
  type: "Convolution"
  bottom: "data"
  top: "conv1_1"
  param {
    lr_mult: 0
    decay_mult: 0
  }
  param {
    lr_mult: 0
    decay_mult: 0
  }
  convolution_param {
    num_output: 64
    pad: 1
    kernel_size: 3
  }
}
layer {
  name: "relu1_1"
  type: "ReLU"
  bottom: "conv1_1"
  top: "conv1_1"
}
layer {
  name: "conv1_2"
  type: "Convolution"
  bottom: "conv1_1"
  top: "conv1_2"
  param {
    lr_mult: 0
    decay_mult: 0
  }
  param {
    lr_mult: 0
    decay_mult: 0
  }
  convolution_param {
    num_output: 64
    pad: 1
    kernel_size: 3
  }
}
layer {
  name: "relu1_2"
  type: "ReLU"
  bottom: "conv1_2"
  top: "conv1_2"
}
layer {
  name: "pool1"
  type: "Pooling"
  bottom: "conv1_2"
  top: "pool1"
  pooling_param {
    pool: MAX
    kernel_size: 2
    stride: 2
  }
}
layer {
  name: "conv2_1"
  type: "Convolution"
  bottom: "pool1"
  top: "conv2_1"
  param {
    lr_mult: 0
    decay_mult: 0
  }
  param {
    lr_mult: 0
    decay_mult: 0
  }
  convolution_param {
    num_output: 128
    pad: 1
    kernel_size: 3
  }
}
layer {
  name: "relu2_1"
  type: "ReLU"
  bottom: "conv2_1"
  top: "conv2_1"
}
layer {
  name: "conv2_2"
  type: "Convolution"
  bottom: "conv2_1"
  top: "conv2_2"
  param {
    lr_mult: 0
    decay_mult: 0
  }
  param {
    lr_mult: 0
    decay_mult: 0
  }
  convolution_param {
    num_output: 128
    pad: 1
    kernel_size: 3
  }
}
layer {
  name: "relu2_2"
  type: "ReLU"
  bottom: "conv2_2"
  top: "conv2_2"
}
layer {
  name: "pool2"
  type: "Pooling"
  bottom: "conv2_2"
  top: "pool2"
  pooling_param {
    pool: MAX
    kernel_size: 2
    stride: 2
  }
}
layer {
  name: "conv3_1"
  type: "Convolution"
  bottom: "pool2"
  top: "conv3_1"
  param {
    lr_mult: 1
  }
  param {
    lr_mult: 2
  }
  convolution_param {
    num_output: 256
    pad: 1
    kernel_size: 3
  }
}
layer {
  name: "relu3_1"
  type: "ReLU"
  bottom: "conv3_1"
  top: "conv3_1"
}
layer {
  name: "conv3_2"
  type: "Convolution"
  bottom: "conv3_1"
  top: "conv3_2"
  param {
    lr_mult: 1
  }
  param {
    lr_mult: 2
  }
  convolution_param {
    num_output: 256
    pad: 1
    kernel_size: 3
  }
}
layer {
  name: "relu3_2"
  type: "ReLU"
  bottom: "conv3_2"
  top: "conv3_2"
}
layer {
  name: "conv3_3"
  type: "Convolution"
  bottom: "conv3_2"
  top: "conv3_3"
  param {
    lr_mult: 1
  }
  param {
    lr_mult: 2
  }
  convolution_param {
    num_output: 256
    pad: 1
    kernel_size: 3
  }
}
layer {
  name: "relu3_3"
  type: "ReLU"
  bottom: "conv3_3"
  top: "conv3_3"
}
layer {
  name: "pool3"
  type: "Pooling"
  bottom: "conv3_3"
  top: "pool3"
  pooling_param {
    pool: MAX
    kernel_size: 2
    stride: 2
  }
}
layer {
  name: "conv4_1"
  type: "Convolution"
  bottom: "pool3"
  top: "conv4_1"
  param {
    lr_mult: 1
  }
  param {
    lr_mult: 2
  }
  convolution_param {
    num_output: 512
    pad: 1
    kernel_size: 3
  }
}
layer {
  name: "relu4_1"
  type: "ReLU"
  bottom: "conv4_1"
  top: "conv4_1"
}
layer {
  name: "conv4_2"
  type: "Convolution"
  bottom: "conv4_1"
  top: "conv4_2"
  param {
    lr_mult: 1
  }
  param {
    lr_mult: 2
  }
  convolution_param {
    num_output: 512
    pad: 1
    kernel_size: 3
  }
}
layer {
  name: "relu4_2"
  type: "ReLU"
  bottom: "conv4_2"
  top: "conv4_2"
}
layer {
  name: "conv4_3"
  type: "Convolution"
  bottom: "conv4_2"
  top: "conv4_3"
  param {
    lr_mult: 1
  }
  param {
    lr_mult: 2
  }
  convolution_param {
    num_output: 512
    pad: 1
    kernel_size: 3
  }
}
layer {
  name: "relu4_3"
  type: "ReLU"
  bottom: "conv4_3"
  top: "conv4_3"
}
layer {
  name: "pool4"
  type: "Pooling"
  bottom: "conv4_3"
  top: "pool4"
  pooling_param {
    pool: MAX
    kernel_size: 2
    stride: 2
  }
}
layer {
  name: "conv5_1"
  type: "Convolution"
  bottom: "pool4"
  top: "conv5_1"
  param {
    lr_mult: 1
  }
  param {
    lr_mult: 2
  }
  convolution_param {
    num_output: 512
    pad: 1
    kernel_size: 3
  }
}
layer {
  name: "relu5_1"
  type: "ReLU"
  bottom: "conv5_1"
  top: "conv5_1"
}
layer {
  name: "conv5_2"
  type: "Convolution"
  bottom: "conv5_1"
  top: "conv5_2"
  param {
    lr_mult: 1
  }
  param {
    lr_mult: 2
  }
  convolution_param {
    num_output: 512
    pad: 1
    kernel_size: 3
  }
}
layer {
  name: "relu5_2"
  type: "ReLU"
  bottom: "conv5_2"
  top: "conv5_2"
}
layer {
  name: "conv5_3"
  type: "Convolution"
  bottom: "conv5_2"
  top: "conv5_3"
  param {
    lr_mult: 1
  }
  param {
    lr_mult: 2
  }
  convolution_param {
    num_output: 512
    pad: 1
    kernel_size: 3
  }
}
layer {
  name: "relu5_3"
  type: "ReLU"
  bottom: "conv5_3"
  top: "conv5_3"
}
layer {
  name: "rpn_conv/3x3"
  type: "Convolution"
  bottom: "conv5_3"
  top: "rpn/output"
  param {
    lr_mult: 1
  }
  param {
    lr_mult: 2
  }
  convolution_param {
    num_output: 512
    pad: 1
    kernel_size: 3
    stride: 1
    weight_filler {
      type: "gaussian"
      std: 0.01
    }
    bias_filler {
      type: "constant"
      value: 0
    }
  }
}
layer {
  name: "rpn_relu/3x3"
  type: "ReLU"
  bottom: "rpn/output"
  top: "rpn/output"
}
layer {
  name: "rpn_cls_score"
  type: "Convolution"
  bottom: "rpn/output"
  top: "rpn_cls_score"
  param {
    lr_mult: 1
  }
  param {
    lr_mult: 2
  }
  convolution_param {
    num_output: 30
    pad: 0
    kernel_size: 1
    stride: 1
    weight_filler {
      type: "gaussian"
      std: 0.01
    }
    bias_filler {
      type: "constant"
      value: 0
    }
  }
}
layer {
  name: "rpn_bbox_pred"
  type: "Convolution"
  bottom: "rpn/output"
  top: "rpn_bbox_pred"
  param {
    lr_mult: 1
  }
  param {
    lr_mult: 2
  }
  convolution_param {
    num_output: 60
    pad: 0
    kernel_size: 1
    stride: 1
    weight_filler {
      type: "gaussian"
      std: 0.01
    }
    bias_filler {
      type: "constant"
      value: 0
    }
  }
}
layer {
  name: "rpn_cls_score_reshape"
  type: "Reshape"
  bottom: "rpn_cls_score"
  top: "rpn_cls_score_reshape"
  reshape_param {
    shape {
      dim: 0
      dim: 2
      dim: -1
      dim: 0
    }
  }
}
layer {
  name: "rpn-data"
  type: "Python"
  bottom: "rpn_cls_score"
  bottom: "gt_boxes"
  bottom: "im_info"
  bottom: "data"
  top: "rpn_labels"
  top: "rpn_bbox_targets"
  top: "rpn_bbox_inside_weights"
  top: "rpn_bbox_outside_weights"
  python_param {
    module: "rpn.anchor_target_layer"
    layer: "AnchorTargetLayer"
    param_str: "\'feat_stride\': 16 \n\'scales\': !!python/tuple [2, 4, 8, 16, 32]"
  }
}
layer {
  name: "rpn_loss_cls"
  type: "SoftmaxWithLoss"
  bottom: "rpn_cls_score_reshape"
  bottom: "rpn_labels"
  top: "rpn_cls_loss"
  loss_weight: 1
  propagate_down: true
  propagate_down: false
  loss_param {
    ignore_label: -1
    normalize: true
  }
}
layer {
  name: "rpn_loss_bbox"
  type: "SmoothL1Loss"
  bottom: "rpn_bbox_pred"
  bottom: "rpn_bbox_targets"
  bottom: "rpn_bbox_inside_weights"
  bottom: "rpn_bbox_outside_weights"
  top: "rpn_loss_bbox"
  loss_weight: 1
  smooth_l1_loss_param {
    sigma: 3
  }
}
layer {
  name: "rpn_cls_prob"
  type: "Softmax"
  bottom: "rpn_cls_score_reshape"
  top: "rpn_cls_prob"
}
layer {
  name: "rpn_cls_prob_reshape"
  type: "Reshape"
  bottom: "rpn_cls_prob"
  top: "rpn_cls_prob_reshape"
  reshape_param {
    shape {
      dim: 0
      dim: 30
      dim: -1
      dim: 0
    }
  }
}
layer {
  name: "proposal"
  type: "Python"
  bottom: "rpn_cls_prob_reshape"
  bottom: "rpn_bbox_pred"
  bottom: "im_info"
  top: "rpn_rois"
  python_param {
    module: "rpn.proposal_layer"
    layer: "ProposalLayer"
    param_str: "\'feat_stride\': 16 \n\'scales\': !!python/tuple [2, 4, 8, 16, 32]"
  }
}
layer {
  name: "roi-data"
  type: "Python"
  bottom: "rpn_rois"
  bottom: "gt_boxes"
  bottom: "im_info"
  bottom: "seg_mask_inds"
  bottom: "flipped"
  top: "rois"
  top: "labels"
  top: "bbox_targets"
  top: "bbox_inside_weights"
  top: "bbox_outside_weights"
  top: "mask_targets"
  top: "rois_pos"
  top: "attrArray"
  top: "attrArrayInd"
  top: "attrArrayShift"
  python_param {
    module: "rpn.proposal_target_layer"
    layer: "ProposalTargetLayer"
    param_str: "\'num_classes\': 2"
  }
}
layer {
  name: "roi_pool5"
  type: "ROIAlignment"
  bottom: "conv5_3"
  bottom: "rois"
  top: "pool5"
  roi_alignment_param {
    pooled_h: 7
    pooled_w: 7
    spatial_scale: 0.0625
  }
}
layer {
  name: "fc6"
  type: "InnerProduct"
  bottom: "pool5"
  top: "fc6"
  param {
    lr_mult: 1
  }
  param {
    lr_mult: 2
  }
  inner_product_param {
    num_output: 4096
  }
}
layer {
  name: "relu6"
  type: "ReLU"
  bottom: "fc6"
  top: "fc6"
}
layer {
  name: "fc7"
  type: "InnerProduct"
  bottom: "fc6"
  top: "fc7"
  param {
    lr_mult: 1
  }
  param {
    lr_mult: 2
  }
  inner_product_param {
    num_output: 4096
  }
}
layer {
  name: "relu7"
  type: "ReLU"
  bottom: "fc7"
  top: "fc7"
}
layer {
  name: "attr_score"
  type: "InnerProduct"
  bottom: "fc7"
  top: "attr_score"
  param {
    lr_mult: 1
  }
  param {
    lr_mult: 2
  }
  inner_product_param {
    num_output: 7
    weight_filler {
      type: "gaussian"
      std: 0.001
    }
    bias_filler {
      type: "constant"
      value: 0
    }
  }
}
layer {
  name: "attr_score_pos"
  type: "Eltwise"
  bottom: "attr_score"
  bottom: "attrArrayInd"
  top: "attr_score_pos"
  eltwise_param {
    operation: PROD
  }
}
layer {
  name: "attr_score_pos_shift"
  type: "Eltwise"
  bottom: "attr_score_pos"
  bottom: "attrArrayShift"
  top: "attr_score_pos_shift"
  eltwise_param {
    operation: SUM
  }
}
layer {
  name: "cls_score"
  type: "InnerProduct"
  bottom: "fc7"
  top: "cls_score"
  param {
    lr_mult: 1
  }
  param {
    lr_mult: 2
  }
  inner_product_param {
    num_output: 2
    weight_filler {
      type: "gaussian"
      std: 0.01
    }
    bias_filler {
      type: "constant"
      value: 0
    }
  }
}
layer {
  name: "bbox_pred"
  type: "InnerProduct"
  bottom: "fc7"
  top: "bbox_pred"
  param {
    lr_mult: 1
  }
  param {
    lr_mult: 2
  }
  inner_product_param {
    num_output: 8
    weight_filler {
      type: "gaussian"
      std: 0.001
    }
    bias_filler {
      type: "constant"
      value: 0
    }
  }
}
layer {
  name: "loss_attribute"
  type: "SigmoidCrossEntropyLoss"
  bottom: "attr_score_pos_shift"
  bottom: "attrArray"
  top: "loss_attribute"
  loss_weight: 1
  propagate_down: true
  propagate_down: false
}
layer {
  name: "loss_cls"
  type: "SoftmaxWithLoss"
  bottom: "cls_score"
  bottom: "labels"
  top: "loss_cls"
  loss_weight: 3
  propagate_down: true
  propagate_down: false
}
layer {
  name: "loss_bbox"
  type: "SmoothL1Loss"
  bottom: "bbox_pred"
  bottom: "bbox_targets"
  bottom: "bbox_inside_weights"
  bottom: "bbox_outside_weights"
  top: "loss_bbox"
  loss_weight: 2
}
layer {
  name: "roi_pool5_2"
  type: "ROIAlignment"
  bottom: "conv5_3"
  bottom: "rois_pos"
  top: "pool5_2"
  roi_alignment_param {
    pooled_h: 7
    pooled_w: 7
    spatial_scale: 0.0625
  }
}
layer {
  name: "pool5_2_conv"
  type: "Convolution"
  bottom: "pool5_2"
  top: "pool5_2_conv"
  param {
    lr_mult: 1
    decay_mult: 1
  }
  param {
    lr_mult: 2
    decay_mult: 0
  }
  convolution_param {
    num_output: 512
    pad: 0
    kernel_size: 1
    weight_filler {
      type: "gaussian"
      std: 0.01
    }
    bias_filler {
      type: "constant"
      value: 0
    }
  }
}
layer {
  name: "pool5_2_conv_relu"
  type: "ReLU"
  bottom: "pool5_2_conv"
  top: "pool5_2_conv_relu"
}
layer {
  name: "pool5_2_conv2"
  type: "Convolution"
  bottom: "pool5_2_conv_relu"
  top: "pool5_2_conv2"
  param {
    lr_mult: 1
    decay_mult: 1
  }
  param {
    lr_mult: 2
    decay_mult: 0
  }
  convolution_param {
    num_output: 512
    pad: 1
    kernel_size: 3
    stride: 1
    weight_filler {
      type: "gaussian"
      std: 0.01
    }
    bias_filler {
      type: "constant"
      value: 0
    }
  }
}
layer {
  name: "pool5_2_conv2_relu"
  type: "ReLU"
  bottom: "pool5_2_conv2"
  top: "pool5_2_conv2_relu"
}
layer {
  name: "mask_deconv1"
  type: "Deconvolution"
  bottom: "pool5_2_conv2_relu"
  top: "mask_deconv1"
  param {
    lr_mult: 1
    decay_mult: 1
  }
  param {
    lr_mult: 2
    decay_mult: 0
  }
  convolution_param {
    num_output: 256
    pad: 1
    kernel_size: 8
    group: 256
    stride: 4
    weight_filler {
      type: "bilinear"
    }
  }
}
layer {
  name: "pool5_2_conv3"
  type: "Convolution"
  bottom: "mask_deconv1"
  top: "pool5_2_conv3"
  param {
    lr_mult: 1
    decay_mult: 1
  }
  param {
    lr_mult: 2
    decay_mult: 0
  }
  convolution_param {
    num_output: 512
    pad: 1
    kernel_size: 3
    stride: 1
    weight_filler {
      type: "gaussian"
      std: 0.01
    }
    bias_filler {
      type: "constant"
      value: 0
    }
  }
}
layer {
  name: "pool5_2_conv3_relu"
  type: "ReLU"
  bottom: "pool5_2_conv3"
  top: "pool5_2_conv3_relu"
}
layer {
  name: "pool5_2_conv4"
  type: "Convolution"
  bottom: "pool5_2_conv3_relu"
  top: "pool5_2_conv4"
  param {
    lr_mult: 1
    decay_mult: 1
  }
  param {
    lr_mult: 2
    decay_mult: 0
  }
  convolution_param {
    num_output: 512
    pad: 1
    kernel_size: 3
    stride: 1
    weight_filler {
      type: "gaussian"
      std: 0.01
    }
    bias_filler {
      type: "constant"
      value: 0
    }
  }
}
layer {
  name: "pool5_2_conv4_relu"
  type: "ReLU"
  bottom: "pool5_2_conv4"
  top: "pool5_2_conv4_relu"
}
layer {
  name: "query_conv"
  type: "Convolution"
  bottom: "pool5_2_conv4_relu"
  top: "query_conv"
  param {
    lr_mult: 1
    decay_mult: 1
  }
  param {
    lr_mult: 2
    decay_mult: 0
  }
  convolution_param {
    num_output: 64
    pad: 0
    kernel_size: 1
    stride: 1
    weight_filler {
      type: "gaussian"
      std: 0.01
    }
    bias_filler {
      type: "constant"
      value: 0
    }
  }
}
layer {
  name: "key_conv"
  type: "Convolution"
  bottom: "pool5_2_conv4_relu"
  top: "key_conv"
  param {
    lr_mult: 1
    decay_mult: 1
  }
  param {
    lr_mult: 2
    decay_mult: 0
  }
  convolution_param {
    num_output: 64
    pad: 0
    kernel_size: 1
    stride: 1
    weight_filler {
      type: "gaussian"
      std: 0.01
    }
    bias_filler {
      type: "constant"
      value: 0
    }
  }
}
layer {
  name: "value_conv"
  type: "Convolution"
  bottom: "pool5_2_conv4_relu"
  top: "value_conv"
  param {
    lr_mult: 1
    decay_mult: 1
  }
  param {
    lr_mult: 2
    decay_mult: 0
  }
  convolution_param {
    num_output: 512
    pad: 0
    kernel_size: 1
    stride: 1
    weight_filler {
      type: "gaussian"
      std: 0.01
    }
    bias_filler {
      type: "constant"
      value: 0
    }
  }
}
layer {
  name: "query_conv_reshape"
  type: "Reshape"
  bottom: "query_conv"
  top: "query_conv_reshape"
  reshape_param {
    shape {
      dim: -1
      dim: 64
      dim: 900
      dim: 1
    }
  }
}
layer {
  name: "key_conv_reshape"
  type: "Reshape"
  bottom: "key_conv"
  top: "key_conv_reshape"
  reshape_param {
    shape {
      dim: -1
      dim: 64
      dim: 900
      dim: 1
    }
  }
}
layer {
  name: "value_conv_reshape"
  type: "Reshape"
  bottom: "value_conv"
  top: "value_conv_reshape"
  reshape_param {
    shape {
      dim: -1
      dim: 512
      dim: 900
      dim: 1
    }
  }
}
layer {
  name: "query_conv_reshape_perm"
  type: "Permute"
  bottom: "query_conv_reshape"
  top: "query_conv_reshape_perm"
  permute_param {
    order: 0
    order: 3
    order: 2
    order: 1
  }
}
layer {
  name: "key_conv_reshape_perm"
  type: "Permute"
  bottom: "key_conv_reshape"
  top: "key_conv_reshape_perm"
  permute_param {
    order: 0
    order: 3
    order: 1
    order: 2
  }
}
layer {
  name: "energy"
  type: "MatrixMultiplication"
  bottom: "query_conv_reshape_perm"
  bottom: "key_conv_reshape_perm"
  top: "energy"
}
layer {
  name: "attention"
  type: "Softmax"
  bottom: "energy"
  top: "attention"
  softmax_param {
    axis: 3
  }
}
layer {
  name: "value_conv_reshape_perm"
  type: "Permute"
  bottom: "value_conv_reshape"
  top: "value_conv_reshape_perm"
  permute_param {
    order: 0
    order: 3
    order: 1
    order: 2
  }
}
layer {
  name: "attention_perm"
  type: "Permute"
  bottom: "attention"
  top: "attention_perm"
  permute_param {
    order: 0
    order: 1
    order: 2
    order: 3
  }
}
layer {
  name: "out"
  type: "MatrixMultiplication"
  bottom: "value_conv_reshape_perm"
  bottom: "attention_perm"
  top: "out"
}
layer {
  name: "out_reshape"
  type: "Reshape"
  bottom: "out"
  top: "out_reshape"
  reshape_param {
    shape {
      dim: -1
      dim: 512
      dim: 30
      dim: 30
    }
  }
}
layer {
  name: "out_reshape_scale"
  type: "Scale"
  bottom: "out_reshape"
  top: "out_reshape_scale"
  param {
    name: "scale_conv1_1"
    lr_mult: 1
  }
  scale_param {
    bias_term: false
  }
}
layer {
  name: "out_x"
  type: "Eltwise"
  bottom: "out_reshape_scale"
  bottom: "pool5_2_conv4_relu"
  top: "out_x"
  eltwise_param {
    operation: SUM
  }
}
layer {
  name: "mask_deconv2"
  type: "Deconvolution"
  bottom: "out_x"
  top: "mask_deconv2"
  param {
    lr_mult: 1
    decay_mult: 1
  }
  param {
    lr_mult: 2
    decay_mult: 0
  }
  convolution_param {
    num_output: 256
    pad: 1
    kernel_size: 8
    group: 256
    stride: 4
    weight_filler {
      type: "bilinear"
    }
  }
}
layer {
  name: "pool5_2_conv5"
  type: "Convolution"
  bottom: "mask_deconv2"
  top: "pool5_2_conv5"
  param {
    lr_mult: 1
    decay_mult: 1
  }
  param {
    lr_mult: 2
    decay_mult: 0
  }
  convolution_param {
    num_output: 512
    pad: 1
    kernel_size: 3
    stride: 1
    weight_filler {
      type: "gaussian"
      std: 0.01
    }
    bias_filler {
      type: "constant"
      value: 0
    }
  }
}
layer {
  name: "pool5_2_conv5_relu"
  type: "ReLU"
  bottom: "pool5_2_conv5"
  top: "pool5_2_conv5_relu"
}
layer {
  name: "pool5_2_conv6"
  type: "Convolution"
  bottom: "pool5_2_conv5_relu"
  top: "pool5_2_conv6"
  param {
    lr_mult: 1
    decay_mult: 1
  }
  param {
    lr_mult: 2
    decay_mult: 0
  }
  convolution_param {
    num_output: 512
    pad: 1
    kernel_size: 3
    stride: 1
    weight_filler {
      type: "gaussian"
      std: 0.01
    }
    bias_filler {
      type: "constant"
      value: 0
    }
  }
}
layer {
  name: "pool5_2_conv6_relu"
  type: "ReLU"
  bottom: "pool5_2_conv6"
  top: "pool5_2_conv6_relu"
}
layer {
  name: "mask_deconv3"
  type: "Deconvolution"
  bottom: "pool5_2_conv6_relu"
  top: "mask_deconv3"
  param {
    lr_mult: 1
    decay_mult: 1
  }
  param {
    lr_mult: 2
    decay_mult: 0
  }
  convolution_param {
    num_output: 256
    pad: 1
    kernel_size: 4
    group: 256
    stride: 2
    weight_filler {
      type: "bilinear"
    }
  }
}
layer {
  name: "mask_score"
  type: "Convolution"
  bottom: "mask_deconv3"
  top: "mask_score"
  param {
    lr_mult: 1
    decay_mult: 1
  }
  param {
    lr_mult: 2
    decay_mult: 0
  }
  convolution_param {
    num_output: 8
    pad: 0
    kernel_size: 1
    weight_filler {
      type: "gaussian"
      std: 0.01
    }
    bias_filler {
      type: "constant"
      value: 0
    }
  }
}
layer {
  name: "prob"
  type: "Softmax"
  bottom: "mask_score"
  top: "mask_score_softmax"
  softmax_param {
    axis: 1
  }
}
layer {
  name: "log"
  type: "Log"
  bottom: "mask_score_softmax"
  top: "log"
}
layer {
  name: "mult1"
  type: "Eltwise"
  bottom: "log"
  bottom: "mask_targets"
  top: "mult1"
  eltwise_param {
    operation: PROD
  }
}
layer {
  name: "cross_entropy"
  type: "Power"
  bottom: "mult1"
  top: "cross_entropy"
  power_param {
    power: 1
    scale: -1
    shift: 0
  }
}
layer {
  name: "ce_sum"
  type: "Convolution"
  bottom: "cross_entropy"
  top: "cross_entropy_sum"
  param {
    lr_mult: 0
    decay_mult: 0
  }
  convolution_param {
    num_output: 1
    bias_term: false
    kernel_size: 1
    weight_filler {
      type: "constant"
      value: 1
    }
  }
}
layer {
  name: "ce_mean"
  type: "Reduction"
  bottom: "cross_entropy_sum"
  top: "cross_entropy_mean"
  loss_weight: 1
  reduction_param {
    operation: MEAN
    axis: 0
  }
}
I0625 15:11:45.484009 30910 layer_factory.hpp:77] Creating layer input-data
I0625 15:11:45.608512 30910 net.cpp:106] Creating Layer input-data
I0625 15:11:45.608531 30910 net.cpp:411] input-data -> data
I0625 15:11:45.608544 30910 net.cpp:411] input-data -> im_info
I0625 15:11:45.608553 30910 net.cpp:411] input-data -> gt_boxes
I0625 15:11:45.608561 30910 net.cpp:411] input-data -> seg_mask_inds
I0625 15:11:45.608566 30910 net.cpp:411] input-data -> flipped
RoiDataLayer: name_to_top: {'gt_boxes': 2, 'data': 0, 'seg_mask_inds': 3, 'im_info': 1, 'flipped': 4}
I0625 15:11:45.657449 30910 net.cpp:150] Setting up input-data
I0625 15:11:45.657464 30910 net.cpp:157] Top shape: 1 3 600 1000 (1800000)
I0625 15:11:45.657469 30910 net.cpp:157] Top shape: 1 3 (3)
I0625 15:11:45.657470 30910 net.cpp:157] Top shape: 1 4 (4)
I0625 15:11:45.657474 30910 net.cpp:157] Top shape: 1 2 (2)
I0625 15:11:45.657475 30910 net.cpp:157] Top shape: 1 1 (1)
I0625 15:11:45.657479 30910 net.cpp:165] Memory required for data: 7200040
I0625 15:11:45.657485 30910 layer_factory.hpp:77] Creating layer data_input-data_0_split
I0625 15:11:45.658057 30910 net.cpp:106] Creating Layer data_input-data_0_split
I0625 15:11:45.658063 30910 net.cpp:454] data_input-data_0_split <- data
I0625 15:11:45.658068 30910 net.cpp:411] data_input-data_0_split -> data_input-data_0_split_0
I0625 15:11:45.658074 30910 net.cpp:411] data_input-data_0_split -> data_input-data_0_split_1
I0625 15:11:45.658098 30910 net.cpp:150] Setting up data_input-data_0_split
I0625 15:11:45.658104 30910 net.cpp:157] Top shape: 1 3 600 1000 (1800000)
I0625 15:11:45.658109 30910 net.cpp:157] Top shape: 1 3 600 1000 (1800000)
I0625 15:11:45.658113 30910 net.cpp:165] Memory required for data: 21600040
I0625 15:11:45.658118 30910 layer_factory.hpp:77] Creating layer im_info_input-data_1_split
I0625 15:11:45.658125 30910 net.cpp:106] Creating Layer im_info_input-data_1_split
I0625 15:11:45.658128 30910 net.cpp:454] im_info_input-data_1_split <- im_info
I0625 15:11:45.658133 30910 net.cpp:411] im_info_input-data_1_split -> im_info_input-data_1_split_0
I0625 15:11:45.658138 30910 net.cpp:411] im_info_input-data_1_split -> im_info_input-data_1_split_1
I0625 15:11:45.658145 30910 net.cpp:411] im_info_input-data_1_split -> im_info_input-data_1_split_2
I0625 15:11:45.658174 30910 net.cpp:150] Setting up im_info_input-data_1_split
I0625 15:11:45.658177 30910 net.cpp:157] Top shape: 1 3 (3)
I0625 15:11:45.658182 30910 net.cpp:157] Top shape: 1 3 (3)
I0625 15:11:45.658187 30910 net.cpp:157] Top shape: 1 3 (3)
I0625 15:11:45.658190 30910 net.cpp:165] Memory required for data: 21600076
I0625 15:11:45.658193 30910 layer_factory.hpp:77] Creating layer gt_boxes_input-data_2_split
I0625 15:11:45.658198 30910 net.cpp:106] Creating Layer gt_boxes_input-data_2_split
I0625 15:11:45.658202 30910 net.cpp:454] gt_boxes_input-data_2_split <- gt_boxes
I0625 15:11:45.658207 30910 net.cpp:411] gt_boxes_input-data_2_split -> gt_boxes_input-data_2_split_0
I0625 15:11:45.658211 30910 net.cpp:411] gt_boxes_input-data_2_split -> gt_boxes_input-data_2_split_1
I0625 15:11:45.658229 30910 net.cpp:150] Setting up gt_boxes_input-data_2_split
I0625 15:11:45.658233 30910 net.cpp:157] Top shape: 1 4 (4)
I0625 15:11:45.658236 30910 net.cpp:157] Top shape: 1 4 (4)
I0625 15:11:45.658239 30910 net.cpp:165] Memory required for data: 21600108
I0625 15:11:45.658241 30910 layer_factory.hpp:77] Creating layer conv1_1
I0625 15:11:45.658248 30910 net.cpp:106] Creating Layer conv1_1
I0625 15:11:45.658252 30910 net.cpp:454] conv1_1 <- data_input-data_0_split_0
I0625 15:11:45.658254 30910 net.cpp:411] conv1_1 -> conv1_1
I0625 15:11:46.238581 30910 net.cpp:150] Setting up conv1_1
I0625 15:11:46.238600 30910 net.cpp:157] Top shape: 1 64 600 1000 (38400000)
I0625 15:11:46.238603 30910 net.cpp:165] Memory required for data: 175200108
I0625 15:11:46.238615 30910 layer_factory.hpp:77] Creating layer relu1_1
I0625 15:11:46.238622 30910 net.cpp:106] Creating Layer relu1_1
I0625 15:11:46.238626 30910 net.cpp:454] relu1_1 <- conv1_1
I0625 15:11:46.238629 30910 net.cpp:397] relu1_1 -> conv1_1 (in-place)
I0625 15:11:46.238742 30910 net.cpp:150] Setting up relu1_1
I0625 15:11:46.238749 30910 net.cpp:157] Top shape: 1 64 600 1000 (38400000)
I0625 15:11:46.238751 30910 net.cpp:165] Memory required for data: 328800108
I0625 15:11:46.238754 30910 layer_factory.hpp:77] Creating layer conv1_2
I0625 15:11:46.238759 30910 net.cpp:106] Creating Layer conv1_2
I0625 15:11:46.238762 30910 net.cpp:454] conv1_2 <- conv1_1
I0625 15:11:46.238765 30910 net.cpp:411] conv1_2 -> conv1_2
I0625 15:11:46.240844 30910 net.cpp:150] Setting up conv1_2
I0625 15:11:46.240854 30910 net.cpp:157] Top shape: 1 64 600 1000 (38400000)
I0625 15:11:46.240855 30910 net.cpp:165] Memory required for data: 482400108
I0625 15:11:46.240862 30910 layer_factory.hpp:77] Creating layer relu1_2
I0625 15:11:46.240866 30910 net.cpp:106] Creating Layer relu1_2
I0625 15:11:46.240869 30910 net.cpp:454] relu1_2 <- conv1_2
I0625 15:11:46.240871 30910 net.cpp:397] relu1_2 -> conv1_2 (in-place)
I0625 15:11:46.241012 30910 net.cpp:150] Setting up relu1_2
I0625 15:11:46.241017 30910 net.cpp:157] Top shape: 1 64 600 1000 (38400000)
I0625 15:11:46.241019 30910 net.cpp:165] Memory required for data: 636000108
I0625 15:11:46.241021 30910 layer_factory.hpp:77] Creating layer pool1
I0625 15:11:46.241027 30910 net.cpp:106] Creating Layer pool1
I0625 15:11:46.241029 30910 net.cpp:454] pool1 <- conv1_2
I0625 15:11:46.241032 30910 net.cpp:411] pool1 -> pool1
I0625 15:11:46.241684 30910 net.cpp:150] Setting up pool1
I0625 15:11:46.241690 30910 net.cpp:157] Top shape: 1 64 300 500 (9600000)
I0625 15:11:46.241691 30910 net.cpp:165] Memory required for data: 674400108
I0625 15:11:46.241693 30910 layer_factory.hpp:77] Creating layer conv2_1
I0625 15:11:46.241699 30910 net.cpp:106] Creating Layer conv2_1
I0625 15:11:46.241701 30910 net.cpp:454] conv2_1 <- pool1
I0625 15:11:46.241704 30910 net.cpp:411] conv2_1 -> conv2_1
I0625 15:11:46.243531 30910 net.cpp:150] Setting up conv2_1
I0625 15:11:46.243541 30910 net.cpp:157] Top shape: 1 128 300 500 (19200000)
I0625 15:11:46.243542 30910 net.cpp:165] Memory required for data: 751200108
I0625 15:11:46.243549 30910 layer_factory.hpp:77] Creating layer relu2_1
I0625 15:11:46.243553 30910 net.cpp:106] Creating Layer relu2_1
I0625 15:11:46.243556 30910 net.cpp:454] relu2_1 <- conv2_1
I0625 15:11:46.243558 30910 net.cpp:397] relu2_1 -> conv2_1 (in-place)
I0625 15:11:46.244012 30910 net.cpp:150] Setting up relu2_1
I0625 15:11:46.244019 30910 net.cpp:157] Top shape: 1 128 300 500 (19200000)
I0625 15:11:46.244021 30910 net.cpp:165] Memory required for data: 828000108
I0625 15:11:46.244024 30910 layer_factory.hpp:77] Creating layer conv2_2
I0625 15:11:46.244029 30910 net.cpp:106] Creating Layer conv2_2
I0625 15:11:46.244030 30910 net.cpp:454] conv2_2 <- conv2_1
I0625 15:11:46.244033 30910 net.cpp:411] conv2_2 -> conv2_2
I0625 15:11:46.246120 30910 net.cpp:150] Setting up conv2_2
I0625 15:11:46.246129 30910 net.cpp:157] Top shape: 1 128 300 500 (19200000)
I0625 15:11:46.246131 30910 net.cpp:165] Memory required for data: 904800108
I0625 15:11:46.246136 30910 layer_factory.hpp:77] Creating layer relu2_2
I0625 15:11:46.246140 30910 net.cpp:106] Creating Layer relu2_2
I0625 15:11:46.246142 30910 net.cpp:454] relu2_2 <- conv2_2
I0625 15:11:46.246145 30910 net.cpp:397] relu2_2 -> conv2_2 (in-place)
I0625 15:11:46.246264 30910 net.cpp:150] Setting up relu2_2
I0625 15:11:46.246270 30910 net.cpp:157] Top shape: 1 128 300 500 (19200000)
I0625 15:11:46.246273 30910 net.cpp:165] Memory required for data: 981600108
I0625 15:11:46.246275 30910 layer_factory.hpp:77] Creating layer pool2
I0625 15:11:46.246279 30910 net.cpp:106] Creating Layer pool2
I0625 15:11:46.246281 30910 net.cpp:454] pool2 <- conv2_2
I0625 15:11:46.246284 30910 net.cpp:411] pool2 -> pool2
I0625 15:11:46.246311 30910 net.cpp:150] Setting up pool2
I0625 15:11:46.246315 30910 net.cpp:157] Top shape: 1 128 150 250 (4800000)
I0625 15:11:46.246317 30910 net.cpp:165] Memory required for data: 1000800108
I0625 15:11:46.246318 30910 layer_factory.hpp:77] Creating layer conv3_1
I0625 15:11:46.246323 30910 net.cpp:106] Creating Layer conv3_1
I0625 15:11:46.246325 30910 net.cpp:454] conv3_1 <- pool2
I0625 15:11:46.246328 30910 net.cpp:411] conv3_1 -> conv3_1
I0625 15:11:46.248705 30910 net.cpp:150] Setting up conv3_1
I0625 15:11:46.248715 30910 net.cpp:157] Top shape: 1 256 150 250 (9600000)
I0625 15:11:46.248718 30910 net.cpp:165] Memory required for data: 1039200108
I0625 15:11:46.248724 30910 layer_factory.hpp:77] Creating layer relu3_1
I0625 15:11:46.248729 30910 net.cpp:106] Creating Layer relu3_1
I0625 15:11:46.248731 30910 net.cpp:454] relu3_1 <- conv3_1
I0625 15:11:46.248734 30910 net.cpp:397] relu3_1 -> conv3_1 (in-place)
I0625 15:11:46.248845 30910 net.cpp:150] Setting up relu3_1
I0625 15:11:46.248852 30910 net.cpp:157] Top shape: 1 256 150 250 (9600000)
I0625 15:11:46.248853 30910 net.cpp:165] Memory required for data: 1077600108
I0625 15:11:46.248855 30910 layer_factory.hpp:77] Creating layer conv3_2
I0625 15:11:46.248862 30910 net.cpp:106] Creating Layer conv3_2
I0625 15:11:46.248865 30910 net.cpp:454] conv3_2 <- conv3_1
I0625 15:11:46.248868 30910 net.cpp:411] conv3_2 -> conv3_2
I0625 15:11:46.250967 30910 net.cpp:150] Setting up conv3_2
I0625 15:11:46.250988 30910 net.cpp:157] Top shape: 1 256 150 250 (9600000)
I0625 15:11:46.250990 30910 net.cpp:165] Memory required for data: 1116000108
I0625 15:11:46.250996 30910 layer_factory.hpp:77] Creating layer relu3_2
I0625 15:11:46.251001 30910 net.cpp:106] Creating Layer relu3_2
I0625 15:11:46.251014 30910 net.cpp:454] relu3_2 <- conv3_2
I0625 15:11:46.251019 30910 net.cpp:397] relu3_2 -> conv3_2 (in-place)
I0625 15:11:46.251157 30910 net.cpp:150] Setting up relu3_2
I0625 15:11:46.251161 30910 net.cpp:157] Top shape: 1 256 150 250 (9600000)
I0625 15:11:46.251173 30910 net.cpp:165] Memory required for data: 1154400108
I0625 15:11:46.251175 30910 layer_factory.hpp:77] Creating layer conv3_3
I0625 15:11:46.251181 30910 net.cpp:106] Creating Layer conv3_3
I0625 15:11:46.251183 30910 net.cpp:454] conv3_3 <- conv3_2
I0625 15:11:46.251186 30910 net.cpp:411] conv3_3 -> conv3_3
I0625 15:11:46.253336 30910 net.cpp:150] Setting up conv3_3
I0625 15:11:46.253357 30910 net.cpp:157] Top shape: 1 256 150 250 (9600000)
I0625 15:11:46.253360 30910 net.cpp:165] Memory required for data: 1192800108
I0625 15:11:46.253366 30910 layer_factory.hpp:77] Creating layer relu3_3
I0625 15:11:46.253372 30910 net.cpp:106] Creating Layer relu3_3
I0625 15:11:46.253376 30910 net.cpp:454] relu3_3 <- conv3_3
I0625 15:11:46.253378 30910 net.cpp:397] relu3_3 -> conv3_3 (in-place)
I0625 15:11:46.253492 30910 net.cpp:150] Setting up relu3_3
I0625 15:11:46.253497 30910 net.cpp:157] Top shape: 1 256 150 250 (9600000)
I0625 15:11:46.253509 30910 net.cpp:165] Memory required for data: 1231200108
I0625 15:11:46.253511 30910 layer_factory.hpp:77] Creating layer pool3
I0625 15:11:46.253516 30910 net.cpp:106] Creating Layer pool3
I0625 15:11:46.253518 30910 net.cpp:454] pool3 <- conv3_3
I0625 15:11:46.253521 30910 net.cpp:411] pool3 -> pool3
I0625 15:11:46.253549 30910 net.cpp:150] Setting up pool3
I0625 15:11:46.253553 30910 net.cpp:157] Top shape: 1 256 75 125 (2400000)
I0625 15:11:46.253556 30910 net.cpp:165] Memory required for data: 1240800108
I0625 15:11:46.253557 30910 layer_factory.hpp:77] Creating layer conv4_1
I0625 15:11:46.253562 30910 net.cpp:106] Creating Layer conv4_1
I0625 15:11:46.253566 30910 net.cpp:454] conv4_1 <- pool3
I0625 15:11:46.253568 30910 net.cpp:411] conv4_1 -> conv4_1
I0625 15:11:46.257761 30910 net.cpp:150] Setting up conv4_1
I0625 15:11:46.257788 30910 net.cpp:157] Top shape: 1 512 75 125 (4800000)
I0625 15:11:46.257791 30910 net.cpp:165] Memory required for data: 1260000108
I0625 15:11:46.257798 30910 layer_factory.hpp:77] Creating layer relu4_1
I0625 15:11:46.257807 30910 net.cpp:106] Creating Layer relu4_1
I0625 15:11:46.257810 30910 net.cpp:454] relu4_1 <- conv4_1
I0625 15:11:46.257814 30910 net.cpp:397] relu4_1 -> conv4_1 (in-place)
I0625 15:11:46.257933 30910 net.cpp:150] Setting up relu4_1
I0625 15:11:46.257939 30910 net.cpp:157] Top shape: 1 512 75 125 (4800000)
I0625 15:11:46.257951 30910 net.cpp:165] Memory required for data: 1279200108
I0625 15:11:46.257952 30910 layer_factory.hpp:77] Creating layer conv4_2
I0625 15:11:46.257958 30910 net.cpp:106] Creating Layer conv4_2
I0625 15:11:46.257961 30910 net.cpp:454] conv4_2 <- conv4_1
I0625 15:11:46.257964 30910 net.cpp:411] conv4_2 -> conv4_2
I0625 15:11:46.262471 30910 net.cpp:150] Setting up conv4_2
I0625 15:11:46.262498 30910 net.cpp:157] Top shape: 1 512 75 125 (4800000)
I0625 15:11:46.262501 30910 net.cpp:165] Memory required for data: 1298400108
I0625 15:11:46.262511 30910 layer_factory.hpp:77] Creating layer relu4_2
I0625 15:11:46.262518 30910 net.cpp:106] Creating Layer relu4_2
I0625 15:11:46.262532 30910 net.cpp:454] relu4_2 <- conv4_2
I0625 15:11:46.262537 30910 net.cpp:397] relu4_2 -> conv4_2 (in-place)
I0625 15:11:46.262991 30910 net.cpp:150] Setting up relu4_2
I0625 15:11:46.263000 30910 net.cpp:157] Top shape: 1 512 75 125 (4800000)
I0625 15:11:46.263001 30910 net.cpp:165] Memory required for data: 1317600108
I0625 15:11:46.263005 30910 layer_factory.hpp:77] Creating layer conv4_3
I0625 15:11:46.263020 30910 net.cpp:106] Creating Layer conv4_3
I0625 15:11:46.263023 30910 net.cpp:454] conv4_3 <- conv4_2
I0625 15:11:46.263027 30910 net.cpp:411] conv4_3 -> conv4_3
I0625 15:11:46.267360 30910 net.cpp:150] Setting up conv4_3
I0625 15:11:46.267380 30910 net.cpp:157] Top shape: 1 512 75 125 (4800000)
I0625 15:11:46.267383 30910 net.cpp:165] Memory required for data: 1336800108
I0625 15:11:46.267391 30910 layer_factory.hpp:77] Creating layer relu4_3
I0625 15:11:46.267400 30910 net.cpp:106] Creating Layer relu4_3
I0625 15:11:46.267403 30910 net.cpp:454] relu4_3 <- conv4_3
I0625 15:11:46.267407 30910 net.cpp:397] relu4_3 -> conv4_3 (in-place)
I0625 15:11:46.267513 30910 net.cpp:150] Setting up relu4_3
I0625 15:11:46.267518 30910 net.cpp:157] Top shape: 1 512 75 125 (4800000)
I0625 15:11:46.267519 30910 net.cpp:165] Memory required for data: 1356000108
I0625 15:11:46.267521 30910 layer_factory.hpp:77] Creating layer pool4
I0625 15:11:46.267526 30910 net.cpp:106] Creating Layer pool4
I0625 15:11:46.267529 30910 net.cpp:454] pool4 <- conv4_3
I0625 15:11:46.267532 30910 net.cpp:411] pool4 -> pool4
I0625 15:11:46.267558 30910 net.cpp:150] Setting up pool4
I0625 15:11:46.267562 30910 net.cpp:157] Top shape: 1 512 38 63 (1225728)
I0625 15:11:46.267565 30910 net.cpp:165] Memory required for data: 1360903020
I0625 15:11:46.267566 30910 layer_factory.hpp:77] Creating layer conv5_1
I0625 15:11:46.267572 30910 net.cpp:106] Creating Layer conv5_1
I0625 15:11:46.267575 30910 net.cpp:454] conv5_1 <- pool4
I0625 15:11:46.267577 30910 net.cpp:411] conv5_1 -> conv5_1
I0625 15:11:46.272035 30910 net.cpp:150] Setting up conv5_1
I0625 15:11:46.272055 30910 net.cpp:157] Top shape: 1 512 38 63 (1225728)
I0625 15:11:46.272058 30910 net.cpp:165] Memory required for data: 1365805932
I0625 15:11:46.272065 30910 layer_factory.hpp:77] Creating layer relu5_1
I0625 15:11:46.272073 30910 net.cpp:106] Creating Layer relu5_1
I0625 15:11:46.272076 30910 net.cpp:454] relu5_1 <- conv5_1
I0625 15:11:46.272080 30910 net.cpp:397] relu5_1 -> conv5_1 (in-place)
I0625 15:11:46.272183 30910 net.cpp:150] Setting up relu5_1
I0625 15:11:46.272188 30910 net.cpp:157] Top shape: 1 512 38 63 (1225728)
I0625 15:11:46.272191 30910 net.cpp:165] Memory required for data: 1370708844
I0625 15:11:46.272192 30910 layer_factory.hpp:77] Creating layer conv5_2
I0625 15:11:46.272198 30910 net.cpp:106] Creating Layer conv5_2
I0625 15:11:46.272202 30910 net.cpp:454] conv5_2 <- conv5_1
I0625 15:11:46.272204 30910 net.cpp:411] conv5_2 -> conv5_2
I0625 15:11:46.276422 30910 net.cpp:150] Setting up conv5_2
I0625 15:11:46.276440 30910 net.cpp:157] Top shape: 1 512 38 63 (1225728)
I0625 15:11:46.276443 30910 net.cpp:165] Memory required for data: 1375611756
I0625 15:11:46.276450 30910 layer_factory.hpp:77] Creating layer relu5_2
I0625 15:11:46.276458 30910 net.cpp:106] Creating Layer relu5_2
I0625 15:11:46.276461 30910 net.cpp:454] relu5_2 <- conv5_2
I0625 15:11:46.276465 30910 net.cpp:397] relu5_2 -> conv5_2 (in-place)
I0625 15:11:46.276569 30910 net.cpp:150] Setting up relu5_2
I0625 15:11:46.276576 30910 net.cpp:157] Top shape: 1 512 38 63 (1225728)
I0625 15:11:46.276577 30910 net.cpp:165] Memory required for data: 1380514668
I0625 15:11:46.276579 30910 layer_factory.hpp:77] Creating layer conv5_3
I0625 15:11:46.276588 30910 net.cpp:106] Creating Layer conv5_3
I0625 15:11:46.276590 30910 net.cpp:454] conv5_3 <- conv5_2
I0625 15:11:46.276594 30910 net.cpp:411] conv5_3 -> conv5_3
I0625 15:11:46.280910 30910 net.cpp:150] Setting up conv5_3
I0625 15:11:46.280931 30910 net.cpp:157] Top shape: 1 512 38 63 (1225728)
I0625 15:11:46.280933 30910 net.cpp:165] Memory required for data: 1385417580
I0625 15:11:46.280941 30910 layer_factory.hpp:77] Creating layer relu5_3
I0625 15:11:46.280949 30910 net.cpp:106] Creating Layer relu5_3
I0625 15:11:46.280953 30910 net.cpp:454] relu5_3 <- conv5_3
I0625 15:11:46.280959 30910 net.cpp:397] relu5_3 -> conv5_3 (in-place)
I0625 15:11:46.281075 30910 net.cpp:150] Setting up relu5_3
I0625 15:11:46.281080 30910 net.cpp:157] Top shape: 1 512 38 63 (1225728)
I0625 15:11:46.281092 30910 net.cpp:165] Memory required for data: 1390320492
I0625 15:11:46.281095 30910 layer_factory.hpp:77] Creating layer conv5_3_relu5_3_0_split
I0625 15:11:46.281098 30910 net.cpp:106] Creating Layer conv5_3_relu5_3_0_split
I0625 15:11:46.281100 30910 net.cpp:454] conv5_3_relu5_3_0_split <- conv5_3
I0625 15:11:46.281103 30910 net.cpp:411] conv5_3_relu5_3_0_split -> conv5_3_relu5_3_0_split_0
I0625 15:11:46.281107 30910 net.cpp:411] conv5_3_relu5_3_0_split -> conv5_3_relu5_3_0_split_1
I0625 15:11:46.281111 30910 net.cpp:411] conv5_3_relu5_3_0_split -> conv5_3_relu5_3_0_split_2
I0625 15:11:46.281152 30910 net.cpp:150] Setting up conv5_3_relu5_3_0_split
I0625 15:11:46.281155 30910 net.cpp:157] Top shape: 1 512 38 63 (1225728)
I0625 15:11:46.281167 30910 net.cpp:157] Top shape: 1 512 38 63 (1225728)
I0625 15:11:46.281169 30910 net.cpp:157] Top shape: 1 512 38 63 (1225728)
I0625 15:11:46.281172 30910 net.cpp:165] Memory required for data: 1405029228
I0625 15:11:46.281172 30910 layer_factory.hpp:77] Creating layer rpn_conv/3x3
I0625 15:11:46.281179 30910 net.cpp:106] Creating Layer rpn_conv/3x3
I0625 15:11:46.281183 30910 net.cpp:454] rpn_conv/3x3 <- conv5_3_relu5_3_0_split_0
I0625 15:11:46.281186 30910 net.cpp:411] rpn_conv/3x3 -> rpn/output
I0625 15:11:46.332599 30910 net.cpp:150] Setting up rpn_conv/3x3
I0625 15:11:46.332617 30910 net.cpp:157] Top shape: 1 512 38 63 (1225728)
I0625 15:11:46.332619 30910 net.cpp:165] Memory required for data: 1409932140
I0625 15:11:46.332626 30910 layer_factory.hpp:77] Creating layer rpn_relu/3x3
I0625 15:11:46.332644 30910 net.cpp:106] Creating Layer rpn_relu/3x3
I0625 15:11:46.332648 30910 net.cpp:454] rpn_relu/3x3 <- rpn/output
I0625 15:11:46.332653 30910 net.cpp:397] rpn_relu/3x3 -> rpn/output (in-place)
I0625 15:11:46.332794 30910 net.cpp:150] Setting up rpn_relu/3x3
I0625 15:11:46.332800 30910 net.cpp:157] Top shape: 1 512 38 63 (1225728)
I0625 15:11:46.332801 30910 net.cpp:165] Memory required for data: 1414835052
I0625 15:11:46.332804 30910 layer_factory.hpp:77] Creating layer rpn/output_rpn_relu/3x3_0_split
I0625 15:11:46.332808 30910 net.cpp:106] Creating Layer rpn/output_rpn_relu/3x3_0_split
I0625 15:11:46.332810 30910 net.cpp:454] rpn/output_rpn_relu/3x3_0_split <- rpn/output
I0625 15:11:46.332813 30910 net.cpp:411] rpn/output_rpn_relu/3x3_0_split -> rpn/output_rpn_relu/3x3_0_split_0
I0625 15:11:46.332829 30910 net.cpp:411] rpn/output_rpn_relu/3x3_0_split -> rpn/output_rpn_relu/3x3_0_split_1
I0625 15:11:46.332885 30910 net.cpp:150] Setting up rpn/output_rpn_relu/3x3_0_split
I0625 15:11:46.332888 30910 net.cpp:157] Top shape: 1 512 38 63 (1225728)
I0625 15:11:46.332900 30910 net.cpp:157] Top shape: 1 512 38 63 (1225728)
I0625 15:11:46.332901 30910 net.cpp:165] Memory required for data: 1424640876
I0625 15:11:46.332902 30910 layer_factory.hpp:77] Creating layer rpn_cls_score
I0625 15:11:46.332921 30910 net.cpp:106] Creating Layer rpn_cls_score
I0625 15:11:46.332922 30910 net.cpp:454] rpn_cls_score <- rpn/output_rpn_relu/3x3_0_split_0
I0625 15:11:46.332926 30910 net.cpp:411] rpn_cls_score -> rpn_cls_score
I0625 15:11:46.334520 30910 net.cpp:150] Setting up rpn_cls_score
I0625 15:11:46.334529 30910 net.cpp:157] Top shape: 1 30 38 63 (71820)
I0625 15:11:46.334532 30910 net.cpp:165] Memory required for data: 1424928156
I0625 15:11:46.334535 30910 layer_factory.hpp:77] Creating layer rpn_cls_score_rpn_cls_score_0_split
I0625 15:11:46.334540 30910 net.cpp:106] Creating Layer rpn_cls_score_rpn_cls_score_0_split
I0625 15:11:46.334542 30910 net.cpp:454] rpn_cls_score_rpn_cls_score_0_split <- rpn_cls_score
I0625 15:11:46.334545 30910 net.cpp:411] rpn_cls_score_rpn_cls_score_0_split -> rpn_cls_score_rpn_cls_score_0_split_0
I0625 15:11:46.334560 30910 net.cpp:411] rpn_cls_score_rpn_cls_score_0_split -> rpn_cls_score_rpn_cls_score_0_split_1
I0625 15:11:46.334599 30910 net.cpp:150] Setting up rpn_cls_score_rpn_cls_score_0_split
I0625 15:11:46.334614 30910 net.cpp:157] Top shape: 1 30 38 63 (71820)
I0625 15:11:46.334616 30910 net.cpp:157] Top shape: 1 30 38 63 (71820)
I0625 15:11:46.334619 30910 net.cpp:165] Memory required for data: 1425502716
I0625 15:11:46.334620 30910 layer_factory.hpp:77] Creating layer rpn_bbox_pred
I0625 15:11:46.334635 30910 net.cpp:106] Creating Layer rpn_bbox_pred
I0625 15:11:46.334637 30910 net.cpp:454] rpn_bbox_pred <- rpn/output_rpn_relu/3x3_0_split_1
I0625 15:11:46.334652 30910 net.cpp:411] rpn_bbox_pred -> rpn_bbox_pred
I0625 15:11:46.336112 30910 net.cpp:150] Setting up rpn_bbox_pred
I0625 15:11:46.336119 30910 net.cpp:157] Top shape: 1 60 38 63 (143640)
I0625 15:11:46.336122 30910 net.cpp:165] Memory required for data: 1426077276
I0625 15:11:46.336127 30910 layer_factory.hpp:77] Creating layer rpn_bbox_pred_rpn_bbox_pred_0_split
I0625 15:11:46.336130 30910 net.cpp:106] Creating Layer rpn_bbox_pred_rpn_bbox_pred_0_split
I0625 15:11:46.336143 30910 net.cpp:454] rpn_bbox_pred_rpn_bbox_pred_0_split <- rpn_bbox_pred
I0625 15:11:46.336148 30910 net.cpp:411] rpn_bbox_pred_rpn_bbox_pred_0_split -> rpn_bbox_pred_rpn_bbox_pred_0_split_0
I0625 15:11:46.336163 30910 net.cpp:411] rpn_bbox_pred_rpn_bbox_pred_0_split -> rpn_bbox_pred_rpn_bbox_pred_0_split_1
I0625 15:11:46.336202 30910 net.cpp:150] Setting up rpn_bbox_pred_rpn_bbox_pred_0_split
I0625 15:11:46.336205 30910 net.cpp:157] Top shape: 1 60 38 63 (143640)
I0625 15:11:46.336207 30910 net.cpp:157] Top shape: 1 60 38 63 (143640)
I0625 15:11:46.336210 30910 net.cpp:165] Memory required for data: 1427226396
I0625 15:11:46.336210 30910 layer_factory.hpp:77] Creating layer rpn_cls_score_reshape
I0625 15:11:46.336215 30910 net.cpp:106] Creating Layer rpn_cls_score_reshape
I0625 15:11:46.336217 30910 net.cpp:454] rpn_cls_score_reshape <- rpn_cls_score_rpn_cls_score_0_split_0
I0625 15:11:46.336230 30910 net.cpp:411] rpn_cls_score_reshape -> rpn_cls_score_reshape
I0625 15:11:46.336256 30910 net.cpp:150] Setting up rpn_cls_score_reshape
I0625 15:11:46.336259 30910 net.cpp:157] Top shape: 1 2 570 63 (71820)
I0625 15:11:46.336261 30910 net.cpp:165] Memory required for data: 1427513676
I0625 15:11:46.336262 30910 layer_factory.hpp:77] Creating layer rpn_cls_score_reshape_rpn_cls_score_reshape_0_split
I0625 15:11:46.336275 30910 net.cpp:106] Creating Layer rpn_cls_score_reshape_rpn_cls_score_reshape_0_split
I0625 15:11:46.336278 30910 net.cpp:454] rpn_cls_score_reshape_rpn_cls_score_reshape_0_split <- rpn_cls_score_reshape
I0625 15:11:46.336280 30910 net.cpp:411] rpn_cls_score_reshape_rpn_cls_score_reshape_0_split -> rpn_cls_score_reshape_rpn_cls_score_reshape_0_split_0
I0625 15:11:46.336284 30910 net.cpp:411] rpn_cls_score_reshape_rpn_cls_score_reshape_0_split -> rpn_cls_score_reshape_rpn_cls_score_reshape_0_split_1
I0625 15:11:46.336314 30910 net.cpp:150] Setting up rpn_cls_score_reshape_rpn_cls_score_reshape_0_split
I0625 15:11:46.336318 30910 net.cpp:157] Top shape: 1 2 570 63 (71820)
I0625 15:11:46.336329 30910 net.cpp:157] Top shape: 1 2 570 63 (71820)
I0625 15:11:46.336331 30910 net.cpp:165] Memory required for data: 1428088236
I0625 15:11:46.336333 30910 layer_factory.hpp:77] Creating layer rpn-data
I0625 15:11:46.337333 30910 net.cpp:106] Creating Layer rpn-data
I0625 15:11:46.337342 30910 net.cpp:454] rpn-data <- rpn_cls_score_rpn_cls_score_0_split_1
I0625 15:11:46.337347 30910 net.cpp:454] rpn-data <- gt_boxes_input-data_2_split_0
I0625 15:11:46.337350 30910 net.cpp:454] rpn-data <- im_info_input-data_1_split_0
I0625 15:11:46.337353 30910 net.cpp:454] rpn-data <- data_input-data_0_split_1
I0625 15:11:46.337357 30910 net.cpp:411] rpn-data -> rpn_labels
I0625 15:11:46.337363 30910 net.cpp:411] rpn-data -> rpn_bbox_targets
I0625 15:11:46.337368 30910 net.cpp:411] rpn-data -> rpn_bbox_inside_weights
I0625 15:11:46.337373 30910 net.cpp:411] rpn-data -> rpn_bbox_outside_weights
===================================anchor_scales in AnchorTargetLayer:=============(2, 4, 8, 16, 32)
I0625 15:11:46.338503 30910 net.cpp:150] Setting up rpn-data
I0625 15:11:46.338512 30910 net.cpp:157] Top shape: 1 1 570 63 (35910)
I0625 15:11:46.338515 30910 net.cpp:157] Top shape: 1 60 38 63 (143640)
I0625 15:11:46.338517 30910 net.cpp:157] Top shape: 1 60 38 63 (143640)
I0625 15:11:46.338519 30910 net.cpp:157] Top shape: 1 60 38 63 (143640)
I0625 15:11:46.338521 30910 net.cpp:165] Memory required for data: 1429955556
I0625 15:11:46.338523 30910 layer_factory.hpp:77] Creating layer rpn_loss_cls
I0625 15:11:46.338528 30910 net.cpp:106] Creating Layer rpn_loss_cls
I0625 15:11:46.338531 30910 net.cpp:454] rpn_loss_cls <- rpn_cls_score_reshape_rpn_cls_score_reshape_0_split_0
I0625 15:11:46.338536 30910 net.cpp:454] rpn_loss_cls <- rpn_labels
…
