…
average_loss: 100
iter_size: 2
I0605 18:19:29.758870   965 solver.cpp:81] Creating training net from train_net file: models/pascal_voc/VGG16/faster_rcnn_end2end/train.prototxt
I0605 18:19:29.760484   965 net.cpp:49] Initializing net from parameters: 
name: "VGG_ILSVRC_16_layers"
state {
  phase: TRAIN
}
layer {
  name: "input-data"
  type: "Python"
  top: "data"
  top: "im_info"
  top: "gt_boxes"
  top: "seg_mask_inds"
  top: "flipped"
  python_param {
    module: "roi_data_layer.layer"
    layer: "RoIDataLayer"
    param_str: "\'num_classes\': 2"
  }
}
layer {
  name: "conv1_1"
  type: "Convolution"
  bottom: "data"
  top: "conv1_1"
  param {
    lr_mult: 0
    decay_mult: 0
  }
  param {
    lr_mult: 0
    decay_mult: 0
  }
  convolution_param {
    num_output: 64
    pad: 1
    kernel_size: 3
  }
}
layer {
  name: "relu1_1"
  type: "ReLU"
  bottom: "conv1_1"
  top: "conv1_1"
}
layer {
  name: "conv1_2"
  type: "Convolution"
  bottom: "conv1_1"
  top: "conv1_2"
  param {
    lr_mult: 0
    decay_mult: 0
  }
  param {
    lr_mult: 0
    decay_mult: 0
  }
  convolution_param {
    num_output: 64
    pad: 1
    kernel_size: 3
  }
}
layer {
  name: "relu1_2"
  type: "ReLU"
  bottom: "conv1_2"
  top: "conv1_2"
}
layer {
  name: "pool1"
  type: "Pooling"
  bottom: "conv1_2"
  top: "pool1"
  pooling_param {
    pool: MAX
    kernel_size: 2
    stride: 2
  }
}
layer {
  name: "conv2_1"
  type: "Convolution"
  bottom: "pool1"
  top: "conv2_1"
  param {
    lr_mult: 0
    decay_mult: 0
  }
  param {
    lr_mult: 0
    decay_mult: 0
  }
  convolution_param {
    num_output: 128
    pad: 1
    kernel_size: 3
  }
}
layer {
  name: "relu2_1"
  type: "ReLU"
  bottom: "conv2_1"
  top: "conv2_1"
}
layer {
  name: "conv2_2"
  type: "Convolution"
  bottom: "conv2_1"
  top: "conv2_2"
  param {
    lr_mult: 0
    decay_mult: 0
  }
  param {
    lr_mult: 0
    decay_mult: 0
  }
  convolution_param {
    num_output: 128
    pad: 1
    kernel_size: 3
  }
}
layer {
  name: "relu2_2"
  type: "ReLU"
  bottom: "conv2_2"
  top: "conv2_2"
}
layer {
  name: "pool2"
  type: "Pooling"
  bottom: "conv2_2"
  top: "pool2"
  pooling_param {
    pool: MAX
    kernel_size: 2
    stride: 2
  }
}
layer {
  name: "conv3_1"
  type: "Convolution"
  bottom: "pool2"
  top: "conv3_1"
  param {
    lr_mult: 1
  }
  param {
    lr_mult: 2
  }
  convolution_param {
    num_output: 256
    pad: 1
    kernel_size: 3
  }
}
layer {
  name: "relu3_1"
  type: "ReLU"
  bottom: "conv3_1"
  top: "conv3_1"
}
layer {
  name: "conv3_2"
  type: "Convolution"
  bottom: "conv3_1"
  top: "conv3_2"
  param {
    lr_mult: 1
  }
  param {
    lr_mult: 2
  }
  convolution_param {
    num_output: 256
    pad: 1
    kernel_size: 3
  }
}
layer {
  name: "relu3_2"
  type: "ReLU"
  bottom: "conv3_2"
  top: "conv3_2"
}
layer {
  name: "conv3_3"
  type: "Convolution"
  bottom: "conv3_2"
  top: "conv3_3"
  param {
    lr_mult: 1
  }
  param {
    lr_mult: 2
  }
  convolution_param {
    num_output: 256
    pad: 1
    kernel_size: 3
  }
}
layer {
  name: "relu3_3"
  type: "ReLU"
  bottom: "conv3_3"
  top: "conv3_3"
}
layer {
  name: "pool3"
  type: "Pooling"
  bottom: "conv3_3"
  top: "pool3"
  pooling_param {
    pool: MAX
    kernel_size: 2
    stride: 2
  }
}
layer {
  name: "conv4_1"
  type: "Convolution"
  bottom: "pool3"
  top: "conv4_1"
  param {
    lr_mult: 1
  }
  param {
    lr_mult: 2
  }
  convolution_param {
    num_output: 512
    pad: 1
    kernel_size: 3
  }
}
layer {
  name: "relu4_1"
  type: "ReLU"
  bottom: "conv4_1"
  top: "conv4_1"
}
layer {
  name: "conv4_2"
  type: "Convolution"
  bottom: "conv4_1"
  top: "conv4_2"
  param {
    lr_mult: 1
  }
  param {
    lr_mult: 2
  }
  convolution_param {
    num_output: 512
    pad: 1
    kernel_size: 3
  }
}
layer {
  name: "relu4_2"
  type: "ReLU"
  bottom: "conv4_2"
  top: "conv4_2"
}
layer {
  name: "conv4_3"
  type: "Convolution"
  bottom: "conv4_2"
  top: "conv4_3"
  param {
    lr_mult: 1
  }
  param {
    lr_mult: 2
  }
  convolution_param {
    num_output: 512
    pad: 1
    kernel_size: 3
  }
}
layer {
  name: "relu4_3"
  type: "ReLU"
  bottom: "conv4_3"
  top: "conv4_3"
}
layer {
  name: "pool4"
  type: "Pooling"
  bottom: "conv4_3"
  top: "pool4"
  pooling_param {
    pool: MAX
    kernel_size: 2
    stride: 2
  }
}
layer {
  name: "conv5_1"
  type: "Convolution"
  bottom: "pool4"
  top: "conv5_1"
  param {
    lr_mult: 1
  }
  param {
    lr_mult: 2
  }
  convolution_param {
    num_output: 512
    pad: 1
    kernel_size: 3
  }
}
layer {
  name: "relu5_1"
  type: "ReLU"
  bottom: "conv5_1"
  top: "conv5_1"
}
layer {
  name: "conv5_2"
  type: "Convolution"
  bottom: "conv5_1"
  top: "conv5_2"
  param {
    lr_mult: 1
  }
  param {
    lr_mult: 2
  }
  convolution_param {
    num_output: 512
    pad: 1
    kernel_size: 3
  }
}
layer {
  name: "relu5_2"
  type: "ReLU"
  bottom: "conv5_2"
  top: "conv5_2"
}
layer {
  name: "conv5_3"
  type: "Convolution"
  bottom: "conv5_2"
  top: "conv5_3"
  param {
    lr_mult: 1
  }
  param {
    lr_mult: 2
  }
  convolution_param {
    num_output: 512
    pad: 1
    kernel_size: 3
  }
}
layer {
  name: "relu5_3"
  type: "ReLU"
  bottom: "conv5_3"
  top: "conv5_3"
}
layer {
  name: "rpn_conv/3x3"
  type: "Convolution"
  bottom: "conv5_3"
  top: "rpn/output"
  param {
    lr_mult: 1
  }
  param {
    lr_mult: 2
  }
  convolution_param {
    num_output: 512
    pad: 1
    kernel_size: 3
    stride: 1
    weight_filler {
      type: "gaussian"
      std: 0.01
    }
    bias_filler {
      type: "constant"
      value: 0
    }
  }
}
layer {
  name: "rpn_relu/3x3"
  type: "ReLU"
  bottom: "rpn/output"
  top: "rpn/output"
}
layer {
  name: "rpn_cls_score"
  type: "Convolution"
  bottom: "rpn/output"
  top: "rpn_cls_score"
  param {
    lr_mult: 1
  }
  param {
    lr_mult: 2
  }
  convolution_param {
    num_output: 30
    pad: 0
    kernel_size: 1
    stride: 1
    weight_filler {
      type: "gaussian"
      std: 0.01
    }
    bias_filler {
      type: "constant"
      value: 0
    }
  }
}
layer {
  name: "rpn_bbox_pred"
  type: "Convolution"
  bottom: "rpn/output"
  top: "rpn_bbox_pred"
  param {
    lr_mult: 1
  }
  param {
    lr_mult: 2
  }
  convolution_param {
    num_output: 60
    pad: 0
    kernel_size: 1
    stride: 1
    weight_filler {
      type: "gaussian"
      std: 0.01
    }
    bias_filler {
      type: "constant"
      value: 0
    }
  }
}
layer {
  name: "rpn_cls_score_reshape"
  type: "Reshape"
  bottom: "rpn_cls_score"
  top: "rpn_cls_score_reshape"
  reshape_param {
    shape {
      dim: 0
      dim: 2
      dim: -1
      dim: 0
    }
  }
}
layer {
  name: "rpn-data"
  type: "Python"
  bottom: "rpn_cls_score"
  bottom: "gt_boxes"
  bottom: "im_info"
  bottom: "data"
  top: "rpn_labels"
  top: "rpn_bbox_targets"
  top: "rpn_bbox_inside_weights"
  top: "rpn_bbox_outside_weights"
  python_param {
    module: "rpn.anchor_target_layer"
    layer: "AnchorTargetLayer"
    param_str: "\'feat_stride\': 16 \n\'scales\': !!python/tuple [2, 4, 8, 16, 32]"
  }
}
layer {
  name: "rpn_loss_cls"
  type: "SoftmaxWithLoss"
  bottom: "rpn_cls_score_reshape"
  bottom: "rpn_labels"
  top: "rpn_cls_loss"
  loss_weight: 1
  propagate_down: true
  propagate_down: false
  loss_param {
    ignore_label: -1
    normalize: true
  }
}
layer {
  name: "rpn_loss_bbox"
  type: "SmoothL1Loss"
  bottom: "rpn_bbox_pred"
  bottom: "rpn_bbox_targets"
  bottom: "rpn_bbox_inside_weights"
  bottom: "rpn_bbox_outside_weights"
  top: "rpn_loss_bbox"
  loss_weight: 1
  smooth_l1_loss_param {
    sigma: 3
  }
}
layer {
  name: "rpn_cls_prob"
  type: "Softmax"
  bottom: "rpn_cls_score_reshape"
  top: "rpn_cls_prob"
}
layer {
  name: "rpn_cls_prob_reshape"
  type: "Reshape"
  bottom: "rpn_cls_prob"
  top: "rpn_cls_prob_reshape"
  reshape_param {
    shape {
      dim: 0
      dim: 30
      dim: -1
      dim: 0
    }
  }
}
layer {
  name: "proposal"
  type: "Python"
  bottom: "rpn_cls_prob_reshape"
  bottom: "rpn_bbox_pred"
  bottom: "im_info"
  top: "rpn_rois"
  python_param {
    module: "rpn.proposal_layer"
    layer: "ProposalLayer"
    param_str: "\'feat_stride\': 16 \n\'scales\': !!python/tuple [2, 4, 8, 16, 32]"
  }
}
layer {
  name: "roi-data"
  type: "Python"
  bottom: "rpn_rois"
  bottom: "gt_boxes"
  bottom: "im_info"
  bottom: "seg_mask_inds"
  bottom: "flipped"
  top: "rois"
  top: "labels"
  top: "bbox_targets"
  top: "bbox_inside_weights"
  top: "bbox_outside_weights"
  top: "mask_targets"
  top: "rois_pos"
  python_param {
    module: "rpn.proposal_target_layer"
    layer: "ProposalTargetLayer"
    param_str: "\'num_classes\': 2"
  }
}
layer {
  name: "roi_pool5"
  type: "ROIAlignment"
  bottom: "conv5_3"
  bottom: "rois"
  top: "pool5"
  roi_alignment_param {
    pooled_h: 7
    pooled_w: 7
    spatial_scale: 0.0625
  }
}
layer {
  name: "fc6"
  type: "InnerProduct"
  bottom: "pool5"
  top: "fc6"
  param {
    lr_mult: 1
  }
  param {
    lr_mult: 2
  }
  inner_product_param {
    num_output: 4096
  }
}
layer {
  name: "relu6"
  type: "ReLU"
  bottom: "fc6"
  top: "fc6"
}
layer {
  name: "fc7"
  type: "InnerProduct"
  bottom: "fc6"
  top: "fc7"
  param {
    lr_mult: 1
  }
  param {
    lr_mult: 2
  }
  inner_product_param {
    num_output: 4096
  }
}
layer {
  name: "relu7"
  type: "ReLU"
  bottom: "fc7"
  top: "fc7"
}
layer {
  name: "cls_score"
  type: "InnerProduct"
  bottom: "fc7"
  top: "cls_score"
  param {
    lr_mult: 1
  }
  param {
    lr_mult: 2
  }
  inner_product_param {
    num_output: 2
    weight_filler {
      type: "gaussian"
      std: 0.01
    }
    bias_filler {
      type: "constant"
      value: 0
    }
  }
}
layer {
  name: "bbox_pred"
  type: "InnerProduct"
  bottom: "fc7"
  top: "bbox_pred"
  param {
    lr_mult: 1
  }
  param {
    lr_mult: 2
  }
  inner_product_param {
    num_output: 8
    weight_filler {
      type: "gaussian"
      std: 0.001
    }
    bias_filler {
      type: "constant"
      value: 0
    }
  }
}
layer {
  name: "loss_cls"
  type: "SoftmaxWithLoss"
  bottom: "cls_score"
  bottom: "labels"
  top: "loss_cls"
  loss_weight: 3
  propagate_down: true
  propagate_down: false
}
layer {
  name: "loss_bbox"
  type: "SmoothL1Loss"
  bottom: "bbox_pred"
  bottom: "bbox_targets"
  bottom: "bbox_inside_weights"
  bottom: "bbox_outside_weights"
  top: "loss_bbox"
  loss_weight: 2
}
layer {
  name: "roi_pool5_2"
  type: "ROIAlignment"
  bottom: "conv5_3"
  bottom: "rois_pos"
  top: "pool5_2"
  roi_alignment_param {
    pooled_h: 7
    pooled_w: 7
    spatial_scale: 0.0625
  }
}
layer {
  name: "pool5_2_conv"
  type: "Convolution"
  bottom: "pool5_2"
  top: "pool5_2_conv"
  param {
    lr_mult: 1
    decay_mult: 1
  }
  param {
    lr_mult: 2
    decay_mult: 0
  }
  convolution_param {
    num_output: 512
    pad: 0
    kernel_size: 1
    weight_filler {
      type: "gaussian"
      std: 0.01
    }
    bias_filler {
      type: "constant"
      value: 0
    }
  }
}
layer {
  name: "pool5_2_conv_relu"
  type: "ReLU"
  bottom: "pool5_2_conv"
  top: "pool5_2_conv_relu"
}
layer {
  name: "pool5_2_conv2"
  type: "Convolution"
  bottom: "pool5_2_conv_relu"
  top: "pool5_2_conv2"
  param {
    lr_mult: 1
    decay_mult: 1
  }
  param {
    lr_mult: 2
    decay_mult: 0
  }
  convolution_param {
    num_output: 512
    pad: 1
    kernel_size: 3
    stride: 1
    weight_filler {
      type: "gaussian"
      std: 0.01
    }
    bias_filler {
      type: "constant"
      value: 0
    }
  }
}
layer {
  name: "pool5_2_conv2_relu"
  type: "ReLU"
  bottom: "pool5_2_conv2"
  top: "pool5_2_conv2_relu"
}
layer {
  name: "mask_deconv1"
  type: "Deconvolution"
  bottom: "pool5_2_conv2_relu"
  top: "mask_deconv1"
  param {
    lr_mult: 1
    decay_mult: 1
  }
  param {
    lr_mult: 2
    decay_mult: 0
  }
  convolution_param {
    num_output: 256
    pad: 1
    kernel_size: 8
    group: 256
    stride: 4
    weight_filler {
      type: "bilinear"
    }
  }
}
layer {
  name: "pool5_2_conv3"
  type: "Convolution"
  bottom: "mask_deconv1"
  top: "pool5_2_conv3"
  param {
    lr_mult: 1
    decay_mult: 1
  }
  param {
    lr_mult: 2
    decay_mult: 0
  }
  convolution_param {
    num_output: 512
    pad: 1
    kernel_size: 3
    stride: 1
    weight_filler {
      type: "gaussian"
      std: 0.01
    }
    bias_filler {
      type: "constant"
      value: 0
    }
  }
}
layer {
  name: "pool5_2_conv3_relu"
  type: "ReLU"
  bottom: "pool5_2_conv3"
  top: "pool5_2_conv3_relu"
}
layer {
  name: "pool5_2_conv4"
  type: "Convolution"
  bottom: "pool5_2_conv3_relu"
  top: "pool5_2_conv4"
  param {
    lr_mult: 1
    decay_mult: 1
  }
  param {
    lr_mult: 2
    decay_mult: 0
  }
  convolution_param {
    num_output: 512
    pad: 1
    kernel_size: 3
    stride: 1
    weight_filler {
      type: "gaussian"
      std: 0.01
    }
    bias_filler {
      type: "constant"
      value: 0
    }
  }
}
layer {
  name: "pool5_2_conv4_relu"
  type: "ReLU"
  bottom: "pool5_2_conv4"
  top: "pool5_2_conv4_relu"
}
layer {
  name: "query_conv"
  type: "Convolution"
  bottom: "pool5_2_conv4_relu"
  top: "query_conv"
  param {
    lr_mult: 1
    decay_mult: 1
  }
  param {
    lr_mult: 2
    decay_mult: 0
  }
  convolution_param {
    num_output: 64
    pad: 0
    kernel_size: 1
    stride: 1
    weight_filler {
      type: "gaussian"
      std: 0.01
    }
    bias_filler {
      type: "constant"
      value: 0
    }
  }
}
layer {
  name: "key_conv"
  type: "Convolution"
  bottom: "pool5_2_conv4_relu"
  top: "key_conv"
  param {
    lr_mult: 1
    decay_mult: 1
  }
  param {
    lr_mult: 2
    decay_mult: 0
  }
  convolution_param {
    num_output: 64
    pad: 0
    kernel_size: 1
    stride: 1
    weight_filler {
      type: "gaussian"
      std: 0.01
    }
    bias_filler {
      type: "constant"
      value: 0
    }
  }
}
layer {
  name: "value_conv"
  type: "Convolution"
  bottom: "pool5_2_conv4_relu"
  top: "value_conv"
  param {
    lr_mult: 1
    decay_mult: 1
  }
  param {
    lr_mult: 2
    decay_mult: 0
  }
  convolution_param {
    num_output: 512
    pad: 0
    kernel_size: 1
    stride: 1
    weight_filler {
      type: "gaussian"
      std: 0.01
    }
    bias_filler {
      type: "constant"
      value: 0
    }
  }
}
layer {
  name: "query_conv_reshape"
  type: "Reshape"
  bottom: "query_conv"
  top: "query_conv_reshape"
  reshape_param {
    shape {
      dim: -1
      dim: 64
      dim: 900
      dim: 1
    }
  }
}
layer {
  name: "key_conv_reshape"
  type: "Reshape"
  bottom: "key_conv"
  top: "key_conv_reshape"
  reshape_param {
    shape {
      dim: -1
      dim: 64
      dim: 900
      dim: 1
    }
  }
}
layer {
  name: "value_conv_reshape"
  type: "Reshape"
  bottom: "value_conv"
  top: "value_conv_reshape"
  reshape_param {
    shape {
      dim: -1
      dim: 512
      dim: 900
      dim: 1
    }
  }
}
layer {
  name: "query_conv_reshape_perm"
  type: "Permute"
  bottom: "query_conv_reshape"
  top: "query_conv_reshape_perm"
  permute_param {
    order: 0
    order: 3
    order: 2
    order: 1
  }
}
layer {
  name: "key_conv_reshape_perm"
  type: "Permute"
  bottom: "key_conv_reshape"
  top: "key_conv_reshape_perm"
  permute_param {
    order: 0
    order: 3
    order: 1
    order: 2
  }
}
layer {
  name: "energy"
  type: "MatrixMultiplication"
  bottom: "query_conv_reshape_perm"
  bottom: "key_conv_reshape_perm"
  top: "energy"
}
layer {
  name: "attention"
  type: "Softmax"
  bottom: "energy"
  top: "attention"
  softmax_param {
    axis: 3
  }
}
layer {
  name: "value_conv_reshape_perm"
  type: "Permute"
  bottom: "value_conv_reshape"
  top: "value_conv_reshape_perm"
  permute_param {
    order: 0
    order: 3
    order: 1
    order: 2
  }
}
layer {
  name: "attention_perm"
  type: "Permute"
  bottom: "attention"
  top: "attention_perm"
  permute_param {
    order: 0
    order: 1
    order: 2
    order: 3
  }
}
layer {
  name: "out"
  type: "MatrixMultiplication"
  bottom: "value_conv_reshape_perm"
  bottom: "attention_perm"
  top: "out"
}
layer {
  name: "out_reshape"
  type: "Reshape"
  bottom: "out"
  top: "out_reshape"
  reshape_param {
    shape {
      dim: -1
      dim: 512
      dim: 30
      dim: 30
    }
  }
}
layer {
  name: "out_reshape_scale"
  type: "Scale"
  bottom: "out_reshape"
  top: "out_reshape_scale"
  param {
    name: "scale_conv1_1"
    lr_mult: 1
  }
  scale_param {
    bias_term: false
  }
}
layer {
  name: "out_x"
  type: "Eltwise"
  bottom: "out_reshape_scale"
  bottom: "pool5_2_conv4_relu"
  top: "out_x"
  eltwise_param {
    operation: SUM
  }
}
layer {
  name: "query_conv_reshape_ch"
  type: "Reshape"
  bottom: "pool5_2_conv4_relu"
  top: "query_conv_reshape_ch"
  reshape_param {
    shape {
      dim: 1
      dim: 512
      dim: -1
      dim: 1
    }
  }
}
layer {
  name: "key_conv_reshape_ch"
  type: "Reshape"
  bottom: "pool5_2_conv4_relu"
  top: "key_conv_reshape_ch"
  reshape_param {
    shape {
      dim: 1
      dim: 512
      dim: -1
      dim: 1
    }
  }
}
layer {
  name: "value_conv_reshape_ch"
  type: "Reshape"
  bottom: "pool5_2_conv4_relu"
  top: "value_conv_reshape_ch"
  reshape_param {
    shape {
      dim: 1
      dim: 512
      dim: -1
      dim: 1
    }
  }
}
layer {
  name: "query_conv_reshape_perm_ch"
  type: "Permute"
  bottom: "query_conv_reshape_ch"
  top: "query_conv_reshape_perm_ch"
  permute_param {
    order: 0
    order: 3
    order: 1
    order: 2
  }
}
layer {
  name: "key_conv_reshape_perm_ch"
  type: "Permute"
  bottom: "key_conv_reshape_ch"
  top: "key_conv_reshape_perm_ch"
  permute_param {
    order: 0
    order: 3
    order: 2
    order: 1
  }
}
layer {
  name: "energy_ch"
  type: "MatrixMultiplication"
  bottom: "query_conv_reshape_perm_ch"
  bottom: "key_conv_reshape_perm_ch"
  top: "energy_ch"
}
layer {
  name: "energy_ch_pool"
  type: "Pooling"
  bottom: "energy_ch"
  top: "energy_ch_pool"
  pooling_param {
    pool: MAX
    kernel_h: 1
    kernel_w: 512
    stride_h: 1
    stride_w: 512
  }
}
layer {
  name: "energy_ch_max"
  type: "Tile"
  bottom: "energy_ch_pool"
  top: "energy_ch_max"
  tile_param {
    axis: 3
    tiles: 512
  }
}
layer {
  name: "energy_ch_minus"
  type: "Power"
  bottom: "energy_ch"
  top: "energy_ch_minus"
  power_param {
    power: 1
    scale: -1
    shift: 0
  }
}
layer {
  name: "energy_new"
  type: "Eltwise"
  bottom: "energy_ch_max"
  bottom: "energy_ch_minus"
  top: "energy_new"
  eltwise_param {
    operation: SUM
  }
}
layer {
  name: "attention_ch"
  type: "Softmax"
  bottom: "energy_new"
  top: "attention_ch"
  softmax_param {
    axis: 3
  }
}
layer {
  name: "value_conv_reshape_ch_perm"
  type: "Permute"
  bottom: "value_conv_reshape_ch"
  top: "value_conv_reshape_ch_perm"
  permute_param {
    order: 0
    order: 3
    order: 1
    order: 2
  }
}
layer {
  name: "attention_ch_perm"
  type: "Permute"
  bottom: "attention_ch"
  top: "attention_ch_perm"
  permute_param {
    order: 0
    order: 1
    order: 2
    order: 3
  }
}
layer {
  name: "out_ch"
  type: "MatrixMultiplication"
  bottom: "attention_ch_perm"
  bottom: "value_conv_reshape_ch_perm"
  top: "out_ch"
}
layer {
  name: "out_ch_reshape"
  type: "Reshape"
  bottom: "out_ch"
  top: "out_ch_reshape"
  reshape_param {
    shape {
      dim: -1
      dim: 512
      dim: 30
      dim: 30
    }
  }
}
layer {
  name: "out_ch_reshape_scale"
  type: "Scale"
  bottom: "out_ch_reshape"
  top: "out_ch_reshape_scale"
  param {
    name: "scale_conv1_1"
    lr_mult: 1
  }
  scale_param {
    bias_term: false
  }
}
layer {
  name: "out_ch_x"
  type: "Eltwise"
  bottom: "out_ch_reshape_scale"
  bottom: "pool5_2_conv4_relu"
  top: "out_ch_x"
  eltwise_param {
    operation: SUM
  }
}
layer {
  name: "out_conv_ch_x"
  type: "Convolution"
  bottom: "out_ch_x"
  top: "out_conv_ch_x"
  param {
    lr_mult: 1
    decay_mult: 1
  }
  param {
    lr_mult: 2
    decay_mult: 0
  }
  convolution_param {
    num_output: 512
    pad: 0
    kernel_size: 1
    weight_filler {
      type: "gaussian"
      std: 0.01
    }
    bias_filler {
      type: "constant"
      value: 0
    }
  }
}
layer {
  name: "out_conv_x"
  type: "Convolution"
  bottom: "out_x"
  top: "out_conv_x"
  param {
    lr_mult: 1
    decay_mult: 1
  }
  param {
    lr_mult: 2
    decay_mult: 0
  }
  convolution_param {
    num_output: 512
    pad: 0
    kernel_size: 1
    weight_filler {
      type: "gaussian"
      std: 0.01
    }
    bias_filler {
      type: "constant"
      value: 0
    }
  }
}
layer {
  name: "out_x_sum"
  type: "Eltwise"
  bottom: "out_conv_x"
  bottom: "out_conv_ch_x"
  top: "out_x_sum"
  eltwise_param {
    operation: SUM
  }
}
layer {
  name: "mask_deconv2"
  type: "Deconvolution"
  bottom: "out_x_sum"
  top: "mask_deconv2"
  param {
    lr_mult: 1
    decay_mult: 1
  }
  param {
    lr_mult: 2
    decay_mult: 0
  }
  convolution_param {
    num_output: 256
    pad: 1
    kernel_size: 8
    group: 256
    stride: 4
    weight_filler {
      type: "bilinear"
    }
  }
}
layer {
  name: "pool5_2_conv5"
  type: "Convolution"
  bottom: "mask_deconv2"
  top: "pool5_2_conv5"
  param {
    lr_mult: 1
    decay_mult: 1
  }
  param {
    lr_mult: 2
    decay_mult: 0
  }
  convolution_param {
    num_output: 512
    pad: 1
    kernel_size: 3
    stride: 1
    weight_filler {
      type: "gaussian"
      std: 0.01
    }
    bias_filler {
      type: "constant"
      value: 0
    }
  }
}
layer {
  name: "pool5_2_conv5_relu"
  type: "ReLU"
  bottom: "pool5_2_conv5"
  top: "pool5_2_conv5_relu"
}
layer {
  name: "pool5_2_conv6"
  type: "Convolution"
  bottom: "pool5_2_conv5_relu"
  top: "pool5_2_conv6"
  param {
    lr_mult: 1
    decay_mult: 1
  }
  param {
    lr_mult: 2
    decay_mult: 0
  }
  convolution_param {
    num_output: 512
    pad: 1
    kernel_size: 3
    stride: 1
    weight_filler {
      type: "gaussian"
      std: 0.01
    }
    bias_filler {
      type: "constant"
      value: 0
    }
  }
}
layer {
  name: "pool5_2_conv6_relu"
  type: "ReLU"
  bottom: "pool5_2_conv6"
  top: "pool5_2_conv6_relu"
}
layer {
  name: "mask_deconv3"
  type: "Deconvolution"
  bottom: "pool5_2_conv6_relu"
  top: "mask_deconv3"
  param {
    lr_mult: 1
    decay_mult: 1
  }
  param {
    lr_mult: 2
    decay_mult: 0
  }
  convolution_param {
    num_output: 256
    pad: 1
    kernel_size: 4
    group: 256
    stride: 2
    weight_filler {
      type: "bilinear"
    }
  }
}
layer {
  name: "mask_score"
  type: "Convolution"
  bottom: "mask_deconv3"
  top: "mask_score"
  param {
    lr_mult: 1
    decay_mult: 1
  }
  param {
    lr_mult: 2
    decay_mult: 0
  }
  convolution_param {
    num_output: 8
    pad: 0
    kernel_size: 1
    weight_filler {
      type: "gaussian"
      std: 0.01
    }
    bias_filler {
      type: "constant"
      value: 0
    }
  }
}
layer {
  name: "loss_mask"
  type: "SoftmaxWithLoss"
  bottom: "mask_score"
  bottom: "mask_targets"
  top: "loss_mask"
  loss_weight: 3
  propagate_down: true
  propagate_down: false
  loss_param {
    ignore_label: -1
    normalize: true
  }
}
I0605 18:19:29.760920   965 layer_factory.hpp:77] Creating layer input-data
I0605 18:19:29.916273   965 net.cpp:106] Creating Layer input-data
I0605 18:19:29.916290   965 net.cpp:411] input-data -> data
I0605 18:19:29.916301   965 net.cpp:411] input-data -> im_info
I0605 18:19:29.916307   965 net.cpp:411] input-data -> gt_boxes
I0605 18:19:29.916312   965 net.cpp:411] input-data -> seg_mask_inds
I0605 18:19:29.916316   965 net.cpp:411] input-data -> flipped
RoiDataLayer: name_to_top: {'gt_boxes': 2, 'data': 0, 'seg_mask_inds': 3, 'im_info': 1, 'flipped': 4}
I0605 18:19:29.999526   965 net.cpp:150] Setting up input-data
I0605 18:19:29.999542   965 net.cpp:157] Top shape: 1 3 600 1000 (1800000)
I0605 18:19:29.999547   965 net.cpp:157] Top shape: 1 3 (3)
I0605 18:19:29.999550   965 net.cpp:157] Top shape: 1 4 (4)
I0605 18:19:29.999552   965 net.cpp:157] Top shape: 1 2 (2)
I0605 18:19:29.999555   965 net.cpp:157] Top shape: 1 1 (1)
I0605 18:19:29.999558   965 net.cpp:165] Memory required for data: 7200040
I0605 18:19:29.999563   965 layer_factory.hpp:77] Creating layer data_input-data_0_split
I0605 18:19:30.000126   965 net.cpp:106] Creating Layer data_input-data_0_split
I0605 18:19:30.000133   965 net.cpp:454] data_input-data_0_split <- data
I0605 18:19:30.000138   965 net.cpp:411] data_input-data_0_split -> data_input-data_0_split_0
I0605 18:19:30.000144   965 net.cpp:411] data_input-data_0_split -> data_input-data_0_split_1
I0605 18:19:30.000166   965 net.cpp:150] Setting up data_input-data_0_split
I0605 18:19:30.000171   965 net.cpp:157] Top shape: 1 3 600 1000 (1800000)
I0605 18:19:30.000174   965 net.cpp:157] Top shape: 1 3 600 1000 (1800000)
I0605 18:19:30.000176   965 net.cpp:165] Memory required for data: 21600040
I0605 18:19:30.000178   965 layer_factory.hpp:77] Creating layer im_info_input-data_1_split
I0605 18:19:30.000183   965 net.cpp:106] Creating Layer im_info_input-data_1_split
I0605 18:19:30.000185   965 net.cpp:454] im_info_input-data_1_split <- im_info
I0605 18:19:30.000190   965 net.cpp:411] im_info_input-data_1_split -> im_info_input-data_1_split_0
I0605 18:19:30.000192   965 net.cpp:411] im_info_input-data_1_split -> im_info_input-data_1_split_1
I0605 18:19:30.000198   965 net.cpp:411] im_info_input-data_1_split -> im_info_input-data_1_split_2
I0605 18:19:30.000226   965 net.cpp:150] Setting up im_info_input-data_1_split
I0605 18:19:30.000231   965 net.cpp:157] Top shape: 1 3 (3)
I0605 18:19:30.000234   965 net.cpp:157] Top shape: 1 3 (3)
I0605 18:19:30.000236   965 net.cpp:157] Top shape: 1 3 (3)
I0605 18:19:30.000239   965 net.cpp:165] Memory required for data: 21600076
I0605 18:19:30.000242   965 layer_factory.hpp:77] Creating layer gt_boxes_input-data_2_split
I0605 18:19:30.000247   965 net.cpp:106] Creating Layer gt_boxes_input-data_2_split
I0605 18:19:30.000250   965 net.cpp:454] gt_boxes_input-data_2_split <- gt_boxes
I0605 18:19:30.000254   965 net.cpp:411] gt_boxes_input-data_2_split -> gt_boxes_input-data_2_split_0
I0605 18:19:30.000258   965 net.cpp:411] gt_boxes_input-data_2_split -> gt_boxes_input-data_2_split_1
I0605 18:19:30.000275   965 net.cpp:150] Setting up gt_boxes_input-data_2_split
I0605 18:19:30.000279   965 net.cpp:157] Top shape: 1 4 (4)
I0605 18:19:30.000283   965 net.cpp:157] Top shape: 1 4 (4)
I0605 18:19:30.000284   965 net.cpp:165] Memory required for data: 21600108
I0605 18:19:30.000286   965 layer_factory.hpp:77] Creating layer conv1_1
I0605 18:19:30.000294   965 net.cpp:106] Creating Layer conv1_1
I0605 18:19:30.000296   965 net.cpp:454] conv1_1 <- data_input-data_0_split_0
I0605 18:19:30.000300   965 net.cpp:411] conv1_1 -> conv1_1
I0605 18:19:30.499874   965 net.cpp:150] Setting up conv1_1
I0605 18:19:30.499893   965 net.cpp:157] Top shape: 1 64 600 1000 (38400000)
I0605 18:19:30.499897   965 net.cpp:165] Memory required for data: 175200108
I0605 18:19:30.499907   965 layer_factory.hpp:77] Creating layer relu1_1
I0605 18:19:30.499927   965 net.cpp:106] Creating Layer relu1_1
I0605 18:19:30.499929   965 net.cpp:454] relu1_1 <- conv1_1
I0605 18:19:30.499933   965 net.cpp:397] relu1_1 -> conv1_1 (in-place)
I0605 18:19:30.500078   965 net.cpp:150] Setting up relu1_1
I0605 18:19:30.500084   965 net.cpp:157] Top shape: 1 64 600 1000 (38400000)
I0605 18:19:30.500087   965 net.cpp:165] Memory required for data: 328800108
I0605 18:19:30.500088   965 layer_factory.hpp:77] Creating layer conv1_2
I0605 18:19:30.500095   965 net.cpp:106] Creating Layer conv1_2
I0605 18:19:30.500098   965 net.cpp:454] conv1_2 <- conv1_1
I0605 18:19:30.500102   965 net.cpp:411] conv1_2 -> conv1_2
I0605 18:19:30.502295   965 net.cpp:150] Setting up conv1_2
I0605 18:19:30.502306   965 net.cpp:157] Top shape: 1 64 600 1000 (38400000)
I0605 18:19:30.502308   965 net.cpp:165] Memory required for data: 482400108
I0605 18:19:30.502315   965 layer_factory.hpp:77] Creating layer relu1_2
I0605 18:19:30.502321   965 net.cpp:106] Creating Layer relu1_2
I0605 18:19:30.502323   965 net.cpp:454] relu1_2 <- conv1_2
I0605 18:19:30.502337   965 net.cpp:397] relu1_2 -> conv1_2 (in-place)
I0605 18:19:30.502471   965 net.cpp:150] Setting up relu1_2
I0605 18:19:30.502477   965 net.cpp:157] Top shape: 1 64 600 1000 (38400000)
I0605 18:19:30.502480   965 net.cpp:165] Memory required for data: 636000108
I0605 18:19:30.502482   965 layer_factory.hpp:77] Creating layer pool1
I0605 18:19:30.502488   965 net.cpp:106] Creating Layer pool1
I0605 18:19:30.502490   965 net.cpp:454] pool1 <- conv1_2
I0605 18:19:30.502494   965 net.cpp:411] pool1 -> pool1
I0605 18:19:30.503130   965 net.cpp:150] Setting up pool1
I0605 18:19:30.503136   965 net.cpp:157] Top shape: 1 64 300 500 (9600000)
I0605 18:19:30.503139   965 net.cpp:165] Memory required for data: 674400108
I0605 18:19:30.503141   965 layer_factory.hpp:77] Creating layer conv2_1
I0605 18:19:30.503147   965 net.cpp:106] Creating Layer conv2_1
I0605 18:19:30.503150   965 net.cpp:454] conv2_1 <- pool1
I0605 18:19:30.503154   965 net.cpp:411] conv2_1 -> conv2_1
I0605 18:19:30.504941   965 net.cpp:150] Setting up conv2_1
I0605 18:19:30.504950   965 net.cpp:157] Top shape: 1 128 300 500 (19200000)
I0605 18:19:30.504952   965 net.cpp:165] Memory required for data: 751200108
I0605 18:19:30.504958   965 layer_factory.hpp:77] Creating layer relu2_1
I0605 18:19:30.504962   965 net.cpp:106] Creating Layer relu2_1
I0605 18:19:30.504966   965 net.cpp:454] relu2_1 <- conv2_1
I0605 18:19:30.504979   965 net.cpp:397] relu2_1 -> conv2_1 (in-place)
I0605 18:19:30.505501   965 net.cpp:150] Setting up relu2_1
I0605 18:19:30.505508   965 net.cpp:157] Top shape: 1 128 300 500 (19200000)
I0605 18:19:30.505511   965 net.cpp:165] Memory required for data: 828000108
I0605 18:19:30.505513   965 layer_factory.hpp:77] Creating layer conv2_2
I0605 18:19:30.505519   965 net.cpp:106] Creating Layer conv2_2
I0605 18:19:30.505522   965 net.cpp:454] conv2_2 <- conv2_1
I0605 18:19:30.505525   965 net.cpp:411] conv2_2 -> conv2_2
I0605 18:19:30.507344   965 net.cpp:150] Setting up conv2_2
I0605 18:19:30.507354   965 net.cpp:157] Top shape: 1 128 300 500 (19200000)
I0605 18:19:30.507355   965 net.cpp:165] Memory required for data: 904800108
I0605 18:19:30.507360   965 layer_factory.hpp:77] Creating layer relu2_2
I0605 18:19:30.507364   965 net.cpp:106] Creating Layer relu2_2
I0605 18:19:30.507367   965 net.cpp:454] relu2_2 <- conv2_2
I0605 18:19:30.507374   965 net.cpp:397] relu2_2 -> conv2_2 (in-place)
I0605 18:19:30.507493   965 net.cpp:150] Setting up relu2_2
I0605 18:19:30.507499   965 net.cpp:157] Top shape: 1 128 300 500 (19200000)
I0605 18:19:30.507501   965 net.cpp:165] Memory required for data: 981600108
I0605 18:19:30.507503   965 layer_factory.hpp:77] Creating layer pool2
I0605 18:19:30.507508   965 net.cpp:106] Creating Layer pool2
I0605 18:19:30.507511   965 net.cpp:454] pool2 <- conv2_2
I0605 18:19:30.507514   965 net.cpp:411] pool2 -> pool2
I0605 18:19:30.507544   965 net.cpp:150] Setting up pool2
I0605 18:19:30.507549   965 net.cpp:157] Top shape: 1 128 150 250 (4800000)
I0605 18:19:30.507550   965 net.cpp:165] Memory required for data: 1000800108
I0605 18:19:30.507553   965 layer_factory.hpp:77] Creating layer conv3_1
I0605 18:19:30.507560   965 net.cpp:106] Creating Layer conv3_1
I0605 18:19:30.507561   965 net.cpp:454] conv3_1 <- pool2
I0605 18:19:30.507565   965 net.cpp:411] conv3_1 -> conv3_1
I0605 18:19:30.509837   965 net.cpp:150] Setting up conv3_1
I0605 18:19:30.509847   965 net.cpp:157] Top shape: 1 256 150 250 (9600000)
I0605 18:19:30.509850   965 net.cpp:165] Memory required for data: 1039200108
I0605 18:19:30.509857   965 layer_factory.hpp:77] Creating layer relu3_1
I0605 18:19:30.509861   965 net.cpp:106] Creating Layer relu3_1
I0605 18:19:30.509863   965 net.cpp:454] relu3_1 <- conv3_1
I0605 18:19:30.509877   965 net.cpp:397] relu3_1 -> conv3_1 (in-place)
I0605 18:19:30.510017   965 net.cpp:150] Setting up relu3_1
I0605 18:19:30.510023   965 net.cpp:157] Top shape: 1 256 150 250 (9600000)
I0605 18:19:30.510025   965 net.cpp:165] Memory required for data: 1077600108
I0605 18:19:30.510028   965 layer_factory.hpp:77] Creating layer conv3_2
I0605 18:19:30.510035   965 net.cpp:106] Creating Layer conv3_2
I0605 18:19:30.510037   965 net.cpp:454] conv3_2 <- conv3_1
I0605 18:19:30.510041   965 net.cpp:411] conv3_2 -> conv3_2
I0605 18:19:30.512226   965 net.cpp:150] Setting up conv3_2
I0605 18:19:30.512235   965 net.cpp:157] Top shape: 1 256 150 250 (9600000)
I0605 18:19:30.512238   965 net.cpp:165] Memory required for data: 1116000108
I0605 18:19:30.512243   965 layer_factory.hpp:77] Creating layer relu3_2
I0605 18:19:30.512248   965 net.cpp:106] Creating Layer relu3_2
I0605 18:19:30.512250   965 net.cpp:454] relu3_2 <- conv3_2
I0605 18:19:30.512253   965 net.cpp:397] relu3_2 -> conv3_2 (in-place)
I0605 18:19:30.512409   965 net.cpp:150] Setting up relu3_2
I0605 18:19:30.512416   965 net.cpp:157] Top shape: 1 256 150 250 (9600000)
I0605 18:19:30.512418   965 net.cpp:165] Memory required for data: 1154400108
I0605 18:19:30.512420   965 layer_factory.hpp:77] Creating layer conv3_3
I0605 18:19:30.512425   965 net.cpp:106] Creating Layer conv3_3
I0605 18:19:30.512428   965 net.cpp:454] conv3_3 <- conv3_2
I0605 18:19:30.512432   965 net.cpp:411] conv3_3 -> conv3_3
I0605 18:19:30.514788   965 net.cpp:150] Setting up conv3_3
I0605 18:19:30.514808   965 net.cpp:157] Top shape: 1 256 150 250 (9600000)
I0605 18:19:30.514811   965 net.cpp:165] Memory required for data: 1192800108
I0605 18:19:30.514817   965 layer_factory.hpp:77] Creating layer relu3_3
I0605 18:19:30.514832   965 net.cpp:106] Creating Layer relu3_3
I0605 18:19:30.514834   965 net.cpp:454] relu3_3 <- conv3_3
I0605 18:19:30.514839   965 net.cpp:397] relu3_3 -> conv3_3 (in-place)
I0605 18:19:30.514969   965 net.cpp:150] Setting up relu3_3
I0605 18:19:30.514976   965 net.cpp:157] Top shape: 1 256 150 250 (9600000)
I0605 18:19:30.514988   965 net.cpp:165] Memory required for data: 1231200108
I0605 18:19:30.514991   965 layer_factory.hpp:77] Creating layer pool3
I0605 18:19:30.514997   965 net.cpp:106] Creating Layer pool3
I0605 18:19:30.514998   965 net.cpp:454] pool3 <- conv3_3
I0605 18:19:30.515012   965 net.cpp:411] pool3 -> pool3
I0605 18:19:30.515060   965 net.cpp:150] Setting up pool3
I0605 18:19:30.515064   965 net.cpp:157] Top shape: 1 256 75 125 (2400000)
I0605 18:19:30.515066   965 net.cpp:165] Memory required for data: 1240800108
I0605 18:19:30.515079   965 layer_factory.hpp:77] Creating layer conv4_1
I0605 18:19:30.515084   965 net.cpp:106] Creating Layer conv4_1
I0605 18:19:30.515086   965 net.cpp:454] conv4_1 <- pool3
I0605 18:19:30.515101   965 net.cpp:411] conv4_1 -> conv4_1
I0605 18:19:30.519593   965 net.cpp:150] Setting up conv4_1
I0605 18:19:30.519619   965 net.cpp:157] Top shape: 1 512 75 125 (4800000)
I0605 18:19:30.519623   965 net.cpp:165] Memory required for data: 1260000108
I0605 18:19:30.519629   965 layer_factory.hpp:77] Creating layer relu4_1
I0605 18:19:30.519646   965 net.cpp:106] Creating Layer relu4_1
I0605 18:19:30.519650   965 net.cpp:454] relu4_1 <- conv4_1
I0605 18:19:30.519654   965 net.cpp:397] relu4_1 -> conv4_1 (in-place)
I0605 18:19:30.519793   965 net.cpp:150] Setting up relu4_1
I0605 18:19:30.519799   965 net.cpp:157] Top shape: 1 512 75 125 (4800000)
I0605 18:19:30.519811   965 net.cpp:165] Memory required for data: 1279200108
I0605 18:19:30.519814   965 layer_factory.hpp:77] Creating layer conv4_2
I0605 18:19:30.519830   965 net.cpp:106] Creating Layer conv4_2
I0605 18:19:30.519840   965 net.cpp:454] conv4_2 <- conv4_1
I0605 18:19:30.519843   965 net.cpp:411] conv4_2 -> conv4_2
I0605 18:19:30.524873   965 net.cpp:150] Setting up conv4_2
I0605 18:19:30.524906   965 net.cpp:157] Top shape: 1 512 75 125 (4800000)
I0605 18:19:30.524910   965 net.cpp:165] Memory required for data: 1298400108
I0605 18:19:30.524922   965 layer_factory.hpp:77] Creating layer relu4_2
I0605 18:19:30.524943   965 net.cpp:106] Creating Layer relu4_2
I0605 18:19:30.524950   965 net.cpp:454] relu4_2 <- conv4_2
I0605 18:19:30.524958   965 net.cpp:397] relu4_2 -> conv4_2 (in-place)
I0605 18:19:30.525511   965 net.cpp:150] Setting up relu4_2
I0605 18:19:30.525532   965 net.cpp:157] Top shape: 1 512 75 125 (4800000)
I0605 18:19:30.525535   965 net.cpp:165] Memory required for data: 1317600108
I0605 18:19:30.525538   965 layer_factory.hpp:77] Creating layer conv4_3
I0605 18:19:30.525547   965 net.cpp:106] Creating Layer conv4_3
I0605 18:19:30.525562   965 net.cpp:454] conv4_3 <- conv4_2
I0605 18:19:30.525566   965 net.cpp:411] conv4_3 -> conv4_3
I0605 18:19:30.529986   965 net.cpp:150] Setting up conv4_3
I0605 18:19:30.530016   965 net.cpp:157] Top shape: 1 512 75 125 (4800000)
I0605 18:19:30.530020   965 net.cpp:165] Memory required for data: 1336800108
I0605 18:19:30.530028   965 layer_factory.hpp:77] Creating layer relu4_3
I0605 18:19:30.530048   965 net.cpp:106] Creating Layer relu4_3
I0605 18:19:30.530053   965 net.cpp:454] relu4_3 <- conv4_3
I0605 18:19:30.530059   965 net.cpp:397] relu4_3 -> conv4_3 (in-place)
I0605 18:19:30.530220   965 net.cpp:150] Setting up relu4_3
I0605 18:19:30.530227   965 net.cpp:157] Top shape: 1 512 75 125 (4800000)
I0605 18:19:30.530230   965 net.cpp:165] Memory required for data: 1356000108
I0605 18:19:30.530231   965 layer_factory.hpp:77] Creating layer pool4
I0605 18:19:30.530237   965 net.cpp:106] Creating Layer pool4
I0605 18:19:30.530241   965 net.cpp:454] pool4 <- conv4_3
I0605 18:19:30.530254   965 net.cpp:411] pool4 -> pool4
I0605 18:19:30.530318   965 net.cpp:150] Setting up pool4
I0605 18:19:30.530323   965 net.cpp:157] Top shape: 1 512 38 63 (1225728)
I0605 18:19:30.530334   965 net.cpp:165] Memory required for data: 1360903020
I0605 18:19:30.530336   965 layer_factory.hpp:77] Creating layer conv5_1
I0605 18:19:30.530344   965 net.cpp:106] Creating Layer conv5_1
I0605 18:19:30.530359   965 net.cpp:454] conv5_1 <- pool4
I0605 18:19:30.530362   965 net.cpp:411] conv5_1 -> conv5_1
I0605 18:19:30.534759   965 net.cpp:150] Setting up conv5_1
I0605 18:19:30.534775   965 net.cpp:157] Top shape: 1 512 38 63 (1225728)
I0605 18:19:30.534777   965 net.cpp:165] Memory required for data: 1365805932
I0605 18:19:30.534783   965 layer_factory.hpp:77] Creating layer relu5_1
I0605 18:19:30.534790   965 net.cpp:106] Creating Layer relu5_1
I0605 18:19:30.534793   965 net.cpp:454] relu5_1 <- conv5_1
I0605 18:19:30.534799   965 net.cpp:397] relu5_1 -> conv5_1 (in-place)
I0605 18:19:30.534940   965 net.cpp:150] Setting up relu5_1
I0605 18:19:30.534948   965 net.cpp:157] Top shape: 1 512 38 63 (1225728)
I0605 18:19:30.534961   965 net.cpp:165] Memory required for data: 1370708844
I0605 18:19:30.534965   965 layer_factory.hpp:77] Creating layer conv5_2
I0605 18:19:30.534976   965 net.cpp:106] Creating Layer conv5_2
I0605 18:19:30.534981   965 net.cpp:454] conv5_2 <- conv5_1
I0605 18:19:30.534997   965 net.cpp:411] conv5_2 -> conv5_2
I0605 18:19:30.540092   965 net.cpp:150] Setting up conv5_2
I0605 18:19:30.540110   965 net.cpp:157] Top shape: 1 512 38 63 (1225728)
I0605 18:19:30.540113   965 net.cpp:165] Memory required for data: 1375611756
I0605 18:19:30.540120   965 layer_factory.hpp:77] Creating layer relu5_2
I0605 18:19:30.540127   965 net.cpp:106] Creating Layer relu5_2
I0605 18:19:30.540143   965 net.cpp:454] relu5_2 <- conv5_2
I0605 18:19:30.540148   965 net.cpp:397] relu5_2 -> conv5_2 (in-place)
I0605 18:19:30.540295   965 net.cpp:150] Setting up relu5_2
I0605 18:19:30.540302   965 net.cpp:157] Top shape: 1 512 38 63 (1225728)
I0605 18:19:30.540304   965 net.cpp:165] Memory required for data: 1380514668
I0605 18:19:30.540307   965 layer_factory.hpp:77] Creating layer conv5_3
I0605 18:19:30.540318   965 net.cpp:106] Creating Layer conv5_3
I0605 18:19:30.540331   965 net.cpp:454] conv5_3 <- conv5_2
I0605 18:19:30.540336   965 net.cpp:411] conv5_3 -> conv5_3
I0605 18:19:30.544754   965 net.cpp:150] Setting up conv5_3
I0605 18:19:30.544771   965 net.cpp:157] Top shape: 1 512 38 63 (1225728)
I0605 18:19:30.544773   965 net.cpp:165] Memory required for data: 1385417580
I0605 18:19:30.544780   965 layer_factory.hpp:77] Creating layer relu5_3
I0605 18:19:30.544787   965 net.cpp:106] Creating Layer relu5_3
I0605 18:19:30.544790   965 net.cpp:454] relu5_3 <- conv5_3
I0605 18:19:30.544806   965 net.cpp:397] relu5_3 -> conv5_3 (in-place)
I0605 18:19:30.544955   965 net.cpp:150] Setting up relu5_3
I0605 18:19:30.544961   965 net.cpp:157] Top shape: 1 512 38 63 (1225728)
I0605 18:19:30.544963   965 net.cpp:165] Memory required for data: 1390320492
I0605 18:19:30.544966   965 layer_factory.hpp:77] Creating layer conv5_3_relu5_3_0_split
I0605 18:19:30.544971   965 net.cpp:106] Creating Layer conv5_3_relu5_3_0_split
I0605 18:19:30.544973   965 net.cpp:454] conv5_3_relu5_3_0_split <- conv5_3
I0605 18:19:30.544978   965 net.cpp:411] conv5_3_relu5_3_0_split -> conv5_3_relu5_3_0_split_0
I0605 18:19:30.544992   965 net.cpp:411] conv5_3_relu5_3_0_split -> conv5_3_relu5_3_0_split_1
I0605 18:19:30.545008   965 net.cpp:411] conv5_3_relu5_3_0_split -> conv5_3_relu5_3_0_split_2
I0605 18:19:30.545069   965 net.cpp:150] Setting up conv5_3_relu5_3_0_split
I0605 18:19:30.545074   965 net.cpp:157] Top shape: 1 512 38 63 (1225728)
I0605 18:19:30.545076   965 net.cpp:157] Top shape: 1 512 38 63 (1225728)
I0605 18:19:30.545079   965 net.cpp:157] Top shape: 1 512 38 63 (1225728)
I0605 18:19:30.545081   965 net.cpp:165] Memory required for data: 1405029228
I0605 18:19:30.545094   965 layer_factory.hpp:77] Creating layer rpn_conv/3x3
I0605 18:19:30.545114   965 net.cpp:106] Creating Layer rpn_conv/3x3
I0605 18:19:30.545119   965 net.cpp:454] rpn_conv/3x3 <- conv5_3_relu5_3_0_split_0
I0605 18:19:30.545133   965 net.cpp:411] rpn_conv/3x3 -> rpn/output
I0605 18:19:30.597157   965 net.cpp:150] Setting up rpn_conv/3x3
I0605 18:19:30.597177   965 net.cpp:157] Top shape: 1 512 38 63 (1225728)
I0605 18:19:30.597182   965 net.cpp:165] Memory required for data: 1409932140
I0605 18:19:30.597198   965 layer_factory.hpp:77] Creating layer rpn_relu/3x3
I0605 18:19:30.597218   965 net.cpp:106] Creating Layer rpn_relu/3x3
I0605 18:19:30.597221   965 net.cpp:454] rpn_relu/3x3 <- rpn/output
I0605 18:19:30.597229   965 net.cpp:397] rpn_relu/3x3 -> rpn/output (in-place)
I0605 18:19:30.597381   965 net.cpp:150] Setting up rpn_relu/3x3
I0605 18:19:30.597390   965 net.cpp:157] Top shape: 1 512 38 63 (1225728)
I0605 18:19:30.597393   965 net.cpp:165] Memory required for data: 1414835052
I0605 18:19:30.597396   965 layer_factory.hpp:77] Creating layer rpn/output_rpn_relu/3x3_0_split
I0605 18:19:30.597401   965 net.cpp:106] Creating Layer rpn/output_rpn_relu/3x3_0_split
I0605 18:19:30.597405   965 net.cpp:454] rpn/output_rpn_relu/3x3_0_split <- rpn/output
I0605 18:19:30.597437   965 net.cpp:411] rpn/output_rpn_relu/3x3_0_split -> rpn/output_rpn_relu/3x3_0_split_0
I0605 18:19:30.597446   965 net.cpp:411] rpn/output_rpn_relu/3x3_0_split -> rpn/output_rpn_relu/3x3_0_split_1
I0605 18:19:30.597502   965 net.cpp:150] Setting up rpn/output_rpn_relu/3x3_0_split
I0605 18:19:30.597517   965 net.cpp:157] Top shape: 1 512 38 63 (1225728)
I0605 18:19:30.597519   965 net.cpp:157] Top shape: 1 512 38 63 (1225728)
I0605 18:19:30.597522   965 net.cpp:165] Memory required for data: 1424640876
I0605 18:19:30.597523   965 layer_factory.hpp:77] Creating layer rpn_cls_score
I0605 18:19:30.597543   965 net.cpp:106] Creating Layer rpn_cls_score
I0605 18:19:30.597546   965 net.cpp:454] rpn_cls_score <- rpn/output_rpn_relu/3x3_0_split_0
I0605 18:19:30.597550   965 net.cpp:411] rpn_cls_score -> rpn_cls_score
I0605 18:19:30.599176   965 net.cpp:150] Setting up rpn_cls_score
I0605 18:19:30.599185   965 net.cpp:157] Top shape: 1 30 38 63 (71820)
I0605 18:19:30.599189   965 net.cpp:165] Memory required for data: 1424928156
I0605 18:19:30.599193   965 layer_factory.hpp:77] Creating layer rpn_cls_score_rpn_cls_score_0_split
I0605 18:19:30.599198   965 net.cpp:106] Creating Layer rpn_cls_score_rpn_cls_score_0_split
I0605 18:19:30.599200   965 net.cpp:454] rpn_cls_score_rpn_cls_score_0_split <- rpn_cls_score
I0605 18:19:30.599205   965 net.cpp:411] rpn_cls_score_rpn_cls_score_0_split -> rpn_cls_score_rpn_cls_score_0_split_0
I0605 18:19:30.599221   965 net.cpp:411] rpn_cls_score_rpn_cls_score_0_split -> rpn_cls_score_rpn_cls_score_0_split_1
I0605 18:19:30.599257   965 net.cpp:150] Setting up rpn_cls_score_rpn_cls_score_0_split
I0605 18:19:30.599261   965 net.cpp:157] Top shape: 1 30 38 63 (71820)
I0605 18:19:30.599274   965 net.cpp:157] Top shape: 1 30 38 63 (71820)
I0605 18:19:30.599277   965 net.cpp:165] Memory required for data: 1425502716
I0605 18:19:30.599278   965 layer_factory.hpp:77] Creating layer rpn_bbox_pred
I0605 18:19:30.599287   965 net.cpp:106] Creating Layer rpn_bbox_pred
I0605 18:19:30.599289   965 net.cpp:454] rpn_bbox_pred <- rpn/output_rpn_relu/3x3_0_split_1
I0605 18:19:30.599293   965 net.cpp:411] rpn_bbox_pred -> rpn_bbox_pred
I0605 18:19:30.600769   965 net.cpp:150] Setting up rpn_bbox_pred
I0605 18:19:30.600777   965 net.cpp:157] Top shape: 1 60 38 63 (143640)
I0605 18:19:30.600780   965 net.cpp:165] Memory required for data: 1426077276
I0605 18:19:30.600795   965 layer_factory.hpp:77] Creating layer rpn_bbox_pred_rpn_bbox_pred_0_split
I0605 18:19:30.600800   965 net.cpp:106] Creating Layer rpn_bbox_pred_rpn_bbox_pred_0_split
I0605 18:19:30.600813   965 net.cpp:454] rpn_bbox_pred_rpn_bbox_pred_0_split <- rpn_bbox_pred
I0605 18:19:30.600818   965 net.cpp:411] rpn_bbox_pred_rpn_bbox_pred_0_split -> rpn_bbox_pred_rpn_bbox_pred_0_split_0
I0605 18:19:30.600824   965 net.cpp:411] rpn_bbox_pred_rpn_bbox_pred_0_split -> rpn_bbox_pred_rpn_bbox_pred_0_split_1
I0605 18:19:30.600859   965 net.cpp:150] Setting up rpn_bbox_pred_rpn_bbox_pred_0_split
I0605 18:19:30.600863   965 net.cpp:157] Top shape: 1 60 38 63 (143640)
I0605 18:19:30.600875   965 net.cpp:157] Top shape: 1 60 38 63 (143640)
I0605 18:19:30.600878   965 net.cpp:165] Memory required for data: 1427226396
I0605 18:19:30.600879   965 layer_factory.hpp:77] Creating layer rpn_cls_score_reshape
I0605 18:19:30.600899   965 net.cpp:106] Creating Layer rpn_cls_score_reshape
I0605 18:19:30.600903   965 net.cpp:454] rpn_cls_score_reshape <- rpn_cls_score_rpn_cls_score_0_split_0
I0605 18:19:30.600917   965 net.cpp:411] rpn_cls_score_reshape -> rpn_cls_score_reshape
I0605 18:19:30.600937   965 net.cpp:150] Setting up rpn_cls_score_reshape
I0605 18:19:30.600942   965 net.cpp:157] Top shape: 1 2 570 63 (71820)
I0605 18:19:30.600944   965 net.cpp:165] Memory required for data: 1427513676
I0605 18:19:30.600947   965 layer_factory.hpp:77] Creating layer rpn_cls_score_reshape_rpn_cls_score_reshape_0_split
I0605 18:19:30.600961   965 net.cpp:106] Creating Layer rpn_cls_score_reshape_rpn_cls_score_reshape_0_split
I0605 18:19:30.600965   965 net.cpp:454] rpn_cls_score_reshape_rpn_cls_score_reshape_0_split <- rpn_cls_score_reshape
I0605 18:19:30.600977   965 net.cpp:411] rpn_cls_score_reshape_rpn_cls_score_reshape_0_split -> rpn_cls_score_reshape_rpn_cls_score_reshape_0_split_0
I0605 18:19:30.600982   965 net.cpp:411] rpn_cls_score_reshape_rpn_cls_score_reshape_0_split -> rpn_cls_score_reshape_rpn_cls_score_reshape_0_split_1
I0605 18:19:30.601032   965 net.cpp:150] Setting up rpn_cls_score_reshape_rpn_cls_score_reshape_0_split
I0605 18:19:30.601037   965 net.cpp:157] Top shape: 1 2 570 63 (71820)
I0605 18:19:30.601039   965 net.cpp:157] Top shape: 1 2 570 63 (71820)
I0605 18:19:30.601052   965 net.cpp:165] Memory required for data: 1428088236
I0605 18:19:30.601054   965 layer_factory.hpp:77] Creating layer rpn-data
I0605 18:19:30.602119   965 net.cpp:106] Creating Layer rpn-data
I0605 18:19:30.602128   965 net.cpp:454] rpn-data <- rpn_cls_score_rpn_cls_score_0_split_1
I0605 18:19:30.602134   965 net.cpp:454] rpn-data <- gt_boxes_input-data_2_split_0
I0605 18:19:30.602139   965 net.cpp:454] rpn-data <- im_info_input-data_1_split_0
I0605 18:19:30.602145   965 net.cpp:454] rpn-data <- data_input-data_0_split_1
I0605 18:19:30.602152   965 net.cpp:411] rpn-data -> rpn_labels
I0605 18:19:30.602159   965 net.cpp:411] rpn-data -> rpn_bbox_targets
I0605 18:19:30.602166   965 net.cpp:411] rpn-data -> rpn_bbox_inside_weights
I0605 18:19:30.602174   965 net.cpp:411] rpn-data -> rpn_bbox_outside_weights
===================================anchor_scales in AnchorTargetLayer:=============(2, 4, 8, 16, 32)
I0605 18:19:30.603281   965 net.cpp:150] Setting up rpn-data
I0605 18:19:30.603291   965 net.cpp:157] Top shape: 1 1 570 63 (35910)
I0605 18:19:30.603296   965 net.cpp:157] Top shape: 1 60 38 63 (143640)
I0605 18:19:30.603299   965 net.cpp:157] Top shape: 1 60 38 63 (143640)
I0605 18:19:30.603302   965 net.cpp:157] Top shape: 1 60 38 63 (143640)
I0605 18:19:30.603305   965 net.cpp:165] Memory required for data: 1429955556
I0605 18:19:30.603320   965 layer_factory.hpp:77] Creating layer rpn_loss_cls
I0605 18:19:30.603329   965 net.cpp:106] Creating Layer rpn_loss_cls
I0605 18:19:30.603333   965 net.cpp:454] rpn_loss_cls <- rpn_cls_score_reshape_rpn_cls_score_reshape_0_split_0
I0605 18:19:30.603338   965 net.cpp:454] rpn_loss_cls <- rpn_labels
…
I0605 18:19:30.606215   965 net.cpp:157] Top shape: (1)
I0605 18:19:30.606218   965 net.cpp:160]     with loss weight 1
I0605 18:19:30.606235   965 net.cpp:165] Memory required for data: 1429955564
I0605 18:19:30.606238   965 layer_factory.hpp:77] Creating layer rpn_cls_prob
I0605 18:19:30.606245   965 net.cpp:106] Creating Layer rpn_cls_prob
I0605 18:19:30.606248   965 net.cpp:454] rpn_cls_prob <- rpn_cls_score_reshape_rpn_cls_score_reshape_0_split_1
I0605 18:19:30.606266   965 net.cpp:411] rpn_cls_prob -> rpn_cls_prob
I0605 18:19:30.606472   965 net.cpp:150] Setting up rpn_cls_prob
I0605 18:19:30.606480   965 net.cpp:157] Top shape: 1 2 570 63 (71820)
I0605 18:19:30.606494   965 net.cpp:165] Memory required for data: 1430242844
I0605 18:19:30.606498   965 layer_factory.hpp:77] Creating layer rpn_cls_prob_reshape
I0605 18:19:30.606505   965 net.cpp:106] Creating Layer rpn_cls_prob_reshape
I0605 18:19:30.606520   965 net.cpp:454] rpn_cls_prob_reshape <- rpn_cls_prob
I0605 18:19:30.606526   965 net.cpp:411] rpn_cls_prob_reshape -> rpn_cls_prob_reshape
I0605 18:19:30.606559   965 net.cpp:150] Setting up rpn_cls_prob_reshape
I0605 18:19:30.606566   965 net.cpp:157] Top shape: 1 30 38 63 (71820)
I0605 18:19:30.606580   965 net.cpp:165] Memory required for data: 1430530124
I0605 18:19:30.606585   965 layer_factory.hpp:77] Creating layer proposal
I0605 18:19:30.609695   965 net.cpp:106] Creating Layer proposal
I0605 18:19:30.609704   965 net.cpp:454] proposal <- rpn_cls_prob_reshape
I0605 18:19:30.609709   965 net.cpp:454] proposal <- rpn_bbox_pred_rpn_bbox_pred_0_split_1
I0605 18:19:30.609724   965 net.cpp:454] proposal <- im_info_input-data_1_split_1
I0605 18:19:30.609740   965 net.cpp:411] proposal -> rpn_rois
=================================anchor_scales in ProposalLayer:=============(2, 4, 8, 16, 32)
I0605 18:19:30.611368   965 net.cpp:150] Setting up proposal
I0605 18:19:30.611388   965 net.cpp:157] Top shape: 1 5 (5)
I0605 18:19:30.611392   965 net.cpp:165] Memory required for data: 1430530144
I0605 18:19:30.611395   965 layer_factory.hpp:77] Creating layer roi-data
I0605 18:19:30.614856   965 net.cpp:106] Creating Layer roi-data
I0605 18:19:30.614866   965 net.cpp:454] roi-data <- rpn_rois
I0605 18:19:30.614871   965 net.cpp:454] roi-data <- gt_boxes_input-data_2_split_1
I0605 18:19:30.614874   965 net.cpp:454] roi-data <- im_info_input-data_1_split_2
I0605 18:19:30.614878   965 net.cpp:454] roi-data <- seg_mask_inds
I0605 18:19:30.614882   965 net.cpp:454] roi-data <- flipped
I0605 18:19:30.614897   965 net.cpp:411] roi-data -> rois
I0605 18:19:30.614917   965 net.cpp:411] roi-data -> labels
I0605 18:19:30.614923   965 net.cpp:411] roi-data -> bbox_targets
I0605 18:19:30.614928   965 net.cpp:411] roi-data -> bbox_inside_weights
I0605 18:19:30.614944   965 net.cpp:411] roi-data -> bbox_outside_weights
I0605 18:19:30.614962   965 net.cpp:411] roi-data -> mask_targets
I0605 18:19:30.614969   965 net.cpp:411] roi-data -> rois_pos
I0605 18:19:30.615466   965 net.cpp:150] Setting up roi-data
I0605 18:19:30.615490   965 net.cpp:157] Top shape: 1 5 (5)
I0605 18:19:30.615494   965 net.cpp:157] Top shape: 1 1 (1)
I0605 18:19:30.615499   965 net.cpp:157] Top shape: 1 8 (8)
I0605 18:19:30.615512   965 net.cpp:157] Top shape: 1 8 (8)
I0605 18:19:30.615516   965 net.cpp:157] Top shape: 1 8 (8)
I0605 18:19:30.615530   965 net.cpp:157] Top shape: 1 244 244 (59536)
I0605 18:19:30.615535   965 net.cpp:157] Top shape: 1 5 (5)
I0605 18:19:30.615537   965 net.cpp:165] Memory required for data: 1430768428
I0605 18:19:30.615542   965 layer_factory.hpp:77] Creating layer roi_pool5
I0605 18:19:30.616140   965 net.cpp:106] Creating Layer roi_pool5
I0605 18:19:30.616147   965 net.cpp:454] roi_pool5 <- conv5_3_relu5_3_0_split_1
I0605 18:19:30.616153   965 net.cpp:454] roi_pool5 <- rois
I0605 18:19:30.616158   965 net.cpp:411] roi_pool5 -> pool5
I0605 18:19:30.616168   965 roi_alignment_layer.cpp:32] Spatial scale: 0.0625
I0605 18:19:30.616247   965 net.cpp:150] Setting up roi_pool5
I0605 18:19:30.616255   965 net.cpp:157] Top shape: 1 512 7 7 (25088)
I0605 18:19:30.616258   965 net.cpp:165] Memory required for data: 1430868780
I0605 18:19:30.616262   965 layer_factory.hpp:77] Creating layer fc6
I0605 18:19:30.616272   965 net.cpp:106] Creating Layer fc6
I0605 18:19:30.616277   965 net.cpp:454] fc6 <- pool5
I0605 18:19:30.616283   965 net.cpp:411] fc6 -> fc6
I0605 18:19:30.763759   965 net.cpp:150] Setting up fc6
I0605 18:19:30.763787   965 net.cpp:157] Top shape: 1 4096 (4096)
I0605 18:19:30.763790   965 net.cpp:165] Memory required for data: 1430885164
I0605 18:19:30.763816   965 layer_factory.hpp:77] Creating layer relu6
I0605 18:19:30.763828   965 net.cpp:106] Creating Layer relu6
I0605 18:19:30.763844   965 net.cpp:454] relu6 <- fc6
I0605 18:19:30.763854   965 net.cpp:397] relu6 -> fc6 (in-place)
I0605 18:19:30.764041   965 net.cpp:150] Setting up relu6
I0605 18:19:30.764048   965 net.cpp:157] Top shape: 1 4096 (4096)
I0605 18:19:30.764052   965 net.cpp:165] Memory required for data: 1430901548
I0605 18:19:30.764065   965 layer_factory.hpp:77] Creating layer fc7
I0605 18:19:30.764082   965 net.cpp:106] Creating Layer fc7
I0605 18:19:30.764087   965 net.cpp:454] fc7 <- fc6
I0605 18:19:30.764093   965 net.cpp:411] fc7 -> fc7
I0605 18:19:30.788501   965 net.cpp:150] Setting up fc7
I0605 18:19:30.788528   965 net.cpp:157] Top shape: 1 4096 (4096)
I0605 18:19:30.788532   965 net.cpp:165] Memory required for data: 1430917932
I0605 18:19:30.788543   965 layer_factory.hpp:77] Creating layer relu7
I0605 18:19:30.788553   965 net.cpp:106] Creating Layer relu7
I0605 18:19:30.788558   965 net.cpp:454] relu7 <- fc7
I0605 18:19:30.788575   965 net.cpp:397] relu7 -> fc7 (in-place)
I0605 18:19:30.788753   965 net.cpp:150] Setting up relu7
I0605 18:19:30.788761   965 net.cpp:157] Top shape: 1 4096 (4096)
I0605 18:19:30.788764   965 net.cpp:165] Memory required for data: 1430934316
I0605 18:19:30.788769   965 layer_factory.hpp:77] Creating layer fc7_relu7_0_split
I0605 18:19:30.788774   965 net.cpp:106] Creating Layer fc7_relu7_0_split
I0605 18:19:30.788779   965 net.cpp:454] fc7_relu7_0_split <- fc7
I0605 18:19:30.788799   965 net.cpp:411] fc7_relu7_0_split -> fc7_relu7_0_split_0
I0605 18:19:30.788815   965 net.cpp:411] fc7_relu7_0_split -> fc7_relu7_0_split_1
I0605 18:19:30.788882   965 net.cpp:150] Setting up fc7_relu7_0_split
I0605 18:19:30.788887   965 net.cpp:157] Top shape: 1 4096 (4096)
I0605 18:19:30.788905   965 net.cpp:157] Top shape: 1 4096 (4096)
I0605 18:19:30.788908   965 net.cpp:165] Memory required for data: 1430967084
I0605 18:19:30.788911   965 layer_factory.hpp:77] Creating layer cls_score
I0605 18:19:30.788929   965 net.cpp:106] Creating Layer cls_score
I0605 18:19:30.788935   965 net.cpp:454] cls_score <- fc7_relu7_0_split_0
I0605 18:19:30.788940   965 net.cpp:411] cls_score -> cls_score
I0605 18:19:30.789188   965 net.cpp:150] Setting up cls_score
I0605 18:19:30.789194   965 net.cpp:157] Top shape: 1 2 (2)
I0605 18:19:30.789198   965 net.cpp:165] Memory required for data: 1430967092
I0605 18:19:30.789216   965 layer_factory.hpp:77] Creating layer bbox_pred
I0605 18:19:30.789222   965 net.cpp:106] Creating Layer bbox_pred
I0605 18:19:30.789224   965 net.cpp:454] bbox_pred <- fc7_relu7_0_split_1
I0605 18:19:30.789232   965 net.cpp:411] bbox_pred -> bbox_pred
I0605 18:19:30.789999   965 net.cpp:150] Setting up bbox_pred
I0605 18:19:30.790006   965 net.cpp:157] Top shape: 1 8 (8)
I0605 18:19:30.790009   965 net.cpp:165] Memory required for data: 1430967124
I0605 18:19:30.790027   965 layer_factory.hpp:77] Creating layer loss_cls
I0605 18:19:30.790035   965 net.cpp:106] Creating Layer loss_cls
I0605 18:19:30.790040   965 net.cpp:454] loss_cls <- cls_score
I0605 18:19:30.790045   965 net.cpp:454] loss_cls <- labels
I0605 18:19:30.790051   965 net.cpp:411] loss_cls -> loss_cls
…
I0605 18:19:30.790864   965 net.cpp:165] Memory required for data: 1430967132
I0605 18:19:30.790869   965 layer_factory.hpp:77] Creating layer roi_pool5_2
I0605 18:19:30.790877   965 net.cpp:106] Creating Layer roi_pool5_2
I0605 18:19:30.790884   965 net.cpp:454] roi_pool5_2 <- conv5_3_relu5_3_0_split_2
I0605 18:19:30.790889   965 net.cpp:454] roi_pool5_2 <- rois_pos
I0605 18:19:30.790894   965 net.cpp:411] roi_pool5_2 -> pool5_2
I0605 18:19:30.790902   965 roi_alignment_layer.cpp:32] Spatial scale: 0.0625
I0605 18:19:30.790971   965 net.cpp:150] Setting up roi_pool5_2
I0605 18:19:30.790977   965 net.cpp:157] Top shape: 1 512 7 7 (25088)
I0605 18:19:30.790980   965 net.cpp:165] Memory required for data: 1431067484
I0605 18:19:30.790983   965 layer_factory.hpp:77] Creating layer pool5_2_conv
I0605 18:19:30.790997   965 net.cpp:106] Creating Layer pool5_2_conv
I0605 18:19:30.791000   965 net.cpp:454] pool5_2_conv <- pool5_2
I0605 18:19:30.791007   965 net.cpp:411] pool5_2_conv -> pool5_2_conv
I0605 18:19:30.797567   965 net.cpp:150] Setting up pool5_2_conv
I0605 18:19:30.797582   965 net.cpp:157] Top shape: 1 512 7 7 (25088)
I0605 18:19:30.797585   965 net.cpp:165] Memory required for data: 1431167836
I0605 18:19:30.797595   965 layer_factory.hpp:77] Creating layer pool5_2_conv_relu
I0605 18:19:30.797605   965 net.cpp:106] Creating Layer pool5_2_conv_relu
I0605 18:19:30.797610   965 net.cpp:454] pool5_2_conv_relu <- pool5_2_conv
I0605 18:19:30.797616   965 net.cpp:411] pool5_2_conv_relu -> pool5_2_conv_relu
I0605 18:19:30.797768   965 net.cpp:150] Setting up pool5_2_conv_relu
I0605 18:19:30.797775   965 net.cpp:157] Top shape: 1 512 7 7 (25088)
I0605 18:19:30.797780   965 net.cpp:165] Memory required for data: 1431268188
I0605 18:19:30.797792   965 layer_factory.hpp:77] Creating layer pool5_2_conv2
I0605 18:19:30.797811   965 net.cpp:106] Creating Layer pool5_2_conv2
I0605 18:19:30.797824   965 net.cpp:454] pool5_2_conv2 <- pool5_2_conv_relu
I0605 18:19:30.797832   965 net.cpp:411] pool5_2_conv2 -> pool5_2_conv2
I0605 18:19:30.848709   965 net.cpp:150] Setting up pool5_2_conv2
I0605 18:19:30.848728   965 net.cpp:157] Top shape: 1 512 7 7 (25088)
I0605 18:19:30.848731   965 net.cpp:165] Memory required for data: 1431368540
I0605 18:19:30.848742   965 layer_factory.hpp:77] Creating layer pool5_2_conv2_relu
I0605 18:19:30.848752   965 net.cpp:106] Creating Layer pool5_2_conv2_relu
I0605 18:19:30.848757   965 net.cpp:454] pool5_2_conv2_relu <- pool5_2_conv2
I0605 18:19:30.848764   965 net.cpp:411] pool5_2_conv2_relu -> pool5_2_conv2_relu
I0605 18:19:30.848899   965 net.cpp:150] Setting up pool5_2_conv2_relu
I0605 18:19:30.848906   965 net.cpp:157] Top shape: 1 512 7 7 (25088)
I0605 18:19:30.848909   965 net.cpp:165] Memory required for data: 1431468892
I0605 18:19:30.848913   965 layer_factory.hpp:77] Creating layer mask_deconv1
I0605 18:19:30.848924   965 net.cpp:106] Creating Layer mask_deconv1
I0605 18:19:30.848929   965 net.cpp:454] mask_deconv1 <- pool5_2_conv2_relu
I0605 18:19:30.848937   965 net.cpp:411] mask_deconv1 -> mask_deconv1
I0605 18:19:30.849757   965 net.cpp:150] Setting up mask_deconv1
I0605 18:19:30.849766   965 net.cpp:157] Top shape: 1 256 30 30 (230400)
I0605 18:19:30.849768   965 net.cpp:165] Memory required for data: 1432390492
I0605 18:19:30.849774   965 layer_factory.hpp:77] Creating layer pool5_2_conv3
I0605 18:19:30.849786   965 net.cpp:106] Creating Layer pool5_2_conv3
I0605 18:19:30.849789   965 net.cpp:454] pool5_2_conv3 <- mask_deconv1
I0605 18:19:30.849797   965 net.cpp:411] pool5_2_conv3 -> pool5_2_conv3
I0605 18:19:30.875669   965 net.cpp:150] Setting up pool5_2_conv3
I0605 18:19:30.875689   965 net.cpp:157] Top shape: 1 512 30 30 (460800)
I0605 18:19:30.875694   965 net.cpp:165] Memory required for data: 1434233692
I0605 18:19:30.875712   965 layer_factory.hpp:77] Creating layer pool5_2_conv3_relu
I0605 18:19:30.875723   965 net.cpp:106] Creating Layer pool5_2_conv3_relu
I0605 18:19:30.875730   965 net.cpp:454] pool5_2_conv3_relu <- pool5_2_conv3
I0605 18:19:30.875739   965 net.cpp:411] pool5_2_conv3_relu -> pool5_2_conv3_relu
I0605 18:19:30.875890   965 net.cpp:150] Setting up pool5_2_conv3_relu
I0605 18:19:30.875898   965 net.cpp:157] Top shape: 1 512 30 30 (460800)
I0605 18:19:30.875901   965 net.cpp:165] Memory required for data: 1436076892
I0605 18:19:30.875905   965 layer_factory.hpp:77] Creating layer pool5_2_conv4
I0605 18:19:30.875931   965 net.cpp:106] Creating Layer pool5_2_conv4
I0605 18:19:30.875936   965 net.cpp:454] pool5_2_conv4 <- pool5_2_conv3_relu
I0605 18:19:30.875943   965 net.cpp:411] pool5_2_conv4 -> pool5_2_conv4
I0605 18:19:30.927395   965 net.cpp:150] Setting up pool5_2_conv4
I0605 18:19:30.927417   965 net.cpp:157] Top shape: 1 512 30 30 (460800)
I0605 18:19:30.927420   965 net.cpp:165] Memory required for data: 1437920092
I0605 18:19:30.927430   965 layer_factory.hpp:77] Creating layer pool5_2_conv4_relu
I0605 18:19:30.927443   965 net.cpp:106] Creating Layer pool5_2_conv4_relu
I0605 18:19:30.927450   965 net.cpp:454] pool5_2_conv4_relu <- pool5_2_conv4
I0605 18:19:30.927459   965 net.cpp:411] pool5_2_conv4_relu -> pool5_2_conv4_relu
I0605 18:19:30.927597   965 net.cpp:150] Setting up pool5_2_conv4_relu
I0605 18:19:30.927605   965 net.cpp:157] Top shape: 1 512 30 30 (460800)
I0605 18:19:30.927609   965 net.cpp:165] Memory required for data: 1439763292
I0605 18:19:30.927613   965 layer_factory.hpp:77] Creating layer pool5_2_conv4_relu_pool5_2_conv4_relu_0_split
I0605 18:19:30.927623   965 net.cpp:106] Creating Layer pool5_2_conv4_relu_pool5_2_conv4_relu_0_split
I0605 18:19:30.927631   965 net.cpp:454] pool5_2_conv4_relu_pool5_2_conv4_relu_0_split <- pool5_2_conv4_relu
…
I0605 18:19:30.927670   965 net.cpp:411] pool5_2_conv4_relu_pool5_2_conv4_relu_0_split -> pool5_2_conv4_relu_pool5_2_conv4_relu_0_split_4
I0605 18:19:30.927676   965 net.cpp:411] pool5_2_conv4_relu_pool5_2_conv4_relu_0_split -> pool5_2_conv4_relu_pool5_2_conv4_relu_0_split_5
I0605 18:19:30.927681   965 net.cpp:411] pool5_2_conv4_relu_pool5_2_conv4_relu_0_split -> pool5_2_conv4_relu_pool5_2_conv4_relu_0_split_6
I0605 18:19:30.927687   965 net.cpp:411] pool5_2_conv4_relu_pool5_2_conv4_relu_0_split -> pool5_2_conv4_relu_pool5_2_conv4_relu_0_split_7
I0605 18:19:30.927767   965 net.cpp:150] Setting up pool5_2_conv4_relu_pool5_2_conv4_relu_0_split
I0605 18:19:30.927773   965 net.cpp:157] Top shape: 1 512 30 30 (460800)
I0605 18:19:30.927778   965 net.cpp:157] Top shape: 1 512 30 30 (460800)
I0605 18:19:30.927783   965 net.cpp:157] Top shape: 1 512 30 30 (460800)
I0605 18:19:30.927788   965 net.cpp:157] Top shape: 1 512 30 30 (460800)
I0605 18:19:30.927791   965 net.cpp:157] Top shape: 1 512 30 30 (460800)
I0605 18:19:30.927796   965 net.cpp:157] Top shape: 1 512 30 30 (460800)
I0605 18:19:30.927801   965 net.cpp:157] Top shape: 1 512 30 30 (460800)
I0605 18:19:30.927808   965 net.cpp:157] Top shape: 1 512 30 30 (460800)
I0605 18:19:30.927812   965 net.cpp:165] Memory required for data: 1454508892
I0605 18:19:30.927817   965 layer_factory.hpp:77] Creating layer query_conv
I0605 18:19:30.927831   965 net.cpp:106] Creating Layer query_conv
I0605 18:19:30.927836   965 net.cpp:454] query_conv <- pool5_2_conv4_relu_pool5_2_conv4_relu_0_split_0
I0605 18:19:30.927842   965 net.cpp:411] query_conv -> query_conv
I0605 18:19:30.931329   965 net.cpp:150] Setting up query_conv
I0605 18:19:30.931339   965 net.cpp:157] Top shape: 1 64 30 30 (57600)
I0605 18:19:30.931344   965 net.cpp:165] Memory required for data: 1454739292
I0605 18:19:30.931360   965 layer_factory.hpp:77] Creating layer key_conv
I0605 18:19:30.931377   965 net.cpp:106] Creating Layer key_conv
I0605 18:19:30.931382   965 net.cpp:454] key_conv <- pool5_2_conv4_relu_pool5_2_conv4_relu_0_split_1
I0605 18:19:30.931390   965 net.cpp:411] key_conv -> key_conv
I0605 18:19:30.933020   965 net.cpp:150] Setting up key_conv
I0605 18:19:30.933029   965 net.cpp:157] Top shape: 1 64 30 30 (57600)
I0605 18:19:30.933033   965 net.cpp:165] Memory required for data: 1454969692
I0605 18:19:30.933050   965 layer_factory.hpp:77] Creating layer value_conv
I0605 18:19:30.933061   965 net.cpp:106] Creating Layer value_conv
I0605 18:19:30.933068   965 net.cpp:454] value_conv <- pool5_2_conv4_relu_pool5_2_conv4_relu_0_split_2
I0605 18:19:30.933074   965 net.cpp:411] value_conv -> value_conv
I0605 18:19:30.939759   965 net.cpp:150] Setting up value_conv
I0605 18:19:30.939770   965 net.cpp:157] Top shape: 1 512 30 30 (460800)
I0605 18:19:30.939774   965 net.cpp:165] Memory required for data: 1456812892
I0605 18:19:30.939780   965 layer_factory.hpp:77] Creating layer query_conv_reshape
I0605 18:19:30.939791   965 net.cpp:106] Creating Layer query_conv_reshape
I0605 18:19:30.939807   965 net.cpp:454] query_conv_reshape <- query_conv
I0605 18:19:30.939823   965 net.cpp:411] query_conv_reshape -> query_conv_reshape
I0605 18:19:30.939860   965 net.cpp:150] Setting up query_conv_reshape
I0605 18:19:30.939877   965 net.cpp:157] Top shape: 1 64 900 1 (57600)
I0605 18:19:30.939879   965 net.cpp:165] Memory required for data: 1457043292
I0605 18:19:30.939893   965 layer_factory.hpp:77] Creating layer key_conv_reshape
I0605 18:19:30.939900   965 net.cpp:106] Creating Layer key_conv_reshape
I0605 18:19:30.939905   965 net.cpp:454] key_conv_reshape <- key_conv
I0605 18:19:30.939913   965 net.cpp:411] key_conv_reshape -> key_conv_reshape
I0605 18:19:30.939960   965 net.cpp:150] Setting up key_conv_reshape
I0605 18:19:30.939966   965 net.cpp:157] Top shape: 1 64 900 1 (57600)
I0605 18:19:30.939970   965 net.cpp:165] Memory required for data: 1457273692
I0605 18:19:30.939982   965 layer_factory.hpp:77] Creating layer value_conv_reshape
I0605 18:19:30.940003   965 net.cpp:106] Creating Layer value_conv_reshape
I0605 18:19:30.940009   965 net.cpp:454] value_conv_reshape <- value_conv
I0605 18:19:30.940016   965 net.cpp:411] value_conv_reshape -> value_conv_reshape
I0605 18:19:30.940040   965 net.cpp:150] Setting up value_conv_reshape
I0605 18:19:30.940047   965 net.cpp:157] Top shape: 1 512 900 1 (460800)
I0605 18:19:30.940049   965 net.cpp:165] Memory required for data: 1459116892
I0605 18:19:30.940053   965 layer_factory.hpp:77] Creating layer query_conv_reshape_perm
I0605 18:19:30.940508   965 net.cpp:106] Creating Layer query_conv_reshape_perm
I0605 18:19:30.940515   965 net.cpp:454] query_conv_reshape_perm <- query_conv_reshape
I0605 18:19:30.940531   965 net.cpp:411] query_conv_reshape_perm -> query_conv_reshape_perm
I0605 18:19:30.940614   965 net.cpp:150] Setting up query_conv_reshape_perm
I0605 18:19:30.940619   965 net.cpp:157] Top shape: 1 1 900 64 (57600)
I0605 18:19:30.940629   965 net.cpp:165] Memory required for data: 1459347292
I0605 18:19:30.940632   965 layer_factory.hpp:77] Creating layer key_conv_reshape_perm
I0605 18:19:30.940635   965 net.cpp:106] Creating Layer key_conv_reshape_perm
I0605 18:19:30.940639   965 net.cpp:454] key_conv_reshape_perm <- key_conv_reshape
I0605 18:19:30.940642   965 net.cpp:411] key_conv_reshape_perm -> key_conv_reshape_perm
I0605 18:19:30.940707   965 net.cpp:150] Setting up key_conv_reshape_perm
I0605 18:19:30.940711   965 net.cpp:157] Top shape: 1 1 64 900 (57600)
I0605 18:19:30.940714   965 net.cpp:165] Memory required for data: 1459577692
I0605 18:19:30.940716   965 layer_factory.hpp:77] Creating layer energy
I0605 18:19:30.940732   965 net.cpp:106] Creating Layer energy
I0605 18:19:30.940734   965 net.cpp:454] energy <- query_conv_reshape_perm
I0605 18:19:30.940737   965 net.cpp:454] energy <- key_conv_reshape_perm
I0605 18:19:30.940742   965 net.cpp:411] energy -> energy
I0605 18:19:30.940762   965 net.cpp:150] Setting up energy
I0605 18:19:30.940765   965 net.cpp:157] Top shape: 1 1 900 900 (810000)
I0605 18:19:30.940768   965 net.cpp:165] Memory required for data: 1462817692
I0605 18:19:30.940769   965 layer_factory.hpp:77] Creating layer attention
I0605 18:19:30.940774   965 net.cpp:106] Creating Layer attention
I0605 18:19:30.940776   965 net.cpp:454] attention <- energy
I0605 18:19:30.940781   965 net.cpp:411] attention -> attention
I0605 18:19:30.940951   965 net.cpp:150] Setting up attention
I0605 18:19:30.940958   965 net.cpp:157] Top shape: 1 1 900 900 (810000)
I0605 18:19:30.940960   965 net.cpp:165] Memory required for data: 1466057692
I0605 18:19:30.940963   965 layer_factory.hpp:77] Creating layer value_conv_reshape_perm
I0605 18:19:30.940966   965 net.cpp:106] Creating Layer value_conv_reshape_perm
I0605 18:19:30.940969   965 net.cpp:454] value_conv_reshape_perm <- value_conv_reshape
I0605 18:19:30.940974   965 net.cpp:411] value_conv_reshape_perm -> value_conv_reshape_perm
I0605 18:19:30.941045   965 net.cpp:150] Setting up value_conv_reshape_perm
I0605 18:19:30.941049   965 net.cpp:157] Top shape: 1 1 512 900 (460800)
I0605 18:19:30.941051   965 net.cpp:165] Memory required for data: 1467900892
I0605 18:19:30.941053   965 layer_factory.hpp:77] Creating layer attention_perm
I0605 18:19:30.941057   965 net.cpp:106] Creating Layer attention_perm
I0605 18:19:30.941061   965 net.cpp:454] attention_perm <- attention
I0605 18:19:30.941064   965 net.cpp:411] attention_perm -> attention_perm
I0605 18:19:30.941133   965 net.cpp:150] Setting up attention_perm
I0605 18:19:30.941138   965 net.cpp:157] Top shape: 1 1 900 900 (810000)
I0605 18:19:30.941139   965 net.cpp:165] Memory required for data: 1471140892
I0605 18:19:30.941141   965 layer_factory.hpp:77] Creating layer out
I0605 18:19:30.941144   965 net.cpp:106] Creating Layer out
I0605 18:19:30.941148   965 net.cpp:454] out <- value_conv_reshape_perm
I0605 18:19:30.941150   965 net.cpp:454] out <- attention_perm
I0605 18:19:30.941154   965 net.cpp:411] out -> out
I0605 18:19:30.941169   965 net.cpp:150] Setting up out
I0605 18:19:30.941172   965 net.cpp:157] Top shape: 1 1 512 900 (460800)
I0605 18:19:30.941175   965 net.cpp:165] Memory required for data: 1472984092
I0605 18:19:30.941177   965 layer_factory.hpp:77] Creating layer out_reshape
I0605 18:19:30.941181   965 net.cpp:106] Creating Layer out_reshape
I0605 18:19:30.941184   965 net.cpp:454] out_reshape <- out
I0605 18:19:30.941187   965 net.cpp:411] out_reshape -> out_reshape
I0605 18:19:30.941203   965 net.cpp:150] Setting up out_reshape
I0605 18:19:30.941207   965 net.cpp:157] Top shape: 1 512 30 30 (460800)
I0605 18:19:30.941210   965 net.cpp:165] Memory required for data: 1474827292
I0605 18:19:30.941211   965 layer_factory.hpp:77] Creating layer out_reshape_scale
I0605 18:19:30.941218   965 net.cpp:106] Creating Layer out_reshape_scale
I0605 18:19:30.941221   965 net.cpp:454] out_reshape_scale <- out_reshape
I0605 18:19:30.941224   965 net.cpp:411] out_reshape_scale -> out_reshape_scale
I0605 18:19:30.941287   965 net.cpp:150] Setting up out_reshape_scale
I0605 18:19:30.941293   965 net.cpp:157] Top shape: 1 512 30 30 (460800)
I0605 18:19:30.941294   965 net.cpp:165] Memory required for data: 1476670492
I0605 18:19:30.941298   965 layer_factory.hpp:77] Creating layer out_x
I0605 18:19:30.941306   965 net.cpp:106] Creating Layer out_x
I0605 18:19:30.941316   965 net.cpp:454] out_x <- out_reshape_scale
I0605 18:19:30.941319   965 net.cpp:454] out_x <- pool5_2_conv4_relu_pool5_2_conv4_relu_0_split_3
I0605 18:19:30.941329   965 net.cpp:411] out_x -> out_x
I0605 18:19:30.941349   965 net.cpp:150] Setting up out_x
I0605 18:19:30.941354   965 net.cpp:157] Top shape: 1 512 30 30 (460800)
I0605 18:19:30.941356   965 net.cpp:165] Memory required for data: 1478513692
I0605 18:19:30.941359   965 layer_factory.hpp:77] Creating layer query_conv_reshape_ch
I0605 18:19:30.941365   965 net.cpp:106] Creating Layer query_conv_reshape_ch
I0605 18:19:30.941370   965 net.cpp:454] query_conv_reshape_ch <- pool5_2_conv4_relu_pool5_2_conv4_relu_0_split_4
I0605 18:19:30.941373   965 net.cpp:411] query_conv_reshape_ch -> query_conv_reshape_ch
I0605 18:19:30.941398   965 net.cpp:150] Setting up query_conv_reshape_ch
I0605 18:19:30.941402   965 net.cpp:157] Top shape: 1 512 900 1 (460800)
I0605 18:19:30.941404   965 net.cpp:165] Memory required for data: 1480356892
I0605 18:19:30.941406   965 layer_factory.hpp:77] Creating layer key_conv_reshape_ch
I0605 18:19:30.941444   965 net.cpp:106] Creating Layer key_conv_reshape_ch
I0605 18:19:30.941452   965 net.cpp:454] key_conv_reshape_ch <- pool5_2_conv4_relu_pool5_2_conv4_relu_0_split_5
I0605 18:19:30.941459   965 net.cpp:411] key_conv_reshape_ch -> key_conv_reshape_ch
I0605 18:19:30.941483   965 net.cpp:150] Setting up key_conv_reshape_ch
I0605 18:19:30.941488   965 net.cpp:157] Top shape: 1 512 900 1 (460800)
I0605 18:19:30.941490   965 net.cpp:165] Memory required for data: 1482200092
I0605 18:19:30.941493   965 layer_factory.hpp:77] Creating layer value_conv_reshape_ch
I0605 18:19:30.941498   965 net.cpp:106] Creating Layer value_conv_reshape_ch
I0605 18:19:30.941499   965 net.cpp:454] value_conv_reshape_ch <- pool5_2_conv4_relu_pool5_2_conv4_relu_0_split_6
I0605 18:19:30.941504   965 net.cpp:411] value_conv_reshape_ch -> value_conv_reshape_ch
I0605 18:19:30.941525   965 net.cpp:150] Setting up value_conv_reshape_ch
I0605 18:19:30.941530   965 net.cpp:157] Top shape: 1 512 900 1 (460800)
I0605 18:19:30.941532   965 net.cpp:165] Memory required for data: 1484043292
I0605 18:19:30.941534   965 layer_factory.hpp:77] Creating layer query_conv_reshape_perm_ch
I0605 18:19:30.941538   965 net.cpp:106] Creating Layer query_conv_reshape_perm_ch
I0605 18:19:30.941542   965 net.cpp:454] query_conv_reshape_perm_ch <- query_conv_reshape_ch
I0605 18:19:30.941546   965 net.cpp:411] query_conv_reshape_perm_ch -> query_conv_reshape_perm_ch
I0605 18:19:30.941613   965 net.cpp:150] Setting up query_conv_reshape_perm_ch
I0605 18:19:30.941618   965 net.cpp:157] Top shape: 1 1 512 900 (460800)
I0605 18:19:30.941620   965 net.cpp:165] Memory required for data: 1485886492
I0605 18:19:30.941623   965 layer_factory.hpp:77] Creating layer key_conv_reshape_perm_ch
I0605 18:19:30.941635   965 net.cpp:106] Creating Layer key_conv_reshape_perm_ch
I0605 18:19:30.941638   965 net.cpp:454] key_conv_reshape_perm_ch <- key_conv_reshape_ch
I0605 18:19:30.941642   965 net.cpp:411] key_conv_reshape_perm_ch -> key_conv_reshape_perm_ch
I0605 18:19:30.941701   965 net.cpp:150] Setting up key_conv_reshape_perm_ch
I0605 18:19:30.941706   965 net.cpp:157] Top shape: 1 1 900 512 (460800)
I0605 18:19:30.941709   965 net.cpp:165] Memory required for data: 1487729692
I0605 18:19:30.941710   965 layer_factory.hpp:77] Creating layer energy_ch
I0605 18:19:30.941715   965 net.cpp:106] Creating Layer energy_ch
I0605 18:19:30.941718   965 net.cpp:454] energy_ch <- query_conv_reshape_perm_ch
I0605 18:19:30.941721   965 net.cpp:454] energy_ch <- key_conv_reshape_perm_ch
I0605 18:19:30.941726   965 net.cpp:411] energy_ch -> energy_ch
I0605 18:19:30.941741   965 net.cpp:150] Setting up energy_ch
I0605 18:19:30.941745   965 net.cpp:157] Top shape: 1 1 512 512 (262144)
I0605 18:19:30.941746   965 net.cpp:165] Memory required for data: 1488778268
I0605 18:19:30.941749   965 layer_factory.hpp:77] Creating layer energy_ch_energy_ch_0_split
I0605 18:19:30.941754   965 net.cpp:106] Creating Layer energy_ch_energy_ch_0_split
I0605 18:19:30.941757   965 net.cpp:454] energy_ch_energy_ch_0_split <- energy_ch
I0605 18:19:30.941762   965 net.cpp:411] energy_ch_energy_ch_0_split -> energy_ch_energy_ch_0_split_0
I0605 18:19:30.941768   965 net.cpp:411] energy_ch_energy_ch_0_split -> energy_ch_energy_ch_0_split_1
I0605 18:19:30.941790   965 net.cpp:150] Setting up energy_ch_energy_ch_0_split
I0605 18:19:30.941795   965 net.cpp:157] Top shape: 1 1 512 512 (262144)
I0605 18:19:30.941797   965 net.cpp:157] Top shape: 1 1 512 512 (262144)
I0605 18:19:30.941802   965 net.cpp:165] Memory required for data: 1490875420
I0605 18:19:30.941804   965 layer_factory.hpp:77] Creating layer energy_ch_pool
I0605 18:19:30.941809   965 net.cpp:106] Creating Layer energy_ch_pool
I0605 18:19:30.941813   965 net.cpp:454] energy_ch_pool <- energy_ch_energy_ch_0_split_0
I0605 18:19:30.941817   965 net.cpp:411] energy_ch_pool -> energy_ch_pool
I0605 18:19:30.941843   965 net.cpp:150] Setting up energy_ch_pool
I0605 18:19:30.941848   965 net.cpp:157] Top shape: 1 1 512 1 (512)
I0605 18:19:30.941849   965 net.cpp:165] Memory required for data: 1490877468
I0605 18:19:30.941851   965 layer_factory.hpp:77] Creating layer energy_ch_max
I0605 18:19:30.941856   965 net.cpp:106] Creating Layer energy_ch_max
I0605 18:19:30.941859   965 net.cpp:454] energy_ch_max <- energy_ch_pool
I0605 18:19:30.941864   965 net.cpp:411] energy_ch_max -> energy_ch_max
I0605 18:19:30.941881   965 net.cpp:150] Setting up energy_ch_max
I0605 18:19:30.941885   965 net.cpp:157] Top shape: 1 1 512 512 (262144)
I0605 18:19:30.941887   965 net.cpp:165] Memory required for data: 1491926044
I0605 18:19:30.941890   965 layer_factory.hpp:77] Creating layer energy_ch_minus
I0605 18:19:30.941900   965 net.cpp:106] Creating Layer energy_ch_minus
I0605 18:19:30.941905   965 net.cpp:454] energy_ch_minus <- energy_ch_energy_ch_0_split_1
I0605 18:19:30.941908   965 net.cpp:411] energy_ch_minus -> energy_ch_minus
I0605 18:19:30.941926   965 net.cpp:150] Setting up energy_ch_minus
I0605 18:19:30.941931   965 net.cpp:157] Top shape: 1 1 512 512 (262144)
I0605 18:19:30.941936   965 net.cpp:165] Memory required for data: 1492974620
I0605 18:19:30.941937   965 layer_factory.hpp:77] Creating layer energy_new
I0605 18:19:30.941941   965 net.cpp:106] Creating Layer energy_new
I0605 18:19:30.941946   965 net.cpp:454] energy_new <- energy_ch_max
I0605 18:19:30.941948   965 net.cpp:454] energy_new <- energy_ch_minus
I0605 18:19:30.941951   965 net.cpp:411] energy_new -> energy_new
I0605 18:19:30.941968   965 net.cpp:150] Setting up energy_new
I0605 18:19:30.941972   965 net.cpp:157] Top shape: 1 1 512 512 (262144)
I0605 18:19:30.941974   965 net.cpp:165] Memory required for data: 1494023196
I0605 18:19:30.941977   965 layer_factory.hpp:77] Creating layer attention_ch
I0605 18:19:30.941983   965 net.cpp:106] Creating Layer attention_ch
I0605 18:19:30.941987   965 net.cpp:454] attention_ch <- energy_new
I0605 18:19:30.941992   965 net.cpp:411] attention_ch -> attention_ch
I0605 18:19:30.942543   965 net.cpp:150] Setting up attention_ch
I0605 18:19:30.942551   965 net.cpp:157] Top shape: 1 1 512 512 (262144)
I0605 18:19:30.942555   965 net.cpp:165] Memory required for data: 1495071772
I0605 18:19:30.942559   965 layer_factory.hpp:77] Creating layer value_conv_reshape_ch_perm
I0605 18:19:30.942565   965 net.cpp:106] Creating Layer value_conv_reshape_ch_perm
I0605 18:19:30.942569   965 net.cpp:454] value_conv_reshape_ch_perm <- value_conv_reshape_ch
I0605 18:19:30.942572   965 net.cpp:411] value_conv_reshape_ch_perm -> value_conv_reshape_ch_perm
I0605 18:19:30.942641   965 net.cpp:150] Setting up value_conv_reshape_ch_perm
I0605 18:19:30.942644   965 net.cpp:157] Top shape: 1 1 512 900 (460800)
I0605 18:19:30.942646   965 net.cpp:165] Memory required for data: 1496914972
I0605 18:19:30.942649   965 layer_factory.hpp:77] Creating layer attention_ch_perm
I0605 18:19:30.942653   965 net.cpp:106] Creating Layer attention_ch_perm
I0605 18:19:30.942657   965 net.cpp:454] attention_ch_perm <- attention_ch
I0605 18:19:30.942662   965 net.cpp:411] attention_ch_perm -> attention_ch_perm
I0605 18:19:30.942726   965 net.cpp:150] Setting up attention_ch_perm
I0605 18:19:30.942731   965 net.cpp:157] Top shape: 1 1 512 512 (262144)
I0605 18:19:30.942734   965 net.cpp:165] Memory required for data: 1497963548
I0605 18:19:30.942735   965 layer_factory.hpp:77] Creating layer out_ch
I0605 18:19:30.942739   965 net.cpp:106] Creating Layer out_ch
I0605 18:19:30.942742   965 net.cpp:454] out_ch <- attention_ch_perm
I0605 18:19:30.942746   965 net.cpp:454] out_ch <- value_conv_reshape_ch_perm
I0605 18:19:30.942751   965 net.cpp:411] out_ch -> out_ch
I0605 18:19:30.942766   965 net.cpp:150] Setting up out_ch
I0605 18:19:30.942770   965 net.cpp:157] Top shape: 1 1 512 900 (460800)
I0605 18:19:30.942772   965 net.cpp:165] Memory required for data: 1499806748
I0605 18:19:30.942775   965 layer_factory.hpp:77] Creating layer out_ch_reshape
I0605 18:19:30.942781   965 net.cpp:106] Creating Layer out_ch_reshape
I0605 18:19:30.942786   965 net.cpp:454] out_ch_reshape <- out_ch
I0605 18:19:30.942790   965 net.cpp:411] out_ch_reshape -> out_ch_reshape
I0605 18:19:30.942807   965 net.cpp:150] Setting up out_ch_reshape
I0605 18:19:30.942812   965 net.cpp:157] Top shape: 1 512 30 30 (460800)
I0605 18:19:30.942814   965 net.cpp:165] Memory required for data: 1501649948
I0605 18:19:30.942816   965 layer_factory.hpp:77] Creating layer out_ch_reshape_scale
I0605 18:19:30.942821   965 net.cpp:106] Creating Layer out_ch_reshape_scale
I0605 18:19:30.942824   965 net.cpp:454] out_ch_reshape_scale <- out_ch_reshape
I0605 18:19:30.942828   965 net.cpp:411] out_ch_reshape_scale -> out_ch_reshape_scale
I0605 18:19:30.942906   965 net.cpp:150] Setting up out_ch_reshape_scale
I0605 18:19:30.942910   965 net.cpp:157] Top shape: 1 512 30 30 (460800)
I0605 18:19:30.942912   965 net.cpp:165] Memory required for data: 1503493148
I0605 18:19:30.942915   965 net.cpp:514] Sharing parameters 'scale_conv1_1' owned by layer 'out_reshape_scale', param index 0
I0605 18:19:30.942929   965 layer_factory.hpp:77] Creating layer out_ch_x
I0605 18:19:30.942934   965 net.cpp:106] Creating Layer out_ch_x
I0605 18:19:30.942939   965 net.cpp:454] out_ch_x <- out_ch_reshape_scale
I0605 18:19:30.942941   965 net.cpp:454] out_ch_x <- pool5_2_conv4_relu_pool5_2_conv4_relu_0_split_7
I0605 18:19:30.942946   965 net.cpp:411] out_ch_x -> out_ch_x
I0605 18:19:30.942973   965 net.cpp:150] Setting up out_ch_x
I0605 18:19:30.942978   965 net.cpp:157] Top shape: 1 512 30 30 (460800)
I0605 18:19:30.942981   965 net.cpp:165] Memory required for data: 1505336348
I0605 18:19:30.942983   965 layer_factory.hpp:77] Creating layer out_conv_ch_x
I0605 18:19:30.942991   965 net.cpp:106] Creating Layer out_conv_ch_x
I0605 18:19:30.942996   965 net.cpp:454] out_conv_ch_x <- out_ch_x
I0605 18:19:30.942999   965 net.cpp:411] out_conv_ch_x -> out_conv_ch_x
I0605 18:19:30.948794   965 net.cpp:150] Setting up out_conv_ch_x
I0605 18:19:30.948801   965 net.cpp:157] Top shape: 1 512 30 30 (460800)
I0605 18:19:30.948804   965 net.cpp:165] Memory required for data: 1507179548
I0605 18:19:30.948808   965 layer_factory.hpp:77] Creating layer out_conv_x
I0605 18:19:30.948829   965 net.cpp:106] Creating Layer out_conv_x
I0605 18:19:30.948833   965 net.cpp:454] out_conv_x <- out_x
I0605 18:19:30.948839   965 net.cpp:411] out_conv_x -> out_conv_x
I0605 18:19:30.956104   965 net.cpp:150] Setting up out_conv_x
I0605 18:19:30.956125   965 net.cpp:157] Top shape: 1 512 30 30 (460800)
I0605 18:19:30.956126   965 net.cpp:165] Memory required for data: 1509022748
I0605 18:19:30.956131   965 layer_factory.hpp:77] Creating layer out_x_sum
I0605 18:19:30.956137   965 net.cpp:106] Creating Layer out_x_sum
I0605 18:19:30.956151   965 net.cpp:454] out_x_sum <- out_conv_x
I0605 18:19:30.956163   965 net.cpp:454] out_x_sum <- out_conv_ch_x
I0605 18:19:30.956167   965 net.cpp:411] out_x_sum -> out_x_sum
I0605 18:19:30.956200   965 net.cpp:150] Setting up out_x_sum
I0605 18:19:30.956205   965 net.cpp:157] Top shape: 1 512 30 30 (460800)
I0605 18:19:30.956207   965 net.cpp:165] Memory required for data: 1510865948
I0605 18:19:30.956219   965 layer_factory.hpp:77] Creating layer mask_deconv2
I0605 18:19:30.956225   965 net.cpp:106] Creating Layer mask_deconv2
I0605 18:19:30.956228   965 net.cpp:454] mask_deconv2 <- out_x_sum
I0605 18:19:30.956231   965 net.cpp:411] mask_deconv2 -> mask_deconv2
I0605 18:19:30.957096   965 net.cpp:150] Setting up mask_deconv2
I0605 18:19:30.957103   965 net.cpp:157] Top shape: 1 256 122 122 (3810304)
I0605 18:19:30.957104   965 net.cpp:165] Memory required for data: 1526107164
I0605 18:19:30.957108   965 layer_factory.hpp:77] Creating layer pool5_2_conv5
I0605 18:19:30.957125   965 net.cpp:106] Creating Layer pool5_2_conv5
I0605 18:19:30.957129   965 net.cpp:454] pool5_2_conv5 <- mask_deconv2
I0605 18:19:30.957134   965 net.cpp:411] pool5_2_conv5 -> pool5_2_conv5
I0605 18:19:30.983719   965 net.cpp:150] Setting up pool5_2_conv5
I0605 18:19:30.983736   965 net.cpp:157] Top shape: 1 512 122 122 (7620608)
I0605 18:19:30.983741   965 net.cpp:165] Memory required for data: 1556589596
I0605 18:19:30.983768   965 layer_factory.hpp:77] Creating layer pool5_2_conv5_relu
I0605 18:19:30.983777   965 net.cpp:106] Creating Layer pool5_2_conv5_relu
I0605 18:19:30.983793   965 net.cpp:454] pool5_2_conv5_relu <- pool5_2_conv5
I0605 18:19:30.983798   965 net.cpp:411] pool5_2_conv5_relu -> pool5_2_conv5_relu
I0605 18:19:30.983983   965 net.cpp:150] Setting up pool5_2_conv5_relu
I0605 18:19:30.983989   965 net.cpp:157] Top shape: 1 512 122 122 (7620608)
I0605 18:19:30.984001   965 net.cpp:165] Memory required for data: 1587072028
I0605 18:19:30.984004   965 layer_factory.hpp:77] Creating layer pool5_2_conv6
I0605 18:19:30.984014   965 net.cpp:106] Creating Layer pool5_2_conv6
I0605 18:19:30.984028   965 net.cpp:454] pool5_2_conv6 <- pool5_2_conv5_relu
I0605 18:19:30.984035   965 net.cpp:411] pool5_2_conv6 -> pool5_2_conv6
I0605 18:19:31.034845   965 net.cpp:150] Setting up pool5_2_conv6
I0605 18:19:31.034863   965 net.cpp:157] Top shape: 1 512 122 122 (7620608)
I0605 18:19:31.034867   965 net.cpp:165] Memory required for data: 1617554460
I0605 18:19:31.034874   965 layer_factory.hpp:77] Creating layer pool5_2_conv6_relu
I0605 18:19:31.034884   965 net.cpp:106] Creating Layer pool5_2_conv6_relu
I0605 18:19:31.034890   965 net.cpp:454] pool5_2_conv6_relu <- pool5_2_conv6
I0605 18:19:31.034895   965 net.cpp:411] pool5_2_conv6_relu -> pool5_2_conv6_relu
I0605 18:19:31.037241   965 net.cpp:150] Setting up pool5_2_conv6_relu
I0605 18:19:31.037262   965 net.cpp:157] Top shape: 1 512 122 122 (7620608)
I0605 18:19:31.037266   965 net.cpp:165] Memory required for data: 1648036892
I0605 18:19:31.037268   965 layer_factory.hpp:77] Creating layer mask_deconv3
I0605 18:19:31.037288   965 net.cpp:106] Creating Layer mask_deconv3
I0605 18:19:31.037293   965 net.cpp:454] mask_deconv3 <- pool5_2_conv6_relu
I0605 18:19:31.037299   965 net.cpp:411] mask_deconv3 -> mask_deconv3
I0605 18:19:31.037734   965 net.cpp:150] Setting up mask_deconv3
I0605 18:19:31.037740   965 net.cpp:157] Top shape: 1 256 244 244 (15241216)
I0605 18:19:31.037742   965 net.cpp:165] Memory required for data: 1709001756
I0605 18:19:31.037748   965 layer_factory.hpp:77] Creating layer mask_score
I0605 18:19:31.037755   965 net.cpp:106] Creating Layer mask_score
I0605 18:19:31.037760   965 net.cpp:454] mask_score <- mask_deconv3
I0605 18:19:31.037765   965 net.cpp:411] mask_score -> mask_score
I0605 18:19:31.041597   965 net.cpp:150] Setting up mask_score
I0605 18:19:31.041611   965 net.cpp:157] Top shape: 1 8 244 244 (476288)
I0605 18:19:31.041615   965 net.cpp:165] Memory required for data: 1710906908
I0605 18:19:31.041620   965 layer_factory.hpp:77] Creating layer loss_mask
I0605 18:19:31.041627   965 net.cpp:106] Creating Layer loss_mask
I0605 18:19:31.041631   965 net.cpp:454] loss_mask <- mask_score
I0605 18:19:31.041636   965 net.cpp:454] loss_mask <- mask_targets
I0605 18:19:31.041641   965 net.cpp:411] loss_mask -> loss_mask
…
