…
average_loss: 100
iter_size: 2
I0605 13:21:51.652403 11284 solver.cpp:81] Creating training net from train_net file: models/pascal_voc/VGG16/faster_rcnn_end2end/train.prototxt
I0605 13:21:51.669936 11284 net.cpp:49] Initializing net from parameters: 
name: "VGG_ILSVRC_16_layers"
state {
  phase: TRAIN
}
layer {
  name: "input-data"
  type: "Python"
  top: "data"
  top: "im_info"
  top: "gt_boxes"
  top: "seg_mask_inds"
  top: "flipped"
  python_param {
    module: "roi_data_layer.layer"
    layer: "RoIDataLayer"
    param_str: "\'num_classes\': 2"
  }
}
layer {
  name: "conv1_1"
  type: "Convolution"
  bottom: "data"
  top: "conv1_1"
  param {
    lr_mult: 0
    decay_mult: 0
  }
  param {
    lr_mult: 0
    decay_mult: 0
  }
  convolution_param {
    num_output: 64
    pad: 1
    kernel_size: 3
  }
}
layer {
  name: "relu1_1"
  type: "ReLU"
  bottom: "conv1_1"
  top: "conv1_1"
}
layer {
  name: "conv1_2"
  type: "Convolution"
  bottom: "conv1_1"
  top: "conv1_2"
  param {
    lr_mult: 0
    decay_mult: 0
  }
  param {
    lr_mult: 0
    decay_mult: 0
  }
  convolution_param {
    num_output: 64
    pad: 1
    kernel_size: 3
  }
}
layer {
  name: "relu1_2"
  type: "ReLU"
  bottom: "conv1_2"
  top: "conv1_2"
}
layer {
  name: "pool1"
  type: "Pooling"
  bottom: "conv1_2"
  top: "pool1"
  pooling_param {
    pool: MAX
    kernel_size: 2
    stride: 2
  }
}
layer {
  name: "conv2_1"
  type: "Convolution"
  bottom: "pool1"
  top: "conv2_1"
  param {
    lr_mult: 0
    decay_mult: 0
  }
  param {
    lr_mult: 0
    decay_mult: 0
  }
  convolution_param {
    num_output: 128
    pad: 1
    kernel_size: 3
  }
}
layer {
  name: "relu2_1"
  type: "ReLU"
  bottom: "conv2_1"
  top: "conv2_1"
}
layer {
  name: "conv2_2"
  type: "Convolution"
  bottom: "conv2_1"
  top: "conv2_2"
  param {
    lr_mult: 0
    decay_mult: 0
  }
  param {
    lr_mult: 0
    decay_mult: 0
  }
  convolution_param {
    num_output: 128
    pad: 1
    kernel_size: 3
  }
}
layer {
  name: "relu2_2"
  type: "ReLU"
  bottom: "conv2_2"
  top: "conv2_2"
}
layer {
  name: "pool2"
  type: "Pooling"
  bottom: "conv2_2"
  top: "pool2"
  pooling_param {
    pool: MAX
    kernel_size: 2
    stride: 2
  }
}
layer {
  name: "conv3_1"
  type: "Convolution"
  bottom: "pool2"
  top: "conv3_1"
  param {
    lr_mult: 1
  }
  param {
    lr_mult: 2
  }
  convolution_param {
    num_output: 256
    pad: 1
    kernel_size: 3
  }
}
layer {
  name: "relu3_1"
  type: "ReLU"
  bottom: "conv3_1"
  top: "conv3_1"
}
layer {
  name: "conv3_2"
  type: "Convolution"
  bottom: "conv3_1"
  top: "conv3_2"
  param {
    lr_mult: 1
  }
  param {
    lr_mult: 2
  }
  convolution_param {
    num_output: 256
    pad: 1
    kernel_size: 3
  }
}
layer {
  name: "relu3_2"
  type: "ReLU"
  bottom: "conv3_2"
  top: "conv3_2"
}
layer {
  name: "conv3_3"
  type: "Convolution"
  bottom: "conv3_2"
  top: "conv3_3"
  param {
    lr_mult: 1
  }
  param {
    lr_mult: 2
  }
  convolution_param {
    num_output: 256
    pad: 1
    kernel_size: 3
  }
}
layer {
  name: "relu3_3"
  type: "ReLU"
  bottom: "conv3_3"
  top: "conv3_3"
}
layer {
  name: "pool3"
  type: "Pooling"
  bottom: "conv3_3"
  top: "pool3"
  pooling_param {
    pool: MAX
    kernel_size: 2
    stride: 2
  }
}
layer {
  name: "conv4_1"
  type: "Convolution"
  bottom: "pool3"
  top: "conv4_1"
  param {
    lr_mult: 1
  }
  param {
    lr_mult: 2
  }
  convolution_param {
    num_output: 512
    pad: 1
    kernel_size: 3
  }
}
layer {
  name: "relu4_1"
  type: "ReLU"
  bottom: "conv4_1"
  top: "conv4_1"
}
layer {
  name: "conv4_2"
  type: "Convolution"
  bottom: "conv4_1"
  top: "conv4_2"
  param {
    lr_mult: 1
  }
  param {
    lr_mult: 2
  }
  convolution_param {
    num_output: 512
    pad: 1
    kernel_size: 3
  }
}
layer {
  name: "relu4_2"
  type: "ReLU"
  bottom: "conv4_2"
  top: "conv4_2"
}
layer {
  name: "conv4_3"
  type: "Convolution"
  bottom: "conv4_2"
  top: "conv4_3"
  param {
    lr_mult: 1
  }
  param {
    lr_mult: 2
  }
  convolution_param {
    num_output: 512
    pad: 1
    kernel_size: 3
  }
}
layer {
  name: "relu4_3"
  type: "ReLU"
  bottom: "conv4_3"
  top: "conv4_3"
}
layer {
  name: "pool4"
  type: "Pooling"
  bottom: "conv4_3"
  top: "pool4"
  pooling_param {
    pool: MAX
    kernel_size: 2
    stride: 2
  }
}
layer {
  name: "conv5_1"
  type: "Convolution"
  bottom: "pool4"
  top: "conv5_1"
  param {
    lr_mult: 1
  }
  param {
    lr_mult: 2
  }
  convolution_param {
    num_output: 512
    pad: 1
    kernel_size: 3
  }
}
layer {
  name: "relu5_1"
  type: "ReLU"
  bottom: "conv5_1"
  top: "conv5_1"
}
layer {
  name: "conv5_2"
  type: "Convolution"
  bottom: "conv5_1"
  top: "conv5_2"
  param {
    lr_mult: 1
  }
  param {
    lr_mult: 2
  }
  convolution_param {
    num_output: 512
    pad: 1
    kernel_size: 3
  }
}
layer {
  name: "relu5_2"
  type: "ReLU"
  bottom: "conv5_2"
  top: "conv5_2"
}
layer {
  name: "conv5_3"
  type: "Convolution"
  bottom: "conv5_2"
  top: "conv5_3"
  param {
    lr_mult: 1
  }
  param {
    lr_mult: 2
  }
  convolution_param {
    num_output: 512
    pad: 1
    kernel_size: 3
  }
}
layer {
  name: "relu5_3"
  type: "ReLU"
  bottom: "conv5_3"
  top: "conv5_3"
}
layer {
  name: "rpn_conv/3x3"
  type: "Convolution"
  bottom: "conv5_3"
  top: "rpn/output"
  param {
    lr_mult: 1
  }
  param {
    lr_mult: 2
  }
  convolution_param {
    num_output: 512
    pad: 1
    kernel_size: 3
    stride: 1
    weight_filler {
      type: "gaussian"
      std: 0.01
    }
    bias_filler {
      type: "constant"
      value: 0
    }
  }
}
layer {
  name: "rpn_relu/3x3"
  type: "ReLU"
  bottom: "rpn/output"
  top: "rpn/output"
}
layer {
  name: "rpn_cls_score"
  type: "Convolution"
  bottom: "rpn/output"
  top: "rpn_cls_score"
  param {
    lr_mult: 1
  }
  param {
    lr_mult: 2
  }
  convolution_param {
    num_output: 30
    pad: 0
    kernel_size: 1
    stride: 1
    weight_filler {
      type: "gaussian"
      std: 0.01
    }
    bias_filler {
      type: "constant"
      value: 0
    }
  }
}
layer {
  name: "rpn_bbox_pred"
  type: "Convolution"
  bottom: "rpn/output"
  top: "rpn_bbox_pred"
  param {
    lr_mult: 1
  }
  param {
    lr_mult: 2
  }
  convolution_param {
    num_output: 60
    pad: 0
    kernel_size: 1
    stride: 1
    weight_filler {
      type: "gaussian"
      std: 0.01
    }
    bias_filler {
      type: "constant"
      value: 0
    }
  }
}
layer {
  name: "rpn_cls_score_reshape"
  type: "Reshape"
  bottom: "rpn_cls_score"
  top: "rpn_cls_score_reshape"
  reshape_param {
    shape {
      dim: 0
      dim: 2
      dim: -1
      dim: 0
    }
  }
}
layer {
  name: "rpn-data"
  type: "Python"
  bottom: "rpn_cls_score"
  bottom: "gt_boxes"
  bottom: "im_info"
  bottom: "data"
  top: "rpn_labels"
  top: "rpn_bbox_targets"
  top: "rpn_bbox_inside_weights"
  top: "rpn_bbox_outside_weights"
  python_param {
    module: "rpn.anchor_target_layer"
    layer: "AnchorTargetLayer"
    param_str: "\'feat_stride\': 16 \n\'scales\': !!python/tuple [2, 4, 8, 16, 32]"
  }
}
layer {
  name: "rpn_loss_cls"
  type: "SoftmaxWithLoss"
  bottom: "rpn_cls_score_reshape"
  bottom: "rpn_labels"
  top: "rpn_cls_loss"
  loss_weight: 1
  propagate_down: true
  propagate_down: false
  loss_param {
    ignore_label: -1
    normalize: true
  }
}
layer {
  name: "rpn_loss_bbox"
  type: "SmoothL1Loss"
  bottom: "rpn_bbox_pred"
  bottom: "rpn_bbox_targets"
  bottom: "rpn_bbox_inside_weights"
  bottom: "rpn_bbox_outside_weights"
  top: "rpn_loss_bbox"
  loss_weight: 1
  smooth_l1_loss_param {
    sigma: 3
  }
}
layer {
  name: "rpn_cls_prob"
  type: "Softmax"
  bottom: "rpn_cls_score_reshape"
  top: "rpn_cls_prob"
}
layer {
  name: "rpn_cls_prob_reshape"
  type: "Reshape"
  bottom: "rpn_cls_prob"
  top: "rpn_cls_prob_reshape"
  reshape_param {
    shape {
      dim: 0
      dim: 30
      dim: -1
      dim: 0
    }
  }
}
layer {
  name: "proposal"
  type: "Python"
  bottom: "rpn_cls_prob_reshape"
  bottom: "rpn_bbox_pred"
  bottom: "im_info"
  top: "rpn_rois"
  python_param {
    module: "rpn.proposal_layer"
    layer: "ProposalLayer"
    param_str: "\'feat_stride\': 16 \n\'scales\': !!python/tuple [2, 4, 8, 16, 32]"
  }
}
layer {
  name: "roi-data"
  type: "Python"
  bottom: "rpn_rois"
  bottom: "gt_boxes"
  bottom: "im_info"
  bottom: "seg_mask_inds"
  bottom: "flipped"
  top: "rois"
  top: "labels"
  top: "bbox_targets"
  top: "bbox_inside_weights"
  top: "bbox_outside_weights"
  top: "mask_targets"
  top: "rois_pos"
  top: "rois_attribute"
  python_param {
    module: "rpn.proposal_target_layer"
    layer: "ProposalTargetLayer"
    param_str: "\'num_classes\': 2"
  }
}
layer {
  name: "roi_pool5"
  type: "ROIAlignment"
  bottom: "conv5_3"
  bottom: "rois"
  top: "pool5"
  roi_alignment_param {
    pooled_h: 7
    pooled_w: 7
    spatial_scale: 0.0625
  }
}
layer {
  name: "fc6"
  type: "InnerProduct"
  bottom: "pool5"
  top: "fc6"
  param {
    lr_mult: 1
  }
  param {
    lr_mult: 2
  }
  inner_product_param {
    num_output: 4096
  }
}
layer {
  name: "relu6"
  type: "ReLU"
  bottom: "fc6"
  top: "fc6"
}
layer {
  name: "fc7"
  type: "InnerProduct"
  bottom: "fc6"
  top: "fc7"
  param {
    lr_mult: 1
  }
  param {
    lr_mult: 2
  }
  inner_product_param {
    num_output: 4096
  }
}
layer {
  name: "relu7"
  type: "ReLU"
  bottom: "fc7"
  top: "fc7"
}
layer {
  name: "cls_score"
  type: "InnerProduct"
  bottom: "fc7"
  top: "cls_score"
  param {
    lr_mult: 1
  }
  param {
    lr_mult: 2
  }
  inner_product_param {
    num_output: 2
    weight_filler {
      type: "gaussian"
      std: 0.01
    }
    bias_filler {
      type: "constant"
      value: 0
    }
  }
}
layer {
  name: "bbox_pred"
  type: "InnerProduct"
  bottom: "fc7"
  top: "bbox_pred"
  param {
    lr_mult: 1
  }
  param {
    lr_mult: 2
  }
  inner_product_param {
    num_output: 8
    weight_filler {
      type: "gaussian"
      std: 0.001
    }
    bias_filler {
      type: "constant"
      value: 0
    }
  }
}
layer {
  name: "loss_cls"
  type: "SoftmaxWithLoss"
  bottom: "cls_score"
  bottom: "labels"
  top: "loss_cls"
  loss_weight: 3
  propagate_down: true
  propagate_down: false
}
layer {
  name: "loss_bbox"
  type: "SmoothL1Loss"
  bottom: "bbox_pred"
  bottom: "bbox_targets"
  bottom: "bbox_inside_weights"
  bottom: "bbox_outside_weights"
  top: "loss_bbox"
  loss_weight: 2
}
layer {
  name: "roi_pool5_2"
  type: "ROIAlignment"
  bottom: "conv5_3"
  bottom: "rois_pos"
  top: "pool5_2"
  roi_alignment_param {
    pooled_h: 7
    pooled_w: 7
    spatial_scale: 0.0625
  }
}
layer {
  name: "pool5_2_conv"
  type: "Convolution"
  bottom: "pool5_2"
  top: "pool5_2_conv"
  param {
    lr_mult: 1
    decay_mult: 1
  }
  param {
    lr_mult: 2
    decay_mult: 0
  }
  convolution_param {
    num_output: 512
    pad: 0
    kernel_size: 1
    weight_filler {
      type: "gaussian"
      std: 0.01
    }
    bias_filler {
      type: "constant"
      value: 0
    }
  }
}
layer {
  name: "pool5_2_conv_relu"
  type: "ReLU"
  bottom: "pool5_2_conv"
  top: "pool5_2_conv_relu"
}
layer {
  name: "pool5_2_conv2"
  type: "Convolution"
  bottom: "pool5_2_conv_relu"
  top: "pool5_2_conv2"
  param {
    lr_mult: 1
    decay_mult: 1
  }
  param {
    lr_mult: 2
    decay_mult: 0
  }
  convolution_param {
    num_output: 512
    pad: 1
    kernel_size: 3
    stride: 1
    weight_filler {
      type: "gaussian"
      std: 0.01
    }
    bias_filler {
      type: "constant"
      value: 0
    }
  }
}
layer {
  name: "pool5_2_conv2_relu"
  type: "ReLU"
  bottom: "pool5_2_conv2"
  top: "pool5_2_conv2_relu"
}
layer {
  name: "mask_deconv1"
  type: "Deconvolution"
  bottom: "pool5_2_conv2_relu"
  top: "mask_deconv1"
  param {
    lr_mult: 1
    decay_mult: 1
  }
  param {
    lr_mult: 2
    decay_mult: 0
  }
  convolution_param {
    num_output: 256
    pad: 1
    kernel_size: 8
    group: 256
    stride: 4
    weight_filler {
      type: "bilinear"
    }
  }
}
layer {
  name: "pool5_2_conv3"
  type: "Convolution"
  bottom: "mask_deconv1"
  top: "pool5_2_conv3"
  param {
    lr_mult: 1
    decay_mult: 1
  }
  param {
    lr_mult: 2
    decay_mult: 0
  }
  convolution_param {
    num_output: 512
    pad: 1
    kernel_size: 3
    stride: 1
    weight_filler {
      type: "gaussian"
      std: 0.01
    }
    bias_filler {
      type: "constant"
      value: 0
    }
  }
}
layer {
  name: "pool5_2_conv3_relu"
  type: "ReLU"
  bottom: "pool5_2_conv3"
  top: "pool5_2_conv3_relu"
}
layer {
  name: "pool5_2_conv4"
  type: "Convolution"
  bottom: "pool5_2_conv3_relu"
  top: "pool5_2_conv4"
  param {
    lr_mult: 1
    decay_mult: 1
  }
  param {
    lr_mult: 2
    decay_mult: 0
  }
  convolution_param {
    num_output: 512
    pad: 1
    kernel_size: 3
    stride: 1
    weight_filler {
      type: "gaussian"
      std: 0.01
    }
    bias_filler {
      type: "constant"
      value: 0
    }
  }
}
layer {
  name: "pool5_2_conv4_relu"
  type: "ReLU"
  bottom: "pool5_2_conv4"
  top: "pool5_2_conv4_relu"
}
layer {
  name: "query_conv"
  type: "Convolution"
  bottom: "pool5_2_conv4_relu"
  top: "query_conv"
  param {
    lr_mult: 1
    decay_mult: 1
  }
  param {
    lr_mult: 2
    decay_mult: 0
  }
  convolution_param {
    num_output: 64
    pad: 0
    kernel_size: 1
    stride: 1
    weight_filler {
      type: "gaussian"
      std: 0.01
    }
    bias_filler {
      type: "constant"
      value: 0
    }
  }
}
layer {
  name: "key_conv"
  type: "Convolution"
  bottom: "pool5_2_conv4_relu"
  top: "key_conv"
  param {
    lr_mult: 1
    decay_mult: 1
  }
  param {
    lr_mult: 2
    decay_mult: 0
  }
  convolution_param {
    num_output: 64
    pad: 0
    kernel_size: 1
    stride: 1
    weight_filler {
      type: "gaussian"
      std: 0.01
    }
    bias_filler {
      type: "constant"
      value: 0
    }
  }
}
layer {
  name: "value_conv"
  type: "Convolution"
  bottom: "pool5_2_conv4_relu"
  top: "value_conv"
  param {
    lr_mult: 1
    decay_mult: 1
  }
  param {
    lr_mult: 2
    decay_mult: 0
  }
  convolution_param {
    num_output: 512
    pad: 0
    kernel_size: 1
    stride: 1
    weight_filler {
      type: "gaussian"
      std: 0.01
    }
    bias_filler {
      type: "constant"
      value: 0
    }
  }
}
layer {
  name: "query_conv_reshape"
  type: "Reshape"
  bottom: "query_conv"
  top: "query_conv_reshape"
  reshape_param {
    shape {
      dim: -1
      dim: 64
      dim: 900
      dim: 1
    }
  }
}
layer {
  name: "key_conv_reshape"
  type: "Reshape"
  bottom: "key_conv"
  top: "key_conv_reshape"
  reshape_param {
    shape {
      dim: -1
      dim: 64
      dim: 900
      dim: 1
    }
  }
}
layer {
  name: "value_conv_reshape"
  type: "Reshape"
  bottom: "value_conv"
  top: "value_conv_reshape"
  reshape_param {
    shape {
      dim: -1
      dim: 512
      dim: 900
      dim: 1
    }
  }
}
layer {
  name: "query_conv_reshape_perm"
  type: "Permute"
  bottom: "query_conv_reshape"
  top: "query_conv_reshape_perm"
  permute_param {
    order: 0
    order: 3
    order: 2
    order: 1
  }
}
layer {
  name: "key_conv_reshape_perm"
  type: "Permute"
  bottom: "key_conv_reshape"
  top: "key_conv_reshape_perm"
  permute_param {
    order: 0
    order: 3
    order: 1
    order: 2
  }
}
layer {
  name: "energy"
  type: "MatrixMultiplication"
  bottom: "query_conv_reshape_perm"
  bottom: "key_conv_reshape_perm"
  top: "energy"
}
layer {
  name: "attention"
  type: "Softmax"
  bottom: "energy"
  top: "attention"
  softmax_param {
    axis: 3
  }
}
layer {
  name: "value_conv_reshape_perm"
  type: "Permute"
  bottom: "value_conv_reshape"
  top: "value_conv_reshape_perm"
  permute_param {
    order: 0
    order: 3
    order: 1
    order: 2
  }
}
layer {
  name: "attention_perm"
  type: "Permute"
  bottom: "attention"
  top: "attention_perm"
  permute_param {
    order: 0
    order: 1
    order: 2
    order: 3
  }
}
layer {
  name: "out"
  type: "MatrixMultiplication"
  bottom: "value_conv_reshape_perm"
  bottom: "attention_perm"
  top: "out"
}
layer {
  name: "out_reshape"
  type: "Reshape"
  bottom: "out"
  top: "out_reshape"
  reshape_param {
    shape {
      dim: -1
      dim: 512
      dim: 30
      dim: 30
    }
  }
}
layer {
  name: "out_reshape_scale"
  type: "Scale"
  bottom: "out_reshape"
  top: "out_reshape_scale"
  param {
    name: "scale_conv1_1"
    lr_mult: 1
  }
  scale_param {
    bias_term: false
  }
}
layer {
  name: "out_x"
  type: "Eltwise"
  bottom: "out_reshape_scale"
  bottom: "pool5_2_conv4_relu"
  top: "out_x"
  eltwise_param {
    operation: SUM
  }
}
layer {
  name: "query_conv_reshape_ch"
  type: "Reshape"
  bottom: "pool5_2_conv4_relu"
  top: "query_conv_reshape_ch"
  reshape_param {
    shape {
      dim: 1
      dim: 512
      dim: -1
      dim: 1
    }
  }
}
layer {
  name: "key_conv_reshape_ch"
  type: "Reshape"
  bottom: "pool5_2_conv4_relu"
  top: "key_conv_reshape_ch"
  reshape_param {
    shape {
      dim: 1
      dim: 512
      dim: -1
      dim: 1
    }
  }
}
layer {
  name: "value_conv_reshape_ch"
  type: "Reshape"
  bottom: "pool5_2_conv4_relu"
  top: "value_conv_reshape_ch"
  reshape_param {
    shape {
      dim: 1
      dim: 512
      dim: -1
      dim: 1
    }
  }
}
layer {
  name: "query_conv_reshape_perm_ch"
  type: "Permute"
  bottom: "query_conv_reshape_ch"
  top: "query_conv_reshape_perm_ch"
  permute_param {
    order: 0
    order: 3
    order: 1
    order: 2
  }
}
layer {
  name: "key_conv_reshape_perm_ch"
  type: "Permute"
  bottom: "key_conv_reshape_ch"
  top: "key_conv_reshape_perm_ch"
  permute_param {
    order: 0
    order: 3
    order: 2
    order: 1
  }
}
layer {
  name: "energy_ch"
  type: "MatrixMultiplication"
  bottom: "query_conv_reshape_perm_ch"
  bottom: "key_conv_reshape_perm_ch"
  top: "energy_ch"
}
layer {
  name: "energy_ch_pool"
  type: "Pooling"
  bottom: "energy_ch"
  top: "energy_ch_pool"
  pooling_param {
    pool: MAX
    kernel_h: 1
    kernel_w: 512
    stride_h: 1
    stride_w: 512
  }
}
layer {
  name: "energy_ch_max"
  type: "Tile"
  bottom: "energy_ch_pool"
  top: "energy_ch_max"
  tile_param {
    axis: 3
    tiles: 512
  }
}
layer {
  name: "energy_ch_minus"
  type: "Power"
  bottom: "energy_ch"
  top: "energy_ch_minus"
  power_param {
    power: 1
    scale: -1
    shift: 0
  }
}
layer {
  name: "energy_new"
  type: "Eltwise"
  bottom: "energy_ch_max"
  bottom: "energy_ch_minus"
  top: "energy_new"
  eltwise_param {
    operation: SUM
  }
}
layer {
  name: "attention_ch"
  type: "Softmax"
  bottom: "energy_new"
  top: "attention_ch"
  softmax_param {
    axis: 3
  }
}
layer {
  name: "value_conv_reshape_ch_perm"
  type: "Permute"
  bottom: "value_conv_reshape_ch"
  top: "value_conv_reshape_ch_perm"
  permute_param {
    order: 0
    order: 3
    order: 1
    order: 2
  }
}
layer {
  name: "attention_ch_perm"
  type: "Permute"
  bottom: "attention_ch"
  top: "attention_ch_perm"
  permute_param {
    order: 0
    order: 1
    order: 2
    order: 3
  }
}
layer {
  name: "out_ch"
  type: "MatrixMultiplication"
  bottom: "attention_ch_perm"
  bottom: "value_conv_reshape_ch_perm"
  top: "out_ch"
}
layer {
  name: "out_ch_reshape"
  type: "Reshape"
  bottom: "out_ch"
  top: "out_ch_reshape"
  reshape_param {
    shape {
      dim: -1
      dim: 512
      dim: 30
      dim: 30
    }
  }
}
layer {
  name: "out_ch_reshape_scale"
  type: "Scale"
  bottom: "out_ch_reshape"
  top: "out_ch_reshape_scale"
  param {
    name: "scale_conv1_1"
    lr_mult: 1
  }
  scale_param {
    bias_term: false
  }
}
layer {
  name: "out_ch_x"
  type: "Eltwise"
  bottom: "out_ch_reshape_scale"
  bottom: "pool5_2_conv4_relu"
  top: "out_ch_x"
  eltwise_param {
    operation: SUM
  }
}
layer {
  name: "out_conv_ch_x"
  type: "Convolution"
  bottom: "out_ch_x"
  top: "out_conv_ch_x"
  param {
    lr_mult: 1
    decay_mult: 1
  }
  param {
    lr_mult: 2
    decay_mult: 0
  }
  convolution_param {
    num_output: 512
    pad: 0
    kernel_size: 1
    weight_filler {
      type: "gaussian"
      std: 0.01
    }
    bias_filler {
      type: "constant"
      value: 0
    }
  }
}
layer {
  name: "out_conv_x"
  type: "Convolution"
  bottom: "out_x"
  top: "out_conv_x"
  param {
    lr_mult: 1
    decay_mult: 1
  }
  param {
    lr_mult: 2
    decay_mult: 0
  }
  convolution_param {
    num_output: 512
    pad: 0
    kernel_size: 1
    weight_filler {
      type: "gaussian"
      std: 0.01
    }
    bias_filler {
      type: "constant"
      value: 0
    }
  }
}
layer {
  name: "out_x_sum"
  type: "Eltwise"
  bottom: "out_conv_x"
  bottom: "out_conv_ch_x"
  top: "out_x_sum"
  eltwise_param {
    operation: SUM
  }
}
layer {
  name: "mask_deconv2"
  type: "Deconvolution"
  bottom: "out_x_sum"
  top: "mask_deconv2"
  param {
    lr_mult: 1
    decay_mult: 1
  }
  param {
    lr_mult: 2
    decay_mult: 0
  }
  convolution_param {
    num_output: 256
    pad: 1
    kernel_size: 8
    group: 256
    stride: 4
    weight_filler {
      type: "bilinear"
    }
  }
}
layer {
  name: "pool5_2_conv5"
  type: "Convolution"
  bottom: "mask_deconv2"
  top: "pool5_2_conv5"
  param {
    lr_mult: 1
    decay_mult: 1
  }
  param {
    lr_mult: 2
    decay_mult: 0
  }
  convolution_param {
    num_output: 512
    pad: 1
    kernel_size: 3
    stride: 1
    weight_filler {
      type: "gaussian"
      std: 0.01
    }
    bias_filler {
      type: "constant"
      value: 0
    }
  }
}
layer {
  name: "pool5_2_conv5_relu"
  type: "ReLU"
  bottom: "pool5_2_conv5"
  top: "pool5_2_conv5_relu"
}
layer {
  name: "pool5_2_conv6"
  type: "Convolution"
  bottom: "pool5_2_conv5_relu"
  top: "pool5_2_conv6"
  param {
    lr_mult: 1
    decay_mult: 1
  }
  param {
    lr_mult: 2
    decay_mult: 0
  }
  convolution_param {
    num_output: 512
    pad: 1
    kernel_size: 3
    stride: 1
    weight_filler {
      type: "gaussian"
      std: 0.01
    }
    bias_filler {
      type: "constant"
      value: 0
    }
  }
}
layer {
  name: "pool5_2_conv6_relu"
  type: "ReLU"
  bottom: "pool5_2_conv6"
  top: "pool5_2_conv6_relu"
}
layer {
  name: "mask_deconv3"
  type: "Deconvolution"
  bottom: "pool5_2_conv6_relu"
  top: "mask_deconv3"
  param {
    lr_mult: 1
    decay_mult: 1
  }
  param {
    lr_mult: 2
    decay_mult: 0
  }
  convolution_param {
    num_output: 256
    pad: 1
    kernel_size: 4
    group: 256
    stride: 2
    weight_filler {
      type: "bilinear"
    }
  }
}
layer {
  name: "mask_score"
  type: "Convolution"
  bottom: "mask_deconv3"
  top: "mask_score"
  param {
    lr_mult: 1
    decay_mult: 1
  }
  param {
    lr_mult: 2
    decay_mult: 0
  }
  convolution_param {
    num_output: 8
    pad: 0
    kernel_size: 1
    weight_filler {
      type: "gaussian"
      std: 0.01
    }
    bias_filler {
      type: "constant"
      value: 0
    }
  }
}
layer {
  name: "loss_mask"
  type: "SoftmaxWithLoss"
  bottom: "mask_score"
  bottom: "mask_targets"
  top: "loss_mask"
  loss_weight: 3
  propagate_down: true
  propagate_down: false
  loss_param {
    ignore_label: -1
    normalize: true
  }
}
I0605 13:21:51.670317 11284 layer_factory.hpp:77] Creating layer input-data
I0605 13:21:51.700342 11284 net.cpp:106] Creating Layer input-data
I0605 13:21:51.700361 11284 net.cpp:411] input-data -> data
I0605 13:21:51.700371 11284 net.cpp:411] input-data -> im_info
I0605 13:21:51.700376 11284 net.cpp:411] input-data -> gt_boxes
I0605 13:21:51.700382 11284 net.cpp:411] input-data -> seg_mask_inds
I0605 13:21:51.700397 11284 net.cpp:411] input-data -> flipped
RoiDataLayer: name_to_top: {'gt_boxes': 2, 'data': 0, 'seg_mask_inds': 3, 'im_info': 1, 'flipped': 4}
I0605 13:21:51.734503 11284 net.cpp:150] Setting up input-data
I0605 13:21:51.734529 11284 net.cpp:157] Top shape: 1 3 600 1000 (1800000)
I0605 13:21:51.734544 11284 net.cpp:157] Top shape: 1 3 (3)
I0605 13:21:51.734549 11284 net.cpp:157] Top shape: 1 4 (4)
I0605 13:21:51.734553 11284 net.cpp:157] Top shape: 1 2 (2)
I0605 13:21:51.734557 11284 net.cpp:157] Top shape: 1 1 (1)
I0605 13:21:51.734570 11284 net.cpp:165] Memory required for data: 7200040
I0605 13:21:51.734578 11284 layer_factory.hpp:77] Creating layer data_input-data_0_split
I0605 13:21:51.734609 11284 net.cpp:106] Creating Layer data_input-data_0_split
I0605 13:21:51.734614 11284 net.cpp:454] data_input-data_0_split <- data
I0605 13:21:51.734629 11284 net.cpp:411] data_input-data_0_split -> data_input-data_0_split_0
I0605 13:21:51.734647 11284 net.cpp:411] data_input-data_0_split -> data_input-data_0_split_1
I0605 13:21:51.734676 11284 net.cpp:150] Setting up data_input-data_0_split
I0605 13:21:51.734691 11284 net.cpp:157] Top shape: 1 3 600 1000 (1800000)
I0605 13:21:51.734695 11284 net.cpp:157] Top shape: 1 3 600 1000 (1800000)
I0605 13:21:51.734699 11284 net.cpp:165] Memory required for data: 21600040
I0605 13:21:51.734712 11284 layer_factory.hpp:77] Creating layer im_info_input-data_1_split
I0605 13:21:51.734717 11284 net.cpp:106] Creating Layer im_info_input-data_1_split
I0605 13:21:51.734732 11284 net.cpp:454] im_info_input-data_1_split <- im_info
I0605 13:21:51.734737 11284 net.cpp:411] im_info_input-data_1_split -> im_info_input-data_1_split_0
I0605 13:21:51.734742 11284 net.cpp:411] im_info_input-data_1_split -> im_info_input-data_1_split_1
I0605 13:21:51.734750 11284 net.cpp:411] im_info_input-data_1_split -> im_info_input-data_1_split_2
I0605 13:21:51.734789 11284 net.cpp:150] Setting up im_info_input-data_1_split
I0605 13:21:51.734794 11284 net.cpp:157] Top shape: 1 3 (3)
I0605 13:21:51.734798 11284 net.cpp:157] Top shape: 1 3 (3)
I0605 13:21:51.734804 11284 net.cpp:157] Top shape: 1 3 (3)
I0605 13:21:51.734807 11284 net.cpp:165] Memory required for data: 21600076
I0605 13:21:51.734810 11284 layer_factory.hpp:77] Creating layer gt_boxes_input-data_2_split
I0605 13:21:51.734815 11284 net.cpp:106] Creating Layer gt_boxes_input-data_2_split
I0605 13:21:51.734830 11284 net.cpp:454] gt_boxes_input-data_2_split <- gt_boxes
I0605 13:21:51.734835 11284 net.cpp:411] gt_boxes_input-data_2_split -> gt_boxes_input-data_2_split_0
I0605 13:21:51.734843 11284 net.cpp:411] gt_boxes_input-data_2_split -> gt_boxes_input-data_2_split_1
I0605 13:21:51.734874 11284 net.cpp:150] Setting up gt_boxes_input-data_2_split
I0605 13:21:51.734879 11284 net.cpp:157] Top shape: 1 4 (4)
I0605 13:21:51.734884 11284 net.cpp:157] Top shape: 1 4 (4)
I0605 13:21:51.734889 11284 net.cpp:165] Memory required for data: 21600108
I0605 13:21:51.734892 11284 layer_factory.hpp:77] Creating layer conv1_1
I0605 13:21:51.734902 11284 net.cpp:106] Creating Layer conv1_1
I0605 13:21:51.734907 11284 net.cpp:454] conv1_1 <- data_input-data_0_split_0
I0605 13:21:51.734911 11284 net.cpp:411] conv1_1 -> conv1_1
I0605 13:21:51.998242 11284 net.cpp:150] Setting up conv1_1
I0605 13:21:51.998271 11284 net.cpp:157] Top shape: 1 64 600 1000 (38400000)
I0605 13:21:51.998275 11284 net.cpp:165] Memory required for data: 175200108
I0605 13:21:51.998286 11284 layer_factory.hpp:77] Creating layer relu1_1
I0605 13:21:51.998304 11284 net.cpp:106] Creating Layer relu1_1
I0605 13:21:51.998311 11284 net.cpp:454] relu1_1 <- conv1_1
I0605 13:21:51.998314 11284 net.cpp:397] relu1_1 -> conv1_1 (in-place)
I0605 13:21:51.998466 11284 net.cpp:150] Setting up relu1_1
I0605 13:21:51.998472 11284 net.cpp:157] Top shape: 1 64 600 1000 (38400000)
I0605 13:21:51.998486 11284 net.cpp:165] Memory required for data: 328800108
I0605 13:21:51.998487 11284 layer_factory.hpp:77] Creating layer conv1_2
I0605 13:21:51.998494 11284 net.cpp:106] Creating Layer conv1_2
I0605 13:21:51.998497 11284 net.cpp:454] conv1_2 <- conv1_1
I0605 13:21:51.998510 11284 net.cpp:411] conv1_2 -> conv1_2
I0605 13:21:52.001253 11284 net.cpp:150] Setting up conv1_2
I0605 13:21:52.001276 11284 net.cpp:157] Top shape: 1 64 600 1000 (38400000)
I0605 13:21:52.001279 11284 net.cpp:165] Memory required for data: 482400108
I0605 13:21:52.001287 11284 layer_factory.hpp:77] Creating layer relu1_2
I0605 13:21:52.001294 11284 net.cpp:106] Creating Layer relu1_2
I0605 13:21:52.001297 11284 net.cpp:454] relu1_2 <- conv1_2
I0605 13:21:52.001312 11284 net.cpp:397] relu1_2 -> conv1_2 (in-place)
I0605 13:21:52.001484 11284 net.cpp:150] Setting up relu1_2
I0605 13:21:52.001492 11284 net.cpp:157] Top shape: 1 64 600 1000 (38400000)
I0605 13:21:52.001505 11284 net.cpp:165] Memory required for data: 636000108
I0605 13:21:52.001507 11284 layer_factory.hpp:77] Creating layer pool1
I0605 13:21:52.001515 11284 net.cpp:106] Creating Layer pool1
I0605 13:21:52.001518 11284 net.cpp:454] pool1 <- conv1_2
I0605 13:21:52.001523 11284 net.cpp:411] pool1 -> pool1
I0605 13:21:52.001585 11284 net.cpp:150] Setting up pool1
I0605 13:21:52.001590 11284 net.cpp:157] Top shape: 1 64 300 500 (9600000)
I0605 13:21:52.001602 11284 net.cpp:165] Memory required for data: 674400108
I0605 13:21:52.001605 11284 layer_factory.hpp:77] Creating layer conv2_1
I0605 13:21:52.001612 11284 net.cpp:106] Creating Layer conv2_1
I0605 13:21:52.001624 11284 net.cpp:454] conv2_1 <- pool1
I0605 13:21:52.001627 11284 net.cpp:411] conv2_1 -> conv2_1
I0605 13:21:52.008833 11284 net.cpp:150] Setting up conv2_1
I0605 13:21:52.008843 11284 net.cpp:157] Top shape: 1 128 300 500 (19200000)
I0605 13:21:52.008846 11284 net.cpp:165] Memory required for data: 751200108
I0605 13:21:52.008854 11284 layer_factory.hpp:77] Creating layer relu2_1
I0605 13:21:52.008860 11284 net.cpp:106] Creating Layer relu2_1
I0605 13:21:52.008863 11284 net.cpp:454] relu2_1 <- conv2_1
I0605 13:21:52.008868 11284 net.cpp:397] relu2_1 -> conv2_1 (in-place)
I0605 13:21:52.009362 11284 net.cpp:150] Setting up relu2_1
I0605 13:21:52.009371 11284 net.cpp:157] Top shape: 1 128 300 500 (19200000)
I0605 13:21:52.009382 11284 net.cpp:165] Memory required for data: 828000108
I0605 13:21:52.009385 11284 layer_factory.hpp:77] Creating layer conv2_2
I0605 13:21:52.009392 11284 net.cpp:106] Creating Layer conv2_2
I0605 13:21:52.009397 11284 net.cpp:454] conv2_2 <- conv2_1
I0605 13:21:52.009400 11284 net.cpp:411] conv2_2 -> conv2_2
I0605 13:21:52.010906 11284 net.cpp:150] Setting up conv2_2
I0605 13:21:52.010915 11284 net.cpp:157] Top shape: 1 128 300 500 (19200000)
I0605 13:21:52.010928 11284 net.cpp:165] Memory required for data: 904800108
I0605 13:21:52.010932 11284 layer_factory.hpp:77] Creating layer relu2_2
I0605 13:21:52.010937 11284 net.cpp:106] Creating Layer relu2_2
I0605 13:21:52.010941 11284 net.cpp:454] relu2_2 <- conv2_2
I0605 13:21:52.010944 11284 net.cpp:397] relu2_2 -> conv2_2 (in-place)
I0605 13:21:52.011062 11284 net.cpp:150] Setting up relu2_2
I0605 13:21:52.011068 11284 net.cpp:157] Top shape: 1 128 300 500 (19200000)
I0605 13:21:52.011081 11284 net.cpp:165] Memory required for data: 981600108
I0605 13:21:52.011083 11284 layer_factory.hpp:77] Creating layer pool2
I0605 13:21:52.011090 11284 net.cpp:106] Creating Layer pool2
I0605 13:21:52.011091 11284 net.cpp:454] pool2 <- conv2_2
I0605 13:21:52.011096 11284 net.cpp:411] pool2 -> pool2
I0605 13:21:52.011132 11284 net.cpp:150] Setting up pool2
I0605 13:21:52.011137 11284 net.cpp:157] Top shape: 1 128 150 250 (4800000)
I0605 13:21:52.011138 11284 net.cpp:165] Memory required for data: 1000800108
I0605 13:21:52.011152 11284 layer_factory.hpp:77] Creating layer conv3_1
I0605 13:21:52.011155 11284 net.cpp:106] Creating Layer conv3_1
I0605 13:21:52.011158 11284 net.cpp:454] conv3_1 <- pool2
I0605 13:21:52.011162 11284 net.cpp:411] conv3_1 -> conv3_1
I0605 13:21:52.013108 11284 net.cpp:150] Setting up conv3_1
I0605 13:21:52.013129 11284 net.cpp:157] Top shape: 1 256 150 250 (9600000)
I0605 13:21:52.013132 11284 net.cpp:165] Memory required for data: 1039200108
I0605 13:21:52.013140 11284 layer_factory.hpp:77] Creating layer relu3_1
I0605 13:21:52.013144 11284 net.cpp:106] Creating Layer relu3_1
I0605 13:21:52.013159 11284 net.cpp:454] relu3_1 <- conv3_1
I0605 13:21:52.013164 11284 net.cpp:397] relu3_1 -> conv3_1 (in-place)
I0605 13:21:52.013289 11284 net.cpp:150] Setting up relu3_1
I0605 13:21:52.013295 11284 net.cpp:157] Top shape: 1 256 150 250 (9600000)
I0605 13:21:52.013308 11284 net.cpp:165] Memory required for data: 1077600108
I0605 13:21:52.013310 11284 layer_factory.hpp:77] Creating layer conv3_2
I0605 13:21:52.013329 11284 net.cpp:106] Creating Layer conv3_2
I0605 13:21:52.013332 11284 net.cpp:454] conv3_2 <- conv3_1
I0605 13:21:52.013336 11284 net.cpp:411] conv3_2 -> conv3_2
I0605 13:21:52.015300 11284 net.cpp:150] Setting up conv3_2
I0605 13:21:52.015319 11284 net.cpp:157] Top shape: 1 256 150 250 (9600000)
I0605 13:21:52.015322 11284 net.cpp:165] Memory required for data: 1116000108
I0605 13:21:52.015327 11284 layer_factory.hpp:77] Creating layer relu3_2
I0605 13:21:52.015332 11284 net.cpp:106] Creating Layer relu3_2
I0605 13:21:52.015345 11284 net.cpp:454] relu3_2 <- conv3_2
I0605 13:21:52.015350 11284 net.cpp:397] relu3_2 -> conv3_2 (in-place)
I0605 13:21:52.015476 11284 net.cpp:150] Setting up relu3_2
I0605 13:21:52.015482 11284 net.cpp:157] Top shape: 1 256 150 250 (9600000)
I0605 13:21:52.015494 11284 net.cpp:165] Memory required for data: 1154400108
I0605 13:21:52.015496 11284 layer_factory.hpp:77] Creating layer conv3_3
I0605 13:21:52.015502 11284 net.cpp:106] Creating Layer conv3_3
I0605 13:21:52.015506 11284 net.cpp:454] conv3_3 <- conv3_2
I0605 13:21:52.015518 11284 net.cpp:411] conv3_3 -> conv3_3
I0605 13:21:52.017565 11284 net.cpp:150] Setting up conv3_3
I0605 13:21:52.017575 11284 net.cpp:157] Top shape: 1 256 150 250 (9600000)
I0605 13:21:52.017578 11284 net.cpp:165] Memory required for data: 1192800108
I0605 13:21:52.017583 11284 layer_factory.hpp:77] Creating layer relu3_3
I0605 13:21:52.017588 11284 net.cpp:106] Creating Layer relu3_3
I0605 13:21:52.017591 11284 net.cpp:454] relu3_3 <- conv3_3
I0605 13:21:52.017606 11284 net.cpp:397] relu3_3 -> conv3_3 (in-place)
I0605 13:21:52.017717 11284 net.cpp:150] Setting up relu3_3
I0605 13:21:52.017724 11284 net.cpp:157] Top shape: 1 256 150 250 (9600000)
I0605 13:21:52.017725 11284 net.cpp:165] Memory required for data: 1231200108
I0605 13:21:52.017729 11284 layer_factory.hpp:77] Creating layer pool3
I0605 13:21:52.017733 11284 net.cpp:106] Creating Layer pool3
I0605 13:21:52.017735 11284 net.cpp:454] pool3 <- conv3_3
I0605 13:21:52.017740 11284 net.cpp:411] pool3 -> pool3
I0605 13:21:52.017786 11284 net.cpp:150] Setting up pool3
I0605 13:21:52.017791 11284 net.cpp:157] Top shape: 1 256 75 125 (2400000)
I0605 13:21:52.017802 11284 net.cpp:165] Memory required for data: 1240800108
I0605 13:21:52.017804 11284 layer_factory.hpp:77] Creating layer conv4_1
I0605 13:21:52.017809 11284 net.cpp:106] Creating Layer conv4_1
I0605 13:21:52.017812 11284 net.cpp:454] conv4_1 <- pool3
I0605 13:21:52.017815 11284 net.cpp:411] conv4_1 -> conv4_1
I0605 13:21:52.021621 11284 net.cpp:150] Setting up conv4_1
I0605 13:21:52.021638 11284 net.cpp:157] Top shape: 1 512 75 125 (4800000)
I0605 13:21:52.021641 11284 net.cpp:165] Memory required for data: 1260000108
I0605 13:21:52.021648 11284 layer_factory.hpp:77] Creating layer relu4_1
I0605 13:21:52.021656 11284 net.cpp:106] Creating Layer relu4_1
I0605 13:21:52.021669 11284 net.cpp:454] relu4_1 <- conv4_1
I0605 13:21:52.021674 11284 net.cpp:397] relu4_1 -> conv4_1 (in-place)
I0605 13:21:52.021814 11284 net.cpp:150] Setting up relu4_1
I0605 13:21:52.021821 11284 net.cpp:157] Top shape: 1 512 75 125 (4800000)
I0605 13:21:52.021822 11284 net.cpp:165] Memory required for data: 1279200108
I0605 13:21:52.021826 11284 layer_factory.hpp:77] Creating layer conv4_2
I0605 13:21:52.021831 11284 net.cpp:106] Creating Layer conv4_2
I0605 13:21:52.021834 11284 net.cpp:454] conv4_2 <- conv4_1
I0605 13:21:52.021837 11284 net.cpp:411] conv4_2 -> conv4_2
I0605 13:21:52.026520 11284 net.cpp:150] Setting up conv4_2
I0605 13:21:52.026536 11284 net.cpp:157] Top shape: 1 512 75 125 (4800000)
I0605 13:21:52.026540 11284 net.cpp:165] Memory required for data: 1298400108
I0605 13:21:52.026551 11284 layer_factory.hpp:77] Creating layer relu4_2
I0605 13:21:52.026569 11284 net.cpp:106] Creating Layer relu4_2
I0605 13:21:52.026573 11284 net.cpp:454] relu4_2 <- conv4_2
I0605 13:21:52.026577 11284 net.cpp:397] relu4_2 -> conv4_2 (in-place)
I0605 13:21:52.027137 11284 net.cpp:150] Setting up relu4_2
I0605 13:21:52.027144 11284 net.cpp:157] Top shape: 1 512 75 125 (4800000)
I0605 13:21:52.027158 11284 net.cpp:165] Memory required for data: 1317600108
I0605 13:21:52.027159 11284 layer_factory.hpp:77] Creating layer conv4_3
I0605 13:21:52.027168 11284 net.cpp:106] Creating Layer conv4_3
I0605 13:21:52.027169 11284 net.cpp:454] conv4_3 <- conv4_2
I0605 13:21:52.027174 11284 net.cpp:411] conv4_3 -> conv4_3
I0605 13:21:52.031755 11284 net.cpp:150] Setting up conv4_3
I0605 13:21:52.031775 11284 net.cpp:157] Top shape: 1 512 75 125 (4800000)
I0605 13:21:52.031778 11284 net.cpp:165] Memory required for data: 1336800108
I0605 13:21:52.031785 11284 layer_factory.hpp:77] Creating layer relu4_3
I0605 13:21:52.031795 11284 net.cpp:106] Creating Layer relu4_3
I0605 13:21:52.031808 11284 net.cpp:454] relu4_3 <- conv4_3
I0605 13:21:52.031813 11284 net.cpp:397] relu4_3 -> conv4_3 (in-place)
I0605 13:21:52.031950 11284 net.cpp:150] Setting up relu4_3
I0605 13:21:52.031956 11284 net.cpp:157] Top shape: 1 512 75 125 (4800000)
I0605 13:21:52.031958 11284 net.cpp:165] Memory required for data: 1356000108
I0605 13:21:52.031960 11284 layer_factory.hpp:77] Creating layer pool4
I0605 13:21:52.031966 11284 net.cpp:106] Creating Layer pool4
I0605 13:21:52.031968 11284 net.cpp:454] pool4 <- conv4_3
I0605 13:21:52.031971 11284 net.cpp:411] pool4 -> pool4
I0605 13:21:52.032017 11284 net.cpp:150] Setting up pool4
I0605 13:21:52.032022 11284 net.cpp:157] Top shape: 1 512 38 63 (1225728)
I0605 13:21:52.032034 11284 net.cpp:165] Memory required for data: 1360903020
I0605 13:21:52.032037 11284 layer_factory.hpp:77] Creating layer conv5_1
I0605 13:21:52.032043 11284 net.cpp:106] Creating Layer conv5_1
I0605 13:21:52.032047 11284 net.cpp:454] conv5_1 <- pool4
I0605 13:21:52.032049 11284 net.cpp:411] conv5_1 -> conv5_1
I0605 13:21:52.036267 11284 net.cpp:150] Setting up conv5_1
I0605 13:21:52.036289 11284 net.cpp:157] Top shape: 1 512 38 63 (1225728)
I0605 13:21:52.036293 11284 net.cpp:165] Memory required for data: 1365805932
I0605 13:21:52.036299 11284 layer_factory.hpp:77] Creating layer relu5_1
I0605 13:21:52.036307 11284 net.cpp:106] Creating Layer relu5_1
I0605 13:21:52.036311 11284 net.cpp:454] relu5_1 <- conv5_1
I0605 13:21:52.036326 11284 net.cpp:397] relu5_1 -> conv5_1 (in-place)
I0605 13:21:52.036474 11284 net.cpp:150] Setting up relu5_1
I0605 13:21:52.036481 11284 net.cpp:157] Top shape: 1 512 38 63 (1225728)
I0605 13:21:52.036484 11284 net.cpp:165] Memory required for data: 1370708844
I0605 13:21:52.036485 11284 layer_factory.hpp:77] Creating layer conv5_2
I0605 13:21:52.036492 11284 net.cpp:106] Creating Layer conv5_2
I0605 13:21:52.036494 11284 net.cpp:454] conv5_2 <- conv5_1
I0605 13:21:52.036499 11284 net.cpp:411] conv5_2 -> conv5_2
I0605 13:21:52.040678 11284 net.cpp:150] Setting up conv5_2
I0605 13:21:52.040697 11284 net.cpp:157] Top shape: 1 512 38 63 (1225728)
I0605 13:21:52.040699 11284 net.cpp:165] Memory required for data: 1375611756
I0605 13:21:52.040706 11284 layer_factory.hpp:77] Creating layer relu5_2
I0605 13:21:52.040714 11284 net.cpp:106] Creating Layer relu5_2
I0605 13:21:52.040729 11284 net.cpp:454] relu5_2 <- conv5_2
I0605 13:21:52.040733 11284 net.cpp:397] relu5_2 -> conv5_2 (in-place)
I0605 13:21:52.040879 11284 net.cpp:150] Setting up relu5_2
I0605 13:21:52.040885 11284 net.cpp:157] Top shape: 1 512 38 63 (1225728)
I0605 13:21:52.040887 11284 net.cpp:165] Memory required for data: 1380514668
I0605 13:21:52.040890 11284 layer_factory.hpp:77] Creating layer conv5_3
I0605 13:21:52.040899 11284 net.cpp:106] Creating Layer conv5_3
I0605 13:21:52.040912 11284 net.cpp:454] conv5_3 <- conv5_2
I0605 13:21:52.040920 11284 net.cpp:411] conv5_3 -> conv5_3
I0605 13:21:52.045167 11284 net.cpp:150] Setting up conv5_3
I0605 13:21:52.045187 11284 net.cpp:157] Top shape: 1 512 38 63 (1225728)
I0605 13:21:52.045190 11284 net.cpp:165] Memory required for data: 1385417580
I0605 13:21:52.045197 11284 layer_factory.hpp:77] Creating layer relu5_3
I0605 13:21:52.045205 11284 net.cpp:106] Creating Layer relu5_3
I0605 13:21:52.045209 11284 net.cpp:454] relu5_3 <- conv5_3
I0605 13:21:52.045223 11284 net.cpp:397] relu5_3 -> conv5_3 (in-place)
I0605 13:21:52.045362 11284 net.cpp:150] Setting up relu5_3
I0605 13:21:52.045368 11284 net.cpp:157] Top shape: 1 512 38 63 (1225728)
I0605 13:21:52.045370 11284 net.cpp:165] Memory required for data: 1390320492
I0605 13:21:52.045373 11284 layer_factory.hpp:77] Creating layer conv5_3_relu5_3_0_split
I0605 13:21:52.045388 11284 net.cpp:106] Creating Layer conv5_3_relu5_3_0_split
I0605 13:21:52.045392 11284 net.cpp:454] conv5_3_relu5_3_0_split <- conv5_3
I0605 13:21:52.045397 11284 net.cpp:411] conv5_3_relu5_3_0_split -> conv5_3_relu5_3_0_split_0
I0605 13:21:52.045403 11284 net.cpp:411] conv5_3_relu5_3_0_split -> conv5_3_relu5_3_0_split_1
I0605 13:21:52.045406 11284 net.cpp:411] conv5_3_relu5_3_0_split -> conv5_3_relu5_3_0_split_2
I0605 13:21:52.045471 11284 net.cpp:150] Setting up conv5_3_relu5_3_0_split
I0605 13:21:52.045476 11284 net.cpp:157] Top shape: 1 512 38 63 (1225728)
I0605 13:21:52.045480 11284 net.cpp:157] Top shape: 1 512 38 63 (1225728)
I0605 13:21:52.045492 11284 net.cpp:157] Top shape: 1 512 38 63 (1225728)
I0605 13:21:52.045495 11284 net.cpp:165] Memory required for data: 1405029228
I0605 13:21:52.045496 11284 layer_factory.hpp:77] Creating layer rpn_conv/3x3
I0605 13:21:52.045512 11284 net.cpp:106] Creating Layer rpn_conv/3x3
I0605 13:21:52.045516 11284 net.cpp:454] rpn_conv/3x3 <- conv5_3_relu5_3_0_split_0
I0605 13:21:52.045529 11284 net.cpp:411] rpn_conv/3x3 -> rpn/output
I0605 13:21:52.095497 11284 net.cpp:150] Setting up rpn_conv/3x3
I0605 13:21:52.095516 11284 net.cpp:157] Top shape: 1 512 38 63 (1225728)
I0605 13:21:52.095518 11284 net.cpp:165] Memory required for data: 1409932140
I0605 13:21:52.095541 11284 layer_factory.hpp:77] Creating layer rpn_relu/3x3
I0605 13:21:52.095548 11284 net.cpp:106] Creating Layer rpn_relu/3x3
I0605 13:21:52.095562 11284 net.cpp:454] rpn_relu/3x3 <- rpn/output
I0605 13:21:52.095568 11284 net.cpp:397] rpn_relu/3x3 -> rpn/output (in-place)
I0605 13:21:52.095700 11284 net.cpp:150] Setting up rpn_relu/3x3
I0605 13:21:52.095707 11284 net.cpp:157] Top shape: 1 512 38 63 (1225728)
I0605 13:21:52.095710 11284 net.cpp:165] Memory required for data: 1414835052
I0605 13:21:52.095712 11284 layer_factory.hpp:77] Creating layer rpn/output_rpn_relu/3x3_0_split
I0605 13:21:52.095716 11284 net.cpp:106] Creating Layer rpn/output_rpn_relu/3x3_0_split
I0605 13:21:52.095718 11284 net.cpp:454] rpn/output_rpn_relu/3x3_0_split <- rpn/output
I0605 13:21:52.095721 11284 net.cpp:411] rpn/output_rpn_relu/3x3_0_split -> rpn/output_rpn_relu/3x3_0_split_0
I0605 13:21:52.095726 11284 net.cpp:411] rpn/output_rpn_relu/3x3_0_split -> rpn/output_rpn_relu/3x3_0_split_1
I0605 13:21:52.095783 11284 net.cpp:150] Setting up rpn/output_rpn_relu/3x3_0_split
I0605 13:21:52.095798 11284 net.cpp:157] Top shape: 1 512 38 63 (1225728)
I0605 13:21:52.095799 11284 net.cpp:157] Top shape: 1 512 38 63 (1225728)
I0605 13:21:52.095801 11284 net.cpp:165] Memory required for data: 1424640876
I0605 13:21:52.095803 11284 layer_factory.hpp:77] Creating layer rpn_cls_score
I0605 13:21:52.095821 11284 net.cpp:106] Creating Layer rpn_cls_score
I0605 13:21:52.095824 11284 net.cpp:454] rpn_cls_score <- rpn/output_rpn_relu/3x3_0_split_0
I0605 13:21:52.095841 11284 net.cpp:411] rpn_cls_score -> rpn_cls_score
I0605 13:21:52.097451 11284 net.cpp:150] Setting up rpn_cls_score
I0605 13:21:52.097460 11284 net.cpp:157] Top shape: 1 30 38 63 (71820)
I0605 13:21:52.097462 11284 net.cpp:165] Memory required for data: 1424928156
I0605 13:21:52.097467 11284 layer_factory.hpp:77] Creating layer rpn_cls_score_rpn_cls_score_0_split
I0605 13:21:52.097471 11284 net.cpp:106] Creating Layer rpn_cls_score_rpn_cls_score_0_split
I0605 13:21:52.097473 11284 net.cpp:454] rpn_cls_score_rpn_cls_score_0_split <- rpn_cls_score
I0605 13:21:52.097477 11284 net.cpp:411] rpn_cls_score_rpn_cls_score_0_split -> rpn_cls_score_rpn_cls_score_0_split_0
I0605 13:21:52.097492 11284 net.cpp:411] rpn_cls_score_rpn_cls_score_0_split -> rpn_cls_score_rpn_cls_score_0_split_1
I0605 13:21:52.097550 11284 net.cpp:150] Setting up rpn_cls_score_rpn_cls_score_0_split
I0605 13:21:52.097554 11284 net.cpp:157] Top shape: 1 30 38 63 (71820)
I0605 13:21:52.097556 11284 net.cpp:157] Top shape: 1 30 38 63 (71820)
I0605 13:21:52.097558 11284 net.cpp:165] Memory required for data: 1425502716
I0605 13:21:52.097571 11284 layer_factory.hpp:77] Creating layer rpn_bbox_pred
I0605 13:21:52.097577 11284 net.cpp:106] Creating Layer rpn_bbox_pred
I0605 13:21:52.097580 11284 net.cpp:454] rpn_bbox_pred <- rpn/output_rpn_relu/3x3_0_split_1
I0605 13:21:52.097594 11284 net.cpp:411] rpn_bbox_pred -> rpn_bbox_pred
I0605 13:21:52.099072 11284 net.cpp:150] Setting up rpn_bbox_pred
I0605 13:21:52.099081 11284 net.cpp:157] Top shape: 1 60 38 63 (143640)
I0605 13:21:52.099082 11284 net.cpp:165] Memory required for data: 1426077276
I0605 13:21:52.099086 11284 layer_factory.hpp:77] Creating layer rpn_bbox_pred_rpn_bbox_pred_0_split
I0605 13:21:52.099090 11284 net.cpp:106] Creating Layer rpn_bbox_pred_rpn_bbox_pred_0_split
I0605 13:21:52.099093 11284 net.cpp:454] rpn_bbox_pred_rpn_bbox_pred_0_split <- rpn_bbox_pred
I0605 13:21:52.099098 11284 net.cpp:411] rpn_bbox_pred_rpn_bbox_pred_0_split -> rpn_bbox_pred_rpn_bbox_pred_0_split_0
I0605 13:21:52.099113 11284 net.cpp:411] rpn_bbox_pred_rpn_bbox_pred_0_split -> rpn_bbox_pred_rpn_bbox_pred_0_split_1
I0605 13:21:52.099159 11284 net.cpp:150] Setting up rpn_bbox_pred_rpn_bbox_pred_0_split
I0605 13:21:52.099174 11284 net.cpp:157] Top shape: 1 60 38 63 (143640)
I0605 13:21:52.099176 11284 net.cpp:157] Top shape: 1 60 38 63 (143640)
I0605 13:21:52.099179 11284 net.cpp:165] Memory required for data: 1427226396
I0605 13:21:52.099190 11284 layer_factory.hpp:77] Creating layer rpn_cls_score_reshape
I0605 13:21:52.099195 11284 net.cpp:106] Creating Layer rpn_cls_score_reshape
I0605 13:21:52.099197 11284 net.cpp:454] rpn_cls_score_reshape <- rpn_cls_score_rpn_cls_score_0_split_0
I0605 13:21:52.099201 11284 net.cpp:411] rpn_cls_score_reshape -> rpn_cls_score_reshape
I0605 13:21:52.099239 11284 net.cpp:150] Setting up rpn_cls_score_reshape
I0605 13:21:52.099243 11284 net.cpp:157] Top shape: 1 2 570 63 (71820)
I0605 13:21:52.099246 11284 net.cpp:165] Memory required for data: 1427513676
I0605 13:21:52.099247 11284 layer_factory.hpp:77] Creating layer rpn_cls_score_reshape_rpn_cls_score_reshape_0_split
I0605 13:21:52.099251 11284 net.cpp:106] Creating Layer rpn_cls_score_reshape_rpn_cls_score_reshape_0_split
I0605 13:21:52.099253 11284 net.cpp:454] rpn_cls_score_reshape_rpn_cls_score_reshape_0_split <- rpn_cls_score_reshape
I0605 13:21:52.099256 11284 net.cpp:411] rpn_cls_score_reshape_rpn_cls_score_reshape_0_split -> rpn_cls_score_reshape_rpn_cls_score_reshape_0_split_0
I0605 13:21:52.099261 11284 net.cpp:411] rpn_cls_score_reshape_rpn_cls_score_reshape_0_split -> rpn_cls_score_reshape_rpn_cls_score_reshape_0_split_1
I0605 13:21:52.099292 11284 net.cpp:150] Setting up rpn_cls_score_reshape_rpn_cls_score_reshape_0_split
I0605 13:21:52.099295 11284 net.cpp:157] Top shape: 1 2 570 63 (71820)
I0605 13:21:52.099308 11284 net.cpp:157] Top shape: 1 2 570 63 (71820)
I0605 13:21:52.099309 11284 net.cpp:165] Memory required for data: 1428088236
I0605 13:21:52.099311 11284 layer_factory.hpp:77] Creating layer rpn-data
I0605 13:21:52.100253 11284 net.cpp:106] Creating Layer rpn-data
I0605 13:21:52.100261 11284 net.cpp:454] rpn-data <- rpn_cls_score_rpn_cls_score_0_split_1
I0605 13:21:52.100266 11284 net.cpp:454] rpn-data <- gt_boxes_input-data_2_split_0
I0605 13:21:52.100270 11284 net.cpp:454] rpn-data <- im_info_input-data_1_split_0
I0605 13:21:52.100273 11284 net.cpp:454] rpn-data <- data_input-data_0_split_1
I0605 13:21:52.100277 11284 net.cpp:411] rpn-data -> rpn_labels
I0605 13:21:52.100282 11284 net.cpp:411] rpn-data -> rpn_bbox_targets
I0605 13:21:52.100287 11284 net.cpp:411] rpn-data -> rpn_bbox_inside_weights
I0605 13:21:52.100292 11284 net.cpp:411] rpn-data -> rpn_bbox_outside_weights
===================================anchor_scales in AnchorTargetLayer:=============(2, 4, 8, 16, 32)
I0605 13:21:52.101133 11284 net.cpp:150] Setting up rpn-data
I0605 13:21:52.101142 11284 net.cpp:157] Top shape: 1 1 570 63 (35910)
I0605 13:21:52.101145 11284 net.cpp:157] Top shape: 1 60 38 63 (143640)
I0605 13:21:52.101147 11284 net.cpp:157] Top shape: 1 60 38 63 (143640)
I0605 13:21:52.101150 11284 net.cpp:157] Top shape: 1 60 38 63 (143640)
I0605 13:21:52.101152 11284 net.cpp:165] Memory required for data: 1429955556
I0605 13:21:52.101155 11284 layer_factory.hpp:77] Creating layer rpn_loss_cls
I0605 13:21:52.101161 11284 net.cpp:106] Creating Layer rpn_loss_cls
I0605 13:21:52.101163 11284 net.cpp:454] rpn_loss_cls <- rpn_cls_score_reshape_rpn_cls_score_reshape_0_split_0
I0605 13:21:52.101168 11284 net.cpp:454] rpn_loss_cls <- rpn_labels
…
I0605 13:21:52.102928 11284 net.cpp:157] Top shape: (1)
I0605 13:21:52.102931 11284 net.cpp:160]     with loss weight 1
I0605 13:21:52.102934 11284 net.cpp:165] Memory required for data: 1429955564
I0605 13:21:52.102937 11284 layer_factory.hpp:77] Creating layer rpn_cls_prob
I0605 13:21:52.102941 11284 net.cpp:106] Creating Layer rpn_cls_prob
I0605 13:21:52.102943 11284 net.cpp:454] rpn_cls_prob <- rpn_cls_score_reshape_rpn_cls_score_reshape_0_split_1
I0605 13:21:52.102947 11284 net.cpp:411] rpn_cls_prob -> rpn_cls_prob
I0605 13:21:52.103119 11284 net.cpp:150] Setting up rpn_cls_prob
I0605 13:21:52.103127 11284 net.cpp:157] Top shape: 1 2 570 63 (71820)
I0605 13:21:52.103128 11284 net.cpp:165] Memory required for data: 1430242844
I0605 13:21:52.103132 11284 layer_factory.hpp:77] Creating layer rpn_cls_prob_reshape
I0605 13:21:52.103135 11284 net.cpp:106] Creating Layer rpn_cls_prob_reshape
I0605 13:21:52.103137 11284 net.cpp:454] rpn_cls_prob_reshape <- rpn_cls_prob
I0605 13:21:52.103142 11284 net.cpp:411] rpn_cls_prob_reshape -> rpn_cls_prob_reshape
I0605 13:21:52.103168 11284 net.cpp:150] Setting up rpn_cls_prob_reshape
I0605 13:21:52.103181 11284 net.cpp:157] Top shape: 1 30 38 63 (71820)
I0605 13:21:52.103183 11284 net.cpp:165] Memory required for data: 1430530124
I0605 13:21:52.103185 11284 layer_factory.hpp:77] Creating layer proposal
I0605 13:21:52.104180 11284 net.cpp:106] Creating Layer proposal
I0605 13:21:52.104188 11284 net.cpp:454] proposal <- rpn_cls_prob_reshape
I0605 13:21:52.104192 11284 net.cpp:454] proposal <- rpn_bbox_pred_rpn_bbox_pred_0_split_1
I0605 13:21:52.104194 11284 net.cpp:454] proposal <- im_info_input-data_1_split_1
I0605 13:21:52.104198 11284 net.cpp:411] proposal -> rpn_rois
=================================anchor_scales in ProposalLayer:=============(2, 4, 8, 16, 32)
I0605 13:21:52.104962 11284 net.cpp:150] Setting up proposal
I0605 13:21:52.104971 11284 net.cpp:157] Top shape: 1 5 (5)
I0605 13:21:52.104974 11284 net.cpp:165] Memory required for data: 1430530144
I0605 13:21:52.104976 11284 layer_factory.hpp:77] Creating layer roi-data
I0605 13:21:52.107414 11284 net.cpp:106] Creating Layer roi-data
I0605 13:21:52.107421 11284 net.cpp:454] roi-data <- rpn_rois
I0605 13:21:52.107425 11284 net.cpp:454] roi-data <- gt_boxes_input-data_2_split_1
I0605 13:21:52.107429 11284 net.cpp:454] roi-data <- im_info_input-data_1_split_2
I0605 13:21:52.107431 11284 net.cpp:454] roi-data <- seg_mask_inds
I0605 13:21:52.107434 11284 net.cpp:454] roi-data <- flipped
I0605 13:21:52.107450 11284 net.cpp:411] roi-data -> rois
I0605 13:21:52.107455 11284 net.cpp:411] roi-data -> labels
I0605 13:21:52.107460 11284 net.cpp:411] roi-data -> bbox_targets
I0605 13:21:52.107475 11284 net.cpp:411] roi-data -> bbox_inside_weights
I0605 13:21:52.107481 11284 net.cpp:411] roi-data -> bbox_outside_weights
I0605 13:21:52.107486 11284 net.cpp:411] roi-data -> mask_targets
I0605 13:21:52.107491 11284 net.cpp:411] roi-data -> rois_pos
I0605 13:21:52.107497 11284 net.cpp:411] roi-data -> rois_attribute
I0605 13:21:52.107790 11284 net.cpp:150] Setting up roi-data
I0605 13:21:52.107798 11284 net.cpp:157] Top shape: 1 5 (5)
I0605 13:21:52.107801 11284 net.cpp:157] Top shape: 1 1 (1)
I0605 13:21:52.107805 11284 net.cpp:157] Top shape: 1 8 (8)
I0605 13:21:52.107806 11284 net.cpp:157] Top shape: 1 8 (8)
I0605 13:21:52.107810 11284 net.cpp:157] Top shape: 1 8 (8)
I0605 13:21:52.107811 11284 net.cpp:157] Top shape: 1 244 244 (59536)
I0605 13:21:52.107825 11284 net.cpp:157] Top shape: 1 5 (5)
I0605 13:21:52.107828 11284 net.cpp:157] Top shape: 1 20 (20)
I0605 13:21:52.107831 11284 net.cpp:165] Memory required for data: 1430768508
I0605 13:21:52.107833 11284 layer_factory.hpp:77] Creating layer roi_pool5
I0605 13:21:52.107851 11284 net.cpp:106] Creating Layer roi_pool5
I0605 13:21:52.107856 11284 net.cpp:454] roi_pool5 <- conv5_3_relu5_3_0_split_1
I0605 13:21:52.107859 11284 net.cpp:454] roi_pool5 <- rois
I0605 13:21:52.107864 11284 net.cpp:411] roi_pool5 -> pool5
I0605 13:21:52.107870 11284 roi_alignment_layer.cpp:32] Spatial scale: 0.0625
I0605 13:21:52.107964 11284 net.cpp:150] Setting up roi_pool5
I0605 13:21:52.107969 11284 net.cpp:157] Top shape: 1 512 7 7 (25088)
I0605 13:21:52.107971 11284 net.cpp:165] Memory required for data: 1430868860
I0605 13:21:52.107975 11284 layer_factory.hpp:77] Creating layer fc6
I0605 13:21:52.107981 11284 net.cpp:106] Creating Layer fc6
I0605 13:21:52.107985 11284 net.cpp:454] fc6 <- pool5
I0605 13:21:52.107988 11284 net.cpp:411] fc6 -> fc6
I0605 13:21:52.248075 11284 net.cpp:150] Setting up fc6
I0605 13:21:52.248098 11284 net.cpp:157] Top shape: 1 4096 (4096)
I0605 13:21:52.248102 11284 net.cpp:165] Memory required for data: 1430885244
I0605 13:21:52.248116 11284 layer_factory.hpp:77] Creating layer relu6
I0605 13:21:52.248136 11284 net.cpp:106] Creating Layer relu6
I0605 13:21:52.248140 11284 net.cpp:454] relu6 <- fc6
I0605 13:21:52.248157 11284 net.cpp:397] relu6 -> fc6 (in-place)
I0605 13:21:52.248365 11284 net.cpp:150] Setting up relu6
I0605 13:21:52.248374 11284 net.cpp:157] Top shape: 1 4096 (4096)
I0605 13:21:52.248376 11284 net.cpp:165] Memory required for data: 1430901628
I0605 13:21:52.248379 11284 layer_factory.hpp:77] Creating layer fc7
I0605 13:21:52.248385 11284 net.cpp:106] Creating Layer fc7
I0605 13:21:52.248389 11284 net.cpp:454] fc7 <- fc6
I0605 13:21:52.248391 11284 net.cpp:411] fc7 -> fc7
I0605 13:21:52.272320 11284 net.cpp:150] Setting up fc7
I0605 13:21:52.272344 11284 net.cpp:157] Top shape: 1 4096 (4096)
I0605 13:21:52.272347 11284 net.cpp:165] Memory required for data: 1430918012
I0605 13:21:52.272356 11284 layer_factory.hpp:77] Creating layer relu7
I0605 13:21:52.272363 11284 net.cpp:106] Creating Layer relu7
I0605 13:21:52.272378 11284 net.cpp:454] relu7 <- fc7
I0605 13:21:52.272382 11284 net.cpp:397] relu7 -> fc7 (in-place)
I0605 13:21:52.272570 11284 net.cpp:150] Setting up relu7
I0605 13:21:52.272577 11284 net.cpp:157] Top shape: 1 4096 (4096)
I0605 13:21:52.272579 11284 net.cpp:165] Memory required for data: 1430934396
I0605 13:21:52.272581 11284 layer_factory.hpp:77] Creating layer fc7_relu7_0_split
I0605 13:21:52.272586 11284 net.cpp:106] Creating Layer fc7_relu7_0_split
I0605 13:21:52.272588 11284 net.cpp:454] fc7_relu7_0_split <- fc7
I0605 13:21:52.272591 11284 net.cpp:411] fc7_relu7_0_split -> fc7_relu7_0_split_0
I0605 13:21:52.272610 11284 net.cpp:411] fc7_relu7_0_split -> fc7_relu7_0_split_1
I0605 13:21:52.272665 11284 net.cpp:150] Setting up fc7_relu7_0_split
I0605 13:21:52.272680 11284 net.cpp:157] Top shape: 1 4096 (4096)
I0605 13:21:52.272682 11284 net.cpp:157] Top shape: 1 4096 (4096)
I0605 13:21:52.272684 11284 net.cpp:165] Memory required for data: 1430967164
I0605 13:21:52.272687 11284 layer_factory.hpp:77] Creating layer cls_score
I0605 13:21:52.272703 11284 net.cpp:106] Creating Layer cls_score
I0605 13:21:52.272706 11284 net.cpp:454] cls_score <- fc7_relu7_0_split_0
I0605 13:21:52.272718 11284 net.cpp:411] cls_score -> cls_score
I0605 13:21:52.272977 11284 net.cpp:150] Setting up cls_score
I0605 13:21:52.272982 11284 net.cpp:157] Top shape: 1 2 (2)
I0605 13:21:52.272984 11284 net.cpp:165] Memory required for data: 1430967172
I0605 13:21:52.272987 11284 layer_factory.hpp:77] Creating layer bbox_pred
I0605 13:21:52.272991 11284 net.cpp:106] Creating Layer bbox_pred
I0605 13:21:52.272994 11284 net.cpp:454] bbox_pred <- fc7_relu7_0_split_1
I0605 13:21:52.273008 11284 net.cpp:411] bbox_pred -> bbox_pred
I0605 13:21:52.273823 11284 net.cpp:150] Setting up bbox_pred
I0605 13:21:52.273828 11284 net.cpp:157] Top shape: 1 8 (8)
I0605 13:21:52.273830 11284 net.cpp:165] Memory required for data: 1430967204
I0605 13:21:52.273834 11284 layer_factory.hpp:77] Creating layer loss_cls
I0605 13:21:52.273838 11284 net.cpp:106] Creating Layer loss_cls
I0605 13:21:52.273841 11284 net.cpp:454] loss_cls <- cls_score
I0605 13:21:52.273844 11284 net.cpp:454] loss_cls <- labels
I0605 13:21:52.273857 11284 net.cpp:411] loss_cls -> loss_cls
…
I0605 13:21:52.274667 11284 net.cpp:165] Memory required for data: 1430967212
I0605 13:21:52.274669 11284 layer_factory.hpp:77] Creating layer roi_pool5_2
I0605 13:21:52.274674 11284 net.cpp:106] Creating Layer roi_pool5_2
I0605 13:21:52.274677 11284 net.cpp:454] roi_pool5_2 <- conv5_3_relu5_3_0_split_2
I0605 13:21:52.274679 11284 net.cpp:454] roi_pool5_2 <- rois_pos
I0605 13:21:52.274693 11284 net.cpp:411] roi_pool5_2 -> pool5_2
I0605 13:21:52.274698 11284 roi_alignment_layer.cpp:32] Spatial scale: 0.0625
I0605 13:21:52.274821 11284 net.cpp:150] Setting up roi_pool5_2
I0605 13:21:52.274825 11284 net.cpp:157] Top shape: 1 512 7 7 (25088)
I0605 13:21:52.274838 11284 net.cpp:165] Memory required for data: 1431067564
I0605 13:21:52.274842 11284 layer_factory.hpp:77] Creating layer pool5_2_conv
I0605 13:21:52.274848 11284 net.cpp:106] Creating Layer pool5_2_conv
I0605 13:21:52.274861 11284 net.cpp:454] pool5_2_conv <- pool5_2
I0605 13:21:52.274865 11284 net.cpp:411] pool5_2_conv -> pool5_2_conv
I0605 13:21:52.281332 11284 net.cpp:150] Setting up pool5_2_conv
I0605 13:21:52.281342 11284 net.cpp:157] Top shape: 1 512 7 7 (25088)
I0605 13:21:52.281354 11284 net.cpp:165] Memory required for data: 1431167916
I0605 13:21:52.281359 11284 layer_factory.hpp:77] Creating layer pool5_2_conv_relu
I0605 13:21:52.281373 11284 net.cpp:106] Creating Layer pool5_2_conv_relu
I0605 13:21:52.281375 11284 net.cpp:454] pool5_2_conv_relu <- pool5_2_conv
I0605 13:21:52.281379 11284 net.cpp:411] pool5_2_conv_relu -> pool5_2_conv_relu
I0605 13:21:52.281551 11284 net.cpp:150] Setting up pool5_2_conv_relu
I0605 13:21:52.281558 11284 net.cpp:157] Top shape: 1 512 7 7 (25088)
I0605 13:21:52.281570 11284 net.cpp:165] Memory required for data: 1431268268
I0605 13:21:52.281572 11284 layer_factory.hpp:77] Creating layer pool5_2_conv2
I0605 13:21:52.281594 11284 net.cpp:106] Creating Layer pool5_2_conv2
I0605 13:21:52.281600 11284 net.cpp:454] pool5_2_conv2 <- pool5_2_conv_relu
I0605 13:21:52.281605 11284 net.cpp:411] pool5_2_conv2 -> pool5_2_conv2
I0605 13:21:52.332165 11284 net.cpp:150] Setting up pool5_2_conv2
I0605 13:21:52.332192 11284 net.cpp:157] Top shape: 1 512 7 7 (25088)
I0605 13:21:52.332195 11284 net.cpp:165] Memory required for data: 1431368620
I0605 13:21:52.332203 11284 layer_factory.hpp:77] Creating layer pool5_2_conv2_relu
I0605 13:21:52.332212 11284 net.cpp:106] Creating Layer pool5_2_conv2_relu
I0605 13:21:52.332216 11284 net.cpp:454] pool5_2_conv2_relu <- pool5_2_conv2
I0605 13:21:52.332231 11284 net.cpp:411] pool5_2_conv2_relu -> pool5_2_conv2_relu
I0605 13:21:52.332384 11284 net.cpp:150] Setting up pool5_2_conv2_relu
I0605 13:21:52.332391 11284 net.cpp:157] Top shape: 1 512 7 7 (25088)
I0605 13:21:52.332404 11284 net.cpp:165] Memory required for data: 1431468972
I0605 13:21:52.332406 11284 layer_factory.hpp:77] Creating layer mask_deconv1
I0605 13:21:52.332413 11284 net.cpp:106] Creating Layer mask_deconv1
I0605 13:21:52.332415 11284 net.cpp:454] mask_deconv1 <- pool5_2_conv2_relu
I0605 13:21:52.332420 11284 net.cpp:411] mask_deconv1 -> mask_deconv1
I0605 13:21:52.333262 11284 net.cpp:150] Setting up mask_deconv1
I0605 13:21:52.333268 11284 net.cpp:157] Top shape: 1 256 30 30 (230400)
I0605 13:21:52.333281 11284 net.cpp:165] Memory required for data: 1432390572
I0605 13:21:52.333284 11284 layer_factory.hpp:77] Creating layer pool5_2_conv3
I0605 13:21:52.333292 11284 net.cpp:106] Creating Layer pool5_2_conv3
I0605 13:21:52.333294 11284 net.cpp:454] pool5_2_conv3 <- mask_deconv1
I0605 13:21:52.333298 11284 net.cpp:411] pool5_2_conv3 -> pool5_2_conv3
I0605 13:21:52.361444 11284 net.cpp:150] Setting up pool5_2_conv3
I0605 13:21:52.361482 11284 net.cpp:157] Top shape: 1 512 30 30 (460800)
I0605 13:21:52.361485 11284 net.cpp:165] Memory required for data: 1434233772
I0605 13:21:52.361501 11284 layer_factory.hpp:77] Creating layer pool5_2_conv3_relu
I0605 13:21:52.361519 11284 net.cpp:106] Creating Layer pool5_2_conv3_relu
I0605 13:21:52.361523 11284 net.cpp:454] pool5_2_conv3_relu <- pool5_2_conv3
I0605 13:21:52.361528 11284 net.cpp:411] pool5_2_conv3_relu -> pool5_2_conv3_relu
I0605 13:21:52.361764 11284 net.cpp:150] Setting up pool5_2_conv3_relu
I0605 13:21:52.361780 11284 net.cpp:157] Top shape: 1 512 30 30 (460800)
I0605 13:21:52.361783 11284 net.cpp:165] Memory required for data: 1436076972
I0605 13:21:52.361798 11284 layer_factory.hpp:77] Creating layer pool5_2_conv4
I0605 13:21:52.361806 11284 net.cpp:106] Creating Layer pool5_2_conv4
I0605 13:21:52.361809 11284 net.cpp:454] pool5_2_conv4 <- pool5_2_conv3_relu
I0605 13:21:52.361814 11284 net.cpp:411] pool5_2_conv4 -> pool5_2_conv4
I0605 13:21:52.411495 11284 net.cpp:150] Setting up pool5_2_conv4
I0605 13:21:52.411512 11284 net.cpp:157] Top shape: 1 512 30 30 (460800)
I0605 13:21:52.411515 11284 net.cpp:165] Memory required for data: 1437920172
I0605 13:21:52.411521 11284 layer_factory.hpp:77] Creating layer pool5_2_conv4_relu
I0605 13:21:52.411530 11284 net.cpp:106] Creating Layer pool5_2_conv4_relu
I0605 13:21:52.411533 11284 net.cpp:454] pool5_2_conv4_relu <- pool5_2_conv4
I0605 13:21:52.411550 11284 net.cpp:411] pool5_2_conv4_relu -> pool5_2_conv4_relu
I0605 13:21:52.411684 11284 net.cpp:150] Setting up pool5_2_conv4_relu
I0605 13:21:52.411691 11284 net.cpp:157] Top shape: 1 512 30 30 (460800)
I0605 13:21:52.411693 11284 net.cpp:165] Memory required for data: 1439763372
I0605 13:21:52.411695 11284 layer_factory.hpp:77] Creating layer pool5_2_conv4_relu_pool5_2_conv4_relu_0_split
I0605 13:21:52.411700 11284 net.cpp:106] Creating Layer pool5_2_conv4_relu_pool5_2_conv4_relu_0_split
I0605 13:21:52.411702 11284 net.cpp:454] pool5_2_conv4_relu_pool5_2_conv4_relu_0_split <- pool5_2_conv4_relu
…
I0605 13:21:52.411736 11284 net.cpp:411] pool5_2_conv4_relu_pool5_2_conv4_relu_0_split -> pool5_2_conv4_relu_pool5_2_conv4_relu_0_split_4
I0605 13:21:52.411739 11284 net.cpp:411] pool5_2_conv4_relu_pool5_2_conv4_relu_0_split -> pool5_2_conv4_relu_pool5_2_conv4_relu_0_split_5
I0605 13:21:52.411744 11284 net.cpp:411] pool5_2_conv4_relu_pool5_2_conv4_relu_0_split -> pool5_2_conv4_relu_pool5_2_conv4_relu_0_split_6
I0605 13:21:52.411747 11284 net.cpp:411] pool5_2_conv4_relu_pool5_2_conv4_relu_0_split -> pool5_2_conv4_relu_pool5_2_conv4_relu_0_split_7
I0605 13:21:52.411825 11284 net.cpp:150] Setting up pool5_2_conv4_relu_pool5_2_conv4_relu_0_split
I0605 13:21:52.411829 11284 net.cpp:157] Top shape: 1 512 30 30 (460800)
I0605 13:21:52.411831 11284 net.cpp:157] Top shape: 1 512 30 30 (460800)
I0605 13:21:52.411834 11284 net.cpp:157] Top shape: 1 512 30 30 (460800)
I0605 13:21:52.411836 11284 net.cpp:157] Top shape: 1 512 30 30 (460800)
I0605 13:21:52.411839 11284 net.cpp:157] Top shape: 1 512 30 30 (460800)
I0605 13:21:52.411841 11284 net.cpp:157] Top shape: 1 512 30 30 (460800)
I0605 13:21:52.411844 11284 net.cpp:157] Top shape: 1 512 30 30 (460800)
I0605 13:21:52.411846 11284 net.cpp:157] Top shape: 1 512 30 30 (460800)
I0605 13:21:52.411849 11284 net.cpp:165] Memory required for data: 1454508972
I0605 13:21:52.411860 11284 layer_factory.hpp:77] Creating layer query_conv
I0605 13:21:52.411870 11284 net.cpp:106] Creating Layer query_conv
I0605 13:21:52.411873 11284 net.cpp:454] query_conv <- pool5_2_conv4_relu_pool5_2_conv4_relu_0_split_0
I0605 13:21:52.411878 11284 net.cpp:411] query_conv -> query_conv
I0605 13:21:52.413389 11284 net.cpp:150] Setting up query_conv
I0605 13:21:52.413398 11284 net.cpp:157] Top shape: 1 64 30 30 (57600)
I0605 13:21:52.413400 11284 net.cpp:165] Memory required for data: 1454739372
I0605 13:21:52.413404 11284 layer_factory.hpp:77] Creating layer key_conv
I0605 13:21:52.413419 11284 net.cpp:106] Creating Layer key_conv
I0605 13:21:52.413434 11284 net.cpp:454] key_conv <- pool5_2_conv4_relu_pool5_2_conv4_relu_0_split_1
I0605 13:21:52.413439 11284 net.cpp:411] key_conv -> key_conv
I0605 13:21:52.414978 11284 net.cpp:150] Setting up key_conv
I0605 13:21:52.414986 11284 net.cpp:157] Top shape: 1 64 30 30 (57600)
I0605 13:21:52.414989 11284 net.cpp:165] Memory required for data: 1454969772
I0605 13:21:52.414994 11284 layer_factory.hpp:77] Creating layer value_conv
I0605 13:21:52.415000 11284 net.cpp:106] Creating Layer value_conv
I0605 13:21:52.415004 11284 net.cpp:454] value_conv <- pool5_2_conv4_relu_pool5_2_conv4_relu_0_split_2
I0605 13:21:52.415017 11284 net.cpp:411] value_conv -> value_conv
I0605 13:21:52.422062 11284 net.cpp:150] Setting up value_conv
I0605 13:21:52.422077 11284 net.cpp:157] Top shape: 1 512 30 30 (460800)
I0605 13:21:52.422080 11284 net.cpp:165] Memory required for data: 1456812972
I0605 13:21:52.422086 11284 layer_factory.hpp:77] Creating layer query_conv_reshape
I0605 13:21:52.422093 11284 net.cpp:106] Creating Layer query_conv_reshape
I0605 13:21:52.422097 11284 net.cpp:454] query_conv_reshape <- query_conv
I0605 13:21:52.422101 11284 net.cpp:411] query_conv_reshape -> query_conv_reshape
I0605 13:21:52.422143 11284 net.cpp:150] Setting up query_conv_reshape
I0605 13:21:52.422148 11284 net.cpp:157] Top shape: 1 64 900 1 (57600)
I0605 13:21:52.422160 11284 net.cpp:165] Memory required for data: 1457043372
I0605 13:21:52.422163 11284 layer_factory.hpp:77] Creating layer key_conv_reshape
I0605 13:21:52.422168 11284 net.cpp:106] Creating Layer key_conv_reshape
I0605 13:21:52.422170 11284 net.cpp:454] key_conv_reshape <- key_conv
I0605 13:21:52.422174 11284 net.cpp:411] key_conv_reshape -> key_conv_reshape
I0605 13:21:52.422189 11284 net.cpp:150] Setting up key_conv_reshape
I0605 13:21:52.422204 11284 net.cpp:157] Top shape: 1 64 900 1 (57600)
I0605 13:21:52.422204 11284 net.cpp:165] Memory required for data: 1457273772
I0605 13:21:52.422206 11284 layer_factory.hpp:77] Creating layer value_conv_reshape
I0605 13:21:52.422210 11284 net.cpp:106] Creating Layer value_conv_reshape
I0605 13:21:52.422222 11284 net.cpp:454] value_conv_reshape <- value_conv
I0605 13:21:52.422226 11284 net.cpp:411] value_conv_reshape -> value_conv_reshape
I0605 13:21:52.422250 11284 net.cpp:150] Setting up value_conv_reshape
I0605 13:21:52.422262 11284 net.cpp:157] Top shape: 1 512 900 1 (460800)
I0605 13:21:52.422264 11284 net.cpp:165] Memory required for data: 1459116972
I0605 13:21:52.422266 11284 layer_factory.hpp:77] Creating layer query_conv_reshape_perm
I0605 13:21:52.422276 11284 net.cpp:106] Creating Layer query_conv_reshape_perm
I0605 13:21:52.422281 11284 net.cpp:454] query_conv_reshape_perm <- query_conv_reshape
I0605 13:21:52.422283 11284 net.cpp:411] query_conv_reshape_perm -> query_conv_reshape_perm
I0605 13:21:52.422358 11284 net.cpp:150] Setting up query_conv_reshape_perm
I0605 13:21:52.422361 11284 net.cpp:157] Top shape: 1 1 900 64 (57600)
I0605 13:21:52.422363 11284 net.cpp:165] Memory required for data: 1459347372
I0605 13:21:52.422376 11284 layer_factory.hpp:77] Creating layer key_conv_reshape_perm
I0605 13:21:52.422381 11284 net.cpp:106] Creating Layer key_conv_reshape_perm
I0605 13:21:52.422384 11284 net.cpp:454] key_conv_reshape_perm <- key_conv_reshape
I0605 13:21:52.422387 11284 net.cpp:411] key_conv_reshape_perm -> key_conv_reshape_perm
I0605 13:21:52.422457 11284 net.cpp:150] Setting up key_conv_reshape_perm
I0605 13:21:52.422461 11284 net.cpp:157] Top shape: 1 1 64 900 (57600)
I0605 13:21:52.422463 11284 net.cpp:165] Memory required for data: 1459577772
I0605 13:21:52.422466 11284 layer_factory.hpp:77] Creating layer energy
I0605 13:21:52.422468 11284 net.cpp:106] Creating Layer energy
I0605 13:21:52.422472 11284 net.cpp:454] energy <- query_conv_reshape_perm
I0605 13:21:52.422474 11284 net.cpp:454] energy <- key_conv_reshape_perm
I0605 13:21:52.422478 11284 net.cpp:411] energy -> energy
I0605 13:21:52.422502 11284 net.cpp:150] Setting up energy
I0605 13:21:52.422516 11284 net.cpp:157] Top shape: 1 1 900 900 (810000)
I0605 13:21:52.422518 11284 net.cpp:165] Memory required for data: 1462817772
I0605 13:21:52.422520 11284 layer_factory.hpp:77] Creating layer attention
I0605 13:21:52.422534 11284 net.cpp:106] Creating Layer attention
I0605 13:21:52.422538 11284 net.cpp:454] attention <- energy
I0605 13:21:52.422540 11284 net.cpp:411] attention -> attention
I0605 13:21:52.422703 11284 net.cpp:150] Setting up attention
I0605 13:21:52.422709 11284 net.cpp:157] Top shape: 1 1 900 900 (810000)
I0605 13:21:52.422711 11284 net.cpp:165] Memory required for data: 1466057772
I0605 13:21:52.422713 11284 layer_factory.hpp:77] Creating layer value_conv_reshape_perm
I0605 13:21:52.422718 11284 net.cpp:106] Creating Layer value_conv_reshape_perm
I0605 13:21:52.422719 11284 net.cpp:454] value_conv_reshape_perm <- value_conv_reshape
I0605 13:21:52.422722 11284 net.cpp:411] value_conv_reshape_perm -> value_conv_reshape_perm
I0605 13:21:52.422808 11284 net.cpp:150] Setting up value_conv_reshape_perm
I0605 13:21:52.422812 11284 net.cpp:157] Top shape: 1 1 512 900 (460800)
I0605 13:21:52.422814 11284 net.cpp:165] Memory required for data: 1467900972
I0605 13:21:52.422816 11284 layer_factory.hpp:77] Creating layer attention_perm
I0605 13:21:52.422821 11284 net.cpp:106] Creating Layer attention_perm
I0605 13:21:52.422823 11284 net.cpp:454] attention_perm <- attention
I0605 13:21:52.422827 11284 net.cpp:411] attention_perm -> attention_perm
I0605 13:21:52.422909 11284 net.cpp:150] Setting up attention_perm
I0605 13:21:52.422912 11284 net.cpp:157] Top shape: 1 1 900 900 (810000)
I0605 13:21:52.422914 11284 net.cpp:165] Memory required for data: 1471140972
I0605 13:21:52.422916 11284 layer_factory.hpp:77] Creating layer out
I0605 13:21:52.422919 11284 net.cpp:106] Creating Layer out
I0605 13:21:52.422921 11284 net.cpp:454] out <- value_conv_reshape_perm
I0605 13:21:52.422924 11284 net.cpp:454] out <- attention_perm
I0605 13:21:52.422929 11284 net.cpp:411] out -> out
I0605 13:21:52.422940 11284 net.cpp:150] Setting up out
I0605 13:21:52.422945 11284 net.cpp:157] Top shape: 1 1 512 900 (460800)
I0605 13:21:52.422946 11284 net.cpp:165] Memory required for data: 1472984172
I0605 13:21:52.422948 11284 layer_factory.hpp:77] Creating layer out_reshape
I0605 13:21:52.422953 11284 net.cpp:106] Creating Layer out_reshape
I0605 13:21:52.422955 11284 net.cpp:454] out_reshape <- out
I0605 13:21:52.422958 11284 net.cpp:411] out_reshape -> out_reshape
I0605 13:21:52.422972 11284 net.cpp:150] Setting up out_reshape
I0605 13:21:52.422976 11284 net.cpp:157] Top shape: 1 512 30 30 (460800)
I0605 13:21:52.422978 11284 net.cpp:165] Memory required for data: 1474827372
I0605 13:21:52.422981 11284 layer_factory.hpp:77] Creating layer out_reshape_scale
I0605 13:21:52.422989 11284 net.cpp:106] Creating Layer out_reshape_scale
I0605 13:21:52.422992 11284 net.cpp:454] out_reshape_scale <- out_reshape
I0605 13:21:52.422996 11284 net.cpp:411] out_reshape_scale -> out_reshape_scale
I0605 13:21:52.423051 11284 net.cpp:150] Setting up out_reshape_scale
I0605 13:21:52.423055 11284 net.cpp:157] Top shape: 1 512 30 30 (460800)
I0605 13:21:52.423058 11284 net.cpp:165] Memory required for data: 1476670572
I0605 13:21:52.423061 11284 layer_factory.hpp:77] Creating layer out_x
I0605 13:21:52.423065 11284 net.cpp:106] Creating Layer out_x
I0605 13:21:52.423069 11284 net.cpp:454] out_x <- out_reshape_scale
I0605 13:21:52.423074 11284 net.cpp:454] out_x <- pool5_2_conv4_relu_pool5_2_conv4_relu_0_split_3
I0605 13:21:52.423076 11284 net.cpp:411] out_x -> out_x
I0605 13:21:52.423092 11284 net.cpp:150] Setting up out_x
I0605 13:21:52.423096 11284 net.cpp:157] Top shape: 1 512 30 30 (460800)
I0605 13:21:52.423099 11284 net.cpp:165] Memory required for data: 1478513772
I0605 13:21:52.423100 11284 layer_factory.hpp:77] Creating layer query_conv_reshape_ch
I0605 13:21:52.423105 11284 net.cpp:106] Creating Layer query_conv_reshape_ch
I0605 13:21:52.423107 11284 net.cpp:454] query_conv_reshape_ch <- pool5_2_conv4_relu_pool5_2_conv4_relu_0_split_4
I0605 13:21:52.423111 11284 net.cpp:411] query_conv_reshape_ch -> query_conv_reshape_ch
I0605 13:21:52.423126 11284 net.cpp:150] Setting up query_conv_reshape_ch
I0605 13:21:52.423131 11284 net.cpp:157] Top shape: 1 512 900 1 (460800)
I0605 13:21:52.423133 11284 net.cpp:165] Memory required for data: 1480356972
I0605 13:21:52.423135 11284 layer_factory.hpp:77] Creating layer key_conv_reshape_ch
I0605 13:21:52.423138 11284 net.cpp:106] Creating Layer key_conv_reshape_ch
I0605 13:21:52.423141 11284 net.cpp:454] key_conv_reshape_ch <- pool5_2_conv4_relu_pool5_2_conv4_relu_0_split_5
I0605 13:21:52.423144 11284 net.cpp:411] key_conv_reshape_ch -> key_conv_reshape_ch
I0605 13:21:52.423171 11284 net.cpp:150] Setting up key_conv_reshape_ch
I0605 13:21:52.423175 11284 net.cpp:157] Top shape: 1 512 900 1 (460800)
I0605 13:21:52.423187 11284 net.cpp:165] Memory required for data: 1482200172
I0605 13:21:52.423189 11284 layer_factory.hpp:77] Creating layer value_conv_reshape_ch
I0605 13:21:52.423193 11284 net.cpp:106] Creating Layer value_conv_reshape_ch
I0605 13:21:52.423207 11284 net.cpp:454] value_conv_reshape_ch <- pool5_2_conv4_relu_pool5_2_conv4_relu_0_split_6
I0605 13:21:52.423209 11284 net.cpp:411] value_conv_reshape_ch -> value_conv_reshape_ch
I0605 13:21:52.423225 11284 net.cpp:150] Setting up value_conv_reshape_ch
I0605 13:21:52.423229 11284 net.cpp:157] Top shape: 1 512 900 1 (460800)
I0605 13:21:52.423231 11284 net.cpp:165] Memory required for data: 1484043372
I0605 13:21:52.423243 11284 layer_factory.hpp:77] Creating layer query_conv_reshape_perm_ch
I0605 13:21:52.423247 11284 net.cpp:106] Creating Layer query_conv_reshape_perm_ch
I0605 13:21:52.423250 11284 net.cpp:454] query_conv_reshape_perm_ch <- query_conv_reshape_ch
I0605 13:21:52.423264 11284 net.cpp:411] query_conv_reshape_perm_ch -> query_conv_reshape_perm_ch
I0605 13:21:52.423326 11284 net.cpp:150] Setting up query_conv_reshape_perm_ch
I0605 13:21:52.423329 11284 net.cpp:157] Top shape: 1 1 512 900 (460800)
I0605 13:21:52.423332 11284 net.cpp:165] Memory required for data: 1485886572
I0605 13:21:52.423336 11284 layer_factory.hpp:77] Creating layer key_conv_reshape_perm_ch
I0605 13:21:52.423338 11284 net.cpp:106] Creating Layer key_conv_reshape_perm_ch
I0605 13:21:52.423342 11284 net.cpp:454] key_conv_reshape_perm_ch <- key_conv_reshape_ch
I0605 13:21:52.423346 11284 net.cpp:411] key_conv_reshape_perm_ch -> key_conv_reshape_perm_ch
I0605 13:21:52.423414 11284 net.cpp:150] Setting up key_conv_reshape_perm_ch
I0605 13:21:52.423418 11284 net.cpp:157] Top shape: 1 1 900 512 (460800)
I0605 13:21:52.423420 11284 net.cpp:165] Memory required for data: 1487729772
I0605 13:21:52.423434 11284 layer_factory.hpp:77] Creating layer energy_ch
I0605 13:21:52.423439 11284 net.cpp:106] Creating Layer energy_ch
I0605 13:21:52.423440 11284 net.cpp:454] energy_ch <- query_conv_reshape_perm_ch
I0605 13:21:52.423444 11284 net.cpp:454] energy_ch <- key_conv_reshape_perm_ch
I0605 13:21:52.423449 11284 net.cpp:411] energy_ch -> energy_ch
I0605 13:21:52.423465 11284 net.cpp:150] Setting up energy_ch
I0605 13:21:52.423477 11284 net.cpp:157] Top shape: 1 1 512 512 (262144)
I0605 13:21:52.423480 11284 net.cpp:165] Memory required for data: 1488778348
I0605 13:21:52.423481 11284 layer_factory.hpp:77] Creating layer energy_ch_energy_ch_0_split
I0605 13:21:52.423496 11284 net.cpp:106] Creating Layer energy_ch_energy_ch_0_split
I0605 13:21:52.423501 11284 net.cpp:454] energy_ch_energy_ch_0_split <- energy_ch
I0605 13:21:52.423503 11284 net.cpp:411] energy_ch_energy_ch_0_split -> energy_ch_energy_ch_0_split_0
I0605 13:21:52.423508 11284 net.cpp:411] energy_ch_energy_ch_0_split -> energy_ch_energy_ch_0_split_1
I0605 13:21:52.423532 11284 net.cpp:150] Setting up energy_ch_energy_ch_0_split
I0605 13:21:52.423535 11284 net.cpp:157] Top shape: 1 1 512 512 (262144)
I0605 13:21:52.423538 11284 net.cpp:157] Top shape: 1 1 512 512 (262144)
I0605 13:21:52.423542 11284 net.cpp:165] Memory required for data: 1490875500
I0605 13:21:52.423544 11284 layer_factory.hpp:77] Creating layer energy_ch_pool
I0605 13:21:52.423552 11284 net.cpp:106] Creating Layer energy_ch_pool
I0605 13:21:52.423555 11284 net.cpp:454] energy_ch_pool <- energy_ch_energy_ch_0_split_0
I0605 13:21:52.423558 11284 net.cpp:411] energy_ch_pool -> energy_ch_pool
I0605 13:21:52.423585 11284 net.cpp:150] Setting up energy_ch_pool
I0605 13:21:52.423589 11284 net.cpp:157] Top shape: 1 1 512 1 (512)
I0605 13:21:52.423591 11284 net.cpp:165] Memory required for data: 1490877548
I0605 13:21:52.423595 11284 layer_factory.hpp:77] Creating layer energy_ch_max
I0605 13:21:52.423599 11284 net.cpp:106] Creating Layer energy_ch_max
I0605 13:21:52.423602 11284 net.cpp:454] energy_ch_max <- energy_ch_pool
I0605 13:21:52.423606 11284 net.cpp:411] energy_ch_max -> energy_ch_max
I0605 13:21:52.423622 11284 net.cpp:150] Setting up energy_ch_max
I0605 13:21:52.423626 11284 net.cpp:157] Top shape: 1 1 512 512 (262144)
I0605 13:21:52.423629 11284 net.cpp:165] Memory required for data: 1491926124
I0605 13:21:52.423632 11284 layer_factory.hpp:77] Creating layer energy_ch_minus
I0605 13:21:52.423638 11284 net.cpp:106] Creating Layer energy_ch_minus
I0605 13:21:52.423641 11284 net.cpp:454] energy_ch_minus <- energy_ch_energy_ch_0_split_1
I0605 13:21:52.423645 11284 net.cpp:411] energy_ch_minus -> energy_ch_minus
I0605 13:21:52.423660 11284 net.cpp:150] Setting up energy_ch_minus
I0605 13:21:52.423665 11284 net.cpp:157] Top shape: 1 1 512 512 (262144)
I0605 13:21:52.423666 11284 net.cpp:165] Memory required for data: 1492974700
I0605 13:21:52.423668 11284 layer_factory.hpp:77] Creating layer energy_new
I0605 13:21:52.423674 11284 net.cpp:106] Creating Layer energy_new
I0605 13:21:52.423678 11284 net.cpp:454] energy_new <- energy_ch_max
I0605 13:21:52.423681 11284 net.cpp:454] energy_new <- energy_ch_minus
I0605 13:21:52.423686 11284 net.cpp:411] energy_new -> energy_new
I0605 13:21:52.423702 11284 net.cpp:150] Setting up energy_new
I0605 13:21:52.423704 11284 net.cpp:157] Top shape: 1 1 512 512 (262144)
I0605 13:21:52.423707 11284 net.cpp:165] Memory required for data: 1494023276
I0605 13:21:52.423712 11284 layer_factory.hpp:77] Creating layer attention_ch
I0605 13:21:52.423715 11284 net.cpp:106] Creating Layer attention_ch
I0605 13:21:52.423717 11284 net.cpp:454] attention_ch <- energy_new
I0605 13:21:52.423722 11284 net.cpp:411] attention_ch -> attention_ch
I0605 13:21:52.424262 11284 net.cpp:150] Setting up attention_ch
I0605 13:21:52.424269 11284 net.cpp:157] Top shape: 1 1 512 512 (262144)
I0605 13:21:52.424273 11284 net.cpp:165] Memory required for data: 1495071852
I0605 13:21:52.424276 11284 layer_factory.hpp:77] Creating layer value_conv_reshape_ch_perm
I0605 13:21:52.424283 11284 net.cpp:106] Creating Layer value_conv_reshape_ch_perm
I0605 13:21:52.424288 11284 net.cpp:454] value_conv_reshape_ch_perm <- value_conv_reshape_ch
I0605 13:21:52.424291 11284 net.cpp:411] value_conv_reshape_ch_perm -> value_conv_reshape_ch_perm
I0605 13:21:52.424360 11284 net.cpp:150] Setting up value_conv_reshape_ch_perm
I0605 13:21:52.424365 11284 net.cpp:157] Top shape: 1 1 512 900 (460800)
I0605 13:21:52.424368 11284 net.cpp:165] Memory required for data: 1496915052
I0605 13:21:52.424371 11284 layer_factory.hpp:77] Creating layer attention_ch_perm
I0605 13:21:52.424374 11284 net.cpp:106] Creating Layer attention_ch_perm
I0605 13:21:52.424378 11284 net.cpp:454] attention_ch_perm <- attention_ch
I0605 13:21:52.424382 11284 net.cpp:411] attention_ch_perm -> attention_ch_perm
I0605 13:21:52.424445 11284 net.cpp:150] Setting up attention_ch_perm
I0605 13:21:52.424449 11284 net.cpp:157] Top shape: 1 1 512 512 (262144)
I0605 13:21:52.424451 11284 net.cpp:165] Memory required for data: 1497963628
I0605 13:21:52.424455 11284 layer_factory.hpp:77] Creating layer out_ch
I0605 13:21:52.424458 11284 net.cpp:106] Creating Layer out_ch
I0605 13:21:52.424463 11284 net.cpp:454] out_ch <- attention_ch_perm
I0605 13:21:52.424468 11284 net.cpp:454] out_ch <- value_conv_reshape_ch_perm
I0605 13:21:52.424471 11284 net.cpp:411] out_ch -> out_ch
I0605 13:21:52.424486 11284 net.cpp:150] Setting up out_ch
I0605 13:21:52.424489 11284 net.cpp:157] Top shape: 1 1 512 900 (460800)
I0605 13:21:52.424492 11284 net.cpp:165] Memory required for data: 1499806828
I0605 13:21:52.424495 11284 layer_factory.hpp:77] Creating layer out_ch_reshape
I0605 13:21:52.424500 11284 net.cpp:106] Creating Layer out_ch_reshape
I0605 13:21:52.424504 11284 net.cpp:454] out_ch_reshape <- out_ch
I0605 13:21:52.424510 11284 net.cpp:411] out_ch_reshape -> out_ch_reshape
I0605 13:21:52.424526 11284 net.cpp:150] Setting up out_ch_reshape
I0605 13:21:52.424541 11284 net.cpp:157] Top shape: 1 512 30 30 (460800)
I0605 13:21:52.424543 11284 net.cpp:165] Memory required for data: 1501650028
I0605 13:21:52.424546 11284 layer_factory.hpp:77] Creating layer out_ch_reshape_scale
I0605 13:21:52.424551 11284 net.cpp:106] Creating Layer out_ch_reshape_scale
I0605 13:21:52.424556 11284 net.cpp:454] out_ch_reshape_scale <- out_ch_reshape
I0605 13:21:52.424559 11284 net.cpp:411] out_ch_reshape_scale -> out_ch_reshape_scale
I0605 13:21:52.424626 11284 net.cpp:150] Setting up out_ch_reshape_scale
I0605 13:21:52.424630 11284 net.cpp:157] Top shape: 1 512 30 30 (460800)
I0605 13:21:52.424633 11284 net.cpp:165] Memory required for data: 1503493228
I0605 13:21:52.424638 11284 net.cpp:514] Sharing parameters 'scale_conv1_1' owned by layer 'out_reshape_scale', param index 0
I0605 13:21:52.424640 11284 layer_factory.hpp:77] Creating layer out_ch_x
I0605 13:21:52.424646 11284 net.cpp:106] Creating Layer out_ch_x
I0605 13:21:52.424650 11284 net.cpp:454] out_ch_x <- out_ch_reshape_scale
I0605 13:21:52.424654 11284 net.cpp:454] out_ch_x <- pool5_2_conv4_relu_pool5_2_conv4_relu_0_split_7
I0605 13:21:52.424659 11284 net.cpp:411] out_ch_x -> out_ch_x
I0605 13:21:52.424676 11284 net.cpp:150] Setting up out_ch_x
I0605 13:21:52.424680 11284 net.cpp:157] Top shape: 1 512 30 30 (460800)
I0605 13:21:52.424682 11284 net.cpp:165] Memory required for data: 1505336428
I0605 13:21:52.424685 11284 layer_factory.hpp:77] Creating layer out_conv_ch_x
I0605 13:21:52.424695 11284 net.cpp:106] Creating Layer out_conv_ch_x
I0605 13:21:52.424697 11284 net.cpp:454] out_conv_ch_x <- out_ch_x
I0605 13:21:52.424701 11284 net.cpp:411] out_conv_ch_x -> out_conv_ch_x
I0605 13:21:52.430511 11284 net.cpp:150] Setting up out_conv_ch_x
I0605 13:21:52.430521 11284 net.cpp:157] Top shape: 1 512 30 30 (460800)
I0605 13:21:52.430523 11284 net.cpp:165] Memory required for data: 1507179628
I0605 13:21:52.430529 11284 layer_factory.hpp:77] Creating layer out_conv_x
I0605 13:21:52.430536 11284 net.cpp:106] Creating Layer out_conv_x
I0605 13:21:52.430539 11284 net.cpp:454] out_conv_x <- out_x
I0605 13:21:52.430543 11284 net.cpp:411] out_conv_x -> out_conv_x
I0605 13:21:52.437191 11284 net.cpp:150] Setting up out_conv_x
I0605 13:21:52.437201 11284 net.cpp:157] Top shape: 1 512 30 30 (460800)
I0605 13:21:52.437212 11284 net.cpp:165] Memory required for data: 1509022828
I0605 13:21:52.437218 11284 layer_factory.hpp:77] Creating layer out_x_sum
I0605 13:21:52.437223 11284 net.cpp:106] Creating Layer out_x_sum
I0605 13:21:52.437227 11284 net.cpp:454] out_x_sum <- out_conv_x
I0605 13:21:52.437233 11284 net.cpp:454] out_x_sum <- out_conv_ch_x
I0605 13:21:52.437239 11284 net.cpp:411] out_x_sum -> out_x_sum
I0605 13:21:52.437261 11284 net.cpp:150] Setting up out_x_sum
I0605 13:21:52.437266 11284 net.cpp:157] Top shape: 1 512 30 30 (460800)
I0605 13:21:52.437268 11284 net.cpp:165] Memory required for data: 1510866028
I0605 13:21:52.437273 11284 layer_factory.hpp:77] Creating layer mask_deconv2
I0605 13:21:52.437279 11284 net.cpp:106] Creating Layer mask_deconv2
I0605 13:21:52.437283 11284 net.cpp:454] mask_deconv2 <- out_x_sum
I0605 13:21:52.437288 11284 net.cpp:411] mask_deconv2 -> mask_deconv2
I0605 13:21:52.438088 11284 net.cpp:150] Setting up mask_deconv2
I0605 13:21:52.438094 11284 net.cpp:157] Top shape: 1 256 122 122 (3810304)
I0605 13:21:52.438107 11284 net.cpp:165] Memory required for data: 1526107244
I0605 13:21:52.438110 11284 layer_factory.hpp:77] Creating layer pool5_2_conv5
I0605 13:21:52.438117 11284 net.cpp:106] Creating Layer pool5_2_conv5
I0605 13:21:52.438119 11284 net.cpp:454] pool5_2_conv5 <- mask_deconv2
I0605 13:21:52.438124 11284 net.cpp:411] pool5_2_conv5 -> pool5_2_conv5
I0605 13:21:52.464589 11284 net.cpp:150] Setting up pool5_2_conv5
I0605 13:21:52.464607 11284 net.cpp:157] Top shape: 1 512 122 122 (7620608)
I0605 13:21:52.464609 11284 net.cpp:165] Memory required for data: 1556589676
I0605 13:21:52.464635 11284 layer_factory.hpp:77] Creating layer pool5_2_conv5_relu
I0605 13:21:52.464643 11284 net.cpp:106] Creating Layer pool5_2_conv5_relu
I0605 13:21:52.464658 11284 net.cpp:454] pool5_2_conv5_relu <- pool5_2_conv5
I0605 13:21:52.464664 11284 net.cpp:411] pool5_2_conv5_relu -> pool5_2_conv5_relu
I0605 13:21:52.464823 11284 net.cpp:150] Setting up pool5_2_conv5_relu
I0605 13:21:52.464829 11284 net.cpp:157] Top shape: 1 512 122 122 (7620608)
I0605 13:21:52.464841 11284 net.cpp:165] Memory required for data: 1587072108
I0605 13:21:52.464844 11284 layer_factory.hpp:77] Creating layer pool5_2_conv6
I0605 13:21:52.464864 11284 net.cpp:106] Creating Layer pool5_2_conv6
I0605 13:21:52.464867 11284 net.cpp:454] pool5_2_conv6 <- pool5_2_conv5_relu
I0605 13:21:52.464874 11284 net.cpp:411] pool5_2_conv6 -> pool5_2_conv6
I0605 13:21:52.515406 11284 net.cpp:150] Setting up pool5_2_conv6
I0605 13:21:52.515424 11284 net.cpp:157] Top shape: 1 512 122 122 (7620608)
I0605 13:21:52.515425 11284 net.cpp:165] Memory required for data: 1617554540
I0605 13:21:52.515442 11284 layer_factory.hpp:77] Creating layer pool5_2_conv6_relu
I0605 13:21:52.515451 11284 net.cpp:106] Creating Layer pool5_2_conv6_relu
I0605 13:21:52.515468 11284 net.cpp:454] pool5_2_conv6_relu <- pool5_2_conv6
I0605 13:21:52.515475 11284 net.cpp:411] pool5_2_conv6_relu -> pool5_2_conv6_relu
I0605 13:21:52.515996 11284 net.cpp:150] Setting up pool5_2_conv6_relu
I0605 13:21:52.516005 11284 net.cpp:157] Top shape: 1 512 122 122 (7620608)
I0605 13:21:52.516008 11284 net.cpp:165] Memory required for data: 1648036972
I0605 13:21:52.516011 11284 layer_factory.hpp:77] Creating layer mask_deconv3
I0605 13:21:52.516029 11284 net.cpp:106] Creating Layer mask_deconv3
I0605 13:21:52.516032 11284 net.cpp:454] mask_deconv3 <- pool5_2_conv6_relu
I0605 13:21:52.516037 11284 net.cpp:411] mask_deconv3 -> mask_deconv3
I0605 13:21:52.516422 11284 net.cpp:150] Setting up mask_deconv3
I0605 13:21:52.516428 11284 net.cpp:157] Top shape: 1 256 244 244 (15241216)
I0605 13:21:52.516430 11284 net.cpp:165] Memory required for data: 1709001836
I0605 13:21:52.516434 11284 layer_factory.hpp:77] Creating layer mask_score
I0605 13:21:52.516456 11284 net.cpp:106] Creating Layer mask_score
I0605 13:21:52.516460 11284 net.cpp:454] mask_score <- mask_deconv3
I0605 13:21:52.516465 11284 net.cpp:411] mask_score -> mask_score
I0605 13:21:52.517465 11284 net.cpp:150] Setting up mask_score
I0605 13:21:52.517473 11284 net.cpp:157] Top shape: 1 8 244 244 (476288)
I0605 13:21:52.517486 11284 net.cpp:165] Memory required for data: 1710906988
I0605 13:21:52.517491 11284 layer_factory.hpp:77] Creating layer loss_mask
I0605 13:21:52.517498 11284 net.cpp:106] Creating Layer loss_mask
I0605 13:21:52.517511 11284 net.cpp:454] loss_mask <- mask_score
I0605 13:21:52.517515 11284 net.cpp:454] loss_mask <- mask_targets
I0605 13:21:52.517521 11284 net.cpp:411] loss_mask -> loss_mask
…
